results_gmdgm/ssm_v1/dtcn/kl_v7/version_2/best_val_model.pt (torch, 34951 bytes, 120 tensors)

model.qy_x.dense(qy_x)_layer_00.weight f4 [4, 10]
0.1557775 0.04132141 -0.29367518 -0.076018974 -0.18247141 0.19547252 0.008759069 0.12325895
0.09624161 -0.018393626 -0.15646672 0.10048802 -0.20461574 -0.039657302 -0.055937707 -0.07795077
0.100969635 0.2084643 -0.21839058 -0.008798396 -0.062593475 0.35532826 -0.14361823 0.051849477
0.0055442112 -0.0940561 0.25527996 -0.093178734 -0.31429452 0.01985855 0.003419548 0.14083867
-0.24563916 -0.04698487 -0.2802615 -0.12823957 -0.12665713 0.20808423 0.13933724 0.032153357
00000000: 2384 1f3e a440 293d 985c 96be d6af 9bbd
00000010: c9d9 3abe f329 483e 3382 0f3c 306f fc3d
00000020: 521a c53d 3bae 96bc d038 20be aacc cd3d
00000030: ca86 51be b26f 22bd f01e 65bd a7a4 9fbd
00000040: 2bc9 ce3d aa77 553e c8a1 5fbe 2627 10bc
00000050: 0231 80bd 96ed b53e a810 13be 1e60 543d
00000060: 37ac b53b 7ca0 c0bd 0eb4 823e 7ed4 bebd
00000070: 36eb a0be 66ae a23c 7f1a 603b 0338 103e
00000080: d588 7bbe 3573 40bd 6f7e 8fbe 3c51 03be
00000090: 68b2 01be 0814 553e 6cae 0e3e 3db3 033d

model.qy_x.dense(qy_x)_layer_00.bias f4 [4]
0.23870677 -0.40238762 -0.25988606 -0.015667064
00000000: 8c6f 743e c005 cebe c90f 85be 3758 80bc

model.encoder.model.tcn_block_00.conv0.bias f4 [2]
-0.04459225 0.12677032
00000000: 5da6 36bd 14d0 013e

model.encoder.model.tcn_block_00.conv0.weight_g f4 [2, 1, 1]
0.68472505 0.6487452
00000000: 244a 2f3f 2a14 263f

model.encoder.model.tcn_block_00.conv0.weight_v f4 [2, 14, 9]
0.0056373896 0.019492064 0.09871681 0.08602765 0.008289051 0.032099918 0.05188149 0.05043206
0.01989342 -0.06941615 -0.01906158 -0.13184346 -0.049390264 -0.10217705 -0.090164214 -0.05445574
0.002716166 0.010126968 -0.052412312 -0.007538198 -0.035034325 -0.034898356 -0.018967489 -0.029192803
0.037488632 0.030882813 -0.017492678 0.102312475 0.14762104 0.15914421 0.1588365 0.12265186
0.074928984 -0.014746506 0.05420672 0.006073987 -0.21786706 -0.04376655 -0.043897733 -0.16485073
-0.06286177 -0.08051585 -0.06797331 -0.09462988 -0.027037049 0.056617558 0.137385 0.1423176
0.1393761 0.09422167 -0.01847727 -0.006436396 0.060407724 0.032096516 0.06340286 0.05936704
0.12558384 0.10224913 0.032056253 0.04279862 -0.0022984399 0.05340804 0.01746067 -0.016261263
0.006476151 0.012565605 -0.015787033 0.03644058 -0.015653538 0.06540608 0.056713108 0.008890006
-0.014260904 0.0065684444 0.02728058 0.018947687 0.021069296 0.009250753 -0.037404366 0.0059688734
-0.071577296 -0.2088893 -0.15408494 -0.16027997 -0.12526862 -0.14456737 -0.08452609 -0.037653252
-0.091266006 -0.042847767 -0.021194085 -0.07034375 -0.044132415 -0.049208745 -0.024161821 -0.004854859
-0.004526301 -0.014706874 0.0088221915 -0.04174145 -0.08252032 -0.05569835 -0.011065287 -0.040897563
-0.07125325 -0.07881822 -0.093239546 -0.08111805 -0.042874947 -0.021790462 -0.038256872 -0.09262662
-0.015636878 -0.090326875 -0.049748667 -0.073368624 -0.05853398 -0.06082242 -0.08786492 -0.092830904
-0.06625158 -0.05311529 -0.08094743 -0.03530908 -0.0979664 -0.05822552 0.046472374 -0.034682058
0.047099296 0.015368651 -0.055214796 0.03490344 -0.008500526 -0.028333727 0.04498056 -0.05107593
0.0121256765 -0.01041387 0.036543254 0.014454167 0.025659503 0.015469893 -0.013709875 -0.008650213
-0.054447774 0.056094274 0.05062074 0.03365923 -0.027564233 0.017106794 -0.050930806 -0.020161668
-0.016874345 0.059009172 0.002217586 0.035073295 0.028144227 0.06990364 -0.028572217 -0.033744268
-0.024532268 0.047815874 -0.05700523 0.023464656 -0.0055996273 -0.020161591 -0.02324506 -0.030867077
-0.009168559 -0.025104929 -0.007720407 0.01576048 -0.038990643 -0.022341846 0.06219819 -0.037016425
0.0059942026 0.07461186 0.027996039 0.0050322367 -0.028233511 0.054406203 -0.018541498 0.0066628503
0.0026139661 0.009409897 0.014167271 0.056517992 0.016968407 0.06540871 0.050338976 -0.018477583
0.04456637 -0.02399115 -0.0061720237 0.033797923 0.032682255 0.053930547 -0.03187812 -0.02720744
0.0046635163 -0.07037074 0.021556955 -0.063661724 -0.007018675 -0.022296548 -0.04385662 -0.01760659
0.026717579 -0.04032469 -0.05950273 -0.04107773 -0.07798579 0.01687631 -0.037980676 -0.04575574
0.19877027 0.22270232 0.2093163 0.21800093 0.20700046 0.15322828 0.17308566 0.1980757
0.19407636 0.16781636 0.15035431 0.1770157 0.10411388 0.19231796 0.18219958 0.124419644
0.19895591 0.15781991 0.16676219 0.19844793 0.17954105 0.14184076 0.13342805 0.20328708
0.18170597 0.21196264 0.17727295 0.18385577 0.16785292 0.18560366 0.11095253 0.18165526
0.1851226 0.16458416 0.16944581 0.138795
00000000: dab9 b83b d2ad 9f3c 0a2c ca3d 442f b03d
00000010: cdce 073c 347b 033d af81 543d d991 4e3d
00000020: 87f7 a23c 0e2a 8ebd 0827 9cbc f901 07be
00000030: 724d 4abd 3442 d1bd 04a8 b8bd fb0c 5fbd
00000040: b401 323b 95eb 253c 4bae 56bd fd02 f7bb
00000050: 2780 0fbd 94f1 0ebd b561 9bbc bf25 efbc
00000060: ae8d 193d f4fd fc3c ce4c 8fbc 3489 d13d
00000070: f829 173e b3f6 223e 09a6 223e e630 fb3d
00000080: 5e74 993d 549b 71bc de07 5e3d 4c08 c73b
00000090: 8b18 5fbe 8e44 33bd 1cce 33bd a1ce 28be
000000a0: acbd 80bd 7ee5 a4bd 9735 8bbd 4fcd c1bd
000000b0: cd7c ddbc d0e7 673d a7ae 0c3e b4bb 113e
000000c0: 9cb8 0e3e 4af7 c03d a55d 97bc 67e8 d2bb
000000d0: 176e 773d a377 033d 5cd9 813d da2a 733d
000000e0: 0d99 003e fe67 d13d 6b4d 033d 9b4d 2f3d
000000f0: 6ca1 16bb 64c2 5a3d ae09 8f3c 5736 85bc
00000100: e435 d43b f8df 4d3c cf53 81bc b842 153d
00000110: d93b 80bc 9ff3 853d 014c 683d 63a7 113c
00000120: 91a6 69bc 1b3c d73b 867b df3c 2e38 9b3c
00000130: 8499 ac3c 7890 173c 5235 19bd 8a96 c33b
00000140: 1e97 92bd 14e7 55be 71c8 1dbe 6f20 24be
00000150: 6b46 00be 7809 14be 041c adbd 4c3a 1abd
00000160: ace9 babd 2481 2fbd 389f adbc 6210 90bd
00000170: 31c4 34bd 1c8f 49bd 03ef c5bc 8215 9fbb
00000180: 5d51 94bb 1af5 70bc f48a 103c 15f9 2abd
00000190: 6a00 a9bd f423 64bd 2d4b 35bc 3484 27bd
000001a0: 39ed 91bd 726b a1bd 60f4 bebd 3821 a6bd
000001b0: a49d 2fbd e981 b2bc 3db3 1cbd 06b3 bdbd
000001c0: e918 80bc 4cfd b8bd 42c5 4bbd 4a42 96bd
000001d0: 54c1 6fbd ee20 79bd 86f2 b3bd 211e bebd
000001e0: e9ae 87bd 6b8f 59bd c4c7 a5bd 41a0 10bd
000001f0: 9ca2 c8bd e27d 6ebd d159 3e3d c60e 0ebd
00000200: 31eb 403d cbcc 7b3c e928 62bd e9f6 0e3d
00000210: ca45 0bbc 221c e8bc 893d 383d ff34 51bd
00000220: c6aa 463c f09e 2abc 61ae 153d 2cd1 6c3c
00000230: e133 d23c 6f75 7d3c 629f 60bc 9fb9 0dbc
00000240: a104 5fbd 1cc3 653d b157 4f3d 43de 093d
00000250: 63ce e1bc 8c23 8c3c d29c 50bd 152a a5bc
00000260: 113c 8abc 9ab3 713d eb54 113b 04a9 0f3d
00000270: b98e e63c a429 8f3d 4810 eabc 6e37 0abd
00000280: e5f7 c8bc 94da 433d 517e 69bd f338 c03c
00000290: 147d b7bb ec29 a5bc 6d6c bebc f4dc fcbc
000002a0: b937 16bc daa8 cdbc 78fb fcbb 1f1c 813c
000002b0: a7b4 1fbd 3f06 b7bc 87c3 7e3d 899e 17bd
000002c0: 046b c43b 1ace 983d f357 e53c 76e5 a43b
000002d0: f749 e7bc 0ad9 5e3d 57e4 97bc 0a54 da3b
000002e0: 134f 2b3b f82b 1a3c d71d 683c 697f 673d
000002f0: 5401 8b3c 00f5 853d 3e30 4e3d 4d5e 97bc
00000300: 3a8b 363d 1789 c4bc b03e cabb b16f 0a3d
00000310: d4dd 053d 47e6 5c3d a292 02bd 23e2 debc
00000320: 69d0 983b 891e 90bd 3698 b03c 1461 82bd
00000330: eafc e5bb 40a7 b6bc 00a3 33bd b23b 90bc
00000340: d3de da3c 812b 25bd 22b9 73bd 1f41 28bd
00000350: 04b7 9fbd 3040 8a3c a091 1bbd 5f6a 3bbd
00000360: 6f8a 4b3e 140c 643e 0357 563e a33b 5f3e
00000370: eef7 533e e0e7 1c3e 5e3d 313e 5bd4 4a3e
00000380: f4bb 463e 0dd8 2b3e 7bf6 193e 9b43 353e
00000390: a839 d53d 00ef 443e 8792 3a3e bacf fe3d
000003a0: 19bb 4b3e 8b9b 213e b5c3 2a3e ef35 4b3e
000003b0: 9cd9 373e b43e 113e 5da1 083e 7d2a 503e
000003c0: 2111 3a3e bc0c 593e 0a87 353e b044 3c3e
000003d0: a3e1 2b3e e30e 3e3e 143b e33d d603 3a3e
000003e0: c790 3d3e c088 283e 3483 2d3e 4720 0e3e

model.encoder.model.tcn_block_00.conv1.bias f4 [2]
-0.039367516 0.3973285
00000000: d53f 21bd a46e cb3e

model.encoder.model.tcn_block_00.conv1.weight_g f4 [2, 1, 1]
0.46296585 0.7162865
00000000: dc09 ed3e 8d5e 373f

model.encoder.model.tcn_block_00.conv1.weight_v f4 [2, 2, 9]
0.13746162 0.07297476 -0.037784446 0.13123639 -0.05961627 0.0670687 0.059519842 -0.12525588
0.045825023 0.09409806 0.09058838 -0.013452078 -0.16637412 -0.0088839205 0.10853872 -0.044875957
0.13134632 0.2209879 -0.08132202 0.024145313 0.11150792 0.08309388 0.10318126 0.124647364
-0.05828452 0.13394241 0.19114469 0.35633922 0.27336293 0.15185708 0.2057969 -0.007793584
-0.08989882 -0.108034864 0.21027344 0.15248114
00000000: bdc2 0c3e ca73 953d ddc3 1abd d562 063e
00000010: 3130 74bd 515b 893d 14cb 733d 1443 00be
00000020: 05b3 3b3d 7cb6 c03d 6786 b93d 1b66 5cbc
00000030: fa5d 2abe dd8d 11bc 8c49 de3d dacf 37bd
00000040: a67f 063e a74a 623e 298c a6bd 64cc c53c
00000050: 445e e43d 202d aa3d b250 d33d 1e47 ff3d
00000060: c0bb 6ebd 3328 093e 6fbb 433e 1872 b63e
00000070: 3af6 8b3e 6c80 1b3e 6cbc 523e 5261 ffbb
00000080: df1c b8bd 6241 ddbd ec51 573e 0424 1c3e

model.encoder.model.tcn_block_00.block.conv1d_layer_0.bias f4 [2]
-0.04459225 0.12677032
00000000: 5da6 36bd 14d0 013e

model.encoder.model.tcn_block_00.block.conv1d_layer_0.weight_g f4 [2, 1, 1]
0.68472505 0.6487452
00000000: 244a 2f3f 2a14 263f

model.encoder.model.tcn_block_00.block.conv1d_layer_0.weight_v f4 [2, 14, 9]
0.0056373896 0.019492064 0.09871681 0.08602765 0.008289051 0.032099918 0.05188149 0.05043206
0.01989342 -0.06941615 -0.01906158 -0.13184346 -0.049390264 -0.10217705 -0.090164214 -0.05445574
0.002716166 0.010126968 -0.052412312 -0.007538198 -0.035034325 -0.034898356 -0.018967489 -0.029192803
0.037488632 0.030882813 -0.017492678 0.102312475 0.14762104 0.15914421 0.1588365 0.12265186
0.074928984 -0.014746506 0.05420672 0.006073987 -0.21786706 -0.04376655 -0.043897733 -0.16485073
-0.06286177 -0.08051585 -0.06797331 -0.09462988 -0.027037049 0.056617558 0.137385 0.1423176
0.1393761 0.09422167 -0.01847727 -0.006436396 0.060407724 0.032096516 0.06340286 0.05936704
0.12558384 0.10224913 0.032056253 0.04279862 -0.0022984399 0.05340804 0.01746067 -0.016261263
0.006476151 0.012565605 -0.015787033 0.03644058 -0.015653538 0.06540608 0.056713108 0.008890006
-0.014260904 0.0065684444 0.02728058 0.018947687 0.021069296 0.009250753 -0.037404366 0.0059688734
-0.071577296 -0.2088893 -0.15408494 -0.16027997 -0.12526862 -0.14456737 -0.08452609 -0.037653252
-0.091266006 -0.042847767 -0.021194085 -0.07034375 -0.044132415 -0.049208745 -0.024161821 -0.004854859
-0.004526301 -0.014706874 0.0088221915 -0.04174145 -0.08252032 -0.05569835 -0.011065287 -0.040897563
-0.07125325 -0.07881822 -0.093239546 -0.08111805 -0.042874947 -0.021790462 -0.038256872 -0.09262662
-0.015636878 -0.090326875 -0.049748667 -0.073368624 -0.05853398 -0.06082242 -0.08786492 -0.092830904
-0.06625158 -0.05311529 -0.08094743 -0.03530908 -0.0979664 -0.05822552 0.046472374 -0.034682058
0.047099296 0.015368651 -0.055214796 0.03490344 -0.008500526 -0.028333727 0.04498056 -0.05107593
0.0121256765 -0.01041387 0.036543254 0.014454167 0.025659503 0.015469893 -0.013709875 -0.008650213
-0.054447774 0.056094274 0.05062074 0.03365923 -0.027564233 0.017106794 -0.050930806 -0.020161668
-0.016874345 0.059009172 0.002217586 0.035073295 0.028144227 0.06990364 -0.028572217 -0.033744268
-0.024532268 0.047815874 -0.05700523 0.023464656 -0.0055996273 -0.020161591 -0.02324506 -0.030867077
-0.009168559 -0.025104929 -0.007720407 0.01576048 -0.038990643 -0.022341846 0.06219819 -0.037016425
0.0059942026 0.07461186 0.027996039 0.0050322367 -0.028233511 0.054406203 -0.018541498 0.0066628503
0.0026139661 0.009409897 0.014167271 0.056517992 0.016968407 0.06540871 0.050338976 -0.018477583
0.04456637 -0.02399115 -0.0061720237 0.033797923 0.032682255 0.053930547 -0.03187812 -0.02720744
0.0046635163 -0.07037074 0.021556955 -0.063661724 -0.007018675 -0.022296548 -0.04385662 -0.01760659
0.026717579 -0.04032469 -0.05950273 -0.04107773 -0.07798579 0.01687631 -0.037980676 -0.04575574
0.19877027 0.22270232 0.2093163 0.21800093 0.20700046 0.15322828 0.17308566 0.1980757
0.19407636 0.16781636 0.15035431 0.1770157 0.10411388 0.19231796 0.18219958 0.124419644
0.19895591 0.15781991 0.16676219 0.19844793 0.17954105 0.14184076 0.13342805 0.20328708
0.18170597 0.21196264 0.17727295 0.18385577 0.16785292 0.18560366 0.11095253 0.18165526
0.1851226 0.16458416 0.16944581 0.138795
00000000: dab9 b83b d2ad 9f3c 0a2c ca3d 442f b03d
00000010: cdce 073c 347b 033d af81 543d d991 4e3d
00000020: 87f7 a23c 0e2a 8ebd 0827 9cbc f901 07be
00000030: 724d 4abd 3442 d1bd 04a8 b8bd fb0c 5fbd
00000040: b401 323b 95eb 253c 4bae 56bd fd02 f7bb
00000050: 2780 0fbd 94f1 0ebd b561 9bbc bf25 efbc
00000060: ae8d 193d f4fd fc3c ce4c 8fbc 3489 d13d
00000070: f829 173e b3f6 223e 09a6 223e e630 fb3d
00000080: 5e74 993d 549b 71bc de07 5e3d 4c08 c73b
00000090: 8b18 5fbe 8e44 33bd 1cce 33bd a1ce 28be
000000a0: acbd 80bd 7ee5 a4bd 9735 8bbd 4fcd c1bd
000000b0: cd7c ddbc d0e7 673d a7ae 0c3e b4bb 113e
000000c0: 9cb8 0e3e 4af7 c03d a55d 97bc 67e8 d2bb
000000d0: 176e 773d a377 033d 5cd9 813d da2a 733d
000000e0: 0d99 003e fe67 d13d 6b4d 033d 9b4d 2f3d
000000f0: 6ca1 16bb 64c2 5a3d ae09 8f3c 5736 85bc
00000100: e435 d43b f8df 4d3c cf53 81bc b842 153d
00000110: d93b 80bc 9ff3 853d 014c 683d 63a7 113c
00000120: 91a6 69bc 1b3c d73b 867b df3c 2e38 9b3c
00000130: 8499 ac3c 7890 173c 5235 19bd 8a96 c33b
00000140: 1e97 92bd 14e7 55be 71c8 1dbe 6f20 24be
00000150: 6b46 00be 7809 14be 041c adbd 4c3a 1abd
00000160: ace9 babd 2481 2fbd 389f adbc 6210 90bd
00000170: 31c4 34bd 1c8f 49bd 03ef c5bc 8215 9fbb
00000180: 5d51 94bb 1af5 70bc f48a 103c 15f9 2abd
00000190: 6a00 a9bd f423 64bd 2d4b 35bc 3484 27bd
000001a0: 39ed 91bd 726b a1bd 60f4 bebd 3821 a6bd
000001b0: a49d 2fbd e981 b2bc 3db3 1cbd 06b3 bdbd
000001c0: e918 80bc 4cfd b8bd 42c5 4bbd 4a42 96bd
000001d0: 54c1 6fbd ee20 79bd 86f2 b3bd 211e bebd
000001e0: e9ae 87bd 6b8f 59bd c4c7 a5bd 41a0 10bd
000001f0: 9ca2 c8bd e27d 6ebd d159 3e3d c60e 0ebd
00000200: 31eb 403d cbcc 7b3c e928 62bd e9f6 0e3d
00000210: ca45 0bbc 221c e8bc 893d 383d ff34 51bd
00000220: c6aa 463c f09e 2abc 61ae 153d 2cd1 6c3c
00000230: e133 d23c 6f75 7d3c 629f 60bc 9fb9 0dbc
00000240: a104 5fbd 1cc3 653d b157 4f3d 43de 093d
00000250: 63ce e1bc 8c23 8c3c d29c 50bd 152a a5bc
00000260: 113c 8abc 9ab3 713d eb54 113b 04a9 0f3d
00000270: b98e e63c a429 8f3d 4810 eabc 6e37 0abd
00000280: e5f7 c8bc 94da 433d 517e 69bd f338 c03c
00000290: 147d b7bb ec29 a5bc 6d6c bebc f4dc fcbc
000002a0: b937 16bc daa8 cdbc 78fb fcbb 1f1c 813c
000002b0: a7b4 1fbd 3f06 b7bc 87c3 7e3d 899e 17bd
000002c0: 046b c43b 1ace 983d f357 e53c 76e5 a43b
000002d0: f749 e7bc 0ad9 5e3d 57e4 97bc 0a54 da3b
000002e0: 134f 2b3b f82b 1a3c d71d 683c 697f 673d
000002f0: 5401 8b3c 00f5 853d 3e30 4e3d 4d5e 97bc
00000300: 3a8b 363d 1789 c4bc b03e cabb b16f 0a3d
00000310: d4dd 053d 47e6 5c3d a292 02bd 23e2 debc
00000320: 69d0 983b 891e 90bd 3698 b03c 1461 82bd
00000330: eafc e5bb 40a7 b6bc 00a3 33bd b23b 90bc
00000340: d3de da3c 812b 25bd 22b9 73bd 1f41 28bd
00000350: 04b7 9fbd 3040 8a3c a091 1bbd 5f6a 3bbd
00000360: 6f8a 4b3e 140c 643e 0357 563e a33b 5f3e
00000370: eef7 533e e0e7 1c3e 5e3d 313e 5bd4 4a3e
00000380: f4bb 463e 0dd8 2b3e 7bf6 193e 9b43 353e
00000390: a839 d53d 00ef 443e 8792 3a3e bacf fe3d
000003a0: 19bb 4b3e 8b9b 213e b5c3 2a3e ef35 4b3e
000003b0: 9cd9 373e b43e 113e 5da1 083e 7d2a 503e
000003c0: 2111 3a3e bc0c 593e 0a87 353e b044 3c3e
000003d0: a3e1 2b3e e30e 3e3e 143b e33d d603 3a3e
000003e0: c790 3d3e c088 283e 3483 2d3e 4720 0e3e

model.encoder.model.tcn_block_00.block.conv1d_layer_1.bias f4 [2]
-0.039367516 0.3973285
00000000: d53f 21bd a46e cb3e

model.encoder.model.tcn_block_00.block.conv1d_layer_1.weight_g f4 [2, 1, 1]
0.46296585 0.7162865
00000000: dc09 ed3e 8d5e 373f

model.encoder.model.tcn_block_00.block.conv1d_layer_1.weight_v f4 [2, 2, 9]
0.13746162 0.07297476 -0.037784446 0.13123639 -0.05961627 0.0670687 0.059519842 -0.12525588
0.045825023 0.09409806 0.09058838 -0.013452078 -0.16637412 -0.0088839205 0.10853872 -0.044875957
0.13134632 0.2209879 -0.08132202 0.024145313 0.11150792 0.08309388 0.10318126 0.124647364
-0.05828452 0.13394241 0.19114469 0.35633922 0.27336293 0.15185708 0.2057969 -0.007793584
-0.08989882 -0.108034864 0.21027344 0.15248114
00000000: bdc2 0c3e ca73 953d ddc3 1abd d562 063e
00000010: 3130 74bd 515b 893d 14cb 733d 1443 00be
00000020: 05b3 3b3d 7cb6 c03d 6786 b93d 1b66 5cbc
00000030: fa5d 2abe dd8d 11bc 8c49 de3d dacf 37bd
00000040: a67f 063e a74a 623e 298c a6bd 64cc c53c
00000050: 445e e43d 202d aa3d b250 d33d 1e47 ff3d
00000060: c0bb 6ebd 3328 093e 6fbb 433e 1872 b63e
00000070: 3af6 8b3e 6c80 1b3e 6cbc 523e 5261 ffbb
00000080: df1c b8bd 6241 ddbd ec51 573e 0424 1c3e

model.encoder.model.tcn_block_00.downsample.weight f4 [2, 14, 1]
-0.41382188 0.3729957 0.36892354 -0.1454565 0.019218484 -0.34554198 0.24107939 0.42407453
-0.4285729 0.22591452 0.50004816 0.5273946 0.50751734 0.5451284 0.40422702 -0.42133936
-0.3319906 0.3869698 -0.27449983 0.4236201 0.08556156 -0.26016292 0.32458693 -0.4017384
0.5456774 0.42531827 0.37866053 0.47163963
00000000: 76e0 d3be 4bf9 be3e 8ce3 bc3e 8cf2 14be
00000010: 1570 9d3c e1ea b0be 84dd 763e 4c20 d93e
00000020: e86d dbbe 2356 673e 2803 003f 5503 073f
00000030: a8ec 013f 898d 0b3f d8f6 ce3e cbb9 d7be
00000040: acfa a9be e820 c63e 3e8b 8cbe bce4 d83e
00000050: e63a af3d 1334 85be 4230 a63e a8b0 cdbe
00000060: 84b1 0b3f 51c3 d93e cbdf c13e c07a f13e

model.encoder.model.tcn_block_00.downsample.bias f4 [2]
0.6988932 0.74014974
00000000: aaea 323f 747a 3d3f

model.encoder.model.tcn_block_01.conv0.bias f4 [2]
0.13810788 0.3131384
00000000: 276c 0d3e ad53 a03e

model.encoder.model.tcn_block_01.conv0.weight_g f4 [2, 1, 1]
0.67704123 0.6380519
00000000: 9352 2d3f 5f57 233f

model.encoder.model.tcn_block_01.conv0.weight_v f4 [2, 2, 9]
0.19744712 0.2362675 0.104439266 0.120784305 -0.09688684 0.072623536 -0.044003442 -0.19139972
-0.14834492 -0.0640622 -0.0934798 0.092526466 0.22664845 -0.019221652 0.11433722 0.19832581
0.33769387 0.0006786855 -0.031233985 -0.08852242 -0.18871234 -0.08522159 -0.035317384 -0.060472924
-0.15405218 -0.17187011 -0.25245917 0.15404095 -0.04756428 -0.1044132 0.06754284 0.13688624
-0.17954782 0.118855685 0.006592681 -0.19668569
00000000: 942f 4a3e 1cf0 713e 41e4 d53d c35d f73d
00000010: 9c6c c6bd a6bb 943d f43c 34bd 4afe 43be
00000020: bbe7 17be 0b33 83bd 5672 bfbd 847e bd3d
00000030: 8816 683e ba76 9dbc a229 ea3d ec15 4b3e
00000040: 36e6 ac3e d0e9 313a 6ade ffbc 3e4b b5bd
00000050: cf3d 41be a888 aebd f6a8 10bd 75b2 77bd
00000060: dbbf 1dbe b8fe 2fbe 5442 81be e9bc 1d3e
00000070: c3d2 42bd 96d6 d5bd e753 8a3d e82b 0c3e
00000080: 62db 37be 9c6a f33d 6b07 d83b f967 49be

model.encoder.model.tcn_block_01.conv1.bias f4 [2]
-0.05179565 0.5116906
00000000: ad27 54bd 28fe 023f

model.encoder.model.tcn_block_01.conv1.weight_g f4 [2, 1, 1]
0.53751147 0.67558956
00000000: 5a9a 093f 70f3 2c3f

model.encoder.model.tcn_block_01.conv1.weight_v f4 [2, 2, 9]
-0.1791708 -0.058772843 0.08424492 -0.20333925 0.14555298 0.13270032 0.16264693 -0.14146945
0.26382297 -0.15529397 0.25521365 -0.22542098 -0.18703918 0.20078266 0.08585573 0.09588392
-0.054990236 -0.010972667 0.0729776 -0.06982768 0.14604276 0.1329081 0.080886774 0.069343716
0.058242097 0.010178824 -0.04367335 0.16684419 0.09830205 0.08328233 0.22226979 0.23495051
0.26099983 0.17613469 0.24184081 -0.012495189
00000000: 8d78 37be cbbb 70bd 9a88 ac3d 2a38 50be
00000010: d70b 153e 98e2 073e eb8c 263e 5edd 10be
00000020: ce13 873e 6205 1fbe 5dab 823e c2d4 66be
00000030: 3387 3fbe f899 4d3e 21d5 af3d ca5e c43d
00000040: 713d 61bd b3c6 33bc 4875 953d d101 8fbd
00000050: 3c8c 153e 1019 083e f7a7 a53d 1404 8e3d
00000060: 448f 6e3d 15c5 263c d4e2 32bd 34d9 2a3e
00000070: 9652 c93d ed8f aa3d b19a 633e de96 703e
00000080: c5a1 853e a75c 343e 1ea5 773e 9fb8 4cbc

model.encoder.model.tcn_block_01.block.conv1d_layer_0.bias f4 [2]
0.13810788 0.3131384
00000000: 276c 0d3e ad53 a03e

model.encoder.model.tcn_block_01.block.conv1d_layer_0.weight_g f4 [2, 1, 1]
0.67704123 0.6380519
00000000: 9352 2d3f 5f57 233f

model.encoder.model.tcn_block_01.block.conv1d_layer_0.weight_v f4 [2, 2, 9]
0.19744712 0.2362675 0.104439266 0.120784305 -0.09688684 0.072623536 -0.044003442 -0.19139972
-0.14834492 -0.0640622 -0.0934798 0.092526466 0.22664845 -0.019221652 0.11433722 0.19832581
0.33769387 0.0006786855 -0.031233985 -0.08852242 -0.18871234 -0.08522159 -0.035317384 -0.060472924
-0.15405218 -0.17187011 -0.25245917 0.15404095 -0.04756428 -0.1044132 0.06754284 0.13688624
-0.17954782 0.118855685 0.006592681 -0.19668569
00000000: 942f 4a3e 1cf0 713e 41e4 d53d c35d f73d
00000010: 9c6c c6bd a6bb 943d f43c 34bd 4afe 43be
00000020: bbe7 17be 0b33 83bd 5672 bfbd 847e bd3d
00000030: 8816 683e ba76 9dbc a229 ea3d ec15 4b3e
00000040: 36e6 ac3e d0e9 313a 6ade ffbc 3e4b b5bd
00000050: cf3d 41be a888 aebd f6a8 10bd 75b2 77bd
00000060: dbbf 1dbe b8fe 2fbe 5442 81be e9bc 1d3e
00000070: c3d2 42bd 96d6 d5bd e753 8a3d e82b 0c3e
00000080: 62db 37be 9c6a f33d 6b07 d83b f967 49be

model.encoder.model.tcn_block_01.block.conv1d_layer_1.bias f4 [2]
-0.05179565 0.5116906
00000000: ad27 54bd 28fe 023f

model.encoder.model.tcn_block_01.block.conv1d_layer_1.weight_g f4 [2, 1, 1]
0.53751147 0.67558956
00000000: 5a9a 093f 70f3 2c3f

model.encoder.model.tcn_block_01.block.conv1d_layer_1.weight_v f4 [2, 2, 9]
-0.1791708 -0.058772843 0.08424492 -0.20333925 0.14555298 0.13270032 0.16264693 -0.14146945
0.26382297 -0.15529397 0.25521365 -0.22542098 -0.18703918 0.20078266 0.08585573 0.09588392
-0.054990236 -0.010972667 0.0729776 -0.06982768 0.14604276 0.1329081 0.080886774 0.069343716
0.058242097 0.010178824 -0.04367335 0.16684419 0.09830205 0.08328233 0.22226979 0.23495051
0.26099983 0.17613469 0.24184081 -0.012495189
00000000: 8d78 37be cbbb 70bd 9a88 ac3d 2a38 50be
00000010: d70b 153e 98e2 073e eb8c 263e 5edd 10be
00000020: ce13 873e 6205 1fbe 5dab 823e c2d4 66be
00000030: 3387 3fbe f899 4d3e 21d5 af3d ca5e c43d
00000040: 713d 61bd b3c6 33bc 4875 953d d101 8fbd
00000050: 3c8c 153e 1019 083e f7a7 a53d 1404 8e3d
00000060: 448f 6e3d 15c5 263c d4e2 32bd 34d9 2a3e
00000070: 9652 c93d ed8f aa3d b19a 633e de96 703e
00000080: c5a1 853e a75c 343e 1ea5 773e 9fb8 4cbc

model.qz_xy_mean.dense(qz_xy_mean)_layer_00.weight f4 [2, 2]
0.3622758 -0.16369615 -0.48502427 0.041240368
00000000: 377c b93e f79f 27be 1a55 f8be a9eb 283d

model.qz_xy_mean.dense(qz_xy_mean)_layer_00.bias f4 [2]
0.3370977 0.31174725
00000000: 1298 ac3e 569d 9f3e

model.qz_xy_logvar.dense(qz_xy_logvar)_layer_00.weight f4 [2, 2]
-1.0721878 -0.7097304 -0.5665577 -0.34597018
00000000: 733d 89bf e4b0 35bf ed09 11bf 0123 b1be

model.qz_xy_logvar.dense(qz_xy_logvar)_layer_00.bias f4 [2]
0.18821259 -0.98868114
00000000: cdba 403e 351a 7dbf

model.py_t_probs.dense(py_t_probs)_layer_00.weight f4 [4, 2]
-0.20997722 -0.030741982 0.35089743 -0.3333192 0.41595155 -0.34482107 0.29431957 0.07316917
00000000: 4504 57be 9cd6 fbbc d4a8 b33e d0a8 aabe
00000010: 9af7 d43e 638c b0be 0eb1 963e b8d9 953d

model.py_t_probs.dense(py_t_probs)_layer_00.bias f4 [4]
0.5964584 -0.48444656 -0.37056077 0.22543561
00000000: 7fb1 183f 6109 f8be 24ba bdbe 98d8 663e

model.pz_t_mean.dense(pz_t_mean)_layer_00.weight f4 [8, 2]
1.0132637 0.04473576 -0.16829924 0.7738977 0.98424083 0.001062044 -0.26297212 0.6875995
0.9785224 0.00053492456 -0.2721635 0.67827094 0.99591285 0.020581597 -0.21781892 0.7274504
00000000: a0b2 813f d83c 373d a356 2cbe 291e 463f
00000010: 35f7 7b3f 4834 8b3a 48a4 86be 8506 303f
00000020: 7280 7a3f 2e3a 0c3a 0459 8bbe 2aa3 2d3f
00000030: 25f4 7e3f bd9a a83c ec0b 5fbe 303a 3a3f

model.pz_t_mean.dense(pz_t_mean)_layer_00.bias f4 [8]
0.014743527 -0.11386421 0.017842581 -0.16729404 0.01501947 -0.16347545 0.02422827 -0.148733
00000000: d68e 713c a431 e9bd 9b2a 923c 214f 2bbe
00000010: 3914 763c 1c66 27be 5d7a c63c 774d 18be

model.pz_t_logvar.dense(pz_t_logvar)_layer_00.weight f4 [2, 4]
-1.176159 -1.2106154 -1.5315367 -1.1826568 -0.7936481 -1.3727688 -1.3777783 -1.0231841
00000000: 618c 96bf 72f5 9abf 6509 c4bf 4c61 97bf
00000010: 862c 4bbf e3b6 afbf 0a5b b0bf b2f7 82bf

model.pz_t_logvar.dense(pz_t_logvar)_layer_00.bias f4 [2]
-0.88994646 -1.3533037
00000000: 88d3 63bf 0e39 adbf

model.decoder.dense(decoder)_layer_00.weight f4 [10, 2]
-0.36981273 0.38498875 0.47703028 -0.2269744 0.62750953 -0.06566027 -0.68267316 -0.39984575
0.50701785 0.5672635 -0.62036234 0.041215595 -0.2440338 -0.7283578 0.21557151 -0.51012146
-0.46373212 0.24649584 0.16710348 -0.28294057
00000000: 1858 bdbe 3f1d c53e 503d f43e fa6b 68be
00000010: 77a4 203f e478 86bd abc3 2ebf 95b8 ccbe
00000020: eccb 013f 2e38 113f 11d0 1ebf afd1 283d
00000030: ffe3 79be a875 3abf c7be 5c3e 5297 02bf
00000040: 4c6e edbe 6869 7c3e 2d1d 2b3e 96dd 90be

model.decoder.dense(decoder)_layer_00.bias f4 [10]
0.42395663 -0.31690767 -0.27815613 -0.014201479 0.17528558 0.2687716 -0.3944542 -0.45320657
0.3517892 -0.2432457
00000000: d810 d93e b941 a2be 7b6a 8ebe 52ad 68bc
00000010: 107e 333e 6e9c 893e e7f5 c9be b10a e8be
00000020: b71d b43e 6715 79be

inference.model.qy_x.dense(qy_x)_layer_00.weight f4 [4, 10]
0.1557775 0.04132141 -0.29367518 -0.076018974 -0.18247141 0.19547252 0.008759069 0.12325895
0.09624161 -0.018393626 -0.15646672 0.10048802 -0.20461574 -0.039657302 -0.055937707 -0.07795077
0.100969635 0.2084643 -0.21839058 -0.008798396 -0.062593475 0.35532826 -0.14361823 0.051849477
0.0055442112 -0.0940561 0.25527996 -0.093178734 -0.31429452 0.01985855 0.003419548 0.14083867
-0.24563916 -0.04698487 -0.2802615 -0.12823957 -0.12665713 0.20808423 0.13933724 0.032153357
00000000: 2384 1f3e a440 293d 985c 96be d6af 9bbd
00000010: c9d9 3abe f329 483e 3382 0f3c 306f fc3d
00000020: 521a c53d 3bae 96bc d038 20be aacc cd3d
00000030: ca86 51be b26f 22bd f01e 65bd a7a4 9fbd
00000040: 2bc9 ce3d aa77 553e c8a1 5fbe 2627 10bc
00000050: 0231 80bd 96ed b53e a810 13be 1e60 543d
00000060: 37ac b53b 7ca0 c0bd 0eb4 823e 7ed4 bebd
00000070: 36eb a0be 66ae a23c 7f1a 603b 0338 103e
00000080: d588 7bbe 3573 40bd 6f7e 8fbe 3c51 03be
00000090: 68b2 01be 0814 553e 6cae 0e3e 3db3 033d

inference.model.qy_x.dense(qy_x)_layer_00.bias f4 [4]
0.23870677 -0.40238762 -0.25988606 -0.015667064
00000000: 8c6f 743e c005 cebe c90f 85be 3758 80bc

inference.model.encoder.model.tcn_block_00.conv0.bias f4 [2]
-0.04459225 0.12677032
00000000: 5da6 36bd 14d0 013e

inference.model.encoder.model.tcn_block_00.conv0.weight_g f4 [2, 1, 1]
0.68472505 0.6487452
00000000: 244a 2f3f 2a14 263f

inference.model.encoder.model.tcn_block_00.conv0.weight_v f4 [2, 14, 9]
0.0056373896 0.019492064 0.09871681 0.08602765 0.008289051 0.032099918 0.05188149 0.05043206
0.01989342 -0.06941615 -0.01906158 -0.13184346 -0.049390264 -0.10217705 -0.090164214 -0.05445574
0.002716166 0.010126968 -0.052412312 -0.007538198 -0.035034325 -0.034898356 -0.018967489 -0.029192803
0.037488632 0.030882813 -0.017492678 0.102312475 0.14762104 0.15914421 0.1588365 0.12265186
0.074928984 -0.014746506 0.05420672 0.006073987 -0.21786706 -0.04376655 -0.043897733 -0.16485073
-0.06286177 -0.08051585 -0.06797331 -0.09462988 -0.027037049 0.056617558 0.137385 0.1423176
0.1393761 0.09422167 -0.01847727 -0.006436396 0.060407724 0.032096516 0.06340286 0.05936704
0.12558384 0.10224913 0.032056253 0.04279862 -0.0022984399 0.05340804 0.01746067 -0.016261263
0.006476151 0.012565605 -0.015787033 0.03644058 -0.015653538 0.06540608 0.056713108 0.008890006
-0.014260904 0.0065684444 0.02728058 0.018947687 0.021069296 0.009250753 -0.037404366 0.0059688734
-0.071577296 -0.2088893 -0.15408494 -0.16027997 -0.12526862 -0.14456737 -0.08452609 -0.037653252
-0.091266006 -0.042847767 -0.021194085 -0.07034375 -0.044132415 -0.049208745 -0.024161821 -0.004854859
-0.004526301 -0.014706874 0.0088221915 -0.04174145 -0.08252032 -0.05569835 -0.011065287 -0.040897563
-0.07125325 -0.07881822 -0.093239546 -0.08111805 -0.042874947 -0.021790462 -0.038256872 -0.09262662
-0.015636878 -0.090326875 -0.049748667 -0.073368624 -0.05853398 -0.06082242 -0.08786492 -0.092830904
-0.06625158 -0.05311529 -0.08094743 -0.03530908 -0.0979664 -0.05822552 0.046472374 -0.034682058
0.047099296 0.015368651 -0.055214796 0.03490344 -0.008500526 -0.028333727 0.04498056 -0.05107593
0.0121256765 -0.01041387 0.036543254 0.014454167 0.025659503 0.015469893 -0.013709875 -0.008650213
-0.054447774 0.056094274 0.05062074 0.03365923 -0.027564233 0.017106794 -0.050930806 -0.020161668
-0.016874345 0.059009172 0.002217586 0.035073295 0.028144227 0.06990364 -0.028572217 -0.033744268
-0.024532268 0.047815874 -0.05700523 0.023464656 -0.0055996273 -0.020161591 -0.02324506 -0.030867077
-0.009168559 -0.025104929 -0.007720407 0.01576048 -0.038990643 -0.022341846 0.06219819 -0.037016425
0.0059942026 0.07461186 0.027996039 0.0050322367 -0.028233511 0.054406203 -0.018541498 0.0066628503
0.0026139661 0.009409897 0.014167271 0.056517992 0.016968407 0.06540871 0.050338976 -0.018477583
0.04456637 -0.02399115 -0.0061720237 0.033797923 0.032682255 0.053930547 -0.03187812 -0.02720744
0.0046635163 -0.07037074 0.021556955 -0.063661724 -0.007018675 -0.022296548 -0.04385662 -0.01760659
0.026717579 -0.04032469 -0.05950273 -0.04107773 -0.07798579 0.01687631 -0.037980676 -0.04575574
0.19877027 0.22270232 0.2093163 0.21800093 0.20700046 0.15322828 0.17308566 0.1980757
0.19407636 0.16781636 0.15035431 0.1770157 0.10411388 0.19231796 0.18219958 0.124419644
0.19895591 0.15781991 0.16676219 0.19844793 0.17954105 0.14184076 0.13342805 0.20328708
0.18170597 0.21196264 0.17727295 0.18385577 0.16785292 0.18560366 0.11095253 0.18165526
0.1851226 0.16458416 0.16944581 0.138795
00000000: dab9 b83b d2ad 9f3c 0a2c ca3d 442f b03d
00000010: cdce 073c 347b 033d af81 543d d991 4e3d
00000020: 87f7 a23c 0e2a 8ebd 0827 9cbc f901 07be
00000030: 724d 4abd 3442 d1bd 04a8 b8bd fb0c 5fbd
00000040: b401 323b 95eb 253c 4bae 56bd fd02 f7bb
00000050: 2780 0fbd 94f1 0ebd b561 9bbc bf25 efbc
00000060: ae8d 193d f4fd fc3c ce4c 8fbc 3489 d13d
00000070: f829 173e b3f6 223e 09a6 223e e630 fb3d
00000080: 5e74 993d 549b 71bc de07 5e3d 4c08 c73b
00000090: 8b18 5fbe 8e44 33bd 1cce 33bd a1ce 28be
000000a0: acbd 80bd 7ee5 a4bd 9735 8bbd 4fcd c1bd
000000b0: cd7c ddbc d0e7 673d a7ae 0c3e b4bb 113e
000000c0: 9cb8 0e3e 4af7 c03d a55d 97bc 67e8 d2bb
000000d0: 176e 773d a377 033d 5cd9 813d da2a 733d
000000e0: 0d99 003e fe67 d13d 6b4d 033d 9b4d 2f3d
000000f0: 6ca1 16bb 64c2 5a3d ae09 8f3c 5736 85bc
00000100: e435 d43b f8df 4d3c cf53 81bc b842 153d
00000110: d93b 80bc 9ff3 853d 014c 683d 63a7 113c
00000120: 91a6 69bc 1b3c d73b 867b df3c 2e38 9b3c
00000130: 8499 ac3c 7890 173c 5235 19bd 8a96 c33b
00000140: 1e97 92bd 14e7 55be 71c8 1dbe 6f20 24be
00000150: 6b46 00be 7809 14be 041c adbd 4c3a 1abd
00000160: ace9 babd 2481 2fbd 389f adbc 6210 90bd
00000170: 31c4 34bd 1c8f 49bd 03ef c5bc 8215 9fbb
00000180: 5d51 94bb 1af5 70bc f48a 103c 15f9 2abd
00000190: 6a00 a9bd f423 64bd 2d4b 35bc 3484 27bd
000001a0: 39ed 91bd 726b a1bd 60f4 bebd 3821 a6bd
000001b0: a49d 2fbd e981 b2bc 3db3 1cbd 06b3 bdbd
000001c0: e918 80bc 4cfd b8bd 42c5 4bbd 4a42 96bd
000001d0: 54c1 6fbd ee20 79bd 86f2 b3bd 211e bebd
000001e0: e9ae 87bd 6b8f 59bd c4c7 a5bd 41a0 10bd
000001f0: 9ca2 c8bd e27d 6ebd d159 3e3d c60e 0ebd
00000200: 31eb 403d cbcc 7b3c e928 62bd e9f6 0e3d
00000210: ca45 0bbc 221c e8bc 893d 383d ff34 51bd
00000220: c6aa 463c f09e 2abc 61ae 153d 2cd1 6c3c
00000230: e133 d23c 6f75 7d3c 629f 60bc 9fb9 0dbc
00000240: a104 5fbd 1cc3 653d b157 4f3d 43de 093d
00000250: 63ce e1bc 8c23 8c3c d29c 50bd 152a a5bc
00000260: 113c 8abc 9ab3 713d eb54 113b 04a9 0f3d
00000270: b98e e63c a429 8f3d 4810 eabc 6e37 0abd
00000280: e5f7 c8bc 94da 433d 517e 69bd f338 c03c
00000290: 147d b7bb ec29 a5bc 6d6c bebc f4dc fcbc
000002a0: b937 16bc daa8 cdbc 78fb fcbb 1f1c 813c
000002b0: a7b4 1fbd 3f06 b7bc 87c3 7e3d 899e 17bd
000002c0: 046b c43b 1ace 983d f357 e53c 76e5 a43b
000002d0: f749 e7bc 0ad9 5e3d 57e4 97bc 0a54 da3b
000002e0: 134f 2b3b f82b 1a3c d71d 683c 697f 673d
000002f0: 5401 8b3c 00f5 853d 3e30 4e3d 4d5e 97bc
00000300: 3a8b 363d 1789 c4bc b03e cabb b16f 0a3d
00000310: d4dd 053d 47e6 5c3d a292 02bd 23e2 debc
00000320: 69d0 983b 891e 90bd 3698 b03c 1461 82bd
00000330: eafc e5bb 40a7 b6bc 00a3 33bd b23b 90bc
00000340: d3de da3c 812b 25bd 22b9 73bd 1f41 28bd
00000350: 04b7 9fbd 3040 8a3c a091 1bbd 5f6a 3bbd
00000360: 6f8a 4b3e 140c 643e 0357 563e a33b 5f3e
00000370: eef7 533e e0e7 1c3e 5e3d 313e 5bd4 4a3e
00000380: f4bb 463e 0dd8 2b3e 7bf6 193e 9b43 353e
00000390: a839 d53d 00ef 443e 8792 3a3e bacf fe3d
000003a0: 19bb 4b3e 8b9b 213e b5c3 2a3e ef35 4b3e
000003b0: 9cd9 373e b43e 113e 5da1 083e 7d2a 503e
000003c0: 2111 3a3e bc0c 593e 0a87 353e b044 3c3e
000003d0: a3e1 2b3e e30e 3e3e 143b e33d d603 3a3e
000003e0: c790 3d3e c088 283e 3483 2d3e 4720 0e3e

inference.model.encoder.model.tcn_block_00.conv1.bias f4 [2]
-0.039367516 0.3973285
00000000: d53f 21bd a46e cb3e

inference.model.encoder.model.tcn_block_00.conv1.weight_g f4 [2, 1, 1]
0.46296585 0.7162865
00000000: dc09 ed3e 8d5e 373f

inference.model.encoder.model.tcn_block_00.conv1.weight_v f4 [2, 2, 9]
0.13746162 0.07297476 -0.037784446 0.13123639 -0.05961627 0.0670687 0.059519842 -0.12525588
0.045825023 0.09409806 0.09058838 -0.013452078 -0.16637412 -0.0088839205 0.10853872 -0.044875957
0.13134632 0.2209879 -0.08132202 0.024145313 0.11150792 0.08309388 0.10318126 0.124647364
-0.05828452 0.13394241 0.19114469 0.35633922 0.27336293 0.15185708 0.2057969 -0.007793584
-0.08989882 -0.108034864 0.21027344 0.15248114
00000000: bdc2 0c3e ca73 953d ddc3 1abd d562 063e
00000010: 3130 74bd 515b 893d 14cb 733d 1443 00be
00000020: 05b3 3b3d 7cb6 c03d 6786 b93d 1b66 5cbc
00000030: fa5d 2abe dd8d 11bc 8c49 de3d dacf 37bd
00000040: a67f 063e a74a 623e 298c a6bd 64cc c53c
00000050: 445e e43d 202d aa3d b250 d33d 1e47 ff3d
00000060: c0bb 6ebd 3328 093e 6fbb 433e 1872 b63e
00000070: 3af6 8b3e 6c80 1b3e 6cbc 523e 5261 ffbb
00000080: df1c b8bd 6241 ddbd ec51 573e 0424 1c3e

inference.model.encoder.model.tcn_block_00.block.conv1d_layer_0.bias f4 [2]
-0.04459225 0.12677032
00000000: 5da6 36bd 14d0 013e

inference.model.encoder.model.tcn_block_00.block.conv1d_layer_0.weight_g f4 [2, 1, 1]
0.68472505 0.6487452
00000000: 244a 2f3f 2a14 263f

inference.model.encoder.model.tcn_block_00.block.conv1d_layer_0.weight_v f4 [2, 14, 9]
0.0056373896 0.019492064 0.09871681 0.08602765 0.008289051 0.032099918 0.05188149 0.05043206
0.01989342 -0.06941615 -0.01906158 -0.13184346 -0.049390264 -0.10217705 -0.090164214 -0.05445574
0.002716166 0.010126968 -0.052412312 -0.007538198 -0.035034325 -0.034898356 -0.018967489 -0.029192803
0.037488632 0.030882813 -0.017492678 0.102312475 0.14762104 0.15914421 0.1588365 0.12265186
0.074928984 -0.014746506 0.05420672 0.006073987 -0.21786706 -0.04376655 -0.043897733 -0.16485073
-0.06286177 -0.08051585 -0.06797331 -0.09462988 -0.027037049 0.056617558 0.137385 0.1423176
0.1393761 0.09422167 -0.01847727 -0.006436396 0.060407724 0.032096516 0.06340286 0.05936704
0.12558384 0.10224913 0.032056253 0.04279862 -0.0022984399 0.05340804 0.01746067 -0.016261263
0.006476151 0.012565605 -0.015787033 0.03644058 -0.015653538 0.06540608 0.056713108 0.008890006
-0.014260904 0.0065684444 0.02728058 0.018947687 0.021069296 0.009250753 -0.037404366 0.0059688734
-0.071577296 -0.2088893 -0.15408494 -0.16027997 -0.12526862 -0.14456737 -0.08452609 -0.037653252
-0.091266006 -0.042847767 -0.021194085 -0.07034375 -0.044132415 -0.049208745 -0.024161821 -0.004854859
-0.004526301 -0.014706874 0.0088221915 -0.04174145 -0.08252032 -0.05569835 -0.011065287 -0.040897563
-0.07125325 -0.07881822 -0.093239546 -0.08111805 -0.042874947 -0.021790462 -0.038256872 -0.09262662
-0.015636878 -0.090326875 -0.049748667 -0.073368624 -0.05853398 -0.06082242 -0.08786492 -0.092830904
-0.06625158 -0.05311529 -0.08094743 -0.03530908 -0.0979664 -0.05822552 0.046472374 -0.034682058
0.047099296 0.015368651 -0.055214796 0.03490344 -0.008500526 -0.028333727 0.04498056 -0.05107593
0.0121256765 -0.01041387 0.036543254 0.014454167 0.025659503 0.015469893 -0.013709875 -0.008650213
-0.054447774 0.056094274 0.05062074 0.03365923 -0.027564233 0.017106794 -0.050930806 -0.020161668
-0.016874345 0.059009172 0.002217586 0.035073295 0.028144227 0.06990364 -0.028572217 -0.033744268
-0.024532268 0.047815874 -0.05700523 0.023464656 -0.0055996273 -0.020161591 -0.02324506 -0.030867077
-0.009168559 -0.025104929 -0.007720407 0.01576048 -0.038990643 -0.022341846 0.06219819 -0.037016425
0.0059942026 0.07461186 0.027996039 0.0050322367 -0.028233511 0.054406203 -0.018541498 0.0066628503
0.0026139661 0.009409897 0.014167271 0.056517992 0.016968407 0.06540871 0.050338976 -0.018477583
0.04456637 -0.02399115 -0.0061720237 0.033797923 0.032682255 0.053930547 -0.03187812 -0.02720744
0.0046635163 -0.07037074 0.021556955 -0.063661724 -0.007018675 -0.022296548 -0.04385662 -0.01760659
0.026717579 -0.04032469 -0.05950273 -0.04107773 -0.07798579 0.01687631 -0.037980676 -0.04575574
0.19877027 0.22270232 0.2093163 0.21800093 0.20700046 0.15322828 0.17308566 0.1980757
0.19407636 0.16781636 0.15035431 0.1770157 0.10411388 0.19231796 0.18219958 0.124419644
0.19895591 0.15781991 0.16676219 0.19844793 0.17954105 0.14184076 0.13342805 0.20328708
0.18170597 0.21196264 0.17727295 0.18385577 0.16785292 0.18560366 0.11095253 0.18165526
0.1851226 0.16458416 0.16944581 0.138795
00000000: dab9 b83b d2ad 9f3c 0a2c ca3d 442f b03d
00000010: cdce 073c 347b 033d af81 543d d991 4e3d
00000020: 87f7 a23c 0e2a 8ebd 0827 9cbc f901 07be
00000030: 724d 4abd 3442 d1bd 04a8 b8bd fb0c 5fbd
00000040: b401 323b 95eb 253c 4bae 56bd fd02 f7bb
00000050: 2780 0fbd 94f1 0ebd b561 9bbc bf25 efbc
00000060: ae8d 193d f4fd fc3c ce4c 8fbc 3489 d13d
00000070: f829 173e b3f6 223e 09a6 223e e630 fb3d
00000080: 5e74 993d 549b 71bc de07 5e3d 4c08 c73b
00000090: 8b18 5fbe 8e44 33bd 1cce 33bd a1ce 28be
000000a0: acbd 80bd 7ee5 a4bd 9735 8bbd 4fcd c1bd
000000b0: cd7c ddbc d0e7 673d a7ae 0c3e b4bb 113e
000000c0: 9cb8 0e3e 4af7 c03d a55d 97bc 67e8 d2bb
000000d0: 176e 773d a377 033d 5cd9 813d da2a 733d
000000e0: 0d99 003e fe67 d13d 6b4d 033d 9b4d 2f3d
000000f0: 6ca1 16bb 64c2 5a3d ae09 8f3c 5736 85bc
00000100: e435 d43b f8df 4d3c cf53 81bc b842 153d
00000110: d93b 80bc 9ff3 853d 014c 683d 63a7 113c
00000120: 91a6 69bc 1b3c d73b 867b df3c 2e38 9b3c
00000130: 8499 ac3c 7890 173c 5235 19bd 8a96 c33b
00000140: 1e97 92bd 14e7 55be 71c8 1dbe 6f20 24be
00000150: 6b46 00be 7809 14be 041c adbd 4c3a 1abd
00000160: ace9 babd 2481 2fbd 389f adbc 6210 90bd
00000170: 31c4 34bd 1c8f 49bd 03ef c5bc 8215 9fbb
00000180: 5d51 94bb 1af5 70bc f48a 103c 15f9 2abd
00000190: 6a00 a9bd f423 64bd 2d4b 35bc 3484 27bd
000001a0: 39ed 91bd 726b a1bd 60f4 bebd 3821 a6bd
000001b0: a49d 2fbd e981 b2bc 3db3 1cbd 06b3 bdbd
000001c0: e918 80bc 4cfd b8bd 42c5 4bbd 4a42 96bd
000001d0: 54c1 6fbd ee20 79bd 86f2 b3bd 211e bebd
000001e0: e9ae 87bd 6b8f 59bd c4c7 a5bd 41a0 10bd
000001f0: 9ca2 c8bd e27d 6ebd d159 3e3d c60e 0ebd
00000200: 31eb 403d cbcc 7b3c e928 62bd e9f6 0e3d
00000210: ca45 0bbc 221c e8bc 893d 383d ff34 51bd
00000220: c6aa 463c f09e 2abc 61ae 153d 2cd1 6c3c
00000230: e133 d23c 6f75 7d3c 629f 60bc 9fb9 0dbc
00000240: a104 5fbd 1cc3 653d b157 4f3d 43de 093d
00000250: 63ce e1bc 8c23 8c3c d29c 50bd 152a a5bc
00000260: 113c 8abc 9ab3 713d eb54 113b 04a9 0f3d
00000270: b98e e63c a429 8f3d 4810 eabc 6e37 0abd
00000280: e5f7 c8bc 94da 433d 517e 69bd f338 c03c
00000290: 147d b7bb ec29 a5bc 6d6c bebc f4dc fcbc
000002a0: b937 16bc daa8 cdbc 78fb fcbb 1f1c 813c
000002b0: a7b4 1fbd 3f06 b7bc 87c3 7e3d 899e 17bd
000002c0: 046b c43b 1ace 983d f357 e53c 76e5 a43b
000002d0: f749 e7bc 0ad9 5e3d 57e4 97bc 0a54 da3b
000002e0: 134f 2b3b f82b 1a3c d71d 683c 697f 673d
000002f0: 5401 8b3c 00f5 853d 3e30 4e3d 4d5e 97bc
00000300: 3a8b 363d 1789 c4bc b03e cabb b16f 0a3d
00000310: d4dd 053d 47e6 5c3d a292 02bd 23e2 debc
00000320: 69d0 983b 891e 90bd 3698 b03c 1461 82bd
00000330: eafc e5bb 40a7 b6bc 00a3 33bd b23b 90bc
00000340: d3de da3c 812b 25bd 22b9 73bd 1f41 28bd
00000350: 04b7 9fbd 3040 8a3c a091 1bbd 5f6a 3bbd
00000360: 6f8a 4b3e 140c 643e 0357 563e a33b 5f3e
00000370: eef7 533e e0e7 1c3e 5e3d 313e 5bd4 4a3e
00000380: f4bb 463e 0dd8 2b3e 7bf6 193e 9b43 353e
00000390: a839 d53d 00ef 443e 8792 3a3e bacf fe3d
000003a0: 19bb 4b3e 8b9b 213e b5c3 2a3e ef35 4b3e
000003b0: 9cd9 373e b43e 113e 5da1 083e 7d2a 503e
000003c0: 2111 3a3e bc0c 593e 0a87 353e b044 3c3e
000003d0: a3e1 2b3e e30e 3e3e 143b e33d d603 3a3e
000003e0: c790 3d3e c088 283e 3483 2d3e 4720 0e3e

inference.model.encoder.model.tcn_block_00.block.conv1d_layer_1.bias f4 [2]
-0.039367516 0.3973285
00000000: d53f 21bd a46e cb3e

inference.model.encoder.model.tcn_block_00.block.conv1d_layer_1.weight_g f4 [2, 1, 1]
0.46296585 0.7162865
00000000: dc09 ed3e 8d5e 373f

inference.model.encoder.model.tcn_block_00.block.conv1d_layer_1.weight_v f4 [2, 2, 9]
0.13746162 0.07297476 -0.037784446 0.13123639 -0.05961627 0.0670687 0.059519842 -0.12525588
0.045825023 0.09409806 0.09058838 -0.013452078 -0.16637412 -0.0088839205 0.10853872 -0.044875957
0.13134632 0.2209879 -0.08132202 0.024145313 0.11150792 0.08309388 0.10318126 0.124647364
-0.05828452 0.13394241 0.19114469 0.35633922 0.27336293 0.15185708 0.2057969 -0.007793584
-0.08989882 -0.108034864 0.21027344 0.15248114
00000000: bdc2 0c3e ca73 953d ddc3 1abd d562 063e
00000010: 3130 74bd 515b 893d 14cb 733d 1443 00be
00000020: 05b3 3b3d 7cb6 c03d 6786 b93d 1b66 5cbc
00000030: fa5d 2abe dd8d 11bc 8c49 de3d dacf 37bd
00000040: a67f 063e a74a 623e 298c a6bd 64cc c53c
00000050: 445e e43d 202d aa3d b250 d33d 1e47 ff3d
00000060: c0bb 6ebd 3328 093e 6fbb 433e 1872 b63e
00000070: 3af6 8b3e 6c80 1b3e 6cbc 523e 5261 ffbb
00000080: df1c b8bd 6241 ddbd ec51 573e 0424 1c3e

inference.model.encoder.model.tcn_block_00.downsample.weight f4 [2, 14, 1]
-0.41382188 0.3729957 0.36892354 -0.1454565 0.019218484 -0.34554198 0.24107939 0.42407453
-0.4285729 0.22591452 0.50004816 0.5273946 0.50751734 0.5451284 0.40422702 -0.42133936
-0.3319906 0.3869698 -0.27449983 0.4236201 0.08556156 -0.26016292 0.32458693 -0.4017384
0.5456774 0.42531827 0.37866053 0.47163963
00000000: 76e0 d3be 4bf9 be3e 8ce3 bc3e 8cf2 14be
00000010: 1570 9d3c e1ea b0be 84dd 763e 4c20 d93e
00000020: e86d dbbe 2356 673e 2803 003f 5503 073f
00000030: a8ec 013f 898d 0b3f d8f6 ce3e cbb9 d7be
00000040: acfa a9be e820 c63e 3e8b 8cbe bce4 d83e
00000050: e63a af3d 1334 85be 4230 a63e a8b0 cdbe
00000060: 84b1 0b3f 51c3 d93e cbdf c13e c07a f13e

inference.model.encoder.model.tcn_block_00.downsample.bias f4 [2]
0.6988932 0.74014974
00000000: aaea 323f 747a 3d3f

inference.model.encoder.model.tcn_block_01.conv0.bias f4 [2]
0.13810788 0.3131384
00000000: 276c 0d3e ad53 a03e

inference.model.encoder.model.tcn_block_01.conv0.weight_g f4 [2, 1, 1]
0.67704123 0.6380519
00000000: 9352 2d3f 5f57 233f

inference.model.encoder.model.tcn_block_01.conv0.weight_v f4 [2, 2, 9]
0.19744712 0.2362675 0.104439266 0.120784305 -0.09688684 0.072623536 -0.044003442 -0.19139972
-0.14834492 -0.0640622 -0.0934798 0.092526466 0.22664845 -0.019221652 0.11433722 0.19832581
0.33769387 0.0006786855 -0.031233985 -0.08852242 -0.18871234 -0.08522159 -0.035317384 -0.060472924
-0.15405218 -0.17187011 -0.25245917 0.15404095 -0.04756428 -0.1044132 0.06754284 0.13688624
-0.17954782 0.118855685 0.006592681 -0.19668569
00000000: 942f 4a3e 1cf0 713e 41e4 d53d c35d f73d
00000010: 9c6c c6bd a6bb 943d f43c 34bd 4afe 43be
00000020: bbe7 17be 0b33 83bd 5672 bfbd 847e bd3d
00000030: 8816 683e ba76 9dbc a229 ea3d ec15 4b3e
00000040: 36e6 ac3e d0e9 313a 6ade ffbc 3e4b b5bd
00000050: cf3d 41be a888 aebd f6a8 10bd 75b2 77bd
00000060: dbbf 1dbe b8fe 2fbe 5442 81be e9bc 1d3e
00000070: c3d2 42bd 96d6 d5bd e753 8a3d e82b 0c3e
00000080: 62db 37be 9c6a f33d 6b07 d83b f967 49be

inference.model.encoder.model.tcn_block_01.conv1.bias f4 [2]
-0.05179565 0.5116906
00000000: ad27 54bd 28fe 023f

inference.model.encoder.model.tcn_block_01.conv1.weight_g f4 [2, 1, 1]
0.53751147 0.67558956
00000000: 5a9a 093f 70f3 2c3f

inference.model.encoder.model.tcn_block_01.conv1.weight_v f4 [2, 2, 9]
-0.1791708 -0.058772843 0.08424492 -0.20333925 0.14555298 0.13270032 0.16264693 -0.14146945
0.26382297 -0.15529397 0.25521365 -0.22542098 -0.18703918 0.20078266 0.08585573 0.09588392
-0.054990236 -0.010972667 0.0729776 -0.06982768 0.14604276 0.1329081 0.080886774 0.069343716
0.058242097 0.010178824 -0.04367335 0.16684419 0.09830205 0.08328233 0.22226979 0.23495051
0.26099983 0.17613469 0.24184081 -0.012495189
00000000: 8d78 37be cbbb 70bd 9a88 ac3d 2a38 50be
00000010: d70b 153e 98e2 073e eb8c 263e 5edd 10be
00000020: ce13 873e 6205 1fbe 5dab 823e c2d4 66be
00000030: 3387 3fbe f899 4d3e 21d5 af3d ca5e c43d
00000040: 713d 61bd b3c6 33bc 4875 953d d101 8fbd
00000050: 3c8c 153e 1019 083e f7a7 a53d 1404 8e3d
00000060: 448f 6e3d 15c5 263c d4e2 32bd 34d9 2a3e
00000070: 9652 c93d ed8f aa3d b19a 633e de96 703e
00000080: c5a1 853e a75c 343e 1ea5 773e 9fb8 4cbc

inference.model.encoder.model.tcn_block_01.block.conv1d_layer_0.bias f4 [2]
0.13810788 0.3131384
00000000: 276c 0d3e ad53 a03e

inference.model.encoder.model.tcn_block_01.block.conv1d_layer_0.weight_g f4 [2, 1, 1]
0.67704123 0.6380519
00000000: 9352 2d3f 5f57 233f

inference.model.encoder.model.tcn_block_01.block.conv1d_layer_0.weight_v f4 [2, 2, 9]
0.19744712 0.2362675 0.104439266 0.120784305 -0.09688684 0.072623536 -0.044003442 -0.19139972
-0.14834492 -0.0640622 -0.0934798 0.092526466 0.22664845 -0.019221652 0.11433722 0.19832581
0.33769387 0.0006786855 -0.031233985 -0.08852242 -0.18871234 -0.08522159 -0.035317384 -0.060472924
-0.15405218 -0.17187011 -0.25245917 0.15404095 -0.04756428 -0.1044132 0.06754284 0.13688624
-0.17954782 0.118855685 0.006592681 -0.19668569
00000000: 942f 4a3e 1cf0 713e 41e4 d53d c35d f73d
00000010: 9c6c c6bd a6bb 943d f43c 34bd 4afe 43be
00000020: bbe7 17be 0b33 83bd 5672 bfbd 847e bd3d
00000030: 8816 683e ba76 9dbc a229 ea3d ec15 4b3e
00000040: 36e6 ac3e d0e9 313a 6ade ffbc 3e4b b5bd
00000050: cf3d 41be a888 aebd f6a8 10bd 75b2 77bd
00000060: dbbf 1dbe b8fe 2fbe 5442 81be e9bc 1d3e
00000070: c3d2 42bd 96d6 d5bd e753 8a3d e82b 0c3e
00000080: 62db 37be 9c6a f33d 6b07 d83b f967 49be

inference.model.encoder.model.tcn_block_01.block.conv1d_layer_1.bias f4 [2]
-0.05179565 0.5116906
00000000: ad27 54bd 28fe 023f

inference.model.encoder.model.tcn_block_01.block.conv1d_layer_1.weight_g f4 [2, 1, 1]
0.53751147 0.67558956
00000000: 5a9a 093f 70f3 2c3f

inference.model.encoder.model.tcn_block_01.block.conv1d_layer_1.weight_v f4 [2, 2, 9]
-0.1791708 -0.058772843 0.08424492 -0.20333925 0.14555298 0.13270032 0.16264693 -0.14146945
0.26382297 -0.15529397 0.25521365 -0.22542098 -0.18703918 0.20078266 0.08585573 0.09588392
-0.054990236 -0.010972667 0.0729776 -0.06982768 0.14604276 0.1329081 0.080886774 0.069343716
0.058242097 0.010178824 -0.04367335 0.16684419 0.09830205 0.08328233 0.22226979 0.23495051
0.26099983 0.17613469 0.24184081 -0.012495189
00000000: 8d78 37be cbbb 70bd 9a88 ac3d 2a38 50be
00000010: d70b 153e 98e2 073e eb8c 263e 5edd 10be
00000020: ce13 873e 6205 1fbe 5dab 823e c2d4 66be
00000030: 3387 3fbe f899 4d3e 21d5 af3d ca5e c43d
00000040: 713d 61bd b3c6 33bc 4875 953d d101 8fbd
00000050: 3c8c 153e 1019 083e f7a7 a53d 1404 8e3d
00000060: 448f 6e3d 15c5 263c d4e2 32bd 34d9 2a3e
00000070: 9652 c93d ed8f aa3d b19a 633e de96 703e
00000080: c5a1 853e a75c 343e 1ea5 773e 9fb8 4cbc

inference.model.qz_xy_mean.dense(qz_xy_mean)_layer_00.weight f4 [2, 2]
0.3622758 -0.16369615 -0.48502427 0.041240368
00000000: 377c b93e f79f 27be 1a55 f8be a9eb 283d

inference.model.qz_xy_mean.dense(qz_xy_mean)_layer_00.bias f4 [2]
0.3370977 0.31174725
00000000: 1298 ac3e 569d 9f3e

inference.model.qz_xy_logvar.dense(qz_xy_logvar)_layer_00.weight f4 [2, 2]
-1.0721878 -0.7097304 -0.5665577 -0.34597018
00000000: 733d 89bf e4b0 35bf ed09 11bf 0123 b1be

inference.model.qz_xy_logvar.dense(qz_xy_logvar)_layer_00.bias f4 [2]
0.18821259 -0.98868114
00000000: cdba 403e 351a 7dbf

inference.model.py_t_probs.dense(py_t_probs)_layer_00.weight f4 [4, 2]
-0.20997722 -0.030741982 0.35089743 -0.3333192 0.41595155 -0.34482107 0.29431957 0.07316917
00000000: 4504 57be 9cd6 fbbc d4a8 b33e d0a8 aabe
00000010: 9af7 d43e 638c b0be 0eb1 963e b8d9 953d

inference.model.py_t_probs.dense(py_t_probs)_layer_00.bias f4 [4]
0.5964584 -0.48444656 -0.37056077 0.22543561
00000000: 7fb1 183f 6109 f8be 24ba bdbe 98d8 663e

inference.model.pz_t_mean.dense(pz_t_mean)_layer_00.weight f4 [8, 2]
1.0132637 0.04473576 -0.16829924 0.7738977 0.98424083 0.001062044 -0.26297212 0.6875995
0.9785224 0.00053492456 -0.2721635 0.67827094 0.99591285 0.020581597 -0.21781892 0.7274504
00000000: a0b2 813f d83c 373d a356 2cbe 291e 463f
00000010: 35f7 7b3f 4834 8b3a 48a4 86be 8506 303f
00000020: 7280 7a3f 2e3a 0c3a 0459 8bbe 2aa3 2d3f
00000030: 25f4 7e3f bd9a a83c ec0b 5fbe 303a 3a3f

inference.model.pz_t_mean.dense(pz_t_mean)_layer_00.bias f4 [8]
0.014743527 -0.11386421 0.017842581 -0.16729404 0.01501947 -0.16347545 0.02422827 -0.148733
00000000: d68e 713c a431 e9bd 9b2a 923c 214f 2bbe
00000010: 3914 763c 1c66 27be 5d7a c63c 774d 18be

inference.model.pz_t_logvar.dense(pz_t_logvar)_layer_00.weight f4 [2, 4]
-1.176159 -1.2106154 -1.5315367 -1.1826568 -0.7936481 -1.3727688 -1.3777783 -1.0231841
00000000: 618c 96bf 72f5 9abf 6509 c4bf 4c61 97bf
00000010: 862c 4bbf e3b6 afbf 0a5b b0bf b2f7 82bf

inference.model.pz_t_logvar.dense(pz_t_logvar)_layer_00.bias f4 [2]
-0.88994646 -1.3533037
00000000: 88d3 63bf 0e39 adbf

inference.model.decoder.dense(decoder)_layer_00.weight f4 [10, 2]
-0.36981273 0.38498875 0.47703028 -0.2269744 0.62750953 -0.06566027 -0.68267316 -0.39984575
0.50701785 0.5672635 -0.62036234 0.041215595 -0.2440338 -0.7283578 0.21557151 -0.51012146
-0.46373212 0.24649584 0.16710348 -0.28294057
00000000: 1858 bdbe 3f1d c53e 503d f43e fa6b 68be
00000010: 77a4 203f e478 86bd abc3 2ebf 95b8 ccbe
00000020: eccb 013f 2e38 113f 11d0 1ebf afd1 283d
00000030: ffe3 79be a875 3abf c7be 5c3e 5297 02bf
00000040: 4c6e edbe 6869 7c3e 2d1d 2b3e 96dd 90be

inference.model.decoder.dense(decoder)_layer_00.bias f4 [10]
0.42395663 -0.31690767 -0.27815613 -0.014201479 0.17528558 0.2687716 -0.3944542 -0.45320657
0.3517892 -0.2432457
00000000: d810 d93e b941 a2be 7b6a 8ebe 52ad 68bc
00000010: 107e 333e 6e9c 893e e7f5 c9be b10a e8be
00000020: b71d b43e 6715 79be

generative.model.qy_x.dense(qy_x)_layer_00.weight f4 [4, 10]
0.1557775 0.04132141 -0.29367518 -0.076018974 -0.18247141 0.19547252 0.008759069 0.12325895
0.09624161 -0.018393626 -0.15646672 0.10048802 -0.20461574 -0.039657302 -0.055937707 -0.07795077
0.100969635 0.2084643 -0.21839058 -0.008798396 -0.062593475 0.35532826 -0.14361823 0.051849477
0.0055442112 -0.0940561 0.25527996 -0.093178734 -0.31429452 0.01985855 0.003419548 0.14083867
-0.24563916 -0.04698487 -0.2802615 -0.12823957 -0.12665713 0.20808423 0.13933724 0.032153357
00000000: 2384 1f3e a440 293d 985c 96be d6af 9bbd
00000010: c9d9 3abe f329 483e 3382 0f3c 306f fc3d
00000020: 521a c53d 3bae 96bc d038 20be aacc cd3d
00000030: ca86 51be b26f 22bd f01e 65bd a7a4 9fbd
00000040: 2bc9 ce3d aa77 553e c8a1 5fbe 2627 10bc
00000050: 0231 80bd 96ed b53e a810 13be 1e60 543d
00000060: 37ac b53b 7ca0 c0bd 0eb4 823e 7ed4 bebd
00000070: 36eb a0be 66ae a23c 7f1a 603b 0338 103e
00000080: d588 7bbe 3573 40bd 6f7e 8fbe 3c51 03be
00000090: 68b2 01be 0814 553e 6cae 0e3e 3db3 033d

generative.model.qy_x.dense(qy_x)_layer_00.bias f4 [4]
0.23870677 -0.40238762 -0.25988606 -0.015667064
00000000: 8c6f 743e c005 cebe c90f 85be 3758 80bc

generative.model.encoder.model.tcn_block_00.conv0.bias f4 [2]
-0.04459225 0.12677032
00000000: 5da6 36bd 14d0 013e

generative.model.encoder.model.tcn_block_00.conv0.weight_g f4 [2, 1, 1]
0.68472505 0.6487452
00000000: 244a 2f3f 2a14 263f
