results_gmdgm/ssm_v1/dtcn/m_v3/version_2/best_val_model.pt (torch, 34951 bytes, 120 tensors)

model.qy_x.dense(qy_x)_layer_00.weight f4 [4, 10]
000000 60 e7 b6 bc ad 0d 3e 3e 93 1b 51 be 3a 34 6b bd
       -0.022327125 0.18559904 -0.20420675 -0.057422854
000010 c1 2c 1a be 3b 10 53 3d 60 11 ca 3c 8d f7 85 3e
       -0.15056135 0.05152915 0.024666488 0.2616543
000020 0d bd 60 bd 59 5d 92 3d 68 49 d8 bd f0 0b d6 3c
       -0.054867793 0.07146711 -0.10560876 0.02612874
000030 38 f8 69 be 95 56 6f bd 0f 37 39 bd a5 6e 10 bd
       -0.22848594 -0.05843218 -0.045218524 -0.03526177
000040 8e b8 a0 3d 21 f1 32 3e b2 66 42 be 52 aa ca 3c
       0.07847701 0.17474796 -0.18984488 0.024739418
000050 a7 b5 88 3d a3 7f 9c 3e a8 97 85 bd 19 96 69 3d
       0.066752724 0.3056613 -0.06523067 0.05702791
000060 ed d1 12 3d 40 47 cc bc d9 fa 8f 3e ad 06 82 be
       0.035844732 -0.024936318 0.2812107 -0.25395718
000070 e3 27 69 be 04 01 f0 3b 50 70 8d bd f1 1c 5b 3e
       -0.22769122 0.00732434 -0.069061875 0.21397759
000080 cb 8a 70 be 03 26 d2 bb 2c d8 92 be 64 a2 62 be
       -0.23490445 -0.0064132228 -0.2868055 -0.2213226
000090 bc 53 40 be 67 78 6f 3e 14 ee 31 3e 0d bc 05 3d
       -0.18781942 0.23385774 0.17375976 0.032650042

model.qy_x.dense(qy_x)_layer_00.bias f4 [4]
000000 dc 8d 83 3f 9c ec 84 bf 08 5e 34 bf 84 d7 63 bf
       1.0277667 -1.0384707 -0.7045598 -0.89000726

model.encoder.model.tcn_block_00.conv0.bias f4 [2]
000000 46 ae 71 3c 85 7e af 3d
       0.014751023 0.085690536

model.encoder.model.tcn_block_00.conv0.weight_g f4 [2, 1, 1]
000000 15 03 4c 3f 5e 6a 28 3f
       0.796922 0.65787303

model.encoder.model.tcn_block_00.conv0.weight_v f4 [2, 14, 9]
000000 25 2c dd bd fc d9 c6 bd 8e 14 60 bd 11 cd 70 bd
       -0.107994355 -0.09709546 -0.054707102 -0.058789317
000010 5c f0 c0 bd bc 72 a6 bd 43 13 68 bd 1a ea 13 bd
       -0.09420845 -0.081273526 -0.056658994 -0.03611193
000020 ef c7 87 bd cb 56 b1 3d b1 e6 cb 3d 26 45 79 3d
       -0.06629931 0.086591326 0.0995611 0.06085696
000030 15 67 b2 3d 72 7b 26 3d 94 93 4e 3d e6 a9 5d 3d
       0.087110676 0.04064507 0.05043371 0.054117106
000040 78 f1 bb 3d 90 aa be 3d 0e 7d 82 3d 66 6a 84 3d
       0.09176916 0.09309876 0.063715085 0.064656064
000050 56 cf c8 3d 40 41 94 3d 40 a2 7d 3d 7c a3 ad 3d
       0.09805171 0.07239008 0.06192231 0.08478448
000060 64 d3 b1 3d 7c e4 d5 3d 59 db 28 3d b6 58 b4 bd
       0.08682898 0.104439706 0.04122481 -0.08805983
000070 89 0c bb bc 38 77 dc bc 2d 7c 85 bc 5d 9e 1d bc
       -0.022833126 -0.026912317 -0.016294563 -0.009620276
000080 05 70 4e bd 5d 45 63 bd 6e 92 f4 bc 1e 9a 6e bd
       -0.0503998 -0.05548607 -0.02985498 -0.058252446
000090 41 b6 b5 ba 5d 9f 33 3d 15 bb 10 3d 4b 78 9c bc
       -0.001386352 0.043853153 0.035334665 -0.019100329
0000a0 2d f9 20 3c d5 7c 27 bb 98 bc c5 bb f5 59 a0 bc
       0.009825033 -0.0025556583 -0.006034445 -0.019574145
0000b0 38 ba 85 3b 65 83 db bd b0 c4 89 bd 45 cf 80 bd
       0.004081037 -0.10718421 -0.06726968 -0.062895335
0000c0 12 d7 54 bd 60 39 7e bd 72 b4 e0 bd 8c 42 c7 bd
       -0.05196292 -0.062066436 -0.10971917 -0.0972949
0000d0 f2 cd 73 bd 4e e1 8b bd 91 fd ec 3b 3b 00 84 3c
       -0.059522577 -0.06830083 0.007232376 0.016113391
0000e0 7b 5c 91 3d 42 27 85 3d 3e 71 fd 3c 74 e9 24 3d
       0.070977174 0.065016285 0.030937787 0.0402617
0000f0 7c 44 3a 3c a2 d1 50 3d 9f c9 d2 3c 1a 1d 28 3d
       0.011368867 0.05098117 0.025730906 0.04104338
000100 0a 61 88 3d 7c b8 9d 3d f6 56 6a 3d b4 82 bb 3d
       0.06659134 0.07701203 0.05721184 0.09155789
000110 a8 0e 4d 3d c3 62 db 3d 86 61 ce 3d d6 cd 22 3d
       0.050062805 0.10712197 0.10077195 0.03974708
000120 89 54 ac bd 28 e2 90 bd 70 02 93 bd f7 98 8e bd
       -0.08414561 -0.07074386 -0.07178199 -0.069627695
000130 66 a1 71 bd 0f 1c 97 bd cf 20 bd bd 8d a8 6f bd
       -0.058991812 -0.073783986 -0.09234773 -0.058510352
000140 1b ad ef bd 33 ac 56 3d 4b e0 78 3d 88 1c 55 3d
       -0.11702939 0.052410316 0.060760777 0.052029163
000150 54 78 5a 3d bc f8 f8 3c 3e 13 51 3d 02 66 76 3d
       0.05333741 0.030392043 0.05104374 0.060155876
000160 13 7b ff 3c 92 9b 49 3d de 93 76 bc c9 d3 73 bd
       0.031186616 0.04922063 -0.015049903 -0.059528146
000170 1b 42 90 bd 74 69 97 bd 2f 2f 97 bd b0 a3 9c bd
       -0.070438586 -0.073931605 -0.073820464 -0.076484084
000180 b2 1c 4e bd c2 0d 95 bd 41 cc 85 bd 45 59 db bc
       -0.050320335 -0.07278015 -0.06533099 -0.026775965
000190 91 a4 62 bd 57 37 38 bd c8 78 fe bc fc 9f 2c bd
       -0.055332724 -0.04497465 -0.031063452 -0.04214476
0001a0 59 ba 6c bd 97 80 8f bd ed d0 9d bd 9b da 9b bd
       -0.057794902 -0.070069484 -0.07705865 -0.07610055
0001b0 d3 a1 8a 3d 13 fa ac 3d ed 0c c5 3d 4a 26 1a 3d
       0.06769147 0.08446135 0.09621606 0.03763417
0001c0 7d 2f cd 3d 7b c8 7b 3d 23 b1 c9 3d c3 96 bf 3d
       0.10018823 0.06147049 0.09848239 0.093549274
0001d0 eb 4f e7 3d e0 2b cc 3c eb 7f 21 3d 1c 82 96 3d
       0.1129454 0.024923265 0.039428633 0.07349035
0001e0 7d bb ab 3d 53 7a a7 3d bd 4b 95 3d 99 56 bd 3d
       0.0838537 0.08177628 0.072898366 0.09245033
0001f0 10 10 5d 3d 62 bd a6 3d 38 b5 8b 3d 3e e8 58 bb
       0.053970397 0.08141591 0.06821674 -0.0033097412
000200 a4 47 85 3d 9f 79 24 3d 50 65 14 bd 0d 2c 68 3d
       0.06507805 0.04015505 -0.03622943 0.056682635
000210 51 a2 97 3c 10 9f de 3a bf 67 a7 3d de 71 38 bd
       0.018510016 0.001698466 0.08174085 -0.045030467
000220 3c 8d 1c bb d7 87 a2 bc 2b 22 02 3d 8e f6 51 ba
       -0.0023887893 -0.019840164 0.031770866 -0.0008009457
000230 bd 1c 0f 3c 78 d1 3a bb 6d 77 3a bd b6 0d 5f bd
       0.008734879 -0.00285062 -0.04552405 -0.054456435
000240 89 45 81 bd 15 d6 64 3c ca b9 07 3d 30 aa e3 3c
       -0.06312091 0.013967057 0.033136167 0.027791113
000250 f5 e2 39 bd 79 91 47 bc b4 47 34 bd 3a ad 19 bd
       -0.04538246 -0.0121806795 -0.044013694 -0.037518717
000260 05 4d 37 bd 56 a7 aa bd e0 43 a7 bd 63 02 5a bd
       -0.044751186 -0.08332698 -0.08167243 -0.053224932
000270 cc 25 70 bc 5d 14 54 3d 80 a9 0e 3c c1 74 5c 3d
       -0.014657449 0.051777232 0.008707404 0.053822283
000280 7d dc a7 3d 3f b0 fc 3d a1 e3 ba 3d cb ef f3 3d
       0.08196352 0.12338304 0.09125448 0.11910971
000290 1a a8 5c 3d 91 ec 3b 3c 52 20 8e bc 41 be 20 bd
       0.05387125 0.011469976 -0.017349396 -0.03924394
0002a0 8a 8a 2e bd 6b 57 77 bd f9 0d 7b bd da 54 db 3b
       -0.04261259 -0.060386103 -0.061292622 0.0066934647
0002b0 17 4d 28 bd a3 c8 c1 bc 41 d7 2d 3d 74 ff 04 bd
       -0.041089144 -0.023655241 0.04244161 -0.03247018
0002c0 c6 1b a7 3c 1e 46 b6 3d 11 34 97 3d cd 56 87 3d
       0.020398986 0.089000925 0.07382978 0.06608353
0002d0 be fd 0e be 2f 3c d6 bc a8 40 a8 bd 36 f2 34 bd
       -0.13963982 -0.026151745 -0.08215457 -0.044176303
0002e0 ea ef 08 bd ec e6 6e bc 98 b7 49 3b 42 e5 59 3d
       -0.033431925 -0.014581423 0.0030779596 0.053197153
0002f0 29 ab 96 3c b0 ed 8d 3c dd bd 23 3b bd af 8b bd
       0.018392162 0.017325252 0.0024984994 -0.06820629
000300 fd de 5d 3b 08 0a 71 bd 7b fb 26 bd 8e ba 11 3b
       0.0033854835 -0.058847457 -0.040767174 0.002223644
000310 e1 8e 97 3b ce 91 f9 3c 0c 96 9a 3c 03 5d 08 3d
       0.004625187 0.030465033 0.018870376 0.033291828
000320 d9 e7 63 3d 1c 51 25 bd 53 db 74 3d bf 23 0e bd
       0.05564103 -0.040360555 0.059779476 -0.03470206
000330 d2 4d 95 3c 78 c3 13 3c 01 22 44 bc 05 62 7b 3d
       0.018225584 0.009018771 -0.011970998 0.061372776
000340 ba 9d a1 3d 86 00 e7 3c 9d 22 12 bc 55 e2 15 bd
       0.07891412 0.028198492 -0.008919385 -0.0365928
000350 47 fa c5 bd d9 a2 4a bd 4d be 01 be cb e0 13 be
       -0.09666877 -0.04947171 -0.1267025 -0.1444122
000360 c5 ae 9d 3d b4 e3 22 3e d4 15 23 3e 54 44 0e 3e
       0.0769935 0.15907174 0.15926296 0.13893253
000370 74 71 0e 3e a7 a6 bb 3d e4 63 f3 3d ea 5c 2e 3e
       0.13910466 0.09162646 0.11884287 0.17027631
000380 7b a3 15 3e 51 3e a6 3d 87 d3 a5 3d 7f 3b af 3d
       0.14613144 0.08117355 0.08096986 0.0855627
000390 a0 33 1f 3d 0b e1 88 3d 4e fa 82 3d d3 cf 30 3d
       0.038867593 0.066835485 0.06395398 0.043166947
0003a0 e8 e4 8e 3d d8 3d 62 3d f4 04 db 3d b1 28 f7 3d
       0.06977254 0.05523476 0.10694304 0.12068308
0003b0 42 84 cf 3d 67 ae 10 3d cf b6 97 3a d4 6b a2 3d
       0.10132648 0.035322573 0.0011574867 0.07930723
0003c0 a7 c2 6b 3d e2 c2 26 3d 48 18 8f ba 85 06 c1 3d
       0.05755868 0.0407132 -0.001091727 0.094250716
0003d0 ad 68 bc 3d 1f ec e9 3d a5 c3 d5 3d 03 94 39 3e
       0.09199653 0.1142199 0.10437707 0.18122868
0003e0 ba b7 47 3e 33 5e 3a 3e c2 1b 48 3e 10 53 1e 3e
       0.1950368 0.18199997 0.19541839 0.15461373

model.encoder.model.tcn_block_00.conv1.bias f4 [2]
000000 f2 03 3a bd 68 fc c2 3e
       -0.04541392 0.38083196

model.encoder.model.tcn_block_00.conv1.weight_g f4 [2, 1, 1]
000000 ab 2e ea 3e b4 48 34 3f
       0.4573873 0.70423436

model.encoder.model.tcn_block_00.conv1.weight_v f4 [2, 2, 9]
000000 9d 9d 17 3e 73 d4 35 3d e6 08 98 3b 90 73 da 3d
       0.14806218 0.04439206 0.0046397327 0.10666573
000010 49 55 ba ba da 38 13 3e a6 35 32 3e 06 b7 04 bd
       -0.0014216091 0.14377156 0.17403278 -0.032401107
000020 8b 92 80 3e 72 74 a7 3d 10 b5 b0 3d 25 c8 9a bd
       0.25111803 0.08176507 0.08628285 -0.07557706
000030 1c 0d 7f be f0 0f 8d bd 3a d4 af 3d 22 b2 fd bd
       -0.24907345 -0.068878055 0.08585401 -0.12387492
000040 72 9f af 3d e8 57 23 3e 48 da 36 be c2 17 3a be
       0.08575334 0.15951502 -0.17856705 -0.18173125
000050 ec 93 1d be f2 be 33 be 2d 43 2e be 04 7f 27 be
       -0.15388459 -0.17553309 -0.17017813 -0.16357046
000060 b0 5c 32 be 37 e9 19 be 2a 30 87 bc a3 6d 5b 3e
       -0.1741817 -0.1503037 -0.016502459 0.21428542
000070 1b 6c 3a 3e 26 a7 d0 3d d8 42 30 3e fa 18 7e bc
       0.18205301 0.10188131 0.17212999 -0.015508885
000080 95 94 af bd d0 f3 b9 bd 40 bc 9d 3e 7f 9b 7a 3e
       -0.08573262 -0.09079707 0.30807686 0.2447338

model.encoder.model.tcn_block_00.block.conv1d_layer_0.bias f4 [2]
000000 46 ae 71 3c 85 7e af 3d
       0.014751023 0.085690536

model.encoder.model.tcn_block_00.block.conv1d_layer_0.weight_g f4 [2, 1, 1]
000000 15 03 4c 3f 5e 6a 28 3f
       0.796922 0.65787303

model.encoder.model.tcn_block_00.block.conv1d_layer_0.weight_v f4 [2, 14, 9]
000000 25 2c dd bd fc d9 c6 bd 8e 14 60 bd 11 cd 70 bd
       -0.107994355 -0.09709546 -0.054707102 -0.058789317
000010 5c f0 c0 bd bc 72 a6 bd 43 13 68 bd 1a ea 13 bd
       -0.09420845 -0.081273526 -0.056658994 -0.03611193
000020 ef c7 87 bd cb 56 b1 3d b1 e6 cb 3d 26 45 79 3d
       -0.06629931 0.086591326 0.0995611 0.06085696
000030 15 67 b2 3d 72 7b 26 3d 94 93 4e 3d e6 a9 5d 3d
       0.087110676 0.04064507 0.05043371 0.054117106
000040 78 f1 bb 3d 90 aa be 3d 0e 7d 82 3d 66 6a 84 3d
       0.09176916 0.09309876 0.063715085 0.064656064
000050 56 cf c8 3d 40 41 94 3d 40 a2 7d 3d 7c a3 ad 3d
       0.09805171 0.07239008 0.06192231 0.08478448
000060 64 d3 b1 3d 7c e4 d5 3d 59 db 28 3d b6 58 b4 bd
       0.08682898 0.104439706 0.04122481 -0.08805983
000070 89 0c bb bc 38 77 dc bc 2d 7c 85 bc 5d 9e 1d bc
       -0.022833126 -0.026912317 -0.016294563 -0.009620276
000080 05 70 4e bd 5d 45 63 bd 6e 92 f4 bc 1e 9a 6e bd
       -0.0503998 -0.05548607 -0.02985498 -0.058252446
000090 41 b6 b5 ba 5d 9f 33 3d 15 bb 10 3d 4b 78 9c bc
       -0.001386352 0.043853153 0.035334665 -0.019100329
0000a0 2d f9 20 3c d5 7c 27 bb 98 bc c5 bb f5 59 a0 bc
       0.009825033 -0.0025556583 -0.006034445 -0.019574145
0000b0 38 ba 85 3b 65 83 db bd b0 c4 89 bd 45 cf 80 bd
       0.004081037 -0.10718421 -0.06726968 -0.062895335
0000c0 12 d7 54 bd 60 39 7e bd 72 b4 e0 bd 8c 42 c7 bd
       -0.05196292 -0.062066436 -0.10971917 -0.0972949
0000d0 f2 cd 73 bd 4e e1 8b bd 91 fd ec 3b 3b 00 84 3c
       -0.059522577 -0.06830083 0.007232376 0.016113391
0000e0 7b 5c 91 3d 42 27 85 3d 3e 71 fd 3c 74 e9 24 3d
       0.070977174 0.065016285 0.030937787 0.0402617
0000f0 7c 44 3a 3c a2 d1 50 3d 9f c9 d2 3c 1a 1d 28 3d
       0.011368867 0.05098117 0.025730906 0.04104338
000100 0a 61 88 3d 7c b8 9d 3d f6 56 6a 3d b4 82 bb 3d
       0.06659134 0.07701203 0.05721184 0.09155789
000110 a8 0e 4d 3d c3 62 db 3d 86 61 ce 3d d6 cd 22 3d
       0.050062805 0.10712197 0.10077195 0.03974708
000120 89 54 ac bd 28 e2 90 bd 70 02 93 bd f7 98 8e bd
       -0.08414561 -0.07074386 -0.07178199 -0.069627695
000130 66 a1 71 bd 0f 1c 97 bd cf 20 bd bd 8d a8 6f bd
       -0.058991812 -0.073783986 -0.09234773 -0.058510352
000140 1b ad ef bd 33 ac 56 3d 4b e0 78 3d 88 1c 55 3d
       -0.11702939 0.052410316 0.060760777 0.052029163
000150 54 78 5a 3d bc f8 f8 3c 3e 13 51 3d 02 66 76 3d
       0.05333741 0.030392043 0.05104374 0.060155876
000160 13 7b ff 3c 92 9b 49 3d de 93 76 bc c9 d3 73 bd
       0.031186616 0.04922063 -0.015049903 -0.059528146
000170 1b 42 90 bd 74 69 97 bd 2f 2f 97 bd b0 a3 9c bd
       -0.070438586 -0.073931605 -0.073820464 -0.076484084
000180 b2 1c 4e bd c2 0d 95 bd 41 cc 85 bd 45 59 db bc
       -0.050320335 -0.07278015 -0.06533099 -0.026775965
000190 91 a4 62 bd 57 37 38 bd c8 78 fe bc fc 9f 2c bd
       -0.055332724 -0.04497465 -0.031063452 -0.04214476
0001a0 59 ba 6c bd 97 80 8f bd ed d0 9d bd 9b da 9b bd
       -0.057794902 -0.070069484 -0.07705865 -0.07610055
0001b0 d3 a1 8a 3d 13 fa ac 3d ed 0c c5 3d 4a 26 1a 3d
       0.06769147 0.08446135 0.09621606 0.03763417
0001c0 7d 2f cd 3d 7b c8 7b 3d 23 b1 c9 3d c3 96 bf 3d
       0.10018823 0.06147049 0.09848239 0.093549274
0001d0 eb 4f e7 3d e0 2b cc 3c eb 7f 21 3d 1c 82 96 3d
       0.1129454 0.024923265 0.039428633 0.07349035
0001e0 7d bb ab 3d 53 7a a7 3d bd 4b 95 3d 99 56 bd 3d
       0.0838537 0.08177628 0.072898366 0.09245033
0001f0 10 10 5d 3d 62 bd a6 3d 38 b5 8b 3d 3e e8 58 bb
       0.053970397 0.08141591 0.06821674 -0.0033097412
000200 a4 47 85 3d 9f 79 24 3d 50 65 14 bd 0d 2c 68 3d
       0.06507805 0.04015505 -0.03622943 0.056682635
000210 51 a2 97 3c 10 9f de 3a bf 67 a7 3d de 71 38 bd
       0.018510016 0.001698466 0.08174085 -0.045030467
000220 3c 8d 1c bb d7 87 a2 bc 2b 22 02 3d 8e f6 51 ba
       -0.0023887893 -0.019840164 0.031770866 -0.0008009457
000230 bd 1c 0f 3c 78 d1 3a bb 6d 77 3a bd b6 0d 5f bd
       0.008734879 -0.00285062 -0.04552405 -0.054456435
000240 89 45 81 bd 15 d6 64 3c ca b9 07 3d 30 aa e3 3c
       -0.06312091 0.013967057 0.033136167 0.027791113
000250 f5 e2 39 bd 79 91 47 bc b4 47 34 bd 3a ad 19 bd
       -0.04538246 -0.0121806795 -0.044013694 -0.037518717
000260 05 4d 37 bd 56 a7 aa bd e0 43 a7 bd 63 02 5a bd
       -0.044751186 -0.08332698 -0.08167243 -0.053224932
000270 cc 25 70 bc 5d 14 54 3d 80 a9 0e 3c c1 74 5c 3d
       -0.014657449 0.051777232 0.008707404 0.053822283
000280 7d dc a7 3d 3f b0 fc 3d a1 e3 ba 3d cb ef f3 3d
       0.08196352 0.12338304 0.09125448 0.11910971
000290 1a a8 5c 3d 91 ec 3b 3c 52 20 8e bc 41 be 20 bd
       0.05387125 0.011469976 -0.017349396 -0.03924394
0002a0 8a 8a 2e bd 6b 57 77 bd f9 0d 7b bd da 54 db 3b
       -0.04261259 -0.060386103 -0.061292622 0.0066934647
0002b0 17 4d 28 bd a3 c8 c1 bc 41 d7 2d 3d 74 ff 04 bd
       -0.041089144 -0.023655241 0.04244161 -0.03247018
0002c0 c6 1b a7 3c 1e 46 b6 3d 11 34 97 3d cd 56 87 3d
       0.020398986 0.089000925 0.07382978 0.06608353
0002d0 be fd 0e be 2f 3c d6 bc a8 40 a8 bd 36 f2 34 bd
       -0.13963982 -0.026151745 -0.08215457 -0.044176303
0002e0 ea ef 08 bd ec e6 6e bc 98 b7 49 3b 42 e5 59 3d
       -0.033431925 -0.014581423 0.0030779596 0.053197153
0002f0 29 ab 96 3c b0 ed 8d 3c dd bd 23 3b bd af 8b bd
       0.018392162 0.017325252 0.0024984994 -0.06820629
000300 fd de 5d 3b 08 0a 71 bd 7b fb 26 bd 8e ba 11 3b
       0.0033854835 -0.058847457 -0.040767174 0.002223644
000310 e1 8e 97 3b ce 91 f9 3c 0c 96 9a 3c 03 5d 08 3d
       0.004625187 0.030465033 0.018870376 0.033291828
000320 d9 e7 63 3d 1c 51 25 bd 53 db 74 3d bf 23 0e bd
       0.05564103 -0.040360555 0.059779476 -0.03470206
000330 d2 4d 95 3c 78 c3 13 3c 01 22 44 bc 05 62 7b 3d
       0.018225584 0.009018771 -0.011970998 0.061372776
000340 ba 9d a1 3d 86 00 e7 3c 9d 22 12 bc 55 e2 15 bd
       0.07891412 0.028198492 -0.008919385 -0.0365928
000350 47 fa c5 bd d9 a2 4a bd 4d be 01 be cb e0 13 be
       -0.09666877 -0.04947171 -0.1267025 -0.1444122
000360 c5 ae 9d 3d b4 e3 22 3e d4 15 23 3e 54 44 0e 3e
       0.0769935 0.15907174 0.15926296 0.13893253
000370 74 71 0e 3e a7 a6 bb 3d e4 63 f3 3d ea 5c 2e 3e
       0.13910466 0.09162646 0.11884287 0.17027631
000380 7b a3 15 3e 51 3e a6 3d 87 d3 a5 3d 7f 3b af 3d
       0.14613144 0.08117355 0.08096986 0.0855627
000390 a0 33 1f 3d 0b e1 88 3d 4e fa 82 3d d3 cf 30 3d
       0.038867593 0.066835485 0.06395398 0.043166947
0003a0 e8 e4 8e 3d d8 3d 62 3d f4 04 db 3d b1 28 f7 3d
       0.06977254 0.05523476 0.10694304 0.12068308
0003b0 42 84 cf 3d 67 ae 10 3d cf b6 97 3a d4 6b a2 3d
       0.10132648 0.035322573 0.0011574867 0.07930723
0003c0 a7 c2 6b 3d e2 c2 26 3d 48 18 8f ba 85 06 c1 3d
       0.05755868 0.0407132 -0.001091727 0.094250716
0003d0 ad 68 bc 3d 1f ec e9 3d a5 c3 d5 3d 03 94 39 3e
       0.09199653 0.1142199 0.10437707 0.18122868
0003e0 ba b7 47 3e 33 5e 3a 3e c2 1b 48 3e 10 53 1e 3e
       0.1950368 0.18199997 0.19541839 0.15461373

model.encoder.model.tcn_block_00.block.conv1d_layer_1.bias f4 [2]
000000 f2 03 3a bd 68 fc c2 3e
       -0.04541392 0.38083196

model.encoder.model.tcn_block_00.block.conv1d_layer_1.weight_g f4 [2, 1, 1]
000000 ab 2e ea 3e b4 48 34 3f
       0.4573873 0.70423436

model.encoder.model.tcn_block_00.block.conv1d_layer_1.weight_v f4 [2, 2, 9]
000000 9d 9d 17 3e 73 d4 35 3d e6 08 98 3b 90 73 da 3d
       0.14806218 0.04439206 0.0046397327 0.10666573
000010 49 55 ba ba da 38 13 3e a6 35 32 3e 06 b7 04 bd
       -0.0014216091 0.14377156 0.17403278 -0.032401107
000020 8b 92 80 3e 72 74 a7 3d 10 b5 b0 3d 25 c8 9a bd
       0.25111803 0.08176507 0.08628285 -0.07557706
000030 1c 0d 7f be f0 0f 8d bd 3a d4 af 3d 22 b2 fd bd
       -0.24907345 -0.068878055 0.08585401 -0.12387492
000040 72 9f af 3d e8 57 23 3e 48 da 36 be c2 17 3a be
       0.08575334 0.15951502 -0.17856705 -0.18173125
000050 ec 93 1d be f2 be 33 be 2d 43 2e be 04 7f 27 be
       -0.15388459 -0.17553309 -0.17017813 -0.16357046
000060 b0 5c 32 be 37 e9 19 be 2a 30 87 bc a3 6d 5b 3e
       -0.1741817 -0.1503037 -0.016502459 0.21428542
000070 1b 6c 3a 3e 26 a7 d0 3d d8 42 30 3e fa 18 7e bc
       0.18205301 0.10188131 0.17212999 -0.015508885
000080 95 94 af bd d0 f3 b9 bd 40 bc 9d 3e 7f 9b 7a 3e
       -0.08573262 -0.09079707 0.30807686 0.2447338

model.encoder.model.tcn_block_00.downsample.weight f4 [2, 14, 1]
000000 8b 56 e9 bd 90 62 eb 3d 53 84 ef 3d bc 1b 08 be
       -0.1139346 0.11493409 0.11695161 -0.1329183
000010 19 60 d0 bc d6 20 01 be 03 da 7f 3d bb df 99 3d
       -0.025436448 -0.12610182 0.06246377 0.07513376
000020 74 ca c1 bd 91 95 30 3e 82 72 0b bd 11 d7 f0 3e
       -0.09462443 0.17244555 -0.03404475 0.47039083
000030 50 c3 57 3c 9c be f6 3d 67 74 ab 3e 4b 5b ae be
       0.013169125 0.120480746 0.33487245 -0.34054026
000040 e3 d7 a0 be 78 ad da 3c f3 28 82 3e 0e 82 ab 3e
       -0.31414708 0.026694044 0.25421867 0.3349766
000050 2f 27 9a be e1 52 a4 be 03 e9 af 3e 15 56 5d be
       -0.3010802 -0.32094482 0.3435746 -0.21614869
000060 2c 19 e3 3e 23 14 c2 3e 59 d1 d2 3e bc b0 aa 3e
       0.44355142 0.37905988 0.41175345 0.33337963

model.encoder.model.tcn_block_00.downsample.bias f4 [2]
000000 fe 72 9a 3e 45 42 2c 3f
       0.30165857 0.6728862

model.encoder.model.tcn_block_01.conv0.bias f4 [2]
000000 55 b9 82 3e 8e 7e 11 3e
       0.25532022 0.14208433

model.encoder.model.tcn_block_01.conv0.weight_g f4 [2, 1, 1]
000000 91 c9 2a 3f db 80 71 3f
       0.66713816 0.9433724

model.encoder.model.tcn_block_01.conv0.weight_v f4 [2, 2, 9]
000000 ef 94 49 bd 93 de 31 3e 1d d0 d5 bd ee e3 2e bc
       -0.0492143 0.17370062 -0.10440085 -0.01067446
000010 f8 1a 3a be 27 f4 2b 3e 76 21 ea 38 f0 7b a0 bd
       -0.1817435 0.16792355 0.00011164222 -0.07836139
000020 85 bd 9f 3e 41 64 c1 bd 20 ca f9 bd c4 2a 53 3d
       0.3119928 -0.0944295 -0.121967554 0.051554456
000030 0e 32 49 3e 51 e0 a2 bc 70 6c 1e 3e 71 2b 8d 3e
       0.19648 -0.019882353 0.15471053 0.27572206
000040 0d 97 89 3e ad 09 c1 bc 9f 3a 4b bd a5 43 83 bd
       0.26873055 -0.023564184 -0.049616452 -0.064093865
000050 4d 8f c9 bd 3b a9 0c bd 83 09 36 3d 55 1c 61 3d
       -0.098417856 -0.03434108 0.044442665 0.05495866
000060 43 ba c8 bc d7 f8 66 bc 13 0b a3 bd 79 99 a9 bd
       -0.024502879 -0.014097414 -0.079610966 -0.08281226
000070 f1 f5 79 be 06 7b 8d be 15 32 21 be 95 95 a2 bd
       -0.24410225 -0.27632922 -0.15741761 -0.07938687
000080 74 dd 90 be 7a cf f7 ba 71 1b b0 bd 26 98 70 be
       -0.28293955 -0.0018906437 -0.08598984 -0.2349554

model.encoder.model.tcn_block_01.conv1.bias f4 [2]
000000 b5 b2 31 3d 8c 4d f9 3e
       0.04338332 0.48691976

model.encoder.model.tcn_block_01.conv1.weight_g f4 [2, 1, 1]
000000 4f b8 29 3f 84 b7 20 3f
       0.6629686 0.6278002

model.encoder.model.tcn_block_01.conv1.weight_v f4 [2, 2, 9]
000000 2a 12 71 be d1 b0 e2 bd a2 fc 19 3d cc dc 78 be
       -0.23542085 -0.11068881 0.037594445 -0.24302977
000010 53 0f ee 3d 38 bc da 3d 88 4d 0f 3e 1a cd 24 be
       0.116240166 0.10680431 0.1399442 -0.16093865
000020 cd 3c 7c 3e 03 b0 7e bd 32 14 92 3e 81 9d 0f be
       0.24632569 -0.062179577 0.28531033 -0.14024927
000030 20 ba f4 bd 91 b9 50 3e 95 05 bd 3d e5 72 a5 3d
       -0.11949563 0.20383288 0.0922958 0.08078555
000040 bb a2 5a bd cd 40 1d bd 91 d5 1d 3d d1 ec f1 bd
       -0.053377848 -0.038391877 0.03853375 -0.11812747
000050 f6 16 55 3d ce 5b 79 3d 26 e1 50 3d e2 04 e0 3d
       0.05202385 0.060878567 0.05099597 0.10938431
000060 48 03 82 3e 44 0c 4a 3e dd 13 90 3d 51 81 34 be
       0.25393128 0.19731241 0.070350386 -0.17627455
000070 8f fc 28 be b6 33 26 be 05 7a 39 be 0f c5 38 be
       -0.16502593 -0.16230664 -0.18112953 -0.18043922
000080 fc 93 b6 bd ee 59 2e be e3 c0 88 3d 3d 6e 1a be
       -0.089149445 -0.17026493 0.06677415 -0.15081115

model.encoder.model.tcn_block_01.block.conv1d_layer_0.bias f4 [2]
000000 55 b9 82 3e 8e 7e 11 3e
       0.25532022 0.14208433

model.encoder.model.tcn_block_01.block.conv1d_layer_0.weight_g f4 [2, 1, 1]
000000 91 c9 2a 3f db 80 71 3f
       0.66713816 0.9433724

model.encoder.model.tcn_block_01.block.conv1d_layer_0.weight_v f4 [2, 2, 9]
000000 ef 94 49 bd 93 de 31 3e 1d d0 d5 bd ee e3 2e bc
       -0.0492143 0.17370062 -0.10440085 -0.01067446
000010 f8 1a 3a be 27 f4 2b 3e 76 21 ea 38 f0 7b a0 bd
       -0.1817435 0.16792355 0.00011164222 -0.07836139
000020 85 bd 9f 3e 41 64 c1 bd 20 ca f9 bd c4 2a 53 3d
       0.3119928 -0.0944295 -0.121967554 0.051554456
000030 0e 32 49 3e 51 e0 a2 bc 70 6c 1e 3e 71 2b 8d 3e
       0.19648 -0.019882353 0.15471053 0.27572206
000040 0d 97 89 3e ad 09 c1 bc 9f 3a 4b bd a5 43 83 bd
       0.26873055 -0.023564184 -0.049616452 -0.064093865
000050 4d 8f c9 bd 3b a9 0c bd 83 09 36 3d 55 1c 61 3d
       -0.098417856 -0.03434108 0.044442665 0.05495866
000060 43 ba c8 bc d7 f8 66 bc 13 0b a3 bd 79 99 a9 bd
       -0.024502879 -0.014097414 -0.079610966 -0.08281226
000070 f1 f5 79 be 06 7b 8d be 15 32 21 be 95 95 a2 bd
       -0.24410225 -0.27632922 -0.15741761 -0.07938687
000080 74 dd 90 be 7a cf f7 ba 71 1b b0 bd 26 98 70 be
       -0.28293955 -0.0018906437 -0.08598984 -0.2349554

model.encoder.model.tcn_block_01.block.conv1d_layer_1.bias f4 [2]
000000 b5 b2 31 3d 8c 4d f9 3e
       0.04338332 0.48691976

model.encoder.model.tcn_block_01.block.conv1d_layer_1.weight_g f4 [2, 1, 1]
000000 4f b8 29 3f 84 b7 20 3f
       0.6629686 0.6278002

model.encoder.model.tcn_block_01.block.conv1d_layer_1.weight_v f4 [2, 2, 9]
000000 2a 12 71 be d1 b0 e2 bd a2 fc 19 3d cc dc 78 be
       -0.23542085 -0.11068881 0.037594445 -0.24302977
000010 53 0f ee 3d 38 bc da 3d 88 4d 0f 3e 1a cd 24 be
       0.116240166 0.10680431 0.1399442 -0.16093865
000020 cd 3c 7c 3e 03 b0 7e bd 32 14 92 3e 81 9d 0f be
       0.24632569 -0.062179577 0.28531033 -0.14024927
000030 20 ba f4 bd 91 b9 50 3e 95 05 bd 3d e5 72 a5 3d
       -0.11949563 0.20383288 0.0922958 0.08078555
000040 bb a2 5a bd cd 40 1d bd 91 d5 1d 3d d1 ec f1 bd
       -0.053377848 -0.038391877 0.03853375 -0.11812747
000050 f6 16 55 3d ce 5b 79 3d 26 e1 50 3d e2 04 e0 3d
       0.05202385 0.060878567 0.05099597 0.10938431
000060 48 03 82 3e 44 0c 4a 3e dd 13 90 3d 51 81 34 be
       0.25393128 0.19731241 0.070350386 -0.17627455
000070 8f fc 28 be b6 33 26 be 05 7a 39 be 0f c5 38 be
       -0.16502593 -0.16230664 -0.18112953 -0.18043922
000080 fc 93 b6 bd ee 59 2e be e3 c0 88 3d 3d 6e 1a be
       -0.089149445 -0.17026493 0.06677415 -0.15081115

model.qz_xy_mean.dense(qz_xy_mean)_layer_00.weight f4 [2, 2]
000000 a6 05 a1 3e f5 b7 d9 bd 57 66 55 3e 85 f9 08 be
       0.31449622 -0.1063079 0.20839821 -0.13376434

model.qz_xy_mean.dense(qz_xy_mean)_layer_00.bias f4 [2]
000000 7b 36 89 3e 22 36 20 3e
       0.26799378 0.1564565

model.qz_xy_logvar.dense(qz_xy_logvar)_layer_00.weight f4 [2, 2]
000000 dd c6 43 bf 2c 9b 42 bf 32 c4 1b be 5d 06 b1 be
       -0.76475316 -0.76018023 -0.15211561 -0.34575167

model.qz_xy_logvar.dense(qz_xy_logvar)_layer_00.bias f4 [2]
000000 bb 6f 63 3e 27 f1 71 bf
       0.2221059 -0.94508594

model.py_t_probs.dense(py_t_probs)_layer_00.weight f4 [4, 2]
000000 5c 71 f5 be 2c 45 60 3e 51 72 18 3f 27 f2 c0 be
       -0.4793805 0.21901387 0.59549433 -0.37684748
000010 80 ff d6 3e 1c 26 cc be bf 02 bc 3e 7d 01 30 3d
       0.41991806 -0.39872825 0.36720845 0.04297017

model.py_t_probs.dense(py_t_probs)_layer_00.bias f4 [4]
000000 63 4a 99 3f 72 6e 23 bf a0 68 ee be 09 33 4c 3e
       1.1975826 -0.638404 -0.46564198 0.19941343

model.pz_t_mean.dense(pz_t_mean)_layer_00.weight f4 [8, 2]
000000 97 16 5c 3f b0 df e3 3d 98 61 71 3f 0a e6 b0 3d
       0.8597197 0.111266494 0.9428954 0.086376265
000010 82 d1 78 3f 7c 3d b8 3c ed e5 17 3f a7 59 40 3e
       0.97194684 0.022490256 0.59335214 0.187842
000020 38 fd 9b 3e 1d d0 10 3f d7 a3 9f 3e 7d 5a 1f 3f
       0.30466628 0.56567556 0.31179687 0.6224745
000030 1b f0 91 3e d2 ab fe 3e c4 d2 1f 3f c7 d3 92 3e
       0.28503498 0.49740463 0.6243098 0.28677198

model.pz_t_mean.dense(pz_t_mean)_layer_00.bias f4 [8]
000000 bd fd 22 3d da 1b b7 be 68 7b 25 bb 76 0d 55 be
       0.039792765 -0.35763437 -0.0025250558 -0.20805916
000010 ba 36 fb 3d 47 27 48 be aa b9 d3 3e 39 87 53 be
       0.12266298 -0.19546233 0.41352588 -0.20657052

model.pz_t_logvar.dense(pz_t_logvar)_layer_00.weight f4 [2, 4]
000000 ee c4 a4 bf 9b 82 70 bf 31 48 c3 bf f2 6b 67 be
       -1.2872598 -0.9394929 -1.5256406 -0.22599772
000010 c1 a2 65 bf ac 0e 23 bf 5c 27 9c bf e0 47 66 bf
       -0.8970147 -0.6369426 -1.2199512 -0.8995342

model.pz_t_logvar.dense(pz_t_logvar)_layer_00.bias f4 [2]
000000 30 d8 2e bf d5 40 7b bf
       -0.68298626 -0.981458

model.decoder.dense(decoder)_layer_00.weight f4 [10, 2]
000000 da 1f 06 bf 00 05 8e be d2 9f a1 3e d3 36 fa 3e
       -0.5239235 -0.2773819 0.31567246 0.48869953
000010 7d 7f f5 3e ed ec 91 3e d1 17 cd be 46 71 c4 3a
       0.47948828 0.28501073 -0.40057233 0.0014987371
000020 38 f7 25 3d c3 f2 14 3c 45 cd 05 bf 2b 19 77 be
       0.04051897 0.009091082 -0.5226634 -0.24130695
000030 32 7d 99 3e 75 88 f9 3d cb 19 d2 3e 33 b3 a9 3e
       0.2997833 0.1218423 0.41035303 0.3314453
000040 58 4d a8 be 08 29 e7 be ce 9c 4e 3d 29 2d 05 3f
       -0.3287151 -0.45148492 0.05044251 0.52022034

model.decoder.dense(decoder)_layer_00.bias f4 [10]
000000 c3 57 30 3e 42 20 3c bd 58 78 2a be a0 d5 16 3e
       0.17220978 -0.0459292 -0.1664747 0.14729929
000010 bc be 8f 3a 7c 34 37 3e a6 8a f0 bd 61 98 01 be
       0.0010966877 0.17891115 -0.11745195 -0.12655784
000020 ac a9 95 3d 4e e8 9d 3d
       0.07307753 0.07710324

inference.model.qy_x.dense(qy_x)_layer_00.weight f4 [4, 10]
000000 60 e7 b6 bc ad 0d 3e 3e 93 1b 51 be 3a 34 6b bd
       -0.022327125 0.18559904 -0.20420675 -0.057422854
000010 c1 2c 1a be 3b 10 53 3d 60 11 ca 3c 8d f7 85 3e
       -0.15056135 0.05152915 0.024666488 0.2616543
000020 0d bd 60 bd 59 5d 92 3d 68 49 d8 bd f0 0b d6 3c
       -0.054867793 0.07146711 -0.10560876 0.02612874
000030 38 f8 69 be 95 56 6f bd 0f 37 39 bd a5 6e 10 bd
       -0.22848594 -0.05843218 -0.045218524 -0.03526177
000040 8e b8 a0 3d 21 f1 32 3e b2 66 42 be 52 aa ca 3c
       0.07847701 0.17474796 -0.18984488 0.024739418
000050 a7 b5 88 3d a3 7f 9c 3e a8 97 85 bd 19 96 69 3d
       0.066752724 0.3056613 -0.06523067 0.05702791
000060 ed d1 12 3d 40 47 cc bc d9 fa 8f 3e ad 06 82 be
       0.035844732 -0.024936318 0.2812107 -0.25395718
000070 e3 27 69 be 04 01 f0 3b 50 70 8d bd f1 1c 5b 3e
       -0.22769122 0.00732434 -0.069061875 0.21397759
000080 cb 8a 70 be 03 26 d2 bb 2c d8 92 be 64 a2 62 be
       -0.23490445 -0.0064132228 -0.2868055 -0.2213226
000090 bc 53 40 be 67 78 6f 3e 14 ee 31 3e 0d bc 05 3d
       -0.18781942 0.23385774 0.17375976 0.032650042

inference.model.qy_x.dense(qy_x)_layer_00.bias f4 [4]
000000 dc 8d 83 3f 9c ec 84 bf 08 5e 34 bf 84 d7 63 bf
       1.0277667 -1.0384707 -0.7045598 -0.89000726

inference.model.encoder.model.tcn_block_00.conv0.bias f4 [2]
000000 46 ae 71 3c 85 7e af 3d
       0.014751023 0.085690536

inference.model.encoder.model.tcn_block_00.conv0.weight_g f4 [2, 1, 1]
000000 15 03 4c 3f 5e 6a 28 3f
       0.796922 0.65787303

inference.model.encoder.model.tcn_block_00.conv0.weight_v f4 [2, 14, 9]
000000 25 2c dd bd fc d9 c6 bd 8e 14 60 bd 11 cd 70 bd
       -0.107994355 -0.09709546 -0.054707102 -0.058789317
000010 5c f0 c0 bd bc 72 a6 bd 43 13 68 bd 1a ea 13 bd
       -0.09420845 -0.081273526 -0.056658994 -0.03611193
000020 ef c7 87 bd cb 56 b1 3d b1 e6 cb 3d 26 45 79 3d
       -0.06629931 0.086591326 0.0995611 0.06085696
000030 15 67 b2 3d 72 7b 26 3d 94 93 4e 3d e6 a9 5d 3d
       0.087110676 0.04064507 0.05043371 0.054117106
000040 78 f1 bb 3d 90 aa be 3d 0e 7d 82 3d 66 6a 84 3d
       0.09176916 0.09309876 0.063715085 0.064656064
000050 56 cf c8 3d 40 41 94 3d 40 a2 7d 3d 7c a3 ad 3d
       0.09805171 0.07239008 0.06192231 0.08478448
000060 64 d3 b1 3d 7c e4 d5 3d 59 db 28 3d b6 58 b4 bd
       0.08682898 0.104439706 0.04122481 -0.08805983
000070 89 0c bb bc 38 77 dc bc 2d 7c 85 bc 5d 9e 1d bc
       -0.022833126 -0.026912317 -0.016294563 -0.009620276
000080 05 70 4e bd 5d 45 63 bd 6e 92 f4 bc 1e 9a 6e bd
       -0.0503998 -0.05548607 -0.02985498 -0.058252446
000090 41 b6 b5 ba 5d 9f 33 3d 15 bb 10 3d 4b 78 9c bc
       -0.001386352 0.043853153 0.035334665 -0.019100329
0000a0 2d f9 20 3c d5 7c 27 bb 98 bc c5 bb f5 59 a0 bc
       0.009825033 -0.0025556583 -0.006034445 -0.019574145
0000b0 38 ba 85 3b 65 83 db bd b0 c4 89 bd 45 cf 80 bd
       0.004081037 -0.10718421 -0.06726968 -0.062895335
0000c0 12 d7 54 bd 60 39 7e bd 72 b4 e0 bd 8c 42 c7 bd
       -0.05196292 -0.062066436 -0.10971917 -0.0972949
0000d0 f2 cd 73 bd 4e e1 8b bd 91 fd ec 3b 3b 00 84 3c
       -0.059522577 -0.06830083 0.007232376 0.016113391
0000e0 7b 5c 91 3d 42 27 85 3d 3e 71 fd 3c 74 e9 24 3d
       0.070977174 0.065016285 0.030937787 0.0402617
0000f0 7c 44 3a 3c a2 d1 50 3d 9f c9 d2 3c 1a 1d 28 3d
       0.011368867 0.05098117 0.025730906 0.04104338
000100 0a 61 88 3d 7c b8 9d 3d f6 56 6a 3d b4 82 bb 3d
       0.06659134 0.07701203 0.05721184 0.09155789
000110 a8 0e 4d 3d c3 62 db 3d 86 61 ce 3d d6 cd 22 3d
       0.050062805 0.10712197 0.10077195 0.03974708
000120 89 54 ac bd 28 e2 90 bd 70 02 93 bd f7 98 8e bd
       -0.08414561 -0.07074386 -0.07178199 -0.069627695
000130 66 a1 71 bd 0f 1c 97 bd cf 20 bd bd 8d a8 6f bd
       -0.058991812 -0.073783986 -0.09234773 -0.058510352
000140 1b ad ef bd 33 ac 56 3d 4b e0 78 3d 88 1c 55 3d
       -0.11702939 0.052410316 0.060760777 0.052029163
000150 54 78 5a 3d bc f8 f8 3c 3e 13 51 3d 02 66 76 3d
       0.05333741 0.030392043 0.05104374 0.060155876
000160 13 7b ff 3c 92 9b 49 3d de 93 76 bc c9 d3 73 bd
       0.031186616 0.04922063 -0.015049903 -0.059528146
000170 1b 42 90 bd 74 69 97 bd 2f 2f 97 bd b0 a3 9c bd
       -0.070438586 -0.073931605 -0.073820464 -0.076484084
000180 b2 1c 4e bd c2 0d 95 bd 41 cc 85 bd 45 59 db bc
       -0.050320335 -0.07278015 -0.06533099 -0.026775965
000190 91 a4 62 bd 57 37 38 bd c8 78 fe bc fc 9f 2c bd
       -0.055332724 -0.04497465 -0.031063452 -0.04214476
0001a0 59 ba 6c bd 97 80 8f bd ed d0 9d bd 9b da 9b bd
       -0.057794902 -0.070069484 -0.07705865 -0.07610055
0001b0 d3 a1 8a 3d 13 fa ac 3d ed 0c c5 3d 4a 26 1a 3d
       0.06769147 0.08446135 0.09621606 0.03763417
0001c0 7d 2f cd 3d 7b c8 7b 3d 23 b1 c9 3d c3 96 bf 3d
       0.10018823 0.06147049 0.09848239 0.093549274
0001d0 eb 4f e7 3d e0 2b cc 3c eb 7f 21 3d 1c 82 96 3d
       0.1129454 0.024923265 0.039428633 0.07349035
0001e0 7d bb ab 3d 53 7a a7 3d bd 4b 95 3d 99 56 bd 3d
       0.0838537 0.08177628 0.072898366 0.09245033
0001f0 10 10 5d 3d 62 bd a6 3d 38 b5 8b 3d 3e e8 58 bb
       0.053970397 0.08141591 0.06821674 -0.0033097412
000200 a4 47 85 3d 9f 79 24 3d 50 65 14 bd 0d 2c 68 3d
       0.06507805 0.04015505 -0.03622943 0.056682635
000210 51 a2 97 3c 10 9f de 3a bf 67 a7 3d de 71 38 bd
       0.018510016 0.001698466 0.08174085 -0.045030467
000220 3c 8d 1c bb d7 87 a2 bc 2b 22 02 3d 8e f6 51 ba
       -0.0023887893 -0.019840164 0.031770866 -0.0008009457
000230 bd 1c 0f 3c 78 d1 3a bb 6d 77 3a bd b6 0d 5f bd
       0.008734879 -0.00285062 -0.04552405 -0.054456435
000240 89 45 81 bd 15 d6 64 3c ca b9 07 3d 30 aa e3 3c
       -0.06312091 0.013967057 0.033136167 0.027791113
000250 f5 e2 39 bd 79 91 47 bc b4 47 34 bd 3a ad 19 bd
       -0.04538246 -0.0121806795 -0.044013694 -0.037518717
000260 05 4d 37 bd 56 a7 aa bd e0 43 a7 bd 63 02 5a bd
       -0.044751186 -0.08332698 -0.08167243 -0.053224932
000270 cc 25 70 bc 5d 14 54 3d 80 a9 0e 3c c1 74 5c 3d
       -0.014657449 0.051777232 0.008707404 0.053822283
000280 7d dc a7 3d 3f b0 fc 3d a1 e3 ba 3d cb ef f3 3d
       0.08196352 0.12338304 0.09125448 0.11910971
000290 1a a8 5c 3d 91 ec 3b 3c 52 20 8e bc 41 be 20 bd
       0.05387125 0.011469976 -0.017349396 -0.03924394
0002a0 8a 8a 2e bd 6b 57 77 bd f9 0d 7b bd da 54 db 3b
       -0.04261259 -0.060386103 -0.061292622 0.0066934647
0002b0 17 4d 28 bd a3 c8 c1 bc 41 d7 2d 3d 74 ff 04 bd
       -0.041089144 -0.023655241 0.04244161 -0.03247018
0002c0 c6 1b a7 3c 1e 46 b6 3d 11 34 97 3d cd 56 87 3d
       0.020398986 0.089000925 0.07382978 0.06608353
0002d0 be fd 0e be 2f 3c d6 bc a8 40 a8 bd 36 f2 34 bd
       -0.13963982 -0.026151745 -0.08215457 -0.044176303
0002e0 ea ef 08 bd ec e6 6e bc 98 b7 49 3b 42 e5 59 3d
       -0.033431925 -0.014581423 0.0030779596 0.053197153
0002f0 29 ab 96 3c b0 ed 8d 3c dd bd 23 3b bd af 8b bd
       0.018392162 0.017325252 0.0024984994 -0.06820629
000300 fd de 5d 3b 08 0a 71 bd 7b fb 26 bd 8e ba 11 3b
       0.0033854835 -0.058847457 -0.040767174 0.002223644
000310 e1 8e 97 3b ce 91 f9 3c 0c 96 9a 3c 03 5d 08 3d
       0.004625187 0.030465033 0.018870376 0.033291828
000320 d9 e7 63 3d 1c 51 25 bd 53 db 74 3d bf 23 0e bd
       0.05564103 -0.040360555 0.059779476 -0.03470206
000330 d2 4d 95 3c 78 c3 13 3c 01 22 44 bc 05 62 7b 3d
       0.018225584 0.009018771 -0.011970998 0.061372776
000340 ba 9d a1 3d 86 00 e7 3c 9d 22 12 bc 55 e2 15 bd
       0.07891412 0.028198492 -0.008919385 -0.0365928
000350 47 fa c5 bd d9 a2 4a bd 4d be 01 be cb e0 13 be
       -0.09666877 -0.04947171 -0.1267025 -0.1444122
000360 c5 ae 9d 3d b4 e3 22 3e d4 15 23 3e 54 44 0e 3e
       0.0769935 0.15907174 0.15926296 0.13893253
000370 74 71 0e 3e a7 a6 bb 3d e4 63 f3 3d ea 5c 2e 3e
       0.13910466 0.09162646 0.11884287 0.17027631
000380 7b a3 15 3e 51 3e a6 3d 87 d3 a5 3d 7f 3b af 3d
       0.14613144 0.08117355 0.08096986 0.0855627
000390 a0 33 1f 3d 0b e1 88 3d 4e fa 82 3d d3 cf 30 3d
       0.038867593 0.066835485 0.06395398 0.043166947
0003a0 e8 e4 8e 3d d8 3d 62 3d f4 04 db 3d b1 28 f7 3d
       0.06977254 0.05523476 0.10694304 0.12068308
0003b0 42 84 cf 3d 67 ae 10 3d cf b6 97 3a d4 6b a2 3d
       0.10132648 0.035322573 0.0011574867 0.07930723
0003c0 a7 c2 6b 3d e2 c2 26 3d 48 18 8f ba 85 06 c1 3d
       0.05755868 0.0407132 -0.001091727 0.094250716
0003d0 ad 68 bc 3d 1f ec e9 3d a5 c3 d5 3d 03 94 39 3e
       0.09199653 0.1142199 0.10437707 0.18122868
0003e0 ba b7 47 3e 33 5e 3a 3e c2 1b 48 3e 10 53 1e 3e
       0.1950368 0.18199997 0.19541839 0.15461373

inference.model.encoder.model.tcn_block_00.conv1.bias f4 [2]
000000 f2 03 3a bd 68 fc c2 3e
       -0.04541392 0.38083196

inference.model.encoder.model.tcn_block_00.conv1.weight_g f4 [2, 1, 1]
000000 ab 2e ea 3e b4 48 34 3f
       0.4573873 0.70423436

inference.model.encoder.model.tcn_block_00.conv1.weight_v f4 [2, 2, 9]
000000 9d 9d 17 3e 73 d4 35 3d e6 08 98 3b 90 73 da 3d
       0.14806218 0.04439206 0.0046397327 0.10666573
000010 49 55 ba ba da 38 13 3e a6 35 32 3e 06 b7 04 bd
       -0.0014216091 0.14377156 0.17403278 -0.032401107
000020 8b 92 80 3e 72 74 a7 3d 10 b5 b0 3d 25 c8 9a bd
       0.25111803 0.08176507 0.08628285 -0.07557706
000030 1c 0d 7f be f0 0f 8d bd 3a d4 af 3d 22 b2 fd bd
       -0.24907345 -0.068878055 0.08585401 -0.12387492
000040 72 9f af 3d e8 57 23 3e 48 da 36 be c2 17 3a be
       0.08575334 0.15951502 -0.17856705 -0.18173125
000050 ec 93 1d be f2 be 33 be 2d 43 2e be 04 7f 27 be
       -0.15388459 -0.17553309 -0.17017813 -0.16357046
000060 b0 5c 32 be 37 e9 19 be 2a 30 87 bc a3 6d 5b 3e
       -0.1741817 -0.1503037 -0.016502459 0.21428542
000070 1b 6c 3a 3e 26 a7 d0 3d d8 42 30 3e fa 18 7e bc
       0.18205301 0.10188131 0.17212999 -0.015508885
000080 95 94 af bd d0 f3 b9 bd 40 bc 9d 3e 7f 9b 7a 3e
       -0.08573262 -0.09079707 0.30807686 0.2447338

inference.model.encoder.model.tcn_block_00.block.conv1d_layer_0.bias f4 [2]
000000 46 ae 71 3c 85 7e af 3d
       0.014751023 0.085690536

inference.model.encoder.model.tcn_block_00.block.conv1d_layer_0.weight_g f4 [2, 1, 1]
000000 15 03 4c 3f 5e 6a 28 3f
       0.796922 0.65787303

inference.model.encoder.model.tcn_block_00.block.conv1d_layer_0.weight_v f4 [2, 14, 9]
000000 25 2c dd bd fc d9 c6 bd 8e 14 60 bd 11 cd 70 bd
       -0.107994355 -0.09709546 -0.054707102 -0.058789317
000010 5c f0 c0 bd bc 72 a6 bd 43 13 68 bd 1a ea 13 bd
       -0.09420845 -0.081273526 -0.056658994 -0.03611193
000020 ef c7 87 bd cb 56 b1 3d b1 e6 cb 3d 26 45 79 3d
       -0.06629931 0.086591326 0.0995611 0.06085696
000030 15 67 b2 3d 72 7b 26 3d 94 93 4e 3d e6 a9 5d 3d
       0.087110676 0.04064507 0.05043371 0.054117106
000040 78 f1 bb 3d 90 aa be 3d 0e 7d 82 3d 66 6a 84 3d
       0.09176916 0.09309876 0.063715085 0.064656064
000050 56 cf c8 3d 40 41 94 3d 40 a2 7d 3d 7c a3 ad 3d
       0.09805171 0.07239008 0.06192231 0.08478448
000060 64 d3 b1 3d 7c e4 d5 3d 59 db 28 3d b6 58 b4 bd
       0.08682898 0.104439706 0.04122481 -0.08805983
000070 89 0c bb bc 38 77 dc bc 2d 7c 85 bc 5d 9e 1d bc
       -0.022833126 -0.026912317 -0.016294563 -0.009620276
000080 05 70 4e bd 5d 45 63 bd 6e 92 f4 bc 1e 9a 6e bd
       -0.0503998 -0.05548607 -0.02985498 -0.058252446
000090 41 b6 b5 ba 5d 9f 33 3d 15 bb 10 3d 4b 78 9c bc
       -0.001386352 0.043853153 0.035334665 -0.019100329
0000a0 2d f9 20 3c d5 7c 27 bb 98 bc c5 bb f5 59 a0 bc
       0.009825033 -0.0025556583 -0.006034445 -0.019574145
0000b0 38 ba 85 3b 65 83 db bd b0 c4 89 bd 45 cf 80 bd
       0.004081037 -0.10718421 -0.06726968 -0.062895335
0000c0 12 d7 54 bd 60 39 7e bd 72 b4 e0 bd 8c 42 c7 bd
       -0.05196292 -0.062066436 -0.10971917 -0.0972949
0000d0 f2 cd 73 bd 4e e1 8b bd 91 fd ec 3b 3b 00 84 3c
       -0.059522577 -0.06830083 0.007232376 0.016113391
0000e0 7b 5c 91 3d 42 27 85 3d 3e 71 fd 3c 74 e9 24 3d
       0.070977174 0.065016285 0.030937787 0.0402617
0000f0 7c 44 3a 3c a2 d1 50 3d 9f c9 d2 3c 1a 1d 28 3d
       0.011368867 0.05098117 0.025730906 0.04104338
000100 0a 61 88 3d 7c b8 9d 3d f6 56 6a 3d b4 82 bb 3d
       0.06659134 0.07701203 0.05721184 0.09155789
000110 a8 0e 4d 3d c3 62 db 3d 86 61 ce 3d d6 cd 22 3d
       0.050062805 0.10712197 0.10077195 0.03974708
000120 89 54 ac bd 28 e2 90 bd 70 02 93 bd f7 98 8e bd
       -0.08414561 -0.07074386 -0.07178199 -0.069627695
000130 66 a1 71 bd 0f 1c 97 bd cf 20 bd bd 8d a8 6f bd
       -0.058991812 -0.073783986 -0.09234773 -0.058510352
000140 1b ad ef bd 33 ac 56 3d 4b e0 78 3d 88 1c 55 3d
       -0.11702939 0.052410316 0.060760777 0.052029163
000150 54 78 5a 3d bc f8 f8 3c 3e 13 51 3d 02 66 76 3d
       0.05333741 0.030392043 0.05104374 0.060155876
000160 13 7b ff 3c 92 9b 49 3d de 93 76 bc c9 d3 73 bd
       0.031186616 0.04922063 -0.015049903 -0.059528146
000170 1b 42 90 bd 74 69 97 bd 2f 2f 97 bd b0 a3 9c bd
       -0.070438586 -0.073931605 -0.073820464 -0.076484084
000180 b2 1c 4e bd c2 0d 95 bd 41 cc 85 bd 45 59 db bc
       -0.050320335 -0.07278015 -0.06533099 -0.026775965
000190 91 a4 62 bd 57 37 38 bd c8 78 fe bc fc 9f 2c bd
       -0.055332724 -0.04497465 -0.031063452 -0.04214476
0001a0 59 ba 6c bd 97 80 8f bd ed d0 9d bd 9b da 9b bd
       -0.057794902 -0.070069484 -0.07705865 -0.07610055
0001b0 d3 a1 8a 3d 13 fa ac 3d ed 0c c5 3d 4a 26 1a 3d
       0.06769147 0.08446135 0.09621606 0.03763417
0001c0 7d 2f cd 3d 7b c8 7b 3d 23 b1 c9 3d c3 96 bf 3d
       0.10018823 0.06147049 0.09848239 0.093549274
0001d0 eb 4f e7 3d e0 2b cc 3c eb 7f 21 3d 1c 82 96 3d
       0.1129454 0.024923265 0.039428633 0.07349035
0001e0 7d bb ab 3d 53 7a a7 3d bd 4b 95 3d 99 56 bd 3d
       0.0838537 0.08177628 0.072898366 0.09245033
0001f0 10 10 5d 3d 62 bd a6 3d 38 b5 8b 3d 3e e8 58 bb
       0.053970397 0.08141591 0.06821674 -0.0033097412
000200 a4 47 85 3d 9f 79 24 3d 50 65 14 bd 0d 2c 68 3d
       0.06507805 0.04015505 -0.03622943 0.056682635
000210 51 a2 97 3c 10 9f de 3a bf 67 a7 3d de 71 38 bd
       0.018510016 0.001698466 0.08174085 -0.045030467
000220 3c 8d 1c bb d7 87 a2 bc 2b 22 02 3d 8e f6 51 ba
       -0.0023887893 -0.019840164 0.031770866 -0.0008009457
000230 bd 1c 0f 3c 78 d1 3a bb 6d 77 3a bd b6 0d 5f bd
       0.008734879 -0.00285062 -0.04552405 -0.054456435
000240 89 45 81 bd 15 d6 64 3c ca b9 07 3d 30 aa e3 3c
       -0.06312091 0.013967057 0.033136167 0.027791113
000250 f5 e2 39 bd 79 91 47 bc b4 47 34 bd 3a ad 19 bd
       -0.04538246 -0.0121806795 -0.044013694 -0.037518717
000260 05 4d 37 bd 56 a7 aa bd e0 43 a7 bd 63 02 5a bd
       -0.044751186 -0.08332698 -0.08167243 -0.053224932
000270 cc 25 70 bc 5d 14 54 3d 80 a9 0e 3c c1 74 5c 3d
       -0.014657449 0.051777232 0.008707404 0.053822283
000280 7d dc a7 3d 3f b0 fc 3d a1 e3 ba 3d cb ef f3 3d
       0.08196352 0.12338304 0.09125448 0.11910971
000290 1a a8 5c 3d 91 ec 3b 3c 52 20 8e bc 41 be 20 bd
       0.05387125 0.011469976 -0.017349396 -0.03924394
0002a0 8a 8a 2e bd 6b 57 77 bd f9 0d 7b bd da 54 db 3b
       -0.04261259 -0.060386103 -0.061292622 0.0066934647
0002b0 17 4d 28 bd a3 c8 c1 bc 41 d7 2d 3d 74 ff 04 bd
       -0.041089144 -0.023655241 0.04244161 -0.03247018
0002c0 c6 1b a7 3c 1e 46 b6 3d 11 34 97 3d cd 56 87 3d
       0.020398986 0.089000925 0.07382978 0.06608353
0002d0 be fd 0e be 2f 3c d6 bc a8 40 a8 bd 36 f2 34 bd
       -0.13963982 -0.026151745 -0.08215457 -0.044176303
0002e0 ea ef 08 bd ec e6 6e bc 98 b7 49 3b 42 e5 59 3d
       -0.033431925 -0.014581423 0.0030779596 0.053197153
0002f0 29 ab 96 3c b0 ed 8d 3c dd bd 23 3b bd af 8b bd
       0.018392162 0.017325252 0.0024984994 -0.06820629
000300 fd de 5d 3b 08 0a 71 bd 7b fb 26 bd 8e ba 11 3b
       0.0033854835 -0.058847457 -0.040767174 0.002223644
000310 e1 8e 97 3b ce 91 f9 3c 0c 96 9a 3c 03 5d 08 3d
       0.004625187 0.030465033 0.018870376 0.033291828
000320 d9 e7 63 3d 1c 51 25 bd 53 db 74 3d bf 23 0e bd
       0.05564103 -0.040360555 0.059779476 -0.03470206
000330 d2 4d 95 3c 78 c3 13 3c 01 22 44 bc 05 62 7b 3d
       0.018225584 0.009018771 -0.011970998 0.061372776
000340 ba 9d a1 3d 86 00 e7 3c 9d 22 12 bc 55 e2 15 bd
       0.07891412 0.028198492 -0.008919385 -0.0365928
000350 47 fa c5 bd d9 a2 4a bd 4d be 01 be cb e0 13 be
       -0.09666877 -0.04947171 -0.1267025 -0.1444122
000360 c5 ae 9d 3d b4 e3 22 3e d4 15 23 3e 54 44 0e 3e
       0.0769935 0.15907174 0.15926296 0.13893253
000370 74 71 0e 3e a7 a6 bb 3d e4 63 f3 3d ea 5c 2e 3e
       0.13910466 0.09162646 0.11884287 0.17027631
000380 7b a3 15 3e 51 3e a6 3d 87 d3 a5 3d 7f 3b af 3d
       0.14613144 0.08117355 0.08096986 0.0855627
000390 a0 33 1f 3d 0b e1 88 3d 4e fa 82 3d d3 cf 30 3d
       0.038867593 0.066835485 0.06395398 0.043166947
0003a0 e8 e4 8e 3d d8 3d 62 3d f4 04 db 3d b1 28 f7 3d
       0.06977254 0.05523476 0.10694304 0.12068308
0003b0 42 84 cf 3d 67 ae 10 3d cf b6 97 3a d4 6b a2 3d
       0.10132648 0.035322573 0.0011574867 0.07930723
0003c0 a7 c2 6b 3d e2 c2 26 3d 48 18 8f ba 85 06 c1 3d
       0.05755868 0.0407132 -0.001091727 0.094250716
0003d0 ad 68 bc 3d 1f ec e9 3d a5 c3 d5 3d 03 94 39 3e
       0.09199653 0.1142199 0.10437707 0.18122868
0003e0 ba b7 47 3e 33 5e 3a 3e c2 1b 48 3e 10 53 1e 3e
       0.1950368 0.18199997 0.19541839 0.15461373

inference.model.encoder.model.tcn_block_00.block.conv1d_layer_1.bias f4 [2]
000000 f2 03 3a bd 68 fc c2 3e
       -0.04541392 0.38083196

inference.model.encoder.model.tcn_block_00.block.conv1d_layer_1.weight_g f4 [2, 1, 1]
000000 ab 2e ea 3e b4 48 34 3f
       0.4573873 0.70423436

inference.model.encoder.model.tcn_block_00.block.conv1d_layer_1.weight_v f4 [2, 2, 9]
000000 9d 9d 17 3e 73 d4 35 3d e6 08 98 3b 90 73 da 3d
       0.14806218 0.04439206 0.0046397327 0.10666573
000010 49 55 ba ba da 38 13 3e a6 35 32 3e 06 b7 04 bd
       -0.0014216091 0.14377156 0.17403278 -0.032401107
000020 8b 92 80 3e 72 74 a7 3d 10 b5 b0 3d 25 c8 9a bd
       0.25111803 0.08176507 0.08628285 -0.07557706
000030 1c 0d 7f be f0 0f 8d bd 3a d4 af 3d 22 b2 fd bd
       -0.24907345 -0.068878055 0.08585401 -0.12387492
000040 72 9f af 3d e8 57 23 3e 48 da 36 be c2 17 3a be
       0.08575334 0.15951502 -0.17856705 -0.18173125
000050 ec 93 1d be f2 be 33 be 2d 43 2e be 04 7f 27 be
       -0.15388459 -0.17553309 -0.17017813 -0.16357046
000060 b0 5c 32 be 37 e9 19 be 2a 30 87 bc a3 6d 5b 3e
       -0.1741817 -0.1503037 -0.016502459 0.21428542
000070 1b 6c 3a 3e 26 a7 d0 3d d8 42 30 3e fa 18 7e bc
       0.18205301 0.10188131 0.17212999 -0.015508885
000080 95 94 af bd d0 f3 b9 bd 40 bc 9d 3e 7f 9b 7a 3e
       -0.08573262 -0.09079707 0.30807686 0.2447338

inference.model.encoder.model.tcn_block_00.downsample.weight f4 [2, 14, 1]
000000 8b 56 e9 bd 90 62 eb 3d 53 84 ef 3d bc 1b 08 be
       -0.1139346 0.11493409 0.11695161 -0.1329183
000010 19 60 d0 bc d6 20 01 be 03 da 7f 3d bb df 99 3d
       -0.025436448 -0.12610182 0.06246377 0.07513376
000020 74 ca c1 bd 91 95 30 3e 82 72 0b bd 11 d7 f0 3e
       -0.09462443 0.17244555 -0.03404475 0.47039083
000030 50 c3 57 3c 9c be f6 3d 67 74 ab 3e 4b 5b ae be
       0.013169125 0.120480746 0.33487245 -0.34054026
000040 e3 d7 a0 be 78 ad da 3c f3 28 82 3e 0e 82 ab 3e
       -0.31414708 0.026694044 0.25421867 0.3349766
000050 2f 27 9a be e1 52 a4 be 03 e9 af 3e 15 56 5d be
       -0.3010802 -0.32094482 0.3435746 -0.21614869
000060 2c 19 e3 3e 23 14 c2 3e 59 d1 d2 3e bc b0 aa 3e
       0.44355142 0.37905988 0.41175345 0.33337963

inference.model.encoder.model.tcn_block_00.downsample.bias f4 [2]
000000 fe 72 9a 3e 45 42 2c 3f
       0.30165857 0.6728862

inference.model.encoder.model.tcn_block_01.conv0.bias f4 [2]
000000 55 b9 82 3e 8e 7e 11 3e
       0.25532022 0.14208433

inference.model.encoder.model.tcn_block_01.conv0.weight_g f4 [2, 1, 1]
000000 91 c9 2a 3f db 80 71 3f
       0.66713816 0.9433724

inference.model.encoder.model.tcn_block_01.conv0.weight_v f4 [2, 2, 9]
000000 ef 94 49 bd 93 de 31 3e 1d d0 d5 bd ee e3 2e bc
       -0.0492143 0.17370062 -0.10440085 -0.01067446
000010 f8 1a 3a be 27 f4 2b 3e 76 21 ea 38 f0 7b a0 bd
       -0.1817435 0.16792355 0.00011164222 -0.07836139
000020 85 bd 9f 3e 41 64 c1 bd 20 ca f9 bd c4 2a 53 3d
       0.3119928 -0.0944295 -0.121967554 0.051554456
000030 0e 32 49 3e 51 e0 a2 bc 70 6c 1e 3e 71 2b 8d 3e
       0.19648 -0.019882353 0.15471053 0.27572206
000040 0d 97 89 3e ad 09 c1 bc 9f 3a 4b bd a5 43 83 bd
       0.26873055 -0.023564184 -0.049616452 -0.064093865
000050 4d 8f c9 bd 3b a9 0c bd 83 09 36 3d 55 1c 61 3d
       -0.098417856 -0.03434108 0.044442665 0.05495866
000060 43 ba c8 bc d7 f8 66 bc 13 0b a3 bd 79 99 a9 bd
       -0.024502879 -0.014097414 -0.079610966 -0.08281226
000070 f1 f5 79 be 06 7b 8d be 15 32 21 be 95 95 a2 bd
       -0.24410225 -0.27632922 -0.15741761 -0.07938687
000080 74 dd 90 be 7a cf f7 ba 71 1b b0 bd 26 98 70 be
       -0.28293955 -0.0018906437 -0.08598984 -0.2349554

inference.model.encoder.model.tcn_block_01.conv1.bias f4 [2]
000000 b5 b2 31 3d 8c 4d f9 3e
       0.04338332 0.48691976

inference.model.encoder.model.tcn_block_01.conv1.weight_g f4 [2, 1, 1]
000000 4f b8 29 3f 84 b7 20 3f
       0.6629686 0.6278002

inference.model.encoder.model.tcn_block_01.conv1.weight_v f4 [2, 2, 9]
000000 2a 12 71 be d1 b0 e2 bd a2 fc 19 3d cc dc 78 be
       -0.23542085 -0.11068881 0.037594445 -0.24302977
000010 53 0f ee 3d 38 bc da 3d 88 4d 0f 3e 1a cd 24 be
       0.116240166 0.10680431 0.1399442 -0.16093865
000020 cd 3c 7c 3e 03 b0 7e bd 32 14 92 3e 81 9d 0f be
       0.24632569 -0.062179577 0.28531033 -0.14024927
000030 20 ba f4 bd 91 b9 50 3e 95 05 bd 3d e5 72 a5 3d
       -0.11949563 0.20383288 0.0922958 0.08078555
000040 bb a2 5a bd cd 40 1d bd 91 d5 1d 3d d1 ec f1 bd
       -0.053377848 -0.038391877 0.03853375 -0.11812747
000050 f6 16 55 3d ce 5b 79 3d 26 e1 50 3d e2 04 e0 3d
       0.05202385 0.060878567 0.05099597 0.10938431
000060 48 03 82 3e 44 0c 4a 3e dd 13 90 3d 51 81 34 be
       0.25393128 0.19731241 0.070350386 -0.17627455
000070 8f fc 28 be b6 33 26 be 05 7a 39 be 0f c5 38 be
       -0.16502593 -0.16230664 -0.18112953 -0.18043922
000080 fc 93 b6 bd ee 59 2e be e3 c0 88 3d 3d 6e 1a be
       -0.089149445 -0.17026493 0.06677415 -0.15081115

inference.model.encoder.model.tcn_block_01.block.conv1d_layer_0.bias f4 [2]
000000 55 b9 82 3e 8e 7e 11 3e
       0.25532022 0.14208433

inference.model.encoder.model.tcn_block_01.block.conv1d_layer_0.weight_g f4 [2, 1, 1]
000000 91 c9 2a 3f db 80 71 3f
       0.66713816 0.9433724

inference.model.encoder.model.tcn_block_01.block.conv1d_layer_0.weight_v f4 [2, 2, 9]
000000 ef 94 49 bd 93 de 31 3e 1d d0 d5 bd ee e3 2e bc
       -0.0492143 0.17370062 -0.10440085 -0.01067446
000010 f8 1a 3a be 27 f4 2b 3e 76 21 ea 38 f0 7b a0 bd
       -0.1817435 0.16792355 0.00011164222 -0.07836139
000020 85 bd 9f 3e 41 64 c1 bd 20 ca f9 bd c4 2a 53 3d
       0.3119928 -0.0944295 -0.121967554 0.051554456
000030 0e 32 49 3e 51 e0 a2 bc 70 6c 1e 3e 71 2b 8d 3e
       0.19648 -0.019882353 0.15471053 0.27572206
000040 0d 97 89 3e ad 09 c1 bc 9f 3a 4b bd a5 43 83 bd
       0.26873055 -0.023564184 -0.049616452 -0.064093865
000050 4d 8f c9 bd 3b a9 0c bd 83 09 36 3d 55 1c 61 3d
       -0.098417856 -0.03434108 0.044442665 0.05495866
000060 43 ba c8 bc d7 f8 66 bc 13 0b a3 bd 79 99 a9 bd
       -0.024502879 -0.014097414 -0.079610966 -0.08281226
000070 f1 f5 79 be 06 7b 8d be 15 32 21 be 95 95 a2 bd
       -0.24410225 -0.27632922 -0.15741761 -0.07938687
000080 74 dd 90 be 7a cf f7 ba 71 1b b0 bd 26 98 70 be
       -0.28293955 -0.0018906437 -0.08598984 -0.2349554

inference.model.encoder.model.tcn_block_01.block.conv1d_layer_1.bias f4 [2]
000000 b5 b2 31 3d 8c 4d f9 3e
       0.04338332 0.48691976

inference.model.encoder.model.tcn_block_01.block.conv1d_layer_1.weight_g f4 [2, 1, 1]
000000 4f b8 29 3f 84 b7 20 3f
       0.6629686 0.6278002

inference.model.encoder.model.tcn_block_01.block.conv1d_layer_1.weight_v f4 [2, 2, 9]
000000 2a 12 71 be d1 b0 e2 bd a2 fc 19 3d cc dc 78 be
       -0.23542085 -0.11068881 0.037594445 -0.24302977
000010 53 0f ee 3d 38 bc da 3d 88 4d 0f 3e 1a cd 24 be
       0.116240166 0.10680431 0.1399442 -0.16093865
000020 cd 3c 7c 3e 03 b0 7e bd 32 14 92 3e 81 9d 0f be
       0.24632569 -0.062179577 0.28531033 -0.14024927
000030 20 ba f4 bd 91 b9 50 3e 95 05 bd 3d e5 72 a5 3d
       -0.11949563 0.20383288 0.0922958 0.08078555
000040 bb a2 5a bd cd 40 1d bd 91 d5 1d 3d d1 ec f1 bd
       -0.053377848 -0.038391877 0.03853375 -0.11812747
000050 f6 16 55 3d ce 5b 79 3d 26 e1 50 3d e2 04 e0 3d
       0.05202385 0.060878567 0.05099597 0.10938431
000060 48 03 82 3e 44 0c 4a 3e dd 13 90 3d 51 81 34 be
       0.25393128 0.19731241 0.070350386 -0.17627455
000070 8f fc 28 be b6 33 26 be 05 7a 39 be 0f c5 38 be
       -0.16502593 -0.16230664 -0.18112953 -0.18043922
000080 fc 93 b6 bd ee 59 2e be e3 c0 88 3d 3d 6e 1a be
       -0.089149445 -0.17026493 0.06677415 -0.15081115

inference.model.qz_xy_mean.dense(qz_xy_mean)_layer_00.weight f4 [2, 2]
000000 a6 05 a1 3e f5 b7 d9 bd 57 66 55 3e 85 f9 08 be
       0.31449622 -0.1063079 0.20839821 -0.13376434

inference.model.qz_xy_mean.dense(qz_xy_mean)_layer_00.bias f4 [2]
000000 7b 36 89 3e 22 36 20 3e
       0.26799378 0.1564565

inference.model.qz_xy_logvar.dense(qz_xy_logvar)_layer_00.weight f4 [2, 2]
000000 dd c6 43 bf 2c 9b 42 bf 32 c4 1b be 5d 06 b1 be
       -0.76475316 -0.76018023 -0.15211561 -0.34575167

inference.model.qz_xy_logvar.dense(qz_xy_logvar)_layer_00.bias f4 [2]
000000 bb 6f 63 3e 27 f1 71 bf
       0.2221059 -0.94508594

inference.model.py_t_probs.dense(py_t_probs)_layer_00.weight f4 [4, 2]
000000 5c 71 f5 be 2c 45 60 3e 51 72 18 3f 27 f2 c0 be
       -0.4793805 0.21901387 0.59549433 -0.37684748
000010 80 ff d6 3e 1c 26 cc be bf 02 bc 3e 7d 01 30 3d
       0.41991806 -0.39872825 0.36720845 0.04297017

inference.model.py_t_probs.dense(py_t_probs)_layer_00.bias f4 [4]
000000 63 4a 99 3f 72 6e 23 bf a0 68 ee be 09 33 4c 3e
       1.1975826 -0.638404 -0.46564198 0.19941343

inference.model.pz_t_mean.dense(pz_t_mean)_layer_00.weight f4 [8, 2]
000000 97 16 5c 3f b0 df e3 3d 98 61 71 3f 0a e6 b0 3d
       0.8597197 0.111266494 0.9428954 0.086376265
000010 82 d1 78 3f 7c 3d b8 3c ed e5 17 3f a7 59 40 3e
       0.97194684 0.022490256 0.59335214 0.187842
000020 38 fd 9b 3e 1d d0 10 3f d7 a3 9f 3e 7d 5a 1f 3f
       0.30466628 0.56567556 0.31179687 0.6224745
000030 1b f0 91 3e d2 ab fe 3e c4 d2 1f 3f c7 d3 92 3e
       0.28503498 0.49740463 0.6243098 0.28677198

inference.model.pz_t_mean.dense(pz_t_mean)_layer_00.bias f4 [8]
000000 bd fd 22 3d da 1b b7 be 68 7b 25 bb 76 0d 55 be
       0.039792765 -0.35763437 -0.0025250558 -0.20805916
000010 ba 36 fb 3d 47 27 48 be aa b9 d3 3e 39 87 53 be
       0.12266298 -0.19546233 0.41352588 -0.20657052

inference.model.pz_t_logvar.dense(pz_t_logvar)_layer_00.weight f4 [2, 4]
000000 ee c4 a4 bf 9b 82 70 bf 31 48 c3 bf f2 6b 67 be
       -1.2872598 -0.9394929 -1.5256406 -0.22599772
000010 c1 a2 65 bf ac 0e 23 bf 5c 27 9c bf e0 47 66 bf
       -0.8970147 -0.6369426 -1.2199512 -0.8995342

inference.model.pz_t_logvar.dense(pz_t_logvar)_layer_00.bias f4 [2]
000000 30 d8 2e bf d5 40 7b bf
       -0.68298626 -0.981458

inference.model.decoder.dense(decoder)_layer_00.weight f4 [10, 2]
000000 da 1f 06 bf 00 05 8e be d2 9f a1 3e d3 36 fa 3e
       -0.5239235 -0.2773819 0.31567246 0.48869953
000010 7d 7f f5 3e ed ec 91 3e d1 17 cd be 46 71 c4 3a
       0.47948828 0.28501073 -0.40057233 0.0014987371
000020 38 f7 25 3d c3 f2 14 3c 45 cd 05 bf 2b 19 77 be
       0.04051897 0.009091082 -0.5226634 -0.24130695
000030 32 7d 99 3e 75 88 f9 3d cb 19 d2 3e 33 b3 a9 3e
       0.2997833 0.1218423 0.41035303 0.3314453
000040 58 4d a8 be 08 29 e7 be ce 9c 4e 3d 29 2d 05 3f
       -0.3287151 -0.45148492 0.05044251 0.52022034
