results_gmdgm/multi-1/dtcn/alpha100-k10-nogroom-v4/version_10/best_val_model.pt (torch, 468263 bytes, 276 tensors)

model.qy_x.model.tcn_block_00.conv0.bias f4 [32]
00000000: ee6f a23d ef19 bc3d 1465 3c3b 7ee3 783d
00000010: 9035 003d b333 76bd 6ffe 6abd f3a7 d53c
00000020: 449f 56bd 3755 25bc 4672 293d 8e8b 1f3d
00000030: dffb ac3d bce0 ce3c 8ca7 82bd cb39 4c3d
00000040: 5dcb 933c 61b3 b83c b660 e4bc 1e23 773d
00000050: e799 4dbd c57d 5e3d d3cf 993d 777d 603d
00000060: dc80 4c3d 561a a73d 51e7 8cbb 7491 58bd
00000070: c677 99bb 70f7 a63d 971f 5bbc 502c 513b
0.07931505 0.09184634 0.002874677 0.06076383 0.03130108 -0.060107898 -0.057371553 0.026081061
-0.05239798 -0.010091118 0.041368745 0.03895145 0.08446478 0.025253646 -0.06379613 0.049859803
0.018041307 0.022546472 -0.027878147 0.060336225 -0.0501956 0.054319162 0.075103424 0.054807153
0.049927577 0.0815932 -0.004300036 -0.05287309 -0.0046834676 0.08152664 -0.013374231 0.0031917281

model.qy_x.model.tcn_block_00.conv0.weight_g f4 [32, 1, 1]
00000000: 8afe 133f 06a1 153f b063 163f 63c3 1a3f
00000010: 7184 1a3f b42a 133f f4e0 1f3f 1517 153f
00000020: c9c9 213f 0091 223f 6f97 173f 6c8c 153f
00000030: 612d 163f 8744 163f bc4a 143f 6843 0e3f
00000040: 6a45 1a3f e2ff 173f 9029 173f b810 0a3f
00000050: 4f63 143f 025b 143f dc86 183f b066 183f
00000060: 33f2 163f 3f7f 153f 84d0 183f bed6 1a3f
00000070: 5085 183f f721 163f fd1f 183f 44af 153f
0.5781027 0.5844883 0.5874586 0.60454386 0.6035834 0.57487035 0.62452626 0.58238345
0.63198525 0.635025 0.59215444 0.5841739 0.5866299 0.58698314 0.57926536 0.55571604
0.6026217 0.5937482 0.59047794 0.5393176 0.5796403 0.57951367 0.5958078 0.5953169
0.58963317 0.5839729 0.5969317 0.6048392 0.5957842 0.58645576 0.5942381 0.5847056

model.qy_x.model.tcn_block_00.conv0.weight_v f4 [32, 16, 9]
00000000: ba98 d03b 6c63 3d3d 3990 92bd 460b 8dbd
00000010: 630b 2ebd 7bbf 383c dfc0 51bc 48c4 653d
00000020: 5092 8dbc 8dc8 f13c 1594 b9bc 6444 a2bc
00000030: 3cb5 b5bd 7fbb 8bbd 27d4 49bd 012e 4abc
00000040: 3a6d 903c 65bc 0e3d dea7 86bd 1aba 38bd
00000050: 284f af3c 57a0 743d 2a30 e5bc 6100 533d
00000060: 378d c7bc f2ef 0abb 3d34 813d ddb1 98bd
00000070: c12f 4abd 3918 9bbc 8949 00bd 2f85 913d
00000080: 7765 61bd e37f 27bd f4a0 80bd 5518 afbd
00000090: 6409 68bd eecf 833d 413d 053d d800 183d
000000a0: 0a60 1c3b 6ad7 31bd cef3 483c 24d7 a0bd
000000b0: fc72 80bd cc2e 3bbd 56cf 513d 454e 493d
000000c0: 8a20 10bd 1ec9 b7ba a871 5b3d 0b48 a53d
000000d0: 16cc ea3c 1940 a83b afdc 783d 7f5d 34bd
000000e0: 3c9f ae3c 9041 6ebd 25df 53bd eff7 1abd
000000f0: 81f4 2f3d b764 273d c436 1ebd 99e5 7a3c
00000100: 97e4 0c3d 5ef7 c1bc 0213 43bc 9a6c 2f3b
00000110: 4305 0e3d b445 823d cc1a 9dbd 1000 2dbd
00000120: e612 0d3d 0a0c 863d 9a6b 833d 72b1 7a3d
00000130: 6fb6 593a 1a0e bbbd 793e 38bc 32d5 94bd
00000140: b1a4 cabd f628 9c3d 0075 7a3d e01c b9bd
00000150: dfae 983b 9c11 e6bc 35df f2bc 890f 64bd
00000160: d4ff 723c c3fa 8abd 410e d43c 708e 1c3d
00000170: ded1 693d 4224 fa3c b759 a6bd 0b1d 52bd
00000180: bb8c 393d bf80 bb3c a033 6ebd 6c27 1fbd
00000190: b82e b73d dd52 8e3d 7aab acbc db92 56bb
000001a0: d9fd 77bd 57cd 993c 7b37 2dbd 7b6e 30bd
000001b0: c4c2 a8bc ee33 5ebb 082f 4abd e366 0e3d
000001c0: 87d2 83bd d12a 863d 73d2 4f3d 48df 93bd
000001d0: 3246 b1bc 2773 01bb fc9b ab3b 4600 4d3c
000001e0: a12a d23c 9c73 d9b7 4440 2ebd 86bb 283d
000001f0: c158 95bd c44a 27bd e5e2 c0bc 943c 2fbd
00000200: d17d 01bd 4d58 90bd 2085 b0bc a6e4 433c
00000210: 9e3c 7dbd b299 46bc c06b 5b3d 3b4e a93b
00000220: 213e 8a3c bb5d f63b 297c 063d f5c5 883d
00000230: 1280 b73d 91bc 7a3d ece0 af3d 96b5 d03b
00000240: 88ca 8cbd 4535 13bd b6c2 663d 0b15 393a
00000250: 2480 1ebd dc2a 76bd e7ea 91bd ded5 7dbd
00000260: 702a 1bbc ac47 2a3d 10c4 213d 82d2 acbd
00000270: 51f5 353d 84d4 90bd a40e c5bc 7c4a 1bbd
00000280: 3eb1 9ebc cd47 97bc 3ef8 b4bd 1218 afbd
00000290: 69b8 e2bc 4748 65bc 21c9 58bd 7d15 7b3c
000002a0: 20cb b8bd fb5b c2bc 011a 5c3d bce2 d3bc
000002b0: 6447 a23d 2b35 133d 54c1 83bd a3b9 6a3d
000002c0: d1c9 42bb 6475 f5bc a7db 8b3d 2653 7abd
000002d0: 5eed 16bb 9d95 e4bc 63bf 433d eb42 4b3c
000002e0: e14f e63c 3dae 8e3c 4c12 00bd 4c21 f0bc
000002f0: 64a6 a4bd 7053 e83c d0e8 493d 5f95 233d
00000300: 3e37 97bd 3f1a 5bbc a9f1 99bd 4836 82bd
00000310: 3e4e 8abd ed21 df3b 8770 23bd b62c e33b
00000320: 882a 413c 7854 723d 2b67 5cbd bc07 45bd
00000330: 3ac4 25bd 7c7e 803d d211 bebc 3426 723d
00000340: 3323 963c 8288 21bb 6c09 6bbc 3b62 f4bc
00000350: 186c 7dbb c223 08bd 69b6 82bc 1784 b7bb
00000360: 0a71 7cbd 8e29 2cbd 5ecc 843d d3d2 88bd
00000370: 18ad d7bb 318b a33d 845f fd3c 17ee ab3b
00000380: b9f2 86bd 5dfc 3b3d af91 55bd 89eb 95bc
00000390: c4ca b9bc 3121 e9bb 159f da3b e1d8 973d
000003a0: 3234 9e3c 4e63 a93d 9694 1b3d fd29 7cbd
000003b0: 2630 c43c 0848 8abd 1cce 37bd 5d7f 413c
000003c0: fca5 6f3c 0648 463d cbd6 13bd 3838 ab3c
000003d0: 4884 813d 8434 6fbd c31b a83d bbcd 38bd
000003e0: 7959 c33c 541f 123c 1156 a4bc 285c 0f3d
000003f0: 818a 843d a17a cabc e31d 45bd ca47 eebc
0.0063658627 0.046237394 -0.071564145 -0.06886916 -0.042491328 0.011276121 -0.012802332 0.05609539
-0.017281681 0.029514575 -0.022653619 -0.019808002 -0.08872458 -0.068228714 -0.04927459 -0.01234007
0.017630208 0.034847636 -0.06574987 -0.045099355 0.02140005 0.059723224 -0.027977068 0.051514033
-0.024359329 -0.0021200147 0.06308792 -0.074558 -0.049361948 -0.018932449 -0.03132013 0.07105481
-0.055028405 -0.040893447 -0.06280699 -0.08549563 -0.05664958 0.06436144 0.03252912 0.03711018
0.0023860955 -0.043418325 0.012265159 -0.07853535 -0.062719315 -0.045698926 0.05122312 0.04914691
-0.03518728 -0.001402173 0.053575188 0.08070382 0.028661769 0.005134594 0.060757335 -0.044034477
0.021316163 -0.058167994 -0.05172648 -0.037834104 0.042957786 0.040867534 -0.038626447 0.015313529
0.034397688 -0.023677524 -0.011906387 0.0026767612 0.034672987 0.06360951 -0.07671127 -0.042236388
0.03444185 0.06545265 0.06417008 0.06120438 0.0008305078 -0.09133549 -0.011245363 -0.07267226
-0.09894694 0.07625 0.061146736 -0.090387106 0.004659518 -0.028084569 -0.029647449 -0.055678878
0.014831502 -0.0678611 0.025885703 0.038221776 0.05708491 0.030534867 -0.081225805 -0.05129723
0.045300227 0.02288854 -0.058154702 -0.038855955 0.08944458 0.06949399 -0.02107786 -0.0032741341
-0.060544822 0.018774671 -0.04228924 -0.043074112 -0.020600684 -0.0033905464 -0.04936126 0.03476609
-0.06436639 0.06551135 0.05073781 -0.07220322 -0.021639917 -0.0019752474 0.0052371006 0.012512272
0.025655093 -2.592225e-05 -0.042541757 0.04119446 -0.07292319 -0.040842786 -0.023545692 -0.04278238
-0.03161413 -0.07048092 -0.021547854 0.0119563695 -0.061825387 -0.012121605 0.053569555 0.0051667965
0.016875328 0.0075184978 0.032833252 0.06678382 0.08959974 0.061214987 0.08587822 0.006369303
-0.06874567 -0.035939474 0.056338035 0.00070603256 -0.038696423 -0.060099468 -0.07124882 -0.061971538
-0.009470567 0.041572258 0.03949362 -0.08438589 0.044423405 -0.07071784 -0.024054833 -0.03791283
-0.019371625 -0.018466854 -0.08836411 -0.08549513 -0.027675824 -0.013994283 -0.052926186 0.015324947
-0.09023118 -0.0237255 0.053735737 -0.025864951 0.07923773 0.035939377 -0.06433359 0.057305943
-0.0029722343 -0.029963203 0.06829005 -0.061114453 -0.0023029665 -0.027903372 0.047789942 0.012406091
0.028114261 0.017417068 -0.03126745 -0.029312752 -0.08039549 0.028360099 0.049294293 0.039937373
-0.073835835 -0.013372957 -0.07516796 -0.063580096 -0.06753205 0.006809464 -0.039902236 0.00693282
0.011789925 0.059162587 -0.053809326 -0.04810308 -0.04047034 0.06274125 -0.023201857 0.059118465
0.018327331 -0.0024648015 -0.014345508 -0.029831996 -0.0038669165 -0.033237226 -0.01595612 -0.005600463
-0.06163124 -0.042031817 0.064842924 -0.066808365 -0.0065819137 0.07985533 0.030929334 0.0052468884
-0.065892644 0.04589497 -0.052140888 -0.018300788 -0.022679694 -0.0071145524 0.006671796 0.07414413
0.019311998 0.08270894 0.0379835 -0.06156348 0.02394874 -0.0675202 -0.044874296 0.011810151
0.014626976 0.04840853 -0.036093514 0.02090083 0.06324059 -0.058399692 0.0820842 -0.045118075
0.023846375 0.008918602 -0.02006057 0.034999996 0.0647173 -0.024716677 -0.048124205 -0.029086966

model.qy_x.model.tcn_block_00.conv1.bias f4 [32]
00000000: 761d 27bc 601b 8fbd f8ab 18bd 893c 0f3d
00000010: 3ec7 2f3d 5e96 983d dd28 f93c ee61 953d
00000020: 8e00 d93c 3a90 3c3d b981 b33c b411 abbc
00000030: e34c 4cbd c451 643d a02e a33c 1ebc a9bc
00000040: 8235 fe3a 6008 2ebd 8fda a7bc 5e06 1cbc
00000050: d5ef a53c b081 7abc 772a 3e3d 667a 023d
00000060: 3159 473d 5b3a ad3c d121 dbbb 564b 5abc
00000070: f851 743d 0aac 883c f95d 6a3d 97b2 d2bc
-0.010199895 -0.06987643 -0.037273377 0.03496984 0.04291462 0.07450555 0.030414993 0.07294069
0.026489522 0.046035983 0.021912443 -0.020882465 -0.049878012 0.05574204 0.019919693 -0.020719584
0.0019394609 -0.042488456 -0.020489959 -0.009523002 0.020255962 -0.015289709 0.046427216 0.03185501
0.048669044 0.02114599 -0.006687381 -0.013323626 0.059648484 0.016683597 0.057218526 -0.025719924

model.qy_x.model.tcn_block_00.conv1.weight_g f4 [32, 1, 1]
00000000: 8de2 173f 743c 1a3f f575 1d3f bed7 143f
00000010: 697b 133f 73dd 1f3f a6a8 1e3f 59a9 153f
00000020: a7b9 113f ec9f 1c3f 6fe4 153f 8531 183f
00000030: 49e1 183f 7ce7 163f 415f 1d3f 928b 163f
00000040: 51f1 133f 9d48 1f3f 6e50 1b3f 7016 183f
00000050: ac0b 1c3f 387f 1c3f 36cd 0d3f 22ae 153f
00000060: 776d 173f 9bdb 233f 6ed9 193f 546a 1e3f
00000070: 348e 1b3f b446 143f 52f4 163f eff4 1e3f
0.59330064 0.60248494 0.61508113 0.58141696 0.57610184 0.6244728 0.6197609 0.5846153
0.5692391 0.6118152 0.58551687 0.5945056 0.5971876 0.5894697 0.6147347 0.5880672
0.57790095 0.62220174 0.606696 0.59409237 0.6095531 0.6113162 0.5539125 0.5846883
0.59151405 0.64006966 0.60097396 0.61880994 0.6076386 0.57920384 0.58966553 0.6209249

model.qy_x.model.tcn_block_00.conv1.weight_v f4 [32, 32, 9]
00000000: a14c 373d 9e5d f83c d862 4f3d 9dd1 ae3c
00000010: 8bc7 a63c 777f 03b9 1793 9d3a 601e b2bc
00000020: 3ace 253d 1fa8 873d b58b 1d3d b59d b63c
00000030: 711a a03b 6b8d f6bc a7a2 933c e7bd 3bbc
00000040: 5af0 53bc e21d 8d3c 3047 5eba 183e ad3c
00000050: 1cb6 f7bc c449 4d3d ed60 24bd 2bcf 83bc
00000060: 74e8 43bc ddba 313c 1f52 e83c fae4 eb3b
00000070: c6d0 023d d5d4 fb3b 534c 2abb b3c7 383c
00000080: 8426 f93c 7c19 21bd d997 ccbc 85de 6a3d
00000090: e965 303d 79af 8c3c fecc a53c f181 cc3c
000000a0: 06cf eb3c 2a8c b7bc 6797 f6ba aec6 1fbd
000000b0: cae0 0abd 97be 9cbc a1e2 65bc 44b3 123d
000000c0: 43b3 f73b a375 05bc af64 90ba b6ce e93c
000000d0: 03ee 96bc 5c0b 78bc aad9 11bc f4a5 29bd
000000e0: 3978 98bb f1a4 48bd 5897 f0bc a87c 18bd
000000f0: 91fd 0e3d d6ba 6cbd a430 2c3d e675 0a3d
00000100: 57a4 babc 9405 803d 882c be3b 559d ddbc
00000110: 49e4 673c 5aa4 523d ae07 ecbc 2f7c bf3c
00000120: 0a10 413d ea52 1d3b 015e e83c c10d 4cb9
00000130: c19b 86bc 3c44 823d 6553 a8bc ab55 863c
00000140: 6c90 063d 01ca 70bc d398 353d 8c2b e1bc
00000150: b742 943d 613c 373d 8775 433c 3cba d9bc
00000160: 8339 a93c 7ee6 143d cc02 d4bc 1601 44ba
00000170: 472b 3fbd 6a6d 38bd 9010 ae3b ff2e 663d
00000180: e118 013c d9ab d73c 1104 66bc 249c 3abc
00000190: 3a02 efb9 1359 c7bc fc44 153d acbd 113d
000001a0: e94b 2abd 2991 833c 994b bfbc 8b06 04bd
000001b0: efc0 2b3c 8359 acba b15b 89bc 408e c33c
000001c0: 19db 453d 1e8f d13b 05d7 373c 4811 a23c
000001d0: 0349 11bc 3cc7 4a3d d802 953d 757e 823c
000001e0: 3983 d33c 1411 8d3d a695 903d 21f6 89bc
000001f0: aa45 a03a 3661 e4bc 7d60 b83c b291 053d
00000200: 499c cabc ba63 4d3c c44e 253c 7429 3cbd
00000210: fae5 ad3c 6883 d83c 16d5 883a 72a8 a43c
00000220: 30dc e23c cee3 643d 2731 863d 8ca2 ca3c
00000230: f1f7 283d a1e3 253b 907a 4c3d ac72 d9bb
00000240: 614d 0bbd e422 1e3d d0a2 093d 7bb3 d13c
00000250: d254 1a3d 8752 a83c 9ef3 0a3d c901 1d3d
00000260: ef7f 75bc 5a54 8a3c ed85 f23c 8c10 573c
00000270: e41c d3bc 508c e03c d656 5d3d 3a0d 2cbc
00000280: 50a9 963d 5fce 033d 511c 383d a96b 6eba
00000290: 526a c9bc 9575 ac3a dae2 d13c 3984 e0ba
000002a0: 588b 9a3d 0957 3ebc 8f1e 5bbc 1fd0 48b8
000002b0: cb7a 8f3d f66c 83bb 67bd 973d 5d69 533d
000002c0: f97f 913c 535e 683d 469a 653d bc3a d13a
000002d0: 7ef1 81bc 5e4c 473d 958e d33c b149 0cbd
000002e0: 0918 b6bc fd9b c83c 3c39 ae3c 18b2 b8ba
000002f0: e38d 2abd 503c 1cbd 1f34 06bc c741 cc3c
00000300: d90b d23a 1ab0 14bd 131f 2bbb 1bc4 7f3d
00000310: b241 11bd 3eab 07bd 8327 743d 1883 a63d
00000320: d614 f2bc 18a0 cfbc 92bf 173c 8d3b aa3d
00000330: 710a 06bc 1671 e63c 994e 8a3d 0e9e d43a
00000340: 99ce 5f3b d28e 99bc 5132 a13c 6e71 8b3d
00000350: 122b 183d 54ae 573d 5a13 203c 8a72 9d3b
00000360: 6c70 03bc e45d 123d 3309 0bbb ab29 27bd
00000370: fcc1 32bc f8a1 023d 7926 853d af25 1aba
00000380: 411d 26bd 66e3 91bc 45ed abbc a687 483d
00000390: 6b90 8b3d ba0f 2e3d 90b2 3c3d a1c4 843d
000003a0: 8f21 8b3d 0a4b 823d 5bcb 593d 890b 173d
000003b0: 0eb2 4d3d 768b 8fbc 1e7d 7cbc b209 113d
000003c0: 217d e73c 3ba5 f7bc 52c9 b7bc d715 7fbc
000003d0: 72fa 943d abb0 813d 137a 77bb b823 073d
000003e0: 8d71 303c 8cfc 8f3d 194b ebbc 5843 8ebc
000003f0: 19e1 efbc fbc8 3a3d 0374 62bc 07db 283d
0.044750813 0.030318078 0.050631374 0.021340186 0.020358821 -0.00012540618 0.0012021986 -0.021743
0.040479876 0.066238634 0.038463313 0.022291997 0.0048859646 -0.03009673 0.018021895 -0.0114588505
-0.012935722 0.017226163 -0.00084792357 0.021147773 -0.030238204 0.050119177 -0.040131498 -0.016089996
-0.011957277 0.010847774 0.02835947 0.007198927 0.031937383 0.0076852837 -0.0025985434 0.011278081
0.030413873 -0.039330944 -0.02497475 0.057341117 0.04306594 0.017173516 0.02023935 0.024964305
0.02878524 -0.022405703 -0.0018813432 -0.039007835 -0.03390578 -0.01913385 -0.014031083 0.035815492
0.0075592115 -0.008145723 -0.0011016334 0.02854095 -0.01842404 -0.015139427 -0.008901993 -0.04141803
-0.0046530035 -0.048985425 -0.029369041 -0.037228256 0.03490979 -0.057795368 0.042038575 0.033803843
-0.022783441 0.06251064 0.0058036484 -0.02705256 0.0141535485 0.05142627 -0.028812256 0.023374645
0.047134437 0.002400572 0.028365137 -0.0001946008 -0.016431691 0.06360671 -0.020547578 0.016398272
0.032852575 -0.014696599 0.044335198 -0.027486585 0.07239287 0.044735316 0.011929876 -0.026578061
0.020657307 0.036352627 -0.02588024 -0.00074769685 -0.046672132 -0.04502622 0.005312033 0.056197163
0.007879467 0.02632706 -0.014039055 -0.011389766 -0.0004558729 -0.024334466 0.03644274 0.035581276
-0.0415763 0.016060429 -0.023351477 -0.032232802 0.010483011 -0.0013149235 -0.016767355 0.023871541
0.04830465 0.0063952347 0.011220698 0.019783631 -0.008867505 0.04950641 0.07275933 0.01592944
0.025819408 0.06888023 0.07059793 -0.016840996 0.0012227793 -0.027878385 0.022506947 0.03260965
-0.024732726 0.012535984 0.01008958 -0.04593797 0.021227825 0.026429847 0.0010439481 0.020099852
0.027692884 0.055881314 0.06552344 0.024735712 0.04125208 0.002531268 0.049921572 -0.0066359844
-0.03400934 0.038607493 0.033602536 0.025598278 0.037678547 0.020547165 0.033923738 0.03833178
-0.014984115 0.016885925 0.029604876 0.013126504 -0.025770612 0.027410656 0.05403789 -0.0105012
0.073565125 0.032179233 0.04494888 -0.0009095022 -0.02458683 0.0013157601 0.025620867 -0.0017129249
0.07546109 -0.0116174305 -0.013373985 -4.7877544e-05 0.07005843 -0.004010792 0.074091725 0.051614154
0.017761217 0.05673058 0.05605533 0.0015962939 -0.015862223 0.048656814 0.025824824 -0.034249965
-0.022228258 0.024488444 0.021267526 -0.0014091162 -0.04163922 -0.038143456 -0.008191138 0.024933709
0.0016025259 -0.036300756 -0.002611105 0.06244288 -0.035463043 -0.033122294 0.059607994 0.08130473
-0.029550951 -0.025344893 0.0092619825 0.0831214 -0.0081812 0.028130095 0.067532726 0.001622142
0.0034150241 -0.01874486 0.019677313 0.06808744 0.03715045 0.052656487 0.009770239 0.004804914
-0.008022409 0.035734072 -0.00212152 -0.040811222 -0.010910507 0.031892747 0.06501479 -0.0005880249
-0.040555242 -0.017808627 -0.020987162 0.04895749 0.06814655 0.042495467 0.046068728 0.064828165
0.0679351 0.06361969 0.05317245 0.036876235 0.050218634 -0.017522555 -0.01541069 0.035409637
0.028257908 -0.030230155 -0.022434864 -0.015569172 0.07274331 0.06332525 -0.003776197 0.03299305
0.01076926 0.07030591 -0.028722333 -0.017366096 -0.02928214 0.045601826 -0.013821605 0.041224506

model.qy_x.model.tcn_block_00.block.conv1d_layer_0.bias f4 [32]
00000000: ee6f a23d ef19 bc3d 1465 3c3b 7ee3 783d
00000010: 9035 003d b333 76bd 6ffe 6abd f3a7 d53c
00000020: 449f 56bd 3755 25bc 4672 293d 8e8b 1f3d
00000030: dffb ac3d bce0 ce3c 8ca7 82bd cb39 4c3d
00000040: 5dcb 933c 61b3 b83c b660 e4bc 1e23 773d
00000050: e799 4dbd c57d 5e3d d3cf 993d 777d 603d
00000060: dc80 4c3d 561a a73d 51e7 8cbb 7491 58bd
00000070: c677 99bb 70f7 a63d 971f 5bbc 502c 513b
0.07931505 0.09184634 0.002874677 0.06076383 0.03130108 -0.060107898 -0.057371553 0.026081061
-0.05239798 -0.010091118 0.041368745 0.03895145 0.08446478 0.025253646 -0.06379613 0.049859803
0.018041307 0.022546472 -0.027878147 0.060336225 -0.0501956 0.054319162 0.075103424 0.054807153
0.049927577 0.0815932 -0.004300036 -0.05287309 -0.0046834676 0.08152664 -0.013374231 0.0031917281

model.qy_x.model.tcn_block_00.block.conv1d_layer_0.weight_g f4 [32, 1, 1]
00000000: 8afe 133f 06a1 153f b063 163f 63c3 1a3f
00000010: 7184 1a3f b42a 133f f4e0 1f3f 1517 153f
00000020: c9c9 213f 0091 223f 6f97 173f 6c8c 153f
00000030: 612d 163f 8744 163f bc4a 143f 6843 0e3f
00000040: 6a45 1a3f e2ff 173f 9029 173f b810 0a3f
00000050: 4f63 143f 025b 143f dc86 183f b066 183f
00000060: 33f2 163f 3f7f 153f 84d0 183f bed6 1a3f
00000070: 5085 183f f721 163f fd1f 183f 44af 153f
0.5781027 0.5844883 0.5874586 0.60454386 0.6035834 0.57487035 0.62452626 0.58238345
0.63198525 0.635025 0.59215444 0.5841739 0.5866299 0.58698314 0.57926536 0.55571604
0.6026217 0.5937482 0.59047794 0.5393176 0.5796403 0.57951367 0.5958078 0.5953169
0.58963317 0.5839729 0.5969317 0.6048392 0.5957842 0.58645576 0.5942381 0.5847056

model.qy_x.model.tcn_block_00.block.conv1d_layer_0.weight_v f4 [32, 16, 9]
00000000: ba98 d03b 6c63 3d3d 3990 92bd 460b 8dbd
00000010: 630b 2ebd 7bbf 383c dfc0 51bc 48c4 653d
00000020: 5092 8dbc 8dc8 f13c 1594 b9bc 6444 a2bc
00000030: 3cb5 b5bd 7fbb 8bbd 27d4 49bd 012e 4abc
00000040: 3a6d 903c 65bc 0e3d dea7 86bd 1aba 38bd
00000050: 284f af3c 57a0 743d 2a30 e5bc 6100 533d
00000060: 378d c7bc f2ef 0abb 3d34 813d ddb1 98bd
00000070: c12f 4abd 3918 9bbc 8949 00bd 2f85 913d
00000080: 7765 61bd e37f 27bd f4a0 80bd 5518 afbd
00000090: 6409 68bd eecf 833d 413d 053d d800 183d
000000a0: 0a60 1c3b 6ad7 31bd cef3 483c 24d7 a0bd
000000b0: fc72 80bd cc2e 3bbd 56cf 513d 454e 493d
000000c0: 8a20 10bd 1ec9 b7ba a871 5b3d 0b48 a53d
000000d0: 16cc ea3c 1940 a83b afdc 783d 7f5d 34bd
000000e0: 3c9f ae3c 9041 6ebd 25df 53bd eff7 1abd
000000f0: 81f4 2f3d b764 273d c436 1ebd 99e5 7a3c
00000100: 97e4 0c3d 5ef7 c1bc 0213 43bc 9a6c 2f3b
00000110: 4305 0e3d b445 823d cc1a 9dbd 1000 2dbd
00000120: e612 0d3d 0a0c 863d 9a6b 833d 72b1 7a3d
00000130: 6fb6 593a 1a0e bbbd 793e 38bc 32d5 94bd
00000140: b1a4 cabd f628 9c3d 0075 7a3d e01c b9bd
00000150: dfae 983b 9c11 e6bc 35df f2bc 890f 64bd
00000160: d4ff 723c c3fa 8abd 410e d43c 708e 1c3d
00000170: ded1 693d 4224 fa3c b759 a6bd 0b1d 52bd
00000180: bb8c 393d bf80 bb3c a033 6ebd 6c27 1fbd
00000190: b82e b73d dd52 8e3d 7aab acbc db92 56bb
000001a0: d9fd 77bd 57cd 993c 7b37 2dbd 7b6e 30bd
000001b0: c4c2 a8bc ee33 5ebb 082f 4abd e366 0e3d
000001c0: 87d2 83bd d12a 863d 73d2 4f3d 48df 93bd
000001d0: 3246 b1bc 2773 01bb fc9b ab3b 4600 4d3c
000001e0: a12a d23c 9c73 d9b7 4440 2ebd 86bb 283d
000001f0: c158 95bd c44a 27bd e5e2 c0bc 943c 2fbd
00000200: d17d 01bd 4d58 90bd 2085 b0bc a6e4 433c
00000210: 9e3c 7dbd b299 46bc c06b 5b3d 3b4e a93b
00000220: 213e 8a3c bb5d f63b 297c 063d f5c5 883d
00000230: 1280 b73d 91bc 7a3d ece0 af3d 96b5 d03b
00000240: 88ca 8cbd 4535 13bd b6c2 663d 0b15 393a
00000250: 2480 1ebd dc2a 76bd e7ea 91bd ded5 7dbd
00000260: 702a 1bbc ac47 2a3d 10c4 213d 82d2 acbd
00000270: 51f5 353d 84d4 90bd a40e c5bc 7c4a 1bbd
00000280: 3eb1 9ebc cd47 97bc 3ef8 b4bd 1218 afbd
00000290: 69b8 e2bc 4748 65bc 21c9 58bd 7d15 7b3c
000002a0: 20cb b8bd fb5b c2bc 011a 5c3d bce2 d3bc
000002b0: 6447 a23d 2b35 133d 54c1 83bd a3b9 6a3d
000002c0: d1c9 42bb 6475 f5bc a7db 8b3d 2653 7abd
000002d0: 5eed 16bb 9d95 e4bc 63bf 433d eb42 4b3c
000002e0: e14f e63c 3dae 8e3c 4c12 00bd 4c21 f0bc
000002f0: 64a6 a4bd 7053 e83c d0e8 493d 5f95 233d
00000300: 3e37 97bd 3f1a 5bbc a9f1 99bd 4836 82bd
00000310: 3e4e 8abd ed21 df3b 8770 23bd b62c e33b
00000320: 882a 413c 7854 723d 2b67 5cbd bc07 45bd
00000330: 3ac4 25bd 7c7e 803d d211 bebc 3426 723d
00000340: 3323 963c 8288 21bb 6c09 6bbc 3b62 f4bc
00000350: 186c 7dbb c223 08bd 69b6 82bc 1784 b7bb
00000360: 0a71 7cbd 8e29 2cbd 5ecc 843d d3d2 88bd
00000370: 18ad d7bb 318b a33d 845f fd3c 17ee ab3b
00000380: b9f2 86bd 5dfc 3b3d af91 55bd 89eb 95bc
00000390: c4ca b9bc 3121 e9bb 159f da3b e1d8 973d
000003a0: 3234 9e3c 4e63 a93d 9694 1b3d fd29 7cbd
000003b0: 2630 c43c 0848 8abd 1cce 37bd 5d7f 413c
000003c0: fca5 6f3c 0648 463d cbd6 13bd 3838 ab3c
000003d0: 4884 813d 8434 6fbd c31b a83d bbcd 38bd
000003e0: 7959 c33c 541f 123c 1156 a4bc 285c 0f3d
000003f0: 818a 843d a17a cabc e31d 45bd ca47 eebc
0.0063658627 0.046237394 -0.071564145 -0.06886916 -0.042491328 0.011276121 -0.012802332 0.05609539
-0.017281681 0.029514575 -0.022653619 -0.019808002 -0.08872458 -0.068228714 -0.04927459 -0.01234007
0.017630208 0.034847636 -0.06574987 -0.045099355 0.02140005 0.059723224 -0.027977068 0.051514033
-0.024359329 -0.0021200147 0.06308792 -0.074558 -0.049361948 -0.018932449 -0.03132013 0.07105481
-0.055028405 -0.040893447 -0.06280699 -0.08549563 -0.05664958 0.06436144 0.03252912 0.03711018
0.0023860955 -0.043418325 0.012265159 -0.07853535 -0.062719315 -0.045698926 0.05122312 0.04914691
-0.03518728 -0.001402173 0.053575188 0.08070382 0.028661769 0.005134594 0.060757335 -0.044034477
0.021316163 -0.058167994 -0.05172648 -0.037834104 0.042957786 0.040867534 -0.038626447 0.015313529
0.034397688 -0.023677524 -0.011906387 0.0026767612 0.034672987 0.06360951 -0.07671127 -0.042236388
0.03444185 0.06545265 0.06417008 0.06120438 0.0008305078 -0.09133549 -0.011245363 -0.07267226
-0.09894694 0.07625 0.061146736 -0.090387106 0.004659518 -0.028084569 -0.029647449 -0.055678878
0.014831502 -0.0678611 0.025885703 0.038221776 0.05708491 0.030534867 -0.081225805 -0.05129723
0.045300227 0.02288854 -0.058154702 -0.038855955 0.08944458 0.06949399 -0.02107786 -0.0032741341
-0.060544822 0.018774671 -0.04228924 -0.043074112 -0.020600684 -0.0033905464 -0.04936126 0.03476609
-0.06436639 0.06551135 0.05073781 -0.07220322 -0.021639917 -0.0019752474 0.0052371006 0.012512272
0.025655093 -2.592225e-05 -0.042541757 0.04119446 -0.07292319 -0.040842786 -0.023545692 -0.04278238
-0.03161413 -0.07048092 -0.021547854 0.0119563695 -0.061825387 -0.012121605 0.053569555 0.0051667965
0.016875328 0.0075184978 0.032833252 0.06678382 0.08959974 0.061214987 0.08587822 0.006369303
-0.06874567 -0.035939474 0.056338035 0.00070603256 -0.038696423 -0.060099468 -0.07124882 -0.061971538
-0.009470567 0.041572258 0.03949362 -0.08438589 0.044423405 -0.07071784 -0.024054833 -0.03791283
-0.019371625 -0.018466854 -0.08836411 -0.08549513 -0.027675824 -0.013994283 -0.052926186 0.015324947
-0.09023118 -0.0237255 0.053735737 -0.025864951 0.07923773 0.035939377 -0.06433359 0.057305943
-0.0029722343 -0.029963203 0.06829005 -0.061114453 -0.0023029665 -0.027903372 0.047789942 0.012406091
0.028114261 0.017417068 -0.03126745 -0.029312752 -0.08039549 0.028360099 0.049294293 0.039937373
-0.073835835 -0.013372957 -0.07516796 -0.063580096 -0.06753205 0.006809464 -0.039902236 0.00693282
0.011789925 0.059162587 -0.053809326 -0.04810308 -0.04047034 0.06274125 -0.023201857 0.059118465
0.018327331 -0.0024648015 -0.014345508 -0.029831996 -0.0038669165 -0.033237226 -0.01595612 -0.005600463
-0.06163124 -0.042031817 0.064842924 -0.066808365 -0.0065819137 0.07985533 0.030929334 0.0052468884
-0.065892644 0.04589497 -0.052140888 -0.018300788 -0.022679694 -0.0071145524 0.006671796 0.07414413
0.019311998 0.08270894 0.0379835 -0.06156348 0.02394874 -0.0675202 -0.044874296 0.011810151
0.014626976 0.04840853 -0.036093514 0.02090083 0.06324059 -0.058399692 0.0820842 -0.045118075
0.023846375 0.008918602 -0.02006057 0.034999996 0.0647173 -0.024716677 -0.048124205 -0.029086966

model.qy_x.model.tcn_block_00.block.conv1d_layer_1.bias f4 [32]
00000000: 761d 27bc 601b 8fbd f8ab 18bd 893c 0f3d
00000010: 3ec7 2f3d 5e96 983d dd28 f93c ee61 953d
00000020: 8e00 d93c 3a90 3c3d b981 b33c b411 abbc
00000030: e34c 4cbd c451 643d a02e a33c 1ebc a9bc
00000040: 8235 fe3a 6008 2ebd 8fda a7bc 5e06 1cbc
00000050: d5ef a53c b081 7abc 772a 3e3d 667a 023d
00000060: 3159 473d 5b3a ad3c d121 dbbb 564b 5abc
00000070: f851 743d 0aac 883c f95d 6a3d 97b2 d2bc
-0.010199895 -0.06987643 -0.037273377 0.03496984 0.04291462 0.07450555 0.030414993 0.07294069
0.026489522 0.046035983 0.021912443 -0.020882465 -0.049878012 0.05574204 0.019919693 -0.020719584
0.0019394609 -0.042488456 -0.020489959 -0.009523002 0.020255962 -0.015289709 0.046427216 0.03185501
0.048669044 0.02114599 -0.006687381 -0.013323626 0.059648484 0.016683597 0.057218526 -0.025719924

model.qy_x.model.tcn_block_00.block.conv1d_layer_1.weight_g f4 [32, 1, 1]
00000000: 8de2 173f 743c 1a3f f575 1d3f bed7 143f
00000010: 697b 133f 73dd 1f3f a6a8 1e3f 59a9 153f
00000020: a7b9 113f ec9f 1c3f 6fe4 153f 8531 183f
00000030: 49e1 183f 7ce7 163f 415f 1d3f 928b 163f
00000040: 51f1 133f 9d48 1f3f 6e50 1b3f 7016 183f
00000050: ac0b 1c3f 387f 1c3f 36cd 0d3f 22ae 153f
00000060: 776d 173f 9bdb 233f 6ed9 193f 546a 1e3f
00000070: 348e 1b3f b446 143f 52f4 163f eff4 1e3f
0.59330064 0.60248494 0.61508113 0.58141696 0.57610184 0.6244728 0.6197609 0.5846153
0.5692391 0.6118152 0.58551687 0.5945056 0.5971876 0.5894697 0.6147347 0.5880672
0.57790095 0.62220174 0.606696 0.59409237 0.6095531 0.6113162 0.5539125 0.5846883
0.59151405 0.64006966 0.60097396 0.61880994 0.6076386 0.57920384 0.58966553 0.6209249

model.qy_x.model.tcn_block_00.block.conv1d_layer_1.weight_v f4 [32, 32, 9]
00000000: a14c 373d 9e5d f83c d862 4f3d 9dd1 ae3c
00000010: 8bc7 a63c 777f 03b9 1793 9d3a 601e b2bc
00000020: 3ace 253d 1fa8 873d b58b 1d3d b59d b63c
00000030: 711a a03b 6b8d f6bc a7a2 933c e7bd 3bbc
00000040: 5af0 53bc e21d 8d3c 3047 5eba 183e ad3c
00000050: 1cb6 f7bc c449 4d3d ed60 24bd 2bcf 83bc
00000060: 74e8 43bc ddba 313c 1f52 e83c fae4 eb3b
00000070: c6d0 023d d5d4 fb3b 534c 2abb b3c7 383c
00000080: 8426 f93c 7c19 21bd d997 ccbc 85de 6a3d
00000090: e965 303d 79af 8c3c fecc a53c f181 cc3c
000000a0: 06cf eb3c 2a8c b7bc 6797 f6ba aec6 1fbd
000000b0: cae0 0abd 97be 9cbc a1e2 65bc 44b3 123d
000000c0: 43b3 f73b a375 05bc af64 90ba b6ce e93c
000000d0: 03ee 96bc 5c0b 78bc aad9 11bc f4a5 29bd
000000e0: 3978 98bb f1a4 48bd 5897 f0bc a87c 18bd
000000f0: 91fd 0e3d d6ba 6cbd a430 2c3d e675 0a3d
00000100: 57a4 babc 9405 803d 882c be3b 559d ddbc
00000110: 49e4 673c 5aa4 523d ae07 ecbc 2f7c bf3c
00000120: 0a10 413d ea52 1d3b 015e e83c c10d 4cb9
00000130: c19b 86bc 3c44 823d 6553 a8bc ab55 863c
00000140: 6c90 063d 01ca 70bc d398 353d 8c2b e1bc
00000150: b742 943d 613c 373d 8775 433c 3cba d9bc
00000160: 8339 a93c 7ee6 143d cc02 d4bc 1601 44ba
00000170: 472b 3fbd 6a6d 38bd 9010 ae3b ff2e 663d
00000180: e118 013c d9ab d73c 1104 66bc 249c 3abc
00000190: 3a02 efb9 1359 c7bc fc44 153d acbd 113d
000001a0: e94b 2abd 2991 833c 994b bfbc 8b06 04bd
000001b0: efc0 2b3c 8359 acba b15b 89bc 408e c33c
000001c0: 19db 453d 1e8f d13b 05d7 373c 4811 a23c
000001d0: 0349 11bc 3cc7 4a3d d802 953d 757e 823c
000001e0: 3983 d33c 1411 8d3d a695 903d 21f6 89bc
000001f0: aa45 a03a 3661 e4bc 7d60 b83c b291 053d
00000200: 499c cabc ba63 4d3c c44e 253c 7429 3cbd
00000210: fae5 ad3c 6883 d83c 16d5 883a 72a8 a43c
00000220: 30dc e23c cee3 643d 2731 863d 8ca2 ca3c
00000230: f1f7 283d a1e3 253b 907a 4c3d ac72 d9bb
00000240: 614d 0bbd e422 1e3d d0a2 093d 7bb3 d13c
00000250: d254 1a3d 8752 a83c 9ef3 0a3d c901 1d3d
00000260: ef7f 75bc 5a54 8a3c ed85 f23c 8c10 573c
00000270: e41c d3bc 508c e03c d656 5d3d 3a0d 2cbc
00000280: 50a9 963d 5fce 033d 511c 383d a96b 6eba
00000290: 526a c9bc 9575 ac3a dae2 d13c 3984 e0ba
000002a0: 588b 9a3d 0957 3ebc 8f1e 5bbc 1fd0 48b8
000002b0: cb7a 8f3d f66c 83bb 67bd 973d 5d69 533d
000002c0: f97f 913c 535e 683d 469a 653d bc3a d13a
000002d0: 7ef1 81bc 5e4c 473d 958e d33c b149 0cbd
000002e0: 0918 b6bc fd9b c83c 3c39 ae3c 18b2 b8ba
000002f0: e38d 2abd 503c 1cbd 1f34 06bc c741 cc3c
00000300: d90b d23a 1ab0 14bd 131f 2bbb 1bc4 7f3d
00000310: b241 11bd 3eab 07bd 8327 743d 1883 a63d
00000320: d614 f2bc 18a0 cfbc 92bf 173c 8d3b aa3d
00000330: 710a 06bc 1671 e63c 994e 8a3d 0e9e d43a
00000340: 99ce 5f3b d28e 99bc 5132 a13c 6e71 8b3d
00000350: 122b 183d 54ae 573d 5a13 203c 8a72 9d3b
00000360: 6c70 03bc e45d 123d 3309 0bbb ab29 27bd
00000370: fcc1 32bc f8a1 023d 7926 853d af25 1aba
00000380: 411d 26bd 66e3 91bc 45ed abbc a687 483d
00000390: 6b90 8b3d ba0f 2e3d 90b2 3c3d a1c4 843d
000003a0: 8f21 8b3d 0a4b 823d 5bcb 593d 890b 173d
000003b0: 0eb2 4d3d 768b 8fbc 1e7d 7cbc b209 113d
000003c0: 217d e73c 3ba5 f7bc 52c9 b7bc d715 7fbc
000003d0: 72fa 943d abb0 813d 137a 77bb b823 073d
000003e0: 8d71 303c 8cfc 8f3d 194b ebbc 5843 8ebc
000003f0: 19e1 efbc fbc8 3a3d 0374 62bc 07db 283d
0.044750813 0.030318078 0.050631374 0.021340186 0.020358821 -0.00012540618 0.0012021986 -0.021743
0.040479876 0.066238634 0.038463313 0.022291997 0.0048859646 -0.03009673 0.018021895 -0.0114588505
-0.012935722 0.017226163 -0.00084792357 0.021147773 -0.030238204 0.050119177 -0.040131498 -0.016089996
-0.011957277 0.010847774 0.02835947 0.007198927 0.031937383 0.0076852837 -0.0025985434 0.011278081
0.030413873 -0.039330944 -0.02497475 0.057341117 0.04306594 0.017173516 0.02023935 0.024964305
0.02878524 -0.022405703 -0.0018813432 -0.039007835 -0.03390578 -0.01913385 -0.014031083 0.035815492
0.0075592115 -0.008145723 -0.0011016334 0.02854095 -0.01842404 -0.015139427 -0.008901993 -0.04141803
-0.0046530035 -0.048985425 -0.029369041 -0.037228256 0.03490979 -0.057795368 0.042038575 0.033803843
-0.022783441 0.06251064 0.0058036484 -0.02705256 0.0141535485 0.05142627 -0.028812256 0.023374645
0.047134437 0.002400572 0.028365137 -0.0001946008 -0.016431691 0.06360671 -0.020547578 0.016398272
0.032852575 -0.014696599 0.044335198 -0.027486585 0.07239287 0.044735316 0.011929876 -0.026578061
0.020657307 0.036352627 -0.02588024 -0.00074769685 -0.046672132 -0.04502622 0.005312033 0.056197163
0.007879467 0.02632706 -0.014039055 -0.011389766 -0.0004558729 -0.024334466 0.03644274 0.035581276
-0.0415763 0.016060429 -0.023351477 -0.032232802 0.010483011 -0.0013149235 -0.016767355 0.023871541
0.04830465 0.0063952347 0.011220698 0.019783631 -0.008867505 0.04950641 0.07275933 0.01592944
0.025819408 0.06888023 0.07059793 -0.016840996 0.0012227793 -0.027878385 0.022506947 0.03260965
-0.024732726 0.012535984 0.01008958 -0.04593797 0.021227825 0.026429847 0.0010439481 0.020099852
0.027692884 0.055881314 0.06552344 0.024735712 0.04125208 0.002531268 0.049921572 -0.0066359844
-0.03400934 0.038607493 0.033602536 0.025598278 0.037678547 0.020547165 0.033923738 0.03833178
-0.014984115 0.016885925 0.029604876 0.013126504 -0.025770612 0.027410656 0.05403789 -0.0105012
0.073565125 0.032179233 0.04494888 -0.0009095022 -0.02458683 0.0013157601 0.025620867 -0.0017129249
0.07546109 -0.0116174305 -0.013373985 -4.7877544e-05 0.07005843 -0.004010792 0.074091725 0.051614154
0.017761217 0.05673058 0.05605533 0.0015962939 -0.015862223 0.048656814 0.025824824 -0.034249965
-0.022228258 0.024488444 0.021267526 -0.0014091162 -0.04163922 -0.038143456 -0.008191138 0.024933709
0.0016025259 -0.036300756 -0.002611105 0.06244288 -0.035463043 -0.033122294 0.059607994 0.08130473
-0.029550951 -0.025344893 0.0092619825 0.0831214 -0.0081812 0.028130095 0.067532726 0.001622142
0.0034150241 -0.01874486 0.019677313 0.06808744 0.03715045 0.052656487 0.009770239 0.004804914
-0.008022409 0.035734072 -0.00212152 -0.040811222 -0.010910507 0.031892747 0.06501479 -0.0005880249
-0.040555242 -0.017808627 -0.020987162 0.04895749 0.06814655 0.042495467 0.046068728 0.064828165
0.0679351 0.06361969 0.05317245 0.036876235 0.050218634 -0.017522555 -0.01541069 0.035409637
0.028257908 -0.030230155 -0.022434864 -0.015569172 0.07274331 0.06332525 -0.003776197 0.03299305
0.01076926 0.07030591 -0.028722333 -0.017366096 -0.02928214 0.045601826 -0.013821605 0.041224506

model.qy_x.model.tcn_block_00.downsample.weight f4 [32, 16, 1]
00000000: f820 6cbc a687 5abc 8c73 26bd f2c1 00bd
00000010: fb05 ebbc 9cea c5bc 81a5 93bc bd25 12ba
00000020: 6777 593b 4e84 86bc 11c9 12bc e1e8 943c
00000030: bd39 663a 5738 093c 2a68 a93a 453c 2d38
00000040: 57ed 693c f52e ffbb 8a80 963c 38f1 c1ba
00000050: 6136 cbbc 408e 013b 470e 86bb d961 8bbc
00000060: d3bd 7abd 6000 f0bc a67d 1d3d ac0e 4abc
00000070: 20a8 e5b9 9cd6 5cbc caf8 8c3c 70a0 a03c
00000080: 2bfa 08bc 1404 663c 6904 873c 7e1e 513c
00000090: 5afc 55bc 4da0 1f3c 1fc3 23bc d7c4 ed3c
000000a0: 0a9c cb3c 301e 463a cb68 103d 9a4a bc39
000000b0: f4c5 77bb 949a 06bd c048 dd3c 42d7 0abd
000000c0: 6eb3 5a3c 87ca 923c 6a81 f53c a349 28bc
000000d0: f8e6 a3bc 5fa8 35ba b5d9 94bc 3c15 89bc
000000e0: e024 a53c b107 833c 7033 663d b2f5 a43c
000000f0: fc6e 5ebb e819 153c d19b df3c 44a8 f9bc
00000100: 8bc4 b53a 1551 9b3c 4150 cebc 3db0 9dbc
00000110: a34f e33a 7e57 e1bb ab34 2abc d293 8d3b
00000120: 59ab ca3c b5ae 1c3c 1795 89bb cfd4 193d
00000130: 4c1b ffbb f6c1 81bb b66f 79bb ca70 a03c
00000140: 1543 103c 0118 163c 8122 273c 680c 62bb
00000150: dd71 803b fc9b e03a 6fc9 a3ba ba55 21ba
00000160: 2f0c afbb 026b adbb 5489 1abd bb15 c93c
00000170: 54c0 68bc b567 fb3b 11fe aebc 5d1b a83c
00000180: b704 6abc 4301 91bb f202 6bbc 912a 533b
00000190: aa55 08bd 8476 01bd c059 433c c416 9ebc
000001a0: 7165 b3bc 85f5 39bc 0722 2d3d f741 ff3c
000001b0: b160 52bc 7f2c 83bb 6b86 bc3b e28a d53c
000001c0: 158e 64bb b757 053d 9947 cebb 5ee7 9c3b
000001d0: 75f2 89bc cb0f f7bb f61c 2cbb 6407 9a3c
000001e0: 0b6a 263d a344 a03c 0151 133c 212b 5e3c
000001f0: 5c24 e5bc b79f 3a3b d009 493b f24f cbbc
00000200: 86f1 2f3c 02f7 55bc 3e12 80bc 8a78 04bc
00000210: 8d99 543a e613 7bbc cfcb ec3b 98af 18bd
00000220: bc53 95bc 4fc1 91bc 3eff 9ebc fb0d 893c
00000230: b785 a9bc 531f 8b3c 8b89 b0bc 006e eb3c
00000240: 8459 e7ba d17c 56bc 7c6c c0bc 1a41 a8bb
00000250: 8aa6 3dbc a6cc 81ba cad1 5d3c 7fa3 97bc
00000260: 6a6c b7bb 9c5e 493c b2bf 9dbc dae6 213c
00000270: 4443 d03b c311 373c 5db9 38bc 0915 e43c
00000280: 41f7 ac3c 089a b73c 4131 00bc 2075 9d3c
00000290: 4030 55bc f700 8dbb bdd7 2cbc 1354 53bc
000002a0: 589f 30bc 9ff6 80bc 6481 1fbc 7621 c23b
000002b0: dbc1 24bc f3eb 5dbc bd9a 91bc 194e d33c
000002c0: 5008 dbbb f386 5d3c 4e19 09bc 6f84 3fbb
000002d0: d8b9 893b 1d2b 463c 47a4 55bb b092 5b3c
000002e0: 4e0d 493c 865b 6dbc 6b48 e2bc af1d e9bb
000002f0: 6278 1fbd 4cf5 b2bc ff78 95bb 9853 073c
00000300: ea86 f23c 26eb bf3c 00d7 f63b 576d 32bc
00000310: 1cbd b2bb 63c7 e9bb 82f1 9ebc d43a 17bd
00000320: 3c49 e23b 7ccb ab3a 95c3 063d 9575 2a3d
00000330: 60d5 cf3b 7265 3dba 79d7 163d 19e7 333d
00000340: 5384 cb3c 1b64 cc3c cf90 373c c42f ae39
00000350: e2e8 86bc 775f 423c 6d95 dabb 8e12 6839
00000360: 212f 1b3d f91f 523c 17a1 933c c3ef b43c
00000370: 7def 06bb ce82 b4bc 185c 2d3d b2cb ed3a
00000380: 8b81 ac3c 5653 f1bc af1d e93b 06df 953c
00000390: fb26 98bc 6745 93bb 6dd6 8f3c a1f9 67bc
000003a0: b8da b0bc 0e25 c0bb 5369 6f3c c7a7 64bc
000003b0: 919a 83bc ca36 8bbc a6d3 843b d8ab 153d
000003c0: 1ecf 143d 9613 4ebc 68ff 083c e46a cf3a
000003d0: eba7 debc 5474 b6bb 393e 6aba 7c36 dbbc
000003e0: b3fd 9aba 311c 9f3a b136 cd3c 2b6e fc3c
000003f0: 8324 1d3a 3d89 b2bc 2efd b93b e16d 353d
-0.014412157 -0.013338005 -0.040637538 -0.03143496 -0.028689375 -0.024159722 -0.018023254 -0.00055750814
0.0033182742 -0.01642051 -0.008959071 0.018177452 0.00087824074 0.008375249 0.001292472 4.1302545e-05
0.014277778 -0.00778758 0.01837184 -0.001479662 -0.024806203 0.0019768625 -0.0040910575 -0.01701443
-0.061216187 -0.029297054 0.038449906 -0.0123326 -0.00043803547 -0.013478901 0.017208476 0.019607753
-0.008360426 0.014039058 0.016481595 0.012763618 -0.013060654 0.0097428085 -0.009995251 0.029024525
0.024854679 0.0007557599 0.03525619 0.00035913737 -0.0037807198 -0.03286226 0.027012229 -0.033896692
0.013348443 0.017918838 0.029968936 -0.010271463 -0.020007595 -0.00069296913 -0.018170217 -0.016733758
0.020159185 0.015994878 0.0562014 0.020136688 -0.0033940664 0.009100415 0.027295979 -0.030475743
0.0013867778 0.018959561 -0.025184752 -0.019249076 0.0017342459 -0.006876885 -0.010388534 0.0043206
0.024739908 0.009563138 -0.004198681 0.037556466 -0.0077852365 -0.0039598895 -0.003806097 0.019585032
0.008805056 0.009160996 0.0102010975 -0.0034492258 0.0039198236 0.0017136331 -0.0012495945 -0.0006154437
-0.0053420286 -0.0052922973 -0.037728623 0.024546495 -0.014206011 0.007672275 -0.021361383 0.02052086
-0.014283351 -0.0044251992 -0.014343964 0.0032221416 -0.03328482 -0.031607166 0.011923254 -0.019297965
-0.021898957 -0.01135004 0.04226878 0.031159384 -0.012840436 -0.004003107 0.0057533286 0.026067201
-0.0034874727 0.032554355 -0.006295156 0.0047883233 -0.016839245 -0.0075397245 -0.002626238 0.018802352
0.040628474 0.019563979 0.008991481 0.013560087 -0.027971439 0.0028476545 0.0030676015 -0.024818394
0.010738736 -0.0130593795 -0.015633699 -0.008085379 0.0008110039 -0.015324568 0.0072264443 -0.037276834
-0.018228404 -0.017792372 -0.019408818 0.0167303 -0.020693643 0.01698271 -0.02154996 0.028738976
-0.0017650579 -0.013091282 -0.02348923 -0.005134714 -0.011575351 -0.0009902909 0.013538787 -0.018510578
-0.0055976408 0.012290623 -0.019256447 0.009881699 0.006355675 0.011173668 -0.011274663 0.027842062
0.021113994 0.022412315 -0.007824243 0.019220889 -0.013011992 -0.0043030935 -0.010549483 -0.012898463
-0.010780178 -0.015742598 -0.009735439 0.005924399 -0.010055984 -0.013545024 -0.01777398 0.025794076
-0.0066843405 0.013520944 -0.0083678495 -0.0029223224 0.0042030625 0.01209524 -0.0032599138 0.013401672
0.0122712385 -0.014487153 -0.027622422 -0.0071141343 -0.038933165 -0.021845482 -0.004561543 0.008259676
0.029605348 0.023427557 0.007532954 -0.010890326 -0.0054546725 -0.0071343645 -0.01940227 -0.036921337
0.006905703 0.0013106908 0.032901365 0.04161604 0.006342575 -0.00072248944 0.036826584 0.043921564
0.02484337 0.024950078 0.011203959 0.00033223454 -0.016468469 0.011863581 -0.006670645 0.00022132156
0.037886743 0.012825006 0.01802115 0.022086984 -0.0020589523 -0.022035029 0.042324156 0.0018142371
0.021057865 -0.029458683 0.0071141343 0.018294822 -0.018573275 -0.0044943574 0.0175583 -0.014158637
-0.021588668 -0.0058637923 0.014612514 -0.013956017 -0.016064914 -0.016993899 0.004053551 0.036540836
0.036330335 -0.012577912 0.008361675 0.0015824703 -0.027179679 -0.0055680666 -0.00089356635 -0.026759379
-0.0011824876 0.0012139139 0.025050493 0.03081425 0.00059945154 -0.021793956 0.0056759333 0.04429424

model.qy_x.model.tcn_block_00.downsample.bias f4 [32]
00000000: 56fe eb3c f8e8 02be 9733 10be fbff 73be
00000010: 5e70 a13d f60b 9dbc c54a 20be aa1e 823e
00000020: d36f 403e a35c 9b3d 3fde 9c3d e48f 58bb
00000030: e705 393e d33e 6dbe 6302 2dbe 6671 323e
00000040: 6941 5d3e 9384 59bc 715e 30bd e150 083e
00000050: f37c 4a3e f358 d2bd 78e1 1f3e 1c95 1a3e
00000060: 4825 833d 5386 30be 2c30 b73c 1625 3fbd
00000070: edbc da3d 880d 42be 41e5 0c3e 95fc 5a3e
0.0288078 -0.12784183 -0.1408218 -0.23828118 0.078827605 -0.019170742 -0.15653522 0.2541402
0.18792658 0.075860284 0.076595776 -0.003304475 0.18068658 -0.23168497 -0.16895442 0.1742607
0.21606983 -0.013276237 -0.043058816 0.13312103 0.19774227 -0.10270872 0.15613353 0.15095943
0.06403595 -0.1723874 0.022361837 -0.046666227 0.10680566 -0.18950474 0.13759328 0.21385415

model.qy_x.model.tcn_block_01.conv0.bias f4 [32]
00000000: dca4 b93c c2d3 80bb d036 9a3d 3cc2 5f3d
00000010: 6049 533d 40f9 773d 6f04 f63c e244 7a3d
00000020: e6b9 48bd 5b5b 0c3c c489 eabb 08a0 71bc
00000030: ed40 06bd dbc3 21bd 778c 223d 12a3 903d
00000040: a034 91bc 4d2c 173d 67d8 5f3d 46af 113d
00000050: cd19 95bd b0fd acbc ef68 323d 4b38 803d
00000060: 0f0e 8f3c bbc3 86bc 2adb 56bd 84f2 b6bc
00000070: 2f12 cabc d6dd dcbc ff77 3fbd 7bdf 283d
0.022661619 -0.0039314935 0.07529986 0.054628596 0.051583648 0.060540438 0.030031411 0.061100848
-0.04900541 0.008566703 -0.007157536 -0.014747627 -0.03277676 -0.039493423 0.03968474 0.07062353
-0.017725289 0.036907483 0.054649737 0.035567544 -0.07280312 -0.021117061 0.043557104 0.06260737
0.017462758 -0.016450753 -0.052455105 -0.022332437 -0.024666874 -0.026961248 -0.046745297 0.041228753

model.qy_x.model.tcn_block_01.conv0.weight_g f4 [32, 1, 1]
00000000: 994c 0d3f de81 133f 37ca 193f 8e63 1c3f
00000010: 2da9 113f a109 1f3f 30e7 123f b47f 183f
00000020: 1b2d 193f 1297 153f 908b 123f 454f 193f
00000030: d13d 1a3f 1d66 1a3f cdd6 143f e0ae 113f
00000040: 35ab 123f 9a5f 193f f81f 1e3f 1ae2 143f
00000050: ca9e 113f 0f8d 1e3f e328 153f ce99 163f
00000060: 1a82 133f 12f6 143f 6096 173f 29e6 223f
00000070: 94a9 153f b662 113f 1df6 103f d644 183f
0.55195004 0.57620037 0.6007418 0.6108941 0.56898767 0.6212407 0.57384014 0.5956986
0.5983445 0.5843364 0.57244205 0.5988658 0.60250574 0.6031206 0.5814026 0.56907463
0.5729249 0.599115 0.6176753 0.58157504 0.5688292 0.6193399 0.58265513 0.5882844
0.57620394 0.58187973 0.5921383 0.63632447 0.5846188 0.56791246 0.5662554 0.59480035

model.qy_x.model.tcn_block_01.conv0.weight_v f4 [32, 32, 9]
00000000: cfbf 46bd 9ecc bcbc c61f a4bc 5787 56bd
00000010: 5ddc 21bd 14a0 763c 8c06 b93c d1e9 313d
00000020: 5f00 06bc f62f cabc 5fb8 46bd ed69 1bbc
00000030: 7cc5 acbc 3729 42bc 85b2 17bd b5d6 3abc
00000040: c30d 393d 5c7e a93b 9f25 93bc 8dab 023d
00000050: 11ff 6a3d ee49 103d ac9c e33c 55fc 24bc
00000060: 512c 403d 293c 9ebc 55bc 9dbc 1961 1a3c
00000070: e35a b33c a54e 00bd 6fcd 743d 2b7e 59bc
00000080: f503 273a a12a 59bb 756e ad3c bb28 773d
00000090: 7380 f4bc db2a dcbb 284e 39bc e076 03bc
000000a0: 67d7 433d c4a0 b33c 5cc8 183b b44f 043c
000000b0: 5c95 483d c97b 91bd ef8f 223d c6e2 72bd
000000c0: bb68 9fbb 05c3 1fbd c28a 083d d309 5ebd
000000d0: 3975 7b3c 1440 62bd 437c 89bc 98bd 0d3a
000000e0: 4b75 17bd fa47 8bbc 10a5 a53c ff41 14bd
000000f0: e2f1 17bd e3d5 973c 1c79 353d dd47 29bc
00000100: 2f13 3dbd 98f3 5dbd a241 09bc b0fa 6abc
00000110: 4897 6ebd 7c31 373c ddc7 513d a1e8 093d
00000120: 002e 143d 77aa 0fbd 19c4 67bd 7b6c 50bd
00000130: df69 4abc 4475 a9bb 03a2 843c 6e64 b1bb
00000140: 820e f8bc 4d76 bcbc fe42 213c d752 0bbd
00000150: 354b dfbc e7bf ff3c e973 203d 2662 333b
00000160: f8b8 413d c5b3 e6ba e6b0 ff3c 9e4f 163a
00000170: 4610 873c 61ac 6a3c 613b efbc c21e e53c
00000180: d172 74bd 9ada bcbb 0dbe 03bc 0c39 85bb
00000190: 7998 7cbc d4b8 23bd e645 103d d47c 54bd
000001a0: b260 5cbd eb54 52bd 1dd1 9c3c 4353 95bb
000001b0: 3d18 f7bc 6998 373d 94a4 81bd e5ad 41bc
000001c0: 798d 043d 743c da3c 55a1 57bd 8def e0bc
000001d0: 1831 4b3d b4ab b5bc 9d03 16bd 840b 423d
000001e0: eb7d 463d fe50 a03c 8e5c c4bc 0954 063d
000001f0: 5f10 15bd 148b 21bd e821 d0bc 8eb5 66bd
00000200: 2494 c13b ab7e 083d 2f26 2a3d 8176 17bd
00000210: 38de b6ba 56de 0fbd db13 cd3c dd69 1f3b
00000220: 3a1c 4f3d eb84 06bd dc76 a2bc 930b 02bb
00000230: 9673 72bd 4561 f1bb b87c 25bc 2a20 fe3c
00000240: 8c0c 173a d3f3 053d 5a21 3fbd 7f11 8c3b
00000250: f62a 2ebd c45b 0bbd db7d ae3c 2995 7cbd
00000260: 4d04 3a3d 885f 4fbd 4b0a d83c 3c24 a13b
00000270: b3e2 1f3d be0f 5c3c e3f4 8cbc eef1 dcbc
00000280: ad5a 903c 197c d4bc eafd e23b c87e 3c3d
00000290: 614d a83b 47fe b93c 041d 17bc 4cdc 153c
000002a0: 395c f33b 8da6 5c3c ad92 dd3c 4ba5 a43c
000002b0: ec59 49bd 69a2 06bd 8784 b0bc fa0f f0bc
000002c0: f26e 72bc 5566 d83c f267 163d e6bf bebc
000002d0: e476 cb3c 7d91 bcbc b042 853c e082 debc
000002e0: 2ff8 d1bb fe77 53bd a4d5 77bc 57dd ffbc
000002f0: ee33 d53c b0ec dabc 5046 8bbd 3dab c03b
00000300: 5363 86bd a31e 0c3d 5c15 6abc 2fbe faba
00000310: 2dce 59bd 48ed a3bd ab7e 063d 9635 02bd
00000320: 4464 173d 4d58 3abd 3b37 79bc 3ea7 f63b
00000330: c5a8 543d e424 c7bc 3155 9c3c 46af 303d
00000340: b73d 6dbd 3384 4b3d 24b7 ae3b 7afd 01bd
00000350: 8bcc b3ba 99a8 803c 6e0e bf3c 2e50 67bd
00000360: 5c1b ad3c 8a6d cd3c ee93 32bd da80 5c3c
00000370: 1342 493d be5b 8ebb 7921 d1bc 9773 a9bc
00000380: d3f1 6bbd bf10 d83c 44ad 9fbc 63c1 69bd
00000390: e079 d7bc c4d2 49bd bf50 883c cab6 3a3d
000003a0: 3404 89bd 2544 0dbb a9df 0fbd 302a 17bd
000003b0: 7427 e1ba 978c 35bd bec1 423d 6864 dc3b
000003c0: f99b 0ebc c646 48bc 961b 333d e477 433c
000003d0: 66ea 5fbd 4437 3bbc 9164 f3bc 3653 f3bc
000003e0: 4565 22bd f21b ee3c 67b9 81bc 0345 4f3d
000003f0: 4e3f f5bc 9f6f 5ebd 07c0 8e3c 40cd 3dbd
-0.048522767 -0.023046788 -0.020034682 -0.052375164 -0.039516795 0.015052814 0.02258613 0.043435875
-0.008178799 -0.024681073 -0.048515674 -0.009485704 -0.021090262 -0.011850647 -0.037035484 -0.011403729
0.04517914 0.005172534 -0.017962275 0.031901885 0.057372157 0.035226755 0.027784668 -0.010069926
0.046917263 -0.019315796 -0.019254843 0.009422564 0.021893924 -0.031325 0.05976623 -0.01327471
0.0006371134 -0.003313698 0.021170834 0.060341578 -0.029846406 -0.006718976 -0.011310138 -0.0080239475
0.047812846 0.021927245 0.0023312783 0.008075643 0.048970565 -0.07103688 0.039688047 -0.0592983
-0.0048647798 -0.039004344 0.033335455 -0.054208588 0.015347772 -0.05523689 -0.016782885 0.0005406975
-0.036977094 -0.017002095 0.02022031 -0.03619575 -0.03709591 0.018534606 0.044304952 -0.010332075
-0.046160873 -0.054187387 -0.0083774645 -0.014341995 -0.05824974 0.011181232 0.051215995 0.033669118
0.03617668 -0.035074677 -0.056583498 -0.050884705 -0.012354343 -0.00517145 0.016190534 -0.0054135835
-0.030280355 -0.023005629 0.009842632 -0.03401455 -0.027257541 0.031219436 0.03917304 0.0027371733
0.04729554 -0.0017601183 0.031212281 0.000573391 0.016487252 0.014323325 -0.029203119 0.027968768
-0.05967981 -0.005763364 -0.008040917 -0.0040656384 -0.015417212 -0.039971188 0.03522291 -0.051876858
-0.053803153 -0.051350515 0.019142682 -0.0045570447 -0.030162925 0.044823084 -0.06330219 -0.011821245
0.03236148 0.026640154 -0.052644093 -0.027457977 0.049607366 -0.022176601 -0.03662454 0.047374263
0.04845993 0.01956987 -0.023969915 0.032794986 -0.036392566 -0.039439276 -0.025406793 -0.056325488
0.0059075523 0.033323925 0.04154032 -0.03697825 -0.0013951724 -0.035124145 0.025033882 0.0024324574
0.05056403 -0.032841604 -0.019832067 -0.0019843325 -0.059192263 -0.0073663318 -0.010100536 0.031021196
0.00057620625 0.032703232 -0.046662666 0.0042745466 -0.04252144 -0.03402306 0.021300247 -0.061665688
0.045414258 -0.050628215 0.026372096 0.0049176496 0.039034557 0.013431488 -0.017206615 -0.02697083
0.017621363 -0.02593808 0.0069272416 0.046019346 0.0051361774 0.022704257 -0.009223226 0.009146761
0.0074267653 0.013467443 0.02704748 0.02009835 -0.04915802 -0.03286973 -0.021547569 -0.029304493
-0.014796959 0.026415983 0.036720224 -0.023284864 0.024836965 -0.023018593 0.01626715 -0.027162015
-0.0064077596 -0.051628105 -0.0151266195 -0.031233473 0.026025739 -0.02672419 -0.068005204 0.005879788
-0.06561913 0.034208905 -0.014287319 -0.0019130165 -0.05317514 -0.08004242 0.032835644 -0.031789385
0.036960855 -0.045494366 -0.015210922 0.007527261 0.051918764 -0.024309583 0.019083591 0.043135904
-0.057920184 0.049686622 0.0053318907 -0.031735875 -0.0013717575 0.015705394 0.02332231 -0.05647295
0.02113121 0.025076646 -0.043598108 0.013458455 0.04913528 -0.0043444326 -0.025528656 -0.020685
-0.05760367 0.026375173 -0.0194918 -0.057069194 -0.026303232 -0.049273267 0.016640065 0.045584477
-0.06690255 -0.002155551 -0.03512541 -0.036905468 -0.0017177896 -0.04432353 0.04754805 0.0067258365
-0.008704179 -0.012223905 0.04372748 0.01193044 -0.0546669 -0.011426751 -0.02971104 -0.029702764
-0.03964736 0.02906606 -0.015835477 0.050602924 -0.029937413 -0.05430567 0.01742555 -0.04633832

model.qy_x.model.tcn_block_01.conv1.bias f4 [7]
00000000: 6813 2fbd 3e5b 813d aa35 0d3d 12da 423d
00000010: 88d2 29bd dbbd 7cbd 5ef2 0bbc
-0.042743117 0.06316231 0.034475006 0.04757125 -0.041460544 -0.061704498 -0.008541672

model.qy_x.model.tcn_block_01.conv1.weight_g f4 [7, 1, 1]
00000000: ecf8 0d3f 1298 163f b40d 313f b671 113f
00000010: 56a7 183f 78c3 1b3f 0bcd 1e3f
0.5545795 0.5882579 0.69161534 0.56814134 0.59630334 0.60845137 0.6203162
