results_gmdgm/ssm_v1/dtcn/h_v4/version_4/best_val_model.pt (torch, 58663 bytes, 204 tensors)

model.qy_x.model.tcn_block_00.conv0.bias f4 [2]
-0.057147857 0.24931745
00000000: df13 6abd 134d 7f3e

model.qy_x.model.tcn_block_00.conv0.weight_g f4 [2, 1, 1]
0.81375366 1.009852
00000000: 2952 503f d542 813f

model.qy_x.model.tcn_block_00.conv0.weight_v f4 [2, 10, 9]
-0.05038651 -0.0389407 -0.078529686 -0.090436794 -0.10622599 -0.11068097 -0.12711953 -0.09257227
-0.12638107 0.055719 0.047654495 0.06160926 0.043317102 0.0723456 0.091802426 0.10954883
0.118202865 0.117922924 0.01731947 0.042980857 0.082522266 0.102984235 0.10217178 0.12754491
0.13125099 0.14198448 0.14672184 -0.08222196 -0.06696866 -0.053515103 -0.04932189 -0.001780605
-0.040246863 -0.025040932 -0.022183118 -0.023189824 0.022760725 0.061478496 0.031752985 0.01929233
-0.012141935 -0.044534143 -0.037385195 -0.08579796 -0.09284864 -0.056813244 -0.043070868 -0.054270983
-0.078934446 -0.08632173 -0.07022074 -0.050024524 -0.07464614 -0.07654951 0.021094166 -0.014042836
0.03628068 0.008287996 0.034278497 0.065544374 0.124171846 0.1417579 0.111912355 0.0472864
0.06871441 0.06258573 0.08656886 0.113191046 0.13994835 0.16209027 0.11639655 0.1550931
-0.024587551 -0.013191613 -0.02586776 -0.041772746 -0.09712255 -0.13739485 -0.14271381 -0.17018558
-0.17508374 0.082770616 0.07661661 0.018127948 0.05630976 0.04024587 0.03319022 0.015687758
0.03394244 -0.0065065743 0.037969112 0.047900014 0.058948617 0.072286144 0.08937482 0.10978631
0.13325617 0.15602589 0.17575932 -0.04535792 -0.052874677 -0.061867557 -0.07208763 -0.08650051
-0.10318561 -0.122481994 -0.13943447 -0.15767252 -0.033113576 -0.04503476 -0.056061648 -0.06828854
-0.08159785 -0.10445941 -0.12978555 -0.15558834 -0.17969762 0.05638167 0.0499433 0.047219876
0.044242226 0.04625007 0.048666574 0.04882855 0.04273456 0.039940037 -0.06798023 -0.055592954
-0.045097757 -0.036065508 -0.02400829 -0.010487112 -0.00054870895 0.016043058 0.036767926 0.056079626
0.0592194 0.06271788 0.06750132 0.07602375 0.08802735 0.10402901 0.11719875 0.13241826
0.030562948 0.020235553 0.011352565 -0.008966188 -0.029798392 -0.05119683 -0.07417355 -0.09811879
-0.12526934 -0.005850419 -0.021587953 -0.041196898 -0.055133373 -0.075949766 -0.100603096 -0.12980643
-0.16089709 -0.19188029 0.01246572 0.027855165 0.04356202 0.060813803 0.08063042 0.10547314
0.13306734 0.16350237 0.19239649 -0.06120863 -0.057974543 -0.054051872 -0.052403454 -0.055428468
-0.05751678 -0.061027456 -0.062503934 -0.064615324
00000000: 1662 4ebd 4980 1fbd 2cd4 a0bd ed36 b9bd
00000010: 038d d9bd b4ac e2bd 9f2b 02be 8896 bdbd
00000020: 0a6a 01be 9b39 643d 5c31 433d fe59 7c3d
00000030: 466d 313d ee29 943d e902 bc3d 235b e03d
00000040: 5814 f23d 9381 f13d 90e1 8d3c b20c 303d
00000050: 6f01 a93d 66e9 d23d 703f d13d 229b 023e
00000060: a966 063e 6164 113e 403e 163e fd63 a8bd
00000070: dd26 89bd a732 5bbd c005 4abd 3063 e9ba
00000080: e5d9 24bd a422 cdbc 5fb9 b5bc 96f8 bdbc
00000090: b374 ba3c e0d0 7b3d 6b0f 023d f30a 9e3c
000000a0: f7ee 46bc 6f69 36bd 3821 19bd d7b6 afbd
000000b0: 6e27 bebd 01b5 68bd 146b 30bd 404b 5ebd
000000c0: 62a8 a1bd 72c9 b0bd e4cf 8fbd 84e6 4cbd
000000d0: 13e0 98bd fdc5 9cbd accd ac3c ec13 66bc
000000e0: 0d9b 143d 60ca 073c 9c67 0c3d 213c 863d
000000f0: cf4d fe3d fc28 113e 4e32 e53d 62af 413d
00000100: 24ba 8c3d f22c 803d 044b b13d b5d0 e73d
00000110: 9f4e 0f3e fefa 253e 5061 ee3d bad0 1e3e
00000120: d56b c9bc a321 58bc a0e8 d3bc e619 2bbd
00000130: 30e8 c6bd 3cb1 0cbe 9223 12be 2145 2ebe
00000140: 2749 33be a483 a93d 2be9 9c3d 1081 943c
00000150: 10a5 663d dad8 243d 78f2 073d 9d83 803c
00000160: 3a07 0b3d 1a35 d5bb 8085 1b3d ce32 443d
00000170: 1b74 713d c20a 943d 250a b73d a5d7 e03d
00000180: 4e74 083e 40c5 1f3e 40fa 333e 3ac9 39bd
00000190: 1e93 58bd d668 7dbd aea2 93bd 2e27 b1bd
000001a0: fa52 d3bd d7d7 fabd e9c7 0ebe e874 21be
000001b0: 1aa2 07bd 5e76 38bd e6a0 65bd ddda 8bbd
000001c0: c61c a7bd d1ee d5bd 81e6 04be 8d52 1fbe
000001d0: a702 38be 77f0 663d 5991 4c3d a169 413d
000001e0: 5637 353d b770 3d3d 9a56 473d 7200 483d
000001f0: 6f0a 2f3d 2a98 233d 3839 8bbd 70b5 63bd
00000200: 6db8 38bd 6db9 13bd 09ad c4bc 23d2 2bbc
00000210: 3cd7 0fba bb6c 833c f799 163d c0b3 653d
00000220: 0b90 723d 3b72 803d 223e 8a3d 57b2 9b3d
00000230: af47 b43d 290d d53d e605 f03d a798 073e
00000240: 265f fa3c 08c5 a53c 1c00 3a3c ebe6 12bc
00000250: c21b f4bc c4b3 51bd 4de8 97bd 81f2 c8bd
00000260: 9b46 00be dfb4 bfbb 38d9 b0bc 14be 28bd
00000270: 88d3 61bd 8d8b 9bbd ff08 cebd faeb 04be
00000280: 35c2 24be 447c 44be 053d 4c3c 8430 e43c
00000290: 176e 323d e517 793d 9021 a53d 4d02 d83d
000002a0: ce42 083e 2a6d 273e 9603 453e e7b5 7abd
000002b0: b776 6dbd 7f65 5dbd 01a5 56bd f608 63bd
000002c0: b796 6bbd edf7 79bd 1002 80bd 0a55 84bd

model.qy_x.model.tcn_block_00.conv1.bias f4 [2]
0.31266654 0.19779441
00000000: d415 a03e 9e8a 4a3e

model.qy_x.model.tcn_block_00.conv1.weight_g f4 [2, 1, 1]
0.7744449 0.91133493
00000000: 0542 463f 3f4d 693f

model.qy_x.model.tcn_block_00.conv1.weight_v f4 [2, 2, 9]
0.19622223 0.17505875 0.22290885 0.22889216 0.14519414 0.13911547 -0.0022940906 0.1750278
0.16854939 0.028626146 -0.036683876 -0.024902409 -0.054398533 -0.060456835 -0.072883576 -0.07384559
-0.09789705 -0.09810641 0.039169185 0.028922433 0.011344373 0.0029890751 -0.008106903 -0.02578879
-0.048261873 -0.0660459 -0.08199445 0.063163966 0.07264478 0.0871859 0.10653484 0.12782581
0.13964942 0.14668009 0.12643722 0.15361142
00000000: 7bee 483e 9a42 333e 3842 643e b562 6a3e
00000010: c6ad 143e 4974 0e3e 7458 16bb 7d3a 333e
00000020: 3698 2c3e 6181 ea3c d541 16bd 2300 ccbc
00000030: ffd0 5ebd 96a1 77bd fc43 95bd 5b3c 97bd
00000040: 407e c8bd 03ec c8bd de6f 203d bdee ec3c
00000050: c0dd 393c 5ce4 433b d1d2 04bc 0343 d3bc
00000060: 3eae 45bd 1343 87bd b5ec a7bd 1c5c 813d
00000070: c9c6 943d 858e b23d f02e da3d c5e4 023e
00000080: 4200 0f3e 4e33 163e c278 013e 504c 1d3e

model.qy_x.model.tcn_block_00.block.conv1d_layer_0.bias f4 [2]
-0.057147857 0.24931745
00000000: df13 6abd 134d 7f3e

model.qy_x.model.tcn_block_00.block.conv1d_layer_0.weight_g f4 [2, 1, 1]
0.81375366 1.009852
00000000: 2952 503f d542 813f

model.qy_x.model.tcn_block_00.block.conv1d_layer_0.weight_v f4 [2, 10, 9]
-0.05038651 -0.0389407 -0.078529686 -0.090436794 -0.10622599 -0.11068097 -0.12711953 -0.09257227
-0.12638107 0.055719 0.047654495 0.06160926 0.043317102 0.0723456 0.091802426 0.10954883
0.118202865 0.117922924 0.01731947 0.042980857 0.082522266 0.102984235 0.10217178 0.12754491
0.13125099 0.14198448 0.14672184 -0.08222196 -0.06696866 -0.053515103 -0.04932189 -0.001780605
-0.040246863 -0.025040932 -0.022183118 -0.023189824 0.022760725 0.061478496 0.031752985 0.01929233
-0.012141935 -0.044534143 -0.037385195 -0.08579796 -0.09284864 -0.056813244 -0.043070868 -0.054270983
-0.078934446 -0.08632173 -0.07022074 -0.050024524 -0.07464614 -0.07654951 0.021094166 -0.014042836
0.03628068 0.008287996 0.034278497 0.065544374 0.124171846 0.1417579 0.111912355 0.0472864
0.06871441 0.06258573 0.08656886 0.113191046 0.13994835 0.16209027 0.11639655 0.1550931
-0.024587551 -0.013191613 -0.02586776 -0.041772746 -0.09712255 -0.13739485 -0.14271381 -0.17018558
-0.17508374 0.082770616 0.07661661 0.018127948 0.05630976 0.04024587 0.03319022 0.015687758
0.03394244 -0.0065065743 0.037969112 0.047900014 0.058948617 0.072286144 0.08937482 0.10978631
0.13325617 0.15602589 0.17575932 -0.04535792 -0.052874677 -0.061867557 -0.07208763 -0.08650051
-0.10318561 -0.122481994 -0.13943447 -0.15767252 -0.033113576 -0.04503476 -0.056061648 -0.06828854
-0.08159785 -0.10445941 -0.12978555 -0.15558834 -0.17969762 0.05638167 0.0499433 0.047219876
0.044242226 0.04625007 0.048666574 0.04882855 0.04273456 0.039940037 -0.06798023 -0.055592954
-0.045097757 -0.036065508 -0.02400829 -0.010487112 -0.00054870895 0.016043058 0.036767926 0.056079626
0.0592194 0.06271788 0.06750132 0.07602375 0.08802735 0.10402901 0.11719875 0.13241826
0.030562948 0.020235553 0.011352565 -0.008966188 -0.029798392 -0.05119683 -0.07417355 -0.09811879
-0.12526934 -0.005850419 -0.021587953 -0.041196898 -0.055133373 -0.075949766 -0.100603096 -0.12980643
-0.16089709 -0.19188029 0.01246572 0.027855165 0.04356202 0.060813803 0.08063042 0.10547314
0.13306734 0.16350237 0.19239649 -0.06120863 -0.057974543 -0.054051872 -0.052403454 -0.055428468
-0.05751678 -0.061027456 -0.062503934 -0.064615324
00000000: 1662 4ebd 4980 1fbd 2cd4 a0bd ed36 b9bd
00000010: 038d d9bd b4ac e2bd 9f2b 02be 8896 bdbd
00000020: 0a6a 01be 9b39 643d 5c31 433d fe59 7c3d
00000030: 466d 313d ee29 943d e902 bc3d 235b e03d
00000040: 5814 f23d 9381 f13d 90e1 8d3c b20c 303d
00000050: 6f01 a93d 66e9 d23d 703f d13d 229b 023e
00000060: a966 063e 6164 113e 403e 163e fd63 a8bd
00000070: dd26 89bd a732 5bbd c005 4abd 3063 e9ba
00000080: e5d9 24bd a422 cdbc 5fb9 b5bc 96f8 bdbc
00000090: b374 ba3c e0d0 7b3d 6b0f 023d f30a 9e3c
000000a0: f7ee 46bc 6f69 36bd 3821 19bd d7b6 afbd
000000b0: 6e27 bebd 01b5 68bd 146b 30bd 404b 5ebd
000000c0: 62a8 a1bd 72c9 b0bd e4cf 8fbd 84e6 4cbd
000000d0: 13e0 98bd fdc5 9cbd accd ac3c ec13 66bc
000000e0: 0d9b 143d 60ca 073c 9c67 0c3d 213c 863d
000000f0: cf4d fe3d fc28 113e 4e32 e53d 62af 413d
00000100: 24ba 8c3d f22c 803d 044b b13d b5d0 e73d
00000110: 9f4e 0f3e fefa 253e 5061 ee3d bad0 1e3e
00000120: d56b c9bc a321 58bc a0e8 d3bc e619 2bbd
00000130: 30e8 c6bd 3cb1 0cbe 9223 12be 2145 2ebe
00000140: 2749 33be a483 a93d 2be9 9c3d 1081 943c
00000150: 10a5 663d dad8 243d 78f2 073d 9d83 803c
00000160: 3a07 0b3d 1a35 d5bb 8085 1b3d ce32 443d
00000170: 1b74 713d c20a 943d 250a b73d a5d7 e03d
00000180: 4e74 083e 40c5 1f3e 40fa 333e 3ac9 39bd
00000190: 1e93 58bd d668 7dbd aea2 93bd 2e27 b1bd
000001a0: fa52 d3bd d7d7 fabd e9c7 0ebe e874 21be
000001b0: 1aa2 07bd 5e76 38bd e6a0 65bd ddda 8bbd
000001c0: c61c a7bd d1ee d5bd 81e6 04be 8d52 1fbe
000001d0: a702 38be 77f0 663d 5991 4c3d a169 413d
000001e0: 5637 353d b770 3d3d 9a56 473d 7200 483d
000001f0: 6f0a 2f3d 2a98 233d 3839 8bbd 70b5 63bd
00000200: 6db8 38bd 6db9 13bd 09ad c4bc 23d2 2bbc
00000210: 3cd7 0fba bb6c 833c f799 163d c0b3 653d
00000220: 0b90 723d 3b72 803d 223e 8a3d 57b2 9b3d
00000230: af47 b43d 290d d53d e605 f03d a798 073e
00000240: 265f fa3c 08c5 a53c 1c00 3a3c ebe6 12bc
00000250: c21b f4bc c4b3 51bd 4de8 97bd 81f2 c8bd
00000260: 9b46 00be dfb4 bfbb 38d9 b0bc 14be 28bd
00000270: 88d3 61bd 8d8b 9bbd ff08 cebd faeb 04be
00000280: 35c2 24be 447c 44be 053d 4c3c 8430 e43c
00000290: 176e 323d e517 793d 9021 a53d 4d02 d83d
000002a0: ce42 083e 2a6d 273e 9603 453e e7b5 7abd
000002b0: b776 6dbd 7f65 5dbd 01a5 56bd f608 63bd
000002c0: b796 6bbd edf7 79bd 1002 80bd 0a55 84bd

model.qy_x.model.tcn_block_00.block.conv1d_layer_1.bias f4 [2]
0.31266654 0.19779441
00000000: d415 a03e 9e8a 4a3e

model.qy_x.model.tcn_block_00.block.conv1d_layer_1.weight_g f4 [2, 1, 1]
0.7744449 0.91133493
00000000: 0542 463f 3f4d 693f

model.qy_x.model.tcn_block_00.block.conv1d_layer_1.weight_v f4 [2, 2, 9]
0.19622223 0.17505875 0.22290885 0.22889216 0.14519414 0.13911547 -0.0022940906 0.1750278
0.16854939 0.028626146 -0.036683876 -0.024902409 -0.054398533 -0.060456835 -0.072883576 -0.07384559
-0.09789705 -0.09810641 0.039169185 0.028922433 0.011344373 0.0029890751 -0.008106903 -0.02578879
-0.048261873 -0.0660459 -0.08199445 0.063163966 0.07264478 0.0871859 0.10653484 0.12782581
0.13964942 0.14668009 0.12643722 0.15361142
00000000: 7bee 483e 9a42 333e 3842 643e b562 6a3e
00000010: c6ad 143e 4974 0e3e 7458 16bb 7d3a 333e
00000020: 3698 2c3e 6181 ea3c d541 16bd 2300 ccbc
00000030: ffd0 5ebd 96a1 77bd fc43 95bd 5b3c 97bd
00000040: 407e c8bd 03ec c8bd de6f 203d bdee ec3c
00000050: c0dd 393c 5ce4 433b d1d2 04bc 0343 d3bc
00000060: 3eae 45bd 1343 87bd b5ec a7bd 1c5c 813d
00000070: c9c6 943d 858e b23d f02e da3d c5e4 023e
00000080: 4200 0f3e 4e33 163e c278 013e 504c 1d3e

model.qy_x.model.tcn_block_00.downsample.weight f4 [2, 10, 1]
-0.3079041 0.3254002 0.33367607 -0.15822913 -0.0763358 -0.3256846 0.26966614 0.3077744
-0.3214551 0.24169086 0.42288226 -0.42642683 -0.41042465 0.32823014 -0.17752817 0.43463802
-0.13023537 -0.3491712 0.38862938 -0.36019078
00000000: 9ba5 9dbe db9a a63e 97d7 aa3e d106 22be
00000010: f255 9cbd 22c0 a6be ae11 8a3e 9b94 9d3e
00000020: c395 a4be cf7d 773e 0684 d83e 9e54 dabe
00000030: 2e23 d2be c80d a83e f2c9 35be e088 de3e
00000040: 6c5c 05be 91c6 b2be 6efa c63e ed6a b8be

model.qy_x.model.tcn_block_00.downsample.bias f4 [2]
0.32544586 0.57062054
00000000: d7a0 a63e 3014 123f

model.qy_x.model.tcn_block_01.conv0.bias f4 [2]
0.18158422 0.28031167
00000000: 37f1 393e 0385 8f3e

model.qy_x.model.tcn_block_01.conv0.weight_g f4 [2, 1, 1]
0.97122574 0.84684306
00000000: 40a2 783f b5ca 583f

model.qy_x.model.tcn_block_01.conv0.weight_v f4 [2, 2, 9]
0.23169297 0.07252392 0.07907224 -0.0068822047 0.15152688 0.12693246 -0.124294095 -0.15880919
-0.17824472 -0.114215724 -0.13182501 -0.1464946 -0.076644324 0.05184468 0.00615858 0.12933455
0.12800545 0.17850885 0.12819824 0.2585637 -0.0017507754 0.16004393 0.08930321 0.36245024
-0.023333753 -0.021629257 0.38422683 -0.0124410335 0.00923442 -0.011155264 -0.026095089 -0.04125286
-0.020237157 -0.05386304 -0.10834313 -0.06755593
00000000: ec40 6d3e 6c87 943d a0f0 a13d 1e84 e1bb
00000010: dd29 1b3e 95fa 013e e78d febd e09e 22be
00000020: c985 36be efe9 e9bd 23fd 06be ae02 16be
00000030: b3f7 9cbd 165b 543d eacd c93b 4770 043e
00000040: dc13 033e 06cb 363e 6646 033e 7662 843e
00000050: 467a e5ba 8ee2 233e 9ae4 b63d 1493 b93e
00000060: 6d26 bfbc d72f b1bc 61b9 c43e 7ad5 4bbc
00000070: f74b 173c 92c4 36bc 5ec5 d5bc c2f8 28bd
00000080: 65c8 a5bc 7e9f 5cbd 01e3 ddbd c35a 8abd

model.qy_x.model.tcn_block_01.conv1.bias f4 [4]
-0.20476335 -0.12985711 0.023345046 0.22245868
00000000: 7cad 51be 43f9 04be 1c3e bf3c 35cc 633e

model.qy_x.model.tcn_block_01.conv1.weight_g f4 [4, 1, 1]
0.653812 0.64902043 0.8620254 0.80700773
00000000: 3960 273f 3426 263f b2ad 5c3f 0f98 4e3f

model.qy_x.model.tcn_block_01.conv1.weight_v f4 [4, 2, 9]
-0.21180402 0.13474934 -0.10854528 -0.090882964 0.14845589 0.10065177 0.19279599 0.1473219
-0.06996977 -0.25774795 -0.09267664 0.15655601 -0.12348724 -0.25030956 0.08843405 0.2421787
-0.06183256 -0.1813304 -0.31576097 0.03818871 -0.10562874 -0.29134002 -0.03947885 0.00829907
0.11052801 0.12368312 -0.14414206 -0.29162896 -0.28414086 0.15350528 0.049901783 0.053528603
-0.24954441 0.17090681 0.1763376 0.16722143 -0.11653692 -0.10282525 -0.10109347 -0.03734661
-0.08658451 -0.077743486 -0.057435334 -0.055357784 -0.040481765 -0.0813773 -0.060988374 -0.11247819
0.045949988 -0.0029647548 0.118702464 0.18969676 0.24840024 0.26428318 0.15987808 0.14374425
0.10564273 0.2109931 0.19154082 0.014541626 0.2051591 0.08957479 0.24849735 0.14255334
-0.037387565 0.08724306 0.15004994 0.044457495 0.006634017 -0.058041867 -0.053814806 -0.16039696
00000000: 27e3 58be bbfb 093e fd4c debd d920 babd
00000010: d204 183e 8422 ce3d 506c 453e 8ddb 163e
00000020: 504c 8fbd 8af7 83be 40cd bdbd 3850 203e
00000030: e1e6 fcbd 9328 80be e91c b53d b1fd 773e
00000040: 2344 7dbd adae 39be 6cab a1be c46b 1c3d
00000050: e153 d8bd 852a 95be 93b4 21bd d3f8 073c
00000060: 825c e23d 934d fd3d fa99 13be 6450 95be
00000070: e97a 91be 7d30 1d3e d065 4c3d cf40 5b3d
00000080: 9288 7fbe 3202 2f3e d891 343e 183c 2b3e
00000090: e9aa eebd 0b96 d2bd 180a cfbd c2f8 18bd
000000a0: 3853 b1bd fa37 9fbd 5041 6bbd d8be 62bd
000000b0: 35d0 25bd 24a9 a6bd f2ce 79bd f75a e6bd
000000c0: 0e36 3c3d 554c 42bb 471a f33d de3f 423e
000000d0: a25c 7e3e 2050 873e 14b7 233e b131 133e
000000e0: 375b d83d 930e 583e 4723 443e 0040 6e3c
000000f0: 3a15 523e fd72 b73d 1776 7e3e 81f9 113e
00000100: b423 19bd 7dac b23d b1a6 193e 1019 363d
00000110: 2b62 d93b 4fbd 6dbd ea6c 5cbd 1a3f 24be

model.qy_x.model.tcn_block_01.block.conv1d_layer_0.bias f4 [2]
0.18158422 0.28031167
00000000: 37f1 393e 0385 8f3e

model.qy_x.model.tcn_block_01.block.conv1d_layer_0.weight_g f4 [2, 1, 1]
0.97122574 0.84684306
00000000: 40a2 783f b5ca 583f

model.qy_x.model.tcn_block_01.block.conv1d_layer_0.weight_v f4 [2, 2, 9]
0.23169297 0.07252392 0.07907224 -0.0068822047 0.15152688 0.12693246 -0.124294095 -0.15880919
-0.17824472 -0.114215724 -0.13182501 -0.1464946 -0.076644324 0.05184468 0.00615858 0.12933455
0.12800545 0.17850885 0.12819824 0.2585637 -0.0017507754 0.16004393 0.08930321 0.36245024
-0.023333753 -0.021629257 0.38422683 -0.0124410335 0.00923442 -0.011155264 -0.026095089 -0.04125286
-0.020237157 -0.05386304 -0.10834313 -0.06755593
00000000: ec40 6d3e 6c87 943d a0f0 a13d 1e84 e1bb
00000010: dd29 1b3e 95fa 013e e78d febd e09e 22be
00000020: c985 36be efe9 e9bd 23fd 06be ae02 16be
00000030: b3f7 9cbd 165b 543d eacd c93b 4770 043e
00000040: dc13 033e 06cb 363e 6646 033e 7662 843e
00000050: 467a e5ba 8ee2 233e 9ae4 b63d 1493 b93e
00000060: 6d26 bfbc d72f b1bc 61b9 c43e 7ad5 4bbc
00000070: f74b 173c 92c4 36bc 5ec5 d5bc c2f8 28bd
00000080: 65c8 a5bc 7e9f 5cbd 01e3 ddbd c35a 8abd

model.qy_x.model.tcn_block_01.block.conv1d_layer_1.bias f4 [4]
-0.20476335 -0.12985711 0.023345046 0.22245868
00000000: 7cad 51be 43f9 04be 1c3e bf3c 35cc 633e

model.qy_x.model.tcn_block_01.block.conv1d_layer_1.weight_g f4 [4, 1, 1]
0.653812 0.64902043 0.8620254 0.80700773
00000000: 3960 273f 3426 263f b2ad 5c3f 0f98 4e3f

model.qy_x.model.tcn_block_01.block.conv1d_layer_1.weight_v f4 [4, 2, 9]
-0.21180402 0.13474934 -0.10854528 -0.090882964 0.14845589 0.10065177 0.19279599 0.1473219
-0.06996977 -0.25774795 -0.09267664 0.15655601 -0.12348724 -0.25030956 0.08843405 0.2421787
-0.06183256 -0.1813304 -0.31576097 0.03818871 -0.10562874 -0.29134002 -0.03947885 0.00829907
0.11052801 0.12368312 -0.14414206 -0.29162896 -0.28414086 0.15350528 0.049901783 0.053528603
-0.24954441 0.17090681 0.1763376 0.16722143 -0.11653692 -0.10282525 -0.10109347 -0.03734661
-0.08658451 -0.077743486 -0.057435334 -0.055357784 -0.040481765 -0.0813773 -0.060988374 -0.11247819
0.045949988 -0.0029647548 0.118702464 0.18969676 0.24840024 0.26428318 0.15987808 0.14374425
0.10564273 0.2109931 0.19154082 0.014541626 0.2051591 0.08957479 0.24849735 0.14255334
-0.037387565 0.08724306 0.15004994 0.044457495 0.006634017 -0.058041867 -0.053814806 -0.16039696
00000000: 27e3 58be bbfb 093e fd4c debd d920 babd
00000010: d204 183e 8422 ce3d 506c 453e 8ddb 163e
00000020: 504c 8fbd 8af7 83be 40cd bdbd 3850 203e
00000030: e1e6 fcbd 9328 80be e91c b53d b1fd 773e
00000040: 2344 7dbd adae 39be 6cab a1be c46b 1c3d
00000050: e153 d8bd 852a 95be 93b4 21bd d3f8 073c
00000060: 825c e23d 934d fd3d fa99 13be 6450 95be
00000070: e97a 91be 7d30 1d3e d065 4c3d cf40 5b3d
00000080: 9288 7fbe 3202 2f3e d891 343e 183c 2b3e
00000090: e9aa eebd 0b96 d2bd 180a cfbd c2f8 18bd
000000a0: 3853 b1bd fa37 9fbd 5041 6bbd d8be 62bd
000000b0: 35d0 25bd 24a9 a6bd f2ce 79bd f75a e6bd
000000c0: 0e36 3c3d 554c 42bb 471a f33d de3f 423e
000000d0: a25c 7e3e 2050 873e 14b7 233e b131 133e
000000e0: 375b d83d 930e 583e 4723 443e 0040 6e3c
000000f0: 3a15 523e fd72 b73d 1776 7e3e 81f9 113e
00000100: b423 19bd 7dac b23d b1a6 193e 1019 363d
00000110: 2b62 d93b 4fbd 6dbd ea6c 5cbd 1a3f 24be

model.qy_x.model.tcn_block_01.downsample.weight f4 [4, 2, 1]
0.07870555 -0.3589838 -0.1354636 0.40083602 0.2819177 -0.2154166 0.25179332 -0.12929147
00000000: 6030 a13d bacc b7be f8b6 0abe 613a cd3e
00000010: 8457 903e 2b96 5cbe 0eeb 803e fc64 04be

model.qy_x.model.tcn_block_01.downsample.bias f4 [4]
-0.65333456 0.23114319 0.426923 -0.14528891
00000000: ef40 27bf cdb0 6c3e a795 da3e 9ec6 14be

model.qy_x.model.final_dense_02.weight f4 [4, 4, 1]
-0.24419318 0.47251177 -0.44248644 -0.60182893 0.34009886 -0.91169715 0.21137778 0.26640004
-0.33875582 0.29905665 -0.2874549 0.27221 0.59159005 -0.048060924 0.24331988 -0.18079497
00000000: c70d 7abe 10ed f13e 958d e2be 7611 1abf
00000010: 7021 ae3e fc64 69bf 6b73 583e 9665 883e
00000020: 6771 adbe f41d 993e 4a2d 93be 1c5f 8b3e
00000030: 7272 173f 88db 44bd d928 793e 5122 39be

model.qy_x.model.final_dense_02.bias f4 [4]
0.03872424 -0.20727572 0.120816454 -0.1818789
00000000: 4f9d 1e3d 1640 54be 9e6e f73d 763e 3abe

model.encoder.model.tcn_block_00.conv0.bias f4 [2]
0.17377514 -0.27842245
00000000: 1cf2 313e 638d 8ebe

model.encoder.model.tcn_block_00.conv0.weight_g f4 [2, 1, 1]
0.6469166 0.7189487
00000000: 549c 253f 060d 383f

model.encoder.model.tcn_block_00.conv0.weight_v f4 [2, 14, 9]
-0.035021905 -0.034108665 0.0042498773 -0.019670447 0.0036577042 -0.014721357 -0.04319009 0.039749563
0.031286553 0.01366198 0.009647676 0.025444398 -0.0061096903 0.036393404 -0.011515486 0.0075460677
0.011225416 -0.039191466 0.050980642 0.08956305 0.028217208 0.00023504511 0.0140475435 0.0024727106
-0.04127562 -0.015824568 0.0033557392 -0.044999294 0.019409081 -0.021820355 0.05978266 -0.06320702
0.05151605 0.074674346 0.038083844 0.008955229 0.058261055 -0.048586853 -0.025318805 -0.05784764
-0.034392934 -0.012407385 -0.022149084 -0.045454815 -0.11104345 -0.012736189 -0.003217077 0.0099639045
0.038184963 0.05979952 -0.03276071 0.007363525 -0.0077671255 -0.049075272 -0.029517248 0.09014158
0.07044951 0.068722375 0.0700433 -0.030609876 0.044228647 0.09591842 -0.0046816524 0.10904944
0.061640017 0.0818616 0.009661055 0.055001512 -0.028224124 0.023786066 0.029573327 0.02493296
0.014905802 0.029846586 0.024907233 0.0043132105 0.01330153 -0.028777823 -0.055497296 -0.022903388
-0.0009725591 -0.04147487 0.028976467 0.013197228 -0.005634922 -0.0011482458 0.045355305 0.0019809583
-0.09003501 -0.08533371 0.10332654 0.10452093 0.09662912 0.019773683 0.021762647 0.068208456
0.061239246 -0.009305925 0.058574542 0.012362197 0.14894325 0.14293157 0.16507857 0.021889558
0.03674689 0.17744762 0.18210298 0.18580635 0.23668782 0.034389548 0.21876782 0.012439822
0.14759162 0.042666145 0.07504185 0.14520457 0.07226677 0.099492475 -0.0011302198 -0.006877832
0.07305459 0.054630544 0.021444155 0.03518658 -0.019693328 -0.01952998 0.03820558 0.032312058
0.018537283 0.0014117217 0.014893226 0.003267688 -0.013296167 0.0005353794 0.015088975 -0.042233456
-0.038912356 -0.00069597474 0.009524374 -0.014851388 0.007848312 0.016075123 0.015191007 0.016081419
-0.008642663 -0.01381651 -0.015947469 -0.011381389 -0.0036173572 0.018058399 -0.031014059 0.014681559
-0.011135889 -0.049858484 -0.030005783 -0.01107997 -0.022291189 -0.020285647 -0.020507116 -0.03160184
-0.019470023 -0.011634354 0.050083786 0.0483087 0.048222512 0.032960787 0.042014565 0.038107865
0.03910062 0.026318267 0.03150218 -0.0015277301 -0.0032557843 -0.011696679 -0.0063168695 -0.021269683
-0.013396086 1.80606e-05 -0.022052135 -0.023804195 -0.05674378 -0.05676539 -0.04705196 -0.041873414
-0.027841924 -0.05254835 -0.037743635 -0.015101822 0.0029572877 -0.047727417 -0.054225437 -0.031034779
-0.016920825 -0.041320555 -0.033251934 -0.005184563 -0.012423272 -0.026307173 0.028035503 0.04651138
0.02358822 0.04171135 0.03944916 0.020824226 0.011203764 0.0022678068 0.0023195464 0.028451499
-6.83229e-05 0.023440996 -0.0020657615 0.032030027 0.0069330786 0.023982657 0.020677552 0.008467813
-0.04628425 -0.043725617 -0.028764727 -0.03507106 -0.040170714 -0.038417332 -0.05247369 -0.054494783
-0.061209027 -0.05111263 -0.10380435 -0.09647763 -0.07419404 -0.10454095 -0.09870306 -0.13497624
-0.14534716 -0.13601707 -0.1689452 -0.11153992 -0.19917719 -0.20144752 -0.194448 -0.19958739
-0.16038209 -0.121518955 -0.15866181 -0.08800258 -0.07291949 -0.08001043 -0.028294789 -0.03336573
-0.0051160576 0.039239895 0.04955394 0.07689751
00000000: 2173 0fbd 87b5 0bbd 8e42 8b3b eb23 a1bc
00000010: 18b6 6f3b d931 71bc 18e8 30bd 70d0 223d
00000020: 5426 003d 7fd6 5f3c 4911 1e3c c570 d03c
00000030: cc33 c8bb 4011 153d 73ab 3cbc 0145 f73b
00000040: cfea 373c 3b87 20bd 14d1 503d d56c b73d
00000050: c627 e73c 7176 7639 ab27 663c 330d 223b
00000060: a010 29bd 86a2 81bc f6eb 5b3b 2e51 38bd
00000070: cbff 9e3c 9ac0 b2bc aade 743d af72 81bd
00000080: 7e02 533d ddee 983d cefd 1b3d f4b8 123c
00000090: 25a3 6e3d 0203 47bd 6269 cfbc a6f1 6cbd
000000a0: 9bdf 0cbd 5848 4bbc ff71 b5bc d42e 3abd
000000b0: c06a e3bd 73ab 50bc 99d5 52bb a53f 233c
000000c0: d667 1c3d 57f0 743d 1830 06bd ba49 f13b
000000d0: 5f83 febb 2703 49bd 28ce f1bc 269c b83d
000000e0: d547 903d 51be 8c3d dd72 8f3d 90c1 fabc
000000f0: 1929 353d e070 c43d 8c68 99bb 5055 df3d
00000100: 3e7a 7c3d 0ea7 a73d 6749 1e3c 4449 613d
00000110: 4736 e7bc ffda c23c c343 f23c 3540 cc3c
00000120: 7737 743c d480 f43c 410a cc3c d555 8d3b
00000130: a9ee 593c 78bf ebbc 2251 63bd e39f bbbc
00000140: 56f3 7eba 8ee1 29bd 0e60 ed3c 3039 583c
00000150: 27a5 b8bb bc80 96ba 7cc6 393d f7d2 013b
00000160: 4664 b8bd 71c3 aebd dd9c d33d 120f d63d
00000170: 7de5 c53d 6bfc a13c 9447 b23c e0b0 8b3d
00000180: 01d6 7a3d e177 18bc dceb 6f3d d08a 4a3c
00000190: 9484 183e a75c 123e 5b0a 293e bb51 b33c
000001a0: e883 163d d4b4 353e 3479 3a3e 0544 3e3e
000001b0: 4b5e 723e 0edc 0c3d ac04 603e 65d0 4b3c
000001c0: 4222 173e b2c2 2e3d 8baf 993d 82b0 143e
000001d0: 9a00 943d b6c2 cb3d e223 94ba 705f e1bb
000001e0: a59d 953d 47c4 5f3d a7ab af3c ce1f 103d
000001f0: e753 a1bc 56fd 9fbc 747d 1c3d a659 043d
00000200: 80db 973c 8509 b93a b802 743c b526 563b
00000210: 2bd8 59bc b458 0c3a c037 773c fdfc 2cbd
00000220: 9062 1fbd 1372 36ba 1f0c 1c3c 3c53 73bc
00000230: 3596 003c faaf 833c b4e3 783c 2ebd 833c
00000240: f599 0dbc a55e 62bc 44a4 82bc 0179 3abc
00000250: 2f11 6dbb 35ef 933c 3211 febc ec8a 703c
00000260: 4e73 36bc 6938 4cbd b0ce f5bc c388 35bc
00000270: 039c b6bc 162e a6bc 8afe a7bc ee70 01bd
00000280: 997f 9fbc 049e 3ebc a824 4d3d 58df 453d
00000290: f884 453d e401 073d 7717 2c3d fe16 1c3d
000002a0: f927 203d 6899 d73c 6e08 013d 1e3e c8ba
000002b0: ff5e 55bb 6da3 3fbc befd cebb c23d aebc
000002c0: 427b 5bbc d880 9737 aea6 b4bc 0401 c3bc
000002d0: 2a6c 68bd d382 68bd 8eb9 40bd 7583 2bbd
000002e0: bf14 e4bc f03c 57bd 1299 1abd a26d 77bc
000002f0: 0ecf 413b d37d 43bd 7e1b 5ebd a63c febc
00000300: 8b9d 8abc be3f 29bd 2e33 08bd 44e3 a9bb
00000310: fb8a 4bbc 2482 d7bc b6aa e53c b782 3e3d
00000320: 153c c13c 85d9 2a3d 7195 213d 9197 aa3c
00000330: fe8f 373c 7c9f 143b 8803 183b 1e13 e93c
00000340: 9448 8fb8 5507 c03c ba61 07bb eb31 033d
00000350: e12e e33b 4777 c43c f863 a93c 95bc 0a3c
00000360: 8e94 3dbd a219 33bd 01a4 ebbc aca6 0fbd
00000370: 0c8a 24bd 7e5b 1dbd a7ee 56bd ec35 5fbd
00000380: 51b6 7abd 7a5b 51bd 6097 d4bd 1096 c5bd
00000390: 0bf3 97bd 9119 d6bd d424 cabd 3637 0abe
000003a0: e3d5 14be 0f48 0bbe f8ff 2cbe 0b6f e4bd
000003b0: 1bf5 4bbe 4248 4ebe 601d 47be a360 4cbe
000003c0: 343b 24be eede f8bd 3e78 22be b23a b4bd
000003d0: d056 95bd 82dc a3bd 79ca e7bc 81aa 08bd
000003e0: 9aa4 a7bb 03ba 203d 12f9 4a3d 717c 9d3d

model.encoder.model.tcn_block_00.conv1.bias f4 [2]
-0.07859608 0.13212085
00000000: fbf6 a0bd b04a 073e

model.encoder.model.tcn_block_00.conv1.weight_g f4 [2, 1, 1]
0.51762736 0.68629575
00000000: 3a83 043f 14b1 2f3f

model.encoder.model.tcn_block_00.conv1.weight_v f4 [2, 2, 9]
0.14964227 0.035701044 0.14387213 0.20275263 0.1413818 0.020562354 0.023011273 -0.107758835
-0.052184526 0.09344334 -0.05800779 0.09578173 -0.04407647 -0.004789609 0.043010514 -0.14203002
0.10827469 0.12250169 0.016389506 -0.005508665 0.22064714 0.21225959 -0.10471017 0.16269028
-0.11995636 -0.13154724 0.14183459 -0.061594676 -0.14235805 -0.21261619 -0.17477953 -0.04333358
-0.22367613 -0.23296978 -0.116405785 -0.20924146
00000000: d33b 193e 423b 123d 3753 133e 639e 4f3e
00000010: 64c6 103e 6272 a83c 2382 bc3c aab0 dcbd
00000020: 71bf 55bd 395f bf3d 9499 6dbd 3629 c43d
00000030: 8789 34bd 27f2 9cbb cb2b 303d 5170 11be
00000040: 1fbf dd3d 2be2 fa3d 4943 863c 0882 b4bb
00000050: 53f1 613e 945a 593e 4972 d6bd 4898 263e
00000060: aeab f5bd 52b4 06be 163d 113e b34a 7cbd
00000070: 4fc6 11be 0fb8 59be 68f9 32be 8d7e 31bd
00000080: 5b0b 65be a18f 6ebe 2866 eebd 6543 56be

model.encoder.model.tcn_block_00.block.conv1d_layer_0.bias f4 [2]
0.17377514 -0.27842245
00000000: 1cf2 313e 638d 8ebe

model.encoder.model.tcn_block_00.block.conv1d_layer_0.weight_g f4 [2, 1, 1]
0.6469166 0.7189487
00000000: 549c 253f 060d 383f

model.encoder.model.tcn_block_00.block.conv1d_layer_0.weight_v f4 [2, 14, 9]
-0.035021905 -0.034108665 0.0042498773 -0.019670447 0.0036577042 -0.014721357 -0.04319009 0.039749563
0.031286553 0.01366198 0.009647676 0.025444398 -0.0061096903 0.036393404 -0.011515486 0.0075460677
0.011225416 -0.039191466 0.050980642 0.08956305 0.028217208 0.00023504511 0.0140475435 0.0024727106
-0.04127562 -0.015824568 0.0033557392 -0.044999294 0.019409081 -0.021820355 0.05978266 -0.06320702
0.05151605 0.074674346 0.038083844 0.008955229 0.058261055 -0.048586853 -0.025318805 -0.05784764
-0.034392934 -0.012407385 -0.022149084 -0.045454815 -0.11104345 -0.012736189 -0.003217077 0.0099639045
0.038184963 0.05979952 -0.03276071 0.007363525 -0.0077671255 -0.049075272 -0.029517248 0.09014158
0.07044951 0.068722375 0.0700433 -0.030609876 0.044228647 0.09591842 -0.0046816524 0.10904944
0.061640017 0.0818616 0.009661055 0.055001512 -0.028224124 0.023786066 0.029573327 0.02493296
0.014905802 0.029846586 0.024907233 0.0043132105 0.01330153 -0.028777823 -0.055497296 -0.022903388
-0.0009725591 -0.04147487 0.028976467 0.013197228 -0.005634922 -0.0011482458 0.045355305 0.0019809583
-0.09003501 -0.08533371 0.10332654 0.10452093 0.09662912 0.019773683 0.021762647 0.068208456
0.061239246 -0.009305925 0.058574542 0.012362197 0.14894325 0.14293157 0.16507857 0.021889558
0.03674689 0.17744762 0.18210298 0.18580635 0.23668782 0.034389548 0.21876782 0.012439822
0.14759162 0.042666145 0.07504185 0.14520457 0.07226677 0.099492475 -0.0011302198 -0.006877832
0.07305459 0.054630544 0.021444155 0.03518658 -0.019693328 -0.01952998 0.03820558 0.032312058
0.018537283 0.0014117217 0.014893226 0.003267688 -0.013296167 0.0005353794 0.015088975 -0.042233456
-0.038912356 -0.00069597474 0.009524374 -0.014851388 0.007848312 0.016075123 0.015191007 0.016081419
-0.008642663 -0.01381651 -0.015947469 -0.011381389 -0.0036173572 0.018058399 -0.031014059 0.014681559
-0.011135889 -0.049858484 -0.030005783 -0.01107997 -0.022291189 -0.020285647 -0.020507116 -0.03160184
-0.019470023 -0.011634354 0.050083786 0.0483087 0.048222512 0.032960787 0.042014565 0.038107865
0.03910062 0.026318267 0.03150218 -0.0015277301 -0.0032557843 -0.011696679 -0.0063168695 -0.021269683
-0.013396086 1.80606e-05 -0.022052135 -0.023804195 -0.05674378 -0.05676539 -0.04705196 -0.041873414
-0.027841924 -0.05254835 -0.037743635 -0.015101822 0.0029572877 -0.047727417 -0.054225437 -0.031034779
-0.016920825 -0.041320555 -0.033251934 -0.005184563 -0.012423272 -0.026307173 0.028035503 0.04651138
0.02358822 0.04171135 0.03944916 0.020824226 0.011203764 0.0022678068 0.0023195464 0.028451499
-6.83229e-05 0.023440996 -0.0020657615 0.032030027 0.0069330786 0.023982657 0.020677552 0.008467813
-0.04628425 -0.043725617 -0.028764727 -0.03507106 -0.040170714 -0.038417332 -0.05247369 -0.054494783
-0.061209027 -0.05111263 -0.10380435 -0.09647763 -0.07419404 -0.10454095 -0.09870306 -0.13497624
-0.14534716 -0.13601707 -0.1689452 -0.11153992 -0.19917719 -0.20144752 -0.194448 -0.19958739
-0.16038209 -0.121518955 -0.15866181 -0.08800258 -0.07291949 -0.08001043 -0.028294789 -0.03336573
-0.0051160576 0.039239895 0.04955394 0.07689751
00000000: 2173 0fbd 87b5 0bbd 8e42 8b3b eb23 a1bc
00000010: 18b6 6f3b d931 71bc 18e8 30bd 70d0 223d
00000020: 5426 003d 7fd6 5f3c 4911 1e3c c570 d03c
00000030: cc33 c8bb 4011 153d 73ab 3cbc 0145 f73b
00000040: cfea 373c 3b87 20bd 14d1 503d d56c b73d
00000050: c627 e73c 7176 7639 ab27 663c 330d 223b
00000060: a010 29bd 86a2 81bc f6eb 5b3b 2e51 38bd
00000070: cbff 9e3c 9ac0 b2bc aade 743d af72 81bd
00000080: 7e02 533d ddee 983d cefd 1b3d f4b8 123c
00000090: 25a3 6e3d 0203 47bd 6269 cfbc a6f1 6cbd
000000a0: 9bdf 0cbd 5848 4bbc ff71 b5bc d42e 3abd
000000b0: c06a e3bd 73ab 50bc 99d5 52bb a53f 233c
000000c0: d667 1c3d 57f0 743d 1830 06bd ba49 f13b
000000d0: 5f83 febb 2703 49bd 28ce f1bc 269c b83d
000000e0: d547 903d 51be 8c3d dd72 8f3d 90c1 fabc
000000f0: 1929 353d e070 c43d 8c68 99bb 5055 df3d
00000100: 3e7a 7c3d 0ea7 a73d 6749 1e3c 4449 613d
00000110: 4736 e7bc ffda c23c c343 f23c 3540 cc3c
00000120: 7737 743c d480 f43c 410a cc3c d555 8d3b
00000130: a9ee 593c 78bf ebbc 2251 63bd e39f bbbc
00000140: 56f3 7eba 8ee1 29bd 0e60 ed3c 3039 583c
00000150: 27a5 b8bb bc80 96ba 7cc6 393d f7d2 013b
00000160: 4664 b8bd 71c3 aebd dd9c d33d 120f d63d
00000170: 7de5 c53d 6bfc a13c 9447 b23c e0b0 8b3d
00000180: 01d6 7a3d e177 18bc dceb 6f3d d08a 4a3c
00000190: 9484 183e a75c 123e 5b0a 293e bb51 b33c
000001a0: e883 163d d4b4 353e 3479 3a3e 0544 3e3e
000001b0: 4b5e 723e 0edc 0c3d ac04 603e 65d0 4b3c
000001c0: 4222 173e b2c2 2e3d 8baf 993d 82b0 143e
000001d0: 9a00 943d b6c2 cb3d e223 94ba 705f e1bb
000001e0: a59d 953d 47c4 5f3d a7ab af3c ce1f 103d
000001f0: e753 a1bc 56fd 9fbc 747d 1c3d a659 043d
00000200: 80db 973c 8509 b93a b802 743c b526 563b
00000210: 2bd8 59bc b458 0c3a c037 773c fdfc 2cbd
00000220: 9062 1fbd 1372 36ba 1f0c 1c3c 3c53 73bc
00000230: 3596 003c faaf 833c b4e3 783c 2ebd 833c
00000240: f599 0dbc a55e 62bc 44a4 82bc 0179 3abc
00000250: 2f11 6dbb 35ef 933c 3211 febc ec8a 703c
00000260: 4e73 36bc 6938 4cbd b0ce f5bc c388 35bc
00000270: 039c b6bc 162e a6bc 8afe a7bc ee70 01bd
00000280: 997f 9fbc 049e 3ebc a824 4d3d 58df 453d
00000290: f884 453d e401 073d 7717 2c3d fe16 1c3d
000002a0: f927 203d 6899 d73c 6e08 013d 1e3e c8ba
000002b0: ff5e 55bb 6da3 3fbc befd cebb c23d aebc
000002c0: 427b 5bbc d880 9737 aea6 b4bc 0401 c3bc
000002d0: 2a6c 68bd d382 68bd 8eb9 40bd 7583 2bbd
000002e0: bf14 e4bc f03c 57bd 1299 1abd a26d 77bc
000002f0: 0ecf 413b d37d 43bd 7e1b 5ebd a63c febc
00000300: 8b9d 8abc be3f 29bd 2e33 08bd 44e3 a9bb
00000310: fb8a 4bbc 2482 d7bc b6aa e53c b782 3e3d
00000320: 153c c13c 85d9 2a3d 7195 213d 9197 aa3c
00000330: fe8f 373c 7c9f 143b 8803 183b 1e13 e93c
00000340: 9448 8fb8 5507 c03c ba61 07bb eb31 033d
00000350: e12e e33b 4777 c43c f863 a93c 95bc 0a3c
00000360: 8e94 3dbd a219 33bd 01a4 ebbc aca6 0fbd
00000370: 0c8a 24bd 7e5b 1dbd a7ee 56bd ec35 5fbd
00000380: 51b6 7abd 7a5b 51bd 6097 d4bd 1096 c5bd
00000390: 0bf3 97bd 9119 d6bd d424 cabd 3637 0abe
000003a0: e3d5 14be 0f48 0bbe f8ff 2cbe 0b6f e4bd
000003b0: 1bf5 4bbe 4248 4ebe 601d 47be a360 4cbe
000003c0: 343b 24be eede f8bd 3e78 22be b23a b4bd
000003d0: d056 95bd 82dc a3bd 79ca e7bc 81aa 08bd
000003e0: 9aa4 a7bb 03ba 203d 12f9 4a3d 717c 9d3d

model.encoder.model.tcn_block_00.block.conv1d_layer_1.bias f4 [2]
-0.07859608 0.13212085
00000000: fbf6 a0bd b04a 073e

model.encoder.model.tcn_block_00.block.conv1d_layer_1.weight_g f4 [2, 1, 1]
0.51762736 0.68629575
00000000: 3a83 043f 14b1 2f3f

model.encoder.model.tcn_block_00.block.conv1d_layer_1.weight_v f4 [2, 2, 9]
0.14964227 0.035701044 0.14387213 0.20275263 0.1413818 0.020562354 0.023011273 -0.107758835
-0.052184526 0.09344334 -0.05800779 0.09578173 -0.04407647 -0.004789609 0.043010514 -0.14203002
0.10827469 0.12250169 0.016389506 -0.005508665 0.22064714 0.21225959 -0.10471017 0.16269028
-0.11995636 -0.13154724 0.14183459 -0.061594676 -0.14235805 -0.21261619 -0.17477953 -0.04333358
-0.22367613 -0.23296978 -0.116405785 -0.20924146
00000000: d33b 193e 423b 123d 3753 133e 639e 4f3e
00000010: 64c6 103e 6272 a83c 2382 bc3c aab0 dcbd
00000020: 71bf 55bd 395f bf3d 9499 6dbd 3629 c43d
00000030: 8789 34bd 27f2 9cbb cb2b 303d 5170 11be
00000040: 1fbf dd3d 2be2 fa3d 4943 863c 0882 b4bb
00000050: 53f1 613e 945a 593e 4972 d6bd 4898 263e
00000060: aeab f5bd 52b4 06be 163d 113e b34a 7cbd
00000070: 4fc6 11be 0fb8 59be 68f9 32be 8d7e 31bd
00000080: 5b0b 65be a18f 6ebe 2866 eebd 6543 56be

model.encoder.model.tcn_block_00.downsample.weight f4 [2, 14, 1]
0.33391708 -0.31044042 -0.3072352 0.21284698 -0.16918103 0.2799005 0.017412202 -0.3666345
0.36698592 -0.2435986 0.3073099 0.0047297226 0.24663849 0.10317485 -0.22744201 0.09436015
0.2924956 0.17973262 -0.22712566 0.013653338 0.2992577 0.33311468 -0.34094945 -0.16215964
-0.21617244 0.34767437 0.30615267 0.09022392
00000000: 2ef7 aa3e 0cf2 9ebe ef4d 9dbe 8ff4 593e
00000010: cb3d 2dbe 1e4f 8f3e 09a4 8e3c 84b7 bbbe
00000020: 94e5 bb3e e971 79be b957 9d3e cafb 9a3b
00000030: cd8e 7c3e 564d d33d 8fe6 68be e53f c13d
00000040: fcc1 953e d40b 383e a193 68be 40b2 5f3c
00000050: 4e38 993e 028e aa3e ed90 aebe 2d0d 26be
00000060: 4f5c 5dbe 6002 b23e 0bc0 9c3e 52c7 b83d

model.encoder.model.tcn_block_00.downsample.bias f4 [2]
0.41262004 0.08880193
00000000: ef42 d33e c9dd b53d

model.encoder.model.tcn_block_01.conv0.bias f4 [2]
-0.024498938 0.15513866
00000000: ffb1 c8bc abdc 1e3e

model.encoder.model.tcn_block_01.conv0.weight_g f4 [2, 1, 1]
0.7022672 0.59469926
00000000: c9c7 333f 363e 183f

model.encoder.model.tcn_block_01.conv0.weight_v f4 [2, 2, 9]
-0.085802145 -0.11635158 -0.117309816 -0.112813294 -0.15307602 -0.27971625 -0.020281324 -0.06907951
-0.32712403 -0.13082354 0.018240422 0.074370705 -0.16770157 -0.07652713 -0.05839949 -0.07104243
0.12617388 0.00913094 0.09837145 -0.06301368 -0.07191777 -0.16457291 -0.09574345 0.06777117
0.11674415 0.026301088 0.2860124 -0.17326331 0.09580786 0.23135886 -0.026724663 0.24605434
0.047850054 -0.11192031 -0.05982624 0.19344926
00000000: 09b9 afbd bd49 eebd 2140 f0bd a80a e7bd
00000010: f6bf 1cbe f836 8fbe 0525 a6bc 8f79 8dbd
00000020: cd7c a7be 9bf6 05be f06c 953c ab4f 983d
00000030: f6b9 2bbe 42ba 9cbd 4e34 6fbd b27e 91bd
00000040: ba33 013e f099 153c f976 c93d 510d 81bd
00000050: a049 93bd cd85 28be 2415 c4bd 9ccb 8a3d
00000060: 8f17 ef3d 6175 d73c 3870 923e f06b 31be
00000070: e936 c43d 56e9 6c3e aeed dabc abf5 7b3e
00000080: 6bfe 433d 7a36 e5bd 5c0c 75bd 9017 463e

model.encoder.model.tcn_block_01.conv1.bias f4 [2]
0.106070645 0.036495723
00000000: 913b d93d 8a7c 153d

model.encoder.model.tcn_block_01.conv1.weight_g f4 [2, 1, 1]
0.7432768 0.5882473
00000000: 6347 3e3f 6097 163f

model.encoder.model.tcn_block_01.conv1.weight_v f4 [2, 2, 9]
0.049209695 -0.079083 -0.12316097 -0.086602144 -0.1590746 -0.19261406 -0.17179841 -0.17927285
-0.07436788 0.23377827 0.08387836 -0.053064104 0.20114934 -0.039177492 0.0115494905 -0.15393841
-0.13837188 0.013822558 -0.056310218 0.06774995 0.15260914 0.032143153 -0.0017599275 -0.083972126
-0.009399351 -0.195586 -0.19985627 0.08961882 0.014892467 0.08963338 -0.11100906 0.17775026
0.1680284 0.061876304 -0.10289899 0.2205934
00000000: 1b90 493d 45f6 a1bd d23b fcbd 775c b1bd
00000010: 74e4 22be 9f3c 45be eceb 2fbe 4d93 37be
00000020: 304e 98bd 9263 6f3e 6bc8 ab3d bf59 59bd
00000030: 18fa 4d3e 9478 20bd 133a 3d3c 08a2 1dbe
00000040: 5cb1 0dbe 0378 623c 8ba5 66bd 7cc0 8a3d
00000050: 9245 1c3e 8aa8 033d 5ead e6ba 94f9 abbd
00000060: bcff 19bc b247 48be 1fa7 4cbe 128a b73d
00000070: 89ff 733c b591 b73d b858 e3bd 2a04 363e
00000080: a30f 2c3e 0272 7d3d b5bc d2bd 3ce3 613e

model.encoder.model.tcn_block_01.block.conv1d_layer_0.bias f4 [2]
-0.024498938 0.15513866
00000000: ffb1 c8bc abdc 1e3e

model.encoder.model.tcn_block_01.block.conv1d_layer_0.weight_g f4 [2, 1, 1]
0.7022672 0.59469926
00000000: c9c7 333f 363e 183f

model.encoder.model.tcn_block_01.block.conv1d_layer_0.weight_v f4 [2, 2, 9]
-0.085802145 -0.11635158 -0.117309816 -0.112813294 -0.15307602 -0.27971625 -0.020281324 -0.06907951
-0.32712403 -0.13082354 0.018240422 0.074370705 -0.16770157 -0.07652713 -0.05839949 -0.07104243
0.12617388 0.00913094 0.09837145 -0.06301368 -0.07191777 -0.16457291 -0.09574345 0.06777117
0.11674415 0.026301088 0.2860124 -0.17326331 0.09580786 0.23135886 -0.026724663 0.24605434
0.047850054 -0.11192031 -0.05982624 0.19344926
00000000: 09b9 afbd bd49 eebd 2140 f0bd a80a e7bd
00000010: f6bf 1cbe f836 8fbe 0525 a6bc 8f79 8dbd
00000020: cd7c a7be 9bf6 05be f06c 953c ab4f 983d
00000030: f6b9 2bbe 42ba 9cbd 4e34 6fbd b27e 91bd
00000040: ba33 013e f099 153c f976 c93d 510d 81bd
00000050: a049 93bd cd85 28be 2415 c4bd 9ccb 8a3d
00000060: 8f17 ef3d 6175 d73c 3870 923e f06b 31be
00000070: e936 c43d 56e9 6c3e aeed dabc abf5 7b3e
00000080: 6bfe 433d 7a36 e5bd 5c0c 75bd 9017 463e

model.encoder.model.tcn_block_01.block.conv1d_layer_1.bias f4 [2]
0.106070645 0.036495723
00000000: 913b d93d 8a7c 153d

model.encoder.model.tcn_block_01.block.conv1d_layer_1.weight_g f4 [2, 1, 1]
0.7432768 0.5882473
00000000: 6347 3e3f 6097 163f

model.encoder.model.tcn_block_01.block.conv1d_layer_1.weight_v f4 [2, 2, 9]
0.049209695 -0.079083 -0.12316097 -0.086602144 -0.1590746 -0.19261406 -0.17179841 -0.17927285
-0.07436788 0.23377827 0.08387836 -0.053064104 0.20114934 -0.039177492 0.0115494905 -0.15393841
-0.13837188 0.013822558 -0.056310218 0.06774995 0.15260914 0.032143153 -0.0017599275 -0.083972126
-0.009399351 -0.195586 -0.19985627 0.08961882 0.014892467 0.08963338 -0.11100906 0.17775026
0.1680284 0.061876304 -0.10289899 0.2205934
00000000: 1b90 493d 45f6 a1bd d23b fcbd 775c b1bd
00000010: 74e4 22be 9f3c 45be eceb 2fbe 4d93 37be
00000020: 304e 98bd 9263 6f3e 6bc8 ab3d bf59 59bd
00000030: 18fa 4d3e 9478 20bd 133a 3d3c 08a2 1dbe
00000040: 5cb1 0dbe 0378 623c 8ba5 66bd 7cc0 8a3d
00000050: 9245 1c3e 8aa8 033d 5ead e6ba 94f9 abbd
00000060: bcff 19bc b247 48be 1fa7 4cbe 128a b73d
00000070: 89ff 733c b591 b73d b858 e3bd 2a04 363e
00000080: a30f 2c3e 0272 7d3d b5bc d2bd 3ce3 613e

model.qz_xy_mean.dense(qz_xy_mean)_layer_03.weight f4 [2, 2]
0.70996547 0.25026596 -0.41802588 0.8748352
00000000: 4cc0 353f dc22 803e 7d07 d6be 33f5 5f3f

model.qz_xy_mean.dense(qz_xy_mean)_layer_03.bias f4 [2]
-1.0763351 -0.3776898
00000000: 59c5 89bf 8f60 c1be

model.qz_xy_logvar.dense(qz_xy_logvar)_layer_03.weight f4 [2, 2]
-0.3099978 -0.9474169 -0.17665407 -0.66546535
00000000: 08b8 9ebe ea89 72bf cee4 34be f05b 2abf

model.qz_xy_logvar.dense(qz_xy_logvar)_layer_03.bias f4 [2]
-0.5208125 -0.8613416
00000000: f853 05bf e280 5cbf

model.py_t_probs.dense(py_t_probs)_layer_00.weight f4 [4, 2]
0.4575284 -0.9173794 -0.40482998 0.7407543 0.8088317 -0.046904165 -0.5866825 -0.6529873
00000000: 2a41 ea3e 60d9 6abf e045 cfbe 13a2 3d3f
00000010: 980f 4f3f 951e 40bd d330 16bf 2d2a 27bf

model.py_t_probs.dense(py_t_probs)_layer_00.bias f4 [4]
0.027728135 0.460952 0.41741964 0.2129345
00000000: 1d26 e33c e701 ec3e 07b8 d53e 800b 5a3e

model.pz_t_mean.dense(pz_t_mean)_layer_00.weight f4 [8, 2]
0.79460925 -0.12090828 -0.22921799 0.6030461 0.80722696 0.09041457 0.039722297 0.87548053
0.9048224 0.0066794218 -0.008761421 0.90103275 0.63738966 0.03350037 -0.044567995 0.5305253
00000000: 836b 4b3f c39e f7bd 1fb8 6abe 3b61 1a3f
00000010: 6da6 4e3f 462b b93d d9b3 223d 7e1f 603f
00000020: 71a2 673f 0ddf da3b 108c 0fbc 15aa 663f
00000030: f82b 233f af37 093d ee8c 36bd 82d0 073f

model.pz_t_mean.dense(pz_t_mean)_layer_00.bias f4 [8]
0.09433644 -0.27775013 -0.12029289 0.38051337 0.22814965 -0.034720417 -0.2663989 -0.14115334
00000000: 7733 c13d 4435 8ebe 1e5c f6bd a6d2 c23e
00000010: 10a0 693e ff36 0ebd 7065 88be 808a 10be

model.pz_t_logvar.dense(pz_t_logvar)_layer_00.weight f4 [2, 4]
-0.16999392 -0.44180876 -0.4940009 0.047851022 -0.54491764 -0.88260186 -0.8822074 -0.51643866
00000000: e312 2ebe c234 e2be b0ed fcbe 6fff 433d
00000010: b97f 0bbf 32f2 61bf 58d8 61bf 5335 04bf

model.pz_t_logvar.dense(pz_t_logvar)_layer_00.bias f4 [2]
-0.42274874 -0.18816182
00000000: 8672 d8be 7ead 40be

model.decoder.dense(decoder)_layer_00.weight f4 [10, 2]
0.35684302 -0.34437874 -0.37797827 0.30158833 -0.277485 0.368175 0.18088543 -0.034888312
-0.28506476 -0.1839713 0.14084023 -0.25149733 0.13286972 0.2825046 -0.26318398 0.38854212
0.10236378 -0.447821 -0.48643002 0.06432021
00000000: 21b4 b63e 6952 b0be 5e86 c1be c969 9a3e
00000010: 8412 8ebe 6f81 bc3e 083a 393e 0ce7 0ebd
00000020: 02f4 91be f962 3cbe 6c38 103e 42c4 80be
00000030: 000f 083e 71a4 903e 0dc0 86be feee c63e
00000040: 1aa4 d13d cb48 e5be 5b0d f9be 50ba 833d

model.decoder.dense(decoder)_layer_00.bias f4 [10]
-0.15580115 0.2012943 0.08180588 0.17228824 0.15424462 0.023596471 -0.22823155 0.19091278
0.30995983 0.37650102
00000000: 568a 1fbe 1820 4e3e d789 a73d 546c 303e
00000010: 4df2 1d3e 634d c13c 88b5 69be a47e 433e
00000020: 0eb3 9e3e bec4 c03e

inference.model.qy_x.model.tcn_block_00.conv0.bias f4 [2]
-0.057147857 0.24931745
00000000: df13 6abd 134d 7f3e

inference.model.qy_x.model.tcn_block_00.conv0.weight_g f4 [2, 1, 1]
0.81375366 1.009852
00000000: 2952 503f d542 813f

inference.model.qy_x.model.tcn_block_00.conv0.weight_v f4 [2, 10, 9]
-0.05038651 -0.0389407 -0.078529686 -0.090436794 -0.10622599 -0.11068097 -0.12711953 -0.09257227
-0.12638107 0.055719 0.047654495 0.06160926 0.043317102 0.0723456 0.091802426 0.10954883
0.118202865 0.117922924 0.01731947 0.042980857 0.082522266 0.102984235 0.10217178 0.12754491
0.13125099 0.14198448 0.14672184 -0.08222196 -0.06696866 -0.053515103 -0.04932189 -0.001780605
-0.040246863 -0.025040932 -0.022183118 -0.023189824 0.022760725 0.061478496 0.031752985 0.01929233
-0.012141935 -0.044534143 -0.037385195 -0.08579796 -0.09284864 -0.056813244 -0.043070868 -0.054270983
-0.078934446 -0.08632173 -0.07022074 -0.050024524 -0.07464614 -0.07654951 0.021094166 -0.014042836
0.03628068 0.008287996 0.034278497 0.065544374 0.124171846 0.1417579 0.111912355 0.0472864
0.06871441 0.06258573 0.08656886 0.113191046 0.13994835 0.16209027 0.11639655 0.1550931
-0.024587551 -0.013191613 -0.02586776 -0.041772746 -0.09712255 -0.13739485 -0.14271381 -0.17018558
-0.17508374 0.082770616 0.07661661 0.018127948 0.05630976 0.04024587 0.03319022 0.015687758
0.03394244 -0.0065065743 0.037969112 0.047900014 0.058948617 0.072286144 0.08937482 0.10978631
0.13325617 0.15602589 0.17575932 -0.04535792 -0.052874677 -0.061867557 -0.07208763 -0.08650051
-0.10318561 -0.122481994 -0.13943447 -0.15767252 -0.033113576 -0.04503476 -0.056061648 -0.06828854
-0.08159785 -0.10445941 -0.12978555 -0.15558834 -0.17969762 0.05638167 0.0499433 0.047219876
0.044242226 0.04625007 0.048666574 0.04882855 0.04273456 0.039940037 -0.06798023 -0.055592954
-0.045097757 -0.036065508 -0.02400829 -0.010487112 -0.00054870895 0.016043058 0.036767926 0.056079626
0.0592194 0.06271788 0.06750132 0.07602375 0.08802735 0.10402901 0.11719875 0.13241826
0.030562948 0.020235553 0.011352565 -0.008966188 -0.029798392 -0.05119683 -0.07417355 -0.09811879
-0.12526934 -0.005850419 -0.021587953 -0.041196898 -0.055133373 -0.075949766 -0.100603096 -0.12980643
-0.16089709 -0.19188029 0.01246572 0.027855165 0.04356202 0.060813803 0.08063042 0.10547314
0.13306734 0.16350237 0.19239649 -0.06120863 -0.057974543 -0.054051872 -0.052403454 -0.055428468
-0.05751678 -0.061027456 -0.062503934 -0.064615324
00000000: 1662 4ebd 4980 1fbd 2cd4 a0bd ed36 b9bd
00000010: 038d d9bd b4ac e2bd 9f2b 02be 8896 bdbd
00000020: 0a6a 01be 9b39 643d 5c31 433d fe59 7c3d
00000030: 466d 313d ee29 943d e902 bc3d 235b e03d
00000040: 5814 f23d 9381 f13d 90e1 8d3c b20c 303d
00000050: 6f01 a93d 66e9 d23d 703f d13d 229b 023e
00000060: a966 063e 6164 113e 403e 163e fd63 a8bd
00000070: dd26 89bd a732 5bbd c005 4abd 3063 e9ba
00000080: e5d9 24bd a422 cdbc 5fb9 b5bc 96f8 bdbc
00000090: b374 ba3c e0d0 7b3d 6b0f 023d f30a 9e3c
000000a0: f7ee 46bc 6f69 36bd 3821 19bd d7b6 afbd
000000b0: 6e27 bebd 01b5 68bd 146b 30bd 404b 5ebd
000000c0: 62a8 a1bd 72c9 b0bd e4cf 8fbd 84e6 4cbd
000000d0: 13e0 98bd fdc5 9cbd accd ac3c ec13 66bc
000000e0: 0d9b 143d 60ca 073c 9c67 0c3d 213c 863d
000000f0: cf4d fe3d fc28 113e 4e32 e53d 62af 413d
00000100: 24ba 8c3d f22c 803d 044b b13d b5d0 e73d
00000110: 9f4e 0f3e fefa 253e 5061 ee3d bad0 1e3e
00000120: d56b c9bc a321 58bc a0e8 d3bc e619 2bbd
00000130: 30e8 c6bd 3cb1 0cbe 9223 12be 2145 2ebe
00000140: 2749 33be a483 a93d 2be9 9c3d 1081 943c
00000150: 10a5 663d dad8 243d 78f2 073d 9d83 803c
00000160: 3a07 0b3d 1a35 d5bb 8085 1b3d ce32 443d
00000170: 1b74 713d c20a 943d 250a b73d a5d7 e03d
00000180: 4e74 083e 40c5 1f3e 40fa 333e 3ac9 39bd
00000190: 1e93 58bd d668 7dbd aea2 93bd 2e27 b1bd
000001a0: fa52 d3bd d7d7 fabd e9c7 0ebe e874 21be
000001b0: 1aa2 07bd 5e76 38bd e6a0 65bd ddda 8bbd
000001c0: c61c a7bd d1ee d5bd 81e6 04be 8d52 1fbe
000001d0: a702 38be 77f0 663d 5991 4c3d a169 413d
000001e0: 5637 353d b770 3d3d 9a56 473d 7200 483d
000001f0: 6f0a 2f3d 2a98 233d 3839 8bbd 70b5 63bd
00000200: 6db8 38bd 6db9 13bd 09ad c4bc 23d2 2bbc
00000210: 3cd7 0fba bb6c 833c f799 163d c0b3 653d
00000220: 0b90 723d 3b72 803d 223e 8a3d 57b2 9b3d
00000230: af47 b43d 290d d53d e605 f03d a798 073e
00000240: 265f fa3c 08c5 a53c 1c00 3a3c ebe6 12bc
00000250: c21b f4bc c4b3 51bd 4de8 97bd 81f2 c8bd
00000260: 9b46 00be dfb4 bfbb 38d9 b0bc 14be 28bd
00000270: 88d3 61bd 8d8b 9bbd ff08 cebd faeb 04be
00000280: 35c2 24be 447c 44be 053d 4c3c 8430 e43c
00000290: 176e 323d e517 793d 9021 a53d 4d02 d83d
000002a0: ce42 083e 2a6d 273e 9603 453e e7b5 7abd
000002b0: b776 6dbd 7f65 5dbd 01a5 56bd f608 63bd
000002c0: b796 6bbd edf7 79bd 1002 80bd 0a55 84bd

inference.model.qy_x.model.tcn_block_00.conv1.bias f4 [2]
0.31266654 0.19779441
00000000: d415 a03e 9e8a 4a3e

inference.model.qy_x.model.tcn_block_00.conv1.weight_g f4 [2, 1, 1]
0.7744449 0.91133493
00000000: 0542 463f 3f4d 693f

inference.model.qy_x.model.tcn_block_00.conv1.weight_v f4 [2, 2, 9]
0.19622223 0.17505875 0.22290885 0.22889216 0.14519414 0.13911547 -0.0022940906 0.1750278
0.16854939 0.028626146 -0.036683876 -0.024902409 -0.054398533 -0.060456835 -0.072883576 -0.07384559
-0.09789705 -0.09810641 0.039169185 0.028922433 0.011344373 0.0029890751 -0.008106903 -0.02578879
-0.048261873 -0.0660459 -0.08199445 0.063163966 0.07264478 0.0871859 0.10653484 0.12782581
0.13964942 0.14668009 0.12643722 0.15361142
00000000: 7bee 483e 9a42 333e 3842 643e b562 6a3e
00000010: c6ad 143e 4974 0e3e 7458 16bb 7d3a 333e
00000020: 3698 2c3e 6181 ea3c d541 16bd 2300 ccbc
00000030: ffd0 5ebd 96a1 77bd fc43 95bd 5b3c 97bd
00000040: 407e c8bd 03ec c8bd de6f 203d bdee ec3c
00000050: c0dd 393c 5ce4 433b d1d2 04bc 0343 d3bc
00000060: 3eae 45bd 1343 87bd b5ec a7bd 1c5c 813d
00000070: c9c6 943d 858e b23d f02e da3d c5e4 023e
00000080: 4200 0f3e 4e33 163e c278 013e 504c 1d3e

inference.model.qy_x.model.tcn_block_00.block.conv1d_layer_0.bias f4 [2]
-0.057147857 0.24931745
00000000: df13 6abd 134d 7f3e

inference.model.qy_x.model.tcn_block_00.block.conv1d_layer_0.weight_g f4 [2, 1, 1]
0.81375366 1.009852
00000000: 2952 503f d542 813f

inference.model.qy_x.model.tcn_block_00.block.conv1d_layer_0.weight_v f4 [2, 10, 9]
-0.05038651 -0.0389407 -0.078529686 -0.090436794 -0.10622599 -0.11068097 -0.12711953 -0.09257227
-0.12638107 0.055719 0.047654495 0.06160926 0.043317102 0.0723456 0.091802426 0.10954883
0.118202865 0.117922924 0.01731947 0.042980857 0.082522266 0.102984235 0.10217178 0.12754491
0.13125099 0.14198448 0.14672184 -0.08222196 -0.06696866 -0.053515103 -0.04932189 -0.001780605
-0.040246863 -0.025040932 -0.022183118 -0.023189824 0.022760725 0.061478496 0.031752985 0.01929233
-0.012141935 -0.044534143 -0.037385195 -0.08579796 -0.09284864 -0.056813244 -0.043070868 -0.054270983
-0.078934446 -0.08632173 -0.07022074 -0.050024524 -0.07464614 -0.07654951 0.021094166 -0.014042836
0.03628068 0.008287996 0.034278497 0.065544374 0.124171846 0.1417579 0.111912355 0.0472864
0.06871441 0.06258573 0.08656886 0.113191046 0.13994835 0.16209027 0.11639655 0.1550931
-0.024587551 -0.013191613 -0.02586776 -0.041772746 -0.09712255 -0.13739485 -0.14271381 -0.17018558
-0.17508374 0.082770616 0.07661661 0.018127948 0.05630976 0.04024587 0.03319022 0.015687758
0.03394244 -0.0065065743 0.037969112 0.047900014 0.058948617 0.072286144 0.08937482 0.10978631
0.13325617 0.15602589 0.17575932 -0.04535792 -0.052874677 -0.061867557 -0.07208763 -0.08650051
-0.10318561 -0.122481994 -0.13943447 -0.15767252 -0.033113576 -0.04503476 -0.056061648 -0.06828854
-0.08159785 -0.10445941 -0.12978555 -0.15558834 -0.17969762 0.05638167 0.0499433 0.047219876
0.044242226 0.04625007 0.048666574 0.04882855 0.04273456 0.039940037 -0.06798023 -0.055592954
-0.045097757 -0.036065508 -0.02400829 -0.010487112 -0.00054870895 0.016043058 0.036767926 0.056079626
0.0592194 0.06271788 0.06750132 0.07602375 0.08802735 0.10402901 0.11719875 0.13241826
0.030562948 0.020235553 0.011352565 -0.008966188 -0.029798392 -0.05119683 -0.07417355 -0.09811879
-0.12526934 -0.005850419 -0.021587953 -0.041196898 -0.055133373 -0.075949766 -0.100603096 -0.12980643
-0.16089709 -0.19188029 0.01246572 0.027855165 0.04356202 0.060813803 0.08063042 0.10547314
0.13306734 0.16350237 0.19239649 -0.06120863 -0.057974543 -0.054051872 -0.052403454 -0.055428468
-0.05751678 -0.061027456 -0.062503934 -0.064615324
00000000: 1662 4ebd 4980 1fbd 2cd4 a0bd ed36 b9bd
00000010: 038d d9bd b4ac e2bd 9f2b 02be 8896 bdbd
00000020: 0a6a 01be 9b39 643d 5c31 433d fe59 7c3d
00000030: 466d 313d ee29 943d e902 bc3d 235b e03d
00000040: 5814 f23d 9381 f13d 90e1 8d3c b20c 303d
00000050: 6f01 a93d 66e9 d23d 703f d13d 229b 023e
00000060: a966 063e 6164 113e 403e 163e fd63 a8bd
00000070: dd26 89bd a732 5bbd c005 4abd 3063 e9ba
00000080: e5d9 24bd a422 cdbc 5fb9 b5bc 96f8 bdbc
00000090: b374 ba3c e0d0 7b3d 6b0f 023d f30a 9e3c
000000a0: f7ee 46bc 6f69 36bd 3821 19bd d7b6 afbd
000000b0: 6e27 bebd 01b5 68bd 146b 30bd 404b 5ebd
000000c0: 62a8 a1bd 72c9 b0bd e4cf 8fbd 84e6 4cbd
000000d0: 13e0 98bd fdc5 9cbd accd ac3c ec13 66bc
000000e0: 0d9b 143d 60ca 073c 9c67 0c3d 213c 863d
000000f0: cf4d fe3d fc28 113e 4e32 e53d 62af 413d
00000100: 24ba 8c3d f22c 803d 044b b13d b5d0 e73d
00000110: 9f4e 0f3e fefa 253e 5061 ee3d bad0 1e3e
00000120: d56b c9bc a321 58bc a0e8 d3bc e619 2bbd
00000130: 30e8 c6bd 3cb1 0cbe 9223 12be 2145 2ebe
00000140: 2749 33be a483 a93d 2be9 9c3d 1081 943c
00000150: 10a5 663d dad8 243d 78f2 073d 9d83 803c
00000160: 3a07 0b3d 1a35 d5bb 8085 1b3d ce32 443d
00000170: 1b74 713d c20a 943d 250a b73d a5d7 e03d
00000180: 4e74 083e 40c5 1f3e 40fa 333e 3ac9 39bd
00000190: 1e93 58bd d668 7dbd aea2 93bd 2e27 b1bd
000001a0: fa52 d3bd d7d7 fabd e9c7 0ebe e874 21be
000001b0: 1aa2 07bd 5e76 38bd e6a0 65bd ddda 8bbd
000001c0: c61c a7bd d1ee d5bd 81e6 04be 8d52 1fbe
000001d0: a702 38be 77f0 663d 5991 4c3d a169 413d
000001e0: 5637 353d b770 3d3d 9a56 473d 7200 483d
000001f0: 6f0a 2f3d 2a98 233d 3839 8bbd 70b5 63bd
00000200: 6db8 38bd 6db9 13bd 09ad c4bc 23d2 2bbc
00000210: 3cd7 0fba bb6c 833c f799 163d c0b3 653d
00000220: 0b90 723d 3b72 803d 223e 8a3d 57b2 9b3d
00000230: af47 b43d 290d d53d e605 f03d a798 073e
00000240: 265f fa3c 08c5 a53c 1c00 3a3c ebe6 12bc
00000250: c21b f4bc c4b3 51bd 4de8 97bd 81f2 c8bd
00000260: 9b46 00be dfb4 bfbb 38d9 b0bc 14be 28bd
00000270: 88d3 61bd 8d8b 9bbd ff08 cebd faeb 04be
00000280: 35c2 24be 447c 44be 053d 4c3c 8430 e43c
00000290: 176e 323d e517 793d 9021 a53d 4d02 d83d
000002a0: ce42 083e 2a6d 273e 9603 453e e7b5 7abd
000002b0: b776 6dbd 7f65 5dbd 01a5 56bd f608 63bd
000002c0: b796 6bbd edf7 79bd 1002 80bd 0a55 84bd

inference.model.qy_x.model.tcn_block_00.block.conv1d_layer_1.bias f4 [2]
0.31266654 0.19779441
00000000: d415 a03e 9e8a 4a3e

inference.model.qy_x.model.tcn_block_00.block.conv1d_layer_1.weight_g f4 [2, 1, 1]
0.7744449 0.91133493
00000000: 0542 463f 3f4d 693f
