results_gmdgm/multi-1/dtcn/test_rsldsv9/version_0/best_val_model.pt (torch, 615333 bytes, 354 tensors)

model.qy_x.model.tcn_block_00.conv0.bias f4 [32]
0	0x3dd3e7e9	0.10346968
1	0xbcb24470	-0.02176115
2	0x3c96d999	0.018414306
3	0x3d309b1b	0.04311667
4	0x3da3c14b	0.07995852
5	0xbe691b75	-0.2276438
6	0xbe6916ea	-0.22762647
7	0x3cd923f8	0.026506409
8	0xbd2f6254	-0.042818382
9	0xbb2fe9b1	-0.0026842172
10	0xbd2f3eed	-0.04278462
11	0x3e20aff6	0.15692124
12	0x3e3a8683	0.18215375
13	0xbc928fc2	-0.017890815
14	0xbe4a353d	-0.19746871
15	0x3b54a5b9	0.0032447411
16	0x3c83c4a7	0.016084982
17	0xbccb211b	-0.02479606
18	0xbe2ed94c	-0.1707508
19	0x3d32b845	0.043632764
20	0xbd91ff26	-0.07128744
21	0xbd87de15	-0.06634156
22	0x3d89f69f	0.06736492
23	0x3e1e4b45	0.154584
24	0x3c0d4f77	0.008624903
25	0x3ba687bc	0.0050820988
26	0xbd451e7f	-0.048124786
27	0xbc1fd31a	-0.00975492
28	0xbe68906e	-0.22711346
29	0x3dc59730	0.09647977
30	0x3d29dcd5	0.041470367
31	0x3d017cb9	0.031613085

model.qy_x.model.tcn_block_00.conv0.weight_g f4 [32, 1, 1]
0	0x3f33ea8b	0.7027976
1	0x3f1f75af	0.62288946
2	0x3f1ee693	0.6207058
3	0x3f35ef71	0.71068484
4	0x3f255d2a	0.6459528
5	0x3f18bafa	0.59660304
6	0x3f33d806	0.702515
7	0x3f3378c7	0.70106167
8	0x3f28f0f9	0.65992695
9	0x3f2e5a06	0.68106115
10	0x3f1c936b	0.6116244
11	0x3f19050e	0.5977334
12	0x3f1abf6d	0.6044834
13	0x3f258c45	0.6466716
14	0x3f33a3b8	0.7017169
15	0x3f15c8ff	0.5850982
16	0x3f28a019	0.6586929
17	0x3f3f97c5	0.74840957
18	0x3f24921d	0.6428545
19	0x3f1766e3	0.5914137
20	0x3f295e7a	0.66159785
21	0x3f217c91	0.630807
22	0x3f27cf92	0.655511
23	0x3f2027b6	0.62560594
24	0x3f20aab5	0.6276048
25	0x3f258cd4	0.6466801
26	0x3f1b9ca7	0.6078591
27	0x3f20490d	0.62611467
28	0x3f35378a	0.7078787
29	0x3f262f9c	0.64916396
30	0x3f1e1288	0.61747026
31	0x3f259b17	0.64689773

model.qy_x.model.tcn_block_00.conv0.weight_v f4 [32, 16, 9]
0	0x3a1782ca	0.0005779682
1	0x3d0c6a8f	0.03428131
2	0xbd7cf799	-0.061759565
3	0xbd64c383	-0.055850517
4	0xbcfd7865	-0.030941198
5	0x3c64a2ab	0.013954799
6	0xbc195a2c	-0.009359878
7	0x3d3825a5	0.044957776
8	0xbca83710	-0.020534068
9	0x3cf4b0d4	0.029869474
10	0xbc18ecd5	-0.009333809
11	0x3a91ce2d	0.0011124067
12	0xbd53ce6c	-0.05171053
13	0xbcf576b5	-0.02996383
14	0xbc519ba6	-0.012793457
15	0x3ca2061e	0.019778308
16	0x3d2dacc6	0.042401098
17	0x3d55f256	0.052233063
18	0x3c81a03b	0.015823474
19	0x3cb5ba26	0.022183489
20	0x3d8e4b6a	0.06947978
21	0x3dc12fd1	0.094329484
22	0x3c730649	0.0148330415
23	0x3d9895be	0.07450436
24	0x3bf5ca99	0.007500958
25	0x3cfb80a3	0.030700987
26	0x3dae9b1a	0.08525677
27	0xbdacd421	-0.08438898
28	0xbd712405	-0.05887224
29	0xbcda41a1	-0.026642622
30	0xbd33e48c	-0.04391913
31	0x3d2a0cea	0.041516222
32	0xbd9a69dd	-0.07539723
33	0xbd72d175	-0.059281785
34	0xbdaaf0df	-0.08346724
35	0xbde3b5d9	-0.11118669
36	0xbd399a1a	-0.04531298
37	0x3d7043f7	0.058658566
38	0x3d03a07c	0.03213547
39	0x3d0e710c	0.03477578
40	0x3b95c6e1	0.0045708274
41	0xbd098abc	-0.033579573
42	0x3c437be6	0.011931395
43	0xbd844c8c	-0.06459913
44	0xbd58bda6	-0.052915238
45	0xbc902845	-0.017597327
46	0x3d62be28	0.05535713
47	0x3d4a6398	0.049411386
48	0xbc84f59b	-0.016230395
49	0x3c057caa	0.008147398
50	0x3d49c743	0.049262296
51	0x3d929e9f	0.07159161
52	0x3cdcb6ab	0.026942572
53	0x3b073685	0.0020631861
54	0x3d365718	0.044516653
55	0xbd19a19e	-0.037507646
56	0x3ca46c55	0.020071188
57	0xbd346cf7	-0.04404923
58	0xbd3169ab	-0.043313663
59	0xbd09d41e	-0.033649556
60	0x3d088a7c	0.033335194
61	0x3d12808c	0.035767123
62	0xbca679c6	-0.020321738
63	0x3c92e1d0	0.017929941
64	0x3d1c7436	0.038196765
65	0x3ab8015d	0.0014038492
66	0x3c91ef17	0.017814202
67	0x3d0362d9	0.03207669
68	0x3d710ed1	0.05885202
69	0x3daad74e	0.08341847
70	0xbcccdabe	-0.025006648
71	0x3c39a381	0.011330486
72	0xbbbab71f	-0.0056980993
73	0x3cc998dc	0.024609022
74	0x3cf12f40	0.029441476
75	0x3d074619	0.033025835
76	0xbc619411	-0.013768212
77	0xbdb1e76a	-0.08686717
78	0xbcc4080c	-0.023929618
79	0xbda0d482	-0.07853033
80	0xbddc28f1	-0.107499965
81	0x3d999103	0.07498362
82	0x3d88a614	0.06672302
83	0xbd441a26	-0.0478765
84	0x3ce7a186	0.028275263
85	0x3ba9b828	0.005179424
86	0x3ba678ad	0.0050803036
87	0xbc8358a5	-0.01603348
88	0x3d12e4e2	0.03586281
89	0xbd1c11cf	-0.03810292
90	0x3cd7104d	0.02625289
91	0x3d1ed9ed	0.03878205
92	0x3d7a6aa7	0.061136868
93	0x3d1cdb8d	0.038295317
94	0xbd791666	-0.060812376
95	0xbccd4a20	-0.02505976
96	0x3d903ae4	0.070424825
97	0x3d57bf15	0.052672464
98	0xbc98c1d9	-0.018647121
99	0xbdbd42ef	-0.09241282
100	0x3c81aa44	0.01582826
101	0x3b268567	0.0025409104
102	0xbda5bddd	-0.08092854
103	0xbd9556b3	-0.07291927
104	0xbdfbdc0b	-0.12297829
105	0xbd5b8e74	-0.05360265
106	0xbddfd2e5	-0.10928897
107	0xbde94f42	-0.1139207
108	0xbb2b73ba	-0.0026161508
109	0x3c1f07ab	0.009706418
110	0xbcdac62a	-0.02670582
111	0x3d142eef	0.036177572
112	0xbd332e8b	-0.04374556
113	0x3d6a440e	0.05719381
114	0x3d3364b8	0.043797225
115	0xbd64a773	-0.055823755
116	0xbc62039f	-0.013794809
117	0x3c1987a0	0.009370714
118	0x3cbeefaf	0.02330765
119	0x3d16b073	0.03678937
120	0x3d3186ca	0.043341435
121	0x3cb9bd97	0.022673411
122	0xbc195fe9	-0.009361246
123	0x3d6fa5c2	0.05850769
124	0xbd01c770	-0.03168434
125	0x3b23b1f3	0.0024977892
126	0xbc85fa7d	-0.016354794
127	0xbd12f038	-0.03587362
128	0xbce5e7ac	-0.028064571
129	0xbd7852c0	-0.06062579
130	0xbcd5df87	-0.026107563
131	0xbbabaf49	-0.0052394015
132	0xbd898008	-0.06713873
133	0xbce3d7da	-0.027812887
134	0x3cec0c8b	0.028814575
135	0x3d0d100a	0.034439124
136	0x3d0c4506	0.034245513
137	0x3ca7807a	0.020447005
138	0x3d120aa1	0.035654668
139	0x3d693e71	0.056944314
140	0x3d97c2ec	0.07410225
141	0x3d5848f8	0.052803963
142	0x3d983065	0.074311055
143	0x3c854264	0.01626701
144	0xbd696b6f	-0.056987222
145	0xbd324e0b	-0.04353146
146	0x3d0c3b4f	0.03423625
147	0xbc9e639c	-0.019334607
148	0xbd4ec86c	-0.050484106
149	0xbd6f123c	-0.058367
150	0xbd54ec85	-0.051983375
151	0xbce46dcf	-0.027884392
152	0x3ce8ad51	0.028402956
153	0x3c4e6288	0.012596734
154	0x3a376d76	0.0006997207
155	0xbe037a90	-0.12839723
156	0xbb4e5e6d	-0.0031489388
157	0xbde40c3c	-0.11135146
158	0xbd5b42df	-0.05353057
159	0xbd4e323a	-0.05034087
160	0xbc906672	-0.017626975
161	0xbb5e154f	-0.0033887213
162	0xbddebafc	-0.10875508
163	0xbdd292c6	-0.10281901
164	0xbd36d2d4	-0.044634655
165	0xbcbc4f65	-0.022987077
166	0xbd2b23ff	-0.041782375
167	0x3cfdb8cf	0.030971913
168	0xbd529e61	-0.051420573
169	0x3c4d1bae	0.012518806
170	0x3da5eaf4	0.081014544
171	0xbd80f13d	-0.062960126
172	0x3cf44ce3	0.029821819
173	0xbc11c6c4	-0.008897487
174	0xbdc55856	-0.09635989
175	0x3c8fd468	0.017557338
176	0xbd047a68	-0.0323433
177	0xbd559f62	-0.052153952
178	0x3d2241d6	0.039613567
179	0xbda2a89a	-0.079423144
180	0x3b58cebd	0.003308221
181	0xbcc1e1f5	-0.023667315
182	0x3d2c11a2	0.042009003
183	0x3b971fea	0.0046119587
184	0x3c78f069	0.015194037
185	0x372e8225	1.040151e-05
186	0xbd4aa7fb	-0.049476605
187	0xbd5a353f	-0.053273436
188	0xbdd9ebd2	-0.10640682
189	0x3d474c15	0.04865654
190	0x3d866815	0.06562821
191	0x3d696ef8	0.056990594
192	0xbd446b09	-0.04795364
193	0x3ae80b07	0.0017703482
194	0xbd693a30	-0.056940258
195	0xbd57288f	-0.052528914
196	0xbd769ac8	-0.060206205
197	0x39dc3b6d	0.00042005946
198	0xbd61658e	-0.05502849
199	0xbc2bec68	-0.010493375
200	0xbc1d2789	-0.009591945
201	0x3cf13385	0.029443512
202	0xbd772420	-0.060337186
203	0xbd74db6d	-0.059779573
204	0xbd6cf85e	-0.05785405
205	0x3d04e69b	0.032446485
206	0xbd167f55	-0.036742527
207	0x3cf9d2b8	0.030495986
208	0x3add2198	0.0016870974
209	0xbc40f18a	-0.011776337
210	0xbca221df	-0.019791542
211	0xbcb7370d	-0.022365117
212	0xba4ca34a	-0.00078063144
213	0xbcfe886c	-0.03107091
214	0xbc420da6	-0.011844074
215	0x3ba3f228	0.0050032325
216	0xbdbe1ad6	-0.09282462
217	0xbda66f5a	-0.081267074
218	0x3c96d4f2	0.018412087
219	0xbde3cf18	-0.111234844
220	0xbd491a03	-0.049097072
221	0x3d30700a	0.0430756
222	0x3bb0c9af	0.0053951363
223	0xbc06d324	-0.008229051
224	0xbd730783	-0.059333336
225	0x3c809d98	0.015700147
226	0xbda5a3fe	-0.0808792
227	0xbd5a1634	-0.05324383
228	0xbd6742b4	-0.056460097
229	0xbd0a8d49	-0.033826146
230	0xbbf97620	-0.0076129586
231	0x3d882aee	0.06648813
232	0x3cfc59ea	0.030804593
233	0x3dc26692	0.0949222
234	0x3c214418	0.009842895
235	0xbd9cee36	-0.07662623
236	0x3a308fc5	0.00067352905
237	0xbda8db3f	-0.08244943
238	0xbd85fb46	-0.06542067
239	0xbc8e0600	-0.017336845
240	0xbc72cb6b	-0.014819006
241	0x3c872243	0.01649583
242	0xbd606aad	-0.054789234
243	0x3cc2dbe1	0.023786487
244	0x3d7ce2f5	0.06173988
245	0xbd49f5a3	-0.049306523
246	0x3d8a01bc	0.06738612
247	0xbd598965	-0.053109545
248	0x3ad92601	0.0016567112
249	0xbc7ce1a7	-0.015434659
250	0xbd2eb218	-0.042650312
251	0x3bca638b	0.006176417
252	0x3d9447ab	0.07240232
253	0xbc66148f	-0.0140429875
254	0xbd322a64	-0.043497458
255	0xbd1cb03d	-0.03825401

model.qy_x.model.tcn_block_00.conv1.bias f4 [32]
0	0x3d13bc30	0.03606814
1	0xbd9047c9	-0.07044942
2	0xbd62fc09	-0.05541614
3	0x3e3b24dc	0.1827578
4	0x3d85f671	0.065411456
5	0x3db3d78d	0.087813474
6	0xbd9810fb	-0.07425114
7	0x3e2ffa1c	0.17185253
8	0xbda8e156	-0.082461044
9	0x3c626e31	0.013820217
10	0x3d1f049b	0.03882275
11	0xbc8afb73	-0.016965603
12	0x3d608152	0.05481083
13	0x3d515993	0.051110815
14	0x3d7ec203	0.062196743
15	0x3d01ab5e	0.03165757
16	0x3e0ba079	0.13635434
17	0xbe3d5d36	-0.18492588
18	0xbd884a5d	-0.06654809
19	0xbd06d60f	-0.032918986
20	0xbc9458a1	-0.018108668
21	0x3e1403eb	0.1445462
22	0x3d3e251a	0.0464221
23	0x3e19e8a7	0.15030156
24	0x3e0d5e08	0.13805401
25	0x3d8e75c8	0.06956059
26	0xbcd0eab5	-0.025502542
27	0xbd77d96a	-0.060510077
28	0xbd5585b7	-0.052129474
29	0x3b9e6248	0.0048334934
30	0x3e1a1ed3	0.15050821
31	0x3c1389b2	0.009004997

model.qy_x.model.tcn_block_00.conv1.weight_g f4 [32, 1, 1]
0	0x3f33555a	0.7005211
1	0x3f29a939	0.6627384
2	0x3f29fb30	0.66398907
3	0x3f3130b6	0.6921495
4	0x3f2382e2	0.63871586
5	0x3f2502cb	0.64457387
6	0x3f37a9fd	0.71743757
7	0x3f1f59ef	0.622466
8	0x3f2faa70	0.6861944
9	0x3f2b88b9	0.670055
10	0x3f1d959e	0.6155642
11	0x3f32d6cc	0.69859004
12	0x3f2293eb	0.63506955
13	0x3f27b438	0.65509367
14	0x3f36a8ae	0.71351135
15	0x3f27144f	0.65265363
16	0x3f2b08aa	0.66810095
17	0x3f346647	0.7046856
18	0x3f2e5eb3	0.6811325
19	0x3f304447	0.6885418
20	0x3f2ecbd8	0.6827979
21	0x3f246bf0	0.642272
22	0x3f1dee20	0.61691475
23	0x3f2780f2	0.6543113
24	0x3f2525a1	0.6451054
25	0x3f309f7b	0.6899335
26	0x3f31dee8	0.6948075
27	0x3f390fb4	0.72289586
28	0x3f34f327	0.7068352
29	0x3f2cdc15	0.6752332
30	0x3f396b0e	0.7242898
31	0x3f3098d0	0.68983173

model.qy_x.model.tcn_block_00.conv1.weight_v f4 [32, 32, 9]
0	0x3cc218cd	0.023693467
1	0x3c8352a1	0.016030611
2	0x3c9c115a	0.019051243
3	0x3b9488cf	0.0045329104
4	0x3a780621	0.00094613625
5	0xbc12a1bd	-0.008949694
6	0xbc18e8b5	-0.009332825
7	0xbc9935bb	-0.018702378
8	0xbbd45c15	-0.0064807036
9	0x3cd07b17	0.025449319
10	0x3c2ec3de	0.010666816
11	0x3a9c6f62	0.001193505
12	0xbc1775e6	-0.009244418
13	0xbcfcdf0c	-0.030868076
14	0xbb189a51	-0.002328534
15	0xbc8e3058	-0.017357036
16	0xbc8b4e0a	-0.017004985
17	0x3ae02f72	0.0017103984
18	0x3971e71e	0.00023069649
19	0x3c2f7d33	0.010711002
20	0xbc898b3f	-0.01679003
21	0x3c90f478	0.017694697
22	0xbce60e4d	-0.028082991
23	0xbc8c1907	-0.017101778
24	0xbc88297e	-0.016621348
25	0xbc01c497	-0.007920406
26	0xbb43236f	-0.0029775759
27	0xbc4ef45f	-0.012631505
28	0xbbb2dc04	-0.005458357
29	0xbc654fe7	-0.013996101
30	0xbc51c303	-0.012802842
31	0x3a66a0ba	0.0008797754
32	0x3c8d2a1e	0.017231997
33	0xbbba5d01	-0.0056873565
34	0x3bce5ee8	0.006297935
35	0x3d17b645	0.03703906
36	0x3bdf09b4	0.0068065766
37	0x3baa41a3	0.005195813
38	0x3c090810	0.008363739
39	0x3c2eb8eb	0.010664205
40	0x3c31ad8b	0.0108445985
41	0xbb408b9a	-0.0029380084
42	0x3a986559	0.0011626884
43	0xbc9c610b	-0.019089242
44	0xbcc348a3	-0.023838347
45	0x3bb19e1c	0.0054204594
46	0x3bf4d255	0.0074713626
47	0x3cfa0a1c	0.030522399
48	0x3cab8734	0.020938493
49	0x3c96d5d1	0.018412502
50	0x3cdf3311	0.02724603
51	0x3d44b1a9	0.048020992
52	0x3d01d496	0.03169688
53	0x3d222a5f	0.03959119
54	0xbc0be630	-0.008538768
55	0xbcd3782e	-0.025814142
56	0xbbaddc4a	-0.0053058015
57	0xbccef253	-0.025262034
58	0xbc2c81c4	-0.010528985
59	0xbc2a91bc	-0.010410722
60	0x3ce6b899	0.028164195
61	0xbc828d25	-0.015936444
62	0x3d183b5a	0.037165977
63	0x3d342ccb	0.04398803
64	0x3c1bb217	0.009502909
65	0x3d348a0d	0.044076968
66	0x3c866085	0.016403446
67	0xbb5eee80	-0.0034016669
68	0x3c79bd4d	0.015242887
69	0x3ce3c691	0.027804645
70	0xbb6d2778	-0.0036186855
71	0x3cd13618	0.02553849
72	0xbb776301	-0.003774822
73	0xbc2d785d	-0.010587779
74	0x3a0cbf07	0.00053690415
75	0x3a980353	0.001159767
76	0x3b3cd793	0.0028815016
77	0x3cffdf42	0.031234387
78	0x3c6767d5	0.014123877
79	0x3cfc7ef8	0.030822262
80	0x3d30b276	0.043138944
81	0x3d67a68a	0.05655531
82	0x3d9c7932	0.07640304
83	0x3d1aee22	0.037824757
84	0x3dab907d	0.08377168
85	0x3d8f9519	0.0701086
86	0x3d686e12	0.056745596
87	0x3d27b216	0.04094132
88	0x3d9705f8	0.07374185
89	0x3dba7b0d	0.09105501
90	0xbd64b98a	-0.055841006
91	0xbd1bf1f4	-0.03807254
92	0xbd6f3def	-0.058408674
93	0xbd58c806	-0.052925132
94	0xbca675c6	-0.02031983
95	0x3c1e7033	0.009670305
96	0xbc0edfc1	-0.008720339
97	0x3b785d7c	0.0037897518
98	0xbc8ca638	-0.017169103
99	0x3ad84d96	0.0016502615
100	0x3c4a8d9b	0.012362863
101	0x3bdaffae	0.0066833114
102	0x3d13d471	0.03609127
103	0x3d2118b5	0.039330203
104	0x3bd97d65	0.0066372626
105	0x3d136500	0.035984993
106	0x3c998152	0.018738423
107	0x3c71b640	0.014752924
108	0x3c8d79cc	0.017269991
109	0x3c5dd4d3	0.013539511
110	0x3be6ceaa	0.0070436792
111	0x3cfbede5	0.030753085
112	0x3d3d91b3	0.046281528
113	0x3d007391	0.031360213
114	0x3d1b79b4	0.037957862
115	0x3d323324	0.043505803
116	0x3cd86bf2	0.02641866
117	0x3da354cd	0.07975159
118	0x3d9d4156	0.076784775
119	0x3d5eb766	0.05437412
120	0x3d77e982	0.060525425
121	0x3dab3a73	0.08360758
122	0x3dc25fc0	0.09490919
123	0x3d6921ed	0.05691712
124	0x3d9c062b	0.07618364
125	0x3d7d4209	0.061830554
126	0xbc844ff9	-0.016151415
127	0xbc64ee2c	-0.0139728
128	0xbd038481	-0.032108787
129	0xbca04583	-0.019564396
130	0xbca93730	-0.020656198
131	0xbd2bb31d	-0.041918863
132	0xbc8a2cd5	-0.01686708
133	0xbc4e4a5d	-0.012590972
134	0xbc831771	-0.016002389
135	0xbcd77b5a	-0.026303936
136	0xbcb22719	-0.021747159
137	0xbc18ffbd	-0.0093383165
138	0xb9dd64dd	-0.00042227554
139	0xbbeb4ff2	-0.007181161
140	0x3bc08116	0.0058747632
141	0x3aa775c6	0.0012776188
142	0x3cc92dff	0.024558065
143	0x3c3083c6	0.010773605
144	0x3ced8e01	0.028998377
145	0x3d650787	0.05591538
146	0x3d2d2d97	0.042279806
147	0x3cfbccfe	0.030737396
148	0x3d0b49f1	0.034006063
149	0x3cedf39b	0.029046824
150	0x3d23f844	0.040031686
151	0x3d44f6b2	0.04808683
152	0x3ceafea8	0.028685883
153	0x3c8c4841	0.017124297
154	0x3c332049	0.01093299
155	0x39ce4dde	0.00039349397
156	0xbc80682c	-0.015674673
157	0x3ac18e87	0.0014767208
158	0x3c4df3da	0.012570346
159	0x3be6371a	0.0070256116
160	0x3d1a2c63	0.037639987
161	0x3d1884ef	0.03723615
162	0x3c6b4f43	0.014362159
163	0xbba3bbbb	-0.0049967445
164	0xbc946531	-0.018114658
165	0xbb9ca2f8	-0.0047801696
166	0x3b8b5072	0.004251533
167	0xbc316636	-0.010827592
168	0x3cbeb009	0.0232773
169	0xbc80c33a	-0.015718091
170	0xbc5f4e57	-0.0136295175
171	0x3d803905	0.062608756
172	0x3db8340c	0.08994302
173	0x3d4155e9	0.04720107
174	0x3da7d637	0.08195155
175	0x3d955151	0.072909005
176	0x3d7a01c6	0.061036848
177	0x3db66cdb	0.08907481
178	0x3dd040bd	0.10168598
179	0x3db01763	0.08598211
180	0xbd7a4658	-0.06110224
181	0xbd18a76e	-0.03726905
182	0xbd29c9d0	-0.04145223
183	0xbd7755a2	-0.0603844
184	0xbd7c569a	-0.061606027
185	0xbd69d8ba	-0.057091452
186	0xbd883b87	-0.06651979
187	0xbda6358e	-0.081156835
188	0xbdceb9c6	-0.10094027
189	0xbb7ce5b4	-0.0038589062
190	0x3c7e432e	0.015518947
191	0x3d0c650d	0.034276057
192	0x3cb87fc6	0.022521865
193	0x3abee6da	0.0014564649
194	0x3cd1a43f	0.025591014
195	0x3d86ba8d	0.065785505
196	0x3c905c1c	0.017622046
197	0x3cd38640	0.025820851
198	0x3ccd34c6	0.025049578
199	0x3d1ac6cd	0.037787247
200	0xbc50f62a	-0.012754003
201	0xbc00226c	-0.007820707
202	0x3c32712e	0.010891242
203	0x3d2483fb	0.04016493
204	0xbb698cc8	-0.003563689
205	0x3bff643f	0.0077939327
206	0x3c8a0616	0.016848605
207	0xbd0ad90d	-0.033898402
208	0xbced85f3	-0.028994536
209	0xbccaab9d	-0.024740035
210	0xbc5ea917	-0.013590119
211	0xbb01163f	-0.0019697098
212	0xbc12cbe3	-0.008959743
213	0xbc3effdb	-0.01165768
214	0xbcd49055	-0.02594773
215	0xbd1275fb	-0.035757046
216	0xbb401335	-0.0029308323
217	0x3cd47200	0.025933266
218	0x3a8a6163	0.0010557588
219	0xbcd22638	-0.02565299
220	0xbb7dcbc7	-0.0038726197
221	0x3ccb62e7	0.024827434
222	0x3d348363	0.044070613
223	0xbb2ca270	-0.0026341937
224	0xbd092d13	-0.03349025
225	0xbb80f1ca	-0.0039350735
226	0xbbc28769	-0.0059365523
227	0x3d02d397	0.03194007
228	0x3d2650e6	0.040604495
229	0x3ce1fac1	0.02758539
230	0x3cfaaad4	0.030599035
231	0x3d30ba19	0.043146227
232	0x3d47a20e	0.04873853
233	0x3d4c0397	0.04980811
234	0x3b68ad79	0.0035503788
235	0x3ba9d588	0.0051829256
236	0x3c37653d	0.011193571
237	0xba3452e7	-0.00068788085
238	0x3a845708	0.0010096738
239	0x3c3e6e41	0.011622966
240	0x3c11cb66	0.008898592
241	0xbbbd0548	-0.005768452
242	0xbb524ca0	-0.003208913
243	0xbcc58a47	-0.024113787
244	0xbbaf0447	-0.005341086
245	0x39a8f79c	0.0003222794
246	0xbb6d6aef	-0.0036227067
247	0xbb9825e2	-0.004643188
248	0xbc6510e8	-0.013981082
249	0xbcaa19af	-0.0207642
250	0xbd35c039	-0.04437277
251	0xbd76223c	-0.060091242
252	0xbd398299	-0.045290563
253	0xbcd2b481	-0.025720837
254	0xbcf273c5	-0.029596219
255	0xbc7173d8	-0.014737092

model.qy_x.model.tcn_block_00.block.conv1d_layer_0.bias f4 [32]
0	0x3dd3e7e9	0.10346968
1	0xbcb24470	-0.02176115
2	0x3c96d999	0.018414306
3	0x3d309b1b	0.04311667
4	0x3da3c14b	0.07995852
5	0xbe691b75	-0.2276438
6	0xbe6916ea	-0.22762647
7	0x3cd923f8	0.026506409
8	0xbd2f6254	-0.042818382
9	0xbb2fe9b1	-0.0026842172
10	0xbd2f3eed	-0.04278462
11	0x3e20aff6	0.15692124
12	0x3e3a8683	0.18215375
13	0xbc928fc2	-0.017890815
14	0xbe4a353d	-0.19746871
15	0x3b54a5b9	0.0032447411
16	0x3c83c4a7	0.016084982
17	0xbccb211b	-0.02479606
18	0xbe2ed94c	-0.1707508
19	0x3d32b845	0.043632764
20	0xbd91ff26	-0.07128744
21	0xbd87de15	-0.06634156
22	0x3d89f69f	0.06736492
23	0x3e1e4b45	0.154584
24	0x3c0d4f77	0.008624903
25	0x3ba687bc	0.0050820988
26	0xbd451e7f	-0.048124786
27	0xbc1fd31a	-0.00975492
28	0xbe68906e	-0.22711346
29	0x3dc59730	0.09647977
30	0x3d29dcd5	0.041470367
31	0x3d017cb9	0.031613085

model.qy_x.model.tcn_block_00.block.conv1d_layer_0.weight_g f4 [32, 1, 1]
0	0x3f33ea8b	0.7027976
1	0x3f1f75af	0.62288946
2	0x3f1ee693	0.6207058
3	0x3f35ef71	0.71068484
4	0x3f255d2a	0.6459528
5	0x3f18bafa	0.59660304
6	0x3f33d806	0.702515
7	0x3f3378c7	0.70106167
8	0x3f28f0f9	0.65992695
9	0x3f2e5a06	0.68106115
10	0x3f1c936b	0.6116244
11	0x3f19050e	0.5977334
12	0x3f1abf6d	0.6044834
13	0x3f258c45	0.6466716
14	0x3f33a3b8	0.7017169
15	0x3f15c8ff	0.5850982
16	0x3f28a019	0.6586929
17	0x3f3f97c5	0.74840957
18	0x3f24921d	0.6428545
19	0x3f1766e3	0.5914137
20	0x3f295e7a	0.66159785
21	0x3f217c91	0.630807
22	0x3f27cf92	0.655511
23	0x3f2027b6	0.62560594
24	0x3f20aab5	0.6276048
25	0x3f258cd4	0.6466801
26	0x3f1b9ca7	0.6078591
27	0x3f20490d	0.62611467
28	0x3f35378a	0.7078787
29	0x3f262f9c	0.64916396
30	0x3f1e1288	0.61747026
31	0x3f259b17	0.64689773

model.qy_x.model.tcn_block_00.block.conv1d_layer_0.weight_v f4 [32, 16, 9]
0	0x3a1782ca	0.0005779682
1	0x3d0c6a8f	0.03428131
2	0xbd7cf799	-0.061759565
3	0xbd64c383	-0.055850517
4	0xbcfd7865	-0.030941198
5	0x3c64a2ab	0.013954799
6	0xbc195a2c	-0.009359878
7	0x3d3825a5	0.044957776
8	0xbca83710	-0.020534068
9	0x3cf4b0d4	0.029869474
10	0xbc18ecd5	-0.009333809
11	0x3a91ce2d	0.0011124067
12	0xbd53ce6c	-0.05171053
13	0xbcf576b5	-0.02996383
14	0xbc519ba6	-0.012793457
15	0x3ca2061e	0.019778308
16	0x3d2dacc6	0.042401098
17	0x3d55f256	0.052233063
18	0x3c81a03b	0.015823474
19	0x3cb5ba26	0.022183489
20	0x3d8e4b6a	0.06947978
21	0x3dc12fd1	0.094329484
22	0x3c730649	0.0148330415
23	0x3d9895be	0.07450436
24	0x3bf5ca99	0.007500958
25	0x3cfb80a3	0.030700987
26	0x3dae9b1a	0.08525677
27	0xbdacd421	-0.08438898
28	0xbd712405	-0.05887224
29	0xbcda41a1	-0.026642622
30	0xbd33e48c	-0.04391913
31	0x3d2a0cea	0.041516222
32	0xbd9a69dd	-0.07539723
33	0xbd72d175	-0.059281785
34	0xbdaaf0df	-0.08346724
35	0xbde3b5d9	-0.11118669
36	0xbd399a1a	-0.04531298
37	0x3d7043f7	0.058658566
38	0x3d03a07c	0.03213547
39	0x3d0e710c	0.03477578
40	0x3b95c6e1	0.0045708274
41	0xbd098abc	-0.033579573
42	0x3c437be6	0.011931395
43	0xbd844c8c	-0.06459913
44	0xbd58bda6	-0.052915238
45	0xbc902845	-0.017597327
46	0x3d62be28	0.05535713
47	0x3d4a6398	0.049411386
48	0xbc84f59b	-0.016230395
49	0x3c057caa	0.008147398
50	0x3d49c743	0.049262296
51	0x3d929e9f	0.07159161
52	0x3cdcb6ab	0.026942572
53	0x3b073685	0.0020631861
54	0x3d365718	0.044516653
55	0xbd19a19e	-0.037507646
56	0x3ca46c55	0.020071188
57	0xbd346cf7	-0.04404923
58	0xbd3169ab	-0.043313663
59	0xbd09d41e	-0.033649556
60	0x3d088a7c	0.033335194
61	0x3d12808c	0.035767123
62	0xbca679c6	-0.020321738
63	0x3c92e1d0	0.017929941
64	0x3d1c7436	0.038196765
65	0x3ab8015d	0.0014038492
66	0x3c91ef17	0.017814202
67	0x3d0362d9	0.03207669
68	0x3d710ed1	0.05885202
69	0x3daad74e	0.08341847
70	0xbcccdabe	-0.025006648
71	0x3c39a381	0.011330486
72	0xbbbab71f	-0.0056980993
73	0x3cc998dc	0.024609022
74	0x3cf12f40	0.029441476
75	0x3d074619	0.033025835
76	0xbc619411	-0.013768212
77	0xbdb1e76a	-0.08686717
78	0xbcc4080c	-0.023929618
79	0xbda0d482	-0.07853033
80	0xbddc28f1	-0.107499965
81	0x3d999103	0.07498362
82	0x3d88a614	0.06672302
83	0xbd441a26	-0.0478765
84	0x3ce7a186	0.028275263
85	0x3ba9b828	0.005179424
86	0x3ba678ad	0.0050803036
87	0xbc8358a5	-0.01603348
88	0x3d12e4e2	0.03586281
89	0xbd1c11cf	-0.03810292
90	0x3cd7104d	0.02625289
91	0x3d1ed9ed	0.03878205
92	0x3d7a6aa7	0.061136868
93	0x3d1cdb8d	0.038295317
94	0xbd791666	-0.060812376
95	0xbccd4a20	-0.02505976
96	0x3d903ae4	0.070424825
97	0x3d57bf15	0.052672464
98	0xbc98c1d9	-0.018647121
99	0xbdbd42ef	-0.09241282
100	0x3c81aa44	0.01582826
101	0x3b268567	0.0025409104
102	0xbda5bddd	-0.08092854
103	0xbd9556b3	-0.07291927
104	0xbdfbdc0b	-0.12297829
105	0xbd5b8e74	-0.05360265
106	0xbddfd2e5	-0.10928897
107	0xbde94f42	-0.1139207
108	0xbb2b73ba	-0.0026161508
109	0x3c1f07ab	0.009706418
110	0xbcdac62a	-0.02670582
111	0x3d142eef	0.036177572
112	0xbd332e8b	-0.04374556
113	0x3d6a440e	0.05719381
114	0x3d3364b8	0.043797225
115	0xbd64a773	-0.055823755
116	0xbc62039f	-0.013794809
117	0x3c1987a0	0.009370714
118	0x3cbeefaf	0.02330765
119	0x3d16b073	0.03678937
120	0x3d3186ca	0.043341435
121	0x3cb9bd97	0.022673411
122	0xbc195fe9	-0.009361246
123	0x3d6fa5c2	0.05850769
124	0xbd01c770	-0.03168434
125	0x3b23b1f3	0.0024977892
126	0xbc85fa7d	-0.016354794
127	0xbd12f038	-0.03587362
128	0xbce5e7ac	-0.028064571
129	0xbd7852c0	-0.06062579
130	0xbcd5df87	-0.026107563
131	0xbbabaf49	-0.0052394015
132	0xbd898008	-0.06713873
133	0xbce3d7da	-0.027812887
134	0x3cec0c8b	0.028814575
135	0x3d0d100a	0.034439124
136	0x3d0c4506	0.034245513
137	0x3ca7807a	0.020447005
138	0x3d120aa1	0.035654668
139	0x3d693e71	0.056944314
140	0x3d97c2ec	0.07410225
141	0x3d5848f8	0.052803963
142	0x3d983065	0.074311055
143	0x3c854264	0.01626701
144	0xbd696b6f	-0.056987222
145	0xbd324e0b	-0.04353146
146	0x3d0c3b4f	0.03423625
147	0xbc9e639c	-0.019334607
148	0xbd4ec86c	-0.050484106
149	0xbd6f123c	-0.058367
150	0xbd54ec85	-0.051983375
151	0xbce46dcf	-0.027884392
152	0x3ce8ad51	0.028402956
153	0x3c4e6288	0.012596734
154	0x3a376d76	0.0006997207
155	0xbe037a90	-0.12839723
156	0xbb4e5e6d	-0.0031489388
157	0xbde40c3c	-0.11135146
158	0xbd5b42df	-0.05353057
159	0xbd4e323a	-0.05034087
160	0xbc906672	-0.017626975
161	0xbb5e154f	-0.0033887213
162	0xbddebafc	-0.10875508
163	0xbdd292c6	-0.10281901
164	0xbd36d2d4	-0.044634655
165	0xbcbc4f65	-0.022987077
166	0xbd2b23ff	-0.041782375
167	0x3cfdb8cf	0.030971913
168	0xbd529e61	-0.051420573
169	0x3c4d1bae	0.012518806
170	0x3da5eaf4	0.081014544
171	0xbd80f13d	-0.062960126
172	0x3cf44ce3	0.029821819
173	0xbc11c6c4	-0.008897487
174	0xbdc55856	-0.09635989
175	0x3c8fd468	0.017557338
176	0xbd047a68	-0.0323433
177	0xbd559f62	-0.052153952
178	0x3d2241d6	0.039613567
179	0xbda2a89a	-0.079423144
180	0x3b58cebd	0.003308221
181	0xbcc1e1f5	-0.023667315
182	0x3d2c11a2	0.042009003
183	0x3b971fea	0.0046119587
184	0x3c78f069	0.015194037
185	0x372e8225	1.040151e-05
186	0xbd4aa7fb	-0.049476605
187	0xbd5a353f	-0.053273436
188	0xbdd9ebd2	-0.10640682
189	0x3d474c15	0.04865654
190	0x3d866815	0.06562821
191	0x3d696ef8	0.056990594
192	0xbd446b09	-0.04795364
193	0x3ae80b07	0.0017703482
194	0xbd693a30	-0.056940258
195	0xbd57288f	-0.052528914
196	0xbd769ac8	-0.060206205
197	0x39dc3b6d	0.00042005946
198	0xbd61658e	-0.05502849
199	0xbc2bec68	-0.010493375
200	0xbc1d2789	-0.009591945
201	0x3cf13385	0.029443512
202	0xbd772420	-0.060337186
203	0xbd74db6d	-0.059779573
204	0xbd6cf85e	-0.05785405
205	0x3d04e69b	0.032446485
206	0xbd167f55	-0.036742527
207	0x3cf9d2b8	0.030495986
208	0x3add2198	0.0016870974
209	0xbc40f18a	-0.011776337
210	0xbca221df	-0.019791542
211	0xbcb7370d	-0.022365117
212	0xba4ca34a	-0.00078063144
213	0xbcfe886c	-0.03107091
214	0xbc420da6	-0.011844074
215	0x3ba3f228	0.0050032325
216	0xbdbe1ad6	-0.09282462
217	0xbda66f5a	-0.081267074
218	0x3c96d4f2	0.018412087
219	0xbde3cf18	-0.111234844
220	0xbd491a03	-0.049097072
221	0x3d30700a	0.0430756
222	0x3bb0c9af	0.0053951363
223	0xbc06d324	-0.008229051
224	0xbd730783	-0.059333336
225	0x3c809d98	0.015700147
226	0xbda5a3fe	-0.0808792
227	0xbd5a1634	-0.05324383
228	0xbd6742b4	-0.056460097
229	0xbd0a8d49	-0.033826146
230	0xbbf97620	-0.0076129586
231	0x3d882aee	0.06648813
232	0x3cfc59ea	0.030804593
233	0x3dc26692	0.0949222
234	0x3c214418	0.009842895
235	0xbd9cee36	-0.07662623
236	0x3a308fc5	0.00067352905
237	0xbda8db3f	-0.08244943
238	0xbd85fb46	-0.06542067
239	0xbc8e0600	-0.017336845
240	0xbc72cb6b	-0.014819006
241	0x3c872243	0.01649583
242	0xbd606aad	-0.054789234
243	0x3cc2dbe1	0.023786487
244	0x3d7ce2f5	0.06173988
245	0xbd49f5a3	-0.049306523
246	0x3d8a01bc	0.06738612
247	0xbd598965	-0.053109545
248	0x3ad92601	0.0016567112
249	0xbc7ce1a7	-0.015434659
250	0xbd2eb218	-0.042650312
251	0x3bca638b	0.006176417
252	0x3d9447ab	0.07240232
253	0xbc66148f	-0.0140429875
254	0xbd322a64	-0.043497458
255	0xbd1cb03d	-0.03825401

model.qy_x.model.tcn_block_00.block.conv1d_layer_1.bias f4 [32]
0	0x3d13bc30	0.03606814
1	0xbd9047c9	-0.07044942
2	0xbd62fc09	-0.05541614
3	0x3e3b24dc	0.1827578
4	0x3d85f671	0.065411456
5	0x3db3d78d	0.087813474
6	0xbd9810fb	-0.07425114
7	0x3e2ffa1c	0.17185253
8	0xbda8e156	-0.082461044
9	0x3c626e31	0.013820217
10	0x3d1f049b	0.03882275
11	0xbc8afb73	-0.016965603
12	0x3d608152	0.05481083
13	0x3d515993	0.051110815
14	0x3d7ec203	0.062196743
15	0x3d01ab5e	0.03165757
16	0x3e0ba079	0.13635434
17	0xbe3d5d36	-0.18492588
18	0xbd884a5d	-0.06654809
19	0xbd06d60f	-0.032918986
20	0xbc9458a1	-0.018108668
21	0x3e1403eb	0.1445462
22	0x3d3e251a	0.0464221
23	0x3e19e8a7	0.15030156
24	0x3e0d5e08	0.13805401
25	0x3d8e75c8	0.06956059
26	0xbcd0eab5	-0.025502542
27	0xbd77d96a	-0.060510077
28	0xbd5585b7	-0.052129474
29	0x3b9e6248	0.0048334934
30	0x3e1a1ed3	0.15050821
31	0x3c1389b2	0.009004997

model.qy_x.model.tcn_block_00.block.conv1d_layer_1.weight_g f4 [32, 1, 1]
0	0x3f33555a	0.7005211
1	0x3f29a939	0.6627384
2	0x3f29fb30	0.66398907
3	0x3f3130b6	0.6921495
4	0x3f2382e2	0.63871586
5	0x3f2502cb	0.64457387
6	0x3f37a9fd	0.71743757
7	0x3f1f59ef	0.622466
8	0x3f2faa70	0.6861944
9	0x3f2b88b9	0.670055
10	0x3f1d959e	0.6155642
11	0x3f32d6cc	0.69859004
12	0x3f2293eb	0.63506955
13	0x3f27b438	0.65509367
14	0x3f36a8ae	0.71351135
15	0x3f27144f	0.65265363
16	0x3f2b08aa	0.66810095
17	0x3f346647	0.7046856
18	0x3f2e5eb3	0.6811325
19	0x3f304447	0.6885418
20	0x3f2ecbd8	0.6827979
21	0x3f246bf0	0.642272
22	0x3f1dee20	0.61691475
23	0x3f2780f2	0.6543113
24	0x3f2525a1	0.6451054
25	0x3f309f7b	0.6899335
26	0x3f31dee8	0.6948075
27	0x3f390fb4	0.72289586
28	0x3f34f327	0.7068352
29	0x3f2cdc15	0.6752332
30	0x3f396b0e	0.7242898
31	0x3f3098d0	0.68983173

model.qy_x.model.tcn_block_00.block.conv1d_layer_1.weight_v f4 [32, 32, 9]
0	0x3cc218cd	0.023693467
1	0x3c8352a1	0.016030611
2	0x3c9c115a	0.019051243
3	0x3b9488cf	0.0045329104
4	0x3a780621	0.00094613625
5	0xbc12a1bd	-0.008949694
6	0xbc18e8b5	-0.009332825
7	0xbc9935bb	-0.018702378
8	0xbbd45c15	-0.0064807036
9	0x3cd07b17	0.025449319
10	0x3c2ec3de	0.010666816
11	0x3a9c6f62	0.001193505
12	0xbc1775e6	-0.009244418
13	0xbcfcdf0c	-0.030868076
14	0xbb189a51	-0.002328534
15	0xbc8e3058	-0.017357036
16	0xbc8b4e0a	-0.017004985
17	0x3ae02f72	0.0017103984
18	0x3971e71e	0.00023069649
19	0x3c2f7d33	0.010711002
20	0xbc898b3f	-0.01679003
21	0x3c90f478	0.017694697
22	0xbce60e4d	-0.028082991
23	0xbc8c1907	-0.017101778
24	0xbc88297e	-0.016621348
25	0xbc01c497	-0.007920406
26	0xbb43236f	-0.0029775759
27	0xbc4ef45f	-0.012631505
28	0xbbb2dc04	-0.005458357
29	0xbc654fe7	-0.013996101
30	0xbc51c303	-0.012802842
31	0x3a66a0ba	0.0008797754
32	0x3c8d2a1e	0.017231997
33	0xbbba5d01	-0.0056873565
34	0x3bce5ee8	0.006297935
35	0x3d17b645	0.03703906
36	0x3bdf09b4	0.0068065766
37	0x3baa41a3	0.005195813
38	0x3c090810	0.008363739
39	0x3c2eb8eb	0.010664205
40	0x3c31ad8b	0.0108445985
41	0xbb408b9a	-0.0029380084
42	0x3a986559	0.0011626884
43	0xbc9c610b	-0.019089242
44	0xbcc348a3	-0.023838347
45	0x3bb19e1c	0.0054204594
46	0x3bf4d255	0.0074713626
47	0x3cfa0a1c	0.030522399
48	0x3cab8734	0.020938493
49	0x3c96d5d1	0.018412502
50	0x3cdf3311	0.02724603
51	0x3d44b1a9	0.048020992
52	0x3d01d496	0.03169688
53	0x3d222a5f	0.03959119
54	0xbc0be630	-0.008538768
55	0xbcd3782e	-0.025814142
56	0xbbaddc4a	-0.0053058015
57	0xbccef253	-0.025262034
58	0xbc2c81c4	-0.010528985
59	0xbc2a91bc	-0.010410722
60	0x3ce6b899	0.028164195
61	0xbc828d25	-0.015936444
62	0x3d183b5a	0.037165977
63	0x3d342ccb	0.04398803
64	0x3c1bb217	0.009502909
65	0x3d348a0d	0.044076968
66	0x3c866085	0.016403446
67	0xbb5eee80	-0.0034016669
68	0x3c79bd4d	0.015242887
69	0x3ce3c691	0.027804645
70	0xbb6d2778	-0.0036186855
71	0x3cd13618	0.02553849
72	0xbb776301	-0.003774822
73	0xbc2d785d	-0.010587779
74	0x3a0cbf07	0.00053690415
75	0x3a980353	0.001159767
76	0x3b3cd793	0.0028815016
77	0x3cffdf42	0.031234387
78	0x3c6767d5	0.014123877
79	0x3cfc7ef8	0.030822262
80	0x3d30b276	0.043138944
81	0x3d67a68a	0.05655531
82	0x3d9c7932	0.07640304
83	0x3d1aee22	0.037824757
84	0x3dab907d	0.08377168
85	0x3d8f9519	0.0701086
86	0x3d686e12	0.056745596
87	0x3d27b216	0.04094132
88	0x3d9705f8	0.07374185
89	0x3dba7b0d	0.09105501
90	0xbd64b98a	-0.055841006
91	0xbd1bf1f4	-0.03807254
92	0xbd6f3def	-0.058408674
93	0xbd58c806	-0.052925132
94	0xbca675c6	-0.02031983
95	0x3c1e7033	0.009670305
96	0xbc0edfc1	-0.008720339
97	0x3b785d7c	0.0037897518
98	0xbc8ca638	-0.017169103
99	0x3ad84d96	0.0016502615
100	0x3c4a8d9b	0.012362863
101	0x3bdaffae	0.0066833114
102	0x3d13d471	0.03609127
103	0x3d2118b5	0.039330203
104	0x3bd97d65	0.0066372626
105	0x3d136500	0.035984993
106	0x3c998152	0.018738423
107	0x3c71b640	0.014752924
108	0x3c8d79cc	0.017269991
109	0x3c5dd4d3	0.013539511
110	0x3be6ceaa	0.0070436792
111	0x3cfbede5	0.030753085
112	0x3d3d91b3	0.046281528
113	0x3d007391	0.031360213
114	0x3d1b79b4	0.037957862
115	0x3d323324	0.043505803
116	0x3cd86bf2	0.02641866
117	0x3da354cd	0.07975159
118	0x3d9d4156	0.076784775
119	0x3d5eb766	0.05437412
120	0x3d77e982	0.060525425
121	0x3dab3a73	0.08360758
122	0x3dc25fc0	0.09490919
123	0x3d6921ed	0.05691712
124	0x3d9c062b	0.07618364
125	0x3d7d4209	0.061830554
126	0xbc844ff9	-0.016151415
127	0xbc64ee2c	-0.0139728
128	0xbd038481	-0.032108787
129	0xbca04583	-0.019564396
130	0xbca93730	-0.020656198
131	0xbd2bb31d	-0.041918863
132	0xbc8a2cd5	-0.01686708
133	0xbc4e4a5d	-0.012590972
134	0xbc831771	-0.016002389
135	0xbcd77b5a	-0.026303936
136	0xbcb22719	-0.021747159
137	0xbc18ffbd	-0.0093383165
138	0xb9dd64dd	-0.00042227554
139	0xbbeb4ff2	-0.007181161
140	0x3bc08116	0.0058747632
141	0x3aa775c6	0.0012776188
142	0x3cc92dff	0.024558065
143	0x3c3083c6	0.010773605
144	0x3ced8e01	0.028998377
145	0x3d650787	0.05591538
146	0x3d2d2d97	0.042279806
147	0x3cfbccfe	0.030737396
148	0x3d0b49f1	0.034006063
149	0x3cedf39b	0.029046824
150	0x3d23f844	0.040031686
151	0x3d44f6b2	0.04808683
152	0x3ceafea8	0.028685883
153	0x3c8c4841	0.017124297
154	0x3c332049	0.01093299
155	0x39ce4dde	0.00039349397
156	0xbc80682c	-0.015674673
157	0x3ac18e87	0.0014767208
158	0x3c4df3da	0.012570346
159	0x3be6371a	0.0070256116
160	0x3d1a2c63	0.037639987
161	0x3d1884ef	0.03723615
162	0x3c6b4f43	0.014362159
163	0xbba3bbbb	-0.0049967445
164	0xbc946531	-0.018114658
165	0xbb9ca2f8	-0.0047801696
166	0x3b8b5072	0.004251533
167	0xbc316636	-0.010827592
168	0x3cbeb009	0.0232773
169	0xbc80c33a	-0.015718091
170	0xbc5f4e57	-0.0136295175
171	0x3d803905	0.062608756
172	0x3db8340c	0.08994302
173	0x3d4155e9	0.04720107
174	0x3da7d637	0.08195155
175	0x3d955151	0.072909005
176	0x3d7a01c6	0.061036848
177	0x3db66cdb	0.08907481
178	0x3dd040bd	0.10168598
179	0x3db01763	0.08598211
180	0xbd7a4658	-0.06110224
181	0xbd18a76e	-0.03726905
182	0xbd29c9d0	-0.04145223
183	0xbd7755a2	-0.0603844
184	0xbd7c569a	-0.061606027
185	0xbd69d8ba	-0.057091452
186	0xbd883b87	-0.06651979
187	0xbda6358e	-0.081156835
188	0xbdceb9c6	-0.10094027
189	0xbb7ce5b4	-0.0038589062
190	0x3c7e432e	0.015518947
191	0x3d0c650d	0.034276057
192	0x3cb87fc6	0.022521865
193	0x3abee6da	0.0014564649
194	0x3cd1a43f	0.025591014
195	0x3d86ba8d	0.065785505
196	0x3c905c1c	0.017622046
197	0x3cd38640	0.025820851
198	0x3ccd34c6	0.025049578
199	0x3d1ac6cd	0.037787247
200	0xbc50f62a	-0.012754003
201	0xbc00226c	-0.007820707
202	0x3c32712e	0.010891242
203	0x3d2483fb	0.04016493
204	0xbb698cc8	-0.003563689
205	0x3bff643f	0.0077939327
206	0x3c8a0616	0.016848605
207	0xbd0ad90d	-0.033898402
208	0xbced85f3	-0.028994536
209	0xbccaab9d	-0.024740035
210	0xbc5ea917	-0.013590119
211	0xbb01163f	-0.0019697098
212	0xbc12cbe3	-0.008959743
213	0xbc3effdb	-0.01165768
214	0xbcd49055	-0.02594773
215	0xbd1275fb	-0.035757046
216	0xbb401335	-0.0029308323
217	0x3cd47200	0.025933266
218	0x3a8a6163	0.0010557588
219	0xbcd22638	-0.02565299
220	0xbb7dcbc7	-0.0038726197
221	0x3ccb62e7	0.024827434
222	0x3d348363	0.044070613
223	0xbb2ca270	-0.0026341937
224	0xbd092d13	-0.03349025
225	0xbb80f1ca	-0.0039350735
226	0xbbc28769	-0.0059365523
227	0x3d02d397	0.03194007
228	0x3d2650e6	0.040604495
229	0x3ce1fac1	0.02758539
230	0x3cfaaad4	0.030599035
231	0x3d30ba19	0.043146227
232	0x3d47a20e	0.04873853
233	0x3d4c0397	0.04980811
234	0x3b68ad79	0.0035503788
235	0x3ba9d588	0.0051829256
236	0x3c37653d	0.011193571
237	0xba3452e7	-0.00068788085
238	0x3a845708	0.0010096738
239	0x3c3e6e41	0.011622966
240	0x3c11cb66	0.008898592
241	0xbbbd0548	-0.005768452
242	0xbb524ca0	-0.003208913
243	0xbcc58a47	-0.024113787
244	0xbbaf0447	-0.005341086
245	0x39a8f79c	0.0003222794
246	0xbb6d6aef	-0.0036227067
247	0xbb9825e2	-0.004643188
248	0xbc6510e8	-0.013981082
249	0xbcaa19af	-0.0207642
250	0xbd35c039	-0.04437277
251	0xbd76223c	-0.060091242
252	0xbd398299	-0.045290563
253	0xbcd2b481	-0.025720837
254	0xbcf273c5	-0.029596219
255	0xbc7173d8	-0.014737092

model.qy_x.model.tcn_block_00.downsample.weight f4 [32, 16, 1]
0	0xbddd9cb8	-0.10820907
1	0xbd55a4c2	-0.05215908
2	0x3d3d1af0	0.046168268
3	0x3dc2478e	0.09486304
4	0x3bfd649a	0.00773294
5	0xbd0cf12c	-0.034409687
6	0x3cd71ccc	0.026258849
7	0x3d39e01a	0.045379736
8	0x3d216dd6	0.03941139
9	0xbc71e9b4	-0.014765192
10	0xbe460bc5	-0.19340427
11	0xbd73bd40	-0.059506655
12	0x3d354d16	0.044262968
13	0x3b98c173	0.004661733
14	0x3dab9ec6	0.08379893
15	0xbc2d6fa6	-0.010585701
16	0xbc612f73	-0.013744223
17	0xbce31e11	-0.027724298
18	0x3acc9675	0.0015608805
19	0xbd2f2a8c	-0.042765185
20	0xbc7e5e06	-0.015525347
21	0x3cbe3b89	0.023221748
22	0xbb7d5322	-0.0038654287
23	0xbc830326	-0.015992712
24	0xbddd6f47	-0.1081224
25	0x3caced2e	0.02110919
26	0x3cca6936	0.024708372
27	0xbd1a86e1	-0.037726287
28	0x3cf2193b	0.029553046
29	0x3c809c29	0.015699463
30	0x3b52dd4d	0.0032175363
31	0xbcb62a6c	-0.022237025
32	0xbd975ab6	-0.073903486
33	0xbc915ac1	-0.01774347
34	0x3ca3f530	0.020014375
35	0x3d9389d7	0.07204025
36	0x3d9a1fca	0.075255945
37	0x3da7613e	0.08172844
38	0xb9446099	-0.00018728002
39	0x3ca4bb92	0.020108972
40	0x3d911ba7	0.070853524
41	0x3d211168	0.03932324
42	0xbd74a9dc	-0.059732303
43	0xbdad05a0	-0.084483385
44	0xbddbed19	-0.10738582
45	0xbdddb8eb	-0.10826286
46	0x3c8c169f	0.01710063
47	0xbdfda87c	-0.123856515
48	0x3d30816c	0.043092176
49	0x3da8fc43	0.0825124
50	0xbd4e8ca9	-0.050427113
51	0xbdbfc881	-0.09364415
52	0xbd82becf	-0.0638405
53	0xbdb96b19	-0.090536304
54	0xbd453530	-0.048146427
55	0xbd03984d	-0.032127667
56	0x3c80ba85	0.01571394
57	0x3ba1e9c6	0.004941198
58	0x3e048573	0.12941532
59	0x3d9f3497	0.077737026
60	0x3c04887e	0.008089183
61	0x3d770919	0.06031141
62	0x3c8a4090	0.016876489
63	0x3d49ae33	0.049238395
64	0x3ca7f68c	0.020503305
65	0x3d0d4f11	0.03449923
66	0xb8ce5a63	-9.839681e-05
67	0xbb7c3783	-0.0038485236
68	0xbd4d0589	-0.050054107
69	0xbda2f297	-0.079564266
70	0xbc1badbd	-0.009501872
71	0x3d47ddd9	0.048795555
72	0x3d5879dc	0.05285059
73	0xbca77a41	-0.020444037
74	0x38c1dffd	9.244678e-05
75	0x3d87eb64	0.06636694
76	0xbc229b81	-0.00992477
77	0xbc5aa313	-0.013344544
78	0xbcaf0789	-0.021365898
79	0x3d0616d3	0.03273661
80	0xbceffd39	-0.02929555
81	0xbca88717	-0.020572228
82	0x3d122d94	0.035687998
83	0xbc94fbb5	-0.01818643
84	0x3ccb7792	0.024837289
85	0x3d2e385b	0.042534214
86	0x3c4c3a2e	0.012465043
87	0xbca793bf	-0.020456193
88	0xbd714ca1	-0.05891097
89	0x3d44aaa7	0.04801431
90	0x3c08d461	0.008351416
91	0x3b11caad	0.0022246048
92	0x3cdce680	0.02696538
93	0x3ce39429	0.02778061
94	0x3c1d773e	0.009610949
95	0x3d604d97	0.054761495
96	0xbd60d39d	-0.05488931
97	0xbd1de07e	-0.03854417
98	0xbd58960b	-0.052877467
99	0xbd3891d5	-0.04506095
100	0xbcd7aba2	-0.026326958
101	0xbcdcb046	-0.026939522
102	0x3c4de5e6	0.012567019
103	0xbd6e1a68	-0.05813065
104	0xbd00549d	-0.031330694
105	0xbda95e30	-0.08269918
106	0x3d58bd95	0.052915175
107	0x3dd90a4a	0.105976656
108	0xbc617972	-0.013761865
109	0xbc995ee1	-0.018722
110	0xbce4ecab	-0.027944883
111	0xbb67c0f2	-0.0035362807
112	0x3caa1785	0.020763168
113	0x3d2eeeb2	0.042708106
114	0xbb05311a	-0.0020323456
115	0xbd554682	-0.052069195
116	0xbd618ccd	-0.05506592
117	0xbd7433f6	-0.059619866
118	0x3ca549c0	0.020176768
119	0x3cc98e28	0.024603918
120	0xbc545544	-0.012959782
121	0xbc1b5996	-0.009481808
122	0x3dceb932	0.10093917
123	0x3d605caa	0.05477587
124	0x3c7c7a71	0.015410052
125	0x3d613517	0.05498227
126	0x3d3a9801	0.04555512
127	0x3db5c324	0.08875111
128	0xbd392cc9	-0.045208726
129	0xbd8b230d	-0.06793795
130	0x3b6aec1f	0.0035846306
131	0x3d53eea8	0.051741272
132	0xbc92111b	-0.017830422
133	0xbc800e00	-0.015631676
134	0x3cbb1bf5	0.02284048
135	0xb9588ae3	-0.00020651105
136	0xbc9d87fa	-0.019229878
137	0xbc8e4806	-0.017368328
138	0xbda02b03	-0.07820704
139	0x3c36f560	0.0111669
140	0xbb7746a2	-0.003773131
141	0xbc0810aa	-0.008304754
142	0xbcbce438	-0.023058042
143	0xbc281a12	-0.010260122
144	0xbcf31daa	-0.02967723
145	0xbd36b423	-0.044605386
146	0xbcd73adf	-0.02627319
147	0x398c7b95	0.00026794957
148	0xbcb29b88	-0.021802679
149	0x3c59e02c	0.013298076
150	0x3c12ef70	0.008968219
151	0xbbc35364	-0.0059608687
152	0xbcf3a45c	-0.029741459
153	0x3ceaa5f1	0.02864358
154	0xbb520d7c	-0.0032051494
155	0x3c8846c8	0.016635314
156	0x3cbb7c70	0.022886485
157	0xbc29ec82	-0.010371329
158	0xbc70a413	-0.014687556
159	0x3beffdbf	0.00732395
160	0xbb661c0c	-0.0035111932
161	0x3c29339c	0.010327246
162	0xbcb0b88e	-0.021572378
163	0xbc63e01a	-0.01390841
164	0x3b83c191	0.0040208776
165	0x3d2c26be	0.042029135
166	0x3b125a9c	0.002233184
167	0xbc442166	-0.011970853
168	0xbd2635ef	-0.04057878
169	0x3da4a1be	0.080386624
170	0x3cbc90bd	0.023018235
171	0xbbc477f1	-0.0059957434
172	0x3ccf8f90	0.02533701
173	0xba7d331d	-0.00096588006
174	0x3cddf173	0.027092671
175	0x3cb86e4e	0.022513535
176	0xbd62e7a5	-0.055396695
177	0xbd2e6006	-0.042572044
178	0x3c90bdef	0.017668692
179	0x3d9e1116	0.07718103
180	0x3d972c29	0.0738147
181	0x3db490b8	0.088166654
182	0xbc7c3a9e	-0.015394835
183	0xb98a06a3	-0.00026326356
184	0x3d5a43de	0.05328738
185	0x3c521449	0.012822219
186	0xbde83e5f	-0.11340021
187	0xbccfcbbb	-0.025365701
188	0xbdb59395	-0.0886604
189	0xbdfed2ba	-0.12442537
190	0x3c95dab4	0.018292762
191	0xbdbd4fcb	-0.09243735
192	0xb8576ec8	-5.1363168e-05
193	0x3b719348	0.0036861468
194	0xbc5ea62b	-0.013589422
195	0xbd4b9bb3	-0.049709033
196	0xbd1be883	-0.038063537
197	0xbd38fe47	-0.045164373
198	0x3bd393a1	0.0064568077
199	0xbca0cd7a	-0.019629229
200	0xbd51ff06	-0.0512686
201	0xbc9de266	-0.019272994
202	0x3d847a8b	0.06468686
203	0x3da8ee51	0.0824858
204	0x3ce7a965	0.028279016
205	0x3cf8ca85	0.030370006
206	0x3d56e97f	0.052468773
207	0x3dc55683	0.096356414
208	0x3cf833ae	0.03029808
209	0x3cb66182	0.022263292
210	0x3c86f752	0.016475353
211	0x3ca8a2a6	0.02058537
212	0xbd10c785	-0.035346527
213	0xbb88173a	-0.0041531594
214	0x3c5829e1	0.013193578
215	0x3c48426f	0.01222287
216	0x3d7f9784	0.062400356
217	0xbd9813fc	-0.07425687
218	0xbc572395	-0.013131042
219	0x3cf7f3da	0.030267645
220	0xbd727593	-0.05919416
221	0xbdbbe31a	-0.091741756
222	0x3c647c99	0.013945722
223	0xbc8423e2	-0.016130392
224	0x3d6fd270	0.0585503
225	0x3baade07	0.005214456
226	0xbc941f4d	-0.018081332
227	0x3c3685a8	0.011140265
228	0xbd0de840	-0.03464532
229	0xbcdd486a	-0.027012069
230	0xbce78fa9	-0.028266745
231	0xbc246b35	-0.010035326
232	0x3d20d3de	0.039264552
233	0xbd7894bd	-0.060688723
234	0x3ce8a29a	0.028397847
235	0x3d4cf1c5	0.050035257
236	0xbd89cb50	-0.06728232
237	0xbd4c8ea1	-0.04994071
238	0xbc0ddaf8	-0.008658163
239	0x3b99a63a	0.004689005
240	0x3beff873	0.0073233186
241	0xbcd9d4d5	-0.026590744
242	0xbc436fad	-0.011928481
243	0xbcaa5ba4	-0.02079565
244	0xbd134106	-0.035950683
245	0xbc87e1b9	-0.016587125
246	0x3a881fd5	0.0010385463
247	0xbc0a2f6d	-0.008434159
248	0xbd035278	-0.03206107
249	0x3cd57814	0.026058234
250	0x3c99b29a	0.018761922
251	0x3d18e982	0.037332065
252	0x3d61ac83	0.05509616
253	0x3cc013e8	0.023446992
254	0xbbbed663	-0.0058238967
255	0x3d887e96	0.06664769

model.qy_x.model.tcn_block_00.downsample.bias f4 [32]
0	0x3e1fcd14	0.15605575
1	0xbdedf3ac	-0.11618742
2	0xbdb2936d	-0.087195255
3	0xbd4550ce	-0.048172764
4	0x3e13bfe3	0.14428668
5	0x3b9e5f40	0.004833132
6	0xbe7a6686	-0.24453172
7	0x3ed4623f	0.41481206
8	0x3de0aee0	0.10970855
9	0x3d732a76	0.059366666
10	0x3ded95f0	0.11600864
11	0x3d47fa42	0.04882265
12	0x3eacf54a	0.3378089
13	0xbe6cfb72	-0.23142794
14	0xbdd653d1	-0.104652055
15	0x3e86bf04	0.26317608
16	0x3ed5afb6	0.4173562
17	0xbe20f880	-0.15719795
18	0xbb86bcb2	-0.0041118497
19	0x3e0ba383	0.13636594
20	0x3e39e479	0.18153562
21	0x3ddb4205	0.107059516
22	0x3e35ec5f	0.1776595
23	0x3ea58448	0.32327485
24	0x3e517442	0.20454505
25	0xbdefa164	-0.11700705
26	0x3d6d9fed	0.058013845
27	0xbdb0b725	-0.08628682
28	0x3d1ed111	0.0387736
29	0xbe0344bd	-0.1281919
30	0x3e6d7c0e	0.23191854
31	0x3e8e31bd	0.27772322

model.qy_x.model.tcn_block_01.conv0.bias f4 [32]
0	0x3de0a9a7	0.109698586
1	0x3dc5aea3	0.0965245
2	0x3c97ef6a	0.018546779
3	0x3db7bd6a	0.08971675
4	0x3cbaf404	0.022821434
5	0x3ca907b8	0.020633563
6	0x3dd3d942	0.10344173
7	0xbc826f9d	-0.015922362
8	0xbd8f7a89	-0.070057936
9	0x3c5e59db	0.013571228
10	0x3d2aac0c	0.041667983
11	0xbc92625f	-0.017869173
12	0xbe389846	-0.18026838
13	0xbdf69e5b	-0.12041923
14	0x3da038d1	0.07823337
15	0x3d2a7ced	0.041623045
16	0xbd4221c8	-0.047395498
17	0xbd03dd14	-0.03219326
18	0x3ade0013	0.0016937278
19	0x3c53e4a8	0.012932934
20	0xbdd25253	-0.10269608
21	0xbc67ec4d	-0.01415546
22	0xbd712c24	-0.058879986
23	0x3d3eeaa5	0.046610493
24	0x3cd8008e	0.026367452
25	0xbcf85e8d	-0.030318523
26	0xbcc29029	-0.023750382
27	0xbd9a45be	-0.075328335
28	0xbd4f3ff2	-0.050598092
29	0x3cf07b74	0.029355742
30	0xbc65ac34	-0.014018107
31	0x3c17e5af	0.009271069

model.qy_x.model.tcn_block_01.conv0.weight_g f4 [32, 1, 1]
0	0x3f0d4a58	0.55191565
1	0x3f102f3b	0.5632207
2	0x3f26d7da	0.65173113
3	0x3f18c906	0.5968174
4	0x3f16ecd7	0.5895514
5	0x3f25998d	0.64687425
6	0x3f1228f9	0.5709377
7	0x3f1f1851	0.6214648
8	0x3f242766	0.6412262
9	0x3f1fba92	0.6239406
10	0x3f115591	0.5677119
11	0x3f237428	0.63849115
12	0x3f2758ba	0.6536976
13	0x3f20f100	0.62867737
14	0x3f12aa1e	0.5729083
15	0x3f125257	0.5715689
16	0x3f156ac9	0.58366066
17	0x3f1e4ffb	0.6184079
18	0x3f245425	0.64190894
19	0x3f2105c1	0.62899405
20	0x3f173d9d	0.5907839
21	0x3f233f75	0.637687
22	0x3f1962f6	0.5991663
23	0x3f17cf1e	0.5930041
24	0x3f1663b0	0.5874586
25	0x3f15656f	0.583579
26	0x3f1a5c6b	0.6029727
27	0x3f2fe350	0.68706226
28	0x3f23bb50	0.6395769
29	0x3f189e76	0.5961679
30	0x3f0f272b	0.5591914
31	0x3f1ca6ba	0.61191905
