results_gmdgm/multi-1/dtcn/test_rslds_90/version_0/best_val_model.pt (torch, 615333 bytes, 354 tensors)

model.qy_x.model.tcn_block_00.conv0.bias f4 [32]
0.08683412 -0.036305666 0.00016803881 0.029887531 0.0751638 -0.25160867 -0.23402381 0.02374463
-0.024866255 -0.006315225 -0.054904137 0.16800873 0.19266012 -0.010378134 -0.21356294 -0.007290139
0.013036777 -0.08198075 -0.2015087 0.05656481 -0.12522405 -0.07757578 0.044996746 0.20816064
-0.011318093 0.010304588 -0.033185814 -0.030876096 -0.2525285 0.09630878 0.048160136 0.020096611
00000000: 16d6 b13d 40b5 14bd 9333 3039 b2d6 f43c
00000010: 7aef 993d dad2 80be f0a3 6fbe 1984 c23c
00000020: 51b4 cbbc f2ef cebb 29e3 60bd 7b0a 2c3e
00000030: b248 453e 0d09 2abc 3eb0 5abe 1ee2 eebb
00000040: 3598 553c 86e5 a7bd 4c58 4ebe 81b0 673d
00000050: bc3a 00be 0de0 9ebd 824e 383d 1028 553e
00000060: 866f 39bc 93d4 283c d9ed 07bd deef fcbc
00000070: 6a4b 81be 8a3d c53d 9043 453d a6a1 a43c

model.qy_x.model.tcn_block_00.conv0.weight_g f4 [32, 1, 1]
0.7174851 0.62664443 0.62670535 0.71754795 0.65875316 0.5955641 0.7041037 0.674041
0.662016 0.68030626 0.6192673 0.6059877 0.61679566 0.6608575 0.7169494 0.5937071
0.6641503 0.78559846 0.64963603 0.5940276 0.67897356 0.6438063 0.65218496 0.6238775
0.6269622 0.651528 0.6145305 0.63197666 0.6982091 0.65538603 0.6222053 0.64710975
00000000: 1aad 373f c56b 203f c36f 203f 39b1 373f
00000010: 0ca4 283f e476 183f 2440 343f f38d 2c3f
00000020: e179 293f 8d28 2e3f 4d88 1e3f 0322 1b3f
00000030: 52e6 1d3f f52d 293f ff89 373f 30fd 173f
00000040: c105 2a3f fb1c 493f 8c4e 263f 3112 183f
00000050: 36d1 2d3f 7dd0 243f 98f5 263f 70b6 1f3f
00000060: 9880 203f 8aca 263f df51 1d3f 39c9 213f
00000070: d5bd 323f 61c7 273f d948 1f3f fca8 253f

model.qy_x.model.tcn_block_00.conv0.weight_v f4 [32, 16, 9]
0.0007701821 0.032737967 -0.06183027 -0.057325833 -0.03384259 0.009826603 -0.01286763 0.04128706
-0.0225204 0.029837359 -0.008536134 0.002306135 -0.048943896 -0.027880056 -0.011491178 0.02069223
0.043010514 0.052492093 0.021337032 0.025575893 0.068259165 0.08938712 0.010545782 0.06793694
0.0037380962 0.028013233 0.08092886 -0.08538395 -0.060123045 -0.028173652 -0.04623241 0.034545623
-0.08246491 -0.06661827 -0.091897495 -0.122214705 -0.038671102 0.06481759 0.03925618 0.041059945
0.010678833 -0.027492434 0.016594207 -0.059575018 -0.048920054 -0.014448166 0.05572851 0.049054433
-0.016148416 0.0077615553 0.048669055 0.07096748 0.027131228 0.0030302035 0.038035978 -0.043309674
0.012500722 -0.04938003 -0.04908069 -0.038877834 0.028880531 0.033098415 -0.020134283 0.01897697
0.03896551 0.0025327345 0.01987209 0.034091063 0.061507136 0.087143324 -0.018378586 0.017967505
-0.00076427474 0.029344793 0.03380966 0.036929786 -0.009600588 -0.081640474 -0.020774622 -0.0755603
-0.105448 0.07737954 0.06933837 -0.042411134 0.031470858 0.008462909 0.008030592 -0.012486071
0.03783847 -0.03598051 0.020482915 0.03205058 0.05532562 0.034345895 -0.06171736 -0.024564903
0.07089411 0.054021303 -0.015616537 -0.09254551 0.011821727 -0.0006263962 -0.08188711 -0.07592979
-0.12588176 -0.0590445 -0.11576974 -0.12358914 -0.009300103 0.00493517 -0.027665807 0.032000925
-0.04650679 0.04839508 0.03323442 -0.06513293 -0.027963247 0.009952296 0.028896356 0.045831524
0.050701316 0.029525343 -0.0037821552 0.060651075 -0.029037178 0.0024622653 -0.01644628 -0.036344476
-0.02915012 -0.060970258 -0.027499624 -0.007831018 -0.06913754 -0.030476902 0.025984272 0.03380062
0.032916117 0.017766217 0.03294766 0.052587394 0.0692843 0.049059443 0.070550986 0.014530177
-0.06195457 -0.04512808 0.03379039 -0.01587326 -0.044006467 -0.050666682 -0.044011254 -0.021031633
0.034199286 0.011833803 3.3631182e-05 -0.12508622 -0.0021063404 -0.10425107 -0.045524966 -0.03930185
-0.0063903197 0.008145675 -0.11226532 -0.107220806 -0.049035285 -0.026657734 -0.04263073 0.032885868
-0.043815877 0.023014614 0.09211258 -0.06601525 0.023265267 -0.015904091 -0.10221761 0.010791939
-0.03717304 -0.054213118 0.03846494 -0.07698392 0.0052434723 -0.022504995 0.042444687 0.004663127
0.01409484 -0.0018276459 -0.05113701 -0.0539057 -0.105564594 0.05357551 0.069522664 0.06076951
-0.04519117 0.0027497227 -0.05735554 -0.054359615 -0.062175542 -0.0015747587 -0.051694687 -0.009772711
-0.009104472 0.026060775 -0.05781612 -0.058084123 -0.05886208 0.033151843 -0.029178439 0.032062605
0.0061613633 -0.0046293666 -0.013965932 -0.014792883 0.0041030617 -0.028833773 -0.007301009 0.012727483
-0.09615479 -0.08386413 0.015732115 -0.11122611 -0.04905222 0.043875907 0.007106416 -0.0059956606
-0.05529499 0.015144923 -0.07966223 -0.051941976 -0.054240145 -0.030452397 -0.0036237675 0.06940688
0.03400356 0.09768881 0.008080342 -0.07901932 -0.004197507 -0.08677445 -0.07105151 -0.02455167
-0.022942793 0.0074442523 -0.062318377 0.037329152 0.07290719 -0.039467897 0.07343628 -0.048963543
0.0019273398 -0.017540501 -0.046639506 -0.00013841037 0.07701192 -0.010740141 -0.041772425 -0.03758557
00000000: 0ce6 493a 3f18 063d bd41 7dbd 7ece 6abd
00000010: 879e 0abd c3ff 203c c1d2 52bc 9f1c 293d
00000020: b47c b8bc 7a6d f43c 24db 0bbc 8622 173b
00000030: 6579 48bd b764 e4bc 7e45 3cbc c082 a93c
00000040: cb2b 303d f301 573d 00cb ae3c 8984 d13c
00000050: 76cb 8b3d 9810 b73d 37c8 2c3c 8622 8b3d
00000060: d9fa 743b 027c e53c 08be a53d c8dd aebd
00000070: 9543 76bd 6ecc e6bc 325e 3dbd b67f 0d3d
00000080: 5de3 a8bd 296f 88bd c134 bcbd b44b fabd
00000090: 9765 1ebd 16bf 843d 17cb 203d 792e 283d
000000a0: 46f6 2e3c d037 e1bc 93f0 873c ef04 74bd
000000b0: 6560 48bd 00b8 6cbc 9443 643d 4ded 483d
000000c0: af49 84bc a554 fe3b 3459 473d 6657 913d
000000d0: 4f42 de3c 6196 463b 9dcb 1b3d 7c65 31bd
000000e0: d4cf 4c3c b742 4abd d508 49bd 5d3e 1fbd
000000f0: dd96 ec3c 3492 073d a7f0 a4bc 9775 9b3c
00000100: 4c9a 1f3d 3cfc 253b cbca a23c 12a3 0b3d
00000110: e8ee 7b3d 3378 b23d b08e 96bc 9730 933c
00000120: 9c59 48ba 7e64 f03c ff7b 0a3d b043 173d
00000130: c94b 1dbc 1f33 a7bd 8a2f aabc 5cbf 9abd
00000140: 1ff5 d7bd 2a79 9e3d 4601 8e3d 4cb7 2dbd
00000150: 96e7 003d 03a8 0a3c bf92 033c 6192 4cbc
00000160: 83fc 1a3d 4d60 13bd c9cb a73c 7847 033d
00000170: 1e9d 623d 48ae 0c3d 58cb 7cbd 563c c9bc
00000180: ee30 913d 7145 5d3d 81dc 7fbc 8088 bdbd
00000190: ebaf 413c bd34 24ba 6eb4 a7bd 1481 9bbd
000001a0: 26e7 00be a5d8 71bd af18 edbd 4e1c fdbd
000001b0: 765f 18bc 35b7 a13b 67a3 e2bc 6713 033d
000001c0: e77d 3ebd eb39 463d d120 083d 6a64 85bd
000001d0: 2e13 e5bc f40e 233c 0db8 ec3c d6b9 3b3d
000001e0: 2fac 4f3d 22df f13c 09de 77bb 436d 783d
000001f0: 60df edbc f55d 213b 59ba 86bc f2dd 14bd
00000200: 3ccc eebc f3bb 79bd e446 e1bc ac4d 00bc
00000210: fc97 8dbd b2aa f9bc f8dc d43c 8572 0a3d
00000220: 0dd3 063d 758a 913c 20f4 063d e165 573d
00000230: ede4 8d3d 8ef2 483d 097d 903d fb0f 6e3c
00000240: 13c4 7dbd 39d8 38bd cb67 0a3d a408 82bc
00000250: 2040 34bd de87 4fbd 2545 34bd 884a acbc
00000260: 8d14 0c3d 91e2 413c 350f 0d38 9a16 00be
00000270: 870a 0abb 9681 d5bd 6378 3abd fafa 20bd
00000280: e365 d1bb 7075 053c 5ceb e5bd 9596 dbbd
00000290: 39d9 48bd 5261 dabc 8f9d 2ebd 55b3 063d
000002a0: 4778 33bd 2589 bc3c 85a5 bc3d 0133 87bd
000002b0: cd96 be3c 4c49 82bc 7757 d1bd acd0 303c
000002c0: c242 18bd 930e 5ebd 6a8d 1d3d bfa9 9dbd
000002d0: 6fd1 ab3b 655c b8bc 7bda 2d3d 25cd 983b
000002e0: 0bee 663c 9f8d efba 0b75 51bd 39cc 5cbd
000002f0: 4032 d8bd fe71 5b3d e661 8e3d 73e9 783d
00000300: 601a 39bd b134 343b a5ed 6abd 30a8 5ebd
00000310: c8ab 7ebd 2268 ceba cfbd 53bd b91d 20bc
00000320: ec2a 15bc 687d d53c 99d0 6cbd 9ee9 6dbd
00000330: 5d19 71bd 3aca 073d 9f07 efbc 1454 033d
00000340: 43e5 c93b f1b1 97bb 5dd1 64bc d95d 72bc
00000350: fa72 863b ce34 ecbc 4d3d efbb ef86 503c
00000360: cdec c4bd f5c0 abbd a3e0 803c 84ca e3bd
00000370: fbea 48bd 39b7 333d f0dc e83b 3f77 c4bb
00000380: 007d 62bd 6922 783c f425 a3bd 1cc1 54bd
00000390: ea2a 5ebd 4e77 f9bc bb7c 6dbb 3225 8e3d
000003a0: 5147 0b3d 1211 c83d 6963 043c e2d4 a1bd
000003b0: 3e8b 89bb ceb6 b1bd 7483 91bd 9520 c9bc
000003c0: 86f2 bbbc eaee f33b 8e41 7fbd 74e6 183d
000003d0: 5d50 953d 17a9 21bd c365 963d ff8d 48bd
000003e0: cb9e fc3a 19b1 8fbc 1109 3fbd 4022 11b9
000003f0: 6db8 9d3d 6bf7 2fbc 9019 2bbd 54f3 19bd

model.qy_x.model.tcn_block_00.conv1.bias f4 [32]
0.07451577 -0.07860151 -0.058764923 0.2047364 0.059350632 0.091908954 -0.09491411 0.19885504
-0.11228074 -0.009959893 0.020889351 -0.0142468 0.07457046 0.055688832 0.059619058 0.043482848
0.17529254 -0.2157963 -0.06741954 -0.026492536 -0.036875237 0.17851296 0.06265281 0.17686097
0.16178161 0.049861193 -0.02224319 -0.10453396 -0.06849728 0.0045231003 0.14202651 0.05560886
00000000: b99b 983d d4f9 a0bd 7db3 70bd 6ba6 513e
00000010: a619 733d c33a bc3d 5462 c2bd a8a0 4b3e
00000020: 72f3 e5bd d22e 23bc 2520 ab3c 696b 69bc
00000030: 66b8 983d f919 643d 1d33 743d 121b 323d
00000040: e37f 333e b5f9 5cbe 4113 8abd e006 d9bc
00000050: 7d0a 17bd 1acc 363e 1e50 803d 0b1b 353e
00000060: 14aa 253e 403b 4c3d 5a37 b6bc e715 d6bd
00000070: 4d48 8cbd 8436 943b 666f 113e 1ec6 633d

model.qy_x.model.tcn_block_00.conv1.weight_g f4 [32, 1, 1]
0.7212058 0.6669386 0.67502934 0.6888174 0.64094305 0.646009 0.7420401 0.6307585
0.6850736 0.69164425 0.6158566 0.70648974 0.6430143 0.66731447 0.71941984 0.6614314
0.69062704 0.7238213 0.7017569 0.7005345 0.69629306 0.6514656 0.6145618 0.63886565
0.6506326 0.70587224 0.7146961 0.75220335 0.72310746 0.6797055 0.73812103 0.71434224
00000000: f1a0 383f 7dbc 2a3f b9ce 2c3f 5656 303f
00000010: d814 243f d960 253f 57f6 3d3f 6479 213f
00000020: fc60 2f3f 990f 313f c7a8 1d3f 83dc 343f
00000030: 969c 243f 1fd5 2a3f e62b 383f 9153 293f
00000040: efcc 303f 5a4c 393f 57a6 333f 3b56 333f
00000050: 4340 323f 73c6 263f ec53 1d3f b38c 233f
00000060: dc8f 263f 0bb4 343f 53f6 363f 6690 403f
00000070: 921d 393f 2e01 2e3f 80f5 3c3f 22df 363f

model.qy_x.model.tcn_block_00.conv1.weight_v f4 [32, 32, 9]
0.025542969 0.017252443 0.018676018 0.00472118 0.00082300795 -0.009059975 -0.010660761 -0.021366598
-0.013797769 0.023083841 0.009746255 0.0017251526 -0.0074508046 -0.02553408 0.0026014228 -0.008530774
-0.006476723 0.011743835 0.0071404167 0.017663095 -0.008015077 0.023070626 -0.020693654 -0.012760215
-0.015307497 -0.009931086 -0.008537957 -0.008480752 -0.002218936 -0.010180247 -0.0074340785 0.0073495735
0.022912549 0.0005321624 0.008918486 0.031453438 -0.0050831116 -0.004026339 -0.00012476499 0.0020413941
0.0008758555 -0.011064729 -0.008865772 -0.028699763 -0.037713315 0.0072214687 0.009492245 0.031156056
0.023740653 0.02258334 0.031491112 0.05161149 0.036197104 0.04426409 0.0011259298 -0.015234696
0.0016974494 -0.016432604 -0.0045891083 -0.0053915516 0.025141194 -0.014958654 0.027102621 0.039732024
0.011373763 0.045093507 0.021837564 0.0058901645 0.02492687 0.03668982 0.0028813488 0.027026469
0.007960176 0.0010654385 0.008021737 0.008411499 0.010502611 0.032667454 0.020193014 0.03300839
0.042545874 0.06334529 0.07539697 0.038573377 0.073216334 0.055846438 0.040718414 0.025683828
0.048964817 0.063891806 -0.06828578 -0.051520996 -0.068218015 -0.061612986 -0.030667882 -0.0031972893
-0.017151393 -0.0052581327 -0.023467882 0.012038813 0.021944072 0.015772285 0.045037873 0.04613573
0.010560313 0.0391131 0.022799632 0.021549366 0.012632942 0.010896312 0.006917804 0.031724516
0.049531143 0.039203934 0.048865497 0.05561616 0.039655734 0.068572044 0.06551622 0.04698894
0.053779937 0.07568761 0.09157049 0.063308194 0.08437861 0.074605845 -0.031362288 -0.028398013
-0.04209632 -0.031467818 -0.032276217 -0.048528094 -0.02917716 -0.02604592 -0.02882208 -0.025673626
-0.020972624 -0.009091937 -0.00012634235 -0.0044285646 0.0073413095 0.0035089955 0.025772922 0.013702086
0.026210768 0.043379426 0.030964248 0.021415593 0.02581498 0.024902968 0.03933872 0.0524738
0.041169144 0.0064087836 0.0035399105 -0.0029722366 -0.014562163 0.0030437687 0.015894096 0.01613747
0.04134357 0.04226148 0.011428476 -0.0016506374 -0.013357323 -0.002116504 0.0040328247 -0.010465582
0.018073607 -0.016041214 -0.013417914 0.069507584 0.09116357 0.051857937 0.07998147 0.07084762
0.0618519 0.08696994 0.10090224 0.093632296 -0.05761797 -0.03440325 -0.037327267 -0.054797303
-0.05664352 -0.052057795 -0.059557762 -0.07286201 -0.0935208 -0.0025873273 0.01564303 0.032858837
0.0224803 0.0033721868 0.026110498 0.06338509 0.022831788 0.03213197 0.02573374 0.038959928
-0.010689046 -0.0060145142 0.011633204 0.04042892 -0.0052966313 0.00443547 0.013147981 -0.016280944
-0.012094656 -0.009291683 -0.00163019 0.004893259 -0.007642865 -0.01808763 -0.036930032 -0.05099264
0.002280166 0.029622937 0.005347226 -0.020595998 7.2050185e-05 0.02743779 0.045111276 -0.0014177423
-0.033144075 -0.0076195635 -0.008280141 0.026958251 0.035307467 0.023567073 0.027192205 0.039623044
0.04570901 0.047814753 0.0046934113 0.007948879 0.017202532 0.0094212545 0.015869377 0.02992952
0.029341068 0.015658706 0.013958223 -0.014220677 0.005722844 0.009147992 0.002761941 0.0022684934
-0.0061545963 -0.010717823 -0.03382467 -0.047563847 -0.046532538 -0.028132573 -0.027553512 -0.010875127
00000000: 7d3f d13c ff54 8d3c 73fe 983c 21b4 9a3b
00000010: 21bf 573a 4a70 14bc 79aa 2ebc 0109 afbc
00000020: 0a10 62bc 531a bd3c c2ae 1f3c 841e e23a
00000030: e125 f4bb d92c d1bc a27c 2a3b a9c4 0bbc
00000040: b13a d4bb 3769 403c 28fa e93b 32b2 903c
00000050: ab51 03bc 9cfe bc3c bd85 a9bc 3910 51bc
00000060: 4ccc 7abc feb5 22bc cae2 0bbc daf2 0abc
00000070: 926b 11bb 0dcb 26bc 9299 f3bb b1d4 f03b
00000080: 19b3 bb3c d080 0b3a d71e 123c 52d5 003d
00000090: 3b90 a6bb 61ef 83bb 59d3 02b9 e9c8 053b
000000a0: ab99 653a d648 35bc be41 11bc c41b ebbc
000000b0: 4779 1abd 12a2 ec3b 5c85 1b3c fc3a ff3c
000000c0: c27b c23c b200 b93c d3fc 003d 9266 533d
000000d0: 6a43 143d 434e 353d ef93 933a f29a 79bc
000000e0: f37c de3a ab9d 86bc 3b60 96bb 9dab b0bb
000000f0: e8f4 cd3c 2415 75bc 5106 de3c 0cbe 223d
00000100: 0559 3a3c f8b3 383d b1e4 b23c 4802 c13b
00000110: 6f33 cc3c 1148 163d 03d5 3c3b 9d66 dd3c
00000120: 666b 023c 2fa6 8b3a 9b6d 033c 62d0 093c
00000130: 2513 2c3c 4fce 053d d26b a53c ce33 073d
00000140: 9544 2e3d 2dbb 813d ba69 9a3d 1eff 1d3d
00000150: 72f2 953d 3cbf 643d 5ac8 263d e466 d23c
00000160: 558f 483d b5d9 823d 6ad9 8bbd ae07 53bd
00000170: e3b5 8bbd e65d 7cbd 363b fbbc 9d89 51bb
00000180: 1481 8cbc 6a4c acbb b73f c0bc 713e 453c
00000190: 0ec4 b33c e134 813c a279 383d d2f8 3c3d
000001a0: 2a05 2d3c 0f35 203d 4bc6 ba3c 4c88 b03c
000001b0: 66fa 4e3c 7286 323c bfae e23b 91f1 013d
000001c0: 2be1 4a3d 4e94 203d 3027 483d c5cd 633d
000001d0: 0d6e 223d 806f 8c3d 5e2d 863d 7a77 403d
000001e0: 5a48 5c3d 1b02 9b3d 4f89 bb3d baa7 813d
000001f0: b1ce ac3d f3ca 983d be75 00bd f3a2 e8bc
00000200: 316d 2cbd 66e4 00bd 1134 04bd 65c5 46bd
00000210: f004 efbc 415e d5bc 481c ecbc 7f51 d2bc
00000220: c8ce abbc 59f6 14bc c47a 04b9 7e1d 91bb
00000230: 5e8f f03b 2df7 653b bc21 d33c b77e 603c
00000240: f7b7 d63c a0ae 313d bca8 fd3c c16f af3c
00000250: f079 d33c 4f01 cc3c a321 213d c4ee 563d
00000260: faa0 283d c600 d23b d8fd 673b dbc9 42bb
00000270: 2396 6ebc f779 473b 5634 823c ba32 843c
00000280: e057 293d 601a 2d3d 813e 3b3c 335a d8ba
00000290: acd8 5abc 0bb5 0abb c925 843b d577 2bbc
000002a0: 1a0f 943c dd68 83bc cfd6 5bbc fe59 8e3d
000002b0: f7b3 ba3d fd68 543d 53cd a33d 8f18 913d
000002c0: 6b58 7d3d 4c1d b23d d5a5 ce3d 4ac2 bf3d
000002d0: d200 6cbd 6cea 0cbd 7ae4 18bd 2373 60bd
000002e0: 0903 68bd 8e3a 55bd d7f2 73bd ad38 95bd
000002f0: d587 bfbd 2690 29bb d025 803c fd96 063d
00000300: 9b28 b83c e8ff 5c3b afe5 d53c 0bd0 813d
00000310: bb09 bb3c d09c 033d 90cf d23c 7294 1f3d
00000320: 1c21 2fbc 6715 c5bb 3299 3e3c cc98 253d
00000330: 5d8f adbb 6b57 913b a16a 573c 9d5f 85bc
00000340: aa28 46bc 253c 18bc 19ac d5ba a257 a03b
00000350: 0071 fabb 822c 94bc f243 17bd a9dd 50bd
00000360: d66e 153b cdab f23c c837 af3b f0b8 a8bc
00000370: a619 9738 37c5 e03c 9ac6 383d 8ad3 b9ba
00000380: 15c2 07bd 88ad f9bb 6ea9 07bc 8dd7 dc3c
00000390: 909e 103d bc0f c13c 30c2 de3c c64b 223d
000003a0: 5f39 3b3d 67d9 433d 30cb 993b 043c 023c
000003b0: 53ec 8c3c 9b5b 1a3c 7f00 823c c12e f53c
000003c0: ae5c f03c b046 803c 08b1 643c d8fd 68bc
000003d0: b286 bb3b 76e1 153c ae01 353b 01ab 143b
000003e0: 7fac c9bb cf99 2fbc bd8b 0abd 4fd2 42bd
000003f0: e798 3ebd 4876 e6bc e7b7 e1bc 972d 32bc

model.qy_x.model.tcn_block_00.block.conv1d_layer_0.bias f4 [32]
0.08683412 -0.036305666 0.00016803881 0.029887531 0.0751638 -0.25160867 -0.23402381 0.02374463
-0.024866255 -0.006315225 -0.054904137 0.16800873 0.19266012 -0.010378134 -0.21356294 -0.007290139
0.013036777 -0.08198075 -0.2015087 0.05656481 -0.12522405 -0.07757578 0.044996746 0.20816064
-0.011318093 0.010304588 -0.033185814 -0.030876096 -0.2525285 0.09630878 0.048160136 0.020096611
00000000: 16d6 b13d 40b5 14bd 9333 3039 b2d6 f43c
00000010: 7aef 993d dad2 80be f0a3 6fbe 1984 c23c
00000020: 51b4 cbbc f2ef cebb 29e3 60bd 7b0a 2c3e
00000030: b248 453e 0d09 2abc 3eb0 5abe 1ee2 eebb
00000040: 3598 553c 86e5 a7bd 4c58 4ebe 81b0 673d
00000050: bc3a 00be 0de0 9ebd 824e 383d 1028 553e
00000060: 866f 39bc 93d4 283c d9ed 07bd deef fcbc
00000070: 6a4b 81be 8a3d c53d 9043 453d a6a1 a43c

model.qy_x.model.tcn_block_00.block.conv1d_layer_0.weight_g f4 [32, 1, 1]
0.7174851 0.62664443 0.62670535 0.71754795 0.65875316 0.5955641 0.7041037 0.674041
0.662016 0.68030626 0.6192673 0.6059877 0.61679566 0.6608575 0.7169494 0.5937071
0.6641503 0.78559846 0.64963603 0.5940276 0.67897356 0.6438063 0.65218496 0.6238775
0.6269622 0.651528 0.6145305 0.63197666 0.6982091 0.65538603 0.6222053 0.64710975
00000000: 1aad 373f c56b 203f c36f 203f 39b1 373f
00000010: 0ca4 283f e476 183f 2440 343f f38d 2c3f
00000020: e179 293f 8d28 2e3f 4d88 1e3f 0322 1b3f
00000030: 52e6 1d3f f52d 293f ff89 373f 30fd 173f
00000040: c105 2a3f fb1c 493f 8c4e 263f 3112 183f
00000050: 36d1 2d3f 7dd0 243f 98f5 263f 70b6 1f3f
00000060: 9880 203f 8aca 263f df51 1d3f 39c9 213f
00000070: d5bd 323f 61c7 273f d948 1f3f fca8 253f

model.qy_x.model.tcn_block_00.block.conv1d_layer_0.weight_v f4 [32, 16, 9]
0.0007701821 0.032737967 -0.06183027 -0.057325833 -0.03384259 0.009826603 -0.01286763 0.04128706
-0.0225204 0.029837359 -0.008536134 0.002306135 -0.048943896 -0.027880056 -0.011491178 0.02069223
0.043010514 0.052492093 0.021337032 0.025575893 0.068259165 0.08938712 0.010545782 0.06793694
0.0037380962 0.028013233 0.08092886 -0.08538395 -0.060123045 -0.028173652 -0.04623241 0.034545623
-0.08246491 -0.06661827 -0.091897495 -0.122214705 -0.038671102 0.06481759 0.03925618 0.041059945
0.010678833 -0.027492434 0.016594207 -0.059575018 -0.048920054 -0.014448166 0.05572851 0.049054433
-0.016148416 0.0077615553 0.048669055 0.07096748 0.027131228 0.0030302035 0.038035978 -0.043309674
0.012500722 -0.04938003 -0.04908069 -0.038877834 0.028880531 0.033098415 -0.020134283 0.01897697
0.03896551 0.0025327345 0.01987209 0.034091063 0.061507136 0.087143324 -0.018378586 0.017967505
-0.00076427474 0.029344793 0.03380966 0.036929786 -0.009600588 -0.081640474 -0.020774622 -0.0755603
-0.105448 0.07737954 0.06933837 -0.042411134 0.031470858 0.008462909 0.008030592 -0.012486071
0.03783847 -0.03598051 0.020482915 0.03205058 0.05532562 0.034345895 -0.06171736 -0.024564903
0.07089411 0.054021303 -0.015616537 -0.09254551 0.011821727 -0.0006263962 -0.08188711 -0.07592979
-0.12588176 -0.0590445 -0.11576974 -0.12358914 -0.009300103 0.00493517 -0.027665807 0.032000925
-0.04650679 0.04839508 0.03323442 -0.06513293 -0.027963247 0.009952296 0.028896356 0.045831524
0.050701316 0.029525343 -0.0037821552 0.060651075 -0.029037178 0.0024622653 -0.01644628 -0.036344476
-0.02915012 -0.060970258 -0.027499624 -0.007831018 -0.06913754 -0.030476902 0.025984272 0.03380062
0.032916117 0.017766217 0.03294766 0.052587394 0.0692843 0.049059443 0.070550986 0.014530177
-0.06195457 -0.04512808 0.03379039 -0.01587326 -0.044006467 -0.050666682 -0.044011254 -0.021031633
0.034199286 0.011833803 3.3631182e-05 -0.12508622 -0.0021063404 -0.10425107 -0.045524966 -0.03930185
-0.0063903197 0.008145675 -0.11226532 -0.107220806 -0.049035285 -0.026657734 -0.04263073 0.032885868
-0.043815877 0.023014614 0.09211258 -0.06601525 0.023265267 -0.015904091 -0.10221761 0.010791939
-0.03717304 -0.054213118 0.03846494 -0.07698392 0.0052434723 -0.022504995 0.042444687 0.004663127
0.01409484 -0.0018276459 -0.05113701 -0.0539057 -0.105564594 0.05357551 0.069522664 0.06076951
-0.04519117 0.0027497227 -0.05735554 -0.054359615 -0.062175542 -0.0015747587 -0.051694687 -0.009772711
-0.009104472 0.026060775 -0.05781612 -0.058084123 -0.05886208 0.033151843 -0.029178439 0.032062605
0.0061613633 -0.0046293666 -0.013965932 -0.014792883 0.0041030617 -0.028833773 -0.007301009 0.012727483
-0.09615479 -0.08386413 0.015732115 -0.11122611 -0.04905222 0.043875907 0.007106416 -0.0059956606
-0.05529499 0.015144923 -0.07966223 -0.051941976 -0.054240145 -0.030452397 -0.0036237675 0.06940688
0.03400356 0.09768881 0.008080342 -0.07901932 -0.004197507 -0.08677445 -0.07105151 -0.02455167
-0.022942793 0.0074442523 -0.062318377 0.037329152 0.07290719 -0.039467897 0.07343628 -0.048963543
0.0019273398 -0.017540501 -0.046639506 -0.00013841037 0.07701192 -0.010740141 -0.041772425 -0.03758557
00000000: 0ce6 493a 3f18 063d bd41 7dbd 7ece 6abd
00000010: 879e 0abd c3ff 203c c1d2 52bc 9f1c 293d
00000020: b47c b8bc 7a6d f43c 24db 0bbc 8622 173b
00000030: 6579 48bd b764 e4bc 7e45 3cbc c082 a93c
00000040: cb2b 303d f301 573d 00cb ae3c 8984 d13c
00000050: 76cb 8b3d 9810 b73d 37c8 2c3c 8622 8b3d
00000060: d9fa 743b 027c e53c 08be a53d c8dd aebd
00000070: 9543 76bd 6ecc e6bc 325e 3dbd b67f 0d3d
00000080: 5de3 a8bd 296f 88bd c134 bcbd b44b fabd
00000090: 9765 1ebd 16bf 843d 17cb 203d 792e 283d
000000a0: 46f6 2e3c d037 e1bc 93f0 873c ef04 74bd
000000b0: 6560 48bd 00b8 6cbc 9443 643d 4ded 483d
000000c0: af49 84bc a554 fe3b 3459 473d 6657 913d
000000d0: 4f42 de3c 6196 463b 9dcb 1b3d 7c65 31bd
000000e0: d4cf 4c3c b742 4abd d508 49bd 5d3e 1fbd
000000f0: dd96 ec3c 3492 073d a7f0 a4bc 9775 9b3c
00000100: 4c9a 1f3d 3cfc 253b cbca a23c 12a3 0b3d
00000110: e8ee 7b3d 3378 b23d b08e 96bc 9730 933c
00000120: 9c59 48ba 7e64 f03c ff7b 0a3d b043 173d
00000130: c94b 1dbc 1f33 a7bd 8a2f aabc 5cbf 9abd
00000140: 1ff5 d7bd 2a79 9e3d 4601 8e3d 4cb7 2dbd
00000150: 96e7 003d 03a8 0a3c bf92 033c 6192 4cbc
00000160: 83fc 1a3d 4d60 13bd c9cb a73c 7847 033d
00000170: 1e9d 623d 48ae 0c3d 58cb 7cbd 563c c9bc
00000180: ee30 913d 7145 5d3d 81dc 7fbc 8088 bdbd
00000190: ebaf 413c bd34 24ba 6eb4 a7bd 1481 9bbd
000001a0: 26e7 00be a5d8 71bd af18 edbd 4e1c fdbd
000001b0: 765f 18bc 35b7 a13b 67a3 e2bc 6713 033d
000001c0: e77d 3ebd eb39 463d d120 083d 6a64 85bd
000001d0: 2e13 e5bc f40e 233c 0db8 ec3c d6b9 3b3d
000001e0: 2fac 4f3d 22df f13c 09de 77bb 436d 783d
000001f0: 60df edbc f55d 213b 59ba 86bc f2dd 14bd
00000200: 3ccc eebc f3bb 79bd e446 e1bc ac4d 00bc
00000210: fc97 8dbd b2aa f9bc f8dc d43c 8572 0a3d
00000220: 0dd3 063d 758a 913c 20f4 063d e165 573d
00000230: ede4 8d3d 8ef2 483d 097d 903d fb0f 6e3c
00000240: 13c4 7dbd 39d8 38bd cb67 0a3d a408 82bc
00000250: 2040 34bd de87 4fbd 2545 34bd 884a acbc
00000260: 8d14 0c3d 91e2 413c 350f 0d38 9a16 00be
00000270: 870a 0abb 9681 d5bd 6378 3abd fafa 20bd
00000280: e365 d1bb 7075 053c 5ceb e5bd 9596 dbbd
00000290: 39d9 48bd 5261 dabc 8f9d 2ebd 55b3 063d
000002a0: 4778 33bd 2589 bc3c 85a5 bc3d 0133 87bd
000002b0: cd96 be3c 4c49 82bc 7757 d1bd acd0 303c
000002c0: c242 18bd 930e 5ebd 6a8d 1d3d bfa9 9dbd
000002d0: 6fd1 ab3b 655c b8bc 7bda 2d3d 25cd 983b
000002e0: 0bee 663c 9f8d efba 0b75 51bd 39cc 5cbd
000002f0: 4032 d8bd fe71 5b3d e661 8e3d 73e9 783d
00000300: 601a 39bd b134 343b a5ed 6abd 30a8 5ebd
00000310: c8ab 7ebd 2268 ceba cfbd 53bd b91d 20bc
00000320: ec2a 15bc 687d d53c 99d0 6cbd 9ee9 6dbd
00000330: 5d19 71bd 3aca 073d 9f07 efbc 1454 033d
00000340: 43e5 c93b f1b1 97bb 5dd1 64bc d95d 72bc
00000350: fa72 863b ce34 ecbc 4d3d efbb ef86 503c
00000360: cdec c4bd f5c0 abbd a3e0 803c 84ca e3bd
00000370: fbea 48bd 39b7 333d f0dc e83b 3f77 c4bb
00000380: 007d 62bd 6922 783c f425 a3bd 1cc1 54bd
00000390: ea2a 5ebd 4e77 f9bc bb7c 6dbb 3225 8e3d
000003a0: 5147 0b3d 1211 c83d 6963 043c e2d4 a1bd
000003b0: 3e8b 89bb ceb6 b1bd 7483 91bd 9520 c9bc
000003c0: 86f2 bbbc eaee f33b 8e41 7fbd 74e6 183d
000003d0: 5d50 953d 17a9 21bd c365 963d ff8d 48bd
000003e0: cb9e fc3a 19b1 8fbc 1109 3fbd 4022 11b9
000003f0: 6db8 9d3d 6bf7 2fbc 9019 2bbd 54f3 19bd

model.qy_x.model.tcn_block_00.block.conv1d_layer_1.bias f4 [32]
0.07451577 -0.07860151 -0.058764923 0.2047364 0.059350632 0.091908954 -0.09491411 0.19885504
-0.11228074 -0.009959893 0.020889351 -0.0142468 0.07457046 0.055688832 0.059619058 0.043482848
0.17529254 -0.2157963 -0.06741954 -0.026492536 -0.036875237 0.17851296 0.06265281 0.17686097
0.16178161 0.049861193 -0.02224319 -0.10453396 -0.06849728 0.0045231003 0.14202651 0.05560886
00000000: b99b 983d d4f9 a0bd 7db3 70bd 6ba6 513e
00000010: a619 733d c33a bc3d 5462 c2bd a8a0 4b3e
00000020: 72f3 e5bd d22e 23bc 2520 ab3c 696b 69bc
00000030: 66b8 983d f919 643d 1d33 743d 121b 323d
00000040: e37f 333e b5f9 5cbe 4113 8abd e006 d9bc
00000050: 7d0a 17bd 1acc 363e 1e50 803d 0b1b 353e
00000060: 14aa 253e 403b 4c3d 5a37 b6bc e715 d6bd
00000070: 4d48 8cbd 8436 943b 666f 113e 1ec6 633d

model.qy_x.model.tcn_block_00.block.conv1d_layer_1.weight_g f4 [32, 1, 1]
0.7212058 0.6669386 0.67502934 0.6888174 0.64094305 0.646009 0.7420401 0.6307585
0.6850736 0.69164425 0.6158566 0.70648974 0.6430143 0.66731447 0.71941984 0.6614314
0.69062704 0.7238213 0.7017569 0.7005345 0.69629306 0.6514656 0.6145618 0.63886565
0.6506326 0.70587224 0.7146961 0.75220335 0.72310746 0.6797055 0.73812103 0.71434224
00000000: f1a0 383f 7dbc 2a3f b9ce 2c3f 5656 303f
00000010: d814 243f d960 253f 57f6 3d3f 6479 213f
00000020: fc60 2f3f 990f 313f c7a8 1d3f 83dc 343f
00000030: 969c 243f 1fd5 2a3f e62b 383f 9153 293f
00000040: efcc 303f 5a4c 393f 57a6 333f 3b56 333f
00000050: 4340 323f 73c6 263f ec53 1d3f b38c 233f
00000060: dc8f 263f 0bb4 343f 53f6 363f 6690 403f
00000070: 921d 393f 2e01 2e3f 80f5 3c3f 22df 363f

model.qy_x.model.tcn_block_00.block.conv1d_layer_1.weight_v f4 [32, 32, 9]
0.025542969 0.017252443 0.018676018 0.00472118 0.00082300795 -0.009059975 -0.010660761 -0.021366598
-0.013797769 0.023083841 0.009746255 0.0017251526 -0.0074508046 -0.02553408 0.0026014228 -0.008530774
-0.006476723 0.011743835 0.0071404167 0.017663095 -0.008015077 0.023070626 -0.020693654 -0.012760215
-0.015307497 -0.009931086 -0.008537957 -0.008480752 -0.002218936 -0.010180247 -0.0074340785 0.0073495735
0.022912549 0.0005321624 0.008918486 0.031453438 -0.0050831116 -0.004026339 -0.00012476499 0.0020413941
0.0008758555 -0.011064729 -0.008865772 -0.028699763 -0.037713315 0.0072214687 0.009492245 0.031156056
0.023740653 0.02258334 0.031491112 0.05161149 0.036197104 0.04426409 0.0011259298 -0.015234696
0.0016974494 -0.016432604 -0.0045891083 -0.0053915516 0.025141194 -0.014958654 0.027102621 0.039732024
0.011373763 0.045093507 0.021837564 0.0058901645 0.02492687 0.03668982 0.0028813488 0.027026469
0.007960176 0.0010654385 0.008021737 0.008411499 0.010502611 0.032667454 0.020193014 0.03300839
0.042545874 0.06334529 0.07539697 0.038573377 0.073216334 0.055846438 0.040718414 0.025683828
0.048964817 0.063891806 -0.06828578 -0.051520996 -0.068218015 -0.061612986 -0.030667882 -0.0031972893
-0.017151393 -0.0052581327 -0.023467882 0.012038813 0.021944072 0.015772285 0.045037873 0.04613573
0.010560313 0.0391131 0.022799632 0.021549366 0.012632942 0.010896312 0.006917804 0.031724516
0.049531143 0.039203934 0.048865497 0.05561616 0.039655734 0.068572044 0.06551622 0.04698894
0.053779937 0.07568761 0.09157049 0.063308194 0.08437861 0.074605845 -0.031362288 -0.028398013
-0.04209632 -0.031467818 -0.032276217 -0.048528094 -0.02917716 -0.02604592 -0.02882208 -0.025673626
-0.020972624 -0.009091937 -0.00012634235 -0.0044285646 0.0073413095 0.0035089955 0.025772922 0.013702086
0.026210768 0.043379426 0.030964248 0.021415593 0.02581498 0.024902968 0.03933872 0.0524738
0.041169144 0.0064087836 0.0035399105 -0.0029722366 -0.014562163 0.0030437687 0.015894096 0.01613747
0.04134357 0.04226148 0.011428476 -0.0016506374 -0.013357323 -0.002116504 0.0040328247 -0.010465582
0.018073607 -0.016041214 -0.013417914 0.069507584 0.09116357 0.051857937 0.07998147 0.07084762
0.0618519 0.08696994 0.10090224 0.093632296 -0.05761797 -0.03440325 -0.037327267 -0.054797303
-0.05664352 -0.052057795 -0.059557762 -0.07286201 -0.0935208 -0.0025873273 0.01564303 0.032858837
0.0224803 0.0033721868 0.026110498 0.06338509 0.022831788 0.03213197 0.02573374 0.038959928
-0.010689046 -0.0060145142 0.011633204 0.04042892 -0.0052966313 0.00443547 0.013147981 -0.016280944
-0.012094656 -0.009291683 -0.00163019 0.004893259 -0.007642865 -0.01808763 -0.036930032 -0.05099264
0.002280166 0.029622937 0.005347226 -0.020595998 7.2050185e-05 0.02743779 0.045111276 -0.0014177423
-0.033144075 -0.0076195635 -0.008280141 0.026958251 0.035307467 0.023567073 0.027192205 0.039623044
0.04570901 0.047814753 0.0046934113 0.007948879 0.017202532 0.0094212545 0.015869377 0.02992952
0.029341068 0.015658706 0.013958223 -0.014220677 0.005722844 0.009147992 0.002761941 0.0022684934
-0.0061545963 -0.010717823 -0.03382467 -0.047563847 -0.046532538 -0.028132573 -0.027553512 -0.010875127
00000000: 7d3f d13c ff54 8d3c 73fe 983c 21b4 9a3b
00000010: 21bf 573a 4a70 14bc 79aa 2ebc 0109 afbc
00000020: 0a10 62bc 531a bd3c c2ae 1f3c 841e e23a
00000030: e125 f4bb d92c d1bc a27c 2a3b a9c4 0bbc
00000040: b13a d4bb 3769 403c 28fa e93b 32b2 903c
00000050: ab51 03bc 9cfe bc3c bd85 a9bc 3910 51bc
00000060: 4ccc 7abc feb5 22bc cae2 0bbc daf2 0abc
00000070: 926b 11bb 0dcb 26bc 9299 f3bb b1d4 f03b
00000080: 19b3 bb3c d080 0b3a d71e 123c 52d5 003d
00000090: 3b90 a6bb 61ef 83bb 59d3 02b9 e9c8 053b
000000a0: ab99 653a d648 35bc be41 11bc c41b ebbc
000000b0: 4779 1abd 12a2 ec3b 5c85 1b3c fc3a ff3c
000000c0: c27b c23c b200 b93c d3fc 003d 9266 533d
000000d0: 6a43 143d 434e 353d ef93 933a f29a 79bc
000000e0: f37c de3a ab9d 86bc 3b60 96bb 9dab b0bb
000000f0: e8f4 cd3c 2415 75bc 5106 de3c 0cbe 223d
00000100: 0559 3a3c f8b3 383d b1e4 b23c 4802 c13b
00000110: 6f33 cc3c 1148 163d 03d5 3c3b 9d66 dd3c
00000120: 666b 023c 2fa6 8b3a 9b6d 033c 62d0 093c
00000130: 2513 2c3c 4fce 053d d26b a53c ce33 073d
00000140: 9544 2e3d 2dbb 813d ba69 9a3d 1eff 1d3d
00000150: 72f2 953d 3cbf 643d 5ac8 263d e466 d23c
00000160: 558f 483d b5d9 823d 6ad9 8bbd ae07 53bd
00000170: e3b5 8bbd e65d 7cbd 363b fbbc 9d89 51bb
00000180: 1481 8cbc 6a4c acbb b73f c0bc 713e 453c
00000190: 0ec4 b33c e134 813c a279 383d d2f8 3c3d
000001a0: 2a05 2d3c 0f35 203d 4bc6 ba3c 4c88 b03c
000001b0: 66fa 4e3c 7286 323c bfae e23b 91f1 013d
000001c0: 2be1 4a3d 4e94 203d 3027 483d c5cd 633d
000001d0: 0d6e 223d 806f 8c3d 5e2d 863d 7a77 403d
000001e0: 5a48 5c3d 1b02 9b3d 4f89 bb3d baa7 813d
000001f0: b1ce ac3d f3ca 983d be75 00bd f3a2 e8bc
00000200: 316d 2cbd 66e4 00bd 1134 04bd 65c5 46bd
00000210: f004 efbc 415e d5bc 481c ecbc 7f51 d2bc
00000220: c8ce abbc 59f6 14bc c47a 04b9 7e1d 91bb
00000230: 5e8f f03b 2df7 653b bc21 d33c b77e 603c
00000240: f7b7 d63c a0ae 313d bca8 fd3c c16f af3c
00000250: f079 d33c 4f01 cc3c a321 213d c4ee 563d
00000260: faa0 283d c600 d23b d8fd 673b dbc9 42bb
00000270: 2396 6ebc f779 473b 5634 823c ba32 843c
00000280: e057 293d 601a 2d3d 813e 3b3c 335a d8ba
00000290: acd8 5abc 0bb5 0abb c925 843b d577 2bbc
000002a0: 1a0f 943c dd68 83bc cfd6 5bbc fe59 8e3d
000002b0: f7b3 ba3d fd68 543d 53cd a33d 8f18 913d
000002c0: 6b58 7d3d 4c1d b23d d5a5 ce3d 4ac2 bf3d
000002d0: d200 6cbd 6cea 0cbd 7ae4 18bd 2373 60bd
000002e0: 0903 68bd 8e3a 55bd d7f2 73bd ad38 95bd
000002f0: d587 bfbd 2690 29bb d025 803c fd96 063d
00000300: 9b28 b83c e8ff 5c3b afe5 d53c 0bd0 813d
00000310: bb09 bb3c d09c 033d 90cf d23c 7294 1f3d
00000320: 1c21 2fbc 6715 c5bb 3299 3e3c cc98 253d
00000330: 5d8f adbb 6b57 913b a16a 573c 9d5f 85bc
00000340: aa28 46bc 253c 18bc 19ac d5ba a257 a03b
00000350: 0071 fabb 822c 94bc f243 17bd a9dd 50bd
00000360: d66e 153b cdab f23c c837 af3b f0b8 a8bc
00000370: a619 9738 37c5 e03c 9ac6 383d 8ad3 b9ba
00000380: 15c2 07bd 88ad f9bb 6ea9 07bc 8dd7 dc3c
00000390: 909e 103d bc0f c13c 30c2 de3c c64b 223d
000003a0: 5f39 3b3d 67d9 433d 30cb 993b 043c 023c
000003b0: 53ec 8c3c 9b5b 1a3c 7f00 823c c12e f53c
000003c0: ae5c f03c b046 803c 08b1 643c d8fd 68bc
000003d0: b286 bb3b 76e1 153c ae01 353b 01ab 143b
000003e0: 7fac c9bb cf99 2fbc bd8b 0abd 4fd2 42bd
000003f0: e798 3ebd 4876 e6bc e7b7 e1bc 972d 32bc

model.qy_x.model.tcn_block_00.downsample.weight f4 [32, 16, 1]
-0.13857837 -0.07325055 0.042823296 0.11463069 0.0050769253 -0.053600185 0.021467403 0.049835894
0.038317982 -0.023053132 -0.23213965 -0.08008232 0.05237375 0.024160651 0.07992561 -0.023063213
-0.017794 -0.029758397 0.0009471656 -0.051064882 -0.0198941 0.024789004 -0.0030216267 -0.010007486
-0.119496465 0.016894324 0.022312695 -0.04605327 0.032387618 0.016822495 0.012133396 -0.028860962
-0.083922654 -0.024619652 0.024249757 0.08430039 0.085972644 0.09401876 0.00065201573 0.010150358
0.077550784 0.04245049 -0.07634464 -0.09622139 -0.13791549 -0.12322096 0.025642296 -0.12495029
0.06141373 0.10179539 -0.07274389 -0.11371769 -0.079607256 -0.122444466 -0.05688751 -0.048199143
0.018316956 0.009116102 0.15943411 0.11811544 0.04207669 0.09329114 0.0094335675 0.061290376
0.025789883 0.038694434 -0.010575837 0.0061370675 -0.05443245 -0.093726374 -0.016218048 0.046403136
0.06327741 -0.022492122 -0.0032058018 0.05794237 -0.0054634227 -0.0052413833 -0.041274924 0.033281904
-0.027389664 -0.017268987 0.041896094 -0.017742418 0.021618836 0.043360107 0.016722472 -0.013303179
-0.06093217 0.050739154 0.009055351 0.0016410111 0.036689214 0.030921653 0.01023325 0.052202165
-0.06790991 -0.045794632 -0.06851891 -0.07315744 -0.029571354 -0.030938005 0.014889997 -0.07928247
-0.038867608 -0.094690904 0.063879706 0.11640657 -0.006933308 -0.013713092 -0.03293749 0.0026061297
0.025562296 0.044933833 0.006869525 -0.05046822 -0.05571226 -0.06666482 0.011307098 0.025234794
-0.015888948 -0.0050044516 0.108887084 0.0670478 0.032477412 0.06958455 0.03116115 0.0871094
-0.056271803 -0.08129365 -0.008112605 0.0536446 -0.021002539 -0.02469146 0.0386449 0.006342181
-0.029933097 -0.026804417 -0.08658175 0.008053537 -0.0052725957 0.008044897 -0.019166488 -0.006490329
-0.03596639 -0.053216837 -0.047829095 0.0013065981 -0.02387059 0.017387757 0.014488221 -0.0016480903
-0.03895157 0.009282434 -0.0032475898 0.022247523 -0.0007270379 -0.033493813 -0.02174957 0.008127298
0.001755137 0.01416113 -0.014908381 -0.012946133 0.011838225 0.0662958 0.006304965 -0.009425267
-0.04207936 0.10304344 0.028486125 0.0011447559 0.02352048 -0.01415715 0.041954014 0.016561426
-0.06176585 -0.05174819 0.0026187762 0.09910513 0.08141437 0.09974838 -0.0049276906 0.014378319
0.05234823 0.01526507 -0.14575388 -0.029800477 -0.11365575 -0.13583541 0.021408828 -0.10624219
0.01358838 0.017307295 -0.0011314687 -0.03587811 -0.028934132 -0.038389094 0.0112542575 -0.010983583
-0.04404128 0.0008605796 0.073745735 0.10321115 0.037914813 0.023392266 0.05837458 0.119189
0.032416895 0.02356107 0.004804321 0.026108833 -0.042430636 -0.015964612 0.012784901 0.0149168875
0.06264751 -0.0938275 -0.014332586 0.03118842 -0.058142018 -0.09800196 0.008552668 -0.013336109
0.061461125 0.0064513423 -0.024047812 0.0037332277 -0.035234377 -0.028236322 -0.031700496 -0.008914084
0.042134807 -0.0835778 0.036991514 0.060611557 -0.06896776 -0.054217428 -0.015183057 0.011816991
0.022414006 -0.015769495 -0.014244135 -0.0054489826 -0.043506593 -0.020873677 -0.0041426816 0.009003396
-0.02622113 0.026254084 0.007551447 0.05005351 0.071152985 0.02677666 -0.018041324 0.07155183
00000000: 7de7 0dbe 6204 96bd 7b67 2f3d 7fc3 ea3d
00000010: 565c a63b de8b 5bbd 68dc af3c b920 4c3d
00000020: 51f3 1c3d ecd9 bcbc 04b6 6dbe 3302 a4bd
00000030: db85 563d 8fec c53c 0ab0 a33d 10ef bcbc
00000040: b9c4 91bc e2c7 f3bc 354b 783a 6929 51bd
00000050: f4f8 a2bc 4f12 cb3c 7c06 46bb 70f6 23bc
00000060: 90ba f4bd f765 8a3c 1dc9 b63c 5ba2 3cbd
00000070: e1a8 043d 54cf 893c 27cb 463c d36d ecbc
00000080: a4df abbd 27af c9bc 6da7 c63c afa5 ac3d
00000090: 6d12 b03d e88c c03d 09ec 2a3a b04d 263c
000000a0: f2d2 9e3d 91e0 2d3d 945a 9cbd b80f c5bd
000000b0: b839 0dbe 455b fcbd cb0f d23c f0e5 ffbd
000000c0: f78c 7b3d 1a7a d03d c0fa 94bd d2e4 e8bd
000000d0: 2109 a3bd 2ac4 fabd e102 69bd 776c 45bd
000000e0: 710d 963c b45b 153c b242 233e 82e6 f13d
000000f0: 9b58 2c3d 6d0f bf3d 408f 1a3c 9e0b 7b3d
00000100: 4e45 d33c 0e7e 1e3d 4746 2dbc 7419 c93b
00000110: 90f4 5ebd 9df3 bfbd b6db 84bc 3711 3e3d
00000120: 9697 813d 6641 b8bc 6e18 52bb fb54 6d3d
00000130: 8306 b3bb e9bf abbb e50f 29bd 9b52 083d
00000140: 4a60 e0bc b177 8dbc 3d9b 2b3d 8c58 91bc
00000150: fc19 b13c 5e9a 313d 91fd 883c 94f5 59bc
00000160: 0394 79bd dcd3 4f3d e55c 143c 3217 d73a
00000170: 6e47 163d 684f fd3c 5da9 273c f0d1 553d
00000180: 5a14 8bbd 2793 3bbd a453 8cbd 91d3 95bd
00000190: a03f f2bc b371 fdbc 2df5 733c d95e a2bd
000001a0: a433 1fbd 4eed c1bd 5dd3 823d 9166 ee3d
000001b0: ce30 e3bb e0ac 60bc 76e9 06bd 9acb 2a3b
000001c0: 0568 d13c 8a0c 383d c119 e13b c4b7 4ebd
000001d0: 8a32 64bd 9187 88bd 6841 393c 33b9 ce3c
000001e0: 8a29 82bc 62fc a3bb 3100 df3d 5b50 893d
000001f0: 0907 053d 5882 8e3d ab45 ff3c 6a66 b23d
00000200: 437d 66bd 497d a6bd bbea 04bc 71ba 5b3d
00000210: 840d acbc bf45 cabc 1d4a 1e3d 12d2 cf3b
00000220: 4136 f5bc f094 dbbc c651 b1bd fcf2 033c
00000230: bdc5 acbb bece 033c 0a03 9dbc d3ac d4bb
00000240: 7e51 13bd e6f9 59bd 71e8 43bd 2842 ab3a
00000250: 418c c3bc c570 8e3c 0160 6d3c bc04 d8ba
00000260: ae8b 1fbd 5a15 183c 84d5 54bb 7040 b63c
00000270: b096 3eba cf30 09bd 272c b2bc 5c28 053c
00000280: a00c e63a 1604 683c 4842 74bc 041c 54bc
00000290: 1df5 413c 18c6 873d e199 ce3b 6f6c 1abc
000002a0: 685b 2cbd 7008 d33d bc5b e93c a20b 963a
000002b0: 06ae c03c 64f3 67bc f9d7 2b3d d4ab 873c
000002c0: 30fe 7cbd e9f5 53bd c69f 2b3b a1f7 ca3d
000002d0: 94bc a63d e148 cc3d 7778 a1bb 0a93 6b3c
000002e0: 196b 563d 581a 7a3c 8140 15be 2120 f4bc
000002f0: 59c4 e8bd 7018 0bbe 9161 af3c 8195 d9bd
00000300: cca1 5e3c 07c8 8d3c ca4d 94ba edf4 12bd
00000310: 4607 edbc e23d 1dbd c763 383c 7cf4 33bc
00000320: a164 34bd 8598 613a 0108 973d 5e60 d33d
00000330: 904c 1b3d 23a1 bf3c 2f1a 6f3d 5d19 f43d
00000340: 94c7 043d 2503 c13c 916d 9d3b 31e2 d53c
00000350: bfcb 2dbd 38c8 82bc c377 513c f665 743c
00000360: 564d 803d a228 c0bd 39d3 6abc db7e ff3c
00000370: 5326 6ebd 40b5 c8bd 7d20 0c3c b27f 5abc
00000380: a9be 7b3d c865 d33b ebff c4bc 2ba9 743b
00000390: ec51 10bd dc4f e7bc 61d8 01bd 610c 12bc
000003a0: 8c95 2c3d d62a abbd 6a84 173d d343 783d
000003b0: f83e 8dbd 1813 5ebd 5bc2 78bc 0d9c 413c
000003c0: 949d b73c 072f 81bc 3b60 69bc 618d b2bb
000003d0: f833 32bd 46ff aabc 55bf 87bb fb82 133c
000003e0: b2cd d6bc ce12 d73c 2172 f73b e904 4d3d
000003f0: a8b8 913d ba5a db3c 66cb 93bc c489 923d

model.qy_x.model.tcn_block_00.downsample.bias f4 [32]
0.21774691 -0.120087504 -0.09067843 -0.012683501 0.14536321 0.009323683 -0.2684645 0.45786732
0.10102055 0.015719868 0.1011306 0.06705648 0.38188252 -0.22442313 -0.103092745 0.29002872
0.46734613 -0.18284905 -0.010055067 0.1500951 0.1760452 0.15536493 0.203278 0.37962234
0.24056433 -0.13001746 0.071610756 -0.13209414 0.042809535 -0.10885441 0.24114284 0.3649359
00000000: 0cf9 5e3e 70f0 f5bd 9db5 b9bd 75ce 4fbc
00000010: 18da 143e 5cc2 183c 2e74 89be 966d ea3e
00000020: dde3 ce3d f4c6 803c 8f1d cf3d e854 893d
00000030: 1b86 c33e 2dcf 65be 4a22 d3bd a57e 943e
00000040: fe47 ef3e c83c 3bbe 02be 24bc 88b2 193e
00000050: 3145 343e fc17 1f3e 1c28 503e dc5d c23e
00000060: 7f56 763e 4c23 05be a9a8 923d b043 07be
00000070: 0d59 2f3d 10ef debd 26ee 763e e1d8 ba3e

model.qy_x.model.tcn_block_01.conv0.bias f4 [32]
0.12919566 0.12163697 0.018700615 0.11991988 0.02036015 0.034623686 0.118687436 -0.036879547
-0.077167094 0.008207983 0.05654528 -0.026223492 -0.20550838 -0.13097556 0.10598418 0.04048544
-0.043498058 -0.041956123 -0.005419568 0.007544399 -0.07664914 -0.009138433 -0.056756977 0.044073913
0.032498512 -0.030880291 -0.008401434 -0.07640736 -0.05297378 0.025884347 -0.012849605 0.0011947736
00000000: de4b 043e ce1c f93d 0832 993c 8e98 f53d
00000010: 54ca a63c 91d1 0d3d 6612 f33d 020f 17bd
00000020: c809 9ebd c77a 063c 069c 673d a6d2 d6bc
00000030: ca70 52be 751e 06be 3c0e d93d 10d4 253d
00000040: 052b 32bd 2fda 2bbd a296 b1bb 0137 f73b
00000050: 39fa 9cbd 5eb9 15bc 017a 68bd d986 343d
00000060: 291d 053d aaf8 fcbc 2ba6 09bc 767b 9cbd
00000070: 09fb 58bd 690b d43c 2687 52bc f399 9c3a

model.qy_x.model.tcn_block_01.conv0.weight_g f4 [32, 1, 1]
0.55688745 0.56588954 0.662197 0.60028106 0.59089077 0.6422208 0.5682298 0.63539284
0.64154214 0.6130429 0.56757224 0.642266 0.6681519 0.6331488 0.5720112 0.5699762
0.58641154 0.62330514 0.6544392 0.64904964 0.58025163 0.63821465 0.5949223 0.5959569
0.5903496 0.5806613 0.59720695 0.6895479 0.6441916 0.60008734 0.55703604 0.60891956
00000000: 2d90 0e3f 23de 103f be85 293f 05ac 193f
00000010: 9e44 173f 9568 243f 8277 113f 1ba9 223f
00000020: 1b3c 243f 61f0 1c3f 6a4c 113f 8b6b 243f
00000030: 010c 2b3f 0a16 223f 536f 123f f6e9 113f
00000040: 111f 163f ed90 1f3f 5489 273f 1e28 263f
00000050: 5f8b 143f 0962 233f d44c 183f a290 183f
00000060: 2721 173f 38a6 143f 8ee2 183f 3686 303f
00000070: bee9 243f 539f 193f ea99 0e3f 27e2 1b3f

model.qy_x.model.tcn_block_01.conv0.weight_v f4 [32, 32, 9]
-0.0126832 0.015535598 0.018389182 -0.01999572 -0.006350644 0.037024375 0.042835638 0.06186668
0.023400996 -0.027961176 -0.050099164 -0.010226951 -0.021778893 -0.013257191 -0.039422397 -0.015214532
0.03942469 -0.0029021176 -0.051303163 -0.011932249 0.0077702333 -0.012409672 -0.01926933 -0.053391293
-0.013124276 -0.06729149 -0.0701482 -0.0041710795 0.0031060188 -0.04180406 0.033920527 -0.029757269
-0.021218397 -0.025208278 -0.008195186 0.029992515 -0.023177782 -0.00070239883 -0.005677154 -0.002960313
0.050612256 0.02443364 0.004192733 0.008500741 0.04630966 -0.060321182 0.0507671 -0.046429522
0.008421389 -0.025568755 0.04601446 -0.042203292 0.025315857 -0.046292663 -0.033753276 -0.015941048
-0.053387344 -0.03438651 0.0008163334 -0.057129476 -0.06123473 -0.010919322 0.009654902 0.0032186352
-0.033156794 -0.041751392 0.0037455622 -0.0027638583 -0.047311693 0.022172086 0.062074322 0.04426132
0.035762712 -0.032274615 -0.052682977 -0.047000196 -0.009836668 -0.00397675 0.015016173 -0.0082690725
-0.034966 -0.024440011 0.008503257 -0.033730708 -0.026992444 0.029501455 0.036457974 -0.00018429314
0.041615807 -0.0074187876 0.025447525 -0.0053612916 0.0077138627 0.0028864814 -0.041851908 0.007829199
-0.07611685 -0.03173392 -0.037892006 0.026054012 0.013691043 -0.0130229695 0.052069444 -0.028014021
-0.031856578 -0.030835278 0.030285697 0.0111397095 -0.0035746451 0.07406768 -0.036462437 0.016162569
0.060252797 0.05316265 -0.029205946 -0.0051492895 0.070861675 -0.011456971 -0.024838187 0.06320967
0.06615637 0.03837985 -0.0064900895 0.054539744 -0.019117154 -0.02266499 0.019390402 -0.019198451
0.053191673 0.0835814 0.09082727 -0.0025954593 0.0386032 -0.0024899456 0.0673098 0.012315003
0.061077878 -0.021925451 -0.009157672 0.007955981 -0.049822755 0.00052163005 -0.0036117348 0.035273578
0.007942926 0.035611067 -0.04173823 0.004575303 -0.04049478 -0.033354662 0.017571835 -0.05927556
0.04011108 -0.085758045 -0.012233485 -0.031693187 0.0006778276 -0.024107236 -0.05430546 -0.065591745
-0.026414687 -0.06997688 -0.07879199 -0.04804004 -0.077412546 -0.06103238 -0.08507468 -0.07189596
-0.074731536 -0.07242535 -0.06318201 0.030066978 -0.03664433 -0.020006841 -0.008653472 -0.016287
-0.002499996 0.036797557 0.045156613 -0.014521801 0.03634608 -0.010955127 0.028099403 -0.016858745
0.0014311596 -0.04658196 -0.014277569 -0.03406527 0.016600564 0.0018472722 -0.036392756 0.026811913
-0.03608041 0.046685953 0.0042581037 0.013328574 -0.029295275 -0.056075756 0.04940653 -0.01570913
0.053939056 -0.029530333 0.0010042363 0.023547532 0.06836925 -0.009192679 0.034102723 0.04644928
-0.052338127 0.053140663 0.009397969 -0.027404474 0.002110413 0.018584395 0.026115082 -0.051986367
0.025357189 0.027668878 -0.037952308 0.014552334 0.04630219 -0.003124416 -0.022768516 -0.01780525
-0.05200428 0.051576287 0.006593862 -0.031036597 -0.00016378319 -0.024228804 0.040703807 0.06740252
-0.045802925 0.016750408 -0.02121285 -0.022649681 0.012031296 -0.030553093 0.059099946 0.017400095
0.0005968595 -0.0044495 0.047737677 -0.026838295 -0.0851294 -0.045398165 -0.06177479 -0.062157515
-0.071879596 -0.011378035 -0.053427927 0.0039763465 -0.0438617 -0.0621936 0.0007311857 -0.052046947
00000000: 32cd 4fbc 0589 7e3c e9a4 963c 10ce a3bc
00000010: 1019 d0bb dfa6 173d 6c74 2f3d ea67 7d3d
00000020: 72b3 bf3c d60e e5bc c834 4dbd f18e 27bc
00000030: a669 b2bc b034 59bc 6179 21bd 5f46 79bc
00000040: c97b 213d 7431 3ebb 4423 52bd 7b7f 43bc
00000050: 719d fe3b f051 4bbc b7da 9dbc d4b0 5abd
00000060: 3407 57bc 1fd0 89bd dca9 8fbd 8dad 88bb
00000070: 598e 4b3b bc3a 2bbd 40f0 0a3d 84c5 f3bc
00000080: 34d2 adbc 9781 cebc 1a45 06bc ddb2 f53c
00000090: 55df bdbc 3021 38ba 6b07 babb d001 42bb
000000a0: cc4e 4f3d 0f29 c83c 3263 893b b146 0b3c
000000b0: 33af 3d3d 5813 77bd 2af1 4f3d e22c 3ebd
000000c0: def9 093c 9175 d1bc a979 3c3d 5cdd 2cbd
000000d0: 3363 cf3c 609d 3dbd e040 0abd cd96 82bc
000000e0: b0ac 5abd ded8 0cbd 35ff 553a 9900 6abd
000000f0: 45d1 7abd f5e6 32bc 982f 1e3c bdef 523b
00000100: 6bcf 07bd 8203 2bbd 1b78 753b d921 35bb
00000110: e8c9 41bd 3ca2 b53c a541 7e3d 5c4b 353d
00000120: ec7b 123d 6332 04bd 1bca 57bd 4783 40bd
00000130: fa29 21bc 664f 82bb 6506 763c 017b 07bc
00000140: 8238 0fbd 6b36 c8bc 3f51 0b3c 3629 0abd
00000150: 421f ddbc 09ad f13c f554 153d d03e 41b9
00000160: 5675 2a3d 4d19 f3bb 5477 d03c c6ad afbb
00000170: 92c4 fc3b 1f2b 3d3b e86c 2bbd 0a46 003c
00000180: 27e3 9bbd 6dfb 01bd a634 1bbd 396f d53c
00000190: 6550 603c 4b5e 55bc c546 553d a97d e5bc
000001a0: 0b7c 02bd 449a fcbc b619 f83c 5483 363c
000001b0: 9844 6abb ccb0 973d a359 15bd 5d67 843c
000001c0: a3cb 763d 14c1 593d 4f41 efbc 5fbb a8bb
000001d0: ed1f 913d 05b6 3bbc 7479 cbbc 1274 813d
000001e0: fe7c 873d 3134 1d3d d1aa d4bb 1165 5f3d
000001f0: 949b 9cbc eeab b9bc 9fd8 9e3c 1246 9dbc
00000200: 83df 593d ba2c ab3d a603 ba3d 9518 2abb
00000210: 641e 1e3d 5b2e 23bb b8d9 893d dec4 493c
00000220: cc2c 7a3d 019d b3bc 0f0a 16bc ce59 023c
00000230: f212 4cbd 00be 083a dbb2 6cbb 077b 103d
00000240: 0c23 023c e9dc 113d b5f5 2abd 6cec 953b
00000250: dbdd 25bd e69e 08bd cff2 8f3c eeca 72bd
00000260: 844b 243d eaa1 afbd f46e 48bc b7d0 01bd
00000270: 3db0 313a 8a7c c5bc 676f 5ebd f754 86bd
00000280: 9d63 d8bc 0a50 8fbd b25d a1bd a2c5 44bd
00000290: 788a 9ebd 17fd 79bd a23b aebd 303e 93bd
000002a0: d90c 99bd be53 94bd 9265 81bd 064f f63c
000002b0: 5d18 16bd 63e5 a3bc 4bc7 0dbc 516c 85bc
000002c0: f9d6 23bb 09b9 163d 24f6 383d d9ec 6dbc
000002d0: a1df 143d 227d 33bc b830 e63c 5a1b 8abc
000002e0: bf95 bb3a bacc 3ebd 77ec 69bc 0688 0bbd
000002f0: e8fd 873c 2b20 f23a 9210 15bd a8a4 db3c
00000300: 0dc9 13bd c539 3f3d 9087 8b3b 1760 5a3c
00000310: a5fc efbc b1af 65bd 805e 4a3d 6fb0 80bc
00000320: 33ef 5c3d 99e9 f1bc 94a0 833a c1e6 c03c
00000330: 2d05 8c3d e49c 16bc 4caf 0b3d 9a41 3e3d
00000340: 8160 56bd 06aa 593d f0f9 193c 597f e0bc
00000350: db4e 0a3b 4d3e 983c 4cef d53c a8ef 54bd
00000360: e1b9 cf3c d8a9 e23c e173 1bbd ea6c 6e3c
00000370: 5da7 3d3d 01c3 4cbb 0a85 babc 51dc 91bc
00000380: 7102 55bd a841 533d 5311 d83b 7640 febc
00000390: 37bd 2bb9 7c7b c6bc 09b9 263d 550a 8a3d
000003a0: d99b 3bbd 2738 893c 92c6 adbc d38b b9bc
000003b0: ea1e 453c 7b4a fabc c912 723d a58a 8e3c
000003c0: 9076 1c3a 1ccd 91bb 9588 433d fcdb dbbc
000003d0: 5358 aebd 6df3 39bd 9007 7dbd e198 7ebd
000003e0: 9c35 93bd f06a 3abc 3ed7 5abd 034c 823b
000003f0: 53a8 33bd b7be 7ebd 0bad 3f3a 2e2f 55bd

model.qy_x.model.tcn_block_01.conv1.bias f4 [7]
-0.050704613 0.03853671 0.08281702 0.03859755 0.0005514626 -0.089048095 0.065698884
00000000: a4af 4fbd abd8 1d3d f89b a93d 7718 1e3d
00000010: 0790 103a d95e b6bd 238d 863d

model.qy_x.model.tcn_block_01.conv1.weight_g f4 [7, 1, 1]
0.56345195 0.608314 0.61120796 0.64401925 0.6160266 0.7164367 0.6234329
00000000: 633e 103f 77ba 1b3f 2078 1c3f 72de 243f
00000010: ebb3 1d3f 6568 373f 4c99 1f3f
