results_gmdgm/ssm_v1/dtcn/kl_v13/version_0/best_val_model.pt (torch, 34951 bytes, 120 tensors)

model.qy_x.dense(qy_x)_layer_00.weight f4 [4, 10]
-0.005774967 0.24535522 -0.15109898 0.017069422 -0.14216813 -0.07626242 0.03900023 0.09306264
-0.03732886 0.0339858 -0.007574373 0.24655896 -0.15105782 0.016525112 -0.13348363 -0.09031388
0.052421845 0.07809013 -0.03518415 0.021539893 0.012655884 0.26473486 -0.15045217 0.016538957
-0.037668552 -0.06525177 0.16387333 0.021335464 -0.06166954 0.0040323893 -0.018909603 0.2290424
-0.15189543 0.016069416 -0.23199974 -0.13329571 -0.03616662 0.11117364 -0.0024564397 0.04777818
00000000: ef3b bdbb 663e 7b3e b1b9 1abe 2cd5 8b3c
00000010: 8694 11be 792f 9cbd b5be 1f3d a097 be3d
00000020: 26e6 18bd b234 0b3d 7232 f8bb f479 7c3e
00000030: e7ae 1abe ac5f 873c efaf 08be 7cf6 b8bd
00000040: 4ab8 563d b8ed 9f3d 411d 10bd 6e74 b03c
00000050: a05a 4f3c 548b 873e 2210 1abe b57c 873c
00000060: 574a 1abd b8a2 85bd 69ce 273e b6c7 ae3c
00000070: 3399 7cbd 2222 843b 50e8 9abc 178a 6a3e
00000080: 7a8a 1bbe 02a4 833c 5791 6dbe ac7e 08be
00000090: 7323 14bd 01af e33d 38fc 20bb 0eb3 433d

model.qy_x.dense(qy_x)_layer_00.bias f4 [4]
-0.10769942 -0.10788504 -0.1088552 -0.10658919
00000000: 8391 dcbd d5f2 dcbd 7aef debd 6f4b dabd

model.encoder.model.tcn_block_00.conv0.bias f4 [2]
-0.41692135 -0.018857107
00000000: b776 d5be 387a 9abc

model.encoder.model.tcn_block_00.conv0.weight_g f4 [2, 1, 1]
0.9647993 0.6082028
00000000: 16fd 763f 2eb3 1b3f

model.encoder.model.tcn_block_00.conv0.weight_v f4 [2, 14, 9]
-0.20305656 -0.13181712 -0.038685706 0.023650927 0.039514296 0.08731921 0.11657177 0.13407576
0.1415084 0.19757994 0.12053244 0.028335014 -0.0041634925 -0.059301425 -0.09891487 -0.095949516
-0.10583111 -0.11644534 0.20453967 0.10406639 0.052239638 -0.010454027 0.004655114 -0.063705824
-0.042000815 -0.084196776 -0.14681949 -0.14779209 0.009007273 -0.0061439006 0.00511441 0.012630795
-0.0019254994 -0.079456285 0.054434944 0.015402751 -0.04062279 0.033789326 0.021853289 -0.05789653
0.013147587 0.0019588799 0.009697265 -0.02159724 -0.0054787425 -0.16997382 -0.06989984 -0.018738698
0.033956904 0.056957517 0.049447488 0.07552326 0.10764751 0.0991261 0.057475887 0.04677585
0.08009126 0.03519952 -0.031885903 -0.043605022 -0.08075692 -0.037734654 -0.06200676 0.13995115
0.110900864 0.050167993 -0.016050512 -0.008236407 -0.08990088 -0.06013468 -0.08423274 -0.1563403
-0.1902459 -0.12506914 -0.037390366 0.007570618 0.025575833 0.083909206 0.07757924 0.13102734
0.14671403 0.06427071 0.036005616 -0.0014938761 -0.009795333 -0.043140694 -0.034510054 -0.022269547
-0.06153834 -0.047078677 -0.053403407 -0.07777881 -0.07392117 -0.07798833 -0.068211496 -0.056623276
-0.053566135 -0.056077737 -0.053382657 -0.07717659 -0.10619296 -0.09090781 -0.054135 -0.07457888
-0.09168745 -0.10120768 -0.107718505 -0.104321174 -0.08189136 -0.05828148 -0.05841434 -0.108495094
-0.056025457 -0.10165724 -0.08183761 -0.088703096 -0.08087274 -0.08134314 -0.10616158 -0.10482916
-0.079934515 -0.07427234 -0.09001732 -0.062407047 -0.10579098 -0.076779835 0.07375853 -0.046856914
0.06706848 0.023493007 -0.08459036 0.0033231864 -0.05929778 -0.097730465 -0.050026495 -0.0591166
0.03248394 -0.021452356 0.040179536 0.027399844 0.07098931 0.07666645 0.0777852 0.090662286
-0.0072060507 0.07037271 0.004488713 0.01675647 -0.02404079 0.08049286 0.007426058 0.07551031
0.054385338 0.022742119 -0.07300627 0.030891841 0.00475221 0.032821063 -0.04443401 -0.046266768
-0.079947025 -0.009519262 -0.06744444 0.03911955 0.003433034 -0.0146514615 -0.004696012 -0.001251573
0.03730124 0.03030285 0.05762721 0.030193845 -0.050908957 -0.025427625 0.07569545 -0.061048325
-0.025444282 0.0072170105 -0.06712295 -0.096633956 -0.039733887 0.07226574 -0.022506317 0.0040196152
-0.0071553364 -0.003940318 -0.0073341103 0.046047468 -0.016417706 0.089218006 0.071988225 -0.023147581
0.06402365 -0.018484551 0.026393779 0.06732877 0.068330504 0.10427843 -0.044097457 -0.043292735
0.00797741 -0.0878031 0.018575251 -0.12637721 -0.045539435 -0.06952045 -0.10074593 -0.028825104
0.04008689 -0.038282093 -0.050519504 -0.0115428 -0.03635374 0.078319564 0.044427447 0.057704695
0.004525654 0.18606737 0.18531929 0.188489 0.18093206 0.09279207 0.10812223 0.17817733
0.18904254 0.17717962 0.043564804 0.044654682 -0.10998269 0.17423911 0.010575455 -0.09955799
0.18970792 -0.023491876 0.14113809 0.17794308 0.15954442 -0.032824155 -0.07833368 0.1888237
0.17057644 0.18915597 0.092707515 0.17800531 0.11964291 0.15049791 -0.009192663 0.17985323
0.17897908 0.1533819 0.12054465 -0.012076036
00000000: 0fee 4fbe 11fb 06be e774 1ebd 97bf c13c
00000010: bed9 213d 6ad4 b23d 2ebd ee3d 284b 093e
00000020: 94e7 103e 6552 4a3e b6d9 f63d d51e e83c
00000030: e86d 88bb 0de6 72bd e193 cabd 2e81 c4bd
00000040: fbbd d8bd e57a eebd d972 513e c220 d53d
00000050: 3bf9 553d 5e47 2bbc ed89 983b 3378 82bd
00000060: 0c09 2cbd 5c6f acbd d957 16be cf56 17be
00000070: 3e93 133c c652 c9bb c896 a73b 65f1 4e3c
00000080: 0a61 fcba fab9 a2bd 2df7 5e3d d25b 7c3c
00000090: 1564 26bd ad66 0a3d ab05 b33c e924 6dbd
000000a0: fa68 573c 8d60 003b 47e1 1e3c b2ec b0bc
000000b0: 0687 b3bb 9e0d 2ebe a627 8fbd e681 99bc
000000c0: 6516 0b3d 494c 693d 7389 4a3d f0ab 9a3d
000000d0: 4c76 dc3d a002 cb3d d66b 6b3d 0998 3f3d
000000e0: e306 a43d 5f2d 103d cb9a 02bd 2e9b 32bd
000000f0: e263 a5bd a78f 1abd cdfa 7dbd 5b4f 0f3e
00000100: fe1f e33d f47c 4d3d 5d7c 83bc fff1 06bc
00000110: f41d b8bd c84f 76bd 3782 acbd ac17 20be
00000120: d2cf 42be 2012 00be a426 19bd f212 f83b
00000130: 6984 d13c 97d8 ab3d dde1 9e3d 082c 063e
00000140: 343c 163e 5da0 833d a07a 133d 2ace c3ba
00000150: 9b7c 20bc 4cb4 30bd 6a5a 0dbd a06e b6bc
00000160: a00f 7cbd 92d5 40bd 88bd 5abd 7f4a 9fbd
00000170: fb63 97bd 58b8 9fbd 78b2 8bbd cfed 67bd
00000180: 2a68 5bbd c5b1 65bd c6a7 5abd c30e 9ebd
00000190: b27b d9bd e02d babd a9bc 5dbd d0bc 98bd
000001a0: a1c6 bbbd f945 cfbd 859b dcbd 57a6 d5bd
000001b0: a8b6 a7bd 90b8 6ebd e043 6fbd ad32 debd
000001c0: f37a 65bd ac31 d0bd 7a9a a7bd f8a9 b5bd
000001d0: 9ba0 a5bd 3b97 a6bd 3e6b d9bd acb0 d6bd
000001e0: b5b4 a3bd 191c 98bd 005b b8bd 889e 7fbd
000001f0: f1a8 d8bd bf3e 9dbd b60e 973d 09ed 3fbd
00000200: 335b 893d 6874 c03c b63d adbd d1c9 593b
00000210: 3be2 72bd e926 c8bd 95e8 4cbd 3f24 72bd
00000220: e10d 053d dabc afbc 4c93 243d a375 e03c
00000230: d862 913d 4d03 9d3d d94d 9f3d 26ad b93d
00000240: bc20 ecbb 911f 903d 0e16 933b dd44 893c
00000250: 31f1 c4bc 71d9 a43d 4a56 f33b 26a5 9a3d
00000260: 29c3 5e3d ae4d ba3c 5084 95bd e310 fd3c
00000270: 6db8 9b3b 616f 063d 7000 36bd 3982 3dbd
00000280: 44bb a3bd aef6 1bbc 5020 8abd d23b 203d
00000290: c1fc 603b af0c 70bc 01e1 99bb d20b a4ba
000002a0: 2fc9 183d af3d f83c 820a 6c3d 1559 f73c
000002b0: e985 50bd 984d d0bc 3706 9b3d cf0d 7abd
000002c0: 8770 d0bc ac7c ec3b c277 89bd 06e8 c5bd
000002d0: 00c0 22bd 0f00 943d 2b5f b8bc fab6 833b
000002e0: 5077 eabb c81d 81bb fa52 f0bb 459c 3c3d
000002f0: 6d7e 86bc eeb7 b63d 906e 933d ff9f bdbc
00000300: d51e 833d ea6c 97bc c437 d83c abe3 893d
00000310: ddf0 8b3d ee8f d53d 899f 34bd b953 31bd
00000320: afb3 023c 1dd2 b3bd 202b 983c 0769 01be
00000330: 8f87 3abd bd60 8ebd e253 cebd a022 ecbc
00000340: 2732 243d afcd 1cbd 8aed 4ebd 031e 3dbc
00000350: a9e7 14bd 0266 a03d 8ef9 353d c25b 6c3d
00000360: f04b 943b 7288 3e3e 57c4 3d3e 4303 413e
00000370: 4146 393e c509 be3d 306f dd3d 1e74 363e
00000380: 5e94 413e 936e 353e 0271 323d d4e7 363d
00000390: 9b3e e1bd bd6b 323e ac44 2d3c 0fe5 cbbd
000003a0: cb42 423e 0972 c0bc 8186 103e b636 363e
000003b0: 9d5f 233e 9f72 06bd 696d a0bd 005b 413e
000003c0: 97ab 2e3e 1ab2 413e 70dd bd3d 0647 363e
000003d0: 5807 f53d 201c 1a3e d39c 16bc 722b 383e
000003e0: 4b46 373e 2510 1d3e 1de0 f63d 91da 45bc

model.encoder.model.tcn_block_00.conv1.bias f4 [2]
0.05347336 0.59719175
00000000: e206 5b3d 8fe1 183f

model.encoder.model.tcn_block_00.conv1.weight_g f4 [2, 1, 1]
0.40463427 0.71082115
00000000: 392c cf3e 60f8 353f

model.encoder.model.tcn_block_00.conv1.weight_v f4 [2, 2, 9]
0.12589084 -0.13937081 -0.15110773 0.04935299 -0.16077653 0.08142686 0.059332434 -0.20607838
0.015846213 0.1468522 0.11677157 -0.02491796 -0.2027499 -0.05402982 0.03771248 -0.116000384
0.02421458 0.0741609 -0.23563936 -0.22266845 -0.22258078 -0.21520354 -0.21321121 -0.20516461
-0.22092032 -0.19901852 -0.03901989 0.020657234 0.04001166 0.03357976 0.06280504 -0.054781802
-0.115247115 -0.1231813 0.16484459 0.12682828
00000000: 87e9 003e 39b7 0ebe fcbb 1abe 5c26 4a3d
00000010: 9aa2 24be 20c3 a63d 9106 733d 3606 53be
00000020: ebcf 813c 6c60 163e ef25 ef3d c020 ccbc
00000030: ab9d 4fbe 5f4e 5dbd 6778 1a3d 9c91 edbd
00000040: a85d c63c ace1 973d 724b 71be 3303 64be
00000050: 37ec 63be 515e 5cbe 0a54 5abe ac16 52be
00000060: f038 62be 83cb 4bbe 52d3 1fbd 5c39 a93c
00000070: 44e3 233d ee8a 093d ee9f 803d e262 60bd
00000080: ae06 ecbd 7a46 fcbd 05cd 283e 46df 013e

model.encoder.model.tcn_block_00.block.conv1d_layer_0.bias f4 [2]
-0.41692135 -0.018857107
00000000: b776 d5be 387a 9abc

model.encoder.model.tcn_block_00.block.conv1d_layer_0.weight_g f4 [2, 1, 1]
0.9647993 0.6082028
00000000: 16fd 763f 2eb3 1b3f

model.encoder.model.tcn_block_00.block.conv1d_layer_0.weight_v f4 [2, 14, 9]
-0.20305656 -0.13181712 -0.038685706 0.023650927 0.039514296 0.08731921 0.11657177 0.13407576
0.1415084 0.19757994 0.12053244 0.028335014 -0.0041634925 -0.059301425 -0.09891487 -0.095949516
-0.10583111 -0.11644534 0.20453967 0.10406639 0.052239638 -0.010454027 0.004655114 -0.063705824
-0.042000815 -0.084196776 -0.14681949 -0.14779209 0.009007273 -0.0061439006 0.00511441 0.012630795
-0.0019254994 -0.079456285 0.054434944 0.015402751 -0.04062279 0.033789326 0.021853289 -0.05789653
0.013147587 0.0019588799 0.009697265 -0.02159724 -0.0054787425 -0.16997382 -0.06989984 -0.018738698
0.033956904 0.056957517 0.049447488 0.07552326 0.10764751 0.0991261 0.057475887 0.04677585
0.08009126 0.03519952 -0.031885903 -0.043605022 -0.08075692 -0.037734654 -0.06200676 0.13995115
0.110900864 0.050167993 -0.016050512 -0.008236407 -0.08990088 -0.06013468 -0.08423274 -0.1563403
-0.1902459 -0.12506914 -0.037390366 0.007570618 0.025575833 0.083909206 0.07757924 0.13102734
0.14671403 0.06427071 0.036005616 -0.0014938761 -0.009795333 -0.043140694 -0.034510054 -0.022269547
-0.06153834 -0.047078677 -0.053403407 -0.07777881 -0.07392117 -0.07798833 -0.068211496 -0.056623276
-0.053566135 -0.056077737 -0.053382657 -0.07717659 -0.10619296 -0.09090781 -0.054135 -0.07457888
-0.09168745 -0.10120768 -0.107718505 -0.104321174 -0.08189136 -0.05828148 -0.05841434 -0.108495094
-0.056025457 -0.10165724 -0.08183761 -0.088703096 -0.08087274 -0.08134314 -0.10616158 -0.10482916
-0.079934515 -0.07427234 -0.09001732 -0.062407047 -0.10579098 -0.076779835 0.07375853 -0.046856914
0.06706848 0.023493007 -0.08459036 0.0033231864 -0.05929778 -0.097730465 -0.050026495 -0.0591166
0.03248394 -0.021452356 0.040179536 0.027399844 0.07098931 0.07666645 0.0777852 0.090662286
-0.0072060507 0.07037271 0.004488713 0.01675647 -0.02404079 0.08049286 0.007426058 0.07551031
0.054385338 0.022742119 -0.07300627 0.030891841 0.00475221 0.032821063 -0.04443401 -0.046266768
-0.079947025 -0.009519262 -0.06744444 0.03911955 0.003433034 -0.0146514615 -0.004696012 -0.001251573
0.03730124 0.03030285 0.05762721 0.030193845 -0.050908957 -0.025427625 0.07569545 -0.061048325
-0.025444282 0.0072170105 -0.06712295 -0.096633956 -0.039733887 0.07226574 -0.022506317 0.0040196152
-0.0071553364 -0.003940318 -0.0073341103 0.046047468 -0.016417706 0.089218006 0.071988225 -0.023147581
0.06402365 -0.018484551 0.026393779 0.06732877 0.068330504 0.10427843 -0.044097457 -0.043292735
0.00797741 -0.0878031 0.018575251 -0.12637721 -0.045539435 -0.06952045 -0.10074593 -0.028825104
0.04008689 -0.038282093 -0.050519504 -0.0115428 -0.03635374 0.078319564 0.044427447 0.057704695
0.004525654 0.18606737 0.18531929 0.188489 0.18093206 0.09279207 0.10812223 0.17817733
0.18904254 0.17717962 0.043564804 0.044654682 -0.10998269 0.17423911 0.010575455 -0.09955799
0.18970792 -0.023491876 0.14113809 0.17794308 0.15954442 -0.032824155 -0.07833368 0.1888237
0.17057644 0.18915597 0.092707515 0.17800531 0.11964291 0.15049791 -0.009192663 0.17985323
0.17897908 0.1533819 0.12054465 -0.012076036
00000000: 0fee 4fbe 11fb 06be e774 1ebd 97bf c13c
00000010: bed9 213d 6ad4 b23d 2ebd ee3d 284b 093e
00000020: 94e7 103e 6552 4a3e b6d9 f63d d51e e83c
00000030: e86d 88bb 0de6 72bd e193 cabd 2e81 c4bd
00000040: fbbd d8bd e57a eebd d972 513e c220 d53d
00000050: 3bf9 553d 5e47 2bbc ed89 983b 3378 82bd
00000060: 0c09 2cbd 5c6f acbd d957 16be cf56 17be
00000070: 3e93 133c c652 c9bb c896 a73b 65f1 4e3c
00000080: 0a61 fcba fab9 a2bd 2df7 5e3d d25b 7c3c
00000090: 1564 26bd ad66 0a3d ab05 b33c e924 6dbd
000000a0: fa68 573c 8d60 003b 47e1 1e3c b2ec b0bc
000000b0: 0687 b3bb 9e0d 2ebe a627 8fbd e681 99bc
000000c0: 6516 0b3d 494c 693d 7389 4a3d f0ab 9a3d
000000d0: 4c76 dc3d a002 cb3d d66b 6b3d 0998 3f3d
000000e0: e306 a43d 5f2d 103d cb9a 02bd 2e9b 32bd
000000f0: e263 a5bd a78f 1abd cdfa 7dbd 5b4f 0f3e
00000100: fe1f e33d f47c 4d3d 5d7c 83bc fff1 06bc
00000110: f41d b8bd c84f 76bd 3782 acbd ac17 20be
00000120: d2cf 42be 2012 00be a426 19bd f212 f83b
00000130: 6984 d13c 97d8 ab3d dde1 9e3d 082c 063e
00000140: 343c 163e 5da0 833d a07a 133d 2ace c3ba
00000150: 9b7c 20bc 4cb4 30bd 6a5a 0dbd a06e b6bc
00000160: a00f 7cbd 92d5 40bd 88bd 5abd 7f4a 9fbd
00000170: fb63 97bd 58b8 9fbd 78b2 8bbd cfed 67bd
00000180: 2a68 5bbd c5b1 65bd c6a7 5abd c30e 9ebd
00000190: b27b d9bd e02d babd a9bc 5dbd d0bc 98bd
000001a0: a1c6 bbbd f945 cfbd 859b dcbd 57a6 d5bd
000001b0: a8b6 a7bd 90b8 6ebd e043 6fbd ad32 debd
000001c0: f37a 65bd ac31 d0bd 7a9a a7bd f8a9 b5bd
000001d0: 9ba0 a5bd 3b97 a6bd 3e6b d9bd acb0 d6bd
000001e0: b5b4 a3bd 191c 98bd 005b b8bd 889e 7fbd
000001f0: f1a8 d8bd bf3e 9dbd b60e 973d 09ed 3fbd
00000200: 335b 893d 6874 c03c b63d adbd d1c9 593b
00000210: 3be2 72bd e926 c8bd 95e8 4cbd 3f24 72bd
00000220: e10d 053d dabc afbc 4c93 243d a375 e03c
00000230: d862 913d 4d03 9d3d d94d 9f3d 26ad b93d
00000240: bc20 ecbb 911f 903d 0e16 933b dd44 893c
00000250: 31f1 c4bc 71d9 a43d 4a56 f33b 26a5 9a3d
00000260: 29c3 5e3d ae4d ba3c 5084 95bd e310 fd3c
00000270: 6db8 9b3b 616f 063d 7000 36bd 3982 3dbd
00000280: 44bb a3bd aef6 1bbc 5020 8abd d23b 203d
00000290: c1fc 603b af0c 70bc 01e1 99bb d20b a4ba
000002a0: 2fc9 183d af3d f83c 820a 6c3d 1559 f73c
000002b0: e985 50bd 984d d0bc 3706 9b3d cf0d 7abd
000002c0: 8770 d0bc ac7c ec3b c277 89bd 06e8 c5bd
000002d0: 00c0 22bd 0f00 943d 2b5f b8bc fab6 833b
000002e0: 5077 eabb c81d 81bb fa52 f0bb 459c 3c3d
000002f0: 6d7e 86bc eeb7 b63d 906e 933d ff9f bdbc
00000300: d51e 833d ea6c 97bc c437 d83c abe3 893d
00000310: ddf0 8b3d ee8f d53d 899f 34bd b953 31bd
00000320: afb3 023c 1dd2 b3bd 202b 983c 0769 01be
00000330: 8f87 3abd bd60 8ebd e253 cebd a022 ecbc
00000340: 2732 243d afcd 1cbd 8aed 4ebd 031e 3dbc
00000350: a9e7 14bd 0266 a03d 8ef9 353d c25b 6c3d
00000360: f04b 943b 7288 3e3e 57c4 3d3e 4303 413e
00000370: 4146 393e c509 be3d 306f dd3d 1e74 363e
00000380: 5e94 413e 936e 353e 0271 323d d4e7 363d
00000390: 9b3e e1bd bd6b 323e ac44 2d3c 0fe5 cbbd
000003a0: cb42 423e 0972 c0bc 8186 103e b636 363e
000003b0: 9d5f 233e 9f72 06bd 696d a0bd 005b 413e
000003c0: 97ab 2e3e 1ab2 413e 70dd bd3d 0647 363e
000003d0: 5807 f53d 201c 1a3e d39c 16bc 722b 383e
000003e0: 4b46 373e 2510 1d3e 1de0 f63d 91da 45bc

model.encoder.model.tcn_block_00.block.conv1d_layer_1.bias f4 [2]
0.05347336 0.59719175
00000000: e206 5b3d 8fe1 183f

model.encoder.model.tcn_block_00.block.conv1d_layer_1.weight_g f4 [2, 1, 1]
0.40463427 0.71082115
00000000: 392c cf3e 60f8 353f

model.encoder.model.tcn_block_00.block.conv1d_layer_1.weight_v f4 [2, 2, 9]
0.12589084 -0.13937081 -0.15110773 0.04935299 -0.16077653 0.08142686 0.059332434 -0.20607838
0.015846213 0.1468522 0.11677157 -0.02491796 -0.2027499 -0.05402982 0.03771248 -0.116000384
0.02421458 0.0741609 -0.23563936 -0.22266845 -0.22258078 -0.21520354 -0.21321121 -0.20516461
-0.22092032 -0.19901852 -0.03901989 0.020657234 0.04001166 0.03357976 0.06280504 -0.054781802
-0.115247115 -0.1231813 0.16484459 0.12682828
00000000: 87e9 003e 39b7 0ebe fcbb 1abe 5c26 4a3d
00000010: 9aa2 24be 20c3 a63d 9106 733d 3606 53be
00000020: ebcf 813c 6c60 163e ef25 ef3d c020 ccbc
00000030: ab9d 4fbe 5f4e 5dbd 6778 1a3d 9c91 edbd
00000040: a85d c63c ace1 973d 724b 71be 3303 64be
00000050: 37ec 63be 515e 5cbe 0a54 5abe ac16 52be
00000060: f038 62be 83cb 4bbe 52d3 1fbd 5c39 a93c
00000070: 44e3 233d ee8a 093d ee9f 803d e262 60bd
00000080: ae06 ecbd 7a46 fcbd 05cd 283e 46df 013e

model.encoder.model.tcn_block_00.downsample.weight f4 [2, 14, 1]
-0.21575907 0.1448467 0.19365722 0.059318915 -0.14893731 -0.11058844 0.29251987 0.3448502
-0.28956828 -0.020783847 1.3933022 1.4171746 1.3804852 1.4100415 0.34878236 -0.38027042
-0.108239256 0.56420034 -0.60766727 0.4549538 0.56185687 0.022105625 0.08165091 -0.5749309
1.3880339 1.4054172 1.3709717 1.3979781
00000000: f2ef 5cbe b152 143e 144e 463e 64f8 723d
00000010: 0683 18be 317c e2bd 2ac5 953e 3590 b03e
00000020: 4b42 94be e342 aabc ba57 b23f fa65 b53f
00000030: bdb3 b03f 3d7c b43f 9a93 b23e ceb2 c2be
00000040: 8bac ddbd 6f6f 103f 1590 1bbf b4ef e83e
00000050: dad5 0f3f db16 b53c 9838 a73d ac2e 13bf
00000060: 18ab b13f b6e4 b33f 007c af3f f2f0 b23f

model.encoder.model.tcn_block_00.downsample.bias f4 [2]
1.5514137 1.6427499
00000000: b994 c63f a145 d23f

model.encoder.model.tcn_block_01.conv0.bias f4 [2]
0.19504459 0.540194
00000000: c5b9 473e 274a 0a3f

model.encoder.model.tcn_block_01.conv0.weight_g f4 [2, 1, 1]
0.63493353 0.8356333
00000000: 018b 223f 10ec 553f

model.encoder.model.tcn_block_01.conv0.weight_v f4 [2, 2, 9]
0.3241315 0.3119833 0.109720886 0.11271513 -0.19766705 -0.060256984 -0.18064709 -0.28370693
-0.2681933 -0.12556098 -0.15424082 -0.02294048 0.04517778 -0.08111486 0.042751476 0.09630852
0.13542035 -0.057156526 0.318024 0.14843552 -0.03596994 0.076068774 0.16837697 0.06057462
-0.14207205 -0.1780309 -0.3316391 0.078042135 -0.10093026 -0.14763695 0.0069375904 0.0971133
-0.18840688 0.14115326 0.021302199 -0.18173562
00000000: 90f4 a53e 46bc 9f3e 58b5 e03d 31d7 e63d
00000010: 3b69 4abe 07d0 76bd 8dfb 38be 0942 91be
00000020: a250 89be 0f93 00be 4ef1 1dbe aced bbbc
00000030: 560c 393d 8c1f a6bd 2c1c 2f3d 673d c53d
00000040: a2ab 0a3e f61c 6abd 0bd4 a23e 7bff 173e
00000050: 3755 13bd f2c9 9b3d 036b 2c3e 181d 783d
00000060: 567b 11be bb4d 36be 9acc a9be 8ed4 9f3d
00000070: 86b4 cebd 242e 17be ba54 e33b 56e3 c63d
00000080: bced 40be 7b8a 103e f381 ae3c e718 3abe

model.encoder.model.tcn_block_01.conv1.bias f4 [2]
0.033121172 0.110523194
00000000: 11aa 073d fc59 e23d

model.encoder.model.tcn_block_01.conv1.weight_g f4 [2, 1, 1]
0.36240694 0.8320688
00000000: 678d b93e 7602 553f

model.encoder.model.tcn_block_01.conv1.weight_v f4 [2, 2, 9]
-0.121670686 -0.006058476 0.13949955 -0.18310045 0.16257706 0.13334379 0.15097709 -0.17646973
0.23729172 -0.12843597 0.32125276 -0.23613113 -0.2133558 0.2044962 0.06468157 0.06918095
-0.10418936 -0.051126078 0.048107382 -0.046763957 0.052932523 0.061833534 0.06786393 0.08892932
0.09119395 0.06308099 0.033024818 0.2503755 0.23334594 0.2035526 0.21525516 0.21375646
0.21002328 0.19357923 0.18872511 0.15164796
00000000: 7b2e f9bd 2e86 c6bb f8d8 0e3e af7e 3bbe
00000010: 9a7a 263e 468b 083e bd99 1a3e 7bb4 34be
00000020: 9afc 723e b884 03be 3e7b a43e 5ccc 71be
00000030: f179 5abe 7467 513e c577 843d beae 8d3d
00000040: 3b61 d5bd 9469 51bd 3f0c 453d 908b 3fbd
00000050: c6cf 583d 2945 7d3d 3efc 8a3d 9320 b63d
00000060: e5c3 ba3d 9b30 813d 0845 073d 3831 803e
00000070: 3df2 6e3e 1870 503e d96b 5c3e f9e2 5a3e
00000080: 5810 573e a239 463e 2841 413e 9a49 1b3e

model.encoder.model.tcn_block_01.block.conv1d_layer_0.bias f4 [2]
0.19504459 0.540194
00000000: c5b9 473e 274a 0a3f

model.encoder.model.tcn_block_01.block.conv1d_layer_0.weight_g f4 [2, 1, 1]
0.63493353 0.8356333
00000000: 018b 223f 10ec 553f

model.encoder.model.tcn_block_01.block.conv1d_layer_0.weight_v f4 [2, 2, 9]
0.3241315 0.3119833 0.109720886 0.11271513 -0.19766705 -0.060256984 -0.18064709 -0.28370693
-0.2681933 -0.12556098 -0.15424082 -0.02294048 0.04517778 -0.08111486 0.042751476 0.09630852
0.13542035 -0.057156526 0.318024 0.14843552 -0.03596994 0.076068774 0.16837697 0.06057462
-0.14207205 -0.1780309 -0.3316391 0.078042135 -0.10093026 -0.14763695 0.0069375904 0.0971133
-0.18840688 0.14115326 0.021302199 -0.18173562
00000000: 90f4 a53e 46bc 9f3e 58b5 e03d 31d7 e63d
00000010: 3b69 4abe 07d0 76bd 8dfb 38be 0942 91be
00000020: a250 89be 0f93 00be 4ef1 1dbe aced bbbc
00000030: 560c 393d 8c1f a6bd 2c1c 2f3d 673d c53d
00000040: a2ab 0a3e f61c 6abd 0bd4 a23e 7bff 173e
00000050: 3755 13bd f2c9 9b3d 036b 2c3e 181d 783d
00000060: 567b 11be bb4d 36be 9acc a9be 8ed4 9f3d
00000070: 86b4 cebd 242e 17be ba54 e33b 56e3 c63d
00000080: bced 40be 7b8a 103e f381 ae3c e718 3abe

model.encoder.model.tcn_block_01.block.conv1d_layer_1.bias f4 [2]
0.033121172 0.110523194
00000000: 11aa 073d fc59 e23d

model.encoder.model.tcn_block_01.block.conv1d_layer_1.weight_g f4 [2, 1, 1]
0.36240694 0.8320688
00000000: 678d b93e 7602 553f

model.encoder.model.tcn_block_01.block.conv1d_layer_1.weight_v f4 [2, 2, 9]
-0.121670686 -0.006058476 0.13949955 -0.18310045 0.16257706 0.13334379 0.15097709 -0.17646973
0.23729172 -0.12843597 0.32125276 -0.23613113 -0.2133558 0.2044962 0.06468157 0.06918095
-0.10418936 -0.051126078 0.048107382 -0.046763957 0.052932523 0.061833534 0.06786393 0.08892932
0.09119395 0.06308099 0.033024818 0.2503755 0.23334594 0.2035526 0.21525516 0.21375646
0.21002328 0.19357923 0.18872511 0.15164796
00000000: 7b2e f9bd 2e86 c6bb f8d8 0e3e af7e 3bbe
00000010: 9a7a 263e 468b 083e bd99 1a3e 7bb4 34be
00000020: 9afc 723e b884 03be 3e7b a43e 5ccc 71be
00000030: f179 5abe 7467 513e c577 843d beae 8d3d
00000040: 3b61 d5bd 9469 51bd 3f0c 453d 908b 3fbd
00000050: c6cf 583d 2945 7d3d 3efc 8a3d 9320 b63d
00000060: e5c3 ba3d 9b30 813d 0845 073d 3831 803e
00000070: 3df2 6e3e 1870 503e d96b 5c3e f9e2 5a3e
00000080: 5810 573e a239 463e 2841 413e 9a49 1b3e

model.qz_xy_mean.dense(qz_xy_mean)_layer_00.weight f4 [2, 2]
0.8252006 -0.20041876 -0.06875643 -0.42779812
00000000: 5940 533f 933a 4dbe 2cd0 8cbd 5b08 dbbe

model.qz_xy_mean.dense(qz_xy_mean)_layer_00.bias f4 [2]
-0.44654977 0.72877693
00000000: 2ca2 e4be 2091 3a3f

model.qz_xy_logvar.dense(qz_xy_logvar)_layer_00.weight f4 [2, 2]
-1.5844634 -0.8920362 -1.063946 -0.53944206
00000000: b2cf cabf 7c5c 64bf 622f 88bf e018 0abf

model.qz_xy_logvar.dense(qz_xy_logvar)_layer_00.bias f4 [2]
-0.038507644 -1.2618277
00000000: 31ba 1dbd 9283 a1bf

model.py_t_probs.dense(py_t_probs)_layer_00.weight f4 [4, 2]
0.21867089 -0.14529258 0.22009887 -0.14777206 0.2261127 -0.1569303 0.20796293 -0.12927806
00000000: 43eb 5f3e 94c7 14be 9961 613e 8f51 17be
00000010: 168a 673e 56b2 20be 3cf4 543e 7861 04be

model.py_t_probs.dense(py_t_probs)_layer_00.bias f4 [4]
-0.07748087 -0.083399676 -0.10647201 -0.037512876
00000000: 4aae 9ebd 73cd aabd ff0d dabd 1aa7 19bd

model.pz_t_mean.dense(pz_t_mean)_layer_00.weight f4 [8, 2]
0.9737732 0.076449856 -0.036649667 1.0026578 0.9702478 0.074663416 -0.03437925 0.99985576
0.9705357 0.076491915 -0.03681154 1.0032643 0.97037816 0.07596906 -0.035595264 1.001429
00000000: 3349 793f be91 9c3d f61d 16bd 1757 803f
00000010: 2962 783f 22e9 983d 42d1 0cbd 8cf6 7f3f
00000020: 0775 783f cba7 9c3d b3c7 16bd f76a 803f
00000030: b46a 783f ab95 9b3d 57cc 11bd d32e 803f

model.pz_t_mean.dense(pz_t_mean)_layer_00.bias f4 [8]
0.12600341 0.045648385 0.12561664 0.046494596 0.12762144 0.05157548 0.12528539 0.047136948
00000000: 0a07 013e cdf9 3a3d a6a1 003e 1e71 3e3d
00000010: 32af 023e cf40 533d d04a 003e ac12 413d

model.pz_t_logvar.dense(pz_t_logvar)_layer_00.weight f4 [2, 4]
-1.7829183 -1.9263425 -2.3069046 -1.8359121 -1.081119 -2.0310948 -2.0421026 -1.4791751
00000000: ab36 e4bf 6492 f6bf 53a4 13c0 2bff eabf
00000010: 1b62 8abf 75fd 01c0 cfb1 02c0 9c55 bdbf

model.pz_t_logvar.dense(pz_t_logvar)_layer_00.bias f4 [2]
-1.5713075 -1.8452057
00000000: 9b20 c9bf b32f ecbf

model.decoder.dense(decoder)_layer_00.weight f4 [10, 2]
-0.6759296 -0.11191847 0.61554193 0.2540458 0.68794376 -0.019672219 -0.050238788 -0.90459424
-0.30592254 1.0024294 -0.5373737 -0.41738483 0.65082335 -0.77586997 0.7595209 -0.29437396
-0.74764025 0.19285089 0.21070197 0.81627727
00000000: b909 2dbf 8335 e5bd 2894 1d3f 4b12 823e
00000010: 151d 303f a227 a1bc 30c7 4dbd 7d93 67bf
00000020: e1a1 9cbe 9b4f 803f 5391 09bf 77b3 d5be
00000030: 5c9c 263f 6a9f 46bf f66f 423f 2fb8 96be
00000040: 5a65 3fbf b47a 453e 42c2 573e 8cf7 503f

model.decoder.dense(decoder)_layer_00.bias f4 [10]
0.72883695 -0.47999394 -0.8866233 -0.99510705 1.556657 0.19292074 -1.7308906 -1.3127881
1.1780343 0.6868527
00000000: 0f95 3a3f c4c1 f5be bff9 62bf 56bf 7ebf
00000010: 8940 c73f 048d 453e d38d ddbf 7109 a8bf
00000020: d4c9 963f 94d5 2f3f

inference.model.qy_x.dense(qy_x)_layer_00.weight f4 [4, 10]
-0.005774967 0.24535522 -0.15109898 0.017069422 -0.14216813 -0.07626242 0.03900023 0.09306264
-0.03732886 0.0339858 -0.007574373 0.24655896 -0.15105782 0.016525112 -0.13348363 -0.09031388
0.052421845 0.07809013 -0.03518415 0.021539893 0.012655884 0.26473486 -0.15045217 0.016538957
-0.037668552 -0.06525177 0.16387333 0.021335464 -0.06166954 0.0040323893 -0.018909603 0.2290424
-0.15189543 0.016069416 -0.23199974 -0.13329571 -0.03616662 0.11117364 -0.0024564397 0.04777818
00000000: ef3b bdbb 663e 7b3e b1b9 1abe 2cd5 8b3c
00000010: 8694 11be 792f 9cbd b5be 1f3d a097 be3d
00000020: 26e6 18bd b234 0b3d 7232 f8bb f479 7c3e
00000030: e7ae 1abe ac5f 873c efaf 08be 7cf6 b8bd
00000040: 4ab8 563d b8ed 9f3d 411d 10bd 6e74 b03c
00000050: a05a 4f3c 548b 873e 2210 1abe b57c 873c
00000060: 574a 1abd b8a2 85bd 69ce 273e b6c7 ae3c
00000070: 3399 7cbd 2222 843b 50e8 9abc 178a 6a3e
00000080: 7a8a 1bbe 02a4 833c 5791 6dbe ac7e 08be
00000090: 7323 14bd 01af e33d 38fc 20bb 0eb3 433d

inference.model.qy_x.dense(qy_x)_layer_00.bias f4 [4]
-0.10769942 -0.10788504 -0.1088552 -0.10658919
00000000: 8391 dcbd d5f2 dcbd 7aef debd 6f4b dabd

inference.model.encoder.model.tcn_block_00.conv0.bias f4 [2]
-0.41692135 -0.018857107
00000000: b776 d5be 387a 9abc

inference.model.encoder.model.tcn_block_00.conv0.weight_g f4 [2, 1, 1]
0.9647993 0.6082028
00000000: 16fd 763f 2eb3 1b3f

inference.model.encoder.model.tcn_block_00.conv0.weight_v f4 [2, 14, 9]
-0.20305656 -0.13181712 -0.038685706 0.023650927 0.039514296 0.08731921 0.11657177 0.13407576
0.1415084 0.19757994 0.12053244 0.028335014 -0.0041634925 -0.059301425 -0.09891487 -0.095949516
-0.10583111 -0.11644534 0.20453967 0.10406639 0.052239638 -0.010454027 0.004655114 -0.063705824
-0.042000815 -0.084196776 -0.14681949 -0.14779209 0.009007273 -0.0061439006 0.00511441 0.012630795
-0.0019254994 -0.079456285 0.054434944 0.015402751 -0.04062279 0.033789326 0.021853289 -0.05789653
0.013147587 0.0019588799 0.009697265 -0.02159724 -0.0054787425 -0.16997382 -0.06989984 -0.018738698
0.033956904 0.056957517 0.049447488 0.07552326 0.10764751 0.0991261 0.057475887 0.04677585
0.08009126 0.03519952 -0.031885903 -0.043605022 -0.08075692 -0.037734654 -0.06200676 0.13995115
0.110900864 0.050167993 -0.016050512 -0.008236407 -0.08990088 -0.06013468 -0.08423274 -0.1563403
-0.1902459 -0.12506914 -0.037390366 0.007570618 0.025575833 0.083909206 0.07757924 0.13102734
0.14671403 0.06427071 0.036005616 -0.0014938761 -0.009795333 -0.043140694 -0.034510054 -0.022269547
-0.06153834 -0.047078677 -0.053403407 -0.07777881 -0.07392117 -0.07798833 -0.068211496 -0.056623276
-0.053566135 -0.056077737 -0.053382657 -0.07717659 -0.10619296 -0.09090781 -0.054135 -0.07457888
-0.09168745 -0.10120768 -0.107718505 -0.104321174 -0.08189136 -0.05828148 -0.05841434 -0.108495094
-0.056025457 -0.10165724 -0.08183761 -0.088703096 -0.08087274 -0.08134314 -0.10616158 -0.10482916
-0.079934515 -0.07427234 -0.09001732 -0.062407047 -0.10579098 -0.076779835 0.07375853 -0.046856914
0.06706848 0.023493007 -0.08459036 0.0033231864 -0.05929778 -0.097730465 -0.050026495 -0.0591166
0.03248394 -0.021452356 0.040179536 0.027399844 0.07098931 0.07666645 0.0777852 0.090662286
-0.0072060507 0.07037271 0.004488713 0.01675647 -0.02404079 0.08049286 0.007426058 0.07551031
0.054385338 0.022742119 -0.07300627 0.030891841 0.00475221 0.032821063 -0.04443401 -0.046266768
-0.079947025 -0.009519262 -0.06744444 0.03911955 0.003433034 -0.0146514615 -0.004696012 -0.001251573
0.03730124 0.03030285 0.05762721 0.030193845 -0.050908957 -0.025427625 0.07569545 -0.061048325
-0.025444282 0.0072170105 -0.06712295 -0.096633956 -0.039733887 0.07226574 -0.022506317 0.0040196152
-0.0071553364 -0.003940318 -0.0073341103 0.046047468 -0.016417706 0.089218006 0.071988225 -0.023147581
0.06402365 -0.018484551 0.026393779 0.06732877 0.068330504 0.10427843 -0.044097457 -0.043292735
0.00797741 -0.0878031 0.018575251 -0.12637721 -0.045539435 -0.06952045 -0.10074593 -0.028825104
0.04008689 -0.038282093 -0.050519504 -0.0115428 -0.03635374 0.078319564 0.044427447 0.057704695
0.004525654 0.18606737 0.18531929 0.188489 0.18093206 0.09279207 0.10812223 0.17817733
0.18904254 0.17717962 0.043564804 0.044654682 -0.10998269 0.17423911 0.010575455 -0.09955799
0.18970792 -0.023491876 0.14113809 0.17794308 0.15954442 -0.032824155 -0.07833368 0.1888237
0.17057644 0.18915597 0.092707515 0.17800531 0.11964291 0.15049791 -0.009192663 0.17985323
0.17897908 0.1533819 0.12054465 -0.012076036
00000000: 0fee 4fbe 11fb 06be e774 1ebd 97bf c13c
00000010: bed9 213d 6ad4 b23d 2ebd ee3d 284b 093e
00000020: 94e7 103e 6552 4a3e b6d9 f63d d51e e83c
00000030: e86d 88bb 0de6 72bd e193 cabd 2e81 c4bd
00000040: fbbd d8bd e57a eebd d972 513e c220 d53d
00000050: 3bf9 553d 5e47 2bbc ed89 983b 3378 82bd
00000060: 0c09 2cbd 5c6f acbd d957 16be cf56 17be
00000070: 3e93 133c c652 c9bb c896 a73b 65f1 4e3c
00000080: 0a61 fcba fab9 a2bd 2df7 5e3d d25b 7c3c
00000090: 1564 26bd ad66 0a3d ab05 b33c e924 6dbd
000000a0: fa68 573c 8d60 003b 47e1 1e3c b2ec b0bc
000000b0: 0687 b3bb 9e0d 2ebe a627 8fbd e681 99bc
000000c0: 6516 0b3d 494c 693d 7389 4a3d f0ab 9a3d
000000d0: 4c76 dc3d a002 cb3d d66b 6b3d 0998 3f3d
000000e0: e306 a43d 5f2d 103d cb9a 02bd 2e9b 32bd
000000f0: e263 a5bd a78f 1abd cdfa 7dbd 5b4f 0f3e
00000100: fe1f e33d f47c 4d3d 5d7c 83bc fff1 06bc
00000110: f41d b8bd c84f 76bd 3782 acbd ac17 20be
00000120: d2cf 42be 2012 00be a426 19bd f212 f83b
00000130: 6984 d13c 97d8 ab3d dde1 9e3d 082c 063e
00000140: 343c 163e 5da0 833d a07a 133d 2ace c3ba
00000150: 9b7c 20bc 4cb4 30bd 6a5a 0dbd a06e b6bc
00000160: a00f 7cbd 92d5 40bd 88bd 5abd 7f4a 9fbd
00000170: fb63 97bd 58b8 9fbd 78b2 8bbd cfed 67bd
00000180: 2a68 5bbd c5b1 65bd c6a7 5abd c30e 9ebd
00000190: b27b d9bd e02d babd a9bc 5dbd d0bc 98bd
000001a0: a1c6 bbbd f945 cfbd 859b dcbd 57a6 d5bd
000001b0: a8b6 a7bd 90b8 6ebd e043 6fbd ad32 debd
000001c0: f37a 65bd ac31 d0bd 7a9a a7bd f8a9 b5bd
000001d0: 9ba0 a5bd 3b97 a6bd 3e6b d9bd acb0 d6bd
000001e0: b5b4 a3bd 191c 98bd 005b b8bd 889e 7fbd
000001f0: f1a8 d8bd bf3e 9dbd b60e 973d 09ed 3fbd
00000200: 335b 893d 6874 c03c b63d adbd d1c9 593b
00000210: 3be2 72bd e926 c8bd 95e8 4cbd 3f24 72bd
00000220: e10d 053d dabc afbc 4c93 243d a375 e03c
00000230: d862 913d 4d03 9d3d d94d 9f3d 26ad b93d
00000240: bc20 ecbb 911f 903d 0e16 933b dd44 893c
00000250: 31f1 c4bc 71d9 a43d 4a56 f33b 26a5 9a3d
00000260: 29c3 5e3d ae4d ba3c 5084 95bd e310 fd3c
00000270: 6db8 9b3b 616f 063d 7000 36bd 3982 3dbd
00000280: 44bb a3bd aef6 1bbc 5020 8abd d23b 203d
00000290: c1fc 603b af0c 70bc 01e1 99bb d20b a4ba
000002a0: 2fc9 183d af3d f83c 820a 6c3d 1559 f73c
000002b0: e985 50bd 984d d0bc 3706 9b3d cf0d 7abd
000002c0: 8770 d0bc ac7c ec3b c277 89bd 06e8 c5bd
000002d0: 00c0 22bd 0f00 943d 2b5f b8bc fab6 833b
000002e0: 5077 eabb c81d 81bb fa52 f0bb 459c 3c3d
000002f0: 6d7e 86bc eeb7 b63d 906e 933d ff9f bdbc
00000300: d51e 833d ea6c 97bc c437 d83c abe3 893d
00000310: ddf0 8b3d ee8f d53d 899f 34bd b953 31bd
00000320: afb3 023c 1dd2 b3bd 202b 983c 0769 01be
00000330: 8f87 3abd bd60 8ebd e253 cebd a022 ecbc
00000340: 2732 243d afcd 1cbd 8aed 4ebd 031e 3dbc
00000350: a9e7 14bd 0266 a03d 8ef9 353d c25b 6c3d
00000360: f04b 943b 7288 3e3e 57c4 3d3e 4303 413e
00000370: 4146 393e c509 be3d 306f dd3d 1e74 363e
00000380: 5e94 413e 936e 353e 0271 323d d4e7 363d
00000390: 9b3e e1bd bd6b 323e ac44 2d3c 0fe5 cbbd
000003a0: cb42 423e 0972 c0bc 8186 103e b636 363e
000003b0: 9d5f 233e 9f72 06bd 696d a0bd 005b 413e
000003c0: 97ab 2e3e 1ab2 413e 70dd bd3d 0647 363e
000003d0: 5807 f53d 201c 1a3e d39c 16bc 722b 383e
000003e0: 4b46 373e 2510 1d3e 1de0 f63d 91da 45bc

inference.model.encoder.model.tcn_block_00.conv1.bias f4 [2]
0.05347336 0.59719175
00000000: e206 5b3d 8fe1 183f

inference.model.encoder.model.tcn_block_00.conv1.weight_g f4 [2, 1, 1]
0.40463427 0.71082115
00000000: 392c cf3e 60f8 353f

inference.model.encoder.model.tcn_block_00.conv1.weight_v f4 [2, 2, 9]
0.12589084 -0.13937081 -0.15110773 0.04935299 -0.16077653 0.08142686 0.059332434 -0.20607838
0.015846213 0.1468522 0.11677157 -0.02491796 -0.2027499 -0.05402982 0.03771248 -0.116000384
0.02421458 0.0741609 -0.23563936 -0.22266845 -0.22258078 -0.21520354 -0.21321121 -0.20516461
-0.22092032 -0.19901852 -0.03901989 0.020657234 0.04001166 0.03357976 0.06280504 -0.054781802
-0.115247115 -0.1231813 0.16484459 0.12682828
00000000: 87e9 003e 39b7 0ebe fcbb 1abe 5c26 4a3d
00000010: 9aa2 24be 20c3 a63d 9106 733d 3606 53be
00000020: ebcf 813c 6c60 163e ef25 ef3d c020 ccbc
00000030: ab9d 4fbe 5f4e 5dbd 6778 1a3d 9c91 edbd
00000040: a85d c63c ace1 973d 724b 71be 3303 64be
00000050: 37ec 63be 515e 5cbe 0a54 5abe ac16 52be
00000060: f038 62be 83cb 4bbe 52d3 1fbd 5c39 a93c
00000070: 44e3 233d ee8a 093d ee9f 803d e262 60bd
00000080: ae06 ecbd 7a46 fcbd 05cd 283e 46df 013e

inference.model.encoder.model.tcn_block_00.block.conv1d_layer_0.bias f4 [2]
-0.41692135 -0.018857107
00000000: b776 d5be 387a 9abc

inference.model.encoder.model.tcn_block_00.block.conv1d_layer_0.weight_g f4 [2, 1, 1]
0.9647993 0.6082028
00000000: 16fd 763f 2eb3 1b3f

inference.model.encoder.model.tcn_block_00.block.conv1d_layer_0.weight_v f4 [2, 14, 9]
-0.20305656 -0.13181712 -0.038685706 0.023650927 0.039514296 0.08731921 0.11657177 0.13407576
0.1415084 0.19757994 0.12053244 0.028335014 -0.0041634925 -0.059301425 -0.09891487 -0.095949516
-0.10583111 -0.11644534 0.20453967 0.10406639 0.052239638 -0.010454027 0.004655114 -0.063705824
-0.042000815 -0.084196776 -0.14681949 -0.14779209 0.009007273 -0.0061439006 0.00511441 0.012630795
-0.0019254994 -0.079456285 0.054434944 0.015402751 -0.04062279 0.033789326 0.021853289 -0.05789653
0.013147587 0.0019588799 0.009697265 -0.02159724 -0.0054787425 -0.16997382 -0.06989984 -0.018738698
0.033956904 0.056957517 0.049447488 0.07552326 0.10764751 0.0991261 0.057475887 0.04677585
0.08009126 0.03519952 -0.031885903 -0.043605022 -0.08075692 -0.037734654 -0.06200676 0.13995115
0.110900864 0.050167993 -0.016050512 -0.008236407 -0.08990088 -0.06013468 -0.08423274 -0.1563403
-0.1902459 -0.12506914 -0.037390366 0.007570618 0.025575833 0.083909206 0.07757924 0.13102734
0.14671403 0.06427071 0.036005616 -0.0014938761 -0.009795333 -0.043140694 -0.034510054 -0.022269547
-0.06153834 -0.047078677 -0.053403407 -0.07777881 -0.07392117 -0.07798833 -0.068211496 -0.056623276
-0.053566135 -0.056077737 -0.053382657 -0.07717659 -0.10619296 -0.09090781 -0.054135 -0.07457888
-0.09168745 -0.10120768 -0.107718505 -0.104321174 -0.08189136 -0.05828148 -0.05841434 -0.108495094
-0.056025457 -0.10165724 -0.08183761 -0.088703096 -0.08087274 -0.08134314 -0.10616158 -0.10482916
-0.079934515 -0.07427234 -0.09001732 -0.062407047 -0.10579098 -0.076779835 0.07375853 -0.046856914
0.06706848 0.023493007 -0.08459036 0.0033231864 -0.05929778 -0.097730465 -0.050026495 -0.0591166
0.03248394 -0.021452356 0.040179536 0.027399844 0.07098931 0.07666645 0.0777852 0.090662286
-0.0072060507 0.07037271 0.004488713 0.01675647 -0.02404079 0.08049286 0.007426058 0.07551031
0.054385338 0.022742119 -0.07300627 0.030891841 0.00475221 0.032821063 -0.04443401 -0.046266768
-0.079947025 -0.009519262 -0.06744444 0.03911955 0.003433034 -0.0146514615 -0.004696012 -0.001251573
0.03730124 0.03030285 0.05762721 0.030193845 -0.050908957 -0.025427625 0.07569545 -0.061048325
-0.025444282 0.0072170105 -0.06712295 -0.096633956 -0.039733887 0.07226574 -0.022506317 0.0040196152
-0.0071553364 -0.003940318 -0.0073341103 0.046047468 -0.016417706 0.089218006 0.071988225 -0.023147581
0.06402365 -0.018484551 0.026393779 0.06732877 0.068330504 0.10427843 -0.044097457 -0.043292735
0.00797741 -0.0878031 0.018575251 -0.12637721 -0.045539435 -0.06952045 -0.10074593 -0.028825104
0.04008689 -0.038282093 -0.050519504 -0.0115428 -0.03635374 0.078319564 0.044427447 0.057704695
0.004525654 0.18606737 0.18531929 0.188489 0.18093206 0.09279207 0.10812223 0.17817733
0.18904254 0.17717962 0.043564804 0.044654682 -0.10998269 0.17423911 0.010575455 -0.09955799
0.18970792 -0.023491876 0.14113809 0.17794308 0.15954442 -0.032824155 -0.07833368 0.1888237
0.17057644 0.18915597 0.092707515 0.17800531 0.11964291 0.15049791 -0.009192663 0.17985323
0.17897908 0.1533819 0.12054465 -0.012076036
00000000: 0fee 4fbe 11fb 06be e774 1ebd 97bf c13c
00000010: bed9 213d 6ad4 b23d 2ebd ee3d 284b 093e
00000020: 94e7 103e 6552 4a3e b6d9 f63d d51e e83c
00000030: e86d 88bb 0de6 72bd e193 cabd 2e81 c4bd
00000040: fbbd d8bd e57a eebd d972 513e c220 d53d
00000050: 3bf9 553d 5e47 2bbc ed89 983b 3378 82bd
00000060: 0c09 2cbd 5c6f acbd d957 16be cf56 17be
00000070: 3e93 133c c652 c9bb c896 a73b 65f1 4e3c
00000080: 0a61 fcba fab9 a2bd 2df7 5e3d d25b 7c3c
00000090: 1564 26bd ad66 0a3d ab05 b33c e924 6dbd
000000a0: fa68 573c 8d60 003b 47e1 1e3c b2ec b0bc
000000b0: 0687 b3bb 9e0d 2ebe a627 8fbd e681 99bc
000000c0: 6516 0b3d 494c 693d 7389 4a3d f0ab 9a3d
000000d0: 4c76 dc3d a002 cb3d d66b 6b3d 0998 3f3d
000000e0: e306 a43d 5f2d 103d cb9a 02bd 2e9b 32bd
000000f0: e263 a5bd a78f 1abd cdfa 7dbd 5b4f 0f3e
00000100: fe1f e33d f47c 4d3d 5d7c 83bc fff1 06bc
00000110: f41d b8bd c84f 76bd 3782 acbd ac17 20be
00000120: d2cf 42be 2012 00be a426 19bd f212 f83b
00000130: 6984 d13c 97d8 ab3d dde1 9e3d 082c 063e
00000140: 343c 163e 5da0 833d a07a 133d 2ace c3ba
00000150: 9b7c 20bc 4cb4 30bd 6a5a 0dbd a06e b6bc
00000160: a00f 7cbd 92d5 40bd 88bd 5abd 7f4a 9fbd
00000170: fb63 97bd 58b8 9fbd 78b2 8bbd cfed 67bd
00000180: 2a68 5bbd c5b1 65bd c6a7 5abd c30e 9ebd
00000190: b27b d9bd e02d babd a9bc 5dbd d0bc 98bd
000001a0: a1c6 bbbd f945 cfbd 859b dcbd 57a6 d5bd
000001b0: a8b6 a7bd 90b8 6ebd e043 6fbd ad32 debd
000001c0: f37a 65bd ac31 d0bd 7a9a a7bd f8a9 b5bd
000001d0: 9ba0 a5bd 3b97 a6bd 3e6b d9bd acb0 d6bd
000001e0: b5b4 a3bd 191c 98bd 005b b8bd 889e 7fbd
000001f0: f1a8 d8bd bf3e 9dbd b60e 973d 09ed 3fbd
00000200: 335b 893d 6874 c03c b63d adbd d1c9 593b
00000210: 3be2 72bd e926 c8bd 95e8 4cbd 3f24 72bd
00000220: e10d 053d dabc afbc 4c93 243d a375 e03c
00000230: d862 913d 4d03 9d3d d94d 9f3d 26ad b93d
00000240: bc20 ecbb 911f 903d 0e16 933b dd44 893c
00000250: 31f1 c4bc 71d9 a43d 4a56 f33b 26a5 9a3d
00000260: 29c3 5e3d ae4d ba3c 5084 95bd e310 fd3c
00000270: 6db8 9b3b 616f 063d 7000 36bd 3982 3dbd
00000280: 44bb a3bd aef6 1bbc 5020 8abd d23b 203d
00000290: c1fc 603b af0c 70bc 01e1 99bb d20b a4ba
000002a0: 2fc9 183d af3d f83c 820a 6c3d 1559 f73c
000002b0: e985 50bd 984d d0bc 3706 9b3d cf0d 7abd
000002c0: 8770 d0bc ac7c ec3b c277 89bd 06e8 c5bd
000002d0: 00c0 22bd 0f00 943d 2b5f b8bc fab6 833b
000002e0: 5077 eabb c81d 81bb fa52 f0bb 459c 3c3d
000002f0: 6d7e 86bc eeb7 b63d 906e 933d ff9f bdbc
00000300: d51e 833d ea6c 97bc c437 d83c abe3 893d
00000310: ddf0 8b3d ee8f d53d 899f 34bd b953 31bd
00000320: afb3 023c 1dd2 b3bd 202b 983c 0769 01be
00000330: 8f87 3abd bd60 8ebd e253 cebd a022 ecbc
00000340: 2732 243d afcd 1cbd 8aed 4ebd 031e 3dbc
00000350: a9e7 14bd 0266 a03d 8ef9 353d c25b 6c3d
00000360: f04b 943b 7288 3e3e 57c4 3d3e 4303 413e
00000370: 4146 393e c509 be3d 306f dd3d 1e74 363e
00000380: 5e94 413e 936e 353e 0271 323d d4e7 363d
00000390: 9b3e e1bd bd6b 323e ac44 2d3c 0fe5 cbbd
000003a0: cb42 423e 0972 c0bc 8186 103e b636 363e
000003b0: 9d5f 233e 9f72 06bd 696d a0bd 005b 413e
000003c0: 97ab 2e3e 1ab2 413e 70dd bd3d 0647 363e
000003d0: 5807 f53d 201c 1a3e d39c 16bc 722b 383e
000003e0: 4b46 373e 2510 1d3e 1de0 f63d 91da 45bc

inference.model.encoder.model.tcn_block_00.block.conv1d_layer_1.bias f4 [2]
0.05347336 0.59719175
00000000: e206 5b3d 8fe1 183f

inference.model.encoder.model.tcn_block_00.block.conv1d_layer_1.weight_g f4 [2, 1, 1]
0.40463427 0.71082115
00000000: 392c cf3e 60f8 353f

inference.model.encoder.model.tcn_block_00.block.conv1d_layer_1.weight_v f4 [2, 2, 9]
0.12589084 -0.13937081 -0.15110773 0.04935299 -0.16077653 0.08142686 0.059332434 -0.20607838
0.015846213 0.1468522 0.11677157 -0.02491796 -0.2027499 -0.05402982 0.03771248 -0.116000384
0.02421458 0.0741609 -0.23563936 -0.22266845 -0.22258078 -0.21520354 -0.21321121 -0.20516461
-0.22092032 -0.19901852 -0.03901989 0.020657234 0.04001166 0.03357976 0.06280504 -0.054781802
-0.115247115 -0.1231813 0.16484459 0.12682828
00000000: 87e9 003e 39b7 0ebe fcbb 1abe 5c26 4a3d
00000010: 9aa2 24be 20c3 a63d 9106 733d 3606 53be
00000020: ebcf 813c 6c60 163e ef25 ef3d c020 ccbc
00000030: ab9d 4fbe 5f4e 5dbd 6778 1a3d 9c91 edbd
00000040: a85d c63c ace1 973d 724b 71be 3303 64be
00000050: 37ec 63be 515e 5cbe 0a54 5abe ac16 52be
00000060: f038 62be 83cb 4bbe 52d3 1fbd 5c39 a93c
00000070: 44e3 233d ee8a 093d ee9f 803d e262 60bd
00000080: ae06 ecbd 7a46 fcbd 05cd 283e 46df 013e

inference.model.encoder.model.tcn_block_00.downsample.weight f4 [2, 14, 1]
-0.21575907 0.1448467 0.19365722 0.059318915 -0.14893731 -0.11058844 0.29251987 0.3448502
-0.28956828 -0.020783847 1.3933022 1.4171746 1.3804852 1.4100415 0.34878236 -0.38027042
-0.108239256 0.56420034 -0.60766727 0.4549538 0.56185687 0.022105625 0.08165091 -0.5749309
1.3880339 1.4054172 1.3709717 1.3979781
00000000: f2ef 5cbe b152 143e 144e 463e 64f8 723d
00000010: 0683 18be 317c e2bd 2ac5 953e 3590 b03e
00000020: 4b42 94be e342 aabc ba57 b23f fa65 b53f
00000030: bdb3 b03f 3d7c b43f 9a93 b23e ceb2 c2be
00000040: 8bac ddbd 6f6f 103f 1590 1bbf b4ef e83e
00000050: dad5 0f3f db16 b53c 9838 a73d ac2e 13bf
00000060: 18ab b13f b6e4 b33f 007c af3f f2f0 b23f

inference.model.encoder.model.tcn_block_00.downsample.bias f4 [2]
1.5514137 1.6427499
00000000: b994 c63f a145 d23f

inference.model.encoder.model.tcn_block_01.conv0.bias f4 [2]
0.19504459 0.540194
00000000: c5b9 473e 274a 0a3f

inference.model.encoder.model.tcn_block_01.conv0.weight_g f4 [2, 1, 1]
0.63493353 0.8356333
00000000: 018b 223f 10ec 553f

inference.model.encoder.model.tcn_block_01.conv0.weight_v f4 [2, 2, 9]
0.3241315 0.3119833 0.109720886 0.11271513 -0.19766705 -0.060256984 -0.18064709 -0.28370693
-0.2681933 -0.12556098 -0.15424082 -0.02294048 0.04517778 -0.08111486 0.042751476 0.09630852
0.13542035 -0.057156526 0.318024 0.14843552 -0.03596994 0.076068774 0.16837697 0.06057462
-0.14207205 -0.1780309 -0.3316391 0.078042135 -0.10093026 -0.14763695 0.0069375904 0.0971133
-0.18840688 0.14115326 0.021302199 -0.18173562
00000000: 90f4 a53e 46bc 9f3e 58b5 e03d 31d7 e63d
00000010: 3b69 4abe 07d0 76bd 8dfb 38be 0942 91be
00000020: a250 89be 0f93 00be 4ef1 1dbe aced bbbc
00000030: 560c 393d 8c1f a6bd 2c1c 2f3d 673d c53d
00000040: a2ab 0a3e f61c 6abd 0bd4 a23e 7bff 173e
00000050: 3755 13bd f2c9 9b3d 036b 2c3e 181d 783d
00000060: 567b 11be bb4d 36be 9acc a9be 8ed4 9f3d
00000070: 86b4 cebd 242e 17be ba54 e33b 56e3 c63d
00000080: bced 40be 7b8a 103e f381 ae3c e718 3abe

inference.model.encoder.model.tcn_block_01.conv1.bias f4 [2]
0.033121172 0.110523194
00000000: 11aa 073d fc59 e23d

inference.model.encoder.model.tcn_block_01.conv1.weight_g f4 [2, 1, 1]
0.36240694 0.8320688
00000000: 678d b93e 7602 553f

inference.model.encoder.model.tcn_block_01.conv1.weight_v f4 [2, 2, 9]
-0.121670686 -0.006058476 0.13949955 -0.18310045 0.16257706 0.13334379 0.15097709 -0.17646973
0.23729172 -0.12843597 0.32125276 -0.23613113 -0.2133558 0.2044962 0.06468157 0.06918095
-0.10418936 -0.051126078 0.048107382 -0.046763957 0.052932523 0.061833534 0.06786393 0.08892932
0.09119395 0.06308099 0.033024818 0.2503755 0.23334594 0.2035526 0.21525516 0.21375646
0.21002328 0.19357923 0.18872511 0.15164796
00000000: 7b2e f9bd 2e86 c6bb f8d8 0e3e af7e 3bbe
00000010: 9a7a 263e 468b 083e bd99 1a3e 7bb4 34be
00000020: 9afc 723e b884 03be 3e7b a43e 5ccc 71be
00000030: f179 5abe 7467 513e c577 843d beae 8d3d
00000040: 3b61 d5bd 9469 51bd 3f0c 453d 908b 3fbd
00000050: c6cf 583d 2945 7d3d 3efc 8a3d 9320 b63d
00000060: e5c3 ba3d 9b30 813d 0845 073d 3831 803e
00000070: 3df2 6e3e 1870 503e d96b 5c3e f9e2 5a3e
00000080: 5810 573e a239 463e 2841 413e 9a49 1b3e

inference.model.encoder.model.tcn_block_01.block.conv1d_layer_0.bias f4 [2]
0.19504459 0.540194
00000000: c5b9 473e 274a 0a3f

inference.model.encoder.model.tcn_block_01.block.conv1d_layer_0.weight_g f4 [2, 1, 1]
0.63493353 0.8356333
00000000: 018b 223f 10ec 553f

inference.model.encoder.model.tcn_block_01.block.conv1d_layer_0.weight_v f4 [2, 2, 9]
0.3241315 0.3119833 0.109720886 0.11271513 -0.19766705 -0.060256984 -0.18064709 -0.28370693
-0.2681933 -0.12556098 -0.15424082 -0.02294048 0.04517778 -0.08111486 0.042751476 0.09630852
0.13542035 -0.057156526 0.318024 0.14843552 -0.03596994 0.076068774 0.16837697 0.06057462
-0.14207205 -0.1780309 -0.3316391 0.078042135 -0.10093026 -0.14763695 0.0069375904 0.0971133
-0.18840688 0.14115326 0.021302199 -0.18173562
00000000: 90f4 a53e 46bc 9f3e 58b5 e03d 31d7 e63d
00000010: 3b69 4abe 07d0 76bd 8dfb 38be 0942 91be
00000020: a250 89be 0f93 00be 4ef1 1dbe aced bbbc
00000030: 560c 393d 8c1f a6bd 2c1c 2f3d 673d c53d
00000040: a2ab 0a3e f61c 6abd 0bd4 a23e 7bff 173e
00000050: 3755 13bd f2c9 9b3d 036b 2c3e 181d 783d
00000060: 567b 11be bb4d 36be 9acc a9be 8ed4 9f3d
00000070: 86b4 cebd 242e 17be ba54 e33b 56e3 c63d
00000080: bced 40be 7b8a 103e f381 ae3c e718 3abe

inference.model.encoder.model.tcn_block_01.block.conv1d_layer_1.bias f4 [2]
0.033121172 0.110523194
00000000: 11aa 073d fc59 e23d

inference.model.encoder.model.tcn_block_01.block.conv1d_layer_1.weight_g f4 [2, 1, 1]
0.36240694 0.8320688
00000000: 678d b93e 7602 553f

inference.model.encoder.model.tcn_block_01.block.conv1d_layer_1.weight_v f4 [2, 2, 9]
-0.121670686 -0.006058476 0.13949955 -0.18310045 0.16257706 0.13334379 0.15097709 -0.17646973
0.23729172 -0.12843597 0.32125276 -0.23613113 -0.2133558 0.2044962 0.06468157 0.06918095
-0.10418936 -0.051126078 0.048107382 -0.046763957 0.052932523 0.061833534 0.06786393 0.08892932
0.09119395 0.06308099 0.033024818 0.2503755 0.23334594 0.2035526 0.21525516 0.21375646
0.21002328 0.19357923 0.18872511 0.15164796
00000000: 7b2e f9bd 2e86 c6bb f8d8 0e3e af7e 3bbe
00000010: 9a7a 263e 468b 083e bd99 1a3e 7bb4 34be
00000020: 9afc 723e b884 03be 3e7b a43e 5ccc 71be
00000030: f179 5abe 7467 513e c577 843d beae 8d3d
00000040: 3b61 d5bd 9469 51bd 3f0c 453d 908b 3fbd
00000050: c6cf 583d 2945 7d3d 3efc 8a3d 9320 b63d
00000060: e5c3 ba3d 9b30 813d 0845 073d 3831 803e
00000070: 3df2 6e3e 1870 503e d96b 5c3e f9e2 5a3e
00000080: 5810 573e a239 463e 2841 413e 9a49 1b3e

inference.model.qz_xy_mean.dense(qz_xy_mean)_layer_00.weight f4 [2, 2]
0.8252006 -0.20041876 -0.06875643 -0.42779812
00000000: 5940 533f 933a 4dbe 2cd0 8cbd 5b08 dbbe

inference.model.qz_xy_mean.dense(qz_xy_mean)_layer_00.bias f4 [2]
-0.44654977 0.72877693
00000000: 2ca2 e4be 2091 3a3f

inference.model.qz_xy_logvar.dense(qz_xy_logvar)_layer_00.weight f4 [2, 2]
-1.5844634 -0.8920362 -1.063946 -0.53944206
00000000: b2cf cabf 7c5c 64bf 622f 88bf e018 0abf

inference.model.qz_xy_logvar.dense(qz_xy_logvar)_layer_00.bias f4 [2]
-0.038507644 -1.2618277
00000000: 31ba 1dbd 9283 a1bf

inference.model.py_t_probs.dense(py_t_probs)_layer_00.weight f4 [4, 2]
0.21867089 -0.14529258 0.22009887 -0.14777206 0.2261127 -0.1569303 0.20796293 -0.12927806
00000000: 43eb 5f3e 94c7 14be 9961 613e 8f51 17be
00000010: 168a 673e 56b2 20be 3cf4 543e 7861 04be

inference.model.py_t_probs.dense(py_t_probs)_layer_00.bias f4 [4]
-0.07748087 -0.083399676 -0.10647201 -0.037512876
00000000: 4aae 9ebd 73cd aabd ff0d dabd 1aa7 19bd

inference.model.pz_t_mean.dense(pz_t_mean)_layer_00.weight f4 [8, 2]
0.9737732 0.076449856 -0.036649667 1.0026578 0.9702478 0.074663416 -0.03437925 0.99985576
0.9705357 0.076491915 -0.03681154 1.0032643 0.97037816 0.07596906 -0.035595264 1.001429
00000000: 3349 793f be91 9c3d f61d 16bd 1757 803f
00000010: 2962 783f 22e9 983d 42d1 0cbd 8cf6 7f3f
00000020: 0775 783f cba7 9c3d b3c7 16bd f76a 803f
00000030: b46a 783f ab95 9b3d 57cc 11bd d32e 803f

inference.model.pz_t_mean.dense(pz_t_mean)_layer_00.bias f4 [8]
0.12600341 0.045648385 0.12561664 0.046494596 0.12762144 0.05157548 0.12528539 0.047136948
00000000: 0a07 013e cdf9 3a3d a6a1 003e 1e71 3e3d
00000010: 32af 023e cf40 533d d04a 003e ac12 413d

inference.model.pz_t_logvar.dense(pz_t_logvar)_layer_00.weight f4 [2, 4]
-1.7829183 -1.9263425 -2.3069046 -1.8359121 -1.081119 -2.0310948 -2.0421026 -1.4791751
00000000: ab36 e4bf 6492 f6bf 53a4 13c0 2bff eabf
00000010: 1b62 8abf 75fd 01c0 cfb1 02c0 9c55 bdbf

inference.model.pz_t_logvar.dense(pz_t_logvar)_layer_00.bias f4 [2]
-1.5713075 -1.8452057
00000000: 9b20 c9bf b32f ecbf

inference.model.decoder.dense(decoder)_layer_00.weight f4 [10, 2]
-0.6759296 -0.11191847 0.61554193 0.2540458 0.68794376 -0.019672219 -0.050238788 -0.90459424
-0.30592254 1.0024294 -0.5373737 -0.41738483 0.65082335 -0.77586997 0.7595209 -0.29437396
-0.74764025 0.19285089 0.21070197 0.81627727
00000000: b909 2dbf 8335 e5bd 2894 1d3f 4b12 823e
00000010: 151d 303f a227 a1bc 30c7 4dbd 7d93 67bf
00000020: e1a1 9cbe 9b4f 803f 5391 09bf 77b3 d5be
00000030: 5c9c 263f 6a9f 46bf f66f 423f 2fb8 96be
00000040: 5a65 3fbf b47a 453e 42c2 573e 8cf7 503f

inference.model.decoder.dense(decoder)_layer_00.bias f4 [10]
0.72883695 -0.47999394 -0.8866233 -0.99510705 1.556657 0.19292074 -1.7308906 -1.3127881
1.1780343 0.6868527
00000000: 0f95 3a3f c4c1 f5be bff9 62bf 56bf 7ebf
00000010: 8940 c73f 048d 453e d38d ddbf 7109 a8bf
00000020: d4c9 963f 94d5 2f3f

generative.model.qy_x.dense(qy_x)_layer_00.weight f4 [4, 10]
-0.005774967 0.24535522 -0.15109898 0.017069422 -0.14216813 -0.07626242 0.03900023 0.09306264
-0.03732886 0.0339858 -0.007574373 0.24655896 -0.15105782 0.016525112 -0.13348363 -0.09031388
0.052421845 0.07809013 -0.03518415 0.021539893 0.012655884 0.26473486 -0.15045217 0.016538957
-0.037668552 -0.06525177 0.16387333 0.021335464 -0.06166954 0.0040323893 -0.018909603 0.2290424
-0.15189543 0.016069416 -0.23199974 -0.13329571 -0.03616662 0.11117364 -0.0024564397 0.04777818
00000000: ef3b bdbb 663e 7b3e b1b9 1abe 2cd5 8b3c
00000010: 8694 11be 792f 9cbd b5be 1f3d a097 be3d
00000020: 26e6 18bd b234 0b3d 7232 f8bb f479 7c3e
00000030: e7ae 1abe ac5f 873c efaf 08be 7cf6 b8bd
00000040: 4ab8 563d b8ed 9f3d 411d 10bd 6e74 b03c
00000050: a05a 4f3c 548b 873e 2210 1abe b57c 873c
00000060: 574a 1abd b8a2 85bd 69ce 273e b6c7 ae3c
00000070: 3399 7cbd 2222 843b 50e8 9abc 178a 6a3e
00000080: 7a8a 1bbe 02a4 833c 5791 6dbe ac7e 08be
00000090: 7323 14bd 01af e33d 38fc 20bb 0eb3 433d

generative.model.qy_x.dense(qy_x)_layer_00.bias f4 [4]
-0.10769942 -0.10788504 -0.1088552 -0.10658919
00000000: 8391 dcbd d5f2 dcbd 7aef debd 6f4b dabd

generative.model.encoder.model.tcn_block_00.conv0.bias f4 [2]
-0.41692135 -0.018857107
00000000: b776 d5be 387a 9abc

generative.model.encoder.model.tcn_block_00.conv0.weight_g f4 [2, 1, 1]
0.9647993 0.6082028
00000000: 16fd 763f 2eb3 1b3f
