results_gmdgm/ssm_v1/dtcn/rgt_v1/version_0/best_val_model.pt (torch, 58663 bytes, 204 tensors)

model.qy_x.model.tcn_block_00.conv0.bias f4 [2]
000000 46 51 71 be 00 35 07 3f
       -0.2356616 0.52815247

model.qy_x.model.tcn_block_00.conv0.weight_g f4 [2, 1, 1]
000000 c1 03 b8 3f 29 5e c0 3f
       1.4376146 1.5028735

model.qy_x.model.tcn_block_00.conv0.weight_v f4 [2, 10, 9]
000000 26 f2 30 3c 8d cf c8 3c 7c 5c 0f bc 2b c9 3e bd
       0.01079992 0.02451303 -0.008750077 -0.046578567
000010 af 3e c3 bd bb 6c 03 be 49 c8 07 be b0 4f 0d be
       -0.0953344 -0.12834446 -0.13259996 -0.1379993
000020 01 5a 19 be 14 4f 2c bc 8f 0f 3f bd 71 35 96 bc
       -0.1497574 -0.010516901 -0.046645697 -0.01833603
000030 a2 84 4d 3d 42 b4 dd 3d 26 c1 dd 3d 69 6e bb 3d
       0.050175317 0.10825397 0.10827856 0.091519184
000040 6f f2 86 3d 65 77 cf 3d 22 77 36 bd 98 b3 cb 37
       0.06589209 0.101301946 -0.044547208 2.4283116e-05
000050 a2 58 3a 3d 76 b3 26 3d c5 5b d3 3c dc b0 2d 3d
       0.045494683 0.04069849 0.025800595 0.042404994
000060 cf de 12 3d de be a9 3c 93 22 45 3d 04 25 18 3d
       0.035857018 0.020720895 0.048128676 0.037144676
000070 56 25 11 3d 80 65 1b 3c 76 14 df bc ae 8d 7e 3b
       0.035435997 0.009484649 -0.027231436 0.0038841772
000080 70 a5 0a bd 4d 2e a8 bc 4b 98 97 ba f0 21 2f bd
       -0.03384918 -0.02052989 -0.0011565773 -0.042756975
000090 56 81 1a 3a eb 31 1f bd ee f0 52 bd 7d 25 76 bd
       0.00058939063 -0.038865965 -0.0514993 -0.060094345
0000a0 69 8e 0c bd ad 8a ea bc fb c7 52 bc 49 9c bb bc
       -0.0343155 -0.028630579 -0.012865062 -0.022901671
0000b0 f2 41 09 bd 7b 37 55 38 a7 a5 79 3c 96 9b 0d bc
       -0.033510156 5.0834828e-05 0.0152372485 -0.008643052
0000c0 99 4e 2a bc 46 e9 6e bc f7 14 39 bd 87 52 a8 bd
       -0.010394716 -0.014581984 -0.04518601 -0.08218866
0000d0 b9 c8 99 bd b1 45 e3 bd cf c8 58 3a 45 b6 a4 3b
       -0.07508988 -0.11097277 0.0008269669 0.005026611
0000e0 ae 83 ee 3c ee 4e 6a 3d 1b 1b b2 3d da 6f e0 3d
       0.029115524 0.05720418 0.08696576 0.10958834
0000f0 39 59 f4 3d 40 5c c9 3d 46 2c de 3d 04 06 68 3c
       0.1193108 0.098320484 0.10848288 0.0141615905
000100 15 ee 82 bc a7 f4 0b bd 20 d4 20 3d 2c 36 ae 3d
       -0.015982667 -0.034168866 0.0392648 0.08506426
000110 3b 39 01 3e 1c 15 f0 3d c5 ea fb 3d ec db 00 3e
       0.12619488 0.11722776 0.12300638 0.12583894
000120 e5 54 5b bc b3 c2 be 3b fd b4 20 bc 48 eb 98 bd
       -0.01338694 0.00582155 -0.009808776 -0.07466751
000130 36 2d 49 bd da cd bf bd 36 3c d3 bd a2 14 c1 bd
       -0.049115382 -0.09365435 -0.10314219 -0.094277635
000140 2a f1 f6 bd 9e ea 56 bc fd 35 aa ba 5d f4 84 bc
       -0.12057717 -0.0131174605 -0.001298606 -0.016229803
000150 d2 2e 01 3c 54 38 d5 ba a3 9d 3b 3d 92 62 04 3d
       0.007884698 -0.0016267397 0.04580463 0.032320566
000160 0f 1c 41 3d a0 3a 89 3d dc a2 84 3c 04 3d 08 3c
       0.0471459 0.06700635 0.016190939 0.0083153285
000170 a3 18 86 3c 65 8f ae 3c 42 9a d8 3c 8e 9c c8 3c
       0.01636917 0.02130861 0.026440743 0.024488714
000180 b9 9a 81 3c 98 e3 c4 3c e2 6f 09 3d be bd 19 bc
       0.015820848 0.024034306 0.033553965 -0.009383617
000190 c4 a7 b6 3c 6c c4 da 3c fc 2d 7a 3c 09 1a a5 bc
       0.022296794 0.02670499 0.015269753 -0.020154016
0001a0 d9 40 c0 bc c3 11 2a bc a1 f2 51 bc 9c 7f 22 bb
       -0.023468422 -0.010380211 -0.012814195 -0.00247953
0001b0 f2 1c 88 bc a2 e6 30 3c ab 8f ba 3c 32 27 03 bb
       -0.016615365 0.010797175 0.022773584 -0.0020012376
0001c0 9e 55 d5 3c 79 b4 33 3b 45 ce 0e bc e0 69 00 3b
       0.026041802 0.0027420803 -0.008716171 0.0019594356
0001d0 f0 89 4d 3c 81 0b 91 3d cf 94 70 3c c9 d3 a4 3c
       0.012545094 0.07082272 0.014683916 0.020120518
0001e0 07 54 a0 bc 4c e5 f5 3a 9c a2 c9 ba a2 db 08 bc
       -0.019571317 0.0018760352 -0.0015383544 -0.008353146
0001f0 a9 ee bf bc b0 5f 6f bd 90 ee 11 be ca e6 cf bd
       -0.023429232 -0.058440864 -0.1425116 -0.101514414
000200 ef 9d 71 bd 6e c7 4e bc 8d c7 d3 3c d4 6f 60 3d
       -0.058988508 -0.01262079 0.02585199 0.054794148
000210 af 85 a4 3d 4a c6 bd 3d 91 51 ea 3d 45 6b 40 3d
       0.080333106 0.09266336 0.11441339 0.0469773
000220 9c 0b 68 3c ac 03 ca 3b d6 82 cc 3b 2d 01 dd 3b
       0.014162924 0.0061649885 0.006241183 0.006744525
000230 e6 5b 8b 3c 6a 24 32 bc 66 bf 16 bd 46 22 47 bd
       0.017011594 -0.01087294 -0.036803626 -0.04861667
000240 5b 1e ff 3d 94 1c c2 3d 87 13 5b 3d d5 5c 88 3b
       0.12456962 0.09478107 0.05348542 0.004161457
000250 be 44 17 bd 82 78 90 bd 5b 67 da bd 9a 84 fc bd
       -0.036930792 -0.07054235 -0.10664245 -0.12329979
000260 e9 b2 05 be 32 82 53 3d 95 1d 39 3d c1 49 19 3d
       -0.1305653 0.051637836 0.045194227 0.037423853
000270 52 ad 39 3c 89 d2 91 bc 3f 97 1b bd 88 e3 6b bd
       0.011332827 -0.017800586 -0.037986036 -0.057590038
000280 dc 25 90 bd ea c1 ae bd d1 f5 71 bc f4 09 97 bc
       -0.07038471 -0.0853308 -0.01476808 -0.018437363
000290 f1 fd 77 bc bd 98 a0 3b 4e d1 90 3c d0 81 3f 3c
       -0.015136228 0.0049010203 0.01767793 0.011688665
0002a0 a8 34 8b 3c b9 49 11 3d f1 08 46 3d 7b ad e7 bd
       0.016992882 0.035470698 0.04834837 -0.11312386
0002b0 e9 6e 8d bd 1d 9a 1e bd b5 c7 8b bc 16 e0 3f ba
       -0.0690592 -0.038721193 -0.017063001 -0.0007319463
0002c0 38 c5 b2 3c 4a bb 60 3d 48 68 90 3d bd 06 aa 3d
       0.021822557 0.054866113 0.0705114 0.083020665

model.qy_x.model.tcn_block_00.conv1.bias f4 [2]
000000 18 52 92 3e 9c ca 1a 3e
       0.28578258 0.15116352

model.qy_x.model.tcn_block_00.conv1.weight_g f4 [2, 1, 1]
000000 ef 2b 88 3f df 75 d6 3f
       1.0638407 1.6754721

model.qy_x.model.tcn_block_00.conv1.weight_v f4 [2, 2, 9]
000000 e0 80 14 3e de c7 63 3e df d5 37 3e ae d0 35 bd
       0.14502287 0.22244212 0.17952679 -0.044388466
000010 5c db 22 be e0 11 05 be c8 7a fd bc e5 e3 cb 3d
       -0.15903991 -0.129951 -0.030942336 0.09955577
000020 15 f7 0b 3e db 28 86 bd 3a 1e 90 3d bd c4 5d 3d
       0.13668473 -0.06550761 0.07037015 0.054142702
000030 92 6c 9b bc 1a e7 5e bd e6 3e a2 bd 5c 1b b0 bd
       -0.018972669 -0.054419614 -0.07922153 -0.085989684
000040 8d d5 c0 bd ec 6f 85 bd b8 38 01 3d dd 35 f3 3c
       -0.094157316 -0.06515488 0.03154823 0.02968877
000050 6b 83 b8 3c 4b 83 81 3c 42 18 28 3c 45 8b 85 bc
       0.022523602 0.015809676 0.01025969 -0.01630176
000060 8c 07 8b bd b8 d4 05 be 35 20 50 be 1f 9c 50 bd
       -0.06788549 -0.13069427 -0.20324786 -0.05093014
000070 1a df 34 bc 9f 83 1e 3d 4e 78 a0 3d 19 1c f8 3d
       -0.01103952 0.038699742 0.07835446 0.12114734
000080 42 31 1f 3e 25 b2 1a 3e c7 dc 0c 3e c7 f2 77 3d
       0.15546134 0.15107019 0.13756095 0.060534265

model.qy_x.model.tcn_block_00.block.conv1d_layer_0.bias f4 [2]
000000 46 51 71 be 00 35 07 3f
       -0.2356616 0.52815247

model.qy_x.model.tcn_block_00.block.conv1d_layer_0.weight_g f4 [2, 1, 1]
000000 c1 03 b8 3f 29 5e c0 3f
       1.4376146 1.5028735

model.qy_x.model.tcn_block_00.block.conv1d_layer_0.weight_v f4 [2, 10, 9]
000000 26 f2 30 3c 8d cf c8 3c 7c 5c 0f bc 2b c9 3e bd
       0.01079992 0.02451303 -0.008750077 -0.046578567
000010 af 3e c3 bd bb 6c 03 be 49 c8 07 be b0 4f 0d be
       -0.0953344 -0.12834446 -0.13259996 -0.1379993
000020 01 5a 19 be 14 4f 2c bc 8f 0f 3f bd 71 35 96 bc
       -0.1497574 -0.010516901 -0.046645697 -0.01833603
000030 a2 84 4d 3d 42 b4 dd 3d 26 c1 dd 3d 69 6e bb 3d
       0.050175317 0.10825397 0.10827856 0.091519184
000040 6f f2 86 3d 65 77 cf 3d 22 77 36 bd 98 b3 cb 37
       0.06589209 0.101301946 -0.044547208 2.4283116e-05
000050 a2 58 3a 3d 76 b3 26 3d c5 5b d3 3c dc b0 2d 3d
       0.045494683 0.04069849 0.025800595 0.042404994
000060 cf de 12 3d de be a9 3c 93 22 45 3d 04 25 18 3d
       0.035857018 0.020720895 0.048128676 0.037144676
000070 56 25 11 3d 80 65 1b 3c 76 14 df bc ae 8d 7e 3b
       0.035435997 0.009484649 -0.027231436 0.0038841772
000080 70 a5 0a bd 4d 2e a8 bc 4b 98 97 ba f0 21 2f bd
       -0.03384918 -0.02052989 -0.0011565773 -0.042756975
000090 56 81 1a 3a eb 31 1f bd ee f0 52 bd 7d 25 76 bd
       0.00058939063 -0.038865965 -0.0514993 -0.060094345
0000a0 69 8e 0c bd ad 8a ea bc fb c7 52 bc 49 9c bb bc
       -0.0343155 -0.028630579 -0.012865062 -0.022901671
0000b0 f2 41 09 bd 7b 37 55 38 a7 a5 79 3c 96 9b 0d bc
       -0.033510156 5.0834828e-05 0.0152372485 -0.008643052
0000c0 99 4e 2a bc 46 e9 6e bc f7 14 39 bd 87 52 a8 bd
       -0.010394716 -0.014581984 -0.04518601 -0.08218866
0000d0 b9 c8 99 bd b1 45 e3 bd cf c8 58 3a 45 b6 a4 3b
       -0.07508988 -0.11097277 0.0008269669 0.005026611
0000e0 ae 83 ee 3c ee 4e 6a 3d 1b 1b b2 3d da 6f e0 3d
       0.029115524 0.05720418 0.08696576 0.10958834
0000f0 39 59 f4 3d 40 5c c9 3d 46 2c de 3d 04 06 68 3c
       0.1193108 0.098320484 0.10848288 0.0141615905
000100 15 ee 82 bc a7 f4 0b bd 20 d4 20 3d 2c 36 ae 3d
       -0.015982667 -0.034168866 0.0392648 0.08506426
000110 3b 39 01 3e 1c 15 f0 3d c5 ea fb 3d ec db 00 3e
       0.12619488 0.11722776 0.12300638 0.12583894
000120 e5 54 5b bc b3 c2 be 3b fd b4 20 bc 48 eb 98 bd
       -0.01338694 0.00582155 -0.009808776 -0.07466751
000130 36 2d 49 bd da cd bf bd 36 3c d3 bd a2 14 c1 bd
       -0.049115382 -0.09365435 -0.10314219 -0.094277635
000140 2a f1 f6 bd 9e ea 56 bc fd 35 aa ba 5d f4 84 bc
       -0.12057717 -0.0131174605 -0.001298606 -0.016229803
000150 d2 2e 01 3c 54 38 d5 ba a3 9d 3b 3d 92 62 04 3d
       0.007884698 -0.0016267397 0.04580463 0.032320566
000160 0f 1c 41 3d a0 3a 89 3d dc a2 84 3c 04 3d 08 3c
       0.0471459 0.06700635 0.016190939 0.0083153285
000170 a3 18 86 3c 65 8f ae 3c 42 9a d8 3c 8e 9c c8 3c
       0.01636917 0.02130861 0.026440743 0.024488714
000180 b9 9a 81 3c 98 e3 c4 3c e2 6f 09 3d be bd 19 bc
       0.015820848 0.024034306 0.033553965 -0.009383617
000190 c4 a7 b6 3c 6c c4 da 3c fc 2d 7a 3c 09 1a a5 bc
       0.022296794 0.02670499 0.015269753 -0.020154016
0001a0 d9 40 c0 bc c3 11 2a bc a1 f2 51 bc 9c 7f 22 bb
       -0.023468422 -0.010380211 -0.012814195 -0.00247953
0001b0 f2 1c 88 bc a2 e6 30 3c ab 8f ba 3c 32 27 03 bb
       -0.016615365 0.010797175 0.022773584 -0.0020012376
0001c0 9e 55 d5 3c 79 b4 33 3b 45 ce 0e bc e0 69 00 3b
       0.026041802 0.0027420803 -0.008716171 0.0019594356
0001d0 f0 89 4d 3c 81 0b 91 3d cf 94 70 3c c9 d3 a4 3c
       0.012545094 0.07082272 0.014683916 0.020120518
0001e0 07 54 a0 bc 4c e5 f5 3a 9c a2 c9 ba a2 db 08 bc
       -0.019571317 0.0018760352 -0.0015383544 -0.008353146
0001f0 a9 ee bf bc b0 5f 6f bd 90 ee 11 be ca e6 cf bd
       -0.023429232 -0.058440864 -0.1425116 -0.101514414
000200 ef 9d 71 bd 6e c7 4e bc 8d c7 d3 3c d4 6f 60 3d
       -0.058988508 -0.01262079 0.02585199 0.054794148
000210 af 85 a4 3d 4a c6 bd 3d 91 51 ea 3d 45 6b 40 3d
       0.080333106 0.09266336 0.11441339 0.0469773
000220 9c 0b 68 3c ac 03 ca 3b d6 82 cc 3b 2d 01 dd 3b
       0.014162924 0.0061649885 0.006241183 0.006744525
000230 e6 5b 8b 3c 6a 24 32 bc 66 bf 16 bd 46 22 47 bd
       0.017011594 -0.01087294 -0.036803626 -0.04861667
000240 5b 1e ff 3d 94 1c c2 3d 87 13 5b 3d d5 5c 88 3b
       0.12456962 0.09478107 0.05348542 0.004161457
000250 be 44 17 bd 82 78 90 bd 5b 67 da bd 9a 84 fc bd
       -0.036930792 -0.07054235 -0.10664245 -0.12329979
000260 e9 b2 05 be 32 82 53 3d 95 1d 39 3d c1 49 19 3d
       -0.1305653 0.051637836 0.045194227 0.037423853
000270 52 ad 39 3c 89 d2 91 bc 3f 97 1b bd 88 e3 6b bd
       0.011332827 -0.017800586 -0.037986036 -0.057590038
000280 dc 25 90 bd ea c1 ae bd d1 f5 71 bc f4 09 97 bc
       -0.07038471 -0.0853308 -0.01476808 -0.018437363
000290 f1 fd 77 bc bd 98 a0 3b 4e d1 90 3c d0 81 3f 3c
       -0.015136228 0.0049010203 0.01767793 0.011688665
0002a0 a8 34 8b 3c b9 49 11 3d f1 08 46 3d 7b ad e7 bd
       0.016992882 0.035470698 0.04834837 -0.11312386
0002b0 e9 6e 8d bd 1d 9a 1e bd b5 c7 8b bc 16 e0 3f ba
       -0.0690592 -0.038721193 -0.017063001 -0.0007319463
0002c0 38 c5 b2 3c 4a bb 60 3d 48 68 90 3d bd 06 aa 3d
       0.021822557 0.054866113 0.0705114 0.083020665

model.qy_x.model.tcn_block_00.block.conv1d_layer_1.bias f4 [2]
000000 18 52 92 3e 9c ca 1a 3e
       0.28578258 0.15116352

model.qy_x.model.tcn_block_00.block.conv1d_layer_1.weight_g f4 [2, 1, 1]
000000 ef 2b 88 3f df 75 d6 3f
       1.0638407 1.6754721

model.qy_x.model.tcn_block_00.block.conv1d_layer_1.weight_v f4 [2, 2, 9]
000000 e0 80 14 3e de c7 63 3e df d5 37 3e ae d0 35 bd
       0.14502287 0.22244212 0.17952679 -0.044388466
000010 5c db 22 be e0 11 05 be c8 7a fd bc e5 e3 cb 3d
       -0.15903991 -0.129951 -0.030942336 0.09955577
000020 15 f7 0b 3e db 28 86 bd 3a 1e 90 3d bd c4 5d 3d
       0.13668473 -0.06550761 0.07037015 0.054142702
000030 92 6c 9b bc 1a e7 5e bd e6 3e a2 bd 5c 1b b0 bd
       -0.018972669 -0.054419614 -0.07922153 -0.085989684
000040 8d d5 c0 bd ec 6f 85 bd b8 38 01 3d dd 35 f3 3c
       -0.094157316 -0.06515488 0.03154823 0.02968877
000050 6b 83 b8 3c 4b 83 81 3c 42 18 28 3c 45 8b 85 bc
       0.022523602 0.015809676 0.01025969 -0.01630176
000060 8c 07 8b bd b8 d4 05 be 35 20 50 be 1f 9c 50 bd
       -0.06788549 -0.13069427 -0.20324786 -0.05093014
000070 1a df 34 bc 9f 83 1e 3d 4e 78 a0 3d 19 1c f8 3d
       -0.01103952 0.038699742 0.07835446 0.12114734
000080 42 31 1f 3e 25 b2 1a 3e c7 dc 0c 3e c7 f2 77 3d
       0.15546134 0.15107019 0.13756095 0.060534265

model.qy_x.model.tcn_block_00.downsample.weight f4 [2, 10, 1]
000000 24 d8 1e bf 87 11 f9 3e 79 32 1a 3f d9 dd be 3e
       -0.62048554 0.48646185 0.60233265 0.3727863
000010 22 19 41 bf 7e c0 dc be 21 79 88 3f 84 0e 5f 3f
       -0.75428975 -0.4311561 1.0661966 0.87131524
000020 88 a8 4c bf e0 a0 ea bd 4f 12 86 3f af 67 4d bf
       -0.7994466 -0.11456466 1.0474337 -0.80236334
000030 fa 9f 90 be d5 4c b4 3e 70 72 b0 be af ed 73 3f
       -0.28247052 0.35214868 -0.3446231 0.9528455
000040 9f d7 c8 bd c1 0f 28 bf 7d ee 1b 3f 18 bc 23 bf
       -0.098067515 -0.6564904 0.6091078 -0.63958883

model.qy_x.model.tcn_block_00.downsample.bias f4 [2]
000000 a8 7f 01 40 e1 64 72 3f
       2.0234165 0.9468518

model.qy_x.model.tcn_block_01.conv0.bias f4 [2]
000000 57 ea 9e 3e 33 7e 5d 3f
       0.31038162 0.8652069

model.qy_x.model.tcn_block_01.conv0.weight_g f4 [2, 1, 1]
000000 a3 cc e4 3f e4 da c2 3f
       1.787495 1.522305

model.qy_x.model.tcn_block_01.conv0.weight_v f4 [2, 2, 9]
000000 79 9b ee 3d 74 ea 50 3d b1 c8 03 3d 77 8e df 3b
       0.11650748 0.051004842 0.032173816 0.006822403
000010 0a 9e 3e 3c 6d 30 ea 3b 91 8d 3c bd e0 1f 89 bd
       0.011634359 0.007146886 -0.046033446 -0.06695533
000020 ce f5 a5 bd b2 93 14 be d8 63 23 be f1 31 13 be
       -0.08103524 -0.14509466 -0.15956056 -0.1437452
000030 28 e7 f0 bd 82 4c 1b bd 9b 62 5b bc 0c 02 e1 3d
       -0.117628396 -0.03791476 -0.013390209 0.109867185
000040 1e ec 3d 3e b8 56 9c 3e 85 6d 14 3e 9c f0 3e 3e
       0.18547103 0.3053491 0.14494903 0.18646473
000050 bb c8 39 3e 93 f6 4f 3e 3f 52 47 3e 50 0d 3b 3e
       0.18142979 0.20308904 0.19464968 0.18266797
000060 e5 25 2d 3e 0a e9 40 3e 0e c1 4c 3e 6a c4 e5 3c
       0.16908987 0.18838897 0.1999552 0.02804776
000070 21 40 2a 3a 7b bb ba bc 97 c5 f3 bc c5 38 00 bd
       0.00064945413 -0.022794476 -0.029757304 -0.03130414
000080 ea e8 6f bc 3a 6c 5c bc 2d 82 bd 3b c2 4a 89 3d
       -0.014642933 -0.013453538 0.0057833404 0.06703712

model.qy_x.model.tcn_block_01.conv1.bias f4 [4]
000000 50 e6 4e 3f 9f 59 8f 3e da 64 43 3f 40 ed 2d 3e
       0.8082018 0.27998063 0.7632576 0.16985035

model.qy_x.model.tcn_block_01.conv1.weight_g f4 [4, 1, 1]
000000 85 39 9f 3f 1a 60 e9 3e 4a c1 cc 3f ad 71 bf 3f
       1.2439429 0.45581132 1.5996487 1.4956566

model.qy_x.model.tcn_block_01.conv1.weight_v f4 [4, 2, 9]
000000 d7 f1 9d be 88 b5 a0 bd e1 fe 23 be e4 22 d2 bd
       -0.30848572 -0.07847124 -0.16015197 -0.10260561
000010 88 62 c6 3d 4c c2 8b 3d e9 3b 01 3e e7 3f f4 3d
       0.09686762 0.068241686 0.1262051 0.11926251
000020 8e 35 2e 3d 8a e9 68 be 6c 7f 98 bd 33 2a 10 3e
       0.042531542 -0.22745338 -0.07446179 0.14078598
000030 ff f6 b6 bd cb f6 3a be d0 2a 0b 3e fc 0a 91 3e
       -0.089338295 -0.18258207 0.1359055 0.28328693
000040 8c 32 8a 3d 39 a2 0d 3c 91 18 31 be 2c 8f 75 3e
       0.06747922 0.008644634 -0.17294528 0.23980397
000050 72 31 8c bc 53 cf 9c be 3d 87 56 bd 6b b3 2d bd
       -0.017113421 -0.30626926 -0.052375067 -0.042407434
000060 9e c7 41 3d 6e b7 2e bb 01 b3 b6 be 50 1e ab bc
       0.04730951 -0.0026659626 -0.35683444 -0.020888478
000070 19 2a ed bd 09 ec b2 3e 2b 69 d7 3d 0f aa 99 bd
       -0.11580295 0.34945706 0.10518106 -0.07503139
000080 64 2d 0d bf 39 6d 95 bd 85 f7 5e ba 34 a5 b9 3d
       -0.55147386 -0.07296223 -0.0008505511 0.09064713
000090 30 ed 8f 3d 93 10 46 3d 06 b3 aa 3c 19 81 fb bb
       0.07027662 0.04835565 0.020837318 -0.0076753017
0000a0 6c b2 6d bd 32 ed e3 bd 66 31 27 be 68 31 4f be
       -0.058031484 -0.11129226 -0.16327438 -0.2023369
0000b0 22 dc 65 be 51 36 2c be 86 23 1f be 99 69 1f be
       -0.22447255 -0.16817595 -0.15540895 -0.15567626
0000c0 e0 74 ca bd 4d 4d 86 bd d9 98 08 3c 8f 5d 7b 3d
       -0.098855734 -0.06557713 0.008337223 0.06136852
0000d0 93 ea e3 3d 24 28 2b 3e e6 79 10 3d 8a 09 2e bd
       0.11128726 0.16714531 0.0352725 -0.042489566
0000e0 39 15 2a bd 68 21 a5 bd f6 ad 24 bd b1 e6 b2 bc
       -0.041524146 -0.08063012 -0.040204965 -0.021838518
0000f0 2a 6f 7b 3d 77 a5 fa 3d b5 3f ba 3e 09 2e 3f 3e
       0.06138531 0.12238591 0.3637673 0.18669905
000100 94 31 be 3d 83 e0 c3 3d c8 7a 9f 3d 10 81 10 3d
       0.092868 0.095643066 0.077870905 0.035279334
000110 9f 13 2c 3a 32 2d 4e bd 63 67 9f bd 21 e5 09 be
       0.0006564203 -0.05033607 -0.07783391 -0.13466312

model.qy_x.model.tcn_block_01.block.conv1d_layer_0.bias f4 [2]
000000 57 ea 9e 3e 33 7e 5d 3f
       0.31038162 0.8652069

model.qy_x.model.tcn_block_01.block.conv1d_layer_0.weight_g f4 [2, 1, 1]
000000 a3 cc e4 3f e4 da c2 3f
       1.787495 1.522305

model.qy_x.model.tcn_block_01.block.conv1d_layer_0.weight_v f4 [2, 2, 9]
000000 79 9b ee 3d 74 ea 50 3d b1 c8 03 3d 77 8e df 3b
       0.11650748 0.051004842 0.032173816 0.006822403
000010 0a 9e 3e 3c 6d 30 ea 3b 91 8d 3c bd e0 1f 89 bd
       0.011634359 0.007146886 -0.046033446 -0.06695533
000020 ce f5 a5 bd b2 93 14 be d8 63 23 be f1 31 13 be
       -0.08103524 -0.14509466 -0.15956056 -0.1437452
000030 28 e7 f0 bd 82 4c 1b bd 9b 62 5b bc 0c 02 e1 3d
       -0.117628396 -0.03791476 -0.013390209 0.109867185
000040 1e ec 3d 3e b8 56 9c 3e 85 6d 14 3e 9c f0 3e 3e
       0.18547103 0.3053491 0.14494903 0.18646473
000050 bb c8 39 3e 93 f6 4f 3e 3f 52 47 3e 50 0d 3b 3e
       0.18142979 0.20308904 0.19464968 0.18266797
000060 e5 25 2d 3e 0a e9 40 3e 0e c1 4c 3e 6a c4 e5 3c
       0.16908987 0.18838897 0.1999552 0.02804776
000070 21 40 2a 3a 7b bb ba bc 97 c5 f3 bc c5 38 00 bd
       0.00064945413 -0.022794476 -0.029757304 -0.03130414
000080 ea e8 6f bc 3a 6c 5c bc 2d 82 bd 3b c2 4a 89 3d
       -0.014642933 -0.013453538 0.0057833404 0.06703712

model.qy_x.model.tcn_block_01.block.conv1d_layer_1.bias f4 [4]
000000 50 e6 4e 3f 9f 59 8f 3e da 64 43 3f 40 ed 2d 3e
       0.8082018 0.27998063 0.7632576 0.16985035

model.qy_x.model.tcn_block_01.block.conv1d_layer_1.weight_g f4 [4, 1, 1]
000000 85 39 9f 3f 1a 60 e9 3e 4a c1 cc 3f ad 71 bf 3f
       1.2439429 0.45581132 1.5996487 1.4956566

model.qy_x.model.tcn_block_01.block.conv1d_layer_1.weight_v f4 [4, 2, 9]
000000 d7 f1 9d be 88 b5 a0 bd e1 fe 23 be e4 22 d2 bd
       -0.30848572 -0.07847124 -0.16015197 -0.10260561
000010 88 62 c6 3d 4c c2 8b 3d e9 3b 01 3e e7 3f f4 3d
       0.09686762 0.068241686 0.1262051 0.11926251
000020 8e 35 2e 3d 8a e9 68 be 6c 7f 98 bd 33 2a 10 3e
       0.042531542 -0.22745338 -0.07446179 0.14078598
000030 ff f6 b6 bd cb f6 3a be d0 2a 0b 3e fc 0a 91 3e
       -0.089338295 -0.18258207 0.1359055 0.28328693
000040 8c 32 8a 3d 39 a2 0d 3c 91 18 31 be 2c 8f 75 3e
       0.06747922 0.008644634 -0.17294528 0.23980397
000050 72 31 8c bc 53 cf 9c be 3d 87 56 bd 6b b3 2d bd
       -0.017113421 -0.30626926 -0.052375067 -0.042407434
000060 9e c7 41 3d 6e b7 2e bb 01 b3 b6 be 50 1e ab bc
       0.04730951 -0.0026659626 -0.35683444 -0.020888478
000070 19 2a ed bd 09 ec b2 3e 2b 69 d7 3d 0f aa 99 bd
       -0.11580295 0.34945706 0.10518106 -0.07503139
000080 64 2d 0d bf 39 6d 95 bd 85 f7 5e ba 34 a5 b9 3d
       -0.55147386 -0.07296223 -0.0008505511 0.09064713
000090 30 ed 8f 3d 93 10 46 3d 06 b3 aa 3c 19 81 fb bb
       0.07027662 0.04835565 0.020837318 -0.0076753017
0000a0 6c b2 6d bd 32 ed e3 bd 66 31 27 be 68 31 4f be
       -0.058031484 -0.11129226 -0.16327438 -0.2023369
0000b0 22 dc 65 be 51 36 2c be 86 23 1f be 99 69 1f be
       -0.22447255 -0.16817595 -0.15540895 -0.15567626
0000c0 e0 74 ca bd 4d 4d 86 bd d9 98 08 3c 8f 5d 7b 3d
       -0.098855734 -0.06557713 0.008337223 0.06136852
0000d0 93 ea e3 3d 24 28 2b 3e e6 79 10 3d 8a 09 2e bd
       0.11128726 0.16714531 0.0352725 -0.042489566
0000e0 39 15 2a bd 68 21 a5 bd f6 ad 24 bd b1 e6 b2 bc
       -0.041524146 -0.08063012 -0.040204965 -0.021838518
0000f0 2a 6f 7b 3d 77 a5 fa 3d b5 3f ba 3e 09 2e 3f 3e
       0.06138531 0.12238591 0.3637673 0.18669905
000100 94 31 be 3d 83 e0 c3 3d c8 7a 9f 3d 10 81 10 3d
       0.092868 0.095643066 0.077870905 0.035279334
000110 9f 13 2c 3a 32 2d 4e bd 63 67 9f bd 21 e5 09 be
       0.0006564203 -0.05033607 -0.07783391 -0.13466312

model.qy_x.model.tcn_block_01.downsample.weight f4 [4, 2, 1]
000000 a7 4d c7 3e 07 31 65 bf 1a b6 e6 3c 8f 32 45 3f
       0.38926432 -0.89527935 0.028163005 0.7703027
000010 ef 42 73 bd 42 78 9f 3d 93 d5 26 3f b4 fa c6 3d
       -0.059390005 0.07786609 0.6516964 0.097157866

model.qy_x.model.tcn_block_01.downsample.bias f4 [4]
000000 3b fc 24 3e 51 f0 03 3f 68 32 80 3f ec 52 51 3e
       0.16111843 0.5153857 1.0015383 0.20441788

model.qy_x.model.final_dense_02.weight f4 [4, 4, 1]
000000 c1 80 7a bf b0 52 11 3f 01 6b 0b 3e df ac e3 bf
       -0.9785271 0.56766796 0.13615038 -1.7787131
000010 be 0b 17 3f 28 83 b4 bf 3e 06 2f 3d 39 20 ae 3e
       0.5900229 -1.4102526 0.042730562 0.3400896
000020 b6 58 30 bf 9f d6 c8 3e 8a 1a 89 bf 2e 88 af 3e
       -0.6888536 0.39226243 -1.0711224 0.34283584
000030 b2 82 28 3f 80 8e eb be 6a 47 e7 3e f2 67 0c bf
       0.65824425 -0.46007156 0.45171672 -0.5484611

model.qy_x.model.final_dense_02.bias f4 [4]
000000 e0 67 07 be 46 01 46 bf 8d 40 ae 3d 19 32 42 3f
       -0.13223219 -0.77345693 0.08508406 0.7585769

model.encoder.model.tcn_block_00.conv0.bias f4 [2]
000000 51 1e df 3d d2 6a 8b be
       0.10894454 -0.27229935

model.encoder.model.tcn_block_00.conv0.weight_g f4 [2, 1, 1]
000000 b1 6a 12 3f 02 05 1f 3f
       0.5719405 0.62117016

model.encoder.model.tcn_block_00.conv0.weight_v f4 [2, 14, 9]
000000 9b 50 a0 3c 67 03 79 bc f2 6c c1 3c aa 3a f8 3b
       0.019569686 -0.015198565 0.02361152 0.0075753527
000010 63 b1 09 bc b8 4d 4b bc 53 4e 4d bd 38 b9 2e 3c
       -0.008404109 -0.012408666 -0.050123524 0.010664277
000020 93 fc a4 bc 26 4c 92 ba b9 c5 0e bd 1a 59 58 3c
       -0.020139968 -0.001116161 -0.03485653 0.013204837
000030 33 3f 91 bc af 6c 90 3c df 3f 52 bc 45 ad 7a 3c
       -0.017730331 0.01762995 -0.012832611 0.0153001
000040 a7 ba 50 3c b7 ea 07 3c 03 b3 dc 3c ea 9f 99 3b
       0.012739814 0.0082957065 0.026940828 0.0046882527
000050 89 7d e0 3b 19 dd b8 bc 6d fc 95 3c 0b e3 7d bc
       0.0068509025 -0.022566365 0.018308843 -0.015496026
000060 1f 81 c7 bc f8 de ae bc 1a c8 d7 ba 5a dc 78 bc
       -0.024353562 -0.021346554 -0.0016462833 -0.015189255
000070 2f 98 b9 3c c3 c2 3d bc ed 0c 6a 3c 55 f4 13 bd
       0.022655575 -0.011582079 0.014285308 -0.036121685
000080 1d ce 98 3c 05 d4 c9 bb c0 ad 8d 3b 1b ca e4 bc
       0.01865297 -0.006159308 0.004323691 -0.027928403
000090 ca 8d f3 3c e9 28 6c bd d1 cb 90 bc 20 11 51 bd
       0.029730696 -0.057656202 -0.017675312 -0.051041722
0000a0 cb a1 69 bb 15 30 56 3c fc 7a 69 3c d6 ff 01 3c
       -0.0035649415 0.013072987 0.014250513 0.007934531
0000b0 4f 73 03 bd bc e7 0f 3c 08 e7 2b 3d 33 01 49 3d
       -0.03209239 0.008783277 0.041968375 0.04907341
0000c0 0f e8 82 3c 61 8a 56 3d 9f 9f 60 bd ca 10 15 bd
       0.015979795 0.052378062 -0.054839727 -0.036392964
0000d0 3f 58 17 bd 8c 2b 93 bd bd c1 94 bc f6 75 a8 3d
       -0.036949392 -0.0718604 -0.018158788 0.08225624
0000e0 42 10 59 3d 21 fd 3b 3d 19 09 b7 3c 46 a1 87 bd
       0.05299402 0.0458957 0.022343205 -0.06622557
0000f0 4e 16 d3 36 80 de 14 3d 0e 27 6d bd 8a fc 7e 3d
       6.2908866e-06 0.036345005 -0.057898574 0.06225256
000100 c4 58 a8 3c 0e c5 48 3d 3d 95 2a bd df 88 02 3d
       0.02055014 0.04901605 -0.04164623 0.03186881
000110 31 00 92 bd b9 e2 9f bc 7c 5e 45 3b fd 72 b0 3c
       -0.07128943 -0.01951729 0.0030116132 0.021539206
000120 3b 01 1c 3d c8 5d 30 3d 77 4a 03 3d 60 16 27 3d
       0.03808711 0.043058187 0.032053437 0.040792823
000130 ce 6a 72 3c c6 af c5 3b 76 dc b3 bc 32 fc 42 bc
       0.014795972 0.0060329167 -0.02195571 -0.011900948
000140 db 8e 56 bc 53 23 a0 bd f7 6e 97 b9 b4 c3 32 bc
       -0.013095583 -0.078192376 -0.0002888364 -0.010910917
000150 be 2b 16 bb d2 62 83 bb 41 b7 8e 3d 17 3c 2d 3d
       -0.0022914256 -0.004009583 0.06968547 0.042293634
000160 fe 6c 00 bd 00 a3 b5 bc 4e fa 22 3e 93 88 27 3e
       -0.031353943 -0.022172451 0.15915796 0.16360693
000170 04 d9 39 3e a1 9b 63 3d 13 d9 fd 3d df 5b 99 3d
       0.18149191 0.05556834 0.12394919 0.07488226
000180 12 7d ac 3d c3 d0 d6 3d 1a 5e a6 3d 8b 05 aa 3c
       0.08422293 0.10489037 0.08123417 0.020754596
000190 1c dc af 3d f8 30 a4 3d 92 64 05 3e 09 8c 37 bd
       0.085869044 0.080171525 0.13026646 -0.044811282
0001a0 4e 00 9b 3c 1a a8 3a 3e b1 33 df 3d 3d 96 47 3c
       0.018921044 0.18228188 0.10898531 0.012181816
0001b0 34 ba 03 3e 81 cf a7 bb bb 88 28 3e 3a 2d be ba
       0.12864 -0.005121172 0.16458409 -0.0014509328
0001c0 ab 34 ff 3d d4 74 93 3c ed 5d a8 3d f4 67 04 3e
       0.124612175 0.018000044 0.0822104 0.1293028
0001d0 8a 97 b8 3d a6 d6 08 3e db d0 e9 3d 5d 3e bc 3d
       0.09013279 0.13363132 0.11416789 0.09191582
0001e0 46 8a a1 3d f9 3d 4d 3d 1e e4 47 bb 79 d1 40 3d
       0.07887702 0.05010793 -0.0030500959 0.04707477
0001f0 50 d9 83 3d 1e fe bb 3d 8c 64 1a 3d e3 7b 06 3d
       0.064379334 0.091793284 0.037693545 0.03283299
000200 25 74 8c 3c 0f 6d 0f 3a 9a c4 4b 3b 90 fb 3d bc
       0.017145226 0.0005471268 0.0031092525 -0.011595622
000210 28 95 0b bd 39 62 0a bd 6e e4 36 bd 62 92 19 bd
       -0.034077793 -0.03378508 -0.04465144 -0.037493117
000220 a6 c8 b8 bc b1 b4 de bb 2e 58 0e 3c 21 77 84 3b
       -0.022556614 -0.0067964424 0.008688016 0.0040425216
000230 62 dc 2d 3c 3e f9 d1 3c 1a 28 08 3d 17 74 d9 3c
       0.010611625 0.025631543 0.03324137 0.026544614
000240 b8 44 13 bc 21 d1 03 3a 62 57 ab 3b ba b3 85 bb
       -0.008988552 0.0005028416 0.0052289227 -0.004080263
000250 6f 33 4d 3c 93 10 88 b9 e2 ad ea bb 08 b4 c4 3b
       0.01252447 -0.0002595229 -0.0071618417 0.0060029067
000260 bf f5 0c bc 2e a7 26 3b 59 b7 b8 bc fe 5f 7d 3c
       -0.008603512 0.0025429237 -0.022548364 0.015464781
000270 64 d4 26 bc b8 a8 67 3a 8e 36 0f bc ce 1c 1c bc
       -0.010182474 0.0008837092 -0.008741034 -0.009528352
000280 c8 ea a2 bb e6 0c a1 3c b2 6d 70 bd 84 9f f0 bc
       -0.0049718358 0.01965947 -0.058698364 -0.029372938
000290 fa 10 cc bc ee 24 90 bb ac 06 f7 3a a3 c1 3b 3c
       -0.024910439 -0.0043989336 0.0018846593 0.011459741
0002a0 e1 e7 92 3c 9d 42 20 3c cd da 2c 3c cf 2c 54 3d
       0.017932834 0.009781507 0.010550213 0.051800545
0002b0 73 da 0e 3d c2 7b a1 3c f5 ce 0b 3c e5 f9 40 bc
       0.0348763 0.019712333 0.008533229 -0.0117783295
0002c0 a7 e0 33 bc bc c2 74 bc bf 84 fd bc 9d 0d 25 bd
       -0.010978854 -0.014939006 -0.030947087 -0.040296186
0002d0 9b 27 a3 3c 97 4a 82 3b 20 0b c1 3b 93 85 1e ba
       0.019916346 0.003976177 0.005891219 -0.0006047126
0002e0 08 65 70 3b 80 56 5f bc a7 c3 9e bb 0f e4 8d 3c
       0.0036681313 -0.013631463 -0.004845101 0.01732066
0002f0 ca 7b 0a 3d 1f 53 2d bc e3 ad 9d bc d1 1e 25 bc
       0.03380946 -0.0105789 -0.019247955 -0.010078148
000300 3c 56 c4 3a 80 fb 06 bc 3f 33 4c b8 dc 5c c8 3c
       0.0014979313 -0.008238673 -4.8685117e-05 0.024458341
000310 49 d7 cd 3c da b4 01 3d 92 69 c5 ba c1 a3 45 3c
       0.02512707 0.031666614 -0.001506137 0.012062968
000320 f4 78 af 3b 12 1e 57 3b 1b 40 9f b9 cb ad f6 bb
       0.005354995 0.003282432 -0.00030374606 -0.007528042
000330 75 8a c5 bc b6 c9 d6 bc 49 2a 1c bd 38 48 93 bd
       -0.024113873 -0.02621923 -0.038126264 -0.07191509
000340 fc 6c 7a bd 18 10 c0 bc 9a 9d a6 bc 85 21 9b 3c
       -0.06113909 -0.023445174 -0.020338822 0.018936882
000350 d9 2a 2b 3c e2 0d fc 3c bd c8 b2 3c c2 31 89 3c
       0.010447227 0.030768339 0.021824235 0.01674736
000360 11 d3 02 3e 72 61 91 3d 78 e5 54 3d 23 9a dd 3b
       0.12775828 0.07098664 0.05197665 0.0067627593
000370 ec e8 cd ba ee 3d 1a bc 02 9d 0c 3c 2f cb 0d 3c
       -0.0015709675 -0.009414179 0.008582355 0.0086544
000380 26 0a f0 3b 5b d6 ae 3c 69 60 d8 3a 8e 2c cf 3b
       0.0073254285 0.021342447 0.0016508225 0.00632245
000390 54 d5 71 3c b2 87 38 3c c3 f0 3a 3c c9 b8 84 39
       0.014760334 0.011262821 0.011409941 0.00025314678
0003a0 d7 7a 86 3b 24 bd c3 3c e7 d7 12 bd 0b 2f eb 3d
       0.004103999 0.0238939 -0.03585043 0.11483582
0003b0 c4 fe 15 3d 41 12 8d 3d cd 6d e2 3d 2d e6 ad 3d
       0.036619917 0.06888247 0.11056099 0.08491168
0003c0 5c 93 11 3d 49 29 bd bd 4b e3 5c be 46 ce 2b be
       0.035540923 -0.0923639 -0.2157108 -0.16777906
0003d0 7a d3 9e bd 50 01 48 bd f1 27 11 3d 50 49 5f 3e
       -0.0775518 -0.048829377 0.03543848 0.2180531
0003e0 2c 19 64 3e fe e3 19 be 3c f3 5c bd 84 c3 e8 bd
       0.22275227 -0.15028378 -0.053942904 -0.11365417

model.encoder.model.tcn_block_00.conv1.bias f4 [2]
000000 66 84 0a bc 5b 61 da bb
       -0.008454418 -0.0066644377

model.encoder.model.tcn_block_00.conv1.weight_g f4 [2, 1, 1]
000000 4f 0a fa 3e 56 ee 20 3f
       0.4883599 0.6286367

model.encoder.model.tcn_block_00.conv1.weight_v f4 [2, 2, 9]
000000 fe 45 12 3d 31 77 1d bd d8 78 18 3d 15 f6 ab 3d
       0.03571128 -0.038443748 0.03722462 0.08396546
000010 78 5b 68 3d 01 06 d3 bc da 7a 04 bc 29 d2 f9 bd
       0.056727856 -0.025759699 -0.008085931 -0.12198288
000020 85 b6 67 bd db ec 48 3e a7 c7 36 3c 44 f6 54 3e
       -0.05657055 0.19621603 0.011155999 0.20797068
000030 21 38 b7 3c 55 bf 7c 3d 03 3e e7 3d a6 e9 fe bd
       0.022365632 0.061705906 0.11291125 -0.12446909
000040 c9 d8 ee 3d 18 3c d5 3d 19 a4 b9 bc 3e e0 48 bd
       0.11662442 0.104118526 -0.022661256 -0.04904198
000050 13 8a 22 3e e4 30 15 3e 18 39 17 be 9c 74 db 3d
       0.15872984 0.14569432 -0.14767873 0.10715601
000060 5e 56 1e be 4d 09 2d be 01 66 bd 3d e5 d9 84 be
       -0.15462634 -0.16898079 0.09247971 -0.2594749
000070 7a e2 53 be 23 17 7a be 68 d4 3a be 1b 48 bc bb
       -0.20691863 -0.24422888 -0.18245089 -0.0057459003
000080 83 e3 6b be fc 2b 78 be ae dc ca bd 11 6c 53 be
       -0.23036008 -0.24235529 -0.099053726 -0.20646693

model.encoder.model.tcn_block_00.block.conv1d_layer_0.bias f4 [2]
000000 51 1e df 3d d2 6a 8b be
       0.10894454 -0.27229935

model.encoder.model.tcn_block_00.block.conv1d_layer_0.weight_g f4 [2, 1, 1]
000000 b1 6a 12 3f 02 05 1f 3f
       0.5719405 0.62117016

model.encoder.model.tcn_block_00.block.conv1d_layer_0.weight_v f4 [2, 14, 9]
000000 9b 50 a0 3c 67 03 79 bc f2 6c c1 3c aa 3a f8 3b
       0.019569686 -0.015198565 0.02361152 0.0075753527
000010 63 b1 09 bc b8 4d 4b bc 53 4e 4d bd 38 b9 2e 3c
       -0.008404109 -0.012408666 -0.050123524 0.010664277
000020 93 fc a4 bc 26 4c 92 ba b9 c5 0e bd 1a 59 58 3c
       -0.020139968 -0.001116161 -0.03485653 0.013204837
000030 33 3f 91 bc af 6c 90 3c df 3f 52 bc 45 ad 7a 3c
       -0.017730331 0.01762995 -0.012832611 0.0153001
000040 a7 ba 50 3c b7 ea 07 3c 03 b3 dc 3c ea 9f 99 3b
       0.012739814 0.0082957065 0.026940828 0.0046882527
000050 89 7d e0 3b 19 dd b8 bc 6d fc 95 3c 0b e3 7d bc
       0.0068509025 -0.022566365 0.018308843 -0.015496026
000060 1f 81 c7 bc f8 de ae bc 1a c8 d7 ba 5a dc 78 bc
       -0.024353562 -0.021346554 -0.0016462833 -0.015189255
000070 2f 98 b9 3c c3 c2 3d bc ed 0c 6a 3c 55 f4 13 bd
       0.022655575 -0.011582079 0.014285308 -0.036121685
000080 1d ce 98 3c 05 d4 c9 bb c0 ad 8d 3b 1b ca e4 bc
       0.01865297 -0.006159308 0.004323691 -0.027928403
000090 ca 8d f3 3c e9 28 6c bd d1 cb 90 bc 20 11 51 bd
       0.029730696 -0.057656202 -0.017675312 -0.051041722
0000a0 cb a1 69 bb 15 30 56 3c fc 7a 69 3c d6 ff 01 3c
       -0.0035649415 0.013072987 0.014250513 0.007934531
0000b0 4f 73 03 bd bc e7 0f 3c 08 e7 2b 3d 33 01 49 3d
       -0.03209239 0.008783277 0.041968375 0.04907341
0000c0 0f e8 82 3c 61 8a 56 3d 9f 9f 60 bd ca 10 15 bd
       0.015979795 0.052378062 -0.054839727 -0.036392964
0000d0 3f 58 17 bd 8c 2b 93 bd bd c1 94 bc f6 75 a8 3d
       -0.036949392 -0.0718604 -0.018158788 0.08225624
0000e0 42 10 59 3d 21 fd 3b 3d 19 09 b7 3c 46 a1 87 bd
       0.05299402 0.0458957 0.022343205 -0.06622557
0000f0 4e 16 d3 36 80 de 14 3d 0e 27 6d bd 8a fc 7e 3d
       6.2908866e-06 0.036345005 -0.057898574 0.06225256
000100 c4 58 a8 3c 0e c5 48 3d 3d 95 2a bd df 88 02 3d
       0.02055014 0.04901605 -0.04164623 0.03186881
000110 31 00 92 bd b9 e2 9f bc 7c 5e 45 3b fd 72 b0 3c
       -0.07128943 -0.01951729 0.0030116132 0.021539206
000120 3b 01 1c 3d c8 5d 30 3d 77 4a 03 3d 60 16 27 3d
       0.03808711 0.043058187 0.032053437 0.040792823
000130 ce 6a 72 3c c6 af c5 3b 76 dc b3 bc 32 fc 42 bc
       0.014795972 0.0060329167 -0.02195571 -0.011900948
000140 db 8e 56 bc 53 23 a0 bd f7 6e 97 b9 b4 c3 32 bc
       -0.013095583 -0.078192376 -0.0002888364 -0.010910917
000150 be 2b 16 bb d2 62 83 bb 41 b7 8e 3d 17 3c 2d 3d
       -0.0022914256 -0.004009583 0.06968547 0.042293634
000160 fe 6c 00 bd 00 a3 b5 bc 4e fa 22 3e 93 88 27 3e
       -0.031353943 -0.022172451 0.15915796 0.16360693
000170 04 d9 39 3e a1 9b 63 3d 13 d9 fd 3d df 5b 99 3d
       0.18149191 0.05556834 0.12394919 0.07488226
000180 12 7d ac 3d c3 d0 d6 3d 1a 5e a6 3d 8b 05 aa 3c
       0.08422293 0.10489037 0.08123417 0.020754596
000190 1c dc af 3d f8 30 a4 3d 92 64 05 3e 09 8c 37 bd
       0.085869044 0.080171525 0.13026646 -0.044811282
0001a0 4e 00 9b 3c 1a a8 3a 3e b1 33 df 3d 3d 96 47 3c
       0.018921044 0.18228188 0.10898531 0.012181816
0001b0 34 ba 03 3e 81 cf a7 bb bb 88 28 3e 3a 2d be ba
       0.12864 -0.005121172 0.16458409 -0.0014509328
0001c0 ab 34 ff 3d d4 74 93 3c ed 5d a8 3d f4 67 04 3e
       0.124612175 0.018000044 0.0822104 0.1293028
0001d0 8a 97 b8 3d a6 d6 08 3e db d0 e9 3d 5d 3e bc 3d
       0.09013279 0.13363132 0.11416789 0.09191582
0001e0 46 8a a1 3d f9 3d 4d 3d 1e e4 47 bb 79 d1 40 3d
       0.07887702 0.05010793 -0.0030500959 0.04707477
0001f0 50 d9 83 3d 1e fe bb 3d 8c 64 1a 3d e3 7b 06 3d
       0.064379334 0.091793284 0.037693545 0.03283299
000200 25 74 8c 3c 0f 6d 0f 3a 9a c4 4b 3b 90 fb 3d bc
       0.017145226 0.0005471268 0.0031092525 -0.011595622
000210 28 95 0b bd 39 62 0a bd 6e e4 36 bd 62 92 19 bd
       -0.034077793 -0.03378508 -0.04465144 -0.037493117
000220 a6 c8 b8 bc b1 b4 de bb 2e 58 0e 3c 21 77 84 3b
       -0.022556614 -0.0067964424 0.008688016 0.0040425216
000230 62 dc 2d 3c 3e f9 d1 3c 1a 28 08 3d 17 74 d9 3c
       0.010611625 0.025631543 0.03324137 0.026544614
000240 b8 44 13 bc 21 d1 03 3a 62 57 ab 3b ba b3 85 bb
       -0.008988552 0.0005028416 0.0052289227 -0.004080263
000250 6f 33 4d 3c 93 10 88 b9 e2 ad ea bb 08 b4 c4 3b
       0.01252447 -0.0002595229 -0.0071618417 0.0060029067
000260 bf f5 0c bc 2e a7 26 3b 59 b7 b8 bc fe 5f 7d 3c
       -0.008603512 0.0025429237 -0.022548364 0.015464781
000270 64 d4 26 bc b8 a8 67 3a 8e 36 0f bc ce 1c 1c bc
       -0.010182474 0.0008837092 -0.008741034 -0.009528352
000280 c8 ea a2 bb e6 0c a1 3c b2 6d 70 bd 84 9f f0 bc
       -0.0049718358 0.01965947 -0.058698364 -0.029372938
000290 fa 10 cc bc ee 24 90 bb ac 06 f7 3a a3 c1 3b 3c
       -0.024910439 -0.0043989336 0.0018846593 0.011459741
0002a0 e1 e7 92 3c 9d 42 20 3c cd da 2c 3c cf 2c 54 3d
       0.017932834 0.009781507 0.010550213 0.051800545
0002b0 73 da 0e 3d c2 7b a1 3c f5 ce 0b 3c e5 f9 40 bc
       0.0348763 0.019712333 0.008533229 -0.0117783295
0002c0 a7 e0 33 bc bc c2 74 bc bf 84 fd bc 9d 0d 25 bd
       -0.010978854 -0.014939006 -0.030947087 -0.040296186
0002d0 9b 27 a3 3c 97 4a 82 3b 20 0b c1 3b 93 85 1e ba
       0.019916346 0.003976177 0.005891219 -0.0006047126
0002e0 08 65 70 3b 80 56 5f bc a7 c3 9e bb 0f e4 8d 3c
       0.0036681313 -0.013631463 -0.004845101 0.01732066
0002f0 ca 7b 0a 3d 1f 53 2d bc e3 ad 9d bc d1 1e 25 bc
       0.03380946 -0.0105789 -0.019247955 -0.010078148
000300 3c 56 c4 3a 80 fb 06 bc 3f 33 4c b8 dc 5c c8 3c
       0.0014979313 -0.008238673 -4.8685117e-05 0.024458341
000310 49 d7 cd 3c da b4 01 3d 92 69 c5 ba c1 a3 45 3c
       0.02512707 0.031666614 -0.001506137 0.012062968
000320 f4 78 af 3b 12 1e 57 3b 1b 40 9f b9 cb ad f6 bb
       0.005354995 0.003282432 -0.00030374606 -0.007528042
000330 75 8a c5 bc b6 c9 d6 bc 49 2a 1c bd 38 48 93 bd
       -0.024113873 -0.02621923 -0.038126264 -0.07191509
000340 fc 6c 7a bd 18 10 c0 bc 9a 9d a6 bc 85 21 9b 3c
       -0.06113909 -0.023445174 -0.020338822 0.018936882
000350 d9 2a 2b 3c e2 0d fc 3c bd c8 b2 3c c2 31 89 3c
       0.010447227 0.030768339 0.021824235 0.01674736
000360 11 d3 02 3e 72 61 91 3d 78 e5 54 3d 23 9a dd 3b
       0.12775828 0.07098664 0.05197665 0.0067627593
000370 ec e8 cd ba ee 3d 1a bc 02 9d 0c 3c 2f cb 0d 3c
       -0.0015709675 -0.009414179 0.008582355 0.0086544
000380 26 0a f0 3b 5b d6 ae 3c 69 60 d8 3a 8e 2c cf 3b
       0.0073254285 0.021342447 0.0016508225 0.00632245
000390 54 d5 71 3c b2 87 38 3c c3 f0 3a 3c c9 b8 84 39
       0.014760334 0.011262821 0.011409941 0.00025314678
0003a0 d7 7a 86 3b 24 bd c3 3c e7 d7 12 bd 0b 2f eb 3d
       0.004103999 0.0238939 -0.03585043 0.11483582
0003b0 c4 fe 15 3d 41 12 8d 3d cd 6d e2 3d 2d e6 ad 3d
       0.036619917 0.06888247 0.11056099 0.08491168
0003c0 5c 93 11 3d 49 29 bd bd 4b e3 5c be 46 ce 2b be
       0.035540923 -0.0923639 -0.2157108 -0.16777906
0003d0 7a d3 9e bd 50 01 48 bd f1 27 11 3d 50 49 5f 3e
       -0.0775518 -0.048829377 0.03543848 0.2180531
0003e0 2c 19 64 3e fe e3 19 be 3c f3 5c bd 84 c3 e8 bd
       0.22275227 -0.15028378 -0.053942904 -0.11365417

model.encoder.model.tcn_block_00.block.conv1d_layer_1.bias f4 [2]
000000 66 84 0a bc 5b 61 da bb
       -0.008454418 -0.0066644377

model.encoder.model.tcn_block_00.block.conv1d_layer_1.weight_g f4 [2, 1, 1]
000000 4f 0a fa 3e 56 ee 20 3f
       0.4883599 0.6286367

model.encoder.model.tcn_block_00.block.conv1d_layer_1.weight_v f4 [2, 2, 9]
000000 fe 45 12 3d 31 77 1d bd d8 78 18 3d 15 f6 ab 3d
       0.03571128 -0.038443748 0.03722462 0.08396546
000010 78 5b 68 3d 01 06 d3 bc da 7a 04 bc 29 d2 f9 bd
       0.056727856 -0.025759699 -0.008085931 -0.12198288
000020 85 b6 67 bd db ec 48 3e a7 c7 36 3c 44 f6 54 3e
       -0.05657055 0.19621603 0.011155999 0.20797068
000030 21 38 b7 3c 55 bf 7c 3d 03 3e e7 3d a6 e9 fe bd
       0.022365632 0.061705906 0.11291125 -0.12446909
000040 c9 d8 ee 3d 18 3c d5 3d 19 a4 b9 bc 3e e0 48 bd
       0.11662442 0.104118526 -0.022661256 -0.04904198
000050 13 8a 22 3e e4 30 15 3e 18 39 17 be 9c 74 db 3d
       0.15872984 0.14569432 -0.14767873 0.10715601
000060 5e 56 1e be 4d 09 2d be 01 66 bd 3d e5 d9 84 be
       -0.15462634 -0.16898079 0.09247971 -0.2594749
000070 7a e2 53 be 23 17 7a be 68 d4 3a be 1b 48 bc bb
       -0.20691863 -0.24422888 -0.18245089 -0.0057459003
000080 83 e3 6b be fc 2b 78 be ae dc ca bd 11 6c 53 be
       -0.23036008 -0.24235529 -0.099053726 -0.20646693

model.encoder.model.tcn_block_00.downsample.weight f4 [2, 14, 1]
000000 61 dc 45 3e a5 90 5d be fd 89 12 be 70 ae 94 3e
       0.19322349 -0.21637209 -0.14310451 0.29039335
000010 78 3e 79 be 5b 23 76 3e 50 de 14 3e 93 13 d5 bd
       -0.24340236 0.24036925 0.1453793 -0.10404124
000020 4e 27 e8 3d af 2c 8d be c5 95 97 3f 95 d8 96 3f
       0.11335622 -0.27573153 1.1842581 1.1784846
000030 93 30 97 3f 74 ef 97 3f 43 ce 05 be 78 28 8f 3d
       1.1811699 1.186995 -0.13066964 0.06990141
000040 32 f6 16 3e 09 65 37 3e fd 85 86 be 74 05 80 b9
       0.14742354 0.17909636 -0.262741 -0.00024418125
000050 da 7b 92 3e fa 45 65 3e 4d 15 3f be de b8 2a be
       0.28610116 0.22389975 -0.1866047 -0.16672084
000060 9b 96 aa 3f 60 0b a8 3f c3 3b a9 3f 75 a0 a9 3f
       1.3327211 1.3128471 1.3221363 1.3252093

model.encoder.model.tcn_block_00.downsample.bias f4 [2]
000000 67 c0 d2 3f 5b 64 a6 3f
       1.6464967 1.2999376

model.encoder.model.tcn_block_01.conv0.bias f4 [2]
000000 be 57 39 be 4e d3 5d 3e
       -0.18099877 0.21662638

model.encoder.model.tcn_block_01.conv0.weight_g f4 [2, 1, 1]
000000 1a 5f 0d 3f ea 10 14 3f
       0.5522324 0.5783831

model.encoder.model.tcn_block_01.conv0.weight_v f4 [2, 2, 9]
000000 66 85 a0 bd b4 82 87 3c 1e e4 34 3d c6 92 86 3d
       -0.07837944 0.016541816 0.044162862 0.065709636
000010 69 10 9c 3b 7c 57 e2 bd 3a 0d 1b 3e 7d 2d 72 3d
       0.0047626984 -0.110518426 0.15141764 0.059125412
000020 50 69 4f be 6e b1 6d bd 3c 97 c4 3d 74 46 f8 3d
       -0.20255017 -0.05803054 0.09599158 0.12122813
000030 ff 81 29 be 1b 1c 87 bd 31 2e 8e bc 10 f4 84 bd
       -0.16553496 -0.065971576 -0.01735601 -0.06491864
000040 96 37 32 3e 05 0f 08 3d 97 56 05 3d 82 5f aa bd
       0.17404017 0.03321745 0.03255328 -0.08318998
000050 ed 15 af bd 28 0d 27 be 82 5f c2 bd 84 ab 87 3d
       -0.08549104 -0.16313612 -0.09490873 0.06624511
000060 9e e7 fd 3d 42 80 0e 3d 56 ae 8f 3e c8 30 4d be
       0.12397693 0.034790285 0.28062695 -0.2003814
000070 9e 0d 05 3d a2 c4 e1 3d 73 1d d5 bd b3 cb 8e 3d
       0.03248369 0.11023833 -0.104060076 0.06972446
000080 40 7a 5c bd 66 5f 5e be 38 53 1b be fd 7f 92 3d
       -0.053827524 -0.21716079 -0.15168464 0.07153318

model.encoder.model.tcn_block_01.conv1.bias f4 [2]
000000 26 5c 33 bc a3 3e 9a 3a
       -0.010947263 0.0011767935

model.encoder.model.tcn_block_01.conv1.weight_g f4 [2, 1, 1]
000000 7b 67 1a 3f 38 e4 21 3f
       0.6031415 0.6323886

model.encoder.model.tcn_block_01.conv1.weight_v f4 [2, 2, 9]
000000 21 17 66 3e 38 80 3a 3e 85 5a 00 3d 21 79 11 bd
       0.2246976 0.18212974 0.031336326 -0.03551591
000010 ab a5 3d be 88 a1 6c be 43 90 37 be 70 d5 1a be
       -0.18520229 -0.23108494 -0.17926125 -0.15120482
000020 53 5f ae 3d d3 e0 b6 3d 7c ee 23 bd 59 0c 10 be
       0.085142754 0.089296006 -0.04002236 -0.1406721
000030 2f 48 22 3e 32 ae 21 bd 90 ad 3f 3d 31 e0 eb bd
       0.15847848 -0.039472766 0.04679638 -0.115173705
000040 06 34 9d bd 67 93 0c 3e d1 69 27 be 5b 8a 02 be
       -0.07675938 0.13728105 -0.1634896 -0.12748091
000050 e9 3d 02 3c 2f 32 04 bd 84 29 19 3d 67 74 89 3d
       0.007949331 -0.03227442 0.037393108 0.06711655
000060 c6 ed ad 3d 9d 8a 16 bd 99 39 9d 3c 0a 74 58 3d
       0.08492617 -0.036753286 0.019192504 0.05284504
000070 10 00 d4 3d 45 a3 78 3e 21 df 0d b9 28 4d 4b 3e
       0.103515744 0.24281032 -0.0001352993 0.19853652
000080 7f 96 e2 3d 0f 15 00 bc 07 0d 09 be 75 98 db 3d
       0.11063861 -0.007817521 -0.13383876 0.10722438

model.encoder.model.tcn_block_01.block.conv1d_layer_0.bias f4 [2]
000000 be 57 39 be 4e d3 5d 3e
       -0.18099877 0.21662638

model.encoder.model.tcn_block_01.block.conv1d_layer_0.weight_g f4 [2, 1, 1]
000000 1a 5f 0d 3f ea 10 14 3f
       0.5522324 0.5783831

model.encoder.model.tcn_block_01.block.conv1d_layer_0.weight_v f4 [2, 2, 9]
000000 66 85 a0 bd b4 82 87 3c 1e e4 34 3d c6 92 86 3d
       -0.07837944 0.016541816 0.044162862 0.065709636
000010 69 10 9c 3b 7c 57 e2 bd 3a 0d 1b 3e 7d 2d 72 3d
       0.0047626984 -0.110518426 0.15141764 0.059125412
000020 50 69 4f be 6e b1 6d bd 3c 97 c4 3d 74 46 f8 3d
       -0.20255017 -0.05803054 0.09599158 0.12122813
000030 ff 81 29 be 1b 1c 87 bd 31 2e 8e bc 10 f4 84 bd
       -0.16553496 -0.065971576 -0.01735601 -0.06491864
000040 96 37 32 3e 05 0f 08 3d 97 56 05 3d 82 5f aa bd
       0.17404017 0.03321745 0.03255328 -0.08318998
000050 ed 15 af bd 28 0d 27 be 82 5f c2 bd 84 ab 87 3d
       -0.08549104 -0.16313612 -0.09490873 0.06624511
000060 9e e7 fd 3d 42 80 0e 3d 56 ae 8f 3e c8 30 4d be
       0.12397693 0.034790285 0.28062695 -0.2003814
000070 9e 0d 05 3d a2 c4 e1 3d 73 1d d5 bd b3 cb 8e 3d
       0.03248369 0.11023833 -0.104060076 0.06972446
000080 40 7a 5c bd 66 5f 5e be 38 53 1b be fd 7f 92 3d
       -0.053827524 -0.21716079 -0.15168464 0.07153318

model.encoder.model.tcn_block_01.block.conv1d_layer_1.bias f4 [2]
000000 26 5c 33 bc a3 3e 9a 3a
       -0.010947263 0.0011767935

model.encoder.model.tcn_block_01.block.conv1d_layer_1.weight_g f4 [2, 1, 1]
000000 7b 67 1a 3f 38 e4 21 3f
       0.6031415 0.6323886

model.encoder.model.tcn_block_01.block.conv1d_layer_1.weight_v f4 [2, 2, 9]
000000 21 17 66 3e 38 80 3a 3e 85 5a 00 3d 21 79 11 bd
       0.2246976 0.18212974 0.031336326 -0.03551591
000010 ab a5 3d be 88 a1 6c be 43 90 37 be 70 d5 1a be
       -0.18520229 -0.23108494 -0.17926125 -0.15120482
000020 53 5f ae 3d d3 e0 b6 3d 7c ee 23 bd 59 0c 10 be
       0.085142754 0.089296006 -0.04002236 -0.1406721
000030 2f 48 22 3e 32 ae 21 bd 90 ad 3f 3d 31 e0 eb bd
       0.15847848 -0.039472766 0.04679638 -0.115173705
000040 06 34 9d bd 67 93 0c 3e d1 69 27 be 5b 8a 02 be
       -0.07675938 0.13728105 -0.1634896 -0.12748091
000050 e9 3d 02 3c 2f 32 04 bd 84 29 19 3d 67 74 89 3d
       0.007949331 -0.03227442 0.037393108 0.06711655
000060 c6 ed ad 3d 9d 8a 16 bd 99 39 9d 3c 0a 74 58 3d
       0.08492617 -0.036753286 0.019192504 0.05284504
000070 10 00 d4 3d 45 a3 78 3e 21 df 0d b9 28 4d 4b 3e
       0.103515744 0.24281032 -0.0001352993 0.19853652
000080 7f 96 e2 3d 0f 15 00 bc 07 0d 09 be 75 98 db 3d
       0.11063861 -0.007817521 -0.13383876 0.10722438

model.qz_xy_mean.dense(qz_xy_mean)_layer_03.weight f4 [2, 2]
000000 8c 79 53 3f d8 b9 44 3e 63 48 42 bf f3 31 97 3f
       0.8260734 0.19211519 -0.75891703 1.1812118

model.qz_xy_mean.dense(qz_xy_mean)_layer_03.bias f4 [2]
000000 77 d1 08 c0 b9 54 3f bf
       -2.1377847 -0.7473865

model.qz_xy_logvar.dense(qz_xy_logvar)_layer_03.weight f4 [2, 2]
000000 4f b1 a6 bf 6b 50 e7 bf 15 29 79 bf ba e1 c1 bf
       -1.302286 -1.8071417 -0.9732831 -1.5147011

model.qz_xy_logvar.dense(qz_xy_logvar)_layer_03.bias f4 [2]
000000 59 e1 69 bf bb 50 a9 bf
       -0.9135948 -1.3227762

model.py_t_probs.dense(py_t_probs)_layer_00.weight f4 [4, 2]
000000 8e 9a c1 42 08 29 f1 c0 7b 9a c8 c2 53 a2 eb 40
       96.801865 -7.5362587 -100.30172 7.363565
000010 a9 bf ae 40 79 06 0c 40 d4 26 9e c0 d0 1c 4f c0
       5.460896 2.187895 -4.9422398 -3.2361336

model.py_t_probs.dense(py_t_probs)_layer_00.bias f4 [4]
000000 20 93 47 c3 2f 9f 3e c3 2f 71 ea c0 ab d9 b6 c0
       -199.5747 -190.62181 -7.3263164 -5.714071

model.pz_t_mean.dense(pz_t_mean)_layer_00.weight f4 [8, 2]
000000 33 27 84 3f 13 87 ef 3d 5b 90 2c be 0f 5c 67 3f
       1.0324463 0.11695685 -0.16851942 0.90374845
000010 3e 77 81 3f ee 47 71 3d 9b 86 ab bd e4 28 72 3f
       1.0114515 0.058906488 -0.08375283 0.94593644
000020 15 1e 76 3f a4 28 f2 bb 39 10 85 3b 8f cf 7c 3f
       0.9613965 -0.0073900986 0.004060772 0.9875421
000030 cc 35 6e 3f 38 6d aa bc ea 3a 72 bc 39 73 78 3f
       0.9305084 -0.020804033 -0.014784554 0.97050816

model.pz_t_mean.dense(pz_t_mean)_layer_00.bias f4 [8]
000000 c0 4b 11 3e f3 5d f8 bb 56 89 90 bd e3 b1 c8 3d
       0.14189053 -0.007579559 -0.07057445 0.09799554
000010 c3 d0 b0 3d 90 94 98 bd 73 ff c5 bd 49 7b 17 3e
       0.08633568 -0.07450211 -0.09667864 0.14793123

model.pz_t_logvar.dense(pz_t_logvar)_layer_00.weight f4 [2, 4]
000000 4a cb db bf 79 08 f4 bf 9e a4 f8 bf 9f 3e a9 bf
       -1.7171414 -1.9065086 -1.9425237 -1.3222235
000010 e3 0d f4 bf 52 53 0f c0 db 46 0f c0 4b 4c c4 bf
       -1.9066738 -2.2394605 -2.2386997 -1.5335783

model.pz_t_logvar.dense(pz_t_logvar)_layer_00.bias f4 [2]
000000 ff 86 03 c0 db 01 da bf
       -2.0551145 -1.7031816

model.decoder.dense(decoder)_layer_00.weight f4 [10, 2]
000000 0a 1a 7f 3e 51 a8 e6 be d1 4f ba be 0c 91 c4 3e
       0.24912277 -0.4505029 -0.3638902 0.38391912
000010 81 32 da bd 14 6c 01 3f 38 ac 61 3f e8 13 2c 3e
       -0.10654164 0.5055554 0.8815341 0.16804469
000020 91 66 6a bf 71 e9 e7 be fb 35 02 3f 05 05 93 be
       -0.91562754 -0.4529529 0.5086362 -0.28714767
000030 bf a7 1e 3f 0b a6 23 3f 1c d7 f5 3d a1 e3 18 3f
       0.6197471 0.63925236 0.120039195 0.59722334
000040 5d 82 dd bc 9d 48 11 bf ad 95 56 bf 22 a5 32 bd
       -0.027039701 -0.56751424 -0.8382214 -0.043614514

model.decoder.dense(decoder)_layer_00.bias f4 [10]
000000 ca 09 aa bd fa 70 35 3e 97 88 dd bc e5 23 26 bf
       -0.08302648 0.17718878 -0.02704267 -0.6489852
000010 28 41 3b 3f 98 9c 98 be 62 40 10 bf de 53 51 be
       0.73146296 -0.29806972 -0.5634824 -0.20442149
000020 a2 b1 08 3e 7e a2 18 3f
       0.13349012 0.59622943

inference.model.qy_x.model.tcn_block_00.conv0.bias f4 [2]
000000 46 51 71 be 00 35 07 3f
       -0.2356616 0.52815247

inference.model.qy_x.model.tcn_block_00.conv0.weight_g f4 [2, 1, 1]
000000 c1 03 b8 3f 29 5e c0 3f
       1.4376146 1.5028735

inference.model.qy_x.model.tcn_block_00.conv0.weight_v f4 [2, 10, 9]
000000 26 f2 30 3c 8d cf c8 3c 7c 5c 0f bc 2b c9 3e bd
       0.01079992 0.02451303 -0.008750077 -0.046578567
000010 af 3e c3 bd bb 6c 03 be 49 c8 07 be b0 4f 0d be
       -0.0953344 -0.12834446 -0.13259996 -0.1379993
000020 01 5a 19 be 14 4f 2c bc 8f 0f 3f bd 71 35 96 bc
       -0.1497574 -0.010516901 -0.046645697 -0.01833603
000030 a2 84 4d 3d 42 b4 dd 3d 26 c1 dd 3d 69 6e bb 3d
       0.050175317 0.10825397 0.10827856 0.091519184
000040 6f f2 86 3d 65 77 cf 3d 22 77 36 bd 98 b3 cb 37
       0.06589209 0.101301946 -0.044547208 2.4283116e-05
000050 a2 58 3a 3d 76 b3 26 3d c5 5b d3 3c dc b0 2d 3d
       0.045494683 0.04069849 0.025800595 0.042404994
000060 cf de 12 3d de be a9 3c 93 22 45 3d 04 25 18 3d
       0.035857018 0.020720895 0.048128676 0.037144676
000070 56 25 11 3d 80 65 1b 3c 76 14 df bc ae 8d 7e 3b
       0.035435997 0.009484649 -0.027231436 0.0038841772
000080 70 a5 0a bd 4d 2e a8 bc 4b 98 97 ba f0 21 2f bd
       -0.03384918 -0.02052989 -0.0011565773 -0.042756975
000090 56 81 1a 3a eb 31 1f bd ee f0 52 bd 7d 25 76 bd
       0.00058939063 -0.038865965 -0.0514993 -0.060094345
0000a0 69 8e 0c bd ad 8a ea bc fb c7 52 bc 49 9c bb bc
       -0.0343155 -0.028630579 -0.012865062 -0.022901671
0000b0 f2 41 09 bd 7b 37 55 38 a7 a5 79 3c 96 9b 0d bc
       -0.033510156 5.0834828e-05 0.0152372485 -0.008643052
0000c0 99 4e 2a bc 46 e9 6e bc f7 14 39 bd 87 52 a8 bd
       -0.010394716 -0.014581984 -0.04518601 -0.08218866
0000d0 b9 c8 99 bd b1 45 e3 bd cf c8 58 3a 45 b6 a4 3b
       -0.07508988 -0.11097277 0.0008269669 0.005026611
0000e0 ae 83 ee 3c ee 4e 6a 3d 1b 1b b2 3d da 6f e0 3d
       0.029115524 0.05720418 0.08696576 0.10958834
0000f0 39 59 f4 3d 40 5c c9 3d 46 2c de 3d 04 06 68 3c
       0.1193108 0.098320484 0.10848288 0.0141615905
000100 15 ee 82 bc a7 f4 0b bd 20 d4 20 3d 2c 36 ae 3d
       -0.015982667 -0.034168866 0.0392648 0.08506426
000110 3b 39 01 3e 1c 15 f0 3d c5 ea fb 3d ec db 00 3e
       0.12619488 0.11722776 0.12300638 0.12583894
000120 e5 54 5b bc b3 c2 be 3b fd b4 20 bc 48 eb 98 bd
       -0.01338694 0.00582155 -0.009808776 -0.07466751
000130 36 2d 49 bd da cd bf bd 36 3c d3 bd a2 14 c1 bd
       -0.049115382 -0.09365435 -0.10314219 -0.094277635
000140 2a f1 f6 bd 9e ea 56 bc fd 35 aa ba 5d f4 84 bc
       -0.12057717 -0.0131174605 -0.001298606 -0.016229803
000150 d2 2e 01 3c 54 38 d5 ba a3 9d 3b 3d 92 62 04 3d
       0.007884698 -0.0016267397 0.04580463 0.032320566
000160 0f 1c 41 3d a0 3a 89 3d dc a2 84 3c 04 3d 08 3c
       0.0471459 0.06700635 0.016190939 0.0083153285
000170 a3 18 86 3c 65 8f ae 3c 42 9a d8 3c 8e 9c c8 3c
       0.01636917 0.02130861 0.026440743 0.024488714
000180 b9 9a 81 3c 98 e3 c4 3c e2 6f 09 3d be bd 19 bc
       0.015820848 0.024034306 0.033553965 -0.009383617
000190 c4 a7 b6 3c 6c c4 da 3c fc 2d 7a 3c 09 1a a5 bc
       0.022296794 0.02670499 0.015269753 -0.020154016
0001a0 d9 40 c0 bc c3 11 2a bc a1 f2 51 bc 9c 7f 22 bb
       -0.023468422 -0.010380211 -0.012814195 -0.00247953
0001b0 f2 1c 88 bc a2 e6 30 3c ab 8f ba 3c 32 27 03 bb
       -0.016615365 0.010797175 0.022773584 -0.0020012376
0001c0 9e 55 d5 3c 79 b4 33 3b 45 ce 0e bc e0 69 00 3b
       0.026041802 0.0027420803 -0.008716171 0.0019594356
0001d0 f0 89 4d 3c 81 0b 91 3d cf 94 70 3c c9 d3 a4 3c
       0.012545094 0.07082272 0.014683916 0.020120518
0001e0 07 54 a0 bc 4c e5 f5 3a 9c a2 c9 ba a2 db 08 bc
       -0.019571317 0.0018760352 -0.0015383544 -0.008353146
0001f0 a9 ee bf bc b0 5f 6f bd 90 ee 11 be ca e6 cf bd
       -0.023429232 -0.058440864 -0.1425116 -0.101514414
000200 ef 9d 71 bd 6e c7 4e bc 8d c7 d3 3c d4 6f 60 3d
       -0.058988508 -0.01262079 0.02585199 0.054794148
000210 af 85 a4 3d 4a c6 bd 3d 91 51 ea 3d 45 6b 40 3d
       0.080333106 0.09266336 0.11441339 0.0469773
000220 9c 0b 68 3c ac 03 ca 3b d6 82 cc 3b 2d 01 dd 3b
       0.014162924 0.0061649885 0.006241183 0.006744525
000230 e6 5b 8b 3c 6a 24 32 bc 66 bf 16 bd 46 22 47 bd
       0.017011594 -0.01087294 -0.036803626 -0.04861667
000240 5b 1e ff 3d 94 1c c2 3d 87 13 5b 3d d5 5c 88 3b
       0.12456962 0.09478107 0.05348542 0.004161457
000250 be 44 17 bd 82 78 90 bd 5b 67 da bd 9a 84 fc bd
       -0.036930792 -0.07054235 -0.10664245 -0.12329979
000260 e9 b2 05 be 32 82 53 3d 95 1d 39 3d c1 49 19 3d
       -0.1305653 0.051637836 0.045194227 0.037423853
000270 52 ad 39 3c 89 d2 91 bc 3f 97 1b bd 88 e3 6b bd
       0.011332827 -0.017800586 -0.037986036 -0.057590038
000280 dc 25 90 bd ea c1 ae bd d1 f5 71 bc f4 09 97 bc
       -0.07038471 -0.0853308 -0.01476808 -0.018437363
000290 f1 fd 77 bc bd 98 a0 3b 4e d1 90 3c d0 81 3f 3c
       -0.015136228 0.0049010203 0.01767793 0.011688665
0002a0 a8 34 8b 3c b9 49 11 3d f1 08 46 3d 7b ad e7 bd
       0.016992882 0.035470698 0.04834837 -0.11312386
0002b0 e9 6e 8d bd 1d 9a 1e bd b5 c7 8b bc 16 e0 3f ba
       -0.0690592 -0.038721193 -0.017063001 -0.0007319463
0002c0 38 c5 b2 3c 4a bb 60 3d 48 68 90 3d bd 06 aa 3d
       0.021822557 0.054866113 0.0705114 0.083020665

inference.model.qy_x.model.tcn_block_00.conv1.bias f4 [2]
000000 18 52 92 3e 9c ca 1a 3e
       0.28578258 0.15116352

inference.model.qy_x.model.tcn_block_00.conv1.weight_g f4 [2, 1, 1]
000000 ef 2b 88 3f df 75 d6 3f
       1.0638407 1.6754721
