results_gmdgm/ssm_v1/dtcn/kl_v19/version_2/best_val_model.pt (torch, 34951 bytes, 120 tensors)

model.qy_x.dense(qy_x)_layer_00.weight f4 [4, 10]
00000000: 7c8e 823d 985f 203e b8d7 3abe 50ef f9bc
00000010: 045a 00be 4bf0 7a3d 34ec acbc 52c4 2d3e
00000020: 74d3 bebb 257e 5c3d e368 8cbd 406e 263e
00000030: 49c1 3abe 03fa 453b d918 e0bd 5f83 0abd
00000040: 8245 a53d 1be2 183e a4b9 e3bd 4545 efbc
00000050: e78c 6b3c a784 923e 4d64 2fbe 1588 5b3d
00000060: 9150 b3bc 6319 2abd 85fd 7b3e f246 31bd
00000070: 5f3f 4ebe f4fa 8bbc 60b3 c1bc 4393 3a3e
00000080: be39 42be eef3 3abc 581e 8abe 8553 23be
00000090: 0678 bbbd 7874 223e cb10 8d3d d470 723d
0.06374833 0.15661466 -0.18246353 -0.03050962 -0.12534338 0.061264317 -0.021108724 0.16969422
-0.005823547 0.05383124 -0.06855943 0.16252995 -0.18237795 0.0030208833 -0.10942239 -0.03381669
0.08069898 0.14930002 -0.111193925 -0.029207835 0.014376855 0.2861683 -0.17128105 0.053596575
-0.021889003 -0.041528117 0.24608429 -0.04328055 -0.20141362 -0.017087437 -0.023645103 0.18220238
-0.1896734 -0.011410696 -0.26976275 -0.15949829 -0.09153752 0.15864742 0.06887969 0.059189633

model.qy_x.dense(qy_x)_layer_00.bias f4 [4]
00000000: c4d4 25be dd7d 53be e8a8 23be 3bb7 05bc
-0.16194445 -0.20653482 -0.15982401 -0.008161361

model.encoder.model.tcn_block_00.conv0.bias f4 [2]
00000000: 3da0 923d bc14 8d3d
0.07159469 0.068887204

model.encoder.model.tcn_block_00.conv0.weight_g f4 [2, 1, 1]
00000000: 35d0 1e3f d420 203f
0.6203645 0.6255009

model.encoder.model.tcn_block_00.conv0.weight_v f4 [2, 14, 9]
00000000: 65a3 87bd 3d99 4fbd c137 8c3d 6ec9 5a3d
00000010: 34b0 33bd 74f2 59bc ee91 823b 0259 853b
00000020: a7d8 2bbd 8ce2 3e3b 1802 533d 755d e5bd
00000030: 7e8d fe3b ca07 9cbd b088 4dbd 7505 a53c
00000040: 4292 8e3d 8b33 ac3d a6da c53c c584 aa3d
00000050: 45cc 13bd 6bc3 b33c 9be6 0b3a 91ad c33c
00000060: 68d4 de3d 683c ba3d 52b7 5e3d 2665 193d
00000070: 3429 173e f789 093e affe 0c3e 7469 063e
00000080: 1593 383d f0b2 a8bd 9f33 dbbc 784c b9bd
00000090: 18c0 8dbe 887c 8e3c 858b 7e3c faf4 2bbe
000000a0: ec55 78bc 6981 bebc ec5e 063c a89f 6cbc
000000b0: 07bd 8b3d ae17 1dbb a98f bf3d 23ea f23d
000000c0: 81f9 d83d 9f71 473d 2882 a3bd 0898 97bd
000000d0: 837c 76bc 9714 40bd d5a4 ae3c 5f70 2b3d
000000e0: 20bb 5d3e 56ca 263e 588a 543b 6c57 2a3b
000000f0: 9965 95bd 1f34 2cbc 8c5a 9ebd 5d7c 4e3d
00000100: a2ce cb3d 7010 9e3d cf9c 913c 0e76 9c3d
00000110: e5b8 a1bc 8215 d03d 3651 af3d d29b 46bc
00000120: 2cc7 ebbd dd9e e3bd 5ea5 18ba d785 dbbc
00000130: e32a 95bc b722 7bba f16e acbd ebcb 2fbc
00000140: 5410 e7bd ed83 49be 057f debd 7eac f4bd
00000150: b32c 88bd 857b c0bd bd40 67bc 3cc0 1f3d
00000160: 1886 82b9 1a2c 553d ad3b b33d 0b39 95bc
00000170: 3a57 c3bc 39eb abbc ec61 df3d ba1b 913d
00000180: b1c3 5c3e c398 be3d 5ae1 173e a045 a7b9
00000190: 988b 71bd d4b8 973c 875b 1a3e 5456 783d
000001a0: 9197 00bd 2dad 7cbd b3fc 90bd 2ce9 42bd
000001b0: 19b8 bf3d 87ed 683d 90b2 b93d c814 18bd
000001c0: b4f6 e13d 6263 67bd a59e 1f3d 3c03 85bd
000001d0: cd5e cd3c 635f 3cbc 415f 80bd d618 75bd
000001e0: b4f9 cbbc 54b1 4a3d 22ee 06bd 7709 c83d
000001f0: 24e7 64bd b5e1 cf3c cdc8 4f3d b4a7 2cbd
00000200: 9152 3e3d 5ce5 3d3c 60bf 94bd bc04 8c3c
00000210: 4b5e 18bd b3d6 8bbd 17ab 9abb c63b 40bd
00000220: 6fb2 b73c 7944 eebb 7978 363d 6bd2 ea3c
00000230: 8f19 5e3d da11 593d 262d 123d 5dbd 403d
00000240: 11a0 07bd 1cba 7a3d dde4 963c 045a 0e3c
00000250: dc1c 10bd 6bd5 533d e144 82bb f427 243d
00000260: cfd5 2f3d ed57 223d 11c8 f7bc bea3 c6bb
00000270: e12c 65bc 98f4 2f3d 4bbd 1ebd e40d 77bd
00000280: e096 73bd ea62 773c b058 6ebd 64cb 163d
00000290: a22b 0f3c 7e4e 80bb 9556 253b 4668 9abb
000002a0: e618 df3c 1088 a13c dde1 233d dd6a 803c
000002b0: b461 47bd 0b5d 02bd d6ec 6b3d 3da2 5bbd
000002c0: b9dc 6ebc 14cf 203d 67b2 b0bc 35f4 53bd
000002d0: bbff 13bd 5ba4 6a3d b85f fdbc 8e25 06bc
000002e0: cfc7 73bc 24f5 16bc 6681 13bc 400d 2b3d
000002f0: d770 13bb 3093 9c3d f301 613d 62d6 debc
00000300: 7925 4a3d 97ce ddbc f349 ce3a 454e 4c3d
00000310: 2a96 573d f6ae ad3d 8ed1 09bd 61b6 00bd
00000320: 382f 063c 6f08 99bd cd37 b63c 7a51 b3bd
00000330: 286c bdbc f66e 52bd 63d7 b3bd 40a9 84bc
00000340: 9cab 1d3d 9f53 e1bc c0cf 2dbd b80c 81bc
00000350: 7e86 35bd a413 6a3d 7107 5b3c 74fd 803c
00000360: f98c 333e a42a 593e be89 483e d3fa 343e
00000370: d579 423e 173e 3b3e daa0 1d3e 4316 453e
00000380: 5839 383e ad43 693e 621b 2b3e c395 603e
00000390: a8d0 cf3d 3cd2 493e 679b 533e 064f 233e
000003a0: cffc 693e 0295 2a3e a138 2b3e de23 653e
000003b0: f13d 0e3e bbd8 2c3e d73d 2e3e 2b0c 393e
000003c0: 0a0e 283e 7b9c 6d3e dea5 313e 2b6c 453e
000003d0: d61b 2f3e 31ec 6a3e 8ddf fa3d 7dc5 4b3e
000003e0: 332d 573e a09b 333e 09fa 3b3e 9bb6 313e
-0.06622962 -0.05068325 0.06846572 0.053414755 -0.043869212 -0.013302434 0.0039846813 0.0040694484
-0.041954663 0.0029126732 0.05151567 -0.11199466 0.007768332 -0.07618673 -0.050179183 0.020144204
0.0696149 0.084082685 0.024152111 0.08326105 -0.03608348 0.021943768 0.0005336792 0.023886474
0.10880357 0.09093553 0.054374047 0.03744998 0.14761811 0.13431536 0.13769029 0.13126165
0.045062143 -0.082372546 -0.026758013 -0.090477884 -0.27685618 0.017393366 0.015536194 -0.1679267
-0.015157204 -0.023255067 0.008201342 -0.014442362 0.068231635 -0.0023970413 0.09353573 0.11861064
0.10594464 0.048692342 -0.0798381 -0.074020445 -0.015044334 -0.046894636 0.021318832 0.041855212
0.21653414 0.16288123 0.0032431092 0.002599205 -0.07294769 -0.0105104735 -0.07732114 0.05041157
0.099515215 0.07717979 0.017774967 0.07639705 -0.019741485 0.10160352 0.08560412 -0.012122111
-0.115125984 -0.11114285 -0.00058229815 -0.026797218 -0.018208927 -0.0009580063 -0.08419598 -0.01072977
-0.11282411 -0.19679232 -0.10864071 -0.11946963 -0.06649151 -0.093985595 -0.014114556 0.03900169
-0.0002489544 0.05204401 0.087516166 -0.018215677 -0.023845304 -0.020986186 0.10907349 0.070853665
0.21559025 0.09306481 0.14832059 -0.00031904597 -0.058971018 0.01852075 0.15073977 0.060629204
-0.031394545 -0.06168859 -0.070794486 -0.04758565 0.09361286 0.05686715 0.09067261 -0.037129194
0.11033383 -0.056491263 0.038969655 -0.064947575 0.025069619 -0.011497351 -0.06268168 -0.05983814
-0.024899341 0.04948552 -0.032941945 0.0976743 -0.055884495 0.02537618 0.050728608 -0.04215212
0.04646546 0.011590328 -0.072630644 0.017092101 -0.0371993 -0.0682806 -0.0047201025 -0.046932004
0.022423951 -0.007271346 0.044548485 0.028664788 0.054223593 0.05299554 0.03568759 0.04705559
-0.033111636 0.061212644 0.018419677 0.008688454 -0.035183772 0.051717203 -0.003975496 0.040077165
0.042928513 0.039634634 -0.030246766 -0.006062 -0.013987751 0.042957872 -0.038754743 -0.06031598
-0.059470057 0.015099267 -0.058190048 0.036815062 0.00873843 -0.003915607 0.002522861 -0.0047121374
0.027233552 0.0197182 0.040010322 0.015675956 -0.04867716 -0.031827014 0.05759891 -0.05362152
-0.014578992 0.039259985 -0.021569444 -0.051746566 -0.036132555 0.057285648 -0.030929431 -0.008187665
-0.014879181 -0.0092137195 -0.009003019 0.041760683 -0.0022497678 0.07645261 0.0549335 -0.027201835
0.049352143 -0.027076049 0.0015738591 0.04987933 0.052633442 0.08480637 -0.033647113 -0.03142393
0.008189969 -0.07472312 0.022243405 -0.08755775 -0.023122862 -0.05137535 -0.08781316 -0.016193986
0.038493738 -0.027505694 -0.042434454 -0.015753135 -0.044317715 0.057147637 0.013368473 0.015745856
0.17534246 0.21207672 0.19583794 0.17673807 0.18991788 0.18285404 0.15393391 0.19246773
0.17990625 0.22779723 0.16709664 0.2193213 0.1014722 0.19709104 0.2066475 0.15948114
0.22850345 0.16658404 0.16720821 0.22376963 0.13890816 0.16879551 0.17015778 0.18071048
0.16411605 0.23204224 0.1734843 0.19279544 0.17100462 0.22941662 0.1224967 0.19899555
0.21013336 0.17539835 0.183571 0.17354815

model.encoder.model.tcn_block_00.conv1.bias f4 [2]
00000000: 663a 963e 84b9 1d3f
0.2934143 0.616112

model.encoder.model.tcn_block_00.conv1.weight_g f4 [2, 1, 1]
00000000: 8b71 ce3e 9863 383f
0.40321 0.7202697

model.encoder.model.tcn_block_00.conv1.weight_v f4 [2, 2, 9]
00000000: 6d01 093e 8d1a 61bd 4e26 c5bd c54a b33d
00000010: 02b2 e3bd 0af6 eb3d 9776 e73d b639 33be
00000020: 1f75 c03d cb58 b03d 2d13 953d 2a0a 57bd
00000030: e417 5ebe 3df9 7dbd 4302 4e3d 7c43 dabd
00000040: 42ec 6c3d 2852 fb3d d971 21bc bed2 943d
00000050: 770e f13d e8cf 9d3d 0cdd ac3d 0b5e c23d
00000060: a88a 6abd 786b d43d 7e95 343e 2ce8 ab3e
00000070: b148 873e d824 103e dc64 5c3e 09c1 baba
00000080: 385f a3bd e6aa bbbd e0e7 8c3e 7525 723e
0.1337945 -0.05495696 -0.09626447 0.087544955 -0.11117937 0.115215376 0.11301916 -0.17502484
0.09397339 0.08610686 0.07279048 -0.052499928 -0.21688801 -0.06200527 0.050295126 -0.10657403
0.0578425 0.122715294 -0.009853804 0.072667584 0.11770337 0.077056706 0.08440599 0.094905935
-0.05726114 0.103720605 0.17635152 0.3357557 0.26422647 0.14076555 0.2152285 -0.0014248203
-0.07977146 -0.09163456 0.27520657 0.23647101

model.encoder.model.tcn_block_00.block.conv1d_layer_0.bias f4 [2]
00000000: 3da0 923d bc14 8d3d
0.07159469 0.068887204

model.encoder.model.tcn_block_00.block.conv1d_layer_0.weight_g f4 [2, 1, 1]
00000000: 35d0 1e3f d420 203f
0.6203645 0.6255009

model.encoder.model.tcn_block_00.block.conv1d_layer_0.weight_v f4 [2, 14, 9]
00000000: 65a3 87bd 3d99 4fbd c137 8c3d 6ec9 5a3d
00000010: 34b0 33bd 74f2 59bc ee91 823b 0259 853b
00000020: a7d8 2bbd 8ce2 3e3b 1802 533d 755d e5bd
00000030: 7e8d fe3b ca07 9cbd b088 4dbd 7505 a53c
00000040: 4292 8e3d 8b33 ac3d a6da c53c c584 aa3d
00000050: 45cc 13bd 6bc3 b33c 9be6 0b3a 91ad c33c
00000060: 68d4 de3d 683c ba3d 52b7 5e3d 2665 193d
00000070: 3429 173e f789 093e affe 0c3e 7469 063e
00000080: 1593 383d f0b2 a8bd 9f33 dbbc 784c b9bd
00000090: 18c0 8dbe 887c 8e3c 858b 7e3c faf4 2bbe
000000a0: ec55 78bc 6981 bebc ec5e 063c a89f 6cbc
000000b0: 07bd 8b3d ae17 1dbb a98f bf3d 23ea f23d
000000c0: 81f9 d83d 9f71 473d 2882 a3bd 0898 97bd
000000d0: 837c 76bc 9714 40bd d5a4 ae3c 5f70 2b3d
000000e0: 20bb 5d3e 56ca 263e 588a 543b 6c57 2a3b
000000f0: 9965 95bd 1f34 2cbc 8c5a 9ebd 5d7c 4e3d
00000100: a2ce cb3d 7010 9e3d cf9c 913c 0e76 9c3d
00000110: e5b8 a1bc 8215 d03d 3651 af3d d29b 46bc
00000120: 2cc7 ebbd dd9e e3bd 5ea5 18ba d785 dbbc
00000130: e32a 95bc b722 7bba f16e acbd ebcb 2fbc
00000140: 5410 e7bd ed83 49be 057f debd 7eac f4bd
00000150: b32c 88bd 857b c0bd bd40 67bc 3cc0 1f3d
00000160: 1886 82b9 1a2c 553d ad3b b33d 0b39 95bc
00000170: 3a57 c3bc 39eb abbc ec61 df3d ba1b 913d
00000180: b1c3 5c3e c398 be3d 5ae1 173e a045 a7b9
00000190: 988b 71bd d4b8 973c 875b 1a3e 5456 783d
000001a0: 9197 00bd 2dad 7cbd b3fc 90bd 2ce9 42bd
000001b0: 19b8 bf3d 87ed 683d 90b2 b93d c814 18bd
000001c0: b4f6 e13d 6263 67bd a59e 1f3d 3c03 85bd
000001d0: cd5e cd3c 635f 3cbc 415f 80bd d618 75bd
000001e0: b4f9 cbbc 54b1 4a3d 22ee 06bd 7709 c83d
000001f0: 24e7 64bd b5e1 cf3c cdc8 4f3d b4a7 2cbd
00000200: 9152 3e3d 5ce5 3d3c 60bf 94bd bc04 8c3c
00000210: 4b5e 18bd b3d6 8bbd 17ab 9abb c63b 40bd
00000220: 6fb2 b73c 7944 eebb 7978 363d 6bd2 ea3c
00000230: 8f19 5e3d da11 593d 262d 123d 5dbd 403d
00000240: 11a0 07bd 1cba 7a3d dde4 963c 045a 0e3c
00000250: dc1c 10bd 6bd5 533d e144 82bb f427 243d
00000260: cfd5 2f3d ed57 223d 11c8 f7bc bea3 c6bb
00000270: e12c 65bc 98f4 2f3d 4bbd 1ebd e40d 77bd
00000280: e096 73bd ea62 773c b058 6ebd 64cb 163d
00000290: a22b 0f3c 7e4e 80bb 9556 253b 4668 9abb
000002a0: e618 df3c 1088 a13c dde1 233d dd6a 803c
000002b0: b461 47bd 0b5d 02bd d6ec 6b3d 3da2 5bbd
000002c0: b9dc 6ebc 14cf 203d 67b2 b0bc 35f4 53bd
000002d0: bbff 13bd 5ba4 6a3d b85f fdbc 8e25 06bc
000002e0: cfc7 73bc 24f5 16bc 6681 13bc 400d 2b3d
000002f0: d770 13bb 3093 9c3d f301 613d 62d6 debc
00000300: 7925 4a3d 97ce ddbc f349 ce3a 454e 4c3d
00000310: 2a96 573d f6ae ad3d 8ed1 09bd 61b6 00bd
00000320: 382f 063c 6f08 99bd cd37 b63c 7a51 b3bd
00000330: 286c bdbc f66e 52bd 63d7 b3bd 40a9 84bc
00000340: 9cab 1d3d 9f53 e1bc c0cf 2dbd b80c 81bc
00000350: 7e86 35bd a413 6a3d 7107 5b3c 74fd 803c
00000360: f98c 333e a42a 593e be89 483e d3fa 343e
00000370: d579 423e 173e 3b3e daa0 1d3e 4316 453e
00000380: 5839 383e ad43 693e 621b 2b3e c395 603e
00000390: a8d0 cf3d 3cd2 493e 679b 533e 064f 233e
000003a0: cffc 693e 0295 2a3e a138 2b3e de23 653e
000003b0: f13d 0e3e bbd8 2c3e d73d 2e3e 2b0c 393e
000003c0: 0a0e 283e 7b9c 6d3e dea5 313e 2b6c 453e
000003d0: d61b 2f3e 31ec 6a3e 8ddf fa3d 7dc5 4b3e
000003e0: 332d 573e a09b 333e 09fa 3b3e 9bb6 313e
-0.06622962 -0.05068325 0.06846572 0.053414755 -0.043869212 -0.013302434 0.0039846813 0.0040694484
-0.041954663 0.0029126732 0.05151567 -0.11199466 0.007768332 -0.07618673 -0.050179183 0.020144204
0.0696149 0.084082685 0.024152111 0.08326105 -0.03608348 0.021943768 0.0005336792 0.023886474
0.10880357 0.09093553 0.054374047 0.03744998 0.14761811 0.13431536 0.13769029 0.13126165
0.045062143 -0.082372546 -0.026758013 -0.090477884 -0.27685618 0.017393366 0.015536194 -0.1679267
-0.015157204 -0.023255067 0.008201342 -0.014442362 0.068231635 -0.0023970413 0.09353573 0.11861064
0.10594464 0.048692342 -0.0798381 -0.074020445 -0.015044334 -0.046894636 0.021318832 0.041855212
0.21653414 0.16288123 0.0032431092 0.002599205 -0.07294769 -0.0105104735 -0.07732114 0.05041157
0.099515215 0.07717979 0.017774967 0.07639705 -0.019741485 0.10160352 0.08560412 -0.012122111
-0.115125984 -0.11114285 -0.00058229815 -0.026797218 -0.018208927 -0.0009580063 -0.08419598 -0.01072977
-0.11282411 -0.19679232 -0.10864071 -0.11946963 -0.06649151 -0.093985595 -0.014114556 0.03900169
-0.0002489544 0.05204401 0.087516166 -0.018215677 -0.023845304 -0.020986186 0.10907349 0.070853665
0.21559025 0.09306481 0.14832059 -0.00031904597 -0.058971018 0.01852075 0.15073977 0.060629204
-0.031394545 -0.06168859 -0.070794486 -0.04758565 0.09361286 0.05686715 0.09067261 -0.037129194
0.11033383 -0.056491263 0.038969655 -0.064947575 0.025069619 -0.011497351 -0.06268168 -0.05983814
-0.024899341 0.04948552 -0.032941945 0.0976743 -0.055884495 0.02537618 0.050728608 -0.04215212
0.04646546 0.011590328 -0.072630644 0.017092101 -0.0371993 -0.0682806 -0.0047201025 -0.046932004
0.022423951 -0.007271346 0.044548485 0.028664788 0.054223593 0.05299554 0.03568759 0.04705559
-0.033111636 0.061212644 0.018419677 0.008688454 -0.035183772 0.051717203 -0.003975496 0.040077165
0.042928513 0.039634634 -0.030246766 -0.006062 -0.013987751 0.042957872 -0.038754743 -0.06031598
-0.059470057 0.015099267 -0.058190048 0.036815062 0.00873843 -0.003915607 0.002522861 -0.0047121374
0.027233552 0.0197182 0.040010322 0.015675956 -0.04867716 -0.031827014 0.05759891 -0.05362152
-0.014578992 0.039259985 -0.021569444 -0.051746566 -0.036132555 0.057285648 -0.030929431 -0.008187665
-0.014879181 -0.0092137195 -0.009003019 0.041760683 -0.0022497678 0.07645261 0.0549335 -0.027201835
0.049352143 -0.027076049 0.0015738591 0.04987933 0.052633442 0.08480637 -0.033647113 -0.03142393
0.008189969 -0.07472312 0.022243405 -0.08755775 -0.023122862 -0.05137535 -0.08781316 -0.016193986
0.038493738 -0.027505694 -0.042434454 -0.015753135 -0.044317715 0.057147637 0.013368473 0.015745856
0.17534246 0.21207672 0.19583794 0.17673807 0.18991788 0.18285404 0.15393391 0.19246773
0.17990625 0.22779723 0.16709664 0.2193213 0.1014722 0.19709104 0.2066475 0.15948114
0.22850345 0.16658404 0.16720821 0.22376963 0.13890816 0.16879551 0.17015778 0.18071048
0.16411605 0.23204224 0.1734843 0.19279544 0.17100462 0.22941662 0.1224967 0.19899555
0.21013336 0.17539835 0.183571 0.17354815

model.encoder.model.tcn_block_00.block.conv1d_layer_1.bias f4 [2]
00000000: 663a 963e 84b9 1d3f
0.2934143 0.616112

model.encoder.model.tcn_block_00.block.conv1d_layer_1.weight_g f4 [2, 1, 1]
00000000: 8b71 ce3e 9863 383f
0.40321 0.7202697

model.encoder.model.tcn_block_00.block.conv1d_layer_1.weight_v f4 [2, 2, 9]
00000000: 6d01 093e 8d1a 61bd 4e26 c5bd c54a b33d
00000010: 02b2 e3bd 0af6 eb3d 9776 e73d b639 33be
00000020: 1f75 c03d cb58 b03d 2d13 953d 2a0a 57bd
00000030: e417 5ebe 3df9 7dbd 4302 4e3d 7c43 dabd
00000040: 42ec 6c3d 2852 fb3d d971 21bc bed2 943d
00000050: 770e f13d e8cf 9d3d 0cdd ac3d 0b5e c23d
00000060: a88a 6abd 786b d43d 7e95 343e 2ce8 ab3e
00000070: b148 873e d824 103e dc64 5c3e 09c1 baba
00000080: 385f a3bd e6aa bbbd e0e7 8c3e 7525 723e
0.1337945 -0.05495696 -0.09626447 0.087544955 -0.11117937 0.115215376 0.11301916 -0.17502484
0.09397339 0.08610686 0.07279048 -0.052499928 -0.21688801 -0.06200527 0.050295126 -0.10657403
0.0578425 0.122715294 -0.009853804 0.072667584 0.11770337 0.077056706 0.08440599 0.094905935
-0.05726114 0.103720605 0.17635152 0.3357557 0.26422647 0.14076555 0.2152285 -0.0014248203
-0.07977146 -0.09163456 0.27520657 0.23647101

model.encoder.model.tcn_block_00.downsample.weight f4 [2, 14, 1]
00000000: aabd 94be a08a 533e b0d6 7e3e 7d8d d03c
00000010: fd55 18be f289 22be 8a0e a43e b791 d03e
00000020: eab0 c0be 9d9b 6a3b 32ce 933f 67b7 903f
00000030: 7926 913f de9b 943f 3a00 063f b847 14bf
00000040: 4d8c 9abe be5b 3f3f a818 23bf c4f6 203f
00000050: 2e50 003f 4d24 b8bd a458 6e3e bd49 2dbf
00000060: d1c5 623f 867d 6c3f 2738 653f c056 6e3f
-0.29050952 0.2065835 0.24886584 0.025458092 -0.14876552 -0.15872934 0.32042342 0.40736172
-0.37634975 0.003579832 1.1547301 1.130597 1.1339866 1.1610067 0.52344096 -0.57921934
-0.30185166 0.7474936 -0.637095 0.62876534 0.50122344 -0.08991299 0.23276001 -0.6769064
0.88583094 0.92379034 0.89538807 0.9310112

model.encoder.model.tcn_block_00.downsample.bias f4 [2]
00000000: 3364 a93f ae79 973f
1.3233703 1.1834009

model.encoder.model.tcn_block_01.conv0.bias f4 [2]
00000000: 1f89 973e 157f 0c3f
0.29596803 0.5488141

model.encoder.model.tcn_block_01.conv0.weight_g f4 [2, 1, 1]
00000000: 3d6f 213f 7b39 5f3f
0.6306036 0.87197083

model.encoder.model.tcn_block_01.conv0.weight_v f4 [2, 2, 9]
00000000: 02d1 9f3e 31c6 a23e 52b9 ad3d 8fd5 b33d
00000010: e713 55be 3db7 58bd e3b1 35be 44d7 97be
00000020: 7f00 86be 2017 cfbd 29d1 0abe afc3 773c
00000030: d9f7 ed3d 0d38 a6bd 14c9 3a3d 13cd c73d
00000040: 68a2 0a3e 6be1 b6bd b969 c03e cd08 303e
00000050: 6228 6fbc a292 8c3d 5a95 e33d 13a6 1c3c
00000060: 3b63 0bbe 51d2 37be 93b9 92be 4fc6 9b3d
00000070: 8879 bdbd 201f 10be ac88 6a3b 7dc7 af3d
00000080: 7cc1 3dbe 8d3f 123e d023 043d 19ce 23be
0.31214148 0.31791833 0.08482613 0.087809674 -0.20808373 -0.052909125 -0.1774364 -0.29656422
-0.26172253 -0.101118326 -0.13556351 0.015122338 0.11619539 -0.081161596 0.04560192 0.09755912
0.13538516 -0.08929714 0.3758066 0.17190857 -0.01459703 0.068639055 0.11112471 0.00956108
-0.13612072 -0.17951323 -0.28657207 0.07606184 -0.09251696 -0.14074373 0.003578703 0.08582971
-0.1853084 0.14282055 0.032260716 -0.15996589

model.encoder.model.tcn_block_01.conv1.bias f4 [2]
00000000: 38de ee3d ede6 5c3e
0.116634786 0.21572466

model.encoder.model.tcn_block_01.conv1.weight_g f4 [2, 1, 1]
00000000: 567d d83e 2e3a 563f
0.42283124 0.83682525

model.encoder.model.tcn_block_01.conv1.weight_v f4 [2, 2, 9]
00000000: bc5a 10be 9650 b9bc b5e0 f53d c4c6 3fbe
00000010: dcc4 2a3e 26a7 123e 9605 2a3e 41d0 1cbe
00000020: 90c9 833e 1b4d 05be 3d2a 933e fc61 5fbe
00000030: 8ea5 3bbe b67d 4e3e fd8e a53d 43f9 bf3d
00000040: 1e1e 6dbd dc24 40bc 0809 1e3d 91b5 8abc
00000050: ff0d 713d d5e9 8b3d a4e3 8d3d f7f7 ac3d
00000060: f312 bf3d 1821 733d 85a8 c03c aa4e 7f3e
00000070: cd54 703e f502 593e bf4b 5b3e 7ec2 553e
00000080: b2de 4c3e d624 2a3e d292 263e 73b2 b43d
-0.14097112 -0.022621434 0.1200575 -0.18728167 0.16676658 0.14321575 0.16603693 -0.15313818
0.25739717 -0.13017695 0.28743163 -0.21814722 -0.18324873 0.20165142 0.080839135 0.09373715
-0.05789005 -0.011727538 0.03858283 -0.01693228 0.05885124 0.06831709 0.06928185 0.08445733
0.09329786 0.059357733 0.023517856 0.24932352 0.23469849 0.21192534 0.21415614 0.20874974
0.20006827 0.16615614 0.16266945 0.08823099

model.encoder.model.tcn_block_01.block.conv1d_layer_0.bias f4 [2]
00000000: 1f89 973e 157f 0c3f
0.29596803 0.5488141

model.encoder.model.tcn_block_01.block.conv1d_layer_0.weight_g f4 [2, 1, 1]
00000000: 3d6f 213f 7b39 5f3f
0.6306036 0.87197083

model.encoder.model.tcn_block_01.block.conv1d_layer_0.weight_v f4 [2, 2, 9]
00000000: 02d1 9f3e 31c6 a23e 52b9 ad3d 8fd5 b33d
00000010: e713 55be 3db7 58bd e3b1 35be 44d7 97be
00000020: 7f00 86be 2017 cfbd 29d1 0abe afc3 773c
00000030: d9f7 ed3d 0d38 a6bd 14c9 3a3d 13cd c73d
00000040: 68a2 0a3e 6be1 b6bd b969 c03e cd08 303e
00000050: 6228 6fbc a292 8c3d 5a95 e33d 13a6 1c3c
00000060: 3b63 0bbe 51d2 37be 93b9 92be 4fc6 9b3d
00000070: 8879 bdbd 201f 10be ac88 6a3b 7dc7 af3d
00000080: 7cc1 3dbe 8d3f 123e d023 043d 19ce 23be
0.31214148 0.31791833 0.08482613 0.087809674 -0.20808373 -0.052909125 -0.1774364 -0.29656422
-0.26172253 -0.101118326 -0.13556351 0.015122338 0.11619539 -0.081161596 0.04560192 0.09755912
0.13538516 -0.08929714 0.3758066 0.17190857 -0.01459703 0.068639055 0.11112471 0.00956108
-0.13612072 -0.17951323 -0.28657207 0.07606184 -0.09251696 -0.14074373 0.003578703 0.08582971
-0.1853084 0.14282055 0.032260716 -0.15996589

model.encoder.model.tcn_block_01.block.conv1d_layer_1.bias f4 [2]
00000000: 38de ee3d ede6 5c3e
0.116634786 0.21572466

model.encoder.model.tcn_block_01.block.conv1d_layer_1.weight_g f4 [2, 1, 1]
00000000: 567d d83e 2e3a 563f
0.42283124 0.83682525

model.encoder.model.tcn_block_01.block.conv1d_layer_1.weight_v f4 [2, 2, 9]
00000000: bc5a 10be 9650 b9bc b5e0 f53d c4c6 3fbe
00000010: dcc4 2a3e 26a7 123e 9605 2a3e 41d0 1cbe
00000020: 90c9 833e 1b4d 05be 3d2a 933e fc61 5fbe
00000030: 8ea5 3bbe b67d 4e3e fd8e a53d 43f9 bf3d
00000040: 1e1e 6dbd dc24 40bc 0809 1e3d 91b5 8abc
00000050: ff0d 713d d5e9 8b3d a4e3 8d3d f7f7 ac3d
00000060: f312 bf3d 1821 733d 85a8 c03c aa4e 7f3e
00000070: cd54 703e f502 593e bf4b 5b3e 7ec2 553e
00000080: b2de 4c3e d624 2a3e d292 263e 73b2 b43d
-0.14097112 -0.022621434 0.1200575 -0.18728167 0.16676658 0.14321575 0.16603693 -0.15313818
0.25739717 -0.13017695 0.28743163 -0.21814722 -0.18324873 0.20165142 0.080839135 0.09373715
-0.05789005 -0.011727538 0.03858283 -0.01693228 0.05885124 0.06831709 0.06928185 0.08445733
0.09329786 0.059357733 0.023517856 0.24932352 0.23469849 0.21192534 0.21415614 0.20874974
0.20006827 0.16615614 0.16266945 0.08823099

model.qz_xy_mean.dense(qz_xy_mean)_layer_00.weight f4 [2, 2]
00000000: f36f 273f 1b9c 6dbe 31b2 99be 76a5 6cbe
0.65405196 -0.23204081 -0.30018762 -0.23109993

model.qz_xy_mean.dense(qz_xy_mean)_layer_00.bias f4 [2]
00000000: ce91 7a3d 5764 433f
0.061174206 0.7632498

model.qz_xy_logvar.dense(qz_xy_logvar)_layer_00.weight f4 [2, 2]
00000000: 7f61 abbf ab2c 50bf a90d 5ebf 1a3f efbe
-1.3389128 -0.8131816 -0.86739594 -0.4672783

model.qz_xy_logvar.dense(qz_xy_logvar)_layer_00.bias f4 [2]
00000000: 64f3 843d cde1 92bf
0.064917356 -1.1475159

model.py_t_probs.dense(py_t_probs)_layer_00.weight f4 [4, 2]
00000000: 02c6 c33d e3a7 10bd 35bb 923e b0a4 73be
00000010: c4b1 a13e 4bcd 85be b7c9 633e 79a0 43bd
0.09559251 -0.03531636 0.28658453 -0.23793292 0.31580937 -0.2613319 0.22244917 -0.04776046

model.py_t_probs.dense(py_t_probs)_layer_00.bias f4 [4]
00000000: 622a 1b3e 9328 a6be 476f aabe cfb9 393e
0.15152887 -0.3245283 -0.33288023 0.18137287

model.pz_t_mean.dense(pz_t_mean)_layer_00.weight f4 [8, 2]
00000000: e895 7c3f 5b5a a53d 1079 e7bc 0b84 783f
00000010: 7ed9 7b3f 0a97 a63d 7635 eabc 5b51 793f
00000020: bf29 7d3f 1af8 9f3d 8b10 cebc f85a 793f
00000030: 0390 7c3f b92f a63d 204a ebbc bdb9 773f
0.9866624 0.080738746 -0.02825597 0.9707648 0.9837874 0.08134277 -0.028589945 0.97389764
0.98891824 0.078109935 -0.025154373 0.9740443 0.98657244 0.08114571 -0.028721869 0.9676779

model.pz_t_mean.dense(pz_t_mean)_layer_00.bias f4 [8]
00000000: 9306 e83d df5f 0ebc 79c3 dd3d d8ce 4abc
00000010: 6e39 e33d c2e0 12bc 83c9 f33d 095d 60bc
0.11329379 -0.00868985 0.10828299 -0.012378417 0.11094938 -0.008964719 0.1190367 -0.013694056

model.pz_t_logvar.dense(pz_t_logvar)_layer_00.weight f4 [2, 4]
00000000: 817a b2bf 7363 dcbf 868a fbbf 0d28 86bf
00000010: 1abc 85bf 4c96 d0bf 7894 fdbf c1ad b9bf
-1.3943635 -1.721785 -1.9651649 -1.0480973 -1.0448029 -1.6295867 -1.9810934 -1.450615

model.pz_t_logvar.dense(pz_t_logvar)_layer_00.bias f4 [2]
00000000: edbb a4bf b5e2 e0bf
-1.286985 -1.7569185

model.decoder.dense(decoder)_layer_00.weight f4 [10, 2]
00000000: 349e 26bf e60d f03d 34d4 253f 714d 5c3d
00000010: 3a80 1a3f 2582 56be af93 cfbe 999d 49bf
00000020: d3d5 003e 2322 7c3f c5d8 24bf 575c 5dbe
00000030: bc79 8a3e f441 61bf d272 113f 1258 05bf
00000040: b7b6 18bf 1453 d73e 91d2 013f cb3d 2c3f
-0.6508515 0.11721401 0.6477692 0.05378479 0.6035191 -0.20948084 -0.4054236 -0.787561
0.12581567 0.9848959 -0.64393264 -0.21617256 0.27046 -0.8799126 0.56815827 -0.5208751
-0.596538 0.4205557 0.50711924 0.6728179

model.decoder.dense(decoder)_layer_00.bias f4 [10]
00000000: 6dbb 343f 2983 f0be 2f4a 41bf 5f37 25bf
00000010: e49d 8f3f 0553 8a3e 9311 a9bf 9c96 93bf
00000020: 1e20 863f bc97 d43e
0.7059849 -0.46975067 -0.7550382 -0.64537615 1.1220059 0.27016464 -1.3208488 -1.1530337
1.0478551 0.41522014

inference.model.qy_x.dense(qy_x)_layer_00.weight f4 [4, 10]
00000000: 7c8e 823d 985f 203e b8d7 3abe 50ef f9bc
00000010: 045a 00be 4bf0 7a3d 34ec acbc 52c4 2d3e
00000020: 74d3 bebb 257e 5c3d e368 8cbd 406e 263e
00000030: 49c1 3abe 03fa 453b d918 e0bd 5f83 0abd
00000040: 8245 a53d 1be2 183e a4b9 e3bd 4545 efbc
00000050: e78c 6b3c a784 923e 4d64 2fbe 1588 5b3d
00000060: 9150 b3bc 6319 2abd 85fd 7b3e f246 31bd
00000070: 5f3f 4ebe f4fa 8bbc 60b3 c1bc 4393 3a3e
00000080: be39 42be eef3 3abc 581e 8abe 8553 23be
00000090: 0678 bbbd 7874 223e cb10 8d3d d470 723d
0.06374833 0.15661466 -0.18246353 -0.03050962 -0.12534338 0.061264317 -0.021108724 0.16969422
-0.005823547 0.05383124 -0.06855943 0.16252995 -0.18237795 0.0030208833 -0.10942239 -0.03381669
0.08069898 0.14930002 -0.111193925 -0.029207835 0.014376855 0.2861683 -0.17128105 0.053596575
-0.021889003 -0.041528117 0.24608429 -0.04328055 -0.20141362 -0.017087437 -0.023645103 0.18220238
-0.1896734 -0.011410696 -0.26976275 -0.15949829 -0.09153752 0.15864742 0.06887969 0.059189633

inference.model.qy_x.dense(qy_x)_layer_00.bias f4 [4]
00000000: c4d4 25be dd7d 53be e8a8 23be 3bb7 05bc
-0.16194445 -0.20653482 -0.15982401 -0.008161361

inference.model.encoder.model.tcn_block_00.conv0.bias f4 [2]
00000000: 3da0 923d bc14 8d3d
0.07159469 0.068887204

inference.model.encoder.model.tcn_block_00.conv0.weight_g f4 [2, 1, 1]
00000000: 35d0 1e3f d420 203f
0.6203645 0.6255009

inference.model.encoder.model.tcn_block_00.conv0.weight_v f4 [2, 14, 9]
00000000: 65a3 87bd 3d99 4fbd c137 8c3d 6ec9 5a3d
00000010: 34b0 33bd 74f2 59bc ee91 823b 0259 853b
00000020: a7d8 2bbd 8ce2 3e3b 1802 533d 755d e5bd
00000030: 7e8d fe3b ca07 9cbd b088 4dbd 7505 a53c
00000040: 4292 8e3d 8b33 ac3d a6da c53c c584 aa3d
00000050: 45cc 13bd 6bc3 b33c 9be6 0b3a 91ad c33c
00000060: 68d4 de3d 683c ba3d 52b7 5e3d 2665 193d
00000070: 3429 173e f789 093e affe 0c3e 7469 063e
00000080: 1593 383d f0b2 a8bd 9f33 dbbc 784c b9bd
00000090: 18c0 8dbe 887c 8e3c 858b 7e3c faf4 2bbe
000000a0: ec55 78bc 6981 bebc ec5e 063c a89f 6cbc
000000b0: 07bd 8b3d ae17 1dbb a98f bf3d 23ea f23d
000000c0: 81f9 d83d 9f71 473d 2882 a3bd 0898 97bd
000000d0: 837c 76bc 9714 40bd d5a4 ae3c 5f70 2b3d
000000e0: 20bb 5d3e 56ca 263e 588a 543b 6c57 2a3b
000000f0: 9965 95bd 1f34 2cbc 8c5a 9ebd 5d7c 4e3d
00000100: a2ce cb3d 7010 9e3d cf9c 913c 0e76 9c3d
00000110: e5b8 a1bc 8215 d03d 3651 af3d d29b 46bc
00000120: 2cc7 ebbd dd9e e3bd 5ea5 18ba d785 dbbc
00000130: e32a 95bc b722 7bba f16e acbd ebcb 2fbc
00000140: 5410 e7bd ed83 49be 057f debd 7eac f4bd
00000150: b32c 88bd 857b c0bd bd40 67bc 3cc0 1f3d
00000160: 1886 82b9 1a2c 553d ad3b b33d 0b39 95bc
00000170: 3a57 c3bc 39eb abbc ec61 df3d ba1b 913d
00000180: b1c3 5c3e c398 be3d 5ae1 173e a045 a7b9
00000190: 988b 71bd d4b8 973c 875b 1a3e 5456 783d
000001a0: 9197 00bd 2dad 7cbd b3fc 90bd 2ce9 42bd
000001b0: 19b8 bf3d 87ed 683d 90b2 b93d c814 18bd
000001c0: b4f6 e13d 6263 67bd a59e 1f3d 3c03 85bd
000001d0: cd5e cd3c 635f 3cbc 415f 80bd d618 75bd
000001e0: b4f9 cbbc 54b1 4a3d 22ee 06bd 7709 c83d
000001f0: 24e7 64bd b5e1 cf3c cdc8 4f3d b4a7 2cbd
00000200: 9152 3e3d 5ce5 3d3c 60bf 94bd bc04 8c3c
00000210: 4b5e 18bd b3d6 8bbd 17ab 9abb c63b 40bd
00000220: 6fb2 b73c 7944 eebb 7978 363d 6bd2 ea3c
00000230: 8f19 5e3d da11 593d 262d 123d 5dbd 403d
00000240: 11a0 07bd 1cba 7a3d dde4 963c 045a 0e3c
00000250: dc1c 10bd 6bd5 533d e144 82bb f427 243d
00000260: cfd5 2f3d ed57 223d 11c8 f7bc bea3 c6bb
00000270: e12c 65bc 98f4 2f3d 4bbd 1ebd e40d 77bd
00000280: e096 73bd ea62 773c b058 6ebd 64cb 163d
00000290: a22b 0f3c 7e4e 80bb 9556 253b 4668 9abb
000002a0: e618 df3c 1088 a13c dde1 233d dd6a 803c
000002b0: b461 47bd 0b5d 02bd d6ec 6b3d 3da2 5bbd
000002c0: b9dc 6ebc 14cf 203d 67b2 b0bc 35f4 53bd
000002d0: bbff 13bd 5ba4 6a3d b85f fdbc 8e25 06bc
000002e0: cfc7 73bc 24f5 16bc 6681 13bc 400d 2b3d
000002f0: d770 13bb 3093 9c3d f301 613d 62d6 debc
00000300: 7925 4a3d 97ce ddbc f349 ce3a 454e 4c3d
00000310: 2a96 573d f6ae ad3d 8ed1 09bd 61b6 00bd
00000320: 382f 063c 6f08 99bd cd37 b63c 7a51 b3bd
00000330: 286c bdbc f66e 52bd 63d7 b3bd 40a9 84bc
00000340: 9cab 1d3d 9f53 e1bc c0cf 2dbd b80c 81bc
00000350: 7e86 35bd a413 6a3d 7107 5b3c 74fd 803c
00000360: f98c 333e a42a 593e be89 483e d3fa 343e
00000370: d579 423e 173e 3b3e daa0 1d3e 4316 453e
00000380: 5839 383e ad43 693e 621b 2b3e c395 603e
00000390: a8d0 cf3d 3cd2 493e 679b 533e 064f 233e
000003a0: cffc 693e 0295 2a3e a138 2b3e de23 653e
000003b0: f13d 0e3e bbd8 2c3e d73d 2e3e 2b0c 393e
000003c0: 0a0e 283e 7b9c 6d3e dea5 313e 2b6c 453e
000003d0: d61b 2f3e 31ec 6a3e 8ddf fa3d 7dc5 4b3e
000003e0: 332d 573e a09b 333e 09fa 3b3e 9bb6 313e
-0.06622962 -0.05068325 0.06846572 0.053414755 -0.043869212 -0.013302434 0.0039846813 0.0040694484
-0.041954663 0.0029126732 0.05151567 -0.11199466 0.007768332 -0.07618673 -0.050179183 0.020144204
0.0696149 0.084082685 0.024152111 0.08326105 -0.03608348 0.021943768 0.0005336792 0.023886474
0.10880357 0.09093553 0.054374047 0.03744998 0.14761811 0.13431536 0.13769029 0.13126165
0.045062143 -0.082372546 -0.026758013 -0.090477884 -0.27685618 0.017393366 0.015536194 -0.1679267
-0.015157204 -0.023255067 0.008201342 -0.014442362 0.068231635 -0.0023970413 0.09353573 0.11861064
0.10594464 0.048692342 -0.0798381 -0.074020445 -0.015044334 -0.046894636 0.021318832 0.041855212
0.21653414 0.16288123 0.0032431092 0.002599205 -0.07294769 -0.0105104735 -0.07732114 0.05041157
0.099515215 0.07717979 0.017774967 0.07639705 -0.019741485 0.10160352 0.08560412 -0.012122111
-0.115125984 -0.11114285 -0.00058229815 -0.026797218 -0.018208927 -0.0009580063 -0.08419598 -0.01072977
-0.11282411 -0.19679232 -0.10864071 -0.11946963 -0.06649151 -0.093985595 -0.014114556 0.03900169
-0.0002489544 0.05204401 0.087516166 -0.018215677 -0.023845304 -0.020986186 0.10907349 0.070853665
0.21559025 0.09306481 0.14832059 -0.00031904597 -0.058971018 0.01852075 0.15073977 0.060629204
-0.031394545 -0.06168859 -0.070794486 -0.04758565 0.09361286 0.05686715 0.09067261 -0.037129194
0.11033383 -0.056491263 0.038969655 -0.064947575 0.025069619 -0.011497351 -0.06268168 -0.05983814
-0.024899341 0.04948552 -0.032941945 0.0976743 -0.055884495 0.02537618 0.050728608 -0.04215212
0.04646546 0.011590328 -0.072630644 0.017092101 -0.0371993 -0.0682806 -0.0047201025 -0.046932004
0.022423951 -0.007271346 0.044548485 0.028664788 0.054223593 0.05299554 0.03568759 0.04705559
-0.033111636 0.061212644 0.018419677 0.008688454 -0.035183772 0.051717203 -0.003975496 0.040077165
0.042928513 0.039634634 -0.030246766 -0.006062 -0.013987751 0.042957872 -0.038754743 -0.06031598
-0.059470057 0.015099267 -0.058190048 0.036815062 0.00873843 -0.003915607 0.002522861 -0.0047121374
0.027233552 0.0197182 0.040010322 0.015675956 -0.04867716 -0.031827014 0.05759891 -0.05362152
-0.014578992 0.039259985 -0.021569444 -0.051746566 -0.036132555 0.057285648 -0.030929431 -0.008187665
-0.014879181 -0.0092137195 -0.009003019 0.041760683 -0.0022497678 0.07645261 0.0549335 -0.027201835
0.049352143 -0.027076049 0.0015738591 0.04987933 0.052633442 0.08480637 -0.033647113 -0.03142393
0.008189969 -0.07472312 0.022243405 -0.08755775 -0.023122862 -0.05137535 -0.08781316 -0.016193986
0.038493738 -0.027505694 -0.042434454 -0.015753135 -0.044317715 0.057147637 0.013368473 0.015745856
0.17534246 0.21207672 0.19583794 0.17673807 0.18991788 0.18285404 0.15393391 0.19246773
0.17990625 0.22779723 0.16709664 0.2193213 0.1014722 0.19709104 0.2066475 0.15948114
0.22850345 0.16658404 0.16720821 0.22376963 0.13890816 0.16879551 0.17015778 0.18071048
0.16411605 0.23204224 0.1734843 0.19279544 0.17100462 0.22941662 0.1224967 0.19899555
0.21013336 0.17539835 0.183571 0.17354815

inference.model.encoder.model.tcn_block_00.conv1.bias f4 [2]
00000000: 663a 963e 84b9 1d3f
0.2934143 0.616112

inference.model.encoder.model.tcn_block_00.conv1.weight_g f4 [2, 1, 1]
00000000: 8b71 ce3e 9863 383f
0.40321 0.7202697

inference.model.encoder.model.tcn_block_00.conv1.weight_v f4 [2, 2, 9]
00000000: 6d01 093e 8d1a 61bd 4e26 c5bd c54a b33d
00000010: 02b2 e3bd 0af6 eb3d 9776 e73d b639 33be
00000020: 1f75 c03d cb58 b03d 2d13 953d 2a0a 57bd
00000030: e417 5ebe 3df9 7dbd 4302 4e3d 7c43 dabd
00000040: 42ec 6c3d 2852 fb3d d971 21bc bed2 943d
00000050: 770e f13d e8cf 9d3d 0cdd ac3d 0b5e c23d
00000060: a88a 6abd 786b d43d 7e95 343e 2ce8 ab3e
00000070: b148 873e d824 103e dc64 5c3e 09c1 baba
00000080: 385f a3bd e6aa bbbd e0e7 8c3e 7525 723e
0.1337945 -0.05495696 -0.09626447 0.087544955 -0.11117937 0.115215376 0.11301916 -0.17502484
0.09397339 0.08610686 0.07279048 -0.052499928 -0.21688801 -0.06200527 0.050295126 -0.10657403
0.0578425 0.122715294 -0.009853804 0.072667584 0.11770337 0.077056706 0.08440599 0.094905935
-0.05726114 0.103720605 0.17635152 0.3357557 0.26422647 0.14076555 0.2152285 -0.0014248203
-0.07977146 -0.09163456 0.27520657 0.23647101

inference.model.encoder.model.tcn_block_00.block.conv1d_layer_0.bias f4 [2]
00000000: 3da0 923d bc14 8d3d
0.07159469 0.068887204

inference.model.encoder.model.tcn_block_00.block.conv1d_layer_0.weight_g f4 [2, 1, 1]
00000000: 35d0 1e3f d420 203f
0.6203645 0.6255009

inference.model.encoder.model.tcn_block_00.block.conv1d_layer_0.weight_v f4 [2, 14, 9]
00000000: 65a3 87bd 3d99 4fbd c137 8c3d 6ec9 5a3d
00000010: 34b0 33bd 74f2 59bc ee91 823b 0259 853b
00000020: a7d8 2bbd 8ce2 3e3b 1802 533d 755d e5bd
00000030: 7e8d fe3b ca07 9cbd b088 4dbd 7505 a53c
00000040: 4292 8e3d 8b33 ac3d a6da c53c c584 aa3d
00000050: 45cc 13bd 6bc3 b33c 9be6 0b3a 91ad c33c
00000060: 68d4 de3d 683c ba3d 52b7 5e3d 2665 193d
00000070: 3429 173e f789 093e affe 0c3e 7469 063e
00000080: 1593 383d f0b2 a8bd 9f33 dbbc 784c b9bd
00000090: 18c0 8dbe 887c 8e3c 858b 7e3c faf4 2bbe
000000a0: ec55 78bc 6981 bebc ec5e 063c a89f 6cbc
000000b0: 07bd 8b3d ae17 1dbb a98f bf3d 23ea f23d
000000c0: 81f9 d83d 9f71 473d 2882 a3bd 0898 97bd
000000d0: 837c 76bc 9714 40bd d5a4 ae3c 5f70 2b3d
000000e0: 20bb 5d3e 56ca 263e 588a 543b 6c57 2a3b
000000f0: 9965 95bd 1f34 2cbc 8c5a 9ebd 5d7c 4e3d
00000100: a2ce cb3d 7010 9e3d cf9c 913c 0e76 9c3d
00000110: e5b8 a1bc 8215 d03d 3651 af3d d29b 46bc
00000120: 2cc7 ebbd dd9e e3bd 5ea5 18ba d785 dbbc
00000130: e32a 95bc b722 7bba f16e acbd ebcb 2fbc
00000140: 5410 e7bd ed83 49be 057f debd 7eac f4bd
00000150: b32c 88bd 857b c0bd bd40 67bc 3cc0 1f3d
00000160: 1886 82b9 1a2c 553d ad3b b33d 0b39 95bc
00000170: 3a57 c3bc 39eb abbc ec61 df3d ba1b 913d
00000180: b1c3 5c3e c398 be3d 5ae1 173e a045 a7b9
00000190: 988b 71bd d4b8 973c 875b 1a3e 5456 783d
000001a0: 9197 00bd 2dad 7cbd b3fc 90bd 2ce9 42bd
000001b0: 19b8 bf3d 87ed 683d 90b2 b93d c814 18bd
000001c0: b4f6 e13d 6263 67bd a59e 1f3d 3c03 85bd
000001d0: cd5e cd3c 635f 3cbc 415f 80bd d618 75bd
000001e0: b4f9 cbbc 54b1 4a3d 22ee 06bd 7709 c83d
000001f0: 24e7 64bd b5e1 cf3c cdc8 4f3d b4a7 2cbd
00000200: 9152 3e3d 5ce5 3d3c 60bf 94bd bc04 8c3c
00000210: 4b5e 18bd b3d6 8bbd 17ab 9abb c63b 40bd
00000220: 6fb2 b73c 7944 eebb 7978 363d 6bd2 ea3c
00000230: 8f19 5e3d da11 593d 262d 123d 5dbd 403d
00000240: 11a0 07bd 1cba 7a3d dde4 963c 045a 0e3c
00000250: dc1c 10bd 6bd5 533d e144 82bb f427 243d
00000260: cfd5 2f3d ed57 223d 11c8 f7bc bea3 c6bb
00000270: e12c 65bc 98f4 2f3d 4bbd 1ebd e40d 77bd
00000280: e096 73bd ea62 773c b058 6ebd 64cb 163d
00000290: a22b 0f3c 7e4e 80bb 9556 253b 4668 9abb
000002a0: e618 df3c 1088 a13c dde1 233d dd6a 803c
000002b0: b461 47bd 0b5d 02bd d6ec 6b3d 3da2 5bbd
000002c0: b9dc 6ebc 14cf 203d 67b2 b0bc 35f4 53bd
000002d0: bbff 13bd 5ba4 6a3d b85f fdbc 8e25 06bc
000002e0: cfc7 73bc 24f5 16bc 6681 13bc 400d 2b3d
000002f0: d770 13bb 3093 9c3d f301 613d 62d6 debc
00000300: 7925 4a3d 97ce ddbc f349 ce3a 454e 4c3d
00000310: 2a96 573d f6ae ad3d 8ed1 09bd 61b6 00bd
00000320: 382f 063c 6f08 99bd cd37 b63c 7a51 b3bd
00000330: 286c bdbc f66e 52bd 63d7 b3bd 40a9 84bc
00000340: 9cab 1d3d 9f53 e1bc c0cf 2dbd b80c 81bc
00000350: 7e86 35bd a413 6a3d 7107 5b3c 74fd 803c
00000360: f98c 333e a42a 593e be89 483e d3fa 343e
00000370: d579 423e 173e 3b3e daa0 1d3e 4316 453e
00000380: 5839 383e ad43 693e 621b 2b3e c395 603e
00000390: a8d0 cf3d 3cd2 493e 679b 533e 064f 233e
000003a0: cffc 693e 0295 2a3e a138 2b3e de23 653e
000003b0: f13d 0e3e bbd8 2c3e d73d 2e3e 2b0c 393e
000003c0: 0a0e 283e 7b9c 6d3e dea5 313e 2b6c 453e
000003d0: d61b 2f3e 31ec 6a3e 8ddf fa3d 7dc5 4b3e
000003e0: 332d 573e a09b 333e 09fa 3b3e 9bb6 313e
-0.06622962 -0.05068325 0.06846572 0.053414755 -0.043869212 -0.013302434 0.0039846813 0.0040694484
-0.041954663 0.0029126732 0.05151567 -0.11199466 0.007768332 -0.07618673 -0.050179183 0.020144204
0.0696149 0.084082685 0.024152111 0.08326105 -0.03608348 0.021943768 0.0005336792 0.023886474
0.10880357 0.09093553 0.054374047 0.03744998 0.14761811 0.13431536 0.13769029 0.13126165
0.045062143 -0.082372546 -0.026758013 -0.090477884 -0.27685618 0.017393366 0.015536194 -0.1679267
-0.015157204 -0.023255067 0.008201342 -0.014442362 0.068231635 -0.0023970413 0.09353573 0.11861064
0.10594464 0.048692342 -0.0798381 -0.074020445 -0.015044334 -0.046894636 0.021318832 0.041855212
0.21653414 0.16288123 0.0032431092 0.002599205 -0.07294769 -0.0105104735 -0.07732114 0.05041157
0.099515215 0.07717979 0.017774967 0.07639705 -0.019741485 0.10160352 0.08560412 -0.012122111
-0.115125984 -0.11114285 -0.00058229815 -0.026797218 -0.018208927 -0.0009580063 -0.08419598 -0.01072977
-0.11282411 -0.19679232 -0.10864071 -0.11946963 -0.06649151 -0.093985595 -0.014114556 0.03900169
-0.0002489544 0.05204401 0.087516166 -0.018215677 -0.023845304 -0.020986186 0.10907349 0.070853665
0.21559025 0.09306481 0.14832059 -0.00031904597 -0.058971018 0.01852075 0.15073977 0.060629204
-0.031394545 -0.06168859 -0.070794486 -0.04758565 0.09361286 0.05686715 0.09067261 -0.037129194
0.11033383 -0.056491263 0.038969655 -0.064947575 0.025069619 -0.011497351 -0.06268168 -0.05983814
-0.024899341 0.04948552 -0.032941945 0.0976743 -0.055884495 0.02537618 0.050728608 -0.04215212
0.04646546 0.011590328 -0.072630644 0.017092101 -0.0371993 -0.0682806 -0.0047201025 -0.046932004
0.022423951 -0.007271346 0.044548485 0.028664788 0.054223593 0.05299554 0.03568759 0.04705559
-0.033111636 0.061212644 0.018419677 0.008688454 -0.035183772 0.051717203 -0.003975496 0.040077165
0.042928513 0.039634634 -0.030246766 -0.006062 -0.013987751 0.042957872 -0.038754743 -0.06031598
-0.059470057 0.015099267 -0.058190048 0.036815062 0.00873843 -0.003915607 0.002522861 -0.0047121374
0.027233552 0.0197182 0.040010322 0.015675956 -0.04867716 -0.031827014 0.05759891 -0.05362152
-0.014578992 0.039259985 -0.021569444 -0.051746566 -0.036132555 0.057285648 -0.030929431 -0.008187665
-0.014879181 -0.0092137195 -0.009003019 0.041760683 -0.0022497678 0.07645261 0.0549335 -0.027201835
0.049352143 -0.027076049 0.0015738591 0.04987933 0.052633442 0.08480637 -0.033647113 -0.03142393
0.008189969 -0.07472312 0.022243405 -0.08755775 -0.023122862 -0.05137535 -0.08781316 -0.016193986
0.038493738 -0.027505694 -0.042434454 -0.015753135 -0.044317715 0.057147637 0.013368473 0.015745856
0.17534246 0.21207672 0.19583794 0.17673807 0.18991788 0.18285404 0.15393391 0.19246773
0.17990625 0.22779723 0.16709664 0.2193213 0.1014722 0.19709104 0.2066475 0.15948114
0.22850345 0.16658404 0.16720821 0.22376963 0.13890816 0.16879551 0.17015778 0.18071048
0.16411605 0.23204224 0.1734843 0.19279544 0.17100462 0.22941662 0.1224967 0.19899555
0.21013336 0.17539835 0.183571 0.17354815

inference.model.encoder.model.tcn_block_00.block.conv1d_layer_1.bias f4 [2]
00000000: 663a 963e 84b9 1d3f
0.2934143 0.616112

inference.model.encoder.model.tcn_block_00.block.conv1d_layer_1.weight_g f4 [2, 1, 1]
00000000: 8b71 ce3e 9863 383f
0.40321 0.7202697

inference.model.encoder.model.tcn_block_00.block.conv1d_layer_1.weight_v f4 [2, 2, 9]
00000000: 6d01 093e 8d1a 61bd 4e26 c5bd c54a b33d
00000010: 02b2 e3bd 0af6 eb3d 9776 e73d b639 33be
00000020: 1f75 c03d cb58 b03d 2d13 953d 2a0a 57bd
00000030: e417 5ebe 3df9 7dbd 4302 4e3d 7c43 dabd
00000040: 42ec 6c3d 2852 fb3d d971 21bc bed2 943d
00000050: 770e f13d e8cf 9d3d 0cdd ac3d 0b5e c23d
00000060: a88a 6abd 786b d43d 7e95 343e 2ce8 ab3e
00000070: b148 873e d824 103e dc64 5c3e 09c1 baba
00000080: 385f a3bd e6aa bbbd e0e7 8c3e 7525 723e
0.1337945 -0.05495696 -0.09626447 0.087544955 -0.11117937 0.115215376 0.11301916 -0.17502484
0.09397339 0.08610686 0.07279048 -0.052499928 -0.21688801 -0.06200527 0.050295126 -0.10657403
0.0578425 0.122715294 -0.009853804 0.072667584 0.11770337 0.077056706 0.08440599 0.094905935
-0.05726114 0.103720605 0.17635152 0.3357557 0.26422647 0.14076555 0.2152285 -0.0014248203
-0.07977146 -0.09163456 0.27520657 0.23647101

inference.model.encoder.model.tcn_block_00.downsample.weight f4 [2, 14, 1]
00000000: aabd 94be a08a 533e b0d6 7e3e 7d8d d03c
00000010: fd55 18be f289 22be 8a0e a43e b791 d03e
00000020: eab0 c0be 9d9b 6a3b 32ce 933f 67b7 903f
00000030: 7926 913f de9b 943f 3a00 063f b847 14bf
00000040: 4d8c 9abe be5b 3f3f a818 23bf c4f6 203f
00000050: 2e50 003f 4d24 b8bd a458 6e3e bd49 2dbf
00000060: d1c5 623f 867d 6c3f 2738 653f c056 6e3f
-0.29050952 0.2065835 0.24886584 0.025458092 -0.14876552 -0.15872934 0.32042342 0.40736172
-0.37634975 0.003579832 1.1547301 1.130597 1.1339866 1.1610067 0.52344096 -0.57921934
-0.30185166 0.7474936 -0.637095 0.62876534 0.50122344 -0.08991299 0.23276001 -0.6769064
0.88583094 0.92379034 0.89538807 0.9310112

inference.model.encoder.model.tcn_block_00.downsample.bias f4 [2]
00000000: 3364 a93f ae79 973f
1.3233703 1.1834009

inference.model.encoder.model.tcn_block_01.conv0.bias f4 [2]
00000000: 1f89 973e 157f 0c3f
0.29596803 0.5488141

inference.model.encoder.model.tcn_block_01.conv0.weight_g f4 [2, 1, 1]
00000000: 3d6f 213f 7b39 5f3f
0.6306036 0.87197083

inference.model.encoder.model.tcn_block_01.conv0.weight_v f4 [2, 2, 9]
00000000: 02d1 9f3e 31c6 a23e 52b9 ad3d 8fd5 b33d
00000010: e713 55be 3db7 58bd e3b1 35be 44d7 97be
00000020: 7f00 86be 2017 cfbd 29d1 0abe afc3 773c
00000030: d9f7 ed3d 0d38 a6bd 14c9 3a3d 13cd c73d
00000040: 68a2 0a3e 6be1 b6bd b969 c03e cd08 303e
00000050: 6228 6fbc a292 8c3d 5a95 e33d 13a6 1c3c
00000060: 3b63 0bbe 51d2 37be 93b9 92be 4fc6 9b3d
00000070: 8879 bdbd 201f 10be ac88 6a3b 7dc7 af3d
00000080: 7cc1 3dbe 8d3f 123e d023 043d 19ce 23be
0.31214148 0.31791833 0.08482613 0.087809674 -0.20808373 -0.052909125 -0.1774364 -0.29656422
-0.26172253 -0.101118326 -0.13556351 0.015122338 0.11619539 -0.081161596 0.04560192 0.09755912
0.13538516 -0.08929714 0.3758066 0.17190857 -0.01459703 0.068639055 0.11112471 0.00956108
-0.13612072 -0.17951323 -0.28657207 0.07606184 -0.09251696 -0.14074373 0.003578703 0.08582971
-0.1853084 0.14282055 0.032260716 -0.15996589

inference.model.encoder.model.tcn_block_01.conv1.bias f4 [2]
00000000: 38de ee3d ede6 5c3e
0.116634786 0.21572466

inference.model.encoder.model.tcn_block_01.conv1.weight_g f4 [2, 1, 1]
00000000: 567d d83e 2e3a 563f
0.42283124 0.83682525

inference.model.encoder.model.tcn_block_01.conv1.weight_v f4 [2, 2, 9]
00000000: bc5a 10be 9650 b9bc b5e0 f53d c4c6 3fbe
00000010: dcc4 2a3e 26a7 123e 9605 2a3e 41d0 1cbe
00000020: 90c9 833e 1b4d 05be 3d2a 933e fc61 5fbe
00000030: 8ea5 3bbe b67d 4e3e fd8e a53d 43f9 bf3d
00000040: 1e1e 6dbd dc24 40bc 0809 1e3d 91b5 8abc
00000050: ff0d 713d d5e9 8b3d a4e3 8d3d f7f7 ac3d
00000060: f312 bf3d 1821 733d 85a8 c03c aa4e 7f3e
00000070: cd54 703e f502 593e bf4b 5b3e 7ec2 553e
00000080: b2de 4c3e d624 2a3e d292 263e 73b2 b43d
-0.14097112 -0.022621434 0.1200575 -0.18728167 0.16676658 0.14321575 0.16603693 -0.15313818
0.25739717 -0.13017695 0.28743163 -0.21814722 -0.18324873 0.20165142 0.080839135 0.09373715
-0.05789005 -0.011727538 0.03858283 -0.01693228 0.05885124 0.06831709 0.06928185 0.08445733
0.09329786 0.059357733 0.023517856 0.24932352 0.23469849 0.21192534 0.21415614 0.20874974
0.20006827 0.16615614 0.16266945 0.08823099

inference.model.encoder.model.tcn_block_01.block.conv1d_layer_0.bias f4 [2]
00000000: 1f89 973e 157f 0c3f
0.29596803 0.5488141

inference.model.encoder.model.tcn_block_01.block.conv1d_layer_0.weight_g f4 [2, 1, 1]
00000000: 3d6f 213f 7b39 5f3f
0.6306036 0.87197083

inference.model.encoder.model.tcn_block_01.block.conv1d_layer_0.weight_v f4 [2, 2, 9]
00000000: 02d1 9f3e 31c6 a23e 52b9 ad3d 8fd5 b33d
00000010: e713 55be 3db7 58bd e3b1 35be 44d7 97be
00000020: 7f00 86be 2017 cfbd 29d1 0abe afc3 773c
00000030: d9f7 ed3d 0d38 a6bd 14c9 3a3d 13cd c73d
00000040: 68a2 0a3e 6be1 b6bd b969 c03e cd08 303e
00000050: 6228 6fbc a292 8c3d 5a95 e33d 13a6 1c3c
00000060: 3b63 0bbe 51d2 37be 93b9 92be 4fc6 9b3d
00000070: 8879 bdbd 201f 10be ac88 6a3b 7dc7 af3d
00000080: 7cc1 3dbe 8d3f 123e d023 043d 19ce 23be
0.31214148 0.31791833 0.08482613 0.087809674 -0.20808373 -0.052909125 -0.1774364 -0.29656422
-0.26172253 -0.101118326 -0.13556351 0.015122338 0.11619539 -0.081161596 0.04560192 0.09755912
0.13538516 -0.08929714 0.3758066 0.17190857 -0.01459703 0.068639055 0.11112471 0.00956108
-0.13612072 -0.17951323 -0.28657207 0.07606184 -0.09251696 -0.14074373 0.003578703 0.08582971
-0.1853084 0.14282055 0.032260716 -0.15996589

inference.model.encoder.model.tcn_block_01.block.conv1d_layer_1.bias f4 [2]
00000000: 38de ee3d ede6 5c3e
0.116634786 0.21572466

inference.model.encoder.model.tcn_block_01.block.conv1d_layer_1.weight_g f4 [2, 1, 1]
00000000: 567d d83e 2e3a 563f
0.42283124 0.83682525

inference.model.encoder.model.tcn_block_01.block.conv1d_layer_1.weight_v f4 [2, 2, 9]
00000000: bc5a 10be 9650 b9bc b5e0 f53d c4c6 3fbe
00000010: dcc4 2a3e 26a7 123e 9605 2a3e 41d0 1cbe
00000020: 90c9 833e 1b4d 05be 3d2a 933e fc61 5fbe
00000030: 8ea5 3bbe b67d 4e3e fd8e a53d 43f9 bf3d
00000040: 1e1e 6dbd dc24 40bc 0809 1e3d 91b5 8abc
00000050: ff0d 713d d5e9 8b3d a4e3 8d3d f7f7 ac3d
00000060: f312 bf3d 1821 733d 85a8 c03c aa4e 7f3e
00000070: cd54 703e f502 593e bf4b 5b3e 7ec2 553e
00000080: b2de 4c3e d624 2a3e d292 263e 73b2 b43d
-0.14097112 -0.022621434 0.1200575 -0.18728167 0.16676658 0.14321575 0.16603693 -0.15313818
0.25739717 -0.13017695 0.28743163 -0.21814722 -0.18324873 0.20165142 0.080839135 0.09373715
-0.05789005 -0.011727538 0.03858283 -0.01693228 0.05885124 0.06831709 0.06928185 0.08445733
0.09329786 0.059357733 0.023517856 0.24932352 0.23469849 0.21192534 0.21415614 0.20874974
0.20006827 0.16615614 0.16266945 0.08823099

inference.model.qz_xy_mean.dense(qz_xy_mean)_layer_00.weight f4 [2, 2]
00000000: f36f 273f 1b9c 6dbe 31b2 99be 76a5 6cbe
0.65405196 -0.23204081 -0.30018762 -0.23109993

inference.model.qz_xy_mean.dense(qz_xy_mean)_layer_00.bias f4 [2]
00000000: ce91 7a3d 5764 433f
0.061174206 0.7632498

inference.model.qz_xy_logvar.dense(qz_xy_logvar)_layer_00.weight f4 [2, 2]
00000000: 7f61 abbf ab2c 50bf a90d 5ebf 1a3f efbe
-1.3389128 -0.8131816 -0.86739594 -0.4672783

inference.model.qz_xy_logvar.dense(qz_xy_logvar)_layer_00.bias f4 [2]
00000000: 64f3 843d cde1 92bf
0.064917356 -1.1475159

inference.model.py_t_probs.dense(py_t_probs)_layer_00.weight f4 [4, 2]
00000000: 02c6 c33d e3a7 10bd 35bb 923e b0a4 73be
00000010: c4b1 a13e 4bcd 85be b7c9 633e 79a0 43bd
0.09559251 -0.03531636 0.28658453 -0.23793292 0.31580937 -0.2613319 0.22244917 -0.04776046

inference.model.py_t_probs.dense(py_t_probs)_layer_00.bias f4 [4]
00000000: 622a 1b3e 9328 a6be 476f aabe cfb9 393e
0.15152887 -0.3245283 -0.33288023 0.18137287

inference.model.pz_t_mean.dense(pz_t_mean)_layer_00.weight f4 [8, 2]
00000000: e895 7c3f 5b5a a53d 1079 e7bc 0b84 783f
00000010: 7ed9 7b3f 0a97 a63d 7635 eabc 5b51 793f
00000020: bf29 7d3f 1af8 9f3d 8b10 cebc f85a 793f
00000030: 0390 7c3f b92f a63d 204a ebbc bdb9 773f
0.9866624 0.080738746 -0.02825597 0.9707648 0.9837874 0.08134277 -0.028589945 0.97389764
0.98891824 0.078109935 -0.025154373 0.9740443 0.98657244 0.08114571 -0.028721869 0.9676779

inference.model.pz_t_mean.dense(pz_t_mean)_layer_00.bias f4 [8]
00000000: 9306 e83d df5f 0ebc 79c3 dd3d d8ce 4abc
00000010: 6e39 e33d c2e0 12bc 83c9 f33d 095d 60bc
0.11329379 -0.00868985 0.10828299 -0.012378417 0.11094938 -0.008964719 0.1190367 -0.013694056

inference.model.pz_t_logvar.dense(pz_t_logvar)_layer_00.weight f4 [2, 4]
00000000: 817a b2bf 7363 dcbf 868a fbbf 0d28 86bf
00000010: 1abc 85bf 4c96 d0bf 7894 fdbf c1ad b9bf
-1.3943635 -1.721785 -1.9651649 -1.0480973 -1.0448029 -1.6295867 -1.9810934 -1.450615

inference.model.pz_t_logvar.dense(pz_t_logvar)_layer_00.bias f4 [2]
00000000: edbb a4bf b5e2 e0bf
-1.286985 -1.7569185

inference.model.decoder.dense(decoder)_layer_00.weight f4 [10, 2]
00000000: 349e 26bf e60d f03d 34d4 253f 714d 5c3d
00000010: 3a80 1a3f 2582 56be af93 cfbe 999d 49bf
00000020: d3d5 003e 2322 7c3f c5d8 24bf 575c 5dbe
00000030: bc79 8a3e f441 61bf d272 113f 1258 05bf
00000040: b7b6 18bf 1453 d73e 91d2 013f cb3d 2c3f
-0.6508515 0.11721401 0.6477692 0.05378479 0.6035191 -0.20948084 -0.4054236 -0.787561
0.12581567 0.9848959 -0.64393264 -0.21617256 0.27046 -0.8799126 0.56815827 -0.5208751
-0.596538 0.4205557 0.50711924 0.6728179

inference.model.decoder.dense(decoder)_layer_00.bias f4 [10]
00000000: 6dbb 343f 2983 f0be 2f4a 41bf 5f37 25bf
00000010: e49d 8f3f 0553 8a3e 9311 a9bf 9c96 93bf
00000020: 1e20 863f bc97 d43e
0.7059849 -0.46975067 -0.7550382 -0.64537615 1.1220059 0.27016464 -1.3208488 -1.1530337
1.0478551 0.41522014

generative.model.qy_x.dense(qy_x)_layer_00.weight f4 [4, 10]
00000000: 7c8e 823d 985f 203e b8d7 3abe 50ef f9bc
00000010: 045a 00be 4bf0 7a3d 34ec acbc 52c4 2d3e
00000020: 74d3 bebb 257e 5c3d e368 8cbd 406e 263e
00000030: 49c1 3abe 03fa 453b d918 e0bd 5f83 0abd
00000040: 8245 a53d 1be2 183e a4b9 e3bd 4545 efbc
00000050: e78c 6b3c a784 923e 4d64 2fbe 1588 5b3d
00000060: 9150 b3bc 6319 2abd 85fd 7b3e f246 31bd
00000070: 5f3f 4ebe f4fa 8bbc 60b3 c1bc 4393 3a3e
00000080: be39 42be eef3 3abc 581e 8abe 8553 23be
00000090: 0678 bbbd 7874 223e cb10 8d3d d470 723d
0.06374833 0.15661466 -0.18246353 -0.03050962 -0.12534338 0.061264317 -0.021108724 0.16969422
-0.005823547 0.05383124 -0.06855943 0.16252995 -0.18237795 0.0030208833 -0.10942239 -0.03381669
0.08069898 0.14930002 -0.111193925 -0.029207835 0.014376855 0.2861683 -0.17128105 0.053596575
-0.021889003 -0.041528117 0.24608429 -0.04328055 -0.20141362 -0.017087437 -0.023645103 0.18220238
-0.1896734 -0.011410696 -0.26976275 -0.15949829 -0.09153752 0.15864742 0.06887969 0.059189633

generative.model.qy_x.dense(qy_x)_layer_00.bias f4 [4]
00000000: c4d4 25be dd7d 53be e8a8 23be 3bb7 05bc
-0.16194445 -0.20653482 -0.15982401 -0.008161361

generative.model.encoder.model.tcn_block_00.conv0.bias f4 [2]
00000000: 3da0 923d bc14 8d3d
0.07159469 0.068887204

generative.model.encoder.model.tcn_block_00.conv0.weight_g f4 [2, 1, 1]
00000000: 35d0 1e3f d420 203f
0.6203645 0.6255009
