results_gmdgm/ssm_v1/dtcn/rpca_v1/version_3/best_val_model.pt (torch, 58663 bytes, 204 tensors)

model.qy_x.model.tcn_block_00.conv0.bias f4 [2]
00000000: e2e0 74be 6625 3e3f
-0.23913911 0.74275815

model.qy_x.model.tcn_block_00.conv0.weight_g f4 [2, 1, 1]
00000000: 8cbe bc3f 4c7e d93f
1.474565 1.6991668

model.qy_x.model.tcn_block_00.conv0.weight_v f4 [2, 10, 9]
00000000: 9875 c3bb ee98 993c 1386 0a3c 00c8 36bc
00000010: 9154 87bd ced3 e2bd 0d96 08be a640 26be
00000020: 11e1 32be 987a b0bb cda3 2fbd 73c1 3abd
00000030: b5c6 c33c 79a5 ad3d cdeb ff3d 6383 d23d
00000040: bec6 8e3d c938 b33d ef86 2dbd f72d 9ebc
00000050: 9f4d b63c 1abe b1bb 7dc6 273d 45ee 8d3d
00000060: a9c6 333d 7384 153c 6552 6c3d f448 d53c
00000070: 7bc3 6a3d 24d6 753c 164f a1ba f0ee 7f3c
00000080: 4a62 a5bb c4ad 8c3c 1319 b63c f2ce 12bd
00000090: 75c8 043c 0c11 f0bc 8dce 1ebd f9c1 72bd
000000a0: 6b3e 24bd 7bc7 05bd 9fc9 2bbc 19ca 33bc
000000b0: cca7 14bd 435c 463c 6cbe 3a3c 9831 2ebc
000000c0: 513d e23b 098c 41bc ff0f 57bd e140 b0bd
000000d0: 379d 9abd d86b eabd c101 9d3b e451 d1bb
000000e0: 39d1 c23b 5c80 b83c 46bf 893d 72f8 db3d
000000f0: a7d3 033e d955 f03d 4908 053e fa38 ca3b
00000100: 816f ccbc cf47 71bd 761d 5a3c a0ba 873d
00000110: 0c36 ec3d 6e7a 043e ea9d 0b3e ffc7 153e
00000120: 3b3b 1abc f7a2 a63c b6e0 ddbb 4332 75bd
00000130: e84b 50bd dad2 babd 7107 00be c6c9 d6bd
00000140: b552 fbbd 803b 66bc f4d8 93b9 b021 a2bc
00000150: 1a70 85bb c598 a0bb 13ee 0d3d bc7f 203d
00000160: 004f 243d fc72 943d ad4c dd3c 34d1 263c
00000170: bfb5 8c3c 2896 023d 798b fe3c ef70 203c
00000180: 6b73 de3c 9d59 893d a44a c03d ebb4 f9bc
00000190: 119d 403c 1fc3 053c a999 8abc c9de 26bd
000001a0: 9f53 ecbc 417b e9bc 0e00 d43a 7251 29bd
000001b0: ad7b a93c 1e69 573b e974 c3bc 7896 aebc
000001c0: 4d12 073d 74a4 903c 633d 06bc 3129 a03c
000001d0: 678e 3bbd 6d7b 843d 1e6d 9e3b a9ca 98bc
000001e0: 2731 94ba 664d e9bc 87df ef3c dc75 dcbb
000001f0: 35ee 18bd 3da8 8fbc abf5 15be 3c8e a0bd
00000200: e2cd bdbc 0104 d93c b687 133d 5a89 3b3d
00000210: d934 463d 2d05 883d 9b9a c83d 4e85 1f3d
00000220: 1106 eb3a e072 02bb 5711 403c 596a 5d3c
00000230: 93a6 6a3c d4db 09ba 1f08 e6bc d55d 94bb
00000240: 9ae2 013e 7f31 ab3d c155 d43c 718e 0dbc
00000250: c326 22bd 5183 9cbd 4770 e5bd d2fd 04be
00000260: 2dd5 31be ce6d 1f3d 3858 3f3d 91c2 fc3c
00000270: 49a4 23bb 3b58 30bd 4c02 58bd bcb6 89bd
00000280: dd3f b1bd d9a9 0cbe b876 633c 5d5b 3abc
00000290: 2423 39bb 5854 183d 2ea1 eb3b 7b83 8fbc
000002a0: 2bd4 303d a16c 933d 8d58 bc3d 16b6 e7bd
000002b0: d045 9ebd df72 f7bc b1c9 c8bc 9390 db3b
000002c0: 711a 973c 630d 453d ba16 513d 322a 4a3d
-0.005964946 0.01874968 0.008454817 -0.011156082 -0.06607927 -0.11075555 -0.1333849 -0.16235599
-0.17468669 -0.005385708 -0.042880822 -0.045594644 0.023898462 0.08478827 0.12496147 0.10278966
0.06971501 0.08751065 -0.04236501 -0.019309027 0.02225381 -0.005424273 0.040960778 0.06930212
0.04389063 0.009125817 0.057695765 0.026035763 0.05731533 0.015004668 -0.0012306895 0.015620932
-0.0050471174 0.017172702 0.022228753 -0.03584189 0.008104433 -0.029305004 -0.0387712 -0.059267018
-0.04009859 -0.032660943 -0.010485082 -0.010973477 -0.036292836 0.012106958 0.011397939 -0.010631941
0.006904282 -0.011813172 -0.05250549 -0.08606125 -0.075495176 -0.11446351 0.004791469 -0.006387936
0.0059453514 0.022522144 0.06725936 0.107407466 0.12873708 0.11735124 0.12991442 0.006171343
-0.024955513 -0.058906373 0.013312688 0.06627393 0.11533746 0.12937328 0.13634458 0.14627074
-0.009413536 0.02034138 -0.0067711724 -0.059862386 -0.05085364 -0.09122248 -0.12502839 -0.10487704
-0.122716345 -0.014052272 -0.00028199668 -0.019791454 -0.0040722014 -0.004901024 0.034650873 0.039184317
0.040114403 0.07248494 0.0270141 0.010181714 0.017176507 0.03188148 0.031072365 0.0097925505
0.027154645 0.067065455 0.093892366 -0.030481776 0.011756198 0.008164196 -0.016918974 -0.04073981
-0.028848467 -0.028501155 0.0016174333 -0.041337438 0.020688856 0.0032869051 -0.023859458 -0.021311983
0.032976437 0.017656542 -0.008193347 0.019550892 -0.045790102 0.06468854 0.004834785 -0.018651323
-0.0011306152 -0.02847929 0.02928139 -0.006727917 -0.037336547 -0.017536277 -0.14644496 -0.07839629
-0.023169462 0.026491167 0.036018096 0.045785286 0.048390243 0.06641612 0.09795114 0.03894549
0.0017930885 -0.0019904897 0.011722884 0.013514125 0.014321941 -0.0005258892 -0.028080044 -0.004527787
0.12684098 0.0835905 0.025919797 -0.008639918 -0.039587747 -0.07642234 -0.11203056 -0.1298745
-0.17366476 0.038923077 0.04671499 0.030854495 -0.0024969748 -0.043052893 -0.052736565 -0.06724307
-0.08654759 -0.13736667 0.013883285 -0.011374322 -0.0028249705 0.03718981 0.007190845 -0.01751875
0.04317109 0.07198454 0.09196577 -0.11314027 -0.077281594 -0.030206142 -0.024510236 0.006700584
0.018445225 0.04810847 0.051047064 0.049356647

model.qy_x.model.tcn_block_00.conv1.bias f4 [2]
00000000: f268 cb3e 8e73 933e
0.39728504 0.287991

model.qy_x.model.tcn_block_00.conv1.weight_g f4 [2, 1, 1]
00000000: 558f 933f 1b94 ea3f
1.1528116 1.8326448

model.qy_x.model.tcn_block_00.conv1.weight_v f4 [2, 2, 9]
00000000: 1161 1a3e af7e 3b3e 9c25 ab3d ee7f 02be
00000010: d2ed 32be acce afbd 607f 2e3d d148 093e
00000020: 0938 e03d 9dbe ebbd a5aa a93d b116 fe3d
00000030: 1d5c ad3c e12b 1fbd f58f 5ebd dd6f d4bd
00000040: d608 33be 4e75 52be 263a 0d3d 5326 e73c
00000050: 7a21 a73c f311 813c 50ec 213c 5263 b6bc
00000060: a07a 77bd fece 05be 96b5 40be af56 8ebc
00000070: 278a 1fbd a5b0 b33b 4e05 493d 8aba 873d
00000080: fd4c ce3d 81b8 253e ca19 413e b1dc 0d3e
0.1507609 0.18310045 0.08356783 -0.12744114 -0.17473534 -0.085843414 0.042601943 0.13406684
0.10948188 -0.11510966 0.08284501 0.12406672 0.021162087 -0.038860206 -0.054336507 -0.10372899
-0.1748384 -0.2055256 0.034479283 0.028216517 0.020401705 0.01575563 0.009883001 -0.022264156
-0.06041968 -0.13067243 -0.1881927 -0.017375318 -0.03895011 0.005483704 0.049077325 0.066273764
0.10073278 0.16183664 0.18857494 0.13853718

model.qy_x.model.tcn_block_00.block.conv1d_layer_0.bias f4 [2]
00000000: e2e0 74be 6625 3e3f
-0.23913911 0.74275815

model.qy_x.model.tcn_block_00.block.conv1d_layer_0.weight_g f4 [2, 1, 1]
00000000: 8cbe bc3f 4c7e d93f
1.474565 1.6991668

model.qy_x.model.tcn_block_00.block.conv1d_layer_0.weight_v f4 [2, 10, 9]
00000000: 9875 c3bb ee98 993c 1386 0a3c 00c8 36bc
00000010: 9154 87bd ced3 e2bd 0d96 08be a640 26be
00000020: 11e1 32be 987a b0bb cda3 2fbd 73c1 3abd
00000030: b5c6 c33c 79a5 ad3d cdeb ff3d 6383 d23d
00000040: bec6 8e3d c938 b33d ef86 2dbd f72d 9ebc
00000050: 9f4d b63c 1abe b1bb 7dc6 273d 45ee 8d3d
00000060: a9c6 333d 7384 153c 6552 6c3d f448 d53c
00000070: 7bc3 6a3d 24d6 753c 164f a1ba f0ee 7f3c
00000080: 4a62 a5bb c4ad 8c3c 1319 b63c f2ce 12bd
00000090: 75c8 043c 0c11 f0bc 8dce 1ebd f9c1 72bd
000000a0: 6b3e 24bd 7bc7 05bd 9fc9 2bbc 19ca 33bc
000000b0: cca7 14bd 435c 463c 6cbe 3a3c 9831 2ebc
000000c0: 513d e23b 098c 41bc ff0f 57bd e140 b0bd
000000d0: 379d 9abd d86b eabd c101 9d3b e451 d1bb
000000e0: 39d1 c23b 5c80 b83c 46bf 893d 72f8 db3d
000000f0: a7d3 033e d955 f03d 4908 053e fa38 ca3b
00000100: 816f ccbc cf47 71bd 761d 5a3c a0ba 873d
00000110: 0c36 ec3d 6e7a 043e ea9d 0b3e ffc7 153e
00000120: 3b3b 1abc f7a2 a63c b6e0 ddbb 4332 75bd
00000130: e84b 50bd dad2 babd 7107 00be c6c9 d6bd
00000140: b552 fbbd 803b 66bc f4d8 93b9 b021 a2bc
00000150: 1a70 85bb c598 a0bb 13ee 0d3d bc7f 203d
00000160: 004f 243d fc72 943d ad4c dd3c 34d1 263c
00000170: bfb5 8c3c 2896 023d 798b fe3c ef70 203c
00000180: 6b73 de3c 9d59 893d a44a c03d ebb4 f9bc
00000190: 119d 403c 1fc3 053c a999 8abc c9de 26bd
000001a0: 9f53 ecbc 417b e9bc 0e00 d43a 7251 29bd
000001b0: ad7b a93c 1e69 573b e974 c3bc 7896 aebc
000001c0: 4d12 073d 74a4 903c 633d 06bc 3129 a03c
000001d0: 678e 3bbd 6d7b 843d 1e6d 9e3b a9ca 98bc
000001e0: 2731 94ba 664d e9bc 87df ef3c dc75 dcbb
000001f0: 35ee 18bd 3da8 8fbc abf5 15be 3c8e a0bd
00000200: e2cd bdbc 0104 d93c b687 133d 5a89 3b3d
00000210: d934 463d 2d05 883d 9b9a c83d 4e85 1f3d
00000220: 1106 eb3a e072 02bb 5711 403c 596a 5d3c
00000230: 93a6 6a3c d4db 09ba 1f08 e6bc d55d 94bb
00000240: 9ae2 013e 7f31 ab3d c155 d43c 718e 0dbc
00000250: c326 22bd 5183 9cbd 4770 e5bd d2fd 04be
00000260: 2dd5 31be ce6d 1f3d 3858 3f3d 91c2 fc3c
00000270: 49a4 23bb 3b58 30bd 4c02 58bd bcb6 89bd
00000280: dd3f b1bd d9a9 0cbe b876 633c 5d5b 3abc
00000290: 2423 39bb 5854 183d 2ea1 eb3b 7b83 8fbc
000002a0: 2bd4 303d a16c 933d 8d58 bc3d 16b6 e7bd
000002b0: d045 9ebd df72 f7bc b1c9 c8bc 9390 db3b
000002c0: 711a 973c 630d 453d ba16 513d 322a 4a3d
-0.005964946 0.01874968 0.008454817 -0.011156082 -0.06607927 -0.11075555 -0.1333849 -0.16235599
-0.17468669 -0.005385708 -0.042880822 -0.045594644 0.023898462 0.08478827 0.12496147 0.10278966
0.06971501 0.08751065 -0.04236501 -0.019309027 0.02225381 -0.005424273 0.040960778 0.06930212
0.04389063 0.009125817 0.057695765 0.026035763 0.05731533 0.015004668 -0.0012306895 0.015620932
-0.0050471174 0.017172702 0.022228753 -0.03584189 0.008104433 -0.029305004 -0.0387712 -0.059267018
-0.04009859 -0.032660943 -0.010485082 -0.010973477 -0.036292836 0.012106958 0.011397939 -0.010631941
0.006904282 -0.011813172 -0.05250549 -0.08606125 -0.075495176 -0.11446351 0.004791469 -0.006387936
0.0059453514 0.022522144 0.06725936 0.107407466 0.12873708 0.11735124 0.12991442 0.006171343
-0.024955513 -0.058906373 0.013312688 0.06627393 0.11533746 0.12937328 0.13634458 0.14627074
-0.009413536 0.02034138 -0.0067711724 -0.059862386 -0.05085364 -0.09122248 -0.12502839 -0.10487704
-0.122716345 -0.014052272 -0.00028199668 -0.019791454 -0.0040722014 -0.004901024 0.034650873 0.039184317
0.040114403 0.07248494 0.0270141 0.010181714 0.017176507 0.03188148 0.031072365 0.0097925505
0.027154645 0.067065455 0.093892366 -0.030481776 0.011756198 0.008164196 -0.016918974 -0.04073981
-0.028848467 -0.028501155 0.0016174333 -0.041337438 0.020688856 0.0032869051 -0.023859458 -0.021311983
0.032976437 0.017656542 -0.008193347 0.019550892 -0.045790102 0.06468854 0.004834785 -0.018651323
-0.0011306152 -0.02847929 0.02928139 -0.006727917 -0.037336547 -0.017536277 -0.14644496 -0.07839629
-0.023169462 0.026491167 0.036018096 0.045785286 0.048390243 0.06641612 0.09795114 0.03894549
0.0017930885 -0.0019904897 0.011722884 0.013514125 0.014321941 -0.0005258892 -0.028080044 -0.004527787
0.12684098 0.0835905 0.025919797 -0.008639918 -0.039587747 -0.07642234 -0.11203056 -0.1298745
-0.17366476 0.038923077 0.04671499 0.030854495 -0.0024969748 -0.043052893 -0.052736565 -0.06724307
-0.08654759 -0.13736667 0.013883285 -0.011374322 -0.0028249705 0.03718981 0.007190845 -0.01751875
0.04317109 0.07198454 0.09196577 -0.11314027 -0.077281594 -0.030206142 -0.024510236 0.006700584
0.018445225 0.04810847 0.051047064 0.049356647

model.qy_x.model.tcn_block_00.block.conv1d_layer_1.bias f4 [2]
00000000: f268 cb3e 8e73 933e
0.39728504 0.287991

model.qy_x.model.tcn_block_00.block.conv1d_layer_1.weight_g f4 [2, 1, 1]
00000000: 558f 933f 1b94 ea3f
1.1528116 1.8326448

model.qy_x.model.tcn_block_00.block.conv1d_layer_1.weight_v f4 [2, 2, 9]
00000000: 1161 1a3e af7e 3b3e 9c25 ab3d ee7f 02be
00000010: d2ed 32be acce afbd 607f 2e3d d148 093e
00000020: 0938 e03d 9dbe ebbd a5aa a93d b116 fe3d
00000030: 1d5c ad3c e12b 1fbd f58f 5ebd dd6f d4bd
00000040: d608 33be 4e75 52be 263a 0d3d 5326 e73c
00000050: 7a21 a73c f311 813c 50ec 213c 5263 b6bc
00000060: a07a 77bd fece 05be 96b5 40be af56 8ebc
00000070: 278a 1fbd a5b0 b33b 4e05 493d 8aba 873d
00000080: fd4c ce3d 81b8 253e ca19 413e b1dc 0d3e
0.1507609 0.18310045 0.08356783 -0.12744114 -0.17473534 -0.085843414 0.042601943 0.13406684
0.10948188 -0.11510966 0.08284501 0.12406672 0.021162087 -0.038860206 -0.054336507 -0.10372899
-0.1748384 -0.2055256 0.034479283 0.028216517 0.020401705 0.01575563 0.009883001 -0.022264156
-0.06041968 -0.13067243 -0.1881927 -0.017375318 -0.03895011 0.005483704 0.049077325 0.066273764
0.10073278 0.16183664 0.18857494 0.13853718

model.qy_x.model.tcn_block_00.downsample.weight f4 [2, 10, 1]
00000000: 060a 5cbf 6180 403f 35f8 4d3f 53ab 0d3e
00000010: 608a 2dbf 7815 3abf 44dc 913f def4 853f
00000020: 0aa8 7ebf 4e3a 433e f3aa 213f bb42 1bbf
00000030: 9eed 47be b249 d43e 17bb d7be 700c 333f
00000040: 92a4 0c3d ff39 abbe f4e4 c03e 0b63 20bf
-0.85952795 0.7519589 0.8045686 0.13834886 -0.6778927 -0.7268901 1.1395345 1.0465353
-0.9947516 0.1906521 0.6315147 -0.606487 -0.19524238 0.41462475 -0.42134926 0.69940853
0.034336634 -0.33442685 0.37674677 -0.6265113

model.qy_x.model.tcn_block_00.downsample.bias f4 [2]
00000000: a181 b13f 1f52 533f
1.3867685 0.8254718

model.qy_x.model.tcn_block_01.conv0.bias f4 [2]
00000000: 9dc5 01bd fe04 023f
-0.0316826 0.5078887

model.qy_x.model.tcn_block_01.conv0.weight_g f4 [2, 1, 1]
00000000: 9069 f83f c111 d13f
1.9407215 1.6333543

model.qy_x.model.tcn_block_01.conv0.weight_v f4 [2, 2, 9]
00000000: 1b77 093e 7e41 9b3d 3058 503d 4eeb 923c
00000010: 7178 953c 0253 163c 7728 5dbd ab99 afbd
00000020: 38c8 dfbd 0857 28be 45c9 13be 7444 0ebe
00000030: e147 cebd 2f13 13bd 5c86 7dbb d568 d33d
00000040: 2bcd 493e 7b06 963e 9bc2 ec3d 125b 1e3e
00000050: 2152 193e 2b69 373e 0e20 423e 919a 3c3e
00000060: de00 3f3e 6c17 4c3e 50c8 333e a690 7ebb
00000070: 653d 35bd c7c8 0fbd e61e 39bd 5b48 99bd
00000080: b5b2 84bd 144d 27bd c32d adbc bcfa db3c
0.13424341 0.07580851 0.050865352 0.017934468 0.018245908 0.009175064 -0.05399367 -0.08574232
-0.109268606 -0.1643945 -0.14432247 -0.138933 -0.100723036 -0.035906967 -0.003868482 0.103227295
0.19707172 0.2930182 0.115605555 0.15464428 0.14972736 0.17911212 0.1895754 0.18418337
0.18652675 0.1993081 0.17556882 -0.0038843541 -0.044248004 -0.035103586 -0.045195483 -0.07484504
-0.06479398 -0.04084499 -0.021139985 0.026852958

model.qy_x.model.tcn_block_01.conv1.bias f4 [4]
00000000: 2407 233f 5d19 a23e 28bc fe3e 0637 0a3f
0.6368277 0.31659976 0.49752927 0.5399021

model.qy_x.model.tcn_block_01.conv1.weight_g f4 [4, 1, 1]
00000000: 3a9d 6d3f 0fbc c53e b57c f43f 2c31 b63f
0.92818034 0.3862004 1.9100558 1.4233756

model.qy_x.model.tcn_block_01.conv1.weight_v f4 [4, 2, 9]
00000000: cf70 9cbe 0e7c 9bbc c41d 31be 6275 12be
00000010: 39e8 cc3d 1850 423d 13bd 1b3e e718 223e
00000020: 2874 d43d 8664 35be 9f3d 0cbd 5090 2b3e
00000030: af32 b8bd e861 4fbe 88a6 f33d 46a5 943e
00000040: 6552 8c3d bf53 4fbd d794 0ebe 601d a13e
00000050: 495f 1c3d 9c61 85be 91fc 8c3c d983 963c
00000060: b45d 063e bbf1 873d da6f a9be 0e21 46bc
00000070: ff40 3fbe f7c8 893e 1db9 b2bc c89c 3cbe
00000080: fe00 10bf bee1 25bd 38ad 37be 0912 d73d
00000090: ba60 673d c84c 123d 7146 143d 491e 4fba
000000a0: 52bd 07bd 218e dabd 995e 2dbe fb8d 52be
000000b0: aee1 46be 052a 5bbe 959b 2dbe 55c0 0cbe
000000c0: 940b 9ebd a47e 2cbd 351e 463c a30e 8d3d
000000d0: 27c8 013e 7db5 363e 1740 e93b e7fe 9cbc
000000e0: f2c6 c8bc 5405 10bd 367b a8bb 1f41 243d
000000f0: 4a75 0c3e fa58 493e f650 923e d0a2 2c3e
00000100: 437c b43d 3a8b cb3d 4315 b23d 56d0 0f3d
00000110: 59ff 40bb 0328 56bd 76e6 a8bd d2c6 1bbe
-0.30554816 -0.018980052 -0.17296511 -0.1430259 0.100052305 0.047439665 0.15208845 0.15829812
0.103737175 -0.17714128 -0.034238454 0.1675427 -0.08994042 -0.20252192 0.11896998 0.29032344
0.06851653 -0.050616976 -0.13923965 0.31467724 0.03817681 -0.26051033 0.017210277 0.018373417
0.13121682 0.06637903 -0.33093148 -0.012092842 -0.18677138 0.26911137 -0.021816785 -0.18419182
-0.56251514 -0.040498488 -0.17937171 0.10501487 0.05648873 0.035717756 0.03619999 -0.0007900936
-0.033139534 -0.1067164 -0.16930617 -0.20561974 -0.19422027 -0.21402748 -0.16953881 -0.13745244
-0.07717052 -0.04211296 0.012092163 0.06887557 0.12674008 0.1784267 0.007118236 -0.019164516
-0.024508927 -0.03516133 -0.005141641 0.040101167 0.13716617 0.19662848 0.28577393 0.16858983
0.088127635 0.09938665 0.086954616 0.035110794 -0.0029449074 -0.052284252 -0.08247082 -0.15212563

model.qy_x.model.tcn_block_01.block.conv1d_layer_0.bias f4 [2]
00000000: 9dc5 01bd fe04 023f
-0.0316826 0.5078887

model.qy_x.model.tcn_block_01.block.conv1d_layer_0.weight_g f4 [2, 1, 1]
00000000: 9069 f83f c111 d13f
1.9407215 1.6333543

model.qy_x.model.tcn_block_01.block.conv1d_layer_0.weight_v f4 [2, 2, 9]
00000000: 1b77 093e 7e41 9b3d 3058 503d 4eeb 923c
00000010: 7178 953c 0253 163c 7728 5dbd ab99 afbd
00000020: 38c8 dfbd 0857 28be 45c9 13be 7444 0ebe
00000030: e147 cebd 2f13 13bd 5c86 7dbb d568 d33d
00000040: 2bcd 493e 7b06 963e 9bc2 ec3d 125b 1e3e
00000050: 2152 193e 2b69 373e 0e20 423e 919a 3c3e
00000060: de00 3f3e 6c17 4c3e 50c8 333e a690 7ebb
00000070: 653d 35bd c7c8 0fbd e61e 39bd 5b48 99bd
00000080: b5b2 84bd 144d 27bd c32d adbc bcfa db3c
0.13424341 0.07580851 0.050865352 0.017934468 0.018245908 0.009175064 -0.05399367 -0.08574232
-0.109268606 -0.1643945 -0.14432247 -0.138933 -0.100723036 -0.035906967 -0.003868482 0.103227295
0.19707172 0.2930182 0.115605555 0.15464428 0.14972736 0.17911212 0.1895754 0.18418337
0.18652675 0.1993081 0.17556882 -0.0038843541 -0.044248004 -0.035103586 -0.045195483 -0.07484504
-0.06479398 -0.04084499 -0.021139985 0.026852958

model.qy_x.model.tcn_block_01.block.conv1d_layer_1.bias f4 [4]
00000000: 2407 233f 5d19 a23e 28bc fe3e 0637 0a3f
0.6368277 0.31659976 0.49752927 0.5399021

model.qy_x.model.tcn_block_01.block.conv1d_layer_1.weight_g f4 [4, 1, 1]
00000000: 3a9d 6d3f 0fbc c53e b57c f43f 2c31 b63f
0.92818034 0.3862004 1.9100558 1.4233756

model.qy_x.model.tcn_block_01.block.conv1d_layer_1.weight_v f4 [4, 2, 9]
00000000: cf70 9cbe 0e7c 9bbc c41d 31be 6275 12be
00000010: 39e8 cc3d 1850 423d 13bd 1b3e e718 223e
00000020: 2874 d43d 8664 35be 9f3d 0cbd 5090 2b3e
00000030: af32 b8bd e861 4fbe 88a6 f33d 46a5 943e
00000040: 6552 8c3d bf53 4fbd d794 0ebe 601d a13e
00000050: 495f 1c3d 9c61 85be 91fc 8c3c d983 963c
00000060: b45d 063e bbf1 873d da6f a9be 0e21 46bc
00000070: ff40 3fbe f7c8 893e 1db9 b2bc c89c 3cbe
00000080: fe00 10bf bee1 25bd 38ad 37be 0912 d73d
00000090: ba60 673d c84c 123d 7146 143d 491e 4fba
000000a0: 52bd 07bd 218e dabd 995e 2dbe fb8d 52be
000000b0: aee1 46be 052a 5bbe 959b 2dbe 55c0 0cbe
000000c0: 940b 9ebd a47e 2cbd 351e 463c a30e 8d3d
000000d0: 27c8 013e 7db5 363e 1740 e93b e7fe 9cbc
000000e0: f2c6 c8bc 5405 10bd 367b a8bb 1f41 243d
000000f0: 4a75 0c3e fa58 493e f650 923e d0a2 2c3e
00000100: 437c b43d 3a8b cb3d 4315 b23d 56d0 0f3d
00000110: 59ff 40bb 0328 56bd 76e6 a8bd d2c6 1bbe
-0.30554816 -0.018980052 -0.17296511 -0.1430259 0.100052305 0.047439665 0.15208845 0.15829812
0.103737175 -0.17714128 -0.034238454 0.1675427 -0.08994042 -0.20252192 0.11896998 0.29032344
0.06851653 -0.050616976 -0.13923965 0.31467724 0.03817681 -0.26051033 0.017210277 0.018373417
0.13121682 0.06637903 -0.33093148 -0.012092842 -0.18677138 0.26911137 -0.021816785 -0.18419182
-0.56251514 -0.040498488 -0.17937171 0.10501487 0.05648873 0.035717756 0.03619999 -0.0007900936
-0.033139534 -0.1067164 -0.16930617 -0.20561974 -0.19422027 -0.21402748 -0.16953881 -0.13745244
-0.07717052 -0.04211296 0.012092163 0.06887557 0.12674008 0.1784267 0.007118236 -0.019164516
-0.024508927 -0.03516133 -0.005141641 0.040101167 0.13716617 0.19662848 0.28577393 0.16858983
0.088127635 0.09938665 0.086954616 0.035110794 -0.0029449074 -0.052284252 -0.08247082 -0.15212563

model.qy_x.model.tcn_block_01.downsample.weight f4 [4, 2, 1]
00000000: 37e7 033f 7509 39bf 0ad6 423d a1b5 2e3f
00000010: fd08 cd3d 9fdc 99bd c341 0f3f cda3 9b3c
0.5152468 -0.72280055 0.047567405 0.68245894 0.1001148 -0.07512783 0.5595972 0.018999005

model.qy_x.model.tcn_block_01.downsample.bias f4 [4]
00000000: c5eb 483e 21dd 183f 6c38 4e3f a1f1 583e
0.19621189 0.59712416 0.8055484 0.21185924

model.qy_x.model.final_dense_02.weight f4 [4, 4, 1]
00000000: 1029 7abf 8847 fb3e 5ce4 b53e ab08 c9bf
00000010: e3ed 043f 049c 9dbf ce93 9cbb e80f ab3e
00000020: a6c2 06bf 8d8d e63e 03e2 89bf 707c a83e
00000030: c4c7 193f 050e 05bf 7137 fc3e 639a 08bf
-0.97718906 0.49078012 0.35525787 -1.570577 0.51925486 -1.2313237 -0.004778362 0.33410573
-0.5264076 0.4502987 -1.0772098 0.32907438 0.60070443 -0.5197452 0.49261048 -0.53360575

model.qy_x.model.final_dense_02.bias f4 [4]
00000000: e6af 13bd e5bb 32bf 7975 df3d 2a53 ec3e
-0.03605642 -0.69817954 0.10911078 0.461572

model.encoder.model.tcn_block_00.conv0.bias f4 [2]
00000000: 4d5d e03d 80ab 8abe
0.10955296 -0.2708397

model.encoder.model.tcn_block_00.conv0.weight_g f4 [2, 1, 1]
00000000: 4183 103f 874e 2b3f
0.5645028 0.669167

model.encoder.model.tcn_block_00.conv0.weight_v f4 [2, 14, 9]
00000000: 01f8 393d bdc5 6bbb 13ca e03c a270 6a3c
00000010: 2d81 8fbc b8d0 4cbc ed4a 72bd 6328 813c
00000020: e668 a8bc 1891 36bc 846e eebc 01dc ca3c
00000030: faee 60bc af9c 1d3d c19b 6bbc d467 ce3c
00000040: 181c 6d3c 75d1 ab3c e58b a93c e5f5 413b
00000050: 4cc5 673c dd3b b2bc 4b5e b03c b659 7abc
00000060: 0d8f ab3a 8d53 e8bc 4422 2d3b 570b 08bc
00000070: 26ed e93c d866 89bb 3b5d f83c 52c4 d7bc
00000080: f413 203d e493 d93c 552b d63b 5e98 95bc
00000090: 00d4 623d 9619 14bd 8067 01bc 994c 61bd
000000a0: 9010 4cbc 64d7 8d38 f2b4 5dbc e0a6 acbc
000000b0: 2735 9bbd 9628 813c f0d8 f93c 706b 3c3d
000000c0: a224 fc3c d953 673d 3dbe 26bd 6142 9abc
000000d0: fc6b cabc ac63 85bd 92ca 4bbd 3f40 693d
000000e0: 0229 1b3d 06b2 403d 038e f83c 1278 60bd
000000f0: 82e2 eb3c 7b01 963d 7cc9 9bbc eadf cb3c
00000100: 18cf dfbb 6734 f53c 58a1 28bd 1dbe 1b3d
00000110: 27e8 7ebd 0a55 7d3c 6e3e ef3c 5c56 8b3d
00000120: c132 7e3d 691e 863d ad90 213d ad8b 0c3d
00000130: 3b42 8aba 3dd0 33bc ef79 8fbd c0b1 d3bc
00000140: 6eeb 28bd 3753 4bbd f9ed b23c 0d0a 423b
00000150: 4b23 d5ba 569f a2bb 9392 7d3d 61a5 ac3c
00000160: c3fd 63bd 5f86 5fbd f1f1 ad3d 665f da3d
00000170: b0e9 f13d 9cdf 083d e42c 063d e7a1 413d
00000180: 7239 c43d 304e 033e 2d4f 163e 2696 833d
00000190: ae2a f93d d429 d83d d2ac 053e d8eb 1fbd
000001a0: 4661 60bc 1b3d e23d 6a10 ab3d 00ab aa3a
000001b0: 2c74 073e 132f bdbb d999 333e c8cf 08bc
000001c0: b80c fa3d 96f4 bd3b 757b 843d 718c 0f3e
000001d0: 4f7c df3d dea3 313e 1c6d 0f3e 8ccd e13d
000001e0: ade0 af3d 704e 9b3d ceb2 9a3c f1dc 853d
000001f0: e468 923d 72dc 973d 1cc3 d73c cc00 c03c
00000200: 6d0c 3c3c c0db dbba 0ef2 603b 2609 e9bb
00000210: 8268 bdbc a7b2 b2bc 5f63 f3bc 7f1c f9bc
00000220: 9c78 9abc 94ea f7bb 39d4 023c 5293 43ba
00000230: 3804 203c aa7e 8d3c bc49 dd3c 1961 d53c
00000240: 201f 1cbc ec5a 0bbb ce4c f2ba 06f5 00bc
00000250: 48ad 0abb dc5b b93b ee75 b6bc 6e88 393b
00000260: a907 52bb 705c ebbc 29a0 0dbd 851f 8e3b
00000270: 99e7 19bc b870 813c 76ee d1ba 60d8 28bb
00000280: ee22 0abc 8d93 1c3c 3e39 92bd 5899 3bbd
00000290: 55fd 06bd 2b24 49bc af82 4537 8ce2 503c
000002a0: 9343 c43c 6961 ad3c 8e9b e73c ddfb 1a3d
000002b0: 716d fd3c fea1 c43c 3604 423c 75a1 4bba
000002c0: 83b3 13bc a60d 40bb 1d6b b3bc b8fa 20bd
000002d0: 2b3b 093d e4be 883c 8956 3e3c 4d99 c7b8
000002e0: 3029 3e3b 8dfa 88bc 9b2c 48bc 4398 5f3b
000002f0: bcbe 7d3c a858 83ba c026 2bbc bc19 c6bb
00000300: 73b8 c33a 0934 1cbc adc2 8cbb c9f7 873c
00000310: 4e66 693c 34f8 913c 049f 00bc 11e9 243b
00000320: d9ef ba3a 0d1a 673a be88 2a3b c3c3 05bc
00000330: c2f5 82bc 9f72 9bbc 7a8c e0bc ac2c 69bd
00000340: 3b01 81bd 3386 b5bc 5e7a e3bc fd9e 673c
00000350: a66f 6a3c c197 1d3d d37a 293d be6a 2d3d
00000360: 7c07 053e 593d c43d 95c8 9c3d aa9d da3c
00000370: ebc0 a6bb 5b30 91bc be45 63bd 439c 5bbd
00000380: 25df 8ebd db09 173d d452 f73b 1f16 ec3a
00000390: 5a57 893b aaf2 ec3a f611 2f3c cf4e 5f3c
000003a0: 21ea 113c efb2 3c3d 855f 663d 0722 303e
000003b0: 256c 993d 5d70 313d 0712 1bbb 7ead 00bd
000003c0: 392b 24bd f900 16bd ba97 acbd db73 5bbe
000003d0: 21ae 57bd ca29 79bc a7fb 5d3d 67f9 833b
000003e0: cb4d 663d 86a7 bb3e c387 f3bd ae06 a0be
0.04540253 -0.0035976015 0.027440106 0.01430908 -0.01751765 -0.012500934 -0.059153486 0.015766328
-0.020557832 -0.0111429915 -0.029105432 0.02476311 -0.013728851 0.038479503 -0.014380396 0.025195993
0.01447203 0.0209739 0.02069659 0.0029596027 0.01414616 -0.02175706 0.021529337 -0.015280178
0.0013088897 -0.028360153 0.002641813 -0.008303485 0.028555464 -0.004193168 0.030317893 -0.02633873
0.03908153 0.026559778 0.0065359273 -0.01826113 0.05537796 -0.036157213 -0.0078982115 -0.05500469
-0.012455121 6.7635236e-05 -0.01353191 -0.021075666 -0.075784974 0.015766423 0.030498952 0.046000898
0.030779187 0.056476448 -0.04070877 -0.01883048 -0.024709694 -0.065131515 -0.049753733 0.056946035
0.037880905 0.047044776 0.030341154 -0.054802008 0.02879453 0.07324501 -0.019016974 0.024887044
-0.0068301074 0.029932214 -0.041169494 0.038023103 -0.062233116 0.015462169 0.029204573 0.06803581
0.06206012 0.06548769 0.039444614 0.034312893 -0.0010548303 -0.010974941 -0.07005679 -0.025841594
-0.04124015 -0.049639907 0.02184199 0.0029608042 -0.0016261128 -0.004962842 0.061907362 0.021074953
-0.055661928 -0.054571506 0.08493412 0.10662727 0.118121505 0.033416376 0.032757655 0.047273543
0.09581269 0.12822795 0.1467864 0.06425123 0.12166344 0.10554853 0.13054207 -0.039043278
-0.013695067 0.11046811 0.0835274 0.0013020933 0.1322791 -0.005773434 0.17539157 -0.00835032
0.12209457 0.005796979 0.0646886 0.14018418 0.10912382 0.17347667 0.14006466 0.11025533
0.085877754 0.0758332 0.018884089 0.06536282 0.071489125 0.074150935 0.026338153 0.02343788
0.011477572 -0.0016773865 0.0034323963 -0.0071116863 -0.023121122 -0.021813704 -0.02971047 -0.030409096
-0.01885634 -0.0075658057 0.007985168 -0.0007460612 0.009766631 0.017272312 0.027012698 0.026047276
-0.009528905 -0.002126391 -0.0018486024 -0.007870918 -0.0021160413 0.0056567024 -0.02227303 0.0028310078
-0.0032048023 -0.028730601 -0.03457657 0.0043372535 -0.009393596 0.015800819 -0.0016016501 -0.0025763735
-0.008431179 0.009556663 -0.07139824 -0.045800537 -0.03295644 -0.0122766895 1.1772542e-05 0.0127493255
0.023958003 0.021164613 0.028272416 0.03783785 0.030935975 0.024003025 0.011841824 -0.00077678944
-0.009014967 -0.002930501 -0.021901662 -0.039301604 0.033503693 0.016692586 0.011617311 -9.517614e-05
0.002901625 -0.016721034 -0.012217666 0.0034117855 0.015487369 -0.0010020928 -0.01044625 -0.0060455482
0.001493229 -0.0095338905 -0.004295668 0.016597645 0.014245583 0.017818548 -0.007850412 0.0025163332
0.0014262154 0.00088158326 0.0026021446 -0.008164349 -0.015986327 -0.018975554 -0.027410734 -0.056927368
-0.06299063 -0.022158718 -0.02776831 0.014137027 0.014308846 0.038474802 0.0413769 0.042338125
0.12991136 0.09582014 0.076554455 0.026686508 -0.0050889156 -0.017723253 -0.055486433 -0.05361582
-0.06976155 0.036874633 0.0075477157 0.0018011964 0.0041913213 0.0018077691 0.010685435 0.013629629
0.008905918 0.046069082 0.05624344 0.1720048 0.0749133 0.04332005 -0.0023661868 -0.031415455
-0.040080283 -0.03662202 -0.08427377 -0.21430914 -0.052656297 -0.015207717 0.054195073 0.004027534
0.056226533 0.36651248 -0.11891129 -0.31255096

model.encoder.model.tcn_block_00.conv1.bias f4 [2]
00000000: 1e35 8dbd 6cb9 a83c
-0.06894897 0.020596229

model.encoder.model.tcn_block_00.conv1.weight_g f4 [2, 1, 1]
00000000: 2132 ff3e 3606 203f
0.49842933 0.6250948

model.encoder.model.tcn_block_00.conv1.weight_v f4 [2, 2, 9]
00000000: 880d 643c 7e52 23bd b593 cc3c 5f48 c03d
00000010: 7ed0 7e3d 1d08 9abb 5750 b03c 42f1 cabd
00000020: 4ca4 e5bc 1990 303e b338 963a 25c1 3e3e
00000030: bcfe 9a3c 4738 903d 2e83 083e 491b c0bd
00000040: a9ba 2c3e 20ac 283e 41ef a3bc f068 5fbd
00000050: 13c2 0e3e d020 003e a64b 1bbe 1487 d93d
00000060: 049f 12be e5a0 17be 8d6d 033e 8079 b9be
00000070: 1076 7ebe 543e 8abe b782 62be bbd0 a3bd
00000080: dfcd 7bbe fd53 80be a957 dfbd 8873 3ebe
0.013919242 -0.039873593 0.024972776 0.09388804 0.062210552 -0.004700674 0.021522684 -0.099092975
-0.028032444 0.17242469 0.001146099 0.18628366 0.018920295 0.07041984 0.13331291 -0.09380204
0.1686808 0.1647191 -0.020011546 -0.054543436 0.13941221 0.12512517 -0.15165576 0.10621467
-0.14318472 -0.1480747 0.12834759 -0.3622551 -0.24849725 -0.27000678 -0.22120176 -0.079987966
-0.24590252 -0.25064078 -0.10905392 -0.18598759

model.encoder.model.tcn_block_00.block.conv1d_layer_0.bias f4 [2]
00000000: 4d5d e03d 80ab 8abe
0.10955296 -0.2708397

model.encoder.model.tcn_block_00.block.conv1d_layer_0.weight_g f4 [2, 1, 1]
00000000: 4183 103f 874e 2b3f
0.5645028 0.669167

model.encoder.model.tcn_block_00.block.conv1d_layer_0.weight_v f4 [2, 14, 9]
00000000: 01f8 393d bdc5 6bbb 13ca e03c a270 6a3c
00000010: 2d81 8fbc b8d0 4cbc ed4a 72bd 6328 813c
00000020: e668 a8bc 1891 36bc 846e eebc 01dc ca3c
00000030: faee 60bc af9c 1d3d c19b 6bbc d467 ce3c
00000040: 181c 6d3c 75d1 ab3c e58b a93c e5f5 413b
00000050: 4cc5 673c dd3b b2bc 4b5e b03c b659 7abc
00000060: 0d8f ab3a 8d53 e8bc 4422 2d3b 570b 08bc
00000070: 26ed e93c d866 89bb 3b5d f83c 52c4 d7bc
00000080: f413 203d e493 d93c 552b d63b 5e98 95bc
00000090: 00d4 623d 9619 14bd 8067 01bc 994c 61bd
000000a0: 9010 4cbc 64d7 8d38 f2b4 5dbc e0a6 acbc
000000b0: 2735 9bbd 9628 813c f0d8 f93c 706b 3c3d
000000c0: a224 fc3c d953 673d 3dbe 26bd 6142 9abc
000000d0: fc6b cabc ac63 85bd 92ca 4bbd 3f40 693d
000000e0: 0229 1b3d 06b2 403d 038e f83c 1278 60bd
000000f0: 82e2 eb3c 7b01 963d 7cc9 9bbc eadf cb3c
00000100: 18cf dfbb 6734 f53c 58a1 28bd 1dbe 1b3d
00000110: 27e8 7ebd 0a55 7d3c 6e3e ef3c 5c56 8b3d
00000120: c132 7e3d 691e 863d ad90 213d ad8b 0c3d
00000130: 3b42 8aba 3dd0 33bc ef79 8fbd c0b1 d3bc
00000140: 6eeb 28bd 3753 4bbd f9ed b23c 0d0a 423b
00000150: 4b23 d5ba 569f a2bb 9392 7d3d 61a5 ac3c
00000160: c3fd 63bd 5f86 5fbd f1f1 ad3d 665f da3d
00000170: b0e9 f13d 9cdf 083d e42c 063d e7a1 413d
00000180: 7239 c43d 304e 033e 2d4f 163e 2696 833d
00000190: ae2a f93d d429 d83d d2ac 053e d8eb 1fbd
000001a0: 4661 60bc 1b3d e23d 6a10 ab3d 00ab aa3a
000001b0: 2c74 073e 132f bdbb d999 333e c8cf 08bc
000001c0: b80c fa3d 96f4 bd3b 757b 843d 718c 0f3e
000001d0: 4f7c df3d dea3 313e 1c6d 0f3e 8ccd e13d
000001e0: ade0 af3d 704e 9b3d ceb2 9a3c f1dc 853d
000001f0: e468 923d 72dc 973d 1cc3 d73c cc00 c03c
00000200: 6d0c 3c3c c0db dbba 0ef2 603b 2609 e9bb
00000210: 8268 bdbc a7b2 b2bc 5f63 f3bc 7f1c f9bc
00000220: 9c78 9abc 94ea f7bb 39d4 023c 5293 43ba
00000230: 3804 203c aa7e 8d3c bc49 dd3c 1961 d53c
00000240: 201f 1cbc ec5a 0bbb ce4c f2ba 06f5 00bc
00000250: 48ad 0abb dc5b b93b ee75 b6bc 6e88 393b
00000260: a907 52bb 705c ebbc 29a0 0dbd 851f 8e3b
00000270: 99e7 19bc b870 813c 76ee d1ba 60d8 28bb
00000280: ee22 0abc 8d93 1c3c 3e39 92bd 5899 3bbd
00000290: 55fd 06bd 2b24 49bc af82 4537 8ce2 503c
000002a0: 9343 c43c 6961 ad3c 8e9b e73c ddfb 1a3d
000002b0: 716d fd3c fea1 c43c 3604 423c 75a1 4bba
000002c0: 83b3 13bc a60d 40bb 1d6b b3bc b8fa 20bd
000002d0: 2b3b 093d e4be 883c 8956 3e3c 4d99 c7b8
000002e0: 3029 3e3b 8dfa 88bc 9b2c 48bc 4398 5f3b
000002f0: bcbe 7d3c a858 83ba c026 2bbc bc19 c6bb
00000300: 73b8 c33a 0934 1cbc adc2 8cbb c9f7 873c
00000310: 4e66 693c 34f8 913c 049f 00bc 11e9 243b
00000320: d9ef ba3a 0d1a 673a be88 2a3b c3c3 05bc
00000330: c2f5 82bc 9f72 9bbc 7a8c e0bc ac2c 69bd
00000340: 3b01 81bd 3386 b5bc 5e7a e3bc fd9e 673c
00000350: a66f 6a3c c197 1d3d d37a 293d be6a 2d3d
00000360: 7c07 053e 593d c43d 95c8 9c3d aa9d da3c
00000370: ebc0 a6bb 5b30 91bc be45 63bd 439c 5bbd
00000380: 25df 8ebd db09 173d d452 f73b 1f16 ec3a
00000390: 5a57 893b aaf2 ec3a f611 2f3c cf4e 5f3c
000003a0: 21ea 113c efb2 3c3d 855f 663d 0722 303e
000003b0: 256c 993d 5d70 313d 0712 1bbb 7ead 00bd
000003c0: 392b 24bd f900 16bd ba97 acbd db73 5bbe
000003d0: 21ae 57bd ca29 79bc a7fb 5d3d 67f9 833b
000003e0: cb4d 663d 86a7 bb3e c387 f3bd ae06 a0be
0.04540253 -0.0035976015 0.027440106 0.01430908 -0.01751765 -0.012500934 -0.059153486 0.015766328
-0.020557832 -0.0111429915 -0.029105432 0.02476311 -0.013728851 0.038479503 -0.014380396 0.025195993
0.01447203 0.0209739 0.02069659 0.0029596027 0.01414616 -0.02175706 0.021529337 -0.015280178
0.0013088897 -0.028360153 0.002641813 -0.008303485 0.028555464 -0.004193168 0.030317893 -0.02633873
0.03908153 0.026559778 0.0065359273 -0.01826113 0.05537796 -0.036157213 -0.0078982115 -0.05500469
-0.012455121 6.7635236e-05 -0.01353191 -0.021075666 -0.075784974 0.015766423 0.030498952 0.046000898
0.030779187 0.056476448 -0.04070877 -0.01883048 -0.024709694 -0.065131515 -0.049753733 0.056946035
0.037880905 0.047044776 0.030341154 -0.054802008 0.02879453 0.07324501 -0.019016974 0.024887044
-0.0068301074 0.029932214 -0.041169494 0.038023103 -0.062233116 0.015462169 0.029204573 0.06803581
0.06206012 0.06548769 0.039444614 0.034312893 -0.0010548303 -0.010974941 -0.07005679 -0.025841594
-0.04124015 -0.049639907 0.02184199 0.0029608042 -0.0016261128 -0.004962842 0.061907362 0.021074953
-0.055661928 -0.054571506 0.08493412 0.10662727 0.118121505 0.033416376 0.032757655 0.047273543
0.09581269 0.12822795 0.1467864 0.06425123 0.12166344 0.10554853 0.13054207 -0.039043278
-0.013695067 0.11046811 0.0835274 0.0013020933 0.1322791 -0.005773434 0.17539157 -0.00835032
0.12209457 0.005796979 0.0646886 0.14018418 0.10912382 0.17347667 0.14006466 0.11025533
0.085877754 0.0758332 0.018884089 0.06536282 0.071489125 0.074150935 0.026338153 0.02343788
0.011477572 -0.0016773865 0.0034323963 -0.0071116863 -0.023121122 -0.021813704 -0.02971047 -0.030409096
-0.01885634 -0.0075658057 0.007985168 -0.0007460612 0.009766631 0.017272312 0.027012698 0.026047276
-0.009528905 -0.002126391 -0.0018486024 -0.007870918 -0.0021160413 0.0056567024 -0.02227303 0.0028310078
-0.0032048023 -0.028730601 -0.03457657 0.0043372535 -0.009393596 0.015800819 -0.0016016501 -0.0025763735
-0.008431179 0.009556663 -0.07139824 -0.045800537 -0.03295644 -0.0122766895 1.1772542e-05 0.0127493255
0.023958003 0.021164613 0.028272416 0.03783785 0.030935975 0.024003025 0.011841824 -0.00077678944
-0.009014967 -0.002930501 -0.021901662 -0.039301604 0.033503693 0.016692586 0.011617311 -9.517614e-05
0.002901625 -0.016721034 -0.012217666 0.0034117855 0.015487369 -0.0010020928 -0.01044625 -0.0060455482
0.001493229 -0.0095338905 -0.004295668 0.016597645 0.014245583 0.017818548 -0.007850412 0.0025163332
0.0014262154 0.00088158326 0.0026021446 -0.008164349 -0.015986327 -0.018975554 -0.027410734 -0.056927368
-0.06299063 -0.022158718 -0.02776831 0.014137027 0.014308846 0.038474802 0.0413769 0.042338125
0.12991136 0.09582014 0.076554455 0.026686508 -0.0050889156 -0.017723253 -0.055486433 -0.05361582
-0.06976155 0.036874633 0.0075477157 0.0018011964 0.0041913213 0.0018077691 0.010685435 0.013629629
0.008905918 0.046069082 0.05624344 0.1720048 0.0749133 0.04332005 -0.0023661868 -0.031415455
-0.040080283 -0.03662202 -0.08427377 -0.21430914 -0.052656297 -0.015207717 0.054195073 0.004027534
0.056226533 0.36651248 -0.11891129 -0.31255096

model.encoder.model.tcn_block_00.block.conv1d_layer_1.bias f4 [2]
00000000: 1e35 8dbd 6cb9 a83c
-0.06894897 0.020596229

model.encoder.model.tcn_block_00.block.conv1d_layer_1.weight_g f4 [2, 1, 1]
00000000: 2132 ff3e 3606 203f
0.49842933 0.6250948

model.encoder.model.tcn_block_00.block.conv1d_layer_1.weight_v f4 [2, 2, 9]
00000000: 880d 643c 7e52 23bd b593 cc3c 5f48 c03d
00000010: 7ed0 7e3d 1d08 9abb 5750 b03c 42f1 cabd
00000020: 4ca4 e5bc 1990 303e b338 963a 25c1 3e3e
00000030: bcfe 9a3c 4738 903d 2e83 083e 491b c0bd
00000040: a9ba 2c3e 20ac 283e 41ef a3bc f068 5fbd
00000050: 13c2 0e3e d020 003e a64b 1bbe 1487 d93d
00000060: 049f 12be e5a0 17be 8d6d 033e 8079 b9be
00000070: 1076 7ebe 543e 8abe b782 62be bbd0 a3bd
00000080: dfcd 7bbe fd53 80be a957 dfbd 8873 3ebe
0.013919242 -0.039873593 0.024972776 0.09388804 0.062210552 -0.004700674 0.021522684 -0.099092975
-0.028032444 0.17242469 0.001146099 0.18628366 0.018920295 0.07041984 0.13331291 -0.09380204
0.1686808 0.1647191 -0.020011546 -0.054543436 0.13941221 0.12512517 -0.15165576 0.10621467
-0.14318472 -0.1480747 0.12834759 -0.3622551 -0.24849725 -0.27000678 -0.22120176 -0.079987966
-0.24590252 -0.25064078 -0.10905392 -0.18598759

model.encoder.model.tcn_block_00.downsample.weight f4 [2, 14, 1]
00000000: dcd3 3e3e 91bb 4dbe 5972 f8bd 0458 9d3e
00000010: 3ef2 8bbe 112e 733e c115 383e 0908 9cbd
00000020: c822 b73d a29f 93be 8d35 963f 31b4 963f
00000030: 633a 963f aea5 963f 77e6 35be 292c e73d
00000040: e417 353e b4da f13d d92a 62be 6978 11bd
00000050: 5ab2 843e 956c 6c3e 4d9c 50be 3153 f3bd
00000060: 96aa a13f cfa5 a03f c8e0 a03f bd54 a13f
0.18635505 -0.20091082 -0.12131185 0.30731213 -0.27333254 0.23748042 0.17977048 -0.0761872
0.08942181 -0.28832728 1.1735092 1.177374 1.1736568 1.1769311 -0.17763697 0.1128772
0.17684895 0.118092924 -0.22086658 -0.035515223 0.2591732 0.23088296 -0.20372124 -0.11881102
1.2630184 1.2550601 1.2568598 1.2603985

model.encoder.model.tcn_block_00.downsample.bias f4 [2]
00000000: c2b7 d13f c498 a23f
1.6384203 1.270287

model.encoder.model.tcn_block_01.conv0.bias f4 [2]
00000000: 99cc 80be 5a4e 863d
-0.25156096 0.06557913

model.encoder.model.tcn_block_01.conv0.weight_g f4 [2, 1, 1]
00000000: 5722 4f3f 11b1 d13e
0.80911773 0.40955403

model.encoder.model.tcn_block_01.conv0.weight_v f4 [2, 2, 9]
00000000: 6a44 503e 14cf c53d 43a7 b03b f027 adbd
00000010: 0f77 35be 3303 59be b239 6ebc ef19 693d
00000020: c4b5 883d f71a 95bb 0e48 f83d 0a16 313e
00000030: d91c 523d 4386 bf3c a879 34bd ade4 0dbe
00000040: 3880 d03b 68c6 c7bd 6934 343e 814f f6bb
00000050: 2b37 2abd ce9c 23be f902 00be 4e6a a23b
00000060: a29e 043d e25c 99bd ddd4 173e a346 40be
00000070: c8ff c93d 8aab 5b3e 2aac 4dbd 429c 503e
00000080: 0b16 283d adde 32be c8fc eebd 586a ff3d
0.20338598 0.09658638 0.005391033 -0.08454883 -0.17721198 -0.21192627 -0.014540123 0.056909498
0.06675294 -0.0045503336 0.12123118 0.17293563 0.051297043 0.02337945 -0.044061333 -0.13856764
0.006362941 -0.0975464 0.17598118 -0.007516802 -0.04155652 -0.15977785 -0.12501134 0.00495652
0.032377847 -0.07488419 0.14827295 -0.18776946 0.098632395 0.21452156 -0.050213017 0.20372108
0.041036647 -0.17467757 -0.11669308 0.12471455

model.encoder.model.tcn_block_01.conv1.bias f4 [2]
00000000: e17e f3bc 7f0a fd3a
-0.029723587 0.0019305496

model.encoder.model.tcn_block_01.conv1.weight_g f4 [2, 1, 1]
00000000: 4101 153f 8486 1a3f
0.5820504 0.60361505

model.encoder.model.tcn_block_01.conv1.weight_v f4 [2, 2, 9]
00000000: 1ec5 fe3d ff2d 66bd 3f04 95bc bd1e b83d
00000010: 6336 eb3d ef49 07be 6cdc 10bc 72b4 97be
00000020: 9bbe e4bc 3356 173e 7b03 db3b 3f2a debd
00000030: f9de 3b3e 25d6 3dbd 74db a93c 2bf3 1fbe
00000040: a1e5 0ebe 84f5 be3c 872e 2fbc 1177 943d
00000050: 84bc 0b3e d82c d1bd 443e 58be 7b7d b8be
00000060: 5c71 4bbe 5d55 9bbe cb90 87be 8479 9f3c
00000070: 7ad0 eabc e0f1 1d3d c9b6 12be e146 793d
00000080: e60d 383d 8a5f 02bd 674c 1ebe e811 0e3e
0.12439941 -0.05619621 -0.018190501 0.08990238 0.11484983 -0.13211797 -0.008841615 -0.29629856
-0.027922919 0.14778976 0.0066837645 -0.108479016 0.18346776 -0.046346802 0.020734526 -0.15620105
-0.13954784 0.02331043 -0.010692245 0.072492726 0.13646132 -0.102136314 -0.21117502 -0.36033234
-0.19867462 -0.30338565 -0.26477656 0.019467123 -0.028663862 0.038560748 -0.1432754 0.06085861
0.04493513 -0.031829394 -0.15458833 0.13874018

model.encoder.model.tcn_block_01.block.conv1d_layer_0.bias f4 [2]
00000000: 99cc 80be 5a4e 863d
-0.25156096 0.06557913

model.encoder.model.tcn_block_01.block.conv1d_layer_0.weight_g f4 [2, 1, 1]
00000000: 5722 4f3f 11b1 d13e
0.80911773 0.40955403

model.encoder.model.tcn_block_01.block.conv1d_layer_0.weight_v f4 [2, 2, 9]
00000000: 6a44 503e 14cf c53d 43a7 b03b f027 adbd
00000010: 0f77 35be 3303 59be b239 6ebc ef19 693d
00000020: c4b5 883d f71a 95bb 0e48 f83d 0a16 313e
00000030: d91c 523d 4386 bf3c a879 34bd ade4 0dbe
00000040: 3880 d03b 68c6 c7bd 6934 343e 814f f6bb
00000050: 2b37 2abd ce9c 23be f902 00be 4e6a a23b
00000060: a29e 043d e25c 99bd ddd4 173e a346 40be
00000070: c8ff c93d 8aab 5b3e 2aac 4dbd 429c 503e
00000080: 0b16 283d adde 32be c8fc eebd 586a ff3d
0.20338598 0.09658638 0.005391033 -0.08454883 -0.17721198 -0.21192627 -0.014540123 0.056909498
0.06675294 -0.0045503336 0.12123118 0.17293563 0.051297043 0.02337945 -0.044061333 -0.13856764
0.006362941 -0.0975464 0.17598118 -0.007516802 -0.04155652 -0.15977785 -0.12501134 0.00495652
0.032377847 -0.07488419 0.14827295 -0.18776946 0.098632395 0.21452156 -0.050213017 0.20372108
0.041036647 -0.17467757 -0.11669308 0.12471455

model.encoder.model.tcn_block_01.block.conv1d_layer_1.bias f4 [2]
00000000: e17e f3bc 7f0a fd3a
-0.029723587 0.0019305496

model.encoder.model.tcn_block_01.block.conv1d_layer_1.weight_g f4 [2, 1, 1]
00000000: 4101 153f 8486 1a3f
0.5820504 0.60361505

model.encoder.model.tcn_block_01.block.conv1d_layer_1.weight_v f4 [2, 2, 9]
00000000: 1ec5 fe3d ff2d 66bd 3f04 95bc bd1e b83d
00000010: 6336 eb3d ef49 07be 6cdc 10bc 72b4 97be
00000020: 9bbe e4bc 3356 173e 7b03 db3b 3f2a debd
00000030: f9de 3b3e 25d6 3dbd 74db a93c 2bf3 1fbe
00000040: a1e5 0ebe 84f5 be3c 872e 2fbc 1177 943d
00000050: 84bc 0b3e d82c d1bd 443e 58be 7b7d b8be
00000060: 5c71 4bbe 5d55 9bbe cb90 87be 8479 9f3c
00000070: 7ad0 eabc e0f1 1d3d c9b6 12be e146 793d
00000080: e60d 383d 8a5f 02bd 674c 1ebe e811 0e3e
0.12439941 -0.05619621 -0.018190501 0.08990238 0.11484983 -0.13211797 -0.008841615 -0.29629856
-0.027922919 0.14778976 0.0066837645 -0.108479016 0.18346776 -0.046346802 0.020734526 -0.15620105
-0.13954784 0.02331043 -0.010692245 0.072492726 0.13646132 -0.102136314 -0.21117502 -0.36033234
-0.19867462 -0.30338565 -0.26477656 0.019467123 -0.028663862 0.038560748 -0.1432754 0.06085861
0.04493513 -0.031829394 -0.15458833 0.13874018

model.qz_xy_mean.dense(qz_xy_mean)_layer_03.weight f4 [2, 2]
00000000: 897a 4f3f 00d3 683e 5b26 36bf 3205 963f
0.8104635 0.2273674 -0.71152276 1.1720335

model.qz_xy_mean.dense(qz_xy_mean)_layer_03.bias f4 [2]
00000000: 0ba4 09c0 49d4 56bf
-2.1506374 -0.8391767

model.qz_xy_logvar.dense(qz_xy_logvar)_layer_03.weight f4 [2, 2]
00000000: 6d37 aebf 079a debf 75cc 7dbf 9a68 b8bf
-1.3610665 -1.7390755 -0.991401 -1.4406922

model.qz_xy_logvar.dense(qz_xy_logvar)_layer_03.bias f4 [2]
00000000: 68a6 67bf 4859 a7bf
-0.9048829 -1.3074121

model.py_t_probs.dense(py_t_probs)_layer_00.weight f4 [4, 2]
00000000: 3b49 9c41 3e89 94c0 f3a6 63c1 599c 7440
00000010: 69e9 d9be e746 aabf 96d8 40c0 c3c6 82bf
19.535757 -4.641753 -14.228259 3.8220427 -0.4256089 -1.3302888 -3.0132194 -1.0216907

model.py_t_probs.dense(py_t_probs)_layer_00.bias f4 [4]
00000000: d59a eec1 cf24 c23f b367 7241 8e8b 7641
-29.825602 1.5167483 15.150317 15.409071

model.pz_t_mean.dense(pz_t_mean)_layer_00.weight f4 [8, 2]
00000000: 7eeb 843f 9fb1 d53d 0300 6fbe 769b 323f
00000010: 591c 823f 7e3c 603d 71f2 c0bd ca10 713f
00000020: 35c8 753f 177d c7bb a7b8 0e3c b8c8 7c3f
00000030: 72d5 6d3f 942b 8cbc 2b8c 05bc c8b4 793f
1.0384367 0.10434269 -0.23339848 0.69768465 1.0164901 0.05474519 -0.09421242 0.94166243
0.96008617 -0.00608791 0.008711017 0.9874377 0.92903817 -0.017110623 -0.008151094 0.97541475

model.pz_t_mean.dense(pz_t_mean)_layer_00.bias f4 [8]
00000000: 78dd eb3d c099 febe 6124 89bd e05e eb3d
00000010: 2d8a a33d 4d1a b3bd 29a5 a0bd 06f2 273e
0.11516851 -0.49726677 -0.06696392 0.11492705 0.07985339 -0.08745251 -0.07844002 0.16400918

model.pz_t_logvar.dense(pz_t_logvar)_layer_00.weight f4 [2, 4]
00000000: 2906 d1bf 3fde f7bf 9fee f8bf a665 b4bf
00000010: 6d5f acbf bf87 12c0 627f 0fc0 3f9a cfbf
-1.6330005 -1.9364699 -1.9447821 -1.4093521 -1.3466622 -2.2895353 -2.2421498 -1.6218947

model.pz_t_logvar.dense(pz_t_logvar)_layer_00.bias f4 [2]
00000000: e219 05c0 2f12 d1bf
-2.0797048 -1.6333674

model.decoder.dense(decoder)_layer_00.weight f4 [10, 2]
00000000: 427d 013e a47a fbbe 7ff9 81be 7939 de3e
00000010: c62c b93c a103 083f b75e 623f 586e 9c3d
00000020: 4db9 7cbf a754 bbbe 2d4b d53e c986 b3be
00000030: 6212 403f 22e4 163f 3836 863e 00e3 193f
00000040: cc83 2abe 5acf 14bf 54e6 4fbf 25ba 3f3d
0.12645438 -0.49117005 -0.25385663 0.43403223 0.022604357 0.5313054 0.88425773 0.07638234
-0.98720247 -0.36588022 0.41658917 -0.3506377 0.7502805 0.58941853 0.2621324 0.60112
-0.16651839 -0.58128893 -0.8121083 0.04680838

model.decoder.dense(decoder)_layer_00.bias f4 [10]
00000000: fee5 34bc 76f0 e23d 6a5f ccbd f3a6 22bf
00000010: 3d73 413f 8308 75be 5005 20bf b1c3 8fbe
00000020: 3e57 573e 2c6e 113f
-0.011041163 0.110810205 -0.09979136 -0.63535994 0.75566465 -0.23929028 -0.62508106 -0.28078988
0.21029374 0.56808734

inference.model.qy_x.model.tcn_block_00.conv0.bias f4 [2]
00000000: e2e0 74be 6625 3e3f
-0.23913911 0.74275815

inference.model.qy_x.model.tcn_block_00.conv0.weight_g f4 [2, 1, 1]
00000000: 8cbe bc3f 4c7e d93f
1.474565 1.6991668

inference.model.qy_x.model.tcn_block_00.conv0.weight_v f4 [2, 10, 9]
00000000: 9875 c3bb ee98 993c 1386 0a3c 00c8 36bc
00000010: 9154 87bd ced3 e2bd 0d96 08be a640 26be
00000020: 11e1 32be 987a b0bb cda3 2fbd 73c1 3abd
00000030: b5c6 c33c 79a5 ad3d cdeb ff3d 6383 d23d
00000040: bec6 8e3d c938 b33d ef86 2dbd f72d 9ebc
00000050: 9f4d b63c 1abe b1bb 7dc6 273d 45ee 8d3d
00000060: a9c6 333d 7384 153c 6552 6c3d f448 d53c
00000070: 7bc3 6a3d 24d6 753c 164f a1ba f0ee 7f3c
00000080: 4a62 a5bb c4ad 8c3c 1319 b63c f2ce 12bd
00000090: 75c8 043c 0c11 f0bc 8dce 1ebd f9c1 72bd
000000a0: 6b3e 24bd 7bc7 05bd 9fc9 2bbc 19ca 33bc
000000b0: cca7 14bd 435c 463c 6cbe 3a3c 9831 2ebc
000000c0: 513d e23b 098c 41bc ff0f 57bd e140 b0bd
000000d0: 379d 9abd d86b eabd c101 9d3b e451 d1bb
000000e0: 39d1 c23b 5c80 b83c 46bf 893d 72f8 db3d
000000f0: a7d3 033e d955 f03d 4908 053e fa38 ca3b
00000100: 816f ccbc cf47 71bd 761d 5a3c a0ba 873d
00000110: 0c36 ec3d 6e7a 043e ea9d 0b3e ffc7 153e
00000120: 3b3b 1abc f7a2 a63c b6e0 ddbb 4332 75bd
00000130: e84b 50bd dad2 babd 7107 00be c6c9 d6bd
00000140: b552 fbbd 803b 66bc f4d8 93b9 b021 a2bc
00000150: 1a70 85bb c598 a0bb 13ee 0d3d bc7f 203d
00000160: 004f 243d fc72 943d ad4c dd3c 34d1 263c
00000170: bfb5 8c3c 2896 023d 798b fe3c ef70 203c
00000180: 6b73 de3c 9d59 893d a44a c03d ebb4 f9bc
00000190: 119d 403c 1fc3 053c a999 8abc c9de 26bd
000001a0: 9f53 ecbc 417b e9bc 0e00 d43a 7251 29bd
000001b0: ad7b a93c 1e69 573b e974 c3bc 7896 aebc
000001c0: 4d12 073d 74a4 903c 633d 06bc 3129 a03c
000001d0: 678e 3bbd 6d7b 843d 1e6d 9e3b a9ca 98bc
000001e0: 2731 94ba 664d e9bc 87df ef3c dc75 dcbb
000001f0: 35ee 18bd 3da8 8fbc abf5 15be 3c8e a0bd
00000200: e2cd bdbc 0104 d93c b687 133d 5a89 3b3d
00000210: d934 463d 2d05 883d 9b9a c83d 4e85 1f3d
00000220: 1106 eb3a e072 02bb 5711 403c 596a 5d3c
00000230: 93a6 6a3c d4db 09ba 1f08 e6bc d55d 94bb
00000240: 9ae2 013e 7f31 ab3d c155 d43c 718e 0dbc
00000250: c326 22bd 5183 9cbd 4770 e5bd d2fd 04be
00000260: 2dd5 31be ce6d 1f3d 3858 3f3d 91c2 fc3c
00000270: 49a4 23bb 3b58 30bd 4c02 58bd bcb6 89bd
00000280: dd3f b1bd d9a9 0cbe b876 633c 5d5b 3abc
00000290: 2423 39bb 5854 183d 2ea1 eb3b 7b83 8fbc
000002a0: 2bd4 303d a16c 933d 8d58 bc3d 16b6 e7bd
000002b0: d045 9ebd df72 f7bc b1c9 c8bc 9390 db3b
000002c0: 711a 973c 630d 453d ba16 513d 322a 4a3d
-0.005964946 0.01874968 0.008454817 -0.011156082 -0.06607927 -0.11075555 -0.1333849 -0.16235599
-0.17468669 -0.005385708 -0.042880822 -0.045594644 0.023898462 0.08478827 0.12496147 0.10278966
0.06971501 0.08751065 -0.04236501 -0.019309027 0.02225381 -0.005424273 0.040960778 0.06930212
0.04389063 0.009125817 0.057695765 0.026035763 0.05731533 0.015004668 -0.0012306895 0.015620932
-0.0050471174 0.017172702 0.022228753 -0.03584189 0.008104433 -0.029305004 -0.0387712 -0.059267018
-0.04009859 -0.032660943 -0.010485082 -0.010973477 -0.036292836 0.012106958 0.011397939 -0.010631941
0.006904282 -0.011813172 -0.05250549 -0.08606125 -0.075495176 -0.11446351 0.004791469 -0.006387936
0.0059453514 0.022522144 0.06725936 0.107407466 0.12873708 0.11735124 0.12991442 0.006171343
-0.024955513 -0.058906373 0.013312688 0.06627393 0.11533746 0.12937328 0.13634458 0.14627074
-0.009413536 0.02034138 -0.0067711724 -0.059862386 -0.05085364 -0.09122248 -0.12502839 -0.10487704
-0.122716345 -0.014052272 -0.00028199668 -0.019791454 -0.0040722014 -0.004901024 0.034650873 0.039184317
0.040114403 0.07248494 0.0270141 0.010181714 0.017176507 0.03188148 0.031072365 0.0097925505
0.027154645 0.067065455 0.093892366 -0.030481776 0.011756198 0.008164196 -0.016918974 -0.04073981
-0.028848467 -0.028501155 0.0016174333 -0.041337438 0.020688856 0.0032869051 -0.023859458 -0.021311983
0.032976437 0.017656542 -0.008193347 0.019550892 -0.045790102 0.06468854 0.004834785 -0.018651323
-0.0011306152 -0.02847929 0.02928139 -0.006727917 -0.037336547 -0.017536277 -0.14644496 -0.07839629
-0.023169462 0.026491167 0.036018096 0.045785286 0.048390243 0.06641612 0.09795114 0.03894549
0.0017930885 -0.0019904897 0.011722884 0.013514125 0.014321941 -0.0005258892 -0.028080044 -0.004527787
0.12684098 0.0835905 0.025919797 -0.008639918 -0.039587747 -0.07642234 -0.11203056 -0.1298745
-0.17366476 0.038923077 0.04671499 0.030854495 -0.0024969748 -0.043052893 -0.052736565 -0.06724307
-0.08654759 -0.13736667 0.013883285 -0.011374322 -0.0028249705 0.03718981 0.007190845 -0.01751875
0.04317109 0.07198454 0.09196577 -0.11314027 -0.077281594 -0.030206142 -0.024510236 0.006700584
0.018445225 0.04810847 0.051047064 0.049356647

inference.model.qy_x.model.tcn_block_00.conv1.bias f4 [2]
00000000: f268 cb3e 8e73 933e
0.39728504 0.287991

inference.model.qy_x.model.tcn_block_00.conv1.weight_g f4 [2, 1, 1]
00000000: 558f 933f 1b94 ea3f
1.1528116 1.8326448

inference.model.qy_x.model.tcn_block_00.conv1.weight_v f4 [2, 2, 9]
00000000: 1161 1a3e af7e 3b3e 9c25 ab3d ee7f 02be
00000010: d2ed 32be acce afbd 607f 2e3d d148 093e
00000020: 0938 e03d 9dbe ebbd a5aa a93d b116 fe3d
00000030: 1d5c ad3c e12b 1fbd f58f 5ebd dd6f d4bd
00000040: d608 33be 4e75 52be 263a 0d3d 5326 e73c
00000050: 7a21 a73c f311 813c 50ec 213c 5263 b6bc
00000060: a07a 77bd fece 05be 96b5 40be af56 8ebc
00000070: 278a 1fbd a5b0 b33b 4e05 493d 8aba 873d
00000080: fd4c ce3d 81b8 253e ca19 413e b1dc 0d3e
0.1507609 0.18310045 0.08356783 -0.12744114 -0.17473534 -0.085843414 0.042601943 0.13406684
0.10948188 -0.11510966 0.08284501 0.12406672 0.021162087 -0.038860206 -0.054336507 -0.10372899
-0.1748384 -0.2055256 0.034479283 0.028216517 0.020401705 0.01575563 0.009883001 -0.022264156
-0.06041968 -0.13067243 -0.1881927 -0.017375318 -0.03895011 0.005483704 0.049077325 0.066273764
0.10073278 0.16183664 0.18857494 0.13853718

inference.model.qy_x.model.tcn_block_00.block.conv1d_layer_0.bias f4 [2]
00000000: e2e0 74be 6625 3e3f
-0.23913911 0.74275815

inference.model.qy_x.model.tcn_block_00.block.conv1d_layer_0.weight_g f4 [2, 1, 1]
00000000: 8cbe bc3f 4c7e d93f
1.474565 1.6991668

inference.model.qy_x.model.tcn_block_00.block.conv1d_layer_0.weight_v f4 [2, 10, 9]
00000000: 9875 c3bb ee98 993c 1386 0a3c 00c8 36bc
00000010: 9154 87bd ced3 e2bd 0d96 08be a640 26be
00000020: 11e1 32be 987a b0bb cda3 2fbd 73c1 3abd
00000030: b5c6 c33c 79a5 ad3d cdeb ff3d 6383 d23d
00000040: bec6 8e3d c938 b33d ef86 2dbd f72d 9ebc
00000050: 9f4d b63c 1abe b1bb 7dc6 273d 45ee 8d3d
00000060: a9c6 333d 7384 153c 6552 6c3d f448 d53c
00000070: 7bc3 6a3d 24d6 753c 164f a1ba f0ee 7f3c
00000080: 4a62 a5bb c4ad 8c3c 1319 b63c f2ce 12bd
00000090: 75c8 043c 0c11 f0bc 8dce 1ebd f9c1 72bd
000000a0: 6b3e 24bd 7bc7 05bd 9fc9 2bbc 19ca 33bc
000000b0: cca7 14bd 435c 463c 6cbe 3a3c 9831 2ebc
000000c0: 513d e23b 098c 41bc ff0f 57bd e140 b0bd
000000d0: 379d 9abd d86b eabd c101 9d3b e451 d1bb
000000e0: 39d1 c23b 5c80 b83c 46bf 893d 72f8 db3d
000000f0: a7d3 033e d955 f03d 4908 053e fa38 ca3b
00000100: 816f ccbc cf47 71bd 761d 5a3c a0ba 873d
00000110: 0c36 ec3d 6e7a 043e ea9d 0b3e ffc7 153e
00000120: 3b3b 1abc f7a2 a63c b6e0 ddbb 4332 75bd
00000130: e84b 50bd dad2 babd 7107 00be c6c9 d6bd
00000140: b552 fbbd 803b 66bc f4d8 93b9 b021 a2bc
00000150: 1a70 85bb c598 a0bb 13ee 0d3d bc7f 203d
00000160: 004f 243d fc72 943d ad4c dd3c 34d1 263c
00000170: bfb5 8c3c 2896 023d 798b fe3c ef70 203c
00000180: 6b73 de3c 9d59 893d a44a c03d ebb4 f9bc
00000190: 119d 403c 1fc3 053c a999 8abc c9de 26bd
000001a0: 9f53 ecbc 417b e9bc 0e00 d43a 7251 29bd
000001b0: ad7b a93c 1e69 573b e974 c3bc 7896 aebc
000001c0: 4d12 073d 74a4 903c 633d 06bc 3129 a03c
000001d0: 678e 3bbd 6d7b 843d 1e6d 9e3b a9ca 98bc
000001e0: 2731 94ba 664d e9bc 87df ef3c dc75 dcbb
000001f0: 35ee 18bd 3da8 8fbc abf5 15be 3c8e a0bd
00000200: e2cd bdbc 0104 d93c b687 133d 5a89 3b3d
00000210: d934 463d 2d05 883d 9b9a c83d 4e85 1f3d
00000220: 1106 eb3a e072 02bb 5711 403c 596a 5d3c
00000230: 93a6 6a3c d4db 09ba 1f08 e6bc d55d 94bb
00000240: 9ae2 013e 7f31 ab3d c155 d43c 718e 0dbc
00000250: c326 22bd 5183 9cbd 4770 e5bd d2fd 04be
00000260: 2dd5 31be ce6d 1f3d 3858 3f3d 91c2 fc3c
00000270: 49a4 23bb 3b58 30bd 4c02 58bd bcb6 89bd
00000280: dd3f b1bd d9a9 0cbe b876 633c 5d5b 3abc
00000290: 2423 39bb 5854 183d 2ea1 eb3b 7b83 8fbc
000002a0: 2bd4 303d a16c 933d 8d58 bc3d 16b6 e7bd
000002b0: d045 9ebd df72 f7bc b1c9 c8bc 9390 db3b
000002c0: 711a 973c 630d 453d ba16 513d 322a 4a3d
-0.005964946 0.01874968 0.008454817 -0.011156082 -0.06607927 -0.11075555 -0.1333849 -0.16235599
-0.17468669 -0.005385708 -0.042880822 -0.045594644 0.023898462 0.08478827 0.12496147 0.10278966
0.06971501 0.08751065 -0.04236501 -0.019309027 0.02225381 -0.005424273 0.040960778 0.06930212
0.04389063 0.009125817 0.057695765 0.026035763 0.05731533 0.015004668 -0.0012306895 0.015620932
-0.0050471174 0.017172702 0.022228753 -0.03584189 0.008104433 -0.029305004 -0.0387712 -0.059267018
-0.04009859 -0.032660943 -0.010485082 -0.010973477 -0.036292836 0.012106958 0.011397939 -0.010631941
0.006904282 -0.011813172 -0.05250549 -0.08606125 -0.075495176 -0.11446351 0.004791469 -0.006387936
0.0059453514 0.022522144 0.06725936 0.107407466 0.12873708 0.11735124 0.12991442 0.006171343
-0.024955513 -0.058906373 0.013312688 0.06627393 0.11533746 0.12937328 0.13634458 0.14627074
-0.009413536 0.02034138 -0.0067711724 -0.059862386 -0.05085364 -0.09122248 -0.12502839 -0.10487704
-0.122716345 -0.014052272 -0.00028199668 -0.019791454 -0.0040722014 -0.004901024 0.034650873 0.039184317
0.040114403 0.07248494 0.0270141 0.010181714 0.017176507 0.03188148 0.031072365 0.0097925505
0.027154645 0.067065455 0.093892366 -0.030481776 0.011756198 0.008164196 -0.016918974 -0.04073981
-0.028848467 -0.028501155 0.0016174333 -0.041337438 0.020688856 0.0032869051 -0.023859458 -0.021311983
0.032976437 0.017656542 -0.008193347 0.019550892 -0.045790102 0.06468854 0.004834785 -0.018651323
-0.0011306152 -0.02847929 0.02928139 -0.006727917 -0.037336547 -0.017536277 -0.14644496 -0.07839629
-0.023169462 0.026491167 0.036018096 0.045785286 0.048390243 0.06641612 0.09795114 0.03894549
0.0017930885 -0.0019904897 0.011722884 0.013514125 0.014321941 -0.0005258892 -0.028080044 -0.004527787
0.12684098 0.0835905 0.025919797 -0.008639918 -0.039587747 -0.07642234 -0.11203056 -0.1298745
-0.17366476 0.038923077 0.04671499 0.030854495 -0.0024969748 -0.043052893 -0.052736565 -0.06724307
-0.08654759 -0.13736667 0.013883285 -0.011374322 -0.0028249705 0.03718981 0.007190845 -0.01751875
0.04317109 0.07198454 0.09196577 -0.11314027 -0.077281594 -0.030206142 -0.024510236 0.006700584
0.018445225 0.04810847 0.051047064 0.049356647

inference.model.qy_x.model.tcn_block_00.block.conv1d_layer_1.bias f4 [2]
00000000: f268 cb3e 8e73 933e
0.39728504 0.287991

inference.model.qy_x.model.tcn_block_00.block.conv1d_layer_1.weight_g f4 [2, 1, 1]
00000000: 558f 933f 1b94 ea3f
1.1528116 1.8326448
