results_gmdgm/ssm_v1/dtcn/nc_v1/version_2/best_val_model.pt (torch, 58663 bytes, 204 tensors)

model.qy_x.model.tcn_block_00.conv0.bias f4 [2]
00000000: e820 863a 383d a3bd
0.0010233195 -0.07970661

model.qy_x.model.tcn_block_00.conv0.weight_g f4 [2, 1, 1]
00000000: b336 113f 8205 f03e
0.5672409 0.46879202

model.qy_x.model.tcn_block_00.conv0.weight_v f4 [2, 10, 9]
00000000: 6243 ef3b 802c 883d 737b ddbd 4ce9 bbbd
00000010: 0063 19bd 35e0 203d 8b6c 053c 8fb0 bf3d
00000020: 9e06 caba dde4 8a3c 7c97 3bbd 5de9 ebbc
00000030: 1333 e1bd 3595 9dbd b472 52bd 82ed 05bc
00000040: 7cd3 de3c ef6c 523d 1c19 b2bd 51e4 6cbd
00000050: 30f3 373d b686 b03d 70c8 07bd a1f2 a53d
00000060: bbc2 eabc 877b d339 01d1 a13d e8f6 92bd
00000070: ef68 5abd d8b9 9fbc 96a5 00bd e171 bd3d
00000080: 9f68 58bd 22ec adbc 2981 69bd a9bb a3bd
00000090: d995 53bd bf7a bc3d eae0 2e3d d441 143d
000000a0: e464 53bc a209 91bd 1a55 0b3b 75b8 ddbd
000000b0: b2d1 a3bd 9199 4dbd ba5c 9a3d 10fb 8b3d
000000c0: 0148 1ebd fc37 893b e902 a53d e1c5 e73d
000000d0: fae2 523d 78a3 a63c 4fed 723d 73a2 66bd
000000e0: 1448 fa3c a3ce 61bd fc27 43bd a188 01bd
000000f0: a472 8a3d e7bf 793d f488 9cbd a0be ff3c
00000100: a02d 963d dad5 943b 4231 dc3c eae7 323d
00000110: 02de c53d 4bce 033e 9a9f c4bd e1ce 5bbd
00000120: d830 673d 9203 cb3d dcd9 c63d 4ca9 c63d
00000130: 02ea b03c ac6a eebd f5c4 963c 535b 86bd
00000140: 4a3d c1bd 79f5 c43d 5a21 a53d 7187 e1bd
00000150: becc 503c e375 f5bc 0ed6 fabc 7342 81bd
00000160: 296c fc3c 5a6d 8dbd 4eb1 163d 52db 593d
00000170: e4b0 a53d e87e 023d df34 11be bac8 debd
00000180: 31eb c03c a7a1 c3bc cc5a 1fbe 7118 a1bd
00000190: 968d ef3d 32f4 9b3d 0f11 01bd 4c68 4cbc
000001a0: dc10 8ebd f722 063d 5628 18bd 2bb0 42bd
000001b0: cf3e 953c a423 3e3c 217f cabc 0bfd 5c3d
000001c0: 0d7f 27bd 84e7 f13d f3ea d03d 148f 11bd
000001d0: f187 2e3c bec2 373c 1d52 833c a084 ac3c
000001e0: aa74 b53c 0d3e f2bc dfd8 bfbd 3315 cc3b
000001f0: 97f6 10be c3a3 a5bd e3d1 3ebd 7655 5ebd
00000200: 0de2 26bd ab46 8cbd e30e 47bb 2c8e 8c3d
00000210: 7954 54bd f488 103d 7889 c63d 0790 4bbb
00000220: 7269 b339 60d4 9abb b023 453c 3779 643d
00000230: 9734 a03d ca12 243d 499c 593d 24a9 8fbd
00000240: 2ea3 ccbd 7cf6 6fbd ed39 8c3d 65d9 6fbc
00000250: e5d0 aebd 24a7 d8bd 4c0a fdbd 8b03 d0bd
00000260: a52d b1bb f2fc a73d 6ce1 993d 8cf5 e7bd
00000270: 57d1 a73d 2171 a9bd eeb1 15bc 58cf 71bc
00000280: bf46 673c 7651 213d 3b34 e4bd cc56 f5bd
00000290: 00dc 8bbc 0ec4 23bc a0ce 8bbd accc 6b3c
000002a0: a136 0ebe 8bf5 7bbd 73e6 653d 32ed 85bd
000002b0: e3d4 d03d 4aed 423d 5d64 c2bd ba31 cc3d
000002c0: d353 953c a558 7fbc 44f8 0e3e f79b 42bd
0.007301734 0.06649113 -0.10814562 -0.09175357 -0.03744793 0.03927632 0.008143554 0.09359848
-0.0015413349 0.016954834 -0.045798764 -0.0287978 -0.1099607 -0.076944746 -0.05137892 -0.008174302
0.027200453 0.05137342 -0.086961955 -0.057834927 0.044909656 0.08619444 -0.033150136 0.081029184
-0.028657308 0.0004033709 0.079011925 -0.07176 -0.05332273 -0.019497797 -0.031407915 0.09250236
-0.05283415 -0.021230761 -0.057007942 -0.07994778 -0.051656578 0.092030995 0.042694964 0.03619559
-0.012902472 -0.070819154 0.0021260441 -0.10826198 -0.079989806 -0.05019528 0.075372174 0.06834996
-0.038642887 0.004187582 0.08057196 0.11317039 0.051485993 0.02034162 0.059308346 -0.056307267
0.030551948 -0.055128705 -0.047645554 -0.03162444 0.06760147 0.060974028 -0.07643309 0.031218827
0.07332921 0.0045420947 0.026878957 0.0436782 0.09661485 0.12871663 -0.09600754 -0.053664092
0.056443065 0.0991279 0.09709522 0.097002596 0.021595959 -0.1164144 0.018404463 -0.065603875
-0.09435518 0.09617133 0.08063002 -0.110121615 0.012744127 -0.02996344 -0.030619647 -0.06311502
0.030813294 -0.06905623 0.036790185 0.053187676 0.0809038 0.03185931 -0.14180325 -0.10878129
0.023549648 -0.023880793 -0.1556198 -0.0786599 0.11696927 0.07614936 -0.03151041 -0.012476038
-0.069368094 0.03274819 -0.037147842 -0.047531288 0.018218426 0.011605177 -0.024718823 0.053952258
-0.04089265 0.11811736 0.10201063 -0.03553684 0.010652528 0.011215864 0.016030366 0.021059334
0.022150356 -0.029570604 -0.09367537 0.006228113 -0.14156567 -0.08087876 -0.046586882 -0.05428072
-0.040742923 -0.06849416 -0.0030373863 0.06863055 -0.051838372 0.03528686 0.09694189 -0.0031061189
0.00034220103 -0.004725024 0.012032434 0.055779662 0.07822531 0.04005698 0.05312756 -0.07014683
-0.099920616 -0.058584675 0.06846986 -0.014639233 -0.08535937 -0.105787545 -0.123554796 -0.10156926
-0.0054070526 0.08202542 0.07513699 -0.11326131 0.08194225 -0.08273531 -0.00913666 -0.014758907
0.014115988 0.039384328 -0.11142775 -0.11979446 -0.017072678 -0.009995474 -0.0682652 0.014392059
-0.13888027 -0.061513465 0.056127977 -0.06539382 0.10196855 0.047589578 -0.09491799 0.09970422
0.018228447 -0.015585099 0.13961893 -0.04751202

model.qy_x.model.tcn_block_00.conv1.bias f4 [2]
00000000: 4dd5 383e 2e8b febd
0.18050118 -0.1242889

model.qy_x.model.tcn_block_00.conv1.weight_g f4 [2, 1, 1]
00000000: 3f92 fb3e 03c2 f03e
0.49135014 0.4702302

model.qy_x.model.tcn_block_00.conv1.weight_v f4 [2, 2, 9]
00000000: 47db f13d 40f6 cf3c 629f aa3d f05c 813d
00000010: 2ec2 8dbd 6e35 80bd 600d 54be a7e9 0d3e
00000020: 1b7d 3b3e d14c 203e 775b 66be bc4f 37bc
00000030: 23cd 43be 021e 04be 7d18 f9bd fa1f 4b3e
00000040: 6510 dcbd 2a7e ef3d 99ad 033d 3d72 373e
00000050: 64bc 16be fa91 04be 130d d0bd ac59 5e3e
00000060: dcf6 67bd 8920 5e3e 1eba a63d 1702 343b
00000070: d0d8 b4bc 8892 81bd c2a3 763d 2439 c9bc
00000080: 0f2c aa3d 87f2 193e c3d9 0bbe 5d83 4cbd
0.11809402 0.025385976 0.08331181 0.063165545 -0.069218025 -0.06260191 -0.20708227 0.13858663
0.18309443 0.15654303 -0.22495829 -0.011188444 -0.19121222 -0.12902072 -0.12162874 0.19836417
-0.107453145 0.11693986 0.032147978 0.17914672 -0.14720303 -0.1294631 -0.10158744 0.21713895
-0.056631908 0.21692099 0.08140968 0.0027467066 -0.02207604 -0.06326777 0.060214765 -0.02456338
0.08309185 0.15033923 -0.13657288 -0.049929965

model.qy_x.model.tcn_block_00.block.conv1d_layer_0.bias f4 [2]
00000000: e820 863a 383d a3bd
0.0010233195 -0.07970661

model.qy_x.model.tcn_block_00.block.conv1d_layer_0.weight_g f4 [2, 1, 1]
00000000: b336 113f 8205 f03e
0.5672409 0.46879202

model.qy_x.model.tcn_block_00.block.conv1d_layer_0.weight_v f4 [2, 10, 9]
00000000: 6243 ef3b 802c 883d 737b ddbd 4ce9 bbbd
00000010: 0063 19bd 35e0 203d 8b6c 053c 8fb0 bf3d
00000020: 9e06 caba dde4 8a3c 7c97 3bbd 5de9 ebbc
00000030: 1333 e1bd 3595 9dbd b472 52bd 82ed 05bc
00000040: 7cd3 de3c ef6c 523d 1c19 b2bd 51e4 6cbd
00000050: 30f3 373d b686 b03d 70c8 07bd a1f2 a53d
00000060: bbc2 eabc 877b d339 01d1 a13d e8f6 92bd
00000070: ef68 5abd d8b9 9fbc 96a5 00bd e171 bd3d
00000080: 9f68 58bd 22ec adbc 2981 69bd a9bb a3bd
00000090: d995 53bd bf7a bc3d eae0 2e3d d441 143d
000000a0: e464 53bc a209 91bd 1a55 0b3b 75b8 ddbd
000000b0: b2d1 a3bd 9199 4dbd ba5c 9a3d 10fb 8b3d
000000c0: 0148 1ebd fc37 893b e902 a53d e1c5 e73d
000000d0: fae2 523d 78a3 a63c 4fed 723d 73a2 66bd
000000e0: 1448 fa3c a3ce 61bd fc27 43bd a188 01bd
000000f0: a472 8a3d e7bf 793d f488 9cbd a0be ff3c
00000100: a02d 963d dad5 943b 4231 dc3c eae7 323d
00000110: 02de c53d 4bce 033e 9a9f c4bd e1ce 5bbd
00000120: d830 673d 9203 cb3d dcd9 c63d 4ca9 c63d
00000130: 02ea b03c ac6a eebd f5c4 963c 535b 86bd
00000140: 4a3d c1bd 79f5 c43d 5a21 a53d 7187 e1bd
00000150: becc 503c e375 f5bc 0ed6 fabc 7342 81bd
00000160: 296c fc3c 5a6d 8dbd 4eb1 163d 52db 593d
00000170: e4b0 a53d e87e 023d df34 11be bac8 debd
00000180: 31eb c03c a7a1 c3bc cc5a 1fbe 7118 a1bd
00000190: 968d ef3d 32f4 9b3d 0f11 01bd 4c68 4cbc
000001a0: dc10 8ebd f722 063d 5628 18bd 2bb0 42bd
000001b0: cf3e 953c a423 3e3c 217f cabc 0bfd 5c3d
000001c0: 0d7f 27bd 84e7 f13d f3ea d03d 148f 11bd
000001d0: f187 2e3c bec2 373c 1d52 833c a084 ac3c
000001e0: aa74 b53c 0d3e f2bc dfd8 bfbd 3315 cc3b
000001f0: 97f6 10be c3a3 a5bd e3d1 3ebd 7655 5ebd
00000200: 0de2 26bd ab46 8cbd e30e 47bb 2c8e 8c3d
00000210: 7954 54bd f488 103d 7889 c63d 0790 4bbb
00000220: 7269 b339 60d4 9abb b023 453c 3779 643d
00000230: 9734 a03d ca12 243d 499c 593d 24a9 8fbd
00000240: 2ea3 ccbd 7cf6 6fbd ed39 8c3d 65d9 6fbc
00000250: e5d0 aebd 24a7 d8bd 4c0a fdbd 8b03 d0bd
00000260: a52d b1bb f2fc a73d 6ce1 993d 8cf5 e7bd
00000270: 57d1 a73d 2171 a9bd eeb1 15bc 58cf 71bc
00000280: bf46 673c 7651 213d 3b34 e4bd cc56 f5bd
00000290: 00dc 8bbc 0ec4 23bc a0ce 8bbd accc 6b3c
000002a0: a136 0ebe 8bf5 7bbd 73e6 653d 32ed 85bd
000002b0: e3d4 d03d 4aed 423d 5d64 c2bd ba31 cc3d
000002c0: d353 953c a558 7fbc 44f8 0e3e f79b 42bd
0.007301734 0.06649113 -0.10814562 -0.09175357 -0.03744793 0.03927632 0.008143554 0.09359848
-0.0015413349 0.016954834 -0.045798764 -0.0287978 -0.1099607 -0.076944746 -0.05137892 -0.008174302
0.027200453 0.05137342 -0.086961955 -0.057834927 0.044909656 0.08619444 -0.033150136 0.081029184
-0.028657308 0.0004033709 0.079011925 -0.07176 -0.05332273 -0.019497797 -0.031407915 0.09250236
-0.05283415 -0.021230761 -0.057007942 -0.07994778 -0.051656578 0.092030995 0.042694964 0.03619559
-0.012902472 -0.070819154 0.0021260441 -0.10826198 -0.079989806 -0.05019528 0.075372174 0.06834996
-0.038642887 0.004187582 0.08057196 0.11317039 0.051485993 0.02034162 0.059308346 -0.056307267
0.030551948 -0.055128705 -0.047645554 -0.03162444 0.06760147 0.060974028 -0.07643309 0.031218827
0.07332921 0.0045420947 0.026878957 0.0436782 0.09661485 0.12871663 -0.09600754 -0.053664092
0.056443065 0.0991279 0.09709522 0.097002596 0.021595959 -0.1164144 0.018404463 -0.065603875
-0.09435518 0.09617133 0.08063002 -0.110121615 0.012744127 -0.02996344 -0.030619647 -0.06311502
0.030813294 -0.06905623 0.036790185 0.053187676 0.0809038 0.03185931 -0.14180325 -0.10878129
0.023549648 -0.023880793 -0.1556198 -0.0786599 0.11696927 0.07614936 -0.03151041 -0.012476038
-0.069368094 0.03274819 -0.037147842 -0.047531288 0.018218426 0.011605177 -0.024718823 0.053952258
-0.04089265 0.11811736 0.10201063 -0.03553684 0.010652528 0.011215864 0.016030366 0.021059334
0.022150356 -0.029570604 -0.09367537 0.006228113 -0.14156567 -0.08087876 -0.046586882 -0.05428072
-0.040742923 -0.06849416 -0.0030373863 0.06863055 -0.051838372 0.03528686 0.09694189 -0.0031061189
0.00034220103 -0.004725024 0.012032434 0.055779662 0.07822531 0.04005698 0.05312756 -0.07014683
-0.099920616 -0.058584675 0.06846986 -0.014639233 -0.08535937 -0.105787545 -0.123554796 -0.10156926
-0.0054070526 0.08202542 0.07513699 -0.11326131 0.08194225 -0.08273531 -0.00913666 -0.014758907
0.014115988 0.039384328 -0.11142775 -0.11979446 -0.017072678 -0.009995474 -0.0682652 0.014392059
-0.13888027 -0.061513465 0.056127977 -0.06539382 0.10196855 0.047589578 -0.09491799 0.09970422
0.018228447 -0.015585099 0.13961893 -0.04751202

model.qy_x.model.tcn_block_00.block.conv1d_layer_1.bias f4 [2]
00000000: 4dd5 383e 2e8b febd
0.18050118 -0.1242889

model.qy_x.model.tcn_block_00.block.conv1d_layer_1.weight_g f4 [2, 1, 1]
00000000: 3f92 fb3e 03c2 f03e
0.49135014 0.4702302

model.qy_x.model.tcn_block_00.block.conv1d_layer_1.weight_v f4 [2, 2, 9]
00000000: 47db f13d 40f6 cf3c 629f aa3d f05c 813d
00000010: 2ec2 8dbd 6e35 80bd 600d 54be a7e9 0d3e
00000020: 1b7d 3b3e d14c 203e 775b 66be bc4f 37bc
00000030: 23cd 43be 021e 04be 7d18 f9bd fa1f 4b3e
00000040: 6510 dcbd 2a7e ef3d 99ad 033d 3d72 373e
00000050: 64bc 16be fa91 04be 130d d0bd ac59 5e3e
00000060: dcf6 67bd 8920 5e3e 1eba a63d 1702 343b
00000070: d0d8 b4bc 8892 81bd c2a3 763d 2439 c9bc
00000080: 0f2c aa3d 87f2 193e c3d9 0bbe 5d83 4cbd
0.11809402 0.025385976 0.08331181 0.063165545 -0.069218025 -0.06260191 -0.20708227 0.13858663
0.18309443 0.15654303 -0.22495829 -0.011188444 -0.19121222 -0.12902072 -0.12162874 0.19836417
-0.107453145 0.11693986 0.032147978 0.17914672 -0.14720303 -0.1294631 -0.10158744 0.21713895
-0.056631908 0.21692099 0.08140968 0.0027467066 -0.02207604 -0.06326777 0.060214765 -0.02456338
0.08309185 0.15033923 -0.13657288 -0.049929965

model.qy_x.model.tcn_block_00.downsample.weight f4 [2, 10, 1]
00000000: 5135 0abd 74b6 433d ae37 083d 81ea 14bc
00000010: ebb3 403d ad65 8cbd 6315 18bc c034 0e3c
00000020: 9a01 c9bc 2d7f a83d 9cc8 633c caf4 91bc
00000030: fddc 75bc 2019 113c e303 dc3a 5988 a83c
00000040: 5a4b c53a 27b1 ef3c 695d 55bb 003c 3b3c
-0.033742253 0.047781423 0.033256225 -0.009089113 0.047046583 -0.068553306 -0.009282443 0.008679569
-0.024536896 0.08227382 0.0139028095 -0.01781692 -0.015006301 0.008856088 0.0016785826 0.020572828
0.0015052364 0.029259278 -0.0032556897 0.011427879

model.qy_x.model.tcn_block_00.downsample.bias f4 [2]
00000000: e74b 053e d16c 833e
0.13017236 0.25668958

model.qy_x.model.tcn_block_01.conv0.bias f4 [2]
00000000: f4f4 80bd 6b89 0c3e
-0.06296721 0.13724296

model.qy_x.model.tcn_block_01.conv0.weight_g f4 [2, 1, 1]
00000000: e7d9 373f 8c1f 1a3f
0.7181687 0.60204387

model.qy_x.model.tcn_block_01.conv0.weight_v f4 [2, 2, 9]
00000000: 07fa 373e 7769 a1bd 818d a2bc c433 f3bd
00000010: 0ecb 4c3e 559e 483e 78a3 23be be46 29be
00000020: 98f4 19be fe40 14be 05f1 59be 7c7e 9fbe
00000030: 1a84 7cbe aede debd bbc8 9ebe 2d81 cdbd
00000040: 3b68 59be f6fd 89be 47e7 823b 57a0 2c3e
00000050: a5bf 38be 6de0 d4bb 23f6 ccbd fbe0 653e
00000060: 28a4 64be 4f95 60be baa6 7b3e 5aab 38be
00000070: 8136 de3c 48fa 1dbd e705 8dbd 9c33 8fbd
00000080: 37cf 173e bae9 dc3b a90c 74be c9cc 0cbe
0.17966472 -0.07881444 -0.019842865 -0.11875108 0.19999334 0.19591649 -0.15980327 -0.16530892
-0.15034711 -0.14477918 -0.21283348 -0.31151187 -0.24659768 -0.108823165 -0.3101252 -0.10034404
-0.21231167 -0.2695157 0.0039948556 0.1685804 -0.18041857 -0.00649648 -0.10007884 0.22449104
-0.22328246 -0.21931957 0.2457532 -0.18034115 0.027125599 -0.038568765 -0.068858914 -0.069922656
0.1482514 0.0067417296 -0.23832954 -0.13749994

model.qy_x.model.tcn_block_01.conv1.bias f4 [4]
00000000: e96a 2ebe 03ad e3bd eb55 b0bd c48b 9e3d
-0.1703297 -0.11116984 -0.086101376 0.07741502

model.qy_x.model.tcn_block_01.conv1.weight_g f4 [4, 1, 1]
00000000: bec7 3a3f 66b3 533f b2ec 143f 7b5c 323f
0.7296103 0.82695615 0.5817367 0.69672364

model.qy_x.model.tcn_block_01.conv1.weight_v f4 [4, 2, 9]
00000000: 8537 a7bd 4538 0d3d 5474 79bd 1be8 7bbd
00000010: 8a96 41bc 6a2b 73bd 8103 6a3b a5ea 54bd
00000020: 6804 88bd 3361 85be ce86 0fbe 718b 053e
00000030: 1879 4ebe 4163 9dbe 3037 383d b31e 243e
00000040: 3719 41be b361 93be 50ed 34bd 6e01 073d
00000050: c0bc 833c 99ec 43bc 2924 90bc 66e2 84bd
00000060: 2d4e 993d d74c 8a3d 819e 83be d607 b8bd
00000070: 06c0 c5bd 3b58 c73e 881d 613e 9842 5a3e
00000080: 2e0e babd 021b 983e e174 8c3e 3d08 753e
00000090: 536a 6abe 4f29 1cbe 6a2f 4ebe bed1 593e
000000a0: e88c 26be 6d01 2abe 2810 db3d 5387 2cbe
000000b0: aa1d 32be 18c6 cbbc 7f58 e3bc ed00 3ebe
000000c0: 5814 3c3e 5d66 d9bd db77 9b3d 18fa 483e
000000d0: 79a3 e53d 966a f43c ce09 483e 600a da3d
000000e0: a85b a63d 6185 5a3e 6a0f ec3d a34a bb3d
000000f0: a559 a73d 48f2 9e3d f970 4a3e 9ea9 363d
00000100: b072 ecbd 1c7e 7e3d ef09 563e 9bd3 033e
00000110: c821 113e b948 b63d 7055 0f3e 1d4a 883c
-0.081648864 0.03447749 -0.060901955 -0.06150065 -0.011815676 -0.059367575 0.0035707655 -0.051981587
-0.066414654 -0.2605072 -0.14016268 0.13041474 -0.20163381 -0.30739787 0.044974506 0.16027336
-0.18857275 -0.28785476 -0.04417163 0.032960348 0.016081214 -0.011958265 -0.017595368 -0.064884946
0.07485614 0.06752937 -0.25706866 -0.089858696 -0.09655766 0.38934502 0.21983922 0.21314466
-0.09084736 0.29708105 0.27432922 0.23928924 -0.22892122 -0.15250133 -0.20135275 0.21271417
-0.16264689 -0.16602106 0.10696441 -0.16848497 -0.17394128 -0.024874732 -0.02775216 -0.1855504
0.18367136 -0.10615227 0.0759122 0.19626653 0.112128206 0.02983598 0.1953499 0.1064651
0.08122951 0.21339943 0.115263775 0.09145095 0.08171395 0.07761055 0.19769658 0.044595353
-0.115453124 0.062131986 0.20902227 0.1287369 0.14173043 0.089005895 0.13997436 0.016636902

model.qy_x.model.tcn_block_01.block.conv1d_layer_0.bias f4 [2]
00000000: f4f4 80bd 6b89 0c3e
-0.06296721 0.13724296

model.qy_x.model.tcn_block_01.block.conv1d_layer_0.weight_g f4 [2, 1, 1]
00000000: e7d9 373f 8c1f 1a3f
0.7181687 0.60204387

model.qy_x.model.tcn_block_01.block.conv1d_layer_0.weight_v f4 [2, 2, 9]
00000000: 07fa 373e 7769 a1bd 818d a2bc c433 f3bd
00000010: 0ecb 4c3e 559e 483e 78a3 23be be46 29be
00000020: 98f4 19be fe40 14be 05f1 59be 7c7e 9fbe
00000030: 1a84 7cbe aede debd bbc8 9ebe 2d81 cdbd
00000040: 3b68 59be f6fd 89be 47e7 823b 57a0 2c3e
00000050: a5bf 38be 6de0 d4bb 23f6 ccbd fbe0 653e
00000060: 28a4 64be 4f95 60be baa6 7b3e 5aab 38be
00000070: 8136 de3c 48fa 1dbd e705 8dbd 9c33 8fbd
00000080: 37cf 173e bae9 dc3b a90c 74be c9cc 0cbe
0.17966472 -0.07881444 -0.019842865 -0.11875108 0.19999334 0.19591649 -0.15980327 -0.16530892
-0.15034711 -0.14477918 -0.21283348 -0.31151187 -0.24659768 -0.108823165 -0.3101252 -0.10034404
-0.21231167 -0.2695157 0.0039948556 0.1685804 -0.18041857 -0.00649648 -0.10007884 0.22449104
-0.22328246 -0.21931957 0.2457532 -0.18034115 0.027125599 -0.038568765 -0.068858914 -0.069922656
0.1482514 0.0067417296 -0.23832954 -0.13749994

model.qy_x.model.tcn_block_01.block.conv1d_layer_1.bias f4 [4]
00000000: e96a 2ebe 03ad e3bd eb55 b0bd c48b 9e3d
-0.1703297 -0.11116984 -0.086101376 0.07741502

model.qy_x.model.tcn_block_01.block.conv1d_layer_1.weight_g f4 [4, 1, 1]
00000000: bec7 3a3f 66b3 533f b2ec 143f 7b5c 323f
0.7296103 0.82695615 0.5817367 0.69672364

model.qy_x.model.tcn_block_01.block.conv1d_layer_1.weight_v f4 [4, 2, 9]
00000000: 8537 a7bd 4538 0d3d 5474 79bd 1be8 7bbd
00000010: 8a96 41bc 6a2b 73bd 8103 6a3b a5ea 54bd
00000020: 6804 88bd 3361 85be ce86 0fbe 718b 053e
00000030: 1879 4ebe 4163 9dbe 3037 383d b31e 243e
00000040: 3719 41be b361 93be 50ed 34bd 6e01 073d
00000050: c0bc 833c 99ec 43bc 2924 90bc 66e2 84bd
00000060: 2d4e 993d d74c 8a3d 819e 83be d607 b8bd
00000070: 06c0 c5bd 3b58 c73e 881d 613e 9842 5a3e
00000080: 2e0e babd 021b 983e e174 8c3e 3d08 753e
00000090: 536a 6abe 4f29 1cbe 6a2f 4ebe bed1 593e
000000a0: e88c 26be 6d01 2abe 2810 db3d 5387 2cbe
000000b0: aa1d 32be 18c6 cbbc 7f58 e3bc ed00 3ebe
000000c0: 5814 3c3e 5d66 d9bd db77 9b3d 18fa 483e
000000d0: 79a3 e53d 966a f43c ce09 483e 600a da3d
000000e0: a85b a63d 6185 5a3e 6a0f ec3d a34a bb3d
000000f0: a559 a73d 48f2 9e3d f970 4a3e 9ea9 363d
00000100: b072 ecbd 1c7e 7e3d ef09 563e 9bd3 033e
00000110: c821 113e b948 b63d 7055 0f3e 1d4a 883c
-0.081648864 0.03447749 -0.060901955 -0.06150065 -0.011815676 -0.059367575 0.0035707655 -0.051981587
-0.066414654 -0.2605072 -0.14016268 0.13041474 -0.20163381 -0.30739787 0.044974506 0.16027336
-0.18857275 -0.28785476 -0.04417163 0.032960348 0.016081214 -0.011958265 -0.017595368 -0.064884946
0.07485614 0.06752937 -0.25706866 -0.089858696 -0.09655766 0.38934502 0.21983922 0.21314466
-0.09084736 0.29708105 0.27432922 0.23928924 -0.22892122 -0.15250133 -0.20135275 0.21271417
-0.16264689 -0.16602106 0.10696441 -0.16848497 -0.17394128 -0.024874732 -0.02775216 -0.1855504
0.18367136 -0.10615227 0.0759122 0.19626653 0.112128206 0.02983598 0.1953499 0.1064651
0.08122951 0.21339943 0.115263775 0.09145095 0.08171395 0.07761055 0.19769658 0.044595353
-0.115453124 0.062131986 0.20902227 0.1287369 0.14173043 0.089005895 0.13997436 0.016636902

model.qy_x.model.tcn_block_01.downsample.weight f4 [4, 2, 1]
00000000: febe c13d c5dc f03d d459 12bd 4cab 48bd
00000010: 7d2e 25bc 69e4 e4bb c1cc 83be 8eef f5be
0.09460257 0.117608584 -0.035730198 -0.048991486 -0.010081884 -0.0069852364 -0.25742152 -0.48034328

model.qy_x.model.tcn_block_01.downsample.bias f4 [4]
00000000: 0926 23bf f2dc acbd 34cf a53e bcf5 95be
-0.6372991 -0.084405795 0.32384646 -0.29289043

model.qy_x.model.final_dense_02.weight f4 [4, 4, 1]
00000000: 9462 e93d 90d6 d2bc fd45 16be 692d 62be
00000010: bfbb 523e 27ee b13c a7b9 c6bb 8fab 573e
00000020: dfce 95be e424 b63e b003 a83c 6c76 953e
00000030: 4595 043f 6ae8 86be 320b 843e 8db6 86be
0.113957554 -0.025737077 -0.14675136 -0.22087635 0.20579432 0.021720005 -0.006064612 0.21061538
-0.29259393 0.3557502 0.02050957 0.2919191 0.5179027 -0.26349193 0.2578979 -0.2631115

model.qy_x.model.final_dense_02.bias f4 [4]
00000000: 844b 57bc eb4a 35be 7e68 873d 525c 57be
-0.013140563 -0.1770436 0.06611727 -0.21031311

model.encoder.model.tcn_block_00.conv0.bias f4 [2]
00000000: cce9 0abf 3a19 48bd
-0.54262996 -0.048852183

model.encoder.model.tcn_block_00.conv0.weight_g f4 [2, 1, 1]
00000000: 8830 a73f 47c0 573f
1.3061686 0.84277767

model.encoder.model.tcn_block_00.conv0.weight_v f4 [2, 14, 9]
00000000: 8624 07bd cc88 42bb 38c5 7cbc 0c71 febc
00000010: ab80 9a3b 5351 06bc 5526 973b 354e 313d
00000020: 4490 063d 242e 7f3d 1f0c 483c 70a4 9a3c
00000030: a5b6 603d 0483 11bd 71df 0e3d 6958 2dbc
00000040: b555 6fbd 6728 10bd ccf0 e1bb 6295 e6bc
00000050: 4a5b abbc 6206 15bd e45e 1abc 9eff 0ebd
00000060: b757 98bc d7ab 2abd d7e7 053c 8041 debd
00000070: 3639 e8bd f2fe a13c 0298 37be 4ff3 1e3e
00000080: fffa a9bd 89c4 3c3d 3ce2 2a3b aa5d 5abc
00000090: a928 023e 5ec0 c43c ede3 c1bc 9c97 413d
000000a0: c1ae febd 76c6 d13b 3410 31bd 7a0d d3bd
000000b0: 9abc 69bd a504 ddbd 9794 d1bc 449e 87bc
000000c0: 54ed 59bd 9020 343d 5359 1fbd 2e2e ef3b
000000d0: 6a60 7d3d b49b 063d 948b fcbd cead ecbc
000000e0: e390 79ba 2349 34bd 34c8 8b3d 4f50 a3bb
000000f0: 667e 6a3c cb31 323d 67c7 523c 11aa 67bd
00000100: 5387 89bb 88bb d73c 7f77 b8bc 40f9 5b3d
00000110: 1923 023a 1d41 03bc 22ec f439 ebd7 0abc
00000120: bec7 1c3d 0626 943b 0a0f bdbc c924 ce3c
00000130: 96c8 11bd a9c8 913c c266 513c 9e0e c63c
00000140: 33f3 883c 4a87 f33d e099 143d 9981 903b
00000150: 1017 633d 6922 9fbd 49b8 0939 05c4 d3bc
00000160: d435 c2bd 44b6 70bd 2100 0080 6600 0000
00000170: 8c00 0080 7c00 0000 9200 0080 4500 0080
00000180: 584f 6900 3e00 0000 fec3 79be b748 f48e
00000190: 5e3a 89a2 3900 0000 4c00 0000 5700 0080
000001a0: 2000 0000 a776 8424 9d00 0000 cb09 a63e
000001b0: 6820 ca14 8d00 0080 2574 6ea5 0300 0080
000001c0: 6800 0000 d3e3 d492 4c00 0000 2d00 0080
000001d0: a1b1 aebe c7cb 22be e14a 22be ed4a 22be
000001e0: 4b87 24be b96f 22be 9550 22be 7a78 22be
000001f0: 2d4b 22be 1e4a 22be 94be 3fbb 5305 96ba
00000200: 1366 d23c f004 37bc dd51 683b 9275 e53c
00000210: 0edd fbbc 468f fd3c 8372 c4bc d517 403c
00000220: 3c82 e7ba 04e3 98bc 5cd1 483c dac5 e7ba
00000230: e142 05bd 8751 143d 8213 3cbd f9be bc3c
00000240: afc0 bdbb 9d0b 5abc 04ab b1bc 33c8 6b3c
00000250: bebe 8b3c c638 1cbc e4fe 3d3d 96b2 9abc
00000260: 399a f33c 8aa2 aabb fe31 833c 526a 353a
00000270: 8820 49bb 37e2 023c 5d34 473d 71b1 99bc
00000280: 9d37 5f3d aa88 b73b 254b 093e f47f a63d
00000290: 9783 aa3d fdc7 293d 0f41 c2bc 4a72 bfbd
000002a0: 73a8 18bd 57cc 3dbe 3248 10be 5608 98bc
000002b0: 0b47 e2bb 8db8 633c 5915 7fbc e82e f33b
000002c0: 3a94 263d ec8f 14bd 9d8c 633d 7553 20bc
000002d0: cdbf 33be d54d e0bd a65b ddbd 1e31 1ebd
000002e0: 93b4 0d3c d6ec 0d3d 7db9 033d b3cd 833d
000002f0: 4b31 bc3d 1c7e 32bd 4939 9cbc 70e5 39bd
00000300: 8c3e bdba 5df3 e53b f992 c9bb c76f d23c
00000310: 955f 47ba 2438 453d 9565 cf3c cb36 863c
00000320: 224e 1e3d 9801 06b9 eaff 37bb e71f 8f3c
00000330: ffdc 06bd 6646 553c 1d17 25bd 9963 8c3d
00000340: 1695 f83c 732c 9e3c 8027 f33c 61d1 14bc
00000350: 99f9 4bbd 6804 f73c c41f b6bd 590f 1fbd
00000360: c201 0000 6ccd 6c87 77fa b890 1b11 8d31
00000370: 4c8e 6795 ce44 358a f219 36bf 5f97 993f
00000380: 051b 48bf fdd9 398c 81f0 2794 a7a8 3e3f
00000390: 0dd7 1d90 390f 5529 6ff0 3812 7193 98b0
000003a0: 4e02 0080 fa80 9c39 2b14 0128 8e34 0517
000003b0: 8fc3 0ab3 fd74 2a8b 6b52 932e b9fa a815
000003c0: 40cc f8ba b8bc ac0a be14 37bf 98da 7a3d
000003d0: 24fa 753d 3225 7c3d 07aa 733d c606 7c3d
000003e0: 9311 7c3d 2b81 7b3d d757 743d 3683 793d
-0.032993816 -0.0029683588 -0.01542788 -0.031059764 0.0047150454 -0.0081981 0.004612724 0.043287475
0.032852426 0.062299863 0.012209921 0.018877238 0.054861683 -0.035525337 0.03488106 -0.010580161
-0.058431346 -0.03519478 -0.0068951603 -0.028147403 -0.020917553 -0.03638304 -0.009422038 -0.034911744
-0.018596513 -0.041667785 0.008172951 -0.10852337 -0.11339037 0.019774888 -0.1792908 0.15522502
-0.08299827 0.046085868 0.0026074788 -0.013327995 0.12710823 0.02401751 -0.023668254 0.047263727
-0.124356754 0.006401832 -0.043228343 -0.10305305 -0.05706463 -0.107919015 -0.025583548 -0.01655496
-0.05320485 0.043976367 -0.038903546 0.007299206 0.061859526 0.032863334 -0.1233131 -0.02889147
-0.0009520186 -0.04401506 0.06825295 -0.0049839388 0.014312362 0.043504518 0.012864924 -0.056558672
-0.00419704 0.026334539 -0.022517918 0.0537045 0.00049643364 -0.00801113 0.0004671524 -0.00847433
0.038276426 0.0045211343 -0.02307846 0.025164025 -0.035591684 0.017795878 0.012780847 0.024176892
0.016717529 0.11891039 0.03627956 0.0044099805 0.055441916 -0.07770235 0.0001313399 -0.025850305
-0.09482923 -0.058767572 -4.6e-44 1.43e-43 -1.96e-43 1.74e-43 -2.05e-43 -9.7e-44
9.67119e-39 8.7e-44 -0.24391171 -6.0220666e-30 -3.7195723e-18 8e-44 1.06e-43 -1.22e-43
4.5e-44 5.744688e-17 2.2e-43 0.32429346 2.040957e-26 -1.98e-43 -2.0682561e-16 -4e-45
1.46e-43 -1.3435244e-27 1.06e-43 -6.3e-44 -0.34119895 -0.15898047 -0.15848877 -0.15848894
-0.16067235 -0.15862931 -0.15851052 -0.1586627 -0.1584899 -0.15848586 -0.002925788 -0.0011445679
0.025683438 -0.011170611 0.0035449185 0.028010163 -0.030745056 0.030952107 -0.023980385 0.011724432
-0.0017662714 -0.018662937 0.012256946 -0.0017682866 -0.032534484 0.036210563 -0.04591704 0.023040282
-0.005790792 -0.013308433 -0.021687992 0.014390993 0.017058726 -0.00953502 0.04638566 -0.018883985
0.029736625 -0.0052073644 0.01601505 0.0006920445 -0.0030689556 0.007988504 0.048633922 -0.018761368
0.054496396 0.0056010084 0.13407572 0.08129874 0.0832588 0.04145049 -0.023712663 -0.09347971
-0.03727002 -0.1853498 -0.1409004 -0.018558662 -0.0069054416 0.013898981 -0.0155690545 0.007421363
0.040668704 -0.036270067 0.05555402 -0.009785523 -0.17553635 -0.10952345 -0.10808496 -0.03862106
0.008649009 0.034649692 0.032159317 0.064357184 0.091890894 -0.0435773 -0.019070284 -0.045384824
-0.0014438196 0.0070175366 -0.0061515537 0.025688065 -0.00076054904 0.048149243 0.025316993 0.01638355
0.038648732 -0.0001277983 -0.002807612 0.017471267 -0.032925602 0.013017273 -0.040305246 0.06854934
0.030344527 0.019308304 0.029681921 -0.009083123 -0.04979858 0.030153468 -0.088927776 -0.038832996
6.3e-43 -1.7815035e-34 -7.2961105e-29 4.1055848e-09 -4.676233e-26 -8.727774e-33 -0.7113334 1.199932
-0.7816623 -1.431748e-31 -8.4787764e-27 0.74476093 -3.112846e-29 4.7308704e-14 5.835652e-28 -1.1101361e-09
-8.27e-43 0.00029850734 7.165312e-15 4.304095e-25 -3.230849e-08 -3.282882e-32 6.6994264e-11 6.825023e-26
-0.001898177 1.6633986e-32 -0.71516025 0.061243623 0.060053006 0.06155891 0.059488323 0.061529897
0.061540198 0.06140248 0.059654083 0.060916148

model.encoder.model.tcn_block_00.conv1.bias f4 [2]
00000000: 26a9 ac3a 5ccc c93d
0.0013172969 0.098534316

model.encoder.model.tcn_block_00.conv1.weight_g f4 [2, 1, 1]
00000000: c2db 9d3e e034 953f
0.30831724 1.1656761

model.encoder.model.tcn_block_00.conv1.weight_v f4 [2, 2, 9]
00000000: a640 c0bc 274d d1bd caa3 843c 91bb a23d
00000010: 9d84 473d f042 5fbc 308c 1d3c 24aa 7fbd
00000020: 223a 7b3a bcf2 603e d8f3 a1be 5f76 823e
00000030: 5796 64be ca41 db3c adaa dd3d c735 80be
00000040: bd48 de3d 331b e73d 218d aa3d e960 073e
00000050: 2226 2bbe 58a5 55be d2b2 833e ff52 6cbe
00000060: 37c7 733e b7d6 473e 562f 3abe e397 d23c
00000070: 5cb1 0d3d 2856 43be 5cbf bd3d d281 413d
00000080: 15b4 f4bc f790 f8bc 9dbd 8f3d 197c a0bd
-0.023468327 -0.10219794 0.016191382 0.07945932 0.048710454 -0.013626799 0.009615943 -0.062418118
0.00095835526 0.21967596 -0.3163135 0.25480935 -0.22322975 0.02676477 0.108235694 -0.2504103
0.108537175 0.11284485 0.083276995 0.13220562 -0.16713765 -0.20863855 0.25722367 -0.23078535
0.23806463 0.19515501 -0.1818212 0.02570719 0.03459297 -0.19075835 0.092650145 0.047242947
-0.029871026 -0.030342562 0.07018588 -0.0783617

model.encoder.model.tcn_block_00.block.conv1d_layer_0.bias f4 [2]
00000000: cce9 0abf 3a19 48bd
-0.54262996 -0.048852183

model.encoder.model.tcn_block_00.block.conv1d_layer_0.weight_g f4 [2, 1, 1]
00000000: 8830 a73f 47c0 573f
1.3061686 0.84277767

model.encoder.model.tcn_block_00.block.conv1d_layer_0.weight_v f4 [2, 14, 9]
00000000: 8624 07bd cc88 42bb 38c5 7cbc 0c71 febc
00000010: ab80 9a3b 5351 06bc 5526 973b 354e 313d
00000020: 4490 063d 242e 7f3d 1f0c 483c 70a4 9a3c
00000030: a5b6 603d 0483 11bd 71df 0e3d 6958 2dbc
00000040: b555 6fbd 6728 10bd ccf0 e1bb 6295 e6bc
00000050: 4a5b abbc 6206 15bd e45e 1abc 9eff 0ebd
00000060: b757 98bc d7ab 2abd d7e7 053c 8041 debd
00000070: 3639 e8bd f2fe a13c 0298 37be 4ff3 1e3e
00000080: fffa a9bd 89c4 3c3d 3ce2 2a3b aa5d 5abc
00000090: a928 023e 5ec0 c43c ede3 c1bc 9c97 413d
000000a0: c1ae febd 76c6 d13b 3410 31bd 7a0d d3bd
000000b0: 9abc 69bd a504 ddbd 9794 d1bc 449e 87bc
000000c0: 54ed 59bd 9020 343d 5359 1fbd 2e2e ef3b
000000d0: 6a60 7d3d b49b 063d 948b fcbd cead ecbc
000000e0: e390 79ba 2349 34bd 34c8 8b3d 4f50 a3bb
000000f0: 667e 6a3c cb31 323d 67c7 523c 11aa 67bd
00000100: 5387 89bb 88bb d73c 7f77 b8bc 40f9 5b3d
00000110: 1923 023a 1d41 03bc 22ec f439 ebd7 0abc
00000120: bec7 1c3d 0626 943b 0a0f bdbc c924 ce3c
00000130: 96c8 11bd a9c8 913c c266 513c 9e0e c63c
00000140: 33f3 883c 4a87 f33d e099 143d 9981 903b
00000150: 1017 633d 6922 9fbd 49b8 0939 05c4 d3bc
00000160: d435 c2bd 44b6 70bd 2100 0080 6600 0000
00000170: 8c00 0080 7c00 0000 9200 0080 4500 0080
00000180: 584f 6900 3e00 0000 fec3 79be b748 f48e
00000190: 5e3a 89a2 3900 0000 4c00 0000 5700 0080
000001a0: 2000 0000 a776 8424 9d00 0000 cb09 a63e
000001b0: 6820 ca14 8d00 0080 2574 6ea5 0300 0080
000001c0: 6800 0000 d3e3 d492 4c00 0000 2d00 0080
000001d0: a1b1 aebe c7cb 22be e14a 22be ed4a 22be
000001e0: 4b87 24be b96f 22be 9550 22be 7a78 22be
000001f0: 2d4b 22be 1e4a 22be 94be 3fbb 5305 96ba
00000200: 1366 d23c f004 37bc dd51 683b 9275 e53c
00000210: 0edd fbbc 468f fd3c 8372 c4bc d517 403c
00000220: 3c82 e7ba 04e3 98bc 5cd1 483c dac5 e7ba
00000230: e142 05bd 8751 143d 8213 3cbd f9be bc3c
00000240: afc0 bdbb 9d0b 5abc 04ab b1bc 33c8 6b3c
00000250: bebe 8b3c c638 1cbc e4fe 3d3d 96b2 9abc
00000260: 399a f33c 8aa2 aabb fe31 833c 526a 353a
00000270: 8820 49bb 37e2 023c 5d34 473d 71b1 99bc
00000280: 9d37 5f3d aa88 b73b 254b 093e f47f a63d
00000290: 9783 aa3d fdc7 293d 0f41 c2bc 4a72 bfbd
000002a0: 73a8 18bd 57cc 3dbe 3248 10be 5608 98bc
000002b0: 0b47 e2bb 8db8 633c 5915 7fbc e82e f33b
000002c0: 3a94 263d ec8f 14bd 9d8c 633d 7553 20bc
000002d0: cdbf 33be d54d e0bd a65b ddbd 1e31 1ebd
000002e0: 93b4 0d3c d6ec 0d3d 7db9 033d b3cd 833d
000002f0: 4b31 bc3d 1c7e 32bd 4939 9cbc 70e5 39bd
00000300: 8c3e bdba 5df3 e53b f992 c9bb c76f d23c
00000310: 955f 47ba 2438 453d 9565 cf3c cb36 863c
00000320: 224e 1e3d 9801 06b9 eaff 37bb e71f 8f3c
00000330: ffdc 06bd 6646 553c 1d17 25bd 9963 8c3d
00000340: 1695 f83c 732c 9e3c 8027 f33c 61d1 14bc
00000350: 99f9 4bbd 6804 f73c c41f b6bd 590f 1fbd
00000360: c201 0000 6ccd 6c87 77fa b890 1b11 8d31
00000370: 4c8e 6795 ce44 358a f219 36bf 5f97 993f
00000380: 051b 48bf fdd9 398c 81f0 2794 a7a8 3e3f
00000390: 0dd7 1d90 390f 5529 6ff0 3812 7193 98b0
000003a0: 4e02 0080 fa80 9c39 2b14 0128 8e34 0517
000003b0: 8fc3 0ab3 fd74 2a8b 6b52 932e b9fa a815
000003c0: 40cc f8ba b8bc ac0a be14 37bf 98da 7a3d
000003d0: 24fa 753d 3225 7c3d 07aa 733d c606 7c3d
000003e0: 9311 7c3d 2b81 7b3d d757 743d 3683 793d
-0.032993816 -0.0029683588 -0.01542788 -0.031059764 0.0047150454 -0.0081981 0.004612724 0.043287475
0.032852426 0.062299863 0.012209921 0.018877238 0.054861683 -0.035525337 0.03488106 -0.010580161
-0.058431346 -0.03519478 -0.0068951603 -0.028147403 -0.020917553 -0.03638304 -0.009422038 -0.034911744
-0.018596513 -0.041667785 0.008172951 -0.10852337 -0.11339037 0.019774888 -0.1792908 0.15522502
-0.08299827 0.046085868 0.0026074788 -0.013327995 0.12710823 0.02401751 -0.023668254 0.047263727
-0.124356754 0.006401832 -0.043228343 -0.10305305 -0.05706463 -0.107919015 -0.025583548 -0.01655496
-0.05320485 0.043976367 -0.038903546 0.007299206 0.061859526 0.032863334 -0.1233131 -0.02889147
-0.0009520186 -0.04401506 0.06825295 -0.0049839388 0.014312362 0.043504518 0.012864924 -0.056558672
-0.00419704 0.026334539 -0.022517918 0.0537045 0.00049643364 -0.00801113 0.0004671524 -0.00847433
0.038276426 0.0045211343 -0.02307846 0.025164025 -0.035591684 0.017795878 0.012780847 0.024176892
0.016717529 0.11891039 0.03627956 0.0044099805 0.055441916 -0.07770235 0.0001313399 -0.025850305
-0.09482923 -0.058767572 -4.6e-44 1.43e-43 -1.96e-43 1.74e-43 -2.05e-43 -9.7e-44
9.67119e-39 8.7e-44 -0.24391171 -6.0220666e-30 -3.7195723e-18 8e-44 1.06e-43 -1.22e-43
4.5e-44 5.744688e-17 2.2e-43 0.32429346 2.040957e-26 -1.98e-43 -2.0682561e-16 -4e-45
1.46e-43 -1.3435244e-27 1.06e-43 -6.3e-44 -0.34119895 -0.15898047 -0.15848877 -0.15848894
-0.16067235 -0.15862931 -0.15851052 -0.1586627 -0.1584899 -0.15848586 -0.002925788 -0.0011445679
0.025683438 -0.011170611 0.0035449185 0.028010163 -0.030745056 0.030952107 -0.023980385 0.011724432
-0.0017662714 -0.018662937 0.012256946 -0.0017682866 -0.032534484 0.036210563 -0.04591704 0.023040282
-0.005790792 -0.013308433 -0.021687992 0.014390993 0.017058726 -0.00953502 0.04638566 -0.018883985
0.029736625 -0.0052073644 0.01601505 0.0006920445 -0.0030689556 0.007988504 0.048633922 -0.018761368
0.054496396 0.0056010084 0.13407572 0.08129874 0.0832588 0.04145049 -0.023712663 -0.09347971
-0.03727002 -0.1853498 -0.1409004 -0.018558662 -0.0069054416 0.013898981 -0.0155690545 0.007421363
0.040668704 -0.036270067 0.05555402 -0.009785523 -0.17553635 -0.10952345 -0.10808496 -0.03862106
0.008649009 0.034649692 0.032159317 0.064357184 0.091890894 -0.0435773 -0.019070284 -0.045384824
-0.0014438196 0.0070175366 -0.0061515537 0.025688065 -0.00076054904 0.048149243 0.025316993 0.01638355
0.038648732 -0.0001277983 -0.002807612 0.017471267 -0.032925602 0.013017273 -0.040305246 0.06854934
0.030344527 0.019308304 0.029681921 -0.009083123 -0.04979858 0.030153468 -0.088927776 -0.038832996
6.3e-43 -1.7815035e-34 -7.2961105e-29 4.1055848e-09 -4.676233e-26 -8.727774e-33 -0.7113334 1.199932
-0.7816623 -1.431748e-31 -8.4787764e-27 0.74476093 -3.112846e-29 4.7308704e-14 5.835652e-28 -1.1101361e-09
-8.27e-43 0.00029850734 7.165312e-15 4.304095e-25 -3.230849e-08 -3.282882e-32 6.6994264e-11 6.825023e-26
-0.001898177 1.6633986e-32 -0.71516025 0.061243623 0.060053006 0.06155891 0.059488323 0.061529897
0.061540198 0.06140248 0.059654083 0.060916148

model.encoder.model.tcn_block_00.block.conv1d_layer_1.bias f4 [2]
00000000: 26a9 ac3a 5ccc c93d
0.0013172969 0.098534316

model.encoder.model.tcn_block_00.block.conv1d_layer_1.weight_g f4 [2, 1, 1]
00000000: c2db 9d3e e034 953f
0.30831724 1.1656761

model.encoder.model.tcn_block_00.block.conv1d_layer_1.weight_v f4 [2, 2, 9]
00000000: a640 c0bc 274d d1bd caa3 843c 91bb a23d
00000010: 9d84 473d f042 5fbc 308c 1d3c 24aa 7fbd
00000020: 223a 7b3a bcf2 603e d8f3 a1be 5f76 823e
00000030: 5796 64be ca41 db3c adaa dd3d c735 80be
00000040: bd48 de3d 331b e73d 218d aa3d e960 073e
00000050: 2226 2bbe 58a5 55be d2b2 833e ff52 6cbe
00000060: 37c7 733e b7d6 473e 562f 3abe e397 d23c
00000070: 5cb1 0d3d 2856 43be 5cbf bd3d d281 413d
00000080: 15b4 f4bc f790 f8bc 9dbd 8f3d 197c a0bd
-0.023468327 -0.10219794 0.016191382 0.07945932 0.048710454 -0.013626799 0.009615943 -0.062418118
0.00095835526 0.21967596 -0.3163135 0.25480935 -0.22322975 0.02676477 0.108235694 -0.2504103
0.108537175 0.11284485 0.083276995 0.13220562 -0.16713765 -0.20863855 0.25722367 -0.23078535
0.23806463 0.19515501 -0.1818212 0.02570719 0.03459297 -0.19075835 0.092650145 0.047242947
-0.029871026 -0.030342562 0.07018588 -0.0783617

model.encoder.model.tcn_block_00.downsample.weight f4 [2, 14, 1]
00000000: 6da4 383e 8aec 0fbe e9df 00be 7af1 623d
00000010: 3efc 56bc 0e51 153e dc7b bcbd 6b2d 20be
00000020: a124 123e aab7 04be 5f54 87bb 0dff 95bc
00000030: f3b3 21bc 3455 613f 9eca a9bd 11a1 cd3d
00000040: f1df 28bc a995 96be 7b9f cd3e 73dc 34be
00000050: 7164 aebe 103a eebd cf8d 643d 6bad c03e
00000060: 7bc3 20bc 5d23 843b df7a 033c 2e23 973f
0.18031473 -0.14055076 -0.12585415 0.05540607 -0.013121663 0.14581701 -0.09203312 -0.15642326
0.14271785 -0.12960687 -0.004129931 -0.018310094 -0.009869563 0.88020635 -0.08290599 0.100404866
-0.010307298 -0.29411057 0.40160736 -0.1766222 -0.34061006 -0.11632168 0.0557993 0.37632307
-0.009812231 0.004032536 0.0080249 1.1807611

model.encoder.model.tcn_block_00.downsample.bias f4 [2]
00000000: a372 813f 0a1a 733f
1.0113109 0.9496161

model.encoder.model.tcn_block_01.conv0.bias f4 [2]
00000000: b77e 32be ab3b 013f
-0.1743115 0.5048167

model.encoder.model.tcn_block_01.conv0.weight_g f4 [2, 1, 1]
00000000: dee1 163f b688 323f
0.58938396 0.69739854

model.encoder.model.tcn_block_01.conv0.weight_v f4 [2, 2, 9]
00000000: 13e4 dcbe 1a8f cebd 412e 1cbd 5406 0d3e
00000010: c1df 383e d853 583e bf44 793e 818d 5b3e
00000020: e158 8bbe d605 af3d 195b 0e3e 683d 1f3e
00000030: 4b0c edbd 4f41 da3c cd6f ca3c 96ff 48ba
00000040: a31e ef3d daed 9a3d 9733 cd3e d604 713e
00000050: 8308 b13d 9390 bfbd 0844 02be eb1c eabd
00000060: 7f57 24be 8a9e 84be 3898 62be 16a6 0dbd
00000070: c583 153d f708 b73d 0729 80bd 06a0 553d
00000080: fad3 89bd 9faf 11be 3585 0fbe 90a6 f3bd
-0.43142757 -0.10085888 -0.03813005 0.13771945 0.18054105 0.21125734 0.24342631 0.21440698
-0.27216247 0.08546035 0.13901938 0.15550768 -0.1157461 0.02664247 0.024711514 -0.000766748
0.11675765 0.07564898 0.40078422 0.23537001 0.086442016 -0.09353747 -0.12721264 -0.11431297
-0.16049002 -0.25902206 -0.2212838 -0.03458222 0.03650262 0.08937257 -0.06257825 0.052154563
-0.067298844 -0.1422715 -0.14015658 -0.11897004

model.encoder.model.tcn_block_01.conv1.bias f4 [2]
00000000: 3ba4 fdb8 fa2c ce3d
-0.000120945704 0.10067172

model.encoder.model.tcn_block_01.conv1.weight_g f4 [2, 1, 1]
00000000: fbd1 4f3a 7766 733f
0.0007927713 0.95078224

model.encoder.model.tcn_block_01.conv1.weight_v f4 [2, 2, 9]
00000000: 6db4 be3e 0d7c 8bbe a79c aebe 4ab7 b6be
00000010: c107 35be c9d0 1fbe 46c2 0abe 544e eebd
00000020: 491b 70be 543b 6b39 eb84 9cbd 1e41 e9bd
00000030: a9a7 f83d 08b7 7cbd 00f1 72ba 8ab5 b3bd
00000040: 85a1 84bd 49c6 cc3d 06b1 f13b 36ea 003d
00000050: 76e1 8e3c cd91 7f3a 65ed bcbc 8992 863d
00000060: 63d4 73bd 3818 e7bc 5892 93bd 3f33 a83e
00000070: 5a98 533e 8be5 193e d65d 8a3d 8d6b 2d3d
00000080: 0e39 643d 8a94 9f3d eda3 803d 100f 353e
0.3724703 -0.2724308 -0.3410389 -0.35686713 -0.17678739 -0.15606989 -0.13550672 -0.11636034
-0.23447908 0.00022433448 -0.076425396 -0.11389373 0.12141354 -0.06169799 -0.0009267479 -0.0877486
-0.0647612 0.099987574 0.007375839 0.03147336 0.017441493 0.0009749204 -0.023062417 0.06570918
-0.05952872 -0.02820979 -0.07205647 0.32851598 0.20663586 0.1502897 0.06756179 0.042338897
0.055718474 0.077920035 0.06281266 0.17681527

model.encoder.model.tcn_block_01.block.conv1d_layer_0.bias f4 [2]
00000000: b77e 32be ab3b 013f
-0.1743115 0.5048167

model.encoder.model.tcn_block_01.block.conv1d_layer_0.weight_g f4 [2, 1, 1]
00000000: dee1 163f b688 323f
0.58938396 0.69739854

model.encoder.model.tcn_block_01.block.conv1d_layer_0.weight_v f4 [2, 2, 9]
00000000: 13e4 dcbe 1a8f cebd 412e 1cbd 5406 0d3e
00000010: c1df 383e d853 583e bf44 793e 818d 5b3e
00000020: e158 8bbe d605 af3d 195b 0e3e 683d 1f3e
00000030: 4b0c edbd 4f41 da3c cd6f ca3c 96ff 48ba
00000040: a31e ef3d daed 9a3d 9733 cd3e d604 713e
00000050: 8308 b13d 9390 bfbd 0844 02be eb1c eabd
00000060: 7f57 24be 8a9e 84be 3898 62be 16a6 0dbd
00000070: c583 153d f708 b73d 0729 80bd 06a0 553d
00000080: fad3 89bd 9faf 11be 3585 0fbe 90a6 f3bd
-0.43142757 -0.10085888 -0.03813005 0.13771945 0.18054105 0.21125734 0.24342631 0.21440698
-0.27216247 0.08546035 0.13901938 0.15550768 -0.1157461 0.02664247 0.024711514 -0.000766748
0.11675765 0.07564898 0.40078422 0.23537001 0.086442016 -0.09353747 -0.12721264 -0.11431297
-0.16049002 -0.25902206 -0.2212838 -0.03458222 0.03650262 0.08937257 -0.06257825 0.052154563
-0.067298844 -0.1422715 -0.14015658 -0.11897004

model.encoder.model.tcn_block_01.block.conv1d_layer_1.bias f4 [2]
00000000: 3ba4 fdb8 fa2c ce3d
-0.000120945704 0.10067172

model.encoder.model.tcn_block_01.block.conv1d_layer_1.weight_g f4 [2, 1, 1]
00000000: fbd1 4f3a 7766 733f
0.0007927713 0.95078224

model.encoder.model.tcn_block_01.block.conv1d_layer_1.weight_v f4 [2, 2, 9]
00000000: 6db4 be3e 0d7c 8bbe a79c aebe 4ab7 b6be
00000010: c107 35be c9d0 1fbe 46c2 0abe 544e eebd
00000020: 491b 70be 543b 6b39 eb84 9cbd 1e41 e9bd
00000030: a9a7 f83d 08b7 7cbd 00f1 72ba 8ab5 b3bd
00000040: 85a1 84bd 49c6 cc3d 06b1 f13b 36ea 003d
00000050: 76e1 8e3c cd91 7f3a 65ed bcbc 8992 863d
00000060: 63d4 73bd 3818 e7bc 5892 93bd 3f33 a83e
00000070: 5a98 533e 8be5 193e d65d 8a3d 8d6b 2d3d
00000080: 0e39 643d 8a94 9f3d eda3 803d 100f 353e
0.3724703 -0.2724308 -0.3410389 -0.35686713 -0.17678739 -0.15606989 -0.13550672 -0.11636034
-0.23447908 0.00022433448 -0.076425396 -0.11389373 0.12141354 -0.06169799 -0.0009267479 -0.0877486
-0.0647612 0.099987574 0.007375839 0.03147336 0.017441493 0.0009749204 -0.023062417 0.06570918
-0.05952872 -0.02820979 -0.07205647 0.32851598 0.20663586 0.1502897 0.06756179 0.042338897
0.055718474 0.077920035 0.06281266 0.17681527

model.qz_xy_mean.dense(qz_xy_mean)_layer_03.weight f4 [2, 2]
00000000: f6ac df3f ea48 1abe f606 b93d cc43 923f
1.7474658 -0.15066877 0.09034531 1.142694

model.qz_xy_mean.dense(qz_xy_mean)_layer_03.bias f4 [2]
00000000: 41a5 c0bf 0b70 70bf
-1.5050431 -0.93920964

model.qz_xy_logvar.dense(qz_xy_logvar)_layer_03.weight f4 [2, 2]
00000000: bfa7 c1bf 2bbd b8bf 8e23 acbf 7578 87bf
-1.5129317 -1.443273 -1.344835 -1.0583636

model.qz_xy_logvar.dense(qz_xy_logvar)_layer_03.bias f4 [2]
00000000: b9f4 37bf 7db0 79bf
-0.7185779 -0.97534925

model.py_t_probs.dense(py_t_probs)_layer_00.weight f4 [4, 2]
00000000: 6f60 f93d 1ea6 c1bd 775c fa3d c200 c2bd
00000010: 2403 fb3d 8141 c2bd fbb3 f93d 1ecb c1bd
0.121765964 -0.094555125 0.122246675 -0.09472801 0.122564584 -0.0948515 0.12192532 -0.0946257

model.py_t_probs.dense(py_t_probs)_layer_00.bias f4 [4]
00000000: 15df bc3e 433f 723e d965 ff3e 996b 943e
0.36888948 0.23656945 0.4988239 0.2898834

model.pz_t_mean.dense(pz_t_mean)_layer_00.weight f4 [8, 2]
00000000: e2fd 7a3f b322 06be 6fd2 023e f8ff 7c3f
00000010: 90cd 7c3f 797f 86bd 9fad 7e3d 1768 7e3f
00000020: b15c 7e3f 8874 893a 6698 1e3a 20bc 7c3f
00000030: 197c 793f 088b 87bd 7acc 383d 8732 813f
0.98043644 -0.13099174 0.12775587 0.9882808 0.98751163 -0.06567282 0.062177297 0.9937758
0.99360186 0.0010487 0.0006049931 0.98724556 0.97454983 -0.06618315 0.04511688 1.0093545

model.pz_t_mean.dense(pz_t_mean)_layer_00.bias f4 [8]
00000000: ef2c 2a3e 145c 9ebe 8a8c 31bc 9e78 b03d
00000010: a52a da3d eeca 51bc 7e1c 1a3e 3352 a7bd
0.16618703 -0.30929625 -0.01083673 0.08616756 0.10652665 -0.01280473 0.15049931 -0.08169975

model.pz_t_logvar.dense(pz_t_logvar)_layer_00.weight f4 [2, 4]
00000000: 0020 f3bb 8013 b6bc 7820 0cbe 77ac e9bf
00000010: a001 cd3c fcf3 79be 0a22 eebe 951c f8bf
-0.007419586 -0.022226095 -0.13684261 -1.8255757 0.025025189 -0.24409479 -0.46510345 -1.9383723

model.pz_t_logvar.dense(pz_t_logvar)_layer_00.bias f4 [2]
00000000: 1686 e5bf a3d0 a6bf
-1.7931545 -1.3032421

model.decoder.dense(decoder)_layer_00.weight f4 [10, 2]
00000000: c730 0e3f aab7 ad3d 39b3 07bf d808 843b
00000010: 5975 0ebf 7827 3abe 7b11 263e abd3 04bf
00000020: bab1 ee3d 117b 2b3f eef5 f83e 93a5 fdbd
00000030: 713f d7be 8536 1cbf 418a 10bf 5fcb acbe
00000040: 5dfa 113f 3011 8e3e 69bd 8bbe 5c67 e13e
0.5554318 0.08482297 -0.5300785 0.0040293746 -0.5564781 -0.18179119 0.16217606 -0.5188548
0.116549924 0.6698466 0.4862513 -0.123850964 -0.4204059 -0.6102069 -0.5646096 -0.3374891
0.5702265 0.27747488 -0.27292946 0.4402417

model.decoder.dense(decoder)_layer_00.bias f4 [10]
00000000: cc71 78bf 7fe1 473f 4ce2 913f ad2e 263f
00000010: b664 a9bf af72 02bf 8e0a d63f 6e53 b53f
00000020: 8758 a9bf 4221 b3be
-0.9704864 0.78078455 1.1397185 0.6491497 -1.323386 -0.50956243 1.6721971 1.4166086
-1.3230141 -0.3498631

inference.model.qy_x.model.tcn_block_00.conv0.bias f4 [2]
00000000: e820 863a 383d a3bd
0.0010233195 -0.07970661

inference.model.qy_x.model.tcn_block_00.conv0.weight_g f4 [2, 1, 1]
00000000: b336 113f 8205 f03e
0.5672409 0.46879202

inference.model.qy_x.model.tcn_block_00.conv0.weight_v f4 [2, 10, 9]
00000000: 6243 ef3b 802c 883d 737b ddbd 4ce9 bbbd
00000010: 0063 19bd 35e0 203d 8b6c 053c 8fb0 bf3d
00000020: 9e06 caba dde4 8a3c 7c97 3bbd 5de9 ebbc
00000030: 1333 e1bd 3595 9dbd b472 52bd 82ed 05bc
00000040: 7cd3 de3c ef6c 523d 1c19 b2bd 51e4 6cbd
00000050: 30f3 373d b686 b03d 70c8 07bd a1f2 a53d
00000060: bbc2 eabc 877b d339 01d1 a13d e8f6 92bd
00000070: ef68 5abd d8b9 9fbc 96a5 00bd e171 bd3d
00000080: 9f68 58bd 22ec adbc 2981 69bd a9bb a3bd
00000090: d995 53bd bf7a bc3d eae0 2e3d d441 143d
000000a0: e464 53bc a209 91bd 1a55 0b3b 75b8 ddbd
000000b0: b2d1 a3bd 9199 4dbd ba5c 9a3d 10fb 8b3d
000000c0: 0148 1ebd fc37 893b e902 a53d e1c5 e73d
000000d0: fae2 523d 78a3 a63c 4fed 723d 73a2 66bd
000000e0: 1448 fa3c a3ce 61bd fc27 43bd a188 01bd
000000f0: a472 8a3d e7bf 793d f488 9cbd a0be ff3c
00000100: a02d 963d dad5 943b 4231 dc3c eae7 323d
00000110: 02de c53d 4bce 033e 9a9f c4bd e1ce 5bbd
00000120: d830 673d 9203 cb3d dcd9 c63d 4ca9 c63d
00000130: 02ea b03c ac6a eebd f5c4 963c 535b 86bd
00000140: 4a3d c1bd 79f5 c43d 5a21 a53d 7187 e1bd
00000150: becc 503c e375 f5bc 0ed6 fabc 7342 81bd
00000160: 296c fc3c 5a6d 8dbd 4eb1 163d 52db 593d
00000170: e4b0 a53d e87e 023d df34 11be bac8 debd
00000180: 31eb c03c a7a1 c3bc cc5a 1fbe 7118 a1bd
00000190: 968d ef3d 32f4 9b3d 0f11 01bd 4c68 4cbc
000001a0: dc10 8ebd f722 063d 5628 18bd 2bb0 42bd
000001b0: cf3e 953c a423 3e3c 217f cabc 0bfd 5c3d
000001c0: 0d7f 27bd 84e7 f13d f3ea d03d 148f 11bd
000001d0: f187 2e3c bec2 373c 1d52 833c a084 ac3c
000001e0: aa74 b53c 0d3e f2bc dfd8 bfbd 3315 cc3b
000001f0: 97f6 10be c3a3 a5bd e3d1 3ebd 7655 5ebd
00000200: 0de2 26bd ab46 8cbd e30e 47bb 2c8e 8c3d
00000210: 7954 54bd f488 103d 7889 c63d 0790 4bbb
00000220: 7269 b339 60d4 9abb b023 453c 3779 643d
00000230: 9734 a03d ca12 243d 499c 593d 24a9 8fbd
00000240: 2ea3 ccbd 7cf6 6fbd ed39 8c3d 65d9 6fbc
00000250: e5d0 aebd 24a7 d8bd 4c0a fdbd 8b03 d0bd
00000260: a52d b1bb f2fc a73d 6ce1 993d 8cf5 e7bd
00000270: 57d1 a73d 2171 a9bd eeb1 15bc 58cf 71bc
00000280: bf46 673c 7651 213d 3b34 e4bd cc56 f5bd
00000290: 00dc 8bbc 0ec4 23bc a0ce 8bbd accc 6b3c
000002a0: a136 0ebe 8bf5 7bbd 73e6 653d 32ed 85bd
000002b0: e3d4 d03d 4aed 423d 5d64 c2bd ba31 cc3d
000002c0: d353 953c a558 7fbc 44f8 0e3e f79b 42bd
0.007301734 0.06649113 -0.10814562 -0.09175357 -0.03744793 0.03927632 0.008143554 0.09359848
-0.0015413349 0.016954834 -0.045798764 -0.0287978 -0.1099607 -0.076944746 -0.05137892 -0.008174302
0.027200453 0.05137342 -0.086961955 -0.057834927 0.044909656 0.08619444 -0.033150136 0.081029184
-0.028657308 0.0004033709 0.079011925 -0.07176 -0.05332273 -0.019497797 -0.031407915 0.09250236
-0.05283415 -0.021230761 -0.057007942 -0.07994778 -0.051656578 0.092030995 0.042694964 0.03619559
-0.012902472 -0.070819154 0.0021260441 -0.10826198 -0.079989806 -0.05019528 0.075372174 0.06834996
-0.038642887 0.004187582 0.08057196 0.11317039 0.051485993 0.02034162 0.059308346 -0.056307267
0.030551948 -0.055128705 -0.047645554 -0.03162444 0.06760147 0.060974028 -0.07643309 0.031218827
0.07332921 0.0045420947 0.026878957 0.0436782 0.09661485 0.12871663 -0.09600754 -0.053664092
0.056443065 0.0991279 0.09709522 0.097002596 0.021595959 -0.1164144 0.018404463 -0.065603875
-0.09435518 0.09617133 0.08063002 -0.110121615 0.012744127 -0.02996344 -0.030619647 -0.06311502
0.030813294 -0.06905623 0.036790185 0.053187676 0.0809038 0.03185931 -0.14180325 -0.10878129
0.023549648 -0.023880793 -0.1556198 -0.0786599 0.11696927 0.07614936 -0.03151041 -0.012476038
-0.069368094 0.03274819 -0.037147842 -0.047531288 0.018218426 0.011605177 -0.024718823 0.053952258
-0.04089265 0.11811736 0.10201063 -0.03553684 0.010652528 0.011215864 0.016030366 0.021059334
0.022150356 -0.029570604 -0.09367537 0.006228113 -0.14156567 -0.08087876 -0.046586882 -0.05428072
-0.040742923 -0.06849416 -0.0030373863 0.06863055 -0.051838372 0.03528686 0.09694189 -0.0031061189
0.00034220103 -0.004725024 0.012032434 0.055779662 0.07822531 0.04005698 0.05312756 -0.07014683
-0.099920616 -0.058584675 0.06846986 -0.014639233 -0.08535937 -0.105787545 -0.123554796 -0.10156926
-0.0054070526 0.08202542 0.07513699 -0.11326131 0.08194225 -0.08273531 -0.00913666 -0.014758907
0.014115988 0.039384328 -0.11142775 -0.11979446 -0.017072678 -0.009995474 -0.0682652 0.014392059
-0.13888027 -0.061513465 0.056127977 -0.06539382 0.10196855 0.047589578 -0.09491799 0.09970422
0.018228447 -0.015585099 0.13961893 -0.04751202

inference.model.qy_x.model.tcn_block_00.conv1.bias f4 [2]
00000000: 4dd5 383e 2e8b febd
0.18050118 -0.1242889

inference.model.qy_x.model.tcn_block_00.conv1.weight_g f4 [2, 1, 1]
00000000: 3f92 fb3e 03c2 f03e
0.49135014 0.4702302

inference.model.qy_x.model.tcn_block_00.conv1.weight_v f4 [2, 2, 9]
00000000: 47db f13d 40f6 cf3c 629f aa3d f05c 813d
00000010: 2ec2 8dbd 6e35 80bd 600d 54be a7e9 0d3e
00000020: 1b7d 3b3e d14c 203e 775b 66be bc4f 37bc
00000030: 23cd 43be 021e 04be 7d18 f9bd fa1f 4b3e
00000040: 6510 dcbd 2a7e ef3d 99ad 033d 3d72 373e
00000050: 64bc 16be fa91 04be 130d d0bd ac59 5e3e
00000060: dcf6 67bd 8920 5e3e 1eba a63d 1702 343b
00000070: d0d8 b4bc 8892 81bd c2a3 763d 2439 c9bc
00000080: 0f2c aa3d 87f2 193e c3d9 0bbe 5d83 4cbd
0.11809402 0.025385976 0.08331181 0.063165545 -0.069218025 -0.06260191 -0.20708227 0.13858663
0.18309443 0.15654303 -0.22495829 -0.011188444 -0.19121222 -0.12902072 -0.12162874 0.19836417
-0.107453145 0.11693986 0.032147978 0.17914672 -0.14720303 -0.1294631 -0.10158744 0.21713895
-0.056631908 0.21692099 0.08140968 0.0027467066 -0.02207604 -0.06326777 0.060214765 -0.02456338
0.08309185 0.15033923 -0.13657288 -0.049929965

inference.model.qy_x.model.tcn_block_00.block.conv1d_layer_0.bias f4 [2]
00000000: e820 863a 383d a3bd
0.0010233195 -0.07970661

inference.model.qy_x.model.tcn_block_00.block.conv1d_layer_0.weight_g f4 [2, 1, 1]
00000000: b336 113f 8205 f03e
0.5672409 0.46879202

inference.model.qy_x.model.tcn_block_00.block.conv1d_layer_0.weight_v f4 [2, 10, 9]
00000000: 6243 ef3b 802c 883d 737b ddbd 4ce9 bbbd
00000010: 0063 19bd 35e0 203d 8b6c 053c 8fb0 bf3d
00000020: 9e06 caba dde4 8a3c 7c97 3bbd 5de9 ebbc
00000030: 1333 e1bd 3595 9dbd b472 52bd 82ed 05bc
00000040: 7cd3 de3c ef6c 523d 1c19 b2bd 51e4 6cbd
00000050: 30f3 373d b686 b03d 70c8 07bd a1f2 a53d
00000060: bbc2 eabc 877b d339 01d1 a13d e8f6 92bd
00000070: ef68 5abd d8b9 9fbc 96a5 00bd e171 bd3d
00000080: 9f68 58bd 22ec adbc 2981 69bd a9bb a3bd
00000090: d995 53bd bf7a bc3d eae0 2e3d d441 143d
000000a0: e464 53bc a209 91bd 1a55 0b3b 75b8 ddbd
000000b0: b2d1 a3bd 9199 4dbd ba5c 9a3d 10fb 8b3d
000000c0: 0148 1ebd fc37 893b e902 a53d e1c5 e73d
000000d0: fae2 523d 78a3 a63c 4fed 723d 73a2 66bd
000000e0: 1448 fa3c a3ce 61bd fc27 43bd a188 01bd
000000f0: a472 8a3d e7bf 793d f488 9cbd a0be ff3c
00000100: a02d 963d dad5 943b 4231 dc3c eae7 323d
00000110: 02de c53d 4bce 033e 9a9f c4bd e1ce 5bbd
00000120: d830 673d 9203 cb3d dcd9 c63d 4ca9 c63d
00000130: 02ea b03c ac6a eebd f5c4 963c 535b 86bd
00000140: 4a3d c1bd 79f5 c43d 5a21 a53d 7187 e1bd
00000150: becc 503c e375 f5bc 0ed6 fabc 7342 81bd
00000160: 296c fc3c 5a6d 8dbd 4eb1 163d 52db 593d
00000170: e4b0 a53d e87e 023d df34 11be bac8 debd
00000180: 31eb c03c a7a1 c3bc cc5a 1fbe 7118 a1bd
00000190: 968d ef3d 32f4 9b3d 0f11 01bd 4c68 4cbc
000001a0: dc10 8ebd f722 063d 5628 18bd 2bb0 42bd
000001b0: cf3e 953c a423 3e3c 217f cabc 0bfd 5c3d
000001c0: 0d7f 27bd 84e7 f13d f3ea d03d 148f 11bd
000001d0: f187 2e3c bec2 373c 1d52 833c a084 ac3c
000001e0: aa74 b53c 0d3e f2bc dfd8 bfbd 3315 cc3b
000001f0: 97f6 10be c3a3 a5bd e3d1 3ebd 7655 5ebd
00000200: 0de2 26bd ab46 8cbd e30e 47bb 2c8e 8c3d
00000210: 7954 54bd f488 103d 7889 c63d 0790 4bbb
00000220: 7269 b339 60d4 9abb b023 453c 3779 643d
00000230: 9734 a03d ca12 243d 499c 593d 24a9 8fbd
00000240: 2ea3 ccbd 7cf6 6fbd ed39 8c3d 65d9 6fbc
00000250: e5d0 aebd 24a7 d8bd 4c0a fdbd 8b03 d0bd
00000260: a52d b1bb f2fc a73d 6ce1 993d 8cf5 e7bd
00000270: 57d1 a73d 2171 a9bd eeb1 15bc 58cf 71bc
00000280: bf46 673c 7651 213d 3b34 e4bd cc56 f5bd
00000290: 00dc 8bbc 0ec4 23bc a0ce 8bbd accc 6b3c
000002a0: a136 0ebe 8bf5 7bbd 73e6 653d 32ed 85bd
000002b0: e3d4 d03d 4aed 423d 5d64 c2bd ba31 cc3d
000002c0: d353 953c a558 7fbc 44f8 0e3e f79b 42bd
0.007301734 0.06649113 -0.10814562 -0.09175357 -0.03744793 0.03927632 0.008143554 0.09359848
-0.0015413349 0.016954834 -0.045798764 -0.0287978 -0.1099607 -0.076944746 -0.05137892 -0.008174302
0.027200453 0.05137342 -0.086961955 -0.057834927 0.044909656 0.08619444 -0.033150136 0.081029184
-0.028657308 0.0004033709 0.079011925 -0.07176 -0.05332273 -0.019497797 -0.031407915 0.09250236
-0.05283415 -0.021230761 -0.057007942 -0.07994778 -0.051656578 0.092030995 0.042694964 0.03619559
-0.012902472 -0.070819154 0.0021260441 -0.10826198 -0.079989806 -0.05019528 0.075372174 0.06834996
-0.038642887 0.004187582 0.08057196 0.11317039 0.051485993 0.02034162 0.059308346 -0.056307267
0.030551948 -0.055128705 -0.047645554 -0.03162444 0.06760147 0.060974028 -0.07643309 0.031218827
0.07332921 0.0045420947 0.026878957 0.0436782 0.09661485 0.12871663 -0.09600754 -0.053664092
0.056443065 0.0991279 0.09709522 0.097002596 0.021595959 -0.1164144 0.018404463 -0.065603875
-0.09435518 0.09617133 0.08063002 -0.110121615 0.012744127 -0.02996344 -0.030619647 -0.06311502
0.030813294 -0.06905623 0.036790185 0.053187676 0.0809038 0.03185931 -0.14180325 -0.10878129
0.023549648 -0.023880793 -0.1556198 -0.0786599 0.11696927 0.07614936 -0.03151041 -0.012476038
-0.069368094 0.03274819 -0.037147842 -0.047531288 0.018218426 0.011605177 -0.024718823 0.053952258
-0.04089265 0.11811736 0.10201063 -0.03553684 0.010652528 0.011215864 0.016030366 0.021059334
0.022150356 -0.029570604 -0.09367537 0.006228113 -0.14156567 -0.08087876 -0.046586882 -0.05428072
-0.040742923 -0.06849416 -0.0030373863 0.06863055 -0.051838372 0.03528686 0.09694189 -0.0031061189
0.00034220103 -0.004725024 0.012032434 0.055779662 0.07822531 0.04005698 0.05312756 -0.07014683
-0.099920616 -0.058584675 0.06846986 -0.014639233 -0.08535937 -0.105787545 -0.123554796 -0.10156926
-0.0054070526 0.08202542 0.07513699 -0.11326131 0.08194225 -0.08273531 -0.00913666 -0.014758907
0.014115988 0.039384328 -0.11142775 -0.11979446 -0.017072678 -0.009995474 -0.0682652 0.014392059
-0.13888027 -0.061513465 0.056127977 -0.06539382 0.10196855 0.047589578 -0.09491799 0.09970422
0.018228447 -0.015585099 0.13961893 -0.04751202

inference.model.qy_x.model.tcn_block_00.block.conv1d_layer_1.bias f4 [2]
00000000: 4dd5 383e 2e8b febd
0.18050118 -0.1242889

inference.model.qy_x.model.tcn_block_00.block.conv1d_layer_1.weight_g f4 [2, 1, 1]
00000000: 3f92 fb3e 03c2 f03e
0.49135014 0.4702302
