results_gmdgm/multi-1/dtcn/test_rslds_90_y/version_0/best_val_model.pt (torch, 615333 bytes, 354 tensors)

model.qy_x.model.tcn_block_00.conv0.bias f4 [32]
0.0335429 -0.048326425 -0.068789564 0.09417715 -0.055342846 -0.22230376 -0.18290554 -0.15029152
-0.11950028 0.027832069 -0.13495027 -0.010067795 0.116472125 0.01664248 -0.12049397 -0.10098023
-0.06404487 0.066200815 -0.2371085 0.10583619 -0.16374104 -0.11594421 0.11619786 -0.12835877
-0.059267506 -0.030518537 0.052693866 -0.048415095 -0.17590304 0.10316487 -0.07419171 0.0036251966
00000000: 4864 093d eef1 45bd 8be1 8cbd f3df c03d
00000010: 2eaf 62bd 99a3 63be 974b 3bbe 05e6 19be
00000020: 90bc f4bd 1400 e43c 6730 0abe 65f3 24bc
00000030: f088 ee3d cf55 883c 8bc5 f6bd b9ce cebd
00000040: f529 83bd 4b94 873d 92cc 72be a5c0 d83d
00000050: bbab 27be 2874 edbd 25f9 ed3d 7b70 03be
00000060: 7cc2 72bd 0302 fabc 86d5 573d e84e 46bd
00000070: ed1f 34be 1a48 d33d d3f1 97bd b594 6d3b

model.qy_x.model.tcn_block_00.conv0.weight_g f4 [32, 1, 1]
0.6863175 0.6326565 0.610605 0.725131 0.66265786 0.6010667 0.69893235 0.6225328
0.66165173 0.7088831 0.59734446 0.6205594 0.6323224 0.6308668 0.7205665 0.60134226
0.64144576 0.67497295 0.63335407 0.59987175 0.60012263 0.62414056 0.6341698 0.6141366
0.6312957 0.66825354 0.69101644 0.65832263 0.7278802 0.6315972 0.61781913 0.63370913
00000000: 81b2 2f3f c7f5 213f 9c50 1c3f 2fa2 393f
00000010: f2a3 293f 82df 193f 3bed 323f 4f5e 1f3f
00000020: 0262 293f 5d79 353f 91eb 183f fbdc 1e3f
00000030: e1df 213f 7d80 213f 0c77 383f 91f1 193f
00000040: ca35 243f 07cb 2c3f 7e23 223f 3291 193f
00000050: a3a1 193f adc7 1f3f f458 223f 0e38 1d3f
00000060: 989c 213f aa12 2b3f 74e6 303f d587 283f
00000070: 5b56 3a3f 5bb0 213f 6529 1e3f c33a 223f

model.qy_x.model.tcn_block_00.conv0.weight_v f4 [32, 16, 9]
-0.04413382 -0.0035390994 -0.09478398 -0.082002506 -0.05024798 -0.0047792145 -0.031119408 0.023562634
-0.036240272 0.03220161 -0.0063001807 0.008071961 -0.037291147 -0.013315109 0.003172296 0.03234598
0.05555435 0.07006495 0.007941623 0.025238546 0.07316404 0.097355805 0.021710372 0.083969966
0.027662957 0.049683653 0.097579844 -0.08637064 -0.06359312 -0.044301018 -0.065937206 0.01764481
-0.0898052 -0.061497804 -0.070246406 -0.09105667 -0.011114712 0.08698193 0.05307988 0.043125983
0.0012410677 -0.041211374 0.009723128 -0.06964673 -0.056245763 -0.033808287 0.044659868 0.037577122
-0.03897263 -0.017073778 0.029092541 0.056396365 0.014707017 -0.0050125606 0.015778694 -0.07069886
-0.013369126 -0.080853425 -0.08146484 -0.07305713 0.0039546033 0.018690292 -0.02883321 0.05190607
0.07134856 0.03140786 0.050191984 0.06326622 0.08218926 0.1095743 0.00813974 0.04247462
0.03901255 0.07070531 0.07741651 0.08043494 0.03217691 -0.04404076 0.021478282 -0.030971423
-0.051408496 0.06381149 0.053559035 -0.07130814 0.013179341 -0.015282988 -0.017085273 -0.0406272
0.021029621 -0.048383467 0.019411009 0.03218265 0.049719248 0.027964888 -0.06550428 -0.031836305
0.05698853 0.03469836 -0.03529598 -0.08634967 0.017616699 0.0014293302 -0.07313609 -0.05993755
-0.10656873 -0.038575113 -0.08884683 -0.09138922 0.0008776893 0.009488277 -0.038913403 0.025609164
-0.060178347 0.043351453 0.03248517 -0.07160889 -0.025911568 0.014321072 0.011852163 0.008706184
0.012565474 -0.013625943 -0.052396372 0.018603086 -0.08534431 -0.056496333 -0.01601694 -0.036139037
-0.030147754 -0.07345042 -0.050267246 -0.034541316 -0.094424695 -0.052951768 -0.00035198318 0.03941851
0.040306024 0.02732861 0.037099764 0.054930992 0.074598655 0.07108057 0.11546187 0.066798694
-0.093218625 -0.08186356 -0.0047818082 -0.06827192 -0.11078648 -0.13126904 -0.13298494 -0.10827654
-0.04692588 0.04814682 0.033346295 -0.08577684 0.015843846 -0.093918055 -0.056356385 -0.071002245
-0.05212771 -0.04790623 -0.076170266 -0.0706544 -0.022766747 -0.004359772 -0.035354685 0.02262826
-0.05851689 0.00016043361 0.06402678 -0.020684399 0.0654065 0.020646347 -0.06722793 0.036916524
-0.013779279 -0.036864914 0.04705481 -0.070506416 0.015191086 -0.009479806 0.05302035 0.017267946
0.028316384 0.016131418 -0.031100372 -0.030042086 -0.073095515 0.022163386 0.037841365 0.028010627
-0.072976656 -0.020759137 -0.07264802 -0.06151153 -0.06039133 0.0065967 -0.03178397 0.0052197
0.005065925 0.043952093 -0.050799966 -0.044822562 -0.040362004 0.05064228 -0.021499582 0.0025184061
-0.034330923 -0.05004999 -0.060790703 -0.069662586 -0.047326006 -0.081708536 -0.071550615 -0.063796975
0.0061060856 0.010427001 0.08752161 -0.028334882 0.013723855 0.08374914 0.035849355 0.010031436
-0.049902737 0.035525184 -0.058622595 -0.037853215 -0.047720924 -0.03802096 -0.028457772 0.031411268
-0.020025989 0.03998645 -0.023293793 -0.097926825 -0.027036434 -0.09965658 -0.080876045 -0.035882816
-0.032665223 -0.0021254935 -0.066741526 0.037433602 0.07038554 -0.035717458 0.082148 -0.025755202
0.031232553 0.019251132 -0.00049690873 0.054333936 0.072659984 -0.0081741065 -0.03573027 -0.028147573
00000000: aac5 34bd 3cf0 67bb 1a1e c2bd eef0 a7bd
00000010: d3d0 4dbd f59a 9cbb 21ee febc 6d06 c13c
00000020: ae70 14bd d6e5 033d bf71 cebb 4240 043c
00000030: 9abe 18bd 9d27 5abc 4ce6 4f3b 387d 043d
00000040: f58c 633d 367e 8f3d 951d 023c 11c1 ce3c
00000050: 07d7 953d 7b62 c73d f3d9 b13c 72f8 ab3d
00000060: 6d9d e23c 1681 4b3d f1d7 c73d 17e3 b0bd
00000070: 1c3d 82bd fc74 35bd 160a 87bd d98b 903c
00000080: caeb b7bd 1fe5 7bbd 59dd 8fbd eb7b babd
00000090: 7b1a 36bc 9523 b23d 4a6a 593d dfa4 303d
000000a0: 52ab a23a 42cd 28bd c14d 1f3c f2a2 8ebd
000000b0: f561 66bd 8f7a 0abd 44ed 363d 78ea 193d
000000c0: c4a1 1fbd 4fde 8bbc 7b53 ee3c e0ff 663d
000000d0: b3f5 703c 6840 a4bb 5242 813c 90ca 90bd
000000e0: 2e0a 5bbc 7b96 a5bd 0ad7 a6bd fa9e 95bd
000000f0: 9e95 813b 621c 993c a033 ecbc 769b 543d
00000100: 321f 923d 87a5 003d 1c96 4d3d b891 813d
00000110: d852 a83d 7e68 e03d 8b5c 053c def9 2d3d
00000120: a0cb 1f3d f2cd 903d 8c8c 9e3d 13bb a43d
00000130: f0cb 033d 1564 34bd 39f3 af3c c8b7 fdbc
00000140: b791 52bd 99af 823d b860 5b3d 010a 92bd
00000150: 2aee 573c 7f65 7abc 6af6 8bbc b568 26bd
00000160: 5046 ac3c be2d 46bd d603 9f3c f4d1 033d
00000170: 69a6 4b3d 9f16 e53c 1c27 86bd c966 02bd
00000180: ce6c 693d de1f 0e3d 8492 10bd 19d8 b0bd
00000190: e550 903c 5d58 bb3a 60c8 95bd 1481 75bd
000001a0: b540 dabd f000 1ebd 54f5 b5bd 452a bbbd
000001b0: bb14 663a b874 1b3c a963 1fbd 4fca d13c
000001c0: 927d 76bd 4b91 313d 2b0f 053d afa7 92bd
000001d0: 7f44 d4bc eea2 6a3c 932f 423c 62a4 0e3c
000001e0: 6bdf 4d3c 593f 5fbc 949d 56bd 8065 983c
000001f0: ffc8 aebd b368 67bd f535 83bc 8706 14bd
00000200: 6cf8 f6bc 2c6d 96bd 07e5 4dbd 327b 0dbd
00000210: bc61 c1bd f4e3 58bd 628a b8b9 4e75 213d
00000220: ee17 253d 40e0 df3c ecf5 173d 52ff 603d
00000230: 2ec7 983d b192 913d 4677 ec3d c1cd 883d
00000240: 68e9 bebd 15a8 a7bd b7b0 9cbb 26d2 8bbd
00000250: 06e4 e2bd 646b 06be 342d 08be 17c0 ddbd
00000260: 5a35 40bd 9a35 453d 2096 083d c5ab afbd
00000270: f4ca 813c 1c58 c0bd f4d5 66bd a069 91bd
00000280: de83 55bd 5339 44bd 28ff 9bbd 41b3 90bd
00000290: 5481 babc 6bdc 8ebb 13d0 10bd e75e b93c
000002a0: 68af 6fbd 123a 2839 7920 833d 5472 a9bc
000002b0: d8f3 853d 8722 a93c ccae 89bd c835 173d
000002c0: 7cc2 61bc aaff 16bd 8bbc 403d ab65 90bd
000002d0: 08e4 783c 3051 1bbc de2b 593d 8275 8d3c
000002e0: c3f7 e73c 0926 843c 35c6 febc d21a f6bc
000002f0: 1ab3 95bd fd8f b53c 8cff 1a3d 8b76 e53c
00000300: c974 95bd 110f aabc 7cc8 94bd 84f3 7bbd
00000310: e65c 77bd 2129 d83b e82f 02bd 040a ab3b
00000320: 0f00 a63b 1c07 343d a013 50bd dd97 37bd
00000330: a152 25bd 486e 4f3d e41f b0bc d80b 253b
00000340: 959e 0cbd 3801 4dbd acff 78bd 42ab 8ebd
00000350: ead8 41bd ce56 a7bd 2189 92bd fda7 82bd
00000360: 8f15 c83b 03d6 2a3c 883e b33d 8e1e e8bc
00000370: 05da 603c ab84 ab3d c6d6 123d e45a 243c
00000380: d066 4cbd db82 113d 3f1e 70bd f90b 1bbd
00000390: 0477 43bd debb 1bbd 4620 e9bc 1aa9 003d
000003a0: 8b0d a4bc d5c8 233d a0d2 bebc dc8d c8bd
000003b0: 837b ddbc c018 ccbd 57a2 a5bd dcf9 12bd
000003c0: f8cb 05bd dd4b 0bbb c8af 88bd fa53 193d
000003d0: 4b26 903d 784c 12bd 363d a83d 93fc d2bc
000003e0: 69db ff3c 8db4 9d3c fb42 02ba 438d 5e3d
000003f0: c2ce 943d b0ec 05bc e759 12bd bd95 e6bc

model.qy_x.model.tcn_block_00.conv1.bias f4 [32]
0.08489809 -0.08068143 -0.011022392 0.037249684 0.00088717445 0.04135295 -0.07979661 0.1545845
-0.04111829 -0.012013457 -0.101410754 -0.013449491 0.024346923 0.015279135 0.025895765 -0.024516962
0.07813921 -0.14666878 -0.051157452 0.014236729 0.057410106 0.066142075 -1.8690973e-05 0.06317537
0.08420896 -0.011769056 -0.042393632 -0.09767445 0.14353587 0.052580763 0.08286599 -0.03287201
00000000: 0ddf ad3d 4e3c a5bd 4397 34bc 2093 183d
00000010: 4591 683a b661 293d 686c a3bd 664b 1e3e
00000020: a76b 28bd 17d4 44bc 71b0 cfbd 415b 5cbc
00000030: 3373 c73c 5655 7a3c 5b23 d43c ccd7 c8bc
00000040: 7307 a03d 5730 16be 7a8a 51bd 2b41 693c
00000050: dc26 6b3d 7f75 873d 8fca 9cb7 1762 813d
00000060: bf75 ac3d 00d3 40bc f2a4 2dbd 8b09 c8bd
00000070: 11fb 123e ed5e 573d a5b5 a93d cda4 06bd

model.qy_x.model.tcn_block_00.conv1.weight_g f4 [32, 1, 1]
0.6233802 0.6857484 0.67732614 0.64052653 0.66214925 0.7454298 0.727745 0.6164925
0.6892799 0.7498651 0.68380517 0.7317633 0.6126357 0.63899916 0.70800364 0.68073
0.60650945 0.68480307 0.68575144 0.6793247 0.6551019 0.6615875 0.61685514 0.66702294
0.618835 0.7258348 0.7040107 0.71879935 0.690664 0.71818656 0.6618029 0.6904333
00000000: d895 1f3f 358d 2f3f 3f65 2d3f 8cf9 233f
00000010: 9d82 293f 7dd4 3e3f 7f4d 3a3f 74d2 1d3f
00000020: a674 303f 29f7 3f3f db0d 2f3f d754 3b3f
00000030: b1d5 1c3f 7395 233f ba3f 353f 5244 2e3f
00000040: 3444 1b3f 414f 2f3f 688d 2f3f 39e8 2d3f
00000050: c2b4 273f cc5d 293f 38ea 1d3f 04c2 2a3f
00000060: f86b 1e3f 4fd0 393f 0c3a 343f 3c03 383f
00000070: 5bcf 303f 13db 373f ea6b 293f 3dc0 303f

model.qy_x.model.tcn_block_00.conv1.weight_v f4 [32, 32, 9]
-0.0063044243 -0.011240466 0.012609079 -0.004810843 0.003141456 -0.0044570626 0.007701864 -0.0015021557
0.064832024 0.079884484 0.054346573 0.035258006 0.014205848 -0.022358058 0.016851766 -0.013267994
-0.018031107 0.006492686 -0.043630008 -0.030870521 -0.07128732 -0.0127198845 -0.0823822 -0.06613794
-0.0641853 -0.047212936 -0.034314487 0.042641293 0.057667196 0.034879442 0.022314785 0.033302076
0.0530892 -0.00049251923 0.017485326 0.087265566 0.037218355 0.018755943 0.022147955 0.02763726
0.03208709 -0.013538806 0.0022070059 -0.030696772 -0.026118562 -0.01670668 -0.006694411 0.040918496
0.018698929 0.004727792 0.0071722255 0.02725208 -0.017943062 -0.020317279 -0.025758563 -0.0446317
-0.008222925 -0.045400534 -0.032459725 -0.04511022 0.0031404058 -0.08134852 -0.018999469 0.012961088
-0.033129096 0.040487185 -0.007409799 -0.037911728 -0.0049765343 0.026199237 -0.044718005 -0.002567359
0.047033306 0.0046018115 0.02732558 0.0042361976 -0.00867589 0.062079687 -0.009084539 0.026792346
0.04192697 -0.040327962 0.01855075 -0.03460832 0.053555083 0.030882582 -0.0021464347 -0.044909693
-0.01712978 -0.017337073 -0.037049204 -0.013585291 -0.051147368 -0.04731852 0.00016118507 0.04730332
0.00670082 0.023378335 -0.016026275 -0.021521004 -0.008902363 -0.029802421 0.02462016 0.023473945
-0.048576176 0.0060485182 -0.031401612 -0.041553374 0.010148516 -0.002384382 -0.019389825 0.01584253
0.036044706 0.0032847694 0.012099482 0.024171188 0.0021265137 0.06179171 0.07588714 0.01976857
0.026587645 0.063878685 0.06469475 -0.017043993 -0.0013982941 -0.027793445 -0.012858658 -0.018113716
-0.062043697 -0.043362584 -0.044536058 -0.07761118 -0.034179825 -0.02690009 -0.04459782 0.028124785
0.0344476 0.058921453 0.06978767 0.040159214 0.06430583 0.038477283 0.09113205 0.044744536
-0.070121534 -0.0030673933 -0.00696003 -0.013939224 -0.0032531258 -0.017885575 -0.00398291 0.002340606
-0.043593064 0.06433767 0.06348962 0.04031378 -0.00016739852 0.044782687 0.0693919 0.021088598
0.10370353 0.08139556 0.025974447 -0.00062433316 -0.013988568 0.0077546635 0.024642244 -0.0002795743
0.058329172 -0.011152526 -0.012816527 0.06229319 0.11925413 0.043008067 0.10419062 0.07467554
0.03690467 0.06559003 0.06151086 0.010396838 -0.040673822 0.01680485 -0.0014952412 -0.05520151
-0.0456226 -0.006741074 -0.011858597 -0.03569801 -0.07311161 -0.044229947 -0.014414941 0.013455189
-0.006743259 -0.040498324 -0.013270385 0.042029962 -0.033455368 -0.02738143 -0.023672184 0.0020847567
-0.06532563 -0.051759202 -0.01423199 0.048406392 -0.019849835 0.010238719 0.040083252 -0.029565662
-0.022480328 -0.03984698 -0.003077663 0.041787468 0.013752098 0.023375811 -0.023434816 -0.038069952
-0.036754187 0.0064735394 -0.022351388 -0.054230165 -0.024630496 0.015191027 0.042982385 -0.0185543
-0.060034305 -0.01507056 -0.016693188 0.042350944 0.060536906 0.044547237 0.05190996 0.07176751
0.08026401 0.08174922 0.017817825 0.004779637 0.017749732 -0.038371652 -0.03253608 0.018364362
0.018087853 -0.031088995 -0.021377258 0.008354795 0.084799916 0.06869191 -0.00055904844 0.026422013
0.00089945446 0.048994392 -0.04613892 -0.042303685 -0.048966695 0.022093566 -0.020377314 0.029123062
00000000: 5895 cebb ee29 38bc 4f96 4e3c 47a4 9dbb
00000010: e3e0 4d3b 8d0c 92bb eb5f fc3b fbe3 c4ba
00000020: a7c6 843d 7a9a a33d 839a 5e3d b36a 103d
00000030: a5bf 683c 3f28 b7bc b70c 8a3c 0062 59bc
00000040: f9b5 93bc 99c0 d43b 61b5 32bd 2de4 fcbc
00000050: 16ff 91bd 1067 50bc 00b8 a8bd 5473 87bd
00000060: 9573 83bd 5a62 41bd 598d 0cbd a3a8 2e3d
00000070: 7034 6c3d bfdd 0e3d 7fcd b63c c267 083d
00000080: 1074 593d 681c 01ba 633d 8f3c 4ab8 b23d
00000090: 4672 183d 10a6 993c a16f b53c 8967 e23c
000000a0: c16d 033d ded1 5dbc 6aa3 103b cc77 fbbc
000000b0: 98f6 d5bc 73dc 88bc ca5c dbbb 279a 273d
000000c0: 7f2e 993c 98eb 9a3b fd04 eb3b c13f df3c
000000d0: 54fd 92bc 6c70 a6bc 9f03 d3bc bbcf 36bd
000000e0: 72b9 06bc e9f5 39bd 7df4 04bd 7ec5 38bd
000000f0: 44cf 4d3b 0e9a a6bd c6a4 9bbc be5a 543c
00000100: 60b2 07bd e4d5 253d e6cd f2bb 5449 1bbd
00000110: 3212 a3bb c89f d63c 3a2a 37bd 2341 28bb
00000120: ffa5 403d cbca 963b e5d9 df3c cdcf 8a3b
00000130: 5225 0ebc 4547 7e3d 51d7 14bc 9f7b db3c
00000140: 9dbb 2b3d ef2e 25bd bef7 973c 74c1 0dbd
00000150: 935c 5b3d 78fd fc3c 33ab 0cbb 3af3 37bd
00000160: c153 8cbc 7a06 8ebc e8c0 17bd d794 5ebc
00000170: e77f 51bd 10d1 41bd ca03 2939 20c1 413d
00000180: 8d92 db3b ec83 bf3c 8949 83bc d14c b0bc
00000190: 37db 11bc 3524 f4bc 38b0 c93c 6e4c c03c
000001a0: d0f7 46bd a632 c63b fa9e 00bd df33 2abd
000001b0: f645 263c 4b43 1cbb 69d7 9ebc 32c8 813c
000001c0: 9da3 133d 4945 573b e83c 463c a802 c63c
000001d0: fb5c 0b3b 4e19 7d3d b86a 9b3d b2f1 a13c
000001e0: 55ce d93c d4d2 823d ae7e 843d d89f 8bbc
000001f0: f746 b7ba 14af e3bc 1fad 52bc 3763 94bc
00000200: 8821 7ebd f79c 31bd 716b 36bd 9cf2 9ebd
00000210: 2500 0cbd 945d dcbc 34ac 36bd f365 e63c
00000220: ed18 0d3d 9f57 713d d7ec 8e3d fd7d 243d
00000230: c6b2 833d 5b9a 1d3d 71a3 ba3d 0c46 373d
00000240: e19b 8fbd 5206 49bb f710 e4bb 5861 64bc
00000250: 6532 55bb c584 92bc 1283 82bb da64 193b
00000260: a48e 32bd 78c3 833d d906 823d 1020 253d
00000270: b387 2fb9 0d6e 373d 571d 8e3d ffc1 ac3c
00000280: 8462 d43d b7b2 a63d 5dc8 d43c 4aaa 23ba
00000290: 4f30 65bc d51a fe3b 88de c93c d493 92b9
000002a0: 92ea 6e3d 16b9 36bc 69fc 51bc 2527 7f3d
000002b0: 823b f43d 3a29 303d e461 d53d 7def 983d
000002c0: 5a29 173d 1154 863d d0f2 7b3d 8057 2a3c
000002d0: 9899 26bd 53aa 893c f8fb c3ba fb1a 62bd
000002e0: c3de 3abd 3ae4 dcbb 904a 42bc 1438 12bd
000002f0: 8abb 95bd 762a 35bd a52c 6cbc 2773 5c3c
00000300: 8ef6 dcbb 92e1 25bd 076c 59bc 9c27 2c3d
00000310: 7f08 09bd 054f e0bc 2bec c1bc 6aa0 083b
00000320: 72c9 85bd 7501 54bd 4b2d 69bc c845 463d
00000330: 1f9c a2bc 4dc0 273c 562e 243d b033 f2bc
00000340: aa28 b8bc 9636 23bd 9eb2 49bb 5629 2b3d
00000350: 7b50 613c a17e bf3c 5ffa bfbc 3def 1bbd
00000360: 8f8b 16bd fc1f d43b 421a b7bc 7320 5ebd
00000370: e5c5 c9bc c9e3 783c 4c0e 303d 30ff 97bc
00000380: 88e6 75bd 83ea 76bc 27c0 88bc 2f78 2d3d
00000390: 8cf5 773d 2a77 363d 8a9f 543d d8fa 923d
000003a0: 7561 a43d 236c a73d b0f6 913c 809e 9c3b
000003b0: e367 913c 982b 1dbd 8d44 05bd dc70 963c
000003c0: fa2c 943c 59ae febc 5c1f afbc 8de2 083c
000003d0: 94ab ad3d 58ae 8c3d 1b8d 12ba fa72 d83c
000003e0: 5ec9 6b3a 58ae 483d 2afc 3cbd a146 2dbd
000003f0: 4d91 48bd 91fd b43c 53ee a6bc 7d93 ee3c

model.qy_x.model.tcn_block_00.block.conv1d_layer_0.bias f4 [32]
0.0335429 -0.048326425 -0.068789564 0.09417715 -0.055342846 -0.22230376 -0.18290554 -0.15029152
-0.11950028 0.027832069 -0.13495027 -0.010067795 0.116472125 0.01664248 -0.12049397 -0.10098023
-0.06404487 0.066200815 -0.2371085 0.10583619 -0.16374104 -0.11594421 0.11619786 -0.12835877
-0.059267506 -0.030518537 0.052693866 -0.048415095 -0.17590304 0.10316487 -0.07419171 0.0036251966
00000000: 4864 093d eef1 45bd 8be1 8cbd f3df c03d
00000010: 2eaf 62bd 99a3 63be 974b 3bbe 05e6 19be
00000020: 90bc f4bd 1400 e43c 6730 0abe 65f3 24bc
00000030: f088 ee3d cf55 883c 8bc5 f6bd b9ce cebd
00000040: f529 83bd 4b94 873d 92cc 72be a5c0 d83d
00000050: bbab 27be 2874 edbd 25f9 ed3d 7b70 03be
00000060: 7cc2 72bd 0302 fabc 86d5 573d e84e 46bd
00000070: ed1f 34be 1a48 d33d d3f1 97bd b594 6d3b

model.qy_x.model.tcn_block_00.block.conv1d_layer_0.weight_g f4 [32, 1, 1]
0.6863175 0.6326565 0.610605 0.725131 0.66265786 0.6010667 0.69893235 0.6225328
0.66165173 0.7088831 0.59734446 0.6205594 0.6323224 0.6308668 0.7205665 0.60134226
0.64144576 0.67497295 0.63335407 0.59987175 0.60012263 0.62414056 0.6341698 0.6141366
0.6312957 0.66825354 0.69101644 0.65832263 0.7278802 0.6315972 0.61781913 0.63370913
00000000: 81b2 2f3f c7f5 213f 9c50 1c3f 2fa2 393f
00000010: f2a3 293f 82df 193f 3bed 323f 4f5e 1f3f
00000020: 0262 293f 5d79 353f 91eb 183f fbdc 1e3f
00000030: e1df 213f 7d80 213f 0c77 383f 91f1 193f
00000040: ca35 243f 07cb 2c3f 7e23 223f 3291 193f
00000050: a3a1 193f adc7 1f3f f458 223f 0e38 1d3f
00000060: 989c 213f aa12 2b3f 74e6 303f d587 283f
00000070: 5b56 3a3f 5bb0 213f 6529 1e3f c33a 223f

model.qy_x.model.tcn_block_00.block.conv1d_layer_0.weight_v f4 [32, 16, 9]
-0.04413382 -0.0035390994 -0.09478398 -0.082002506 -0.05024798 -0.0047792145 -0.031119408 0.023562634
-0.036240272 0.03220161 -0.0063001807 0.008071961 -0.037291147 -0.013315109 0.003172296 0.03234598
0.05555435 0.07006495 0.007941623 0.025238546 0.07316404 0.097355805 0.021710372 0.083969966
0.027662957 0.049683653 0.097579844 -0.08637064 -0.06359312 -0.044301018 -0.065937206 0.01764481
-0.0898052 -0.061497804 -0.070246406 -0.09105667 -0.011114712 0.08698193 0.05307988 0.043125983
0.0012410677 -0.041211374 0.009723128 -0.06964673 -0.056245763 -0.033808287 0.044659868 0.037577122
-0.03897263 -0.017073778 0.029092541 0.056396365 0.014707017 -0.0050125606 0.015778694 -0.07069886
-0.013369126 -0.080853425 -0.08146484 -0.07305713 0.0039546033 0.018690292 -0.02883321 0.05190607
0.07134856 0.03140786 0.050191984 0.06326622 0.08218926 0.1095743 0.00813974 0.04247462
0.03901255 0.07070531 0.07741651 0.08043494 0.03217691 -0.04404076 0.021478282 -0.030971423
-0.051408496 0.06381149 0.053559035 -0.07130814 0.013179341 -0.015282988 -0.017085273 -0.0406272
0.021029621 -0.048383467 0.019411009 0.03218265 0.049719248 0.027964888 -0.06550428 -0.031836305
0.05698853 0.03469836 -0.03529598 -0.08634967 0.017616699 0.0014293302 -0.07313609 -0.05993755
-0.10656873 -0.038575113 -0.08884683 -0.09138922 0.0008776893 0.009488277 -0.038913403 0.025609164
-0.060178347 0.043351453 0.03248517 -0.07160889 -0.025911568 0.014321072 0.011852163 0.008706184
0.012565474 -0.013625943 -0.052396372 0.018603086 -0.08534431 -0.056496333 -0.01601694 -0.036139037
-0.030147754 -0.07345042 -0.050267246 -0.034541316 -0.094424695 -0.052951768 -0.00035198318 0.03941851
0.040306024 0.02732861 0.037099764 0.054930992 0.074598655 0.07108057 0.11546187 0.066798694
-0.093218625 -0.08186356 -0.0047818082 -0.06827192 -0.11078648 -0.13126904 -0.13298494 -0.10827654
-0.04692588 0.04814682 0.033346295 -0.08577684 0.015843846 -0.093918055 -0.056356385 -0.071002245
-0.05212771 -0.04790623 -0.076170266 -0.0706544 -0.022766747 -0.004359772 -0.035354685 0.02262826
-0.05851689 0.00016043361 0.06402678 -0.020684399 0.0654065 0.020646347 -0.06722793 0.036916524
-0.013779279 -0.036864914 0.04705481 -0.070506416 0.015191086 -0.009479806 0.05302035 0.017267946
0.028316384 0.016131418 -0.031100372 -0.030042086 -0.073095515 0.022163386 0.037841365 0.028010627
-0.072976656 -0.020759137 -0.07264802 -0.06151153 -0.06039133 0.0065967 -0.03178397 0.0052197
0.005065925 0.043952093 -0.050799966 -0.044822562 -0.040362004 0.05064228 -0.021499582 0.0025184061
-0.034330923 -0.05004999 -0.060790703 -0.069662586 -0.047326006 -0.081708536 -0.071550615 -0.063796975
0.0061060856 0.010427001 0.08752161 -0.028334882 0.013723855 0.08374914 0.035849355 0.010031436
-0.049902737 0.035525184 -0.058622595 -0.037853215 -0.047720924 -0.03802096 -0.028457772 0.031411268
-0.020025989 0.03998645 -0.023293793 -0.097926825 -0.027036434 -0.09965658 -0.080876045 -0.035882816
-0.032665223 -0.0021254935 -0.066741526 0.037433602 0.07038554 -0.035717458 0.082148 -0.025755202
0.031232553 0.019251132 -0.00049690873 0.054333936 0.072659984 -0.0081741065 -0.03573027 -0.028147573
00000000: aac5 34bd 3cf0 67bb 1a1e c2bd eef0 a7bd
00000010: d3d0 4dbd f59a 9cbb 21ee febc 6d06 c13c
00000020: ae70 14bd d6e5 033d bf71 cebb 4240 043c
00000030: 9abe 18bd 9d27 5abc 4ce6 4f3b 387d 043d
00000040: f58c 633d 367e 8f3d 951d 023c 11c1 ce3c
00000050: 07d7 953d 7b62 c73d f3d9 b13c 72f8 ab3d
00000060: 6d9d e23c 1681 4b3d f1d7 c73d 17e3 b0bd
00000070: 1c3d 82bd fc74 35bd 160a 87bd d98b 903c
00000080: caeb b7bd 1fe5 7bbd 59dd 8fbd eb7b babd
00000090: 7b1a 36bc 9523 b23d 4a6a 593d dfa4 303d
000000a0: 52ab a23a 42cd 28bd c14d 1f3c f2a2 8ebd
000000b0: f561 66bd 8f7a 0abd 44ed 363d 78ea 193d
000000c0: c4a1 1fbd 4fde 8bbc 7b53 ee3c e0ff 663d
000000d0: b3f5 703c 6840 a4bb 5242 813c 90ca 90bd
000000e0: 2e0a 5bbc 7b96 a5bd 0ad7 a6bd fa9e 95bd
000000f0: 9e95 813b 621c 993c a033 ecbc 769b 543d
00000100: 321f 923d 87a5 003d 1c96 4d3d b891 813d
00000110: d852 a83d 7e68 e03d 8b5c 053c def9 2d3d
00000120: a0cb 1f3d f2cd 903d 8c8c 9e3d 13bb a43d
00000130: f0cb 033d 1564 34bd 39f3 af3c c8b7 fdbc
00000140: b791 52bd 99af 823d b860 5b3d 010a 92bd
00000150: 2aee 573c 7f65 7abc 6af6 8bbc b568 26bd
00000160: 5046 ac3c be2d 46bd d603 9f3c f4d1 033d
00000170: 69a6 4b3d 9f16 e53c 1c27 86bd c966 02bd
00000180: ce6c 693d de1f 0e3d 8492 10bd 19d8 b0bd
00000190: e550 903c 5d58 bb3a 60c8 95bd 1481 75bd
000001a0: b540 dabd f000 1ebd 54f5 b5bd 452a bbbd
000001b0: bb14 663a b874 1b3c a963 1fbd 4fca d13c
000001c0: 927d 76bd 4b91 313d 2b0f 053d afa7 92bd
000001d0: 7f44 d4bc eea2 6a3c 932f 423c 62a4 0e3c
000001e0: 6bdf 4d3c 593f 5fbc 949d 56bd 8065 983c
000001f0: ffc8 aebd b368 67bd f535 83bc 8706 14bd
00000200: 6cf8 f6bc 2c6d 96bd 07e5 4dbd 327b 0dbd
00000210: bc61 c1bd f4e3 58bd 628a b8b9 4e75 213d
00000220: ee17 253d 40e0 df3c ecf5 173d 52ff 603d
00000230: 2ec7 983d b192 913d 4677 ec3d c1cd 883d
00000240: 68e9 bebd 15a8 a7bd b7b0 9cbb 26d2 8bbd
00000250: 06e4 e2bd 646b 06be 342d 08be 17c0 ddbd
00000260: 5a35 40bd 9a35 453d 2096 083d c5ab afbd
00000270: f4ca 813c 1c58 c0bd f4d5 66bd a069 91bd
00000280: de83 55bd 5339 44bd 28ff 9bbd 41b3 90bd
00000290: 5481 babc 6bdc 8ebb 13d0 10bd e75e b93c
000002a0: 68af 6fbd 123a 2839 7920 833d 5472 a9bc
000002b0: d8f3 853d 8722 a93c ccae 89bd c835 173d
000002c0: 7cc2 61bc aaff 16bd 8bbc 403d ab65 90bd
000002d0: 08e4 783c 3051 1bbc de2b 593d 8275 8d3c
000002e0: c3f7 e73c 0926 843c 35c6 febc d21a f6bc
000002f0: 1ab3 95bd fd8f b53c 8cff 1a3d 8b76 e53c
00000300: c974 95bd 110f aabc 7cc8 94bd 84f3 7bbd
00000310: e65c 77bd 2129 d83b e82f 02bd 040a ab3b
00000320: 0f00 a63b 1c07 343d a013 50bd dd97 37bd
00000330: a152 25bd 486e 4f3d e41f b0bc d80b 253b
00000340: 959e 0cbd 3801 4dbd acff 78bd 42ab 8ebd
00000350: ead8 41bd ce56 a7bd 2189 92bd fda7 82bd
00000360: 8f15 c83b 03d6 2a3c 883e b33d 8e1e e8bc
00000370: 05da 603c ab84 ab3d c6d6 123d e45a 243c
00000380: d066 4cbd db82 113d 3f1e 70bd f90b 1bbd
00000390: 0477 43bd debb 1bbd 4620 e9bc 1aa9 003d
000003a0: 8b0d a4bc d5c8 233d a0d2 bebc dc8d c8bd
000003b0: 837b ddbc c018 ccbd 57a2 a5bd dcf9 12bd
000003c0: f8cb 05bd dd4b 0bbb c8af 88bd fa53 193d
000003d0: 4b26 903d 784c 12bd 363d a83d 93fc d2bc
000003e0: 69db ff3c 8db4 9d3c fb42 02ba 438d 5e3d
000003f0: c2ce 943d b0ec 05bc e759 12bd bd95 e6bc

model.qy_x.model.tcn_block_00.block.conv1d_layer_1.bias f4 [32]
0.08489809 -0.08068143 -0.011022392 0.037249684 0.00088717445 0.04135295 -0.07979661 0.1545845
-0.04111829 -0.012013457 -0.101410754 -0.013449491 0.024346923 0.015279135 0.025895765 -0.024516962
0.07813921 -0.14666878 -0.051157452 0.014236729 0.057410106 0.066142075 -1.8690973e-05 0.06317537
0.08420896 -0.011769056 -0.042393632 -0.09767445 0.14353587 0.052580763 0.08286599 -0.03287201
00000000: 0ddf ad3d 4e3c a5bd 4397 34bc 2093 183d
00000010: 4591 683a b661 293d 686c a3bd 664b 1e3e
00000020: a76b 28bd 17d4 44bc 71b0 cfbd 415b 5cbc
00000030: 3373 c73c 5655 7a3c 5b23 d43c ccd7 c8bc
00000040: 7307 a03d 5730 16be 7a8a 51bd 2b41 693c
00000050: dc26 6b3d 7f75 873d 8fca 9cb7 1762 813d
00000060: bf75 ac3d 00d3 40bc f2a4 2dbd 8b09 c8bd
00000070: 11fb 123e ed5e 573d a5b5 a93d cda4 06bd

model.qy_x.model.tcn_block_00.block.conv1d_layer_1.weight_g f4 [32, 1, 1]
0.6233802 0.6857484 0.67732614 0.64052653 0.66214925 0.7454298 0.727745 0.6164925
0.6892799 0.7498651 0.68380517 0.7317633 0.6126357 0.63899916 0.70800364 0.68073
0.60650945 0.68480307 0.68575144 0.6793247 0.6551019 0.6615875 0.61685514 0.66702294
0.618835 0.7258348 0.7040107 0.71879935 0.690664 0.71818656 0.6618029 0.6904333
00000000: d895 1f3f 358d 2f3f 3f65 2d3f 8cf9 233f
00000010: 9d82 293f 7dd4 3e3f 7f4d 3a3f 74d2 1d3f
00000020: a674 303f 29f7 3f3f db0d 2f3f d754 3b3f
00000030: b1d5 1c3f 7395 233f ba3f 353f 5244 2e3f
00000040: 3444 1b3f 414f 2f3f 688d 2f3f 39e8 2d3f
00000050: c2b4 273f cc5d 293f 38ea 1d3f 04c2 2a3f
00000060: f86b 1e3f 4fd0 393f 0c3a 343f 3c03 383f
00000070: 5bcf 303f 13db 373f ea6b 293f 3dc0 303f

model.qy_x.model.tcn_block_00.block.conv1d_layer_1.weight_v f4 [32, 32, 9]
-0.0063044243 -0.011240466 0.012609079 -0.004810843 0.003141456 -0.0044570626 0.007701864 -0.0015021557
0.064832024 0.079884484 0.054346573 0.035258006 0.014205848 -0.022358058 0.016851766 -0.013267994
-0.018031107 0.006492686 -0.043630008 -0.030870521 -0.07128732 -0.0127198845 -0.0823822 -0.06613794
-0.0641853 -0.047212936 -0.034314487 0.042641293 0.057667196 0.034879442 0.022314785 0.033302076
0.0530892 -0.00049251923 0.017485326 0.087265566 0.037218355 0.018755943 0.022147955 0.02763726
0.03208709 -0.013538806 0.0022070059 -0.030696772 -0.026118562 -0.01670668 -0.006694411 0.040918496
0.018698929 0.004727792 0.0071722255 0.02725208 -0.017943062 -0.020317279 -0.025758563 -0.0446317
-0.008222925 -0.045400534 -0.032459725 -0.04511022 0.0031404058 -0.08134852 -0.018999469 0.012961088
-0.033129096 0.040487185 -0.007409799 -0.037911728 -0.0049765343 0.026199237 -0.044718005 -0.002567359
0.047033306 0.0046018115 0.02732558 0.0042361976 -0.00867589 0.062079687 -0.009084539 0.026792346
0.04192697 -0.040327962 0.01855075 -0.03460832 0.053555083 0.030882582 -0.0021464347 -0.044909693
-0.01712978 -0.017337073 -0.037049204 -0.013585291 -0.051147368 -0.04731852 0.00016118507 0.04730332
0.00670082 0.023378335 -0.016026275 -0.021521004 -0.008902363 -0.029802421 0.02462016 0.023473945
-0.048576176 0.0060485182 -0.031401612 -0.041553374 0.010148516 -0.002384382 -0.019389825 0.01584253
0.036044706 0.0032847694 0.012099482 0.024171188 0.0021265137 0.06179171 0.07588714 0.01976857
0.026587645 0.063878685 0.06469475 -0.017043993 -0.0013982941 -0.027793445 -0.012858658 -0.018113716
-0.062043697 -0.043362584 -0.044536058 -0.07761118 -0.034179825 -0.02690009 -0.04459782 0.028124785
0.0344476 0.058921453 0.06978767 0.040159214 0.06430583 0.038477283 0.09113205 0.044744536
-0.070121534 -0.0030673933 -0.00696003 -0.013939224 -0.0032531258 -0.017885575 -0.00398291 0.002340606
-0.043593064 0.06433767 0.06348962 0.04031378 -0.00016739852 0.044782687 0.0693919 0.021088598
0.10370353 0.08139556 0.025974447 -0.00062433316 -0.013988568 0.0077546635 0.024642244 -0.0002795743
0.058329172 -0.011152526 -0.012816527 0.06229319 0.11925413 0.043008067 0.10419062 0.07467554
0.03690467 0.06559003 0.06151086 0.010396838 -0.040673822 0.01680485 -0.0014952412 -0.05520151
-0.0456226 -0.006741074 -0.011858597 -0.03569801 -0.07311161 -0.044229947 -0.014414941 0.013455189
-0.006743259 -0.040498324 -0.013270385 0.042029962 -0.033455368 -0.02738143 -0.023672184 0.0020847567
-0.06532563 -0.051759202 -0.01423199 0.048406392 -0.019849835 0.010238719 0.040083252 -0.029565662
-0.022480328 -0.03984698 -0.003077663 0.041787468 0.013752098 0.023375811 -0.023434816 -0.038069952
-0.036754187 0.0064735394 -0.022351388 -0.054230165 -0.024630496 0.015191027 0.042982385 -0.0185543
-0.060034305 -0.01507056 -0.016693188 0.042350944 0.060536906 0.044547237 0.05190996 0.07176751
0.08026401 0.08174922 0.017817825 0.004779637 0.017749732 -0.038371652 -0.03253608 0.018364362
0.018087853 -0.031088995 -0.021377258 0.008354795 0.084799916 0.06869191 -0.00055904844 0.026422013
0.00089945446 0.048994392 -0.04613892 -0.042303685 -0.048966695 0.022093566 -0.020377314 0.029123062
00000000: 5895 cebb ee29 38bc 4f96 4e3c 47a4 9dbb
00000010: e3e0 4d3b 8d0c 92bb eb5f fc3b fbe3 c4ba
00000020: a7c6 843d 7a9a a33d 839a 5e3d b36a 103d
00000030: a5bf 683c 3f28 b7bc b70c 8a3c 0062 59bc
00000040: f9b5 93bc 99c0 d43b 61b5 32bd 2de4 fcbc
00000050: 16ff 91bd 1067 50bc 00b8 a8bd 5473 87bd
00000060: 9573 83bd 5a62 41bd 598d 0cbd a3a8 2e3d
00000070: 7034 6c3d bfdd 0e3d 7fcd b63c c267 083d
00000080: 1074 593d 681c 01ba 633d 8f3c 4ab8 b23d
00000090: 4672 183d 10a6 993c a16f b53c 8967 e23c
000000a0: c16d 033d ded1 5dbc 6aa3 103b cc77 fbbc
000000b0: 98f6 d5bc 73dc 88bc ca5c dbbb 279a 273d
000000c0: 7f2e 993c 98eb 9a3b fd04 eb3b c13f df3c
000000d0: 54fd 92bc 6c70 a6bc 9f03 d3bc bbcf 36bd
000000e0: 72b9 06bc e9f5 39bd 7df4 04bd 7ec5 38bd
000000f0: 44cf 4d3b 0e9a a6bd c6a4 9bbc be5a 543c
00000100: 60b2 07bd e4d5 253d e6cd f2bb 5449 1bbd
00000110: 3212 a3bb c89f d63c 3a2a 37bd 2341 28bb
00000120: ffa5 403d cbca 963b e5d9 df3c cdcf 8a3b
00000130: 5225 0ebc 4547 7e3d 51d7 14bc 9f7b db3c
00000140: 9dbb 2b3d ef2e 25bd bef7 973c 74c1 0dbd
00000150: 935c 5b3d 78fd fc3c 33ab 0cbb 3af3 37bd
00000160: c153 8cbc 7a06 8ebc e8c0 17bd d794 5ebc
00000170: e77f 51bd 10d1 41bd ca03 2939 20c1 413d
00000180: 8d92 db3b ec83 bf3c 8949 83bc d14c b0bc
00000190: 37db 11bc 3524 f4bc 38b0 c93c 6e4c c03c
000001a0: d0f7 46bd a632 c63b fa9e 00bd df33 2abd
000001b0: f645 263c 4b43 1cbb 69d7 9ebc 32c8 813c
000001c0: 9da3 133d 4945 573b e83c 463c a802 c63c
000001d0: fb5c 0b3b 4e19 7d3d b86a 9b3d b2f1 a13c
000001e0: 55ce d93c d4d2 823d ae7e 843d d89f 8bbc
000001f0: f746 b7ba 14af e3bc 1fad 52bc 3763 94bc
00000200: 8821 7ebd f79c 31bd 716b 36bd 9cf2 9ebd
00000210: 2500 0cbd 945d dcbc 34ac 36bd f365 e63c
00000220: ed18 0d3d 9f57 713d d7ec 8e3d fd7d 243d
00000230: c6b2 833d 5b9a 1d3d 71a3 ba3d 0c46 373d
00000240: e19b 8fbd 5206 49bb f710 e4bb 5861 64bc
00000250: 6532 55bb c584 92bc 1283 82bb da64 193b
00000260: a48e 32bd 78c3 833d d906 823d 1020 253d
00000270: b387 2fb9 0d6e 373d 571d 8e3d ffc1 ac3c
00000280: 8462 d43d b7b2 a63d 5dc8 d43c 4aaa 23ba
00000290: 4f30 65bc d51a fe3b 88de c93c d493 92b9
000002a0: 92ea 6e3d 16b9 36bc 69fc 51bc 2527 7f3d
000002b0: 823b f43d 3a29 303d e461 d53d 7def 983d
000002c0: 5a29 173d 1154 863d d0f2 7b3d 8057 2a3c
000002d0: 9899 26bd 53aa 893c f8fb c3ba fb1a 62bd
000002e0: c3de 3abd 3ae4 dcbb 904a 42bc 1438 12bd
000002f0: 8abb 95bd 762a 35bd a52c 6cbc 2773 5c3c
00000300: 8ef6 dcbb 92e1 25bd 076c 59bc 9c27 2c3d
00000310: 7f08 09bd 054f e0bc 2bec c1bc 6aa0 083b
00000320: 72c9 85bd 7501 54bd 4b2d 69bc c845 463d
00000330: 1f9c a2bc 4dc0 273c 562e 243d b033 f2bc
00000340: aa28 b8bc 9636 23bd 9eb2 49bb 5629 2b3d
00000350: 7b50 613c a17e bf3c 5ffa bfbc 3def 1bbd
00000360: 8f8b 16bd fc1f d43b 421a b7bc 7320 5ebd
00000370: e5c5 c9bc c9e3 783c 4c0e 303d 30ff 97bc
00000380: 88e6 75bd 83ea 76bc 27c0 88bc 2f78 2d3d
00000390: 8cf5 773d 2a77 363d 8a9f 543d d8fa 923d
000003a0: 7561 a43d 236c a73d b0f6 913c 809e 9c3b
000003b0: e367 913c 982b 1dbd 8d44 05bd dc70 963c
000003c0: fa2c 943c 59ae febc 5c1f afbc 8de2 083c
000003d0: 94ab ad3d 58ae 8c3d 1b8d 12ba fa72 d83c
000003e0: 5ec9 6b3a 58ae 483d 2afc 3cbd a146 2dbd
000003f0: 4d91 48bd 91fd b43c 53ee a6bc 7d93 ee3c

model.qy_x.model.tcn_block_00.downsample.weight f4 [32, 16, 1]
0.048090983 -0.012799319 -0.045234784 -0.0031384267 -0.089102 -0.07801028 -0.034303583 0.00689143
0.0475063 -0.02923919 -0.035920918 0.091030605 -0.008626569 0.026173932 -0.04440408 0.012810143
0.006312366 0.054474596 -0.0117259035 -0.036403265 -0.052577253 -0.05120759 -0.03525478 0.00017662319
-0.007109008 0.09171589 0.0425691 -0.033563055 0.016288178 -0.011927202 -0.02020426 -0.0117064705
-0.018687729 -0.0063537075 -0.028485408 -0.028051836 0.04253111 0.026759949 0.017354207 0.010343173
0.06577102 0.014162828 0.051402 0.020247119 -0.083500944 -0.07803128 -0.07986252 -0.042558514
0.03952642 0.053560182 0.021210546 0.039022863 -0.060310837 -0.034462344 -0.019333329 0.0017890704
0.055528726 -0.015193922 0.020846108 0.032690357 -0.059727877 -0.01982852 0.021472678 0.06198191
0.00563486 0.05557699 -0.016457736 0.016053185 -0.061436668 -0.052903492 0.0062891534 0.08261451
0.07489667 -0.024052242 -0.008614538 0.056791756 -0.044388935 -0.029501617 -0.00898399 0.0636831
-0.010988825 -0.044511367 0.04619976 -0.025741188 0.010095544 0.053794984 -0.044245414 -0.02539768
-0.11551071 0.013578126 0.022426093 0.029168716 0.055139612 0.0177821 0.012217013 0.027488738
-0.07673374 -0.01089324 -0.053975254 -0.045187633 -0.0068339393 -0.067245595 0.021880105 -0.06709445
-0.051524617 -0.08522043 0.0873824 0.09201352 0.01165919 0.036674667 -0.038493734 0.023053152
0.05176622 0.07963313 -0.015334674 0.0085360315 -0.042520247 -0.023056595 -0.0026734278 0.014537815
0.010400699 -0.022186983 0.065088555 0.051634297 0.027871406 0.04621422 0.020656046 0.059712898
-0.0620716 -0.015237167 -0.035843022 -0.00929522 -0.07204382 -0.065929905 0.005208783 -0.06733737
-0.05428745 -0.033562385 0.02473492 -0.023322333 0.0014568967 -0.00895775 -0.045611233 -0.06114809
-0.0182864 0.016604345 0.008255233 -0.01095631 -0.049717672 -0.025168706 -0.036346123 -0.010066009
-0.029335327 0.0074026994 -0.037740886 -0.058897957 -0.025922809 -0.036785815 -0.053506337 -0.07778812
0.020462107 0.024678793 0.033293184 -0.037464425 -0.044953767 -0.0067213215 -0.009666896 -0.028109357
-0.02876942 -0.047114983 -0.06702898 -0.01930384 -0.057045605 -0.08985305 0.016578188 -0.022716004
-0.07726973 0.0074268184 -0.039132748 0.06511935 0.08646377 0.07747397 0.037880573 -0.0013839713
0.09456899 0.06406157 -0.08136424 -0.053225264 -0.14218491 -0.07886422 0.014838089 -0.05267478
0.008405662 0.0026563732 -0.026291791 -0.054939196 0.003229215 -0.049965452 0.011645212 -0.017637284
-0.013953498 0.019668724 0.0687218 0.028070893 0.08738062 0.07873563 0.02910512 0.007598826
-0.056156214 -0.01906022 0.001382318 -0.0016463554 -0.037358094 -0.040142864 0.014722245 0.0645492
0.026264684 -0.0061077196 -0.034898993 0.055111796 0.016433401 0.032330893 0.094182715 -0.008575165
0.06756967 0.0038965328 -0.0046598995 -0.03484165 -0.009168821 0.032472234 -0.00046412233 -0.04139545
0.030421594 -0.066156276 0.062964186 0.05572974 -0.041934628 -0.044894513 -0.065334894 -0.009651735
-0.018869124 -0.028743792 -0.011464432 -0.048740607 -0.028250996 -0.05001985 0.01877748 -0.0054331585
-0.017661791 0.0380302 0.07220283 0.017524369 0.087376505 0.051180623 0.011325213 0.023352755
00000000: 0dfb 443d 3cb4 51bc 1c48 39bd 10ae 4dbb
00000010: 1c7b b6bd dbc3 9fbd ea81 0cbd 81d1 e13b
00000020: f795 423d 0787 efbc d021 13bd 416e ba3d
00000030: 7456 0dbc b76a d63c 0de1 35bd a2e1 513c
00000040: f7d7 ce3b c120 5f3d 011e 40bc 971b 15bd
00000050: 3f5b 57bd 0dbf 51bd 5167 10bd ed33 3939
00000060: aef2 e8bb 8ad5 bb3d f05c 2e3d 6a79 09bd
00000070: c96e 853c 506a 43bc 6783 a5bc 7fcc 3fbc
00000080: 0217 99bc c332 d0bb 3b5a e9bc f7cc e5bc
00000090: 1a35 2e3d ae37 db3c 692a 8e3c 6976 293c
000000a0: f5b2 863d 350b 683c e78a 523d 49dd a53c
000000b0: 8b02 abbd ddce 9fbd f68e a3bd d651 2ebd
000000c0: 75e6 213d ec61 5b3d bdc1 ad3c 70d6 1f3d
000000d0: 7f08 77bd 6328 0dbd ee60 9ebc 3e7f ea3a
000000e0: 1772 633d eeef 78bc 75c5 aa3c 53e6 053d
000000f0: 38a5 74bd 6c6f a2bc 78e7 af3c bee0 7d3d
00000100: a2a4 b83b b3a4 633d 60d2 86bc f881 833c
00000110: 04a5 7bbd 55b1 58bd 3e15 ce3b cc31 a93d
00000120: 6d63 993d 3509 c5bc fe23 0dbc 799e 683d
00000130: 2cd1 35bd 60ad f1bc 9631 13bc 496c 823d
00000140: 790a 34bc 8d51 36bd f63b 3d3d 2fdf d2bc
00000150: c867 253c 2158 5c3d ae3a 35bd cc0e d0bc
00000160: e190 ecbd ca76 5e3c edb6 b73c 3bf3 ee3c
00000170: 13da 613d c4ab 913c de29 483c 1030 e13c
00000180: 9426 9dbd 8f79 32bc 2815 5dbd ab16 39bd
00000190: 3def dfbb 0fb8 89bd e83d b33c d168 89bd
000001a0: 7a0b 53bd 0c88 aebd 8bf5 b23d 9671 bc3d
000001b0: 3006 3f3c 2d38 163d 9bab 1dbd f7d9 bc3c
000001c0: d108 543d b216 a33d 493e 7bbc b6da 0b3c
000001d0: b629 2ebd 2fe1 bcbc ad34 2fbb 0430 6e3c
000001e0: b267 2a3c 7ac1 b5bc 264d 853d 7c7e 533d
000001f0: 9352 e43c 1f4b 3d3d de36 a93c 8395 743d
00000200: ca3e 7ebd 4fa5 79bc 22d0 12bd fa4a 18bc
00000210: b68b 93bd 4206 87bd 70ae aa3b 2de8 89bd
00000220: 845c 5ebd b678 09bd e3a0 ca3c 7a0e bfbc
00000230: 57f5 be3a 87c3 12bc d8d2 3abd 6b76 7abd
00000240: 5ccd 95bc d605 883c f540 073c 1882 33bc
00000250: c2a4 4bbd 9a2e cebc acdf 14bd e7eb 24bc
00000260: a450 f0bc 5892 f23b 3096 1abd fc3e 71bd
00000270: 125c d4bc b9ac 16bd 7629 5bbd 614f 9fbd
00000280: 26a0 a73c 2e2b ca3c 6f5e 083d 4c74 19bd
00000290: 7121 38bd 883e dcbb e761 1ebc 9845 e6bc
000002a0: d9ad ebbc a4fb 40bd 7d46 89bd 1623 9ebc
000002b0: a7a8 69bd e004 b8bd fbce 873c ea16 babc
000002c0: 983f 9ebd ab5c f33b a949 20bd 4b5d 853d
000002d0: eb13 b13d acaa 9e3d a928 1b3d 5f66 b5ba
000002e0: 63ad c13d b632 833d 4ba2 a6bd bc02 5abd
000002f0: ec98 11be 9083 a1bd 751b 733c 83c1 57bd
00000300: e7b7 093c 8c16 2e3b e261 d7bc ec07 61bd
00000310: 3da1 533b 93a8 4cbd 8fcb 3e3c 117c 90bc
00000320: 369d 64bc 4e20 a13c 04be 8c3d eef4 e53c
00000330: 9cf4 b23d 2540 a13d dc6d ee3c 93ff f83b
00000340: 0f04 66bd 2e24 9cbc e52e b53a 85ca d7ba
00000350: cd04 19bd d86c 24bd 9235 713c 5f32 843d
00000360: 0929 d73c 4423 c8bb 3ff2 0ebd e8bc 613d
00000370: 579f 863c 666d 043d dee2 c03d d97e 0cbc
00000380: f861 8a3d f95c 7f3b 12b2 98bb 1eb6 0ebd
00000390: d338 16bc 9b01 053d 7255 f3b9 468e 29bd
000003a0: b536 f93c f17c 87bd 5ef3 803d de44 643d
000003b0: a5c3 2bbd 4fe3 37bd 4dce 85bd 5022 1ebc
000003c0: 6c93 9abc 1a78 ebbc 50d5 3bbc 3ba4 47bd
000003d0: a26e e7bc 9de1 4cbd 3bd3 993c a308 b2bb
000003e0: 76af 90bc 8ec5 1b3d 14df 933d 448f 8f3c
000003f0: 74f2 b23d c6a2 513d 638d 393c 474e bf3c

model.qy_x.model.tcn_block_00.downsample.bias f4 [32]
0.13727729 -0.11334109 -0.094812796 -0.20750594 0.044507395 -0.033576548 -0.2252661 0.3597353
0.06266264 0.03140633 -0.0075803213 0.009005503 0.29084077 -0.26851964 -0.16488136 0.19302621
0.34762046 -0.12535188 -0.061672598 0.18893512 0.2526896 0.004450641 0.11618012 0.16456674
0.13347524 -0.20050643 0.017404657 -0.12542391 0.13026513 -0.12630257 0.19407588 0.20993116
00000000: 6b92 0c3e 601f e8bd 362d c2bd 707c 54be
00000010: 634d 363d 9087 09bd 28ac 66be 3a2f b83e
00000020: 4555 803d eda3 003d 5864 f8bb d18b 133c
00000030: 15e9 943e 687b 89be a9d6 28be aaa8 453e
00000040: 4ffb b13e 3e5c 00be 689c 7cbd 3578 413e
00000050: 8860 813e afd6 913b d8ef ed3d 2f84 283e
00000060: bcad 083e 8f51 4dbe 3694 8e3c 206f 00be
00000070: 3964 053e 7655 01be d4bb 463e 32f8 563e

model.qy_x.model.tcn_block_01.conv0.bias f4 [32]
0.098844185 0.07958584 0.018543107 0.0983321 -0.023265906 0.11724464 0.12639332 0.09359748
-0.09982419 0.04940055 0.047026176 0.101241045 0.034611475 -0.07053025 0.075132474 0.14296672
-0.0024596676 0.013811392 0.08657124 0.12350752 -0.07020918 0.082573995 -0.013780021 0.016233856
0.02448062 -0.03574435 -0.011453493 0.0333627 -0.03251213 0.10474646 0.000809585 -0.013019647
00000000: d26e ca3d e7fd a23d b7e7 973c 5762 c93d
00000010: 2498 bebc f51d f03d 406d 013e 09b0 bf3d
00000020: a070 ccbd 3b58 4a3d 859e 403d 7757 cf3d
00000030: c3c4 0d3d 2a72 90bd 0edf 993d de65 123e
00000040: 6032 21bb 2d49 623c 434c b13d 83f1 fc3d
00000050: d5c9 8fbd 8e1c a93d 99c5 61bc ddfc 843c
00000060: 958b c83c ab68 12bd 6ea7 3bbc 54a7 083d
00000070: 702b 05bd 5085 d63d 543a 543a 5c50 55bc

model.qy_x.model.tcn_block_01.conv0.weight_g f4 [32, 1, 1]
0.6447131 0.595984 0.61225116 0.64475363 0.60380405 0.65191525 0.62100154 0.5820339
0.62675035 0.6192859 0.60779595 0.65185076 0.6663021 0.6255139 0.60264575 0.5879786
0.6559773 0.68316466 0.75925916 0.6390313 0.5568005 0.6698198 0.722739 0.61671025
0.58146864 0.6156819 0.6378968 0.67011297 0.7446111 0.62833583 0.56929547 0.6695279
00000000: eb0b 253f 6892 183f 7ebc 1c3f 930e 253f
00000010: e792 1a3f ebe3 263f f5f9 1e3f 2c00 153f
00000020: b672 203f 8589 1e3f 8498 1b3f b1df 263f
00000030: c692 2a3f ae21 203f fe46 1a3f c485 163f
00000040: 21ee 273f e1e3 2e3f cf5e 423f 8e97 233f
00000050: 7a8a 0e3f 4f79 2b3f 6c05 393f b9e0 1d3f
00000060: 21db 143f 549d 1d3f 344d 233f 868c 2b3f
00000070: d59e 3e3f 9eda 203f 59bd 113f 2e66 2b3f

model.qy_x.model.tcn_block_01.conv0.weight_v f4 [32, 32, 9]
-0.01080759 0.011436307 0.015074082 -0.008559187 0.0034519958 0.0445892 0.051297016 0.06778191
0.03271496 -0.089740634 -0.100551136 -0.071329415 -0.07500502 -0.065900035 -0.080071166 -0.06227131
-0.028165082 -0.054705765 -0.050857972 -0.012629129 0.011241976 -0.009591043 -0.016933361 -0.045652203
2.1177922e-05 -0.052453447 -0.05206189 0.023725098 0.033328824 -0.0031301342 0.06759786 0.0110694375
0.020396277 0.017474642 0.032865357 0.06590647 -0.008987122 0.011916883 0.008590529 0.011445887
0.057064477 0.034260396 0.015768528 0.017688591 0.04728624 -0.023274826 0.067023925 -0.01438296
0.029274406 0.000118094176 0.05719881 -0.016505826 0.037314437 -0.023425007 -0.10914762 -0.09176763
-0.11021346 -0.092939615 -0.06672666 -0.09948423 -0.09880515 -0.064551756 -0.049762975 0.013986008
-0.016210785 -0.021462277 0.022360438 0.01899903 -0.018906107 0.046361953 0.08436973 0.070274495
-0.021268824 -0.068259865 -0.082935296 -0.0797943 -0.055509076 -0.053943574 -0.044043027 -0.064034045
-0.08714802 -0.08667398 -0.06506373 -0.09051209 -0.086957306 -0.054289065 -0.053054817 -0.07852274
-0.058045816 -0.09146538 -0.014068676 -0.021439541 -0.01822254 -0.020318255 -0.038117964 -0.021402841
-0.060087666 -0.039202504 -0.043903355 -0.025204685 -0.032078985 -0.047715575 0.003708965 -0.053969003
-0.054362975 -0.050808206 -0.0002406761 -0.013065148 -0.0367322 0.026688885 -0.062013917 -0.018346474
0.018420452 0.013235085 -0.053736202 -0.034292433 0.027354214 -0.059326842 -0.067492336 0.0083140405
0.01266878 -0.009088568 -0.04399826 0.006143649 -0.05188848 -0.053458173 0.0124261 -0.0152441105
0.037666008 0.06082863 0.068106696 0.0019886196 0.033743694 0.0056859567 0.058379225 -0.010092423
0.032840673 -0.039257064 -0.027485512 -0.0122231385 -0.063134864 -0.019153466 -0.023653548 0.009173322
0.02777756 0.053954836 -0.0084792655 0.034789354 -0.0012303948 0.008184206 0.055397127 -0.010563234
0.07941322 -0.095419385 -0.04823352 -0.05617761 -0.03455012 -0.046219833 -0.062345695 -0.06844266
-0.04521126 -0.072568126 -0.034743283 -0.001756415 -0.037205108 -0.024811065 -0.048622105 -0.037300162
-0.039053928 -0.03500782 -0.0238174 0.024630876 -0.031181058 -0.0169246 -0.006506165 -0.012266206
4.977467e-05 0.033876773 0.041797575 -0.009898603 0.043900624 0.0014593987 0.032968577 -0.005765225
0.009695163 -0.031043576 -0.0028313259 -0.019402955 0.0255914 0.001950319 -0.026734194 0.033804115
-0.01767021 0.062135603 0.027534125 0.03911931 0.0027240817 -0.020221036 0.024947483 -0.029571895
0.030103466 -0.03990575 -0.013095698 0.0073094703 0.04601918 -0.018716577 0.019387543 0.023436116
-0.059782162 0.032568645 -0.003320268 -0.03344628 -0.0066189356 0.008419781 0.014969376 -0.053138144
0.014358894 0.020644952 -0.03602141 0.016465489 0.050079104 0.0065967725 -0.009483126 -0.0030030431
-0.033388373 -0.06625049 -0.087219596 -0.10545318 -0.083514675 -0.09488189 -0.055444747 -0.041337695
-0.10350159 -0.06835462 -0.020365804 -0.018683827 0.01192625 -0.019447565 0.054934256 0.025839325
0.015423319 0.013862682 0.05769876 -0.059960075 -0.08049348 -0.059183046 -0.061440073 -0.05809237
-0.059482545 -0.03251007 -0.047417633 -0.024084175 0.03239621 0.011137032 0.06670699 0.015891127
00000000: 5112 31bc 595f 3b3c 48f9 763c d53b 0cbc
00000010: e13a 623b 2aa3 363d d21c 523d 3ed1 8a3d
00000020: 1f00 063d f0c9 b7bd c1ed cdbd 2815 92bd
00000030: 3b9c 99bd 99f6 86bd 5afc a3bd 3310 7fbd
00000040: 75ba e6bc 2713 60bd 7350 50bd 68ea 4ebc
00000050: 4430 383c c023 1dbc d5b7 8abc cefd 3abd
00000060: 3ea7 b137 6dd9 56bd d93e 55bd 235b c23c
00000070: ce83 083d f022 4dbb bf70 8a3d 965c 353c
00000080: 1816 a73c fb26 8f3c d39d 063d f9f9 863d
00000090: b93e 13bc 083f 433c 4abf 0c3c 8887 3b3c
000000a0: 71bc 693d a154 0c3d 002d 813c aae7 903c
000000b0: 37af 413d d9aa bebc d743 893d 82a6 6bbc
000000c0: e1d0 ef3c 54a9 f738 4d49 6a3d 3a37 87bc
000000d0: 06d7 183d cde5 bfbc ca88 dfbd abf0 bbbd
000000e0: 98b7 e1bd 2057 bebd fda7 88bd 63be cbbd
000000f0: 5b5a cabd b633 84bd 43d4 4bbd 9225 653c
00000100: 7bcc 84bc a8d1 afbc 3d2d b73c dba3 9b3c
00000110: fbe0 9abc 08e6 3d3d 09ca ac3d 13ec 8f3d
00000120: f53b aebc d4cb 8bbd fbd9 a9bd 326b a3bd
00000130: 7c5d 63bd f0f3 5cbd 7666 34bd 4824 83bd
00000140: a97a b2bd 2182 b1bd 2240 85bd 675e b9bd
00000150: ac16 b2bd 365e 5ebd 0250 59bd 88d0 a0bd
00000160: 73c1 6dbd 3352 bbbd 4e80 66bc faa1 afbc
00000170: 7047 95bc 7872 a6bc 9521 1cbd 0355 afbc
00000180: 7c1e 76bd ce92 20bd 01d4 33bd 0e7a cebc
00000190: 4165 03bd 6871 43bd 1b12 733b 9a0e 5dbd
000001a0: b6ab 5ebd 441c 50bd 005e 7cb9 340f 56bc
000001b0: 8174 16bd a6a2 da3c 4e02 7ebd 584b 96bc
000001c0: 7de6 963c f8d7 583c 7e1a 5cbd 3976 0cbd
000001d0: f215 e03c b400 73bd 6c39 8abd 9d37 083c
000001e0: b790 4f3c 38e8 14bc 8537 34bd aa50 c93b
000001f0: 0489 54bd f5f6 5abd d796 4b3c 6fc2 79bc
00000200: ac47 1a3d 7127 793d 867b 8b3d 8053 023b
00000210: d436 0a3d 4351 ba3b 0e1f 6f3d b15a 25bc
00000220: f183 063d 04cc 20bd 4c29 e1bc 8f43 48bc
00000230: da4c 81bd bbe7 9cbc 16c5 c1bc b34b 163c
00000240: c48d e33c bfff 5c3d 9eec 0abc 487f 0e3d
00000250: 3345 a1ba 0c17 063c 19e8 623d 6a11 2dbc
00000260: 66a3 a23d 3d6b c3bd 8390 45bd 7e1a 66bd
00000270: 6d84 0dbd 0251 3dbd 335e 7fbd aa2b 8cbd
00000280: 712f 39bd 999e 94bd f94e 0ebd 8237 e6ba
00000290: 6264 18bd 9340 cbbc f927 47bd 0ec8 18bd
000002a0: 03f7 1fbd 5c64 0fbd b51c c3bc b1c6 c93c
000002b0: 6b6f ffbc 75a5 8abc ab31 d5bb 32f8 48bc
000002c0: 25c5 5038 5fc2 0a3d ef33 2b3d c02d 22bc
000002d0: 24d1 333d 4b49 bf3a 0f0a 073d 36ea bcbb
000002e0: 76d8 1e3c 194f febc c48d 39bb f2f2 9ebc
000002f0: 0ea5 d13c d9a1 ff3a ab01 dbbc 2f76 0a3d
00000300: 1ec1 90bc e781 7e3d 3f8f e13c 923b 203d
00000310: 8286 323b 96a6 a5bc aa5e cc3c c240 f2bc
00000320: 8b9b f63c 3674 23bd 578f 56bc 4884 ef3b
00000330: 9c7e 3c3d 8253 99bc a0d2 9e3c 19fd bf3c
00000340: 24de 74bd b366 053d da98 59bb f7fe 08bd
00000350: a8e3 d8bb 1ff3 093c 1d42 753c 62a7 59bd
00000360: 9141 6b3c 9a1f a93c 308b 13bd a2e2 863c
00000370: bf1f 4d3d bd29 d83b 1d5f 1bbc b4ce 44bb
00000380: 3fc2 08bd 56ae 87bd 30a0 b2bd d6f7 d7bd
00000390: be09 abbd 7051 c2bd 081a 63bd b751 29bd
000003a0: a4f8 d3bd 82fd 8bbd 30d6 a6bc d30e 99bc
000003b0: 5166 433c 8050 9fbc be02 613d feac d33c
000003c0: 17b2 7c3c 4d20 633c 8955 6c3d b298 75bd
000003d0: c4d9 a4bd ec69 72bd 96a8 7bbd 44f2 6dbd
000003e0: f8a3 73bd 4729 05bd fe38 42bd 2d4c c5bc
000003f0: e3b1 043d 1978 363c ad9d 883d 1c2e 823c

model.qy_x.model.tcn_block_01.conv1.bias f4 [7]
0.00882711 0.063836 0.11040604 0.10270482 -0.04074652 0.024145495 0.025472712
00000000: 959f 103c 73bc 823d 901c e23d e856 d23d
00000010: d3e5 26bd c6cc c53c 26ac d03c

model.qy_x.model.tcn_block_01.conv1.weight_g f4 [7, 1, 1]
0.56329805 0.6342658 0.7380162 0.62211233 0.67997307 0.5972715 0.6843602
00000000: 4d34 103f 3e5f 223f a1ee 3c3f c142 1f3f
00000010: b712 2e3f c9e6 183f 3b32 2f3f
