results_gmdgm/multi-1/dtcn/test_rsldsv3/version_0/best_val_model.pt (torch, 615333 bytes, 354 tensors)

model.qy_x.model.tcn_block_00.conv0.bias f4 [32]
0.09346753 0.07343114 0.00870562 0.07609883 0.052017894 -0.05918094 -0.045792494 0.0075270017
-0.041841242 -0.016558385 0.066271275 0.056975964 0.09150155 0.0066926028 -0.04277246 0.06495993
0.01589358 0.011641803 -0.031827427 0.039326996 -0.03857928 0.06256659 0.07629822 0.063005485
0.05842373 0.06933213 -0.021101795 -0.04476953 0.0072184554 0.0586904 0.00756452 0.02278008
00000000: e86b bf3d 1163 963d 04a2 0e3c b4d9 9b3d
00000010: b710 553d b767 72bd e990 3bbd 11a5 f63b
00000020: b961 2bbd 73a5 87bc 3cb9 873d a15f 693d
00000030: 2a65 bb3d 9f4d db3b 2d32 2fbd b609 853d
00000040: 4133 823c 43bd 3e3c 7a5d 02bd 5815 213d
00000050: 4f05 1ebd ea22 803d 3e42 9c3d 0509 813d
00000060: b94d 6f3d 01fe 8d3d acdd acbc 4160 37bd
00000070: cb88 ec3b 5865 703d cbdf f73b 4a9d ba3c

model.qy_x.model.tcn_block_00.conv0.weight_g f4 [32, 1, 1]
0.599076 0.58776337 0.5893236 0.6146041 0.61001486 0.5657584 0.6200946 0.5842673
0.63621575 0.601056 0.5886223 0.5743783 0.5743189 0.57471156 0.5762961 0.5505481
0.58696216 0.57388085 0.60134506 0.5296236 0.5917744 0.57460386 0.5821843 0.60761446
0.5918562 0.5819242 0.5780748 0.61011827 0.5792319 0.57978445 0.58889484 0.5947904
00000000: 0b5d 193f a977 163f e9dd 163f b256 1d3f
00000010: ef29 1c3f 8bd5 103f 85be 1e3f 8b92 153f
00000020: 09df 223f cede 193f f3af 163f 750a 133f
00000030: 9006 133f 4c20 133f 2488 133f b8f0 0c3f
00000040: 2743 163f dbe9 123f c0f1 193f 6a95 073f
00000050: 877e 173f 3d19 133f 080a 153f 9f8c 1b3f
00000060: e383 173f fcf8 143f b6fc 133f b630 1c3f
00000070: 8b48 143f c16c 143f d0c1 163f 2f44 183f

model.qy_x.model.tcn_block_00.conv0.weight_v f4 [32, 16, 9]
0.004908789 0.045048352 -0.06695806 -0.06342406 -0.03731912 0.014770246 -0.008166739 0.058342703
-0.012256617 0.017770855 -0.029969065 -0.024505634 -0.08812631 -0.06620921 -0.046631947 -0.010131559
0.019313829 0.03640039 -0.037498873 -0.018680053 0.04521424 0.082481526 -0.0007013421 0.07503281
0.0017593713 0.023109639 0.08622883 -0.08252932 -0.058144815 -0.027231604 -0.03792171 0.06347664
-0.059411705 -0.045364723 -0.06555646 -0.08591065 -0.047900323 0.06796314 0.034811094 0.03727267
0.0016107917 -0.044661276 0.008721663 -0.080751635 -0.0651585 -0.040251173 0.051825892 0.04746477
-0.03607113 -0.004511202 0.048546858 0.07620176 0.02711169 0.0047200304 0.068498656 -0.029962577
0.03270427 -0.04456372 -0.04104268 -0.029246425 0.046823543 0.042913962 -0.03419553 0.025934098
0.04623587 -0.006606985 0.0065611266 0.019821214 0.048489995 0.073636495 -0.063472904 -0.03023817
0.020258171 0.05333065 0.05428023 0.05326289 -0.0044274493 -0.09304685 -0.014461437 -0.073532544
-0.09846707 0.060296457 0.048116803 -0.097376466 -0.002966454 -0.03328556 -0.033562414 -0.058006026
0.0110885305 -0.06909162 0.03614234 0.048060723 0.06572174 0.03785969 -0.07250914 -0.04312475
0.052186333 0.0296158 -0.050596204 -0.04491021 0.07740088 0.05679043 -0.033151418 -0.01873437
-0.07368871 0.00267483 -0.055787224 -0.05717153 -0.008206348 0.008563151 -0.035102587 0.04504108
-0.05030831 0.07005357 0.052322146 -0.06957962 -0.021613909 -0.0023690795 0.005681649 0.013782013
0.026983194 0.0006984882 -0.043156274 0.033725515 -0.0807962 -0.05024999 -0.013852486 -0.031894695
-0.020010993 -0.057638336 -0.011274426 0.019670233 -0.051252656 -0.0034276822 0.059315357 0.007072972
0.017243352 0.007958438 0.031032834 0.06445951 0.088045515 0.063121885 0.088423796 0.00900287
-0.07796192 -0.046624154 0.045681994 -0.011477255 -0.0522356 -0.07423486 -0.087177925 -0.07867252
-0.02599997 0.030135602 0.028090551 -0.096890815 0.032499447 -0.084117375 -0.037136227 -0.0527466
-0.034459975 -0.034088325 -0.072344676 -0.07091939 -0.015953748 -0.002915548 -0.039354637 0.026402252
-0.07443129 -0.008708614 0.06672805 -0.03791448 0.066490054 0.021686383 -0.07930484 0.04246227
-0.018655885 -0.045297775 0.054320775 -0.076118365 -0.003928869 -0.02948356 0.044508252 0.009172461
0.024585381 0.013869101 -0.033778764 -0.032731853 -0.08265951 0.037676692 0.05745936 0.048129905
-0.06291414 -0.0043708226 -0.06450348 -0.053410977 -0.056761336 0.015949763 -0.040173378 0.0062071113
0.01067948 0.058019448 -0.052176565 -0.047431402 -0.039887577 0.061328284 -0.021978784 0.054919478
0.015856408 -0.0036304148 -0.014870068 -0.030035289 -0.0049927053 -0.034421064 -0.017225955 -0.0065678465
-0.08627281 -0.06628766 0.043940876 -0.09297518 -0.03127224 0.058088202 0.0058111227 -0.022100786
-0.09679976 0.019574411 -0.0827717 -0.048151806 -0.053515237 -0.037926484 -0.024341878 0.044755872
-0.013744481 0.051580403 0.053514168 -0.045340832 0.04124862 -0.050673984 -0.027791753 0.030256834
0.03407332 0.0678404 -0.017750323 0.0067990012 0.04796515 -0.07005365 0.064632565 -0.05851174
0.009385541 -0.004552196 -0.03281183 0.019998295 0.05789344 -0.029625319 -0.053187694 -0.035779633
00000000: e8d9 a03b 9f84 383d 4f21 89bd 79e4 81bd
00000010: efdb 18bd e7fe 713c c9cd 05bc c2f8 6e3d
00000020: facf 48bc 2f94 913c af81 f5bc 0ac0 c8bc
00000030: 917b b4bd b298 87bd 2401 3fbd d7fe 25bc
00000040: 0938 9e3c 9318 153d 6b98 19bd e906 99bc
00000050: 9132 393d 13ec a83d 46da 37ba cdaa 993d
00000060: b49a e63a 6d50 bd3c be98 b03d 2205 a9bd
00000070: 4229 6ebd d014 dfbc cc53 1bbd 0a00 823d
00000080: b059 73bd 5cd0 39bd 7742 86bd ecf1 afbd
00000090: 2133 44bd 4230 8b3d 1496 0e3d 3aab 183d
000000a0: 3321 d33a beee 36bd 4ee5 0e3c 1d61 a5bd
000000b0: d271 85bd 6ade 24bd 6347 543d 6b6a 423d
000000c0: 52bf 13bd b5d2 93bb 12d9 463d ab0f 9c3d
000000d0: 5619 de3c 7caa 9a3b 0649 8c3d 1474 f5bc
000000e0: eaf4 053d 7288 36bd 5f1c 28bd 3396 efbc
000000f0: 0bca 3f3d 8dc6 2f3d 9d10 0cbd bf73 d43c
00000100: d361 3d3d 687f d8bb b8fe d63b 1960 a23c
00000110: 729d 463d bbce 963d 15fe 81bd 0ab6 f7bc
00000120: 77f4 a53c 3d71 5a3d f254 5e3d 302a 5a3d
00000130: 2314 91bb 598f bebd aaef 6cbc 3b98 96bd
00000140: 1aa9 c9bd 6bf9 763d 2016 453d 506d c7bd
00000150: d768 42bb 7056 08bd be78 09bd ba97 6dbd
00000160: abac 353c e87f 8dbd fe09 143d 52db 443d
00000170: 1f99 863d c312 1b3d ac7f 94bd 94a3 30bd
00000180: 56c1 553d d69c f23c f73d 4fbd c5f3 37bd
00000190: 5a84 9e3d 159d 683d c8c9 07bd d278 99bc
000001a0: 1bea 96bd 334c 2f3b 2581 64bd b22c 6abd
000001b0: eb73 06bc 754c 0c3c bbc7 0fbd ff7c 383d
000001c0: 1610 4ebd 3f78 8f3d bf4f 563d c37f 8ebd
000001d0: a70f b1bc 8f42 1bbb 202d ba3b f4cd 613c
000001e0: dc0b dd3c c01a 373a a2c4 30bd c423 0a3d
000001f0: 7a78 a5bd efd2 4dbd 8af5 62bc 03a4 02bd
00000200: 18ee a3bc 2d16 6cbd 5fb8 38bc 7823 a13c
00000210: 4eee 51bd f7a2 60bb a9f4 723d 64c4 e73b
00000220: ee41 8d3c 1c64 023c 9238 fe3c 5903 843d
00000230: 3551 b43d 0c46 813d 8917 b53d c680 133c
00000240: 80aa 9fbd f8f8 3ebd 0b1d 3b3d 190b 3cbc
00000250: fff4 55bd 7208 98bd 578a b2bd 0f1f a1bd
00000260: e4fd d4bc f0de f63c 281e e63c b16e c6bd
00000270: 241e 053d bb45 acbd 281c 18bd d20c 58bd
00000280: e725 0dbd 33a0 0bbd 7229 94bd 2f3e 91bd
00000290: 6fb1 82bc c712 3fbb 5432 21bd 8949 d83c
000002a0: 6f6f 98bd 93ae 0ebc b7a8 883d 374c 1bbd
000002b0: f02b 883d a4a7 b13c 936a a2bd ebec 2d3d
000002c0: 3ad4 98bc 298a 39bd 767f 5e3d f2e3 9bbd
000002d0: bebd 80bb 8287 f1bc 494e 363d 1748 163c
000002e0: 4867 c93c 3a3b 633c 9a5b 0abd d611 06bd
000002f0: 6449 a9bd e052 1a3d 825a 6b3d dd23 453d
00000300: 21d9 80bd 1e39 8fbb 671a 84bd 78c5 5abd
00000310: 937e 68bd 14a9 823c d78c 24bd 0665 cb3b
00000320: fcf8 2e3c cda5 6d3d 18b7 55bd 6e47 42bd
00000330: 2861 23bd 5e33 7b3d da0c b4bc 3ff3 603d
00000340: 4ce5 813c 41ec 6dbb 96a1 73bc 910c f6bc
00000350: d999 a3bb 1afd 0cbd 721d 8dbc 1737 d7bb
00000360: cdaf b0bd d3c1 87bd 59fb 333d c569 bebd
00000370: 5217 00bd e5ed 6d3d 3b6b be3b b50c b5bc
00000380: f43e c6bd 845a a03c 3684 a9bd d43a 45bd
00000390: cb32 5bbd cd58 1bbd 9e68 c7bc ef51 373d
000003a0: 8830 61bc f945 533d ac31 5b3d 4fb7 39bd
000003b0: 50f4 283d 868f 4fbd 88ab e3bc 2edd f73c
000003c0: 7790 0b3d e8ef 8a3d 2069 91bc 28ca de3b
000003d0: 1b77 443d 4a78 8fbd 145e 843d 02aa 6fbd
000003e0: d0c5 193c 962a 95bb b365 06bd 77d3 a33c
000003f0: ac21 6d3d ccb0 f2bc 57db 59bd aa8d 12bd

model.qy_x.model.tcn_block_00.conv1.bias f4 [32]
-0.047389686 -0.038440797 -0.025137909 0.06658385 0.031167744 0.06352923 0.047792047 0.057192903
0.013452306 0.037463214 0.030199282 -0.037280995 -0.03408628 0.058410894 0.05273047 -0.006839474
-0.020053683 -0.043648534 -0.023012271 -0.016232824 0.0043886276 0.029490799 0.033304542 0.026768073
0.0370264 0.05407835 0.010062527 -0.002083716 0.01970825 0.031243753 0.020912336 -0.004194123
00000000: b01b 42bd 1974 1dbd 04ee cdbc 1d5d 883d
00000010: 7f53 ff3c 9d1b 823d 98c1 433d 1b43 6a3d
00000020: 1067 5c3c 0773 193d 7c64 f73c f5b3 18bd
00000030: 0e9e 0bbd 4340 6f3d e8fb 573d ab1d e0bb
00000040: 9f47 a4bc cec8 32bd 3b84 bcbc b3fa 84bc
00000050: 7ace 8f3b b096 f13c 586a 083d b848 db3c
00000060: ffa8 173d 4381 5d3d 4cdd 243c f48e 08bb
00000070: 3273 a13c e6f2 ff3c 5950 ab3c db6e 89bb

model.qy_x.model.tcn_block_00.conv1.weight_g f4 [32, 1, 1]
0.5757965 0.5972819 0.6063618 0.5965999 0.5749924 0.6079099 0.61263996 0.58404976
0.55991495 0.6075321 0.57272375 0.6000305 0.5885193 0.5815127 0.6248081 0.5854073
0.57374674 0.6141189 0.5990268 0.5914889 0.60602427 0.6018014 0.55316806 0.58829975
0.59876215 0.64059556 0.60144484 0.6055326 0.5820912 0.588998 0.5708836 0.60890734
00000000: 6667 133f 77e7 183f 873a 1b3f c5ba 183f
00000010: b432 133f fc9f 1b3f f9d5 1c3f 4984 153f
00000020: 9656 0f3f 3987 1b3f 069e 123f 999b 193f
00000030: 33a9 163f 04de 143f 6cf3 1f3f 41dd 153f
00000040: 11e1 123f e536 1d3f d259 193f d16b 173f
00000050: 6824 1b3f a80f 1a3f 6c9c 0d3f d09a 163f
00000060: 7a48 193f 12fe 233f 4af8 193f 2f04 1b3f
00000070: ee03 153f 93c8 163f 6d25 123f 5ae1 1b3f

model.qy_x.model.tcn_block_00.conv1.weight_v f4 [32, 32, 9]
0.0291049 0.011088487 0.029470919 -0.0033512062 -0.004055216 -0.02237878 -0.0183723 -0.037758436
0.024655407 0.055300876 0.025633123 0.005959063 -0.015699374 -0.055591606 -0.012392401 -0.043066837
-0.046660088 -0.018641988 -0.018308748 0.003880572 -0.047194943 0.032271504 -0.05723558 -0.033170942
-0.027939979 -0.004170989 0.014092373 -0.013599879 0.010056217 -0.011705586 -0.021502981 -0.00892206
0.010027066 -0.055836104 -0.040182114 0.04293823 0.024699822 -0.00024232 0.0014914422 0.005326131
0.008071792 -0.03792066 -0.01964474 -0.054371413 -0.04829937 -0.00701676 -0.0033958417 0.04699738
0.013072099 -0.005529145 -0.0013137822 0.029281694 -0.01766982 -0.012628866 -0.0088980775 -0.04307342
-0.005985183 -0.050110813 -0.028863523 -0.034989726 0.04099509 -0.05365912 0.050006066 0.033586163
-0.028628852 0.06132531 -0.0004551279 -0.03784184 0.006095167 0.045676578 -0.041215897 0.013021133
0.014771712 -0.029436486 -0.0044318307 -0.030593038 -0.04450219 0.03445449 -0.04591156 -0.011153475
0.0062568495 -0.025426846 0.036539607 -0.040936925 0.06531296 0.036512334 0.0027940285 -0.03768691
0.017077567 0.03860462 -0.030373156 -0.0075610275 -0.05662401 -0.056547098 -0.008128659 0.042991415
-0.006996722 0.011249078 -0.029763483 -0.01801215 -0.0060990294 -0.027435426 0.03347492 0.03418602
-0.044942714 0.014347899 -0.027396351 -0.036722902 -0.012345116 -0.02341837 -0.037929505 0.0018906771
0.02629073 -0.01462188 -0.009568179 -0.0009814912 -0.029837139 0.045704186 0.06847673 0.009547802
0.019378116 0.061461918 0.062109634 -0.029752119 -0.012265339 -0.042747065 0.03137559 0.04051571
-0.022784198 0.015537879 0.011566105 -0.04875301 0.021576952 0.026383199 0.00015814124 0.00307097
0.009795139 0.035777576 0.04501942 0.0054127485 0.020867165 -0.015414384 0.0300451 -0.022584453
-0.04185373 0.032277785 0.027525062 0.01866381 0.03063119 0.014523802 0.02971814 0.034528892
-0.020184094 -0.0054511125 0.0043708915 -0.01350812 -0.0545512 -0.0035220438 0.022401892 -0.041289926
0.038424842 -0.0022850342 0.026879512 -0.01867958 -0.041960765 -0.016536072 0.0048336433 -0.022780642
0.05046763 -0.035272066 -0.03800536 -0.0055850763 0.06844387 -0.01185084 0.06999982 0.043752477
0.0065154303 0.04549694 0.043185364 -0.015261366 -0.015900942 0.05055959 0.027333299 -0.03394471
-0.021386214 0.025774729 0.022712866 -0.001265025 -0.04373021 -0.035935838 -0.0063224095 0.026213778
9.710223e-06 -0.040769085 -0.0069299396 0.061248828 -0.039892033 -0.037691243 0.03652591 0.05785195
-0.052589253 -0.049051493 -0.015898883 0.05601144 -0.032607317 0.0025371024 0.041613452 -0.024809275
-0.022361064 -0.042600326 -0.009369356 0.04097424 0.008439269 0.024920171 -0.01678434 -0.022094194
-0.008251296 0.035148226 -0.004878344 -0.046623837 -0.017750131 0.024633393 0.057396084 -0.009300919
-0.049741592 -0.042780854 -0.04593965 0.019241907 0.037394796 0.012641047 0.01438544 0.030781295
0.032991335 0.028163513 0.025543181 0.009891703 0.024029655 -0.04369602 -0.041281197 0.010616224
0.004528652 -0.054274827 -0.04454699 -0.056761514 0.02871101 0.020083718 -0.043087844 -0.009690747
-0.029056631 0.03110494 -0.06343355 -0.053271502 -0.037258767 0.042841136 -0.019611876 0.04021002
00000000: 666d ee3c 7cac 353c ff6c f13c e99f 5bbb
00000010: 9ee1 84bb b453 b7bc 8181 96bc 97a8 1abd
00000020: 23fa c93c 2c83 623d 8efc d13c 3e44 c33b
00000030: f99b 80bc 06b4 63bd 7f09 4bbc da66 30bd
00000040: a61e 3fbd 15b7 98bc 3afc 95bc 3251 7e3b
00000050: 7c4f 41bd 202f 043d db6f 6abd 41de 07bd
00000060: 62e2 e4bc cbac 88bb b2e3 663c 07d2 5ebc
00000070: d5c2 243c c9c8 3fbc 0527 b0bc d52d 12bc
00000080: 9048 243c 66b4 64bd 0096 24bd ffdf 2f3d
00000090: 4857 ca3c 4817 7eb9 7f7c c33a d386 ae3b
000000a0: 8d3f 043c b252 1bbd 01ee a0bc 8fb4 5ebd
000000b0: 8fd5 45bd d9ec e5bb c58c 5ebb 5380 403d
000000c0: 5b2c 563c d42d b5bb 3733 acba 2ae0 ef3c
000000d0: 4cc0 90bc 4ee9 4ebc 3ec9 11bc c16d 30bd
000000e0: 5b1f c4bb ff40 4dbd 3273 ecbc 6351 0fbd
000000f0: 78ea 273d aac9 5bbd 29d3 4c3d a591 093d
00000100: 0e87 eabc 4030 7b3d 3c9e eeb9 0c00 1bbd
00000110: f7b9 c73b 5d17 3b3d 00d2 28bd 9756 553c
00000120: 0d05 723c c924 f1bc e438 91bb 409e fabc
00000130: ee47 36bd 2720 0d3d c30d 3cbd 11bd 36bc
00000140: 4206 cd3b f64b d0bc 8eaa 153d 7aad 27bd
00000150: cdc2 853d f58d 153d 051c 373b 975d 1abd
00000160: 41e6 8b3c e11f 1e3d 20d1 f8bc 7fc2 f7bb
00000170: 94ee 67bd ee9d 67bd 112e 05bc c417 303d
00000180: c244 e5bb 0e4e 383c 8cd2 f3bc 378e 93bc
00000190: 5eda c7bb 42c0 e0bc ff1c 093d a406 0c3d
000001a0: da15 38bd 7313 6b3c 506e e0bc c16a 16bd
000001b0: 2b43 4abc e2d7 bfbc f85b 1bbd 99d0 f73a
000001c0: a85f d73c 9c90 6fbc dac3 1cbc 61a5 80ba
000001d0: 046d f4bc 5034 3b3d 873d 8c3d 626e 1c3c
000001e0: dbbe 9e3c 7ebf 7b3d ac66 7e3d b7ba f3bc
000001f0: 8ff4 48bc 8c17 2fbd b183 003d cdf3 253d
00000200: eda5 babc 9792 7e3c c37f 3d3c 3cb1 47bd
00000210: 26c2 b03c 9421 d83c b7d2 2539 5442 493b
00000220: ca7b 203c 828b 123d 4966 383d 6d5d b13b
00000230: 9ef1 aa3c 9d8c 7cbc 2421 f63c 0803 b9bc
00000240: d16e 2bbd b635 043d 3d7c e13c d9e4 983c
00000250: 43ee fa3c 3ef5 6d3c 7573 f33c 2b6e 0d3d
00000260: 1d59 a5bc 3f9f b2bb b239 8f3b 2951 5dbc
00000270: 1471 5fbd 17d2 66bb 2c84 b73c a01f 29bd
00000280: 5e63 1d3d 83c0 15bb 6c32 dc3c eb05 99bc
00000290: 0ddf 2bbd a876 87bc 8a63 9e3b 789e babc
000002a0: 25b7 4e3d 7179 10bd 82ab 1bbd 0403 b7bb
000002b0: 4d2c 8c3d 072a 42bc 115c 8f3d cc35 333d
000002c0: 647f d53b 005b 3a3d 23e3 303d cf0a 7abc
000002d0: b142 82bc 9317 4f3d 15ea df3c 9c09 0bbd
000002e0: 2432 afbc 8625 d33c 5510 ba3c 32cf a5ba
000002f0: 731e 33bd 7531 13bd 372c cfbb 47be d63c
00000300: 17e9 2237 7cfd 26bd 8c14 e3bb 0de0 7a3d
00000310: d465 23bd 2262 1abd 319c 153d 2bf6 6c3d
00000320: d467 57bd 38ea 48bd 603e 82bc 406c 653d
00000330: 408f 05bd 8445 263b de72 2a3d d23c cbbc
00000340: 8d2e b7bc ae7d 2ebd ed81 19bc 9bd4 273d
00000350: dc44 0a3c 6325 cc3c 507f 89bc e2fe b4bc
00000360: 7230 07bc 96f7 0f3d 84da 9fbb a3f8 3ebd
00000370: b968 91bc f8cb c93c 2818 6b3d e262 18bc
00000380: d7bd 4bbd fa3a 2fbd 372b 3cbd 34a1 9d3c
00000390: 492b 193d 651c 4f3c e9b0 6b3c 0e29 fc3c
000003a0: ec21 073d 2bb7 e63c ef3f d13c cf10 223c
000003b0: d7d9 c43c 99fa 32bd 7916 29bd acef 2d3c
000003c0: 1665 943b 484f 5ebd e876 36bd c37e 68bd
000003d0: 5a33 eb3c 9c86 a43c e17c 30bd f0c5 1ebc
000003e0: 2c08 eebc cacf fe3c 73e9 81bd 3833 5abd
000003f0: a69c 18bd 307a 2f3d 16a9 a0bc 43b3 243d

model.qy_x.model.tcn_block_00.block.conv1d_layer_0.bias f4 [32]
0.09346753 0.07343114 0.00870562 0.07609883 0.052017894 -0.05918094 -0.045792494 0.0075270017
-0.041841242 -0.016558385 0.066271275 0.056975964 0.09150155 0.0066926028 -0.04277246 0.06495993
0.01589358 0.011641803 -0.031827427 0.039326996 -0.03857928 0.06256659 0.07629822 0.063005485
0.05842373 0.06933213 -0.021101795 -0.04476953 0.0072184554 0.0586904 0.00756452 0.02278008
00000000: e86b bf3d 1163 963d 04a2 0e3c b4d9 9b3d
00000010: b710 553d b767 72bd e990 3bbd 11a5 f63b
00000020: b961 2bbd 73a5 87bc 3cb9 873d a15f 693d
00000030: 2a65 bb3d 9f4d db3b 2d32 2fbd b609 853d
00000040: 4133 823c 43bd 3e3c 7a5d 02bd 5815 213d
00000050: 4f05 1ebd ea22 803d 3e42 9c3d 0509 813d
00000060: b94d 6f3d 01fe 8d3d acdd acbc 4160 37bd
00000070: cb88 ec3b 5865 703d cbdf f73b 4a9d ba3c

model.qy_x.model.tcn_block_00.block.conv1d_layer_0.weight_g f4 [32, 1, 1]
0.599076 0.58776337 0.5893236 0.6146041 0.61001486 0.5657584 0.6200946 0.5842673
0.63621575 0.601056 0.5886223 0.5743783 0.5743189 0.57471156 0.5762961 0.5505481
0.58696216 0.57388085 0.60134506 0.5296236 0.5917744 0.57460386 0.5821843 0.60761446
0.5918562 0.5819242 0.5780748 0.61011827 0.5792319 0.57978445 0.58889484 0.5947904
00000000: 0b5d 193f a977 163f e9dd 163f b256 1d3f
00000010: ef29 1c3f 8bd5 103f 85be 1e3f 8b92 153f
00000020: 09df 223f cede 193f f3af 163f 750a 133f
00000030: 9006 133f 4c20 133f 2488 133f b8f0 0c3f
00000040: 2743 163f dbe9 123f c0f1 193f 6a95 073f
00000050: 877e 173f 3d19 133f 080a 153f 9f8c 1b3f
00000060: e383 173f fcf8 143f b6fc 133f b630 1c3f
00000070: 8b48 143f c16c 143f d0c1 163f 2f44 183f

model.qy_x.model.tcn_block_00.block.conv1d_layer_0.weight_v f4 [32, 16, 9]
0.004908789 0.045048352 -0.06695806 -0.06342406 -0.03731912 0.014770246 -0.008166739 0.058342703
-0.012256617 0.017770855 -0.029969065 -0.024505634 -0.08812631 -0.06620921 -0.046631947 -0.010131559
0.019313829 0.03640039 -0.037498873 -0.018680053 0.04521424 0.082481526 -0.0007013421 0.07503281
0.0017593713 0.023109639 0.08622883 -0.08252932 -0.058144815 -0.027231604 -0.03792171 0.06347664
-0.059411705 -0.045364723 -0.06555646 -0.08591065 -0.047900323 0.06796314 0.034811094 0.03727267
0.0016107917 -0.044661276 0.008721663 -0.080751635 -0.0651585 -0.040251173 0.051825892 0.04746477
-0.03607113 -0.004511202 0.048546858 0.07620176 0.02711169 0.0047200304 0.068498656 -0.029962577
0.03270427 -0.04456372 -0.04104268 -0.029246425 0.046823543 0.042913962 -0.03419553 0.025934098
0.04623587 -0.006606985 0.0065611266 0.019821214 0.048489995 0.073636495 -0.063472904 -0.03023817
0.020258171 0.05333065 0.05428023 0.05326289 -0.0044274493 -0.09304685 -0.014461437 -0.073532544
-0.09846707 0.060296457 0.048116803 -0.097376466 -0.002966454 -0.03328556 -0.033562414 -0.058006026
0.0110885305 -0.06909162 0.03614234 0.048060723 0.06572174 0.03785969 -0.07250914 -0.04312475
0.052186333 0.0296158 -0.050596204 -0.04491021 0.07740088 0.05679043 -0.033151418 -0.01873437
-0.07368871 0.00267483 -0.055787224 -0.05717153 -0.008206348 0.008563151 -0.035102587 0.04504108
-0.05030831 0.07005357 0.052322146 -0.06957962 -0.021613909 -0.0023690795 0.005681649 0.013782013
0.026983194 0.0006984882 -0.043156274 0.033725515 -0.0807962 -0.05024999 -0.013852486 -0.031894695
-0.020010993 -0.057638336 -0.011274426 0.019670233 -0.051252656 -0.0034276822 0.059315357 0.007072972
0.017243352 0.007958438 0.031032834 0.06445951 0.088045515 0.063121885 0.088423796 0.00900287
-0.07796192 -0.046624154 0.045681994 -0.011477255 -0.0522356 -0.07423486 -0.087177925 -0.07867252
-0.02599997 0.030135602 0.028090551 -0.096890815 0.032499447 -0.084117375 -0.037136227 -0.0527466
-0.034459975 -0.034088325 -0.072344676 -0.07091939 -0.015953748 -0.002915548 -0.039354637 0.026402252
-0.07443129 -0.008708614 0.06672805 -0.03791448 0.066490054 0.021686383 -0.07930484 0.04246227
-0.018655885 -0.045297775 0.054320775 -0.076118365 -0.003928869 -0.02948356 0.044508252 0.009172461
0.024585381 0.013869101 -0.033778764 -0.032731853 -0.08265951 0.037676692 0.05745936 0.048129905
-0.06291414 -0.0043708226 -0.06450348 -0.053410977 -0.056761336 0.015949763 -0.040173378 0.0062071113
0.01067948 0.058019448 -0.052176565 -0.047431402 -0.039887577 0.061328284 -0.021978784 0.054919478
0.015856408 -0.0036304148 -0.014870068 -0.030035289 -0.0049927053 -0.034421064 -0.017225955 -0.0065678465
-0.08627281 -0.06628766 0.043940876 -0.09297518 -0.03127224 0.058088202 0.0058111227 -0.022100786
-0.09679976 0.019574411 -0.0827717 -0.048151806 -0.053515237 -0.037926484 -0.024341878 0.044755872
-0.013744481 0.051580403 0.053514168 -0.045340832 0.04124862 -0.050673984 -0.027791753 0.030256834
0.03407332 0.0678404 -0.017750323 0.0067990012 0.04796515 -0.07005365 0.064632565 -0.05851174
0.009385541 -0.004552196 -0.03281183 0.019998295 0.05789344 -0.029625319 -0.053187694 -0.035779633
00000000: e8d9 a03b 9f84 383d 4f21 89bd 79e4 81bd
00000010: efdb 18bd e7fe 713c c9cd 05bc c2f8 6e3d
00000020: facf 48bc 2f94 913c af81 f5bc 0ac0 c8bc
00000030: 917b b4bd b298 87bd 2401 3fbd d7fe 25bc
00000040: 0938 9e3c 9318 153d 6b98 19bd e906 99bc
00000050: 9132 393d 13ec a83d 46da 37ba cdaa 993d
00000060: b49a e63a 6d50 bd3c be98 b03d 2205 a9bd
00000070: 4229 6ebd d014 dfbc cc53 1bbd 0a00 823d
00000080: b059 73bd 5cd0 39bd 7742 86bd ecf1 afbd
00000090: 2133 44bd 4230 8b3d 1496 0e3d 3aab 183d
000000a0: 3321 d33a beee 36bd 4ee5 0e3c 1d61 a5bd
000000b0: d271 85bd 6ade 24bd 6347 543d 6b6a 423d
000000c0: 52bf 13bd b5d2 93bb 12d9 463d ab0f 9c3d
000000d0: 5619 de3c 7caa 9a3b 0649 8c3d 1474 f5bc
000000e0: eaf4 053d 7288 36bd 5f1c 28bd 3396 efbc
000000f0: 0bca 3f3d 8dc6 2f3d 9d10 0cbd bf73 d43c
00000100: d361 3d3d 687f d8bb b8fe d63b 1960 a23c
00000110: 729d 463d bbce 963d 15fe 81bd 0ab6 f7bc
00000120: 77f4 a53c 3d71 5a3d f254 5e3d 302a 5a3d
00000130: 2314 91bb 598f bebd aaef 6cbc 3b98 96bd
00000140: 1aa9 c9bd 6bf9 763d 2016 453d 506d c7bd
00000150: d768 42bb 7056 08bd be78 09bd ba97 6dbd
00000160: abac 353c e87f 8dbd fe09 143d 52db 443d
00000170: 1f99 863d c312 1b3d ac7f 94bd 94a3 30bd
00000180: 56c1 553d d69c f23c f73d 4fbd c5f3 37bd
00000190: 5a84 9e3d 159d 683d c8c9 07bd d278 99bc
000001a0: 1bea 96bd 334c 2f3b 2581 64bd b22c 6abd
000001b0: eb73 06bc 754c 0c3c bbc7 0fbd ff7c 383d
000001c0: 1610 4ebd 3f78 8f3d bf4f 563d c37f 8ebd
000001d0: a70f b1bc 8f42 1bbb 202d ba3b f4cd 613c
000001e0: dc0b dd3c c01a 373a a2c4 30bd c423 0a3d
000001f0: 7a78 a5bd efd2 4dbd 8af5 62bc 03a4 02bd
00000200: 18ee a3bc 2d16 6cbd 5fb8 38bc 7823 a13c
00000210: 4eee 51bd f7a2 60bb a9f4 723d 64c4 e73b
00000220: ee41 8d3c 1c64 023c 9238 fe3c 5903 843d
00000230: 3551 b43d 0c46 813d 8917 b53d c680 133c
00000240: 80aa 9fbd f8f8 3ebd 0b1d 3b3d 190b 3cbc
00000250: fff4 55bd 7208 98bd 578a b2bd 0f1f a1bd
00000260: e4fd d4bc f0de f63c 281e e63c b16e c6bd
00000270: 241e 053d bb45 acbd 281c 18bd d20c 58bd
00000280: e725 0dbd 33a0 0bbd 7229 94bd 2f3e 91bd
00000290: 6fb1 82bc c712 3fbb 5432 21bd 8949 d83c
000002a0: 6f6f 98bd 93ae 0ebc b7a8 883d 374c 1bbd
000002b0: f02b 883d a4a7 b13c 936a a2bd ebec 2d3d
000002c0: 3ad4 98bc 298a 39bd 767f 5e3d f2e3 9bbd
000002d0: bebd 80bb 8287 f1bc 494e 363d 1748 163c
000002e0: 4867 c93c 3a3b 633c 9a5b 0abd d611 06bd
000002f0: 6449 a9bd e052 1a3d 825a 6b3d dd23 453d
00000300: 21d9 80bd 1e39 8fbb 671a 84bd 78c5 5abd
00000310: 937e 68bd 14a9 823c d78c 24bd 0665 cb3b
00000320: fcf8 2e3c cda5 6d3d 18b7 55bd 6e47 42bd
00000330: 2861 23bd 5e33 7b3d da0c b4bc 3ff3 603d
00000340: 4ce5 813c 41ec 6dbb 96a1 73bc 910c f6bc
00000350: d999 a3bb 1afd 0cbd 721d 8dbc 1737 d7bb
00000360: cdaf b0bd d3c1 87bd 59fb 333d c569 bebd
00000370: 5217 00bd e5ed 6d3d 3b6b be3b b50c b5bc
00000380: f43e c6bd 845a a03c 3684 a9bd d43a 45bd
00000390: cb32 5bbd cd58 1bbd 9e68 c7bc ef51 373d
000003a0: 8830 61bc f945 533d ac31 5b3d 4fb7 39bd
000003b0: 50f4 283d 868f 4fbd 88ab e3bc 2edd f73c
000003c0: 7790 0b3d e8ef 8a3d 2069 91bc 28ca de3b
000003d0: 1b77 443d 4a78 8fbd 145e 843d 02aa 6fbd
000003e0: d0c5 193c 962a 95bb b365 06bd 77d3 a33c
000003f0: ac21 6d3d ccb0 f2bc 57db 59bd aa8d 12bd

model.qy_x.model.tcn_block_00.block.conv1d_layer_1.bias f4 [32]
-0.047389686 -0.038440797 -0.025137909 0.06658385 0.031167744 0.06352923 0.047792047 0.057192903
0.013452306 0.037463214 0.030199282 -0.037280995 -0.03408628 0.058410894 0.05273047 -0.006839474
-0.020053683 -0.043648534 -0.023012271 -0.016232824 0.0043886276 0.029490799 0.033304542 0.026768073
0.0370264 0.05407835 0.010062527 -0.002083716 0.01970825 0.031243753 0.020912336 -0.004194123
00000000: b01b 42bd 1974 1dbd 04ee cdbc 1d5d 883d
00000010: 7f53 ff3c 9d1b 823d 98c1 433d 1b43 6a3d
00000020: 1067 5c3c 0773 193d 7c64 f73c f5b3 18bd
00000030: 0e9e 0bbd 4340 6f3d e8fb 573d ab1d e0bb
00000040: 9f47 a4bc cec8 32bd 3b84 bcbc b3fa 84bc
00000050: 7ace 8f3b b096 f13c 586a 083d b848 db3c
00000060: ffa8 173d 4381 5d3d 4cdd 243c f48e 08bb
00000070: 3273 a13c e6f2 ff3c 5950 ab3c db6e 89bb

model.qy_x.model.tcn_block_00.block.conv1d_layer_1.weight_g f4 [32, 1, 1]
0.5757965 0.5972819 0.6063618 0.5965999 0.5749924 0.6079099 0.61263996 0.58404976
0.55991495 0.6075321 0.57272375 0.6000305 0.5885193 0.5815127 0.6248081 0.5854073
0.57374674 0.6141189 0.5990268 0.5914889 0.60602427 0.6018014 0.55316806 0.58829975
0.59876215 0.64059556 0.60144484 0.6055326 0.5820912 0.588998 0.5708836 0.60890734
00000000: 6667 133f 77e7 183f 873a 1b3f c5ba 183f
00000010: b432 133f fc9f 1b3f f9d5 1c3f 4984 153f
00000020: 9656 0f3f 3987 1b3f 069e 123f 999b 193f
00000030: 33a9 163f 04de 143f 6cf3 1f3f 41dd 153f
00000040: 11e1 123f e536 1d3f d259 193f d16b 173f
00000050: 6824 1b3f a80f 1a3f 6c9c 0d3f d09a 163f
00000060: 7a48 193f 12fe 233f 4af8 193f 2f04 1b3f
00000070: ee03 153f 93c8 163f 6d25 123f 5ae1 1b3f

model.qy_x.model.tcn_block_00.block.conv1d_layer_1.weight_v f4 [32, 32, 9]
0.0291049 0.011088487 0.029470919 -0.0033512062 -0.004055216 -0.02237878 -0.0183723 -0.037758436
0.024655407 0.055300876 0.025633123 0.005959063 -0.015699374 -0.055591606 -0.012392401 -0.043066837
-0.046660088 -0.018641988 -0.018308748 0.003880572 -0.047194943 0.032271504 -0.05723558 -0.033170942
-0.027939979 -0.004170989 0.014092373 -0.013599879 0.010056217 -0.011705586 -0.021502981 -0.00892206
0.010027066 -0.055836104 -0.040182114 0.04293823 0.024699822 -0.00024232 0.0014914422 0.005326131
0.008071792 -0.03792066 -0.01964474 -0.054371413 -0.04829937 -0.00701676 -0.0033958417 0.04699738
0.013072099 -0.005529145 -0.0013137822 0.029281694 -0.01766982 -0.012628866 -0.0088980775 -0.04307342
-0.005985183 -0.050110813 -0.028863523 -0.034989726 0.04099509 -0.05365912 0.050006066 0.033586163
-0.028628852 0.06132531 -0.0004551279 -0.03784184 0.006095167 0.045676578 -0.041215897 0.013021133
0.014771712 -0.029436486 -0.0044318307 -0.030593038 -0.04450219 0.03445449 -0.04591156 -0.011153475
0.0062568495 -0.025426846 0.036539607 -0.040936925 0.06531296 0.036512334 0.0027940285 -0.03768691
0.017077567 0.03860462 -0.030373156 -0.0075610275 -0.05662401 -0.056547098 -0.008128659 0.042991415
-0.006996722 0.011249078 -0.029763483 -0.01801215 -0.0060990294 -0.027435426 0.03347492 0.03418602
-0.044942714 0.014347899 -0.027396351 -0.036722902 -0.012345116 -0.02341837 -0.037929505 0.0018906771
0.02629073 -0.01462188 -0.009568179 -0.0009814912 -0.029837139 0.045704186 0.06847673 0.009547802
0.019378116 0.061461918 0.062109634 -0.029752119 -0.012265339 -0.042747065 0.03137559 0.04051571
-0.022784198 0.015537879 0.011566105 -0.04875301 0.021576952 0.026383199 0.00015814124 0.00307097
0.009795139 0.035777576 0.04501942 0.0054127485 0.020867165 -0.015414384 0.0300451 -0.022584453
-0.04185373 0.032277785 0.027525062 0.01866381 0.03063119 0.014523802 0.02971814 0.034528892
-0.020184094 -0.0054511125 0.0043708915 -0.01350812 -0.0545512 -0.0035220438 0.022401892 -0.041289926
0.038424842 -0.0022850342 0.026879512 -0.01867958 -0.041960765 -0.016536072 0.0048336433 -0.022780642
0.05046763 -0.035272066 -0.03800536 -0.0055850763 0.06844387 -0.01185084 0.06999982 0.043752477
0.0065154303 0.04549694 0.043185364 -0.015261366 -0.015900942 0.05055959 0.027333299 -0.03394471
-0.021386214 0.025774729 0.022712866 -0.001265025 -0.04373021 -0.035935838 -0.0063224095 0.026213778
9.710223e-06 -0.040769085 -0.0069299396 0.061248828 -0.039892033 -0.037691243 0.03652591 0.05785195
-0.052589253 -0.049051493 -0.015898883 0.05601144 -0.032607317 0.0025371024 0.041613452 -0.024809275
-0.022361064 -0.042600326 -0.009369356 0.04097424 0.008439269 0.024920171 -0.01678434 -0.022094194
-0.008251296 0.035148226 -0.004878344 -0.046623837 -0.017750131 0.024633393 0.057396084 -0.009300919
-0.049741592 -0.042780854 -0.04593965 0.019241907 0.037394796 0.012641047 0.01438544 0.030781295
0.032991335 0.028163513 0.025543181 0.009891703 0.024029655 -0.04369602 -0.041281197 0.010616224
0.004528652 -0.054274827 -0.04454699 -0.056761514 0.02871101 0.020083718 -0.043087844 -0.009690747
-0.029056631 0.03110494 -0.06343355 -0.053271502 -0.037258767 0.042841136 -0.019611876 0.04021002
00000000: 666d ee3c 7cac 353c ff6c f13c e99f 5bbb
00000010: 9ee1 84bb b453 b7bc 8181 96bc 97a8 1abd
00000020: 23fa c93c 2c83 623d 8efc d13c 3e44 c33b
00000030: f99b 80bc 06b4 63bd 7f09 4bbc da66 30bd
00000040: a61e 3fbd 15b7 98bc 3afc 95bc 3251 7e3b
00000050: 7c4f 41bd 202f 043d db6f 6abd 41de 07bd
00000060: 62e2 e4bc cbac 88bb b2e3 663c 07d2 5ebc
00000070: d5c2 243c c9c8 3fbc 0527 b0bc d52d 12bc
00000080: 9048 243c 66b4 64bd 0096 24bd ffdf 2f3d
00000090: 4857 ca3c 4817 7eb9 7f7c c33a d386 ae3b
000000a0: 8d3f 043c b252 1bbd 01ee a0bc 8fb4 5ebd
000000b0: 8fd5 45bd d9ec e5bb c58c 5ebb 5380 403d
000000c0: 5b2c 563c d42d b5bb 3733 acba 2ae0 ef3c
000000d0: 4cc0 90bc 4ee9 4ebc 3ec9 11bc c16d 30bd
000000e0: 5b1f c4bb ff40 4dbd 3273 ecbc 6351 0fbd
000000f0: 78ea 273d aac9 5bbd 29d3 4c3d a591 093d
00000100: 0e87 eabc 4030 7b3d 3c9e eeb9 0c00 1bbd
00000110: f7b9 c73b 5d17 3b3d 00d2 28bd 9756 553c
00000120: 0d05 723c c924 f1bc e438 91bb 409e fabc
00000130: ee47 36bd 2720 0d3d c30d 3cbd 11bd 36bc
00000140: 4206 cd3b f64b d0bc 8eaa 153d 7aad 27bd
00000150: cdc2 853d f58d 153d 051c 373b 975d 1abd
00000160: 41e6 8b3c e11f 1e3d 20d1 f8bc 7fc2 f7bb
00000170: 94ee 67bd ee9d 67bd 112e 05bc c417 303d
00000180: c244 e5bb 0e4e 383c 8cd2 f3bc 378e 93bc
00000190: 5eda c7bb 42c0 e0bc ff1c 093d a406 0c3d
000001a0: da15 38bd 7313 6b3c 506e e0bc c16a 16bd
000001b0: 2b43 4abc e2d7 bfbc f85b 1bbd 99d0 f73a
000001c0: a85f d73c 9c90 6fbc dac3 1cbc 61a5 80ba
000001d0: 046d f4bc 5034 3b3d 873d 8c3d 626e 1c3c
000001e0: dbbe 9e3c 7ebf 7b3d ac66 7e3d b7ba f3bc
000001f0: 8ff4 48bc 8c17 2fbd b183 003d cdf3 253d
00000200: eda5 babc 9792 7e3c c37f 3d3c 3cb1 47bd
00000210: 26c2 b03c 9421 d83c b7d2 2539 5442 493b
00000220: ca7b 203c 828b 123d 4966 383d 6d5d b13b
00000230: 9ef1 aa3c 9d8c 7cbc 2421 f63c 0803 b9bc
00000240: d16e 2bbd b635 043d 3d7c e13c d9e4 983c
00000250: 43ee fa3c 3ef5 6d3c 7573 f33c 2b6e 0d3d
00000260: 1d59 a5bc 3f9f b2bb b239 8f3b 2951 5dbc
00000270: 1471 5fbd 17d2 66bb 2c84 b73c a01f 29bd
00000280: 5e63 1d3d 83c0 15bb 6c32 dc3c eb05 99bc
00000290: 0ddf 2bbd a876 87bc 8a63 9e3b 789e babc
000002a0: 25b7 4e3d 7179 10bd 82ab 1bbd 0403 b7bb
000002b0: 4d2c 8c3d 072a 42bc 115c 8f3d cc35 333d
000002c0: 647f d53b 005b 3a3d 23e3 303d cf0a 7abc
000002d0: b142 82bc 9317 4f3d 15ea df3c 9c09 0bbd
000002e0: 2432 afbc 8625 d33c 5510 ba3c 32cf a5ba
000002f0: 731e 33bd 7531 13bd 372c cfbb 47be d63c
00000300: 17e9 2237 7cfd 26bd 8c14 e3bb 0de0 7a3d
00000310: d465 23bd 2262 1abd 319c 153d 2bf6 6c3d
00000320: d467 57bd 38ea 48bd 603e 82bc 406c 653d
00000330: 408f 05bd 8445 263b de72 2a3d d23c cbbc
00000340: 8d2e b7bc ae7d 2ebd ed81 19bc 9bd4 273d
00000350: dc44 0a3c 6325 cc3c 507f 89bc e2fe b4bc
00000360: 7230 07bc 96f7 0f3d 84da 9fbb a3f8 3ebd
00000370: b968 91bc f8cb c93c 2818 6b3d e262 18bc
00000380: d7bd 4bbd fa3a 2fbd 372b 3cbd 34a1 9d3c
00000390: 492b 193d 651c 4f3c e9b0 6b3c 0e29 fc3c
000003a0: ec21 073d 2bb7 e63c ef3f d13c cf10 223c
000003b0: d7d9 c43c 99fa 32bd 7916 29bd acef 2d3c
000003c0: 1665 943b 484f 5ebd e876 36bd c37e 68bd
000003d0: 5a33 eb3c 9c86 a43c e17c 30bd f0c5 1ebc
000003e0: 2c08 eebc cacf fe3c 73e9 81bd 3833 5abd
000003f0: a69c 18bd 307a 2f3d 16a9 a0bc 43b3 243d

model.qy_x.model.tcn_block_00.downsample.weight f4 [32, 16, 1]
-0.008034911 -0.022615287 -0.011159345 -0.008333492 -0.018608289 -0.010119248 -0.015847422 -0.009029294
-0.0017088874 -0.015747098 -0.00036787763 -0.0034772132 0.0023487364 -0.0065950355 0.012226979 -0.008722383
0.0073086396 -0.0072128517 0.0066936007 -0.022667598 -0.019045802 -0.0060553816 -0.00727759 -0.013878471
-0.041448463 0.0018898639 0.021827787 -0.014388265 0.010225614 0.010952598 -0.0024018174 0.007874954
-0.030435259 -0.006198341 -0.002049945 0.019537494 0.020201433 0.018586444 -0.006606301 0.020547079
0.02630261 0.006593593 -0.009350993 -0.02600107 -0.0144427605 -0.028926559 -0.0012380977 -0.030142765
0.01974484 0.030328862 -0.0012631979 -0.03491162 -0.016435917 -0.015724305 -0.015966564 -0.014304619
0.02198516 0.016208956 0.037360266 0.022155706 -0.008898977 0.028639056 0.012795573 -0.0010262163
0.00016734573 0.010850994 -0.005901264 -0.029722555 -0.0076805786 -0.00995301 -0.0071817976 0.0077550937
0.01451861 -0.001198728 0.01964431 0.03989642 0.0026306987 -0.009071396 0.0017207516 0.0052235513
-0.007874618 -0.004640809 0.03319483 -0.0068297624 0.0031066963 0.010459672 -0.0055211233 -0.0019856289
-0.017149497 -0.017576594 -0.004793974 0.02066214 -0.00476548 -0.004173865 -0.009838128 0.0067424662
-0.020628942 -0.012620875 -0.014948831 0.0076783146 -0.028478876 -0.031181073 0.007752822 -0.013471064
-0.015819212 -0.002506255 0.018291533 0.026478661 -0.021385806 -0.00576941 -0.0037594105 0.010542397
0.016417228 0.03313201 0.004777966 -0.025563993 -0.01348874 -0.013826904 -0.00044677945 0.008490746
0.02301184 0.0077045667 0.0407649 0.01460912 -0.0030692187 0.020425852 0.004743627 0.0014331215
-0.0022043234 -0.022872578 -0.0018930031 -0.012772413 -0.019520545 -0.02252249 0.00801617 -0.030478666
-0.024227267 -0.025470015 0.0052289558 0.023897922 -0.010395177 0.008999564 -0.012136952 0.009250923
-0.015998114 -0.027722515 -0.010166341 -0.015654575 -0.024887877 -0.0024674502 0.014141298 -0.013913742
-0.020187689 -0.0043077245 0.008049811 0.011411283 0.01550742 0.004478635 -0.0010963578 0.008492398
0.0037736073 0.015548545 -0.0049548447 -0.005492745 -0.020369431 -0.007404215 -0.010118574 -0.0026693803
-0.01689974 -0.025363449 0.011363196 0.00793605 -0.0013104762 -0.013096622 -0.0032484308 0.016936127
-0.015103587 -0.0007750227 0.0017796955 0.019220749 0.017912112 0.017159376 -0.004655862 0.009143039
0.021901658 0.0044822637 -0.03198925 -0.027884787 -0.017536031 -0.027347848 -0.0009641538 -0.012779943
0.017646115 0.014663561 -0.0019509866 -0.031047039 -0.008014904 -0.015285344 -0.013756942 -0.02476139
-0.006089223 -0.014222285 0.021811493 0.031156218 0.012047767 0.01422318 0.019787805 0.02462145
0.014816472 0.010088171 0.009448111 0.007669376 -0.0064863493 0.014093011 0.006957552 0.004049248
0.030576786 0.004526938 -0.0103132045 0.0048831906 -0.01893403 -0.027282191 0.02578999 -0.017049665
0.024312122 -0.012775441 -0.013314748 0.017097386 0.0047762385 0.0051753186 -0.008623935 -0.012730798
0.02042971 0.031392127 0.006817666 -0.0010861247 -0.030806314 -0.016701069 -0.01490963 -0.01090389
0.0151053285 -0.019932417 -0.0003568815 -0.021404656 -0.034196507 -0.017456716 0.0023525713 -0.009241728
-0.010683997 -0.012545463 0.026267882 0.03619158 0.01213495 -0.0033584987 0.0036705292 0.033204995
00000000: dca4 03bc b243 b9bc afd5 36bc 3389 08bc
00000010: 6970 98bc 34cb 25bc 74d2 81bc 9bef 13bc
00000020: bffc dfba 0f00 81bc b3df c0b9 f5e1 63bb
00000030: 42ed 193b 2b1b d8bb ab53 483c 53e8 0ebc
00000040: 507d ef3b c959 ecbb fe55 db3b 66b1 b9bc
00000050: f105 9cbc 396c c6bb da78 eebb 8762 63bc
00000060: ddc5 29bd 4fb5 f73a 30d0 b23c c2bc 6bbc
00000070: 5589 273c 8772 333c cf67 1dbb f305 013c
00000080: 5d53 f9bc 741b cbbb 5f58 06bb 180d a03c
00000090: 7a7d a53c 9942 983c ab79 d8bb 5952 a83c
000000a0: 9278 d73c 110f d83b e834 19bc 3200 d5bc
000000b0: 54a1 6cbc 64f7 ecbc aa47 a2ba f6ed f6bc
000000c0: eebf a13c 3c74 f83c e391 a5ba 7dff 0ebd
000000d0: 9ea4 86bc 42d0 80bc 50cc 82bc ec5d 6abc
000000e0: 391a b43c a5c8 843c 1407 193d e27f b53c
000000f0: 04cd 11bc 749c ea3c 86a4 513c 1b82 86ba
00000100: 8779 2f39 5ec8 313c 645f c1bb b77c f3bc
00000110: 5dad fbbb f311 23bc 4955 ebbb 711e fe3b
00000120: 77df 6d3c a31e 9dba 1bed a03c 6e6a 233d
00000130: cd67 2c3b 31a0 14bc d88a e13a 532a ab3b
00000140: 8b04 01bc ed11 98bb 4df7 073d 33cc dfbb
00000150: b799 4b3b 0b5f 2b3c 8aea b4bb 5321 02bb
00000160: 1a7d 8cbc cafc 8fbc c516 9dbb a643 a93c
00000170: be27 9cbb ebc4 88bb 1a30 21bc e8ef dc3b
00000180: 07fe a8bc c9c7 4ebc f1eb 74bc 5f9a fb3b
00000190: 884c e9bc 736f ffbc 620b fe3b bdb5 5cbc
000001a0: 4b97 81bc fb3f 24bb 20d8 953c c7e9 d83c
000001b0: 4931 afbc 520d bdbb 7160 76bb 05ba 2c3c
000001c0: 6c7d 863c 6eb5 073d 7c90 9c3b 946b d1bc
000001d0: e0ff 5cbc 3d8a 62bc b93d eab9 c51c 0b3c
000001e0: 5483 bc3c 9776 fc3b 19f9 263d 175b 6f3c
000001f0: f224 49bb 1e54 a73c 6d70 9b3b 94d7 bb3a
00000200: 6976 10bb 465f bbbc a51e f8ba 6243 51bc
00000210: 8de9 9fbc 1681 b8bc 4156 033c 65ae f9bc
00000220: 4378 c6bc 7ea6 d0bc a957 ab3b 93c5 c33c
00000230: 8850 2abc e872 133c 11da 46bc 2f91 173c
00000240: 7a0e 83bc 541a e3bc ba90 26bc 063e 80bc
00000250: a9e1 cbbc f2b4 21bb e7b0 673c 77f6 63bc
00000260: a760 a5bc d027 8dbb 5be3 033c 64f6 3a3c
00000270: d512 7e3c 83c1 923b aab3 8fba b323 0b3c
00000280: a04e 773b 53bf 7e3c 405c a2bb 7cfc b3bb
00000290: cbdd a6bc 0f9f f2bb 60c8 25bc c5f0 2ebb
000002a0: 5371 8abc 02c7 cfbc b32c 3a3c 3506 023c
000002b0: 49c4 abba 3793 56bc a0e3 54bb a2bd 8a3c
000002c0: 0975 77bc e52a 4bba ac44 e93a d574 9d3c
000002d0: 6cbc 923c d291 8c3c 3490 98bb afcc 153c
000002e0: 1b6b b33c f4df 923b 2907 03bd a36e e4bc
000002f0: b9a7 8fbc 9808 e0bc 44bf 7cba f762 51bc
00000300: 968e 903c 6f3f 703c 3fb8 ffba 5c56 febc
00000310: f250 03bc 616f 7abc cc64 61bc 66d8 cabc
00000320: 1b88 c7bb 9604 69bc 04ae b23c 533b ff3c
00000330: ff63 453c 5708 693c 091a a23c ecb2 c93c
00000340: cac0 723c db48 253c 40cc 1a3c 644f fb3b
00000350: 718b d4bb 5fe6 663c 2dfc e33b 8eaf 843b
00000360: 2b7c fa3c b556 943b b7f8 28bc 2c03 a03b
00000370: 8a1b 9bbc e77e dfbc 8745 d33c bdab 8bbc
00000380: 372a c73c 1550 51bc 1a26 5abc d10f 8c3c
00000390: fe81 9c3b b895 a93b 684b 0dbc d694 50bc
000003a0: 355c a73c 0895 003d ba66 df3b 4c5c 8eba
000003b0: 865d fcbc aed0 88bc 8547 74bc 3ba6 32bc
000003c0: 577c 773c 4f49 a3bc d31b bbb9 d158 afbc
000003d0: a311 0cbd 6301 8fbc 992d 1a3b 9e6a 17bc
000003e0: ee0b 2fbc 7c8b 4dbc be2f d73c 9f3d 143d
000003f0: abd1 463c 421a 5cbb 438d 703b f601 083d

model.qy_x.model.tcn_block_00.downsample.bias f4 [32]
-0.012786208 -0.09563992 -0.12700903 -0.18896395 0.06488398 -0.032003537 -0.14160961 0.23004553
0.17379686 0.05964011 0.07754742 -0.023112213 0.1925164 -0.23019032 -0.13606365 0.18696815
0.1965861 -0.01393906 -0.052759778 0.12233258 0.17017604 -0.06467606 0.13792333 0.13913755
0.044806544 -0.14068265 0.04592432 -0.037490685 0.062866256 -0.17327465 0.095120035 0.22946097
00000000: 3e7d 51bc ddde c3bd a80e 02be c47f 41be
00000010: e4e1 843d 2416 03bd 1c02 11be 0e91 6b3e
00000020: cef7 313e 3049 743d 2fd1 9e3d d355 bdbc
00000030: 0523 453e 03b7 6bbe 4554 0bbe 9474 3f3e
00000040: de4d 493e a860 64bc a31a 58bd 8189 fa3d
00000050: a142 2e3e e274 84bd c63b 0d3e 137a 0e3e
00000060: 1187 373d 1d0f 10be 241b 3c3d d58f 19bd
00000070: 06c0 803d e96e 31be 4bce c23d d1f7 6a3e

model.qy_x.model.tcn_block_01.conv0.bias f4 [32]
0.04354732 0.031615816 0.047611516 0.03704146 0.041242566 0.057149656 0.03570833 0.042055443
-0.03606365 0.012031995 0.011754858 0.0016785578 -0.05766046 -0.0414514 0.037150234 0.050316673
-0.01424044 0.048036866 0.03126377 0.052369215 -0.058782406 -0.033048265 0.010189857 0.05112912
0.025099492 -0.019764345 -0.028490106 -0.02094335 -0.008226002 0.0036382643 -0.03137349 0.039106853
00000000: ad5e 323d 967f 013d 4b04 433d c9b8 173d
00000010: f7ed 283d c215 6a3d e642 123d 5442 2c3d
00000020: 7ab7 13bd d821 453c 7397 403c 0e03 dc3a
00000030: 602d 6cbd f1c8 29bd d82a 183d db18 4e3d
00000040: bc50 69bc 4ec2 443d 700e 003d 1a81 563d
00000050: d2c5 70bd 9e5d 07bd 5cf3 263c c56c 513d
00000060: 739d cd3c d6e8 a1bc 1564 e9bc 6391 abbc
00000070: 5ac6 06bc f26f 6e3b 7d81 00bd 822e 203d

model.qy_x.model.tcn_block_01.conv0.weight_g f4 [32, 1, 1]
0.56044966 0.5670329 0.6001526 0.58984375 0.58043253 0.61109525 0.5729003 0.5938465
0.6150256 0.56838477 0.5782259 0.58641887 0.584301 0.599931 0.58167034 0.56795585
0.5709482 0.59649473 0.6197598 0.5753112 0.5546094 0.6041736 0.56246734 0.5929638
0.56930995 0.5783601 0.5852788 0.6257243 0.60542053 0.56204647 0.55664444 0.5943489
00000000: a179 0f3f 1129 113f 9aa3 193f 0000 173f
00000010: 3a97 143f bd70 1c3f 98a9 123f 5306 183f
00000020: 5172 1d3f aa81 113f 9d06 143f 8c1f 163f
00000030: c094 153f 1495 193f 59e8 143f 8e65 113f
00000040: a929 123f e1b3 183f 94a8 1e3f 9847 133f
00000050: e2fa 0d3f 1fab 1a3f dcfd 0f3f 7acc 173f
00000060: 4cbe 113f 680f 143f d5d4 153f 782f 203f
00000070: d7fc 1a3f 47e2 0f3f 4080 0e3f 4027 183f

model.qy_x.model.tcn_block_01.conv0.weight_v f4 [32, 32, 9]
-0.04382918 -0.017007109 -0.013746766 -0.047099765 -0.034226708 0.007047214 0.013442533 0.032689862
-0.004019358 -0.018828562 -0.042874437 -0.0038003551 -0.015661523 -0.006518296 -0.031718466 -0.005664905
0.051656544 0.011308532 -0.04124155 -0.0030249262 0.017654194 -0.00085634476 -0.0057162787 -0.03627051
0.0069116615 -0.043809526 -0.043459408 0.016122691 0.02646405 -0.019213168 0.06581703 -0.0020974507
0.0089002885 0.005570366 0.025235452 0.06699369 -0.013703876 0.008882811 0.004046449 0.0071050515
0.06252467 0.036551896 0.016832806 0.022461472 0.06290158 -0.05434851 0.053975604 -0.04414299
0.008964305 -0.025059 0.045650285 -0.040764853 0.027189465 -0.042324252 -0.018578375 -0.0011201837
-0.03877569 -0.01846117 0.019217104 -0.037185933 -0.037931193 0.018134909 0.04421637 0.005665793
-0.030538352 -0.038909603 0.0066643525 0.0003061319 -0.04412319 0.025096672 0.06478764 0.046835233
0.04571288 -0.024623835 -0.04595378 -0.04044871 -0.002630094 0.0043627047 0.025306111 0.004005001
-0.020440435 -0.010458672 0.02167008 -0.02197072 -0.015472536 0.042053282 0.0496716 0.013438686
0.057142053 0.008526778 0.03986408 0.009637634 0.0250723 0.022855828 -0.020043954 0.036285885
-0.049836572 0.0033388312 0.0013415186 -0.005726983 -0.01487153 -0.037933968 0.023474948 -0.049491636
-0.05103305 -0.04823142 0.012226022 -0.0024508142 -0.01438892 0.06010007 -0.047693357 0.0034969838
0.047299992 0.04151265 -0.037364654 -0.0122524155 0.06424973 -0.013766626 -0.028052807 0.055138946
0.05617569 0.0280308 -0.015521431 0.04040422 -0.029177515 -0.032922503 0.0016591949 -0.031759582
0.034911662 0.06344144 0.07180213 -0.0103099635 0.027873581 -0.008061475 0.055404242 0.010233285
0.057333924 -0.025319308 -0.012684534 0.0047700875 -0.051844608 -0.0007268475 -0.0034443976 0.037025575
0.029052198 0.061963834 -0.01888904 0.033130772 -0.014463415 -0.0057179215 0.050895568 -0.03369017
0.07611473 -0.051767282 0.024060305 0.0023323896 0.035957314 0.010505323 -0.020163586 -0.030247286
0.013831817 -0.029678522 -0.034652397 -0.0014818768 -0.035415646 -0.018966004 -0.047988575 -0.032130726
-0.034033187 -0.029088201 -0.016131097 0.027455747 -0.03971202 -0.023741895 -0.012661125 -0.020216445
-0.006082261 0.033638522 0.043474015 -0.014483856 0.030979326 -0.016227392 0.021859333 -0.020905891
-0.0008360406 -0.045436323 -0.00983322 -0.025710536 0.030184796 0.012913463 -0.024173465 0.043324966
-0.019801246 0.069567114 0.026717203 0.03820588 -0.005817595 -0.03331608 0.044565063 -0.0198104
0.04816195 -0.03387633 -0.004034685 0.018132864 0.06201097 -0.013698042 0.029156849 0.05643863
-0.0439665 0.06268758 0.018441636 -0.018519675 0.011471394 0.028252212 0.035800338 -0.043291748
0.04854972 0.052841954 -0.016218774 0.041341044 0.07758675 0.023181586 0.0015897828 0.006359759
-0.030899275 0.036447488 -0.008624515 -0.045789357 -0.016051486 -0.0390573 0.024748532 0.05214998
-0.05646213 0.006692501 -0.022628838 -0.024647957 0.009595394 -0.03213805 0.057336893 0.017491551
0.0024054546 -0.0006542435 0.053832587 0.015623814 -0.04970115 -0.0073020686 -0.02525148 -0.025103712
-0.03475597 0.03267643 -0.011207081 0.05405142 -0.016554175 -0.040267356 0.026631813 -0.033259448
00000000: 3a86 33bd 7e52 8bbc 1e3a 61bc afeb 40bd
00000010: 4e31 0cbd 51ec e63b 123e 5c3c cee5 053d
00000020: d2b4 83bb 5b3e 9abc 1b9d 2fbd 610f 79bb
00000030: 984c 80bc 6e97 d5bb 39eb 01bd aba0 b9bb
00000040: d095 533d 6c47 393c e6ec 28bd d73d 46bb
00000050: 879f 903c 537c 60ba 9f4f bbbb 6390 14bd
00000060: 387b e23b 9e71 33bd 7e02 32bd bc13 843c
00000070: 23cb d83c ef64 9dbc 14cb 863d 6275 09bb
00000080: 84d2 113c 9e87 b63b 94ba ce3c fd33 893d
00000090: 3986 60bc 3689 113c 1398 843b 7ed1 e83b
000000a0: ef0c 803d 71b7 153d f4e4 893c 1f01 b83c
000000b0: 8bd2 803d 8b9c 5ebd 8615 5d3d 48cf 34bd
000000c0: 05df 123c 8848 cdbc cbfb 3a3d 0cf9 26bd
000000d0: 71bc de3c 325c 2dbd ad31 98bc 21d3 92ba
000000e0: 42d3 1ebd e13b 97bc 306d 9d3c 4750 18bd
000000f0: bd5d 1bbd a98f 943c 391c 353d 1ea8 b93b
00000100: 912b fabc ad5f 1fbd a460 da3b 5480 a039
00000110: 85ba 34bd 8997 cd3c 62af 843d 4dd6 3f3d
00000120: 6e3d 3b3d edb7 c9bc 083a 3cbd 8cad 25bd
00000130: a85d 2cbb 05f5 8e3b c34e cf3c 623c 833b
00000140: b372 a7bc da5a 2bbc 7485 b13c f0fb b3bc
00000150: 8580 7dbc 1040 2c3d 7374 4b3d ef2d 5c3c
00000160: c90d 6a3d e6b3 0b3c 8448 233d 2be7 1d3c
00000170: 6d64 cd3c 253c bb3c 3833 a4bc 82a0 143d
00000180: 6f21 4cbd 4bd0 5a3b e5d5 af3a 6aa9 bbbb
00000190: b8a7 73bc a660 1bbd 894e c03c beb7 4abd
000001a0: 0808 51bd 4f8e 45bd a74f 483c d79d 20bb
000001b0: 81bf 6bbc 7e2b 763d 1c5a 43bd a72d 653b
000001c0: a3bd 413d 2b09 2a3d ae0b 19bd 5bbe 48bc
000001d0: 5d95 833d 6a8d 61bc 00cf e5bc 60d9 613d
000001e0: 7b18 663d d9a0 e53c 9a4d 7ebc e57e 253d
000001f0: af05 efbc bfd9 06bd 5879 d93a 5616 02bd
00000200: 88ff 0e3d 96ed 813d ff0c 933d 1feb 28bc
00000210: 2357 e43c 4714 04bc 8fef 623d 82a9 273c
00000220: fad6 6a3d 706a cfbc cbd2 4fbc 654e 9c3b
00000230: 035b 54bd e989 3eba 67bb 61bb 21a8 173d
00000240: e0fe ed3c cacd 7d3d 30bd 9abc 22b4 073d
00000250: f6f7 6cbc 675d bbbb df77 503d b4fe 09bd
00000260: 0ae2 9b3d ee09 54bd 1e1a c53c 01db 183b
00000270: fa47 133d 851e 2c3c 1b2e a5bc 28c9 f7bc
00000280: d89e 623c 5f20 f3bc acef 0dbd 893b c2ba
00000290: ff0f 11bd 985e 9bbc ab8f 44bd 829b 03bd
000002a0: 6266 0bbd 614a eebc 5d25 84bc e0ea e03c
000002b0: 12a9 22bd 5d7e c2bc 9b70 4fbc f59c a5bc
000002c0: b44d c7bb 8cc8 093d cf11 323d b24d 6dbc
000002d0: 5bc8 fd3c 4fef 84bc 5812 b33c d542 abbc
000002e0: bc29 5bba 701b 3abd 841b 21bc e79e d2bc
000002f0: 1b46 f73c fd92 533c 6e07 c6bc 8575 313d
00000300: 3936 a2bc 3479 8e3d 09de da3c c57d 1c3d
00000310: 86a1 bebb 7176 08bd db89 363d 6c49 a2bc
00000320: 7745 453d e8c1 0abd 6435 84bb 5f8b 943c
00000330: 37ff 7d3d c16d 60bc 58da ee3c 312c 673d
00000340: 3716 34bd 5962 803d ea12 973c 93b6 97bc
00000350: 84f2 3b3c 2f71 e73c 60a3 123d b052 31bd
00000360: 12dc 463d ce70 583d 3cdd 84bc 3a55 293d
00000370: cde5 9e3d 4fe7 bd3c 4260 d03a 8665 d03b
00000380: 7a20 fdbc f649 153d d64d 0dbc 9f8d 3bbd
00000390: 687e 83bc 8cfa 1fbd 6fbd ca3c 389b 553d
000003a0: d644 67bd c44c db3b 1d60 b9bc 83ea c9bc
000003b0: 0036 1d3c 30a3 03bd 17da 6a3d 714a 8f3c
000003c0: d5a4 1d3b 8a81 2bba 8f7f 5c3d 07fb 7f3c
000003d0: 6f93 4bbd 3146 efbb 31dc cebc 4da6 cdbc
000003e0: 475c 0ebd b8d7 053d e89d 37bc 0665 5d3d
000003f0: 9f9c 87bc 62ef 24bd f62a da3c 0f3b 08bd

model.qy_x.model.tcn_block_01.conv1.bias f4 [7]
-0.04420089 0.037684005 0.036451764 0.041969355 -0.029548286 -0.067672476 -0.025044143
00000000: fe0b 35bd 8b5a 1a3d 724e 153d 0fe8 2b3d
00000010: 3f0f f2bc de97 8abd 6029 cdbc

model.qy_x.model.tcn_block_01.conv1.weight_g f4 [7, 1, 1]
0.53388166 0.59023064 0.57931143 0.5897594 0.5924437 0.5882577 0.6096855
00000000: 78ac 083f 5b19 173f c14d 143f 79fa 163f
00000010: 64aa 173f 0e98 163f 5914 1c3f
