results_gmdgm/ssm_v1/dtcn/hr_v1/version_2/best_val_model.pt (torch, 58663 bytes, 204 tensors)

model.qy_x.model.tcn_block_00.conv0.bias f4 [2]
0.019487604 -0.016284427
00000000: 78a4 9f3c eb66 85bc

model.qy_x.model.tcn_block_00.conv0.weight_g f4 [2, 1, 1]
0.5923515 0.5966562
00000000: 59a4 173f 76be 183f

model.qy_x.model.tcn_block_00.conv0.weight_v f4 [2, 10, 9]
-0.00868811 0.048482474 -0.09472462 -0.08565793 -0.04879221 0.020005032 -0.010330406 0.07534273
-0.017603533 0.035886116 -0.023695638 -0.012504836 -0.09249937 -0.06166614 -0.035222992 0.012181319
0.049990524 0.071568996 -0.063846745 -0.037950505 0.046336964 0.09538128 -0.013839124 0.08675805
-0.00880376 0.01954238 0.10372541 -0.10602388 -0.0748396 -0.03497245 -0.04951094 0.08280567
-0.07653968 -0.05673036 -0.081661485 -0.10707804 -0.053266503 0.09890628 0.05525828 0.059223548
0.013529125 -0.04621569 0.022884756 -0.093718745 -0.07213913 -0.06242677 0.05826336 0.053572472
-0.054994743 -0.012058961 0.05915792 0.09651968 0.033574983 0.0059348866 0.065264046 -0.06595594
0.01601521 -0.081636585 -0.06970892 -0.048941977 0.052012548 0.048875265 -0.05454937 0.034061685
0.062112022 -0.005825153 0.011839189 0.03231357 0.07341981 0.10922421 -0.07303463 -0.030435514
0.03472695 0.07961143 0.08382463 0.084940694 0.012874053 -0.09972972 0.0015238434 -0.07414526
-0.10650635 0.101921774 0.088463776 -0.09686859 0.028031481 -0.009453923 -0.0090268785 -0.039951462
0.048835613 -0.054215416 0.045678213 0.060565468 0.08298075 0.04723452 -0.09634776 -0.060288392
0.060719546 0.030281523 -0.0743756 -0.06797838 0.091299884 0.0631256 -0.05397356 -0.03464423
-0.10839812 -0.010033115 -0.08695586 -0.08793412 -0.012504814 0.008735099 -0.05036662 0.05487259
-0.07163744 0.08755729 0.06438794 -0.096622 -0.034376144 0.012298391 0.01972953 0.03070739
0.043644343 0.0067910035 -0.048087403 0.048837416 -0.098728895 -0.061440248 -0.029191103 -0.051696416
-0.03619835 -0.08438733 -0.02043336 0.024487697 -0.063649036 -0.002947048 0.077195436 -0.0029339762
0.01091822 -0.001025113 0.029528843 0.075006425 0.107628934 0.07401168 0.105665855 -0.0014878418
-0.09590274 -0.053756874 0.06618212 -0.0062067416 -0.057971083 -0.08635281 -0.10427181 -0.09478055
-0.027759545 0.051417466 0.050296806 -0.10806918 0.05853969 -0.089384496 -0.029622111 -0.05038355
-0.028046576 -0.028698673 -0.08780866 -0.08404793 -0.009364783 0.008505037 -0.040444143 0.0471859
-0.08697181 0.0008159419 0.10080801 -0.05083394 0.08729985 0.031537447 -0.09940878 0.061494023
-0.015046454 -0.048482474 0.0813927 -0.08463027
00000000: 9358 0ebc 8f95 463d fbfe c1bd 6d6d afbd
00000010: 57da 47bd 98e1 a33c dd40 29bc 4a4d 9a3d
00000020: 4935 90bc 52fd 123d 5b1d c2bc 15e1 4cbc
00000030: 4f70 bdbd a295 7cbd fc45 10bd 2894 473c
00000040: ddc2 4c3d c492 923d 15c2 82bd fd71 1bbd
00000050: d4cb 3d3d 4357 c33d 7ebd 62bc 34ae b13d
00000060: a53d 10bc 5717 a03c fd6d d43d 0c23 d9bd
00000070: 8145 99bd 463f 0fbd fccb 4abd 0596 a93d
00000080: d6c0 9cbd 185e 68bd 233e a7bd bb4b dbbd
00000090: fa2d 5abd 608f ca3d 8256 623d 6494 723d
000000a0: 43a9 5d3c aa4c 3dbd d078 bb3c 9def bfbd
000000b0: aebd 93bd 36b3 7fbd 90a5 6e3d cf6e 5b3d
000000c0: 2b42 61bd f392 45bc 934f 723d 1cac c53d
000000d0: ec85 093d 7079 c23b 28a9 853d e813 87bd
000000e0: 5432 833c 1531 a7bd 8dc3 8ebd 6277 48bd
000000f0: 1c0b 553d 6e31 483d 296f 5fbd 4484 0b3d
00000100: 2d69 7e3d ede0 bebb 28f9 413c 3c5b 043d
00000110: 205d 963d f1b0 df3d 2e93 95bd e653 f9bc
00000120: d93d 0e3d 510b a33d 3fac ab3d 63f5 ad3d
00000130: b1ed 523c 183f ccbd b3bb c73a 78d9 97bd
00000140: 0020 dabd 5dbc d03d 7f2c b53d 0a63 c6bd
00000150: 47a2 e53c a1e4 1abc 79e5 13bc 25a4 23bd
00000160: da07 483d fc10 5ebd 1419 3b3d 7f13 783d
00000170: d0f1 a93d fc78 413d f951 c5bd f6f0 76bd
00000180: 0fb5 783d f510 f83c 3c52 98bd 4038 8bbd
00000190: 6ffb ba3d ff47 813d 6113 5dbd 1ce7 0dbd
000001a0: d5ff ddbd ef61 24bc ea15 b2bd ce16 b4bd
000001b0: fee0 4cbc a91d 0f3c 3b4d 4ebd 15c2 603d
000001c0: a6b6 92bd 3d51 b33d d3dd 833d c1e1 c5bd
000001d0: 00ce 0cbd 317f 493c d39f a13c 108e fb3c
000001e0: 69c4 323d 1187 de3b 4cf7 44bd be09 483d
000001f0: 6032 cabd c5a8 7bbd 2e22 efbc 9fbf 53bd
00000200: b944 14bd 44d3 acbd dd63 a7bc 6c9a c83c
00000210: 6d5a 82bd 4323 41bb a418 9e3d f447 40bb
00000220: 55e2 323c 165d 86ba 79e6 f13c f89c 993d
00000230: 8f6c dc3d 7093 973d 5767 d83d b003 c3ba
00000240: a868 c4bd 2b30 5cbd 7e8a 873d ec61 cbbb
00000250: 1673 6dbd bed9 b0bd 758c d5bd 4e1c c2bd
00000260: fc67 e3bc 1f9b 523d 0604 4e3d 6053 ddbd
00000270: 50c7 6f3d 380f b7bd 12aa f2bc fb5e 4ebd
00000280: efc1 e5bc 7b19 ebbc 07d5 b3bd 5221 acbd
00000290: bf6e 19bc b658 0b3c c2a8 25bd 0146 413d
000002a0: 471e b2bd efe4 553a 6e74 ce3d 4037 50bd
000002b0: 44ca b23d 692d 013d d596 cbbd 28e1 7b3d
000002c0: 6785 76bc 8f95 46bd 37b1 a63d a352 adbd

model.qy_x.model.tcn_block_00.conv1.bias f4 [2]
0.1986711 -0.19007903
00000000: 7070 4b3e 14a4 42be

model.qy_x.model.tcn_block_00.conv1.weight_g f4 [2, 1, 1]
0.54708135 0.48655957
00000000: 860d 0c3f 561e f93e

model.qy_x.model.tcn_block_00.conv1.weight_v f4 [2, 2, 9]
0.1762038 0.07385546 0.12113574 0.09113014 -0.04884462 -0.04177923 -0.18646088 0.13124646
0.18839157 0.15278466 -0.16901615 0.0020565598 -0.16727015 -0.13233367 -0.13640927 0.072182454
-0.13784565 -0.013327512 0.0015224502 0.14368844 -0.18629748 -0.16976574 -0.14214282 0.16138887
-0.08402252 0.20626454 0.092970416 0.035562463 0.005973577 -0.038814873 0.03535476 -0.0460324
0.006135332 0.03583008 -0.17646617 -0.11570384
00000000: c56e 343e 8841 973d 0416 f83d 70a2 ba3d
00000010: 4c11 48bd b320 2bbd 9aef 3ebe 7965 063e
00000020: b8e9 403e 9573 1c3e 9212 2dbe 59c7 063b
00000030: de48 2bbe 7a82 07be dfae 0bbe 65d4 933d
00000040: 6927 0dbe a35b 5abc f48c c73a 1023 133e
00000050: c4c4 3ebe 12d7 2dbe e38d 11be 2043 253e
00000060: 0014 acbd 0337 533e 4667 be3d f2a9 113d
00000070: ffbd c33b 58fc 1ebd 27d0 103d 788c 3cbd
00000080: e50a c93b 90c2 123d 8cb3 34be 23f6 ecbd

model.qy_x.model.tcn_block_00.block.conv1d_layer_0.bias f4 [2]
0.019487604 -0.016284427
00000000: 78a4 9f3c eb66 85bc

model.qy_x.model.tcn_block_00.block.conv1d_layer_0.weight_g f4 [2, 1, 1]
0.5923515 0.5966562
00000000: 59a4 173f 76be 183f

model.qy_x.model.tcn_block_00.block.conv1d_layer_0.weight_v f4 [2, 10, 9]
-0.00868811 0.048482474 -0.09472462 -0.08565793 -0.04879221 0.020005032 -0.010330406 0.07534273
-0.017603533 0.035886116 -0.023695638 -0.012504836 -0.09249937 -0.06166614 -0.035222992 0.012181319
0.049990524 0.071568996 -0.063846745 -0.037950505 0.046336964 0.09538128 -0.013839124 0.08675805
-0.00880376 0.01954238 0.10372541 -0.10602388 -0.0748396 -0.03497245 -0.04951094 0.08280567
-0.07653968 -0.05673036 -0.081661485 -0.10707804 -0.053266503 0.09890628 0.05525828 0.059223548
0.013529125 -0.04621569 0.022884756 -0.093718745 -0.07213913 -0.06242677 0.05826336 0.053572472
-0.054994743 -0.012058961 0.05915792 0.09651968 0.033574983 0.0059348866 0.065264046 -0.06595594
0.01601521 -0.081636585 -0.06970892 -0.048941977 0.052012548 0.048875265 -0.05454937 0.034061685
0.062112022 -0.005825153 0.011839189 0.03231357 0.07341981 0.10922421 -0.07303463 -0.030435514
0.03472695 0.07961143 0.08382463 0.084940694 0.012874053 -0.09972972 0.0015238434 -0.07414526
-0.10650635 0.101921774 0.088463776 -0.09686859 0.028031481 -0.009453923 -0.0090268785 -0.039951462
0.048835613 -0.054215416 0.045678213 0.060565468 0.08298075 0.04723452 -0.09634776 -0.060288392
0.060719546 0.030281523 -0.0743756 -0.06797838 0.091299884 0.0631256 -0.05397356 -0.03464423
-0.10839812 -0.010033115 -0.08695586 -0.08793412 -0.012504814 0.008735099 -0.05036662 0.05487259
-0.07163744 0.08755729 0.06438794 -0.096622 -0.034376144 0.012298391 0.01972953 0.03070739
0.043644343 0.0067910035 -0.048087403 0.048837416 -0.098728895 -0.061440248 -0.029191103 -0.051696416
-0.03619835 -0.08438733 -0.02043336 0.024487697 -0.063649036 -0.002947048 0.077195436 -0.0029339762
0.01091822 -0.001025113 0.029528843 0.075006425 0.107628934 0.07401168 0.105665855 -0.0014878418
-0.09590274 -0.053756874 0.06618212 -0.0062067416 -0.057971083 -0.08635281 -0.10427181 -0.09478055
-0.027759545 0.051417466 0.050296806 -0.10806918 0.05853969 -0.089384496 -0.029622111 -0.05038355
-0.028046576 -0.028698673 -0.08780866 -0.08404793 -0.009364783 0.008505037 -0.040444143 0.0471859
-0.08697181 0.0008159419 0.10080801 -0.05083394 0.08729985 0.031537447 -0.09940878 0.061494023
-0.015046454 -0.048482474 0.0813927 -0.08463027
00000000: 9358 0ebc 8f95 463d fbfe c1bd 6d6d afbd
00000010: 57da 47bd 98e1 a33c dd40 29bc 4a4d 9a3d
00000020: 4935 90bc 52fd 123d 5b1d c2bc 15e1 4cbc
00000030: 4f70 bdbd a295 7cbd fc45 10bd 2894 473c
00000040: ddc2 4c3d c492 923d 15c2 82bd fd71 1bbd
00000050: d4cb 3d3d 4357 c33d 7ebd 62bc 34ae b13d
00000060: a53d 10bc 5717 a03c fd6d d43d 0c23 d9bd
00000070: 8145 99bd 463f 0fbd fccb 4abd 0596 a93d
00000080: d6c0 9cbd 185e 68bd 233e a7bd bb4b dbbd
00000090: fa2d 5abd 608f ca3d 8256 623d 6494 723d
000000a0: 43a9 5d3c aa4c 3dbd d078 bb3c 9def bfbd
000000b0: aebd 93bd 36b3 7fbd 90a5 6e3d cf6e 5b3d
000000c0: 2b42 61bd f392 45bc 934f 723d 1cac c53d
000000d0: ec85 093d 7079 c23b 28a9 853d e813 87bd
000000e0: 5432 833c 1531 a7bd 8dc3 8ebd 6277 48bd
000000f0: 1c0b 553d 6e31 483d 296f 5fbd 4484 0b3d
00000100: 2d69 7e3d ede0 bebb 28f9 413c 3c5b 043d
00000110: 205d 963d f1b0 df3d 2e93 95bd e653 f9bc
00000120: d93d 0e3d 510b a33d 3fac ab3d 63f5 ad3d
00000130: b1ed 523c 183f ccbd b3bb c73a 78d9 97bd
00000140: 0020 dabd 5dbc d03d 7f2c b53d 0a63 c6bd
00000150: 47a2 e53c a1e4 1abc 79e5 13bc 25a4 23bd
00000160: da07 483d fc10 5ebd 1419 3b3d 7f13 783d
00000170: d0f1 a93d fc78 413d f951 c5bd f6f0 76bd
00000180: 0fb5 783d f510 f83c 3c52 98bd 4038 8bbd
00000190: 6ffb ba3d ff47 813d 6113 5dbd 1ce7 0dbd
000001a0: d5ff ddbd ef61 24bc ea15 b2bd ce16 b4bd
000001b0: fee0 4cbc a91d 0f3c 3b4d 4ebd 15c2 603d
000001c0: a6b6 92bd 3d51 b33d d3dd 833d c1e1 c5bd
000001d0: 00ce 0cbd 317f 493c d39f a13c 108e fb3c
000001e0: 69c4 323d 1187 de3b 4cf7 44bd be09 483d
000001f0: 6032 cabd c5a8 7bbd 2e22 efbc 9fbf 53bd
00000200: b944 14bd 44d3 acbd dd63 a7bc 6c9a c83c
00000210: 6d5a 82bd 4323 41bb a418 9e3d f447 40bb
00000220: 55e2 323c 165d 86ba 79e6 f13c f89c 993d
00000230: 8f6c dc3d 7093 973d 5767 d83d b003 c3ba
00000240: a868 c4bd 2b30 5cbd 7e8a 873d ec61 cbbb
00000250: 1673 6dbd bed9 b0bd 758c d5bd 4e1c c2bd
00000260: fc67 e3bc 1f9b 523d 0604 4e3d 6053 ddbd
00000270: 50c7 6f3d 380f b7bd 12aa f2bc fb5e 4ebd
00000280: efc1 e5bc 7b19 ebbc 07d5 b3bd 5221 acbd
00000290: bf6e 19bc b658 0b3c c2a8 25bd 0146 413d
000002a0: 471e b2bd efe4 553a 6e74 ce3d 4037 50bd
000002b0: 44ca b23d 692d 013d d596 cbbd 28e1 7b3d
000002c0: 6785 76bc 8f95 46bd 37b1 a63d a352 adbd

model.qy_x.model.tcn_block_00.block.conv1d_layer_1.bias f4 [2]
0.1986711 -0.19007903
00000000: 7070 4b3e 14a4 42be

model.qy_x.model.tcn_block_00.block.conv1d_layer_1.weight_g f4 [2, 1, 1]
0.54708135 0.48655957
00000000: 860d 0c3f 561e f93e

model.qy_x.model.tcn_block_00.block.conv1d_layer_1.weight_v f4 [2, 2, 9]
0.1762038 0.07385546 0.12113574 0.09113014 -0.04884462 -0.04177923 -0.18646088 0.13124646
0.18839157 0.15278466 -0.16901615 0.0020565598 -0.16727015 -0.13233367 -0.13640927 0.072182454
-0.13784565 -0.013327512 0.0015224502 0.14368844 -0.18629748 -0.16976574 -0.14214282 0.16138887
-0.08402252 0.20626454 0.092970416 0.035562463 0.005973577 -0.038814873 0.03535476 -0.0460324
0.006135332 0.03583008 -0.17646617 -0.11570384
00000000: c56e 343e 8841 973d 0416 f83d 70a2 ba3d
00000010: 4c11 48bd b320 2bbd 9aef 3ebe 7965 063e
00000020: b8e9 403e 9573 1c3e 9212 2dbe 59c7 063b
00000030: de48 2bbe 7a82 07be dfae 0bbe 65d4 933d
00000040: 6927 0dbe a35b 5abc f48c c73a 1023 133e
00000050: c4c4 3ebe 12d7 2dbe e38d 11be 2043 253e
00000060: 0014 acbd 0337 533e 4667 be3d f2a9 113d
00000070: ffbd c33b 58fc 1ebd 27d0 103d 788c 3cbd
00000080: e50a c93b 90c2 123d 8cb3 34be 23f6 ecbd

model.qy_x.model.tcn_block_00.downsample.weight f4 [2, 10, 1]
0.00024527858 0.021529855 0.025237162 -0.005519334 0.0039720293 -0.026362017 0.0035332732 0.0027898527
-0.015420176 0.018691385 0.011098464 -0.008693415 -0.018079245 0.014391208 -0.0033959963 0.01494315
-0.021519765 0.002436344 0.016404258 0.0036344808
00000000: bc98 8039 615f b03c 2abe ce3c 88db b4bb
00000010: cc27 823b 28f5 d7bc 7d8e 673b f6d5 363b
00000020: e8a4 7cbc ad1e 993c 55d6 353c d36e 0ebc
00000030: ed1a 94bc 1ac9 6b3c 5d8f 5ebb 1dd4 743c
00000040: 384a b0bc 12ab 1f3b 3962 863c 7830 6e3b

model.qy_x.model.tcn_block_00.downsample.bias f4 [2]
0.11225912 0.22893815
00000000: 1ce8 e53d c36e 6a3e

model.qy_x.model.tcn_block_01.conv0.bias f4 [2]
-0.07377407 0.12758097
00000000: dc16 97bd 96a4 023e

model.qy_x.model.tcn_block_01.conv0.weight_g f4 [2, 1, 1]
0.58405924 0.63206935
00000000: e884 153f 4ccf 213f

model.qy_x.model.tcn_block_01.conv0.weight_v f4 [2, 2, 9]
0.21169803 -0.06852143 -0.0057835025 -0.11952186 0.230037 0.22495854 -0.18327965 -0.19647947
-0.18420388 0.005983321 -0.05258374 -0.14638898 -0.07673073 0.05212025 -0.1151089 0.059892625
-0.04605899 -0.106020115 0.04017957 0.20166953 -0.15167935 0.018640332 -0.08133939 0.23698768
-0.21828556 -0.22078648 0.23762004 -0.14173453 0.05197864 -0.013546031 -0.042756986 -0.045858532
0.15599674 0.017964773 -0.22191249 -0.13173051
00000000: 5ec7 583e f754 8cbd 8983 bdbb e0c7 f4bd
00000010: d28e 6b3e 885b 663e a9ad 3bbe ea31 49be
00000020: f19f 3cbe bc0f c43b 0c62 57bd fee6 15be
00000030: 0025 9dbd 0b7c 553d 37be ebbd f851 753d
00000040: 5aa8 3cbd 1321 d9bd 5593 243d 7582 4e3e
00000050: d551 1bbe 9cb3 983c 4495 a6bd e6ac 723e
00000060: 4086 5fbe da15 62be ab52 733e db22 11be
00000070: 8ee7 543d 2cf0 5dbc f321 2fbd 28d6 3bbd
00000080: 9cbd 1f3e dc2a 933c 073d 63be 5de4 06be

model.qy_x.model.tcn_block_01.conv1.bias f4 [4]
-0.101915486 -0.22046435 -0.17950946 0.110686295
00000000: 11b9 d0bd 68c1 61be 54d1 37be 7faf e23d

model.qy_x.model.tcn_block_01.conv1.weight_g f4 [4, 1, 1]
0.6426535 0.68926847 0.5864984 0.57669586
00000000: f184 243f e673 303f c224 163f 57a2 133f

model.qy_x.model.tcn_block_01.conv1.weight_v f4 [4, 2, 9]
-0.15275249 0.21512173 -0.052424885 -0.04179168 0.18463632 0.12063427 0.20431924 0.14119229
-0.06744203 -0.16462886 -0.025201568 0.18867625 -0.08456024 -0.2197358 0.098324165 0.23146605
-0.06513933 -0.18992034 -0.22253682 0.065242894 -0.019026367 -0.127858 0.05270489 0.095835544
0.19471473 0.19021757 -0.04334501 -0.21561867 -0.2209244 0.21239948 0.09624524 0.09482771
-0.21210058 0.21031459 0.21516027 0.20469713 -0.19036253 -0.0809185 -0.15377992 0.21751781
-0.09307646 -0.09930804 0.120625794 -0.100729324 -0.10775722 -0.012325502 -0.0142601 -0.17513879
0.20494203 -0.09556044 0.09218748 0.21348883 0.12735705 0.041749567 0.19308785 0.028877309
-0.10715005 0.21562721 0.052620422 -0.22571272 -0.06577804 -0.15737265 0.19975275 -0.029871214
-0.20583272 -0.0057715615 0.15707716 0.07026556 0.08355284 0.030901225 0.096914224 -0.048387982
00000000: 266b 1cbe df48 5c3e 7abb 56bd c12d 2bbd
00000010: 4e11 3d3e 1a0f f73d 1039 513e b694 103e
00000020: 0c1f 8abd 7894 28be 8573 cebc 5934 413e
00000030: eb2d adbd 6c02 61be 2e5e c93d 7005 6d3e
00000040: c567 85bd 7a7a 42be b1e0 63be 119e 853d
00000050: 2fdd 9bbc 35ed 02be 15e1 573d 6d45 c43d
00000060: 4c63 473e 65c8 423e 8a8a 31bd 24cb 5cbe
00000070: 023a 62be 407f 593e 391c c53d 0835 c23d
00000080: e530 59be b55c 573e f952 5c3e 209c 513e
00000090: 65ee 42be 99b8 a5bd 7c78 1dbe fdbc 5e3e
000000a0: df9e bebd 0462 cbbd a80a f73d 2d4b cebd
000000b0: d1af dcbd e7f0 49bc 32a3 69bc 9557 33be
000000c0: 53dc 513e 31b5 c3bd cacc bc3d d19c 5a3e
000000d0: e369 023e 9801 2b3d d2b8 453e 1b90 ec3c
000000e0: 7c71 dbbd 61cd 5c3e 8388 573d 3c21 67be
000000f0: a3b6 86bd 4c26 21be fc8b 4c3e 7ab4 f4bc
00000100: d0c5 52be 5e1f bdbb d6d8 203e 64e7 8f3d
00000110: c01d ab3d 9124 fd3c f77a c63d 7a32 46bd

model.qy_x.model.tcn_block_01.block.conv1d_layer_0.bias f4 [2]
-0.07377407 0.12758097
00000000: dc16 97bd 96a4 023e

model.qy_x.model.tcn_block_01.block.conv1d_layer_0.weight_g f4 [2, 1, 1]
0.58405924 0.63206935
00000000: e884 153f 4ccf 213f

model.qy_x.model.tcn_block_01.block.conv1d_layer_0.weight_v f4 [2, 2, 9]
0.21169803 -0.06852143 -0.0057835025 -0.11952186 0.230037 0.22495854 -0.18327965 -0.19647947
-0.18420388 0.005983321 -0.05258374 -0.14638898 -0.07673073 0.05212025 -0.1151089 0.059892625
-0.04605899 -0.106020115 0.04017957 0.20166953 -0.15167935 0.018640332 -0.08133939 0.23698768
-0.21828556 -0.22078648 0.23762004 -0.14173453 0.05197864 -0.013546031 -0.042756986 -0.045858532
0.15599674 0.017964773 -0.22191249 -0.13173051
00000000: 5ec7 583e f754 8cbd 8983 bdbb e0c7 f4bd
00000010: d28e 6b3e 885b 663e a9ad 3bbe ea31 49be
00000020: f19f 3cbe bc0f c43b 0c62 57bd fee6 15be
00000030: 0025 9dbd 0b7c 553d 37be ebbd f851 753d
00000040: 5aa8 3cbd 1321 d9bd 5593 243d 7582 4e3e
00000050: d551 1bbe 9cb3 983c 4495 a6bd e6ac 723e
00000060: 4086 5fbe da15 62be ab52 733e db22 11be
00000070: 8ee7 543d 2cf0 5dbc f321 2fbd 28d6 3bbd
00000080: 9cbd 1f3e dc2a 933c 073d 63be 5de4 06be

model.qy_x.model.tcn_block_01.block.conv1d_layer_1.bias f4 [4]
-0.101915486 -0.22046435 -0.17950946 0.110686295
00000000: 11b9 d0bd 68c1 61be 54d1 37be 7faf e23d

model.qy_x.model.tcn_block_01.block.conv1d_layer_1.weight_g f4 [4, 1, 1]
0.6426535 0.68926847 0.5864984 0.57669586
00000000: f184 243f e673 303f c224 163f 57a2 133f

model.qy_x.model.tcn_block_01.block.conv1d_layer_1.weight_v f4 [4, 2, 9]
-0.15275249 0.21512173 -0.052424885 -0.04179168 0.18463632 0.12063427 0.20431924 0.14119229
-0.06744203 -0.16462886 -0.025201568 0.18867625 -0.08456024 -0.2197358 0.098324165 0.23146605
-0.06513933 -0.18992034 -0.22253682 0.065242894 -0.019026367 -0.127858 0.05270489 0.095835544
0.19471473 0.19021757 -0.04334501 -0.21561867 -0.2209244 0.21239948 0.09624524 0.09482771
-0.21210058 0.21031459 0.21516027 0.20469713 -0.19036253 -0.0809185 -0.15377992 0.21751781
-0.09307646 -0.09930804 0.120625794 -0.100729324 -0.10775722 -0.012325502 -0.0142601 -0.17513879
0.20494203 -0.09556044 0.09218748 0.21348883 0.12735705 0.041749567 0.19308785 0.028877309
-0.10715005 0.21562721 0.052620422 -0.22571272 -0.06577804 -0.15737265 0.19975275 -0.029871214
-0.20583272 -0.0057715615 0.15707716 0.07026556 0.08355284 0.030901225 0.096914224 -0.048387982
00000000: 266b 1cbe df48 5c3e 7abb 56bd c12d 2bbd
00000010: 4e11 3d3e 1a0f f73d 1039 513e b694 103e
00000020: 0c1f 8abd 7894 28be 8573 cebc 5934 413e
00000030: eb2d adbd 6c02 61be 2e5e c93d 7005 6d3e
00000040: c567 85bd 7a7a 42be b1e0 63be 119e 853d
00000050: 2fdd 9bbc 35ed 02be 15e1 573d 6d45 c43d
00000060: 4c63 473e 65c8 423e 8a8a 31bd 24cb 5cbe
00000070: 023a 62be 407f 593e 391c c53d 0835 c23d
00000080: e530 59be b55c 573e f952 5c3e 209c 513e
00000090: 65ee 42be 99b8 a5bd 7c78 1dbe fdbc 5e3e
000000a0: df9e bebd 0462 cbbd a80a f73d 2d4b cebd
000000b0: d1af dcbd e7f0 49bc 32a3 69bc 9557 33be
000000c0: 53dc 513e 31b5 c3bd cacc bc3d d19c 5a3e
000000d0: e369 023e 9801 2b3d d2b8 453e 1b90 ec3c
000000e0: 7c71 dbbd 61cd 5c3e 8388 573d 3c21 67be
000000f0: a3b6 86bd 4c26 21be fc8b 4c3e 7ab4 f4bc
00000100: d0c5 52be 5e1f bdbb d6d8 203e 64e7 8f3d
00000110: c01d ab3d 9124 fd3c f77a c63d 7a32 46bd

model.qy_x.model.tcn_block_01.downsample.weight f4 [4, 2, 1]
0.0121782925 -0.02028032 -0.017500192 0.010998618 0.009990919 -0.011027057 0.03633536 0.0070057055
00000000: 7687 473c ea22 a6bc 905c 8fbc 8c33 343c
00000010: f4b0 233c d4aa 34bc 63d4 143d 1e90 e53b

model.qy_x.model.tcn_block_01.downsample.bias f4 [4]
-0.57063043 -0.1705151 0.3875165 -0.2803779
00000000: d614 12bf 839b 2ebe 9068 c63e b18d 8fbe

model.qy_x.model.final_dense_02.weight f4 [4, 4, 1]
0.09692396 0.067143574 -0.24239877 -0.16619521 0.12820303 -0.35523564 0.08989047 0.21133783
-0.20453946 0.40834567 -0.025591584 0.21851897 0.5037488 -0.14433171 0.26313496 -0.13430306
00000000: 1280 c63d 9282 893d 6237 78be 142f 2abe
00000010: a847 033e 72e1 b5be 7f18 b83d f268 583e
00000020: cb72 51be af12 d13e 71a5 d1bc 70c3 5f3e
00000030: aef5 003f b1cb 13be a0b9 863e be86 09be

model.qy_x.model.final_dense_02.bias f4 [4]
-0.08094853 -0.0774359 0.0043128286 -0.19746362
00000000: 58c8 a5bd b796 9ebd a152 8d3b e733 4abe

model.encoder.model.tcn_block_00.conv0.bias f4 [2]
0.038645774 -0.059972454
00000000: 084b 1e3d ada5 75bd

model.encoder.model.tcn_block_00.conv0.weight_g f4 [2, 1, 1]
0.6001123 0.57712144
00000000: f6a0 193f 3bbe 133f

model.encoder.model.tcn_block_00.conv0.weight_v f4 [2, 14, 9]
0.020909587 0.004993026 0.05925607 -0.012159163 0.015605837 -0.02540384 -0.06646686 0.04390953
0.01953812 -0.037341326 -0.036369234 0.015872309 -0.023606975 0.050088402 -0.0029931678 0.025498712
0.030743958 -0.030164935 0.04057665 0.071041375 0.0039618853 0.017174473 0.00023441855 0.055161364
-0.041467384 -0.049445793 0.031074366 -0.06980627 0.009447604 -0.033277284 0.06611952 -0.07539868
0.061576292 0.09598114 0.026047537 0.002210671 0.08005744 -0.045653492 -0.014671494 -0.046560775
-0.019914635 0.011838906 0.004345114 -0.022264047 -0.09450016 0.012351848 0.005353628 0.021337923
0.07645515 0.094732024 -0.04464265 0.0025833757 -0.027525578 -0.07398177 -0.05997526 0.088542014
0.05666567 0.052919216 0.054271646 -0.066580385 0.014082147 0.09015216 -0.046189938 0.08224599
0.026383711 0.06535427 -0.035612285 0.043339733 -0.07674979 -0.0040900107 0.030827096 0.027100295
0.07206058 0.08478542 0.07859956 0.05728371 0.06067829 -0.012548762 -0.06937027 -0.032637324
-0.008135327 -0.05617135 0.0376989 0.023395708 0.0065278597 0.013629569 0.070426166 0.02454308
-0.08604836 -0.0725809 0.04160391 0.01563147 0.04827222 -0.083557 -0.07678226 0.059849005
0.05818181 -0.07683179 0.037014022 -0.06654217 0.07044906 0.03155273 0.0917239 -0.085204005
-0.08378261 0.061803106 0.077418305 0.056476735 0.06729473 -0.06996282 0.06986741 -0.07618293
0.027846867 -0.050355908 -0.027386433 0.02408595 -0.026577823 -0.013740309 -0.0775776 -0.078469194
0.037910897 -0.03530549 -0.051393524 -0.027983194 -0.07032113 -0.06881006 0.048082266 0.0400952
0.006633167 -0.0539395 0.024415618 -0.0013278449 -0.06893078 0.013892745 0.07579425 -0.08249804
-0.08333969 0.016666913 0.072297744 -0.048883937 0.024893 0.06787948 0.032759868 0.024557449
0.093694024 0.06286854 -0.044765305 0.011107239 0.050775338 0.08367381 -0.08349481 0.05375318
-0.020903194 -0.09232206 0.0145310415 -0.05371197 0.0075544524 -0.063191056 -0.07221118 -0.012899674
-0.035191815 0.047000065 0.012878388 0.074649766 0.021810783 -0.023488514 0.065321356 0.009957634
0.021750031 -0.023605598 0.0053301877 -0.022379007 -0.012768738 -0.0746845 -0.005779537 -0.07923425
-0.024393966 0.04633981 -0.06721067 -0.065341316 -0.026486712 -0.029207222 0.010429734 0.010348331
0.04074265 -0.06420222 -0.010044569 0.048490927 0.075929776 -0.0023348026 -0.046680182 0.030281963
0.05572736 -0.050528154 -0.046434097 0.044600785 -0.0009789009 -0.0788301 -0.055841714 0.031052781
-0.035152763 0.056287915 0.065196924 0.007734224 -0.012334192 -0.033626284 -0.009755925 0.021398386
-0.06277602 -0.01609628 -0.068877175 0.05989906 -0.051516123 0.086608425 -0.017728807 -0.04583204
0.047125455 0.01646133 0.063624494 0.038953945 -0.080418944 0.05303259 -0.014381095 -0.036086332
0.056822393 0.06988627 -0.07283665 -0.004766847 0.076031186 0.039929137 0.07995678 -0.02518731
-0.04367544 0.08182814 0.039383255 0.08405183 -0.034032173 -0.051799018 -0.007528328 -0.078768745
0.039375115 0.06527642 0.025907291 -0.0040386915 0.049568813 -0.050882515 0.09269172 -0.08501986
-0.079890124 -0.01580441 0.077888 0.014204363
00000000: 954a ab3c 8a9c a33b 7eb6 723d 3a37 47bc
00000010: a0af 7f3c b71b d0bc c71f 88bd 7bda 333d
00000020: 680e a03c 38f3 18bd e8f7 14bd a506 823c
00000030: 6a63 c1bc 7f29 4d3d 0629 44bb ade2 d03c
00000040: c1da fb3c 741c f7bc b433 263d 247e 913d
00000050: b4d2 813b 7bb1 8c3c 40ce 7539 e2f0 613d
00000060: b4d9 29bd ac87 4abd ab8f fe3c 97f6 8ebd
00000070: 20ca 1a3c c34d 08bd ac69 873d a06a 9abd
00000080: 6c37 7c3d c391 c43d a561 d53c e8e0 103b
00000090: 28f5 a33d 28ff 3abd b560 70bc 83b6 3ebd
000000a0: 0424 a3bc f9f7 413c 7561 8e3b 1763 b6bc
000000b0: 4d89 c1bd 685f 4a3c 7d6d af3b decc ae3c
000000c0: 8594 9c3d dd02 c23d 36db 36bd da4d 293b
000000d0: 527d e1bc c183 97bd 9ea8 75bd 8455 b53d
000000e0: 431a 683d d2c1 583d f24b 5e3d 4c5b 88bd
000000f0: ceb8 663c b2a1 b83d a931 3dbd 9670 a83d
00000100: a722 d83c 76d8 853d 30de 11bd 0185 313d
00000110: fe2e 9dbd 7f05 86bb 1b89 fc3c 7001 de3c
00000120: 7f94 933d faa3 ad3d cef8 a03d 53a2 6a3d
00000130: cc89 783d 5399 4dbc 0012 8ebd b7ae 05bd
00000140: 094a 05bc ee13 66bd 296a 1a3d 5ba8 bf3c
00000150: a8e7 d53b 8e4e 5f3c 983b 903d 920e c93c
00000160: 1f3a b0bd 4ba5 94bd dd68 2a3d 920d 803c
00000170: 17b9 453d ef1f abbd 0440 9dbd 3b24 753d
00000180: 0d50 6e3d fc59 9dbd 049c 173d 4347 88bd
00000190: 9947 903d 6f3d 013d bdd9 bb3d 707f aebd
000001a0: 3896 abbd 4125 7d3d 7d8d 9e3d 2654 673d
000001b0: d2d1 893d ab48 8fbd a516 8f3d cc05 9cbd
000001c0: 1d1f e43c ff41 4ebd 8359 e0bc e64f c53c
000001d0: bcb9 d9bc 081f 61bc 01e1 9ebd 75b4 a0bd
000001e0: 7548 1b3d 7d9c 10bd 0482 52bd 033d e5bc
000001f0: 8604 90bd 4aec 8cbd e9f1 443d dd3a 243d
00000200: 0a5b d93b aaef 5cbd 4303 c83c 150b aeba
00000210: 952b 8dbd 659e 633c 043a 9b3d bbf4 a8bd
00000220: 00ae aabd 0d89 883c d710 943d 863a 48bd
00000230: 68ec cb3c 6604 8b3d 362f 063d b42c c93c
00000240: a7e2 bf3d 39c1 803d d35b 37bd 23fb 353c
00000250: cdf9 4f3d 2d5d ab3d 54ff aabd 4b2c 5c3d
00000260: 2d3d abbc 5913 bdbd 9b13 6e3c 1501 5cbd
00000270: 578b f73b 506a 81bd 75e3 93bd 2759 53bc
00000280: 4b25 10bd 2483 403d e0ff 523c fae1 983d
00000290: 87ac b23c fc6a c0bc 34c7 853d 5825 233c
000002a0: 1f2d b23c 8760 c1bc dba8 ae3b 2e54 b7bc
000002b0: f833 51bc 30f4 98bd 4562 bdbb 9145 a2bd
000002c0: dbd5 c7bc d0ce 3d3d bfa5 89bd abd1 85bd
000002d0: a9fa d8bc fc43 efbc 7ae1 2a3c 0c8c 293c
000002e0: c4e1 263d 747c 83bd fa91 24bc 6c9e 463d
000002f0: 1281 9b3d 7d03 19bb b833 3fbd e111 f83c
00000300: 5f42 643d 9cf6 4ebd ae31 3ebd 50af 363d
00000310: 774e 80ba ad71 a1bd 48ba 64bd 6762 fe3c
00000320: 58fc 0fbd 288e 663d f785 853d 606f fd3b
00000330: 5a15 4abc b7bb 09bd 51d7 1fbc ab4b af3c
00000340: b790 80bd 59dc 83bc 7a0f 8dbd b758 753d
00000350: 9202 53bd c25f b13d 013c 91bc 61ba 3bbd
00000360: 9f06 413d e9d9 863c 8f4d 823d 2c8e 1f3d
00000370: b0b2 a4bd b338 593d af9e 6bbc 43cf 13bd
00000380: 99be 683d 8820 8f3d 622b 95bd 3633 9cbb
00000390: 3db6 9b3d bc8c 233d 61c0 a33d 9e55 cebc
000003a0: 05e5 32bd 8395 a73d 5650 213d 5e23 ac3d
000003b0: 5265 0bbd 352b 54bd 31b0 f6bb 8251 a1bd
000003c0: cd47 213d a5af 853d 873b d43c 0057 84bb
000003d0: ab08 4b3d 2f6a 50bd 28d5 bd3d e41e aebd
000003e0: 6f9d a3bd 4078 81bc be83 9f3d 6bb9 683c

model.encoder.model.tcn_block_00.conv1.bias f4 [2]
-0.20981672 -0.08240713
00000000: 32da 56be 12c5 a8bd

model.encoder.model.tcn_block_00.conv1.weight_g f4 [2, 1, 1]
0.44959098 0.61940753
00000000: ca30 e63e 7e91 1e3f

model.encoder.model.tcn_block_00.conv1.weight_v f4 [2, 2, 9]
0.088853374 -0.02246358 0.09689111 0.16513894 0.10152237 -0.017296908 -0.011346156 -0.1445245
-0.08329557 0.14778326 -0.10187795 0.1409951 -0.10086403 -0.06217076 -0.0004245346 -0.2236528
-0.009737576 -0.031196756 -0.014019663 -0.039405797 0.19386509 0.18160784 -0.1526177 0.11729312
-0.17791514 -0.19447795 0.08020285 0.011850054 -0.10147383 -0.21866895 -0.08252553 0.08679032
-0.20939703 -0.2205427 0.038068555 -0.16108991
00000000: c2f8 b53d 8b05 b8bc d96e c63d 2f1a 293e
00000010: f6ea cf3d 3fb2 8dbc 3ae5 39bc 3bfe 13be
00000020: de96 aabd 7f54 173e 63a5 d0bd 0561 103e
00000030: cd91 cebd c4a6 7ebd 1294 deb9 3d05 65be
00000040: 5b8a 1fbc 5790 ffbc bbb2 65bc f967 21bd
00000050: 9284 463e 68f7 393e d047 1cbe 6037 f03d
00000060: 632f 36be 3a25 47be 6441 a43d bb26 423c
00000070: 83d1 cfbd c1ea 5fbe 2503 a9bd 20bf b13d
00000080: 2d6c 56be f2d5 61be c6ed 1b3d c1f4 24be

model.encoder.model.tcn_block_00.block.conv1d_layer_0.bias f4 [2]
0.038645774 -0.059972454
00000000: 084b 1e3d ada5 75bd

model.encoder.model.tcn_block_00.block.conv1d_layer_0.weight_g f4 [2, 1, 1]
0.6001123 0.57712144
00000000: f6a0 193f 3bbe 133f

model.encoder.model.tcn_block_00.block.conv1d_layer_0.weight_v f4 [2, 14, 9]
0.020909587 0.004993026 0.05925607 -0.012159163 0.015605837 -0.02540384 -0.06646686 0.04390953
0.01953812 -0.037341326 -0.036369234 0.015872309 -0.023606975 0.050088402 -0.0029931678 0.025498712
0.030743958 -0.030164935 0.04057665 0.071041375 0.0039618853 0.017174473 0.00023441855 0.055161364
-0.041467384 -0.049445793 0.031074366 -0.06980627 0.009447604 -0.033277284 0.06611952 -0.07539868
0.061576292 0.09598114 0.026047537 0.002210671 0.08005744 -0.045653492 -0.014671494 -0.046560775
-0.019914635 0.011838906 0.004345114 -0.022264047 -0.09450016 0.012351848 0.005353628 0.021337923
0.07645515 0.094732024 -0.04464265 0.0025833757 -0.027525578 -0.07398177 -0.05997526 0.088542014
0.05666567 0.052919216 0.054271646 -0.066580385 0.014082147 0.09015216 -0.046189938 0.08224599
0.026383711 0.06535427 -0.035612285 0.043339733 -0.07674979 -0.0040900107 0.030827096 0.027100295
0.07206058 0.08478542 0.07859956 0.05728371 0.06067829 -0.012548762 -0.06937027 -0.032637324
-0.008135327 -0.05617135 0.0376989 0.023395708 0.0065278597 0.013629569 0.070426166 0.02454308
-0.08604836 -0.0725809 0.04160391 0.01563147 0.04827222 -0.083557 -0.07678226 0.059849005
0.05818181 -0.07683179 0.037014022 -0.06654217 0.07044906 0.03155273 0.0917239 -0.085204005
-0.08378261 0.061803106 0.077418305 0.056476735 0.06729473 -0.06996282 0.06986741 -0.07618293
0.027846867 -0.050355908 -0.027386433 0.02408595 -0.026577823 -0.013740309 -0.0775776 -0.078469194
0.037910897 -0.03530549 -0.051393524 -0.027983194 -0.07032113 -0.06881006 0.048082266 0.0400952
0.006633167 -0.0539395 0.024415618 -0.0013278449 -0.06893078 0.013892745 0.07579425 -0.08249804
-0.08333969 0.016666913 0.072297744 -0.048883937 0.024893 0.06787948 0.032759868 0.024557449
0.093694024 0.06286854 -0.044765305 0.011107239 0.050775338 0.08367381 -0.08349481 0.05375318
-0.020903194 -0.09232206 0.0145310415 -0.05371197 0.0075544524 -0.063191056 -0.07221118 -0.012899674
-0.035191815 0.047000065 0.012878388 0.074649766 0.021810783 -0.023488514 0.065321356 0.009957634
0.021750031 -0.023605598 0.0053301877 -0.022379007 -0.012768738 -0.0746845 -0.005779537 -0.07923425
-0.024393966 0.04633981 -0.06721067 -0.065341316 -0.026486712 -0.029207222 0.010429734 0.010348331
0.04074265 -0.06420222 -0.010044569 0.048490927 0.075929776 -0.0023348026 -0.046680182 0.030281963
0.05572736 -0.050528154 -0.046434097 0.044600785 -0.0009789009 -0.0788301 -0.055841714 0.031052781
-0.035152763 0.056287915 0.065196924 0.007734224 -0.012334192 -0.033626284 -0.009755925 0.021398386
-0.06277602 -0.01609628 -0.068877175 0.05989906 -0.051516123 0.086608425 -0.017728807 -0.04583204
0.047125455 0.01646133 0.063624494 0.038953945 -0.080418944 0.05303259 -0.014381095 -0.036086332
0.056822393 0.06988627 -0.07283665 -0.004766847 0.076031186 0.039929137 0.07995678 -0.02518731
-0.04367544 0.08182814 0.039383255 0.08405183 -0.034032173 -0.051799018 -0.007528328 -0.078768745
0.039375115 0.06527642 0.025907291 -0.0040386915 0.049568813 -0.050882515 0.09269172 -0.08501986
-0.079890124 -0.01580441 0.077888 0.014204363
00000000: 954a ab3c 8a9c a33b 7eb6 723d 3a37 47bc
00000010: a0af 7f3c b71b d0bc c71f 88bd 7bda 333d
00000020: 680e a03c 38f3 18bd e8f7 14bd a506 823c
00000030: 6a63 c1bc 7f29 4d3d 0629 44bb ade2 d03c
00000040: c1da fb3c 741c f7bc b433 263d 247e 913d
00000050: b4d2 813b 7bb1 8c3c 40ce 7539 e2f0 613d
00000060: b4d9 29bd ac87 4abd ab8f fe3c 97f6 8ebd
00000070: 20ca 1a3c c34d 08bd ac69 873d a06a 9abd
00000080: 6c37 7c3d c391 c43d a561 d53c e8e0 103b
00000090: 28f5 a33d 28ff 3abd b560 70bc 83b6 3ebd
000000a0: 0424 a3bc f9f7 413c 7561 8e3b 1763 b6bc
000000b0: 4d89 c1bd 685f 4a3c 7d6d af3b decc ae3c
000000c0: 8594 9c3d dd02 c23d 36db 36bd da4d 293b
000000d0: 527d e1bc c183 97bd 9ea8 75bd 8455 b53d
000000e0: 431a 683d d2c1 583d f24b 5e3d 4c5b 88bd
000000f0: ceb8 663c b2a1 b83d a931 3dbd 9670 a83d
00000100: a722 d83c 76d8 853d 30de 11bd 0185 313d
00000110: fe2e 9dbd 7f05 86bb 1b89 fc3c 7001 de3c
00000120: 7f94 933d faa3 ad3d cef8 a03d 53a2 6a3d
00000130: cc89 783d 5399 4dbc 0012 8ebd b7ae 05bd
00000140: 094a 05bc ee13 66bd 296a 1a3d 5ba8 bf3c
00000150: a8e7 d53b 8e4e 5f3c 983b 903d 920e c93c
00000160: 1f3a b0bd 4ba5 94bd dd68 2a3d 920d 803c
00000170: 17b9 453d ef1f abbd 0440 9dbd 3b24 753d
00000180: 0d50 6e3d fc59 9dbd 049c 173d 4347 88bd
00000190: 9947 903d 6f3d 013d bdd9 bb3d 707f aebd
000001a0: 3896 abbd 4125 7d3d 7d8d 9e3d 2654 673d
000001b0: d2d1 893d ab48 8fbd a516 8f3d cc05 9cbd
000001c0: 1d1f e43c ff41 4ebd 8359 e0bc e64f c53c
000001d0: bcb9 d9bc 081f 61bc 01e1 9ebd 75b4 a0bd
000001e0: 7548 1b3d 7d9c 10bd 0482 52bd 033d e5bc
000001f0: 8604 90bd 4aec 8cbd e9f1 443d dd3a 243d
00000200: 0a5b d93b aaef 5cbd 4303 c83c 150b aeba
00000210: 952b 8dbd 659e 633c 043a 9b3d bbf4 a8bd
00000220: 00ae aabd 0d89 883c d710 943d 863a 48bd
00000230: 68ec cb3c 6604 8b3d 362f 063d b42c c93c
00000240: a7e2 bf3d 39c1 803d d35b 37bd 23fb 353c
00000250: cdf9 4f3d 2d5d ab3d 54ff aabd 4b2c 5c3d
00000260: 2d3d abbc 5913 bdbd 9b13 6e3c 1501 5cbd
00000270: 578b f73b 506a 81bd 75e3 93bd 2759 53bc
00000280: 4b25 10bd 2483 403d e0ff 523c fae1 983d
00000290: 87ac b23c fc6a c0bc 34c7 853d 5825 233c
000002a0: 1f2d b23c 8760 c1bc dba8 ae3b 2e54 b7bc
000002b0: f833 51bc 30f4 98bd 4562 bdbb 9145 a2bd
000002c0: dbd5 c7bc d0ce 3d3d bfa5 89bd abd1 85bd
000002d0: a9fa d8bc fc43 efbc 7ae1 2a3c 0c8c 293c
000002e0: c4e1 263d 747c 83bd fa91 24bc 6c9e 463d
000002f0: 1281 9b3d 7d03 19bb b833 3fbd e111 f83c
00000300: 5f42 643d 9cf6 4ebd ae31 3ebd 50af 363d
00000310: 774e 80ba ad71 a1bd 48ba 64bd 6762 fe3c
00000320: 58fc 0fbd 288e 663d f785 853d 606f fd3b
00000330: 5a15 4abc b7bb 09bd 51d7 1fbc ab4b af3c
00000340: b790 80bd 59dc 83bc 7a0f 8dbd b758 753d
00000350: 9202 53bd c25f b13d 013c 91bc 61ba 3bbd
00000360: 9f06 413d e9d9 863c 8f4d 823d 2c8e 1f3d
00000370: b0b2 a4bd b338 593d af9e 6bbc 43cf 13bd
00000380: 99be 683d 8820 8f3d 622b 95bd 3633 9cbb
00000390: 3db6 9b3d bc8c 233d 61c0 a33d 9e55 cebc
000003a0: 05e5 32bd 8395 a73d 5650 213d 5e23 ac3d
000003b0: 5265 0bbd 352b 54bd 31b0 f6bb 8251 a1bd
000003c0: cd47 213d a5af 853d 873b d43c 0057 84bb
000003d0: ab08 4b3d 2f6a 50bd 28d5 bd3d e41e aebd
000003e0: 6f9d a3bd 4078 81bc be83 9f3d 6bb9 683c

model.encoder.model.tcn_block_00.block.conv1d_layer_1.bias f4 [2]
-0.20981672 -0.08240713
00000000: 32da 56be 12c5 a8bd

model.encoder.model.tcn_block_00.block.conv1d_layer_1.weight_g f4 [2, 1, 1]
0.44959098 0.61940753
00000000: ca30 e63e 7e91 1e3f

model.encoder.model.tcn_block_00.block.conv1d_layer_1.weight_v f4 [2, 2, 9]
0.088853374 -0.02246358 0.09689111 0.16513894 0.10152237 -0.017296908 -0.011346156 -0.1445245
-0.08329557 0.14778326 -0.10187795 0.1409951 -0.10086403 -0.06217076 -0.0004245346 -0.2236528
-0.009737576 -0.031196756 -0.014019663 -0.039405797 0.19386509 0.18160784 -0.1526177 0.11729312
-0.17791514 -0.19447795 0.08020285 0.011850054 -0.10147383 -0.21866895 -0.08252553 0.08679032
-0.20939703 -0.2205427 0.038068555 -0.16108991
00000000: c2f8 b53d 8b05 b8bc d96e c63d 2f1a 293e
00000010: f6ea cf3d 3fb2 8dbc 3ae5 39bc 3bfe 13be
00000020: de96 aabd 7f54 173e 63a5 d0bd 0561 103e
00000030: cd91 cebd c4a6 7ebd 1294 deb9 3d05 65be
00000040: 5b8a 1fbc 5790 ffbc bbb2 65bc f967 21bd
00000050: 9284 463e 68f7 393e d047 1cbe 6037 f03d
00000060: 632f 36be 3a25 47be 6441 a43d bb26 423c
00000070: 83d1 cfbd c1ea 5fbe 2503 a9bd 20bf b13d
00000080: 2d6c 56be f2d5 61be c6ed 1b3d c1f4 24be

model.encoder.model.tcn_block_00.downsample.weight f4 [2, 14, 1]
0.019457432 -0.015402279 0.028422512 0.026000677 -0.016091622 0.010169011 0.011759247 -0.0023221497
0.0028926977 -0.020439403 -0.0069173323 -0.026522813 -0.0013271342 -0.00672761 -0.018633084 -4.0812185e-05
-0.00745266 -0.0056988145 -0.0016675994 0.010819172 0.028340282 -0.003399327 0.004929607 -0.005664369
-0.0009398856 0.012992311 0.017001202 0.01129842
00000000: 3165 9f3c d759 7cbc 54d6 e83c 5fff d43c
00000010: 94d2 83bc ec9b 263c dba9 403c 352f 18bb
00000020: 6a93 3d3b 8970 a7bc caaa e2bb 5f46 d9bc
00000030: 3cf3 adba 4873 dcbb 69a4 98bc c02d 2bb8
00000040: 7135 f4bb 1fbd babb 5a93 daba e542 313c
00000050: e129 e83c 3ec7 5ebb 8a88 a13b 2c9c b9bb
00000060: a862 76ba b4dd 543c 1b46 8b3c 021d 393c

model.encoder.model.tcn_block_00.downsample.bias f4 [2]
0.12853302 -0.21954791
00000000: 299e 033e 2bd1 60be

model.encoder.model.tcn_block_01.conv0.bias f4 [2]
-0.09785678 0.064840324
00000000: 2369 c8bd 01cb 843d

model.encoder.model.tcn_block_01.conv0.weight_g f4 [2, 1, 1]
0.54334456 0.54522264
00000000: a118 0b3f b693 0b3f

model.encoder.model.tcn_block_01.conv0.weight_v f4 [2, 2, 9]
-0.076122664 -0.22534528 -0.05065101 -0.0026621493 -0.021000259 -0.11977376 0.1590998 0.12925023
-0.054990295 -0.08702222 0.14008164 0.19707628 -0.20867589 -0.046414748 -0.021610277 -0.079027556
0.19325872 -0.030876279 0.19210069 -0.0063603953 -0.03307667 -0.14482985 -0.0856498 0.06860533
0.100824155 -0.011615422 0.2224512 -0.17111076 0.08905261 0.21386364 -0.049807504 0.18846175
-0.0045267995 -0.18442638 -0.1374387 0.08697788
00000000: 33e6 9bbd eac0 66be 6f77 4fbd 7477 2ebb
00000010: bc08 acbc f24b f5bd 0feb 223e 2c5a 043e
00000020: 813d 61bd b538 b2bd 9071 0f3e 5dce 493e
00000030: 22af 55be 641d 3ebd 0908 b1bc 33d9 a1bd
00000040: 9de5 453e 40f0 fcbc 0bb6 443e dd6a d0bb
00000050: 677b 07bd 474e 14be 2a69 afbd f480 8c3d
00000060: e57c ce3d 9c4e 3ebc 3fca 633e a937 2fbe
00000070: 3761 b63d 12ff 5a3e f402 4cbd 1efc 403e
00000080: 8c55 94bb 45da 3cbe bbbc 0cbe 7521 b23d

model.encoder.model.tcn_block_01.conv1.bias f4 [2]
0.1456676 -0.032378092
00000000: e329 153e e49e 04bd

model.encoder.model.tcn_block_01.conv1.weight_g f4 [2, 1, 1]
0.60326564 0.52959645
00000000: 9e6f 1a3f a293 073f

model.encoder.model.tcn_block_01.conv1.weight_v f4 [2, 2, 9]
0.23084182 0.079275206 -0.023450265 0.058008168 -0.13426572 -0.19654962 -0.17568378 -0.19622345
0.04723122 0.045707993 -0.099983886 -0.23096739 0.1264356 -0.13525757 -0.041457213 -0.20080818
-0.13688196 0.09426242 -0.22360691 -0.14198527 0.16807604 -0.12871481 -0.10616665 -0.07445955
0.09215802 -0.1619901 0.015117953 0.105120346 -0.008249621 0.051481046 -0.17094061 0.115423135
0.09695385 -0.020694723 -0.18602341 0.10314581
00000000: cc61 6c3e 0a5b a23d c51a c0bc f999 6d3d
00000010: f47c 09be 4e44 49be 73e6 33be cdee 48be
00000020: 8675 413d 4e38 3b3d 5ac4 ccbd b782 6cbe
00000030: 5578 013e f680 0abe 0acf 29bd a9a0 4dbe
00000040: c92a 0cbe a80c c13d 36f9 64be 9664 11be
00000050: 201c 2c3e d1cd 03be e76d d9bd 407e 98bd
00000060: 58bd bc3d bce0 25be 4ab1 773c 5649 d73d
00000070: 6b29 07bc cadd 523d 0e0b 2fbe f762 ec3d
00000080: bd8f c63d fb87 a9bc ec7c 3ebe 1c3e d33d

model.encoder.model.tcn_block_01.block.conv1d_layer_0.bias f4 [2]
-0.09785678 0.064840324
00000000: 2369 c8bd 01cb 843d

model.encoder.model.tcn_block_01.block.conv1d_layer_0.weight_g f4 [2, 1, 1]
0.54334456 0.54522264
00000000: a118 0b3f b693 0b3f

model.encoder.model.tcn_block_01.block.conv1d_layer_0.weight_v f4 [2, 2, 9]
-0.076122664 -0.22534528 -0.05065101 -0.0026621493 -0.021000259 -0.11977376 0.1590998 0.12925023
-0.054990295 -0.08702222 0.14008164 0.19707628 -0.20867589 -0.046414748 -0.021610277 -0.079027556
0.19325872 -0.030876279 0.19210069 -0.0063603953 -0.03307667 -0.14482985 -0.0856498 0.06860533
0.100824155 -0.011615422 0.2224512 -0.17111076 0.08905261 0.21386364 -0.049807504 0.18846175
-0.0045267995 -0.18442638 -0.1374387 0.08697788
00000000: 33e6 9bbd eac0 66be 6f77 4fbd 7477 2ebb
00000010: bc08 acbc f24b f5bd 0feb 223e 2c5a 043e
00000020: 813d 61bd b538 b2bd 9071 0f3e 5dce 493e
00000030: 22af 55be 641d 3ebd 0908 b1bc 33d9 a1bd
00000040: 9de5 453e 40f0 fcbc 0bb6 443e dd6a d0bb
00000050: 677b 07bd 474e 14be 2a69 afbd f480 8c3d
00000060: e57c ce3d 9c4e 3ebc 3fca 633e a937 2fbe
00000070: 3761 b63d 12ff 5a3e f402 4cbd 1efc 403e
00000080: 8c55 94bb 45da 3cbe bbbc 0cbe 7521 b23d

model.encoder.model.tcn_block_01.block.conv1d_layer_1.bias f4 [2]
0.1456676 -0.032378092
00000000: e329 153e e49e 04bd

model.encoder.model.tcn_block_01.block.conv1d_layer_1.weight_g f4 [2, 1, 1]
0.60326564 0.52959645
00000000: 9e6f 1a3f a293 073f

model.encoder.model.tcn_block_01.block.conv1d_layer_1.weight_v f4 [2, 2, 9]
0.23084182 0.079275206 -0.023450265 0.058008168 -0.13426572 -0.19654962 -0.17568378 -0.19622345
0.04723122 0.045707993 -0.099983886 -0.23096739 0.1264356 -0.13525757 -0.041457213 -0.20080818
-0.13688196 0.09426242 -0.22360691 -0.14198527 0.16807604 -0.12871481 -0.10616665 -0.07445955
0.09215802 -0.1619901 0.015117953 0.105120346 -0.008249621 0.051481046 -0.17094061 0.115423135
0.09695385 -0.020694723 -0.18602341 0.10314581
00000000: cc61 6c3e 0a5b a23d c51a c0bc f999 6d3d
00000010: f47c 09be 4e44 49be 73e6 33be cdee 48be
00000020: 8675 413d 4e38 3b3d 5ac4 ccbd b782 6cbe
00000030: 5578 013e f680 0abe 0acf 29bd a9a0 4dbe
00000040: c92a 0cbe a80c c13d 36f9 64be 9664 11be
00000050: 201c 2c3e d1cd 03be e76d d9bd 407e 98bd
00000060: 58bd bc3d bce0 25be 4ab1 773c 5649 d73d
00000070: 6b29 07bc cadd 523d 0e0b 2fbe f762 ec3d
00000080: bd8f c63d fb87 a9bc ec7c 3ebe 1c3e d33d

model.qz_xy_mean.dense(qz_xy_mean)_layer_03.weight f4 [2, 2]
0.56038177 0.6780866 0.15985623 0.65298986
00000000: 2e75 0f3f 1597 2d3f 5ab1 233e 582a 273f

model.qz_xy_mean.dense(qz_xy_mean)_layer_03.bias f4 [2]
-0.69338864 -0.08608471
00000000: eb81 31bf 2e4d b0bd

model.qz_xy_logvar.dense(qz_xy_logvar)_layer_03.weight f4 [2, 2]
0.13159616 -0.6056488 0.33521023 -0.26055655
00000000: 25c1 063e cd0b 1bbf ada0 ab3e ab67 85be

model.qz_xy_logvar.dense(qz_xy_logvar)_layer_03.bias f4 [2]
-0.26472017 -0.56998265
00000000: 6789 87be 62ea 11bf

model.py_t_probs.dense(py_t_probs)_layer_00.weight f4 [4, 2]
0.28024417 -0.50553113 -0.1412143 0.30516574 0.5237155 0.15090692 -0.25480753 -0.29859185
00000000: 2a7c 8f3e 7d6a 01bf 7b9a 10be af3e 9c3e
00000010: 3812 063f 5887 1a3e 2276 82be 08e1 98be

model.py_t_probs.dense(py_t_probs)_layer_00.bias f4 [4]
0.3887376 0.14024103 0.6040432 0.2573303
00000000: 9d08 c73e 589b 0f3e 93a2 1a3f ccc0 833e

model.pz_t_mean.dense(pz_t_mean)_layer_00.weight f4 [8, 2]
0.97150415 -0.12266544 0.118816935 0.97930855 0.97863126 -0.05936766 0.061252814 0.9848341
0.98467124 0.0033887993 0.0033981176 0.97829664 0.9852479 -0.0008912687 0.0005716081 0.9773202
00000000: 7fb4 783f 0538 fbbd 4b56 f33d f7b3 7a3f
00000010: 9487 7a3f 812b 73bd 3be4 7a3d 161e 7c3f
00000020: 6a13 7c3f 9e16 5e3b f4b2 5e3b a671 7a3f
00000030: 3539 7c3f 08a4 69ba f8d7 153a a831 7a3f

model.pz_t_mean.dense(pz_t_mean)_layer_00.bias f4 [8]
0.15727 -0.30032519 -0.007352594 0.079612665 0.09831871 -0.011676361 -0.23858021 0.012708705
00000000: 630b 213e 39c4 99be 07ee f0bb f70b a33d
00000010: 525b c93d 354e 3fbc 5f4e 74be 2c38 503c

model.pz_t_logvar.dense(pz_t_logvar)_layer_00.weight f4 [2, 4]
0.0015543186 -0.013278788 -0.12793964 -0.122936085 0.023653617 -0.23599344 -0.45642114 -0.24982062
00000000: 47ba cb3a 468f 59bc 9c02 03be eac5 fbbd
00000010: 3bc5 c13c 44a8 71be 08b0 e9be fad0 7fbe

model.pz_t_logvar.dense(pz_t_logvar)_layer_00.bias f4 [2]
-0.09053985 0.3862253
00000000: f56c b9bd 53bf c53e

model.decoder.dense(decoder)_layer_00.weight f4 [10, 2]
0.5112271 -0.41479847 -0.018146027 -0.19526273 -0.3693129 -0.11568301 -0.23645008 0.38654342
-0.3419555 0.10016255 -0.39009625 -0.2118817 0.5477259 -0.33826664 -0.033623576 0.666384
0.25079423 -0.3509222 -0.4155511 -0.23901713
00000000: c7df 023f 7760 d4be faa6 94bc f4f2 47be
00000010: 9516 bdbe 37eb ecbd f81f 72be 05e9 c53e
00000020: cb14 afbe 0622 cd3d b2ba c7be 84f7 58be
00000030: c437 0c3f 4931 adbe e0b8 09bd 2498 2a3f
00000040: 1a68 803e 13ac b3be 1dc3 d4be e8c0 74be

model.decoder.dense(decoder)_layer_00.bias f4 [10]
-0.2124806 0.29886788 -0.16523857 0.5874516 -0.37929535 -0.227517 0.26372802 0.5558123
0.6674238 0.1041725
00000000: 8494 59be 3605 993e 4d34 29be 3a63 163f
00000010: 0033 c2be 37fa 68be 5c07 873e b749 0e3f
00000020: 49dc 2a3f 6458 d53d

inference.model.qy_x.model.tcn_block_00.conv0.bias f4 [2]
0.019487604 -0.016284427
00000000: 78a4 9f3c eb66 85bc

inference.model.qy_x.model.tcn_block_00.conv0.weight_g f4 [2, 1, 1]
0.5923515 0.5966562
00000000: 59a4 173f 76be 183f

inference.model.qy_x.model.tcn_block_00.conv0.weight_v f4 [2, 10, 9]
-0.00868811 0.048482474 -0.09472462 -0.08565793 -0.04879221 0.020005032 -0.010330406 0.07534273
-0.017603533 0.035886116 -0.023695638 -0.012504836 -0.09249937 -0.06166614 -0.035222992 0.012181319
0.049990524 0.071568996 -0.063846745 -0.037950505 0.046336964 0.09538128 -0.013839124 0.08675805
-0.00880376 0.01954238 0.10372541 -0.10602388 -0.0748396 -0.03497245 -0.04951094 0.08280567
-0.07653968 -0.05673036 -0.081661485 -0.10707804 -0.053266503 0.09890628 0.05525828 0.059223548
0.013529125 -0.04621569 0.022884756 -0.093718745 -0.07213913 -0.06242677 0.05826336 0.053572472
-0.054994743 -0.012058961 0.05915792 0.09651968 0.033574983 0.0059348866 0.065264046 -0.06595594
0.01601521 -0.081636585 -0.06970892 -0.048941977 0.052012548 0.048875265 -0.05454937 0.034061685
0.062112022 -0.005825153 0.011839189 0.03231357 0.07341981 0.10922421 -0.07303463 -0.030435514
0.03472695 0.07961143 0.08382463 0.084940694 0.012874053 -0.09972972 0.0015238434 -0.07414526
-0.10650635 0.101921774 0.088463776 -0.09686859 0.028031481 -0.009453923 -0.0090268785 -0.039951462
0.048835613 -0.054215416 0.045678213 0.060565468 0.08298075 0.04723452 -0.09634776 -0.060288392
0.060719546 0.030281523 -0.0743756 -0.06797838 0.091299884 0.0631256 -0.05397356 -0.03464423
-0.10839812 -0.010033115 -0.08695586 -0.08793412 -0.012504814 0.008735099 -0.05036662 0.05487259
-0.07163744 0.08755729 0.06438794 -0.096622 -0.034376144 0.012298391 0.01972953 0.03070739
0.043644343 0.0067910035 -0.048087403 0.048837416 -0.098728895 -0.061440248 -0.029191103 -0.051696416
-0.03619835 -0.08438733 -0.02043336 0.024487697 -0.063649036 -0.002947048 0.077195436 -0.0029339762
0.01091822 -0.001025113 0.029528843 0.075006425 0.107628934 0.07401168 0.105665855 -0.0014878418
-0.09590274 -0.053756874 0.06618212 -0.0062067416 -0.057971083 -0.08635281 -0.10427181 -0.09478055
-0.027759545 0.051417466 0.050296806 -0.10806918 0.05853969 -0.089384496 -0.029622111 -0.05038355
-0.028046576 -0.028698673 -0.08780866 -0.08404793 -0.009364783 0.008505037 -0.040444143 0.0471859
-0.08697181 0.0008159419 0.10080801 -0.05083394 0.08729985 0.031537447 -0.09940878 0.061494023
-0.015046454 -0.048482474 0.0813927 -0.08463027
00000000: 9358 0ebc 8f95 463d fbfe c1bd 6d6d afbd
00000010: 57da 47bd 98e1 a33c dd40 29bc 4a4d 9a3d
00000020: 4935 90bc 52fd 123d 5b1d c2bc 15e1 4cbc
00000030: 4f70 bdbd a295 7cbd fc45 10bd 2894 473c
00000040: ddc2 4c3d c492 923d 15c2 82bd fd71 1bbd
00000050: d4cb 3d3d 4357 c33d 7ebd 62bc 34ae b13d
00000060: a53d 10bc 5717 a03c fd6d d43d 0c23 d9bd
00000070: 8145 99bd 463f 0fbd fccb 4abd 0596 a93d
00000080: d6c0 9cbd 185e 68bd 233e a7bd bb4b dbbd
00000090: fa2d 5abd 608f ca3d 8256 623d 6494 723d
000000a0: 43a9 5d3c aa4c 3dbd d078 bb3c 9def bfbd
000000b0: aebd 93bd 36b3 7fbd 90a5 6e3d cf6e 5b3d
000000c0: 2b42 61bd f392 45bc 934f 723d 1cac c53d
000000d0: ec85 093d 7079 c23b 28a9 853d e813 87bd
000000e0: 5432 833c 1531 a7bd 8dc3 8ebd 6277 48bd
000000f0: 1c0b 553d 6e31 483d 296f 5fbd 4484 0b3d
00000100: 2d69 7e3d ede0 bebb 28f9 413c 3c5b 043d
00000110: 205d 963d f1b0 df3d 2e93 95bd e653 f9bc
00000120: d93d 0e3d 510b a33d 3fac ab3d 63f5 ad3d
00000130: b1ed 523c 183f ccbd b3bb c73a 78d9 97bd
00000140: 0020 dabd 5dbc d03d 7f2c b53d 0a63 c6bd
00000150: 47a2 e53c a1e4 1abc 79e5 13bc 25a4 23bd
00000160: da07 483d fc10 5ebd 1419 3b3d 7f13 783d
00000170: d0f1 a93d fc78 413d f951 c5bd f6f0 76bd
00000180: 0fb5 783d f510 f83c 3c52 98bd 4038 8bbd
00000190: 6ffb ba3d ff47 813d 6113 5dbd 1ce7 0dbd
000001a0: d5ff ddbd ef61 24bc ea15 b2bd ce16 b4bd
000001b0: fee0 4cbc a91d 0f3c 3b4d 4ebd 15c2 603d
000001c0: a6b6 92bd 3d51 b33d d3dd 833d c1e1 c5bd
000001d0: 00ce 0cbd 317f 493c d39f a13c 108e fb3c
000001e0: 69c4 323d 1187 de3b 4cf7 44bd be09 483d
000001f0: 6032 cabd c5a8 7bbd 2e22 efbc 9fbf 53bd
00000200: b944 14bd 44d3 acbd dd63 a7bc 6c9a c83c
00000210: 6d5a 82bd 4323 41bb a418 9e3d f447 40bb
00000220: 55e2 323c 165d 86ba 79e6 f13c f89c 993d
00000230: 8f6c dc3d 7093 973d 5767 d83d b003 c3ba
00000240: a868 c4bd 2b30 5cbd 7e8a 873d ec61 cbbb
00000250: 1673 6dbd bed9 b0bd 758c d5bd 4e1c c2bd
00000260: fc67 e3bc 1f9b 523d 0604 4e3d 6053 ddbd
00000270: 50c7 6f3d 380f b7bd 12aa f2bc fb5e 4ebd
00000280: efc1 e5bc 7b19 ebbc 07d5 b3bd 5221 acbd
00000290: bf6e 19bc b658 0b3c c2a8 25bd 0146 413d
000002a0: 471e b2bd efe4 553a 6e74 ce3d 4037 50bd
000002b0: 44ca b23d 692d 013d d596 cbbd 28e1 7b3d
000002c0: 6785 76bc 8f95 46bd 37b1 a63d a352 adbd

inference.model.qy_x.model.tcn_block_00.conv1.bias f4 [2]
0.1986711 -0.19007903
00000000: 7070 4b3e 14a4 42be

inference.model.qy_x.model.tcn_block_00.conv1.weight_g f4 [2, 1, 1]
0.54708135 0.48655957
00000000: 860d 0c3f 561e f93e

inference.model.qy_x.model.tcn_block_00.conv1.weight_v f4 [2, 2, 9]
0.1762038 0.07385546 0.12113574 0.09113014 -0.04884462 -0.04177923 -0.18646088 0.13124646
0.18839157 0.15278466 -0.16901615 0.0020565598 -0.16727015 -0.13233367 -0.13640927 0.072182454
-0.13784565 -0.013327512 0.0015224502 0.14368844 -0.18629748 -0.16976574 -0.14214282 0.16138887
-0.08402252 0.20626454 0.092970416 0.035562463 0.005973577 -0.038814873 0.03535476 -0.0460324
0.006135332 0.03583008 -0.17646617 -0.11570384
00000000: c56e 343e 8841 973d 0416 f83d 70a2 ba3d
00000010: 4c11 48bd b320 2bbd 9aef 3ebe 7965 063e
00000020: b8e9 403e 9573 1c3e 9212 2dbe 59c7 063b
00000030: de48 2bbe 7a82 07be dfae 0bbe 65d4 933d
00000040: 6927 0dbe a35b 5abc f48c c73a 1023 133e
00000050: c4c4 3ebe 12d7 2dbe e38d 11be 2043 253e
00000060: 0014 acbd 0337 533e 4667 be3d f2a9 113d
00000070: ffbd c33b 58fc 1ebd 27d0 103d 788c 3cbd
00000080: e50a c93b 90c2 123d 8cb3 34be 23f6 ecbd

inference.model.qy_x.model.tcn_block_00.block.conv1d_layer_0.bias f4 [2]
0.019487604 -0.016284427
00000000: 78a4 9f3c eb66 85bc

inference.model.qy_x.model.tcn_block_00.block.conv1d_layer_0.weight_g f4 [2, 1, 1]
0.5923515 0.5966562
00000000: 59a4 173f 76be 183f

inference.model.qy_x.model.tcn_block_00.block.conv1d_layer_0.weight_v f4 [2, 10, 9]
-0.00868811 0.048482474 -0.09472462 -0.08565793 -0.04879221 0.020005032 -0.010330406 0.07534273
-0.017603533 0.035886116 -0.023695638 -0.012504836 -0.09249937 -0.06166614 -0.035222992 0.012181319
0.049990524 0.071568996 -0.063846745 -0.037950505 0.046336964 0.09538128 -0.013839124 0.08675805
-0.00880376 0.01954238 0.10372541 -0.10602388 -0.0748396 -0.03497245 -0.04951094 0.08280567
-0.07653968 -0.05673036 -0.081661485 -0.10707804 -0.053266503 0.09890628 0.05525828 0.059223548
0.013529125 -0.04621569 0.022884756 -0.093718745 -0.07213913 -0.06242677 0.05826336 0.053572472
-0.054994743 -0.012058961 0.05915792 0.09651968 0.033574983 0.0059348866 0.065264046 -0.06595594
0.01601521 -0.081636585 -0.06970892 -0.048941977 0.052012548 0.048875265 -0.05454937 0.034061685
0.062112022 -0.005825153 0.011839189 0.03231357 0.07341981 0.10922421 -0.07303463 -0.030435514
0.03472695 0.07961143 0.08382463 0.084940694 0.012874053 -0.09972972 0.0015238434 -0.07414526
-0.10650635 0.101921774 0.088463776 -0.09686859 0.028031481 -0.009453923 -0.0090268785 -0.039951462
0.048835613 -0.054215416 0.045678213 0.060565468 0.08298075 0.04723452 -0.09634776 -0.060288392
0.060719546 0.030281523 -0.0743756 -0.06797838 0.091299884 0.0631256 -0.05397356 -0.03464423
-0.10839812 -0.010033115 -0.08695586 -0.08793412 -0.012504814 0.008735099 -0.05036662 0.05487259
-0.07163744 0.08755729 0.06438794 -0.096622 -0.034376144 0.012298391 0.01972953 0.03070739
0.043644343 0.0067910035 -0.048087403 0.048837416 -0.098728895 -0.061440248 -0.029191103 -0.051696416
-0.03619835 -0.08438733 -0.02043336 0.024487697 -0.063649036 -0.002947048 0.077195436 -0.0029339762
0.01091822 -0.001025113 0.029528843 0.075006425 0.107628934 0.07401168 0.105665855 -0.0014878418
-0.09590274 -0.053756874 0.06618212 -0.0062067416 -0.057971083 -0.08635281 -0.10427181 -0.09478055
-0.027759545 0.051417466 0.050296806 -0.10806918 0.05853969 -0.089384496 -0.029622111 -0.05038355
-0.028046576 -0.028698673 -0.08780866 -0.08404793 -0.009364783 0.008505037 -0.040444143 0.0471859
-0.08697181 0.0008159419 0.10080801 -0.05083394 0.08729985 0.031537447 -0.09940878 0.061494023
-0.015046454 -0.048482474 0.0813927 -0.08463027
00000000: 9358 0ebc 8f95 463d fbfe c1bd 6d6d afbd
00000010: 57da 47bd 98e1 a33c dd40 29bc 4a4d 9a3d
00000020: 4935 90bc 52fd 123d 5b1d c2bc 15e1 4cbc
00000030: 4f70 bdbd a295 7cbd fc45 10bd 2894 473c
00000040: ddc2 4c3d c492 923d 15c2 82bd fd71 1bbd
00000050: d4cb 3d3d 4357 c33d 7ebd 62bc 34ae b13d
00000060: a53d 10bc 5717 a03c fd6d d43d 0c23 d9bd
00000070: 8145 99bd 463f 0fbd fccb 4abd 0596 a93d
00000080: d6c0 9cbd 185e 68bd 233e a7bd bb4b dbbd
00000090: fa2d 5abd 608f ca3d 8256 623d 6494 723d
000000a0: 43a9 5d3c aa4c 3dbd d078 bb3c 9def bfbd
000000b0: aebd 93bd 36b3 7fbd 90a5 6e3d cf6e 5b3d
000000c0: 2b42 61bd f392 45bc 934f 723d 1cac c53d
000000d0: ec85 093d 7079 c23b 28a9 853d e813 87bd
000000e0: 5432 833c 1531 a7bd 8dc3 8ebd 6277 48bd
000000f0: 1c0b 553d 6e31 483d 296f 5fbd 4484 0b3d
00000100: 2d69 7e3d ede0 bebb 28f9 413c 3c5b 043d
00000110: 205d 963d f1b0 df3d 2e93 95bd e653 f9bc
00000120: d93d 0e3d 510b a33d 3fac ab3d 63f5 ad3d
00000130: b1ed 523c 183f ccbd b3bb c73a 78d9 97bd
00000140: 0020 dabd 5dbc d03d 7f2c b53d 0a63 c6bd
00000150: 47a2 e53c a1e4 1abc 79e5 13bc 25a4 23bd
00000160: da07 483d fc10 5ebd 1419 3b3d 7f13 783d
00000170: d0f1 a93d fc78 413d f951 c5bd f6f0 76bd
00000180: 0fb5 783d f510 f83c 3c52 98bd 4038 8bbd
00000190: 6ffb ba3d ff47 813d 6113 5dbd 1ce7 0dbd
000001a0: d5ff ddbd ef61 24bc ea15 b2bd ce16 b4bd
000001b0: fee0 4cbc a91d 0f3c 3b4d 4ebd 15c2 603d
000001c0: a6b6 92bd 3d51 b33d d3dd 833d c1e1 c5bd
000001d0: 00ce 0cbd 317f 493c d39f a13c 108e fb3c
000001e0: 69c4 323d 1187 de3b 4cf7 44bd be09 483d
000001f0: 6032 cabd c5a8 7bbd 2e22 efbc 9fbf 53bd
00000200: b944 14bd 44d3 acbd dd63 a7bc 6c9a c83c
00000210: 6d5a 82bd 4323 41bb a418 9e3d f447 40bb
00000220: 55e2 323c 165d 86ba 79e6 f13c f89c 993d
00000230: 8f6c dc3d 7093 973d 5767 d83d b003 c3ba
00000240: a868 c4bd 2b30 5cbd 7e8a 873d ec61 cbbb
00000250: 1673 6dbd bed9 b0bd 758c d5bd 4e1c c2bd
00000260: fc67 e3bc 1f9b 523d 0604 4e3d 6053 ddbd
00000270: 50c7 6f3d 380f b7bd 12aa f2bc fb5e 4ebd
00000280: efc1 e5bc 7b19 ebbc 07d5 b3bd 5221 acbd
00000290: bf6e 19bc b658 0b3c c2a8 25bd 0146 413d
000002a0: 471e b2bd efe4 553a 6e74 ce3d 4037 50bd
000002b0: 44ca b23d 692d 013d d596 cbbd 28e1 7b3d
000002c0: 6785 76bc 8f95 46bd 37b1 a63d a352 adbd

inference.model.qy_x.model.tcn_block_00.block.conv1d_layer_1.bias f4 [2]
0.1986711 -0.19007903
00000000: 7070 4b3e 14a4 42be

inference.model.qy_x.model.tcn_block_00.block.conv1d_layer_1.weight_g f4 [2, 1, 1]
0.54708135 0.48655957
00000000: 860d 0c3f 561e f93e
