results_gmdgm/ssm_v1/dtcn/nl_v3/version_0/best_val_model.pt (torch, 58663 bytes, 204 tensors)

model.qy_x.model.tcn_block_00.conv0.bias f4 [2]
000000 9c 96 0d 3d 52 58 14 bd
       0.03456746 -0.03621704

model.qy_x.model.tcn_block_00.conv0.weight_g f4 [2, 1, 1]
000000 2a d3 1b 3f 34 9b 14 3f
       0.60869086 0.5804932

model.qy_x.model.tcn_block_00.conv0.weight_v f4 [2, 10, 9]
000000 9c 99 15 bc 4b 2b 21 3d 12 1d c4 bd 36 1a ba bd
       -0.009130862 0.039347928 -0.09575857 -0.090870306
000010 e9 9e 6b bd a6 b2 01 3c d0 0f bf bc ff a0 6f 3d
       -0.057524595 0.007916128 -0.02332297 0.058503147
000020 32 49 0d bd 7a cc 22 3d 07 80 8e bc cf f0 91 bb
       -0.034493633 0.039745785 -0.017395033 -0.0044537554
000030 79 49 a7 bd 9d 27 46 bd c5 5c 9a bc 42 c5 e6 3c
       -0.08168311 -0.048377622 -0.018843064 0.028170232
000040 f3 2e 8a 3d e0 49 b6 3d 59 8e 8b bd 9b 37 1d bd
       0.06747236 0.08900809 -0.0681426 -0.038383108
000050 7c 28 45 3d 83 da bd 3d 2f 03 00 bc b9 ab c6 3d
       0.048134312 0.092701934 -0.007813259 0.09700722
000060 3a c0 44 ba 2d 16 0e 3d 38 e7 ea 3d d9 57 ec bd
       -0.00075054506 0.034689117 0.11469883 -0.11540193
000070 44 b6 c0 bd f4 02 52 bd 58 ed 89 bd 7a 89 85 3d
       -0.094097644 -0.051272348 -0.06734723 0.06520362
000080 24 c1 b8 bd 92 26 91 bd 16 d3 c9 bd 09 15 00 be
       -0.09021214 -0.07087435 -0.098547146 -0.12508024
000090 dd c8 0d bd fb d8 f3 3d 43 5a 97 3d f6 c4 a0 3d
       -0.034615386 0.1190662 0.07390263 0.07850067
0000a0 6e 4b 05 3d bf 36 de bc 9a 26 37 3d 7a 47 95 bd
       0.03254264 -0.027125714 0.044714548 -0.07289024
0000b0 e4 1c 4f bd 6e 60 8b bd 22 8c 32 3d 1a 3f 28 3d
       -0.05056466 -0.06805502 0.043590672 0.041075803
0000c0 de 46 87 bd 46 73 cb bc 43 96 3d 3d e9 f8 a1 3d
       -0.06605314 -0.02483524 0.04628588 0.07908804
0000d0 f7 06 7b 3c 52 9e 4b bc 42 a1 35 3d 1f fc b1 bd
       0.015321485 -0.012427883 0.04434324 -0.086906664
0000e0 13 c4 aa bb d8 be ca bd 5c 7a ab bd b4 64 7e bd
       -0.005211362 -0.09899682 -0.083729476 -0.062107757
0000f0 59 af 06 3d 39 00 19 3d 71 85 46 bd 08 fe 7b 3c
       0.03288207 0.037353728 -0.048467103 0.01538039
000100 ca 23 31 3d c6 cb 48 bc 92 0b 09 3c a0 89 00 3d
       0.04324702 -0.012255615 0.008364575 0.03138125
000110 6b 7d 9d 3d da 89 e4 3d a2 b2 78 bd 17 50 88 bc
       0.07689937 0.111591056 -0.060717233 -0.016639752
000120 e0 16 33 3d e4 cf a0 3d cc 48 a4 3d 5a 06 a0 3d
       0.043722987 0.07852152 0.080216974 0.078137115
000130 35 ec f7 3b 74 ff d2 bd f9 e5 58 bc 6f 8d b4 bd
       0.007566 -0.1030263 -0.0132384235 -0.08816039
000140 a2 cd f6 bd db 6c f3 3d 94 8e d9 3d 9a a0 a1 bd
       -0.1205094 0.11885997 0.10622898 -0.078919604
000150 63 63 3f 3d 34 a4 08 3c 73 94 12 3c 85 04 b3 bc
       0.046725642 0.00833993 0.008946526 -0.021852741
000160 7a 81 8b 3d 5b 13 14 bd 4b 0b c5 3c aa e0 22 3d
       0.06811805 -0.03615127 0.024053236 0.039765038
000170 55 6d 7d 3d 0a 3d eb 3c 2e 0f e8 bd a8 88 98 bd
       0.061871845 0.02871563 -0.1133102 -0.0744794
000180 35 df 3f 3d a5 f1 b7 3c a6 d9 ad bd e1 cd 4e bd
       0.046843726 0.022454092 -0.08488779 -0.05048931
000190 02 54 db 3d 22 2b a7 3d b0 65 1e bd ab 94 ad bc
       0.107093826 0.08162524 -0.038671196 -0.021189054
0001a0 50 7e c2 bd f5 36 18 bb 6e 65 a7 bd 7e 51 b2 bd
       -0.094967484 -0.0023226116 -0.08173643 -0.0870695
0001b0 6c 11 39 3c fd 9d f6 3c 54 6e 2c bd 67 2e 9e 3d
       0.011295658 0.030104632 -0.042097405 0.07723694
0001c0 dc d5 5d bd c6 09 db 3d c7 01 90 3d be 17 9e bd
       -0.05415903 0.106952235 0.07031589 -0.07719372
0001d0 df 45 0c bd ca 06 fb 3a 64 d0 8b 3c 47 bf e3 3c
       -0.03424632 0.0019151804 0.017067142 0.02780117
0001e0 43 db 3e 3d 5a c9 0e 3c dd 14 32 bd 9e 62 6b 3d
       0.046595823 0.008714998 -0.043476928 0.057467096
0001f0 a8 3b c3 bd 1a fa 67 bd 01 43 db bc e9 2f 5d bd
       -0.09532863 -0.056635 -0.026765348 -0.05400077
000200 92 2e 2a bd 86 6a bf bd 3f a9 ff bc 77 1d 71 3c
       -0.04154832 -0.093464896 -0.031208633 0.014716498
000210 5b e6 a5 bd 70 ff 80 bc ad d7 87 3d fc c9 a6 bc
       -0.081005774 -0.015746802 0.06632934 -0.020359986
000220 a7 40 be bb 96 e6 7c bc 1b 0f 7f 3c 85 b3 81 3d
       -0.005806047 -0.015435835 0.015567566 0.06333069
000230 98 69 c7 3d 56 da 87 3d 1c c9 d3 3d 7c 82 d8 bb
       0.09736937 0.06633441 0.10341093 -0.006607352
000240 6b 43 bc bd 24 49 2f bd 8b b1 a6 3d f8 d8 57 3c
       -0.091925465 -0.04279436 0.081393324 0.013174288
000250 ad 66 27 bd 1a 8e 88 bd 1f b9 ac bd 17 4a 9b bd
       -0.040869404 -0.06667729 -0.084337465 -0.07582491
000260 5c 0c f1 bb b2 18 99 3d 1d 79 92 3d 59 de ab bd
       -0.0073562097 0.074754134 0.07152007 -0.08392019
000270 04 99 a4 3d ff 06 86 bd f6 48 0e bc 2b bc f0 bc
       0.08036998 -0.06544303 -0.008684387 -0.0293866
000280 2b 42 30 bc 1f 86 2a bc 0e 17 e2 bd 5c 1c db bd
       -0.010757963 -0.0104079535 -0.110395536 -0.106987685
000290 fe 21 05 bd bc 3d 52 bc ff 67 81 bd 03 9e d7 3c
       -0.03250312 -0.012832101 -0.06318664 0.026320463
0002a0 c7 62 da bd 05 d8 91 bc 53 eb bc 3d 96 66 20 bd
       -0.106633715 -0.017803201 0.09224572 -0.039160334
0002b0 dd 94 ca 3d 0d 56 25 3d bd e1 c1 bd 55 2d 84 3d
       0.09891675 0.040365268 -0.09466884 0.06453959
0002c0 8f e0 6d bc 97 7e 56 bd 42 65 a5 3d f9 95 b9 bd
       -0.014518871 -0.05236682 0.08075954 -0.09061808

model.qy_x.model.tcn_block_00.conv1.bias f4 [2]
000000 18 0d 5f 3e 99 11 48 be
       0.21782339 -0.19537963

model.qy_x.model.tcn_block_00.conv1.weight_g f4 [2, 1, 1]
000000 16 70 0f 3f 06 9e 02 3f
       0.56030405 0.51022375

model.qy_x.model.tcn_block_00.conv1.weight_v f4 [2, 2, 9]
000000 b2 0b 43 3e 10 d9 b2 3d ec 4c 09 3e 23 27 d6 3d
       0.1904743 0.08732808 0.1340825 0.104566835
000010 b8 61 0c bd e1 e8 e5 bc b6 f7 30 be e5 7e 1d 3e
       -0.03427288 -0.028065147 -0.17281994 0.15380438
000020 89 8c 56 3e ca cd 22 3e 84 c2 10 be 9e 53 95 3c
       0.20952047 0.15898815 -0.14136702 0.018228348
000030 0f 4e 11 be d3 3e d9 bd a7 2d f3 bd 28 da 89 3d
       -0.14189933 -0.10607686 -0.11873942 0.06731063
000040 f7 18 fa bd 58 30 8e bb 3c 9d 3b bb 35 bc 0b 3e
       -0.12211793 -0.004339259 -0.0028627655 0.13646014
000050 f3 44 3d be 34 53 2c be 86 21 0f be 04 9e 21 3e
       -0.18483333 -0.16828614 -0.13977632 0.15782934
000060 41 96 ae bd 18 fb 48 3e d6 19 b0 3d a8 93 0b 3d
       -0.085247524 0.19627035 0.08598678 0.034076363
000070 8d 91 0d 39 4a 96 3a bd 2f cd b9 3c ee ca 80 bd
       0.0001350103 -0.045553483 0.022680847 -0.06288706
000080 21 0d ad bc 0a 6f e0 3b fb ae 3e be 9b aa 05 be
       -0.021124424 0.0068491744 -0.18621437 -0.13053362

model.qy_x.model.tcn_block_00.block.conv1d_layer_0.bias f4 [2]
000000 9c 96 0d 3d 52 58 14 bd
       0.03456746 -0.03621704

model.qy_x.model.tcn_block_00.block.conv1d_layer_0.weight_g f4 [2, 1, 1]
000000 2a d3 1b 3f 34 9b 14 3f
       0.60869086 0.5804932

model.qy_x.model.tcn_block_00.block.conv1d_layer_0.weight_v f4 [2, 10, 9]
000000 9c 99 15 bc 4b 2b 21 3d 12 1d c4 bd 36 1a ba bd
       -0.009130862 0.039347928 -0.09575857 -0.090870306
000010 e9 9e 6b bd a6 b2 01 3c d0 0f bf bc ff a0 6f 3d
       -0.057524595 0.007916128 -0.02332297 0.058503147
000020 32 49 0d bd 7a cc 22 3d 07 80 8e bc cf f0 91 bb
       -0.034493633 0.039745785 -0.017395033 -0.0044537554
000030 79 49 a7 bd 9d 27 46 bd c5 5c 9a bc 42 c5 e6 3c
       -0.08168311 -0.048377622 -0.018843064 0.028170232
000040 f3 2e 8a 3d e0 49 b6 3d 59 8e 8b bd 9b 37 1d bd
       0.06747236 0.08900809 -0.0681426 -0.038383108
000050 7c 28 45 3d 83 da bd 3d 2f 03 00 bc b9 ab c6 3d
       0.048134312 0.092701934 -0.007813259 0.09700722
000060 3a c0 44 ba 2d 16 0e 3d 38 e7 ea 3d d9 57 ec bd
       -0.00075054506 0.034689117 0.11469883 -0.11540193
000070 44 b6 c0 bd f4 02 52 bd 58 ed 89 bd 7a 89 85 3d
       -0.094097644 -0.051272348 -0.06734723 0.06520362
000080 24 c1 b8 bd 92 26 91 bd 16 d3 c9 bd 09 15 00 be
       -0.09021214 -0.07087435 -0.098547146 -0.12508024
000090 dd c8 0d bd fb d8 f3 3d 43 5a 97 3d f6 c4 a0 3d
       -0.034615386 0.1190662 0.07390263 0.07850067
0000a0 6e 4b 05 3d bf 36 de bc 9a 26 37 3d 7a 47 95 bd
       0.03254264 -0.027125714 0.044714548 -0.07289024
0000b0 e4 1c 4f bd 6e 60 8b bd 22 8c 32 3d 1a 3f 28 3d
       -0.05056466 -0.06805502 0.043590672 0.041075803
0000c0 de 46 87 bd 46 73 cb bc 43 96 3d 3d e9 f8 a1 3d
       -0.06605314 -0.02483524 0.04628588 0.07908804
0000d0 f7 06 7b 3c 52 9e 4b bc 42 a1 35 3d 1f fc b1 bd
       0.015321485 -0.012427883 0.04434324 -0.086906664
0000e0 13 c4 aa bb d8 be ca bd 5c 7a ab bd b4 64 7e bd
       -0.005211362 -0.09899682 -0.083729476 -0.062107757
0000f0 59 af 06 3d 39 00 19 3d 71 85 46 bd 08 fe 7b 3c
       0.03288207 0.037353728 -0.048467103 0.01538039
000100 ca 23 31 3d c6 cb 48 bc 92 0b 09 3c a0 89 00 3d
       0.04324702 -0.012255615 0.008364575 0.03138125
000110 6b 7d 9d 3d da 89 e4 3d a2 b2 78 bd 17 50 88 bc
       0.07689937 0.111591056 -0.060717233 -0.016639752
000120 e0 16 33 3d e4 cf a0 3d cc 48 a4 3d 5a 06 a0 3d
       0.043722987 0.07852152 0.080216974 0.078137115
000130 35 ec f7 3b 74 ff d2 bd f9 e5 58 bc 6f 8d b4 bd
       0.007566 -0.1030263 -0.0132384235 -0.08816039
000140 a2 cd f6 bd db 6c f3 3d 94 8e d9 3d 9a a0 a1 bd
       -0.1205094 0.11885997 0.10622898 -0.078919604
000150 63 63 3f 3d 34 a4 08 3c 73 94 12 3c 85 04 b3 bc
       0.046725642 0.00833993 0.008946526 -0.021852741
000160 7a 81 8b 3d 5b 13 14 bd 4b 0b c5 3c aa e0 22 3d
       0.06811805 -0.03615127 0.024053236 0.039765038
000170 55 6d 7d 3d 0a 3d eb 3c 2e 0f e8 bd a8 88 98 bd
       0.061871845 0.02871563 -0.1133102 -0.0744794
000180 35 df 3f 3d a5 f1 b7 3c a6 d9 ad bd e1 cd 4e bd
       0.046843726 0.022454092 -0.08488779 -0.05048931
000190 02 54 db 3d 22 2b a7 3d b0 65 1e bd ab 94 ad bc
       0.107093826 0.08162524 -0.038671196 -0.021189054
0001a0 50 7e c2 bd f5 36 18 bb 6e 65 a7 bd 7e 51 b2 bd
       -0.094967484 -0.0023226116 -0.08173643 -0.0870695
0001b0 6c 11 39 3c fd 9d f6 3c 54 6e 2c bd 67 2e 9e 3d
       0.011295658 0.030104632 -0.042097405 0.07723694
0001c0 dc d5 5d bd c6 09 db 3d c7 01 90 3d be 17 9e bd
       -0.05415903 0.106952235 0.07031589 -0.07719372
0001d0 df 45 0c bd ca 06 fb 3a 64 d0 8b 3c 47 bf e3 3c
       -0.03424632 0.0019151804 0.017067142 0.02780117
0001e0 43 db 3e 3d 5a c9 0e 3c dd 14 32 bd 9e 62 6b 3d
       0.046595823 0.008714998 -0.043476928 0.057467096
0001f0 a8 3b c3 bd 1a fa 67 bd 01 43 db bc e9 2f 5d bd
       -0.09532863 -0.056635 -0.026765348 -0.05400077
000200 92 2e 2a bd 86 6a bf bd 3f a9 ff bc 77 1d 71 3c
       -0.04154832 -0.093464896 -0.031208633 0.014716498
000210 5b e6 a5 bd 70 ff 80 bc ad d7 87 3d fc c9 a6 bc
       -0.081005774 -0.015746802 0.06632934 -0.020359986
000220 a7 40 be bb 96 e6 7c bc 1b 0f 7f 3c 85 b3 81 3d
       -0.005806047 -0.015435835 0.015567566 0.06333069
000230 98 69 c7 3d 56 da 87 3d 1c c9 d3 3d 7c 82 d8 bb
       0.09736937 0.06633441 0.10341093 -0.006607352
000240 6b 43 bc bd 24 49 2f bd 8b b1 a6 3d f8 d8 57 3c
       -0.091925465 -0.04279436 0.081393324 0.013174288
000250 ad 66 27 bd 1a 8e 88 bd 1f b9 ac bd 17 4a 9b bd
       -0.040869404 -0.06667729 -0.084337465 -0.07582491
000260 5c 0c f1 bb b2 18 99 3d 1d 79 92 3d 59 de ab bd
       -0.0073562097 0.074754134 0.07152007 -0.08392019
000270 04 99 a4 3d ff 06 86 bd f6 48 0e bc 2b bc f0 bc
       0.08036998 -0.06544303 -0.008684387 -0.0293866
000280 2b 42 30 bc 1f 86 2a bc 0e 17 e2 bd 5c 1c db bd
       -0.010757963 -0.0104079535 -0.110395536 -0.106987685
000290 fe 21 05 bd bc 3d 52 bc ff 67 81 bd 03 9e d7 3c
       -0.03250312 -0.012832101 -0.06318664 0.026320463
0002a0 c7 62 da bd 05 d8 91 bc 53 eb bc 3d 96 66 20 bd
       -0.106633715 -0.017803201 0.09224572 -0.039160334
0002b0 dd 94 ca 3d 0d 56 25 3d bd e1 c1 bd 55 2d 84 3d
       0.09891675 0.040365268 -0.09466884 0.06453959
0002c0 8f e0 6d bc 97 7e 56 bd 42 65 a5 3d f9 95 b9 bd
       -0.014518871 -0.05236682 0.08075954 -0.09061808

model.qy_x.model.tcn_block_00.block.conv1d_layer_1.bias f4 [2]
000000 18 0d 5f 3e 99 11 48 be
       0.21782339 -0.19537963

model.qy_x.model.tcn_block_00.block.conv1d_layer_1.weight_g f4 [2, 1, 1]
000000 16 70 0f 3f 06 9e 02 3f
       0.56030405 0.51022375

model.qy_x.model.tcn_block_00.block.conv1d_layer_1.weight_v f4 [2, 2, 9]
000000 b2 0b 43 3e 10 d9 b2 3d ec 4c 09 3e 23 27 d6 3d
       0.1904743 0.08732808 0.1340825 0.104566835
000010 b8 61 0c bd e1 e8 e5 bc b6 f7 30 be e5 7e 1d 3e
       -0.03427288 -0.028065147 -0.17281994 0.15380438
000020 89 8c 56 3e ca cd 22 3e 84 c2 10 be 9e 53 95 3c
       0.20952047 0.15898815 -0.14136702 0.018228348
000030 0f 4e 11 be d3 3e d9 bd a7 2d f3 bd 28 da 89 3d
       -0.14189933 -0.10607686 -0.11873942 0.06731063
000040 f7 18 fa bd 58 30 8e bb 3c 9d 3b bb 35 bc 0b 3e
       -0.12211793 -0.004339259 -0.0028627655 0.13646014
000050 f3 44 3d be 34 53 2c be 86 21 0f be 04 9e 21 3e
       -0.18483333 -0.16828614 -0.13977632 0.15782934
000060 41 96 ae bd 18 fb 48 3e d6 19 b0 3d a8 93 0b 3d
       -0.085247524 0.19627035 0.08598678 0.034076363
000070 8d 91 0d 39 4a 96 3a bd 2f cd b9 3c ee ca 80 bd
       0.0001350103 -0.045553483 0.022680847 -0.06288706
000080 21 0d ad bc 0a 6f e0 3b fb ae 3e be 9b aa 05 be
       -0.021124424 0.0068491744 -0.18621437 -0.13053362

model.qy_x.model.tcn_block_00.downsample.weight f4 [2, 10, 1]
000000 55 44 bb bb 38 30 f1 3c aa 6e a0 3c 8b 99 8e bc
       -0.005714933 0.029441938 0.019584019 -0.0174072
000010 d9 a1 de 3c 81 7c 13 bd 4c 4b aa bc e0 78 22 bb
       0.027176784 -0.036007408 -0.020787857 -0.0024791285
000020 ea 3c 85 bc 51 2b 16 3d 00 9c 27 bb 9c 03 9c 3b
       -0.016264398 0.036662403 -0.002557516 0.0047611725
000030 20 66 a7 bb e5 57 07 3c 20 8c c6 bb 3e 17 87 3b
       -0.00510861 0.008260702 -0.0060591847 0.0041226437
000040 66 ae 51 bc 77 9f 89 3c 76 e7 10 3b 85 53 61 3c
       -0.0127979275 0.016799672 0.0022110618 0.013752823

model.qy_x.model.tcn_block_00.downsample.bias f4 [2]
000000 c4 b6 05 3e 1c 40 5d 3e
       0.13058001 0.21606487

model.qy_x.model.tcn_block_01.conv0.bias f4 [2]
000000 b0 1c e1 bd f8 f4 11 3e
       -0.109918 0.14253604

model.qy_x.model.tcn_block_01.conv0.weight_g f4 [2, 1, 1]
000000 38 1a 1d 3f b2 38 20 3f
       0.6136813 0.6258651

model.qy_x.model.tcn_block_01.conv0.weight_v f4 [2, 2, 9]
000000 4b 7d 42 3e 24 60 b7 bd d0 2f dc bc e5 82 0f be
       0.18993108 -0.08953884 -0.026878268 -0.14014776
000010 b0 82 55 3e 6d 24 50 3e 3b 87 50 be df 32 5e be
       0.20850635 0.20326395 -0.20364086 -0.21699093
000020 c7 98 51 be eb 50 02 bd 49 de b9 bd 96 d0 38 be
       -0.20468436 -0.03181545 -0.09075601 -0.18048319
000030 be 4b ea bd 21 71 6d 3c 3e 20 1b be 4d 4e b6 3c
       -0.11440228 0.014492304 -0.15149018 0.022254134
000040 71 4b ac bd 1d 2c 12 be 4f 6c 53 3d 90 6d 5a 3e
       -0.08412827 -0.1427464 0.051616963 0.21330857
000050 2e cf 0f be 9b 52 fa 3c 93 5c 8a bd f1 e2 80 3e
       -0.14043877 0.030556967 -0.067559384 0.25173143
000060 8d 2d 51 be a3 79 53 be 36 78 81 3e f0 c2 00 be
       -0.20427532 -0.2065187 0.25287026 -0.12574363
000070 9a a6 91 3d 58 83 98 3b d5 d4 cc bc ea 28 e7 bc
       0.07111855 0.0046543293 -0.02500383 -0.028217752
000080 a4 0b 35 3e 2f 4f 14 3d 43 20 54 be 15 b2 ed bd
       0.17680222 0.036208328 -0.20715432 -0.11606232

model.qy_x.model.tcn_block_01.conv1.bias f4 [4]
000000 b4 2d 8e bd d5 5f 66 be be d3 19 be 69 f3 96 3d
       -0.06942311 -0.22497495 -0.1502218 0.073706456

model.qy_x.model.tcn_block_01.conv1.weight_g f4 [4, 1, 1]
000000 8f 15 1d 3f c4 57 31 3f e9 2c 1a 3f 81 06 1a 3f
       0.6136102 0.69274545 0.6022478 0.60166174

model.qy_x.model.tcn_block_01.conv1.weight_v f4 [4, 2, 9]
000000 bd 4c 39 be a6 65 45 3e 59 2a a6 bd 61 68 91 bd
       -0.1809568 0.19277057 -0.08113546 -0.07099987
000010 61 dd 1e 3e a4 00 b7 3d 4a a2 2e 3e 7f cc db 3d
       0.15514137 0.08935669 0.17054096 0.10732364
000020 4a 80 cc bd c2 02 01 be 7b 00 5a 3c cd 46 67 3e
       -0.09985407 -0.12598708 0.013305779 0.22585602
000030 fb 43 46 bd 21 ca 3f be 5d f0 02 3e b6 71 85 3e
       -0.048404675 -0.1872945 0.12787004 0.26063317
000040 ce 54 10 bd 43 3f 27 be 41 2d 47 be 5a 3c 88 3d
       -0.035237126 -0.16332726 -0.19450857 0.06652136
000050 93 ee 29 bc 3b 53 e1 bd 3a e4 61 3d 0a 8d c6 3d
       -0.010371822 -0.11002203 0.055149294 0.0969487
000060 bb 73 47 3e a5 f2 42 3e 5f 0e e7 bc 74 da 5a be
       0.19477741 0.19037874 -0.028205095 -0.21372396
000070 fa b2 61 be 34 97 5b 3e 21 3e c8 3d 84 a4 c5 3d
       -0.2204093 0.21444398 0.09777475 0.096505195
000080 f6 87 58 be 41 c3 58 3e 14 c8 5d 3e 67 1d 51 3e
       -0.21145615 0.21168233 0.21658355 0.20421372
000090 bf 76 4b be 3a b4 d3 bd 59 1b 2b be ff 5e 4b 3e
       -0.19869517 -0.1033711 -0.16709651 0.19860457
0000a0 96 1d ea bd ac cf f4 bd 69 e6 c9 3d f8 5c f7 bd
       -0.11431424 -0.11953673 0.098584004 -0.12078279
0000b0 ca 17 02 be de 3a 6e 3b bc 19 8e 3a d6 1f 23 be
       -0.12704387 0.0036351006 0.001084141 -0.15930113
0000c0 66 c6 60 3e a4 f9 a2 bd a3 d7 dc 3d 3c 02 6b 3e
       0.21950683 -0.079577714 0.10783317 0.22950071
0000d0 b6 17 13 3e 7d 7d 6c 3d 0d 37 68 3e 40 27 80 3d
       0.14364514 0.057736862 0.2267725 0.06257486
0000e0 4a 50 9c bd 83 45 7e 3e 5a bb b0 3d d4 19 49 be
       -0.076325014 0.24831204 0.086294845 -0.19638759
0000f0 57 79 0e bd 79 78 02 be cc 31 6e 3e 0e 04 95 bd
       -0.034783687 -0.12741269 0.23261184 -0.07276164
000100 15 63 7e be 27 36 47 bd 20 61 e9 3d d1 e1 de 3c
       -0.24842484 -0.048635628 0.11395478 0.027207287
000110 83 91 25 3d 03 ca 48 bc 75 4b 5b 3d 69 9a bb bd
       0.040421974 -0.012255195 0.05353876 -0.09160311

model.qy_x.model.tcn_block_01.block.conv1d_layer_0.bias f4 [2]
000000 b0 1c e1 bd f8 f4 11 3e
       -0.109918 0.14253604

model.qy_x.model.tcn_block_01.block.conv1d_layer_0.weight_g f4 [2, 1, 1]
000000 38 1a 1d 3f b2 38 20 3f
       0.6136813 0.6258651

model.qy_x.model.tcn_block_01.block.conv1d_layer_0.weight_v f4 [2, 2, 9]
000000 4b 7d 42 3e 24 60 b7 bd d0 2f dc bc e5 82 0f be
       0.18993108 -0.08953884 -0.026878268 -0.14014776
000010 b0 82 55 3e 6d 24 50 3e 3b 87 50 be df 32 5e be
       0.20850635 0.20326395 -0.20364086 -0.21699093
000020 c7 98 51 be eb 50 02 bd 49 de b9 bd 96 d0 38 be
       -0.20468436 -0.03181545 -0.09075601 -0.18048319
000030 be 4b ea bd 21 71 6d 3c 3e 20 1b be 4d 4e b6 3c
       -0.11440228 0.014492304 -0.15149018 0.022254134
000040 71 4b ac bd 1d 2c 12 be 4f 6c 53 3d 90 6d 5a 3e
       -0.08412827 -0.1427464 0.051616963 0.21330857
000050 2e cf 0f be 9b 52 fa 3c 93 5c 8a bd f1 e2 80 3e
       -0.14043877 0.030556967 -0.067559384 0.25173143
000060 8d 2d 51 be a3 79 53 be 36 78 81 3e f0 c2 00 be
       -0.20427532 -0.2065187 0.25287026 -0.12574363
000070 9a a6 91 3d 58 83 98 3b d5 d4 cc bc ea 28 e7 bc
       0.07111855 0.0046543293 -0.02500383 -0.028217752
000080 a4 0b 35 3e 2f 4f 14 3d 43 20 54 be 15 b2 ed bd
       0.17680222 0.036208328 -0.20715432 -0.11606232

model.qy_x.model.tcn_block_01.block.conv1d_layer_1.bias f4 [4]
000000 b4 2d 8e bd d5 5f 66 be be d3 19 be 69 f3 96 3d
       -0.06942311 -0.22497495 -0.1502218 0.073706456

model.qy_x.model.tcn_block_01.block.conv1d_layer_1.weight_g f4 [4, 1, 1]
000000 8f 15 1d 3f c4 57 31 3f e9 2c 1a 3f 81 06 1a 3f
       0.6136102 0.69274545 0.6022478 0.60166174

model.qy_x.model.tcn_block_01.block.conv1d_layer_1.weight_v f4 [4, 2, 9]
000000 bd 4c 39 be a6 65 45 3e 59 2a a6 bd 61 68 91 bd
       -0.1809568 0.19277057 -0.08113546 -0.07099987
000010 61 dd 1e 3e a4 00 b7 3d 4a a2 2e 3e 7f cc db 3d
       0.15514137 0.08935669 0.17054096 0.10732364
000020 4a 80 cc bd c2 02 01 be 7b 00 5a 3c cd 46 67 3e
       -0.09985407 -0.12598708 0.013305779 0.22585602
000030 fb 43 46 bd 21 ca 3f be 5d f0 02 3e b6 71 85 3e
       -0.048404675 -0.1872945 0.12787004 0.26063317
000040 ce 54 10 bd 43 3f 27 be 41 2d 47 be 5a 3c 88 3d
       -0.035237126 -0.16332726 -0.19450857 0.06652136
000050 93 ee 29 bc 3b 53 e1 bd 3a e4 61 3d 0a 8d c6 3d
       -0.010371822 -0.11002203 0.055149294 0.0969487
000060 bb 73 47 3e a5 f2 42 3e 5f 0e e7 bc 74 da 5a be
       0.19477741 0.19037874 -0.028205095 -0.21372396
000070 fa b2 61 be 34 97 5b 3e 21 3e c8 3d 84 a4 c5 3d
       -0.2204093 0.21444398 0.09777475 0.096505195
000080 f6 87 58 be 41 c3 58 3e 14 c8 5d 3e 67 1d 51 3e
       -0.21145615 0.21168233 0.21658355 0.20421372
000090 bf 76 4b be 3a b4 d3 bd 59 1b 2b be ff 5e 4b 3e
       -0.19869517 -0.1033711 -0.16709651 0.19860457
0000a0 96 1d ea bd ac cf f4 bd 69 e6 c9 3d f8 5c f7 bd
       -0.11431424 -0.11953673 0.098584004 -0.12078279
0000b0 ca 17 02 be de 3a 6e 3b bc 19 8e 3a d6 1f 23 be
       -0.12704387 0.0036351006 0.001084141 -0.15930113
0000c0 66 c6 60 3e a4 f9 a2 bd a3 d7 dc 3d 3c 02 6b 3e
       0.21950683 -0.079577714 0.10783317 0.22950071
0000d0 b6 17 13 3e 7d 7d 6c 3d 0d 37 68 3e 40 27 80 3d
       0.14364514 0.057736862 0.2267725 0.06257486
0000e0 4a 50 9c bd 83 45 7e 3e 5a bb b0 3d d4 19 49 be
       -0.076325014 0.24831204 0.086294845 -0.19638759
0000f0 57 79 0e bd 79 78 02 be cc 31 6e 3e 0e 04 95 bd
       -0.034783687 -0.12741269 0.23261184 -0.07276164
000100 15 63 7e be 27 36 47 bd 20 61 e9 3d d1 e1 de 3c
       -0.24842484 -0.048635628 0.11395478 0.027207287
000110 83 91 25 3d 03 ca 48 bc 75 4b 5b 3d 69 9a bb bd
       0.040421974 -0.012255195 0.05353876 -0.09160311

model.qy_x.model.tcn_block_01.downsample.weight f4 [4, 2, 1]
000000 1a 0c 13 3d 99 43 4f 3c 87 1a db bc 18 62 d1 b9
       0.035900213 0.012650394 -0.026746048 -0.00039936672
000010 a2 a7 03 3d 89 e5 97 3c f8 4a 0e bc ee b3 e4 bc
       0.03214229 0.018542068 -0.008684866 -0.027917828

model.qy_x.model.tcn_block_01.downsample.bias f4 [4]
000000 f7 9f 09 bf 75 3c 32 be 3e d7 d1 3e e5 6b a3 be
       -0.5375971 -0.17405875 0.4098453 -0.31918254

model.qy_x.model.final_dense_02.weight f4 [4, 4, 1]
000000 81 7a 6b 3d ba e8 d5 3c 4f ca 4d be 6f 40 54 be
       0.057489876 0.02611195 -0.20096706 -0.20727704
000010 18 b6 2d 3e 11 f1 9f be e5 90 40 3d f1 ab 81 3e
       0.16963995 -0.31238607 0.047013182 0.25326493
000020 eb 3d 36 be 0f e8 de 3e cd 93 57 bd 32 7d 7b 3e
       -0.17797057 0.43536422 -0.05263119 0.24559477
000030 60 03 ef 3e 6f d2 3a be d5 3a 9a 3e 32 d5 31 be
       0.46682262 -0.18244337 0.3012301 -0.17366484

model.qy_x.model.final_dense_02.bias f4 [4]
000000 6e a9 27 bd 60 78 f4 bd af 2f b7 bc fc fc 23 be
       -0.040933065 -0.11937022 -0.022361604 -0.16014475

model.encoder.model.tcn_block_00.conv0.bias f4 [2]
000000 a5 c2 78 3d a0 4a 8a bd
       0.060732502 -0.06752515

model.encoder.model.tcn_block_00.conv0.weight_g f4 [2, 1, 1]
000000 d9 e7 1f 3f 85 8b 1a 3f
       0.62463146 0.6036914

model.encoder.model.tcn_block_00.conv0.weight_v f4 [2, 14, 9]
000000 85 ed a0 3c ad 5a 1a 3c e8 dd 69 3d 58 d1 3e bb
       0.019644508 0.009421033 0.057096392 -0.0029116478
000010 d3 24 c5 3c 96 bb 48 bc 68 5e 4c bd 88 1a 64 3d
       0.02406541 -0.012251755 -0.04989472 0.055689365
000020 7e fe 0d 3d 4f c6 28 bd 49 07 31 bd 76 24 05 3b
       0.03466653 -0.041204747 -0.04321984 0.0020315922
000030 7a 42 13 bd e6 6a 04 3d f9 1d a0 bc 09 78 05 3c
       -0.03595207 0.03232851 -0.019545542 0.008146294
000040 be 54 49 3c e9 b2 43 bd 3c 6c 3f 3d 37 10 91 3d
       0.0122882705 -0.047778044 0.04673408 0.07083171
000050 3b 80 5d 3c 70 ba 93 3c 13 8b 28 bb 59 7a 2f 3d
       0.013519342 0.018033236 -0.002571766 0.04284129
000060 f0 2b 39 bd f6 73 6b bd 2d 98 85 3c d4 45 47 bd
       -0.045207918 -0.057483636 0.016307915 -0.048650578
000070 17 06 f2 3c f9 a0 4c bc c7 c4 b1 3d f7 ad 67 bd
       0.02954392 -0.012489551 0.086801104 -0.05656239
000080 9e a6 a3 3d f4 fe ec 3d 72 4f 3f 3d 9a 1f bc 3c
       0.07990764 0.11572066 0.046706624 0.022964288
000090 37 a3 70 3d 86 09 89 bd 7a d0 12 bd 94 ad 8a bd
       0.058749404 -0.066912696 -0.03584335 -0.06771389
0000a0 74 86 28 bd 49 48 1b bc 44 66 8b bc 13 8b 3a bd
       -0.04114385 -0.009477683 -0.017016537 -0.045542788
0000b0 41 17 f1 bd ea f4 e2 3c d6 98 b1 3c 6e 33 1b 3d
       -0.117720135 0.027704675 0.021679323 0.037890844
0000c0 7a fd b8 3d 31 17 df 3d 88 b1 d0 bc 60 40 af 3c
       0.09032722 0.10893095 -0.025475278 0.021393001
0000d0 46 b6 fa bb c5 e8 5c bd 06 a6 12 bd f2 43 e1 3d
       -0.007651123 -0.053932924 -0.035802864 0.10999288
0000e0 95 00 a1 3d a7 9b 9c 3d 48 e3 9f 3d 36 22 30 bd
       0.07861439 0.07646876 0.07807022 -0.043001376
0000f0 03 72 1a 3d 97 97 e0 3d f6 aa cb bc e3 cb cb 3d
       0.037706386 0.109664135 -0.024861794 0.09950998
000100 b9 2c 3c 3d 85 7b a2 3d ff 4a 7c bc 5c 34 65 3d
       0.04594109 0.07933716 -0.01539874 0.055958137
000110 70 2d 68 bd 46 67 1c 3c a1 2c 10 3d 5e 1a ed 3c
       -0.056683958 0.009546107 0.03519881 0.028943237
000120 09 26 51 3d 3d 71 82 3d 1d 8a 6d 3d d7 5d 1b 3d
       0.051061664 0.06369255 0.057993043 0.03793129
000130 b8 5f 2f 3d c1 3e 91 bc f4 3a 81 bd ff 8e e1 bc
       0.042815894 -0.017730119 -0.063100725 -0.027534006
000140 50 f5 b3 bb ef 53 9b bd 13 d5 8d 3c 21 9f 41 3b
       -0.00549189 -0.075843684 0.017313516 0.002954431
000150 6f 38 63 bc 11 e6 e0 bb 8f 5e 4b 3d 24 1d 7c 3b
       -0.013868435 -0.0068633636 0.049650725 0.0038469518
000160 8b 0d da bd ab 0d bf bd 48 26 76 3d 42 c0 1d 3d
       -0.10647114 -0.09328779 0.0600951 0.03851343
000170 86 e6 8e 3d 14 bf 6f bd b5 57 5c bd 5d 12 98 3d
       0.069775626 -0.058531836 -0.05379458 0.074253775
000180 40 49 9b 3d 82 8d 67 bd 97 01 73 3d aa 58 32 bd
       0.07582331 -0.056531437 0.059327688 -0.043541588
000190 47 85 b8 3d 52 a2 57 3d 66 27 bf 3d 16 58 7e bd
       0.09009796 0.052645035 0.093336865 -0.062095724
0001a0 73 fd 6c bd 09 e1 ae 3d 8b ab ca 3d 7d a6 9c 3d
       -0.057858896 0.08539016 0.098960005 0.076489426
0001b0 4c 21 a8 3d a9 5a 4e bd 94 27 9f 3d e4 d4 72 bd
       0.08209476 -0.05037943 0.07771221 -0.05928506
0001c0 56 d7 37 3d 8b 61 06 bd 5f a1 21 bc cc b9 30 3d
       0.044883095 -0.032807868 -0.009865134 0.04314594
0001d0 d6 6a e9 bb 38 3a 30 3c 13 33 71 bd 10 de 6a bd
       -0.0071233315 0.010756068 -0.0588866 -0.05734068
0001e0 78 82 6e 3d 4c 5a 50 bc 9c 05 f1 bc 20 ee f7 bb
       0.058229893 -0.012716841 -0.02942162 -0.0075662285
0001f0 5c 46 44 bd 39 88 3d bd 84 3b 03 3d f0 d8 be 3c
       -0.047918662 -0.04627249 0.03203918 0.023296803
000200 43 4f 13 bc 47 f3 85 bd dc cf ab 3b b1 1c a6 bc
       -0.008991065 -0.06540542 0.0052432846 -0.020277353
000210 f3 34 ac bd 48 aa f7 bb 62 b0 56 3d 28 5a 7f bd
       -0.08408537 -0.007558141 0.052414306 -0.06234184
000220 ba 23 80 bd 3d 72 0d 3d e4 46 b1 3d be 6c dc bc
       -0.06256814 0.034532774 0.086560994 -0.026907321
000230 26 70 38 3d 33 68 b2 3d cf d0 5e 3d a0 7a 3f 3d
       0.045028828 0.08711281 0.054398354 0.046747804
000240 8d 35 aa 3d e0 6f 7a 3d 82 3d f0 bc 7b 6b af 3c
       0.08310995 0.06114185 -0.029326204 0.021413555
000250 6d 0f 72 3d 00 cd b8 3d e0 61 81 bd 8b 01 89 3d
       0.059096742 0.09023476 -0.06317496 0.066897474
000260 fd c6 1d bb 5e 59 ee bd 1b c4 2c bc f0 fa 9f bd
       -0.0024074905 -0.11638139 -0.010544802 -0.078115344
000270 fd aa 8f bc 49 c1 b5 bd 69 5f c6 bd ca d9 1e bd
       -0.017537588 -0.08874757 -0.09686167 -0.03878192
000280 88 df 77 bd 76 aa a9 3c 7a 74 1f 3d 70 c1 cd 3d
       -0.06051591 0.020711165 0.03892944 0.10046661
000290 ca 0f 44 3d dd 64 33 3b 52 ee ba 3d 8d 85 14 3d
       0.04786662 0.0027373352 0.09127487 0.036260176
0002a0 13 ca 43 3d f0 bd 30 3b 32 5d 01 3d 38 7f 28 bd
       0.047800135 0.002696868 0.03158302 -0.04113695
0002b0 b1 76 07 bd 2b af bd bd b1 e8 e0 bc 9d 33 cb bd
       -0.033072177 -0.09261926 -0.027454706 -0.09921954
0002c0 da 15 40 bd 8f 70 b8 3c 9e 0d b8 bd 27 8d b5 bd
       -0.04689584 0.02251461 -0.08986972 -0.08864813
0002d0 d1 fe 58 bd 49 b4 63 bd 56 33 85 bc 6f 2a 84 bc
       -0.052977387 -0.055591855 -0.01625983 -0.016133515
0002e0 1e 18 67 3c b5 77 af bd 93 32 09 bd 02 db b2 3c
       0.014104871 -0.08567754 -0.033495497 0.021832947
0002f0 07 9a 48 3d c2 88 32 bc 94 d2 40 bd 80 98 b8 3c
       0.048975017 -0.010896863 -0.047075823 0.022533655
000300 a9 13 3b 3d 59 1e 2a bd 77 e8 13 bd 8e b7 40 3d
       0.045673046 -0.041532848 -0.036110368 0.04705005
000310 6a 52 0f 3c 9d ca 76 bd 83 db 35 bd 8d f3 e5 3c
       0.008747676 -0.06025182 -0.044398796 0.028070236
000320 03 a1 04 bd cd ef 35 3d d8 b1 4d 3d 7d ac 40 bb
       -0.032380115 0.044418145 0.050218433 -0.0029399686
000330 c4 f6 b9 bc f9 28 33 bd ba 0e c4 bc fd e0 39 3d
       -0.022700675 -0.043740246 -0.023932803 0.04538058
000340 c0 c6 1b bd 4e f9 0b 3c d3 a5 33 bd 4c 30 ad 3d
       -0.03803134 0.008543326 -0.043859314 0.084564775
000350 18 b2 d7 bc b6 df e3 3d f6 31 fb 3b f9 3e a7 bc
       -0.026330039 0.11126654 0.007665868 -0.02041577
000360 8b 00 0b 3d 48 88 23 3c 68 9d 5d 3d 11 17 e1 3c
       0.033936065 0.009981222 0.054105192 0.02747682
000370 94 36 82 bd 06 38 3c 3d 2b cb 91 bc 5e 96 12 bd
       -0.06358066 0.045951866 -0.017797073 -0.035787933
000380 ec 2a 42 3d 5e e4 5d 3d f7 a1 7b bd dc 60 41 bc
       0.047404215 0.054172866 -0.06143376 -0.011802878
000390 37 85 82 3d 1e 7d eb 3c 4e a4 82 3d 7d 27 f1 bc
       0.06373065 0.028746184 0.06378995 -0.029437775
0003a0 9c a9 3e bd 78 57 8d 3d 0c 8c fb 3c 0c 27 95 3d
       -0.04654847 0.06901449 0.030706428 0.07282838
0003b0 fa 1e 0e bd 13 14 41 bd 0d 76 85 bc ce 65 81 bd
       -0.03469751 -0.047138285 -0.016291643 -0.06318246
0003c0 36 98 e9 3c 47 7e 5f 3d 95 d7 90 3c 9f 6b 31 bc
       0.028514963 0.054563787 0.017680923 -0.0108288815
0003d0 9a 92 17 3d 98 58 46 bd bf ae 9e 3d 15 d6 8c bd
       0.037005045 -0.048424333 0.07748174 -0.068767704
0003e0 e9 71 88 bd 38 a7 b0 bc 2b 25 87 3d 04 e9 8e 3a
       -0.06662352 -0.021564111 0.06598886 0.0010903184

model.encoder.model.tcn_block_00.conv1.bias f4 [2]
000000 ac 39 47 be 6d a5 68 bd
       -0.19455594 -0.056798387

model.encoder.model.tcn_block_00.conv1.weight_g f4 [2, 1, 1]
000000 64 9c f0 3e fc 35 22 3f
       0.46994317 0.63363624

model.encoder.model.tcn_block_00.conv1.weight_v f4 [2, 2, 9]
000000 e6 d4 e0 3d 6f 95 af bb eb d2 e8 3d 3a 0c 3a 3e
       0.10978107 -0.00535839 0.113683544 0.18168727
000010 47 6c f6 3d 66 40 6d b8 56 46 f4 3b fd 48 02 be
       0.12032371 -5.656518e-05 0.0074546738 -0.12723155
000020 dc 8c 85 bd bf 6e 01 3e 49 a9 c6 bd 15 9a f4 3d
       -0.065210074 0.12639903 -0.09700257 0.11943451
000030 56 d4 c6 bd 62 54 88 bd 91 25 d2 bc 16 98 5a be
       -0.097084686 -0.0665672 -0.025652679 -0.21347079
000040 62 ea 00 bd d7 f6 4c bd ca c6 23 3c 89 d8 82 bc
       -0.031473525 -0.050040092 0.0099961255 -0.015972393
000050 7b 83 5e 3e a7 76 53 3e 3a dc 03 be d2 eb 10 3e
       0.21729843 0.20650731 -0.12876979 0.14152458
000060 fc 71 1d be 3c fc 2d be e6 44 d5 3d e0 5d 44 3a
       -0.15375513 -0.16990751 0.10413532 0.0007490795
000070 83 25 bd bd 37 1f 47 be 21 a0 b2 bd 77 fa 98 3d
       -0.092356704 -0.19445501 -0.087219484 0.074696474
000080 67 f7 3d be e4 09 49 be 5c 6b d4 3c 56 0c 0f be
       -0.18551408 -0.19632679 0.0259301 -0.1396955

model.encoder.model.tcn_block_00.block.conv1d_layer_0.bias f4 [2]
000000 a5 c2 78 3d a0 4a 8a bd
       0.060732502 -0.06752515

model.encoder.model.tcn_block_00.block.conv1d_layer_0.weight_g f4 [2, 1, 1]
000000 d9 e7 1f 3f 85 8b 1a 3f
       0.62463146 0.6036914

model.encoder.model.tcn_block_00.block.conv1d_layer_0.weight_v f4 [2, 14, 9]
000000 85 ed a0 3c ad 5a 1a 3c e8 dd 69 3d 58 d1 3e bb
       0.019644508 0.009421033 0.057096392 -0.0029116478
000010 d3 24 c5 3c 96 bb 48 bc 68 5e 4c bd 88 1a 64 3d
       0.02406541 -0.012251755 -0.04989472 0.055689365
000020 7e fe 0d 3d 4f c6 28 bd 49 07 31 bd 76 24 05 3b
       0.03466653 -0.041204747 -0.04321984 0.0020315922
000030 7a 42 13 bd e6 6a 04 3d f9 1d a0 bc 09 78 05 3c
       -0.03595207 0.03232851 -0.019545542 0.008146294
000040 be 54 49 3c e9 b2 43 bd 3c 6c 3f 3d 37 10 91 3d
       0.0122882705 -0.047778044 0.04673408 0.07083171
000050 3b 80 5d 3c 70 ba 93 3c 13 8b 28 bb 59 7a 2f 3d
       0.013519342 0.018033236 -0.002571766 0.04284129
000060 f0 2b 39 bd f6 73 6b bd 2d 98 85 3c d4 45 47 bd
       -0.045207918 -0.057483636 0.016307915 -0.048650578
000070 17 06 f2 3c f9 a0 4c bc c7 c4 b1 3d f7 ad 67 bd
       0.02954392 -0.012489551 0.086801104 -0.05656239
000080 9e a6 a3 3d f4 fe ec 3d 72 4f 3f 3d 9a 1f bc 3c
       0.07990764 0.11572066 0.046706624 0.022964288
000090 37 a3 70 3d 86 09 89 bd 7a d0 12 bd 94 ad 8a bd
       0.058749404 -0.066912696 -0.03584335 -0.06771389
0000a0 74 86 28 bd 49 48 1b bc 44 66 8b bc 13 8b 3a bd
       -0.04114385 -0.009477683 -0.017016537 -0.045542788
0000b0 41 17 f1 bd ea f4 e2 3c d6 98 b1 3c 6e 33 1b 3d
       -0.117720135 0.027704675 0.021679323 0.037890844
0000c0 7a fd b8 3d 31 17 df 3d 88 b1 d0 bc 60 40 af 3c
       0.09032722 0.10893095 -0.025475278 0.021393001
0000d0 46 b6 fa bb c5 e8 5c bd 06 a6 12 bd f2 43 e1 3d
       -0.007651123 -0.053932924 -0.035802864 0.10999288
0000e0 95 00 a1 3d a7 9b 9c 3d 48 e3 9f 3d 36 22 30 bd
       0.07861439 0.07646876 0.07807022 -0.043001376
0000f0 03 72 1a 3d 97 97 e0 3d f6 aa cb bc e3 cb cb 3d
       0.037706386 0.109664135 -0.024861794 0.09950998
000100 b9 2c 3c 3d 85 7b a2 3d ff 4a 7c bc 5c 34 65 3d
       0.04594109 0.07933716 -0.01539874 0.055958137
000110 70 2d 68 bd 46 67 1c 3c a1 2c 10 3d 5e 1a ed 3c
       -0.056683958 0.009546107 0.03519881 0.028943237
000120 09 26 51 3d 3d 71 82 3d 1d 8a 6d 3d d7 5d 1b 3d
       0.051061664 0.06369255 0.057993043 0.03793129
000130 b8 5f 2f 3d c1 3e 91 bc f4 3a 81 bd ff 8e e1 bc
       0.042815894 -0.017730119 -0.063100725 -0.027534006
000140 50 f5 b3 bb ef 53 9b bd 13 d5 8d 3c 21 9f 41 3b
       -0.00549189 -0.075843684 0.017313516 0.002954431
000150 6f 38 63 bc 11 e6 e0 bb 8f 5e 4b 3d 24 1d 7c 3b
       -0.013868435 -0.0068633636 0.049650725 0.0038469518
000160 8b 0d da bd ab 0d bf bd 48 26 76 3d 42 c0 1d 3d
       -0.10647114 -0.09328779 0.0600951 0.03851343
000170 86 e6 8e 3d 14 bf 6f bd b5 57 5c bd 5d 12 98 3d
       0.069775626 -0.058531836 -0.05379458 0.074253775
000180 40 49 9b 3d 82 8d 67 bd 97 01 73 3d aa 58 32 bd
       0.07582331 -0.056531437 0.059327688 -0.043541588
000190 47 85 b8 3d 52 a2 57 3d 66 27 bf 3d 16 58 7e bd
       0.09009796 0.052645035 0.093336865 -0.062095724
0001a0 73 fd 6c bd 09 e1 ae 3d 8b ab ca 3d 7d a6 9c 3d
       -0.057858896 0.08539016 0.098960005 0.076489426
0001b0 4c 21 a8 3d a9 5a 4e bd 94 27 9f 3d e4 d4 72 bd
       0.08209476 -0.05037943 0.07771221 -0.05928506
0001c0 56 d7 37 3d 8b 61 06 bd 5f a1 21 bc cc b9 30 3d
       0.044883095 -0.032807868 -0.009865134 0.04314594
0001d0 d6 6a e9 bb 38 3a 30 3c 13 33 71 bd 10 de 6a bd
       -0.0071233315 0.010756068 -0.0588866 -0.05734068
0001e0 78 82 6e 3d 4c 5a 50 bc 9c 05 f1 bc 20 ee f7 bb
       0.058229893 -0.012716841 -0.02942162 -0.0075662285
0001f0 5c 46 44 bd 39 88 3d bd 84 3b 03 3d f0 d8 be 3c
       -0.047918662 -0.04627249 0.03203918 0.023296803
000200 43 4f 13 bc 47 f3 85 bd dc cf ab 3b b1 1c a6 bc
       -0.008991065 -0.06540542 0.0052432846 -0.020277353
000210 f3 34 ac bd 48 aa f7 bb 62 b0 56 3d 28 5a 7f bd
       -0.08408537 -0.007558141 0.052414306 -0.06234184
000220 ba 23 80 bd 3d 72 0d 3d e4 46 b1 3d be 6c dc bc
       -0.06256814 0.034532774 0.086560994 -0.026907321
000230 26 70 38 3d 33 68 b2 3d cf d0 5e 3d a0 7a 3f 3d
       0.045028828 0.08711281 0.054398354 0.046747804
000240 8d 35 aa 3d e0 6f 7a 3d 82 3d f0 bc 7b 6b af 3c
       0.08310995 0.06114185 -0.029326204 0.021413555
000250 6d 0f 72 3d 00 cd b8 3d e0 61 81 bd 8b 01 89 3d
       0.059096742 0.09023476 -0.06317496 0.066897474
000260 fd c6 1d bb 5e 59 ee bd 1b c4 2c bc f0 fa 9f bd
       -0.0024074905 -0.11638139 -0.010544802 -0.078115344
000270 fd aa 8f bc 49 c1 b5 bd 69 5f c6 bd ca d9 1e bd
       -0.017537588 -0.08874757 -0.09686167 -0.03878192
000280 88 df 77 bd 76 aa a9 3c 7a 74 1f 3d 70 c1 cd 3d
       -0.06051591 0.020711165 0.03892944 0.10046661
000290 ca 0f 44 3d dd 64 33 3b 52 ee ba 3d 8d 85 14 3d
       0.04786662 0.0027373352 0.09127487 0.036260176
0002a0 13 ca 43 3d f0 bd 30 3b 32 5d 01 3d 38 7f 28 bd
       0.047800135 0.002696868 0.03158302 -0.04113695
0002b0 b1 76 07 bd 2b af bd bd b1 e8 e0 bc 9d 33 cb bd
       -0.033072177 -0.09261926 -0.027454706 -0.09921954
0002c0 da 15 40 bd 8f 70 b8 3c 9e 0d b8 bd 27 8d b5 bd
       -0.04689584 0.02251461 -0.08986972 -0.08864813
0002d0 d1 fe 58 bd 49 b4 63 bd 56 33 85 bc 6f 2a 84 bc
       -0.052977387 -0.055591855 -0.01625983 -0.016133515
0002e0 1e 18 67 3c b5 77 af bd 93 32 09 bd 02 db b2 3c
       0.014104871 -0.08567754 -0.033495497 0.021832947
0002f0 07 9a 48 3d c2 88 32 bc 94 d2 40 bd 80 98 b8 3c
       0.048975017 -0.010896863 -0.047075823 0.022533655
000300 a9 13 3b 3d 59 1e 2a bd 77 e8 13 bd 8e b7 40 3d
       0.045673046 -0.041532848 -0.036110368 0.04705005
000310 6a 52 0f 3c 9d ca 76 bd 83 db 35 bd 8d f3 e5 3c
       0.008747676 -0.06025182 -0.044398796 0.028070236
000320 03 a1 04 bd cd ef 35 3d d8 b1 4d 3d 7d ac 40 bb
       -0.032380115 0.044418145 0.050218433 -0.0029399686
000330 c4 f6 b9 bc f9 28 33 bd ba 0e c4 bc fd e0 39 3d
       -0.022700675 -0.043740246 -0.023932803 0.04538058
000340 c0 c6 1b bd 4e f9 0b 3c d3 a5 33 bd 4c 30 ad 3d
       -0.03803134 0.008543326 -0.043859314 0.084564775
000350 18 b2 d7 bc b6 df e3 3d f6 31 fb 3b f9 3e a7 bc
       -0.026330039 0.11126654 0.007665868 -0.02041577
000360 8b 00 0b 3d 48 88 23 3c 68 9d 5d 3d 11 17 e1 3c
       0.033936065 0.009981222 0.054105192 0.02747682
000370 94 36 82 bd 06 38 3c 3d 2b cb 91 bc 5e 96 12 bd
       -0.06358066 0.045951866 -0.017797073 -0.035787933
000380 ec 2a 42 3d 5e e4 5d 3d f7 a1 7b bd dc 60 41 bc
       0.047404215 0.054172866 -0.06143376 -0.011802878
000390 37 85 82 3d 1e 7d eb 3c 4e a4 82 3d 7d 27 f1 bc
       0.06373065 0.028746184 0.06378995 -0.029437775
0003a0 9c a9 3e bd 78 57 8d 3d 0c 8c fb 3c 0c 27 95 3d
       -0.04654847 0.06901449 0.030706428 0.07282838
0003b0 fa 1e 0e bd 13 14 41 bd 0d 76 85 bc ce 65 81 bd
       -0.03469751 -0.047138285 -0.016291643 -0.06318246
0003c0 36 98 e9 3c 47 7e 5f 3d 95 d7 90 3c 9f 6b 31 bc
       0.028514963 0.054563787 0.017680923 -0.0108288815
0003d0 9a 92 17 3d 98 58 46 bd bf ae 9e 3d 15 d6 8c bd
       0.037005045 -0.048424333 0.07748174 -0.068767704
0003e0 e9 71 88 bd 38 a7 b0 bc 2b 25 87 3d 04 e9 8e 3a
       -0.06662352 -0.021564111 0.06598886 0.0010903184

model.encoder.model.tcn_block_00.block.conv1d_layer_1.bias f4 [2]
000000 ac 39 47 be 6d a5 68 bd
       -0.19455594 -0.056798387

model.encoder.model.tcn_block_00.block.conv1d_layer_1.weight_g f4 [2, 1, 1]
000000 64 9c f0 3e fc 35 22 3f
       0.46994317 0.63363624

model.encoder.model.tcn_block_00.block.conv1d_layer_1.weight_v f4 [2, 2, 9]
000000 e6 d4 e0 3d 6f 95 af bb eb d2 e8 3d 3a 0c 3a 3e
       0.10978107 -0.00535839 0.113683544 0.18168727
000010 47 6c f6 3d 66 40 6d b8 56 46 f4 3b fd 48 02 be
       0.12032371 -5.656518e-05 0.0074546738 -0.12723155
000020 dc 8c 85 bd bf 6e 01 3e 49 a9 c6 bd 15 9a f4 3d
       -0.065210074 0.12639903 -0.09700257 0.11943451
000030 56 d4 c6 bd 62 54 88 bd 91 25 d2 bc 16 98 5a be
       -0.097084686 -0.0665672 -0.025652679 -0.21347079
000040 62 ea 00 bd d7 f6 4c bd ca c6 23 3c 89 d8 82 bc
       -0.031473525 -0.050040092 0.0099961255 -0.015972393
000050 7b 83 5e 3e a7 76 53 3e 3a dc 03 be d2 eb 10 3e
       0.21729843 0.20650731 -0.12876979 0.14152458
000060 fc 71 1d be 3c fc 2d be e6 44 d5 3d e0 5d 44 3a
       -0.15375513 -0.16990751 0.10413532 0.0007490795
000070 83 25 bd bd 37 1f 47 be 21 a0 b2 bd 77 fa 98 3d
       -0.092356704 -0.19445501 -0.087219484 0.074696474
000080 67 f7 3d be e4 09 49 be 5c 6b d4 3c 56 0c 0f be
       -0.18551408 -0.19632679 0.0259301 -0.1396955

model.encoder.model.tcn_block_00.downsample.weight f4 [2, 14, 1]
000000 b6 cf 09 3d b1 48 fb bc b7 a0 6c 3c 46 63 34 3d
       0.033645354 -0.03067431 0.014442614 0.044039987
000010 84 2e 11 bd 43 4b d7 3c f8 ba 06 3d 6d 77 07 ba
       -0.03544475 0.026281005 0.03289315 -0.0005167637
000020 a8 44 21 3c 6e 12 1d bd 15 f0 b8 3a 7b 25 25 bc
       0.009843029 -0.038347654 0.0014109636 -0.010079737
000030 21 63 d8 bb a6 5d 78 ba aa 82 8c 39 82 56 b1 bc
       -0.006603614 -0.0009474404 0.00026800233 -0.021647695
000040 f1 b4 b0 bc ee 15 93 3c 6a 7c f7 bc 99 cd 08 3d
       -0.021570655 0.017954793 -0.030210692 0.0333992
000050 19 2e 62 3d 4a e5 9a 39 95 72 e8 3b be c8 f5 bc
       0.055219743 0.00029544003 0.0070937374 -0.030002948
000060 e1 c4 d0 3c 58 48 22 3d 39 51 2e 3d c3 7b 1b 3d
       0.025484504 0.039619774 0.04255793 0.037959825

model.encoder.model.tcn_block_00.downsample.bias f4 [2]
000000 95 da 0b 3e 43 93 45 be
       0.13657601 -0.19294457

model.encoder.model.tcn_block_01.conv0.bias f4 [2]
000000 aa c2 d2 bd ce a8 c0 3d
       -0.102910355 0.09407197

model.encoder.model.tcn_block_01.conv0.weight_g f4 [2, 1, 1]
000000 08 51 11 3f da 7d 0b 3f
       0.5676427 0.5448891

model.encoder.model.tcn_block_01.conv0.weight_v f4 [2, 2, 9]
000000 39 f2 cb bd 04 79 7e be 9e 7d 97 bd b3 8f d0 bc
       -0.0995831 -0.24850851 -0.073970065 -0.025459146
000010 f5 07 31 bd c5 b9 0e be 95 91 0e 3e a2 78 e1 3d
       -0.04322048 -0.13938053 0.13922723 0.11009337
000020 5f 97 97 bd 1f de 97 bd 82 6f e9 3d 63 58 2f 3e
       -0.074019186 -0.07415413 0.113982216 0.1712356
000030 c8 75 41 be 98 63 30 bd 0c 33 f2 bc b6 bc 8d bd
       -0.18892586 -0.04306373 -0.029565357 -0.069207594
000040 d5 78 2b 3e 53 ec ff bc 2a 10 3f 3e 95 42 4e bc
       0.16745313 -0.031240618 0.1865851 -0.012589117
000050 f9 3c 23 bd 0b 62 1b be 92 05 bd bd 9c 71 7d 3d
       -0.03985307 -0.15174119 -0.09229578 0.061875924
000060 29 46 c3 3d 29 e0 86 bc dd 32 60 3e 18 d1 3d be
       0.09534866 -0.01646431 0.21894403 -0.18536794
000070 f7 13 91 3d fd f0 54 3e 78 20 92 bd 13 bf 39 3e
       0.07083886 0.20795055 -0.07135099 0.18139295
000080 b7 d3 e4 bc 0e 6a 49 be 3e 1e 1a be 64 57 9b 3d
       -0.027932985 -0.19669363 -0.15050599 0.07585028

model.encoder.model.tcn_block_01.conv1.bias f4 [2]
000000 ed f4 ed 3d 71 79 d7 bb
       0.116189815 -0.0065757562

model.encoder.model.tcn_block_01.conv1.weight_g f4 [2, 1, 1]
000000 f5 6a 1d 3f 3d 35 0e 3f
       0.6149133 0.55549985

model.encoder.model.tcn_block_01.conv1.weight_v f4 [2, 2, 9]
000000 0e 74 64 3e 7d cf a2 3d 2f af 01 bb ea 2c 74 3d
       0.22309896 0.079497315 -0.0019788255 0.059613146
000010 27 6a f6 bd c5 f3 3b be 7a c0 26 be e5 0a 3c be
       -0.12031966 -0.1835471 -0.16284361 -0.18363531
000020 12 43 38 3d 7b a3 0d 3d de d8 e1 bd 77 ba 76 be
       0.04498584 0.034579735 -0.11027692 -0.24094568
000030 91 a0 ec 3d 0f 81 15 be 55 75 59 bd 1b 78 5b be
       0.11554063 -0.14600013 -0.053090412 -0.21432535
000040 46 a0 1b be a1 5d a1 3d 70 e7 4b be ff e4 fc bd
       -0.15197858 0.078791864 -0.19912505 -0.12348365
000050 49 f3 11 3e 56 a1 e4 bd e9 d8 bb bd 2c ed 97 bd
       0.14252962 -0.11163585 -0.09172232 -0.07418284
000060 9a f8 88 3d c7 fe 11 be e1 de 17 bc 6f 24 05 3e
       0.06688042 -0.14257346 -0.009269447 0.1300218
000070 f6 48 8a 3c 1f df 9c 3d d6 1f 15 be 80 d7 0f 3e
       0.016880494 0.076597445 -0.14562926 0.1404705
000080 e5 0b fa 3d c8 f4 96 3b b7 71 24 be f4 85 03 3e
       0.122093 0.004606817 -0.16059004 0.12844068

model.encoder.model.tcn_block_01.block.conv1d_layer_0.bias f4 [2]
000000 aa c2 d2 bd ce a8 c0 3d
       -0.102910355 0.09407197

model.encoder.model.tcn_block_01.block.conv1d_layer_0.weight_g f4 [2, 1, 1]
000000 08 51 11 3f da 7d 0b 3f
       0.5676427 0.5448891

model.encoder.model.tcn_block_01.block.conv1d_layer_0.weight_v f4 [2, 2, 9]
000000 39 f2 cb bd 04 79 7e be 9e 7d 97 bd b3 8f d0 bc
       -0.0995831 -0.24850851 -0.073970065 -0.025459146
000010 f5 07 31 bd c5 b9 0e be 95 91 0e 3e a2 78 e1 3d
       -0.04322048 -0.13938053 0.13922723 0.11009337
000020 5f 97 97 bd 1f de 97 bd 82 6f e9 3d 63 58 2f 3e
       -0.074019186 -0.07415413 0.113982216 0.1712356
000030 c8 75 41 be 98 63 30 bd 0c 33 f2 bc b6 bc 8d bd
       -0.18892586 -0.04306373 -0.029565357 -0.069207594
000040 d5 78 2b 3e 53 ec ff bc 2a 10 3f 3e 95 42 4e bc
       0.16745313 -0.031240618 0.1865851 -0.012589117
000050 f9 3c 23 bd 0b 62 1b be 92 05 bd bd 9c 71 7d 3d
       -0.03985307 -0.15174119 -0.09229578 0.061875924
000060 29 46 c3 3d 29 e0 86 bc dd 32 60 3e 18 d1 3d be
       0.09534866 -0.01646431 0.21894403 -0.18536794
000070 f7 13 91 3d fd f0 54 3e 78 20 92 bd 13 bf 39 3e
       0.07083886 0.20795055 -0.07135099 0.18139295
000080 b7 d3 e4 bc 0e 6a 49 be 3e 1e 1a be 64 57 9b 3d
       -0.027932985 -0.19669363 -0.15050599 0.07585028

model.encoder.model.tcn_block_01.block.conv1d_layer_1.bias f4 [2]
000000 ed f4 ed 3d 71 79 d7 bb
       0.116189815 -0.0065757562

model.encoder.model.tcn_block_01.block.conv1d_layer_1.weight_g f4 [2, 1, 1]
000000 f5 6a 1d 3f 3d 35 0e 3f
       0.6149133 0.55549985

model.encoder.model.tcn_block_01.block.conv1d_layer_1.weight_v f4 [2, 2, 9]
000000 0e 74 64 3e 7d cf a2 3d 2f af 01 bb ea 2c 74 3d
       0.22309896 0.079497315 -0.0019788255 0.059613146
000010 27 6a f6 bd c5 f3 3b be 7a c0 26 be e5 0a 3c be
       -0.12031966 -0.1835471 -0.16284361 -0.18363531
000020 12 43 38 3d 7b a3 0d 3d de d8 e1 bd 77 ba 76 be
       0.04498584 0.034579735 -0.11027692 -0.24094568
000030 91 a0 ec 3d 0f 81 15 be 55 75 59 bd 1b 78 5b be
       0.11554063 -0.14600013 -0.053090412 -0.21432535
000040 46 a0 1b be a1 5d a1 3d 70 e7 4b be ff e4 fc bd
       -0.15197858 0.078791864 -0.19912505 -0.12348365
000050 49 f3 11 3e 56 a1 e4 bd e9 d8 bb bd 2c ed 97 bd
       0.14252962 -0.11163585 -0.09172232 -0.07418284
000060 9a f8 88 3d c7 fe 11 be e1 de 17 bc 6f 24 05 3e
       0.06688042 -0.14257346 -0.009269447 0.1300218
000070 f6 48 8a 3c 1f df 9c 3d d6 1f 15 be 80 d7 0f 3e
       0.016880494 0.076597445 -0.14562926 0.1404705
000080 e5 0b fa 3d c8 f4 96 3b b7 71 24 be f4 85 03 3e
       0.122093 0.004606817 -0.16059004 0.12844068

model.qz_xy_mean.dense(qz_xy_mean)_layer_03.weight f4 [2, 2]
000000 26 0c 16 3f 97 04 30 3f 76 d8 04 3e a2 52 25 3f
       0.5861229 0.68757004 0.12973198 0.6457921

model.qz_xy_mean.dense(qz_xy_mean)_layer_03.bias f4 [2]
000000 52 29 2c bf 27 47 e9 bd
       -0.6725055 -0.11390524

model.qz_xy_logvar.dense(qz_xy_logvar)_layer_03.weight f4 [2, 2]
000000 a8 3d d6 3d b3 c5 1c bf 19 b8 9d 3e 24 05 89 be
       0.10460979 -0.61239165 0.30804518 -0.26761734

model.qz_xy_logvar.dense(qz_xy_logvar)_layer_03.bias f4 [2]
000000 27 ed 94 be ce 98 18 bf
       -0.29087183 -0.5960816

model.py_t_probs.dense(py_t_probs)_layer_00.weight f4 [4, 2]
000000 1b 3c 82 3e c3 26 f5 be b3 3f e9 bd 2e c6 8e 3e
       0.25436482 -0.47881135 -0.11389103 0.27885574
000010 22 dd fe 3e 64 a2 fe 3d 0c e7 6a be a8 9f 8b be
       0.49778086 0.12433317 -0.229397 -0.27270246

model.py_t_probs.dense(py_t_probs)_layer_00.bias f4 [4]
000000 a0 a2 bb 3e 43 c3 29 3e 59 26 1c 3f 28 c5 73 3e
       0.3664751 0.16578393 0.60996014 0.23805678

model.pz_t_mean.dense(pz_t_mean)_layer_00.weight f4 [8, 2]
000000 48 ee 71 3f 80 6b ca bd 52 44 c0 3d 03 ea 73 3f
       0.94504213 -0.09883785 0.09388031 0.9527895
000010 31 fb 73 3f e6 98 34 bd d4 4c 35 3d 33 77 75 3f
       0.9530516 -0.044091128 0.044262722 0.9588501
000020 0a 72 75 3f 16 75 69 3b ca c7 24 ba 66 cd 73 3f
       0.95877135 0.0035622767 -0.00062858744 0.9523529
000030 94 56 75 3f a2 b0 d5 b9 e8 af 4d 3c 58 44 73 3f
       0.9583523 -0.00040758128 0.012554146 0.9502616

model.pz_t_mean.dense(pz_t_mean)_layer_00.bias f4 [8]
000000 a5 4f 07 3e 4f 68 8c be 19 b2 2c bc b8 31 82 3d
       0.13213976 -0.2742333 -0.010540509 0.06357139
000010 58 6a 97 3d 11 de 47 bc 04 f7 59 be 90 af 7a 39
       0.0739333 -0.012198941 -0.21285635 0.0002390726

model.pz_t_logvar.dense(pz_t_logvar)_layer_00.weight f4 [2, 4]
000000 bc a2 de 3c bd c7 44 3c 75 df d1 bd dc 6a c6 bd
       0.027177207 0.012010512 -0.10247699 -0.096883506
000010 85 6a cf 3c e6 cd 67 be 60 7e e0 be 51 84 75 be
       0.025319347 -0.22637138 -0.43846416 -0.23976256

model.pz_t_logvar.dense(pz_t_logvar)_layer_00.bias f4 [2]
000000 4d de 84 bd a4 cc cb 3e
       -0.06487713 0.39804566

model.decoder.dense(decoder)_layer_00.weight f4 [10, 2]
000000 b7 cd f8 3e 90 93 c6 be 46 b7 f4 3a c9 c3 2f be
       0.48594448 -0.38784456 0.0018670342 -0.1716453
000010 95 9c b0 be 92 fc be bd ef a0 56 be 6c 66 b9 3e
       -0.34494463 -0.09325518 -0.20959829 0.36210954
000020 80 30 a5 be f4 36 96 3d c1 99 b9 be ad 3e 3d be
       -0.32263565 0.073347 -0.36250117 -0.1848094
000030 9a ae 05 3f 56 91 9f be 6e ff 16 bc aa bd 23 3f
       0.52219546 -0.3116557 -0.009216173 0.6396128
000040 b2 d4 8c 3e d1 fc a5 be 41 60 c8 be 4f 86 5c be
       0.27506024 -0.32419446 -0.39135936 -0.2153561

model.decoder.dense(decoder)_layer_00.bias f4 [10]
000000 4b ec 3e be 3d 8f 8b 3e a2 d4 38 be 1f 9b 0f 3f
       -0.18644826 0.2725772 -0.18049863 0.5609607
000010 31 c6 b4 be 15 9c 69 be 88 61 88 3e 5c 7a 07 3f
       -0.35307458 -0.22813447 0.2663691 0.5292108
000020 e0 03 24 3f d8 17 a1 3d
       0.6406841 0.07865876

inference.model.qy_x.model.tcn_block_00.conv0.bias f4 [2]
000000 9c 96 0d 3d 52 58 14 bd
       0.03456746 -0.03621704

inference.model.qy_x.model.tcn_block_00.conv0.weight_g f4 [2, 1, 1]
000000 2a d3 1b 3f 34 9b 14 3f
       0.60869086 0.5804932

inference.model.qy_x.model.tcn_block_00.conv0.weight_v f4 [2, 10, 9]
000000 9c 99 15 bc 4b 2b 21 3d 12 1d c4 bd 36 1a ba bd
       -0.009130862 0.039347928 -0.09575857 -0.090870306
000010 e9 9e 6b bd a6 b2 01 3c d0 0f bf bc ff a0 6f 3d
       -0.057524595 0.007916128 -0.02332297 0.058503147
000020 32 49 0d bd 7a cc 22 3d 07 80 8e bc cf f0 91 bb
       -0.034493633 0.039745785 -0.017395033 -0.0044537554
000030 79 49 a7 bd 9d 27 46 bd c5 5c 9a bc 42 c5 e6 3c
       -0.08168311 -0.048377622 -0.018843064 0.028170232
000040 f3 2e 8a 3d e0 49 b6 3d 59 8e 8b bd 9b 37 1d bd
       0.06747236 0.08900809 -0.0681426 -0.038383108
000050 7c 28 45 3d 83 da bd 3d 2f 03 00 bc b9 ab c6 3d
       0.048134312 0.092701934 -0.007813259 0.09700722
000060 3a c0 44 ba 2d 16 0e 3d 38 e7 ea 3d d9 57 ec bd
       -0.00075054506 0.034689117 0.11469883 -0.11540193
000070 44 b6 c0 bd f4 02 52 bd 58 ed 89 bd 7a 89 85 3d
       -0.094097644 -0.051272348 -0.06734723 0.06520362
000080 24 c1 b8 bd 92 26 91 bd 16 d3 c9 bd 09 15 00 be
       -0.09021214 -0.07087435 -0.098547146 -0.12508024
000090 dd c8 0d bd fb d8 f3 3d 43 5a 97 3d f6 c4 a0 3d
       -0.034615386 0.1190662 0.07390263 0.07850067
0000a0 6e 4b 05 3d bf 36 de bc 9a 26 37 3d 7a 47 95 bd
       0.03254264 -0.027125714 0.044714548 -0.07289024
0000b0 e4 1c 4f bd 6e 60 8b bd 22 8c 32 3d 1a 3f 28 3d
       -0.05056466 -0.06805502 0.043590672 0.041075803
0000c0 de 46 87 bd 46 73 cb bc 43 96 3d 3d e9 f8 a1 3d
       -0.06605314 -0.02483524 0.04628588 0.07908804
0000d0 f7 06 7b 3c 52 9e 4b bc 42 a1 35 3d 1f fc b1 bd
       0.015321485 -0.012427883 0.04434324 -0.086906664
0000e0 13 c4 aa bb d8 be ca bd 5c 7a ab bd b4 64 7e bd
       -0.005211362 -0.09899682 -0.083729476 -0.062107757
0000f0 59 af 06 3d 39 00 19 3d 71 85 46 bd 08 fe 7b 3c
       0.03288207 0.037353728 -0.048467103 0.01538039
000100 ca 23 31 3d c6 cb 48 bc 92 0b 09 3c a0 89 00 3d
       0.04324702 -0.012255615 0.008364575 0.03138125
000110 6b 7d 9d 3d da 89 e4 3d a2 b2 78 bd 17 50 88 bc
       0.07689937 0.111591056 -0.060717233 -0.016639752
000120 e0 16 33 3d e4 cf a0 3d cc 48 a4 3d 5a 06 a0 3d
       0.043722987 0.07852152 0.080216974 0.078137115
000130 35 ec f7 3b 74 ff d2 bd f9 e5 58 bc 6f 8d b4 bd
       0.007566 -0.1030263 -0.0132384235 -0.08816039
000140 a2 cd f6 bd db 6c f3 3d 94 8e d9 3d 9a a0 a1 bd
       -0.1205094 0.11885997 0.10622898 -0.078919604
000150 63 63 3f 3d 34 a4 08 3c 73 94 12 3c 85 04 b3 bc
       0.046725642 0.00833993 0.008946526 -0.021852741
000160 7a 81 8b 3d 5b 13 14 bd 4b 0b c5 3c aa e0 22 3d
       0.06811805 -0.03615127 0.024053236 0.039765038
000170 55 6d 7d 3d 0a 3d eb 3c 2e 0f e8 bd a8 88 98 bd
       0.061871845 0.02871563 -0.1133102 -0.0744794
000180 35 df 3f 3d a5 f1 b7 3c a6 d9 ad bd e1 cd 4e bd
       0.046843726 0.022454092 -0.08488779 -0.05048931
000190 02 54 db 3d 22 2b a7 3d b0 65 1e bd ab 94 ad bc
       0.107093826 0.08162524 -0.038671196 -0.021189054
0001a0 50 7e c2 bd f5 36 18 bb 6e 65 a7 bd 7e 51 b2 bd
       -0.094967484 -0.0023226116 -0.08173643 -0.0870695
0001b0 6c 11 39 3c fd 9d f6 3c 54 6e 2c bd 67 2e 9e 3d
       0.011295658 0.030104632 -0.042097405 0.07723694
0001c0 dc d5 5d bd c6 09 db 3d c7 01 90 3d be 17 9e bd
       -0.05415903 0.106952235 0.07031589 -0.07719372
0001d0 df 45 0c bd ca 06 fb 3a 64 d0 8b 3c 47 bf e3 3c
       -0.03424632 0.0019151804 0.017067142 0.02780117
0001e0 43 db 3e 3d 5a c9 0e 3c dd 14 32 bd 9e 62 6b 3d
       0.046595823 0.008714998 -0.043476928 0.057467096
0001f0 a8 3b c3 bd 1a fa 67 bd 01 43 db bc e9 2f 5d bd
       -0.09532863 -0.056635 -0.026765348 -0.05400077
000200 92 2e 2a bd 86 6a bf bd 3f a9 ff bc 77 1d 71 3c
       -0.04154832 -0.093464896 -0.031208633 0.014716498
000210 5b e6 a5 bd 70 ff 80 bc ad d7 87 3d fc c9 a6 bc
       -0.081005774 -0.015746802 0.06632934 -0.020359986
000220 a7 40 be bb 96 e6 7c bc 1b 0f 7f 3c 85 b3 81 3d
       -0.005806047 -0.015435835 0.015567566 0.06333069
000230 98 69 c7 3d 56 da 87 3d 1c c9 d3 3d 7c 82 d8 bb
       0.09736937 0.06633441 0.10341093 -0.006607352
000240 6b 43 bc bd 24 49 2f bd 8b b1 a6 3d f8 d8 57 3c
       -0.091925465 -0.04279436 0.081393324 0.013174288
000250 ad 66 27 bd 1a 8e 88 bd 1f b9 ac bd 17 4a 9b bd
       -0.040869404 -0.06667729 -0.084337465 -0.07582491
000260 5c 0c f1 bb b2 18 99 3d 1d 79 92 3d 59 de ab bd
       -0.0073562097 0.074754134 0.07152007 -0.08392019
000270 04 99 a4 3d ff 06 86 bd f6 48 0e bc 2b bc f0 bc
       0.08036998 -0.06544303 -0.008684387 -0.0293866
000280 2b 42 30 bc 1f 86 2a bc 0e 17 e2 bd 5c 1c db bd
       -0.010757963 -0.0104079535 -0.110395536 -0.106987685
000290 fe 21 05 bd bc 3d 52 bc ff 67 81 bd 03 9e d7 3c
       -0.03250312 -0.012832101 -0.06318664 0.026320463
0002a0 c7 62 da bd 05 d8 91 bc 53 eb bc 3d 96 66 20 bd
       -0.106633715 -0.017803201 0.09224572 -0.039160334
0002b0 dd 94 ca 3d 0d 56 25 3d bd e1 c1 bd 55 2d 84 3d
       0.09891675 0.040365268 -0.09466884 0.06453959
0002c0 8f e0 6d bc 97 7e 56 bd 42 65 a5 3d f9 95 b9 bd
       -0.014518871 -0.05236682 0.08075954 -0.09061808

inference.model.qy_x.model.tcn_block_00.conv1.bias f4 [2]
000000 18 0d 5f 3e 99 11 48 be
       0.21782339 -0.19537963

inference.model.qy_x.model.tcn_block_00.conv1.weight_g f4 [2, 1, 1]
000000 16 70 0f 3f 06 9e 02 3f
       0.56030405 0.51022375
