results_gmdgm/ssm_v1/dtcn/notb_v4/version_1/best_val_model.pt (torch, 58663 bytes, 204 tensors)

model.qy_x.model.tcn_block_00.conv0.bias f4 [2]
00000000: 3d99 3fbf 611f 0b3f
-0.748432 0.54344755

model.qy_x.model.tcn_block_00.conv0.weight_g f4 [2, 1, 1]
00000000: 8304 593f ac4f e93f
0.8477251 1.8227439

model.qy_x.model.tcn_block_00.conv0.weight_v f4 [2, 10, 9]
00000000: 8f45 5d3e eff7 8b3e 448d 243e 057f 16be
00000010: ed1a c5be 547a 47be 7871 58be 51e4 09be
00000020: f1d9 b3bd 5532 5fbc 180b 2a3e 17d7 ab3c
00000030: 0d59 14bd 20ad e33c bd5e 463e c740 573c
00000040: 489f 05bd 3c43 bc3d dc60 3dbe fa5a a03d
00000050: 9a2b 803d ee12 1d3e 3d59 463e 62a8 36be
00000060: 87e8 58bd 5d1f 473d 225b 313e 6634 1bbd
00000070: 9c1b fc3d fc3b 21be 0f72 0abd 5725 babd
00000080: 52db 18bd f107 a9bd c2a3 59bd e900 9a3d
00000090: c83c 6cbd dcb2 7c3d c727 9b3d 1a13 363d
000000a0: 46d7 a4bd d630 0cbe acf4 9e3d 1bc3 30bc
000000b0: 3cc9 0cbe 4615 4b3d 805d c83d 9ed6 183e
000000c0: 7869 5e3c 5e4f eebe 1e1a b0be fb16 2839
000000d0: 0d47 cbbd 8bfa 2dbd eeba 00bd b0f3 c7bc
000000e0: f70e 583d 7276 883c 7a5f 063d bb42 583d
000000f0: d3ba 2d3e 89bd 7c3e 9657 903e c507 29be
00000100: 5c81 87bd f1f2 8bbc 8048 e13c ec80 5f3b
00000110: d929 f63c c2ff 443e c4de c13d 863b 823e
00000120: 9357 6d3e aab2 163e affe d5bd 4b92 2fbe
00000130: b1e9 60be 98ef 30be 23b3 77bc cdf6 0c3a
00000140: 3659 47be 237f 93be f768 5abe bea5 31bd
00000150: 48d3 7c3d b092 ba3d eaf3 a03d df6e 163c
00000160: 69a9 17bc ccb1 aabd 4f10 b2bc 02d7 223d
00000170: 9b81 663d f35e ad3d 8132 8f3e 50e0 3bbc
00000180: f82d df3d e01a b1bc ce6c 5a3d db71 3b3d
00000190: a242 1d3d 5e48 dcbd 2430 84bd fe4f 373e
000001a0: 56c3 0fbc 282f 4a3d e122 893d 0760 36bd
000001b0: 58cd 70bd cf79 8bbd 3787 813c d8b9 503d
000001c0: 362d 2ebb 2cda ccbd 0bbe b3bc ce32 973d
000001d0: a777 d1bd 94dd 13be c191 223e 480e 813d
000001e0: d86d 1dbd e886 0dbd 1eba dc3d 89b6 71bd
000001f0: 0abd 933c aeba 69bc 7535 e43d e0f1 923b
00000200: 4eb4 05bf edbc 85be 1878 fcbd 6406 1fbe
00000210: c63a a93c 921b 473c 1d21 6c3e c49b 8c3c
00000220: 0b30 ff3c 928f 6b3d 8c54 5d3e 7ad7 eb3e
00000230: dac0 843e afaf fdbd a642 d9bd 7710 503d
00000240: 7579 413e a19c 653e f895 223e aaa6 663e
00000250: 1001 2d3e 5d69 9d3d 90cc 0d3d 349a 86bd
00000260: a026 b0be 0d53 723e cf03 853d 54ad 343d
00000270: 271a a5bd 7737 35bd cd20 0b3e 1deb 883d
00000280: 1e47 2d3d a7cf 87bd 8087 e7bd 9931 963d
00000290: d2f7 2f3a 025f 163e 3d93 00bd fb27 323d
000002a0: fc73 5a3e 0f7b 49be 0474 29bc 8e4a 8cbd
000002b0: 446e 003d 68db abbd afe4 76be b44b c7be
000002c0: 7a7b 47be ff0a 79bd a016 51bc 71d0 833e
0.21608566 0.27337596 0.16069514 -0.14696892 -0.38497105 -0.19480258 -0.21137035 -0.13466002
-0.087818034 -0.01362284 0.16605794 0.020976586 -0.036217738 0.027792513 0.19372077 0.013138003
-0.032622606 0.091925114 -0.1849398 0.078298524 0.06258316 0.15339252 0.19369979 -0.1783767
-0.05295613 0.048613895 0.1731992 -0.037891768 0.123099536 -0.15745538 -0.03380018 -0.09089153
-0.037318535 -0.08253468 -0.053134687 0.07519705 -0.057675153 0.06169401 0.07575946 0.04445181
-0.08048873 -0.13690504 0.07761511 -0.010788704 -0.1374864 0.049580835 0.09783459 0.1492562
0.01357495 -0.46544927 -0.34394926 0.0001603029 -0.09925661 -0.042475265 -0.03142827 -0.024408191
0.052748647 0.016658042 0.032805897 0.052798014 0.16965799 0.24681677 0.28191823 -0.1650687
-0.0661647 -0.017083617 0.027500391 0.0034103943 0.030049251 0.19238189 0.09466317 0.25436038
0.23177938 0.14716592 -0.10448968 -0.1714565 -0.21964146 -0.17278898 -0.015118393 0.00053773524
-0.19467625 -0.28807935 -0.21329103 -0.043370955 0.06172493 0.0911001 0.07859023 0.009181707
-0.009256699 -0.08334693 -0.021736292 0.03975583 0.056275945 0.08465376 0.2796822 -0.0114670545
0.1089744 -0.02161926 0.05332642 0.045762878 0.038393624 -0.107559904 -0.064544946 0.17901608
-0.008774599 0.049361378 0.06696106 -0.044525173 -0.05878958 -0.068103425 0.015811546 0.050958484
-0.002657724 -0.100025505 -0.021941205 0.07382737 -0.102279 -0.14439994 0.15875913 0.06301552
-0.038434833 -0.034552485 0.107776865 -0.05901197 0.018034477 -0.014265699 0.111430086 0.0044844
-0.5222825 -0.261207 -0.123275936 -0.15529782 0.020657908 0.012152569 0.23059507 0.017164119
0.031150838 0.057509966 0.21614283 0.46062833 0.25928384 -0.123870246 -0.10608415 0.050796952
0.18893988 0.2242303 0.15877521 0.22524515 0.16894937 0.07686112 0.034618914 -0.06572381
-0.3440447 0.23664494 0.06494867 0.04411061 -0.08061629 -0.04424235 0.13586731 0.06685469
0.04230415 -0.066314034 -0.113051414 0.07333679 0.00067126483 0.1468468 -0.031390417 0.04349516
0.21333307 -0.1967585 -0.010342602 -0.06850158 0.031355157 -0.08391458 -0.24110673 -0.38924944
-0.19480696 -0.060801502 -0.012761742 0.25744966

model.qy_x.model.tcn_block_00.conv1.bias f4 [2]
00000000: 6af4 4fbd 9e43 08bf
-0.0507702 -0.53228176

model.qy_x.model.tcn_block_00.conv1.weight_g f4 [2, 1, 1]
00000000: 9d59 4d3f 8a95 e13f
0.80214864 1.7623761

model.qy_x.model.tcn_block_00.conv1.weight_v f4 [2, 2, 9]
00000000: d6b3 8a3d 87d3 ee3d c6b3 bf3e a559 f73e
00000010: 2e60 6b3e 50db d5bc 31ac 8abe e33c 02be
00000020: 70e6 03be 43f1 37bd d338 66be 7c87 22be
00000030: 7049 9dbd 8612 eb3d affd d43d c81d 523d
00000040: b5e8 42ba e1f7 fd3d 9674 053d c852 12bd
00000050: 145a e9bd ad7f 0bbe b5de 91bd 3b7c 163e
00000060: e871 903d df99 3a3e 29c4 a8bd 295b ee3e
00000070: fa0a 3c3e 74b2 913d 8ca0 d43d 2521 be3d
00000080: 5b3c f83b 7238 afbd ff84 80be 1845 ffbe
0.06772582 0.116614394 0.37441844 0.4831058 0.22985908 -0.026105553 -0.27084497 -0.12718539
-0.12880874 -0.04490782 -0.22482614 -0.15871996 -0.07680023 0.114781424 0.10399949 0.051297933
-0.0007435189 0.12400795 0.03258189 -0.035723478 -0.11394134 -0.13622923 -0.07122556 0.14695828
0.07052976 0.1822276 -0.082405396 0.46553925 0.18363562 0.07114115 0.103821844 0.092836656
0.0075755543 -0.08555688 -0.25101468 -0.49857402

model.qy_x.model.tcn_block_00.block.conv1d_layer_0.bias f4 [2]
00000000: 3d99 3fbf 611f 0b3f
-0.748432 0.54344755

model.qy_x.model.tcn_block_00.block.conv1d_layer_0.weight_g f4 [2, 1, 1]
00000000: 8304 593f ac4f e93f
0.8477251 1.8227439

model.qy_x.model.tcn_block_00.block.conv1d_layer_0.weight_v f4 [2, 10, 9]
00000000: 8f45 5d3e eff7 8b3e 448d 243e 057f 16be
00000010: ed1a c5be 547a 47be 7871 58be 51e4 09be
00000020: f1d9 b3bd 5532 5fbc 180b 2a3e 17d7 ab3c
00000030: 0d59 14bd 20ad e33c bd5e 463e c740 573c
00000040: 489f 05bd 3c43 bc3d dc60 3dbe fa5a a03d
00000050: 9a2b 803d ee12 1d3e 3d59 463e 62a8 36be
00000060: 87e8 58bd 5d1f 473d 225b 313e 6634 1bbd
00000070: 9c1b fc3d fc3b 21be 0f72 0abd 5725 babd
00000080: 52db 18bd f107 a9bd c2a3 59bd e900 9a3d
00000090: c83c 6cbd dcb2 7c3d c727 9b3d 1a13 363d
000000a0: 46d7 a4bd d630 0cbe acf4 9e3d 1bc3 30bc
000000b0: 3cc9 0cbe 4615 4b3d 805d c83d 9ed6 183e
000000c0: 7869 5e3c 5e4f eebe 1e1a b0be fb16 2839
000000d0: 0d47 cbbd 8bfa 2dbd eeba 00bd b0f3 c7bc
000000e0: f70e 583d 7276 883c 7a5f 063d bb42 583d
000000f0: d3ba 2d3e 89bd 7c3e 9657 903e c507 29be
00000100: 5c81 87bd f1f2 8bbc 8048 e13c ec80 5f3b
00000110: d929 f63c c2ff 443e c4de c13d 863b 823e
00000120: 9357 6d3e aab2 163e affe d5bd 4b92 2fbe
00000130: b1e9 60be 98ef 30be 23b3 77bc cdf6 0c3a
00000140: 3659 47be 237f 93be f768 5abe bea5 31bd
00000150: 48d3 7c3d b092 ba3d eaf3 a03d df6e 163c
00000160: 69a9 17bc ccb1 aabd 4f10 b2bc 02d7 223d
00000170: 9b81 663d f35e ad3d 8132 8f3e 50e0 3bbc
00000180: f82d df3d e01a b1bc ce6c 5a3d db71 3b3d
00000190: a242 1d3d 5e48 dcbd 2430 84bd fe4f 373e
000001a0: 56c3 0fbc 282f 4a3d e122 893d 0760 36bd
000001b0: 58cd 70bd cf79 8bbd 3787 813c d8b9 503d
000001c0: 362d 2ebb 2cda ccbd 0bbe b3bc ce32 973d
000001d0: a777 d1bd 94dd 13be c191 223e 480e 813d
000001e0: d86d 1dbd e886 0dbd 1eba dc3d 89b6 71bd
000001f0: 0abd 933c aeba 69bc 7535 e43d e0f1 923b
00000200: 4eb4 05bf edbc 85be 1878 fcbd 6406 1fbe
00000210: c63a a93c 921b 473c 1d21 6c3e c49b 8c3c
00000220: 0b30 ff3c 928f 6b3d 8c54 5d3e 7ad7 eb3e
00000230: dac0 843e afaf fdbd a642 d9bd 7710 503d
00000240: 7579 413e a19c 653e f895 223e aaa6 663e
00000250: 1001 2d3e 5d69 9d3d 90cc 0d3d 349a 86bd
00000260: a026 b0be 0d53 723e cf03 853d 54ad 343d
00000270: 271a a5bd 7737 35bd cd20 0b3e 1deb 883d
00000280: 1e47 2d3d a7cf 87bd 8087 e7bd 9931 963d
00000290: d2f7 2f3a 025f 163e 3d93 00bd fb27 323d
000002a0: fc73 5a3e 0f7b 49be 0474 29bc 8e4a 8cbd
000002b0: 446e 003d 68db abbd afe4 76be b44b c7be
000002c0: 7a7b 47be ff0a 79bd a016 51bc 71d0 833e
0.21608566 0.27337596 0.16069514 -0.14696892 -0.38497105 -0.19480258 -0.21137035 -0.13466002
-0.087818034 -0.01362284 0.16605794 0.020976586 -0.036217738 0.027792513 0.19372077 0.013138003
-0.032622606 0.091925114 -0.1849398 0.078298524 0.06258316 0.15339252 0.19369979 -0.1783767
-0.05295613 0.048613895 0.1731992 -0.037891768 0.123099536 -0.15745538 -0.03380018 -0.09089153
-0.037318535 -0.08253468 -0.053134687 0.07519705 -0.057675153 0.06169401 0.07575946 0.04445181
-0.08048873 -0.13690504 0.07761511 -0.010788704 -0.1374864 0.049580835 0.09783459 0.1492562
0.01357495 -0.46544927 -0.34394926 0.0001603029 -0.09925661 -0.042475265 -0.03142827 -0.024408191
0.052748647 0.016658042 0.032805897 0.052798014 0.16965799 0.24681677 0.28191823 -0.1650687
-0.0661647 -0.017083617 0.027500391 0.0034103943 0.030049251 0.19238189 0.09466317 0.25436038
0.23177938 0.14716592 -0.10448968 -0.1714565 -0.21964146 -0.17278898 -0.015118393 0.00053773524
-0.19467625 -0.28807935 -0.21329103 -0.043370955 0.06172493 0.0911001 0.07859023 0.009181707
-0.009256699 -0.08334693 -0.021736292 0.03975583 0.056275945 0.08465376 0.2796822 -0.0114670545
0.1089744 -0.02161926 0.05332642 0.045762878 0.038393624 -0.107559904 -0.064544946 0.17901608
-0.008774599 0.049361378 0.06696106 -0.044525173 -0.05878958 -0.068103425 0.015811546 0.050958484
-0.002657724 -0.100025505 -0.021941205 0.07382737 -0.102279 -0.14439994 0.15875913 0.06301552
-0.038434833 -0.034552485 0.107776865 -0.05901197 0.018034477 -0.014265699 0.111430086 0.0044844
-0.5222825 -0.261207 -0.123275936 -0.15529782 0.020657908 0.012152569 0.23059507 0.017164119
0.031150838 0.057509966 0.21614283 0.46062833 0.25928384 -0.123870246 -0.10608415 0.050796952
0.18893988 0.2242303 0.15877521 0.22524515 0.16894937 0.07686112 0.034618914 -0.06572381
-0.3440447 0.23664494 0.06494867 0.04411061 -0.08061629 -0.04424235 0.13586731 0.06685469
0.04230415 -0.066314034 -0.113051414 0.07333679 0.00067126483 0.1468468 -0.031390417 0.04349516
0.21333307 -0.1967585 -0.010342602 -0.06850158 0.031355157 -0.08391458 -0.24110673 -0.38924944
-0.19480696 -0.060801502 -0.012761742 0.25744966

model.qy_x.model.tcn_block_00.block.conv1d_layer_1.bias f4 [2]
00000000: 6af4 4fbd 9e43 08bf
-0.0507702 -0.53228176

model.qy_x.model.tcn_block_00.block.conv1d_layer_1.weight_g f4 [2, 1, 1]
00000000: 9d59 4d3f 8a95 e13f
0.80214864 1.7623761

model.qy_x.model.tcn_block_00.block.conv1d_layer_1.weight_v f4 [2, 2, 9]
00000000: d6b3 8a3d 87d3 ee3d c6b3 bf3e a559 f73e
00000010: 2e60 6b3e 50db d5bc 31ac 8abe e33c 02be
00000020: 70e6 03be 43f1 37bd d338 66be 7c87 22be
00000030: 7049 9dbd 8612 eb3d affd d43d c81d 523d
00000040: b5e8 42ba e1f7 fd3d 9674 053d c852 12bd
00000050: 145a e9bd ad7f 0bbe b5de 91bd 3b7c 163e
00000060: e871 903d df99 3a3e 29c4 a8bd 295b ee3e
00000070: fa0a 3c3e 74b2 913d 8ca0 d43d 2521 be3d
00000080: 5b3c f83b 7238 afbd ff84 80be 1845 ffbe
0.06772582 0.116614394 0.37441844 0.4831058 0.22985908 -0.026105553 -0.27084497 -0.12718539
-0.12880874 -0.04490782 -0.22482614 -0.15871996 -0.07680023 0.114781424 0.10399949 0.051297933
-0.0007435189 0.12400795 0.03258189 -0.035723478 -0.11394134 -0.13622923 -0.07122556 0.14695828
0.07052976 0.1822276 -0.082405396 0.46553925 0.18363562 0.07114115 0.103821844 0.092836656
0.0075755543 -0.08555688 -0.25101468 -0.49857402

model.qy_x.model.tcn_block_00.downsample.weight f4 [2, 10, 1]
00000000: e1d1 e0be 44c2 b23e a3f5 e13d 55ae 3cbd
00000010: 47a2 8bbe 3d9d dabe fd62 e13e 62da 653e
00000020: 871b 22be f399 163e 01ce af3e 45cc acbd
00000030: 064d 40bd 270f 04bc 81b5 b43d fd8e 493e
00000040: 53ce cbbe 3b9d 98be b211 3a3e 814a 6dbd
-0.43910125 0.34913838 0.110331796 -0.046064693 -0.27272245 -0.42698088 0.44020835 0.22446588
-0.15830813 0.14707164 0.34336856 -0.08437399 -0.046948455 -0.008060253 0.088236816 0.19683452
-0.3980585 -0.29807457 0.18170813 -0.05793238

model.qy_x.model.tcn_block_00.downsample.bias f4 [2]
00000000: 45d3 44bf 5faf 473f
-0.7688487 0.7800197

model.qy_x.model.tcn_block_01.conv0.bias f4 [2]
00000000: ed3c 16bf 3fbf acbe
-0.58686715 -0.3373966

model.qy_x.model.tcn_block_01.conv0.weight_g f4 [2, 1, 1]
00000000: ab71 b73f df82 0940
1.4331564 2.1486127

model.qy_x.model.tcn_block_01.conv0.weight_v f4 [2, 2, 9]
00000000: 412a bd3e e265 573e 7869 4d3e 1ca1 033d
00000010: 88cd 193e 4f2c 5b3e 45b9 43bc 8131 14bb
00000020: 1ba2 91bc 30d0 8cbe 8ff3 54be 5715 10be
00000030: 7102 3cbd 538c 59bd 2870 95bd c912 8cbd
00000040: fb6a 09be 07e9 87be a149 9a3e cc3f aa3e
00000050: c8f0 b63d d58b 483d 0be9 47bd 6464 0b3e
00000060: 7290 c4bd 9044 c3bd 5195 ba3d efa0 ba3d
00000070: 6e30 133c 4d57 cfbd f479 41be a205 a8be
00000080: bce9 b8be 306a 9dbe 0a8a 7bbe c9cc adbe
0.369463 0.21034959 0.20059764 0.032136068 0.1501981 0.21403621 -0.011946027 -0.0022612514
-0.017777493 -0.27502584 -0.20796035 -0.1407064 -0.045900766 -0.05311234 -0.07296783 -0.068395205
-0.13419716 -0.26544973 0.301343 0.33251798 0.08932644 0.04896148 -0.04880623 0.13612515
-0.09597863 -0.09534562 0.09110511 0.09112727 0.0089837145 -0.10124073 -0.18894178 -0.32816797
-0.36115825 -0.30745077 -0.24564376 -0.339453

model.qy_x.model.tcn_block_01.conv1.bias f4 [4]
00000000: 915e a03e c94c 79bf baed 463b d3d4 ee3c
0.31322148 -0.9738279 0.0030354098 0.029154217

model.qy_x.model.tcn_block_01.conv1.weight_g f4 [4, 1, 1]
00000000: c2f5 1540 098e e33f e720 b93f 8e36 bc3f
2.3431249 1.7777721 1.4463166 1.4704149

model.qy_x.model.tcn_block_01.conv1.weight_v f4 [4, 2, 9]
00000000: 2f22 33be 5bef 91bd 50fc e0bb 8e76 803d
00000010: 0084 973e 0896 b63e eb2a 413e d9e8 be3d
00000020: a00e acbe acae 59be 9325 77bd 2fec 153d
00000030: 22cb 1d3d a46a a83e 3268 293e b136 473e
00000040: a7b8 773d 3aa8 72be dcb4 923d cf60 81bc
00000050: e7c3 54bc cc94 05bd 9353 b53b 1e56 c13c
00000060: 1eb8 d43b ecd4 b0bd 40bb d739 ead3 5f3e
00000070: a9a7 aabd c077 95be cb1e dfbe 7e66 d4be
00000080: 59d4 6bbe bd56 bbbd 64cb db3d 9fa6 a83e
00000090: dc2c 35be 4c43 90bd eea1 04bc 304f c03d
000000a0: 9da4 8f3e bfb9 a23e 137d 3d3e 981d 743d
000000b0: b8cb 88be 8da5 2dbe 54fe 9cbd 6e2e eb3b
000000c0: 4443 0c3d 5f20 893e 1349 5c3e 118d 3c3e
000000d0: 32b8 893d c764 4dbe 11aa 46be 58b8 7dbd
000000e0: 28bc 143c 2fb6 f93d e4dc 873e e42c 983e
000000f0: ff9c 273e 0dc3 6b3d 5f2a 83be 9186 57be
00000100: 23bf babd af0a 533d e36a b73d 1fc8 aa3e
00000110: 43ae 7d3e dc0b 673e b9d0 7a3d cbd4 52be
-0.17493509 -0.071257316 -0.0068660155 0.062726125 0.29592896 0.3566134 0.18864028 0.09321756
-0.33604908 -0.21258038 -0.060338568 0.036602195 0.0385238 0.3289386 0.16543654 0.19454457
0.060478833 -0.23696986 0.071634024 -0.015793232 -0.01298616 -0.032612607 0.0055336445 0.023600634
0.006491675 -0.086343616 0.00041147508 0.21858183 -0.0833276 -0.29192924 -0.4357818 -0.41484445
-0.23030223 -0.091474034 0.10732153 0.32939622 -0.17692894 -0.07044086 -0.008095248 0.09390104
0.28055277 0.31782338 0.18504743 0.059598535 -0.26717925 -0.16957684 -0.07665697 0.0071771657
0.034243837 0.2678251 0.2151225 0.18413188 0.067245856 -0.20057975 -0.19400813 -0.061943382
0.009078063 0.12192952 0.26535714 0.2972175 0.16368483 0.05755906 -0.25618264 -0.21047427
-0.09118488 0.05152386 0.08955934 0.33355805 0.24773507 0.22563118 0.06123421 -0.20588987

model.qy_x.model.tcn_block_01.block.conv1d_layer_0.bias f4 [2]
00000000: ed3c 16bf 3fbf acbe
-0.58686715 -0.3373966

model.qy_x.model.tcn_block_01.block.conv1d_layer_0.weight_g f4 [2, 1, 1]
00000000: ab71 b73f df82 0940
1.4331564 2.1486127

model.qy_x.model.tcn_block_01.block.conv1d_layer_0.weight_v f4 [2, 2, 9]
00000000: 412a bd3e e265 573e 7869 4d3e 1ca1 033d
00000010: 88cd 193e 4f2c 5b3e 45b9 43bc 8131 14bb
00000020: 1ba2 91bc 30d0 8cbe 8ff3 54be 5715 10be
00000030: 7102 3cbd 538c 59bd 2870 95bd c912 8cbd
00000040: fb6a 09be 07e9 87be a149 9a3e cc3f aa3e
00000050: c8f0 b63d d58b 483d 0be9 47bd 6464 0b3e
00000060: 7290 c4bd 9044 c3bd 5195 ba3d efa0 ba3d
00000070: 6e30 133c 4d57 cfbd f479 41be a205 a8be
00000080: bce9 b8be 306a 9dbe 0a8a 7bbe c9cc adbe
0.369463 0.21034959 0.20059764 0.032136068 0.1501981 0.21403621 -0.011946027 -0.0022612514
-0.017777493 -0.27502584 -0.20796035 -0.1407064 -0.045900766 -0.05311234 -0.07296783 -0.068395205
-0.13419716 -0.26544973 0.301343 0.33251798 0.08932644 0.04896148 -0.04880623 0.13612515
-0.09597863 -0.09534562 0.09110511 0.09112727 0.0089837145 -0.10124073 -0.18894178 -0.32816797
-0.36115825 -0.30745077 -0.24564376 -0.339453

model.qy_x.model.tcn_block_01.block.conv1d_layer_1.bias f4 [4]
00000000: 915e a03e c94c 79bf baed 463b d3d4 ee3c
0.31322148 -0.9738279 0.0030354098 0.029154217

model.qy_x.model.tcn_block_01.block.conv1d_layer_1.weight_g f4 [4, 1, 1]
00000000: c2f5 1540 098e e33f e720 b93f 8e36 bc3f
2.3431249 1.7777721 1.4463166 1.4704149

model.qy_x.model.tcn_block_01.block.conv1d_layer_1.weight_v f4 [4, 2, 9]
00000000: 2f22 33be 5bef 91bd 50fc e0bb 8e76 803d
00000010: 0084 973e 0896 b63e eb2a 413e d9e8 be3d
00000020: a00e acbe acae 59be 9325 77bd 2fec 153d
00000030: 22cb 1d3d a46a a83e 3268 293e b136 473e
00000040: a7b8 773d 3aa8 72be dcb4 923d cf60 81bc
00000050: e7c3 54bc cc94 05bd 9353 b53b 1e56 c13c
00000060: 1eb8 d43b ecd4 b0bd 40bb d739 ead3 5f3e
00000070: a9a7 aabd c077 95be cb1e dfbe 7e66 d4be
00000080: 59d4 6bbe bd56 bbbd 64cb db3d 9fa6 a83e
00000090: dc2c 35be 4c43 90bd eea1 04bc 304f c03d
000000a0: 9da4 8f3e bfb9 a23e 137d 3d3e 981d 743d
000000b0: b8cb 88be 8da5 2dbe 54fe 9cbd 6e2e eb3b
000000c0: 4443 0c3d 5f20 893e 1349 5c3e 118d 3c3e
000000d0: 32b8 893d c764 4dbe 11aa 46be 58b8 7dbd
000000e0: 28bc 143c 2fb6 f93d e4dc 873e e42c 983e
000000f0: ff9c 273e 0dc3 6b3d 5f2a 83be 9186 57be
00000100: 23bf babd af0a 533d e36a b73d 1fc8 aa3e
00000110: 43ae 7d3e dc0b 673e b9d0 7a3d cbd4 52be
-0.17493509 -0.071257316 -0.0068660155 0.062726125 0.29592896 0.3566134 0.18864028 0.09321756
-0.33604908 -0.21258038 -0.060338568 0.036602195 0.0385238 0.3289386 0.16543654 0.19454457
0.060478833 -0.23696986 0.071634024 -0.015793232 -0.01298616 -0.032612607 0.0055336445 0.023600634
0.006491675 -0.086343616 0.00041147508 0.21858183 -0.0833276 -0.29192924 -0.4357818 -0.41484445
-0.23030223 -0.091474034 0.10732153 0.32939622 -0.17692894 -0.07044086 -0.008095248 0.09390104
0.28055277 0.31782338 0.18504743 0.059598535 -0.26717925 -0.16957684 -0.07665697 0.0071771657
0.034243837 0.2678251 0.2151225 0.18413188 0.067245856 -0.20057975 -0.19400813 -0.061943382
0.009078063 0.12192952 0.26535714 0.2972175 0.16368483 0.05755906 -0.25618264 -0.21047427
-0.09118488 0.05152386 0.08955934 0.33355805 0.24773507 0.22563118 0.06123421 -0.20588987

model.qy_x.model.tcn_block_01.downsample.weight f4 [4, 2, 1]
00000000: b479 ca3e 4534 ddbf 9c8f 93be cd9f 953f
00000010: e310 b0bc dd57 0c3f a516 b63e d772 57bf
0.39545977 -1.7281576 -0.28820503 1.1689392 -0.021492427 0.5482157 0.3556415 -0.84159607

model.qy_x.model.tcn_block_01.downsample.bias f4 [4]
00000000: 7e3c 04bf fb55 28c0 a332 f63b acc6 e7be
-0.51654804 -2.6302478 0.0075133606 -0.45268762

model.qy_x.model.final_dense_02.weight f4 [4, 4, 1]
00000000: a6c3 95bf 9971 3840 d5d4 37bf cb25 f5be
00000010: 7308 e73f 6c87 65c0 389d 173f 1a17 623f
00000020: 4ad2 e0bf ad02 eebf 3871 90be 2c9a 8dbe
00000030: 1da6 93bf c85e 42c0 3326 c9bd 9d2c 6cbf
-1.1700332 2.8819335 -0.7180913 -0.47880396 1.8049453 -3.5863905 0.5922427 0.883165
-1.7564175 -1.8594567 -0.2821138 -0.27656686 -1.1535069 -3.037035 -0.09821739 -0.92255574

model.qy_x.model.final_dense_02.bias f4 [4]
00000000: 7d89 ef3e 5c26 94be 251c 30be 975b aabe
0.46784583 -0.28935516 -0.17198236 -0.33273003

model.encoder.model.tcn_block_00.conv0.bias f4 [2]
00000000: 643f 2d3d 2861 cdbd
0.042296782 -0.10028297

model.encoder.model.tcn_block_00.conv0.weight_g f4 [2, 1, 1]
00000000: c5c7 0c3f d41c 273f
0.54992324 0.65278363

model.encoder.model.tcn_block_00.conv0.weight_v f4 [2, 14, 9]
00000000: 6b12 9e3d a05d ac3c baaf a5bd 187b 1c3e
00000010: a378 37be 24f4 cbbb 9f89 39bd 78b9 463d
00000020: f8cf 4dbd 174a 12bd d1a1 c5bc 190c 003e
00000030: 078a 19be ca7a 1e3e b23a a5bc 88de 2a3c
00000040: 9164 febc 2d22 1c3d e855 8bbc 363a e7bb
00000050: 6667 423d c0d3 d9bd fb22 5e3d a9ec 84bc
00000060: f71d 88bc c371 d8bc 841a e53a 9bc9 00bd
00000070: 8da8 ebbb 2c81 bdbd 72fd f13d 94f9 a9bc
00000080: 90ca 223d f0d3 fd3c 1593 4a3d d8be 87bb
00000090: 31ac 6a3d 1daa 9ebd 1270 503d e1d8 bdbd
000000a0: facc ee3c 59c4 133d 216a 863c ea10 46bd
000000b0: ec29 4aba 3259 3c3d 4fa7 2e3d eaa2 f2bd
000000c0: 8c31 453e 696f f8bd b26e fbbc 0c39 63bc
000000d0: da77 e03c 2670 a2bd bba6 5fbd 5e31 c83d
000000e0: 2c01 0d3d e2f2 433d 530b d43c 7ec5 bcbd
000000f0: 59d3 41bc f20b b43d fcd1 5dbd e153 573b
00000100: 07c8 2d3c 102e c73d 68a8 ccbd f754 033e
00000110: e7b6 a1bd 874c 5dbc d3af 0e3c 6810 863d
00000120: 671a 9c3d b19d 883d 17e4 65bc abf4 023e
00000130: 4c20 81bd 4ec2 083d 1e90 13bb 9608 8c3c
00000140: cbfa 3dbc abed 84bd 63f5 11bd 1ff8 d33d
00000150: e3bc e5bd 23d2 c03d 9dfd ba3d b53b 313d
00000160: 3587 c3bd 8293 673b 4e20 0ebc f68c 483d
00000170: c5c6 5b3d a9aa 423d 4449 dcbc 9f2a e73c
00000180: 1650 893d a1c5 e1bc ad18 8a3d a1b9 d4bc
00000190: 1958 083c 87ed c43b ced4 003e 605d 80bd
000001a0: f61f cebc 9b53 cc3d b2f1 efba 7e31 b9ba
000001b0: 890b 6d3e 62e6 1cbe 94ea 393e 5f77 19be
000001c0: 1431 bc3e d785 7dbe b193 b23b 49fb 803e
000001d0: 3f18 cbbe 843e 183c 81ed 913c eced a23b
000001e0: ee5f d23d 14e0 d4bc ed86 bcbc f7d1 6e3d
000001f0: 820f ccbb dee6 093d bf12 49bc b606 4bbc
00000200: 7b66 34bc dc86 8bbc 7d13 2e3b 891e b93b
00000210: 46da 963b 09e9 f13c 2319 403d 3f40 8b3c
00000220: 5af1 903c 9a4b cd3c 29ba d53c 87c2 303b
00000230: aaf2 0cba a4d8 66bb aa77 ecbc 6309 2bbd
00000240: c59a 723c 16e8 f53b 1e78 55b8 8ae8 c83a
00000250: efe1 4f3b 5f65 d53b aa07 14bc 7f48 8dbc
00000260: 012a e5bc 6165 71bd d584 c5bd 017e 74bd
00000270: 7b7e 90bd d4b4 58bd 953e f1bc a07f 4bbd
00000280: 71aa c73b 65b7 2d3c 3800 9b3c 9547 e73b
00000290: 4324 08bc 2ba9 2cbc b327 dfbc 85a0 f6bc
000002a0: afa8 cebc fbcb e0bc 6630 bcbc cbac d8bc
000002b0: 1c85 debc fa74 debc 9466 b6bc 5172 7fbc
000002c0: 7444 cb39 96e5 6e3c 44ea ec3c 917f 123d
000002d0: 5264 8b3c b6df 973c 20d5 9f3c 212b 973c
000002e0: cd71 923c 50e7 913c c079 1c3c 63e2 153c
000002f0: c796 c03b 5a1d 653c 57c8 f63b 0bfc 4d3c
00000300: 8fce 6d3c 7970 71ba 198d a2bb 0eb0 83bb
00000310: c68e 9abc 1e96 12bd 933a 39bc 1e8b 90bb
00000320: 1637 27bc 5c13 0dbb 25d1 7c3b e722 743b
00000330: b026 0c3c 8d08 aa3c e548 ef3c f728 6d3d
00000340: e971 2f3d 648c f63c b8b3 4c3c 1271 0a3b
00000350: 2f53 b8bc c898 e9bc 19f0 60bd becf 82bd
00000360: 46f3 0ebe 64ce c13d 9abc 723e 7355 563e
00000370: 8d41 553e 2c99 193e cfdc 0e3d c897 bdbd
00000380: ab1e 77be 5f88 5cbd 4af3 87bd e439 83bd
00000390: bd41 3bbd 7a1e 29bd 0245 0bbd d75c 30bd
000003a0: cca1 2cbd 1471 aebc a389 c53f 78c1 d3ac
000003b0: 8ce4 c0bf 8856 12ac 52a4 1832 7616 acad
000003c0: e07b 7a3c f35a 723f a25d 5d3f 7ba8 ad3d
000003d0: 63de 9f3d 5e6f 853d 9790 803d 45f0 883c
000003e0: 6743 57bb c586 93bc 6df7 a63b 2513 90bd
0.07718357 0.021040738 -0.08090158 0.15281332 -0.17917113 -0.006224172 -0.04529726 0.04851672
-0.050247163 -0.03571519 -0.024125012 0.12504615 -0.1499406 0.15476528 -0.02016959 0.010429032
-0.031053813 0.03811853 -0.017008737 -0.0070565 0.04746189 -0.10636091 0.05423258 -0.01622613
-0.01661585 -0.026421433 0.0017479216 -0.031442266 -0.0071917237 -0.09253153 0.11815919 -0.020748891
0.03974396 0.030984849 0.049456675 -0.0041426234 0.05729312 -0.0774729 0.05088813 -0.09269882
0.029150475 0.036075924 0.016408028 -0.048355974 -0.00077119353 0.0459835 0.042640027 -0.1184748
0.19257182 -0.12130625 -0.030692432 -0.0138685815 0.0274009 -0.07931547 -0.054602366 0.09775041
0.034424946 0.047839053 0.025884306 -0.09217356 -0.011830174 0.08791341 -0.054155335 0.0032856392
0.010606772 0.097255826 -0.099930584 0.1282538 -0.07896214 -0.013507015 0.008708912 0.06546098
0.07622223 0.06670702 -0.014031432 0.12788646 -0.06304988 0.03338843 -0.002251632 0.017093938
-0.011595438 -0.06490644 -0.03563441 0.1035006 -0.11217668 0.094150804 0.09130404 0.04326983
-0.09547273 0.0035335724 -0.008674694 0.048962556 0.05365636 0.047526035 -0.026890405 0.028218566
0.06704728 -0.027560057 0.06742988 -0.025967421 0.008321785 0.006009761 0.12581179 -0.0626781
-0.025161725 0.09976884 -0.0018306284 -0.001412913 0.23148932 -0.15322259 0.1815589 -0.14986943
0.36756194 -0.24758087 0.005449735 0.25191715 -0.39666936 0.009292249 0.017813446 0.00497221
0.102722034 -0.025985755 -0.023013556 0.058305707 -0.0062274346 0.033667438 -0.012272536 -0.012391737
-0.011010761 -0.01703208 0.002656191 0.005649392 0.004603657 0.029530065 0.046898972 0.016998408
0.01769321 0.025060464 0.026089745 0.0026971416 -0.0005376736 -0.0035224343 -0.028865654 -0.041757
0.014807408 0.0075044734 -5.0895025e-05 0.0015328091 0.003172036 0.0065123285 -0.00903503 -0.017246483
-0.02797413 -0.058934573 -0.09644476 -0.05969048 -0.07055374 -0.052906826 -0.029448787 -0.04968226
0.0060933162 0.010602807 0.018921003 0.007058094 -0.008309427 -0.01053838 -0.02724061 -0.030105839
-0.025226919 -0.027441015 -0.022972297 -0.026449582 -0.02716308 -0.027155388 -0.02226571 -0.01559122
0.0003877018 0.014581105 0.0289203 0.035766188 0.01701561 0.01853929 0.019510806 0.018453183
0.01787653 0.017810494 0.009550512 0.009148213 0.005877349 0.013984049 0.0075312066 0.012572299
0.014514579 -0.000921018 -0.004960668 -0.00401879 -0.018866908 -0.035787694 -0.011305469 -0.0044111153
-0.010206005 -0.0021526432 0.0038576808 0.0037252249 0.008554146 0.02075603 0.029209564 0.057900395
0.042833243 0.03009624 0.01249402 0.0021124524 -0.022500603 -0.028515235 -0.054916475 -0.0638728
-0.13959989 0.09463194 0.23704758 0.20931034 0.20825787 0.14999837 0.03487855 -0.092574656
-0.24132793 -0.05384099 -0.066382006 -0.06407526 -0.04571699 -0.04128883 -0.034001358 -0.04305729
-0.04214649 -0.021294154 1.5432628 -6.01846e-12 -1.5069747 -2.0795882e-12 8.884927e-09 -1.956411e-11
0.015288323 0.9467003 0.86471 0.08479401 0.07806089 0.06515382 0.06277578 0.016716132
-0.0032846571 -0.018008599 0.0050954134 -0.070349015

model.encoder.model.tcn_block_00.conv1.bias f4 [2]
00000000: 7efb 2f3c 8211 15bc
0.010741113 -0.0090984125

model.encoder.model.tcn_block_00.conv1.weight_g f4 [2, 1, 1]
00000000: b6f9 043f 1f9c 203f
0.5194353 0.6273822

model.encoder.model.tcn_block_00.conv1.weight_v f4 [2, 2, 9]
00000000: b9a7 733c 39ca 1ebd 299f df3c a672 d43d
00000010: a5fe 123e c367 e0bd d01e 4f3d a9df e5bd
00000020: 5530 a2bd 174f d6bd 4be1 50be 2cb4 f0bd
00000030: 752e 4dbe c8f0 40be eb63 2dbe 4fbc 60be
00000040: 35b3 04be 6238 c9bd 55c8 f9bc a430 1cbd
00000050: 8c46 123e 307f 133e 5170 2fbe ab81 ee3d
00000060: 38bb 35be 41b5 2abe 7e1e c43d 3b54 cdbd
00000070: 0824 4bbe a7f0 84be 0e75 63be 72d3 c1bd
00000080: e90a 8fbe 07d5 93be 30cc 4dbe 82c6 8bbe
0.014871531 -0.038767073 0.027297573 0.1037343 0.14354952 -0.10957291 0.050566494 -0.112243004
-0.07919375 -0.10464304 -0.20398442 -0.11753115 -0.20037253 -0.18841851 -0.16932647 -0.21946834
-0.12958987 -0.09825207 -0.030491034 -0.038132325 0.14284724 0.14403987 -0.17132689 0.11645826
-0.177472 -0.16670705 0.095761284 -0.10025831 -0.19837964 -0.25964853 -0.22212622 -0.09464158
-0.2793801 -0.28873464 -0.20097423 -0.27299887

model.encoder.model.tcn_block_00.block.conv1d_layer_0.bias f4 [2]
00000000: 643f 2d3d 2861 cdbd
0.042296782 -0.10028297

model.encoder.model.tcn_block_00.block.conv1d_layer_0.weight_g f4 [2, 1, 1]
00000000: c5c7 0c3f d41c 273f
0.54992324 0.65278363

model.encoder.model.tcn_block_00.block.conv1d_layer_0.weight_v f4 [2, 14, 9]
00000000: 6b12 9e3d a05d ac3c baaf a5bd 187b 1c3e
00000010: a378 37be 24f4 cbbb 9f89 39bd 78b9 463d
00000020: f8cf 4dbd 174a 12bd d1a1 c5bc 190c 003e
00000030: 078a 19be ca7a 1e3e b23a a5bc 88de 2a3c
00000040: 9164 febc 2d22 1c3d e855 8bbc 363a e7bb
00000050: 6667 423d c0d3 d9bd fb22 5e3d a9ec 84bc
00000060: f71d 88bc c371 d8bc 841a e53a 9bc9 00bd
00000070: 8da8 ebbb 2c81 bdbd 72fd f13d 94f9 a9bc
00000080: 90ca 223d f0d3 fd3c 1593 4a3d d8be 87bb
00000090: 31ac 6a3d 1daa 9ebd 1270 503d e1d8 bdbd
000000a0: facc ee3c 59c4 133d 216a 863c ea10 46bd
000000b0: ec29 4aba 3259 3c3d 4fa7 2e3d eaa2 f2bd
000000c0: 8c31 453e 696f f8bd b26e fbbc 0c39 63bc
000000d0: da77 e03c 2670 a2bd bba6 5fbd 5e31 c83d
000000e0: 2c01 0d3d e2f2 433d 530b d43c 7ec5 bcbd
000000f0: 59d3 41bc f20b b43d fcd1 5dbd e153 573b
00000100: 07c8 2d3c 102e c73d 68a8 ccbd f754 033e
00000110: e7b6 a1bd 874c 5dbc d3af 0e3c 6810 863d
00000120: 671a 9c3d b19d 883d 17e4 65bc abf4 023e
00000130: 4c20 81bd 4ec2 083d 1e90 13bb 9608 8c3c
00000140: cbfa 3dbc abed 84bd 63f5 11bd 1ff8 d33d
00000150: e3bc e5bd 23d2 c03d 9dfd ba3d b53b 313d
00000160: 3587 c3bd 8293 673b 4e20 0ebc f68c 483d
00000170: c5c6 5b3d a9aa 423d 4449 dcbc 9f2a e73c
00000180: 1650 893d a1c5 e1bc ad18 8a3d a1b9 d4bc
00000190: 1958 083c 87ed c43b ced4 003e 605d 80bd
000001a0: f61f cebc 9b53 cc3d b2f1 efba 7e31 b9ba
000001b0: 890b 6d3e 62e6 1cbe 94ea 393e 5f77 19be
000001c0: 1431 bc3e d785 7dbe b193 b23b 49fb 803e
000001d0: 3f18 cbbe 843e 183c 81ed 913c eced a23b
000001e0: ee5f d23d 14e0 d4bc ed86 bcbc f7d1 6e3d
000001f0: 820f ccbb dee6 093d bf12 49bc b606 4bbc
00000200: 7b66 34bc dc86 8bbc 7d13 2e3b 891e b93b
00000210: 46da 963b 09e9 f13c 2319 403d 3f40 8b3c
00000220: 5af1 903c 9a4b cd3c 29ba d53c 87c2 303b
00000230: aaf2 0cba a4d8 66bb aa77 ecbc 6309 2bbd
00000240: c59a 723c 16e8 f53b 1e78 55b8 8ae8 c83a
00000250: efe1 4f3b 5f65 d53b aa07 14bc 7f48 8dbc
00000260: 012a e5bc 6165 71bd d584 c5bd 017e 74bd
00000270: 7b7e 90bd d4b4 58bd 953e f1bc a07f 4bbd
00000280: 71aa c73b 65b7 2d3c 3800 9b3c 9547 e73b
00000290: 4324 08bc 2ba9 2cbc b327 dfbc 85a0 f6bc
000002a0: afa8 cebc fbcb e0bc 6630 bcbc cbac d8bc
000002b0: 1c85 debc fa74 debc 9466 b6bc 5172 7fbc
000002c0: 7444 cb39 96e5 6e3c 44ea ec3c 917f 123d
000002d0: 5264 8b3c b6df 973c 20d5 9f3c 212b 973c
000002e0: cd71 923c 50e7 913c c079 1c3c 63e2 153c
000002f0: c796 c03b 5a1d 653c 57c8 f63b 0bfc 4d3c
00000300: 8fce 6d3c 7970 71ba 198d a2bb 0eb0 83bb
00000310: c68e 9abc 1e96 12bd 933a 39bc 1e8b 90bb
00000320: 1637 27bc 5c13 0dbb 25d1 7c3b e722 743b
00000330: b026 0c3c 8d08 aa3c e548 ef3c f728 6d3d
00000340: e971 2f3d 648c f63c b8b3 4c3c 1271 0a3b
00000350: 2f53 b8bc c898 e9bc 19f0 60bd becf 82bd
00000360: 46f3 0ebe 64ce c13d 9abc 723e 7355 563e
00000370: 8d41 553e 2c99 193e cfdc 0e3d c897 bdbd
00000380: ab1e 77be 5f88 5cbd 4af3 87bd e439 83bd
00000390: bd41 3bbd 7a1e 29bd 0245 0bbd d75c 30bd
000003a0: cca1 2cbd 1471 aebc a389 c53f 78c1 d3ac
000003b0: 8ce4 c0bf 8856 12ac 52a4 1832 7616 acad
000003c0: e07b 7a3c f35a 723f a25d 5d3f 7ba8 ad3d
000003d0: 63de 9f3d 5e6f 853d 9790 803d 45f0 883c
000003e0: 6743 57bb c586 93bc 6df7 a63b 2513 90bd
0.07718357 0.021040738 -0.08090158 0.15281332 -0.17917113 -0.006224172 -0.04529726 0.04851672
-0.050247163 -0.03571519 -0.024125012 0.12504615 -0.1499406 0.15476528 -0.02016959 0.010429032
-0.031053813 0.03811853 -0.017008737 -0.0070565 0.04746189 -0.10636091 0.05423258 -0.01622613
-0.01661585 -0.026421433 0.0017479216 -0.031442266 -0.0071917237 -0.09253153 0.11815919 -0.020748891
0.03974396 0.030984849 0.049456675 -0.0041426234 0.05729312 -0.0774729 0.05088813 -0.09269882
0.029150475 0.036075924 0.016408028 -0.048355974 -0.00077119353 0.0459835 0.042640027 -0.1184748
0.19257182 -0.12130625 -0.030692432 -0.0138685815 0.0274009 -0.07931547 -0.054602366 0.09775041
0.034424946 0.047839053 0.025884306 -0.09217356 -0.011830174 0.08791341 -0.054155335 0.0032856392
0.010606772 0.097255826 -0.099930584 0.1282538 -0.07896214 -0.013507015 0.008708912 0.06546098
0.07622223 0.06670702 -0.014031432 0.12788646 -0.06304988 0.03338843 -0.002251632 0.017093938
-0.011595438 -0.06490644 -0.03563441 0.1035006 -0.11217668 0.094150804 0.09130404 0.04326983
-0.09547273 0.0035335724 -0.008674694 0.048962556 0.05365636 0.047526035 -0.026890405 0.028218566
0.06704728 -0.027560057 0.06742988 -0.025967421 0.008321785 0.006009761 0.12581179 -0.0626781
-0.025161725 0.09976884 -0.0018306284 -0.001412913 0.23148932 -0.15322259 0.1815589 -0.14986943
0.36756194 -0.24758087 0.005449735 0.25191715 -0.39666936 0.009292249 0.017813446 0.00497221
0.102722034 -0.025985755 -0.023013556 0.058305707 -0.0062274346 0.033667438 -0.012272536 -0.012391737
-0.011010761 -0.01703208 0.002656191 0.005649392 0.004603657 0.029530065 0.046898972 0.016998408
0.01769321 0.025060464 0.026089745 0.0026971416 -0.0005376736 -0.0035224343 -0.028865654 -0.041757
0.014807408 0.0075044734 -5.0895025e-05 0.0015328091 0.003172036 0.0065123285 -0.00903503 -0.017246483
-0.02797413 -0.058934573 -0.09644476 -0.05969048 -0.07055374 -0.052906826 -0.029448787 -0.04968226
0.0060933162 0.010602807 0.018921003 0.007058094 -0.008309427 -0.01053838 -0.02724061 -0.030105839
-0.025226919 -0.027441015 -0.022972297 -0.026449582 -0.02716308 -0.027155388 -0.02226571 -0.01559122
0.0003877018 0.014581105 0.0289203 0.035766188 0.01701561 0.01853929 0.019510806 0.018453183
0.01787653 0.017810494 0.009550512 0.009148213 0.005877349 0.013984049 0.0075312066 0.012572299
0.014514579 -0.000921018 -0.004960668 -0.00401879 -0.018866908 -0.035787694 -0.011305469 -0.0044111153
-0.010206005 -0.0021526432 0.0038576808 0.0037252249 0.008554146 0.02075603 0.029209564 0.057900395
0.042833243 0.03009624 0.01249402 0.0021124524 -0.022500603 -0.028515235 -0.054916475 -0.0638728
-0.13959989 0.09463194 0.23704758 0.20931034 0.20825787 0.14999837 0.03487855 -0.092574656
-0.24132793 -0.05384099 -0.066382006 -0.06407526 -0.04571699 -0.04128883 -0.034001358 -0.04305729
-0.04214649 -0.021294154 1.5432628 -6.01846e-12 -1.5069747 -2.0795882e-12 8.884927e-09 -1.956411e-11
0.015288323 0.9467003 0.86471 0.08479401 0.07806089 0.06515382 0.06277578 0.016716132
-0.0032846571 -0.018008599 0.0050954134 -0.070349015

model.encoder.model.tcn_block_00.block.conv1d_layer_1.bias f4 [2]
00000000: 7efb 2f3c 8211 15bc
0.010741113 -0.0090984125

model.encoder.model.tcn_block_00.block.conv1d_layer_1.weight_g f4 [2, 1, 1]
00000000: b6f9 043f 1f9c 203f
0.5194353 0.6273822

model.encoder.model.tcn_block_00.block.conv1d_layer_1.weight_v f4 [2, 2, 9]
00000000: b9a7 733c 39ca 1ebd 299f df3c a672 d43d
00000010: a5fe 123e c367 e0bd d01e 4f3d a9df e5bd
00000020: 5530 a2bd 174f d6bd 4be1 50be 2cb4 f0bd
00000030: 752e 4dbe c8f0 40be eb63 2dbe 4fbc 60be
00000040: 35b3 04be 6238 c9bd 55c8 f9bc a430 1cbd
00000050: 8c46 123e 307f 133e 5170 2fbe ab81 ee3d
00000060: 38bb 35be 41b5 2abe 7e1e c43d 3b54 cdbd
00000070: 0824 4bbe a7f0 84be 0e75 63be 72d3 c1bd
00000080: e90a 8fbe 07d5 93be 30cc 4dbe 82c6 8bbe
0.014871531 -0.038767073 0.027297573 0.1037343 0.14354952 -0.10957291 0.050566494 -0.112243004
-0.07919375 -0.10464304 -0.20398442 -0.11753115 -0.20037253 -0.18841851 -0.16932647 -0.21946834
-0.12958987 -0.09825207 -0.030491034 -0.038132325 0.14284724 0.14403987 -0.17132689 0.11645826
-0.177472 -0.16670705 0.095761284 -0.10025831 -0.19837964 -0.25964853 -0.22212622 -0.09464158
-0.2793801 -0.28873464 -0.20097423 -0.27299887

model.encoder.model.tcn_block_00.downsample.weight f4 [2, 14, 1]
00000000: a973 1e3e 6980 0abe d735 86bd a32c 293e
00000010: 945a 4bbe e515 343e c99b ff3d c3c0 42bd
00000020: d389 6f3d 937f 8abe 3fbb 8e3f 29dc 8c3f
00000030: f3b3 21bc c61d 8e3f 065b 23be ac7e de3d
00000040: e6b7 f13d 9938 ee3c 6398 d4bd 9fff c0bd
00000050: a4e1 4c3e 6d21 443e 5a80 1cbe 4f08 9b3c
00000060: 3cef 9d3f f679 9e3f df7a 033c 853a 9e3f
0.15473808 -0.13525547 -0.06553238 0.16520934 -0.19858772 0.17586477 0.124808855 -0.047547113
0.05848105 -0.27050456 1.1150893 1.1004688 -0.009869563 1.1102836 -0.15952691 0.108640045
0.11802654 0.029079722 -0.10380628 -0.09423756 0.2000795 0.19153376 -0.15283337 0.01892486
1.2338634 1.238097 0.0080249 1.2361609

model.encoder.model.tcn_block_00.downsample.bias f4 [2]
00000000: 6487 b63f 986b 8a3f
1.4260068 1.0814085

model.encoder.model.tcn_block_01.conv0.bias f4 [2]
00000000: 9bc6 59be 46d7 803d
-0.21267168 0.0629106

model.encoder.model.tcn_block_01.conv0.weight_g f4 [2, 1, 1]
00000000: db3d 263f e3c3 d03e
0.64938134 0.4077445

model.encoder.model.tcn_block_01.conv0.weight_v f4 [2, 2, 9]
00000000: a66c 543e 4dec ef3d e54c c33c 3d60 7abd
00000010: 6cf2 24be 2faf a0be 4d85 773d 5451 063e
00000020: 675e 9bbd 320c 3c3d bf1d 243e 48fa 453e
00000030: 4283 e53b 506f d9bb 332d bcbd 3a57 59be
00000040: 4b24 873d 7161 cabc 7c84 673e 276e 9a3b
00000050: 2b44 1abd 97fa 31be 294a 06be b56a 07bc
00000060: 4cec 283d 8130 a0bd fde2 1c3e cfa6 5cbe
00000070: cc2e ea3d f4c8 6b3e 7dbf b2bd e67b 3b3e
00000080: 3814 623c 5c7c 4dbe 39cd 0cbe 1184 ec3d
0.20744571 0.11714993 0.023840377 -0.061126936 -0.16108102 -0.31383654 0.06042986 0.13116962
-0.07586365 0.045910068 0.16026972 0.19333756 0.0070041725 -0.006635584 -0.091883086 -0.2122468
0.06598719 -0.024704667 0.22609133 0.004712838 -0.037662666 -0.17380749 -0.13114227 -0.008265187
0.041240975 -0.078217514 0.15320964 -0.21548007 0.11434707 0.23025876 -0.0872793 0.18308982
0.013798766 -0.2006697 -0.13750161 0.11548627

model.encoder.model.tcn_block_01.conv1.bias f4 [2]
00000000: d1bf 09bd a50f 1bbc
-0.033630196 -0.009464179

model.encoder.model.tcn_block_01.conv1.weight_g f4 [2, 1, 1]
00000000: 8e93 1c3f 04d9 0d3f
0.6116265 0.55409265

model.encoder.model.tcn_block_01.conv1.weight_v f4 [2, 2, 9]
00000000: 5d14 0c3e ef6f 633c 6404 c23c 2c33 0a3e
00000010: c344 47bd 8189 96be f0b0 88be b61f b9be
00000020: ddb8 273d 392b 3f3e 88d9 3e3d 5812 a2bd
00000030: 7913 403e 7c28 1dbd 3fcb 413c a5c6 2abe
00000040: f380 2dbe e354 febc 17f4 28bc 745e 843d
00000050: 0cc2 3b3e 7f9a 6abd 1e22 61be feff b9be
00000060: ae30 16be 33c6 92be 8908 5dbe f23f cf3c
00000070: dca7 d0bc a1d4 353d 7135 1cbe 2464 223d
00000080: fac5 213d 47fa 4fbd f8fb 29be ed9e 2e3e
0.13679643 0.0138816675 0.023683734 0.13496083 -0.04864956 -0.29401782 -0.26697493 -0.36157006
0.040947784 0.18668832 0.046594173 -0.07913655 0.18757428 -0.038368687 0.011828243 -0.1667734
-0.16943721 -0.031046337 -0.010312102 0.06463328 0.18335742 -0.057276245 -0.21985671 -0.3632812
-0.14667007 -0.2866684 -0.21585287 0.025299046 -0.025470667 0.04439223 -0.15254761 0.039646283
0.039495446 -0.050775792 -0.16600025 0.17052813

model.encoder.model.tcn_block_01.block.conv1d_layer_0.bias f4 [2]
00000000: 9bc6 59be 46d7 803d
-0.21267168 0.0629106

model.encoder.model.tcn_block_01.block.conv1d_layer_0.weight_g f4 [2, 1, 1]
00000000: db3d 263f e3c3 d03e
0.64938134 0.4077445

model.encoder.model.tcn_block_01.block.conv1d_layer_0.weight_v f4 [2, 2, 9]
00000000: a66c 543e 4dec ef3d e54c c33c 3d60 7abd
00000010: 6cf2 24be 2faf a0be 4d85 773d 5451 063e
00000020: 675e 9bbd 320c 3c3d bf1d 243e 48fa 453e
00000030: 4283 e53b 506f d9bb 332d bcbd 3a57 59be
00000040: 4b24 873d 7161 cabc 7c84 673e 276e 9a3b
00000050: 2b44 1abd 97fa 31be 294a 06be b56a 07bc
00000060: 4cec 283d 8130 a0bd fde2 1c3e cfa6 5cbe
00000070: cc2e ea3d f4c8 6b3e 7dbf b2bd e67b 3b3e
00000080: 3814 623c 5c7c 4dbe 39cd 0cbe 1184 ec3d
0.20744571 0.11714993 0.023840377 -0.061126936 -0.16108102 -0.31383654 0.06042986 0.13116962
-0.07586365 0.045910068 0.16026972 0.19333756 0.0070041725 -0.006635584 -0.091883086 -0.2122468
0.06598719 -0.024704667 0.22609133 0.004712838 -0.037662666 -0.17380749 -0.13114227 -0.008265187
0.041240975 -0.078217514 0.15320964 -0.21548007 0.11434707 0.23025876 -0.0872793 0.18308982
0.013798766 -0.2006697 -0.13750161 0.11548627

model.encoder.model.tcn_block_01.block.conv1d_layer_1.bias f4 [2]
00000000: d1bf 09bd a50f 1bbc
-0.033630196 -0.009464179

model.encoder.model.tcn_block_01.block.conv1d_layer_1.weight_g f4 [2, 1, 1]
00000000: 8e93 1c3f 04d9 0d3f
0.6116265 0.55409265

model.encoder.model.tcn_block_01.block.conv1d_layer_1.weight_v f4 [2, 2, 9]
00000000: 5d14 0c3e ef6f 633c 6404 c23c 2c33 0a3e
00000010: c344 47bd 8189 96be f0b0 88be b61f b9be
00000020: ddb8 273d 392b 3f3e 88d9 3e3d 5812 a2bd
00000030: 7913 403e 7c28 1dbd 3fcb 413c a5c6 2abe
00000040: f380 2dbe e354 febc 17f4 28bc 745e 843d
00000050: 0cc2 3b3e 7f9a 6abd 1e22 61be feff b9be
00000060: ae30 16be 33c6 92be 8908 5dbe f23f cf3c
00000070: dca7 d0bc a1d4 353d 7135 1cbe 2464 223d
00000080: fac5 213d 47fa 4fbd f8fb 29be ed9e 2e3e
0.13679643 0.0138816675 0.023683734 0.13496083 -0.04864956 -0.29401782 -0.26697493 -0.36157006
0.040947784 0.18668832 0.046594173 -0.07913655 0.18757428 -0.038368687 0.011828243 -0.1667734
-0.16943721 -0.031046337 -0.010312102 0.06463328 0.18335742 -0.057276245 -0.21985671 -0.3632812
-0.14667007 -0.2866684 -0.21585287 0.025299046 -0.025470667 0.04439223 -0.15254761 0.039646283
0.039495446 -0.050775792 -0.16600025 0.17052813

model.qz_xy_mean.dense(qz_xy_mean)_layer_03.weight f4 [2, 2]
00000000: 6d91 633f 1ec7 bb3e 3e54 26bf a957 a33f
0.8889378 0.36675352 -0.64972293 1.2761127

model.qz_xy_mean.dense(qz_xy_mean)_layer_03.bias f4 [2]
00000000: 8385 23c0 bd69 84bf
-2.555024 -1.0344769

model.qz_xy_logvar.dense(qz_xy_logvar)_layer_03.weight f4 [2, 2]
00000000: c6dc 97bf d0ad a1bf ca25 60bf 52c9 79bf
-1.186425 -1.2631168 -0.8755766 -0.97572815

model.qz_xy_logvar.dense(qz_xy_logvar)_layer_03.bias f4 [2]
00000000: 2d53 afbf 6274 e1bf
-1.3697258 -1.7613642

model.py_t_probs.dense(py_t_probs)_layer_00.weight f4 [4, 2]
00000000: 0202 943e eeb6 03bf 40a7 19be 36d4 a03e
00000010: c75e 083f 70bb 233e 4e0e 87be 6b79 9dbe
0.28907782 -0.51451004 -0.15005207 0.31411904 0.5326962 0.1598947 -0.263781 -0.30756697

model.py_t_probs.dense(py_t_probs)_layer_00.bias f4 [4]
00000000: c234 cb3e f857 063e ff61 183f b456 883e
0.3968869 0.13119495 0.5952453 0.2662865

model.pz_t_mean.dense(pz_t_mean)_layer_00.weight f4 [8, 2]
00000000: 2387 843f 9adc a33d 1f24 79be 9efd 643f
00000010: fc5e 823f 0d98 283d a812 fabd 2d1a 723f
00000020: 454e 213f 1050 d8be 08bb 5f3e 6b7c 11bf
00000030: f754 803f 2083 bfba 6ab2 d9bd 85ff 793f
1.035374 0.08001061 -0.24330185 0.8944949 1.0185237 0.041160632 -0.1221059 0.9457119
0.63010055 -0.42248583 0.2184869 -0.5683047 1.0025929 -0.0014611222 -0.10629733 0.97655517

model.pz_t_mean.dense(pz_t_mean)_layer_00.bias f4 [8]
00000000: 9558 853d 5c30 d4bc e558 54bd fd89 ee3d
00000010: 41a7 193f 4646 b53e 1292 f5ba 75a9 a23d
0.06511036 -0.025901966 -0.05184259 0.11647413 0.60020834 0.35405177 -0.0018735549 0.079424776

model.pz_t_logvar.dense(pz_t_logvar)_layer_00.weight f4 [2, 4]
00000000: 1678 e7bf cd51 16c0 7820 0cbe 606b 0ac0
00000010: 2dac f4bf 42ed 1cc0 0a22 eebe a045 05c0
-1.8083522 -2.3487427 -0.13684261 -2.1628036 -1.9115044 -2.451981 -0.46510345 -2.0823746

model.pz_t_logvar.dense(pz_t_logvar)_layer_00.bias f4 [2]
00000000: e9ee 26c0 f32e fbbf
-2.608332 -1.9623703

model.decoder.dense(decoder)_layer_00.weight f4 [10, 2]
00000000: e13b 193d d2a2 15bf 7e3a 59be 7ae7 083f
00000010: 1eff 253e 946b 1c3f b17c 913f 4b95 b7bc
00000020: 87d6 abbf e5e2 98be 12ec e13e 83c4 eabe
00000030: e71d 8d3f a110 173f d7f5 f73e 13d1 293f
00000040: f665 b6be 4ed5 26bf 1b20 82bf 33f5 203e
0.03741062 -0.5845157 -0.21213719 0.53478205 0.162106 0.6110165 1.1366178 -0.022410056
-1.3424844 -0.29860607 0.4412542 -0.45853052 1.102475 0.5900975 0.48429748 0.66334647
-0.35624665 -0.6516923 -1.0166048 0.15718536

model.decoder.dense(decoder)_layer_00.bias f4 [10]
00000000: 2c82 0b3e 60d3 c8bc 3537 82be 9b80 21bf
00000010: 7f2c 553f 60f5 febd 28f2 46bf 1b54 e6be
00000020: 6be5 bf3e a958 073f
0.13623875 -0.024514854 -0.25432745 -0.6308686 0.8327102 -0.12449145 -0.7771325 -0.44986042
0.3747972 0.5286966

inference.model.qy_x.model.tcn_block_00.conv0.bias f4 [2]
00000000: 3d99 3fbf 611f 0b3f
-0.748432 0.54344755

inference.model.qy_x.model.tcn_block_00.conv0.weight_g f4 [2, 1, 1]
00000000: 8304 593f ac4f e93f
0.8477251 1.8227439

inference.model.qy_x.model.tcn_block_00.conv0.weight_v f4 [2, 10, 9]
00000000: 8f45 5d3e eff7 8b3e 448d 243e 057f 16be
00000010: ed1a c5be 547a 47be 7871 58be 51e4 09be
00000020: f1d9 b3bd 5532 5fbc 180b 2a3e 17d7 ab3c
00000030: 0d59 14bd 20ad e33c bd5e 463e c740 573c
00000040: 489f 05bd 3c43 bc3d dc60 3dbe fa5a a03d
00000050: 9a2b 803d ee12 1d3e 3d59 463e 62a8 36be
00000060: 87e8 58bd 5d1f 473d 225b 313e 6634 1bbd
00000070: 9c1b fc3d fc3b 21be 0f72 0abd 5725 babd
00000080: 52db 18bd f107 a9bd c2a3 59bd e900 9a3d
00000090: c83c 6cbd dcb2 7c3d c727 9b3d 1a13 363d
000000a0: 46d7 a4bd d630 0cbe acf4 9e3d 1bc3 30bc
000000b0: 3cc9 0cbe 4615 4b3d 805d c83d 9ed6 183e
000000c0: 7869 5e3c 5e4f eebe 1e1a b0be fb16 2839
000000d0: 0d47 cbbd 8bfa 2dbd eeba 00bd b0f3 c7bc
000000e0: f70e 583d 7276 883c 7a5f 063d bb42 583d
000000f0: d3ba 2d3e 89bd 7c3e 9657 903e c507 29be
00000100: 5c81 87bd f1f2 8bbc 8048 e13c ec80 5f3b
00000110: d929 f63c c2ff 443e c4de c13d 863b 823e
00000120: 9357 6d3e aab2 163e affe d5bd 4b92 2fbe
00000130: b1e9 60be 98ef 30be 23b3 77bc cdf6 0c3a
00000140: 3659 47be 237f 93be f768 5abe bea5 31bd
00000150: 48d3 7c3d b092 ba3d eaf3 a03d df6e 163c
00000160: 69a9 17bc ccb1 aabd 4f10 b2bc 02d7 223d
00000170: 9b81 663d f35e ad3d 8132 8f3e 50e0 3bbc
00000180: f82d df3d e01a b1bc ce6c 5a3d db71 3b3d
00000190: a242 1d3d 5e48 dcbd 2430 84bd fe4f 373e
000001a0: 56c3 0fbc 282f 4a3d e122 893d 0760 36bd
000001b0: 58cd 70bd cf79 8bbd 3787 813c d8b9 503d
000001c0: 362d 2ebb 2cda ccbd 0bbe b3bc ce32 973d
000001d0: a777 d1bd 94dd 13be c191 223e 480e 813d
000001e0: d86d 1dbd e886 0dbd 1eba dc3d 89b6 71bd
000001f0: 0abd 933c aeba 69bc 7535 e43d e0f1 923b
00000200: 4eb4 05bf edbc 85be 1878 fcbd 6406 1fbe
00000210: c63a a93c 921b 473c 1d21 6c3e c49b 8c3c
00000220: 0b30 ff3c 928f 6b3d 8c54 5d3e 7ad7 eb3e
00000230: dac0 843e afaf fdbd a642 d9bd 7710 503d
00000240: 7579 413e a19c 653e f895 223e aaa6 663e
00000250: 1001 2d3e 5d69 9d3d 90cc 0d3d 349a 86bd
00000260: a026 b0be 0d53 723e cf03 853d 54ad 343d
00000270: 271a a5bd 7737 35bd cd20 0b3e 1deb 883d
00000280: 1e47 2d3d a7cf 87bd 8087 e7bd 9931 963d
00000290: d2f7 2f3a 025f 163e 3d93 00bd fb27 323d
000002a0: fc73 5a3e 0f7b 49be 0474 29bc 8e4a 8cbd
000002b0: 446e 003d 68db abbd afe4 76be b44b c7be
000002c0: 7a7b 47be ff0a 79bd a016 51bc 71d0 833e
0.21608566 0.27337596 0.16069514 -0.14696892 -0.38497105 -0.19480258 -0.21137035 -0.13466002
-0.087818034 -0.01362284 0.16605794 0.020976586 -0.036217738 0.027792513 0.19372077 0.013138003
-0.032622606 0.091925114 -0.1849398 0.078298524 0.06258316 0.15339252 0.19369979 -0.1783767
-0.05295613 0.048613895 0.1731992 -0.037891768 0.123099536 -0.15745538 -0.03380018 -0.09089153
-0.037318535 -0.08253468 -0.053134687 0.07519705 -0.057675153 0.06169401 0.07575946 0.04445181
-0.08048873 -0.13690504 0.07761511 -0.010788704 -0.1374864 0.049580835 0.09783459 0.1492562
0.01357495 -0.46544927 -0.34394926 0.0001603029 -0.09925661 -0.042475265 -0.03142827 -0.024408191
0.052748647 0.016658042 0.032805897 0.052798014 0.16965799 0.24681677 0.28191823 -0.1650687
-0.0661647 -0.017083617 0.027500391 0.0034103943 0.030049251 0.19238189 0.09466317 0.25436038
0.23177938 0.14716592 -0.10448968 -0.1714565 -0.21964146 -0.17278898 -0.015118393 0.00053773524
-0.19467625 -0.28807935 -0.21329103 -0.043370955 0.06172493 0.0911001 0.07859023 0.009181707
-0.009256699 -0.08334693 -0.021736292 0.03975583 0.056275945 0.08465376 0.2796822 -0.0114670545
0.1089744 -0.02161926 0.05332642 0.045762878 0.038393624 -0.107559904 -0.064544946 0.17901608
-0.008774599 0.049361378 0.06696106 -0.044525173 -0.05878958 -0.068103425 0.015811546 0.050958484
-0.002657724 -0.100025505 -0.021941205 0.07382737 -0.102279 -0.14439994 0.15875913 0.06301552
-0.038434833 -0.034552485 0.107776865 -0.05901197 0.018034477 -0.014265699 0.111430086 0.0044844
-0.5222825 -0.261207 -0.123275936 -0.15529782 0.020657908 0.012152569 0.23059507 0.017164119
0.031150838 0.057509966 0.21614283 0.46062833 0.25928384 -0.123870246 -0.10608415 0.050796952
0.18893988 0.2242303 0.15877521 0.22524515 0.16894937 0.07686112 0.034618914 -0.06572381
-0.3440447 0.23664494 0.06494867 0.04411061 -0.08061629 -0.04424235 0.13586731 0.06685469
0.04230415 -0.066314034 -0.113051414 0.07333679 0.00067126483 0.1468468 -0.031390417 0.04349516
0.21333307 -0.1967585 -0.010342602 -0.06850158 0.031355157 -0.08391458 -0.24110673 -0.38924944
-0.19480696 -0.060801502 -0.012761742 0.25744966

inference.model.qy_x.model.tcn_block_00.conv1.bias f4 [2]
00000000: 6af4 4fbd 9e43 08bf
-0.0507702 -0.53228176

inference.model.qy_x.model.tcn_block_00.conv1.weight_g f4 [2, 1, 1]
00000000: 9d59 4d3f 8a95 e13f
0.80214864 1.7623761

inference.model.qy_x.model.tcn_block_00.conv1.weight_v f4 [2, 2, 9]
00000000: d6b3 8a3d 87d3 ee3d c6b3 bf3e a559 f73e
00000010: 2e60 6b3e 50db d5bc 31ac 8abe e33c 02be
00000020: 70e6 03be 43f1 37bd d338 66be 7c87 22be
00000030: 7049 9dbd 8612 eb3d affd d43d c81d 523d
00000040: b5e8 42ba e1f7 fd3d 9674 053d c852 12bd
00000050: 145a e9bd ad7f 0bbe b5de 91bd 3b7c 163e
00000060: e871 903d df99 3a3e 29c4 a8bd 295b ee3e
00000070: fa0a 3c3e 74b2 913d 8ca0 d43d 2521 be3d
00000080: 5b3c f83b 7238 afbd ff84 80be 1845 ffbe
0.06772582 0.116614394 0.37441844 0.4831058 0.22985908 -0.026105553 -0.27084497 -0.12718539
-0.12880874 -0.04490782 -0.22482614 -0.15871996 -0.07680023 0.114781424 0.10399949 0.051297933
-0.0007435189 0.12400795 0.03258189 -0.035723478 -0.11394134 -0.13622923 -0.07122556 0.14695828
0.07052976 0.1822276 -0.082405396 0.46553925 0.18363562 0.07114115 0.103821844 0.092836656
0.0075755543 -0.08555688 -0.25101468 -0.49857402

inference.model.qy_x.model.tcn_block_00.block.conv1d_layer_0.bias f4 [2]
00000000: 3d99 3fbf 611f 0b3f
-0.748432 0.54344755

inference.model.qy_x.model.tcn_block_00.block.conv1d_layer_0.weight_g f4 [2, 1, 1]
00000000: 8304 593f ac4f e93f
0.8477251 1.8227439

inference.model.qy_x.model.tcn_block_00.block.conv1d_layer_0.weight_v f4 [2, 10, 9]
00000000: 8f45 5d3e eff7 8b3e 448d 243e 057f 16be
00000010: ed1a c5be 547a 47be 7871 58be 51e4 09be
00000020: f1d9 b3bd 5532 5fbc 180b 2a3e 17d7 ab3c
00000030: 0d59 14bd 20ad e33c bd5e 463e c740 573c
00000040: 489f 05bd 3c43 bc3d dc60 3dbe fa5a a03d
00000050: 9a2b 803d ee12 1d3e 3d59 463e 62a8 36be
00000060: 87e8 58bd 5d1f 473d 225b 313e 6634 1bbd
00000070: 9c1b fc3d fc3b 21be 0f72 0abd 5725 babd
00000080: 52db 18bd f107 a9bd c2a3 59bd e900 9a3d
00000090: c83c 6cbd dcb2 7c3d c727 9b3d 1a13 363d
000000a0: 46d7 a4bd d630 0cbe acf4 9e3d 1bc3 30bc
000000b0: 3cc9 0cbe 4615 4b3d 805d c83d 9ed6 183e
000000c0: 7869 5e3c 5e4f eebe 1e1a b0be fb16 2839
000000d0: 0d47 cbbd 8bfa 2dbd eeba 00bd b0f3 c7bc
000000e0: f70e 583d 7276 883c 7a5f 063d bb42 583d
000000f0: d3ba 2d3e 89bd 7c3e 9657 903e c507 29be
00000100: 5c81 87bd f1f2 8bbc 8048 e13c ec80 5f3b
00000110: d929 f63c c2ff 443e c4de c13d 863b 823e
00000120: 9357 6d3e aab2 163e affe d5bd 4b92 2fbe
00000130: b1e9 60be 98ef 30be 23b3 77bc cdf6 0c3a
00000140: 3659 47be 237f 93be f768 5abe bea5 31bd
00000150: 48d3 7c3d b092 ba3d eaf3 a03d df6e 163c
00000160: 69a9 17bc ccb1 aabd 4f10 b2bc 02d7 223d
00000170: 9b81 663d f35e ad3d 8132 8f3e 50e0 3bbc
00000180: f82d df3d e01a b1bc ce6c 5a3d db71 3b3d
00000190: a242 1d3d 5e48 dcbd 2430 84bd fe4f 373e
000001a0: 56c3 0fbc 282f 4a3d e122 893d 0760 36bd
000001b0: 58cd 70bd cf79 8bbd 3787 813c d8b9 503d
000001c0: 362d 2ebb 2cda ccbd 0bbe b3bc ce32 973d
000001d0: a777 d1bd 94dd 13be c191 223e 480e 813d
000001e0: d86d 1dbd e886 0dbd 1eba dc3d 89b6 71bd
000001f0: 0abd 933c aeba 69bc 7535 e43d e0f1 923b
00000200: 4eb4 05bf edbc 85be 1878 fcbd 6406 1fbe
00000210: c63a a93c 921b 473c 1d21 6c3e c49b 8c3c
00000220: 0b30 ff3c 928f 6b3d 8c54 5d3e 7ad7 eb3e
00000230: dac0 843e afaf fdbd a642 d9bd 7710 503d
00000240: 7579 413e a19c 653e f895 223e aaa6 663e
00000250: 1001 2d3e 5d69 9d3d 90cc 0d3d 349a 86bd
00000260: a026 b0be 0d53 723e cf03 853d 54ad 343d
00000270: 271a a5bd 7737 35bd cd20 0b3e 1deb 883d
00000280: 1e47 2d3d a7cf 87bd 8087 e7bd 9931 963d
00000290: d2f7 2f3a 025f 163e 3d93 00bd fb27 323d
000002a0: fc73 5a3e 0f7b 49be 0474 29bc 8e4a 8cbd
000002b0: 446e 003d 68db abbd afe4 76be b44b c7be
000002c0: 7a7b 47be ff0a 79bd a016 51bc 71d0 833e
0.21608566 0.27337596 0.16069514 -0.14696892 -0.38497105 -0.19480258 -0.21137035 -0.13466002
-0.087818034 -0.01362284 0.16605794 0.020976586 -0.036217738 0.027792513 0.19372077 0.013138003
-0.032622606 0.091925114 -0.1849398 0.078298524 0.06258316 0.15339252 0.19369979 -0.1783767
-0.05295613 0.048613895 0.1731992 -0.037891768 0.123099536 -0.15745538 -0.03380018 -0.09089153
-0.037318535 -0.08253468 -0.053134687 0.07519705 -0.057675153 0.06169401 0.07575946 0.04445181
-0.08048873 -0.13690504 0.07761511 -0.010788704 -0.1374864 0.049580835 0.09783459 0.1492562
0.01357495 -0.46544927 -0.34394926 0.0001603029 -0.09925661 -0.042475265 -0.03142827 -0.024408191
0.052748647 0.016658042 0.032805897 0.052798014 0.16965799 0.24681677 0.28191823 -0.1650687
-0.0661647 -0.017083617 0.027500391 0.0034103943 0.030049251 0.19238189 0.09466317 0.25436038
0.23177938 0.14716592 -0.10448968 -0.1714565 -0.21964146 -0.17278898 -0.015118393 0.00053773524
-0.19467625 -0.28807935 -0.21329103 -0.043370955 0.06172493 0.0911001 0.07859023 0.009181707
-0.009256699 -0.08334693 -0.021736292 0.03975583 0.056275945 0.08465376 0.2796822 -0.0114670545
0.1089744 -0.02161926 0.05332642 0.045762878 0.038393624 -0.107559904 -0.064544946 0.17901608
-0.008774599 0.049361378 0.06696106 -0.044525173 -0.05878958 -0.068103425 0.015811546 0.050958484
-0.002657724 -0.100025505 -0.021941205 0.07382737 -0.102279 -0.14439994 0.15875913 0.06301552
-0.038434833 -0.034552485 0.107776865 -0.05901197 0.018034477 -0.014265699 0.111430086 0.0044844
-0.5222825 -0.261207 -0.123275936 -0.15529782 0.020657908 0.012152569 0.23059507 0.017164119
0.031150838 0.057509966 0.21614283 0.46062833 0.25928384 -0.123870246 -0.10608415 0.050796952
0.18893988 0.2242303 0.15877521 0.22524515 0.16894937 0.07686112 0.034618914 -0.06572381
-0.3440447 0.23664494 0.06494867 0.04411061 -0.08061629 -0.04424235 0.13586731 0.06685469
0.04230415 -0.066314034 -0.113051414 0.07333679 0.00067126483 0.1468468 -0.031390417 0.04349516
0.21333307 -0.1967585 -0.010342602 -0.06850158 0.031355157 -0.08391458 -0.24110673 -0.38924944
-0.19480696 -0.060801502 -0.012761742 0.25744966

inference.model.qy_x.model.tcn_block_00.block.conv1d_layer_1.bias f4 [2]
00000000: 6af4 4fbd 9e43 08bf
-0.0507702 -0.53228176

inference.model.qy_x.model.tcn_block_00.block.conv1d_layer_1.weight_g f4 [2, 1, 1]
00000000: 9d59 4d3f 8a95 e13f
0.80214864 1.7623761
