results_gmdgm/ssm_v1/dtcn/kl_v11/version_0/best_val_model.pt (torch, 34951 bytes, 120 tensors)

model.qy_x.dense(qy_x)_layer_00.weight f4 [4, 10]
0	0xbbb50dfa	-0.005525348
1	0x3e7bc99c	0.24588627
2	0xbe1ad599	-0.15120544
3	0x3c8b621e	0.01701456
4	0xbe119e57	-0.14220558
5	0xbda5233e	-0.080633625
6	0x3d297730	0.04137343
7	0x3db7d2af	0.089757316
8	0xbd156e90	-0.036482394
9	0x3d0509d5	0.03248008
10	0xbbd72aa4	-0.0065663625
11	0x3e7ca897	0.24673687
12	0xbe1acf92	-0.15118244
13	0x3c87b610	0.016566306
14	0xbe09d46d	-0.1345994
15	0xbdbb5395	-0.091468014
16	0x3d5a3d13	0.0532809
17	0x3d9f36da	0.07774134
18	0xbd0dda0f	-0.034631785
19	0x3cbd2e70	0.023093432
20	0x3c3645d3	0.011125046
21	0x3e862c6e	0.26205772
22	0xbe1a381c	-0.15060467
23	0x3c848d95	0.016180793
24	0xbd2e89d0	-0.042611897
25	0xbd8b13ec	-0.06790909
26	0x3e21d0b0	0.15802264
27	0x3cf8f6b1	0.03039107
28	0xbd607d8a	-0.054807223
29	0x3bafdf34	0.005367184
30	0xbc8d4b88	-0.01724793
31	0x3e6d67f7	0.2318419
32	0xbe1b9285	-0.15192612
33	0x3c878194	0.01654128
34	0xbe66f723	-0.22555213
35	0xbe0403b1	-0.12892033
36	0xbcf9a11e	-0.030472334
37	0x3dd95e03	0.106136344
38	0xbc15da7e	-0.009146331
39	0x3d3e7c4d	0.04650526

model.qy_x.dense(qy_x)_layer_00.bias f4 [4]
0	0xbddc9484	-0.107705146
1	0xbddcd789	-0.107832976
2	0xbdde77b4	-0.10862675
3	0xbddac471	-0.106819995

model.encoder.model.tcn_block_00.conv0.bias f4 [2]
0	0xbeb4c549	-0.35306767
1	0xbd3ea034	-0.0465395

model.encoder.model.tcn_block_00.conv0.weight_g f4 [2, 1, 1]
0	0x3f5ba1a5	0.85793525
1	0x3f15e40e	0.5855111

model.encoder.model.tcn_block_00.conv0.weight_v f4 [2, 14, 9]
0	0xbe591794	-0.212004
1	0xbe056e09	-0.13030256
2	0xbcfd4dcd	-0.030920887
3	0x3d0f42bf	0.034975763
4	0x3d14014a	0.03613404
5	0x3daf19ef	0.08549868
6	0x3de94dbf	0.11391782
7	0x3dfe22f9	0.12409014
8	0x3e0417a9	0.1289965
9	0x3e56b084	0.20965773
10	0x3df3b6ad	0.11900077
11	0x3c836635	0.016039947
12	0xbc5b29ec	-0.013376694
13	0xbd8ddd6a	-0.06926997
14	0xbdce51c7	-0.100741915
15	0xbdbea1ad	-0.09308181
16	0xbdc40d5d	-0.09572861
17	0xbde4713b	-0.111544095
18	0x3e7364d4	0.23768932
19	0x3dbf4dc5	0.09341005
20	0x3d33041b	0.043705087
21	0xbc0584e0	-0.008149356
22	0xbb10f892	-0.0022120816
23	0xbd437f96	-0.047729097
24	0xbc7263f7	-0.014794341
25	0xbd02e052	-0.03195221
26	0xbdf0ec9c	-0.1176388
27	0xbe3571c0	-0.17719173
28	0x3d3f1b33	0.0466568
29	0xbb846496	-0.004040311
30	0xbc1f2e33	-0.009715605
31	0x3ca09e51	0.019606741
32	0xbc372bbe	-0.011179863
33	0xbdb0143f	-0.08597612
34	0x3d331178	0.04371783
35	0x3d09344e	0.033497147
36	0xbd3652f0	-0.04451269
37	0x3d2625d2	0.040563412
38	0x3cf2547f	0.029581307
39	0xbd64d634	-0.055868343
40	0x3cb7dacb	0.022443196
41	0x3c4caeed	0.012492877
42	0x3c843d42	0.016142491
43	0xbcc2c2e1	-0.023774566
44	0xbc1dee81	-0.009639383
45	0xbe373304	-0.17890555
46	0xbd76586c	-0.06014292
47	0xbbe4522b	-0.006967803
48	0x3d3ac49e	0.045597665
49	0x3d79179b	0.060813528
50	0x3d24d136	0.04023858
51	0x3d80d287	0.06290155
52	0x3dca5165	0.09878806
53	0x3dbef792	0.09324564
54	0x3d674dd9	0.056470726
55	0x3d307663	0.043081652
56	0x3da796f0	0.08183086
57	0x3d012d14	0.03153713
58	0xbd48fe40	-0.049070597
59	0xbd450061	-0.048096064
60	0xbdae4c0c	-0.085105985
61	0xbce5a1ea	-0.028031308
62	0xbd38083a	-0.04492972
63	0x3e0f8240	0.1401453
64	0x3dd70106	0.10498242
65	0x3d2c1d8e	0.042020373
66	0xbce7b8e9	-0.028286414
67	0xbba5182a	-0.005038281
68	0xbdbf3ac4	-0.093373805
69	0xbd0d79d0	-0.034539998
70	0xbd5fe6f6	-0.05466362
71	0xbe109931	-0.14120938
72	0xbe4f4644	-0.20241648
73	0xbdf171f7	-0.11789315
74	0xbcd566b9	-0.026049959
75	0x3cb94e33	0.022620296
76	0x3d07bd9f	0.03313982
77	0x3da5be07	0.080928855
78	0x3d5eb1ca	0.05436877
79	0x3de49c9a	0.11162682
80	0x3dee41c6	0.11633639
81	0x3d9399a2	0.072070375
82	0x3d1a8075	0.037720162
83	0x396444d2	0.00021769412
84	0xbbbd8046	-0.0057831137
85	0xbd2ecf21	-0.042678002
86	0xbcccc3b0	-0.024995655
87	0xbc5759cb	-0.013143967
88	0xbd5e826b	-0.054323595
89	0xbd37a472	-0.04483456
90	0x3c394e79	0.011310213
91	0xbd6aab53	-0.057292294
92	0x3c37050a	0.011170635
93	0xbe13e8cd	-0.14444275
94	0xbe1349e0	-0.1438365
95	0xbdd75125	-0.10513524
96	0x3d8308ab	0.06398138
97	0xbd092a94	-0.03348787
98	0xbd2e8ca0	-0.04261458
99	0xbdc36529	-0.09540779
100	0xbdb6b4c9	-0.08921201
101	0xbd98f758	-0.07469052
102	0x3e2d0d78	0.16899669
103	0xbe1cc81b	-0.15310709
104	0x3da1f434	0.07907906
105	0xbe821153	-0.25403842
106	0x3da2dbc0	0.0795207
107	0xbe0026a2	-0.12514737
108	0xbace16c2	-0.0015723335
109	0xbd790005	-0.060791034
110	0xbdbb9adb	-0.09160396
111	0xbe13dc92	-0.1443961
112	0x3e10e722	0.1415067
113	0xbe01dd61	-0.12682106
114	0xbd0d6f0d	-0.034529734
115	0xbe3cd1be	-0.18439385
116	0x3ca200db	0.019775799
117	0xbd85ef13	-0.065397404
118	0xbd658356	-0.056033455
119	0xbd891c9e	-0.066949114
120	0xbd8d1a4a	-0.0688978
121	0x3cc32bb7	0.023824556
122	0xbda24c3d	-0.079246975
123	0x3dabee0d	0.08395014
124	0xbe04bc4f	-0.12962459
125	0xbd39e190	-0.04538113
126	0x3db82c86	0.08992867
127	0xbd42a342	-0.047518976
128	0x3da15aa8	0.078786194
129	0x3ced82a9	0.028992968
130	0xbdb8691c	-0.09004423
131	0x3a6ed0e7	0.00091101084
132	0xbd8710d3	-0.06595006
133	0xbddef497	-0.108864956
134	0xbd76d59e	-0.060262315
135	0xbd95487c	-0.07289216
136	0x3d069096	0.03285273
137	0xbcfd5de2	-0.030928556
138	0x3d1fa11c	0.038972005
139	0x3ccbf362	0.024896327
140	0x3d9f6e73	0.077847384
141	0x3dab531a	0.0836546
142	0x3dbbe248	0.09174019
143	0x3dd88bea	0.105735615
144	0xbc31a992	-0.010843651
145	0x3d8c243b	0.06842848
146	0xbb2dcdf9	-0.0026520474
147	0x3c9e5f3f	0.019332526
148	0xbcf37543	-0.029719
149	0x3da80369	0.082037754
150	0x394b6eda	0.00019400884
151	0x3da8bb59	0.08238859
152	0x3d677abe	0.05651354
153	0x3d10a00c	0.035308883
154	0xbd94fcae	-0.07274757
155	0x3d22eaf3	0.039774846
156	0x3b4eb300	0.0031539798
157	0x3cf5b76f	0.029994695
158	0xbd58a432	-0.052890964
159	0xbd4105ad	-0.047124553
160	0xbdb587c7	-0.08863788
161	0xbc88cf91	-0.016700538
162	0xbdb2fdfe	-0.087398514
163	0x3d0f0a93	0.034922194
164	0xba824e90	-0.0009941626
165	0xbc859e03	-0.016310697
166	0xbadf7347	-0.0017047905
167	0x3bd05daa	0.006358822
168	0x3d40b666	0.04704895
169	0x3d27e251	0.040987317
170	0x3d8c5922	0.06852938
171	0x3d37fa08	0.044916183
172	0xbd42a13b	-0.047517043
173	0xbca79dae	-0.02046093
174	0x3db19bfa	0.08672328
175	0xbd8066a0	-0.06269574
176	0xbceeefd0	-0.029167086
177	0x3b8d9a9b	0.004321409
178	0xbda20392	-0.07910837
179	0xbde1f90a	-0.110338286
180	0xbd16a56e	-0.03677886
181	0x3dab010b	0.08349808
182	0xbcbe5e90	-0.02323845
183	0x3bc798c1	0.0060912077
184	0xbc00406f	-0.007827862
185	0xbbcb7e43	-0.00621012
186	0xbc14e049	-0.009086677
187	0x3d4bf72f	0.04979628
188	0xbc8b8f40	-0.01703608
189	0x3dca6298	0.098820865
190	0x3da14d24	0.078760415
191	0xbce2c7e3	-0.027683204
192	0x3d8b17a1	0.06791616
193	0xbcc60d92	-0.024176393
194	0x3ce15223	0.027504986
195	0x3d937f0d	0.072019674
196	0x3d98145a	0.07425757
197	0x3de84ee7	0.113431744
198	0xbd3d1adc	-0.046168193
199	0xbd347c63	-0.044063937
200	0x3c4779c0	0.012175024
201	0xbdc18806	-0.094497725
202	0x3ccb9f05	0.0248561
203	0xbe0c83b5	-0.13722117
204	0xbd494344	-0.049136415
205	0xbd9beef2	-0.076139346
206	0xbde0b49c	-0.109719485
207	0xbd42e730	-0.04758376
208	0x3d068fc2	0.032851942
209	0xbd4a1e78	-0.049345464
210	0xbd6bad6a	-0.057538427
211	0xbc36d43e	-0.011159001
212	0xbd09a156	-0.033601128
213	0x3db4b8a7	0.08824282
214	0x3d690f09	0.056899104
215	0x3d9555e4	0.07291773
216	0x3dea8183	0.11450484
217	0x3e2cb778	0.16866863
218	0x3dd27ac4	0.10277322
219	0x3d6cf49e	0.057850473
220	0x3e0022f1	0.12513329
221	0x3df2dac9	0.11858136
222	0x3dd8e831	0.10591162
223	0x3e1d900b	0.1538698
224	0x3de16242	0.11005069
225	0x3e161c37	0.146592
226	0x3db026cf	0.08601152
227	0x3e3b3766	0.18282852
228	0xbd36f80e	-0.044670157
229	0x3e1a9fd5	0.15100034
230	0x3df62a51	0.1201979
231	0x3d0880a8	0.03332582
232	0x3e43be1d	0.19115491
233	0x3cfea690	0.031085283
234	0x3e00c122	0.12573674
235	0x3e2ab0b1	0.16668965
236	0x3dd9b777	0.10630696
237	0x3d441fb3	0.047881793
238	0x3db6c854	0.08924928
239	0x3e2b967a	0.16756621
240	0x3d7588db	0.05994497
241	0x3e3d6009	0.18493666
242	0x3d8e8091	0.06958116
243	0x3e109611	0.14119746
244	0x3dcbbc8c	0.09948072
245	0x3e2f1bc2	0.17100433
246	0xbcbce894	-0.02306012
247	0x3e15afd2	0.14617851
248	0x3df255eb	0.11832794
249	0x3d8d34fc	0.068948716
250	0x3e2035fa	0.1564559
251	0x3d6b128f	0.057390746

model.encoder.model.tcn_block_00.conv1.bias f4 [2]
0	0x3cdc5c59	0.026899504
1	0x3f0de1c0	0.5542259

model.encoder.model.tcn_block_00.conv1.weight_g f4 [2, 1, 1]
0	0x3ecb641d	0.39724818
1	0x3f30f420	0.69122505

model.encoder.model.tcn_block_00.conv1.weight_v f4 [2, 2, 9]
0	0x3e07888a	0.1323568
1	0xbe193f24	-0.14965492
2	0xbe25e5f5	-0.16201003
3	0x3d107f0d	0.035277415
4	0xbe2fc063	-0.17163233
5	0x3d8cae16	0.06869142
6	0x3d1aba28	0.03777519
7	0xbe5b3fa7	-0.21411
8	0xbd48cb42	-0.049021967
9	0x3e0e0204	0.13867956
10	0x3de97e97	0.11401098
11	0xbce29bcf	-0.027662186
12	0xbe5073b9	-0.20356645
13	0xbd54e8c9	-0.051979814
14	0x3d1729af	0.036904987
15	0xbdebf819	-0.1152193
16	0x3cb1e35a	0.021714855
17	0x3d993242	0.07480289
18	0xbe77a39e	-0.24183509
19	0xbe669499	-0.22517623
20	0xbe6bab27	-0.23014508
21	0xbe58c7a8	-0.21169913
22	0xbe57e999	-0.21085204
23	0xbe502dd3	-0.2032998
24	0xbe632e7c	-0.22185701
25	0xbe523d20	-0.2053113
26	0x3a9320b8	0.0011224961
27	0xbbd7497e	-0.0065700402
28	0x3d408d1b	0.04700957
29	0x3d202e2c	0.039106533
30	0x3da195b3	0.07889881
31	0xbd686798	-0.05673942
32	0xbdf9644a	-0.12177332
33	0xbe09089a	-0.13382187
34	0x3e23ee40	0.16008854
35	0x3dcce667	0.10004883

model.encoder.model.tcn_block_00.block.conv1d_layer_0.bias f4 [2]
0	0xbeb4c549	-0.35306767
1	0xbd3ea034	-0.0465395

model.encoder.model.tcn_block_00.block.conv1d_layer_0.weight_g f4 [2, 1, 1]
0	0x3f5ba1a5	0.85793525
1	0x3f15e40e	0.5855111

model.encoder.model.tcn_block_00.block.conv1d_layer_0.weight_v f4 [2, 14, 9]
0	0xbe591794	-0.212004
1	0xbe056e09	-0.13030256
2	0xbcfd4dcd	-0.030920887
3	0x3d0f42bf	0.034975763
4	0x3d14014a	0.03613404
5	0x3daf19ef	0.08549868
6	0x3de94dbf	0.11391782
7	0x3dfe22f9	0.12409014
8	0x3e0417a9	0.1289965
9	0x3e56b084	0.20965773
10	0x3df3b6ad	0.11900077
11	0x3c836635	0.016039947
12	0xbc5b29ec	-0.013376694
13	0xbd8ddd6a	-0.06926997
14	0xbdce51c7	-0.100741915
15	0xbdbea1ad	-0.09308181
16	0xbdc40d5d	-0.09572861
17	0xbde4713b	-0.111544095
18	0x3e7364d4	0.23768932
19	0x3dbf4dc5	0.09341005
20	0x3d33041b	0.043705087
21	0xbc0584e0	-0.008149356
22	0xbb10f892	-0.0022120816
23	0xbd437f96	-0.047729097
24	0xbc7263f7	-0.014794341
25	0xbd02e052	-0.03195221
26	0xbdf0ec9c	-0.1176388
27	0xbe3571c0	-0.17719173
28	0x3d3f1b33	0.0466568
29	0xbb846496	-0.004040311
30	0xbc1f2e33	-0.009715605
31	0x3ca09e51	0.019606741
32	0xbc372bbe	-0.011179863
33	0xbdb0143f	-0.08597612
34	0x3d331178	0.04371783
35	0x3d09344e	0.033497147
36	0xbd3652f0	-0.04451269
37	0x3d2625d2	0.040563412
38	0x3cf2547f	0.029581307
39	0xbd64d634	-0.055868343
40	0x3cb7dacb	0.022443196
41	0x3c4caeed	0.012492877
42	0x3c843d42	0.016142491
43	0xbcc2c2e1	-0.023774566
44	0xbc1dee81	-0.009639383
45	0xbe373304	-0.17890555
46	0xbd76586c	-0.06014292
47	0xbbe4522b	-0.006967803
48	0x3d3ac49e	0.045597665
49	0x3d79179b	0.060813528
50	0x3d24d136	0.04023858
51	0x3d80d287	0.06290155
52	0x3dca5165	0.09878806
53	0x3dbef792	0.09324564
54	0x3d674dd9	0.056470726
55	0x3d307663	0.043081652
56	0x3da796f0	0.08183086
57	0x3d012d14	0.03153713
58	0xbd48fe40	-0.049070597
59	0xbd450061	-0.048096064
60	0xbdae4c0c	-0.085105985
61	0xbce5a1ea	-0.028031308
62	0xbd38083a	-0.04492972
63	0x3e0f8240	0.1401453
64	0x3dd70106	0.10498242
65	0x3d2c1d8e	0.042020373
66	0xbce7b8e9	-0.028286414
67	0xbba5182a	-0.005038281
68	0xbdbf3ac4	-0.093373805
69	0xbd0d79d0	-0.034539998
70	0xbd5fe6f6	-0.05466362
71	0xbe109931	-0.14120938
72	0xbe4f4644	-0.20241648
73	0xbdf171f7	-0.11789315
74	0xbcd566b9	-0.026049959
75	0x3cb94e33	0.022620296
76	0x3d07bd9f	0.03313982
77	0x3da5be07	0.080928855
78	0x3d5eb1ca	0.05436877
79	0x3de49c9a	0.11162682
80	0x3dee41c6	0.11633639
81	0x3d9399a2	0.072070375
82	0x3d1a8075	0.037720162
83	0x396444d2	0.00021769412
84	0xbbbd8046	-0.0057831137
85	0xbd2ecf21	-0.042678002
86	0xbcccc3b0	-0.024995655
87	0xbc5759cb	-0.013143967
88	0xbd5e826b	-0.054323595
89	0xbd37a472	-0.04483456
90	0x3c394e79	0.011310213
91	0xbd6aab53	-0.057292294
92	0x3c37050a	0.011170635
93	0xbe13e8cd	-0.14444275
94	0xbe1349e0	-0.1438365
95	0xbdd75125	-0.10513524
96	0x3d8308ab	0.06398138
97	0xbd092a94	-0.03348787
98	0xbd2e8ca0	-0.04261458
99	0xbdc36529	-0.09540779
100	0xbdb6b4c9	-0.08921201
101	0xbd98f758	-0.07469052
102	0x3e2d0d78	0.16899669
103	0xbe1cc81b	-0.15310709
104	0x3da1f434	0.07907906
105	0xbe821153	-0.25403842
106	0x3da2dbc0	0.0795207
107	0xbe0026a2	-0.12514737
108	0xbace16c2	-0.0015723335
109	0xbd790005	-0.060791034
110	0xbdbb9adb	-0.09160396
111	0xbe13dc92	-0.1443961
112	0x3e10e722	0.1415067
113	0xbe01dd61	-0.12682106
114	0xbd0d6f0d	-0.034529734
115	0xbe3cd1be	-0.18439385
116	0x3ca200db	0.019775799
117	0xbd85ef13	-0.065397404
118	0xbd658356	-0.056033455
119	0xbd891c9e	-0.066949114
120	0xbd8d1a4a	-0.0688978
121	0x3cc32bb7	0.023824556
122	0xbda24c3d	-0.079246975
123	0x3dabee0d	0.08395014
124	0xbe04bc4f	-0.12962459
125	0xbd39e190	-0.04538113
126	0x3db82c86	0.08992867
127	0xbd42a342	-0.047518976
128	0x3da15aa8	0.078786194
129	0x3ced82a9	0.028992968
130	0xbdb8691c	-0.09004423
131	0x3a6ed0e7	0.00091101084
132	0xbd8710d3	-0.06595006
133	0xbddef497	-0.108864956
134	0xbd76d59e	-0.060262315
135	0xbd95487c	-0.07289216
136	0x3d069096	0.03285273
137	0xbcfd5de2	-0.030928556
138	0x3d1fa11c	0.038972005
139	0x3ccbf362	0.024896327
140	0x3d9f6e73	0.077847384
141	0x3dab531a	0.0836546
142	0x3dbbe248	0.09174019
143	0x3dd88bea	0.105735615
144	0xbc31a992	-0.010843651
145	0x3d8c243b	0.06842848
146	0xbb2dcdf9	-0.0026520474
147	0x3c9e5f3f	0.019332526
148	0xbcf37543	-0.029719
149	0x3da80369	0.082037754
150	0x394b6eda	0.00019400884
151	0x3da8bb59	0.08238859
152	0x3d677abe	0.05651354
153	0x3d10a00c	0.035308883
154	0xbd94fcae	-0.07274757
155	0x3d22eaf3	0.039774846
156	0x3b4eb300	0.0031539798
157	0x3cf5b76f	0.029994695
158	0xbd58a432	-0.052890964
159	0xbd4105ad	-0.047124553
160	0xbdb587c7	-0.08863788
161	0xbc88cf91	-0.016700538
162	0xbdb2fdfe	-0.087398514
163	0x3d0f0a93	0.034922194
164	0xba824e90	-0.0009941626
165	0xbc859e03	-0.016310697
166	0xbadf7347	-0.0017047905
167	0x3bd05daa	0.006358822
168	0x3d40b666	0.04704895
169	0x3d27e251	0.040987317
170	0x3d8c5922	0.06852938
171	0x3d37fa08	0.044916183
172	0xbd42a13b	-0.047517043
173	0xbca79dae	-0.02046093
174	0x3db19bfa	0.08672328
175	0xbd8066a0	-0.06269574
176	0xbceeefd0	-0.029167086
177	0x3b8d9a9b	0.004321409
178	0xbda20392	-0.07910837
179	0xbde1f90a	-0.110338286
180	0xbd16a56e	-0.03677886
181	0x3dab010b	0.08349808
182	0xbcbe5e90	-0.02323845
183	0x3bc798c1	0.0060912077
184	0xbc00406f	-0.007827862
185	0xbbcb7e43	-0.00621012
186	0xbc14e049	-0.009086677
187	0x3d4bf72f	0.04979628
188	0xbc8b8f40	-0.01703608
189	0x3dca6298	0.098820865
190	0x3da14d24	0.078760415
191	0xbce2c7e3	-0.027683204
192	0x3d8b17a1	0.06791616
193	0xbcc60d92	-0.024176393
194	0x3ce15223	0.027504986
195	0x3d937f0d	0.072019674
196	0x3d98145a	0.07425757
197	0x3de84ee7	0.113431744
198	0xbd3d1adc	-0.046168193
199	0xbd347c63	-0.044063937
200	0x3c4779c0	0.012175024
201	0xbdc18806	-0.094497725
202	0x3ccb9f05	0.0248561
203	0xbe0c83b5	-0.13722117
204	0xbd494344	-0.049136415
205	0xbd9beef2	-0.076139346
206	0xbde0b49c	-0.109719485
207	0xbd42e730	-0.04758376
208	0x3d068fc2	0.032851942
209	0xbd4a1e78	-0.049345464
210	0xbd6bad6a	-0.057538427
211	0xbc36d43e	-0.011159001
212	0xbd09a156	-0.033601128
213	0x3db4b8a7	0.08824282
214	0x3d690f09	0.056899104
215	0x3d9555e4	0.07291773
216	0x3dea8183	0.11450484
217	0x3e2cb778	0.16866863
218	0x3dd27ac4	0.10277322
219	0x3d6cf49e	0.057850473
220	0x3e0022f1	0.12513329
221	0x3df2dac9	0.11858136
222	0x3dd8e831	0.10591162
223	0x3e1d900b	0.1538698
224	0x3de16242	0.11005069
225	0x3e161c37	0.146592
226	0x3db026cf	0.08601152
227	0x3e3b3766	0.18282852
228	0xbd36f80e	-0.044670157
229	0x3e1a9fd5	0.15100034
230	0x3df62a51	0.1201979
231	0x3d0880a8	0.03332582
232	0x3e43be1d	0.19115491
233	0x3cfea690	0.031085283
234	0x3e00c122	0.12573674
235	0x3e2ab0b1	0.16668965
236	0x3dd9b777	0.10630696
237	0x3d441fb3	0.047881793
238	0x3db6c854	0.08924928
239	0x3e2b967a	0.16756621
240	0x3d7588db	0.05994497
241	0x3e3d6009	0.18493666
242	0x3d8e8091	0.06958116
243	0x3e109611	0.14119746
244	0x3dcbbc8c	0.09948072
245	0x3e2f1bc2	0.17100433
246	0xbcbce894	-0.02306012
247	0x3e15afd2	0.14617851
248	0x3df255eb	0.11832794
249	0x3d8d34fc	0.068948716
250	0x3e2035fa	0.1564559
251	0x3d6b128f	0.057390746

model.encoder.model.tcn_block_00.block.conv1d_layer_1.bias f4 [2]
0	0x3cdc5c59	0.026899504
1	0x3f0de1c0	0.5542259

model.encoder.model.tcn_block_00.block.conv1d_layer_1.weight_g f4 [2, 1, 1]
0	0x3ecb641d	0.39724818
1	0x3f30f420	0.69122505

model.encoder.model.tcn_block_00.block.conv1d_layer_1.weight_v f4 [2, 2, 9]
0	0x3e07888a	0.1323568
1	0xbe193f24	-0.14965492
2	0xbe25e5f5	-0.16201003
3	0x3d107f0d	0.035277415
4	0xbe2fc063	-0.17163233
5	0x3d8cae16	0.06869142
6	0x3d1aba28	0.03777519
7	0xbe5b3fa7	-0.21411
8	0xbd48cb42	-0.049021967
9	0x3e0e0204	0.13867956
10	0x3de97e97	0.11401098
11	0xbce29bcf	-0.027662186
12	0xbe5073b9	-0.20356645
13	0xbd54e8c9	-0.051979814
14	0x3d1729af	0.036904987
15	0xbdebf819	-0.1152193
16	0x3cb1e35a	0.021714855
17	0x3d993242	0.07480289
18	0xbe77a39e	-0.24183509
19	0xbe669499	-0.22517623
20	0xbe6bab27	-0.23014508
21	0xbe58c7a8	-0.21169913
22	0xbe57e999	-0.21085204
23	0xbe502dd3	-0.2032998
24	0xbe632e7c	-0.22185701
25	0xbe523d20	-0.2053113
26	0x3a9320b8	0.0011224961
27	0xbbd7497e	-0.0065700402
28	0x3d408d1b	0.04700957
29	0x3d202e2c	0.039106533
30	0x3da195b3	0.07889881
31	0xbd686798	-0.05673942
32	0xbdf9644a	-0.12177332
33	0xbe09089a	-0.13382187
34	0x3e23ee40	0.16008854
35	0x3dcce667	0.10004883

model.encoder.model.tcn_block_00.downsample.weight f4 [2, 14, 1]
0	0xbe5e05f8	-0.21681964
1	0x3e199b05	0.15000542
2	0x3e44471b	0.1916775
3	0x3d4b564f	0.049642857
4	0xbe10f53c	-0.1415605
5	0xbdf3823f	-0.11890077
6	0x3e8f4806	0.27984637
7	0x3eaaf758	0.33391833
8	0xbe8e9a47	-0.2785208
9	0xbc1b9790	-0.009496585
10	0x3fb34349	1.4004909
11	0x3fb3a9c9	1.4036189
12	0x3fb3a523	1.4034771
13	0x3fb422c2	1.4073107
14	0x3ea6dea5	0.3259174
15	0xbeb3dc9e	-0.35129255
16	0xbdbde3f6	-0.09271996
17	0x3f0812be	0.531536
18	0xbf14bf74	-0.58104634
19	0x3edc5bc6	0.43038768
20	0x3f09ff30	0.5390501
21	0x3d18affc	0.037277207
22	0x3d7fb8b5	0.06243201
23	0xbf0d2291	-0.5513087
24	0x3fb695a4	1.4264417
25	0x3fb7f897	1.4372739
26	0x3fb60761	1.4221002
27	0x3fb7fadf	1.4373435

model.encoder.model.tcn_block_00.downsample.bias f4 [2]
0	0x3fcaaf1b	1.5834688
1	0x3fda6c22	1.706425

model.encoder.model.tcn_block_01.conv0.bias f4 [2]
0	0x3e51de17	0.20494877
1	0x3f0fcd35	0.56172496

model.encoder.model.tcn_block_01.conv0.weight_g f4 [2, 1, 1]
0	0x3f1d3963	0.6141569
1	0x3f53256b	0.8247897

model.encoder.model.tcn_block_01.conv0.weight_v f4 [2, 2, 9]
0	0x3ea7113d	0.3263034
1	0x3ea51eb1	0.32249978
2	0x3dd2f235	0.103001036
3	0x3df03e97	0.11730688
4	0xbe52da02	-0.20590976
5	0xbd73eb76	-0.059550725
6	0xbe3a9b34	-0.18223268
7	0xbe906a4c	-0.28206098
8	0xbe855525	-0.26041523
9	0xbdf6807b	-0.120362245
10	0xbe1be47f	-0.15223883
11	0xbc9d0db7	-0.019171579
12	0x3d3b09e6	0.045663737
13	0xbdb01e2a	-0.08599503
14	0x3d1b8465	0.03796806
15	0x3dbca8b4	0.09211865
16	0x3e12f60e	0.14351675
17	0xbd88052d	-0.06641612
18	0x3eb33c68	0.35007024
19	0x3e1d2b8b	0.15348642
20	0xbca44e87	-0.020056976
21	0x3d81cc4c	0.06337795
22	0x3e174e5e	0.14775988
23	0x3d0de61c	0.034643278
24	0xbe16035c	-0.14649719
25	0xbe3fe272	-0.18738726
26	0xbe99f460	-0.30069256
27	0x3d98b7a7	0.07456904
28	0xbdb58817	-0.08863848
29	0xbe0bc1e3	-0.1364818
30	0x3b2e2ae3	0.0026575855
31	0x3db4a688	0.08820826
32	0xbe3b3182	-0.18280604
33	0x3e0907ec	0.13381928
34	0x3c730138	0.014831834
35	0xbe342a7d	-0.17594333

model.encoder.model.tcn_block_01.conv1.bias f4 [2]
0	0x3cdf521d	0.027260834
1	0x3dc8f45c	0.09812233

model.encoder.model.tcn_block_01.conv1.weight_g f4 [2, 1, 1]
0	0x3ead2074	0.33813822
1	0x3f505a39	0.8138767

model.encoder.model.tcn_block_01.conv1.weight_v f4 [2, 2, 9]
0	0xbe0040f8	-0.12524784
1	0xbc03dcc8	-0.008048244
2	0x3e07ff8c	0.13281077
3	0xbe41482b	-0.18875186
4	0x3e286f8d	0.16448803
5	0x3e05f2d7	0.13080917
6	0x3e1ae960	0.15128088
7	0xbe35e8c6	-0.17764577
8	0x3e780e66	0.24224243
9	0xbe08432a	-0.13306871
10	0x3e9714bb	0.29508004
11	0xbe6e47a5	-0.23269518
12	0xbe4c72c3	-0.19965653
13	0x3e4b1dca	0.19835582
14	0x3d91b59e	0.07114719
15	0x3dad05b6	0.08448355
16	0xbd998e6d	-0.07497869
17	0xbcb86328	-0.022508219
18	0x3d586a9e	0.052836053
19	0xbd2fc4c2	-0.042912252
20	0x3d5187e3	0.051154982
21	0x3d66341f	0.05620205
22	0x3d82b51f	0.06382202
23	0x3daf0380	0.085455894
24	0x3dd3c4b8	0.103402555
25	0x3d881edb	0.0664651
26	0x3cf0e27e	0.029404875
27	0x3e718ce3	0.235889
28	0x3e523ddc	0.2053141
29	0x3e364eb2	0.17803457
30	0x3e56637f	0.20936392
31	0x3e513130	0.2042892
32	0x3e5a8999	0.21341552
33	0x3e3ab52b	0.18233173
34	0x3e42e4dd	0.19032617
35	0x3ddfac00	0.10921478

model.encoder.model.tcn_block_01.block.conv1d_layer_0.bias f4 [2]
0	0x3e51de17	0.20494877
1	0x3f0fcd35	0.56172496

model.encoder.model.tcn_block_01.block.conv1d_layer_0.weight_g f4 [2, 1, 1]
0	0x3f1d3963	0.6141569
1	0x3f53256b	0.8247897

model.encoder.model.tcn_block_01.block.conv1d_layer_0.weight_v f4 [2, 2, 9]
0	0x3ea7113d	0.3263034
1	0x3ea51eb1	0.32249978
2	0x3dd2f235	0.103001036
3	0x3df03e97	0.11730688
4	0xbe52da02	-0.20590976
5	0xbd73eb76	-0.059550725
6	0xbe3a9b34	-0.18223268
7	0xbe906a4c	-0.28206098
8	0xbe855525	-0.26041523
9	0xbdf6807b	-0.120362245
10	0xbe1be47f	-0.15223883
11	0xbc9d0db7	-0.019171579
12	0x3d3b09e6	0.045663737
13	0xbdb01e2a	-0.08599503
14	0x3d1b8465	0.03796806
15	0x3dbca8b4	0.09211865
16	0x3e12f60e	0.14351675
17	0xbd88052d	-0.06641612
18	0x3eb33c68	0.35007024
19	0x3e1d2b8b	0.15348642
20	0xbca44e87	-0.020056976
21	0x3d81cc4c	0.06337795
22	0x3e174e5e	0.14775988
23	0x3d0de61c	0.034643278
24	0xbe16035c	-0.14649719
25	0xbe3fe272	-0.18738726
26	0xbe99f460	-0.30069256
27	0x3d98b7a7	0.07456904
28	0xbdb58817	-0.08863848
29	0xbe0bc1e3	-0.1364818
30	0x3b2e2ae3	0.0026575855
31	0x3db4a688	0.08820826
32	0xbe3b3182	-0.18280604
33	0x3e0907ec	0.13381928
34	0x3c730138	0.014831834
35	0xbe342a7d	-0.17594333

model.encoder.model.tcn_block_01.block.conv1d_layer_1.bias f4 [2]
0	0x3cdf521d	0.027260834
1	0x3dc8f45c	0.09812233

model.encoder.model.tcn_block_01.block.conv1d_layer_1.weight_g f4 [2, 1, 1]
0	0x3ead2074	0.33813822
1	0x3f505a39	0.8138767

model.encoder.model.tcn_block_01.block.conv1d_layer_1.weight_v f4 [2, 2, 9]
0	0xbe0040f8	-0.12524784
1	0xbc03dcc8	-0.008048244
2	0x3e07ff8c	0.13281077
3	0xbe41482b	-0.18875186
4	0x3e286f8d	0.16448803
5	0x3e05f2d7	0.13080917
6	0x3e1ae960	0.15128088
7	0xbe35e8c6	-0.17764577
8	0x3e780e66	0.24224243
9	0xbe08432a	-0.13306871
10	0x3e9714bb	0.29508004
11	0xbe6e47a5	-0.23269518
12	0xbe4c72c3	-0.19965653
13	0x3e4b1dca	0.19835582
14	0x3d91b59e	0.07114719
15	0x3dad05b6	0.08448355
16	0xbd998e6d	-0.07497869
17	0xbcb86328	-0.022508219
18	0x3d586a9e	0.052836053
19	0xbd2fc4c2	-0.042912252
20	0x3d5187e3	0.051154982
21	0x3d66341f	0.05620205
22	0x3d82b51f	0.06382202
23	0x3daf0380	0.085455894
24	0x3dd3c4b8	0.103402555
25	0x3d881edb	0.0664651
26	0x3cf0e27e	0.029404875
27	0x3e718ce3	0.235889
28	0x3e523ddc	0.2053141
29	0x3e364eb2	0.17803457
30	0x3e56637f	0.20936392
31	0x3e513130	0.2042892
32	0x3e5a8999	0.21341552
33	0x3e3ab52b	0.18233173
34	0x3e42e4dd	0.19032617
35	0x3ddfac00	0.10921478

model.qz_xy_mean.dense(qz_xy_mean)_layer_00.weight f4 [2, 2]
0	0x3f563d19	0.8368698
1	0xbe4ffb5c	-0.2031073
2	0xbdaa96dd	-0.08329556
3	0xbedb479f	-0.4282808

model.qz_xy_mean.dense(qz_xy_mean)_layer_00.bias f4 [2]
0	0xbef532b3	-0.47890243
1	0x3f44a304	0.7681124

model.qz_xy_logvar.dense(qz_xy_logvar)_layer_00.weight f4 [2, 2]
0	0xbfccd626	-1.6002853
1	0xbf648981	-0.89272314
2	0xbf8cdf09	-1.1005565
3	0xbf0d3053	-0.5515186

model.qz_xy_logvar.dense(qz_xy_logvar)_layer_00.bias f4 [2]
0	0xbd532045	-0.051544446
1	0xbfa4f4aa	-1.2887166

model.py_t_probs.dense(py_t_probs)_layer_00.weight f4 [4, 2]
0	0x3e5e1fcf	0.21691822
1	0xbe13ad83	-0.14421658
2	0x3e5f077d	0.217802
3	0xbe1559cc	-0.14585036
4	0x3e637ff4	0.22216779
5	0xbe1c746d	-0.15278788
6	0x3e563740	0.20919514
7	0xbe0765fa	-0.13222495

model.py_t_probs.dense(py_t_probs)_layer_00.bias f4 [4]
0	0xbd99a1a2	-0.07501532
1	0xbda15a45	-0.07878546
2	0xbdc42207	-0.09576803
3	0xbd3be398	-0.045871347

model.pz_t_mean.dense(pz_t_mean)_layer_00.weight f4 [8, 2]
0	0x3f786496	0.9702848
1	0x3da5779c	0.08079454
2	0xbd165ed7	-0.03671154
3	0x3f800fc6	1.0004814
4	0x3f7881c7	0.97073025
5	0x3d9eed41	0.07760096
6	0xbd100531	-0.0351612
7	0x3f80dd58	1.0067549
8	0x3f7919a1	0.9730473
9	0x3d9f1529	0.07767708
10	0xbd1cc1e4	-0.038270846
11	0x3f8071c9	1.0034724
12	0x3f787932	0.9705993
13	0x3d9f3f82	0.07775785
14	0xbd15b959	-0.036553714
15	0x3f80eff2	1.0073225

model.pz_t_mean.dense(pz_t_mean)_layer_00.bias f4 [8]
0	0x3e068b3c	0.13139051
1	0x3d521c82	0.05129672
2	0x3e044e27	0.12920438
3	0x3d566130	0.05233878
4	0x3e0114c0	0.12605572
5	0x3d62f024	0.055404797
6	0x3e0010b2	0.12506369
7	0x3d57855d	0.05261742

model.pz_t_logvar.dense(pz_t_logvar)_layer_00.weight f4 [2, 4]
0	0xbffa7cea	-1.9569371
1	0xc000ced3	-2.0126235
2	0xc003f9ee	-2.0621295
3	0xbffc729b	-1.9722475
4	0xbfd38a7e	-1.652664
5	0xbfe14252	-1.7598364
6	0xbfe096b6	-1.7545993
7	0xbfd9b3b5	-1.7007967

model.pz_t_logvar.dense(pz_t_logvar)_layer_00.bias f4 [2]
0	0xbfce3b37	-1.6111821
1	0xbff60146	-1.9219139

model.decoder.dense(decoder)_layer_00.weight f4 [10, 2]
0	0xbf2f1c29	-0.68402344
1	0xbdcaf3f4	-0.099098116
2	0x3f208d4f	0.6271562
3	0x3e78ac8d	0.24284573
4	0x3f3295c6	0.69759786
5	0xbd2c37f4	-0.04204555
6	0xbd820acb	-0.06349715
7	0xbf6d6c3d	-0.92743284
8	0xbe980d96	-0.29697865
9	0x3f853394	1.0406365
10	0xbf0c6c5c	-0.54852843
11	0xbed4cd3a	-0.41562825
12	0x3f25bdcf	0.6474275
13	0xbf50a2ac	-0.8149822
14	0x3f4309f0	0.7618704
15	0xbea34f33	-0.31896362
16	0xbf406874	-0.7515938
17	0x3e5c0b4f	0.21488689
18	0x3e6410e4	0.22272068
19	0x3f557b36	0.8339113

model.decoder.dense(decoder)_layer_00.bias f4 [10]
0	0x3f40eb6b	0.7535922
1	0xbf02da90	-0.5111475
2	0xbf6cc0c4	-0.92481637
3	0xbf7ddf4c	-0.9916885
4	0x3fc9a71c	1.5754123
5	0x3e5b0377	0.2138804
6	0xbfe139cb	-1.7595762
7	0xbfab28d4	-1.3371835
8	0x3f9a04a3	1.2032665
9	0x3f2e3ac4	0.6805842

inference.model.qy_x.dense(qy_x)_layer_00.weight f4 [4, 10]
0	0xbbb50dfa	-0.005525348
1	0x3e7bc99c	0.24588627
2	0xbe1ad599	-0.15120544
3	0x3c8b621e	0.01701456
4	0xbe119e57	-0.14220558
5	0xbda5233e	-0.080633625
6	0x3d297730	0.04137343
7	0x3db7d2af	0.089757316
8	0xbd156e90	-0.036482394
9	0x3d0509d5	0.03248008
10	0xbbd72aa4	-0.0065663625
11	0x3e7ca897	0.24673687
12	0xbe1acf92	-0.15118244
13	0x3c87b610	0.016566306
14	0xbe09d46d	-0.1345994
15	0xbdbb5395	-0.091468014
16	0x3d5a3d13	0.0532809
17	0x3d9f36da	0.07774134
18	0xbd0dda0f	-0.034631785
19	0x3cbd2e70	0.023093432
20	0x3c3645d3	0.011125046
21	0x3e862c6e	0.26205772
22	0xbe1a381c	-0.15060467
23	0x3c848d95	0.016180793
24	0xbd2e89d0	-0.042611897
25	0xbd8b13ec	-0.06790909
26	0x3e21d0b0	0.15802264
27	0x3cf8f6b1	0.03039107
28	0xbd607d8a	-0.054807223
29	0x3bafdf34	0.005367184
30	0xbc8d4b88	-0.01724793
31	0x3e6d67f7	0.2318419
32	0xbe1b9285	-0.15192612
33	0x3c878194	0.01654128
34	0xbe66f723	-0.22555213
35	0xbe0403b1	-0.12892033
36	0xbcf9a11e	-0.030472334
37	0x3dd95e03	0.106136344
38	0xbc15da7e	-0.009146331
39	0x3d3e7c4d	0.04650526

inference.model.qy_x.dense(qy_x)_layer_00.bias f4 [4]
0	0xbddc9484	-0.107705146
1	0xbddcd789	-0.107832976
2	0xbdde77b4	-0.10862675
3	0xbddac471	-0.106819995

inference.model.encoder.model.tcn_block_00.conv0.bias f4 [2]
0	0xbeb4c549	-0.35306767
1	0xbd3ea034	-0.0465395

inference.model.encoder.model.tcn_block_00.conv0.weight_g f4 [2, 1, 1]
0	0x3f5ba1a5	0.85793525
1	0x3f15e40e	0.5855111

inference.model.encoder.model.tcn_block_00.conv0.weight_v f4 [2, 14, 9]
0	0xbe591794	-0.212004
1	0xbe056e09	-0.13030256
2	0xbcfd4dcd	-0.030920887
3	0x3d0f42bf	0.034975763
4	0x3d14014a	0.03613404
5	0x3daf19ef	0.08549868
6	0x3de94dbf	0.11391782
7	0x3dfe22f9	0.12409014
8	0x3e0417a9	0.1289965
9	0x3e56b084	0.20965773
10	0x3df3b6ad	0.11900077
11	0x3c836635	0.016039947
12	0xbc5b29ec	-0.013376694
13	0xbd8ddd6a	-0.06926997
14	0xbdce51c7	-0.100741915
15	0xbdbea1ad	-0.09308181
16	0xbdc40d5d	-0.09572861
17	0xbde4713b	-0.111544095
18	0x3e7364d4	0.23768932
19	0x3dbf4dc5	0.09341005
20	0x3d33041b	0.043705087
21	0xbc0584e0	-0.008149356
22	0xbb10f892	-0.0022120816
23	0xbd437f96	-0.047729097
24	0xbc7263f7	-0.014794341
25	0xbd02e052	-0.03195221
26	0xbdf0ec9c	-0.1176388
27	0xbe3571c0	-0.17719173
28	0x3d3f1b33	0.0466568
29	0xbb846496	-0.004040311
30	0xbc1f2e33	-0.009715605
31	0x3ca09e51	0.019606741
32	0xbc372bbe	-0.011179863
33	0xbdb0143f	-0.08597612
34	0x3d331178	0.04371783
35	0x3d09344e	0.033497147
36	0xbd3652f0	-0.04451269
37	0x3d2625d2	0.040563412
38	0x3cf2547f	0.029581307
39	0xbd64d634	-0.055868343
40	0x3cb7dacb	0.022443196
41	0x3c4caeed	0.012492877
42	0x3c843d42	0.016142491
43	0xbcc2c2e1	-0.023774566
44	0xbc1dee81	-0.009639383
45	0xbe373304	-0.17890555
46	0xbd76586c	-0.06014292
47	0xbbe4522b	-0.006967803
48	0x3d3ac49e	0.045597665
49	0x3d79179b	0.060813528
50	0x3d24d136	0.04023858
51	0x3d80d287	0.06290155
52	0x3dca5165	0.09878806
53	0x3dbef792	0.09324564
54	0x3d674dd9	0.056470726
55	0x3d307663	0.043081652
56	0x3da796f0	0.08183086
57	0x3d012d14	0.03153713
58	0xbd48fe40	-0.049070597
59	0xbd450061	-0.048096064
60	0xbdae4c0c	-0.085105985
61	0xbce5a1ea	-0.028031308
62	0xbd38083a	-0.04492972
63	0x3e0f8240	0.1401453
64	0x3dd70106	0.10498242
65	0x3d2c1d8e	0.042020373
66	0xbce7b8e9	-0.028286414
67	0xbba5182a	-0.005038281
68	0xbdbf3ac4	-0.093373805
69	0xbd0d79d0	-0.034539998
70	0xbd5fe6f6	-0.05466362
71	0xbe109931	-0.14120938
72	0xbe4f4644	-0.20241648
73	0xbdf171f7	-0.11789315
74	0xbcd566b9	-0.026049959
75	0x3cb94e33	0.022620296
76	0x3d07bd9f	0.03313982
77	0x3da5be07	0.080928855
78	0x3d5eb1ca	0.05436877
79	0x3de49c9a	0.11162682
80	0x3dee41c6	0.11633639
81	0x3d9399a2	0.072070375
82	0x3d1a8075	0.037720162
83	0x396444d2	0.00021769412
84	0xbbbd8046	-0.0057831137
85	0xbd2ecf21	-0.042678002
86	0xbcccc3b0	-0.024995655
87	0xbc5759cb	-0.013143967
88	0xbd5e826b	-0.054323595
89	0xbd37a472	-0.04483456
90	0x3c394e79	0.011310213
91	0xbd6aab53	-0.057292294
92	0x3c37050a	0.011170635
93	0xbe13e8cd	-0.14444275
94	0xbe1349e0	-0.1438365
95	0xbdd75125	-0.10513524
96	0x3d8308ab	0.06398138
97	0xbd092a94	-0.03348787
98	0xbd2e8ca0	-0.04261458
99	0xbdc36529	-0.09540779
100	0xbdb6b4c9	-0.08921201
101	0xbd98f758	-0.07469052
102	0x3e2d0d78	0.16899669
103	0xbe1cc81b	-0.15310709
104	0x3da1f434	0.07907906
105	0xbe821153	-0.25403842
106	0x3da2dbc0	0.0795207
107	0xbe0026a2	-0.12514737
108	0xbace16c2	-0.0015723335
109	0xbd790005	-0.060791034
110	0xbdbb9adb	-0.09160396
111	0xbe13dc92	-0.1443961
112	0x3e10e722	0.1415067
113	0xbe01dd61	-0.12682106
114	0xbd0d6f0d	-0.034529734
115	0xbe3cd1be	-0.18439385
116	0x3ca200db	0.019775799
117	0xbd85ef13	-0.065397404
118	0xbd658356	-0.056033455
119	0xbd891c9e	-0.066949114
120	0xbd8d1a4a	-0.0688978
121	0x3cc32bb7	0.023824556
122	0xbda24c3d	-0.079246975
123	0x3dabee0d	0.08395014
124	0xbe04bc4f	-0.12962459
125	0xbd39e190	-0.04538113
126	0x3db82c86	0.08992867
127	0xbd42a342	-0.047518976
128	0x3da15aa8	0.078786194
129	0x3ced82a9	0.028992968
130	0xbdb8691c	-0.09004423
131	0x3a6ed0e7	0.00091101084
132	0xbd8710d3	-0.06595006
133	0xbddef497	-0.108864956
134	0xbd76d59e	-0.060262315
135	0xbd95487c	-0.07289216
136	0x3d069096	0.03285273
137	0xbcfd5de2	-0.030928556
138	0x3d1fa11c	0.038972005
139	0x3ccbf362	0.024896327
140	0x3d9f6e73	0.077847384
141	0x3dab531a	0.0836546
142	0x3dbbe248	0.09174019
143	0x3dd88bea	0.105735615
144	0xbc31a992	-0.010843651
145	0x3d8c243b	0.06842848
146	0xbb2dcdf9	-0.0026520474
147	0x3c9e5f3f	0.019332526
148	0xbcf37543	-0.029719
149	0x3da80369	0.082037754
150	0x394b6eda	0.00019400884
151	0x3da8bb59	0.08238859
152	0x3d677abe	0.05651354
153	0x3d10a00c	0.035308883
154	0xbd94fcae	-0.07274757
155	0x3d22eaf3	0.039774846
156	0x3b4eb300	0.0031539798
157	0x3cf5b76f	0.029994695
158	0xbd58a432	-0.052890964
159	0xbd4105ad	-0.047124553
160	0xbdb587c7	-0.08863788
161	0xbc88cf91	-0.016700538
162	0xbdb2fdfe	-0.087398514
163	0x3d0f0a93	0.034922194
164	0xba824e90	-0.0009941626
165	0xbc859e03	-0.016310697
166	0xbadf7347	-0.0017047905
167	0x3bd05daa	0.006358822
168	0x3d40b666	0.04704895
169	0x3d27e251	0.040987317
170	0x3d8c5922	0.06852938
171	0x3d37fa08	0.044916183
172	0xbd42a13b	-0.047517043
173	0xbca79dae	-0.02046093
174	0x3db19bfa	0.08672328
175	0xbd8066a0	-0.06269574
176	0xbceeefd0	-0.029167086
177	0x3b8d9a9b	0.004321409
178	0xbda20392	-0.07910837
179	0xbde1f90a	-0.110338286
180	0xbd16a56e	-0.03677886
181	0x3dab010b	0.08349808
182	0xbcbe5e90	-0.02323845
183	0x3bc798c1	0.0060912077
184	0xbc00406f	-0.007827862
185	0xbbcb7e43	-0.00621012
186	0xbc14e049	-0.009086677
187	0x3d4bf72f	0.04979628
188	0xbc8b8f40	-0.01703608
189	0x3dca6298	0.098820865
190	0x3da14d24	0.078760415
191	0xbce2c7e3	-0.027683204
192	0x3d8b17a1	0.06791616
193	0xbcc60d92	-0.024176393
194	0x3ce15223	0.027504986
195	0x3d937f0d	0.072019674
196	0x3d98145a	0.07425757
197	0x3de84ee7	0.113431744
198	0xbd3d1adc	-0.046168193
199	0xbd347c63	-0.044063937
200	0x3c4779c0	0.012175024
201	0xbdc18806	-0.094497725
202	0x3ccb9f05	0.0248561
203	0xbe0c83b5	-0.13722117
204	0xbd494344	-0.049136415
205	0xbd9beef2	-0.076139346
206	0xbde0b49c	-0.109719485
207	0xbd42e730	-0.04758376
208	0x3d068fc2	0.032851942
209	0xbd4a1e78	-0.049345464
210	0xbd6bad6a	-0.057538427
211	0xbc36d43e	-0.011159001
212	0xbd09a156	-0.033601128
213	0x3db4b8a7	0.08824282
214	0x3d690f09	0.056899104
215	0x3d9555e4	0.07291773
216	0x3dea8183	0.11450484
217	0x3e2cb778	0.16866863
218	0x3dd27ac4	0.10277322
219	0x3d6cf49e	0.057850473
220	0x3e0022f1	0.12513329
221	0x3df2dac9	0.11858136
222	0x3dd8e831	0.10591162
223	0x3e1d900b	0.1538698
224	0x3de16242	0.11005069
225	0x3e161c37	0.146592
226	0x3db026cf	0.08601152
227	0x3e3b3766	0.18282852
228	0xbd36f80e	-0.044670157
229	0x3e1a9fd5	0.15100034
230	0x3df62a51	0.1201979
231	0x3d0880a8	0.03332582
232	0x3e43be1d	0.19115491
233	0x3cfea690	0.031085283
234	0x3e00c122	0.12573674
235	0x3e2ab0b1	0.16668965
236	0x3dd9b777	0.10630696
237	0x3d441fb3	0.047881793
238	0x3db6c854	0.08924928
239	0x3e2b967a	0.16756621
240	0x3d7588db	0.05994497
241	0x3e3d6009	0.18493666
242	0x3d8e8091	0.06958116
243	0x3e109611	0.14119746
244	0x3dcbbc8c	0.09948072
245	0x3e2f1bc2	0.17100433
246	0xbcbce894	-0.02306012
247	0x3e15afd2	0.14617851
248	0x3df255eb	0.11832794
249	0x3d8d34fc	0.068948716
250	0x3e2035fa	0.1564559
251	0x3d6b128f	0.057390746

inference.model.encoder.model.tcn_block_00.conv1.bias f4 [2]
0	0x3cdc5c59	0.026899504
1	0x3f0de1c0	0.5542259

inference.model.encoder.model.tcn_block_00.conv1.weight_g f4 [2, 1, 1]
0	0x3ecb641d	0.39724818
1	0x3f30f420	0.69122505

inference.model.encoder.model.tcn_block_00.conv1.weight_v f4 [2, 2, 9]
0	0x3e07888a	0.1323568
1	0xbe193f24	-0.14965492
2	0xbe25e5f5	-0.16201003
3	0x3d107f0d	0.035277415
4	0xbe2fc063	-0.17163233
5	0x3d8cae16	0.06869142
6	0x3d1aba28	0.03777519
7	0xbe5b3fa7	-0.21411
8	0xbd48cb42	-0.049021967
9	0x3e0e0204	0.13867956
10	0x3de97e97	0.11401098
11	0xbce29bcf	-0.027662186
12	0xbe5073b9	-0.20356645
13	0xbd54e8c9	-0.051979814
14	0x3d1729af	0.036904987
15	0xbdebf819	-0.1152193
16	0x3cb1e35a	0.021714855
17	0x3d993242	0.07480289
18	0xbe77a39e	-0.24183509
19	0xbe669499	-0.22517623
20	0xbe6bab27	-0.23014508
21	0xbe58c7a8	-0.21169913
22	0xbe57e999	-0.21085204
23	0xbe502dd3	-0.2032998
24	0xbe632e7c	-0.22185701
25	0xbe523d20	-0.2053113
26	0x3a9320b8	0.0011224961
27	0xbbd7497e	-0.0065700402
28	0x3d408d1b	0.04700957
29	0x3d202e2c	0.039106533
30	0x3da195b3	0.07889881
31	0xbd686798	-0.05673942
32	0xbdf9644a	-0.12177332
33	0xbe09089a	-0.13382187
34	0x3e23ee40	0.16008854
35	0x3dcce667	0.10004883

inference.model.encoder.model.tcn_block_00.block.conv1d_layer_0.bias f4 [2]
0	0xbeb4c549	-0.35306767
1	0xbd3ea034	-0.0465395

inference.model.encoder.model.tcn_block_00.block.conv1d_layer_0.weight_g f4 [2, 1, 1]
0	0x3f5ba1a5	0.85793525
1	0x3f15e40e	0.5855111

inference.model.encoder.model.tcn_block_00.block.conv1d_layer_0.weight_v f4 [2, 14, 9]
0	0xbe591794	-0.212004
1	0xbe056e09	-0.13030256
2	0xbcfd4dcd	-0.030920887
3	0x3d0f42bf	0.034975763
4	0x3d14014a	0.03613404
5	0x3daf19ef	0.08549868
6	0x3de94dbf	0.11391782
7	0x3dfe22f9	0.12409014
8	0x3e0417a9	0.1289965
9	0x3e56b084	0.20965773
10	0x3df3b6ad	0.11900077
11	0x3c836635	0.016039947
12	0xbc5b29ec	-0.013376694
13	0xbd8ddd6a	-0.06926997
14	0xbdce51c7	-0.100741915
15	0xbdbea1ad	-0.09308181
16	0xbdc40d5d	-0.09572861
17	0xbde4713b	-0.111544095
18	0x3e7364d4	0.23768932
19	0x3dbf4dc5	0.09341005
20	0x3d33041b	0.043705087
21	0xbc0584e0	-0.008149356
22	0xbb10f892	-0.0022120816
23	0xbd437f96	-0.047729097
24	0xbc7263f7	-0.014794341
25	0xbd02e052	-0.03195221
26	0xbdf0ec9c	-0.1176388
27	0xbe3571c0	-0.17719173
28	0x3d3f1b33	0.0466568
29	0xbb846496	-0.004040311
30	0xbc1f2e33	-0.009715605
31	0x3ca09e51	0.019606741
32	0xbc372bbe	-0.011179863
33	0xbdb0143f	-0.08597612
34	0x3d331178	0.04371783
35	0x3d09344e	0.033497147
36	0xbd3652f0	-0.04451269
37	0x3d2625d2	0.040563412
38	0x3cf2547f	0.029581307
39	0xbd64d634	-0.055868343
40	0x3cb7dacb	0.022443196
41	0x3c4caeed	0.012492877
42	0x3c843d42	0.016142491
43	0xbcc2c2e1	-0.023774566
44	0xbc1dee81	-0.009639383
45	0xbe373304	-0.17890555
46	0xbd76586c	-0.06014292
47	0xbbe4522b	-0.006967803
48	0x3d3ac49e	0.045597665
49	0x3d79179b	0.060813528
50	0x3d24d136	0.04023858
51	0x3d80d287	0.06290155
52	0x3dca5165	0.09878806
53	0x3dbef792	0.09324564
54	0x3d674dd9	0.056470726
55	0x3d307663	0.043081652
56	0x3da796f0	0.08183086
57	0x3d012d14	0.03153713
58	0xbd48fe40	-0.049070597
59	0xbd450061	-0.048096064
60	0xbdae4c0c	-0.085105985
61	0xbce5a1ea	-0.028031308
62	0xbd38083a	-0.04492972
63	0x3e0f8240	0.1401453
64	0x3dd70106	0.10498242
65	0x3d2c1d8e	0.042020373
66	0xbce7b8e9	-0.028286414
67	0xbba5182a	-0.005038281
68	0xbdbf3ac4	-0.093373805
69	0xbd0d79d0	-0.034539998
70	0xbd5fe6f6	-0.05466362
71	0xbe109931	-0.14120938
72	0xbe4f4644	-0.20241648
73	0xbdf171f7	-0.11789315
74	0xbcd566b9	-0.026049959
75	0x3cb94e33	0.022620296
76	0x3d07bd9f	0.03313982
77	0x3da5be07	0.080928855
78	0x3d5eb1ca	0.05436877
79	0x3de49c9a	0.11162682
80	0x3dee41c6	0.11633639
81	0x3d9399a2	0.072070375
82	0x3d1a8075	0.037720162
83	0x396444d2	0.00021769412
84	0xbbbd8046	-0.0057831137
85	0xbd2ecf21	-0.042678002
86	0xbcccc3b0	-0.024995655
87	0xbc5759cb	-0.013143967
88	0xbd5e826b	-0.054323595
89	0xbd37a472	-0.04483456
90	0x3c394e79	0.011310213
91	0xbd6aab53	-0.057292294
92	0x3c37050a	0.011170635
93	0xbe13e8cd	-0.14444275
94	0xbe1349e0	-0.1438365
95	0xbdd75125	-0.10513524
96	0x3d8308ab	0.06398138
97	0xbd092a94	-0.03348787
98	0xbd2e8ca0	-0.04261458
99	0xbdc36529	-0.09540779
100	0xbdb6b4c9	-0.08921201
101	0xbd98f758	-0.07469052
102	0x3e2d0d78	0.16899669
103	0xbe1cc81b	-0.15310709
104	0x3da1f434	0.07907906
105	0xbe821153	-0.25403842
106	0x3da2dbc0	0.0795207
107	0xbe0026a2	-0.12514737
108	0xbace16c2	-0.0015723335
109	0xbd790005	-0.060791034
110	0xbdbb9adb	-0.09160396
111	0xbe13dc92	-0.1443961
112	0x3e10e722	0.1415067
113	0xbe01dd61	-0.12682106
114	0xbd0d6f0d	-0.034529734
115	0xbe3cd1be	-0.18439385
116	0x3ca200db	0.019775799
117	0xbd85ef13	-0.065397404
118	0xbd658356	-0.056033455
119	0xbd891c9e	-0.066949114
120	0xbd8d1a4a	-0.0688978
121	0x3cc32bb7	0.023824556
122	0xbda24c3d	-0.079246975
123	0x3dabee0d	0.08395014
124	0xbe04bc4f	-0.12962459
125	0xbd39e190	-0.04538113
126	0x3db82c86	0.08992867
127	0xbd42a342	-0.047518976
128	0x3da15aa8	0.078786194
129	0x3ced82a9	0.028992968
130	0xbdb8691c	-0.09004423
131	0x3a6ed0e7	0.00091101084
132	0xbd8710d3	-0.06595006
133	0xbddef497	-0.108864956
134	0xbd76d59e	-0.060262315
135	0xbd95487c	-0.07289216
136	0x3d069096	0.03285273
137	0xbcfd5de2	-0.030928556
138	0x3d1fa11c	0.038972005
139	0x3ccbf362	0.024896327
140	0x3d9f6e73	0.077847384
141	0x3dab531a	0.0836546
142	0x3dbbe248	0.09174019
143	0x3dd88bea	0.105735615
144	0xbc31a992	-0.010843651
145	0x3d8c243b	0.06842848
146	0xbb2dcdf9	-0.0026520474
147	0x3c9e5f3f	0.019332526
148	0xbcf37543	-0.029719
149	0x3da80369	0.082037754
150	0x394b6eda	0.00019400884
151	0x3da8bb59	0.08238859
152	0x3d677abe	0.05651354
153	0x3d10a00c	0.035308883
154	0xbd94fcae	-0.07274757
155	0x3d22eaf3	0.039774846
156	0x3b4eb300	0.0031539798
157	0x3cf5b76f	0.029994695
158	0xbd58a432	-0.052890964
159	0xbd4105ad	-0.047124553
160	0xbdb587c7	-0.08863788
161	0xbc88cf91	-0.016700538
162	0xbdb2fdfe	-0.087398514
163	0x3d0f0a93	0.034922194
164	0xba824e90	-0.0009941626
165	0xbc859e03	-0.016310697
166	0xbadf7347	-0.0017047905
167	0x3bd05daa	0.006358822
168	0x3d40b666	0.04704895
169	0x3d27e251	0.040987317
170	0x3d8c5922	0.06852938
171	0x3d37fa08	0.044916183
172	0xbd42a13b	-0.047517043
173	0xbca79dae	-0.02046093
174	0x3db19bfa	0.08672328
175	0xbd8066a0	-0.06269574
176	0xbceeefd0	-0.029167086
177	0x3b8d9a9b	0.004321409
178	0xbda20392	-0.07910837
179	0xbde1f90a	-0.110338286
180	0xbd16a56e	-0.03677886
181	0x3dab010b	0.08349808
182	0xbcbe5e90	-0.02323845
183	0x3bc798c1	0.0060912077
184	0xbc00406f	-0.007827862
185	0xbbcb7e43	-0.00621012
186	0xbc14e049	-0.009086677
187	0x3d4bf72f	0.04979628
188	0xbc8b8f40	-0.01703608
189	0x3dca6298	0.098820865
190	0x3da14d24	0.078760415
191	0xbce2c7e3	-0.027683204
192	0x3d8b17a1	0.06791616
193	0xbcc60d92	-0.024176393
194	0x3ce15223	0.027504986
195	0x3d937f0d	0.072019674
196	0x3d98145a	0.07425757
197	0x3de84ee7	0.113431744
198	0xbd3d1adc	-0.046168193
199	0xbd347c63	-0.044063937
200	0x3c4779c0	0.012175024
201	0xbdc18806	-0.094497725
202	0x3ccb9f05	0.0248561
203	0xbe0c83b5	-0.13722117
204	0xbd494344	-0.049136415
205	0xbd9beef2	-0.076139346
206	0xbde0b49c	-0.109719485
207	0xbd42e730	-0.04758376
208	0x3d068fc2	0.032851942
209	0xbd4a1e78	-0.049345464
210	0xbd6bad6a	-0.057538427
211	0xbc36d43e	-0.011159001
212	0xbd09a156	-0.033601128
213	0x3db4b8a7	0.08824282
214	0x3d690f09	0.056899104
215	0x3d9555e4	0.07291773
216	0x3dea8183	0.11450484
217	0x3e2cb778	0.16866863
218	0x3dd27ac4	0.10277322
219	0x3d6cf49e	0.057850473
220	0x3e0022f1	0.12513329
221	0x3df2dac9	0.11858136
222	0x3dd8e831	0.10591162
223	0x3e1d900b	0.1538698
224	0x3de16242	0.11005069
225	0x3e161c37	0.146592
226	0x3db026cf	0.08601152
227	0x3e3b3766	0.18282852
228	0xbd36f80e	-0.044670157
229	0x3e1a9fd5	0.15100034
230	0x3df62a51	0.1201979
231	0x3d0880a8	0.03332582
232	0x3e43be1d	0.19115491
233	0x3cfea690	0.031085283
234	0x3e00c122	0.12573674
235	0x3e2ab0b1	0.16668965
236	0x3dd9b777	0.10630696
237	0x3d441fb3	0.047881793
238	0x3db6c854	0.08924928
239	0x3e2b967a	0.16756621
240	0x3d7588db	0.05994497
241	0x3e3d6009	0.18493666
242	0x3d8e8091	0.06958116
243	0x3e109611	0.14119746
244	0x3dcbbc8c	0.09948072
245	0x3e2f1bc2	0.17100433
246	0xbcbce894	-0.02306012
247	0x3e15afd2	0.14617851
248	0x3df255eb	0.11832794
249	0x3d8d34fc	0.068948716
250	0x3e2035fa	0.1564559
251	0x3d6b128f	0.057390746

inference.model.encoder.model.tcn_block_00.block.conv1d_layer_1.bias f4 [2]
0	0x3cdc5c59	0.026899504
1	0x3f0de1c0	0.5542259

inference.model.encoder.model.tcn_block_00.block.conv1d_layer_1.weight_g f4 [2, 1, 1]
0	0x3ecb641d	0.39724818
1	0x3f30f420	0.69122505

inference.model.encoder.model.tcn_block_00.block.conv1d_layer_1.weight_v f4 [2, 2, 9]
0	0x3e07888a	0.1323568
1	0xbe193f24	-0.14965492
2	0xbe25e5f5	-0.16201003
3	0x3d107f0d	0.035277415
4	0xbe2fc063	-0.17163233
5	0x3d8cae16	0.06869142
6	0x3d1aba28	0.03777519
7	0xbe5b3fa7	-0.21411
8	0xbd48cb42	-0.049021967
9	0x3e0e0204	0.13867956
10	0x3de97e97	0.11401098
11	0xbce29bcf	-0.027662186
12	0xbe5073b9	-0.20356645
13	0xbd54e8c9	-0.051979814
14	0x3d1729af	0.036904987
15	0xbdebf819	-0.1152193
16	0x3cb1e35a	0.021714855
17	0x3d993242	0.07480289
18	0xbe77a39e	-0.24183509
19	0xbe669499	-0.22517623
20	0xbe6bab27	-0.23014508
21	0xbe58c7a8	-0.21169913
22	0xbe57e999	-0.21085204
23	0xbe502dd3	-0.2032998
24	0xbe632e7c	-0.22185701
25	0xbe523d20	-0.2053113
26	0x3a9320b8	0.0011224961
27	0xbbd7497e	-0.0065700402
28	0x3d408d1b	0.04700957
29	0x3d202e2c	0.039106533
30	0x3da195b3	0.07889881
31	0xbd686798	-0.05673942
32	0xbdf9644a	-0.12177332
33	0xbe09089a	-0.13382187
34	0x3e23ee40	0.16008854
35	0x3dcce667	0.10004883

inference.model.encoder.model.tcn_block_00.downsample.weight f4 [2, 14, 1]
0	0xbe5e05f8	-0.21681964
1	0x3e199b05	0.15000542
2	0x3e44471b	0.1916775
3	0x3d4b564f	0.049642857
4	0xbe10f53c	-0.1415605
5	0xbdf3823f	-0.11890077
6	0x3e8f4806	0.27984637
7	0x3eaaf758	0.33391833
8	0xbe8e9a47	-0.2785208
9	0xbc1b9790	-0.009496585
10	0x3fb34349	1.4004909
11	0x3fb3a9c9	1.4036189
12	0x3fb3a523	1.4034771
13	0x3fb422c2	1.4073107
14	0x3ea6dea5	0.3259174
15	0xbeb3dc9e	-0.35129255
16	0xbdbde3f6	-0.09271996
17	0x3f0812be	0.531536
18	0xbf14bf74	-0.58104634
19	0x3edc5bc6	0.43038768
20	0x3f09ff30	0.5390501
21	0x3d18affc	0.037277207
22	0x3d7fb8b5	0.06243201
23	0xbf0d2291	-0.5513087
24	0x3fb695a4	1.4264417
25	0x3fb7f897	1.4372739
26	0x3fb60761	1.4221002
27	0x3fb7fadf	1.4373435

inference.model.encoder.model.tcn_block_00.downsample.bias f4 [2]
0	0x3fcaaf1b	1.5834688
1	0x3fda6c22	1.706425

inference.model.encoder.model.tcn_block_01.conv0.bias f4 [2]
0	0x3e51de17	0.20494877
1	0x3f0fcd35	0.56172496

inference.model.encoder.model.tcn_block_01.conv0.weight_g f4 [2, 1, 1]
0	0x3f1d3963	0.6141569
1	0x3f53256b	0.8247897

inference.model.encoder.model.tcn_block_01.conv0.weight_v f4 [2, 2, 9]
0	0x3ea7113d	0.3263034
1	0x3ea51eb1	0.32249978
2	0x3dd2f235	0.103001036
3	0x3df03e97	0.11730688
4	0xbe52da02	-0.20590976
5	0xbd73eb76	-0.059550725
6	0xbe3a9b34	-0.18223268
7	0xbe906a4c	-0.28206098
8	0xbe855525	-0.26041523
9	0xbdf6807b	-0.120362245
10	0xbe1be47f	-0.15223883
11	0xbc9d0db7	-0.019171579
12	0x3d3b09e6	0.045663737
13	0xbdb01e2a	-0.08599503
14	0x3d1b8465	0.03796806
15	0x3dbca8b4	0.09211865
16	0x3e12f60e	0.14351675
17	0xbd88052d	-0.06641612
18	0x3eb33c68	0.35007024
19	0x3e1d2b8b	0.15348642
20	0xbca44e87	-0.020056976
21	0x3d81cc4c	0.06337795
22	0x3e174e5e	0.14775988
23	0x3d0de61c	0.034643278
24	0xbe16035c	-0.14649719
25	0xbe3fe272	-0.18738726
26	0xbe99f460	-0.30069256
27	0x3d98b7a7	0.07456904
28	0xbdb58817	-0.08863848
29	0xbe0bc1e3	-0.1364818
30	0x3b2e2ae3	0.0026575855
31	0x3db4a688	0.08820826
32	0xbe3b3182	-0.18280604
33	0x3e0907ec	0.13381928
34	0x3c730138	0.014831834
35	0xbe342a7d	-0.17594333

inference.model.encoder.model.tcn_block_01.conv1.bias f4 [2]
0	0x3cdf521d	0.027260834
1	0x3dc8f45c	0.09812233

inference.model.encoder.model.tcn_block_01.conv1.weight_g f4 [2, 1, 1]
0	0x3ead2074	0.33813822
1	0x3f505a39	0.8138767

inference.model.encoder.model.tcn_block_01.conv1.weight_v f4 [2, 2, 9]
0	0xbe0040f8	-0.12524784
1	0xbc03dcc8	-0.008048244
2	0x3e07ff8c	0.13281077
3	0xbe41482b	-0.18875186
4	0x3e286f8d	0.16448803
5	0x3e05f2d7	0.13080917
6	0x3e1ae960	0.15128088
7	0xbe35e8c6	-0.17764577
8	0x3e780e66	0.24224243
9	0xbe08432a	-0.13306871
10	0x3e9714bb	0.29508004
11	0xbe6e47a5	-0.23269518
12	0xbe4c72c3	-0.19965653
13	0x3e4b1dca	0.19835582
14	0x3d91b59e	0.07114719
15	0x3dad05b6	0.08448355
16	0xbd998e6d	-0.07497869
17	0xbcb86328	-0.022508219
18	0x3d586a9e	0.052836053
19	0xbd2fc4c2	-0.042912252
20	0x3d5187e3	0.051154982
21	0x3d66341f	0.05620205
22	0x3d82b51f	0.06382202
23	0x3daf0380	0.085455894
24	0x3dd3c4b8	0.103402555
25	0x3d881edb	0.0664651
26	0x3cf0e27e	0.029404875
27	0x3e718ce3	0.235889
28	0x3e523ddc	0.2053141
29	0x3e364eb2	0.17803457
30	0x3e56637f	0.20936392
31	0x3e513130	0.2042892
32	0x3e5a8999	0.21341552
33	0x3e3ab52b	0.18233173
34	0x3e42e4dd	0.19032617
35	0x3ddfac00	0.10921478

inference.model.encoder.model.tcn_block_01.block.conv1d_layer_0.bias f4 [2]
0	0x3e51de17	0.20494877
1	0x3f0fcd35	0.56172496

inference.model.encoder.model.tcn_block_01.block.conv1d_layer_0.weight_g f4 [2, 1, 1]
0	0x3f1d3963	0.6141569
1	0x3f53256b	0.8247897

inference.model.encoder.model.tcn_block_01.block.conv1d_layer_0.weight_v f4 [2, 2, 9]
0	0x3ea7113d	0.3263034
1	0x3ea51eb1	0.32249978
2	0x3dd2f235	0.103001036
3	0x3df03e97	0.11730688
4	0xbe52da02	-0.20590976
5	0xbd73eb76	-0.059550725
6	0xbe3a9b34	-0.18223268
7	0xbe906a4c	-0.28206098
8	0xbe855525	-0.26041523
9	0xbdf6807b	-0.120362245
10	0xbe1be47f	-0.15223883
11	0xbc9d0db7	-0.019171579
12	0x3d3b09e6	0.045663737
13	0xbdb01e2a	-0.08599503
14	0x3d1b8465	0.03796806
15	0x3dbca8b4	0.09211865
16	0x3e12f60e	0.14351675
17	0xbd88052d	-0.06641612
18	0x3eb33c68	0.35007024
19	0x3e1d2b8b	0.15348642
20	0xbca44e87	-0.020056976
21	0x3d81cc4c	0.06337795
22	0x3e174e5e	0.14775988
23	0x3d0de61c	0.034643278
24	0xbe16035c	-0.14649719
25	0xbe3fe272	-0.18738726
26	0xbe99f460	-0.30069256
27	0x3d98b7a7	0.07456904
28	0xbdb58817	-0.08863848
29	0xbe0bc1e3	-0.1364818
30	0x3b2e2ae3	0.0026575855
31	0x3db4a688	0.08820826
32	0xbe3b3182	-0.18280604
33	0x3e0907ec	0.13381928
34	0x3c730138	0.014831834
35	0xbe342a7d	-0.17594333

inference.model.encoder.model.tcn_block_01.block.conv1d_layer_1.bias f4 [2]
0	0x3cdf521d	0.027260834
1	0x3dc8f45c	0.09812233

inference.model.encoder.model.tcn_block_01.block.conv1d_layer_1.weight_g f4 [2, 1, 1]
0	0x3ead2074	0.33813822
1	0x3f505a39	0.8138767

inference.model.encoder.model.tcn_block_01.block.conv1d_layer_1.weight_v f4 [2, 2, 9]
0	0xbe0040f8	-0.12524784
1	0xbc03dcc8	-0.008048244
2	0x3e07ff8c	0.13281077
3	0xbe41482b	-0.18875186
4	0x3e286f8d	0.16448803
5	0x3e05f2d7	0.13080917
6	0x3e1ae960	0.15128088
7	0xbe35e8c6	-0.17764577
8	0x3e780e66	0.24224243
9	0xbe08432a	-0.13306871
10	0x3e9714bb	0.29508004
11	0xbe6e47a5	-0.23269518
12	0xbe4c72c3	-0.19965653
13	0x3e4b1dca	0.19835582
14	0x3d91b59e	0.07114719
15	0x3dad05b6	0.08448355
16	0xbd998e6d	-0.07497869
17	0xbcb86328	-0.022508219
18	0x3d586a9e	0.052836053
19	0xbd2fc4c2	-0.042912252
20	0x3d5187e3	0.051154982
21	0x3d66341f	0.05620205
22	0x3d82b51f	0.06382202
23	0x3daf0380	0.085455894
24	0x3dd3c4b8	0.103402555
25	0x3d881edb	0.0664651
26	0x3cf0e27e	0.029404875
27	0x3e718ce3	0.235889
28	0x3e523ddc	0.2053141
29	0x3e364eb2	0.17803457
30	0x3e56637f	0.20936392
31	0x3e513130	0.2042892
32	0x3e5a8999	0.21341552
33	0x3e3ab52b	0.18233173
34	0x3e42e4dd	0.19032617
35	0x3ddfac00	0.10921478

inference.model.qz_xy_mean.dense(qz_xy_mean)_layer_00.weight f4 [2, 2]
0	0x3f563d19	0.8368698
1	0xbe4ffb5c	-0.2031073
2	0xbdaa96dd	-0.08329556
3	0xbedb479f	-0.4282808

inference.model.qz_xy_mean.dense(qz_xy_mean)_layer_00.bias f4 [2]
0	0xbef532b3	-0.47890243
1	0x3f44a304	0.7681124

inference.model.qz_xy_logvar.dense(qz_xy_logvar)_layer_00.weight f4 [2, 2]
0	0xbfccd626	-1.6002853
1	0xbf648981	-0.89272314
2	0xbf8cdf09	-1.1005565
3	0xbf0d3053	-0.5515186

inference.model.qz_xy_logvar.dense(qz_xy_logvar)_layer_00.bias f4 [2]
0	0xbd532045	-0.051544446
1	0xbfa4f4aa	-1.2887166

inference.model.py_t_probs.dense(py_t_probs)_layer_00.weight f4 [4, 2]
0	0x3e5e1fcf	0.21691822
1	0xbe13ad83	-0.14421658
2	0x3e5f077d	0.217802
3	0xbe1559cc	-0.14585036
4	0x3e637ff4	0.22216779
5	0xbe1c746d	-0.15278788
6	0x3e563740	0.20919514
7	0xbe0765fa	-0.13222495

inference.model.py_t_probs.dense(py_t_probs)_layer_00.bias f4 [4]
0	0xbd99a1a2	-0.07501532
1	0xbda15a45	-0.07878546
2	0xbdc42207	-0.09576803
3	0xbd3be398	-0.045871347

inference.model.pz_t_mean.dense(pz_t_mean)_layer_00.weight f4 [8, 2]
0	0x3f786496	0.9702848
1	0x3da5779c	0.08079454
2	0xbd165ed7	-0.03671154
3	0x3f800fc6	1.0004814
4	0x3f7881c7	0.97073025
5	0x3d9eed41	0.07760096
6	0xbd100531	-0.0351612
7	0x3f80dd58	1.0067549
8	0x3f7919a1	0.9730473
9	0x3d9f1529	0.07767708
10	0xbd1cc1e4	-0.038270846
11	0x3f8071c9	1.0034724
12	0x3f787932	0.9705993
13	0x3d9f3f82	0.07775785
14	0xbd15b959	-0.036553714
15	0x3f80eff2	1.0073225

inference.model.pz_t_mean.dense(pz_t_mean)_layer_00.bias f4 [8]
0	0x3e068b3c	0.13139051
1	0x3d521c82	0.05129672
2	0x3e044e27	0.12920438
3	0x3d566130	0.05233878
4	0x3e0114c0	0.12605572
5	0x3d62f024	0.055404797
6	0x3e0010b2	0.12506369
7	0x3d57855d	0.05261742

inference.model.pz_t_logvar.dense(pz_t_logvar)_layer_00.weight f4 [2, 4]
0	0xbffa7cea	-1.9569371
1	0xc000ced3	-2.0126235
2	0xc003f9ee	-2.0621295
3	0xbffc729b	-1.9722475
4	0xbfd38a7e	-1.652664
5	0xbfe14252	-1.7598364
6	0xbfe096b6	-1.7545993
7	0xbfd9b3b5	-1.7007967

inference.model.pz_t_logvar.dense(pz_t_logvar)_layer_00.bias f4 [2]
0	0xbfce3b37	-1.6111821
1	0xbff60146	-1.9219139

inference.model.decoder.dense(decoder)_layer_00.weight f4 [10, 2]
0	0xbf2f1c29	-0.68402344
1	0xbdcaf3f4	-0.099098116
2	0x3f208d4f	0.6271562
3	0x3e78ac8d	0.24284573
4	0x3f3295c6	0.69759786
5	0xbd2c37f4	-0.04204555
6	0xbd820acb	-0.06349715
7	0xbf6d6c3d	-0.92743284
8	0xbe980d96	-0.29697865
9	0x3f853394	1.0406365
10	0xbf0c6c5c	-0.54852843
11	0xbed4cd3a	-0.41562825
12	0x3f25bdcf	0.6474275
13	0xbf50a2ac	-0.8149822
14	0x3f4309f0	0.7618704
15	0xbea34f33	-0.31896362
16	0xbf406874	-0.7515938
17	0x3e5c0b4f	0.21488689
18	0x3e6410e4	0.22272068
19	0x3f557b36	0.8339113

inference.model.decoder.dense(decoder)_layer_00.bias f4 [10]
0	0x3f40eb6b	0.7535922
1	0xbf02da90	-0.5111475
2	0xbf6cc0c4	-0.92481637
3	0xbf7ddf4c	-0.9916885
4	0x3fc9a71c	1.5754123
5	0x3e5b0377	0.2138804
6	0xbfe139cb	-1.7595762
7	0xbfab28d4	-1.3371835
8	0x3f9a04a3	1.2032665
9	0x3f2e3ac4	0.6805842

generative.model.qy_x.dense(qy_x)_layer_00.weight f4 [4, 10]
0	0xbbb50dfa	-0.005525348
1	0x3e7bc99c	0.24588627
2	0xbe1ad599	-0.15120544
3	0x3c8b621e	0.01701456
4	0xbe119e57	-0.14220558
5	0xbda5233e	-0.080633625
6	0x3d297730	0.04137343
7	0x3db7d2af	0.089757316
8	0xbd156e90	-0.036482394
9	0x3d0509d5	0.03248008
10	0xbbd72aa4	-0.0065663625
11	0x3e7ca897	0.24673687
12	0xbe1acf92	-0.15118244
13	0x3c87b610	0.016566306
14	0xbe09d46d	-0.1345994
15	0xbdbb5395	-0.091468014
16	0x3d5a3d13	0.0532809
17	0x3d9f36da	0.07774134
18	0xbd0dda0f	-0.034631785
19	0x3cbd2e70	0.023093432
20	0x3c3645d3	0.011125046
21	0x3e862c6e	0.26205772
22	0xbe1a381c	-0.15060467
23	0x3c848d95	0.016180793
24	0xbd2e89d0	-0.042611897
25	0xbd8b13ec	-0.06790909
26	0x3e21d0b0	0.15802264
27	0x3cf8f6b1	0.03039107
28	0xbd607d8a	-0.054807223
29	0x3bafdf34	0.005367184
30	0xbc8d4b88	-0.01724793
31	0x3e6d67f7	0.2318419
32	0xbe1b9285	-0.15192612
33	0x3c878194	0.01654128
34	0xbe66f723	-0.22555213
35	0xbe0403b1	-0.12892033
36	0xbcf9a11e	-0.030472334
37	0x3dd95e03	0.106136344
38	0xbc15da7e	-0.009146331
39	0x3d3e7c4d	0.04650526

generative.model.qy_x.dense(qy_x)_layer_00.bias f4 [4]
0	0xbddc9484	-0.107705146
1	0xbddcd789	-0.107832976
2	0xbdde77b4	-0.10862675
3	0xbddac471	-0.106819995

generative.model.encoder.model.tcn_block_00.conv0.bias f4 [2]
0	0xbeb4c549	-0.35306767
1	0xbd3ea034	-0.0465395

generative.model.encoder.model.tcn_block_00.conv0.weight_g f4 [2, 1, 1]
0	0x3f5ba1a5	0.85793525
1	0x3f15e40e	0.5855111
