results_gmdgm/ssm_v1/dtcn/re30_v1/version_0/best_val_model.pt (torch, 58663 bytes, 204 tensors)

model.qy_x.model.tcn_block_00.conv0.bias f4 [2]
00000000: 187e 2c3b bcf8 093e
0.0026320275 0.13473791

model.qy_x.model.tcn_block_00.conv0.weight_g f4 [2, 1, 1]
00000000: 966d 173f 96d5 123f
0.5915159 0.57357156

model.qy_x.model.tcn_block_00.conv0.weight_v f4 [2, 10, 9]
00000000: 70a2 853d 33ee 143d ebcf e4bd 7dd3 1dbe
00000010: d5b2 bebd d7f8 da3c ac30 863c ea1a ab3d
00000020: 6354 15bc 33bc 8cbc 11ab 553c c7ef 3f3c
00000030: 4685 97bd 7631 72bd e04d 8ebd 9882 6fbd
00000040: b998 573d bedb 783d 2b48 9fbd a2ab b83c
00000050: a894 833d 38e1 a83d 79d0 ae3c 686c b83c
00000060: b9b5 7ebd d32b 533d 7c70 123d def7 8bbc
00000070: e0f6 bbbd bf66 ccbc b6e9 4ebd 2037 ad3d
00000080: f8a0 723c 0615 1ebc 5f18 c7ba 576c 43bc
00000090: 3704 cfbc c45c 443e 4bae 5a3d 25e2 0c3d
000000a0: ce90 453b 72d1 32bd a59f 923c 9a5f a5bd
000000b0: 858c 79bd b7fe 5abd fdd5 133d bdcc 0b3d
000000c0: 808e 27be 85c0 e4bb 92f0 a13d d262 e63d
000000d0: a2ca 543d 7f10 b03b 1d1d c83c b26b f3bd
000000e0: 6f55 003c 2c14 8abc c9ad e3bc 77fb 7ebc
000000f0: 0dd8 293d 5f7d ee3c b6ec 43bd ff5c 14bd
00000100: f31e 6f3d b587 0d3c 694d 963d 380a 703d
00000110: 70c7 823d a61c c53d 63b5 babd 9713 5dbd
00000120: 7ef9 fd3d c112 913d 3a3c a83d 48b4 b33c
00000130: 50f8 8dbc 661a 94bd 147a e43b 3bcc cfbd
00000140: caaf 02be db42 233e 97f1 3a3e 6044 d6bd
00000150: cecc 423d ecf0 cabc e052 ddbc e6fe 50bd
00000160: 5a8c 333d 33d2 45bd 7a0c 403d e970 d83d
00000170: 79f8 ab3d a508 123d 1345 ebbd 90e5 c0bd
00000180: c6ee aa3d 4f08 313d 8aca a4bd 9574 a1bd
00000190: 7a9d 873d 342d df3d ef39 00bd 5842 82bd
000001a0: 6c66 afbd ea7f f1bc aada c9bd a21a debd
000001b0: 1dbd e0bc ed40 0fbd 5e4a afbc fc00 b33d
000001c0: af75 83bd 1b2a e03d aa71 8d3d d25b 98bd
000001d0: 31ce 01bd 1f34 bf3c 7b14 893d 114a b93c
000001e0: dd3d 823b 4e03 033d 56be 74bd f686 8c3d
000001f0: 071b b4bd 7a4c 48bd 1478 bbbd 5080 e7bd
00000200: bf4d 57bd fcc6 b3bd b88b c5bc a851 ef3c
00000210: 7ff7 56bd 4a23 8e3b 455e a53d e83a 65ba
00000220: a9fa 6b3d c273 83bb 0f24 c43b b7a2 dd3d
00000230: 8d82 e63d 0e6b f23d f08e da3d 0937 f3bb
00000240: c9ce 99bd ea04 3abd 7ec6 b23d ac38 96bb
00000250: 3020 7fbd 94ae b6bd 9913 ecbd 9dbb dcbd
00000260: e1aa 20bd 6e64 833d 1ea4 1c3d c9fd dabd
00000270: 048e a43d 46bc d0bd 5fa3 18bc 4f44 7bbd
00000280: a114 0cbd 21a8 bbbc 6e6a f4bd 01ec abbd
00000290: e64d 0bbd 508f 36bc de2c 29bd cc2e a33c
000002a0: 1c65 cfbd 504c 19bc df23 ad3d 9080 05be
000002b0: 5ca6 793d 7162 753c d1d2 25be 2dfe 703d
000002c0: f2ea 9dbb d6b4 91bd 8fa0 af3d e121 cbbd
0.06525123 0.036359977 -0.1117247 -0.15412708 -0.09311453 0.026729984 0.01638063 0.08354743
-0.009114358 -0.017179584 0.013041274 0.011714882 -0.07398467 -0.0591292 -0.06948447 -0.058474153
0.052635882 0.060756437 -0.07777437 0.022542778 0.06424838 0.08246082 0.021339642 0.02251263
-0.062185023 0.051555466 0.035751805 -0.017085966 -0.09177947 -0.024951337 -0.050515853 0.0845778
0.014808886 -0.009648567 -0.0015189758 -0.011927686 -0.025270564 0.19176012 0.053388875 0.034395356
0.0030146125 -0.043656774 0.01789839 -0.08074875 -0.060925025 -0.05346557 0.036092747 0.0341308
-0.16362953 -0.006980958 0.07907213 0.11249317 0.05195106 0.0053730602 0.024427945 -0.118857756
0.007832869 -0.016855322 -0.027792828 -0.015562884 0.041465808 0.029112516 -0.047833167 -0.0362215
0.058379125 0.008638312 0.073389836 0.058603495 0.06385696 0.09624605 -0.09116628 -0.05397376
0.124011025 0.07083655 0.08214612 0.02193655 -0.017330319 -0.072315976 0.0069725607 -0.10146376
-0.1276237 0.15943472 0.18256222 -0.1046226 0.0475586 -0.024773084 -0.027017057 -0.05102434
0.04383502 -0.048296165 0.0468869 0.10568411 0.08397002 0.035652775 -0.11487784 -0.094187856
0.08346324 0.043220814 -0.08046444 -0.078835644 0.06621833 0.10897294 -0.03130525 -0.0636031
-0.08564457 -0.02947994 -0.0985616 -0.108449236 -0.027433926 -0.034974027 -0.021397766 0.08740422
-0.06418931 0.10945531 0.06906445 -0.07439388 -0.03169078 0.023340283 0.066933595 0.022618325
0.00397466 0.031985573 -0.05975183 0.06861679 -0.087942176 -0.04890106 -0.091537625 -0.113037705
-0.05256438 -0.08778188 -0.024114475 0.029213741 -0.052482124 0.004337703 0.08074621 -0.00087444345
0.057612095 -0.004011602 0.005985744 0.10822051 0.11255369 0.11836825 0.106717944 -0.007422332
-0.07510144 -0.045414843 0.08729266 -0.0045843925 -0.062286556 -0.08920017 -0.115271755 -0.10777972
-0.039225463 0.0641564 0.03824245 -0.10692937 0.080349 -0.1019216 -0.009316294 -0.06134444
-0.03419936 -0.022907319 -0.11934362 -0.083946235 -0.034009837 -0.011142567 -0.041302554 0.019919775
-0.10126707 -0.009356573 0.084541075 -0.13037324 0.06094967 0.014977084 -0.16193701 0.05883615
-0.0048192674 -0.0711457 0.08575546 -0.09918571

model.qy_x.model.tcn_block_00.conv1.bias f4 [2]
00000000: 38d8 06be 8062 01be
-0.13168418 -0.12635231

model.qy_x.model.tcn_block_00.conv1.weight_g f4 [2, 1, 1]
00000000: d599 0f3f ec53 c63e
0.56094104 0.38735902

model.qy_x.model.tcn_block_00.conv1.weight_v f4 [2, 2, 9]
00000000: 9472 033d 8b32 ba3c 8420 ad3d 9efc 803d
00000010: 297a 3cbd 5f21 5cbd b3e2 4abe 6202 093c
00000020: 2618 f3bc fa9b 9c3d 3e0a 71be 943a 34be
00000030: b606 3bbe 0c7d 0abe 9634 17be 645a 81bd
00000040: 3dec 3abe caf3 55be 1527 e63b 3089 583e
00000050: 3651 7fbe ff2f 54be 54b9 2fbe a5fe 693e
00000060: b033 e2bd e379 503e 8a29 d13c 9111 1b3d
00000070: be3b ad3c 6232 d4bc edb8 863d 4314 9fbc
00000080: 1dbe 413d ff62 d13d d45e 04be c5e6 52bd
0.032091692 0.022729179 0.084534675 0.06298183 -0.04601494 -0.053742763 -0.19813041 0.0083623845
-0.0296746 0.07646938 -0.23539063 -0.17600471 -0.18264279 -0.13524264 -0.14766154 -0.06316069
-0.1825418 -0.2089378 0.007023702 0.21146083 -0.24933323 -0.20721434 -0.17160541 0.22851045
-0.11045015 0.20358996 0.025532503 0.03785855 0.021146651 -0.02590293 0.065782405 -0.019418841
0.047300447 0.1022396 -0.12926799 -0.05148961

model.qy_x.model.tcn_block_00.block.conv1d_layer_0.bias f4 [2]
00000000: 187e 2c3b bcf8 093e
0.0026320275 0.13473791

model.qy_x.model.tcn_block_00.block.conv1d_layer_0.weight_g f4 [2, 1, 1]
00000000: 966d 173f 96d5 123f
0.5915159 0.57357156

model.qy_x.model.tcn_block_00.block.conv1d_layer_0.weight_v f4 [2, 10, 9]
00000000: 70a2 853d 33ee 143d ebcf e4bd 7dd3 1dbe
00000010: d5b2 bebd d7f8 da3c ac30 863c ea1a ab3d
00000020: 6354 15bc 33bc 8cbc 11ab 553c c7ef 3f3c
00000030: 4685 97bd 7631 72bd e04d 8ebd 9882 6fbd
00000040: b998 573d bedb 783d 2b48 9fbd a2ab b83c
00000050: a894 833d 38e1 a83d 79d0 ae3c 686c b83c
00000060: b9b5 7ebd d32b 533d 7c70 123d def7 8bbc
00000070: e0f6 bbbd bf66 ccbc b6e9 4ebd 2037 ad3d
00000080: f8a0 723c 0615 1ebc 5f18 c7ba 576c 43bc
00000090: 3704 cfbc c45c 443e 4bae 5a3d 25e2 0c3d
000000a0: ce90 453b 72d1 32bd a59f 923c 9a5f a5bd
000000b0: 858c 79bd b7fe 5abd fdd5 133d bdcc 0b3d
000000c0: 808e 27be 85c0 e4bb 92f0 a13d d262 e63d
000000d0: a2ca 543d 7f10 b03b 1d1d c83c b26b f3bd
000000e0: 6f55 003c 2c14 8abc c9ad e3bc 77fb 7ebc
000000f0: 0dd8 293d 5f7d ee3c b6ec 43bd ff5c 14bd
00000100: f31e 6f3d b587 0d3c 694d 963d 380a 703d
00000110: 70c7 823d a61c c53d 63b5 babd 9713 5dbd
00000120: 7ef9 fd3d c112 913d 3a3c a83d 48b4 b33c
00000130: 50f8 8dbc 661a 94bd 147a e43b 3bcc cfbd
00000140: caaf 02be db42 233e 97f1 3a3e 6044 d6bd
00000150: cecc 423d ecf0 cabc e052 ddbc e6fe 50bd
00000160: 5a8c 333d 33d2 45bd 7a0c 403d e970 d83d
00000170: 79f8 ab3d a508 123d 1345 ebbd 90e5 c0bd
00000180: c6ee aa3d 4f08 313d 8aca a4bd 9574 a1bd
00000190: 7a9d 873d 342d df3d ef39 00bd 5842 82bd
000001a0: 6c66 afbd ea7f f1bc aada c9bd a21a debd
000001b0: 1dbd e0bc ed40 0fbd 5e4a afbc fc00 b33d
000001c0: af75 83bd 1b2a e03d aa71 8d3d d25b 98bd
000001d0: 31ce 01bd 1f34 bf3c 7b14 893d 114a b93c
000001e0: dd3d 823b 4e03 033d 56be 74bd f686 8c3d
000001f0: 071b b4bd 7a4c 48bd 1478 bbbd 5080 e7bd
00000200: bf4d 57bd fcc6 b3bd b88b c5bc a851 ef3c
00000210: 7ff7 56bd 4a23 8e3b 455e a53d e83a 65ba
00000220: a9fa 6b3d c273 83bb 0f24 c43b b7a2 dd3d
00000230: 8d82 e63d 0e6b f23d f08e da3d 0937 f3bb
00000240: c9ce 99bd ea04 3abd 7ec6 b23d ac38 96bb
00000250: 3020 7fbd 94ae b6bd 9913 ecbd 9dbb dcbd
00000260: e1aa 20bd 6e64 833d 1ea4 1c3d c9fd dabd
00000270: 048e a43d 46bc d0bd 5fa3 18bc 4f44 7bbd
00000280: a114 0cbd 21a8 bbbc 6e6a f4bd 01ec abbd
00000290: e64d 0bbd 508f 36bc de2c 29bd cc2e a33c
000002a0: 1c65 cfbd 504c 19bc df23 ad3d 9080 05be
000002b0: 5ca6 793d 7162 753c d1d2 25be 2dfe 703d
000002c0: f2ea 9dbb d6b4 91bd 8fa0 af3d e121 cbbd
0.06525123 0.036359977 -0.1117247 -0.15412708 -0.09311453 0.026729984 0.01638063 0.08354743
-0.009114358 -0.017179584 0.013041274 0.011714882 -0.07398467 -0.0591292 -0.06948447 -0.058474153
0.052635882 0.060756437 -0.07777437 0.022542778 0.06424838 0.08246082 0.021339642 0.02251263
-0.062185023 0.051555466 0.035751805 -0.017085966 -0.09177947 -0.024951337 -0.050515853 0.0845778
0.014808886 -0.009648567 -0.0015189758 -0.011927686 -0.025270564 0.19176012 0.053388875 0.034395356
0.0030146125 -0.043656774 0.01789839 -0.08074875 -0.060925025 -0.05346557 0.036092747 0.0341308
-0.16362953 -0.006980958 0.07907213 0.11249317 0.05195106 0.0053730602 0.024427945 -0.118857756
0.007832869 -0.016855322 -0.027792828 -0.015562884 0.041465808 0.029112516 -0.047833167 -0.0362215
0.058379125 0.008638312 0.073389836 0.058603495 0.06385696 0.09624605 -0.09116628 -0.05397376
0.124011025 0.07083655 0.08214612 0.02193655 -0.017330319 -0.072315976 0.0069725607 -0.10146376
-0.1276237 0.15943472 0.18256222 -0.1046226 0.0475586 -0.024773084 -0.027017057 -0.05102434
0.04383502 -0.048296165 0.0468869 0.10568411 0.08397002 0.035652775 -0.11487784 -0.094187856
0.08346324 0.043220814 -0.08046444 -0.078835644 0.06621833 0.10897294 -0.03130525 -0.0636031
-0.08564457 -0.02947994 -0.0985616 -0.108449236 -0.027433926 -0.034974027 -0.021397766 0.08740422
-0.06418931 0.10945531 0.06906445 -0.07439388 -0.03169078 0.023340283 0.066933595 0.022618325
0.00397466 0.031985573 -0.05975183 0.06861679 -0.087942176 -0.04890106 -0.091537625 -0.113037705
-0.05256438 -0.08778188 -0.024114475 0.029213741 -0.052482124 0.004337703 0.08074621 -0.00087444345
0.057612095 -0.004011602 0.005985744 0.10822051 0.11255369 0.11836825 0.106717944 -0.007422332
-0.07510144 -0.045414843 0.08729266 -0.0045843925 -0.062286556 -0.08920017 -0.115271755 -0.10777972
-0.039225463 0.0641564 0.03824245 -0.10692937 0.080349 -0.1019216 -0.009316294 -0.06134444
-0.03419936 -0.022907319 -0.11934362 -0.083946235 -0.034009837 -0.011142567 -0.041302554 0.019919775
-0.10126707 -0.009356573 0.084541075 -0.13037324 0.06094967 0.014977084 -0.16193701 0.05883615
-0.0048192674 -0.0711457 0.08575546 -0.09918571

model.qy_x.model.tcn_block_00.block.conv1d_layer_1.bias f4 [2]
00000000: 38d8 06be 8062 01be
-0.13168418 -0.12635231

model.qy_x.model.tcn_block_00.block.conv1d_layer_1.weight_g f4 [2, 1, 1]
00000000: d599 0f3f ec53 c63e
0.56094104 0.38735902

model.qy_x.model.tcn_block_00.block.conv1d_layer_1.weight_v f4 [2, 2, 9]
00000000: 9472 033d 8b32 ba3c 8420 ad3d 9efc 803d
00000010: 297a 3cbd 5f21 5cbd b3e2 4abe 6202 093c
00000020: 2618 f3bc fa9b 9c3d 3e0a 71be 943a 34be
00000030: b606 3bbe 0c7d 0abe 9634 17be 645a 81bd
00000040: 3dec 3abe caf3 55be 1527 e63b 3089 583e
00000050: 3651 7fbe ff2f 54be 54b9 2fbe a5fe 693e
00000060: b033 e2bd e379 503e 8a29 d13c 9111 1b3d
00000070: be3b ad3c 6232 d4bc edb8 863d 4314 9fbc
00000080: 1dbe 413d ff62 d13d d45e 04be c5e6 52bd
0.032091692 0.022729179 0.084534675 0.06298183 -0.04601494 -0.053742763 -0.19813041 0.0083623845
-0.0296746 0.07646938 -0.23539063 -0.17600471 -0.18264279 -0.13524264 -0.14766154 -0.06316069
-0.1825418 -0.2089378 0.007023702 0.21146083 -0.24933323 -0.20721434 -0.17160541 0.22851045
-0.11045015 0.20358996 0.025532503 0.03785855 0.021146651 -0.02590293 0.065782405 -0.019418841
0.047300447 0.1022396 -0.12926799 -0.05148961

model.qy_x.model.tcn_block_00.downsample.weight f4 [2, 10, 1]
00000000: 28a1 0abf 0dea 843e 6364 bc3d 93ef 0fbd
00000010: 5a11 d63c ad2a b5be e09f ad3e c25e ed3e
00000020: d758 a2be 04dd c93e 183d e23e 74a4 47be
00000030: 2ab2 8fbd 0dab fc3c fe8b 30bd 289e 8d3e
00000040: 3edc 77be 53d1 c1be a78e 6f3e 4657 8dbe
-0.54152155 0.25959817 0.09198835 -0.035140585 0.02613132 -0.35384122 0.33911037 0.46361357
-0.31708404 0.39426434 0.44187236 -0.19496328 -0.07016404 0.030843282 -0.043102257 0.27659726
-0.2420511 -0.37855014 0.23394261 -0.27605647

model.qy_x.model.tcn_block_00.downsample.bias f4 [2]
00000000: 910a c3be a2cf a93e
-0.38094 0.33166224

model.qy_x.model.tcn_block_01.conv0.bias f4 [2]
00000000: 180a 3dbd 1248 813e
-0.046152204 0.25250298

model.qy_x.model.tcn_block_01.conv0.weight_g f4 [2, 1, 1]
00000000: 263f 1c3f 9258 323f
0.61033857 0.696664

model.qy_x.model.tcn_block_01.conv0.weight_v f4 [2, 2, 9]
00000000: 9efb 113e ad39 10be c5ba 47bc 2a14 24be
00000010: 40cd 893e 9792 5e3e 6e85 8ebe 673e 86be
00000020: a6f7 81be a767 523c 4b06 5bbc f9cc b1bd
00000030: 4af1 afbc 5fc6 443d 709e 33bd e3f8 883d
00000040: 4986 443c c17f 98bc 5624 49bb 4695 c13d
00000050: 04ff 6bbc e92a 0d3e fdf8 ddbd d789 8a3e
00000060: cab4 7ebe 1831 6dbe 6d68 c13d bfa2 e73c
00000070: 27b4 d1bd 44d3 123d 8cd5 43be c93b 0e3e
00000080: 2302 bbbe a3ed a93e 45d9 9e3e 5b1b e5bd
0.1425614 -0.14084502 -0.012190525 -0.16023317 0.26914406 0.21735607 -0.27836174 -0.26219484
-0.25384253 0.012842095 -0.0133682 -0.086816736 -0.02147736 0.048040744 -0.04385227 0.066880964
0.011994907 -0.018615605 -0.0030691824 0.094523 -0.014404062 0.137859 -0.10838506 0.27058288
-0.24873653 -0.23163259 0.09443746 0.028275846 -0.102394395 0.03584601 -0.1912443 0.13889994
-0.36525068 0.33189115 0.31025138 -0.11186858

model.qy_x.model.tcn_block_01.conv1.bias f4 [4]
00000000: 239b 40be 532e 0b3d 7126 12be e729 e53d
-0.1880918 0.033979725 -0.14272477 0.11189633

model.qy_x.model.tcn_block_01.conv1.weight_g f4 [4, 1, 1]
00000000: 8bd8 423f 750d 573f 95f9 f53e 7e30 1e3f
0.7611167 0.8400491 0.48041978 0.61792743

model.qy_x.model.tcn_block_01.conv1.weight_v f4 [4, 2, 9]
00000000: fb88 d8bd ab34 393e 01b4 b8bc d460 85bc
00000010: e6d0 1c3e 1c7f e23d 8264 293e 5db4 043e
00000020: c59a 0ebd efa9 88be f1b7 91be ee01 bb3c
00000030: a4d1 8dbe 0a96 b7be c005 c6bd 3457 8f3d
00000040: 3510 b1be 01c2 b4be c736 153d 3bc0 8e3d
00000050: 9c02 3dbe 54e0 61bd cf78 3b3e a34d ef3c
00000060: dafb be3d 99ee 92bd 0ef2 f7bd efb1 c33e
00000070: 2617 09bd bd61 0fbf 23fb 803e 02c6 61be
00000080: 1a20 c13d 8677 bbbd 54f7 f63d e8ae 083d
00000090: 6cf0 9abe 8049 6cbd ed7e 2cbe ee16 b03e
000000a0: 084b 3cbe 23de 8dbd e0e6 8b3e 4d04 a0bd
000000b0: c9cd 44be b622 fcbd 5c00 29bb 405d d7bc
000000c0: b3f1 5a3d e36c e3bc 1fc0 173d 205f 943e
000000d0: fa2a 923d 3c9d 083d 26c8 7d3e d40f ea3d
000000e0: b852 dfbc 213f 943e a484 173e 1fb4 15be
000000f0: 040b e93c 1554 99bd 1992 a53e 9685 3a3d
00000100: 9983 74be d0cf afbe a7a0 333e 69c7 7fbc
00000110: a84e 013e 0988 0b3d c44e 013e 7282 24bd
-0.10573002 0.18086497 -0.02254677 -0.016281523 0.15314063 0.110594004 0.16542247 0.12959428
-0.03481557 -0.2669215 -0.2846065 0.022828069 -0.27699006 -0.35856658 -0.096690655 0.069990546
-0.34582677 -0.35304263 0.036429193 0.06970259 -0.18458027 -0.055145577 0.18307804 0.029211825
0.093253806 -0.07174415 -0.12106715 0.3822169 -0.03346934 -0.5600851 0.25191602 -0.2204819
0.09429951 -0.09153657 0.12058893 0.03336993 -0.30261552 -0.057687283 -0.16845293 0.34392494
-0.18387997 -0.06927135 0.2732458 -0.0781332 -0.19219126 -0.12311308 -0.0025787568 -0.026289582
0.05345316 -0.027761882 0.037048455 0.28978825 0.071371034 0.033353075 0.24783382 0.114288
-0.027261123 0.28954414 0.14796692 -0.14619492 0.028447635 -0.074867405 0.32338026 0.045537554
-0.23878326 -0.34338236 0.17541753 -0.015611508 0.12627661 0.03406528 0.12627703 -0.040163465

model.qy_x.model.tcn_block_01.block.conv1d_layer_0.bias f4 [2]
00000000: 180a 3dbd 1248 813e
-0.046152204 0.25250298

model.qy_x.model.tcn_block_01.block.conv1d_layer_0.weight_g f4 [2, 1, 1]
00000000: 263f 1c3f 9258 323f
0.61033857 0.696664

model.qy_x.model.tcn_block_01.block.conv1d_layer_0.weight_v f4 [2, 2, 9]
00000000: 9efb 113e ad39 10be c5ba 47bc 2a14 24be
00000010: 40cd 893e 9792 5e3e 6e85 8ebe 673e 86be
00000020: a6f7 81be a767 523c 4b06 5bbc f9cc b1bd
00000030: 4af1 afbc 5fc6 443d 709e 33bd e3f8 883d
00000040: 4986 443c c17f 98bc 5624 49bb 4695 c13d
00000050: 04ff 6bbc e92a 0d3e fdf8 ddbd d789 8a3e
00000060: cab4 7ebe 1831 6dbe 6d68 c13d bfa2 e73c
00000070: 27b4 d1bd 44d3 123d 8cd5 43be c93b 0e3e
00000080: 2302 bbbe a3ed a93e 45d9 9e3e 5b1b e5bd
0.1425614 -0.14084502 -0.012190525 -0.16023317 0.26914406 0.21735607 -0.27836174 -0.26219484
-0.25384253 0.012842095 -0.0133682 -0.086816736 -0.02147736 0.048040744 -0.04385227 0.066880964
0.011994907 -0.018615605 -0.0030691824 0.094523 -0.014404062 0.137859 -0.10838506 0.27058288
-0.24873653 -0.23163259 0.09443746 0.028275846 -0.102394395 0.03584601 -0.1912443 0.13889994
-0.36525068 0.33189115 0.31025138 -0.11186858

model.qy_x.model.tcn_block_01.block.conv1d_layer_1.bias f4 [4]
00000000: 239b 40be 532e 0b3d 7126 12be e729 e53d
-0.1880918 0.033979725 -0.14272477 0.11189633

model.qy_x.model.tcn_block_01.block.conv1d_layer_1.weight_g f4 [4, 1, 1]
00000000: 8bd8 423f 750d 573f 95f9 f53e 7e30 1e3f
0.7611167 0.8400491 0.48041978 0.61792743

model.qy_x.model.tcn_block_01.block.conv1d_layer_1.weight_v f4 [4, 2, 9]
00000000: fb88 d8bd ab34 393e 01b4 b8bc d460 85bc
00000010: e6d0 1c3e 1c7f e23d 8264 293e 5db4 043e
00000020: c59a 0ebd efa9 88be f1b7 91be ee01 bb3c
00000030: a4d1 8dbe 0a96 b7be c005 c6bd 3457 8f3d
00000040: 3510 b1be 01c2 b4be c736 153d 3bc0 8e3d
00000050: 9c02 3dbe 54e0 61bd cf78 3b3e a34d ef3c
00000060: dafb be3d 99ee 92bd 0ef2 f7bd efb1 c33e
00000070: 2617 09bd bd61 0fbf 23fb 803e 02c6 61be
00000080: 1a20 c13d 8677 bbbd 54f7 f63d e8ae 083d
00000090: 6cf0 9abe 8049 6cbd ed7e 2cbe ee16 b03e
000000a0: 084b 3cbe 23de 8dbd e0e6 8b3e 4d04 a0bd
000000b0: c9cd 44be b622 fcbd 5c00 29bb 405d d7bc
000000c0: b3f1 5a3d e36c e3bc 1fc0 173d 205f 943e
000000d0: fa2a 923d 3c9d 083d 26c8 7d3e d40f ea3d
000000e0: b852 dfbc 213f 943e a484 173e 1fb4 15be
000000f0: 040b e93c 1554 99bd 1992 a53e 9685 3a3d
00000100: 9983 74be d0cf afbe a7a0 333e 69c7 7fbc
00000110: a84e 013e 0988 0b3d c44e 013e 7282 24bd
-0.10573002 0.18086497 -0.02254677 -0.016281523 0.15314063 0.110594004 0.16542247 0.12959428
-0.03481557 -0.2669215 -0.2846065 0.022828069 -0.27699006 -0.35856658 -0.096690655 0.069990546
-0.34582677 -0.35304263 0.036429193 0.06970259 -0.18458027 -0.055145577 0.18307804 0.029211825
0.093253806 -0.07174415 -0.12106715 0.3822169 -0.03346934 -0.5600851 0.25191602 -0.2204819
0.09429951 -0.09153657 0.12058893 0.03336993 -0.30261552 -0.057687283 -0.16845293 0.34392494
-0.18387997 -0.06927135 0.2732458 -0.0781332 -0.19219126 -0.12311308 -0.0025787568 -0.026289582
0.05345316 -0.027761882 0.037048455 0.28978825 0.071371034 0.033353075 0.24783382 0.114288
-0.027261123 0.28954414 0.14796692 -0.14619492 0.028447635 -0.074867405 0.32338026 0.045537554
-0.23878326 -0.34338236 0.17541753 -0.015611508 0.12627661 0.03406528 0.12627703 -0.040163465

model.qy_x.model.tcn_block_01.downsample.weight f4 [4, 2, 1]
00000000: 1d5d e13d d12a 4b3e 4b29 1fbe ad44 a53e
00000010: b2bb 8b3e fcbe 40be e044 7abf 153c c2bc
0.11004088 0.19840552 -0.15543096 0.32278958 0.27291638 -0.18822855 -0.97761345 -0.02371029

model.qy_x.model.tcn_block_01.downsample.bias f4 [4]
00000000: 50c6 36bf ef9a f93e f9c3 493f 1d00 8cbe
-0.7139635 0.48751017 0.78814656 -0.27343836

model.qy_x.model.final_dense_02.weight f4 [4, 4, 1]
00000000: 59de a43e 2c50 473f ac35 1cbf b887 86be
00000010: 0145 52bd 64fa 85bf 8894 213f a796 4abf
00000020: dd74 bebe 3e65 063f 0499 08bd bced 163f
00000030: 97b1 233f 668a 97be e4ac ee3d 30ee 5abe
0.32200888 0.7785671 -0.61019397 -0.2627542 -0.05133534 -1.0467038 0.63117266 -0.7913613
-0.37198535 0.52498233 -0.033349052 0.58956504 0.63942856 -0.29597777 0.1165407 -0.21379924

model.qy_x.model.final_dense_02.bias f4 [4]
00000000: e8a7 4dbe b253 d33d 4903 db3d 31d5 a3be
-0.20083582 0.10318698 0.10693986 -0.3199859

model.encoder.model.tcn_block_00.conv0.bias f4 [2]
00000000: af0a 103f 4cb1 95be
0.562663 -0.2923683

model.encoder.model.tcn_block_00.conv0.weight_g f4 [2, 1, 1]
00000000: bfe8 5a3f c8a5 563f
0.8551139 0.8384671

model.encoder.model.tcn_block_00.conv0.weight_v f4 [2, 14, 9]
00000000: 2747 e53b 338c 5e3c 136b 9b3c d45e f03b
00000010: baf8 85b9 6f86 88bb 286d 8ebb 8698 95ba
00000020: b0f9 7cbc da15 cd3a b4ed bbbc 4b24 efbb
00000030: 9573 213c 37b9 1b3c edd1 f93c 52cd cb3c
00000040: 2ada 4f3c 4d1b b13c fcfe 9fbb 67dc e23a
00000050: c30b a63a eda3 fd3b 3bae 923c b2be 6abc
00000060: 32b0 74bc 4694 0aba 0a85 603d a359 1cbe
00000070: d6c6 e63d bf60 0c3e a7ce f1bd b7c7 4a3d
00000080: 84cf 57be c76e 48be 3547 88bd c2ab 8c3d
00000090: 84cc 6a3d 7c58 c3bb 532e d13c e801 123e
000000a0: d1ea 853d 55c8 1b3e c6ac 0e3e 9746 db3c
000000b0: 0ab2 c2bc 62c1 e8ba 0161 653c 4976 bd3b
000000c0: 4ef1 68bc d805 39bb 0cf3 5ebd fe03 3dbd
000000d0: da77 0fbd 1c3d 30bd 7c55 bcbb e0fe 3b3b
000000e0: b3ae f7bc 1d4f b4bd bd9b 4abd f231 a2bd
000000f0: b06c 77bd f2b1 04bc 926d 993c 7bbf 2b3c
00000100: e3af 69ba b021 2ebc b792 2fbd 408d aebc
00000110: f4a8 54bd 6b6f c0bc 58d4 543b 5682 123d
00000120: 2a66 623c 5b41 723c 754f 953c 9a97 183d
00000130: 2ada 433c 8c69 e63c 62ef 983c 0696 9ebb
00000140: f28c 07bd 5c2f 2c3a bbb1 933a 1406 993c
00000150: 69ee 883d 3441 293d 3971 ad3d b1e4 8e3d
00000160: 78be 843b b532 37bc 72dc 943e f631 2b3e
00000170: f604 a23b 777b 213e 410d e23d f6f2 423e
00000180: fa76 893e 2711 463e a0fd bc3d d1e1 2f3e
00000190: 2639 bbbb 723a 0b3e f0a5 733e 6e11 553d
000001a0: 82c9 813e b466 923d 7403 b3bb d082 ca3d
000001b0: 3bf9 5e3d d9b1 013e ac26 f73d 4771 c63d
000001c0: 9cd3 083e a2f5 773d 72be 0a3e b0b6 233e
000001d0: 1b39 f53d fbcb 723d 3918 373e d6fd 3b3e
000001e0: 5523 f4bc 99b7 423e b659 37bd 009b 0c3e
000001f0: 3f50 0e3e 2102 4a3e ec60 833d c6db 2d3d
00000200: 07c7 2b3c dcae 19bd ca7c 0cbc 6438 14bd
00000210: 4da2 b9bd 7b4a 35bd 38f6 d7bc c595 aebd
00000220: 2e9a 94bd e6a1 673b 52de 133d d8c9 99bb
00000230: 4874 0f3d f99b a93d 7bec 2d3d df15 b03d
00000240: f617 3a3a dbec d3bb 0722 90bc 4e1c 76ba
00000250: 3354 583d 83d5 493d 0f72 d63c d371 2a3d
00000260: 765e b33d 38a5 cebb 7c6a f73c 03db 3e3b
00000270: 8e6f 8f3b 4699 e9bc 3026 2dbc b173 123d
00000280: f4a7 123c 0fcc 263d d667 0fbd a6e3 72bc
00000290: 6d85 ebbc bd69 5fbd 67c9 1dbc 234c 4ebd
000002a0: d5c9 70bd 4b98 aebd ccd5 9dbd 51a5 453d
000002b0: db09 193d c8a2 40bc c934 763c 2b8c 21bd
000002c0: 3fe1 71bc a915 3d39 f4f2 32bd 839c a2bd
000002d0: 1ef3 73bc f8ff e937 1ae3 fb3c 5079 403d
000002e0: 8c60 993d 9629 2c3d 8942 b53d 752c fb3d
000002f0: 1d16 1e3e 3971 a9bc 0a0d f8bc f8c3 e83c
00000300: cda0 603d 80cd 103c 70cb e73c 4357 c43d
00000310: 330d 8b3d f11c 233d 6e49 e3ba 2b0b 0f3d
00000320: 6d52 dfbc 6ab5 773c 3b23 3f3b 8378 15bd
00000330: d0dc 96bd b4c1 9bbd 5f20 bebd 7158 42bd
00000340: 84af 9dbd 1b8c 32bd 9a18 82bd f789 e53b
00000350: d701 28bd 8896 d73c 0577 c3bc 6ced bdbc
00000360: f542 f83d ac6a 3e3d fc78 ecbb 33ec 5bbd
00000370: b40b 82bd d033 a8bd 44a9 33be 906a 04be
00000380: 6cf5 26be c676 7cbe ff72 eabd 74e3 d3bd
00000390: a8fa 21be 8df6 0abe 44e0 84be ed45 3dbe
000003a0: 91cd 11be bd69 40be c15f 48bd 6622 bc3c
000003b0: 1ca5 cc3c 3207 a2bc 0160 4b3d abd1 84bc
000003c0: a1d0 1abb 4b7a ed3c f816 443d a7c9 cf3d
000003d0: 59bf 16be c393 31be d5b3 04bc 5f9e 1ebe
000003e0: 8392 763e f942 0ebc 84fe 91bd a602 a43b
0.0069970074 0.013583231 0.018971955 0.007335523 -0.00025553053 -0.0041664164 -0.0043465085 -0.0011413253
-0.0154403895 0.0015646771 -0.022940494 -0.0072980276 0.009854217 0.009504608 0.030495608 0.024878178
0.012686292 0.021619463 -0.0048826914 0.0017308117 0.00126683 0.0077404887 0.017905345 -0.014327692
-0.014934586 -0.00052863767 0.054814376 -0.15268569 0.11268394 0.1370878 -0.11806994 0.04950687
-0.21075255 -0.19573508 -0.06654207 0.06868698 0.057323948 -0.005961476 0.025534784 0.1425854
0.06538928 0.1521314 0.13933095 0.026767058 -0.023766536 -0.0017757828 0.014000178 0.005781923
-0.014217688 -0.0028232243 -0.054431006 -0.046146385 -0.03502641 -0.04302703 -0.005747495 0.0028685853
-0.03023467 -0.08804152 -0.04946493 -0.079196826 -0.060406387 -0.008099066 0.018729005 0.010482664
-0.0008914454 -0.010628149 -0.042864528 -0.021307588 -0.05191894 -0.023490628 0.00324752 0.03576883
0.013818303 0.01478609 0.018226365 0.037253954 0.01195387 0.0281265 0.018668834 -0.0048396615
-0.0330934 0.00065683364 0.0011268178 0.018679656 0.06686098 0.04132195 0.08468861 0.06977213
0.004051026 -0.011181523 0.29074436 0.16718277 0.004944439 0.15769754 0.11037684 0.19037995
0.26848584 0.1934248 0.09228063 0.17175986 -0.0057135997 0.13596514 0.23793769 0.052018575
0.2534905 0.07148495 -0.005463058 0.09888232 0.054436903 0.126655 0.12067923 0.09689575
0.13361973 0.060536988 0.13549212 0.15987659 0.11973783 0.059276562 0.17880334 0.1835855
-0.029802004 0.1901535 -0.04476329 0.13731003 0.13897799 0.19727375 0.06414971 0.04244592
0.010484464 -0.037520275 -0.008574674 -0.03618659 -0.090641595 -0.044260483 -0.026362523 -0.0852466
-0.0725597 0.0035344302 0.036100693 -0.004693251 0.035023004 0.082817025 0.042461853 0.085979216
0.00070989074 -0.0064674444 -0.01759435 -0.0009388373 0.052814674 0.049275886 0.026177434 0.041612457
0.08758251 -0.0063063167 0.030202143 0.002912224 0.004377312 -0.02851547 -0.010568187 0.035754863
0.008951176 0.04072195 -0.035011135 -0.014824783 -0.028750146 -0.0545442 -0.009630538 -0.05036558
-0.058786232 -0.08525141 -0.07706794 0.04825336 0.037362915 -0.01175756 0.015027233 -0.039440315
-0.0147631755 0.00018032514 -0.04368873 -0.079400085 -0.014889507 2.789496e-05 0.030747939 0.046990693
0.07489118 0.042031847 0.08850581 0.12264339 0.15438123 -0.020683872 -0.030279655 0.028413758
0.05484085 0.0088380575 0.028295249 0.09586956 0.06789627 0.039822523 -0.0017340609 0.03492276
-0.027260983 0.015118936 0.0029165286 -0.036491882 -0.073663354 -0.07605305 -0.09283518 -0.047447626
-0.076994926 -0.043590646 -0.063523486 0.007004972 -0.04101738 0.026316896 -0.023860464 -0.0231845
0.12122146 0.04648845 -0.007216571 -0.053692054 -0.063498884 -0.082130075 -0.17545038 -0.12931275
-0.16304559 -0.24654683 -0.11447715 -0.103461176 -0.15818274 -0.13570614 -0.2595235 -0.18483706
-0.14238574 -0.18790336 -0.048919443 0.022965621 0.024981074 -0.019778822 0.049652103 -0.016213259
-0.0023622888 0.028988978 0.047873467 0.10145884 -0.14721431 -0.17341523 -0.008099516 -0.15490101
0.24079327 -0.00868296 -0.07128623 0.0050051985

model.encoder.model.tcn_block_00.conv1.bias f4 [2]
00000000: 9b15 d13b 4ff0 913e
0.0063807494 0.28503653

model.encoder.model.tcn_block_00.conv1.weight_g f4 [2, 1, 1]
00000000: 20e2 e93c cc31 7b3f
0.028550208 0.9812286

model.encoder.model.tcn_block_00.conv1.weight_v f4 [2, 2, 9]
00000000: 7681 063d 878e 8abd 36d1 383d b1e2 ee3d
00000010: ef51 803d 1133 42bd cab5 05bd ece8 0bbe
00000020: 055b 97bd 14e9 ec3d 22cc b6be 1b0c c83d
00000030: e789 b7be acfe d7be 3530 a8be 01bc c5be
00000040: 779e cbbe c783 d6be f704 b03d 4eeb 0e3e
00000050: 6f2b 853e 2578 8b3e dba7 443d 5f4b 673e
00000060: ff99 c33b 3af2 f83b 13bb 4c3e 4fc8 363e
00000070: fb6f 8b3d c031 e4bb 671a d6bc c168 113e
00000080: 8385 c0bd e191 66bd 3de9 3dbe 81d0 19be
0.032838307 -0.06765466 0.045121394 0.11664332 0.062656276 -0.047411982 -0.03264407 -0.13663071
-0.073904075 0.115678936 -0.35702616 0.09767934 -0.358474 -0.42186487 -0.3284928 -0.38619998
-0.39769337 -0.41897413 0.08594697 0.13956949 0.260097 0.272401 0.048011642 0.22587346
0.0059692855 0.007597235 0.19993238 0.17849849 0.06808468 -0.0069639385 -0.026135636 0.14200117
-0.09400465 -0.056291465 -0.18546005 -0.15020944

model.encoder.model.tcn_block_00.block.conv1d_layer_0.bias f4 [2]
00000000: af0a 103f 4cb1 95be
0.562663 -0.2923683

model.encoder.model.tcn_block_00.block.conv1d_layer_0.weight_g f4 [2, 1, 1]
00000000: bfe8 5a3f c8a5 563f
0.8551139 0.8384671

model.encoder.model.tcn_block_00.block.conv1d_layer_0.weight_v f4 [2, 14, 9]
00000000: 2747 e53b 338c 5e3c 136b 9b3c d45e f03b
00000010: baf8 85b9 6f86 88bb 286d 8ebb 8698 95ba
00000020: b0f9 7cbc da15 cd3a b4ed bbbc 4b24 efbb
00000030: 9573 213c 37b9 1b3c edd1 f93c 52cd cb3c
00000040: 2ada 4f3c 4d1b b13c fcfe 9fbb 67dc e23a
00000050: c30b a63a eda3 fd3b 3bae 923c b2be 6abc
00000060: 32b0 74bc 4694 0aba 0a85 603d a359 1cbe
00000070: d6c6 e63d bf60 0c3e a7ce f1bd b7c7 4a3d
00000080: 84cf 57be c76e 48be 3547 88bd c2ab 8c3d
00000090: 84cc 6a3d 7c58 c3bb 532e d13c e801 123e
000000a0: d1ea 853d 55c8 1b3e c6ac 0e3e 9746 db3c
000000b0: 0ab2 c2bc 62c1 e8ba 0161 653c 4976 bd3b
000000c0: 4ef1 68bc d805 39bb 0cf3 5ebd fe03 3dbd
000000d0: da77 0fbd 1c3d 30bd 7c55 bcbb e0fe 3b3b
000000e0: b3ae f7bc 1d4f b4bd bd9b 4abd f231 a2bd
000000f0: b06c 77bd f2b1 04bc 926d 993c 7bbf 2b3c
00000100: e3af 69ba b021 2ebc b792 2fbd 408d aebc
00000110: f4a8 54bd 6b6f c0bc 58d4 543b 5682 123d
00000120: 2a66 623c 5b41 723c 754f 953c 9a97 183d
00000130: 2ada 433c 8c69 e63c 62ef 983c 0696 9ebb
00000140: f28c 07bd 5c2f 2c3a bbb1 933a 1406 993c
00000150: 69ee 883d 3441 293d 3971 ad3d b1e4 8e3d
00000160: 78be 843b b532 37bc 72dc 943e f631 2b3e
00000170: f604 a23b 777b 213e 410d e23d f6f2 423e
00000180: fa76 893e 2711 463e a0fd bc3d d1e1 2f3e
00000190: 2639 bbbb 723a 0b3e f0a5 733e 6e11 553d
000001a0: 82c9 813e b466 923d 7403 b3bb d082 ca3d
000001b0: 3bf9 5e3d d9b1 013e ac26 f73d 4771 c63d
000001c0: 9cd3 083e a2f5 773d 72be 0a3e b0b6 233e
000001d0: 1b39 f53d fbcb 723d 3918 373e d6fd 3b3e
000001e0: 5523 f4bc 99b7 423e b659 37bd 009b 0c3e
000001f0: 3f50 0e3e 2102 4a3e ec60 833d c6db 2d3d
00000200: 07c7 2b3c dcae 19bd ca7c 0cbc 6438 14bd
00000210: 4da2 b9bd 7b4a 35bd 38f6 d7bc c595 aebd
00000220: 2e9a 94bd e6a1 673b 52de 133d d8c9 99bb
00000230: 4874 0f3d f99b a93d 7bec 2d3d df15 b03d
00000240: f617 3a3a dbec d3bb 0722 90bc 4e1c 76ba
00000250: 3354 583d 83d5 493d 0f72 d63c d371 2a3d
00000260: 765e b33d 38a5 cebb 7c6a f73c 03db 3e3b
00000270: 8e6f 8f3b 4699 e9bc 3026 2dbc b173 123d
00000280: f4a7 123c 0fcc 263d d667 0fbd a6e3 72bc
00000290: 6d85 ebbc bd69 5fbd 67c9 1dbc 234c 4ebd
000002a0: d5c9 70bd 4b98 aebd ccd5 9dbd 51a5 453d
000002b0: db09 193d c8a2 40bc c934 763c 2b8c 21bd
000002c0: 3fe1 71bc a915 3d39 f4f2 32bd 839c a2bd
000002d0: 1ef3 73bc f8ff e937 1ae3 fb3c 5079 403d
000002e0: 8c60 993d 9629 2c3d 8942 b53d 752c fb3d
000002f0: 1d16 1e3e 3971 a9bc 0a0d f8bc f8c3 e83c
00000300: cda0 603d 80cd 103c 70cb e73c 4357 c43d
00000310: 330d 8b3d f11c 233d 6e49 e3ba 2b0b 0f3d
00000320: 6d52 dfbc 6ab5 773c 3b23 3f3b 8378 15bd
00000330: d0dc 96bd b4c1 9bbd 5f20 bebd 7158 42bd
00000340: 84af 9dbd 1b8c 32bd 9a18 82bd f789 e53b
00000350: d701 28bd 8896 d73c 0577 c3bc 6ced bdbc
00000360: f542 f83d ac6a 3e3d fc78 ecbb 33ec 5bbd
00000370: b40b 82bd d033 a8bd 44a9 33be 906a 04be
00000380: 6cf5 26be c676 7cbe ff72 eabd 74e3 d3bd
00000390: a8fa 21be 8df6 0abe 44e0 84be ed45 3dbe
000003a0: 91cd 11be bd69 40be c15f 48bd 6622 bc3c
000003b0: 1ca5 cc3c 3207 a2bc 0160 4b3d abd1 84bc
000003c0: a1d0 1abb 4b7a ed3c f816 443d a7c9 cf3d
000003d0: 59bf 16be c393 31be d5b3 04bc 5f9e 1ebe
000003e0: 8392 763e f942 0ebc 84fe 91bd a602 a43b
0.0069970074 0.013583231 0.018971955 0.007335523 -0.00025553053 -0.0041664164 -0.0043465085 -0.0011413253
-0.0154403895 0.0015646771 -0.022940494 -0.0072980276 0.009854217 0.009504608 0.030495608 0.024878178
0.012686292 0.021619463 -0.0048826914 0.0017308117 0.00126683 0.0077404887 0.017905345 -0.014327692
-0.014934586 -0.00052863767 0.054814376 -0.15268569 0.11268394 0.1370878 -0.11806994 0.04950687
-0.21075255 -0.19573508 -0.06654207 0.06868698 0.057323948 -0.005961476 0.025534784 0.1425854
0.06538928 0.1521314 0.13933095 0.026767058 -0.023766536 -0.0017757828 0.014000178 0.005781923
-0.014217688 -0.0028232243 -0.054431006 -0.046146385 -0.03502641 -0.04302703 -0.005747495 0.0028685853
-0.03023467 -0.08804152 -0.04946493 -0.079196826 -0.060406387 -0.008099066 0.018729005 0.010482664
-0.0008914454 -0.010628149 -0.042864528 -0.021307588 -0.05191894 -0.023490628 0.00324752 0.03576883
0.013818303 0.01478609 0.018226365 0.037253954 0.01195387 0.0281265 0.018668834 -0.0048396615
-0.0330934 0.00065683364 0.0011268178 0.018679656 0.06686098 0.04132195 0.08468861 0.06977213
0.004051026 -0.011181523 0.29074436 0.16718277 0.004944439 0.15769754 0.11037684 0.19037995
0.26848584 0.1934248 0.09228063 0.17175986 -0.0057135997 0.13596514 0.23793769 0.052018575
0.2534905 0.07148495 -0.005463058 0.09888232 0.054436903 0.126655 0.12067923 0.09689575
0.13361973 0.060536988 0.13549212 0.15987659 0.11973783 0.059276562 0.17880334 0.1835855
-0.029802004 0.1901535 -0.04476329 0.13731003 0.13897799 0.19727375 0.06414971 0.04244592
0.010484464 -0.037520275 -0.008574674 -0.03618659 -0.090641595 -0.044260483 -0.026362523 -0.0852466
-0.0725597 0.0035344302 0.036100693 -0.004693251 0.035023004 0.082817025 0.042461853 0.085979216
0.00070989074 -0.0064674444 -0.01759435 -0.0009388373 0.052814674 0.049275886 0.026177434 0.041612457
0.08758251 -0.0063063167 0.030202143 0.002912224 0.004377312 -0.02851547 -0.010568187 0.035754863
0.008951176 0.04072195 -0.035011135 -0.014824783 -0.028750146 -0.0545442 -0.009630538 -0.05036558
-0.058786232 -0.08525141 -0.07706794 0.04825336 0.037362915 -0.01175756 0.015027233 -0.039440315
-0.0147631755 0.00018032514 -0.04368873 -0.079400085 -0.014889507 2.789496e-05 0.030747939 0.046990693
0.07489118 0.042031847 0.08850581 0.12264339 0.15438123 -0.020683872 -0.030279655 0.028413758
0.05484085 0.0088380575 0.028295249 0.09586956 0.06789627 0.039822523 -0.0017340609 0.03492276
-0.027260983 0.015118936 0.0029165286 -0.036491882 -0.073663354 -0.07605305 -0.09283518 -0.047447626
-0.076994926 -0.043590646 -0.063523486 0.007004972 -0.04101738 0.026316896 -0.023860464 -0.0231845
0.12122146 0.04648845 -0.007216571 -0.053692054 -0.063498884 -0.082130075 -0.17545038 -0.12931275
-0.16304559 -0.24654683 -0.11447715 -0.103461176 -0.15818274 -0.13570614 -0.2595235 -0.18483706
-0.14238574 -0.18790336 -0.048919443 0.022965621 0.024981074 -0.019778822 0.049652103 -0.016213259
-0.0023622888 0.028988978 0.047873467 0.10145884 -0.14721431 -0.17341523 -0.008099516 -0.15490101
0.24079327 -0.00868296 -0.07128623 0.0050051985

model.encoder.model.tcn_block_00.block.conv1d_layer_1.bias f4 [2]
00000000: 9b15 d13b 4ff0 913e
0.0063807494 0.28503653

model.encoder.model.tcn_block_00.block.conv1d_layer_1.weight_g f4 [2, 1, 1]
00000000: 20e2 e93c cc31 7b3f
0.028550208 0.9812286

model.encoder.model.tcn_block_00.block.conv1d_layer_1.weight_v f4 [2, 2, 9]
00000000: 7681 063d 878e 8abd 36d1 383d b1e2 ee3d
00000010: ef51 803d 1133 42bd cab5 05bd ece8 0bbe
00000020: 055b 97bd 14e9 ec3d 22cc b6be 1b0c c83d
00000030: e789 b7be acfe d7be 3530 a8be 01bc c5be
00000040: 779e cbbe c783 d6be f704 b03d 4eeb 0e3e
00000050: 6f2b 853e 2578 8b3e dba7 443d 5f4b 673e
00000060: ff99 c33b 3af2 f83b 13bb 4c3e 4fc8 363e
00000070: fb6f 8b3d c031 e4bb 671a d6bc c168 113e
00000080: 8385 c0bd e191 66bd 3de9 3dbe 81d0 19be
0.032838307 -0.06765466 0.045121394 0.11664332 0.062656276 -0.047411982 -0.03264407 -0.13663071
-0.073904075 0.115678936 -0.35702616 0.09767934 -0.358474 -0.42186487 -0.3284928 -0.38619998
-0.39769337 -0.41897413 0.08594697 0.13956949 0.260097 0.272401 0.048011642 0.22587346
0.0059692855 0.007597235 0.19993238 0.17849849 0.06808468 -0.0069639385 -0.026135636 0.14200117
-0.09400465 -0.056291465 -0.18546005 -0.15020944

model.encoder.model.tcn_block_00.downsample.weight f4 [2, 14, 1]
00000000: 3bf5 803e a337 fcbd ce68 4fbd c1d1 a33c
00000010: 0bd6 babc 7953 2c3e b6ab 0bbe a29e 59be
00000020: 08b0 123e 1db7 39be 5600 413f b1e3 3e3f
00000030: d11e 423f 4fb3 3f3f ce37 1d3e dcc3 02be
00000040: ba13 0ebe 48cd 69be 3354 b6ba 51dd 0b3e
00000050: 0b4a 6abd da36 2cbe 8141 233e 7152 fabd
00000060: 658b ac3e fa01 2a3f 0ebb 313f b7e7 4e3f
0.25187096 -0.12315299 -0.05063706 0.01999748 -0.022807142 0.16828717 -0.13639721 -0.2125192
0.14324963 -0.18136258 0.7539114 0.7456618 0.7582827 0.7488298 0.15353319 -0.12770027
-0.13874713 -0.22832215 -0.0013910591 0.13658644 -0.05719952 -0.16817799 0.15942957 -0.12222756
0.337001 0.66409266 0.6942605 0.8082232

model.encoder.model.tcn_block_00.downsample.bias f4 [2]
00000000: 1ce7 833f f9af 0b3f
1.0304904 0.5456539

model.encoder.model.tcn_block_01.conv0.bias f4 [2]
00000000: 2493 1ebe 9b1e 273f
-0.15485817 0.65281075

model.encoder.model.tcn_block_01.conv0.weight_g f4 [2, 1, 1]
00000000: d0e1 003f 4590 823f
0.5034456 1.0200278

model.encoder.model.tcn_block_01.conv0.weight_v f4 [2, 2, 9]
00000000: f638 d6bd ddef 92be 421f 05be f563 edbd
00000010: ab44 0bbe 7ca0 54be 7593 0ebd 7281 aabd
00000020: b13c 90be feae 5dbd b8de f23d e032 243e
00000030: a822 62be 3ae0 a3bd 427c 62bd 9298 dbbd
00000040: eaa9 183e 513d 20bd 20d2 c13e d2b2 5e3e
00000050: 2d17 d23d 6095 4d3b 2d3d cdbc 88af 30bd
00000060: c5fc 55bd 6246 a4bd ff30 c2bd 4d21 8c3d
00000070: c515 813d 3561 5d3d eaf4 93bd 90ac 47bc
00000080: 2a39 debd a149 33be 8825 4bbe 4ad4 4abe
-0.10460083 -0.28698626 -0.13000205 -0.11591331 -0.13600414 -0.20764345 -0.034808595 -0.08325471
-0.28171304 -0.054121964 0.118588865 0.16035032 -0.22083533 -0.08001752 -0.055294283 -0.1072246
0.14908567 -0.039120976 0.37855625 0.21747902 0.10258327 0.0031369552 -0.025053585 -0.04313615
-0.052243013 -0.08021237 -0.094820015 0.06842289 0.0630298 0.054047782 -0.07224448 -0.012187138
-0.10850747 -0.17508556 -0.19838536 -0.19807544

model.encoder.model.tcn_block_01.conv1.bias f4 [2]
00000000: b9c3 83bc e6c4 da3e
-0.016084539 0.42728347

model.encoder.model.tcn_block_01.conv1.weight_g f4 [2, 1, 1]
00000000: 4b4f ae3e fa01 a63f
0.3404487 1.2969353

model.encoder.model.tcn_block_01.conv1.weight_v f4 [2, 2, 9]
00000000: 975a 013f 6fec 1e3e 1f05 393c 5796 32be
00000010: c437 203d 9629 663c 00c0 bdbd fd6c c5bd
00000020: 9a0d 02bf 7782 043d e34b 3bbd ca26 b2bd
00000030: 9df7 da3d 869a 81bd 08ed 493c 27a8 96bd
00000040: 477a 84bd ab72 913d 7485 02bc 364e 363b
00000050: 723a d13b 58f9 423c 8fff 7c3c 8a6a 993c
00000060: 372e b43c 0292 ca3c 66f6 eb3c 697f 603e
00000070: 80a0 203e 3338 f13d baf1 d03d 7387 d33d
00000080: 052b e63d 5b9d f63d e076 0c3e 3fb4 513e
0.50528854 0.1551988 0.011292725 -0.17440163 0.039115682 0.014048001 -0.09265137 -0.096399285
-0.50802004 0.032350983 -0.045726668 -0.08698805 0.1069176 -0.06328301 0.012324579 -0.07356291
-0.06468635 0.07101949 -0.007966388 0.0027817613 0.006385141 0.0119002685 0.015441789 0.01872756
0.021994693 0.024727825 0.028804015 0.21923603 0.15686226 0.11778297 0.10202356 0.10328569
0.11238674 0.12041732 0.13717222 0.20478915

model.encoder.model.tcn_block_01.block.conv1d_layer_0.bias f4 [2]
00000000: 2493 1ebe 9b1e 273f
-0.15485817 0.65281075

model.encoder.model.tcn_block_01.block.conv1d_layer_0.weight_g f4 [2, 1, 1]
00000000: d0e1 003f 4590 823f
0.5034456 1.0200278

model.encoder.model.tcn_block_01.block.conv1d_layer_0.weight_v f4 [2, 2, 9]
00000000: f638 d6bd ddef 92be 421f 05be f563 edbd
00000010: ab44 0bbe 7ca0 54be 7593 0ebd 7281 aabd
00000020: b13c 90be feae 5dbd b8de f23d e032 243e
00000030: a822 62be 3ae0 a3bd 427c 62bd 9298 dbbd
00000040: eaa9 183e 513d 20bd 20d2 c13e d2b2 5e3e
00000050: 2d17 d23d 6095 4d3b 2d3d cdbc 88af 30bd
00000060: c5fc 55bd 6246 a4bd ff30 c2bd 4d21 8c3d
00000070: c515 813d 3561 5d3d eaf4 93bd 90ac 47bc
00000080: 2a39 debd a149 33be 8825 4bbe 4ad4 4abe
-0.10460083 -0.28698626 -0.13000205 -0.11591331 -0.13600414 -0.20764345 -0.034808595 -0.08325471
-0.28171304 -0.054121964 0.118588865 0.16035032 -0.22083533 -0.08001752 -0.055294283 -0.1072246
0.14908567 -0.039120976 0.37855625 0.21747902 0.10258327 0.0031369552 -0.025053585 -0.04313615
-0.052243013 -0.08021237 -0.094820015 0.06842289 0.0630298 0.054047782 -0.07224448 -0.012187138
-0.10850747 -0.17508556 -0.19838536 -0.19807544

model.encoder.model.tcn_block_01.block.conv1d_layer_1.bias f4 [2]
00000000: b9c3 83bc e6c4 da3e
-0.016084539 0.42728347

model.encoder.model.tcn_block_01.block.conv1d_layer_1.weight_g f4 [2, 1, 1]
00000000: 4b4f ae3e fa01 a63f
0.3404487 1.2969353

model.encoder.model.tcn_block_01.block.conv1d_layer_1.weight_v f4 [2, 2, 9]
00000000: 975a 013f 6fec 1e3e 1f05 393c 5796 32be
00000010: c437 203d 9629 663c 00c0 bdbd fd6c c5bd
00000020: 9a0d 02bf 7782 043d e34b 3bbd ca26 b2bd
00000030: 9df7 da3d 869a 81bd 08ed 493c 27a8 96bd
00000040: 477a 84bd ab72 913d 7485 02bc 364e 363b
00000050: 723a d13b 58f9 423c 8fff 7c3c 8a6a 993c
00000060: 372e b43c 0292 ca3c 66f6 eb3c 697f 603e
00000070: 80a0 203e 3338 f13d baf1 d03d 7387 d33d
00000080: 052b e63d 5b9d f63d e076 0c3e 3fb4 513e
0.50528854 0.1551988 0.011292725 -0.17440163 0.039115682 0.014048001 -0.09265137 -0.096399285
-0.50802004 0.032350983 -0.045726668 -0.08698805 0.1069176 -0.06328301 0.012324579 -0.07356291
-0.06468635 0.07101949 -0.007966388 0.0027817613 0.006385141 0.0119002685 0.015441789 0.01872756
0.021994693 0.024727825 0.028804015 0.21923603 0.15686226 0.11778297 0.10202356 0.10328569
0.11238674 0.12041732 0.13717222 0.20478915

model.qz_xy_mean.dense(qz_xy_mean)_layer_03.weight f4 [2, 2]
00000000: 729a e93f a0c3 45bd 1c18 8abe 8f6f 1f3f
1.8250258 -0.048282266 -0.2697152 0.622796

model.qz_xy_mean.dense(qz_xy_mean)_layer_03.bias f4 [2]
00000000: 16fe d1bf 1e56 2ebf
-1.6405666 -0.68100154

model.qz_xy_logvar.dense(qz_xy_logvar)_layer_03.weight f4 [2, 2]
00000000: 5e4b 8abf bc46 c1bf 4e78 a1be a529 48bf
-1.080425 -1.5099711 -0.31537098 -0.78188545

model.qz_xy_logvar.dense(qz_xy_logvar)_layer_03.bias f4 [2]
00000000: 793d 38bf aaf8 57bf
-0.719688 -0.84363806

model.py_t_probs.dense(py_t_probs)_layer_00.weight f4 [4, 2]
00000000: e20b f33e d38a 9dbd ccd6 a5be e817 f2bd
00000010: d470 913e f58f b1bd c080 8b3c 41b5 cbbd
0.47470003 -0.07692494 -0.3239044 -0.11820966 0.28406394 -0.08670036 0.017029166 -0.09946681

model.py_t_probs.dense(py_t_probs)_layer_00.bias f4 [4]
00000000: f190 98be 3ed2 7a3f 61bc 103f df6a cf3d
-0.29798082 0.97977054 0.56537443 0.10127806

model.pz_t_mean.dense(pz_t_mean)_layer_00.weight f4 [8, 2]
00000000: e852 7b3f ac45 aebd c01a 133e 3110 833f
00000010: b2ff 753f 92eb 5fbd e51a 6a3c 780e 773f
00000020: 48ea 7d3f 3741 3c3b e627 0fb9 948c 6d3f
00000030: e6c4 7b3f f789 50bd 466b 993d b684 7f3f
0.9817338 -0.085093826 0.14365673 1.0239316 0.96093285 -0.054668017 0.014288639 0.9650645
0.9918561 0.0028725395 -0.00013652406 0.9279263 0.9834732 -0.050912824 0.07491164 0.99811876

model.pz_t_mean.dense(pz_t_mean)_layer_00.bias f4 [8]
00000000: 35f8 853e 6eb4 07bf 2b83 be3d b819 ca3c
00000010: 87ea c63d 5b74 583d f8bb d53d b124 eabd
0.2616593 -0.5300969 0.09302362 0.024670467 0.09712701 0.05284534 0.10436243 -0.114327796

model.pz_t_logvar.dense(pz_t_logvar)_layer_00.weight f4 [2, 4]
00000000: abe7 08c0 0eb2 9cbf 3194 05c0 558c e0bf
00000010: 858a 18c0 0c09 89bf 0949 c2bf 33b3 d1bf
-2.13914 -1.2241838 -2.08717 -1.7542826 -2.3834546 -1.0705886 -1.5178539 -1.6382812

model.pz_t_logvar.dense(pz_t_logvar)_layer_00.bias f4 [2]
00000000: d7ed 02c0 47d7 8cbf
-2.0457666 -1.1003197

model.decoder.dense(decoder)_layer_00.weight f4 [10, 2]
00000000: 37df fc3e 0ee4 153d 74f1 f7be c99a db3c
00000010: 3b12 f4be be04 dabd d3fe 6f3e 9fd9 c3be
00000020: c2ad cabb 4a5d f63e 092e ee3e cd81 e5bd
00000030: 7fb0 90be 6ea9 d9be 5799 ebbe 3f91 60be
00000040: ec91 f33e 874a 343e f068 a5be 8963 aa3e
0.4938905 0.036594443 -0.48426402 0.026807206 -0.4767016 -0.10645436 0.23437051 -0.3825197
-0.0061852643 0.4811805 0.46519497 -0.11206398 -0.28259656 -0.42512077 -0.46015427 -0.21930407
0.47572267 0.17606555 -0.32306623 0.33279064

model.decoder.dense(decoder)_layer_00.bias f4 [10]
00000000: 4821 44bf 722b 223f a6d8 5f3f 7425 ca3e
00000010: 3550 68bf b34d e3be e48f 9a3f f721 883f
00000020: 7281 80bf 997f 34be
-0.76613283 0.6334754 0.87439954 0.394817 -0.90747386 -0.44395217 1.2075162 1.0635365
-1.0039504 -0.176268

inference.model.qy_x.model.tcn_block_00.conv0.bias f4 [2]
00000000: 187e 2c3b bcf8 093e
0.0026320275 0.13473791

inference.model.qy_x.model.tcn_block_00.conv0.weight_g f4 [2, 1, 1]
00000000: 966d 173f 96d5 123f
0.5915159 0.57357156

inference.model.qy_x.model.tcn_block_00.conv0.weight_v f4 [2, 10, 9]
00000000: 70a2 853d 33ee 143d ebcf e4bd 7dd3 1dbe
00000010: d5b2 bebd d7f8 da3c ac30 863c ea1a ab3d
00000020: 6354 15bc 33bc 8cbc 11ab 553c c7ef 3f3c
00000030: 4685 97bd 7631 72bd e04d 8ebd 9882 6fbd
00000040: b998 573d bedb 783d 2b48 9fbd a2ab b83c
00000050: a894 833d 38e1 a83d 79d0 ae3c 686c b83c
00000060: b9b5 7ebd d32b 533d 7c70 123d def7 8bbc
00000070: e0f6 bbbd bf66 ccbc b6e9 4ebd 2037 ad3d
00000080: f8a0 723c 0615 1ebc 5f18 c7ba 576c 43bc
00000090: 3704 cfbc c45c 443e 4bae 5a3d 25e2 0c3d
000000a0: ce90 453b 72d1 32bd a59f 923c 9a5f a5bd
000000b0: 858c 79bd b7fe 5abd fdd5 133d bdcc 0b3d
000000c0: 808e 27be 85c0 e4bb 92f0 a13d d262 e63d
000000d0: a2ca 543d 7f10 b03b 1d1d c83c b26b f3bd
000000e0: 6f55 003c 2c14 8abc c9ad e3bc 77fb 7ebc
000000f0: 0dd8 293d 5f7d ee3c b6ec 43bd ff5c 14bd
00000100: f31e 6f3d b587 0d3c 694d 963d 380a 703d
00000110: 70c7 823d a61c c53d 63b5 babd 9713 5dbd
00000120: 7ef9 fd3d c112 913d 3a3c a83d 48b4 b33c
00000130: 50f8 8dbc 661a 94bd 147a e43b 3bcc cfbd
00000140: caaf 02be db42 233e 97f1 3a3e 6044 d6bd
00000150: cecc 423d ecf0 cabc e052 ddbc e6fe 50bd
00000160: 5a8c 333d 33d2 45bd 7a0c 403d e970 d83d
00000170: 79f8 ab3d a508 123d 1345 ebbd 90e5 c0bd
00000180: c6ee aa3d 4f08 313d 8aca a4bd 9574 a1bd
00000190: 7a9d 873d 342d df3d ef39 00bd 5842 82bd
000001a0: 6c66 afbd ea7f f1bc aada c9bd a21a debd
000001b0: 1dbd e0bc ed40 0fbd 5e4a afbc fc00 b33d
000001c0: af75 83bd 1b2a e03d aa71 8d3d d25b 98bd
000001d0: 31ce 01bd 1f34 bf3c 7b14 893d 114a b93c
000001e0: dd3d 823b 4e03 033d 56be 74bd f686 8c3d
000001f0: 071b b4bd 7a4c 48bd 1478 bbbd 5080 e7bd
00000200: bf4d 57bd fcc6 b3bd b88b c5bc a851 ef3c
00000210: 7ff7 56bd 4a23 8e3b 455e a53d e83a 65ba
00000220: a9fa 6b3d c273 83bb 0f24 c43b b7a2 dd3d
00000230: 8d82 e63d 0e6b f23d f08e da3d 0937 f3bb
00000240: c9ce 99bd ea04 3abd 7ec6 b23d ac38 96bb
00000250: 3020 7fbd 94ae b6bd 9913 ecbd 9dbb dcbd
00000260: e1aa 20bd 6e64 833d 1ea4 1c3d c9fd dabd
00000270: 048e a43d 46bc d0bd 5fa3 18bc 4f44 7bbd
00000280: a114 0cbd 21a8 bbbc 6e6a f4bd 01ec abbd
00000290: e64d 0bbd 508f 36bc de2c 29bd cc2e a33c
000002a0: 1c65 cfbd 504c 19bc df23 ad3d 9080 05be
000002b0: 5ca6 793d 7162 753c d1d2 25be 2dfe 703d
000002c0: f2ea 9dbb d6b4 91bd 8fa0 af3d e121 cbbd
0.06525123 0.036359977 -0.1117247 -0.15412708 -0.09311453 0.026729984 0.01638063 0.08354743
-0.009114358 -0.017179584 0.013041274 0.011714882 -0.07398467 -0.0591292 -0.06948447 -0.058474153
0.052635882 0.060756437 -0.07777437 0.022542778 0.06424838 0.08246082 0.021339642 0.02251263
-0.062185023 0.051555466 0.035751805 -0.017085966 -0.09177947 -0.024951337 -0.050515853 0.0845778
0.014808886 -0.009648567 -0.0015189758 -0.011927686 -0.025270564 0.19176012 0.053388875 0.034395356
0.0030146125 -0.043656774 0.01789839 -0.08074875 -0.060925025 -0.05346557 0.036092747 0.0341308
-0.16362953 -0.006980958 0.07907213 0.11249317 0.05195106 0.0053730602 0.024427945 -0.118857756
0.007832869 -0.016855322 -0.027792828 -0.015562884 0.041465808 0.029112516 -0.047833167 -0.0362215
0.058379125 0.008638312 0.073389836 0.058603495 0.06385696 0.09624605 -0.09116628 -0.05397376
0.124011025 0.07083655 0.08214612 0.02193655 -0.017330319 -0.072315976 0.0069725607 -0.10146376
-0.1276237 0.15943472 0.18256222 -0.1046226 0.0475586 -0.024773084 -0.027017057 -0.05102434
0.04383502 -0.048296165 0.0468869 0.10568411 0.08397002 0.035652775 -0.11487784 -0.094187856
0.08346324 0.043220814 -0.08046444 -0.078835644 0.06621833 0.10897294 -0.03130525 -0.0636031
-0.08564457 -0.02947994 -0.0985616 -0.108449236 -0.027433926 -0.034974027 -0.021397766 0.08740422
-0.06418931 0.10945531 0.06906445 -0.07439388 -0.03169078 0.023340283 0.066933595 0.022618325
0.00397466 0.031985573 -0.05975183 0.06861679 -0.087942176 -0.04890106 -0.091537625 -0.113037705
-0.05256438 -0.08778188 -0.024114475 0.029213741 -0.052482124 0.004337703 0.08074621 -0.00087444345
0.057612095 -0.004011602 0.005985744 0.10822051 0.11255369 0.11836825 0.106717944 -0.007422332
-0.07510144 -0.045414843 0.08729266 -0.0045843925 -0.062286556 -0.08920017 -0.115271755 -0.10777972
-0.039225463 0.0641564 0.03824245 -0.10692937 0.080349 -0.1019216 -0.009316294 -0.06134444
-0.03419936 -0.022907319 -0.11934362 -0.083946235 -0.034009837 -0.011142567 -0.041302554 0.019919775
-0.10126707 -0.009356573 0.084541075 -0.13037324 0.06094967 0.014977084 -0.16193701 0.05883615
-0.0048192674 -0.0711457 0.08575546 -0.09918571

inference.model.qy_x.model.tcn_block_00.conv1.bias f4 [2]
00000000: 38d8 06be 8062 01be
-0.13168418 -0.12635231

inference.model.qy_x.model.tcn_block_00.conv1.weight_g f4 [2, 1, 1]
00000000: d599 0f3f ec53 c63e
0.56094104 0.38735902

inference.model.qy_x.model.tcn_block_00.conv1.weight_v f4 [2, 2, 9]
00000000: 9472 033d 8b32 ba3c 8420 ad3d 9efc 803d
00000010: 297a 3cbd 5f21 5cbd b3e2 4abe 6202 093c
00000020: 2618 f3bc fa9b 9c3d 3e0a 71be 943a 34be
00000030: b606 3bbe 0c7d 0abe 9634 17be 645a 81bd
00000040: 3dec 3abe caf3 55be 1527 e63b 3089 583e
00000050: 3651 7fbe ff2f 54be 54b9 2fbe a5fe 693e
00000060: b033 e2bd e379 503e 8a29 d13c 9111 1b3d
00000070: be3b ad3c 6232 d4bc edb8 863d 4314 9fbc
00000080: 1dbe 413d ff62 d13d d45e 04be c5e6 52bd
0.032091692 0.022729179 0.084534675 0.06298183 -0.04601494 -0.053742763 -0.19813041 0.0083623845
-0.0296746 0.07646938 -0.23539063 -0.17600471 -0.18264279 -0.13524264 -0.14766154 -0.06316069
-0.1825418 -0.2089378 0.007023702 0.21146083 -0.24933323 -0.20721434 -0.17160541 0.22851045
-0.11045015 0.20358996 0.025532503 0.03785855 0.021146651 -0.02590293 0.065782405 -0.019418841
0.047300447 0.1022396 -0.12926799 -0.05148961

inference.model.qy_x.model.tcn_block_00.block.conv1d_layer_0.bias f4 [2]
00000000: 187e 2c3b bcf8 093e
0.0026320275 0.13473791

inference.model.qy_x.model.tcn_block_00.block.conv1d_layer_0.weight_g f4 [2, 1, 1]
00000000: 966d 173f 96d5 123f
0.5915159 0.57357156

inference.model.qy_x.model.tcn_block_00.block.conv1d_layer_0.weight_v f4 [2, 10, 9]
00000000: 70a2 853d 33ee 143d ebcf e4bd 7dd3 1dbe
00000010: d5b2 bebd d7f8 da3c ac30 863c ea1a ab3d
00000020: 6354 15bc 33bc 8cbc 11ab 553c c7ef 3f3c
00000030: 4685 97bd 7631 72bd e04d 8ebd 9882 6fbd
00000040: b998 573d bedb 783d 2b48 9fbd a2ab b83c
00000050: a894 833d 38e1 a83d 79d0 ae3c 686c b83c
00000060: b9b5 7ebd d32b 533d 7c70 123d def7 8bbc
00000070: e0f6 bbbd bf66 ccbc b6e9 4ebd 2037 ad3d
00000080: f8a0 723c 0615 1ebc 5f18 c7ba 576c 43bc
00000090: 3704 cfbc c45c 443e 4bae 5a3d 25e2 0c3d
000000a0: ce90 453b 72d1 32bd a59f 923c 9a5f a5bd
000000b0: 858c 79bd b7fe 5abd fdd5 133d bdcc 0b3d
000000c0: 808e 27be 85c0 e4bb 92f0 a13d d262 e63d
000000d0: a2ca 543d 7f10 b03b 1d1d c83c b26b f3bd
000000e0: 6f55 003c 2c14 8abc c9ad e3bc 77fb 7ebc
000000f0: 0dd8 293d 5f7d ee3c b6ec 43bd ff5c 14bd
00000100: f31e 6f3d b587 0d3c 694d 963d 380a 703d
00000110: 70c7 823d a61c c53d 63b5 babd 9713 5dbd
00000120: 7ef9 fd3d c112 913d 3a3c a83d 48b4 b33c
00000130: 50f8 8dbc 661a 94bd 147a e43b 3bcc cfbd
00000140: caaf 02be db42 233e 97f1 3a3e 6044 d6bd
00000150: cecc 423d ecf0 cabc e052 ddbc e6fe 50bd
00000160: 5a8c 333d 33d2 45bd 7a0c 403d e970 d83d
00000170: 79f8 ab3d a508 123d 1345 ebbd 90e5 c0bd
00000180: c6ee aa3d 4f08 313d 8aca a4bd 9574 a1bd
00000190: 7a9d 873d 342d df3d ef39 00bd 5842 82bd
000001a0: 6c66 afbd ea7f f1bc aada c9bd a21a debd
000001b0: 1dbd e0bc ed40 0fbd 5e4a afbc fc00 b33d
000001c0: af75 83bd 1b2a e03d aa71 8d3d d25b 98bd
000001d0: 31ce 01bd 1f34 bf3c 7b14 893d 114a b93c
000001e0: dd3d 823b 4e03 033d 56be 74bd f686 8c3d
000001f0: 071b b4bd 7a4c 48bd 1478 bbbd 5080 e7bd
00000200: bf4d 57bd fcc6 b3bd b88b c5bc a851 ef3c
00000210: 7ff7 56bd 4a23 8e3b 455e a53d e83a 65ba
00000220: a9fa 6b3d c273 83bb 0f24 c43b b7a2 dd3d
00000230: 8d82 e63d 0e6b f23d f08e da3d 0937 f3bb
00000240: c9ce 99bd ea04 3abd 7ec6 b23d ac38 96bb
00000250: 3020 7fbd 94ae b6bd 9913 ecbd 9dbb dcbd
00000260: e1aa 20bd 6e64 833d 1ea4 1c3d c9fd dabd
00000270: 048e a43d 46bc d0bd 5fa3 18bc 4f44 7bbd
00000280: a114 0cbd 21a8 bbbc 6e6a f4bd 01ec abbd
00000290: e64d 0bbd 508f 36bc de2c 29bd cc2e a33c
000002a0: 1c65 cfbd 504c 19bc df23 ad3d 9080 05be
000002b0: 5ca6 793d 7162 753c d1d2 25be 2dfe 703d
000002c0: f2ea 9dbb d6b4 91bd 8fa0 af3d e121 cbbd
0.06525123 0.036359977 -0.1117247 -0.15412708 -0.09311453 0.026729984 0.01638063 0.08354743
-0.009114358 -0.017179584 0.013041274 0.011714882 -0.07398467 -0.0591292 -0.06948447 -0.058474153
0.052635882 0.060756437 -0.07777437 0.022542778 0.06424838 0.08246082 0.021339642 0.02251263
-0.062185023 0.051555466 0.035751805 -0.017085966 -0.09177947 -0.024951337 -0.050515853 0.0845778
0.014808886 -0.009648567 -0.0015189758 -0.011927686 -0.025270564 0.19176012 0.053388875 0.034395356
0.0030146125 -0.043656774 0.01789839 -0.08074875 -0.060925025 -0.05346557 0.036092747 0.0341308
-0.16362953 -0.006980958 0.07907213 0.11249317 0.05195106 0.0053730602 0.024427945 -0.118857756
0.007832869 -0.016855322 -0.027792828 -0.015562884 0.041465808 0.029112516 -0.047833167 -0.0362215
0.058379125 0.008638312 0.073389836 0.058603495 0.06385696 0.09624605 -0.09116628 -0.05397376
0.124011025 0.07083655 0.08214612 0.02193655 -0.017330319 -0.072315976 0.0069725607 -0.10146376
-0.1276237 0.15943472 0.18256222 -0.1046226 0.0475586 -0.024773084 -0.027017057 -0.05102434
0.04383502 -0.048296165 0.0468869 0.10568411 0.08397002 0.035652775 -0.11487784 -0.094187856
0.08346324 0.043220814 -0.08046444 -0.078835644 0.06621833 0.10897294 -0.03130525 -0.0636031
-0.08564457 -0.02947994 -0.0985616 -0.108449236 -0.027433926 -0.034974027 -0.021397766 0.08740422
-0.06418931 0.10945531 0.06906445 -0.07439388 -0.03169078 0.023340283 0.066933595 0.022618325
0.00397466 0.031985573 -0.05975183 0.06861679 -0.087942176 -0.04890106 -0.091537625 -0.113037705
-0.05256438 -0.08778188 -0.024114475 0.029213741 -0.052482124 0.004337703 0.08074621 -0.00087444345
0.057612095 -0.004011602 0.005985744 0.10822051 0.11255369 0.11836825 0.106717944 -0.007422332
-0.07510144 -0.045414843 0.08729266 -0.0045843925 -0.062286556 -0.08920017 -0.115271755 -0.10777972
-0.039225463 0.0641564 0.03824245 -0.10692937 0.080349 -0.1019216 -0.009316294 -0.06134444
-0.03419936 -0.022907319 -0.11934362 -0.083946235 -0.034009837 -0.011142567 -0.041302554 0.019919775
-0.10126707 -0.009356573 0.084541075 -0.13037324 0.06094967 0.014977084 -0.16193701 0.05883615
-0.0048192674 -0.0711457 0.08575546 -0.09918571

inference.model.qy_x.model.tcn_block_00.block.conv1d_layer_1.bias f4 [2]
00000000: 38d8 06be 8062 01be
-0.13168418 -0.12635231

inference.model.qy_x.model.tcn_block_00.block.conv1d_layer_1.weight_g f4 [2, 1, 1]
00000000: d599 0f3f ec53 c63e
0.56094104 0.38735902
