results_gmdgm/ssm_v1/dtcn/m_v3/version_5/best_val_model.pt (torch, 34951 bytes, 120 tensors)

model.qy_x.dense(qy_x)_layer_00.weight f4 [4, 10]
000000 f8 e3 09 3d 88 e0 5a 3e 77 7a 32 be c5 e6 67 bc
       0.033664674 0.21374714 -0.17429529 -0.014154141
000010 c0 8b fd bb a8 1a b1 bd d7 6a 1a be 75 a8 df bc
       -0.0077376068 -0.086476624 -0.15079819 -0.027302006
000020 6f 1e f8 3b fe 43 34 3e 4b 9e ba be bc 5b a3 3e
       0.0075719873 0.17604062 -0.36448893 0.31905925
000030 51 84 cb bd 21 6c da 3a bc 81 99 be a5 30 86 be
       -0.09937347 0.0016664305 -0.29981792 -0.26208988
000040 58 88 c3 3e 1b e6 df 3e a8 cf c9 be ae dd d7 3d
       0.3818996 0.43730244 -0.39416242 0.10540329
000050 a4 b5 ba 3d 17 72 60 3e 8f a3 34 be 7e 13 3d 3b
       0.091166764 0.21918522 -0.17640518 0.002885073
000060 15 f0 43 be b7 24 20 bc 75 9d 54 3e 65 ac 38 be
       -0.19134553 -0.0097743785 0.2076319 -0.18034513
000070 45 e7 bf bd c6 ab 80 bd fd 52 6e bd de b7 69 3e
       -0.09370283 -0.06282763 -0.058184613 0.22824046
000080 fd 03 34 be e2 22 6b bc b1 1c 34 be 88 57 25 be
       -0.17579646 -0.014351578 -0.1758907 -0.16146672
000090 3f a9 0f be 79 bc 4c 3e 27 ad ab 3d b1 a4 19 3d
       -0.14029406 0.19993772 0.083826356 0.037510578

model.qy_x.dense(qy_x)_layer_00.bias f4 [4]
000000 03 68 f7 bc a9 45 36 bf c0 92 a0 3d 99 ba 4d be
       -0.030200964 -0.7120004 0.0784049 -0.20090713

model.encoder.model.tcn_block_00.conv0.bias f4 [2]
000000 72 b6 46 bf e6 54 ec 3e
       -0.7762214 0.46158522

model.encoder.model.tcn_block_00.conv0.weight_g f4 [2, 1, 1]
000000 34 6d ce 3f 3a cc 53 3f
       1.6127076 0.827335

model.encoder.model.tcn_block_00.conv0.weight_v f4 [2, 14, 9]
000000 7b 4c 29 3d b3 54 c6 3c 29 71 c0 3a 44 bd ae 3c
       0.041332703 0.02421031 0.0014682162 0.021330483
000010 d4 00 80 bb 29 bd c6 bc 4c a5 0b bb f9 aa f4 bc
       -0.0039063487 -0.02426012 -0.0021308241 -0.029866682
000020 8d 9d c0 bb 55 03 95 bd 17 26 fc bc 31 b0 49 bc
       -0.0058781565 -0.07276026 -0.030779881 -0.012310074
000030 3a f5 2c bd 56 f7 ea ba aa c6 54 3c 91 4b c5 3c
       -0.042226054 -0.0017926495 0.012986818 0.024083884
000040 8c 58 4e 3c 02 cd a1 3d b1 89 57 bd 38 e5 8e bd
       0.012594353 0.0790043 -0.052621547 -0.06977314
000050 67 fa 54 3c e7 f1 f1 bb ed 0b 14 bd b5 48 ba 3b
       0.012999154 -0.0073835733 -0.036144186 0.005684937
000060 72 89 64 3b ca ce 64 3a 69 aa 2c 3d 53 ae 15 3f
       0.0034871963 0.0008728324 0.042154703 0.5846912
000070 44 4f c2 3c 3d 3e e3 bd 56 67 2f 3e a8 1d a8 3d
       0.023719437 -0.110958554 0.17129263 0.082087815
000080 83 5a b7 3d d2 34 f0 bd f3 1d a9 bc 62 bc 7f bb
       0.089528106 -0.11728825 -0.020644164 -0.0039022197
000090 25 38 a9 bd 91 ad 1c 3e 2c b7 6f 3d 79 44 c5 3d
       -0.08262662 0.15300585 0.058524296 0.09632201
0000a0 79 8d 20 3e df 2d 8a 3d 16 35 d7 3d fa c7 77 3d
       0.15678968 0.067470305 0.10508172 0.060493447
0000b0 c9 ce 02 3d 85 70 a1 3d 86 21 3d 3d 87 b6 f0 3b
       0.031935487 0.078827895 0.04617455 0.0073459777
0000c0 f5 78 19 3d fa f4 85 3c 0f 3f 13 bd df 17 b9 bd
       0.03746887 0.016352165 -0.03594881 -0.09037756
0000d0 20 00 d6 bc 45 71 fd bd f7 23 91 bd f0 24 0b be
       -0.026123106 -0.1237512 -0.07086938 -0.1358831
0000e0 f0 54 84 bd 99 c5 6f bd d8 97 ce bd 40 b5 5f bd
       -0.06461513 -0.058538053 -0.10087556 -0.054616213
0000f0 57 d8 9f bd b8 27 83 bc c0 31 b9 bc 08 31 9a bd
       -0.078049354 -0.01601015 -0.02260673 -0.07528883
000100 66 87 be bc 10 e3 d8 3c 73 c8 a6 bc 6c 9e a5 3c
       -0.023257922 0.02647546 -0.020359254 0.020217143
000110 a0 dc 89 3c a8 79 36 3d c5 8e 55 3d 80 16 82 3c
       0.016828835 0.044549614 0.05213811 0.01587987
000120 67 61 2e 3d 21 83 b4 3d d7 9c 59 3d aa bf 29 3d
       0.04257336 0.08814073 0.05312809 0.04144255
000130 be 08 32 3d 68 cb 3e bc 5c bd 18 bc ad cb 40 bc
       0.04346537 -0.0116451755 -0.009322491 -0.01176731
000140 12 4a 20 bd 92 b7 8b be cb f6 fc 3b ab 08 e7 bb
       -0.03913314 -0.2728849 0.0077198497 -0.007050594
000150 20 c9 a7 bd b5 e3 34 3e fe 66 8a 3d ab 4c 39 3e
       -0.081926584 0.17664988 0.067579255 0.18095653
000160 0e 9e fe 3d e2 76 ba 3d 6c f1 09 be 5a d2 96 be
       0.1243249 0.09104706 -0.13471001 -0.2945736
000170 2c 29 2a be 5e 97 39 be f2 95 50 be 63 5a 3f be
       -0.16617268 -0.18124148 -0.203697 -0.18686824
000180 9d ec 21 be ee 1b 9a bd bd cf 51 3c 16 1a a5 bd
       -0.15812917 -0.075248584 0.012805876 -0.08061616
000190 5f 52 be bd ee aa ec bd 55 f4 11 be f5 c3 0c be
       -0.09293055 -0.1155604 -0.14253362 -0.13746627
0001a0 a8 52 16 be 29 8d 0c be 63 2c 0c be b5 a7 2f be
       -0.14679968 -0.13725723 -0.13688807 -0.17153819
0001b0 23 80 39 be 2f 69 2b be dd 60 9a be 33 45 77 be
       -0.18115287 -0.16739343 -0.30152026 -0.24147491
0001c0 a5 63 81 be 6a d7 57 be 17 e5 53 be 65 84 23 be
       -0.25271335 -0.21078268 -0.2069286 -0.15968473
0001d0 98 5b 39 be c5 64 dd be c3 f8 8b be ba 49 84 be
       -0.18101346 -0.43240944 -0.27338228 -0.258375
0001e0 c5 c4 96 be e0 20 7c be 3f ce 9a be 10 4f 9d be
       -0.29446998 -0.24621916 -0.30235478 -0.30724382
0001f0 4a eb bf be 66 2d a7 be a6 d8 b1 bb 95 6d ac 3b
       -0.374842 -0.32651824 -0.005427438 0.0052620866
000200 87 3f 1e 3c 15 e9 10 bc fd e9 b3 bc 09 cb f8 bc
       0.009658701 -0.008844634 -0.02196216 -0.030370252
000210 39 b8 01 bd a3 31 0c bd b8 09 86 bd df b8 af 3c
       -0.03166983 -0.034227025 -0.065448225 0.021450458
000220 e0 da aa 3c ca 6f da 3a 99 e2 ce 3c a3 eb 94 3c
       0.02085632 0.0016665396 0.025254535 0.018178767
000230 b3 c5 89 3c 04 a4 22 3d 28 7a 89 3d 18 dd a8 3d
       0.016817903 0.0397072 0.067127526 0.08245295
000240 49 9f 15 3d 77 46 2a 3d e6 1e 97 3a 38 78 d1 3c
       0.03652886 0.041571107 0.0011529594 0.02557002
000250 4f 7d b6 3c e1 16 c9 3c 46 e9 58 3d 88 51 d0 3c
       0.022276549 0.024547042 0.052956842 0.025429502
000260 5f 97 50 3d 1e e8 e4 3c 3f bc 1b 3d ad 21 49 3d
       0.05092561 0.027942713 0.038021322 0.04910438
000270 b5 76 6c bd 7d bc fe bc e4 c7 86 39 fa 46 3e 38
       -0.057730395 -0.031095738 0.00025707402 4.5365632e-05
000280 6b 3f db bb dc 7a 13 3b fb f8 36 3b 61 56 5b bc
       -0.0066909096 0.002250365 0.00279194 -0.013387294
000290 93 b2 6b 3c 6c 1f 5c bd 06 57 2a bd 9b 01 45 bd
       0.014385837 -0.053740904 -0.0415869 -0.048097234
0002a0 38 68 b2 bd 28 0c c2 bd 49 c7 e1 bd d1 a1 55 bc
       -0.087112844 -0.09474975 -0.11024339 -0.013039068
0002b0 49 b4 c8 bb 9b 9f 61 3c 8a f7 17 bd 4d 71 1d bc
       -0.0061250073 0.013770963 -0.037101306 -0.009609533
0002c0 bc 02 03 bc 35 e8 4e bd 32 8b 30 bd d7 5d 17 bd
       -0.007996257 -0.05051442 -0.043101497 -0.036954727
0002d0 d1 ab 38 3c 64 76 1e 3d ab e4 0f 3d 71 88 1b 3d
       0.011271433 0.038687125 0.035130184 0.037971918
0002e0 06 90 28 3d 31 42 3c 3d 74 fd 80 3d 38 3d 85 3d
       0.041152976 0.045961563 0.06298342 0.06505817
0002f0 42 94 a0 3d 20 3c c5 3c ac 07 29 38 8c 69 c7 bc
       0.07840778 0.024076521 4.0299885e-05 -0.02434232
000300 3c c2 9e 3c 3d 80 84 3c 1f b6 76 3c 7e 27 c0 3c
       0.019379728 0.01617443 0.0150580695 0.023456331
000310 14 00 0f 3d 0c 90 3a 3d e9 f7 fe bb 25 08 dc bc
       0.034912184 0.04554753 -0.007781018 -0.026859352
000320 ee 82 86 bc af 66 13 bd 1c 4e c8 bc 85 dd 07 bd
       -0.016419854 -0.0359866 -0.024451308 -0.03317024
000330 12 01 35 bd a7 9f 73 bd d6 3b 8b bd 20 1f dc 3c
       -0.044190474 -0.05947843 -0.06798522 0.02687031
000340 49 df 59 3c 80 f6 d1 bb cc 9e c8 3c da cb a9 3b
       0.013297864 -0.006407559 0.024489783 0.0051817717
000350 3f 94 07 bc 5f 00 a1 bb e4 c9 12 bd ef 0c 57 bd
       -0.008275091 -0.0049133743 -0.03583707 -0.05250257
000360 47 20 e1 3d 1c e9 94 3d 98 dc ec bd d6 e0 92 3c
       0.109924845 0.072710246 -0.115655124 0.017929476
000370 a0 2d 69 3c 81 1d 4f 3c 18 f6 91 3d 83 4b 03 3e
       0.014232069 0.012641312 0.07127017 0.12821774
000380 3e 6f b0 3d 94 09 9c 3d 1b c1 3e 3e 32 d7 83 3e
       0.08614968 0.076190144 0.18628351 0.25750118
000390 b9 00 49 3e 0a e9 70 3e ff c9 af 3e fe 1d 54 3e
       0.19629182 0.23526397 0.34333798 0.20714566
0003a0 01 4c dd 3d e0 3c b0 3d 40 2a 93 3d 44 8a 2f 3e
       0.10805512 0.08605361 0.07185793 0.17142588
0003b0 58 c9 c9 3e 4a 8b 4e 3e 05 cc 32 3e d4 07 31 3e
       0.39411426 0.20170322 0.1746064 0.17288142
0003c0 80 75 1a 3e bb 0f 25 3e 39 98 80 3e fe 5a 94 3e
       0.15083885 0.16119282 0.25116137 0.28975672
0003d0 b3 9b 39 3e 4b 59 85 3d c5 00 e9 3d b5 e4 20 3e
       0.18125801 0.06511172 0.113771 0.15712245
0003e0 20 08 3b 3e 7e 42 25 3e 83 5f fa 3d 57 19 86 3d
       0.18264818 0.16138646 0.12225249 0.06547802

model.encoder.model.tcn_block_00.conv1.bias f4 [2]
000000 d8 50 fd 3c 27 6d c2 3e
       0.030922338 0.37973902

model.encoder.model.tcn_block_00.conv1.weight_g f4 [2, 1, 1]
000000 bf cf a1 3e 00 ab 6f 3f
       0.3160381 0.936203

model.encoder.model.tcn_block_00.conv1.weight_v f4 [2, 2, 9]
000000 db cd bf 3d 81 de 9f be 46 c0 96 be 27 43 c7 3d
       0.09365436 -0.31224445 -0.29443568 0.09729605
000010 00 7a 51 be 3d 17 33 3e 9b d9 15 3e c1 b4 64 be
       -0.20456696 0.17489333 0.14633791 -0.22334577
000020 23 71 af 3e d4 b8 07 3d 4a 1e 5b 3d d7 19 91 bd
       0.34266004 0.03313525 0.053495683 -0.07085007
000030 ba fb 60 be 48 ad 35 bd 12 e4 dd 3d 2d ad d6 bd
       -0.21971026 -0.044354707 0.108345166 -0.104822494
000040 49 5c c9 3d c0 b4 1d 3e d2 a8 7a 3d 0b ac 3c 3d
       0.09832055 0.15400982 0.061196156 0.04606251
000050 ad b4 23 3d de 99 dd bd 7b 5c 31 be 1e 75 ae be
       0.039967228 -0.108203635 -0.17320435 -0.34073728
000060 04 be 20 be 0c 03 ca be 09 a8 c7 be f3 18 5f 3d
       -0.15697485 -0.3945545 -0.38995388 0.054467153
000070 fb 9a 91 3d 64 6f 87 3d 25 f1 c8 3c 69 de 51 3d
       0.07109638 0.06613043 0.02452905 0.051237497
000080 71 ba 11 3d 95 9b 36 3d 12 d5 a3 3e c3 3a a2 3e
       0.035578195 0.04458197 0.31998497 0.31685457

model.encoder.model.tcn_block_00.block.conv1d_layer_0.bias f4 [2]
000000 72 b6 46 bf e6 54 ec 3e
       -0.7762214 0.46158522

model.encoder.model.tcn_block_00.block.conv1d_layer_0.weight_g f4 [2, 1, 1]
000000 34 6d ce 3f 3a cc 53 3f
       1.6127076 0.827335

model.encoder.model.tcn_block_00.block.conv1d_layer_0.weight_v f4 [2, 14, 9]
000000 7b 4c 29 3d b3 54 c6 3c 29 71 c0 3a 44 bd ae 3c
       0.041332703 0.02421031 0.0014682162 0.021330483
000010 d4 00 80 bb 29 bd c6 bc 4c a5 0b bb f9 aa f4 bc
       -0.0039063487 -0.02426012 -0.0021308241 -0.029866682
000020 8d 9d c0 bb 55 03 95 bd 17 26 fc bc 31 b0 49 bc
       -0.0058781565 -0.07276026 -0.030779881 -0.012310074
000030 3a f5 2c bd 56 f7 ea ba aa c6 54 3c 91 4b c5 3c
       -0.042226054 -0.0017926495 0.012986818 0.024083884
000040 8c 58 4e 3c 02 cd a1 3d b1 89 57 bd 38 e5 8e bd
       0.012594353 0.0790043 -0.052621547 -0.06977314
000050 67 fa 54 3c e7 f1 f1 bb ed 0b 14 bd b5 48 ba 3b
       0.012999154 -0.0073835733 -0.036144186 0.005684937
000060 72 89 64 3b ca ce 64 3a 69 aa 2c 3d 53 ae 15 3f
       0.0034871963 0.0008728324 0.042154703 0.5846912
000070 44 4f c2 3c 3d 3e e3 bd 56 67 2f 3e a8 1d a8 3d
       0.023719437 -0.110958554 0.17129263 0.082087815
000080 83 5a b7 3d d2 34 f0 bd f3 1d a9 bc 62 bc 7f bb
       0.089528106 -0.11728825 -0.020644164 -0.0039022197
000090 25 38 a9 bd 91 ad 1c 3e 2c b7 6f 3d 79 44 c5 3d
       -0.08262662 0.15300585 0.058524296 0.09632201
0000a0 79 8d 20 3e df 2d 8a 3d 16 35 d7 3d fa c7 77 3d
       0.15678968 0.067470305 0.10508172 0.060493447
0000b0 c9 ce 02 3d 85 70 a1 3d 86 21 3d 3d 87 b6 f0 3b
       0.031935487 0.078827895 0.04617455 0.0073459777
0000c0 f5 78 19 3d fa f4 85 3c 0f 3f 13 bd df 17 b9 bd
       0.03746887 0.016352165 -0.03594881 -0.09037756
0000d0 20 00 d6 bc 45 71 fd bd f7 23 91 bd f0 24 0b be
       -0.026123106 -0.1237512 -0.07086938 -0.1358831
0000e0 f0 54 84 bd 99 c5 6f bd d8 97 ce bd 40 b5 5f bd
       -0.06461513 -0.058538053 -0.10087556 -0.054616213
0000f0 57 d8 9f bd b8 27 83 bc c0 31 b9 bc 08 31 9a bd
       -0.078049354 -0.01601015 -0.02260673 -0.07528883
000100 66 87 be bc 10 e3 d8 3c 73 c8 a6 bc 6c 9e a5 3c
       -0.023257922 0.02647546 -0.020359254 0.020217143
000110 a0 dc 89 3c a8 79 36 3d c5 8e 55 3d 80 16 82 3c
       0.016828835 0.044549614 0.05213811 0.01587987
000120 67 61 2e 3d 21 83 b4 3d d7 9c 59 3d aa bf 29 3d
       0.04257336 0.08814073 0.05312809 0.04144255
000130 be 08 32 3d 68 cb 3e bc 5c bd 18 bc ad cb 40 bc
       0.04346537 -0.0116451755 -0.009322491 -0.01176731
000140 12 4a 20 bd 92 b7 8b be cb f6 fc 3b ab 08 e7 bb
       -0.03913314 -0.2728849 0.0077198497 -0.007050594
000150 20 c9 a7 bd b5 e3 34 3e fe 66 8a 3d ab 4c 39 3e
       -0.081926584 0.17664988 0.067579255 0.18095653
000160 0e 9e fe 3d e2 76 ba 3d 6c f1 09 be 5a d2 96 be
       0.1243249 0.09104706 -0.13471001 -0.2945736
000170 2c 29 2a be 5e 97 39 be f2 95 50 be 63 5a 3f be
       -0.16617268 -0.18124148 -0.203697 -0.18686824
000180 9d ec 21 be ee 1b 9a bd bd cf 51 3c 16 1a a5 bd
       -0.15812917 -0.075248584 0.012805876 -0.08061616
000190 5f 52 be bd ee aa ec bd 55 f4 11 be f5 c3 0c be
       -0.09293055 -0.1155604 -0.14253362 -0.13746627
0001a0 a8 52 16 be 29 8d 0c be 63 2c 0c be b5 a7 2f be
       -0.14679968 -0.13725723 -0.13688807 -0.17153819
0001b0 23 80 39 be 2f 69 2b be dd 60 9a be 33 45 77 be
       -0.18115287 -0.16739343 -0.30152026 -0.24147491
0001c0 a5 63 81 be 6a d7 57 be 17 e5 53 be 65 84 23 be
       -0.25271335 -0.21078268 -0.2069286 -0.15968473
0001d0 98 5b 39 be c5 64 dd be c3 f8 8b be ba 49 84 be
       -0.18101346 -0.43240944 -0.27338228 -0.258375
0001e0 c5 c4 96 be e0 20 7c be 3f ce 9a be 10 4f 9d be
       -0.29446998 -0.24621916 -0.30235478 -0.30724382
0001f0 4a eb bf be 66 2d a7 be a6 d8 b1 bb 95 6d ac 3b
       -0.374842 -0.32651824 -0.005427438 0.0052620866
000200 87 3f 1e 3c 15 e9 10 bc fd e9 b3 bc 09 cb f8 bc
       0.009658701 -0.008844634 -0.02196216 -0.030370252
000210 39 b8 01 bd a3 31 0c bd b8 09 86 bd df b8 af 3c
       -0.03166983 -0.034227025 -0.065448225 0.021450458
000220 e0 da aa 3c ca 6f da 3a 99 e2 ce 3c a3 eb 94 3c
       0.02085632 0.0016665396 0.025254535 0.018178767
000230 b3 c5 89 3c 04 a4 22 3d 28 7a 89 3d 18 dd a8 3d
       0.016817903 0.0397072 0.067127526 0.08245295
000240 49 9f 15 3d 77 46 2a 3d e6 1e 97 3a 38 78 d1 3c
       0.03652886 0.041571107 0.0011529594 0.02557002
000250 4f 7d b6 3c e1 16 c9 3c 46 e9 58 3d 88 51 d0 3c
       0.022276549 0.024547042 0.052956842 0.025429502
000260 5f 97 50 3d 1e e8 e4 3c 3f bc 1b 3d ad 21 49 3d
       0.05092561 0.027942713 0.038021322 0.04910438
000270 b5 76 6c bd 7d bc fe bc e4 c7 86 39 fa 46 3e 38
       -0.057730395 -0.031095738 0.00025707402 4.5365632e-05
000280 6b 3f db bb dc 7a 13 3b fb f8 36 3b 61 56 5b bc
       -0.0066909096 0.002250365 0.00279194 -0.013387294
000290 93 b2 6b 3c 6c 1f 5c bd 06 57 2a bd 9b 01 45 bd
       0.014385837 -0.053740904 -0.0415869 -0.048097234
0002a0 38 68 b2 bd 28 0c c2 bd 49 c7 e1 bd d1 a1 55 bc
       -0.087112844 -0.09474975 -0.11024339 -0.013039068
0002b0 49 b4 c8 bb 9b 9f 61 3c 8a f7 17 bd 4d 71 1d bc
       -0.0061250073 0.013770963 -0.037101306 -0.009609533
0002c0 bc 02 03 bc 35 e8 4e bd 32 8b 30 bd d7 5d 17 bd
       -0.007996257 -0.05051442 -0.043101497 -0.036954727
0002d0 d1 ab 38 3c 64 76 1e 3d ab e4 0f 3d 71 88 1b 3d
       0.011271433 0.038687125 0.035130184 0.037971918
0002e0 06 90 28 3d 31 42 3c 3d 74 fd 80 3d 38 3d 85 3d
       0.041152976 0.045961563 0.06298342 0.06505817
0002f0 42 94 a0 3d 20 3c c5 3c ac 07 29 38 8c 69 c7 bc
       0.07840778 0.024076521 4.0299885e-05 -0.02434232
000300 3c c2 9e 3c 3d 80 84 3c 1f b6 76 3c 7e 27 c0 3c
       0.019379728 0.01617443 0.0150580695 0.023456331
000310 14 00 0f 3d 0c 90 3a 3d e9 f7 fe bb 25 08 dc bc
       0.034912184 0.04554753 -0.007781018 -0.026859352
000320 ee 82 86 bc af 66 13 bd 1c 4e c8 bc 85 dd 07 bd
       -0.016419854 -0.0359866 -0.024451308 -0.03317024
000330 12 01 35 bd a7 9f 73 bd d6 3b 8b bd 20 1f dc 3c
       -0.044190474 -0.05947843 -0.06798522 0.02687031
000340 49 df 59 3c 80 f6 d1 bb cc 9e c8 3c da cb a9 3b
       0.013297864 -0.006407559 0.024489783 0.0051817717
000350 3f 94 07 bc 5f 00 a1 bb e4 c9 12 bd ef 0c 57 bd
       -0.008275091 -0.0049133743 -0.03583707 -0.05250257
000360 47 20 e1 3d 1c e9 94 3d 98 dc ec bd d6 e0 92 3c
       0.109924845 0.072710246 -0.115655124 0.017929476
000370 a0 2d 69 3c 81 1d 4f 3c 18 f6 91 3d 83 4b 03 3e
       0.014232069 0.012641312 0.07127017 0.12821774
000380 3e 6f b0 3d 94 09 9c 3d 1b c1 3e 3e 32 d7 83 3e
       0.08614968 0.076190144 0.18628351 0.25750118
000390 b9 00 49 3e 0a e9 70 3e ff c9 af 3e fe 1d 54 3e
       0.19629182 0.23526397 0.34333798 0.20714566
0003a0 01 4c dd 3d e0 3c b0 3d 40 2a 93 3d 44 8a 2f 3e
       0.10805512 0.08605361 0.07185793 0.17142588
0003b0 58 c9 c9 3e 4a 8b 4e 3e 05 cc 32 3e d4 07 31 3e
       0.39411426 0.20170322 0.1746064 0.17288142
0003c0 80 75 1a 3e bb 0f 25 3e 39 98 80 3e fe 5a 94 3e
       0.15083885 0.16119282 0.25116137 0.28975672
0003d0 b3 9b 39 3e 4b 59 85 3d c5 00 e9 3d b5 e4 20 3e
       0.18125801 0.06511172 0.113771 0.15712245
0003e0 20 08 3b 3e 7e 42 25 3e 83 5f fa 3d 57 19 86 3d
       0.18264818 0.16138646 0.12225249 0.06547802

model.encoder.model.tcn_block_00.block.conv1d_layer_1.bias f4 [2]
000000 d8 50 fd 3c 27 6d c2 3e
       0.030922338 0.37973902

model.encoder.model.tcn_block_00.block.conv1d_layer_1.weight_g f4 [2, 1, 1]
000000 bf cf a1 3e 00 ab 6f 3f
       0.3160381 0.936203

model.encoder.model.tcn_block_00.block.conv1d_layer_1.weight_v f4 [2, 2, 9]
000000 db cd bf 3d 81 de 9f be 46 c0 96 be 27 43 c7 3d
       0.09365436 -0.31224445 -0.29443568 0.09729605
000010 00 7a 51 be 3d 17 33 3e 9b d9 15 3e c1 b4 64 be
       -0.20456696 0.17489333 0.14633791 -0.22334577
000020 23 71 af 3e d4 b8 07 3d 4a 1e 5b 3d d7 19 91 bd
       0.34266004 0.03313525 0.053495683 -0.07085007
000030 ba fb 60 be 48 ad 35 bd 12 e4 dd 3d 2d ad d6 bd
       -0.21971026 -0.044354707 0.108345166 -0.104822494
000040 49 5c c9 3d c0 b4 1d 3e d2 a8 7a 3d 0b ac 3c 3d
       0.09832055 0.15400982 0.061196156 0.04606251
000050 ad b4 23 3d de 99 dd bd 7b 5c 31 be 1e 75 ae be
       0.039967228 -0.108203635 -0.17320435 -0.34073728
000060 04 be 20 be 0c 03 ca be 09 a8 c7 be f3 18 5f 3d
       -0.15697485 -0.3945545 -0.38995388 0.054467153
000070 fb 9a 91 3d 64 6f 87 3d 25 f1 c8 3c 69 de 51 3d
       0.07109638 0.06613043 0.02452905 0.051237497
000080 71 ba 11 3d 95 9b 36 3d 12 d5 a3 3e c3 3a a2 3e
       0.035578195 0.04458197 0.31998497 0.31685457

model.encoder.model.tcn_block_00.downsample.weight f4 [2, 14, 1]
000000 37 26 9a 3e 5e 95 88 be a7 13 3c be 4b 7d ae 3d
       0.3010728 -0.26676458 -0.18366872 0.085199915
000010 d0 d4 00 3e 9c a4 8b 3e ab f0 98 be 1a b8 a0 be
       0.12581182 0.27274024 -0.29871115 -0.31390458
000020 a6 02 8a 3e 69 bd 80 be e3 d2 9f 3f d6 49 bb 3f
       0.26955146 -0.25144508 1.2486233 1.4631908
000030 af 87 bc 3f ea d8 ad 3f 05 29 aa 3e 7a 0f b0 be
       1.4728907 1.3581822 0.3323442 -0.34386808
000040 b3 24 f1 bd f4 4d ce 3e 81 5b fe be 2b f3 08 3f
       -0.11774578 0.4029385 -0.49679187 0.53496045
000050 16 c8 24 3e 70 94 c7 bd 84 28 1e 3e 04 b8 ac bf
       0.16091952 -0.09745109 0.15445143 -1.3493657
000060 8a e8 3f 3f df dd 7d 3f 0b b2 88 3f ba ae 4b 3f
       0.749642 0.99166673 1.0679334 0.79563487

model.encoder.model.tcn_block_00.downsample.bias f4 [2]
000000 4a f5 d6 3f 01 9d 99 3f
       1.6793606 1.2001039

model.encoder.model.tcn_block_01.conv0.bias f4 [2]
000000 dc 05 3a 3f d8 80 ff 3d
       0.7266519 0.12475747

model.encoder.model.tcn_block_01.conv0.weight_g f4 [2, 1, 1]
000000 ba ab 73 3f b1 3a 4b 3f
       0.9518391 0.7938643

model.encoder.model.tcn_block_01.conv0.weight_v f4 [2, 2, 9]
000000 d0 98 9d be 55 e5 0f be 38 18 2b be 37 c1 a2 bd
       -0.3078065 -0.14052327 -0.16708457 -0.07947009
000010 21 a9 83 bd f3 1f 26 3e 36 1a 10 3e 05 e0 4f 3e
       -0.06428743 0.16223125 0.14072499 0.203003
000020 f5 fe f9 3e fe ca 5c be 69 ee 43 be dc 79 8c bd
       0.4882733 -0.2156181 -0.19133915 -0.0685918
000030 e0 0b 85 3c 7d 1e bd bd b2 28 b7 3b 01 aa 79 3d
       0.016241014 -0.09234331 0.005589568 0.060953144
000040 88 09 bf 3d f5 eb 5a 3c ad 93 14 bd f0 2e c1 3d
       0.0932799 0.013361921 -0.036273647 0.09432781
000050 17 98 92 3c c4 8b 59 3d 7a 60 cd 3d 00 0e 07 3e
       0.017894788 0.053111807 0.10028167 0.13188934
000060 c2 af 1d be 0f 80 b5 be 12 ec ff be 1a b7 b4 3e
       -0.15399078 -0.35449263 -0.49984795 0.35295945
000070 a0 16 c1 3d 39 01 a7 bc 81 c2 93 bc dd e6 06 3d
       0.094281435 -0.020386325 -0.018037083 0.032935012
000080 bd ce 77 be ed b5 bf 3d 34 56 6d 3d e1 25 12 3d
       -0.24199958 0.093608715 0.057943538 0.035680655

model.encoder.model.tcn_block_01.conv1.bias f4 [2]
000000 d0 c8 9e bb f2 da 8f 3e
       -0.004845716 0.2809673

model.encoder.model.tcn_block_01.conv1.weight_g f4 [2, 1, 1]
000000 07 6e b9 3e 3a b5 80 3f
       0.36216757 1.0055306

model.encoder.model.tcn_block_01.conv1.weight_v f4 [2, 2, 9]
000000 e5 95 89 bd b0 0b 77 3d 97 5b 2c 3e 15 ce 63 be
       -0.06718043 0.06031388 0.16831814 -0.22246583
000010 54 a7 e1 3d 98 77 ce 3c ed 7d ae 3c 1a 14 9d be
       0.110182434 0.025203511 0.02130028 -0.306794
000020 0f ad f7 3d 6f 83 b0 3d c9 3b ac 3e ad d1 dc be
       0.12093555 0.08618819 0.33639362 -0.4312872
000030 26 5b e5 be 67 58 37 3e d1 e2 a0 bb b4 0e 31 3d
       -0.44796103 0.17904817 -0.004909851 0.043226913
000040 22 0c 98 be 9e c1 f2 3c 23 03 f1 3d 17 65 c0 3c
       -0.29696757 0.02963334 0.117681764 0.023485703
000050 e2 f0 c9 3c 97 b6 01 3d 07 18 9c 3d 7c 6d 2b 3d
       0.024650995 0.031668272 0.0762177 0.04185246
000060 ad df 94 3d 9b d4 5c 3e b3 87 9c 3e b5 d9 05 bd
       0.07269225 0.21565478 0.3057228 -0.032678325
000070 96 07 fa bc c3 ce ef bc 60 40 97 3c cf a4 66 bd
       -0.030521195 -0.029273396 0.018463314 -0.056309517
000080 c9 4d 70 bd 69 3a 97 bd 33 b9 af bd 4e a9 23 be
       -0.05866793 -0.07384188 -0.08580246 -0.15982553

model.encoder.model.tcn_block_01.block.conv1d_layer_0.bias f4 [2]
000000 dc 05 3a 3f d8 80 ff 3d
       0.7266519 0.12475747

model.encoder.model.tcn_block_01.block.conv1d_layer_0.weight_g f4 [2, 1, 1]
000000 ba ab 73 3f b1 3a 4b 3f
       0.9518391 0.7938643

model.encoder.model.tcn_block_01.block.conv1d_layer_0.weight_v f4 [2, 2, 9]
000000 d0 98 9d be 55 e5 0f be 38 18 2b be 37 c1 a2 bd
       -0.3078065 -0.14052327 -0.16708457 -0.07947009
000010 21 a9 83 bd f3 1f 26 3e 36 1a 10 3e 05 e0 4f 3e
       -0.06428743 0.16223125 0.14072499 0.203003
000020 f5 fe f9 3e fe ca 5c be 69 ee 43 be dc 79 8c bd
       0.4882733 -0.2156181 -0.19133915 -0.0685918
000030 e0 0b 85 3c 7d 1e bd bd b2 28 b7 3b 01 aa 79 3d
       0.016241014 -0.09234331 0.005589568 0.060953144
000040 88 09 bf 3d f5 eb 5a 3c ad 93 14 bd f0 2e c1 3d
       0.0932799 0.013361921 -0.036273647 0.09432781
000050 17 98 92 3c c4 8b 59 3d 7a 60 cd 3d 00 0e 07 3e
       0.017894788 0.053111807 0.10028167 0.13188934
000060 c2 af 1d be 0f 80 b5 be 12 ec ff be 1a b7 b4 3e
       -0.15399078 -0.35449263 -0.49984795 0.35295945
000070 a0 16 c1 3d 39 01 a7 bc 81 c2 93 bc dd e6 06 3d
       0.094281435 -0.020386325 -0.018037083 0.032935012
000080 bd ce 77 be ed b5 bf 3d 34 56 6d 3d e1 25 12 3d
       -0.24199958 0.093608715 0.057943538 0.035680655

model.encoder.model.tcn_block_01.block.conv1d_layer_1.bias f4 [2]
000000 d0 c8 9e bb f2 da 8f 3e
       -0.004845716 0.2809673

model.encoder.model.tcn_block_01.block.conv1d_layer_1.weight_g f4 [2, 1, 1]
000000 07 6e b9 3e 3a b5 80 3f
       0.36216757 1.0055306

model.encoder.model.tcn_block_01.block.conv1d_layer_1.weight_v f4 [2, 2, 9]
000000 e5 95 89 bd b0 0b 77 3d 97 5b 2c 3e 15 ce 63 be
       -0.06718043 0.06031388 0.16831814 -0.22246583
000010 54 a7 e1 3d 98 77 ce 3c ed 7d ae 3c 1a 14 9d be
       0.110182434 0.025203511 0.02130028 -0.306794
000020 0f ad f7 3d 6f 83 b0 3d c9 3b ac 3e ad d1 dc be
       0.12093555 0.08618819 0.33639362 -0.4312872
000030 26 5b e5 be 67 58 37 3e d1 e2 a0 bb b4 0e 31 3d
       -0.44796103 0.17904817 -0.004909851 0.043226913
000040 22 0c 98 be 9e c1 f2 3c 23 03 f1 3d 17 65 c0 3c
       -0.29696757 0.02963334 0.117681764 0.023485703
000050 e2 f0 c9 3c 97 b6 01 3d 07 18 9c 3d 7c 6d 2b 3d
       0.024650995 0.031668272 0.0762177 0.04185246
000060 ad df 94 3d 9b d4 5c 3e b3 87 9c 3e b5 d9 05 bd
       0.07269225 0.21565478 0.3057228 -0.032678325
000070 96 07 fa bc c3 ce ef bc 60 40 97 3c cf a4 66 bd
       -0.030521195 -0.029273396 0.018463314 -0.056309517
000080 c9 4d 70 bd 69 3a 97 bd 33 b9 af bd 4e a9 23 be
       -0.05866793 -0.07384188 -0.08580246 -0.15982553

model.qz_xy_mean.dense(qz_xy_mean)_layer_00.weight f4 [2, 2]
000000 66 ea d1 bd c0 ad af 3e 7d bb 8e 3f 21 e8 3f 3e
       -0.10249786 0.34312248 1.1150967 0.18740894

model.qz_xy_mean.dense(qz_xy_mean)_layer_00.bias f4 [2]
000000 09 21 1d 3f 22 88 3d be
       0.6137853 -0.18508962

model.qz_xy_logvar.dense(qz_xy_logvar)_layer_00.weight f4 [2, 2]
000000 cc 5e a4 bf 0b 04 61 bf 14 1b 14 bf 1b d5 09 bf
       -1.284143 -0.87896794 -0.5785382 -0.538408

model.qz_xy_logvar.dense(qz_xy_logvar)_layer_00.bias f4 [2]
000000 88 d0 b8 3c 9a de b8 bf
       0.022560373 -1.4442933

model.py_t_probs.dense(py_t_probs)_layer_00.weight f4 [4, 2]
000000 83 0d 86 be 31 36 d2 3d 29 38 5d 3f 63 4b 22 bf
       -0.26182184 0.102642424 0.8641382 -0.6339628
000010 50 99 0b 3f b5 1a f7 39 1e f4 12 3e ce f5 7d bd
       0.5453081 0.0004713141 0.14350936 -0.062001996

model.py_t_probs.dense(py_t_probs)_layer_00.bias f4 [4]
000000 41 f4 bd 3e 45 e7 a3 3d f3 18 c7 be ef 57 4d 3e
       0.37100413 0.080030955 -0.38886222 0.20053075

model.pz_t_mean.dense(pz_t_mean)_layer_00.weight f4 [8, 2]
000000 06 30 86 3f 6f dc 93 bd da f6 91 3e eb aa 67 3f
       1.0483406 -0.07219779 0.28508645 0.90495175
000010 65 2f 6e 3f 85 bd 21 bb 1b 0c f1 3d 44 6d 72 3f
       0.9304107 -0.0024679613 0.11769887 0.94697976
000020 89 34 7d 3f f1 56 de bc 30 3b 15 3d e6 74 7c 3f
       0.9890829 -0.027141066 0.0364334 0.9861587
000030 d1 a0 71 3f cc de 81 bc 6c 60 08 3e 9b 28 7b 3f
       0.9438601 -0.015853308 0.13318032 0.98108834

model.pz_t_mean.dense(pz_t_mean)_layer_00.bias f4 [8]
000000 0e 43 ac 3e e4 06 95 3d bc d0 46 3e f0 a5 bf bd
       0.3364491 0.07276705 0.19415563 -0.09357822
000010 0f ba 32 3e 9a da 53 3d 00 02 d3 3d 82 23 4b be
       0.17453788 0.051722147 0.10303116 -0.19837764

model.pz_t_logvar.dense(pz_t_logvar)_layer_00.weight f4 [2, 4]
000000 6c 8f 64 c0 07 4d ec be b1 6e 38 c0 a8 dd 8b bf
       -3.5712538 -0.46152517 -2.881756 -1.0927019
000010 12 f3 bf bf f2 59 86 bf 39 4f ef bf 78 4b 5f bf
       -1.4996054 -1.0496199 -1.8696052 -0.8722453

model.pz_t_logvar.dense(pz_t_logvar)_layer_00.bias f4 [2]
000000 b1 6d fe bf 26 0f c4 bf
       -1.9877225 -1.5317123

model.decoder.dense(decoder)_layer_00.weight f4 [10, 2]
000000 bc 3c 0b be ae 67 e2 3e ba 83 e5 3b a3 23 da be
       -0.13597387 0.44219726 0.0070042284 -0.42605314
000010 cb d8 8c 3e 22 89 df be d9 32 40 3f 36 0b 23 3e
       0.2750915 -0.43659312 0.7507759 0.15922245
000020 4b 2d 7a bf d2 1e 72 3d 3f 91 2b 3e ac 2d cb 3e
       -0.9772536 0.059111424 0.16754626 0.39683282
000030 12 79 67 3f 87 c2 9b be c4 4f 02 3f 25 54 df be
       0.90419114 -0.3042185 0.5090296 -0.43618885
000040 32 88 d6 be c0 f8 e2 3e a6 d8 21 bf c2 2d 77 be
       -0.41900784 0.44330406 -0.63221204 -0.24138549

model.decoder.dense(decoder)_layer_00.bias f4 [10]
000000 a0 2b d0 bf 3f 33 e9 3f 76 49 a8 3f 9c 64 0f c0
       -1.6263313 1.8218764 1.3147418 -2.2405157
000010 82 96 e1 3f 95 8a 03 c0 db 34 0f bf d3 ba 53 3f
       1.7624056 -2.0553334 -0.55940026 0.82706946
000020 30 b8 85 bf 35 10 16 40
       -1.0446835 2.3447392

inference.model.qy_x.dense(qy_x)_layer_00.weight f4 [4, 10]
000000 f8 e3 09 3d 88 e0 5a 3e 77 7a 32 be c5 e6 67 bc
       0.033664674 0.21374714 -0.17429529 -0.014154141
000010 c0 8b fd bb a8 1a b1 bd d7 6a 1a be 75 a8 df bc
       -0.0077376068 -0.086476624 -0.15079819 -0.027302006
000020 6f 1e f8 3b fe 43 34 3e 4b 9e ba be bc 5b a3 3e
       0.0075719873 0.17604062 -0.36448893 0.31905925
000030 51 84 cb bd 21 6c da 3a bc 81 99 be a5 30 86 be
       -0.09937347 0.0016664305 -0.29981792 -0.26208988
000040 58 88 c3 3e 1b e6 df 3e a8 cf c9 be ae dd d7 3d
       0.3818996 0.43730244 -0.39416242 0.10540329
000050 a4 b5 ba 3d 17 72 60 3e 8f a3 34 be 7e 13 3d 3b
       0.091166764 0.21918522 -0.17640518 0.002885073
000060 15 f0 43 be b7 24 20 bc 75 9d 54 3e 65 ac 38 be
       -0.19134553 -0.0097743785 0.2076319 -0.18034513
000070 45 e7 bf bd c6 ab 80 bd fd 52 6e bd de b7 69 3e
       -0.09370283 -0.06282763 -0.058184613 0.22824046
000080 fd 03 34 be e2 22 6b bc b1 1c 34 be 88 57 25 be
       -0.17579646 -0.014351578 -0.1758907 -0.16146672
000090 3f a9 0f be 79 bc 4c 3e 27 ad ab 3d b1 a4 19 3d
       -0.14029406 0.19993772 0.083826356 0.037510578

inference.model.qy_x.dense(qy_x)_layer_00.bias f4 [4]
000000 03 68 f7 bc a9 45 36 bf c0 92 a0 3d 99 ba 4d be
       -0.030200964 -0.7120004 0.0784049 -0.20090713

inference.model.encoder.model.tcn_block_00.conv0.bias f4 [2]
000000 72 b6 46 bf e6 54 ec 3e
       -0.7762214 0.46158522

inference.model.encoder.model.tcn_block_00.conv0.weight_g f4 [2, 1, 1]
000000 34 6d ce 3f 3a cc 53 3f
       1.6127076 0.827335

inference.model.encoder.model.tcn_block_00.conv0.weight_v f4 [2, 14, 9]
000000 7b 4c 29 3d b3 54 c6 3c 29 71 c0 3a 44 bd ae 3c
       0.041332703 0.02421031 0.0014682162 0.021330483
000010 d4 00 80 bb 29 bd c6 bc 4c a5 0b bb f9 aa f4 bc
       -0.0039063487 -0.02426012 -0.0021308241 -0.029866682
000020 8d 9d c0 bb 55 03 95 bd 17 26 fc bc 31 b0 49 bc
       -0.0058781565 -0.07276026 -0.030779881 -0.012310074
000030 3a f5 2c bd 56 f7 ea ba aa c6 54 3c 91 4b c5 3c
       -0.042226054 -0.0017926495 0.012986818 0.024083884
000040 8c 58 4e 3c 02 cd a1 3d b1 89 57 bd 38 e5 8e bd
       0.012594353 0.0790043 -0.052621547 -0.06977314
000050 67 fa 54 3c e7 f1 f1 bb ed 0b 14 bd b5 48 ba 3b
       0.012999154 -0.0073835733 -0.036144186 0.005684937
000060 72 89 64 3b ca ce 64 3a 69 aa 2c 3d 53 ae 15 3f
       0.0034871963 0.0008728324 0.042154703 0.5846912
000070 44 4f c2 3c 3d 3e e3 bd 56 67 2f 3e a8 1d a8 3d
       0.023719437 -0.110958554 0.17129263 0.082087815
000080 83 5a b7 3d d2 34 f0 bd f3 1d a9 bc 62 bc 7f bb
       0.089528106 -0.11728825 -0.020644164 -0.0039022197
000090 25 38 a9 bd 91 ad 1c 3e 2c b7 6f 3d 79 44 c5 3d
       -0.08262662 0.15300585 0.058524296 0.09632201
0000a0 79 8d 20 3e df 2d 8a 3d 16 35 d7 3d fa c7 77 3d
       0.15678968 0.067470305 0.10508172 0.060493447
0000b0 c9 ce 02 3d 85 70 a1 3d 86 21 3d 3d 87 b6 f0 3b
       0.031935487 0.078827895 0.04617455 0.0073459777
0000c0 f5 78 19 3d fa f4 85 3c 0f 3f 13 bd df 17 b9 bd
       0.03746887 0.016352165 -0.03594881 -0.09037756
0000d0 20 00 d6 bc 45 71 fd bd f7 23 91 bd f0 24 0b be
       -0.026123106 -0.1237512 -0.07086938 -0.1358831
0000e0 f0 54 84 bd 99 c5 6f bd d8 97 ce bd 40 b5 5f bd
       -0.06461513 -0.058538053 -0.10087556 -0.054616213
0000f0 57 d8 9f bd b8 27 83 bc c0 31 b9 bc 08 31 9a bd
       -0.078049354 -0.01601015 -0.02260673 -0.07528883
000100 66 87 be bc 10 e3 d8 3c 73 c8 a6 bc 6c 9e a5 3c
       -0.023257922 0.02647546 -0.020359254 0.020217143
000110 a0 dc 89 3c a8 79 36 3d c5 8e 55 3d 80 16 82 3c
       0.016828835 0.044549614 0.05213811 0.01587987
000120 67 61 2e 3d 21 83 b4 3d d7 9c 59 3d aa bf 29 3d
       0.04257336 0.08814073 0.05312809 0.04144255
000130 be 08 32 3d 68 cb 3e bc 5c bd 18 bc ad cb 40 bc
       0.04346537 -0.0116451755 -0.009322491 -0.01176731
000140 12 4a 20 bd 92 b7 8b be cb f6 fc 3b ab 08 e7 bb
       -0.03913314 -0.2728849 0.0077198497 -0.007050594
000150 20 c9 a7 bd b5 e3 34 3e fe 66 8a 3d ab 4c 39 3e
       -0.081926584 0.17664988 0.067579255 0.18095653
000160 0e 9e fe 3d e2 76 ba 3d 6c f1 09 be 5a d2 96 be
       0.1243249 0.09104706 -0.13471001 -0.2945736
000170 2c 29 2a be 5e 97 39 be f2 95 50 be 63 5a 3f be
       -0.16617268 -0.18124148 -0.203697 -0.18686824
000180 9d ec 21 be ee 1b 9a bd bd cf 51 3c 16 1a a5 bd
       -0.15812917 -0.075248584 0.012805876 -0.08061616
000190 5f 52 be bd ee aa ec bd 55 f4 11 be f5 c3 0c be
       -0.09293055 -0.1155604 -0.14253362 -0.13746627
0001a0 a8 52 16 be 29 8d 0c be 63 2c 0c be b5 a7 2f be
       -0.14679968 -0.13725723 -0.13688807 -0.17153819
0001b0 23 80 39 be 2f 69 2b be dd 60 9a be 33 45 77 be
       -0.18115287 -0.16739343 -0.30152026 -0.24147491
0001c0 a5 63 81 be 6a d7 57 be 17 e5 53 be 65 84 23 be
       -0.25271335 -0.21078268 -0.2069286 -0.15968473
0001d0 98 5b 39 be c5 64 dd be c3 f8 8b be ba 49 84 be
       -0.18101346 -0.43240944 -0.27338228 -0.258375
0001e0 c5 c4 96 be e0 20 7c be 3f ce 9a be 10 4f 9d be
       -0.29446998 -0.24621916 -0.30235478 -0.30724382
0001f0 4a eb bf be 66 2d a7 be a6 d8 b1 bb 95 6d ac 3b
       -0.374842 -0.32651824 -0.005427438 0.0052620866
000200 87 3f 1e 3c 15 e9 10 bc fd e9 b3 bc 09 cb f8 bc
       0.009658701 -0.008844634 -0.02196216 -0.030370252
000210 39 b8 01 bd a3 31 0c bd b8 09 86 bd df b8 af 3c
       -0.03166983 -0.034227025 -0.065448225 0.021450458
000220 e0 da aa 3c ca 6f da 3a 99 e2 ce 3c a3 eb 94 3c
       0.02085632 0.0016665396 0.025254535 0.018178767
000230 b3 c5 89 3c 04 a4 22 3d 28 7a 89 3d 18 dd a8 3d
       0.016817903 0.0397072 0.067127526 0.08245295
000240 49 9f 15 3d 77 46 2a 3d e6 1e 97 3a 38 78 d1 3c
       0.03652886 0.041571107 0.0011529594 0.02557002
000250 4f 7d b6 3c e1 16 c9 3c 46 e9 58 3d 88 51 d0 3c
       0.022276549 0.024547042 0.052956842 0.025429502
000260 5f 97 50 3d 1e e8 e4 3c 3f bc 1b 3d ad 21 49 3d
       0.05092561 0.027942713 0.038021322 0.04910438
000270 b5 76 6c bd 7d bc fe bc e4 c7 86 39 fa 46 3e 38
       -0.057730395 -0.031095738 0.00025707402 4.5365632e-05
000280 6b 3f db bb dc 7a 13 3b fb f8 36 3b 61 56 5b bc
       -0.0066909096 0.002250365 0.00279194 -0.013387294
000290 93 b2 6b 3c 6c 1f 5c bd 06 57 2a bd 9b 01 45 bd
       0.014385837 -0.053740904 -0.0415869 -0.048097234
0002a0 38 68 b2 bd 28 0c c2 bd 49 c7 e1 bd d1 a1 55 bc
       -0.087112844 -0.09474975 -0.11024339 -0.013039068
0002b0 49 b4 c8 bb 9b 9f 61 3c 8a f7 17 bd 4d 71 1d bc
       -0.0061250073 0.013770963 -0.037101306 -0.009609533
0002c0 bc 02 03 bc 35 e8 4e bd 32 8b 30 bd d7 5d 17 bd
       -0.007996257 -0.05051442 -0.043101497 -0.036954727
0002d0 d1 ab 38 3c 64 76 1e 3d ab e4 0f 3d 71 88 1b 3d
       0.011271433 0.038687125 0.035130184 0.037971918
0002e0 06 90 28 3d 31 42 3c 3d 74 fd 80 3d 38 3d 85 3d
       0.041152976 0.045961563 0.06298342 0.06505817
0002f0 42 94 a0 3d 20 3c c5 3c ac 07 29 38 8c 69 c7 bc
       0.07840778 0.024076521 4.0299885e-05 -0.02434232
000300 3c c2 9e 3c 3d 80 84 3c 1f b6 76 3c 7e 27 c0 3c
       0.019379728 0.01617443 0.0150580695 0.023456331
000310 14 00 0f 3d 0c 90 3a 3d e9 f7 fe bb 25 08 dc bc
       0.034912184 0.04554753 -0.007781018 -0.026859352
000320 ee 82 86 bc af 66 13 bd 1c 4e c8 bc 85 dd 07 bd
       -0.016419854 -0.0359866 -0.024451308 -0.03317024
000330 12 01 35 bd a7 9f 73 bd d6 3b 8b bd 20 1f dc 3c
       -0.044190474 -0.05947843 -0.06798522 0.02687031
000340 49 df 59 3c 80 f6 d1 bb cc 9e c8 3c da cb a9 3b
       0.013297864 -0.006407559 0.024489783 0.0051817717
000350 3f 94 07 bc 5f 00 a1 bb e4 c9 12 bd ef 0c 57 bd
       -0.008275091 -0.0049133743 -0.03583707 -0.05250257
000360 47 20 e1 3d 1c e9 94 3d 98 dc ec bd d6 e0 92 3c
       0.109924845 0.072710246 -0.115655124 0.017929476
000370 a0 2d 69 3c 81 1d 4f 3c 18 f6 91 3d 83 4b 03 3e
       0.014232069 0.012641312 0.07127017 0.12821774
000380 3e 6f b0 3d 94 09 9c 3d 1b c1 3e 3e 32 d7 83 3e
       0.08614968 0.076190144 0.18628351 0.25750118
000390 b9 00 49 3e 0a e9 70 3e ff c9 af 3e fe 1d 54 3e
       0.19629182 0.23526397 0.34333798 0.20714566
0003a0 01 4c dd 3d e0 3c b0 3d 40 2a 93 3d 44 8a 2f 3e
       0.10805512 0.08605361 0.07185793 0.17142588
0003b0 58 c9 c9 3e 4a 8b 4e 3e 05 cc 32 3e d4 07 31 3e
       0.39411426 0.20170322 0.1746064 0.17288142
0003c0 80 75 1a 3e bb 0f 25 3e 39 98 80 3e fe 5a 94 3e
       0.15083885 0.16119282 0.25116137 0.28975672
0003d0 b3 9b 39 3e 4b 59 85 3d c5 00 e9 3d b5 e4 20 3e
       0.18125801 0.06511172 0.113771 0.15712245
0003e0 20 08 3b 3e 7e 42 25 3e 83 5f fa 3d 57 19 86 3d
       0.18264818 0.16138646 0.12225249 0.06547802

inference.model.encoder.model.tcn_block_00.conv1.bias f4 [2]
000000 d8 50 fd 3c 27 6d c2 3e
       0.030922338 0.37973902

inference.model.encoder.model.tcn_block_00.conv1.weight_g f4 [2, 1, 1]
000000 bf cf a1 3e 00 ab 6f 3f
       0.3160381 0.936203

inference.model.encoder.model.tcn_block_00.conv1.weight_v f4 [2, 2, 9]
000000 db cd bf 3d 81 de 9f be 46 c0 96 be 27 43 c7 3d
       0.09365436 -0.31224445 -0.29443568 0.09729605
000010 00 7a 51 be 3d 17 33 3e 9b d9 15 3e c1 b4 64 be
       -0.20456696 0.17489333 0.14633791 -0.22334577
000020 23 71 af 3e d4 b8 07 3d 4a 1e 5b 3d d7 19 91 bd
       0.34266004 0.03313525 0.053495683 -0.07085007
000030 ba fb 60 be 48 ad 35 bd 12 e4 dd 3d 2d ad d6 bd
       -0.21971026 -0.044354707 0.108345166 -0.104822494
000040 49 5c c9 3d c0 b4 1d 3e d2 a8 7a 3d 0b ac 3c 3d
       0.09832055 0.15400982 0.061196156 0.04606251
000050 ad b4 23 3d de 99 dd bd 7b 5c 31 be 1e 75 ae be
       0.039967228 -0.108203635 -0.17320435 -0.34073728
000060 04 be 20 be 0c 03 ca be 09 a8 c7 be f3 18 5f 3d
       -0.15697485 -0.3945545 -0.38995388 0.054467153
000070 fb 9a 91 3d 64 6f 87 3d 25 f1 c8 3c 69 de 51 3d
       0.07109638 0.06613043 0.02452905 0.051237497
000080 71 ba 11 3d 95 9b 36 3d 12 d5 a3 3e c3 3a a2 3e
       0.035578195 0.04458197 0.31998497 0.31685457

inference.model.encoder.model.tcn_block_00.block.conv1d_layer_0.bias f4 [2]
000000 72 b6 46 bf e6 54 ec 3e
       -0.7762214 0.46158522

inference.model.encoder.model.tcn_block_00.block.conv1d_layer_0.weight_g f4 [2, 1, 1]
000000 34 6d ce 3f 3a cc 53 3f
       1.6127076 0.827335

inference.model.encoder.model.tcn_block_00.block.conv1d_layer_0.weight_v f4 [2, 14, 9]
000000 7b 4c 29 3d b3 54 c6 3c 29 71 c0 3a 44 bd ae 3c
       0.041332703 0.02421031 0.0014682162 0.021330483
000010 d4 00 80 bb 29 bd c6 bc 4c a5 0b bb f9 aa f4 bc
       -0.0039063487 -0.02426012 -0.0021308241 -0.029866682
000020 8d 9d c0 bb 55 03 95 bd 17 26 fc bc 31 b0 49 bc
       -0.0058781565 -0.07276026 -0.030779881 -0.012310074
000030 3a f5 2c bd 56 f7 ea ba aa c6 54 3c 91 4b c5 3c
       -0.042226054 -0.0017926495 0.012986818 0.024083884
000040 8c 58 4e 3c 02 cd a1 3d b1 89 57 bd 38 e5 8e bd
       0.012594353 0.0790043 -0.052621547 -0.06977314
000050 67 fa 54 3c e7 f1 f1 bb ed 0b 14 bd b5 48 ba 3b
       0.012999154 -0.0073835733 -0.036144186 0.005684937
000060 72 89 64 3b ca ce 64 3a 69 aa 2c 3d 53 ae 15 3f
       0.0034871963 0.0008728324 0.042154703 0.5846912
000070 44 4f c2 3c 3d 3e e3 bd 56 67 2f 3e a8 1d a8 3d
       0.023719437 -0.110958554 0.17129263 0.082087815
000080 83 5a b7 3d d2 34 f0 bd f3 1d a9 bc 62 bc 7f bb
       0.089528106 -0.11728825 -0.020644164 -0.0039022197
000090 25 38 a9 bd 91 ad 1c 3e 2c b7 6f 3d 79 44 c5 3d
       -0.08262662 0.15300585 0.058524296 0.09632201
0000a0 79 8d 20 3e df 2d 8a 3d 16 35 d7 3d fa c7 77 3d
       0.15678968 0.067470305 0.10508172 0.060493447
0000b0 c9 ce 02 3d 85 70 a1 3d 86 21 3d 3d 87 b6 f0 3b
       0.031935487 0.078827895 0.04617455 0.0073459777
0000c0 f5 78 19 3d fa f4 85 3c 0f 3f 13 bd df 17 b9 bd
       0.03746887 0.016352165 -0.03594881 -0.09037756
0000d0 20 00 d6 bc 45 71 fd bd f7 23 91 bd f0 24 0b be
       -0.026123106 -0.1237512 -0.07086938 -0.1358831
0000e0 f0 54 84 bd 99 c5 6f bd d8 97 ce bd 40 b5 5f bd
       -0.06461513 -0.058538053 -0.10087556 -0.054616213
0000f0 57 d8 9f bd b8 27 83 bc c0 31 b9 bc 08 31 9a bd
       -0.078049354 -0.01601015 -0.02260673 -0.07528883
000100 66 87 be bc 10 e3 d8 3c 73 c8 a6 bc 6c 9e a5 3c
       -0.023257922 0.02647546 -0.020359254 0.020217143
000110 a0 dc 89 3c a8 79 36 3d c5 8e 55 3d 80 16 82 3c
       0.016828835 0.044549614 0.05213811 0.01587987
000120 67 61 2e 3d 21 83 b4 3d d7 9c 59 3d aa bf 29 3d
       0.04257336 0.08814073 0.05312809 0.04144255
000130 be 08 32 3d 68 cb 3e bc 5c bd 18 bc ad cb 40 bc
       0.04346537 -0.0116451755 -0.009322491 -0.01176731
000140 12 4a 20 bd 92 b7 8b be cb f6 fc 3b ab 08 e7 bb
       -0.03913314 -0.2728849 0.0077198497 -0.007050594
000150 20 c9 a7 bd b5 e3 34 3e fe 66 8a 3d ab 4c 39 3e
       -0.081926584 0.17664988 0.067579255 0.18095653
000160 0e 9e fe 3d e2 76 ba 3d 6c f1 09 be 5a d2 96 be
       0.1243249 0.09104706 -0.13471001 -0.2945736
000170 2c 29 2a be 5e 97 39 be f2 95 50 be 63 5a 3f be
       -0.16617268 -0.18124148 -0.203697 -0.18686824
000180 9d ec 21 be ee 1b 9a bd bd cf 51 3c 16 1a a5 bd
       -0.15812917 -0.075248584 0.012805876 -0.08061616
000190 5f 52 be bd ee aa ec bd 55 f4 11 be f5 c3 0c be
       -0.09293055 -0.1155604 -0.14253362 -0.13746627
0001a0 a8 52 16 be 29 8d 0c be 63 2c 0c be b5 a7 2f be
       -0.14679968 -0.13725723 -0.13688807 -0.17153819
0001b0 23 80 39 be 2f 69 2b be dd 60 9a be 33 45 77 be
       -0.18115287 -0.16739343 -0.30152026 -0.24147491
0001c0 a5 63 81 be 6a d7 57 be 17 e5 53 be 65 84 23 be
       -0.25271335 -0.21078268 -0.2069286 -0.15968473
0001d0 98 5b 39 be c5 64 dd be c3 f8 8b be ba 49 84 be
       -0.18101346 -0.43240944 -0.27338228 -0.258375
0001e0 c5 c4 96 be e0 20 7c be 3f ce 9a be 10 4f 9d be
       -0.29446998 -0.24621916 -0.30235478 -0.30724382
0001f0 4a eb bf be 66 2d a7 be a6 d8 b1 bb 95 6d ac 3b
       -0.374842 -0.32651824 -0.005427438 0.0052620866
000200 87 3f 1e 3c 15 e9 10 bc fd e9 b3 bc 09 cb f8 bc
       0.009658701 -0.008844634 -0.02196216 -0.030370252
000210 39 b8 01 bd a3 31 0c bd b8 09 86 bd df b8 af 3c
       -0.03166983 -0.034227025 -0.065448225 0.021450458
000220 e0 da aa 3c ca 6f da 3a 99 e2 ce 3c a3 eb 94 3c
       0.02085632 0.0016665396 0.025254535 0.018178767
000230 b3 c5 89 3c 04 a4 22 3d 28 7a 89 3d 18 dd a8 3d
       0.016817903 0.0397072 0.067127526 0.08245295
000240 49 9f 15 3d 77 46 2a 3d e6 1e 97 3a 38 78 d1 3c
       0.03652886 0.041571107 0.0011529594 0.02557002
000250 4f 7d b6 3c e1 16 c9 3c 46 e9 58 3d 88 51 d0 3c
       0.022276549 0.024547042 0.052956842 0.025429502
000260 5f 97 50 3d 1e e8 e4 3c 3f bc 1b 3d ad 21 49 3d
       0.05092561 0.027942713 0.038021322 0.04910438
000270 b5 76 6c bd 7d bc fe bc e4 c7 86 39 fa 46 3e 38
       -0.057730395 -0.031095738 0.00025707402 4.5365632e-05
000280 6b 3f db bb dc 7a 13 3b fb f8 36 3b 61 56 5b bc
       -0.0066909096 0.002250365 0.00279194 -0.013387294
000290 93 b2 6b 3c 6c 1f 5c bd 06 57 2a bd 9b 01 45 bd
       0.014385837 -0.053740904 -0.0415869 -0.048097234
0002a0 38 68 b2 bd 28 0c c2 bd 49 c7 e1 bd d1 a1 55 bc
       -0.087112844 -0.09474975 -0.11024339 -0.013039068
0002b0 49 b4 c8 bb 9b 9f 61 3c 8a f7 17 bd 4d 71 1d bc
       -0.0061250073 0.013770963 -0.037101306 -0.009609533
0002c0 bc 02 03 bc 35 e8 4e bd 32 8b 30 bd d7 5d 17 bd
       -0.007996257 -0.05051442 -0.043101497 -0.036954727
0002d0 d1 ab 38 3c 64 76 1e 3d ab e4 0f 3d 71 88 1b 3d
       0.011271433 0.038687125 0.035130184 0.037971918
0002e0 06 90 28 3d 31 42 3c 3d 74 fd 80 3d 38 3d 85 3d
       0.041152976 0.045961563 0.06298342 0.06505817
0002f0 42 94 a0 3d 20 3c c5 3c ac 07 29 38 8c 69 c7 bc
       0.07840778 0.024076521 4.0299885e-05 -0.02434232
000300 3c c2 9e 3c 3d 80 84 3c 1f b6 76 3c 7e 27 c0 3c
       0.019379728 0.01617443 0.0150580695 0.023456331
000310 14 00 0f 3d 0c 90 3a 3d e9 f7 fe bb 25 08 dc bc
       0.034912184 0.04554753 -0.007781018 -0.026859352
000320 ee 82 86 bc af 66 13 bd 1c 4e c8 bc 85 dd 07 bd
       -0.016419854 -0.0359866 -0.024451308 -0.03317024
000330 12 01 35 bd a7 9f 73 bd d6 3b 8b bd 20 1f dc 3c
       -0.044190474 -0.05947843 -0.06798522 0.02687031
000340 49 df 59 3c 80 f6 d1 bb cc 9e c8 3c da cb a9 3b
       0.013297864 -0.006407559 0.024489783 0.0051817717
000350 3f 94 07 bc 5f 00 a1 bb e4 c9 12 bd ef 0c 57 bd
       -0.008275091 -0.0049133743 -0.03583707 -0.05250257
000360 47 20 e1 3d 1c e9 94 3d 98 dc ec bd d6 e0 92 3c
       0.109924845 0.072710246 -0.115655124 0.017929476
000370 a0 2d 69 3c 81 1d 4f 3c 18 f6 91 3d 83 4b 03 3e
       0.014232069 0.012641312 0.07127017 0.12821774
000380 3e 6f b0 3d 94 09 9c 3d 1b c1 3e 3e 32 d7 83 3e
       0.08614968 0.076190144 0.18628351 0.25750118
000390 b9 00 49 3e 0a e9 70 3e ff c9 af 3e fe 1d 54 3e
       0.19629182 0.23526397 0.34333798 0.20714566
0003a0 01 4c dd 3d e0 3c b0 3d 40 2a 93 3d 44 8a 2f 3e
       0.10805512 0.08605361 0.07185793 0.17142588
0003b0 58 c9 c9 3e 4a 8b 4e 3e 05 cc 32 3e d4 07 31 3e
       0.39411426 0.20170322 0.1746064 0.17288142
0003c0 80 75 1a 3e bb 0f 25 3e 39 98 80 3e fe 5a 94 3e
       0.15083885 0.16119282 0.25116137 0.28975672
0003d0 b3 9b 39 3e 4b 59 85 3d c5 00 e9 3d b5 e4 20 3e
       0.18125801 0.06511172 0.113771 0.15712245
0003e0 20 08 3b 3e 7e 42 25 3e 83 5f fa 3d 57 19 86 3d
       0.18264818 0.16138646 0.12225249 0.06547802

inference.model.encoder.model.tcn_block_00.block.conv1d_layer_1.bias f4 [2]
000000 d8 50 fd 3c 27 6d c2 3e
       0.030922338 0.37973902

inference.model.encoder.model.tcn_block_00.block.conv1d_layer_1.weight_g f4 [2, 1, 1]
000000 bf cf a1 3e 00 ab 6f 3f
       0.3160381 0.936203

inference.model.encoder.model.tcn_block_00.block.conv1d_layer_1.weight_v f4 [2, 2, 9]
000000 db cd bf 3d 81 de 9f be 46 c0 96 be 27 43 c7 3d
       0.09365436 -0.31224445 -0.29443568 0.09729605
000010 00 7a 51 be 3d 17 33 3e 9b d9 15 3e c1 b4 64 be
       -0.20456696 0.17489333 0.14633791 -0.22334577
000020 23 71 af 3e d4 b8 07 3d 4a 1e 5b 3d d7 19 91 bd
       0.34266004 0.03313525 0.053495683 -0.07085007
000030 ba fb 60 be 48 ad 35 bd 12 e4 dd 3d 2d ad d6 bd
       -0.21971026 -0.044354707 0.108345166 -0.104822494
000040 49 5c c9 3d c0 b4 1d 3e d2 a8 7a 3d 0b ac 3c 3d
       0.09832055 0.15400982 0.061196156 0.04606251
000050 ad b4 23 3d de 99 dd bd 7b 5c 31 be 1e 75 ae be
       0.039967228 -0.108203635 -0.17320435 -0.34073728
000060 04 be 20 be 0c 03 ca be 09 a8 c7 be f3 18 5f 3d
       -0.15697485 -0.3945545 -0.38995388 0.054467153
000070 fb 9a 91 3d 64 6f 87 3d 25 f1 c8 3c 69 de 51 3d
       0.07109638 0.06613043 0.02452905 0.051237497
000080 71 ba 11 3d 95 9b 36 3d 12 d5 a3 3e c3 3a a2 3e
       0.035578195 0.04458197 0.31998497 0.31685457

inference.model.encoder.model.tcn_block_00.downsample.weight f4 [2, 14, 1]
000000 37 26 9a 3e 5e 95 88 be a7 13 3c be 4b 7d ae 3d
       0.3010728 -0.26676458 -0.18366872 0.085199915
000010 d0 d4 00 3e 9c a4 8b 3e ab f0 98 be 1a b8 a0 be
       0.12581182 0.27274024 -0.29871115 -0.31390458
000020 a6 02 8a 3e 69 bd 80 be e3 d2 9f 3f d6 49 bb 3f
       0.26955146 -0.25144508 1.2486233 1.4631908
000030 af 87 bc 3f ea d8 ad 3f 05 29 aa 3e 7a 0f b0 be
       1.4728907 1.3581822 0.3323442 -0.34386808
000040 b3 24 f1 bd f4 4d ce 3e 81 5b fe be 2b f3 08 3f
       -0.11774578 0.4029385 -0.49679187 0.53496045
000050 16 c8 24 3e 70 94 c7 bd 84 28 1e 3e 04 b8 ac bf
       0.16091952 -0.09745109 0.15445143 -1.3493657
000060 8a e8 3f 3f df dd 7d 3f 0b b2 88 3f ba ae 4b 3f
       0.749642 0.99166673 1.0679334 0.79563487

inference.model.encoder.model.tcn_block_00.downsample.bias f4 [2]
000000 4a f5 d6 3f 01 9d 99 3f
       1.6793606 1.2001039

inference.model.encoder.model.tcn_block_01.conv0.bias f4 [2]
000000 dc 05 3a 3f d8 80 ff 3d
       0.7266519 0.12475747

inference.model.encoder.model.tcn_block_01.conv0.weight_g f4 [2, 1, 1]
000000 ba ab 73 3f b1 3a 4b 3f
       0.9518391 0.7938643

inference.model.encoder.model.tcn_block_01.conv0.weight_v f4 [2, 2, 9]
000000 d0 98 9d be 55 e5 0f be 38 18 2b be 37 c1 a2 bd
       -0.3078065 -0.14052327 -0.16708457 -0.07947009
000010 21 a9 83 bd f3 1f 26 3e 36 1a 10 3e 05 e0 4f 3e
       -0.06428743 0.16223125 0.14072499 0.203003
000020 f5 fe f9 3e fe ca 5c be 69 ee 43 be dc 79 8c bd
       0.4882733 -0.2156181 -0.19133915 -0.0685918
000030 e0 0b 85 3c 7d 1e bd bd b2 28 b7 3b 01 aa 79 3d
       0.016241014 -0.09234331 0.005589568 0.060953144
000040 88 09 bf 3d f5 eb 5a 3c ad 93 14 bd f0 2e c1 3d
       0.0932799 0.013361921 -0.036273647 0.09432781
000050 17 98 92 3c c4 8b 59 3d 7a 60 cd 3d 00 0e 07 3e
       0.017894788 0.053111807 0.10028167 0.13188934
000060 c2 af 1d be 0f 80 b5 be 12 ec ff be 1a b7 b4 3e
       -0.15399078 -0.35449263 -0.49984795 0.35295945
000070 a0 16 c1 3d 39 01 a7 bc 81 c2 93 bc dd e6 06 3d
       0.094281435 -0.020386325 -0.018037083 0.032935012
000080 bd ce 77 be ed b5 bf 3d 34 56 6d 3d e1 25 12 3d
       -0.24199958 0.093608715 0.057943538 0.035680655

inference.model.encoder.model.tcn_block_01.conv1.bias f4 [2]
000000 d0 c8 9e bb f2 da 8f 3e
       -0.004845716 0.2809673

inference.model.encoder.model.tcn_block_01.conv1.weight_g f4 [2, 1, 1]
000000 07 6e b9 3e 3a b5 80 3f
       0.36216757 1.0055306

inference.model.encoder.model.tcn_block_01.conv1.weight_v f4 [2, 2, 9]
000000 e5 95 89 bd b0 0b 77 3d 97 5b 2c 3e 15 ce 63 be
       -0.06718043 0.06031388 0.16831814 -0.22246583
000010 54 a7 e1 3d 98 77 ce 3c ed 7d ae 3c 1a 14 9d be
       0.110182434 0.025203511 0.02130028 -0.306794
000020 0f ad f7 3d 6f 83 b0 3d c9 3b ac 3e ad d1 dc be
       0.12093555 0.08618819 0.33639362 -0.4312872
000030 26 5b e5 be 67 58 37 3e d1 e2 a0 bb b4 0e 31 3d
       -0.44796103 0.17904817 -0.004909851 0.043226913
000040 22 0c 98 be 9e c1 f2 3c 23 03 f1 3d 17 65 c0 3c
       -0.29696757 0.02963334 0.117681764 0.023485703
000050 e2 f0 c9 3c 97 b6 01 3d 07 18 9c 3d 7c 6d 2b 3d
       0.024650995 0.031668272 0.0762177 0.04185246
000060 ad df 94 3d 9b d4 5c 3e b3 87 9c 3e b5 d9 05 bd
       0.07269225 0.21565478 0.3057228 -0.032678325
000070 96 07 fa bc c3 ce ef bc 60 40 97 3c cf a4 66 bd
       -0.030521195 -0.029273396 0.018463314 -0.056309517
000080 c9 4d 70 bd 69 3a 97 bd 33 b9 af bd 4e a9 23 be
       -0.05866793 -0.07384188 -0.08580246 -0.15982553

inference.model.encoder.model.tcn_block_01.block.conv1d_layer_0.bias f4 [2]
000000 dc 05 3a 3f d8 80 ff 3d
       0.7266519 0.12475747

inference.model.encoder.model.tcn_block_01.block.conv1d_layer_0.weight_g f4 [2, 1, 1]
000000 ba ab 73 3f b1 3a 4b 3f
       0.9518391 0.7938643

inference.model.encoder.model.tcn_block_01.block.conv1d_layer_0.weight_v f4 [2, 2, 9]
000000 d0 98 9d be 55 e5 0f be 38 18 2b be 37 c1 a2 bd
       -0.3078065 -0.14052327 -0.16708457 -0.07947009
000010 21 a9 83 bd f3 1f 26 3e 36 1a 10 3e 05 e0 4f 3e
       -0.06428743 0.16223125 0.14072499 0.203003
000020 f5 fe f9 3e fe ca 5c be 69 ee 43 be dc 79 8c bd
       0.4882733 -0.2156181 -0.19133915 -0.0685918
000030 e0 0b 85 3c 7d 1e bd bd b2 28 b7 3b 01 aa 79 3d
       0.016241014 -0.09234331 0.005589568 0.060953144
000040 88 09 bf 3d f5 eb 5a 3c ad 93 14 bd f0 2e c1 3d
       0.0932799 0.013361921 -0.036273647 0.09432781
000050 17 98 92 3c c4 8b 59 3d 7a 60 cd 3d 00 0e 07 3e
       0.017894788 0.053111807 0.10028167 0.13188934
000060 c2 af 1d be 0f 80 b5 be 12 ec ff be 1a b7 b4 3e
       -0.15399078 -0.35449263 -0.49984795 0.35295945
000070 a0 16 c1 3d 39 01 a7 bc 81 c2 93 bc dd e6 06 3d
       0.094281435 -0.020386325 -0.018037083 0.032935012
000080 bd ce 77 be ed b5 bf 3d 34 56 6d 3d e1 25 12 3d
       -0.24199958 0.093608715 0.057943538 0.035680655

inference.model.encoder.model.tcn_block_01.block.conv1d_layer_1.bias f4 [2]
000000 d0 c8 9e bb f2 da 8f 3e
       -0.004845716 0.2809673

inference.model.encoder.model.tcn_block_01.block.conv1d_layer_1.weight_g f4 [2, 1, 1]
000000 07 6e b9 3e 3a b5 80 3f
       0.36216757 1.0055306

inference.model.encoder.model.tcn_block_01.block.conv1d_layer_1.weight_v f4 [2, 2, 9]
000000 e5 95 89 bd b0 0b 77 3d 97 5b 2c 3e 15 ce 63 be
       -0.06718043 0.06031388 0.16831814 -0.22246583
000010 54 a7 e1 3d 98 77 ce 3c ed 7d ae 3c 1a 14 9d be
       0.110182434 0.025203511 0.02130028 -0.306794
000020 0f ad f7 3d 6f 83 b0 3d c9 3b ac 3e ad d1 dc be
       0.12093555 0.08618819 0.33639362 -0.4312872
000030 26 5b e5 be 67 58 37 3e d1 e2 a0 bb b4 0e 31 3d
       -0.44796103 0.17904817 -0.004909851 0.043226913
000040 22 0c 98 be 9e c1 f2 3c 23 03 f1 3d 17 65 c0 3c
       -0.29696757 0.02963334 0.117681764 0.023485703
000050 e2 f0 c9 3c 97 b6 01 3d 07 18 9c 3d 7c 6d 2b 3d
       0.024650995 0.031668272 0.0762177 0.04185246
000060 ad df 94 3d 9b d4 5c 3e b3 87 9c 3e b5 d9 05 bd
       0.07269225 0.21565478 0.3057228 -0.032678325
000070 96 07 fa bc c3 ce ef bc 60 40 97 3c cf a4 66 bd
       -0.030521195 -0.029273396 0.018463314 -0.056309517
000080 c9 4d 70 bd 69 3a 97 bd 33 b9 af bd 4e a9 23 be
       -0.05866793 -0.07384188 -0.08580246 -0.15982553

inference.model.qz_xy_mean.dense(qz_xy_mean)_layer_00.weight f4 [2, 2]
000000 66 ea d1 bd c0 ad af 3e 7d bb 8e 3f 21 e8 3f 3e
       -0.10249786 0.34312248 1.1150967 0.18740894

inference.model.qz_xy_mean.dense(qz_xy_mean)_layer_00.bias f4 [2]
000000 09 21 1d 3f 22 88 3d be
       0.6137853 -0.18508962

inference.model.qz_xy_logvar.dense(qz_xy_logvar)_layer_00.weight f4 [2, 2]
000000 cc 5e a4 bf 0b 04 61 bf 14 1b 14 bf 1b d5 09 bf
       -1.284143 -0.87896794 -0.5785382 -0.538408

inference.model.qz_xy_logvar.dense(qz_xy_logvar)_layer_00.bias f4 [2]
000000 88 d0 b8 3c 9a de b8 bf
       0.022560373 -1.4442933

inference.model.py_t_probs.dense(py_t_probs)_layer_00.weight f4 [4, 2]
000000 83 0d 86 be 31 36 d2 3d 29 38 5d 3f 63 4b 22 bf
       -0.26182184 0.102642424 0.8641382 -0.6339628
000010 50 99 0b 3f b5 1a f7 39 1e f4 12 3e ce f5 7d bd
       0.5453081 0.0004713141 0.14350936 -0.062001996

inference.model.py_t_probs.dense(py_t_probs)_layer_00.bias f4 [4]
000000 41 f4 bd 3e 45 e7 a3 3d f3 18 c7 be ef 57 4d 3e
       0.37100413 0.080030955 -0.38886222 0.20053075

inference.model.pz_t_mean.dense(pz_t_mean)_layer_00.weight f4 [8, 2]
000000 06 30 86 3f 6f dc 93 bd da f6 91 3e eb aa 67 3f
       1.0483406 -0.07219779 0.28508645 0.90495175
000010 65 2f 6e 3f 85 bd 21 bb 1b 0c f1 3d 44 6d 72 3f
       0.9304107 -0.0024679613 0.11769887 0.94697976
000020 89 34 7d 3f f1 56 de bc 30 3b 15 3d e6 74 7c 3f
       0.9890829 -0.027141066 0.0364334 0.9861587
000030 d1 a0 71 3f cc de 81 bc 6c 60 08 3e 9b 28 7b 3f
       0.9438601 -0.015853308 0.13318032 0.98108834

inference.model.pz_t_mean.dense(pz_t_mean)_layer_00.bias f4 [8]
000000 0e 43 ac 3e e4 06 95 3d bc d0 46 3e f0 a5 bf bd
       0.3364491 0.07276705 0.19415563 -0.09357822
000010 0f ba 32 3e 9a da 53 3d 00 02 d3 3d 82 23 4b be
       0.17453788 0.051722147 0.10303116 -0.19837764

inference.model.pz_t_logvar.dense(pz_t_logvar)_layer_00.weight f4 [2, 4]
000000 6c 8f 64 c0 07 4d ec be b1 6e 38 c0 a8 dd 8b bf
       -3.5712538 -0.46152517 -2.881756 -1.0927019
000010 12 f3 bf bf f2 59 86 bf 39 4f ef bf 78 4b 5f bf
       -1.4996054 -1.0496199 -1.8696052 -0.8722453

inference.model.pz_t_logvar.dense(pz_t_logvar)_layer_00.bias f4 [2]
000000 b1 6d fe bf 26 0f c4 bf
       -1.9877225 -1.5317123

inference.model.decoder.dense(decoder)_layer_00.weight f4 [10, 2]
000000 bc 3c 0b be ae 67 e2 3e ba 83 e5 3b a3 23 da be
       -0.13597387 0.44219726 0.0070042284 -0.42605314
000010 cb d8 8c 3e 22 89 df be d9 32 40 3f 36 0b 23 3e
       0.2750915 -0.43659312 0.7507759 0.15922245
000020 4b 2d 7a bf d2 1e 72 3d 3f 91 2b 3e ac 2d cb 3e
       -0.9772536 0.059111424 0.16754626 0.39683282
000030 12 79 67 3f 87 c2 9b be c4 4f 02 3f 25 54 df be
       0.90419114 -0.3042185 0.5090296 -0.43618885
000040 32 88 d6 be c0 f8 e2 3e a6 d8 21 bf c2 2d 77 be
       -0.41900784 0.44330406 -0.63221204 -0.24138549
