results_gmdgm/ssm_v1/dtcn/notb_v2/version_1/best_val_model.pt (torch, 58663 bytes, 204 tensors)

model.qy_x.model.tcn_block_00.conv0.bias f4 [2]
-0.040177252 0.22538002
00000000: e790 24bd 05ca 663e

model.qy_x.model.tcn_block_00.conv0.weight_g f4 [2, 1, 1]
0.7822723 0.98115575
00000000: ff42 483f 062d 7b3f

model.qy_x.model.tcn_block_00.conv0.weight_v f4 [2, 10, 9]
-0.05347331 -0.037887942 -0.08438005 -0.09584209 -0.111419044 -0.10726696 -0.12587573 -0.08152596
-0.124556825 0.06336862 0.053065117 0.0686937 0.03951509 0.07045755 0.09203212 0.11246345
0.12107064 0.1206344 0.013855414 0.040140714 0.08229663 0.103096545 0.09723921 0.12899655
0.12568024 0.13945761 0.14640595 -0.10032038 -0.08412078 -0.06798208 -0.06370584 -0.01019423
-0.05434446 -0.038414788 -0.036836945 -0.03908012 0.029708099 0.074501686 0.04435199 0.033108428
0.0013610676 -0.03183676 -0.02156461 -0.072671756 -0.07834147 -0.07213132 -0.048805196 -0.060313005
-0.09823619 -0.098448135 -0.07175202 -0.047058035 -0.07684527 -0.080045156 0.017900461 -0.022853969
0.028580027 -0.0056685763 0.018410448 0.048181374 0.10881494 0.12419817 0.08663175 0.046898946
0.06813094 0.057217993 0.07946673 0.10392575 0.12947437 0.14972411 0.092556 0.13343188
-0.022385651 -0.0071755275 -0.017081149 -0.030091576 -0.08733445 -0.1290683 -0.12774113 -0.15763314
-0.16499847 0.10590924 0.09791176 0.026495615 0.07194206 0.052929237 0.044698346 0.025046626
0.04599754 0.0017484066 0.038573273 0.048523504 0.05953851 0.07284695 0.08973874 0.11107511
0.13745262 0.16288228 0.18070498 -0.04658916 -0.053983215 -0.06305414 -0.07441969 -0.089466386
-0.107691415 -0.1286946 -0.14744331 -0.16456874 -0.033121735 -0.04489096 -0.056562625 -0.06855869
-0.082155354 -0.10392611 -0.12938587 -0.15853038 -0.18469048 0.053624127 0.050228897 0.049024314
0.048491813 0.051840503 0.055497464 0.0578598 0.052186023 0.05144056 -0.067972176 -0.058071677
-0.048878267 -0.041956704 -0.03155972 -0.01960307 -0.012810454 0.002313725 0.022182107 0.056568466
0.060442995 0.06435043 0.068866156 0.074194804 0.086221576 0.105908886 0.120698586 0.137188
0.02948517 0.02125311 0.015124446 -0.003935229 -0.023357088 -0.042654518 -0.063540965 -0.085268214
-0.10987977 -0.005355884 -0.020328172 -0.040267024 -0.05222827 -0.071818896 -0.09456095 -0.122392595
-0.15344383 -0.18521522 0.012155041 0.026864601 0.042041514 0.05855527 0.07748804 0.101036675
0.12790401 0.15903674 0.18904977 -0.05492612 -0.056731913 -0.05454941 -0.054928187 -0.06037923
-0.06395323 -0.06913016 -0.07154466 -0.07625313
00000000: d406 5bbd 6330 1bbd 73cf acbd dc48 c4bd
00000010: ab2f e4bd c8ae dbbd 91e5 00be 15f7 a6bd
00000020: a617 ffbd 68c7 813d cf5a 593d 48af 8c3d
00000030: 93da 213d 0c4c 903d 567b bc3d 3d53 e63d
00000040: e2f3 f73d 2b0f f73d d201 633c 976a 243d
00000050: 238b a83d 4824 d33d 5a25 c73d ac17 043e
00000060: 52b2 003e facd 0e3e 71eb 153e c574 cdbd
00000070: 8447 acbd 303a 8bbd 3578 82bd b305 27bc
00000080: 4c98 5ebd d358 1dbd 56e2 16bd 7a12 20bd
00000090: 665e f33c 5794 983d 6faa 353d b49c 073d
000000a0: da65 b23a 4367 02bd 44a8 b0bc eed4 94bd
000000b0: 7e71 a0bd 96b9 93bd f5e7 47bd c50a 77bd
000000c0: 0e30 c9bd 2d9f c9bd b9f2 92bd edbf 40bd
000000d0: 0e61 9dbd b7ee a3bd fda3 923c 3f38 bbbc
000000e0: a920 ea3c 77bf b9bb 82d1 963c d559 453d
000000f0: 5eda de3d 9c5b fe3d fd6b b13d 1c19 403d
00000100: 3c88 8b3d 6a5d 6a3d 74bf a23d 06d7 d43d
00000110: ee94 043e 4751 193e 008e bd3d 5ea2 083e
00000120: 1d62 b7bc b020 ebbb c4ed 8bbc 9c82 f6bc
00000130: 67dc b2bd 7b2a 04be 92ce 02be 956a 21be
00000140: 5cf5 28be f2e6 d83d f685 c83d 550d d93c
00000150: 5c56 933d 54cc 583d 9d15 373d 952e cd3c
00000160: eb67 3c3d ca2a e53a 02ff 1d3d 95c0 463d
00000170: a7de 733d c830 953d f2c8 b73d 597b e33d
00000180: 61c0 0c3e 9dca 263e ba0a 393e 46d4 3ebd
00000190: 811d 5dbd 8722 81bd 5a69 98bd 273a b7bd
000001a0: 518d dcbd 84c8 03be 61fb 16be b584 28be
000001b0: a8aa 07bd 95df 37bd 36ae 67bd 8068 8cbd
000001c0: 1141 a8bd 36d7 d4bd bb7d 04be ca55 22be
000001d0: 801f 3dbe f9a4 5b3d d1bc 4d3d b8cd 483d
000001e0: 5a9f 463d b556 543d 4f51 633d 66fe 6c3d
000001f0: 03c1 553d 56b3 523d ff34 8bbd 91dc 6dbd
00000200: 9434 48bd cbda 2bbd c444 01bd 9e96 a0bc
00000210: f0e2 51bc dda1 173b 40b7 b53c 56b4 673d
00000220: 1393 773d 29ca 833d b309 8d3d 72f3 973d
00000230: f094 b03d c2e6 d83d d230 f73d 037b 0c3e
00000240: e28a f13c 011b ae3c 86cc 773c 18f3 80bb
00000250: 5d57 bfbc 81b6 2ebd c421 82bd 1aa1 aebd
00000260: a508 e1bd 6980 afbb 4487 a6bc 09ef 24bd
00000270: 4fed 55bd c915 93bd 2ca9 c1bd f8a8 fabd
00000280: 6120 1dbe 0fa9 3dbe f025 473c 2713 dc3c
00000290: b933 2c3d a7d7 6f3d 0db2 9e3d 51ec ce3d
000002a0: 45f9 023e 87da 223e 4396 413e 36fa 60bd
000002b0: b95f 68bd 346f 5fbd 61fc 60bd 3650 77bd
000002c0: e9f9 82bd 1d94 8dbd 0286 92bd 9a2a 9cbd

model.qy_x.model.tcn_block_00.conv1.bias f4 [2]
0.30292806 0.15099591
00000000: 6319 9b3e ac9e 1a3e

model.qy_x.model.tcn_block_00.conv1.weight_g f4 [2, 1, 1]
0.7442581 0.88055813
00000000: b387 3e3f 426c 613f

model.qy_x.model.tcn_block_00.conv1.weight_v f4 [2, 2, 9]
0.20961559 0.17929554 0.2295732 0.22761774 0.12542222 0.119017474 -0.024153054 0.17191257
0.17166199 0.037826605 -0.0423507 -0.030592948 -0.0640812 -0.06173629 -0.07058215 -0.0645344
-0.08951108 -0.08422313 0.030117309 0.02208666 0.0047181207 0.0013630509 -0.0035065438 -0.0153270215
-0.039874442 -0.056767054 -0.07566218 0.07202398 0.08112134 0.095167 0.113535866 0.12758811
0.13991016 0.1490712 0.11932317 0.15362154
00000000: 78a5 563e 4099 373e 3d15 6b3e a014 693e
00000010: af6e 003e 6fbf f33d a0dc c5bc d909 303e
00000020: 29c8 2f3e 12f0 1a3d ed77 2dbd 109e fabc
00000030: 013d 83bd 31df 7cbd 608d 90bd 9d2a 84bd
00000040: 9651 b7bd 2d7d acbd 93b8 f63c 15ef b43c
00000050: 779a 9a3b 66a8 b23a 0bce 65bb 301e 7bbc
00000060: 6253 23bd 9284 68bd c6f4 9abd 4f81 933d
00000070: f222 a63d ebe6 c23d 7e85 e83d 75a6 023e
00000080: 9c44 0f3e 1fa6 183e b55f f43d f74e 1d3e

model.qy_x.model.tcn_block_00.block.conv1d_layer_0.bias f4 [2]
-0.040177252 0.22538002
00000000: e790 24bd 05ca 663e

model.qy_x.model.tcn_block_00.block.conv1d_layer_0.weight_g f4 [2, 1, 1]
0.7822723 0.98115575
00000000: ff42 483f 062d 7b3f

model.qy_x.model.tcn_block_00.block.conv1d_layer_0.weight_v f4 [2, 10, 9]
-0.05347331 -0.037887942 -0.08438005 -0.09584209 -0.111419044 -0.10726696 -0.12587573 -0.08152596
-0.124556825 0.06336862 0.053065117 0.0686937 0.03951509 0.07045755 0.09203212 0.11246345
0.12107064 0.1206344 0.013855414 0.040140714 0.08229663 0.103096545 0.09723921 0.12899655
0.12568024 0.13945761 0.14640595 -0.10032038 -0.08412078 -0.06798208 -0.06370584 -0.01019423
-0.05434446 -0.038414788 -0.036836945 -0.03908012 0.029708099 0.074501686 0.04435199 0.033108428
0.0013610676 -0.03183676 -0.02156461 -0.072671756 -0.07834147 -0.07213132 -0.048805196 -0.060313005
-0.09823619 -0.098448135 -0.07175202 -0.047058035 -0.07684527 -0.080045156 0.017900461 -0.022853969
0.028580027 -0.0056685763 0.018410448 0.048181374 0.10881494 0.12419817 0.08663175 0.046898946
0.06813094 0.057217993 0.07946673 0.10392575 0.12947437 0.14972411 0.092556 0.13343188
-0.022385651 -0.0071755275 -0.017081149 -0.030091576 -0.08733445 -0.1290683 -0.12774113 -0.15763314
-0.16499847 0.10590924 0.09791176 0.026495615 0.07194206 0.052929237 0.044698346 0.025046626
0.04599754 0.0017484066 0.038573273 0.048523504 0.05953851 0.07284695 0.08973874 0.11107511
0.13745262 0.16288228 0.18070498 -0.04658916 -0.053983215 -0.06305414 -0.07441969 -0.089466386
-0.107691415 -0.1286946 -0.14744331 -0.16456874 -0.033121735 -0.04489096 -0.056562625 -0.06855869
-0.082155354 -0.10392611 -0.12938587 -0.15853038 -0.18469048 0.053624127 0.050228897 0.049024314
0.048491813 0.051840503 0.055497464 0.0578598 0.052186023 0.05144056 -0.067972176 -0.058071677
-0.048878267 -0.041956704 -0.03155972 -0.01960307 -0.012810454 0.002313725 0.022182107 0.056568466
0.060442995 0.06435043 0.068866156 0.074194804 0.086221576 0.105908886 0.120698586 0.137188
0.02948517 0.02125311 0.015124446 -0.003935229 -0.023357088 -0.042654518 -0.063540965 -0.085268214
-0.10987977 -0.005355884 -0.020328172 -0.040267024 -0.05222827 -0.071818896 -0.09456095 -0.122392595
-0.15344383 -0.18521522 0.012155041 0.026864601 0.042041514 0.05855527 0.07748804 0.101036675
0.12790401 0.15903674 0.18904977 -0.05492612 -0.056731913 -0.05454941 -0.054928187 -0.06037923
-0.06395323 -0.06913016 -0.07154466 -0.07625313
00000000: d406 5bbd 6330 1bbd 73cf acbd dc48 c4bd
00000010: ab2f e4bd c8ae dbbd 91e5 00be 15f7 a6bd
00000020: a617 ffbd 68c7 813d cf5a 593d 48af 8c3d
00000030: 93da 213d 0c4c 903d 567b bc3d 3d53 e63d
00000040: e2f3 f73d 2b0f f73d d201 633c 976a 243d
00000050: 238b a83d 4824 d33d 5a25 c73d ac17 043e
00000060: 52b2 003e facd 0e3e 71eb 153e c574 cdbd
00000070: 8447 acbd 303a 8bbd 3578 82bd b305 27bc
00000080: 4c98 5ebd d358 1dbd 56e2 16bd 7a12 20bd
00000090: 665e f33c 5794 983d 6faa 353d b49c 073d
000000a0: da65 b23a 4367 02bd 44a8 b0bc eed4 94bd
000000b0: 7e71 a0bd 96b9 93bd f5e7 47bd c50a 77bd
000000c0: 0e30 c9bd 2d9f c9bd b9f2 92bd edbf 40bd
000000d0: 0e61 9dbd b7ee a3bd fda3 923c 3f38 bbbc
000000e0: a920 ea3c 77bf b9bb 82d1 963c d559 453d
000000f0: 5eda de3d 9c5b fe3d fd6b b13d 1c19 403d
00000100: 3c88 8b3d 6a5d 6a3d 74bf a23d 06d7 d43d
00000110: ee94 043e 4751 193e 008e bd3d 5ea2 083e
00000120: 1d62 b7bc b020 ebbb c4ed 8bbc 9c82 f6bc
00000130: 67dc b2bd 7b2a 04be 92ce 02be 956a 21be
00000140: 5cf5 28be f2e6 d83d f685 c83d 550d d93c
00000150: 5c56 933d 54cc 583d 9d15 373d 952e cd3c
00000160: eb67 3c3d ca2a e53a 02ff 1d3d 95c0 463d
00000170: a7de 733d c830 953d f2c8 b73d 597b e33d
00000180: 61c0 0c3e 9dca 263e ba0a 393e 46d4 3ebd
00000190: 811d 5dbd 8722 81bd 5a69 98bd 273a b7bd
000001a0: 518d dcbd 84c8 03be 61fb 16be b584 28be
000001b0: a8aa 07bd 95df 37bd 36ae 67bd 8068 8cbd
000001c0: 1141 a8bd 36d7 d4bd bb7d 04be ca55 22be
000001d0: 801f 3dbe f9a4 5b3d d1bc 4d3d b8cd 483d
000001e0: 5a9f 463d b556 543d 4f51 633d 66fe 6c3d
000001f0: 03c1 553d 56b3 523d ff34 8bbd 91dc 6dbd
00000200: 9434 48bd cbda 2bbd c444 01bd 9e96 a0bc
00000210: f0e2 51bc dda1 173b 40b7 b53c 56b4 673d
00000220: 1393 773d 29ca 833d b309 8d3d 72f3 973d
00000230: f094 b03d c2e6 d83d d230 f73d 037b 0c3e
00000240: e28a f13c 011b ae3c 86cc 773c 18f3 80bb
00000250: 5d57 bfbc 81b6 2ebd c421 82bd 1aa1 aebd
00000260: a508 e1bd 6980 afbb 4487 a6bc 09ef 24bd
00000270: 4fed 55bd c915 93bd 2ca9 c1bd f8a8 fabd
00000280: 6120 1dbe 0fa9 3dbe f025 473c 2713 dc3c
00000290: b933 2c3d a7d7 6f3d 0db2 9e3d 51ec ce3d
000002a0: 45f9 023e 87da 223e 4396 413e 36fa 60bd
000002b0: b95f 68bd 346f 5fbd 61fc 60bd 3650 77bd
000002c0: e9f9 82bd 1d94 8dbd 0286 92bd 9a2a 9cbd

model.qy_x.model.tcn_block_00.block.conv1d_layer_1.bias f4 [2]
0.30292806 0.15099591
00000000: 6319 9b3e ac9e 1a3e

model.qy_x.model.tcn_block_00.block.conv1d_layer_1.weight_g f4 [2, 1, 1]
0.7442581 0.88055813
00000000: b387 3e3f 426c 613f

model.qy_x.model.tcn_block_00.block.conv1d_layer_1.weight_v f4 [2, 2, 9]
0.20961559 0.17929554 0.2295732 0.22761774 0.12542222 0.119017474 -0.024153054 0.17191257
0.17166199 0.037826605 -0.0423507 -0.030592948 -0.0640812 -0.06173629 -0.07058215 -0.0645344
-0.08951108 -0.08422313 0.030117309 0.02208666 0.0047181207 0.0013630509 -0.0035065438 -0.0153270215
-0.039874442 -0.056767054 -0.07566218 0.07202398 0.08112134 0.095167 0.113535866 0.12758811
0.13991016 0.1490712 0.11932317 0.15362154
00000000: 78a5 563e 4099 373e 3d15 6b3e a014 693e
00000010: af6e 003e 6fbf f33d a0dc c5bc d909 303e
00000020: 29c8 2f3e 12f0 1a3d ed77 2dbd 109e fabc
00000030: 013d 83bd 31df 7cbd 608d 90bd 9d2a 84bd
00000040: 9651 b7bd 2d7d acbd 93b8 f63c 15ef b43c
00000050: 779a 9a3b 66a8 b23a 0bce 65bb 301e 7bbc
00000060: 6253 23bd 9284 68bd c6f4 9abd 4f81 933d
00000070: f222 a63d ebe6 c23d 7e85 e83d 75a6 023e
00000080: 9c44 0f3e 1fa6 183e b55f f43d f74e 1d3e

model.qy_x.model.tcn_block_00.downsample.weight f4 [2, 10, 1]
-0.27945223 0.29833752 0.30541125 -0.14868748 -0.067108035 -0.29971874 0.24399862 0.2783685
-0.29219395 0.22553888 0.3603721 -0.3653545 -0.34978163 0.29328376 -0.16456112 0.37639743
-0.09951796 -0.2890144 0.327122 -0.31521064
00000000: 5d14 8fbe b2bf 983e dd5e 9c3e 8841 18be
00000010: f06f 89bd bc74 99be c6da 793e 5186 8e3e
00000020: 729a 95be aaf3 663e b182 b83e bf0f bbbe
00000030: 9416 b3be 4a29 963e b682 28be 2ab7 c03e
00000040: 12d0 cbbd b2f9 93be 897c a73e 4a63 a1be

model.qy_x.model.tcn_block_00.downsample.bias f4 [2]
0.30346984 0.51096475
00000000: 6660 9b3e 96ce 023f

model.qy_x.model.tcn_block_01.conv0.bias f4 [2]
0.10106621 0.27247018
00000000: cdfb ce3d 3681 8b3e

model.qy_x.model.tcn_block_01.conv0.weight_g f4 [2, 1, 1]
0.92553055 0.8235025
00000000: 92ef 6c3f 0fd1 523f

model.qy_x.model.tcn_block_01.conv0.weight_v f4 [2, 2, 9]
0.23263885 0.06487759 0.07604715 -0.012325935 0.15963118 0.13597855 -0.12743345 -0.16126016
-0.17938904 -0.109668314 -0.12926808 -0.14594965 -0.07568668 0.054711092 0.0051633916 0.129325
0.12459487 0.17286435 0.12959005 0.26734957 -0.012944518 0.15133153 0.074706286 0.3596974
-0.043034937 -0.04150673 0.3799827 -0.020148152 0.007798004 -0.009644588 -0.021552071 -0.03327373
-0.0011647524 -0.045797788 -0.11191394 -0.06588533
00000000: e138 6e3e 8bde 843d 9cbe 9b3d b8f2 49bc
00000010: 5b76 233e f63d 0b3e ea7d 02be 6221 25be
00000020: c3b1 37be c899 e0bd da5e 04be d373 15be
00000030: 9e01 9bbd bd18 603d ab31 a93b c66d 043e
00000040: 982b ff3d 5a03 313e 41b3 043e 0be2 883e
00000050: 3e15 54bc a7f6 1a3e 9cff 983d 422a b83e
00000060: 6745 30bd f602 2abd 188d c23e bd0d a5bc
00000070: 6686 ff3b 5604 1ebc f88d b0bc 094a 08bd
00000080: 9baa 98ba 7696 3bbd 2333 e5bd e3ee 86bd

model.qy_x.model.tcn_block_01.conv1.bias f4 [4]
-0.21816383 -0.1660779 0.0062430706 0.19988953
00000000: 5766 5fbe 5310 2abe ac92 cc3b d7af 4c3e

model.qy_x.model.tcn_block_01.conv1.weight_g f4 [4, 1, 1]
0.6463279 0.63857526 0.8436704 0.7633156
00000000: bf75 253f ab79 233f c9fa 573f a768 433f

model.qy_x.model.tcn_block_01.conv1.weight_v f4 [4, 2, 9]
-0.21533255 0.13281664 -0.11145054 -0.09370908 0.14595479 0.09650817 0.18706435 0.13949265
-0.07949528 -0.24917288 -0.078621104 0.17270619 -0.11227481 -0.24455611 0.102455 0.25518078
-0.05250794 -0.17718644 -0.3324359 0.030234404 -0.11057947 -0.29461434 -0.025104513 0.029901614
0.14028913 0.15207914 -0.13889645 -0.28825927 -0.28186983 0.15750359 0.051394735 0.053702738
-0.25185716 0.16875415 0.17276174 0.16224945 -0.11388097 -0.09880366 -0.097488314 -0.025462262
-0.08308852 -0.07507998 -0.054360714 -0.05540366 -0.042536568 -0.06587736 -0.046852298 -0.10514505
0.061534017 0.002247508 0.12802604 0.20020023 0.2564687 0.2645562 0.1760352 0.14962782
0.09441588 0.22472475 0.18817374 -0.01656108 0.19207841 0.059953842 0.24964443 0.13391969
-0.053280756 0.081868686 0.15271229 0.0430347 0.0059283515 -0.059766386 -0.05253762 -0.16229236
00000000: 2380 5cbe 1601 083e 2e40 e4bd 8cea bfbd
00000010: 2c75 153e 13a6 c53d cc8d 3f3e 29d7 0e3e
00000020: 6cce a2bd 2d27 7fbe 1a04 a1bd e4d9 303e
00000030: 56f0 e5bd eb6c 7abe edd3 d13d 0ea7 823e
00000040: 9112 57bd 5d70 35be 0a35 aabe 24ae f73c
00000050: 7d77 e2bd b1d7 96be fba7 cdbc 3bf4 f43c
00000060: f4a7 0f3e a2ba 1b3e df3a 0ebe b896 93be
00000070: 3e51 90be 9f48 213e 4983 523d 67f7 5b3d
00000080: 6cf3 80be e3cd 2c3e 74e8 303e b824 263e
00000090: 6d3a e9bd 9359 cabd f4a7 c7bd 3c96 d0bc
000000a0: 502a aabd 88c3 99bd 57a9 5ebd f3ee 62bd
000000b0: d33a 2ebd b6ea 86bd 32e8 3fbd 4a56 d7bd
000000c0: 180b 7c3d ed4a 133b 4219 033e 4a01 4d3e
000000d0: de4f 833e e973 873e 9242 343e 0938 193e
000000e0: 1d5d c13d 3f1e 663e 9eb0 403e 1aab 87bc
000000f0: 34b0 443e 2992 753d caa2 7f3e 3e22 093e
00000100: ec3c 5abd c5aa a73d 9c60 1c3e 2745 303d
00000110: 9e42 c23b 99cd 74bd b031 57bd f82f 26be

model.qy_x.model.tcn_block_01.block.conv1d_layer_0.bias f4 [2]
0.10106621 0.27247018
00000000: cdfb ce3d 3681 8b3e

model.qy_x.model.tcn_block_01.block.conv1d_layer_0.weight_g f4 [2, 1, 1]
0.92553055 0.8235025
00000000: 92ef 6c3f 0fd1 523f

model.qy_x.model.tcn_block_01.block.conv1d_layer_0.weight_v f4 [2, 2, 9]
0.23263885 0.06487759 0.07604715 -0.012325935 0.15963118 0.13597855 -0.12743345 -0.16126016
-0.17938904 -0.109668314 -0.12926808 -0.14594965 -0.07568668 0.054711092 0.0051633916 0.129325
0.12459487 0.17286435 0.12959005 0.26734957 -0.012944518 0.15133153 0.074706286 0.3596974
-0.043034937 -0.04150673 0.3799827 -0.020148152 0.007798004 -0.009644588 -0.021552071 -0.03327373
-0.0011647524 -0.045797788 -0.11191394 -0.06588533
00000000: e138 6e3e 8bde 843d 9cbe 9b3d b8f2 49bc
00000010: 5b76 233e f63d 0b3e ea7d 02be 6221 25be
00000020: c3b1 37be c899 e0bd da5e 04be d373 15be
00000030: 9e01 9bbd bd18 603d ab31 a93b c66d 043e
00000040: 982b ff3d 5a03 313e 41b3 043e 0be2 883e
00000050: 3e15 54bc a7f6 1a3e 9cff 983d 422a b83e
00000060: 6745 30bd f602 2abd 188d c23e bd0d a5bc
00000070: 6686 ff3b 5604 1ebc f88d b0bc 094a 08bd
00000080: 9baa 98ba 7696 3bbd 2333 e5bd e3ee 86bd

model.qy_x.model.tcn_block_01.block.conv1d_layer_1.bias f4 [4]
-0.21816383 -0.1660779 0.0062430706 0.19988953
00000000: 5766 5fbe 5310 2abe ac92 cc3b d7af 4c3e

model.qy_x.model.tcn_block_01.block.conv1d_layer_1.weight_g f4 [4, 1, 1]
0.6463279 0.63857526 0.8436704 0.7633156
00000000: bf75 253f ab79 233f c9fa 573f a768 433f

model.qy_x.model.tcn_block_01.block.conv1d_layer_1.weight_v f4 [4, 2, 9]
-0.21533255 0.13281664 -0.11145054 -0.09370908 0.14595479 0.09650817 0.18706435 0.13949265
-0.07949528 -0.24917288 -0.078621104 0.17270619 -0.11227481 -0.24455611 0.102455 0.25518078
-0.05250794 -0.17718644 -0.3324359 0.030234404 -0.11057947 -0.29461434 -0.025104513 0.029901614
0.14028913 0.15207914 -0.13889645 -0.28825927 -0.28186983 0.15750359 0.051394735 0.053702738
-0.25185716 0.16875415 0.17276174 0.16224945 -0.11388097 -0.09880366 -0.097488314 -0.025462262
-0.08308852 -0.07507998 -0.054360714 -0.05540366 -0.042536568 -0.06587736 -0.046852298 -0.10514505
0.061534017 0.002247508 0.12802604 0.20020023 0.2564687 0.2645562 0.1760352 0.14962782
0.09441588 0.22472475 0.18817374 -0.01656108 0.19207841 0.059953842 0.24964443 0.13391969
-0.053280756 0.081868686 0.15271229 0.0430347 0.0059283515 -0.059766386 -0.05253762 -0.16229236
00000000: 2380 5cbe 1601 083e 2e40 e4bd 8cea bfbd
00000010: 2c75 153e 13a6 c53d cc8d 3f3e 29d7 0e3e
00000020: 6cce a2bd 2d27 7fbe 1a04 a1bd e4d9 303e
00000030: 56f0 e5bd eb6c 7abe edd3 d13d 0ea7 823e
00000040: 9112 57bd 5d70 35be 0a35 aabe 24ae f73c
00000050: 7d77 e2bd b1d7 96be fba7 cdbc 3bf4 f43c
00000060: f4a7 0f3e a2ba 1b3e df3a 0ebe b896 93be
00000070: 3e51 90be 9f48 213e 4983 523d 67f7 5b3d
00000080: 6cf3 80be e3cd 2c3e 74e8 303e b824 263e
00000090: 6d3a e9bd 9359 cabd f4a7 c7bd 3c96 d0bc
000000a0: 502a aabd 88c3 99bd 57a9 5ebd f3ee 62bd
000000b0: d33a 2ebd b6ea 86bd 32e8 3fbd 4a56 d7bd
000000c0: 180b 7c3d ed4a 133b 4219 033e 4a01 4d3e
000000d0: de4f 833e e973 873e 9242 343e 0938 193e
000000e0: 1d5d c13d 3f1e 663e 9eb0 403e 1aab 87bc
000000f0: 34b0 443e 2992 753d caa2 7f3e 3e22 093e
00000100: ec3c 5abd c5aa a73d 9c60 1c3e 2745 303d
00000110: 9e42 c23b 99cd 74bd b031 57bd f82f 26be

model.qy_x.model.tcn_block_01.downsample.weight f4 [4, 2, 1]
0.058873057 -0.3431861 -0.14597957 0.36237648 0.24321726 -0.20008391 0.2476901 -0.10993755
00000000: e024 713d 17b6 afbe ab7b 15be 6989 b93e
00000010: f20d 793e cce2 4cbe 79a2 7d3e f026 e1bd

model.qy_x.model.tcn_block_01.downsample.bias f4 [4]
-0.6666364 0.18038899 0.41563213 -0.15690878
00000000: afa8 2abf e4b7 383e bccd d43e b2ac 20be

model.qy_x.model.final_dense_02.weight f4 [4, 4, 1]
-0.21378267 0.44544092 -0.45604825 -0.5617534 0.3203549 -0.8515243 0.21061295 0.27727762
-0.34713793 0.32415292 -0.2445593 0.2386986 0.598772 -0.0953781 0.23719911 -0.15460183
00000000: d8e9 5abe d510 e43e 287f e9be 12cf 0fbf
00000010: 8f05 a43e 7ffd 59bf ecaa 573e 55f7 8d3e
00000020: 10bc b1be 5ff7 a53e c16d 7abe 686d 743e
00000030: 1f49 193f 9855 c3bd 53e4 723e f14f 1ebe

model.qy_x.model.final_dense_02.bias f4 [4]
0.013840271 -0.18299367 0.12236197 -0.19502428
00000000: 4ec2 623c b162 3bbe ea98 fa3d 72b4 47be

model.encoder.model.tcn_block_00.conv0.bias f4 [2]
0.16980785 -0.27721596
00000000: 1ce2 2d3e 40ef 8dbe

model.encoder.model.tcn_block_00.conv0.weight_g f4 [2, 1, 1]
0.6472109 0.715868
00000000: 9daf 253f 2043 373f

model.encoder.model.tcn_block_00.conv0.weight_v f4 [2, 14, 9]
-0.035555795 -0.035380397 0.007310028 -0.020268623 0.004105202 -0.013398066 -0.041803095 0.044493876
0.03582567 0.01568864 0.010558272 0.025482768 -0.0071214037 0.036381297 -0.0132096 0.004122183
0.0066584735 -0.045515988 0.058492765 0.09531201 0.030293139 0.0053005316 0.010374388 0.005855198
-0.052974436 -0.027305236 -0.0040358566 -0.040709957 0.02435545 -0.0176121 0.06729448 -0.06052104
0.05599266 0.07997603 0.039839745 0.01099497 0.05369935 -0.055427376 -0.030720618 -0.06239772
-0.03789421 -0.013825964 -0.021922337 -0.04401794 -0.10534693 -0.0120279705 -0.0032333732 0.01046058
0.040763304 0.06263431 -0.029036282 0.01262501 -0.0036317005 -0.045318637 -0.023759663 0.10041805
0.07746708 0.07327441 0.0722481 -0.03076716 0.040565513 0.085990354 -0.012199142 0.11263688
0.06388391 0.08229129 0.009605915 0.051518112 -0.032993596 0.014594586 0.023508819 0.018137185
0.010716401 0.026989507 0.02252361 0.0059758667 0.018735576 -0.023104606 -0.056240167 -0.021395542
0.0047153793 -0.046820384 0.024814755 0.009236512 -0.009523133 -0.0047316104 0.042985234 -0.00027572582
-0.09260506 -0.08617111 0.114477836 0.11099624 0.10339196 0.025270844 0.03296082 0.078835234
0.07620533 0.008763769 0.078178704 0.032543406 0.16156484 0.15570371 0.16932364 0.02932801
0.03844071 0.1677968 0.16919436 0.16871597 0.20121709 0.021898229 0.19131508 0.004041308
0.13106929 0.03423876 0.06450298 0.1291555 0.063399866 0.04805549 -0.025440054 -0.02911522
0.025588965 0.013364744 -0.005521864 0.0034334068 -0.025977368 -0.024611788 0.04688671 0.040479727
0.02560859 0.006723649 0.02244092 0.010985261 -0.006846564 0.008827093 0.025945704 -0.051387463
-0.047471277 -0.010858288 0.005155017 -0.022365313 0.0009518495 0.009987705 0.005642488 0.0053253844
-0.0070618633 -0.013623884 -0.027510073 -0.02041204 -0.008369737 0.0102795735 -0.03693334 0.0039323894
-0.01790384 -0.035526413 -0.022202507 -0.01652763 -0.020733692 -0.015206411 -0.014615221 -0.025628174
-0.016310394 -0.008676157 0.041984685 0.04125009 0.044362452 0.030240923 0.041063398 0.03833727
0.039862584 0.026313532 0.0341593 0.00872184 0.006131505 -0.0069854483 0.00112202 -0.015203383
-0.006799049 0.007899521 -0.0154022835 -0.015992368 -0.05520178 -0.05485076 -0.04624739 -0.043173283
-0.02836431 -0.055880964 -0.041242387 -0.01790961 -5.1033363e-05 -0.051571496 -0.05975961 -0.034621373
-0.019726718 -0.048096176 -0.042281315 -0.01231136 -0.022203272 -0.04003298 0.031237435 0.05207111
0.028845374 0.050142657 0.046931487 0.02773806 0.019710919 0.010067257 0.013936445 0.020294776
-0.0066528027 0.015350078 -0.008116881 0.026063677 0.002263644 0.020637317 0.015390814 0.0035901566
-0.07387641 -0.07163007 -0.06608333 -0.06812395 -0.06851337 -0.06849248 -0.0739449 -0.076551475
-0.07881015 -0.08329905 -0.13078102 -0.12587754 -0.10020264 -0.131849 -0.11662524 -0.15069881
-0.15520492 -0.13550796 -0.12963311 -0.07234123 -0.16526662 -0.1682102 -0.1596318 -0.1695795
-0.121662274 -0.08500737 -0.12506337 -0.12651832 -0.11801556 -0.11568571 -0.046426766 -0.078975186
-0.064883046 -0.0400979 -0.0026210172 -0.0034274436
00000000: f4a2 11bd 09eb 10bd f688 ef3b 620a a6bc
00000010: ee84 863b 9083 5bbc b939 2bbd 363f 363d
00000020: f0bd 123d 7685 803c 9afc 2c3c 3dc1 d03c
00000030: aa5a e9bb 8e04 153d 146d 58bc 6113 873b
00000040: 532f da3b f96e 3abd 1c96 6f3d f132 c33d
00000050: 5129 f83c 15b0 ad3b 56f9 293c f6dc bf3b
00000060: b9fb 58bd 3baf dfbc 383f 84bb 7cbf 26bd
00000070: 1585 c73c 4047 90bc b0d1 893d e9e4 77bd
00000080: 8f58 653d 79ca a33d 002f 233d 3f24 343c
00000090: daf3 5b3d d107 63bd cea9 fbbc c094 7fbd
000000a0: f636 1bbd 4c86 62bc 7996 b3bc 284c 34bd
000000b0: 22c0 d7bd f710 45bc 00e7 53bb da62 2b3c
000000c0: 6cf7 263d 6b46 803d 7fdd edbc 21d9 4e3c
000000d0: d301 6ebb 09a0 39bd a0a3 c2bc fba7 cd3d
000000e0: 0fa7 9e3d e510 963d d0f6 933d 690b fcbc
000000f0: 0628 263d b61b b03d e9de 47bc 2aae e63d
00000100: 91d5 823d 5688 a83d 2162 1d3c a804 533d
00000110: 4b24 07bd 211e 6f3c 9195 c03c 6f94 943c
00000120: d893 2f3c 1919 dd3c 6f83 b83c 34d1 c33b
00000130: 5a7b 993c df45 bdbc 175c 66bd b445 afbc
00000140: 7883 9a3b bbc6 3fbd 5048 cb3c bd54 173c
00000150: ea06 1cbc a00b 9bbb 4911 303d 4b8f 90b9
00000160: b9a7 bdbd 7b7a b0bd 5b73 ea3d ff51 e33d
00000170: 2abf d33d cd04 cf3c ed01 073d 5e74 a13d
00000180: 8a11 9c3d e995 0f3c 281c a03d 3c4c 053d
00000190: 4171 253e cb70 1f3e 2d63 2d3e 4b41 f03c
000001a0: 0274 1d3d edd2 2b3e 4941 2d3e e1c3 2c3e
000001b0: da0b 4e3e ea63 b33c 1ae8 433e f36c 843b
000001c0: 0737 063e f13d 0c3d 231a 843d 5741 043e
000001d0: cad7 813d d5d5 443d a967 d0bc 0b83 eebc
000001e0: f39f d13c cdf7 5a3c c1f0 b4bb 0203 613b
000001f0: 7dce d4bc a99e c9bc 470c 403d 12ce 253d
00000200: 1bc9 d13c 0e52 dc3b 05d6 b73c 86fb 333c
00000210: 2459 e0bb 839f 103c 168c d43c a97b 52bd
00000220: 3e71 42bd f6e6 31bc 6beb a83b 7637 b7bc
00000230: 8a85 793a 79a3 233c 9fe4 b83b 9080 ae3b
00000240: 3467 e7bb b636 5fbc ce5c e1bc 2737 a7bc
00000250: 3921 09bc a86b 283c 6a47 17bd 46db 803b
00000260: 13ab 92bc 2584 11bd 08e2 b5bc f464 87bc
00000270: b4d9 a9bc 4f24 79bc ae74 6fbc 2df2 d1bc
00000280: 609d 85bc 7126 0ebc 22f8 2b3d dbf5 283d
00000290: 67b5 353d d0bb f73c 1832 283d 8b07 1d3d
000002a0: f346 233d 7a8f d73c 9fea 0b3d 0ce6 0e3c
000002b0: cbea c83b 30e6 e4bb be10 933a 9c17 79bc
000002c0: 8fca debb fe6c 013c dc59 7cbc 6d02 83bc
000002d0: 431b 62bd 31ab 60bd e76d 3dbd 78d6 30bd
000002e0: 455c e8bc 70e3 64bd c7ed 28bd 2db7 92bc
000002f0: a80c 56b8 a23c 53bd 7ec6 74bd 24cf 0dbd
00000300: ed99 a1bc 7f00 45bd 2c2f 2dbd 96b5 49bc
00000310: a3e3 b5bc 9ff9 23bd a6e5 ff3c 8448 553d
00000320: 224d ec3c 6362 4d3d 3b3b 403d ee3a e33c
00000330: cb78 a13c 23f1 243c b055 643c 3b41 a63c
00000340: c1ff d9bb e57e 7b3c abfc 04bc 7e83 d53c
00000350: a559 143b 970f a93c c129 7c3c d548 6b3b
00000360: 844c 97bd c9b2 92bd b256 87bd 9284 8bbd
00000370: bd50 8cbd c945 8cbd 6c70 97bd 05c7 9cbd
00000380: 3767 a1bd b198 aabd 76eb 05be 0be6 00be
00000390: 0b37 cdbd 6d03 07be 37d9 eebd ca50 1abe
000003a0: 0aee 1ebe 99c2 0abe 8bbe 04be a427 94bd
000003b0: a73b 29be 4b3f 2cbe 8576 23be 40a6 2dbe
000003c0: 122a f9bd 5818 aebd 9d10 00be 058e 01be
000003d0: 24b2 f1bd a1ec ecbd fe29 3ebd bebd a1bd
000003e0: 67e1 84bd b23d 24bd 5fc5 2bbb f69e 60bb

model.encoder.model.tcn_block_00.conv1.bias f4 [2]
-0.087912604 0.10354993
00000000: 860b b4bd fc11 d43d

model.encoder.model.tcn_block_00.conv1.weight_g f4 [2, 1, 1]
0.52134687 0.6798191
00000000: fd76 053f a008 2e3f

model.encoder.model.tcn_block_00.conv1.weight_v f4 [2, 2, 9]
0.15098022 0.036065694 0.14185043 0.19743335 0.13512644 0.01384657 0.014750797 -0.11529483
-0.06183589 0.060274962 -0.07546583 0.066894405 -0.054560408 -0.013877123 0.041086536 -0.13902073
0.10530649 0.123214 0.011105907 -0.010271104 0.21665926 0.20838082 -0.109530106 0.15881811
-0.124416865 -0.13567549 0.1394417 -0.07355776 -0.14577031 -0.21513513 -0.1726123 -0.035624582
-0.22413358 -0.23386581 -0.11374881 -0.21023846
00000000: 8f9a 1a3e 9fb9 133d 3d41 113e f82b 4a3e
00000010: 965e 0a3e b9dc 623c 54ad 713c b21f ecbd
00000020: a147 7dbd e1e2 763d d48d 9abd efff 883d
00000030: bc7a 5fbd df5c 63bc 5b4a 283d 735b 0ebe
00000040: eeaa d73d 9f57 fc3d 8df5 353c 2248 28bc
00000050: eddb 5d3e c861 553e 5251 e0bd 37a1 223e
00000060: 45ce febd 84ee 0abe cec9 0e3e 73a5 96bd
00000070: d044 15be 624c 5cbe 47c1 30be 15eb 11bd
00000080: 4683 65be 857a 6fbe 23f5 e8bd c048 57be

model.encoder.model.tcn_block_00.block.conv1d_layer_0.bias f4 [2]
0.16980785 -0.27721596
00000000: 1ce2 2d3e 40ef 8dbe

model.encoder.model.tcn_block_00.block.conv1d_layer_0.weight_g f4 [2, 1, 1]
0.6472109 0.715868
00000000: 9daf 253f 2043 373f

model.encoder.model.tcn_block_00.block.conv1d_layer_0.weight_v f4 [2, 14, 9]
-0.035555795 -0.035380397 0.007310028 -0.020268623 0.004105202 -0.013398066 -0.041803095 0.044493876
0.03582567 0.01568864 0.010558272 0.025482768 -0.0071214037 0.036381297 -0.0132096 0.004122183
0.0066584735 -0.045515988 0.058492765 0.09531201 0.030293139 0.0053005316 0.010374388 0.005855198
-0.052974436 -0.027305236 -0.0040358566 -0.040709957 0.02435545 -0.0176121 0.06729448 -0.06052104
0.05599266 0.07997603 0.039839745 0.01099497 0.05369935 -0.055427376 -0.030720618 -0.06239772
-0.03789421 -0.013825964 -0.021922337 -0.04401794 -0.10534693 -0.0120279705 -0.0032333732 0.01046058
0.040763304 0.06263431 -0.029036282 0.01262501 -0.0036317005 -0.045318637 -0.023759663 0.10041805
0.07746708 0.07327441 0.0722481 -0.03076716 0.040565513 0.085990354 -0.012199142 0.11263688
0.06388391 0.08229129 0.009605915 0.051518112 -0.032993596 0.014594586 0.023508819 0.018137185
0.010716401 0.026989507 0.02252361 0.0059758667 0.018735576 -0.023104606 -0.056240167 -0.021395542
0.0047153793 -0.046820384 0.024814755 0.009236512 -0.009523133 -0.0047316104 0.042985234 -0.00027572582
-0.09260506 -0.08617111 0.114477836 0.11099624 0.10339196 0.025270844 0.03296082 0.078835234
0.07620533 0.008763769 0.078178704 0.032543406 0.16156484 0.15570371 0.16932364 0.02932801
0.03844071 0.1677968 0.16919436 0.16871597 0.20121709 0.021898229 0.19131508 0.004041308
0.13106929 0.03423876 0.06450298 0.1291555 0.063399866 0.04805549 -0.025440054 -0.02911522
0.025588965 0.013364744 -0.005521864 0.0034334068 -0.025977368 -0.024611788 0.04688671 0.040479727
0.02560859 0.006723649 0.02244092 0.010985261 -0.006846564 0.008827093 0.025945704 -0.051387463
-0.047471277 -0.010858288 0.005155017 -0.022365313 0.0009518495 0.009987705 0.005642488 0.0053253844
-0.0070618633 -0.013623884 -0.027510073 -0.02041204 -0.008369737 0.0102795735 -0.03693334 0.0039323894
-0.01790384 -0.035526413 -0.022202507 -0.01652763 -0.020733692 -0.015206411 -0.014615221 -0.025628174
-0.016310394 -0.008676157 0.041984685 0.04125009 0.044362452 0.030240923 0.041063398 0.03833727
0.039862584 0.026313532 0.0341593 0.00872184 0.006131505 -0.0069854483 0.00112202 -0.015203383
-0.006799049 0.007899521 -0.0154022835 -0.015992368 -0.05520178 -0.05485076 -0.04624739 -0.043173283
-0.02836431 -0.055880964 -0.041242387 -0.01790961 -5.1033363e-05 -0.051571496 -0.05975961 -0.034621373
-0.019726718 -0.048096176 -0.042281315 -0.01231136 -0.022203272 -0.04003298 0.031237435 0.05207111
0.028845374 0.050142657 0.046931487 0.02773806 0.019710919 0.010067257 0.013936445 0.020294776
-0.0066528027 0.015350078 -0.008116881 0.026063677 0.002263644 0.020637317 0.015390814 0.0035901566
-0.07387641 -0.07163007 -0.06608333 -0.06812395 -0.06851337 -0.06849248 -0.0739449 -0.076551475
-0.07881015 -0.08329905 -0.13078102 -0.12587754 -0.10020264 -0.131849 -0.11662524 -0.15069881
-0.15520492 -0.13550796 -0.12963311 -0.07234123 -0.16526662 -0.1682102 -0.1596318 -0.1695795
-0.121662274 -0.08500737 -0.12506337 -0.12651832 -0.11801556 -0.11568571 -0.046426766 -0.078975186
-0.064883046 -0.0400979 -0.0026210172 -0.0034274436
00000000: f4a2 11bd 09eb 10bd f688 ef3b 620a a6bc
00000010: ee84 863b 9083 5bbc b939 2bbd 363f 363d
00000020: f0bd 123d 7685 803c 9afc 2c3c 3dc1 d03c
00000030: aa5a e9bb 8e04 153d 146d 58bc 6113 873b
00000040: 532f da3b f96e 3abd 1c96 6f3d f132 c33d
00000050: 5129 f83c 15b0 ad3b 56f9 293c f6dc bf3b
00000060: b9fb 58bd 3baf dfbc 383f 84bb 7cbf 26bd
00000070: 1585 c73c 4047 90bc b0d1 893d e9e4 77bd
00000080: 8f58 653d 79ca a33d 002f 233d 3f24 343c
00000090: daf3 5b3d d107 63bd cea9 fbbc c094 7fbd
000000a0: f636 1bbd 4c86 62bc 7996 b3bc 284c 34bd
000000b0: 22c0 d7bd f710 45bc 00e7 53bb da62 2b3c
000000c0: 6cf7 263d 6b46 803d 7fdd edbc 21d9 4e3c
000000d0: d301 6ebb 09a0 39bd a0a3 c2bc fba7 cd3d
000000e0: 0fa7 9e3d e510 963d d0f6 933d 690b fcbc
000000f0: 0628 263d b61b b03d e9de 47bc 2aae e63d
00000100: 91d5 823d 5688 a83d 2162 1d3c a804 533d
00000110: 4b24 07bd 211e 6f3c 9195 c03c 6f94 943c
00000120: d893 2f3c 1919 dd3c 6f83 b83c 34d1 c33b
00000130: 5a7b 993c df45 bdbc 175c 66bd b445 afbc
00000140: 7883 9a3b bbc6 3fbd 5048 cb3c bd54 173c
00000150: ea06 1cbc a00b 9bbb 4911 303d 4b8f 90b9
00000160: b9a7 bdbd 7b7a b0bd 5b73 ea3d ff51 e33d
00000170: 2abf d33d cd04 cf3c ed01 073d 5e74 a13d
00000180: 8a11 9c3d e995 0f3c 281c a03d 3c4c 053d
00000190: 4171 253e cb70 1f3e 2d63 2d3e 4b41 f03c
000001a0: 0274 1d3d edd2 2b3e 4941 2d3e e1c3 2c3e
000001b0: da0b 4e3e ea63 b33c 1ae8 433e f36c 843b
000001c0: 0737 063e f13d 0c3d 231a 843d 5741 043e
000001d0: cad7 813d d5d5 443d a967 d0bc 0b83 eebc
000001e0: f39f d13c cdf7 5a3c c1f0 b4bb 0203 613b
000001f0: 7dce d4bc a99e c9bc 470c 403d 12ce 253d
00000200: 1bc9 d13c 0e52 dc3b 05d6 b73c 86fb 333c
00000210: 2459 e0bb 839f 103c 168c d43c a97b 52bd
00000220: 3e71 42bd f6e6 31bc 6beb a83b 7637 b7bc
00000230: 8a85 793a 79a3 233c 9fe4 b83b 9080 ae3b
00000240: 3467 e7bb b636 5fbc ce5c e1bc 2737 a7bc
00000250: 3921 09bc a86b 283c 6a47 17bd 46db 803b
00000260: 13ab 92bc 2584 11bd 08e2 b5bc f464 87bc
00000270: b4d9 a9bc 4f24 79bc ae74 6fbc 2df2 d1bc
00000280: 609d 85bc 7126 0ebc 22f8 2b3d dbf5 283d
00000290: 67b5 353d d0bb f73c 1832 283d 8b07 1d3d
000002a0: f346 233d 7a8f d73c 9fea 0b3d 0ce6 0e3c
000002b0: cbea c83b 30e6 e4bb be10 933a 9c17 79bc
000002c0: 8fca debb fe6c 013c dc59 7cbc 6d02 83bc
000002d0: 431b 62bd 31ab 60bd e76d 3dbd 78d6 30bd
000002e0: 455c e8bc 70e3 64bd c7ed 28bd 2db7 92bc
000002f0: a80c 56b8 a23c 53bd 7ec6 74bd 24cf 0dbd
00000300: ed99 a1bc 7f00 45bd 2c2f 2dbd 96b5 49bc
00000310: a3e3 b5bc 9ff9 23bd a6e5 ff3c 8448 553d
00000320: 224d ec3c 6362 4d3d 3b3b 403d ee3a e33c
00000330: cb78 a13c 23f1 243c b055 643c 3b41 a63c
00000340: c1ff d9bb e57e 7b3c abfc 04bc 7e83 d53c
00000350: a559 143b 970f a93c c129 7c3c d548 6b3b
00000360: 844c 97bd c9b2 92bd b256 87bd 9284 8bbd
00000370: bd50 8cbd c945 8cbd 6c70 97bd 05c7 9cbd
00000380: 3767 a1bd b198 aabd 76eb 05be 0be6 00be
00000390: 0b37 cdbd 6d03 07be 37d9 eebd ca50 1abe
000003a0: 0aee 1ebe 99c2 0abe 8bbe 04be a427 94bd
000003b0: a73b 29be 4b3f 2cbe 8576 23be 40a6 2dbe
000003c0: 122a f9bd 5818 aebd 9d10 00be 058e 01be
000003d0: 24b2 f1bd a1ec ecbd fe29 3ebd bebd a1bd
000003e0: 67e1 84bd b23d 24bd 5fc5 2bbb f69e 60bb

model.encoder.model.tcn_block_00.block.conv1d_layer_1.bias f4 [2]
-0.087912604 0.10354993
00000000: 860b b4bd fc11 d43d

model.encoder.model.tcn_block_00.block.conv1d_layer_1.weight_g f4 [2, 1, 1]
0.52134687 0.6798191
00000000: fd76 053f a008 2e3f

model.encoder.model.tcn_block_00.block.conv1d_layer_1.weight_v f4 [2, 2, 9]
0.15098022 0.036065694 0.14185043 0.19743335 0.13512644 0.01384657 0.014750797 -0.11529483
-0.06183589 0.060274962 -0.07546583 0.066894405 -0.054560408 -0.013877123 0.041086536 -0.13902073
0.10530649 0.123214 0.011105907 -0.010271104 0.21665926 0.20838082 -0.109530106 0.15881811
-0.124416865 -0.13567549 0.1394417 -0.07355776 -0.14577031 -0.21513513 -0.1726123 -0.035624582
-0.22413358 -0.23386581 -0.11374881 -0.21023846
00000000: 8f9a 1a3e 9fb9 133d 3d41 113e f82b 4a3e
00000010: 965e 0a3e b9dc 623c 54ad 713c b21f ecbd
00000020: a147 7dbd e1e2 763d d48d 9abd efff 883d
00000030: bc7a 5fbd df5c 63bc 5b4a 283d 735b 0ebe
00000040: eeaa d73d 9f57 fc3d 8df5 353c 2248 28bc
00000050: eddb 5d3e c861 553e 5251 e0bd 37a1 223e
00000060: 45ce febd 84ee 0abe cec9 0e3e 73a5 96bd
00000070: d044 15be 624c 5cbe 47c1 30be 15eb 11bd
00000080: 4683 65be 857a 6fbe 23f5 e8bd c048 57be

model.encoder.model.tcn_block_00.downsample.weight f4 [2, 14, 1]
0.31230086 -0.28649423 -0.2907542 0.18678266 -0.14303795 0.25510293 0.00097408664 -0.36459467
0.35652494 -0.2158758 0.28304443 -0.060585745 0.21862996 0.027728004 -0.25100353 0.1265979
0.29297033 0.15285312 -0.2002691 -0.018391902 0.27283335 0.3069092 -0.31677878 -0.1341904
-0.18807109 0.31255713 0.2439345 0.027102599
00000000: e6e5 9f3e 5faf 92be bcdd 94be f443 3f3e
00000010: 8a78 12be da9c 823e d959 7f3a 27ac babe
00000020: 708a b63e 8c0e 5dbe 33eb 903e c228 78bd
00000030: 88e0 5f3e d725 e33c 8983 80be e1a2 013e
00000040: 3500 963e 8785 1c3e 5813 4dbe 9daa 96bc
00000050: d0b0 8b3e 3423 9d3e d430 a2be 3569 09be
00000060: b595 40be 7d07 a03e f7c9 793e 4506 de3c

model.encoder.model.tcn_block_00.downsample.bias f4 [2]
0.3709347 0.03796367
00000000: 27eb bd3e cb7f 1b3d

model.encoder.model.tcn_block_01.conv0.bias f4 [2]
-0.033454046 0.1469583
00000000: 1c07 09bd 3d7c 163e

model.encoder.model.tcn_block_01.conv0.weight_g f4 [2, 1, 1]
0.70117474 0.58561116
00000000: 3080 333f 9dea 153f

model.encoder.model.tcn_block_01.conv0.weight_v f4 [2, 2, 9]
-0.14077242 -0.19280744 -0.15129201 -0.12846191 -0.1582638 -0.26549324 -0.008880569 -0.049769506
-0.2680769 -0.112293944 0.021982891 0.074303746 -0.16333303 -0.06919517 -0.05230525 -0.066935346
0.123342186 0.005945307 0.09704946 -0.06863229 -0.07978436 -0.1742318 -0.10632384 0.05642543
0.10313096 0.010114858 0.26389527 -0.176133 0.09996156 0.23668544 -0.025215276 0.25400287
0.05088898 -0.11514808 -0.062298983 0.197898
00000000: a526 10be 506f 45be 4bec 1abe 858b 03be
00000010: e80f 22be bbee 87be ce7f 11bc 1cdb 4bbd
00000020: 6041 89be 5efa e5bd 7715 b43c 902c 983d
00000030: c640 27be 33b6 8dbd 083e 56bd 6615 89bd
00000040: d49a fc3d dad0 c23b dec1 c63d 168f 8cbd
00000050: fc65 a3bd d269 32be 50c0 d9bd 5a1e 673d
00000060: 5336 d33d cab8 253c 481d 873e 365c 34be
00000070: a5b8 cc3d ab5d 723e 4490 cebc aa0c 823e
00000080: f770 503d c2d2 ebbd 382d 7fbd c6a5 4a3e

model.encoder.model.tcn_block_01.conv1.bias f4 [2]
0.11299634 0.022473175
00000000: a06a e73d aa19 b83c

model.encoder.model.tcn_block_01.conv1.weight_g f4 [2, 1, 1]
0.74267006 0.5807595
00000000: a01f 3e3f a8ac 143f

model.encoder.model.tcn_block_01.conv1.weight_v f4 [2, 2, 9]
0.03762622 -0.107857235 -0.16323003 -0.11820684 -0.19521163 -0.21723221 -0.1955466 -0.19713849
-0.0896287 0.2189925 0.073092364 -0.05982268 0.19337708 -0.044333994 0.0038633342 -0.1584063
-0.14070052 0.017634701 -0.0874996 0.04589516 0.15120754 0.0018402213 -0.032207735 -0.097963355
0.0036999458 -0.19299854 -0.18843012 0.11092902 0.021916755 0.09263923 -0.1169278 0.16992033
0.15773664 0.04949904 -0.11476351 0.19697084
00000000: f41d 1a3d 41e4 dcbd c625 27be 6d16 f2bd
00000010: 8fe5 47be 1f72 5ebe 5e3d 48be acde 49be
00000020: 408f b7bd 923f 603e 73b1 953d a008 75bd
00000030: a404 463e 9097 35bd fe2f 7d3b 4335 22be
00000040: cc13 10be a676 903c fe32 b3bd 90fc 3b3d
00000050: 26d6 1a3e 9533 f13a 42ec 03bd 03a1 c8bd
00000060: ca7a 723b 69a1 45be d3f3 40be c12e e33d
00000070: c48a b33c a3b9 bd3d d877 efbd 98ff 2d3e
00000080: b785 213e 81bf 4a3d 2209 ebbd b9b2 493e

model.encoder.model.tcn_block_01.block.conv1d_layer_0.bias f4 [2]
-0.033454046 0.1469583
00000000: 1c07 09bd 3d7c 163e

model.encoder.model.tcn_block_01.block.conv1d_layer_0.weight_g f4 [2, 1, 1]
0.70117474 0.58561116
00000000: 3080 333f 9dea 153f

model.encoder.model.tcn_block_01.block.conv1d_layer_0.weight_v f4 [2, 2, 9]
-0.14077242 -0.19280744 -0.15129201 -0.12846191 -0.1582638 -0.26549324 -0.008880569 -0.049769506
-0.2680769 -0.112293944 0.021982891 0.074303746 -0.16333303 -0.06919517 -0.05230525 -0.066935346
0.123342186 0.005945307 0.09704946 -0.06863229 -0.07978436 -0.1742318 -0.10632384 0.05642543
0.10313096 0.010114858 0.26389527 -0.176133 0.09996156 0.23668544 -0.025215276 0.25400287
0.05088898 -0.11514808 -0.062298983 0.197898
00000000: a526 10be 506f 45be 4bec 1abe 858b 03be
00000010: e80f 22be bbee 87be ce7f 11bc 1cdb 4bbd
00000020: 6041 89be 5efa e5bd 7715 b43c 902c 983d
00000030: c640 27be 33b6 8dbd 083e 56bd 6615 89bd
00000040: d49a fc3d dad0 c23b dec1 c63d 168f 8cbd
00000050: fc65 a3bd d269 32be 50c0 d9bd 5a1e 673d
00000060: 5336 d33d cab8 253c 481d 873e 365c 34be
00000070: a5b8 cc3d ab5d 723e 4490 cebc aa0c 823e
00000080: f770 503d c2d2 ebbd 382d 7fbd c6a5 4a3e

model.encoder.model.tcn_block_01.block.conv1d_layer_1.bias f4 [2]
0.11299634 0.022473175
00000000: a06a e73d aa19 b83c

model.encoder.model.tcn_block_01.block.conv1d_layer_1.weight_g f4 [2, 1, 1]
0.74267006 0.5807595
00000000: a01f 3e3f a8ac 143f

model.encoder.model.tcn_block_01.block.conv1d_layer_1.weight_v f4 [2, 2, 9]
0.03762622 -0.107857235 -0.16323003 -0.11820684 -0.19521163 -0.21723221 -0.1955466 -0.19713849
-0.0896287 0.2189925 0.073092364 -0.05982268 0.19337708 -0.044333994 0.0038633342 -0.1584063
-0.14070052 0.017634701 -0.0874996 0.04589516 0.15120754 0.0018402213 -0.032207735 -0.097963355
0.0036999458 -0.19299854 -0.18843012 0.11092902 0.021916755 0.09263923 -0.1169278 0.16992033
0.15773664 0.04949904 -0.11476351 0.19697084
00000000: f41d 1a3d 41e4 dcbd c625 27be 6d16 f2bd
00000010: 8fe5 47be 1f72 5ebe 5e3d 48be acde 49be
00000020: 408f b7bd 923f 603e 73b1 953d a008 75bd
00000030: a404 463e 9097 35bd fe2f 7d3b 4335 22be
00000040: cc13 10be a676 903c fe32 b3bd 90fc 3b3d
00000050: 26d6 1a3e 9533 f13a 42ec 03bd 03a1 c8bd
00000060: ca7a 723b 69a1 45be d3f3 40be c12e e33d
00000070: c48a b33c a3b9 bd3d d877 efbd 98ff 2d3e
00000080: b785 213e 81bf 4a3d 2209 ebbd b9b2 493e

model.qz_xy_mean.dense(qz_xy_mean)_layer_03.weight f4 [2, 2]
0.7297613 0.28397948 -0.36730224 0.85389537
00000000: a3d1 3a3f c265 913e 0a0f bcbe e398 5a3f

model.qz_xy_mean.dense(qz_xy_mean)_layer_03.bias f4 [2]
-1.0099639 -0.3645049
00000000: 7f46 81bf 63a0 babe

model.qz_xy_logvar.dense(qz_xy_logvar)_layer_03.weight f4 [2, 2]
-0.25997993 -0.92131555 -0.11348531 -0.623567
00000000: 171c 85be 56db 6bbf fc6a e8bd 16a2 1fbf

model.qz_xy_logvar.dense(qz_xy_logvar)_layer_03.bias f4 [2]
-0.49795443 -0.83030444
00000000: e2f3 febe d58e 54bf

model.py_t_probs.dense(py_t_probs)_layer_00.weight f4 [4, 2]
0.42653877 -0.82993543 -0.34635663 0.67561877 0.741165 -0.0575578 -0.51369876 -0.572474
00000000: 4a63 da3e a676 54bf a855 b1be 5af5 2c3f
00000010: fdbc 3d3f bac1 6bbd c381 03bf a88d 12bf

model.py_t_probs.dense(py_t_probs)_layer_00.bias f4 [4]
0.12057083 0.44168553 0.44134593 0.1579629
00000000: d7ed f63d 9b24 e23e 18f8 e13e 07c1 213e

model.pz_t_mean.dense(pz_t_mean)_layer_00.weight f4 [8, 2]
0.5902143 -0.3165474 0.021150157 0.2870726 0.15385877 0.22464353 0.3141644 0.6636156
0.73874825 -0.059820954 0.2020539 -0.08389111 0.13733841 0.2272851 0.24058752 0.34745628
00000000: 4918 173f 8012 a2be 1843 ad3c 2efb 923e
00000010: 278d 1d3e f408 663e 28da a03e b6e2 293f
00000020: 9b1e 3d3f d106 75bd 38e7 4e3e 1acf abbd
00000030: 71a2 0c3e 6dbd 683e 935c 763e cae5 b13e

model.pz_t_mean.dense(pz_t_mean)_layer_00.bias f4 [8]
0.22684145 -0.4497326 -0.06252049 0.23746575 0.5739775 0.292551 -0.60945153 0.19751886
00000000: 2049 683e 5a43 e6be be0a 80bd 392a 733e
00000010: 30f0 123f 3fc9 953e 0405 1cbf 6242 4a3e

model.pz_t_logvar.dense(pz_t_logvar)_layer_00.weight f4 [2, 4]
-0.018964147 -0.2675809 -0.3349941 -0.1851712 -0.0865121 -0.41278115 -0.18881802 -0.70756936
00000000: b35a 9bbc 5d00 89be 5984 abbe 859d 3dbe
00000010: 422d b1bd 0d58 d3be 8359 41be 4423 35bf

model.pz_t_logvar.dense(pz_t_logvar)_layer_00.bias f4 [2]
-0.29493105 0.38029647
00000000: 3401 97be 38b6 c23e

model.decoder.dense(decoder)_layer_00.weight f4 [10, 2]
0.38531387 -0.38095647 -0.35928604 0.28444535 -0.28496578 0.36822394 0.12793647 -0.0020241863
-0.2980299 -0.16649182 0.07095601 -0.21123797 0.18264478 0.20005815 -0.26554397 0.4160199
0.11388783 -0.4872189 -0.49081197 0.085496336
00000000: dc47 c53e ba0c c3be 57f4 b7be d2a2 913e
00000010: 09e7 91be d987 bc3e c701 033e 36a8 04bb
00000020: 6097 98be d57c 2abe 6251 913d c44e 58be
00000030: 3c07 3b3e 0bdc 4c3e 61f5 87be 8f00 d53e
00000040: 063e e93d c174 f9be b54b fbbe b418 af3d

model.decoder.dense(decoder)_layer_00.bias f4 [10]
-0.12197325 0.1631872 0.058122516 0.23631032 0.082626835 0.040608447 -0.1743326 0.2177415
0.3529415 0.30893824
00000000: 1ccd f9bd 8c1a 273e e011 6e3d 55fb 713e
00000010: 4238 a93d 0b55 263d 3f84 32be a1f7 5e3e
00000020: c0b4 b43e 272d 9e3e

inference.model.qy_x.model.tcn_block_00.conv0.bias f4 [2]
-0.040177252 0.22538002
00000000: e790 24bd 05ca 663e

inference.model.qy_x.model.tcn_block_00.conv0.weight_g f4 [2, 1, 1]
0.7822723 0.98115575
00000000: ff42 483f 062d 7b3f

inference.model.qy_x.model.tcn_block_00.conv0.weight_v f4 [2, 10, 9]
-0.05347331 -0.037887942 -0.08438005 -0.09584209 -0.111419044 -0.10726696 -0.12587573 -0.08152596
-0.124556825 0.06336862 0.053065117 0.0686937 0.03951509 0.07045755 0.09203212 0.11246345
0.12107064 0.1206344 0.013855414 0.040140714 0.08229663 0.103096545 0.09723921 0.12899655
0.12568024 0.13945761 0.14640595 -0.10032038 -0.08412078 -0.06798208 -0.06370584 -0.01019423
-0.05434446 -0.038414788 -0.036836945 -0.03908012 0.029708099 0.074501686 0.04435199 0.033108428
0.0013610676 -0.03183676 -0.02156461 -0.072671756 -0.07834147 -0.07213132 -0.048805196 -0.060313005
-0.09823619 -0.098448135 -0.07175202 -0.047058035 -0.07684527 -0.080045156 0.017900461 -0.022853969
0.028580027 -0.0056685763 0.018410448 0.048181374 0.10881494 0.12419817 0.08663175 0.046898946
0.06813094 0.057217993 0.07946673 0.10392575 0.12947437 0.14972411 0.092556 0.13343188
-0.022385651 -0.0071755275 -0.017081149 -0.030091576 -0.08733445 -0.1290683 -0.12774113 -0.15763314
-0.16499847 0.10590924 0.09791176 0.026495615 0.07194206 0.052929237 0.044698346 0.025046626
0.04599754 0.0017484066 0.038573273 0.048523504 0.05953851 0.07284695 0.08973874 0.11107511
0.13745262 0.16288228 0.18070498 -0.04658916 -0.053983215 -0.06305414 -0.07441969 -0.089466386
-0.107691415 -0.1286946 -0.14744331 -0.16456874 -0.033121735 -0.04489096 -0.056562625 -0.06855869
-0.082155354 -0.10392611 -0.12938587 -0.15853038 -0.18469048 0.053624127 0.050228897 0.049024314
0.048491813 0.051840503 0.055497464 0.0578598 0.052186023 0.05144056 -0.067972176 -0.058071677
-0.048878267 -0.041956704 -0.03155972 -0.01960307 -0.012810454 0.002313725 0.022182107 0.056568466
0.060442995 0.06435043 0.068866156 0.074194804 0.086221576 0.105908886 0.120698586 0.137188
0.02948517 0.02125311 0.015124446 -0.003935229 -0.023357088 -0.042654518 -0.063540965 -0.085268214
-0.10987977 -0.005355884 -0.020328172 -0.040267024 -0.05222827 -0.071818896 -0.09456095 -0.122392595
-0.15344383 -0.18521522 0.012155041 0.026864601 0.042041514 0.05855527 0.07748804 0.101036675
0.12790401 0.15903674 0.18904977 -0.05492612 -0.056731913 -0.05454941 -0.054928187 -0.06037923
-0.06395323 -0.06913016 -0.07154466 -0.07625313
00000000: d406 5bbd 6330 1bbd 73cf acbd dc48 c4bd
00000010: ab2f e4bd c8ae dbbd 91e5 00be 15f7 a6bd
00000020: a617 ffbd 68c7 813d cf5a 593d 48af 8c3d
00000030: 93da 213d 0c4c 903d 567b bc3d 3d53 e63d
00000040: e2f3 f73d 2b0f f73d d201 633c 976a 243d
00000050: 238b a83d 4824 d33d 5a25 c73d ac17 043e
00000060: 52b2 003e facd 0e3e 71eb 153e c574 cdbd
00000070: 8447 acbd 303a 8bbd 3578 82bd b305 27bc
00000080: 4c98 5ebd d358 1dbd 56e2 16bd 7a12 20bd
00000090: 665e f33c 5794 983d 6faa 353d b49c 073d
000000a0: da65 b23a 4367 02bd 44a8 b0bc eed4 94bd
000000b0: 7e71 a0bd 96b9 93bd f5e7 47bd c50a 77bd
000000c0: 0e30 c9bd 2d9f c9bd b9f2 92bd edbf 40bd
000000d0: 0e61 9dbd b7ee a3bd fda3 923c 3f38 bbbc
000000e0: a920 ea3c 77bf b9bb 82d1 963c d559 453d
000000f0: 5eda de3d 9c5b fe3d fd6b b13d 1c19 403d
00000100: 3c88 8b3d 6a5d 6a3d 74bf a23d 06d7 d43d
00000110: ee94 043e 4751 193e 008e bd3d 5ea2 083e
00000120: 1d62 b7bc b020 ebbb c4ed 8bbc 9c82 f6bc
00000130: 67dc b2bd 7b2a 04be 92ce 02be 956a 21be
00000140: 5cf5 28be f2e6 d83d f685 c83d 550d d93c
00000150: 5c56 933d 54cc 583d 9d15 373d 952e cd3c
00000160: eb67 3c3d ca2a e53a 02ff 1d3d 95c0 463d
00000170: a7de 733d c830 953d f2c8 b73d 597b e33d
00000180: 61c0 0c3e 9dca 263e ba0a 393e 46d4 3ebd
00000190: 811d 5dbd 8722 81bd 5a69 98bd 273a b7bd
000001a0: 518d dcbd 84c8 03be 61fb 16be b584 28be
000001b0: a8aa 07bd 95df 37bd 36ae 67bd 8068 8cbd
000001c0: 1141 a8bd 36d7 d4bd bb7d 04be ca55 22be
000001d0: 801f 3dbe f9a4 5b3d d1bc 4d3d b8cd 483d
000001e0: 5a9f 463d b556 543d 4f51 633d 66fe 6c3d
000001f0: 03c1 553d 56b3 523d ff34 8bbd 91dc 6dbd
00000200: 9434 48bd cbda 2bbd c444 01bd 9e96 a0bc
00000210: f0e2 51bc dda1 173b 40b7 b53c 56b4 673d
00000220: 1393 773d 29ca 833d b309 8d3d 72f3 973d
00000230: f094 b03d c2e6 d83d d230 f73d 037b 0c3e
00000240: e28a f13c 011b ae3c 86cc 773c 18f3 80bb
00000250: 5d57 bfbc 81b6 2ebd c421 82bd 1aa1 aebd
00000260: a508 e1bd 6980 afbb 4487 a6bc 09ef 24bd
00000270: 4fed 55bd c915 93bd 2ca9 c1bd f8a8 fabd
00000280: 6120 1dbe 0fa9 3dbe f025 473c 2713 dc3c
00000290: b933 2c3d a7d7 6f3d 0db2 9e3d 51ec ce3d
000002a0: 45f9 023e 87da 223e 4396 413e 36fa 60bd
000002b0: b95f 68bd 346f 5fbd 61fc 60bd 3650 77bd
000002c0: e9f9 82bd 1d94 8dbd 0286 92bd 9a2a 9cbd

inference.model.qy_x.model.tcn_block_00.conv1.bias f4 [2]
0.30292806 0.15099591
00000000: 6319 9b3e ac9e 1a3e

inference.model.qy_x.model.tcn_block_00.conv1.weight_g f4 [2, 1, 1]
0.7442581 0.88055813
00000000: b387 3e3f 426c 613f

inference.model.qy_x.model.tcn_block_00.conv1.weight_v f4 [2, 2, 9]
0.20961559 0.17929554 0.2295732 0.22761774 0.12542222 0.119017474 -0.024153054 0.17191257
0.17166199 0.037826605 -0.0423507 -0.030592948 -0.0640812 -0.06173629 -0.07058215 -0.0645344
-0.08951108 -0.08422313 0.030117309 0.02208666 0.0047181207 0.0013630509 -0.0035065438 -0.0153270215
-0.039874442 -0.056767054 -0.07566218 0.07202398 0.08112134 0.095167 0.113535866 0.12758811
0.13991016 0.1490712 0.11932317 0.15362154
00000000: 78a5 563e 4099 373e 3d15 6b3e a014 693e
00000010: af6e 003e 6fbf f33d a0dc c5bc d909 303e
00000020: 29c8 2f3e 12f0 1a3d ed77 2dbd 109e fabc
00000030: 013d 83bd 31df 7cbd 608d 90bd 9d2a 84bd
00000040: 9651 b7bd 2d7d acbd 93b8 f63c 15ef b43c
00000050: 779a 9a3b 66a8 b23a 0bce 65bb 301e 7bbc
00000060: 6253 23bd 9284 68bd c6f4 9abd 4f81 933d
00000070: f222 a63d ebe6 c23d 7e85 e83d 75a6 023e
00000080: 9c44 0f3e 1fa6 183e b55f f43d f74e 1d3e

inference.model.qy_x.model.tcn_block_00.block.conv1d_layer_0.bias f4 [2]
-0.040177252 0.22538002
00000000: e790 24bd 05ca 663e

inference.model.qy_x.model.tcn_block_00.block.conv1d_layer_0.weight_g f4 [2, 1, 1]
0.7822723 0.98115575
00000000: ff42 483f 062d 7b3f

inference.model.qy_x.model.tcn_block_00.block.conv1d_layer_0.weight_v f4 [2, 10, 9]
-0.05347331 -0.037887942 -0.08438005 -0.09584209 -0.111419044 -0.10726696 -0.12587573 -0.08152596
-0.124556825 0.06336862 0.053065117 0.0686937 0.03951509 0.07045755 0.09203212 0.11246345
0.12107064 0.1206344 0.013855414 0.040140714 0.08229663 0.103096545 0.09723921 0.12899655
0.12568024 0.13945761 0.14640595 -0.10032038 -0.08412078 -0.06798208 -0.06370584 -0.01019423
-0.05434446 -0.038414788 -0.036836945 -0.03908012 0.029708099 0.074501686 0.04435199 0.033108428
0.0013610676 -0.03183676 -0.02156461 -0.072671756 -0.07834147 -0.07213132 -0.048805196 -0.060313005
-0.09823619 -0.098448135 -0.07175202 -0.047058035 -0.07684527 -0.080045156 0.017900461 -0.022853969
0.028580027 -0.0056685763 0.018410448 0.048181374 0.10881494 0.12419817 0.08663175 0.046898946
0.06813094 0.057217993 0.07946673 0.10392575 0.12947437 0.14972411 0.092556 0.13343188
-0.022385651 -0.0071755275 -0.017081149 -0.030091576 -0.08733445 -0.1290683 -0.12774113 -0.15763314
-0.16499847 0.10590924 0.09791176 0.026495615 0.07194206 0.052929237 0.044698346 0.025046626
0.04599754 0.0017484066 0.038573273 0.048523504 0.05953851 0.07284695 0.08973874 0.11107511
0.13745262 0.16288228 0.18070498 -0.04658916 -0.053983215 -0.06305414 -0.07441969 -0.089466386
-0.107691415 -0.1286946 -0.14744331 -0.16456874 -0.033121735 -0.04489096 -0.056562625 -0.06855869
-0.082155354 -0.10392611 -0.12938587 -0.15853038 -0.18469048 0.053624127 0.050228897 0.049024314
0.048491813 0.051840503 0.055497464 0.0578598 0.052186023 0.05144056 -0.067972176 -0.058071677
-0.048878267 -0.041956704 -0.03155972 -0.01960307 -0.012810454 0.002313725 0.022182107 0.056568466
0.060442995 0.06435043 0.068866156 0.074194804 0.086221576 0.105908886 0.120698586 0.137188
0.02948517 0.02125311 0.015124446 -0.003935229 -0.023357088 -0.042654518 -0.063540965 -0.085268214
-0.10987977 -0.005355884 -0.020328172 -0.040267024 -0.05222827 -0.071818896 -0.09456095 -0.122392595
-0.15344383 -0.18521522 0.012155041 0.026864601 0.042041514 0.05855527 0.07748804 0.101036675
0.12790401 0.15903674 0.18904977 -0.05492612 -0.056731913 -0.05454941 -0.054928187 -0.06037923
-0.06395323 -0.06913016 -0.07154466 -0.07625313
00000000: d406 5bbd 6330 1bbd 73cf acbd dc48 c4bd
00000010: ab2f e4bd c8ae dbbd 91e5 00be 15f7 a6bd
00000020: a617 ffbd 68c7 813d cf5a 593d 48af 8c3d
00000030: 93da 213d 0c4c 903d 567b bc3d 3d53 e63d
00000040: e2f3 f73d 2b0f f73d d201 633c 976a 243d
00000050: 238b a83d 4824 d33d 5a25 c73d ac17 043e
00000060: 52b2 003e facd 0e3e 71eb 153e c574 cdbd
00000070: 8447 acbd 303a 8bbd 3578 82bd b305 27bc
00000080: 4c98 5ebd d358 1dbd 56e2 16bd 7a12 20bd
00000090: 665e f33c 5794 983d 6faa 353d b49c 073d
000000a0: da65 b23a 4367 02bd 44a8 b0bc eed4 94bd
000000b0: 7e71 a0bd 96b9 93bd f5e7 47bd c50a 77bd
000000c0: 0e30 c9bd 2d9f c9bd b9f2 92bd edbf 40bd
000000d0: 0e61 9dbd b7ee a3bd fda3 923c 3f38 bbbc
000000e0: a920 ea3c 77bf b9bb 82d1 963c d559 453d
000000f0: 5eda de3d 9c5b fe3d fd6b b13d 1c19 403d
00000100: 3c88 8b3d 6a5d 6a3d 74bf a23d 06d7 d43d
00000110: ee94 043e 4751 193e 008e bd3d 5ea2 083e
00000120: 1d62 b7bc b020 ebbb c4ed 8bbc 9c82 f6bc
00000130: 67dc b2bd 7b2a 04be 92ce 02be 956a 21be
00000140: 5cf5 28be f2e6 d83d f685 c83d 550d d93c
00000150: 5c56 933d 54cc 583d 9d15 373d 952e cd3c
00000160: eb67 3c3d ca2a e53a 02ff 1d3d 95c0 463d
00000170: a7de 733d c830 953d f2c8 b73d 597b e33d
00000180: 61c0 0c3e 9dca 263e ba0a 393e 46d4 3ebd
00000190: 811d 5dbd 8722 81bd 5a69 98bd 273a b7bd
000001a0: 518d dcbd 84c8 03be 61fb 16be b584 28be
000001b0: a8aa 07bd 95df 37bd 36ae 67bd 8068 8cbd
000001c0: 1141 a8bd 36d7 d4bd bb7d 04be ca55 22be
000001d0: 801f 3dbe f9a4 5b3d d1bc 4d3d b8cd 483d
000001e0: 5a9f 463d b556 543d 4f51 633d 66fe 6c3d
000001f0: 03c1 553d 56b3 523d ff34 8bbd 91dc 6dbd
00000200: 9434 48bd cbda 2bbd c444 01bd 9e96 a0bc
00000210: f0e2 51bc dda1 173b 40b7 b53c 56b4 673d
00000220: 1393 773d 29ca 833d b309 8d3d 72f3 973d
00000230: f094 b03d c2e6 d83d d230 f73d 037b 0c3e
00000240: e28a f13c 011b ae3c 86cc 773c 18f3 80bb
00000250: 5d57 bfbc 81b6 2ebd c421 82bd 1aa1 aebd
00000260: a508 e1bd 6980 afbb 4487 a6bc 09ef 24bd
00000270: 4fed 55bd c915 93bd 2ca9 c1bd f8a8 fabd
00000280: 6120 1dbe 0fa9 3dbe f025 473c 2713 dc3c
00000290: b933 2c3d a7d7 6f3d 0db2 9e3d 51ec ce3d
000002a0: 45f9 023e 87da 223e 4396 413e 36fa 60bd
000002b0: b95f 68bd 346f 5fbd 61fc 60bd 3650 77bd
000002c0: e9f9 82bd 1d94 8dbd 0286 92bd 9a2a 9cbd

inference.model.qy_x.model.tcn_block_00.block.conv1d_layer_1.bias f4 [2]
0.30292806 0.15099591
00000000: 6319 9b3e ac9e 1a3e

inference.model.qy_x.model.tcn_block_00.block.conv1d_layer_1.weight_g f4 [2, 1, 1]
0.7442581 0.88055813
00000000: b387 3e3f 426c 613f
