results_gmdgm/ssm_v1/dtcn/kl_v9/version_0/best_val_model.pt (torch, 34951 bytes, 120 tensors)

model.qy_x.dense(qy_x)_layer_00.weight f4 [4, 10]
-0.004018142 0.24762255 -0.15125608 0.016506461 -0.1353558 -0.09483112 0.057505723 0.0770501
-0.03210912 0.026481595 -0.0035676595 0.24753718 -0.15126158 0.016489133 -0.13250995 -0.09493413
0.06135089 0.07611557 -0.031785373 0.02600125 0.0016300264 0.248467 -0.15110427 0.016296715
-0.09122001 -0.08800849 0.103852004 0.0691762 -0.030732362 0.01604773 -0.0075041777 0.24642484
-0.15144776 0.016617868 -0.16777663 -0.10186664 0.026117858 0.08125258 -0.032009408 0.035311855
00000000: 9eaa 83bb c490 7d3e e0e2 1abe 8f38 873c
00000010: b69a 0abe d136 c2bd 1f8b 6b3d 71cc 9d3d
00000020: da84 03bd eeef d83c 65cf 69bb 637a 7d3e
00000030: 51e4 1abe 3814 873c b0b0 07be d36c c2bd
00000040: 124b 7b3d 7be2 9b3d 6131 02bd 9300 d53c
00000050: 9ca6 d53a 226e 7e3e 14bb 1abe b080 853c
00000060: 8ed1 babd cc3d b4bd 5cb0 d43d 40ac 8d3d
00000070: 6fc2 fbbc 8776 833c 9be5 f5bb cb56 7c3e
00000080: 1f15 1bbe 3222 883c a3cd 2bbe 759f d0bd
00000090: 1ef5 d53c c167 a63d 4c1c 03bd 2aa3 103d

model.qy_x.dense(qy_x)_layer_00.bias f4 [4]
-0.10700757 -0.10700515 -0.10767778 -0.10796203
00000000: c926 dbbd 8425 dbbd 2b86 dcbd 321b ddbd

model.encoder.model.tcn_block_00.conv0.bias f4 [2]
-0.22415137 -0.03912237
00000000: f087 65be c73e 20bd

model.encoder.model.tcn_block_00.conv0.weight_g f4 [2, 1, 1]
0.36461878 0.5836763
00000000: 50af ba3e cf6b 153f

model.encoder.model.tcn_block_00.conv0.weight_v f4 [2, 14, 9]
-0.2097554 -0.080032505 0.04175088 0.1000735 0.053852815 0.104825236 0.1061723 0.08911183
0.08935099 0.21064642 0.073744886 -0.03536679 -0.04975881 -0.077715255 -0.11636279 -0.056254238
-0.0347407 -0.06639521 0.16002768 0.020177562 -0.010632551 -0.020271266 0.035538893 -0.0147439055
0.058355797 0.09176815 -0.015350663 -0.16789053 0.072816126 -0.08836231 -0.16219828 -0.117142364
-0.1483128 -0.24263164 -0.14159635 0.0016674717 -0.061377365 0.042334028 0.054225564 -0.06503901
0.050577957 0.03188441 0.010033636 -0.091800734 -0.1328186 -0.17170113 0.0062222616 0.050493408
0.09499669 0.0675512 0.024173602 0.029036522 0.051255126 0.057453856 0.0020270392 0.019085925
0.07350829 0.0044726618 -0.0745201 -0.044443797 -0.04757607 0.09279115 0.11497933 0.10286127
0.06389546 -0.02416969 -0.09038826 -0.0005096638 -0.11604074 0.028104935 0.04001771 -0.07034214
-0.19167091 -0.0791216 0.047602158 0.07785507 0.042474627 0.08945541 -0.0023750141 0.042931836
0.039321996 0.047693174 -0.012628918 -0.040688165 -0.018429393 -0.05052926 -0.01482384 0.013841908
-0.044415016 -0.054548826 0.10664449 -0.0074855643 0.07591768 -0.04739417 -0.045713875 -0.054530397
0.25468817 0.032213744 0.01866761 0.014978546 -0.10074558 0.034738246 0.21090241 -0.06076377
0.115379184 -0.30763808 0.13006213 -0.030166797 0.11400099 0.009291648 -0.092375636 -0.07299386
0.26367462 -0.06783197 0.13177441 -0.18923467 0.11428538 0.03634156 -0.019408537 0.0051028808
0.047767315 0.18393755 -0.0041955756 0.23889989 -0.1038505 0.021077268 0.102254786 -0.08704683
0.12529154 0.06412966 -0.06146076 -0.012675428 -0.04366291 -0.08126519 -0.035292137 -0.08008747
0.08409662 -0.07754869 0.0225065 0.008812818 0.07612529 0.043065384 0.046630807 0.06858654
-0.03006349 0.04686745 -0.034888864 0.022446152 0.015361571 0.022730038 -0.014913886 0.008048393
0.0034993205 0.102637425 -0.12738806 0.06668401 -0.08463794 -0.044211973 -0.035000898 0.005400584
0.0003454243 0.0028112207 -0.10051759 0.07451811 -0.049770214 -0.03063154 -0.010327783 0.018328037
0.033038165 0.030525824 0.05710521 0.07121651 -0.09221893 0.04015924 0.091726385 -0.028902555
-0.04130307 0.027307758 -0.049072962 -0.07179302 -0.028702596 0.03983612 0.005743552 0.013995364
0.0033254754 -0.013092003 -0.011402872 0.03754993 -0.022716176 0.0751592 0.07973159 -0.034366395
0.04832183 -0.028095935 0.042348206 0.051679082 0.047474187 0.083000414 -0.025256459 -0.061301384
0.020253176 -0.067147836 0.025065549 -0.12470033 -0.033365857 -0.042401034 -0.08110091 -0.07507831
0.06812187 -0.10176541 -0.082307875 -0.029591925 -0.02574511 0.0686344 0.03215896 0.05518263
0.15135251 0.15101074 0.1547934 0.024922473 0.14635956 0.1509191 0.08184005 0.17979877
0.082621366 0.14814332 0.15233529 0.1578532 0.02015691 0.14217576 0.14939484 0.07641394
0.19025187 0.08271373 0.14339449 0.15439734 0.1515985 0.027563468 0.14946473 0.147683
0.08239127 0.1868964 0.09055747 0.1437605 0.14456356 0.14882614 0.022928458 0.13777149
0.14158648 0.076292 0.17997983 0.08534725
00000000: 1fca 56be 15e8 a3bd f902 2b3d 56f3 cc3d
00000010: c594 5c3d 9dae d63d dd70 d93d 4380 b63d
00000020: a7fd b63d b2b3 573e 8f07 973d c4dc 10bd
00000030: e5cf 4bbd 2d29 9fbd 9d4f eebd d86a 66bd
00000040: 444c 0ebd 36fa 87bd 4cde 233e 6a4b a53c
00000050: 2734 2ebc ed0f a6bc 3b91 113d 6c90 71bc
00000060: 7d06 6f3d f1f0 bb3d 5981 7bbc 7feb 2bbe
00000070: 9f20 953d 4cf7 b4bd 4e17 26be 56e8 efbd
00000080: 50df 17be 6e74 78be a2fe 10be 118f da3a
00000090: d566 7bbd 7266 2d3d a01b 5e3d 2c33 85bd
000000a0: d52a 4f3d 3a99 023d 1f64 243c 0602 bcbd
000000b0: 9901 08be 6cd2 2fbe 1de4 cb3b 2dd2 4e3d
000000c0: a08d c23d 4958 8a3d b807 c63c 00de ed3c
000000d0: e5f0 513d bc54 6b3d 13d8 043b 165a 9c3c
000000e0: 848b 963d 688f 923b ff9d 98bd b30a 36bd
000000f0: 20df 42bd 4909 be3d 487a eb3d eea8 d23d
00000100: 9fdb 823d 84ff c5bc 7b1d b9bd f59a 05ba
00000110: c4a6 edbd 523c e63c 9ce9 233d 8a0f 90bd
00000120: 6145 44be 810a a2bd 7bfa 423d 7b72 9f3d
00000130: e0f9 2d3d 6634 b73d 20a6 1bbb 4bd9 2f3d
00000140: 1a10 213d eb59 433d 85e9 4ebc a2a8 26bd
00000150: 3df9 96bc c5f7 4ebd b1df 72bc 2cc9 623c
00000160: 85ec 35bd 976e 5fbd 6d68 da3d 7749 f5bb
00000170: bb7a 9b3d 6420 42bd 793e 3bbd 445b 5fbd
00000180: 7d66 823e 8ff2 033d d1ec 983c 9368 753c
00000190: b353 cebd b149 0e3d cdf6 573e 6ee3 78bd
000001a0: ec4b ec3d bd82 9dbe 022f 053e 5c20 f7bc
000001b0: 5a79 e93d ff3b 183c 702f bdbd ce7d 95bd
000001c0: 5c00 873e 7deb 8abd dfef 063e bcc6 41be
000001d0: 740e ea3d e3da 143d a7fe 9ebc 1136 a73b
000001e0: a9a7 433d 205a 3c3e 0a7b 89bb 2ca2 743e
000001f0: 92af d4bd 3caa ac3c f56a d13d 9c45 b2bd
00000200: 6d4c 003e 6956 833d 47be 7bbd 99ac 4fbc
00000210: e1d7 32bd 5d6e a6bd 7d8e 10bd e604 a4bd
00000220: d93a ac3d d9d1 9ebd 8d5f b83c a363 103c
00000230: 93e7 9b3d 5465 303d f2ff 3e3d 1a77 8c3d
00000240: b547 f6bc 15f8 3f3d a0e7 0ebd fee0 b73c
00000250: 19af 7b3c 5834 ba3c 5f59 74bc 68dd 033c
00000260: db54 653b 9233 d23d 0472 02be a091 883d
00000270: a856 adbd 9d17 35bd 1a5d 0fbd 62f7 b03b
00000280: 111a b539 753c 383b 2bdc cdbd f39c 983d
00000290: dadb 4bbd ffee fabc dd35 29bc ae24 963c
000002a0: 0753 073d 4b11 fa3c 27e7 693d f6d9 913d
000002b0: 47dd bcbd 047e 243d 0bdb bb3d 0dc5 ecbc
000002c0: 682d 29bd 85b4 df3c bb00 49bd 3808 93bd
000002d0: b521 ebbc 332b 233d 6834 bc3b d04c 653c
000002e0: 38f0 593b d77f 56bc 1dd3 3abc f5cd 193d
000002f0: 4617 babc 11ed 993d 514a a33d c7c3 0cbd
00000300: 1ced 453d 7229 e6bc 5075 2d3d 72ad 533d
00000310: 4b74 423d 1ffc a93d a2e6 cebc 2917 7bbd
00000320: fde9 a53c ce84 89bd 4456 cd3c e362 ffbd
00000330: a3aa 08bd b5ac 2dbd 3c18 a6bd a8c2 99bd
00000340: 7b83 8b3d 626a d0bd 0891 a8bd c46a f2bc
00000350: 69e7 d2bc 3190 8c3d 1db9 033d 2e07 623d
00000360: 27fc 1a3e 8fa2 1a3e 2982 1e3e 372a cc3c
00000370: 48df 153e 898a 1a3e c29b a73d 2b1d 383e
00000380: 6435 a93d e2b2 173e c8fd 1b3e 45a4 213e
00000390: 1b20 a53c 8696 113e f6fa 183e e97e 9c3d
000003a0: 63d1 423e d165 a93d 01d6 123e 561a 1e3e
000003b0: a33c 1b3e c8cc e13c 480d 193e 363a 173e
000003c0: c1bc a83d c561 3f3e 3276 b93d f435 133e
000003d0: 7808 143e e165 183e 76d4 bb3c f813 0d3e
000003e0: 0cfc 103e fb3e 9c3d a24c 383e 8aca ae3d

model.encoder.model.tcn_block_00.conv1.bias f4 [2]
-0.031602535 0.007141457
00000000: a971 01bd e202 ea3b

model.encoder.model.tcn_block_00.conv1.weight_g f4 [2, 1, 1]
0.39071596 0.6750071
00000000: ec0b c83e 44cd 2c3f

model.encoder.model.tcn_block_00.conv1.weight_v f4 [2, 2, 9]
0.111717746 -0.17189056 -0.1768008 0.0070457775 -0.18449838 0.031437997 0.00736632 -0.2200738
-0.07255743 0.12272319 0.10483707 -0.030030787 -0.20659761 -0.048728615 0.03615008 -0.10472313
0.024948902 0.09775716 -0.23285297 -0.22321907 -0.20539814 -0.20658225 -0.1993163 -0.17385288
-0.20717981 -0.18126135 0.045638382 0.039501466 0.0145766195 0.020928783 0.05179315 -0.05914834
-0.131583 -0.15721273 0.23789677 -0.013137026
00000000: 46cc e43d 1404 30be 450b 35be 44e0 e63b
00000010: 25ed 3cbe 21c5 003d 2c61 f13b 075b 61be
00000020: fd98 94bd 4c56 fb3d d1b4 d63d 2003 f6bc
00000030: 538e 53be a897 47bd 1b12 143d 1579 d6bd
00000040: a461 cc3c e834 c83d 0271 6ebe 8a93 64be
00000050: e453 52be 4c8a 53be 9219 4cbe 7d06 32be
00000060: f226 54be 939c 39be 50ef 3a3d 4acc 213d
00000070: c6d2 6e3c d772 ab3c 0e25 543d 8845 72bd
00000080: b2bd 06be 60fc 20be 369b 733e ae3c 57bc

model.encoder.model.tcn_block_00.block.conv1d_layer_0.bias f4 [2]
-0.22415137 -0.03912237
00000000: f087 65be c73e 20bd

model.encoder.model.tcn_block_00.block.conv1d_layer_0.weight_g f4 [2, 1, 1]
0.36461878 0.5836763
00000000: 50af ba3e cf6b 153f

model.encoder.model.tcn_block_00.block.conv1d_layer_0.weight_v f4 [2, 14, 9]
-0.2097554 -0.080032505 0.04175088 0.1000735 0.053852815 0.104825236 0.1061723 0.08911183
0.08935099 0.21064642 0.073744886 -0.03536679 -0.04975881 -0.077715255 -0.11636279 -0.056254238
-0.0347407 -0.06639521 0.16002768 0.020177562 -0.010632551 -0.020271266 0.035538893 -0.0147439055
0.058355797 0.09176815 -0.015350663 -0.16789053 0.072816126 -0.08836231 -0.16219828 -0.117142364
-0.1483128 -0.24263164 -0.14159635 0.0016674717 -0.061377365 0.042334028 0.054225564 -0.06503901
0.050577957 0.03188441 0.010033636 -0.091800734 -0.1328186 -0.17170113 0.0062222616 0.050493408
0.09499669 0.0675512 0.024173602 0.029036522 0.051255126 0.057453856 0.0020270392 0.019085925
0.07350829 0.0044726618 -0.0745201 -0.044443797 -0.04757607 0.09279115 0.11497933 0.10286127
0.06389546 -0.02416969 -0.09038826 -0.0005096638 -0.11604074 0.028104935 0.04001771 -0.07034214
-0.19167091 -0.0791216 0.047602158 0.07785507 0.042474627 0.08945541 -0.0023750141 0.042931836
0.039321996 0.047693174 -0.012628918 -0.040688165 -0.018429393 -0.05052926 -0.01482384 0.013841908
-0.044415016 -0.054548826 0.10664449 -0.0074855643 0.07591768 -0.04739417 -0.045713875 -0.054530397
0.25468817 0.032213744 0.01866761 0.014978546 -0.10074558 0.034738246 0.21090241 -0.06076377
0.115379184 -0.30763808 0.13006213 -0.030166797 0.11400099 0.009291648 -0.092375636 -0.07299386
0.26367462 -0.06783197 0.13177441 -0.18923467 0.11428538 0.03634156 -0.019408537 0.0051028808
0.047767315 0.18393755 -0.0041955756 0.23889989 -0.1038505 0.021077268 0.102254786 -0.08704683
0.12529154 0.06412966 -0.06146076 -0.012675428 -0.04366291 -0.08126519 -0.035292137 -0.08008747
0.08409662 -0.07754869 0.0225065 0.008812818 0.07612529 0.043065384 0.046630807 0.06858654
-0.03006349 0.04686745 -0.034888864 0.022446152 0.015361571 0.022730038 -0.014913886 0.008048393
0.0034993205 0.102637425 -0.12738806 0.06668401 -0.08463794 -0.044211973 -0.035000898 0.005400584
0.0003454243 0.0028112207 -0.10051759 0.07451811 -0.049770214 -0.03063154 -0.010327783 0.018328037
0.033038165 0.030525824 0.05710521 0.07121651 -0.09221893 0.04015924 0.091726385 -0.028902555
-0.04130307 0.027307758 -0.049072962 -0.07179302 -0.028702596 0.03983612 0.005743552 0.013995364
0.0033254754 -0.013092003 -0.011402872 0.03754993 -0.022716176 0.0751592 0.07973159 -0.034366395
0.04832183 -0.028095935 0.042348206 0.051679082 0.047474187 0.083000414 -0.025256459 -0.061301384
0.020253176 -0.067147836 0.025065549 -0.12470033 -0.033365857 -0.042401034 -0.08110091 -0.07507831
0.06812187 -0.10176541 -0.082307875 -0.029591925 -0.02574511 0.0686344 0.03215896 0.05518263
0.15135251 0.15101074 0.1547934 0.024922473 0.14635956 0.1509191 0.08184005 0.17979877
0.082621366 0.14814332 0.15233529 0.1578532 0.02015691 0.14217576 0.14939484 0.07641394
0.19025187 0.08271373 0.14339449 0.15439734 0.1515985 0.027563468 0.14946473 0.147683
0.08239127 0.1868964 0.09055747 0.1437605 0.14456356 0.14882614 0.022928458 0.13777149
0.14158648 0.076292 0.17997983 0.08534725
00000000: 1fca 56be 15e8 a3bd f902 2b3d 56f3 cc3d
00000010: c594 5c3d 9dae d63d dd70 d93d 4380 b63d
00000020: a7fd b63d b2b3 573e 8f07 973d c4dc 10bd
00000030: e5cf 4bbd 2d29 9fbd 9d4f eebd d86a 66bd
00000040: 444c 0ebd 36fa 87bd 4cde 233e 6a4b a53c
00000050: 2734 2ebc ed0f a6bc 3b91 113d 6c90 71bc
00000060: 7d06 6f3d f1f0 bb3d 5981 7bbc 7feb 2bbe
00000070: 9f20 953d 4cf7 b4bd 4e17 26be 56e8 efbd
00000080: 50df 17be 6e74 78be a2fe 10be 118f da3a
00000090: d566 7bbd 7266 2d3d a01b 5e3d 2c33 85bd
000000a0: d52a 4f3d 3a99 023d 1f64 243c 0602 bcbd
000000b0: 9901 08be 6cd2 2fbe 1de4 cb3b 2dd2 4e3d
000000c0: a08d c23d 4958 8a3d b807 c63c 00de ed3c
000000d0: e5f0 513d bc54 6b3d 13d8 043b 165a 9c3c
000000e0: 848b 963d 688f 923b ff9d 98bd b30a 36bd
000000f0: 20df 42bd 4909 be3d 487a eb3d eea8 d23d
00000100: 9fdb 823d 84ff c5bc 7b1d b9bd f59a 05ba
00000110: c4a6 edbd 523c e63c 9ce9 233d 8a0f 90bd
00000120: 6145 44be 810a a2bd 7bfa 423d 7b72 9f3d
00000130: e0f9 2d3d 6634 b73d 20a6 1bbb 4bd9 2f3d
00000140: 1a10 213d eb59 433d 85e9 4ebc a2a8 26bd
00000150: 3df9 96bc c5f7 4ebd b1df 72bc 2cc9 623c
00000160: 85ec 35bd 976e 5fbd 6d68 da3d 7749 f5bb
00000170: bb7a 9b3d 6420 42bd 793e 3bbd 445b 5fbd
00000180: 7d66 823e 8ff2 033d d1ec 983c 9368 753c
00000190: b353 cebd b149 0e3d cdf6 573e 6ee3 78bd
000001a0: ec4b ec3d bd82 9dbe 022f 053e 5c20 f7bc
000001b0: 5a79 e93d ff3b 183c 702f bdbd ce7d 95bd
000001c0: 5c00 873e 7deb 8abd dfef 063e bcc6 41be
000001d0: 740e ea3d e3da 143d a7fe 9ebc 1136 a73b
000001e0: a9a7 433d 205a 3c3e 0a7b 89bb 2ca2 743e
000001f0: 92af d4bd 3caa ac3c f56a d13d 9c45 b2bd
00000200: 6d4c 003e 6956 833d 47be 7bbd 99ac 4fbc
00000210: e1d7 32bd 5d6e a6bd 7d8e 10bd e604 a4bd
00000220: d93a ac3d d9d1 9ebd 8d5f b83c a363 103c
00000230: 93e7 9b3d 5465 303d f2ff 3e3d 1a77 8c3d
00000240: b547 f6bc 15f8 3f3d a0e7 0ebd fee0 b73c
00000250: 19af 7b3c 5834 ba3c 5f59 74bc 68dd 033c
00000260: db54 653b 9233 d23d 0472 02be a091 883d
00000270: a856 adbd 9d17 35bd 1a5d 0fbd 62f7 b03b
00000280: 111a b539 753c 383b 2bdc cdbd f39c 983d
00000290: dadb 4bbd ffee fabc dd35 29bc ae24 963c
000002a0: 0753 073d 4b11 fa3c 27e7 693d f6d9 913d
000002b0: 47dd bcbd 047e 243d 0bdb bb3d 0dc5 ecbc
000002c0: 682d 29bd 85b4 df3c bb00 49bd 3808 93bd
000002d0: b521 ebbc 332b 233d 6834 bc3b d04c 653c
000002e0: 38f0 593b d77f 56bc 1dd3 3abc f5cd 193d
000002f0: 4617 babc 11ed 993d 514a a33d c7c3 0cbd
00000300: 1ced 453d 7229 e6bc 5075 2d3d 72ad 533d
00000310: 4b74 423d 1ffc a93d a2e6 cebc 2917 7bbd
00000320: fde9 a53c ce84 89bd 4456 cd3c e362 ffbd
00000330: a3aa 08bd b5ac 2dbd 3c18 a6bd a8c2 99bd
00000340: 7b83 8b3d 626a d0bd 0891 a8bd c46a f2bc
00000350: 69e7 d2bc 3190 8c3d 1db9 033d 2e07 623d
00000360: 27fc 1a3e 8fa2 1a3e 2982 1e3e 372a cc3c
00000370: 48df 153e 898a 1a3e c29b a73d 2b1d 383e
00000380: 6435 a93d e2b2 173e c8fd 1b3e 45a4 213e
00000390: 1b20 a53c 8696 113e f6fa 183e e97e 9c3d
000003a0: 63d1 423e d165 a93d 01d6 123e 561a 1e3e
000003b0: a33c 1b3e c8cc e13c 480d 193e 363a 173e
000003c0: c1bc a83d c561 3f3e 3276 b93d f435 133e
000003d0: 7808 143e e165 183e 76d4 bb3c f813 0d3e
000003e0: 0cfc 103e fb3e 9c3d a24c 383e 8aca ae3d

model.encoder.model.tcn_block_00.block.conv1d_layer_1.bias f4 [2]
-0.031602535 0.007141457
00000000: a971 01bd e202 ea3b

model.encoder.model.tcn_block_00.block.conv1d_layer_1.weight_g f4 [2, 1, 1]
0.39071596 0.6750071
00000000: ec0b c83e 44cd 2c3f

model.encoder.model.tcn_block_00.block.conv1d_layer_1.weight_v f4 [2, 2, 9]
0.111717746 -0.17189056 -0.1768008 0.0070457775 -0.18449838 0.031437997 0.00736632 -0.2200738
-0.07255743 0.12272319 0.10483707 -0.030030787 -0.20659761 -0.048728615 0.03615008 -0.10472313
0.024948902 0.09775716 -0.23285297 -0.22321907 -0.20539814 -0.20658225 -0.1993163 -0.17385288
-0.20717981 -0.18126135 0.045638382 0.039501466 0.0145766195 0.020928783 0.05179315 -0.05914834
-0.131583 -0.15721273 0.23789677 -0.013137026
00000000: 46cc e43d 1404 30be 450b 35be 44e0 e63b
00000010: 25ed 3cbe 21c5 003d 2c61 f13b 075b 61be
00000020: fd98 94bd 4c56 fb3d d1b4 d63d 2003 f6bc
00000030: 538e 53be a897 47bd 1b12 143d 1579 d6bd
00000040: a461 cc3c e834 c83d 0271 6ebe 8a93 64be
00000050: e453 52be 4c8a 53be 9219 4cbe 7d06 32be
00000060: f226 54be 939c 39be 50ef 3a3d 4acc 213d
00000070: c6d2 6e3c d772 ab3c 0e25 543d 8845 72bd
00000080: b2bd 06be 60fc 20be 369b 733e ae3c 57bc

model.encoder.model.tcn_block_00.downsample.weight f4 [2, 14, 1]
-0.2111355 0.1416698 0.15214427 0.025245447 -0.108061574 -0.12951803 0.23408145 0.23822016
-0.1952076 0.052528385 1.4953644 1.494653 1.4947215 1.4946264 0.23773399 -0.20430389
-0.078624375 0.33004606 -0.40153363 0.28675112 0.27093083 -0.030541936 0.056978244 -0.47717527
1.760406 1.7610483 1.7602936 1.7624669
00000000: e833 58be e311 113e b5cb 1b3e 8acf ce3c
00000010: 634f ddbd 60a0 04be 0cb3 6f3e fcef 733e
00000020: 80e4 47be 0128 573d 1a68 bf3f ca50 bf3f
00000030: 0953 bf3f eb4f bf3f 8a70 733e 0a35 51be
00000040: d105 a1bd ccfb a83e d195 cdbe 0bd1 923e
00000050: 72b7 8a3e 1533 fabc 0562 693d 5150 f4be
00000060: fc54 e13f 086a e13f 4d51 e13f 8498 e13f

model.encoder.model.tcn_block_00.downsample.bias f4 [2]
1.6749132 2.0385156
00000000: 8e63 d63f 0a77 0240

model.encoder.model.tcn_block_01.conv0.bias f4 [2]
0.20151196 0.5663605
00000000: 2759 4e3e 00fd 103f

model.encoder.model.tcn_block_01.conv0.weight_g f4 [2, 1, 1]
0.61515737 0.8239772
00000000: f47a 1d3f 2bf0 523f

model.encoder.model.tcn_block_01.conv0.weight_v f4 [2, 2, 9]
0.32732874 0.3253301 0.10492035 0.11974811 -0.20249517 -0.052932013 -0.17563201 -0.2753166
-0.25298178 -0.13255201 -0.16429459 -0.031883582 0.032910895 -0.09598777 0.027726602 0.08366639
0.13650647 -0.07045288 0.34851408 0.15124422 -0.023588758 0.058096062 0.14056167 0.027483098
-0.15467177 -0.19701459 -0.30996746 0.07041611 -0.0890314 -0.13455793 0.0017038942 0.087035075
-0.18116245 0.1295283 0.010783265 -0.17901666
00000000: a297 a73e ab91 a63e 7be0 d63d 7f3e f53d
00000010: e55a 4fbe 3dcf 58bd e1d8 33be 4cf6 8cbe
00000020: d486 81be b7bb 07be d73c 28be 5c98 02bd
00000030: 93cd 063d 3c95 c4bd e622 e33c 4959 ab3d
00000040: 5ac8 0b3e 9949 90bd 7070 b23e c4df 1a3e
00000050: 363d c1bc 23f6 6d3d 66ef 0f3e 3c24 e13c
00000060: 4762 1ebe 31be 49be 0eb4 9ebe 5236 903d
00000070: 1856 b6bd 8ec9 09be 3455 df3a 723f b23d
00000080: a682 39be 11a3 043e 4bac 303c 2550 37be

model.encoder.model.tcn_block_01.conv1.bias f4 [2]
-0.0013448043 0.0013871663
00000000: 2544 b0ba 94d1 b53a

model.encoder.model.tcn_block_01.conv1.weight_g f4 [2, 1, 1]
0.3326021 0.81608415
00000000: d34a aa3e e4ea 503f

model.encoder.model.tcn_block_01.conv1.weight_v f4 [2, 2, 9]
-0.1253761 -0.008133036 0.1326469 -0.18967813 0.16384432 0.12991577 0.15075716 -0.17845978
0.24210086 -0.13299945 0.29492182 -0.23326854 -0.20086917 0.19684143 0.06969315 0.08325785
-0.07642063 -0.023763701 0.059133407 -0.040152587 0.058104187 0.06445012 0.06968687 0.08777856
0.103878655 0.06792612 0.031937942 0.24256614 0.20340025 0.17321998 0.20876418 0.19733767
0.21055864 0.180809 0.18746379 0.108667195
00000000: 9862 00be 6d40 05bc 97d4 073e fc3a 42be
00000010: cec6 273e a408 053e 1660 1a3e 29be 36be
00000020: 4ae9 773e 0231 08be feff 963e f3dd 6ebe
00000030: a6b0 4dbe cd90 493e 48bb 8e3d 1783 aa3d
00000040: 6b82 9cbd 18ac c2bc df35 723d 0a77 24bd
00000050: a8fe 6d3d 6dfe 833d fdb7 8e3d 3fc5 b33d
00000060: 55be d43d d91c 8b3d 5cd1 023d 4263 783e
00000070: 2848 503e 9460 313e 47c6 553e e312 4a3e
00000080: af9c 573e ff25 393e 82f6 3f3e e88c de3d

model.encoder.model.tcn_block_01.block.conv1d_layer_0.bias f4 [2]
0.20151196 0.5663605
00000000: 2759 4e3e 00fd 103f

model.encoder.model.tcn_block_01.block.conv1d_layer_0.weight_g f4 [2, 1, 1]
0.61515737 0.8239772
00000000: f47a 1d3f 2bf0 523f

model.encoder.model.tcn_block_01.block.conv1d_layer_0.weight_v f4 [2, 2, 9]
0.32732874 0.3253301 0.10492035 0.11974811 -0.20249517 -0.052932013 -0.17563201 -0.2753166
-0.25298178 -0.13255201 -0.16429459 -0.031883582 0.032910895 -0.09598777 0.027726602 0.08366639
0.13650647 -0.07045288 0.34851408 0.15124422 -0.023588758 0.058096062 0.14056167 0.027483098
-0.15467177 -0.19701459 -0.30996746 0.07041611 -0.0890314 -0.13455793 0.0017038942 0.087035075
-0.18116245 0.1295283 0.010783265 -0.17901666
00000000: a297 a73e ab91 a63e 7be0 d63d 7f3e f53d
00000010: e55a 4fbe 3dcf 58bd e1d8 33be 4cf6 8cbe
00000020: d486 81be b7bb 07be d73c 28be 5c98 02bd
00000030: 93cd 063d 3c95 c4bd e622 e33c 4959 ab3d
00000040: 5ac8 0b3e 9949 90bd 7070 b23e c4df 1a3e
00000050: 363d c1bc 23f6 6d3d 66ef 0f3e 3c24 e13c
00000060: 4762 1ebe 31be 49be 0eb4 9ebe 5236 903d
00000070: 1856 b6bd 8ec9 09be 3455 df3a 723f b23d
00000080: a682 39be 11a3 043e 4bac 303c 2550 37be

model.encoder.model.tcn_block_01.block.conv1d_layer_1.bias f4 [2]
-0.0013448043 0.0013871663
00000000: 2544 b0ba 94d1 b53a

model.encoder.model.tcn_block_01.block.conv1d_layer_1.weight_g f4 [2, 1, 1]
0.3326021 0.81608415
00000000: d34a aa3e e4ea 503f

model.encoder.model.tcn_block_01.block.conv1d_layer_1.weight_v f4 [2, 2, 9]
-0.1253761 -0.008133036 0.1326469 -0.18967813 0.16384432 0.12991577 0.15075716 -0.17845978
0.24210086 -0.13299945 0.29492182 -0.23326854 -0.20086917 0.19684143 0.06969315 0.08325785
-0.07642063 -0.023763701 0.059133407 -0.040152587 0.058104187 0.06445012 0.06968687 0.08777856
0.103878655 0.06792612 0.031937942 0.24256614 0.20340025 0.17321998 0.20876418 0.19733767
0.21055864 0.180809 0.18746379 0.108667195
00000000: 9862 00be 6d40 05bc 97d4 073e fc3a 42be
00000010: cec6 273e a408 053e 1660 1a3e 29be 36be
00000020: 4ae9 773e 0231 08be feff 963e f3dd 6ebe
00000030: a6b0 4dbe cd90 493e 48bb 8e3d 1783 aa3d
00000040: 6b82 9cbd 18ac c2bc df35 723d 0a77 24bd
00000050: a8fe 6d3d 6dfe 833d fdb7 8e3d 3fc5 b33d
00000060: 55be d43d d91c 8b3d 5cd1 023d 4263 783e
00000070: 2848 503e 9460 313e 47c6 553e e312 4a3e
00000080: af9c 573e ff25 393e 82f6 3f3e e88c de3d

model.qz_xy_mean.dense(qz_xy_mean)_layer_00.weight f4 [2, 2]
0.9360339 -0.20971279 -0.13715403 -0.48674744
00000000: eb9f 6f3f f3be 56be 1b72 0cbe f636 f9be

model.qz_xy_mean.dense(qz_xy_mean)_layer_00.bias f4 [2]
-0.8046043 1.1938035
00000000: 8cfa 4dbf 8ece 983f

model.qz_xy_logvar.dense(qz_xy_logvar)_layer_00.weight f4 [2, 2]
-1.198489 -0.86145496 -1.018561 -0.6654129
00000000: 1668 99bf 5088 5cbf 3560 82bf 8058 2abf

model.qz_xy_logvar.dense(qz_xy_logvar)_layer_00.bias f4 [2]
-0.23095773 -1.6053379
00000000: 2f80 6cbe b67b cdbf

model.py_t_probs.dense(py_t_probs)_layer_00.weight f4 [4, 2]
0.21440539 -0.1427395 0.2147159 -0.14301397 0.21509437 -0.14367864 0.2140661 -0.14176339
00000000: 168d 5b3e 4e2a 12be 7cde 5b3e 4172 12be
00000010: b341 5c3e 7e20 13be 2534 5b3e 6c2a 11be

model.py_t_probs.dense(py_t_probs)_layer_00.bias f4 [4]
-0.06818495 -0.06890749 -0.070820354 -0.06758497
00000000: 8da4 8bbd 5f1f 8dbd 430a 91bd fd69 8abd

model.pz_t_mean.dense(pz_t_mean)_layer_00.weight f4 [8, 2]
0.9671654 0.09696175 -0.032464188 1.0147718 0.9677577 0.09582105 -0.03293692 1.0185025
0.9690922 0.09730122 -0.032243747 1.0186911 0.9687459 0.09763262 -0.03394762 1.0165784
00000000: 2798 773f e293 c63d 2bf9 04bd 0be4 813f
00000010: f8be 773f d43d c43d dde8 06bd 4a5e 823f
00000020: 6d16 783f dd45 c73d 0512 04bd 7864 823f
00000030: bbff 773f 9cf3 c73d a90c 0bbd 3e1f 823f

model.pz_t_mean.dense(pz_t_mean)_layer_00.bias f4 [8]
0.15062086 0.06055557 0.14707693 0.06046329 0.14898056 0.0641242 0.15199164 0.06617415
00000000: 5b3c 1a3e 1e09 783d 569b 163e 5ba8 773d
00000010: 5c8e 183e 8c53 833d b2a3 1b3e 5086 873d

model.pz_t_logvar.dense(pz_t_logvar)_layer_00.weight f4 [2, 4]
-2.3345957 -2.334503 -2.335139 -2.3300462 -2.2140589 -2.2140067 -2.2148294 -2.2103815
00000000: 046a 15c0 7f68 15c0 eb72 15c0 7a1f 15c0
00000010: 24b3 0dc0 49b2 0dc0 c4bf 0dc0 e476 0dc0

model.pz_t_logvar.dense(pz_t_logvar)_layer_00.bias f4 [2]
-1.9445655 -2.4234211
00000000: 86e7 f8bf 5519 1bc0

model.decoder.dense(decoder)_layer_00.weight f4 [10, 2]
-0.7065226 -0.09637573 0.6408745 0.27160218 0.74416053 -0.10519082 0.008556944 -1.1773542
-0.4017404 1.3520032 -0.5413074 -0.50151724 0.7472661 -1.0761303 0.8183351 -0.43447086
-0.8000925 0.30312556 0.16068251 1.0600678
00000000: aade 34bf a460 c5bd 5a10 243f 710f 8b3e
00000010: 4e81 3e3f 496e d7bd 6d32 0c3c 8bb3 96bf
00000020: ebb0 cdbe 710e ad3f 1f93 0abf 6f63 00bf
00000030: d54c 3f3f a3be 89bf 697e 513f f772 debe
00000040: ddd2 4cbf 4633 9b3e f589 243e 4db0 873f

model.decoder.dense(decoder)_layer_00.bias f4 [10]
0.85560596 -0.5737189 -1.1264577 -1.3025084 2.0283153 0.18634963 -2.1962106 -1.5900054
1.420926 0.94396544
00000000: fe08 5b3f 3edf 12bf c42f 90bf 98b8 a6bf
00000010: ebcf 0140 70d2 3e3e b78e 0cc0 4c85 cbbf
00000020: e7e0 b53f b8a7 713f

inference.model.qy_x.dense(qy_x)_layer_00.weight f4 [4, 10]
-0.004018142 0.24762255 -0.15125608 0.016506461 -0.1353558 -0.09483112 0.057505723 0.0770501
-0.03210912 0.026481595 -0.0035676595 0.24753718 -0.15126158 0.016489133 -0.13250995 -0.09493413
0.06135089 0.07611557 -0.031785373 0.02600125 0.0016300264 0.248467 -0.15110427 0.016296715
-0.09122001 -0.08800849 0.103852004 0.0691762 -0.030732362 0.01604773 -0.0075041777 0.24642484
-0.15144776 0.016617868 -0.16777663 -0.10186664 0.026117858 0.08125258 -0.032009408 0.035311855
00000000: 9eaa 83bb c490 7d3e e0e2 1abe 8f38 873c
00000010: b69a 0abe d136 c2bd 1f8b 6b3d 71cc 9d3d
00000020: da84 03bd eeef d83c 65cf 69bb 637a 7d3e
00000030: 51e4 1abe 3814 873c b0b0 07be d36c c2bd
00000040: 124b 7b3d 7be2 9b3d 6131 02bd 9300 d53c
00000050: 9ca6 d53a 226e 7e3e 14bb 1abe b080 853c
00000060: 8ed1 babd cc3d b4bd 5cb0 d43d 40ac 8d3d
00000070: 6fc2 fbbc 8776 833c 9be5 f5bb cb56 7c3e
00000080: 1f15 1bbe 3222 883c a3cd 2bbe 759f d0bd
00000090: 1ef5 d53c c167 a63d 4c1c 03bd 2aa3 103d

inference.model.qy_x.dense(qy_x)_layer_00.bias f4 [4]
-0.10700757 -0.10700515 -0.10767778 -0.10796203
00000000: c926 dbbd 8425 dbbd 2b86 dcbd 321b ddbd

inference.model.encoder.model.tcn_block_00.conv0.bias f4 [2]
-0.22415137 -0.03912237
00000000: f087 65be c73e 20bd

inference.model.encoder.model.tcn_block_00.conv0.weight_g f4 [2, 1, 1]
0.36461878 0.5836763
00000000: 50af ba3e cf6b 153f

inference.model.encoder.model.tcn_block_00.conv0.weight_v f4 [2, 14, 9]
-0.2097554 -0.080032505 0.04175088 0.1000735 0.053852815 0.104825236 0.1061723 0.08911183
0.08935099 0.21064642 0.073744886 -0.03536679 -0.04975881 -0.077715255 -0.11636279 -0.056254238
-0.0347407 -0.06639521 0.16002768 0.020177562 -0.010632551 -0.020271266 0.035538893 -0.0147439055
0.058355797 0.09176815 -0.015350663 -0.16789053 0.072816126 -0.08836231 -0.16219828 -0.117142364
-0.1483128 -0.24263164 -0.14159635 0.0016674717 -0.061377365 0.042334028 0.054225564 -0.06503901
0.050577957 0.03188441 0.010033636 -0.091800734 -0.1328186 -0.17170113 0.0062222616 0.050493408
0.09499669 0.0675512 0.024173602 0.029036522 0.051255126 0.057453856 0.0020270392 0.019085925
0.07350829 0.0044726618 -0.0745201 -0.044443797 -0.04757607 0.09279115 0.11497933 0.10286127
0.06389546 -0.02416969 -0.09038826 -0.0005096638 -0.11604074 0.028104935 0.04001771 -0.07034214
-0.19167091 -0.0791216 0.047602158 0.07785507 0.042474627 0.08945541 -0.0023750141 0.042931836
0.039321996 0.047693174 -0.012628918 -0.040688165 -0.018429393 -0.05052926 -0.01482384 0.013841908
-0.044415016 -0.054548826 0.10664449 -0.0074855643 0.07591768 -0.04739417 -0.045713875 -0.054530397
0.25468817 0.032213744 0.01866761 0.014978546 -0.10074558 0.034738246 0.21090241 -0.06076377
0.115379184 -0.30763808 0.13006213 -0.030166797 0.11400099 0.009291648 -0.092375636 -0.07299386
0.26367462 -0.06783197 0.13177441 -0.18923467 0.11428538 0.03634156 -0.019408537 0.0051028808
0.047767315 0.18393755 -0.0041955756 0.23889989 -0.1038505 0.021077268 0.102254786 -0.08704683
0.12529154 0.06412966 -0.06146076 -0.012675428 -0.04366291 -0.08126519 -0.035292137 -0.08008747
0.08409662 -0.07754869 0.0225065 0.008812818 0.07612529 0.043065384 0.046630807 0.06858654
-0.03006349 0.04686745 -0.034888864 0.022446152 0.015361571 0.022730038 -0.014913886 0.008048393
0.0034993205 0.102637425 -0.12738806 0.06668401 -0.08463794 -0.044211973 -0.035000898 0.005400584
0.0003454243 0.0028112207 -0.10051759 0.07451811 -0.049770214 -0.03063154 -0.010327783 0.018328037
0.033038165 0.030525824 0.05710521 0.07121651 -0.09221893 0.04015924 0.091726385 -0.028902555
-0.04130307 0.027307758 -0.049072962 -0.07179302 -0.028702596 0.03983612 0.005743552 0.013995364
0.0033254754 -0.013092003 -0.011402872 0.03754993 -0.022716176 0.0751592 0.07973159 -0.034366395
0.04832183 -0.028095935 0.042348206 0.051679082 0.047474187 0.083000414 -0.025256459 -0.061301384
0.020253176 -0.067147836 0.025065549 -0.12470033 -0.033365857 -0.042401034 -0.08110091 -0.07507831
0.06812187 -0.10176541 -0.082307875 -0.029591925 -0.02574511 0.0686344 0.03215896 0.05518263
0.15135251 0.15101074 0.1547934 0.024922473 0.14635956 0.1509191 0.08184005 0.17979877
0.082621366 0.14814332 0.15233529 0.1578532 0.02015691 0.14217576 0.14939484 0.07641394
0.19025187 0.08271373 0.14339449 0.15439734 0.1515985 0.027563468 0.14946473 0.147683
0.08239127 0.1868964 0.09055747 0.1437605 0.14456356 0.14882614 0.022928458 0.13777149
0.14158648 0.076292 0.17997983 0.08534725
00000000: 1fca 56be 15e8 a3bd f902 2b3d 56f3 cc3d
00000010: c594 5c3d 9dae d63d dd70 d93d 4380 b63d
00000020: a7fd b63d b2b3 573e 8f07 973d c4dc 10bd
00000030: e5cf 4bbd 2d29 9fbd 9d4f eebd d86a 66bd
00000040: 444c 0ebd 36fa 87bd 4cde 233e 6a4b a53c
00000050: 2734 2ebc ed0f a6bc 3b91 113d 6c90 71bc
00000060: 7d06 6f3d f1f0 bb3d 5981 7bbc 7feb 2bbe
00000070: 9f20 953d 4cf7 b4bd 4e17 26be 56e8 efbd
00000080: 50df 17be 6e74 78be a2fe 10be 118f da3a
00000090: d566 7bbd 7266 2d3d a01b 5e3d 2c33 85bd
000000a0: d52a 4f3d 3a99 023d 1f64 243c 0602 bcbd
000000b0: 9901 08be 6cd2 2fbe 1de4 cb3b 2dd2 4e3d
000000c0: a08d c23d 4958 8a3d b807 c63c 00de ed3c
000000d0: e5f0 513d bc54 6b3d 13d8 043b 165a 9c3c
000000e0: 848b 963d 688f 923b ff9d 98bd b30a 36bd
000000f0: 20df 42bd 4909 be3d 487a eb3d eea8 d23d
00000100: 9fdb 823d 84ff c5bc 7b1d b9bd f59a 05ba
00000110: c4a6 edbd 523c e63c 9ce9 233d 8a0f 90bd
00000120: 6145 44be 810a a2bd 7bfa 423d 7b72 9f3d
00000130: e0f9 2d3d 6634 b73d 20a6 1bbb 4bd9 2f3d
00000140: 1a10 213d eb59 433d 85e9 4ebc a2a8 26bd
00000150: 3df9 96bc c5f7 4ebd b1df 72bc 2cc9 623c
00000160: 85ec 35bd 976e 5fbd 6d68 da3d 7749 f5bb
00000170: bb7a 9b3d 6420 42bd 793e 3bbd 445b 5fbd
00000180: 7d66 823e 8ff2 033d d1ec 983c 9368 753c
00000190: b353 cebd b149 0e3d cdf6 573e 6ee3 78bd
000001a0: ec4b ec3d bd82 9dbe 022f 053e 5c20 f7bc
000001b0: 5a79 e93d ff3b 183c 702f bdbd ce7d 95bd
000001c0: 5c00 873e 7deb 8abd dfef 063e bcc6 41be
000001d0: 740e ea3d e3da 143d a7fe 9ebc 1136 a73b
000001e0: a9a7 433d 205a 3c3e 0a7b 89bb 2ca2 743e
000001f0: 92af d4bd 3caa ac3c f56a d13d 9c45 b2bd
00000200: 6d4c 003e 6956 833d 47be 7bbd 99ac 4fbc
00000210: e1d7 32bd 5d6e a6bd 7d8e 10bd e604 a4bd
00000220: d93a ac3d d9d1 9ebd 8d5f b83c a363 103c
00000230: 93e7 9b3d 5465 303d f2ff 3e3d 1a77 8c3d
00000240: b547 f6bc 15f8 3f3d a0e7 0ebd fee0 b73c
00000250: 19af 7b3c 5834 ba3c 5f59 74bc 68dd 033c
00000260: db54 653b 9233 d23d 0472 02be a091 883d
00000270: a856 adbd 9d17 35bd 1a5d 0fbd 62f7 b03b
00000280: 111a b539 753c 383b 2bdc cdbd f39c 983d
00000290: dadb 4bbd ffee fabc dd35 29bc ae24 963c
000002a0: 0753 073d 4b11 fa3c 27e7 693d f6d9 913d
000002b0: 47dd bcbd 047e 243d 0bdb bb3d 0dc5 ecbc
000002c0: 682d 29bd 85b4 df3c bb00 49bd 3808 93bd
000002d0: b521 ebbc 332b 233d 6834 bc3b d04c 653c
000002e0: 38f0 593b d77f 56bc 1dd3 3abc f5cd 193d
000002f0: 4617 babc 11ed 993d 514a a33d c7c3 0cbd
00000300: 1ced 453d 7229 e6bc 5075 2d3d 72ad 533d
00000310: 4b74 423d 1ffc a93d a2e6 cebc 2917 7bbd
00000320: fde9 a53c ce84 89bd 4456 cd3c e362 ffbd
00000330: a3aa 08bd b5ac 2dbd 3c18 a6bd a8c2 99bd
00000340: 7b83 8b3d 626a d0bd 0891 a8bd c46a f2bc
00000350: 69e7 d2bc 3190 8c3d 1db9 033d 2e07 623d
00000360: 27fc 1a3e 8fa2 1a3e 2982 1e3e 372a cc3c
00000370: 48df 153e 898a 1a3e c29b a73d 2b1d 383e
00000380: 6435 a93d e2b2 173e c8fd 1b3e 45a4 213e
00000390: 1b20 a53c 8696 113e f6fa 183e e97e 9c3d
000003a0: 63d1 423e d165 a93d 01d6 123e 561a 1e3e
000003b0: a33c 1b3e c8cc e13c 480d 193e 363a 173e
000003c0: c1bc a83d c561 3f3e 3276 b93d f435 133e
000003d0: 7808 143e e165 183e 76d4 bb3c f813 0d3e
000003e0: 0cfc 103e fb3e 9c3d a24c 383e 8aca ae3d

inference.model.encoder.model.tcn_block_00.conv1.bias f4 [2]
-0.031602535 0.007141457
00000000: a971 01bd e202 ea3b

inference.model.encoder.model.tcn_block_00.conv1.weight_g f4 [2, 1, 1]
0.39071596 0.6750071
00000000: ec0b c83e 44cd 2c3f

inference.model.encoder.model.tcn_block_00.conv1.weight_v f4 [2, 2, 9]
0.111717746 -0.17189056 -0.1768008 0.0070457775 -0.18449838 0.031437997 0.00736632 -0.2200738
-0.07255743 0.12272319 0.10483707 -0.030030787 -0.20659761 -0.048728615 0.03615008 -0.10472313
0.024948902 0.09775716 -0.23285297 -0.22321907 -0.20539814 -0.20658225 -0.1993163 -0.17385288
-0.20717981 -0.18126135 0.045638382 0.039501466 0.0145766195 0.020928783 0.05179315 -0.05914834
-0.131583 -0.15721273 0.23789677 -0.013137026
00000000: 46cc e43d 1404 30be 450b 35be 44e0 e63b
00000010: 25ed 3cbe 21c5 003d 2c61 f13b 075b 61be
00000020: fd98 94bd 4c56 fb3d d1b4 d63d 2003 f6bc
00000030: 538e 53be a897 47bd 1b12 143d 1579 d6bd
00000040: a461 cc3c e834 c83d 0271 6ebe 8a93 64be
00000050: e453 52be 4c8a 53be 9219 4cbe 7d06 32be
00000060: f226 54be 939c 39be 50ef 3a3d 4acc 213d
00000070: c6d2 6e3c d772 ab3c 0e25 543d 8845 72bd
00000080: b2bd 06be 60fc 20be 369b 733e ae3c 57bc

inference.model.encoder.model.tcn_block_00.block.conv1d_layer_0.bias f4 [2]
-0.22415137 -0.03912237
00000000: f087 65be c73e 20bd

inference.model.encoder.model.tcn_block_00.block.conv1d_layer_0.weight_g f4 [2, 1, 1]
0.36461878 0.5836763
00000000: 50af ba3e cf6b 153f

inference.model.encoder.model.tcn_block_00.block.conv1d_layer_0.weight_v f4 [2, 14, 9]
-0.2097554 -0.080032505 0.04175088 0.1000735 0.053852815 0.104825236 0.1061723 0.08911183
0.08935099 0.21064642 0.073744886 -0.03536679 -0.04975881 -0.077715255 -0.11636279 -0.056254238
-0.0347407 -0.06639521 0.16002768 0.020177562 -0.010632551 -0.020271266 0.035538893 -0.0147439055
0.058355797 0.09176815 -0.015350663 -0.16789053 0.072816126 -0.08836231 -0.16219828 -0.117142364
-0.1483128 -0.24263164 -0.14159635 0.0016674717 -0.061377365 0.042334028 0.054225564 -0.06503901
0.050577957 0.03188441 0.010033636 -0.091800734 -0.1328186 -0.17170113 0.0062222616 0.050493408
0.09499669 0.0675512 0.024173602 0.029036522 0.051255126 0.057453856 0.0020270392 0.019085925
0.07350829 0.0044726618 -0.0745201 -0.044443797 -0.04757607 0.09279115 0.11497933 0.10286127
0.06389546 -0.02416969 -0.09038826 -0.0005096638 -0.11604074 0.028104935 0.04001771 -0.07034214
-0.19167091 -0.0791216 0.047602158 0.07785507 0.042474627 0.08945541 -0.0023750141 0.042931836
0.039321996 0.047693174 -0.012628918 -0.040688165 -0.018429393 -0.05052926 -0.01482384 0.013841908
-0.044415016 -0.054548826 0.10664449 -0.0074855643 0.07591768 -0.04739417 -0.045713875 -0.054530397
0.25468817 0.032213744 0.01866761 0.014978546 -0.10074558 0.034738246 0.21090241 -0.06076377
0.115379184 -0.30763808 0.13006213 -0.030166797 0.11400099 0.009291648 -0.092375636 -0.07299386
0.26367462 -0.06783197 0.13177441 -0.18923467 0.11428538 0.03634156 -0.019408537 0.0051028808
0.047767315 0.18393755 -0.0041955756 0.23889989 -0.1038505 0.021077268 0.102254786 -0.08704683
0.12529154 0.06412966 -0.06146076 -0.012675428 -0.04366291 -0.08126519 -0.035292137 -0.08008747
0.08409662 -0.07754869 0.0225065 0.008812818 0.07612529 0.043065384 0.046630807 0.06858654
-0.03006349 0.04686745 -0.034888864 0.022446152 0.015361571 0.022730038 -0.014913886 0.008048393
0.0034993205 0.102637425 -0.12738806 0.06668401 -0.08463794 -0.044211973 -0.035000898 0.005400584
0.0003454243 0.0028112207 -0.10051759 0.07451811 -0.049770214 -0.03063154 -0.010327783 0.018328037
0.033038165 0.030525824 0.05710521 0.07121651 -0.09221893 0.04015924 0.091726385 -0.028902555
-0.04130307 0.027307758 -0.049072962 -0.07179302 -0.028702596 0.03983612 0.005743552 0.013995364
0.0033254754 -0.013092003 -0.011402872 0.03754993 -0.022716176 0.0751592 0.07973159 -0.034366395
0.04832183 -0.028095935 0.042348206 0.051679082 0.047474187 0.083000414 -0.025256459 -0.061301384
0.020253176 -0.067147836 0.025065549 -0.12470033 -0.033365857 -0.042401034 -0.08110091 -0.07507831
0.06812187 -0.10176541 -0.082307875 -0.029591925 -0.02574511 0.0686344 0.03215896 0.05518263
0.15135251 0.15101074 0.1547934 0.024922473 0.14635956 0.1509191 0.08184005 0.17979877
0.082621366 0.14814332 0.15233529 0.1578532 0.02015691 0.14217576 0.14939484 0.07641394
0.19025187 0.08271373 0.14339449 0.15439734 0.1515985 0.027563468 0.14946473 0.147683
0.08239127 0.1868964 0.09055747 0.1437605 0.14456356 0.14882614 0.022928458 0.13777149
0.14158648 0.076292 0.17997983 0.08534725
00000000: 1fca 56be 15e8 a3bd f902 2b3d 56f3 cc3d
00000010: c594 5c3d 9dae d63d dd70 d93d 4380 b63d
00000020: a7fd b63d b2b3 573e 8f07 973d c4dc 10bd
00000030: e5cf 4bbd 2d29 9fbd 9d4f eebd d86a 66bd
00000040: 444c 0ebd 36fa 87bd 4cde 233e 6a4b a53c
00000050: 2734 2ebc ed0f a6bc 3b91 113d 6c90 71bc
00000060: 7d06 6f3d f1f0 bb3d 5981 7bbc 7feb 2bbe
00000070: 9f20 953d 4cf7 b4bd 4e17 26be 56e8 efbd
00000080: 50df 17be 6e74 78be a2fe 10be 118f da3a
00000090: d566 7bbd 7266 2d3d a01b 5e3d 2c33 85bd
000000a0: d52a 4f3d 3a99 023d 1f64 243c 0602 bcbd
000000b0: 9901 08be 6cd2 2fbe 1de4 cb3b 2dd2 4e3d
000000c0: a08d c23d 4958 8a3d b807 c63c 00de ed3c
000000d0: e5f0 513d bc54 6b3d 13d8 043b 165a 9c3c
000000e0: 848b 963d 688f 923b ff9d 98bd b30a 36bd
000000f0: 20df 42bd 4909 be3d 487a eb3d eea8 d23d
00000100: 9fdb 823d 84ff c5bc 7b1d b9bd f59a 05ba
00000110: c4a6 edbd 523c e63c 9ce9 233d 8a0f 90bd
00000120: 6145 44be 810a a2bd 7bfa 423d 7b72 9f3d
00000130: e0f9 2d3d 6634 b73d 20a6 1bbb 4bd9 2f3d
00000140: 1a10 213d eb59 433d 85e9 4ebc a2a8 26bd
00000150: 3df9 96bc c5f7 4ebd b1df 72bc 2cc9 623c
00000160: 85ec 35bd 976e 5fbd 6d68 da3d 7749 f5bb
00000170: bb7a 9b3d 6420 42bd 793e 3bbd 445b 5fbd
00000180: 7d66 823e 8ff2 033d d1ec 983c 9368 753c
00000190: b353 cebd b149 0e3d cdf6 573e 6ee3 78bd
000001a0: ec4b ec3d bd82 9dbe 022f 053e 5c20 f7bc
000001b0: 5a79 e93d ff3b 183c 702f bdbd ce7d 95bd
000001c0: 5c00 873e 7deb 8abd dfef 063e bcc6 41be
000001d0: 740e ea3d e3da 143d a7fe 9ebc 1136 a73b
000001e0: a9a7 433d 205a 3c3e 0a7b 89bb 2ca2 743e
000001f0: 92af d4bd 3caa ac3c f56a d13d 9c45 b2bd
00000200: 6d4c 003e 6956 833d 47be 7bbd 99ac 4fbc
00000210: e1d7 32bd 5d6e a6bd 7d8e 10bd e604 a4bd
00000220: d93a ac3d d9d1 9ebd 8d5f b83c a363 103c
00000230: 93e7 9b3d 5465 303d f2ff 3e3d 1a77 8c3d
00000240: b547 f6bc 15f8 3f3d a0e7 0ebd fee0 b73c
00000250: 19af 7b3c 5834 ba3c 5f59 74bc 68dd 033c
00000260: db54 653b 9233 d23d 0472 02be a091 883d
00000270: a856 adbd 9d17 35bd 1a5d 0fbd 62f7 b03b
00000280: 111a b539 753c 383b 2bdc cdbd f39c 983d
00000290: dadb 4bbd ffee fabc dd35 29bc ae24 963c
000002a0: 0753 073d 4b11 fa3c 27e7 693d f6d9 913d
000002b0: 47dd bcbd 047e 243d 0bdb bb3d 0dc5 ecbc
000002c0: 682d 29bd 85b4 df3c bb00 49bd 3808 93bd
000002d0: b521 ebbc 332b 233d 6834 bc3b d04c 653c
000002e0: 38f0 593b d77f 56bc 1dd3 3abc f5cd 193d
000002f0: 4617 babc 11ed 993d 514a a33d c7c3 0cbd
00000300: 1ced 453d 7229 e6bc 5075 2d3d 72ad 533d
00000310: 4b74 423d 1ffc a93d a2e6 cebc 2917 7bbd
00000320: fde9 a53c ce84 89bd 4456 cd3c e362 ffbd
00000330: a3aa 08bd b5ac 2dbd 3c18 a6bd a8c2 99bd
00000340: 7b83 8b3d 626a d0bd 0891 a8bd c46a f2bc
00000350: 69e7 d2bc 3190 8c3d 1db9 033d 2e07 623d
00000360: 27fc 1a3e 8fa2 1a3e 2982 1e3e 372a cc3c
00000370: 48df 153e 898a 1a3e c29b a73d 2b1d 383e
00000380: 6435 a93d e2b2 173e c8fd 1b3e 45a4 213e
00000390: 1b20 a53c 8696 113e f6fa 183e e97e 9c3d
000003a0: 63d1 423e d165 a93d 01d6 123e 561a 1e3e
000003b0: a33c 1b3e c8cc e13c 480d 193e 363a 173e
000003c0: c1bc a83d c561 3f3e 3276 b93d f435 133e
000003d0: 7808 143e e165 183e 76d4 bb3c f813 0d3e
000003e0: 0cfc 103e fb3e 9c3d a24c 383e 8aca ae3d

inference.model.encoder.model.tcn_block_00.block.conv1d_layer_1.bias f4 [2]
-0.031602535 0.007141457
00000000: a971 01bd e202 ea3b

inference.model.encoder.model.tcn_block_00.block.conv1d_layer_1.weight_g f4 [2, 1, 1]
0.39071596 0.6750071
00000000: ec0b c83e 44cd 2c3f

inference.model.encoder.model.tcn_block_00.block.conv1d_layer_1.weight_v f4 [2, 2, 9]
0.111717746 -0.17189056 -0.1768008 0.0070457775 -0.18449838 0.031437997 0.00736632 -0.2200738
-0.07255743 0.12272319 0.10483707 -0.030030787 -0.20659761 -0.048728615 0.03615008 -0.10472313
0.024948902 0.09775716 -0.23285297 -0.22321907 -0.20539814 -0.20658225 -0.1993163 -0.17385288
-0.20717981 -0.18126135 0.045638382 0.039501466 0.0145766195 0.020928783 0.05179315 -0.05914834
-0.131583 -0.15721273 0.23789677 -0.013137026
00000000: 46cc e43d 1404 30be 450b 35be 44e0 e63b
00000010: 25ed 3cbe 21c5 003d 2c61 f13b 075b 61be
00000020: fd98 94bd 4c56 fb3d d1b4 d63d 2003 f6bc
00000030: 538e 53be a897 47bd 1b12 143d 1579 d6bd
00000040: a461 cc3c e834 c83d 0271 6ebe 8a93 64be
00000050: e453 52be 4c8a 53be 9219 4cbe 7d06 32be
00000060: f226 54be 939c 39be 50ef 3a3d 4acc 213d
00000070: c6d2 6e3c d772 ab3c 0e25 543d 8845 72bd
00000080: b2bd 06be 60fc 20be 369b 733e ae3c 57bc

inference.model.encoder.model.tcn_block_00.downsample.weight f4 [2, 14, 1]
-0.2111355 0.1416698 0.15214427 0.025245447 -0.108061574 -0.12951803 0.23408145 0.23822016
-0.1952076 0.052528385 1.4953644 1.494653 1.4947215 1.4946264 0.23773399 -0.20430389
-0.078624375 0.33004606 -0.40153363 0.28675112 0.27093083 -0.030541936 0.056978244 -0.47717527
1.760406 1.7610483 1.7602936 1.7624669
00000000: e833 58be e311 113e b5cb 1b3e 8acf ce3c
00000010: 634f ddbd 60a0 04be 0cb3 6f3e fcef 733e
00000020: 80e4 47be 0128 573d 1a68 bf3f ca50 bf3f
00000030: 0953 bf3f eb4f bf3f 8a70 733e 0a35 51be
00000040: d105 a1bd ccfb a83e d195 cdbe 0bd1 923e
00000050: 72b7 8a3e 1533 fabc 0562 693d 5150 f4be
00000060: fc54 e13f 086a e13f 4d51 e13f 8498 e13f

inference.model.encoder.model.tcn_block_00.downsample.bias f4 [2]
1.6749132 2.0385156
00000000: 8e63 d63f 0a77 0240

inference.model.encoder.model.tcn_block_01.conv0.bias f4 [2]
0.20151196 0.5663605
00000000: 2759 4e3e 00fd 103f

inference.model.encoder.model.tcn_block_01.conv0.weight_g f4 [2, 1, 1]
0.61515737 0.8239772
00000000: f47a 1d3f 2bf0 523f

inference.model.encoder.model.tcn_block_01.conv0.weight_v f4 [2, 2, 9]
0.32732874 0.3253301 0.10492035 0.11974811 -0.20249517 -0.052932013 -0.17563201 -0.2753166
-0.25298178 -0.13255201 -0.16429459 -0.031883582 0.032910895 -0.09598777 0.027726602 0.08366639
0.13650647 -0.07045288 0.34851408 0.15124422 -0.023588758 0.058096062 0.14056167 0.027483098
-0.15467177 -0.19701459 -0.30996746 0.07041611 -0.0890314 -0.13455793 0.0017038942 0.087035075
-0.18116245 0.1295283 0.010783265 -0.17901666
00000000: a297 a73e ab91 a63e 7be0 d63d 7f3e f53d
00000010: e55a 4fbe 3dcf 58bd e1d8 33be 4cf6 8cbe
00000020: d486 81be b7bb 07be d73c 28be 5c98 02bd
00000030: 93cd 063d 3c95 c4bd e622 e33c 4959 ab3d
00000040: 5ac8 0b3e 9949 90bd 7070 b23e c4df 1a3e
00000050: 363d c1bc 23f6 6d3d 66ef 0f3e 3c24 e13c
00000060: 4762 1ebe 31be 49be 0eb4 9ebe 5236 903d
00000070: 1856 b6bd 8ec9 09be 3455 df3a 723f b23d
00000080: a682 39be 11a3 043e 4bac 303c 2550 37be

inference.model.encoder.model.tcn_block_01.conv1.bias f4 [2]
-0.0013448043 0.0013871663
00000000: 2544 b0ba 94d1 b53a

inference.model.encoder.model.tcn_block_01.conv1.weight_g f4 [2, 1, 1]
0.3326021 0.81608415
00000000: d34a aa3e e4ea 503f

inference.model.encoder.model.tcn_block_01.conv1.weight_v f4 [2, 2, 9]
-0.1253761 -0.008133036 0.1326469 -0.18967813 0.16384432 0.12991577 0.15075716 -0.17845978
0.24210086 -0.13299945 0.29492182 -0.23326854 -0.20086917 0.19684143 0.06969315 0.08325785
-0.07642063 -0.023763701 0.059133407 -0.040152587 0.058104187 0.06445012 0.06968687 0.08777856
0.103878655 0.06792612 0.031937942 0.24256614 0.20340025 0.17321998 0.20876418 0.19733767
0.21055864 0.180809 0.18746379 0.108667195
00000000: 9862 00be 6d40 05bc 97d4 073e fc3a 42be
00000010: cec6 273e a408 053e 1660 1a3e 29be 36be
00000020: 4ae9 773e 0231 08be feff 963e f3dd 6ebe
00000030: a6b0 4dbe cd90 493e 48bb 8e3d 1783 aa3d
00000040: 6b82 9cbd 18ac c2bc df35 723d 0a77 24bd
00000050: a8fe 6d3d 6dfe 833d fdb7 8e3d 3fc5 b33d
00000060: 55be d43d d91c 8b3d 5cd1 023d 4263 783e
00000070: 2848 503e 9460 313e 47c6 553e e312 4a3e
00000080: af9c 573e ff25 393e 82f6 3f3e e88c de3d

inference.model.encoder.model.tcn_block_01.block.conv1d_layer_0.bias f4 [2]
0.20151196 0.5663605
00000000: 2759 4e3e 00fd 103f

inference.model.encoder.model.tcn_block_01.block.conv1d_layer_0.weight_g f4 [2, 1, 1]
0.61515737 0.8239772
00000000: f47a 1d3f 2bf0 523f

inference.model.encoder.model.tcn_block_01.block.conv1d_layer_0.weight_v f4 [2, 2, 9]
0.32732874 0.3253301 0.10492035 0.11974811 -0.20249517 -0.052932013 -0.17563201 -0.2753166
-0.25298178 -0.13255201 -0.16429459 -0.031883582 0.032910895 -0.09598777 0.027726602 0.08366639
0.13650647 -0.07045288 0.34851408 0.15124422 -0.023588758 0.058096062 0.14056167 0.027483098
-0.15467177 -0.19701459 -0.30996746 0.07041611 -0.0890314 -0.13455793 0.0017038942 0.087035075
-0.18116245 0.1295283 0.010783265 -0.17901666
00000000: a297 a73e ab91 a63e 7be0 d63d 7f3e f53d
00000010: e55a 4fbe 3dcf 58bd e1d8 33be 4cf6 8cbe
00000020: d486 81be b7bb 07be d73c 28be 5c98 02bd
00000030: 93cd 063d 3c95 c4bd e622 e33c 4959 ab3d
00000040: 5ac8 0b3e 9949 90bd 7070 b23e c4df 1a3e
00000050: 363d c1bc 23f6 6d3d 66ef 0f3e 3c24 e13c
00000060: 4762 1ebe 31be 49be 0eb4 9ebe 5236 903d
00000070: 1856 b6bd 8ec9 09be 3455 df3a 723f b23d
00000080: a682 39be 11a3 043e 4bac 303c 2550 37be

inference.model.encoder.model.tcn_block_01.block.conv1d_layer_1.bias f4 [2]
-0.0013448043 0.0013871663
00000000: 2544 b0ba 94d1 b53a

inference.model.encoder.model.tcn_block_01.block.conv1d_layer_1.weight_g f4 [2, 1, 1]
0.3326021 0.81608415
00000000: d34a aa3e e4ea 503f

inference.model.encoder.model.tcn_block_01.block.conv1d_layer_1.weight_v f4 [2, 2, 9]
-0.1253761 -0.008133036 0.1326469 -0.18967813 0.16384432 0.12991577 0.15075716 -0.17845978
0.24210086 -0.13299945 0.29492182 -0.23326854 -0.20086917 0.19684143 0.06969315 0.08325785
-0.07642063 -0.023763701 0.059133407 -0.040152587 0.058104187 0.06445012 0.06968687 0.08777856
0.103878655 0.06792612 0.031937942 0.24256614 0.20340025 0.17321998 0.20876418 0.19733767
0.21055864 0.180809 0.18746379 0.108667195
00000000: 9862 00be 6d40 05bc 97d4 073e fc3a 42be
00000010: cec6 273e a408 053e 1660 1a3e 29be 36be
00000020: 4ae9 773e 0231 08be feff 963e f3dd 6ebe
00000030: a6b0 4dbe cd90 493e 48bb 8e3d 1783 aa3d
00000040: 6b82 9cbd 18ac c2bc df35 723d 0a77 24bd
00000050: a8fe 6d3d 6dfe 833d fdb7 8e3d 3fc5 b33d
00000060: 55be d43d d91c 8b3d 5cd1 023d 4263 783e
00000070: 2848 503e 9460 313e 47c6 553e e312 4a3e
00000080: af9c 573e ff25 393e 82f6 3f3e e88c de3d

inference.model.qz_xy_mean.dense(qz_xy_mean)_layer_00.weight f4 [2, 2]
0.9360339 -0.20971279 -0.13715403 -0.48674744
00000000: eb9f 6f3f f3be 56be 1b72 0cbe f636 f9be

inference.model.qz_xy_mean.dense(qz_xy_mean)_layer_00.bias f4 [2]
-0.8046043 1.1938035
00000000: 8cfa 4dbf 8ece 983f

inference.model.qz_xy_logvar.dense(qz_xy_logvar)_layer_00.weight f4 [2, 2]
-1.198489 -0.86145496 -1.018561 -0.6654129
00000000: 1668 99bf 5088 5cbf 3560 82bf 8058 2abf

inference.model.qz_xy_logvar.dense(qz_xy_logvar)_layer_00.bias f4 [2]
-0.23095773 -1.6053379
00000000: 2f80 6cbe b67b cdbf

inference.model.py_t_probs.dense(py_t_probs)_layer_00.weight f4 [4, 2]
0.21440539 -0.1427395 0.2147159 -0.14301397 0.21509437 -0.14367864 0.2140661 -0.14176339
00000000: 168d 5b3e 4e2a 12be 7cde 5b3e 4172 12be
00000010: b341 5c3e 7e20 13be 2534 5b3e 6c2a 11be

inference.model.py_t_probs.dense(py_t_probs)_layer_00.bias f4 [4]
-0.06818495 -0.06890749 -0.070820354 -0.06758497
00000000: 8da4 8bbd 5f1f 8dbd 430a 91bd fd69 8abd

inference.model.pz_t_mean.dense(pz_t_mean)_layer_00.weight f4 [8, 2]
0.9671654 0.09696175 -0.032464188 1.0147718 0.9677577 0.09582105 -0.03293692 1.0185025
0.9690922 0.09730122 -0.032243747 1.0186911 0.9687459 0.09763262 -0.03394762 1.0165784
00000000: 2798 773f e293 c63d 2bf9 04bd 0be4 813f
00000010: f8be 773f d43d c43d dde8 06bd 4a5e 823f
00000020: 6d16 783f dd45 c73d 0512 04bd 7864 823f
00000030: bbff 773f 9cf3 c73d a90c 0bbd 3e1f 823f

inference.model.pz_t_mean.dense(pz_t_mean)_layer_00.bias f4 [8]
0.15062086 0.06055557 0.14707693 0.06046329 0.14898056 0.0641242 0.15199164 0.06617415
00000000: 5b3c 1a3e 1e09 783d 569b 163e 5ba8 773d
00000010: 5c8e 183e 8c53 833d b2a3 1b3e 5086 873d

inference.model.pz_t_logvar.dense(pz_t_logvar)_layer_00.weight f4 [2, 4]
-2.3345957 -2.334503 -2.335139 -2.3300462 -2.2140589 -2.2140067 -2.2148294 -2.2103815
00000000: 046a 15c0 7f68 15c0 eb72 15c0 7a1f 15c0
00000010: 24b3 0dc0 49b2 0dc0 c4bf 0dc0 e476 0dc0

inference.model.pz_t_logvar.dense(pz_t_logvar)_layer_00.bias f4 [2]
-1.9445655 -2.4234211
00000000: 86e7 f8bf 5519 1bc0

inference.model.decoder.dense(decoder)_layer_00.weight f4 [10, 2]
-0.7065226 -0.09637573 0.6408745 0.27160218 0.74416053 -0.10519082 0.008556944 -1.1773542
-0.4017404 1.3520032 -0.5413074 -0.50151724 0.7472661 -1.0761303 0.8183351 -0.43447086
-0.8000925 0.30312556 0.16068251 1.0600678
00000000: aade 34bf a460 c5bd 5a10 243f 710f 8b3e
00000010: 4e81 3e3f 496e d7bd 6d32 0c3c 8bb3 96bf
00000020: ebb0 cdbe 710e ad3f 1f93 0abf 6f63 00bf
00000030: d54c 3f3f a3be 89bf 697e 513f f772 debe
00000040: ddd2 4cbf 4633 9b3e f589 243e 4db0 873f

inference.model.decoder.dense(decoder)_layer_00.bias f4 [10]
0.85560596 -0.5737189 -1.1264577 -1.3025084 2.0283153 0.18634963 -2.1962106 -1.5900054
1.420926 0.94396544
00000000: fe08 5b3f 3edf 12bf c42f 90bf 98b8 a6bf
00000010: ebcf 0140 70d2 3e3e b78e 0cc0 4c85 cbbf
00000020: e7e0 b53f b8a7 713f

generative.model.qy_x.dense(qy_x)_layer_00.weight f4 [4, 10]
-0.004018142 0.24762255 -0.15125608 0.016506461 -0.1353558 -0.09483112 0.057505723 0.0770501
-0.03210912 0.026481595 -0.0035676595 0.24753718 -0.15126158 0.016489133 -0.13250995 -0.09493413
0.06135089 0.07611557 -0.031785373 0.02600125 0.0016300264 0.248467 -0.15110427 0.016296715
-0.09122001 -0.08800849 0.103852004 0.0691762 -0.030732362 0.01604773 -0.0075041777 0.24642484
-0.15144776 0.016617868 -0.16777663 -0.10186664 0.026117858 0.08125258 -0.032009408 0.035311855
00000000: 9eaa 83bb c490 7d3e e0e2 1abe 8f38 873c
00000010: b69a 0abe d136 c2bd 1f8b 6b3d 71cc 9d3d
00000020: da84 03bd eeef d83c 65cf 69bb 637a 7d3e
00000030: 51e4 1abe 3814 873c b0b0 07be d36c c2bd
00000040: 124b 7b3d 7be2 9b3d 6131 02bd 9300 d53c
00000050: 9ca6 d53a 226e 7e3e 14bb 1abe b080 853c
00000060: 8ed1 babd cc3d b4bd 5cb0 d43d 40ac 8d3d
00000070: 6fc2 fbbc 8776 833c 9be5 f5bb cb56 7c3e
00000080: 1f15 1bbe 3222 883c a3cd 2bbe 759f d0bd
00000090: 1ef5 d53c c167 a63d 4c1c 03bd 2aa3 103d

generative.model.qy_x.dense(qy_x)_layer_00.bias f4 [4]
-0.10700757 -0.10700515 -0.10767778 -0.10796203
00000000: c926 dbbd 8425 dbbd 2b86 dcbd 321b ddbd

generative.model.encoder.model.tcn_block_00.conv0.bias f4 [2]
-0.22415137 -0.03912237
00000000: f087 65be c73e 20bd

generative.model.encoder.model.tcn_block_00.conv0.weight_g f4 [2, 1, 1]
0.36461878 0.5836763
00000000: 50af ba3e cf6b 153f
