results_gmdgm/ssm_v1/dtcn/m_v1/version_8/best_val_model.pt (torch, 34951 bytes, 120 tensors)

model.qy_x.dense(qy_x)_layer_00.weight f4 [4, 10]
0.03161139 0.13565679 -0.27759287 -0.15249889 -0.13610318 0.11170036 -0.021196676 0.21974157
0.0044262595 0.055822127 -0.25678146 0.10445732 -0.14815795 -0.19356449 -0.24423008 -0.15108322
0.27414358 0.34695643 -0.368467 0.02643233 0.01867639 0.35658318 0.017920285 0.10679108
-0.13597803 -0.06324934 0.3793207 -0.19619066 -0.29276764 0.016205352 -0.015288749 0.16346982
-0.30209956 -0.029291956 -0.15349351 -0.17916626 -0.27494702 0.17006952 0.24083869 0.005965455
00000000: f27a 013d 9de9 0a3e a720 8ebe ab28 1cbe
00000010: a25e 0bbe 29c3 e43d a7a4 adbc ef03 613e
00000020: 280a 913b bea5 643d dc78 83be b8ed d53d
00000030: b8b6 17be c535 46be 7317 7abe 8fb5 1abe
00000040: 8c5c 8c3e 46a4 b13e b5a7 bcbe 9d88 d83c
00000050: 3bff 983c 1292 b63e 90cd 923c 48b5 da3d
00000060: d33d 0bbe df88 81bd 5336 c23e 34e6 48be
00000070: a4e5 95be 16c1 843c a97d 7abc a264 273e
00000080: cbac 9abe aff5 efbc 672d 1dbe 5c77 37be
00000090: dbc5 8cbe b426 2e3e 6b9e 763e dd79 c33b

model.qy_x.dense(qy_x)_layer_00.bias f4 [4]
-0.16177474 -0.0024423948 -0.069473684 -0.16417132
00000000: 47a8 25be 9610 20bb 3848 8ebd 871c 28be

model.encoder.model.tcn_block_00.conv0.bias f4 [2]
-0.044296276 -0.011835829
00000000: 0370 35bd 11eb 41bc

model.encoder.model.tcn_block_00.conv0.weight_g f4 [2, 1, 1]
0.69703406 0.6596197
00000000: d370 323f d6dc 283f

model.encoder.model.tcn_block_00.conv0.weight_v f4 [2, 14, 9]
-0.09030365 -0.07333099 0.02093552 0.015666705 -0.06867369 -0.034900047 0.01976149 0.051426828
0.0034354576 0.04091044 0.08355077 -0.015026314 0.04859014 -0.033440825 -0.023058305 -0.0090888515
0.06133857 0.05954714 -0.017217143 0.050520066 0.068433404 0.018311193 0.036523283 0.05083491
0.07999735 0.10126461 -0.03734227 -0.060815413 0.008522286 0.048840977 0.055154942 0.058289934
0.0122321015 -0.0637989 0.0133984955 -0.040332913 -0.054180942 0.078145325 0.061733536 -0.08102429
0.0047042817 -0.026167015 -0.02786324 -0.057309747 0.0060407175 -0.08189423 -0.0054670055 0.007108804
0.024188265 -0.001986532 -0.10600306 -0.08117442 0.01095906 -0.005608051 -0.0515979 -0.0325247
0.09226729 0.07381827 -0.011388377 0.005345969 -0.04970112 0.027443722 -0.030357111 -0.037117414
0.0200619 0.04126602 -0.0019026744 0.07656713 -0.019179681 0.10620752 0.08706188 -0.03739834
-0.04491248 -0.024164356 -0.018126655 -0.010722428 0.0023655042 -0.026067944 -0.070758134 0.005522968
-0.10801943 -0.010709662 0.0112523055 -0.0071387324 -0.0024811076 -0.045226324 -0.0025680752 0.028483218
-0.04440405 -0.004774978 0.044575132 -0.030640114 -0.020818084 -0.022402247 -0.008318975 0.020777244
0.056920975 0.018102309 0.039932728 -0.08345771 -0.12015929 -0.09248953 -0.0294619 -0.06740862
-0.089027 -0.114657134 -0.11498859 -0.110078454 -0.047479596 0.010808596 0.00308303 -0.11044907
0.006327821 -0.10783356 -0.05747204 -0.08418179 -0.069504365 -0.052038755 -0.09158638 -0.08841545
-0.04957869 -0.024448445 -0.06474977 -0.024584733 -0.08390865 -0.033126652 0.10349714 0.024962185
0.09881056 0.068153895 -0.019721296 0.06861012 0.021231446 -0.0058476124 0.04193955 -0.10096679
-0.043696973 -0.060600985 0.0072276965 -0.01833056 0.0019141996 0.0010795689 -0.02004857 -0.008626255
-0.10401106 -0.023947677 -0.0070130476 -0.0065081497 -0.08854752 -0.04526407 -0.0837435 -0.06321617
-0.056649946 0.05144713 -0.012154229 -0.0066509186 -0.031564754 -0.02848946 -0.08847605 -0.09786741
-0.1052155 -0.08227035 -0.009478043 0.05905477 0.055650476 0.067736454 0.080957495 0.08480874
0.11215609 0.0995993 0.11874722 0.060016446 -0.00883391 0.0030979465 0.06895659 -0.027455105
0.008217972 0.029579196 0.0015441576 -0.022647168 -0.07648483 -0.029497715 -0.100416824 -0.08873542
-0.099021055 -0.09299013 -0.08226885 -0.021423707 -0.07461937 0.0052180835 -0.016854705 -0.09656789
-0.027835356 -0.10040644 -0.08292597 -0.033547156 -0.02809058 0.0051539997 0.035508674 0.058689106
0.08993609 -0.014919899 0.096302524 -0.0076316665 0.049666904 0.033157524 0.005611105 -0.028515864
0.031500887 -0.019450309 -0.009369127 0.015473938 0.025009047 0.0717351 0.06828816 0.080157466
8.6020096e-05 -0.0062803538 -0.008580338 -0.0035057631 -0.0072224378 -0.0057562958 -0.013517369 -0.023626126
-0.024691466 -0.008797761 -0.014223483 -0.017345784 -0.008815729 -0.0022651858 -0.014322166 -0.010207337
0.026448827 -0.010636389 -0.03811579 -0.038626358 -0.032065775 -0.027225448 -0.027195903 -0.008855614
0.013636275 0.03461034 0.045975897 0.038435344 0.031482372 0.023758814 0.0038873402 -0.00073696894
-0.01108512 -0.011214503 -0.01728103 -0.02399041
00000000: 1ff1 b8bd 8f2e 96bd f880 ab3c 7657 803c
00000010: cba4 8cbd 5af3 0ebd d9e2 a13c f0a4 523d
00000020: 6a25 613b b591 273d ab1c ab3d ee30 76bc
00000030: 7406 473d 3ff9 08bd c5e4 bcbc 68e9 14bc
00000040: 273e 7b3d b4e7 733d f70a 8dbc 21ee 4e3d
00000050: d026 8c3d 5b01 963c 7099 153d 4438 503d
00000060: a7d5 a33d d263 cf3d 35f4 18bd 9519 79bd
00000070: 0fa1 0b3c 7a0d 483d 26ea 613d 6dc1 6e3d
00000080: 2769 483c ffa8 82bd 5d85 5b3c 2034 25bd
00000090: d6ec 5dbd a80a a03d 4edc 7c3d 10f0 a5bd
000000a0: 6026 9a3b 355c d6bc 7341 e4bc a0bd 6abd
000000b0: 36f1 c53b 29b8 a7bd 9124 b3bb f8f0 e83b
000000c0: 7826 c63c 7a30 02bb 2218 d9bd c63e a6bd
000000d0: a18d 333c bec3 b7bb 5258 53bd 9f38 05bd
000000e0: a2f6 bc3d 082e 973d 5196 3abc 3d2d af3b
000000f0: 6793 4bbd a8d1 e03c 7aaf f8bc 6e08 18bd
00000100: db58 a43c 8f06 293d 2963 f9ba 3acf 9c3d
00000110: b51e 9dbc 5483 d93d 804d b23d 002f 19bd
00000120: 26f6 37bd 54f4 c5bc 5a7e 94bc 1fad 2fbc
00000130: 9306 1b3b 718c d5bc a4e9 90bd 03fa b43b
00000140: 4a39 ddbd 9477 2fbc 975b 383c 07ec e9bb
00000150: 149a 22bb 3d3f 39bd 274d 28bb a355 e93c
00000160: 05e1 35bd 6b77 9cbb 6a94 363d fa00 fbbc
00000170: b08a aabc eb84 b7bc 4f4c 08bc 0a35 aa3c
00000180: f825 693d 4b4b 943c 8090 233d e0eb aabd
00000190: 1316 f6bd 276b bdbd 155a f1bc 880d 8abd
000001a0: ca53 b6bd 5cd1 eabd 237f ebbd d070 e1bd
000001b0: f779 42bd 8a16 313c a90c 4a3b 1f33 e2bd
000001c0: 9c59 cf3b d7d7 dcbd cd67 6bbd 8167 acbd
000001d0: 4e58 8ebd 9726 55bd a491 bbbd 2913 b5bd
000001e0: 0613 4bbd 1b48 c8bc 879b 84bd ec65 c9bc
000001f0: 4cd8 abbd d0af 07bd 4ff6 d33d 7f7d cc3c
00000200: 315d ca3d 4594 8b3d 8e8e a1bc 7683 8c3d
00000210: 92ed ad3c 549d bfbb cec8 2b3d adc7 cebd
00000220: 99fb 32bd bd38 78bd 50d6 ec3b f829 96bc
00000230: e1e5 fa3a 5280 8d3a e63c a4bc 2355 0dbc
00000240: c003 d5bd eb2d c4bc b5cd e5bb 5142 d5bb
00000250: 6758 b5bd d166 39bd b681 abbd 7b77 81bd
00000260: c609 68bd 3aba 523d 8822 47bc f3ef d9bb
00000270: 0b4a 01bd ba62 e9bc ee32 b5bd b56e c8bd
00000280: 397b d7bd 5b7d a8bd cb49 1bbc 6ae3 713d
00000290: c1f1 633d 69b9 8a3d 0bcd a53d 34b0 ad3d
000002a0: 18b2 e53d b8fa cb3d be31 f33d ced3 753d
000002b0: 1bbc 10bc eb06 4b3b 1d39 8d3d 87e9 e0bc
000002c0: aca4 063c 1250 f23c 5565 ca3a 8e86 b9bc
000002d0: 14a4 9cbd 31a5 f1bc 56a7 cdbd eaba b5bd
000002e0: 8dcb cabd 9c71 bebd 927c a8bd c580 afbc
000002f0: 0ad2 98bd 75fc aa3b e112 8abc 63c5 c5bd
00000300: f906 e4bc e4a1 cdbd 17d5 a9bd be68 09bd
00000310: 371e e6bc e2e2 a83b 8b71 113d fd63 703d
00000320: 6a30 b83d 9872 74bc 423a c53d 0f13 fabb
00000330: 866f 4b3d 2fd0 073d 5cdd b73b 1a9a e9bc
00000340: 1307 013d 4156 9fbc f880 19bc 6686 7d3c
00000350: c6df cc3c dae9 923d aada 8b3d 9929 a43d
00000360: b065 b438 6dcb cdbb 8c94 0cbc f2c0 65bb
00000370: 33aa ecbb 4f9f bcbb f477 5dbc 948b c1bc
00000380: c245 cabc 7c24 10bc 9d09 69bc bf18 8ebc
00000390: d96f 10bc 8373 14bb 85a7 6abc ad3c 27bc
000003a0: 36ab d83c 4044 2ebc 4d1f 1cbd ac36 1ebd
000003b0: 6757 03bd e707 dfbc f1c9 debc 2317 11bc
000003c0: af6a 5f3c 92c3 0d3d 3951 3c3d 616e 1d3d
000003d0: a9f3 003d d8a1 c23c bfc2 7e3b 2631 41ba
000003e0: 5d9e 35bc 09bd 37bc f290 8dbc 8987 c4bc

model.encoder.model.tcn_block_00.conv1.bias f4 [2]
-0.14845999 0.2676381
00000000: e505 18be dc07 893e

model.encoder.model.tcn_block_00.conv1.weight_g f4 [2, 1, 1]
0.39094317 0.6922168
00000000: b429 c83e 1f35 313f

model.encoder.model.tcn_block_00.conv1.weight_v f4 [2, 2, 9]
0.12591156 -0.120969996 -0.15325063 0.064095646 -0.16115011 0.079330795 0.073630795 -0.2068651
0.06691034 0.12920712 0.12163534 -0.03428157 -0.2021982 -0.042228185 0.09211924 -0.10826759
0.08052862 0.1415784 -0.08094398 -0.03892411 -0.0057676034 -0.03786218 -0.03645318 -0.03421661
-0.12567149 -0.037294604 0.044688135 0.2574332 0.24034585 0.14301836 0.23424858 0.0065163076
-0.07164071 -0.08478364 0.3361918 0.24761632
00000000: f6ee 003e 1ebf f7bd bced 1cbe 9444 833d
00000010: 8904 25be 2f78 a23d becb 963d 72d4 53be
00000020: 4a08 893d df4e 043e f31b f93d d56a 0cbd
00000030: 0c0d 4fbe 76f7 2cbd 03a9 bc3d 66bb ddbd
00000040: 30ec a43d eef9 103e f5c5 a5bd e36e 1fbd
00000050: 2afe bcbb 6015 1bbd ee4f 15bd b726 0cbd
00000060: 07b0 00be 3ac2 18bd e80a 373d 49ce 833e
00000070: 391d 763e 6873 123e dcde 6f3e c086 d53b
00000080: 5db8 92bd 0ca3 adbd 5521 ac3e 228f 7d3e

model.encoder.model.tcn_block_00.block.conv1d_layer_0.bias f4 [2]
-0.044296276 -0.011835829
00000000: 0370 35bd 11eb 41bc

model.encoder.model.tcn_block_00.block.conv1d_layer_0.weight_g f4 [2, 1, 1]
0.69703406 0.6596197
00000000: d370 323f d6dc 283f

model.encoder.model.tcn_block_00.block.conv1d_layer_0.weight_v f4 [2, 14, 9]
-0.09030365 -0.07333099 0.02093552 0.015666705 -0.06867369 -0.034900047 0.01976149 0.051426828
0.0034354576 0.04091044 0.08355077 -0.015026314 0.04859014 -0.033440825 -0.023058305 -0.0090888515
0.06133857 0.05954714 -0.017217143 0.050520066 0.068433404 0.018311193 0.036523283 0.05083491
0.07999735 0.10126461 -0.03734227 -0.060815413 0.008522286 0.048840977 0.055154942 0.058289934
0.0122321015 -0.0637989 0.0133984955 -0.040332913 -0.054180942 0.078145325 0.061733536 -0.08102429
0.0047042817 -0.026167015 -0.02786324 -0.057309747 0.0060407175 -0.08189423 -0.0054670055 0.007108804
0.024188265 -0.001986532 -0.10600306 -0.08117442 0.01095906 -0.005608051 -0.0515979 -0.0325247
0.09226729 0.07381827 -0.011388377 0.005345969 -0.04970112 0.027443722 -0.030357111 -0.037117414
0.0200619 0.04126602 -0.0019026744 0.07656713 -0.019179681 0.10620752 0.08706188 -0.03739834
-0.04491248 -0.024164356 -0.018126655 -0.010722428 0.0023655042 -0.026067944 -0.070758134 0.005522968
-0.10801943 -0.010709662 0.0112523055 -0.0071387324 -0.0024811076 -0.045226324 -0.0025680752 0.028483218
-0.04440405 -0.004774978 0.044575132 -0.030640114 -0.020818084 -0.022402247 -0.008318975 0.020777244
0.056920975 0.018102309 0.039932728 -0.08345771 -0.12015929 -0.09248953 -0.0294619 -0.06740862
-0.089027 -0.114657134 -0.11498859 -0.110078454 -0.047479596 0.010808596 0.00308303 -0.11044907
0.006327821 -0.10783356 -0.05747204 -0.08418179 -0.069504365 -0.052038755 -0.09158638 -0.08841545
-0.04957869 -0.024448445 -0.06474977 -0.024584733 -0.08390865 -0.033126652 0.10349714 0.024962185
0.09881056 0.068153895 -0.019721296 0.06861012 0.021231446 -0.0058476124 0.04193955 -0.10096679
-0.043696973 -0.060600985 0.0072276965 -0.01833056 0.0019141996 0.0010795689 -0.02004857 -0.008626255
-0.10401106 -0.023947677 -0.0070130476 -0.0065081497 -0.08854752 -0.04526407 -0.0837435 -0.06321617
-0.056649946 0.05144713 -0.012154229 -0.0066509186 -0.031564754 -0.02848946 -0.08847605 -0.09786741
-0.1052155 -0.08227035 -0.009478043 0.05905477 0.055650476 0.067736454 0.080957495 0.08480874
0.11215609 0.0995993 0.11874722 0.060016446 -0.00883391 0.0030979465 0.06895659 -0.027455105
0.008217972 0.029579196 0.0015441576 -0.022647168 -0.07648483 -0.029497715 -0.100416824 -0.08873542
-0.099021055 -0.09299013 -0.08226885 -0.021423707 -0.07461937 0.0052180835 -0.016854705 -0.09656789
-0.027835356 -0.10040644 -0.08292597 -0.033547156 -0.02809058 0.0051539997 0.035508674 0.058689106
0.08993609 -0.014919899 0.096302524 -0.0076316665 0.049666904 0.033157524 0.005611105 -0.028515864
0.031500887 -0.019450309 -0.009369127 0.015473938 0.025009047 0.0717351 0.06828816 0.080157466
8.6020096e-05 -0.0062803538 -0.008580338 -0.0035057631 -0.0072224378 -0.0057562958 -0.013517369 -0.023626126
-0.024691466 -0.008797761 -0.014223483 -0.017345784 -0.008815729 -0.0022651858 -0.014322166 -0.010207337
0.026448827 -0.010636389 -0.03811579 -0.038626358 -0.032065775 -0.027225448 -0.027195903 -0.008855614
0.013636275 0.03461034 0.045975897 0.038435344 0.031482372 0.023758814 0.0038873402 -0.00073696894
-0.01108512 -0.011214503 -0.01728103 -0.02399041
00000000: 1ff1 b8bd 8f2e 96bd f880 ab3c 7657 803c
00000010: cba4 8cbd 5af3 0ebd d9e2 a13c f0a4 523d
00000020: 6a25 613b b591 273d ab1c ab3d ee30 76bc
00000030: 7406 473d 3ff9 08bd c5e4 bcbc 68e9 14bc
00000040: 273e 7b3d b4e7 733d f70a 8dbc 21ee 4e3d
00000050: d026 8c3d 5b01 963c 7099 153d 4438 503d
00000060: a7d5 a33d d263 cf3d 35f4 18bd 9519 79bd
00000070: 0fa1 0b3c 7a0d 483d 26ea 613d 6dc1 6e3d
00000080: 2769 483c ffa8 82bd 5d85 5b3c 2034 25bd
00000090: d6ec 5dbd a80a a03d 4edc 7c3d 10f0 a5bd
000000a0: 6026 9a3b 355c d6bc 7341 e4bc a0bd 6abd
000000b0: 36f1 c53b 29b8 a7bd 9124 b3bb f8f0 e83b
000000c0: 7826 c63c 7a30 02bb 2218 d9bd c63e a6bd
000000d0: a18d 333c bec3 b7bb 5258 53bd 9f38 05bd
000000e0: a2f6 bc3d 082e 973d 5196 3abc 3d2d af3b
000000f0: 6793 4bbd a8d1 e03c 7aaf f8bc 6e08 18bd
00000100: db58 a43c 8f06 293d 2963 f9ba 3acf 9c3d
00000110: b51e 9dbc 5483 d93d 804d b23d 002f 19bd
00000120: 26f6 37bd 54f4 c5bc 5a7e 94bc 1fad 2fbc
00000130: 9306 1b3b 718c d5bc a4e9 90bd 03fa b43b
00000140: 4a39 ddbd 9477 2fbc 975b 383c 07ec e9bb
00000150: 149a 22bb 3d3f 39bd 274d 28bb a355 e93c
00000160: 05e1 35bd 6b77 9cbb 6a94 363d fa00 fbbc
00000170: b08a aabc eb84 b7bc 4f4c 08bc 0a35 aa3c
00000180: f825 693d 4b4b 943c 8090 233d e0eb aabd
00000190: 1316 f6bd 276b bdbd 155a f1bc 880d 8abd
000001a0: ca53 b6bd 5cd1 eabd 237f ebbd d070 e1bd
000001b0: f779 42bd 8a16 313c a90c 4a3b 1f33 e2bd
000001c0: 9c59 cf3b d7d7 dcbd cd67 6bbd 8167 acbd
000001d0: 4e58 8ebd 9726 55bd a491 bbbd 2913 b5bd
000001e0: 0613 4bbd 1b48 c8bc 879b 84bd ec65 c9bc
000001f0: 4cd8 abbd d0af 07bd 4ff6 d33d 7f7d cc3c
00000200: 315d ca3d 4594 8b3d 8e8e a1bc 7683 8c3d
00000210: 92ed ad3c 549d bfbb cec8 2b3d adc7 cebd
00000220: 99fb 32bd bd38 78bd 50d6 ec3b f829 96bc
00000230: e1e5 fa3a 5280 8d3a e63c a4bc 2355 0dbc
00000240: c003 d5bd eb2d c4bc b5cd e5bb 5142 d5bb
00000250: 6758 b5bd d166 39bd b681 abbd 7b77 81bd
00000260: c609 68bd 3aba 523d 8822 47bc f3ef d9bb
00000270: 0b4a 01bd ba62 e9bc ee32 b5bd b56e c8bd
00000280: 397b d7bd 5b7d a8bd cb49 1bbc 6ae3 713d
00000290: c1f1 633d 69b9 8a3d 0bcd a53d 34b0 ad3d
000002a0: 18b2 e53d b8fa cb3d be31 f33d ced3 753d
000002b0: 1bbc 10bc eb06 4b3b 1d39 8d3d 87e9 e0bc
000002c0: aca4 063c 1250 f23c 5565 ca3a 8e86 b9bc
000002d0: 14a4 9cbd 31a5 f1bc 56a7 cdbd eaba b5bd
000002e0: 8dcb cabd 9c71 bebd 927c a8bd c580 afbc
000002f0: 0ad2 98bd 75fc aa3b e112 8abc 63c5 c5bd
00000300: f906 e4bc e4a1 cdbd 17d5 a9bd be68 09bd
00000310: 371e e6bc e2e2 a83b 8b71 113d fd63 703d
00000320: 6a30 b83d 9872 74bc 423a c53d 0f13 fabb
00000330: 866f 4b3d 2fd0 073d 5cdd b73b 1a9a e9bc
00000340: 1307 013d 4156 9fbc f880 19bc 6686 7d3c
00000350: c6df cc3c dae9 923d aada 8b3d 9929 a43d
00000360: b065 b438 6dcb cdbb 8c94 0cbc f2c0 65bb
00000370: 33aa ecbb 4f9f bcbb f477 5dbc 948b c1bc
00000380: c245 cabc 7c24 10bc 9d09 69bc bf18 8ebc
00000390: d96f 10bc 8373 14bb 85a7 6abc ad3c 27bc
000003a0: 36ab d83c 4044 2ebc 4d1f 1cbd ac36 1ebd
000003b0: 6757 03bd e707 dfbc f1c9 debc 2317 11bc
000003c0: af6a 5f3c 92c3 0d3d 3951 3c3d 616e 1d3d
000003d0: a9f3 003d d8a1 c23c bfc2 7e3b 2631 41ba
000003e0: 5d9e 35bc 09bd 37bc f290 8dbc 8987 c4bc

model.encoder.model.tcn_block_00.block.conv1d_layer_1.bias f4 [2]
-0.14845999 0.2676381
00000000: e505 18be dc07 893e

model.encoder.model.tcn_block_00.block.conv1d_layer_1.weight_g f4 [2, 1, 1]
0.39094317 0.6922168
00000000: b429 c83e 1f35 313f

model.encoder.model.tcn_block_00.block.conv1d_layer_1.weight_v f4 [2, 2, 9]
0.12591156 -0.120969996 -0.15325063 0.064095646 -0.16115011 0.079330795 0.073630795 -0.2068651
0.06691034 0.12920712 0.12163534 -0.03428157 -0.2021982 -0.042228185 0.09211924 -0.10826759
0.08052862 0.1415784 -0.08094398 -0.03892411 -0.0057676034 -0.03786218 -0.03645318 -0.03421661
-0.12567149 -0.037294604 0.044688135 0.2574332 0.24034585 0.14301836 0.23424858 0.0065163076
-0.07164071 -0.08478364 0.3361918 0.24761632
00000000: f6ee 003e 1ebf f7bd bced 1cbe 9444 833d
00000010: 8904 25be 2f78 a23d becb 963d 72d4 53be
00000020: 4a08 893d df4e 043e f31b f93d d56a 0cbd
00000030: 0c0d 4fbe 76f7 2cbd 03a9 bc3d 66bb ddbd
00000040: 30ec a43d eef9 103e f5c5 a5bd e36e 1fbd
00000050: 2afe bcbb 6015 1bbd ee4f 15bd b726 0cbd
00000060: 07b0 00be 3ac2 18bd e80a 373d 49ce 833e
00000070: 391d 763e 6873 123e dcde 6f3e c086 d53b
00000080: 5db8 92bd 0ca3 adbd 5521 ac3e 228f 7d3e

model.encoder.model.tcn_block_00.downsample.weight f4 [2, 14, 1]
0.051676117 -0.045115367 -0.055954713 -0.17729332 0.1689721 0.023148876 -0.12806815 -0.10269236
0.08019567 0.11916849 0.086572744 0.21539292 0.04025209 0.15421651 0.1731375 -0.17332284
-0.15805961 -0.054260403 0.18453225 0.1539017 -0.1824002 -0.17757407 0.1947281 -0.033110127
0.1735649 0.23350354 0.19621448 0.2257332
00000000: 56aa 533d e4ca 38bd c530 65bd 618c 35be
00000010: 0607 2d3e b6a2 bd3c 4c24 03be 5f50 d2bd
00000020: a13d a43d 9c0e f43d 0d4d b13d f68f 5c3e
00000030: 60df 243d efea 1d3e f54a 313e 8b7b 31be
00000040: 61da 21be 2840 5ebd 06f6 3c3e 6898 1d3e
00000050: 1ec7 3abe fad5 35be ce66 473e 7c9e 07bd
00000060: ffba 313e 8d1b 6f3e 73ec 483e 9b26 673e

model.encoder.model.tcn_block_00.downsample.bias f4 [2]
0.2919044 0.47880426
00000000: 7e74 953e d525 f53e

model.encoder.model.tcn_block_01.conv0.bias f4 [2]
0.18145514 0.15617546
00000000: 60cf 393e 76ec 1f3e

model.encoder.model.tcn_block_01.conv0.weight_g f4 [2, 1, 1]
0.68226284 0.6247935
00000000: c7a8 2e3f 78f2 1f3f

model.encoder.model.tcn_block_01.conv0.weight_v f4 [2, 2, 9]
0.13040671 0.3187174 0.14198367 0.24120976 0.015067444 0.3647253 0.20825918 0.011966098
0.3189243 -0.107316315 -0.12313309 0.056373555 0.19889629 -0.02725276 0.11304046 0.16146071
0.1105833 -0.12632574 -0.07064897 -0.11787831 -0.22971343 -0.044831738 0.12949657 0.1500082
-0.02205837 0.0075669866 -0.14485933 0.13069314 -0.14054431 -0.20386747 -0.0051386086 0.09606488
-0.25092492 0.16785789 0.03748146 -0.20649561
00000000: 5689 053e ed2e a33e 2b64 113e b1ff 763e
00000010: 71dd 763c 46bd ba3e e541 553e 740d 443c
00000020: 0c4a a33e a8c8 dbbd 342d fcbd f5e7 663d
00000030: 78ab 4b3e 2e41 dfbc c281 e73d f555 253e
00000040: 7f79 e23d 895b 01be 68b0 90bd 2f6a f1bd
00000050: ff39 6bbe 7ca1 37bd c09a 043e c09b 193e
00000060: c1b3 b4bc 7cf4 f73b 0156 14be 6cd4 053e
00000070: d9ea 0fbe a2c2 50be c661 a8bb aabd c43d
00000080: 3b79 80be f0e2 2b3e 2986 193d 9673 53be

model.encoder.model.tcn_block_01.conv1.bias f4 [2]
0.05863493 0.39533213
00000000: 2e2b 703d f968 ca3e

model.encoder.model.tcn_block_01.conv1.weight_g f4 [2, 1, 1]
0.55123997 0.6335873
00000000: 101e 0d3f c732 223f

model.encoder.model.tcn_block_01.conv1.weight_v f4 [2, 2, 9]
-0.21847707 -0.10065977 0.039120145 -0.26896456 0.08885207 0.0662588 0.08681639 -0.22839603
0.17119095 -0.14826943 0.31065485 -0.2511701 -0.22247109 0.21674609 0.07113313 0.06801601
-0.12295498 -0.078036115 0.078376606 -0.07528645 0.16999942 0.19848466 0.16023806 0.20627227
0.2542058 0.15110326 0.015785446 -0.0045575737 -0.030493408 -0.04216144 -0.0063822037 -0.008621052
0.031554345 -0.015214978 0.10064877 -0.044911
00000000: 74b8 5fbe b626 cebd 723c 203d b9b5 89be
00000010: 13f8 b53d b2b2 873d cbcc b13d a6e0 69be
00000020: ae4c 2f3e f1d3 17be 270e 9f3e 5e99 80be
00000030: 76cf 63be b0f2 5d3e 3fae 913d fa4b 8b3d
00000040: d2cf fbbd 66d1 9fbd ea83 a03d c82f 9abd
00000050: 5414 2e3e 903f 4b3e 7215 243e 0a39 533e
00000060: 4327 823e d0ba 1a3e 7b50 813c b357 95bb
00000070: 50cd f9bc 79b1 2cbd ce21 d1bb 503f 0dbc
00000080: 213f 013d 3e48 79bc f120 ce3d 99f4 37bd

model.encoder.model.tcn_block_01.block.conv1d_layer_0.bias f4 [2]
0.18145514 0.15617546
00000000: 60cf 393e 76ec 1f3e

model.encoder.model.tcn_block_01.block.conv1d_layer_0.weight_g f4 [2, 1, 1]
0.68226284 0.6247935
00000000: c7a8 2e3f 78f2 1f3f

model.encoder.model.tcn_block_01.block.conv1d_layer_0.weight_v f4 [2, 2, 9]
0.13040671 0.3187174 0.14198367 0.24120976 0.015067444 0.3647253 0.20825918 0.011966098
0.3189243 -0.107316315 -0.12313309 0.056373555 0.19889629 -0.02725276 0.11304046 0.16146071
0.1105833 -0.12632574 -0.07064897 -0.11787831 -0.22971343 -0.044831738 0.12949657 0.1500082
-0.02205837 0.0075669866 -0.14485933 0.13069314 -0.14054431 -0.20386747 -0.0051386086 0.09606488
-0.25092492 0.16785789 0.03748146 -0.20649561
00000000: 5689 053e ed2e a33e 2b64 113e b1ff 763e
00000010: 71dd 763c 46bd ba3e e541 553e 740d 443c
00000020: 0c4a a33e a8c8 dbbd 342d fcbd f5e7 663d
00000030: 78ab 4b3e 2e41 dfbc c281 e73d f555 253e
00000040: 7f79 e23d 895b 01be 68b0 90bd 2f6a f1bd
00000050: ff39 6bbe 7ca1 37bd c09a 043e c09b 193e
00000060: c1b3 b4bc 7cf4 f73b 0156 14be 6cd4 053e
00000070: d9ea 0fbe a2c2 50be c661 a8bb aabd c43d
00000080: 3b79 80be f0e2 2b3e 2986 193d 9673 53be

model.encoder.model.tcn_block_01.block.conv1d_layer_1.bias f4 [2]
0.05863493 0.39533213
00000000: 2e2b 703d f968 ca3e

model.encoder.model.tcn_block_01.block.conv1d_layer_1.weight_g f4 [2, 1, 1]
0.55123997 0.6335873
00000000: 101e 0d3f c732 223f

model.encoder.model.tcn_block_01.block.conv1d_layer_1.weight_v f4 [2, 2, 9]
-0.21847707 -0.10065977 0.039120145 -0.26896456 0.08885207 0.0662588 0.08681639 -0.22839603
0.17119095 -0.14826943 0.31065485 -0.2511701 -0.22247109 0.21674609 0.07113313 0.06801601
-0.12295498 -0.078036115 0.078376606 -0.07528645 0.16999942 0.19848466 0.16023806 0.20627227
0.2542058 0.15110326 0.015785446 -0.0045575737 -0.030493408 -0.04216144 -0.0063822037 -0.008621052
0.031554345 -0.015214978 0.10064877 -0.044911
00000000: 74b8 5fbe b626 cebd 723c 203d b9b5 89be
00000010: 13f8 b53d b2b2 873d cbcc b13d a6e0 69be
00000020: ae4c 2f3e f1d3 17be 270e 9f3e 5e99 80be
00000030: 76cf 63be b0f2 5d3e 3fae 913d fa4b 8b3d
00000040: d2cf fbbd 66d1 9fbd ea83 a03d c82f 9abd
00000050: 5414 2e3e 903f 4b3e 7215 243e 0a39 533e
00000060: 4327 823e d0ba 1a3e 7b50 813c b357 95bb
00000070: 50cd f9bc 79b1 2cbd ce21 d1bb 503f 0dbc
00000080: 213f 013d 3e48 79bc f120 ce3d 99f4 37bd

model.qz_xy_mean.dense(qz_xy_mean)_layer_00.weight f4 [2, 2]
0.25608072 0.017153393 0.1389831 0.09456919
00000000: 031d 833e 4685 8c3c 9651 0e3e 7ead c13d

model.qz_xy_mean.dense(qz_xy_mean)_layer_00.bias f4 [2]
0.5067889 0.16172247
00000000: ebbc 013f 939a 253e

model.qz_xy_logvar.dense(qz_xy_logvar)_layer_00.weight f4 [2, 2]
-0.7586136 -0.71777797 0.058991786 -0.26467422
00000000: 8034 42bf 4cc0 37bf 5fa1 713d 6183 87be

model.qz_xy_logvar.dense(qz_xy_logvar)_layer_00.bias f4 [2]
0.2320109 -0.9204056
00000000: 4494 6d3e b49f 6bbf

model.py_t_probs.dense(py_t_probs)_layer_00.weight f4 [4, 2]
-0.5456261 0.21438415 0.3356384 -0.48676914 0.41751698 -0.31057185 0.42970634 0.034838617
00000000: 27ae 0bbf 8587 5b3e ccd8 ab3e ce39 f9be
00000010: c9c4 d53e 4603 9fbe 7802 dc3e f0b2 0e3d

model.py_t_probs.dense(py_t_probs)_layer_00.bias f4 [4]
0.7650201 -0.72608423 -0.5354301 0.37627286
00000000: 5bd8 433f a8e0 39bf f211 09bf d6a6 c03e

model.pz_t_mean.dense(pz_t_mean)_layer_00.weight f4 [8, 2]
0.7836497 0.24716215 1.0782284 0.079863966 0.64880294 -0.20584011 0.4011597 -0.05349522
-0.044487845 0.12912865 -0.009696805 0.27928895 -0.15440264 0.0030160444 0.811068 0.32642454
00000000: 449d 483f 1318 7d3e 6303 8a3f b88f a33d
00000010: f317 263f c0c7 52be ce64 cd3e ce1d 5bbd
00000020: e338 36bd 4d3a 043e 59df 1ebc f6fe 8e3e
00000030: ba1b 1ebe d4a8 453b 27a2 4f3f 1e21 a73e

model.pz_t_mean.dense(pz_t_mean)_layer_00.bias f4 [8]
-0.22250482 0.2955693 -0.09989891 -0.15550016 0.6030893 0.41721007 0.6367784 0.072043724
00000000: 4ed8 63be dc54 973e cd97 ccbd 6f3b 1fbe
00000010: 0f64 1a3f 8f9c d53e e903 233f a98b 933d

model.pz_t_logvar.dense(pz_t_logvar)_layer_00.weight f4 [2, 4]
-0.43741572 -0.055872988 -0.90820557 0.085530095 0.06455569 -0.3263896 -0.8435073 -0.5179451
00000000: f4f4 dfbe 13db 64bd 2980 68bf 672a af3d
00000010: c635 843d 8a1c a7be 18f0 57bf 0d98 04bf

model.pz_t_logvar.dense(pz_t_logvar)_layer_00.bias f4 [2]
0.073623784 -0.37320477
00000000: 11c8 963d b214 bfbe

model.decoder.dense(decoder)_layer_00.weight f4 [10, 2]
0.09284485 0.5143497 -0.03898869 -0.31260544 0.34024006 -0.10306734 -0.25762674 -0.17071515
0.12683052 0.40965757 -0.41912568 0.4776016 -0.23279311 -0.68374217 -0.09895083 -0.6200584
0.28296757 0.1712418 -0.22071588 0.17248483
00000000: 7125 be3d 6cac 033f 9bb2 1fbd d20d a0be
00000010: f233 ae3e f814 d3bd a7e7 83be f4cf 2ebe
00000020: dcdf 013e a3be d13e a497 d6be 3288 f43e
00000030: 5161 6ebe ba09 2fbf bca6 cabd 26bc 1ebf
00000040: 20e1 903e 035a 2f3e 5803 62be dd9f 303e

model.decoder.dense(decoder)_layer_00.bias f4 [10]
-0.43740195 0.19452614 -0.23375513 0.31786364 -0.2507981 -0.013161016 0.6142896 0.4604978
-0.28072837 0.04385951
00000000: 26f3 dfbe dc31 473e 815d 6fbe 06bf a23e
00000010: 9c68 80be 4da1 57bc 1542 1d3f 5ec6 eb3e
00000020: a1bb 8fbe 08a6 333d

inference.model.qy_x.dense(qy_x)_layer_00.weight f4 [4, 10]
0.03161139 0.13565679 -0.27759287 -0.15249889 -0.13610318 0.11170036 -0.021196676 0.21974157
0.0044262595 0.055822127 -0.25678146 0.10445732 -0.14815795 -0.19356449 -0.24423008 -0.15108322
0.27414358 0.34695643 -0.368467 0.02643233 0.01867639 0.35658318 0.017920285 0.10679108
-0.13597803 -0.06324934 0.3793207 -0.19619066 -0.29276764 0.016205352 -0.015288749 0.16346982
-0.30209956 -0.029291956 -0.15349351 -0.17916626 -0.27494702 0.17006952 0.24083869 0.005965455
00000000: f27a 013d 9de9 0a3e a720 8ebe ab28 1cbe
00000010: a25e 0bbe 29c3 e43d a7a4 adbc ef03 613e
00000020: 280a 913b bea5 643d dc78 83be b8ed d53d
00000030: b8b6 17be c535 46be 7317 7abe 8fb5 1abe
00000040: 8c5c 8c3e 46a4 b13e b5a7 bcbe 9d88 d83c
00000050: 3bff 983c 1292 b63e 90cd 923c 48b5 da3d
00000060: d33d 0bbe df88 81bd 5336 c23e 34e6 48be
00000070: a4e5 95be 16c1 843c a97d 7abc a264 273e
00000080: cbac 9abe aff5 efbc 672d 1dbe 5c77 37be
00000090: dbc5 8cbe b426 2e3e 6b9e 763e dd79 c33b

inference.model.qy_x.dense(qy_x)_layer_00.bias f4 [4]
-0.16177474 -0.0024423948 -0.069473684 -0.16417132
00000000: 47a8 25be 9610 20bb 3848 8ebd 871c 28be

inference.model.encoder.model.tcn_block_00.conv0.bias f4 [2]
-0.044296276 -0.011835829
00000000: 0370 35bd 11eb 41bc

inference.model.encoder.model.tcn_block_00.conv0.weight_g f4 [2, 1, 1]
0.69703406 0.6596197
00000000: d370 323f d6dc 283f

inference.model.encoder.model.tcn_block_00.conv0.weight_v f4 [2, 14, 9]
-0.09030365 -0.07333099 0.02093552 0.015666705 -0.06867369 -0.034900047 0.01976149 0.051426828
0.0034354576 0.04091044 0.08355077 -0.015026314 0.04859014 -0.033440825 -0.023058305 -0.0090888515
0.06133857 0.05954714 -0.017217143 0.050520066 0.068433404 0.018311193 0.036523283 0.05083491
0.07999735 0.10126461 -0.03734227 -0.060815413 0.008522286 0.048840977 0.055154942 0.058289934
0.0122321015 -0.0637989 0.0133984955 -0.040332913 -0.054180942 0.078145325 0.061733536 -0.08102429
0.0047042817 -0.026167015 -0.02786324 -0.057309747 0.0060407175 -0.08189423 -0.0054670055 0.007108804
0.024188265 -0.001986532 -0.10600306 -0.08117442 0.01095906 -0.005608051 -0.0515979 -0.0325247
0.09226729 0.07381827 -0.011388377 0.005345969 -0.04970112 0.027443722 -0.030357111 -0.037117414
0.0200619 0.04126602 -0.0019026744 0.07656713 -0.019179681 0.10620752 0.08706188 -0.03739834
-0.04491248 -0.024164356 -0.018126655 -0.010722428 0.0023655042 -0.026067944 -0.070758134 0.005522968
-0.10801943 -0.010709662 0.0112523055 -0.0071387324 -0.0024811076 -0.045226324 -0.0025680752 0.028483218
-0.04440405 -0.004774978 0.044575132 -0.030640114 -0.020818084 -0.022402247 -0.008318975 0.020777244
0.056920975 0.018102309 0.039932728 -0.08345771 -0.12015929 -0.09248953 -0.0294619 -0.06740862
-0.089027 -0.114657134 -0.11498859 -0.110078454 -0.047479596 0.010808596 0.00308303 -0.11044907
0.006327821 -0.10783356 -0.05747204 -0.08418179 -0.069504365 -0.052038755 -0.09158638 -0.08841545
-0.04957869 -0.024448445 -0.06474977 -0.024584733 -0.08390865 -0.033126652 0.10349714 0.024962185
0.09881056 0.068153895 -0.019721296 0.06861012 0.021231446 -0.0058476124 0.04193955 -0.10096679
-0.043696973 -0.060600985 0.0072276965 -0.01833056 0.0019141996 0.0010795689 -0.02004857 -0.008626255
-0.10401106 -0.023947677 -0.0070130476 -0.0065081497 -0.08854752 -0.04526407 -0.0837435 -0.06321617
-0.056649946 0.05144713 -0.012154229 -0.0066509186 -0.031564754 -0.02848946 -0.08847605 -0.09786741
-0.1052155 -0.08227035 -0.009478043 0.05905477 0.055650476 0.067736454 0.080957495 0.08480874
0.11215609 0.0995993 0.11874722 0.060016446 -0.00883391 0.0030979465 0.06895659 -0.027455105
0.008217972 0.029579196 0.0015441576 -0.022647168 -0.07648483 -0.029497715 -0.100416824 -0.08873542
-0.099021055 -0.09299013 -0.08226885 -0.021423707 -0.07461937 0.0052180835 -0.016854705 -0.09656789
-0.027835356 -0.10040644 -0.08292597 -0.033547156 -0.02809058 0.0051539997 0.035508674 0.058689106
0.08993609 -0.014919899 0.096302524 -0.0076316665 0.049666904 0.033157524 0.005611105 -0.028515864
0.031500887 -0.019450309 -0.009369127 0.015473938 0.025009047 0.0717351 0.06828816 0.080157466
8.6020096e-05 -0.0062803538 -0.008580338 -0.0035057631 -0.0072224378 -0.0057562958 -0.013517369 -0.023626126
-0.024691466 -0.008797761 -0.014223483 -0.017345784 -0.008815729 -0.0022651858 -0.014322166 -0.010207337
0.026448827 -0.010636389 -0.03811579 -0.038626358 -0.032065775 -0.027225448 -0.027195903 -0.008855614
0.013636275 0.03461034 0.045975897 0.038435344 0.031482372 0.023758814 0.0038873402 -0.00073696894
-0.01108512 -0.011214503 -0.01728103 -0.02399041
00000000: 1ff1 b8bd 8f2e 96bd f880 ab3c 7657 803c
00000010: cba4 8cbd 5af3 0ebd d9e2 a13c f0a4 523d
00000020: 6a25 613b b591 273d ab1c ab3d ee30 76bc
00000030: 7406 473d 3ff9 08bd c5e4 bcbc 68e9 14bc
00000040: 273e 7b3d b4e7 733d f70a 8dbc 21ee 4e3d
00000050: d026 8c3d 5b01 963c 7099 153d 4438 503d
00000060: a7d5 a33d d263 cf3d 35f4 18bd 9519 79bd
00000070: 0fa1 0b3c 7a0d 483d 26ea 613d 6dc1 6e3d
00000080: 2769 483c ffa8 82bd 5d85 5b3c 2034 25bd
00000090: d6ec 5dbd a80a a03d 4edc 7c3d 10f0 a5bd
000000a0: 6026 9a3b 355c d6bc 7341 e4bc a0bd 6abd
000000b0: 36f1 c53b 29b8 a7bd 9124 b3bb f8f0 e83b
000000c0: 7826 c63c 7a30 02bb 2218 d9bd c63e a6bd
000000d0: a18d 333c bec3 b7bb 5258 53bd 9f38 05bd
000000e0: a2f6 bc3d 082e 973d 5196 3abc 3d2d af3b
000000f0: 6793 4bbd a8d1 e03c 7aaf f8bc 6e08 18bd
00000100: db58 a43c 8f06 293d 2963 f9ba 3acf 9c3d
00000110: b51e 9dbc 5483 d93d 804d b23d 002f 19bd
00000120: 26f6 37bd 54f4 c5bc 5a7e 94bc 1fad 2fbc
00000130: 9306 1b3b 718c d5bc a4e9 90bd 03fa b43b
00000140: 4a39 ddbd 9477 2fbc 975b 383c 07ec e9bb
00000150: 149a 22bb 3d3f 39bd 274d 28bb a355 e93c
00000160: 05e1 35bd 6b77 9cbb 6a94 363d fa00 fbbc
00000170: b08a aabc eb84 b7bc 4f4c 08bc 0a35 aa3c
00000180: f825 693d 4b4b 943c 8090 233d e0eb aabd
00000190: 1316 f6bd 276b bdbd 155a f1bc 880d 8abd
000001a0: ca53 b6bd 5cd1 eabd 237f ebbd d070 e1bd
000001b0: f779 42bd 8a16 313c a90c 4a3b 1f33 e2bd
000001c0: 9c59 cf3b d7d7 dcbd cd67 6bbd 8167 acbd
000001d0: 4e58 8ebd 9726 55bd a491 bbbd 2913 b5bd
000001e0: 0613 4bbd 1b48 c8bc 879b 84bd ec65 c9bc
000001f0: 4cd8 abbd d0af 07bd 4ff6 d33d 7f7d cc3c
00000200: 315d ca3d 4594 8b3d 8e8e a1bc 7683 8c3d
00000210: 92ed ad3c 549d bfbb cec8 2b3d adc7 cebd
00000220: 99fb 32bd bd38 78bd 50d6 ec3b f829 96bc
00000230: e1e5 fa3a 5280 8d3a e63c a4bc 2355 0dbc
00000240: c003 d5bd eb2d c4bc b5cd e5bb 5142 d5bb
00000250: 6758 b5bd d166 39bd b681 abbd 7b77 81bd
00000260: c609 68bd 3aba 523d 8822 47bc f3ef d9bb
00000270: 0b4a 01bd ba62 e9bc ee32 b5bd b56e c8bd
00000280: 397b d7bd 5b7d a8bd cb49 1bbc 6ae3 713d
00000290: c1f1 633d 69b9 8a3d 0bcd a53d 34b0 ad3d
000002a0: 18b2 e53d b8fa cb3d be31 f33d ced3 753d
000002b0: 1bbc 10bc eb06 4b3b 1d39 8d3d 87e9 e0bc
000002c0: aca4 063c 1250 f23c 5565 ca3a 8e86 b9bc
000002d0: 14a4 9cbd 31a5 f1bc 56a7 cdbd eaba b5bd
000002e0: 8dcb cabd 9c71 bebd 927c a8bd c580 afbc
000002f0: 0ad2 98bd 75fc aa3b e112 8abc 63c5 c5bd
00000300: f906 e4bc e4a1 cdbd 17d5 a9bd be68 09bd
00000310: 371e e6bc e2e2 a83b 8b71 113d fd63 703d
00000320: 6a30 b83d 9872 74bc 423a c53d 0f13 fabb
00000330: 866f 4b3d 2fd0 073d 5cdd b73b 1a9a e9bc
00000340: 1307 013d 4156 9fbc f880 19bc 6686 7d3c
00000350: c6df cc3c dae9 923d aada 8b3d 9929 a43d
00000360: b065 b438 6dcb cdbb 8c94 0cbc f2c0 65bb
00000370: 33aa ecbb 4f9f bcbb f477 5dbc 948b c1bc
00000380: c245 cabc 7c24 10bc 9d09 69bc bf18 8ebc
00000390: d96f 10bc 8373 14bb 85a7 6abc ad3c 27bc
000003a0: 36ab d83c 4044 2ebc 4d1f 1cbd ac36 1ebd
000003b0: 6757 03bd e707 dfbc f1c9 debc 2317 11bc
000003c0: af6a 5f3c 92c3 0d3d 3951 3c3d 616e 1d3d
000003d0: a9f3 003d d8a1 c23c bfc2 7e3b 2631 41ba
000003e0: 5d9e 35bc 09bd 37bc f290 8dbc 8987 c4bc

inference.model.encoder.model.tcn_block_00.conv1.bias f4 [2]
-0.14845999 0.2676381
00000000: e505 18be dc07 893e

inference.model.encoder.model.tcn_block_00.conv1.weight_g f4 [2, 1, 1]
0.39094317 0.6922168
00000000: b429 c83e 1f35 313f

inference.model.encoder.model.tcn_block_00.conv1.weight_v f4 [2, 2, 9]
0.12591156 -0.120969996 -0.15325063 0.064095646 -0.16115011 0.079330795 0.073630795 -0.2068651
0.06691034 0.12920712 0.12163534 -0.03428157 -0.2021982 -0.042228185 0.09211924 -0.10826759
0.08052862 0.1415784 -0.08094398 -0.03892411 -0.0057676034 -0.03786218 -0.03645318 -0.03421661
-0.12567149 -0.037294604 0.044688135 0.2574332 0.24034585 0.14301836 0.23424858 0.0065163076
-0.07164071 -0.08478364 0.3361918 0.24761632
00000000: f6ee 003e 1ebf f7bd bced 1cbe 9444 833d
00000010: 8904 25be 2f78 a23d becb 963d 72d4 53be
00000020: 4a08 893d df4e 043e f31b f93d d56a 0cbd
00000030: 0c0d 4fbe 76f7 2cbd 03a9 bc3d 66bb ddbd
00000040: 30ec a43d eef9 103e f5c5 a5bd e36e 1fbd
00000050: 2afe bcbb 6015 1bbd ee4f 15bd b726 0cbd
00000060: 07b0 00be 3ac2 18bd e80a 373d 49ce 833e
00000070: 391d 763e 6873 123e dcde 6f3e c086 d53b
00000080: 5db8 92bd 0ca3 adbd 5521 ac3e 228f 7d3e

inference.model.encoder.model.tcn_block_00.block.conv1d_layer_0.bias f4 [2]
-0.044296276 -0.011835829
00000000: 0370 35bd 11eb 41bc

inference.model.encoder.model.tcn_block_00.block.conv1d_layer_0.weight_g f4 [2, 1, 1]
0.69703406 0.6596197
00000000: d370 323f d6dc 283f

inference.model.encoder.model.tcn_block_00.block.conv1d_layer_0.weight_v f4 [2, 14, 9]
-0.09030365 -0.07333099 0.02093552 0.015666705 -0.06867369 -0.034900047 0.01976149 0.051426828
0.0034354576 0.04091044 0.08355077 -0.015026314 0.04859014 -0.033440825 -0.023058305 -0.0090888515
0.06133857 0.05954714 -0.017217143 0.050520066 0.068433404 0.018311193 0.036523283 0.05083491
0.07999735 0.10126461 -0.03734227 -0.060815413 0.008522286 0.048840977 0.055154942 0.058289934
0.0122321015 -0.0637989 0.0133984955 -0.040332913 -0.054180942 0.078145325 0.061733536 -0.08102429
0.0047042817 -0.026167015 -0.02786324 -0.057309747 0.0060407175 -0.08189423 -0.0054670055 0.007108804
0.024188265 -0.001986532 -0.10600306 -0.08117442 0.01095906 -0.005608051 -0.0515979 -0.0325247
0.09226729 0.07381827 -0.011388377 0.005345969 -0.04970112 0.027443722 -0.030357111 -0.037117414
0.0200619 0.04126602 -0.0019026744 0.07656713 -0.019179681 0.10620752 0.08706188 -0.03739834
-0.04491248 -0.024164356 -0.018126655 -0.010722428 0.0023655042 -0.026067944 -0.070758134 0.005522968
-0.10801943 -0.010709662 0.0112523055 -0.0071387324 -0.0024811076 -0.045226324 -0.0025680752 0.028483218
-0.04440405 -0.004774978 0.044575132 -0.030640114 -0.020818084 -0.022402247 -0.008318975 0.020777244
0.056920975 0.018102309 0.039932728 -0.08345771 -0.12015929 -0.09248953 -0.0294619 -0.06740862
-0.089027 -0.114657134 -0.11498859 -0.110078454 -0.047479596 0.010808596 0.00308303 -0.11044907
0.006327821 -0.10783356 -0.05747204 -0.08418179 -0.069504365 -0.052038755 -0.09158638 -0.08841545
-0.04957869 -0.024448445 -0.06474977 -0.024584733 -0.08390865 -0.033126652 0.10349714 0.024962185
0.09881056 0.068153895 -0.019721296 0.06861012 0.021231446 -0.0058476124 0.04193955 -0.10096679
-0.043696973 -0.060600985 0.0072276965 -0.01833056 0.0019141996 0.0010795689 -0.02004857 -0.008626255
-0.10401106 -0.023947677 -0.0070130476 -0.0065081497 -0.08854752 -0.04526407 -0.0837435 -0.06321617
-0.056649946 0.05144713 -0.012154229 -0.0066509186 -0.031564754 -0.02848946 -0.08847605 -0.09786741
-0.1052155 -0.08227035 -0.009478043 0.05905477 0.055650476 0.067736454 0.080957495 0.08480874
0.11215609 0.0995993 0.11874722 0.060016446 -0.00883391 0.0030979465 0.06895659 -0.027455105
0.008217972 0.029579196 0.0015441576 -0.022647168 -0.07648483 -0.029497715 -0.100416824 -0.08873542
-0.099021055 -0.09299013 -0.08226885 -0.021423707 -0.07461937 0.0052180835 -0.016854705 -0.09656789
-0.027835356 -0.10040644 -0.08292597 -0.033547156 -0.02809058 0.0051539997 0.035508674 0.058689106
0.08993609 -0.014919899 0.096302524 -0.0076316665 0.049666904 0.033157524 0.005611105 -0.028515864
0.031500887 -0.019450309 -0.009369127 0.015473938 0.025009047 0.0717351 0.06828816 0.080157466
8.6020096e-05 -0.0062803538 -0.008580338 -0.0035057631 -0.0072224378 -0.0057562958 -0.013517369 -0.023626126
-0.024691466 -0.008797761 -0.014223483 -0.017345784 -0.008815729 -0.0022651858 -0.014322166 -0.010207337
0.026448827 -0.010636389 -0.03811579 -0.038626358 -0.032065775 -0.027225448 -0.027195903 -0.008855614
0.013636275 0.03461034 0.045975897 0.038435344 0.031482372 0.023758814 0.0038873402 -0.00073696894
-0.01108512 -0.011214503 -0.01728103 -0.02399041
00000000: 1ff1 b8bd 8f2e 96bd f880 ab3c 7657 803c
00000010: cba4 8cbd 5af3 0ebd d9e2 a13c f0a4 523d
00000020: 6a25 613b b591 273d ab1c ab3d ee30 76bc
00000030: 7406 473d 3ff9 08bd c5e4 bcbc 68e9 14bc
00000040: 273e 7b3d b4e7 733d f70a 8dbc 21ee 4e3d
00000050: d026 8c3d 5b01 963c 7099 153d 4438 503d
00000060: a7d5 a33d d263 cf3d 35f4 18bd 9519 79bd
00000070: 0fa1 0b3c 7a0d 483d 26ea 613d 6dc1 6e3d
00000080: 2769 483c ffa8 82bd 5d85 5b3c 2034 25bd
00000090: d6ec 5dbd a80a a03d 4edc 7c3d 10f0 a5bd
000000a0: 6026 9a3b 355c d6bc 7341 e4bc a0bd 6abd
000000b0: 36f1 c53b 29b8 a7bd 9124 b3bb f8f0 e83b
000000c0: 7826 c63c 7a30 02bb 2218 d9bd c63e a6bd
000000d0: a18d 333c bec3 b7bb 5258 53bd 9f38 05bd
000000e0: a2f6 bc3d 082e 973d 5196 3abc 3d2d af3b
000000f0: 6793 4bbd a8d1 e03c 7aaf f8bc 6e08 18bd
00000100: db58 a43c 8f06 293d 2963 f9ba 3acf 9c3d
00000110: b51e 9dbc 5483 d93d 804d b23d 002f 19bd
00000120: 26f6 37bd 54f4 c5bc 5a7e 94bc 1fad 2fbc
00000130: 9306 1b3b 718c d5bc a4e9 90bd 03fa b43b
00000140: 4a39 ddbd 9477 2fbc 975b 383c 07ec e9bb
00000150: 149a 22bb 3d3f 39bd 274d 28bb a355 e93c
00000160: 05e1 35bd 6b77 9cbb 6a94 363d fa00 fbbc
00000170: b08a aabc eb84 b7bc 4f4c 08bc 0a35 aa3c
00000180: f825 693d 4b4b 943c 8090 233d e0eb aabd
00000190: 1316 f6bd 276b bdbd 155a f1bc 880d 8abd
000001a0: ca53 b6bd 5cd1 eabd 237f ebbd d070 e1bd
000001b0: f779 42bd 8a16 313c a90c 4a3b 1f33 e2bd
000001c0: 9c59 cf3b d7d7 dcbd cd67 6bbd 8167 acbd
000001d0: 4e58 8ebd 9726 55bd a491 bbbd 2913 b5bd
000001e0: 0613 4bbd 1b48 c8bc 879b 84bd ec65 c9bc
000001f0: 4cd8 abbd d0af 07bd 4ff6 d33d 7f7d cc3c
00000200: 315d ca3d 4594 8b3d 8e8e a1bc 7683 8c3d
00000210: 92ed ad3c 549d bfbb cec8 2b3d adc7 cebd
00000220: 99fb 32bd bd38 78bd 50d6 ec3b f829 96bc
00000230: e1e5 fa3a 5280 8d3a e63c a4bc 2355 0dbc
00000240: c003 d5bd eb2d c4bc b5cd e5bb 5142 d5bb
00000250: 6758 b5bd d166 39bd b681 abbd 7b77 81bd
00000260: c609 68bd 3aba 523d 8822 47bc f3ef d9bb
00000270: 0b4a 01bd ba62 e9bc ee32 b5bd b56e c8bd
00000280: 397b d7bd 5b7d a8bd cb49 1bbc 6ae3 713d
00000290: c1f1 633d 69b9 8a3d 0bcd a53d 34b0 ad3d
000002a0: 18b2 e53d b8fa cb3d be31 f33d ced3 753d
000002b0: 1bbc 10bc eb06 4b3b 1d39 8d3d 87e9 e0bc
000002c0: aca4 063c 1250 f23c 5565 ca3a 8e86 b9bc
000002d0: 14a4 9cbd 31a5 f1bc 56a7 cdbd eaba b5bd
000002e0: 8dcb cabd 9c71 bebd 927c a8bd c580 afbc
000002f0: 0ad2 98bd 75fc aa3b e112 8abc 63c5 c5bd
00000300: f906 e4bc e4a1 cdbd 17d5 a9bd be68 09bd
00000310: 371e e6bc e2e2 a83b 8b71 113d fd63 703d
00000320: 6a30 b83d 9872 74bc 423a c53d 0f13 fabb
00000330: 866f 4b3d 2fd0 073d 5cdd b73b 1a9a e9bc
00000340: 1307 013d 4156 9fbc f880 19bc 6686 7d3c
00000350: c6df cc3c dae9 923d aada 8b3d 9929 a43d
00000360: b065 b438 6dcb cdbb 8c94 0cbc f2c0 65bb
00000370: 33aa ecbb 4f9f bcbb f477 5dbc 948b c1bc
00000380: c245 cabc 7c24 10bc 9d09 69bc bf18 8ebc
00000390: d96f 10bc 8373 14bb 85a7 6abc ad3c 27bc
000003a0: 36ab d83c 4044 2ebc 4d1f 1cbd ac36 1ebd
000003b0: 6757 03bd e707 dfbc f1c9 debc 2317 11bc
000003c0: af6a 5f3c 92c3 0d3d 3951 3c3d 616e 1d3d
000003d0: a9f3 003d d8a1 c23c bfc2 7e3b 2631 41ba
000003e0: 5d9e 35bc 09bd 37bc f290 8dbc 8987 c4bc

inference.model.encoder.model.tcn_block_00.block.conv1d_layer_1.bias f4 [2]
-0.14845999 0.2676381
00000000: e505 18be dc07 893e

inference.model.encoder.model.tcn_block_00.block.conv1d_layer_1.weight_g f4 [2, 1, 1]
0.39094317 0.6922168
00000000: b429 c83e 1f35 313f

inference.model.encoder.model.tcn_block_00.block.conv1d_layer_1.weight_v f4 [2, 2, 9]
0.12591156 -0.120969996 -0.15325063 0.064095646 -0.16115011 0.079330795 0.073630795 -0.2068651
0.06691034 0.12920712 0.12163534 -0.03428157 -0.2021982 -0.042228185 0.09211924 -0.10826759
0.08052862 0.1415784 -0.08094398 -0.03892411 -0.0057676034 -0.03786218 -0.03645318 -0.03421661
-0.12567149 -0.037294604 0.044688135 0.2574332 0.24034585 0.14301836 0.23424858 0.0065163076
-0.07164071 -0.08478364 0.3361918 0.24761632
00000000: f6ee 003e 1ebf f7bd bced 1cbe 9444 833d
00000010: 8904 25be 2f78 a23d becb 963d 72d4 53be
00000020: 4a08 893d df4e 043e f31b f93d d56a 0cbd
00000030: 0c0d 4fbe 76f7 2cbd 03a9 bc3d 66bb ddbd
00000040: 30ec a43d eef9 103e f5c5 a5bd e36e 1fbd
00000050: 2afe bcbb 6015 1bbd ee4f 15bd b726 0cbd
00000060: 07b0 00be 3ac2 18bd e80a 373d 49ce 833e
00000070: 391d 763e 6873 123e dcde 6f3e c086 d53b
00000080: 5db8 92bd 0ca3 adbd 5521 ac3e 228f 7d3e

inference.model.encoder.model.tcn_block_00.downsample.weight f4 [2, 14, 1]
0.051676117 -0.045115367 -0.055954713 -0.17729332 0.1689721 0.023148876 -0.12806815 -0.10269236
0.08019567 0.11916849 0.086572744 0.21539292 0.04025209 0.15421651 0.1731375 -0.17332284
-0.15805961 -0.054260403 0.18453225 0.1539017 -0.1824002 -0.17757407 0.1947281 -0.033110127
0.1735649 0.23350354 0.19621448 0.2257332
00000000: 56aa 533d e4ca 38bd c530 65bd 618c 35be
00000010: 0607 2d3e b6a2 bd3c 4c24 03be 5f50 d2bd
00000020: a13d a43d 9c0e f43d 0d4d b13d f68f 5c3e
00000030: 60df 243d efea 1d3e f54a 313e 8b7b 31be
00000040: 61da 21be 2840 5ebd 06f6 3c3e 6898 1d3e
00000050: 1ec7 3abe fad5 35be ce66 473e 7c9e 07bd
00000060: ffba 313e 8d1b 6f3e 73ec 483e 9b26 673e

inference.model.encoder.model.tcn_block_00.downsample.bias f4 [2]
0.2919044 0.47880426
00000000: 7e74 953e d525 f53e

inference.model.encoder.model.tcn_block_01.conv0.bias f4 [2]
0.18145514 0.15617546
00000000: 60cf 393e 76ec 1f3e

inference.model.encoder.model.tcn_block_01.conv0.weight_g f4 [2, 1, 1]
0.68226284 0.6247935
00000000: c7a8 2e3f 78f2 1f3f

inference.model.encoder.model.tcn_block_01.conv0.weight_v f4 [2, 2, 9]
0.13040671 0.3187174 0.14198367 0.24120976 0.015067444 0.3647253 0.20825918 0.011966098
0.3189243 -0.107316315 -0.12313309 0.056373555 0.19889629 -0.02725276 0.11304046 0.16146071
0.1105833 -0.12632574 -0.07064897 -0.11787831 -0.22971343 -0.044831738 0.12949657 0.1500082
-0.02205837 0.0075669866 -0.14485933 0.13069314 -0.14054431 -0.20386747 -0.0051386086 0.09606488
-0.25092492 0.16785789 0.03748146 -0.20649561
00000000: 5689 053e ed2e a33e 2b64 113e b1ff 763e
00000010: 71dd 763c 46bd ba3e e541 553e 740d 443c
00000020: 0c4a a33e a8c8 dbbd 342d fcbd f5e7 663d
00000030: 78ab 4b3e 2e41 dfbc c281 e73d f555 253e
00000040: 7f79 e23d 895b 01be 68b0 90bd 2f6a f1bd
00000050: ff39 6bbe 7ca1 37bd c09a 043e c09b 193e
00000060: c1b3 b4bc 7cf4 f73b 0156 14be 6cd4 053e
00000070: d9ea 0fbe a2c2 50be c661 a8bb aabd c43d
00000080: 3b79 80be f0e2 2b3e 2986 193d 9673 53be

inference.model.encoder.model.tcn_block_01.conv1.bias f4 [2]
0.05863493 0.39533213
00000000: 2e2b 703d f968 ca3e

inference.model.encoder.model.tcn_block_01.conv1.weight_g f4 [2, 1, 1]
0.55123997 0.6335873
00000000: 101e 0d3f c732 223f

inference.model.encoder.model.tcn_block_01.conv1.weight_v f4 [2, 2, 9]
-0.21847707 -0.10065977 0.039120145 -0.26896456 0.08885207 0.0662588 0.08681639 -0.22839603
0.17119095 -0.14826943 0.31065485 -0.2511701 -0.22247109 0.21674609 0.07113313 0.06801601
-0.12295498 -0.078036115 0.078376606 -0.07528645 0.16999942 0.19848466 0.16023806 0.20627227
0.2542058 0.15110326 0.015785446 -0.0045575737 -0.030493408 -0.04216144 -0.0063822037 -0.008621052
0.031554345 -0.015214978 0.10064877 -0.044911
00000000: 74b8 5fbe b626 cebd 723c 203d b9b5 89be
00000010: 13f8 b53d b2b2 873d cbcc b13d a6e0 69be
00000020: ae4c 2f3e f1d3 17be 270e 9f3e 5e99 80be
00000030: 76cf 63be b0f2 5d3e 3fae 913d fa4b 8b3d
00000040: d2cf fbbd 66d1 9fbd ea83 a03d c82f 9abd
00000050: 5414 2e3e 903f 4b3e 7215 243e 0a39 533e
00000060: 4327 823e d0ba 1a3e 7b50 813c b357 95bb
00000070: 50cd f9bc 79b1 2cbd ce21 d1bb 503f 0dbc
00000080: 213f 013d 3e48 79bc f120 ce3d 99f4 37bd

inference.model.encoder.model.tcn_block_01.block.conv1d_layer_0.bias f4 [2]
0.18145514 0.15617546
00000000: 60cf 393e 76ec 1f3e

inference.model.encoder.model.tcn_block_01.block.conv1d_layer_0.weight_g f4 [2, 1, 1]
0.68226284 0.6247935
00000000: c7a8 2e3f 78f2 1f3f

inference.model.encoder.model.tcn_block_01.block.conv1d_layer_0.weight_v f4 [2, 2, 9]
0.13040671 0.3187174 0.14198367 0.24120976 0.015067444 0.3647253 0.20825918 0.011966098
0.3189243 -0.107316315 -0.12313309 0.056373555 0.19889629 -0.02725276 0.11304046 0.16146071
0.1105833 -0.12632574 -0.07064897 -0.11787831 -0.22971343 -0.044831738 0.12949657 0.1500082
-0.02205837 0.0075669866 -0.14485933 0.13069314 -0.14054431 -0.20386747 -0.0051386086 0.09606488
-0.25092492 0.16785789 0.03748146 -0.20649561
00000000: 5689 053e ed2e a33e 2b64 113e b1ff 763e
00000010: 71dd 763c 46bd ba3e e541 553e 740d 443c
00000020: 0c4a a33e a8c8 dbbd 342d fcbd f5e7 663d
00000030: 78ab 4b3e 2e41 dfbc c281 e73d f555 253e
00000040: 7f79 e23d 895b 01be 68b0 90bd 2f6a f1bd
00000050: ff39 6bbe 7ca1 37bd c09a 043e c09b 193e
00000060: c1b3 b4bc 7cf4 f73b 0156 14be 6cd4 053e
00000070: d9ea 0fbe a2c2 50be c661 a8bb aabd c43d
00000080: 3b79 80be f0e2 2b3e 2986 193d 9673 53be

inference.model.encoder.model.tcn_block_01.block.conv1d_layer_1.bias f4 [2]
0.05863493 0.39533213
00000000: 2e2b 703d f968 ca3e

inference.model.encoder.model.tcn_block_01.block.conv1d_layer_1.weight_g f4 [2, 1, 1]
0.55123997 0.6335873
00000000: 101e 0d3f c732 223f

inference.model.encoder.model.tcn_block_01.block.conv1d_layer_1.weight_v f4 [2, 2, 9]
-0.21847707 -0.10065977 0.039120145 -0.26896456 0.08885207 0.0662588 0.08681639 -0.22839603
0.17119095 -0.14826943 0.31065485 -0.2511701 -0.22247109 0.21674609 0.07113313 0.06801601
-0.12295498 -0.078036115 0.078376606 -0.07528645 0.16999942 0.19848466 0.16023806 0.20627227
0.2542058 0.15110326 0.015785446 -0.0045575737 -0.030493408 -0.04216144 -0.0063822037 -0.008621052
0.031554345 -0.015214978 0.10064877 -0.044911
00000000: 74b8 5fbe b626 cebd 723c 203d b9b5 89be
00000010: 13f8 b53d b2b2 873d cbcc b13d a6e0 69be
00000020: ae4c 2f3e f1d3 17be 270e 9f3e 5e99 80be
00000030: 76cf 63be b0f2 5d3e 3fae 913d fa4b 8b3d
00000040: d2cf fbbd 66d1 9fbd ea83 a03d c82f 9abd
00000050: 5414 2e3e 903f 4b3e 7215 243e 0a39 533e
00000060: 4327 823e d0ba 1a3e 7b50 813c b357 95bb
00000070: 50cd f9bc 79b1 2cbd ce21 d1bb 503f 0dbc
00000080: 213f 013d 3e48 79bc f120 ce3d 99f4 37bd

inference.model.qz_xy_mean.dense(qz_xy_mean)_layer_00.weight f4 [2, 2]
0.25608072 0.017153393 0.1389831 0.09456919
00000000: 031d 833e 4685 8c3c 9651 0e3e 7ead c13d

inference.model.qz_xy_mean.dense(qz_xy_mean)_layer_00.bias f4 [2]
0.5067889 0.16172247
00000000: ebbc 013f 939a 253e

inference.model.qz_xy_logvar.dense(qz_xy_logvar)_layer_00.weight f4 [2, 2]
-0.7586136 -0.71777797 0.058991786 -0.26467422
00000000: 8034 42bf 4cc0 37bf 5fa1 713d 6183 87be

inference.model.qz_xy_logvar.dense(qz_xy_logvar)_layer_00.bias f4 [2]
0.2320109 -0.9204056
00000000: 4494 6d3e b49f 6bbf

inference.model.py_t_probs.dense(py_t_probs)_layer_00.weight f4 [4, 2]
-0.5456261 0.21438415 0.3356384 -0.48676914 0.41751698 -0.31057185 0.42970634 0.034838617
00000000: 27ae 0bbf 8587 5b3e ccd8 ab3e ce39 f9be
00000010: c9c4 d53e 4603 9fbe 7802 dc3e f0b2 0e3d

inference.model.py_t_probs.dense(py_t_probs)_layer_00.bias f4 [4]
0.7650201 -0.72608423 -0.5354301 0.37627286
00000000: 5bd8 433f a8e0 39bf f211 09bf d6a6 c03e

inference.model.pz_t_mean.dense(pz_t_mean)_layer_00.weight f4 [8, 2]
0.7836497 0.24716215 1.0782284 0.079863966 0.64880294 -0.20584011 0.4011597 -0.05349522
-0.044487845 0.12912865 -0.009696805 0.27928895 -0.15440264 0.0030160444 0.811068 0.32642454
00000000: 449d 483f 1318 7d3e 6303 8a3f b88f a33d
00000010: f317 263f c0c7 52be ce64 cd3e ce1d 5bbd
00000020: e338 36bd 4d3a 043e 59df 1ebc f6fe 8e3e
00000030: ba1b 1ebe d4a8 453b 27a2 4f3f 1e21 a73e

inference.model.pz_t_mean.dense(pz_t_mean)_layer_00.bias f4 [8]
-0.22250482 0.2955693 -0.09989891 -0.15550016 0.6030893 0.41721007 0.6367784 0.072043724
00000000: 4ed8 63be dc54 973e cd97 ccbd 6f3b 1fbe
00000010: 0f64 1a3f 8f9c d53e e903 233f a98b 933d

inference.model.pz_t_logvar.dense(pz_t_logvar)_layer_00.weight f4 [2, 4]
-0.43741572 -0.055872988 -0.90820557 0.085530095 0.06455569 -0.3263896 -0.8435073 -0.5179451
00000000: f4f4 dfbe 13db 64bd 2980 68bf 672a af3d
00000010: c635 843d 8a1c a7be 18f0 57bf 0d98 04bf

inference.model.pz_t_logvar.dense(pz_t_logvar)_layer_00.bias f4 [2]
0.073623784 -0.37320477
00000000: 11c8 963d b214 bfbe

inference.model.decoder.dense(decoder)_layer_00.weight f4 [10, 2]
0.09284485 0.5143497 -0.03898869 -0.31260544 0.34024006 -0.10306734 -0.25762674 -0.17071515
0.12683052 0.40965757 -0.41912568 0.4776016 -0.23279311 -0.68374217 -0.09895083 -0.6200584
0.28296757 0.1712418 -0.22071588 0.17248483
00000000: 7125 be3d 6cac 033f 9bb2 1fbd d20d a0be
00000010: f233 ae3e f814 d3bd a7e7 83be f4cf 2ebe
00000020: dcdf 013e a3be d13e a497 d6be 3288 f43e
00000030: 5161 6ebe ba09 2fbf bca6 cabd 26bc 1ebf
00000040: 20e1 903e 035a 2f3e 5803 62be dd9f 303e

inference.model.decoder.dense(decoder)_layer_00.bias f4 [10]
-0.43740195 0.19452614 -0.23375513 0.31786364 -0.2507981 -0.013161016 0.6142896 0.4604978
-0.28072837 0.04385951
00000000: 26f3 dfbe dc31 473e 815d 6fbe 06bf a23e
00000010: 9c68 80be 4da1 57bc 1542 1d3f 5ec6 eb3e
00000020: a1bb 8fbe 08a6 333d

generative.model.qy_x.dense(qy_x)_layer_00.weight f4 [4, 10]
0.03161139 0.13565679 -0.27759287 -0.15249889 -0.13610318 0.11170036 -0.021196676 0.21974157
0.0044262595 0.055822127 -0.25678146 0.10445732 -0.14815795 -0.19356449 -0.24423008 -0.15108322
0.27414358 0.34695643 -0.368467 0.02643233 0.01867639 0.35658318 0.017920285 0.10679108
-0.13597803 -0.06324934 0.3793207 -0.19619066 -0.29276764 0.016205352 -0.015288749 0.16346982
-0.30209956 -0.029291956 -0.15349351 -0.17916626 -0.27494702 0.17006952 0.24083869 0.005965455
00000000: f27a 013d 9de9 0a3e a720 8ebe ab28 1cbe
00000010: a25e 0bbe 29c3 e43d a7a4 adbc ef03 613e
00000020: 280a 913b bea5 643d dc78 83be b8ed d53d
00000030: b8b6 17be c535 46be 7317 7abe 8fb5 1abe
00000040: 8c5c 8c3e 46a4 b13e b5a7 bcbe 9d88 d83c
00000050: 3bff 983c 1292 b63e 90cd 923c 48b5 da3d
00000060: d33d 0bbe df88 81bd 5336 c23e 34e6 48be
00000070: a4e5 95be 16c1 843c a97d 7abc a264 273e
00000080: cbac 9abe aff5 efbc 672d 1dbe 5c77 37be
00000090: dbc5 8cbe b426 2e3e 6b9e 763e dd79 c33b

generative.model.qy_x.dense(qy_x)_layer_00.bias f4 [4]
-0.16177474 -0.0024423948 -0.069473684 -0.16417132
00000000: 47a8 25be 9610 20bb 3848 8ebd 871c 28be

generative.model.encoder.model.tcn_block_00.conv0.bias f4 [2]
-0.044296276 -0.011835829
00000000: 0370 35bd 11eb 41bc

generative.model.encoder.model.tcn_block_00.conv0.weight_g f4 [2, 1, 1]
0.69703406 0.6596197
00000000: d370 323f d6dc 283f
