results_gmdgm/ssm_v1/dtcn/h_v4/version_0/best_val_model.pt (torch, 58663 bytes, 204 tensors)

model.qy_x.model.tcn_block_00.conv0.bias f4 [2]
0.025586076 0.11822259
00000000: e499 d13c af1e f23d

model.qy_x.model.tcn_block_00.conv0.weight_g f4 [2, 1, 1]
0.68538874 0.8363942
00000000: a375 2f3f ee1d 563f

model.qy_x.model.tcn_block_00.conv0.weight_v f4 [2, 10, 9]
-0.09232054 -0.039571956 -0.16256101 -0.1532467 -0.123295605 -0.059710786 -0.07882894 -0.0004958686
-0.067495786 0.11695212 0.062783726 0.0722848 -0.0060389503 0.021255128 0.040921446 0.07120691
0.08199862 0.08091306 0.02492787 0.051694334 0.13014215 0.1676464 0.07621498 0.15306047
0.07380908 0.09019168 0.108128816 -0.09874349 -0.076476686 -0.05047087 -0.04788748 0.03506758
-0.043997217 -0.025547247 -0.03098035 -0.04117047 -0.017322231 0.061175346 0.026452893 0.020113984
-0.016033517 -0.05670484 -0.02901448 -0.09762361 -0.09505238 -0.1389417 -0.028659537 -0.031358026
-0.11427636 -0.07740632 -0.013008898 0.025167603 -0.01945426 -0.030389963 0.06871646 -0.00385681
0.060272027 -0.00681652 0.01174593 0.03916688 0.12200806 0.1293242 0.042625137 0.09572421
0.122983195 0.07989416 0.09837447 0.11831963 0.1520563 0.16976747 0.015211735 0.054237105
-0.048189458 -0.0089657605 -0.0058430037 -0.0050478764 -0.07447302 -0.16243608 -0.082011245 -0.13419285
-0.12472697 0.11516724 0.10157778 -0.02349679 0.055385657 0.024991702 0.015185089 -0.0118334405
0.027969 -0.03545836 0.033454303 0.04329978 0.052591458 0.062767416 0.07211616 0.08819357
0.104051314 0.12410677 0.12612213 -0.046412963 -0.055890936 -0.06643772 -0.07213121 -0.082219824
-0.09514913 -0.111047015 -0.13079515 -0.15142648 -0.019847326 -0.031137843 -0.042958472 -0.05414571
-0.06190614 -0.07248818 -0.088305235 -0.10468182 -0.12529527 0.102710806 0.09919337 0.098369025
0.0985719 0.09819679 0.08770034 0.10512847 0.06850339 0.081573844 -0.10581267 -0.100373946
-0.09019929 -0.08926428 -0.073341504 -0.05714101 -0.07037996 -0.05251018 -0.02490005 0.06449864
0.07060928 0.07706991 0.082520224 0.08930724 0.10012818 0.11413806 0.13182725 0.14757271
0.033474118 0.037378486 0.05070556 0.02755032 0.0058757183 -0.010053538 -0.023190323 -0.030106833
-0.028048268 0.014350375 0.00060665724 -0.02904453 -0.02604132 -0.04322769 -0.052283846 -0.067585185
-0.0854575 -0.10579581 -0.0045611593 0.009576722 0.023069315 0.0352884 0.048380546 0.061200257
0.0758996 0.095590524 0.11638638 -0.09976658 -0.0877613 -0.09807786 -0.097252525 -0.09353421
-0.10688535 -0.11417438 -0.08907828 -0.12992279
00000000: 8d12 bdbd 3416 22bd 6576 26be b4ec 1cbe
00000010: 6882 fcbd 4c93 74bd 1171 a1bd 2efd 01ba
00000020: 3b3b 8abd 9884 ef3d c194 803d 0e0a 943d
00000030: 63e2 c5bb 3c1f ae3c 3f9d 273d eed4 913d
00000040: e4ee a73d bfb5 a53d 8835 cc3c 70bd 533d
00000050: fc43 053e 7fab 2b3e 9916 9c3d e2bb 1c3e
00000060: 3729 973d 6ab6 b83d a472 dd3d 073a cabd
00000070: cf9f 9cbd 8bba 4ebd aa25 44bd 06a3 0f3d
00000080: 6d36 34bd 7648 d1bc 81ca fdbc 5ea2 28bd
00000090: 5ae7 8dbc 0093 7a3d bdb3 d83c 15c6 a43c
000000a0: b958 83bc 5643 68bd c6af edbc e3ee c7bd
000000b0: d2aa c2bd bc46 0ebe 68c7 eabc 4671 00bd
000000c0: b909 eabd 3487 9ebd 4623 55bc 4a2c ce3c
000000d0: 8a5e 9fbc 5ff4 f8bc 37bb 8c3d 89c2 7cbb
000000e0: cddf 763d 1d5d dfbb 0072 403c 736d 203d
000000f0: 5ddf f93d 906d 043e b297 2e3d 0e0b c43d
00000100: 9dde fb3d 8d9f a33d 8e78 c93d 9051 f23d
00000110: a6b4 1b3e 86d7 2d3e a43a 793c ba27 5e3d
00000120: 4f62 45bd 20e5 12bc ab76 bfbb a868 a5bb
00000130: 5085 98bd a555 26be 83f5 a7bd da69 09be
00000140: db70 ffbd cddc eb3d 0308 d03d 577c c0bc
00000150: 12dc 623d 66bb cc3c e1ca 783c 0ce1 41bc
00000160: 3f1f e53c c93c 11bd 6107 093d 1c5b 313d
00000170: 246a 573d 348c 803d a3b1 933d d59e b43d
00000180: db18 d53d b12b fe3d 2926 013e 851b 3ebd
00000190: e5ed 64bd 8010 88bd 87b9 93bd de62 a8bd
000001a0: 8cdd c2bd 9e6c e3bd 2aef 05be 8b0f 1bbe
000001b0: dc96 a2bc ca14 ffbc 39f5 2fbd e4c7 5dbd
000001c0: 4b91 7dbd af74 94bd 60d9 b4bd 6c63 d6bd
000001d0: 674d 00be 0b5a d23d e525 cb3d b375 c93d
000001e0: 10e0 c93d 661b c93d 3c9c b33d 984d d73d
000001f0: 814b 8c3d 3010 a73d 50b4 d8bd db90 cdbd
00000200: 68ba b8bd 31d0 b6bd 1234 96bd b10c 6abd
00000210: 5e23 90bd ea14 57bd 31fb cbbc dd17 843d
00000220: 999b 903d d4d6 9d3d 5d00 a93d b7e6 b63d
00000230: 0110 cd3d 37c1 e93d b9fd 063e 4d1d 173e
00000240: 281c 093d 2f1a 193d a2b0 4f3d 35b1 e13c
00000250: 1989 c03b 98b7 24bc a2f9 bdbc 9ba2 f6bc
00000260: 7bc5 e5bc d61d 6b3c 1408 1f3a cbee edbc
00000270: 9b54 d5bc 850f 31bd 9627 56bd 1a6a 8abd
00000280: 5704 afbd 79ab d8bd c775 95bb afe7 1c3c
00000290: dcfb bc3c 928a 103d ae2a 463d 1fad 7a3d
000002a0: 4071 9b3d f7c4 c33d fb5b ee3d 6c52 ccbd
000002b0: 32bc b3bd 0cdd c8bd 552c c7bd dd8e bfbd
000002c0: b5e6 dabd 42d4 e9bd ac6e b6bd 7b0a 05be

model.qy_x.model.tcn_block_00.conv1.bias f4 [2]
0.2703435 0.03139262
00000000: 776a 8a3e 8c95 003d

model.qy_x.model.tcn_block_00.conv1.weight_g f4 [2, 1, 1]
0.643144 0.72962457
00000000: 16a5 243f adc8 3a3f

model.qy_x.model.tcn_block_00.conv1.weight_v f4 [2, 2, 9]
0.26183724 0.17425923 0.22701672 0.19386056 0.043008197 0.035392184 -0.113710806 0.12993696
0.15025435 0.045598257 -0.11153313 -0.07523952 -0.107117355 -0.084808834 -0.0884148 -0.05673199
-0.09129118 -0.06770395 0.0114600295 -0.0012824538 -0.047603954 -0.04223581 -0.033746924 -0.016929876
-0.024075765 0.019599898 -0.019180872 0.118978515 0.13483225 0.12942101 0.16011746 0.13358958
0.16679753 0.18861713 0.042786263 0.09937383
00000000: 880f 863e 0371 323e 1277 683e 6283 463e
00000010: 5d29 303d 65f7 103d 36e1 e8bd 320e 053e
00000020: 47dc 193e 3dc5 3a3d 7b6b e4bd 2d17 9abd
00000030: 5860 dbbd 41b0 adbd d212 b5bd ce5f 68bd
00000040: dff6 babd 5ea8 8abd d9c2 3b3c 0218 a8ba
00000050: 5dfc 42bd 75ff 2cbd 373a 0abd 86b0 8abc
00000060: 8a3a c5bc f78f a03c 3421 9dbc 02ab f33d
00000070: 7711 0a3e f186 043e d5f5 233e b5cb 083e
00000080: f9cc 2a3e d924 413e a640 2f3d 8284 cb3d

model.qy_x.model.tcn_block_00.block.conv1d_layer_0.bias f4 [2]
0.025586076 0.11822259
00000000: e499 d13c af1e f23d

model.qy_x.model.tcn_block_00.block.conv1d_layer_0.weight_g f4 [2, 1, 1]
0.68538874 0.8363942
00000000: a375 2f3f ee1d 563f

model.qy_x.model.tcn_block_00.block.conv1d_layer_0.weight_v f4 [2, 10, 9]
-0.09232054 -0.039571956 -0.16256101 -0.1532467 -0.123295605 -0.059710786 -0.07882894 -0.0004958686
-0.067495786 0.11695212 0.062783726 0.0722848 -0.0060389503 0.021255128 0.040921446 0.07120691
0.08199862 0.08091306 0.02492787 0.051694334 0.13014215 0.1676464 0.07621498 0.15306047
0.07380908 0.09019168 0.108128816 -0.09874349 -0.076476686 -0.05047087 -0.04788748 0.03506758
-0.043997217 -0.025547247 -0.03098035 -0.04117047 -0.017322231 0.061175346 0.026452893 0.020113984
-0.016033517 -0.05670484 -0.02901448 -0.09762361 -0.09505238 -0.1389417 -0.028659537 -0.031358026
-0.11427636 -0.07740632 -0.013008898 0.025167603 -0.01945426 -0.030389963 0.06871646 -0.00385681
0.060272027 -0.00681652 0.01174593 0.03916688 0.12200806 0.1293242 0.042625137 0.09572421
0.122983195 0.07989416 0.09837447 0.11831963 0.1520563 0.16976747 0.015211735 0.054237105
-0.048189458 -0.0089657605 -0.0058430037 -0.0050478764 -0.07447302 -0.16243608 -0.082011245 -0.13419285
-0.12472697 0.11516724 0.10157778 -0.02349679 0.055385657 0.024991702 0.015185089 -0.0118334405
0.027969 -0.03545836 0.033454303 0.04329978 0.052591458 0.062767416 0.07211616 0.08819357
0.104051314 0.12410677 0.12612213 -0.046412963 -0.055890936 -0.06643772 -0.07213121 -0.082219824
-0.09514913 -0.111047015 -0.13079515 -0.15142648 -0.019847326 -0.031137843 -0.042958472 -0.05414571
-0.06190614 -0.07248818 -0.088305235 -0.10468182 -0.12529527 0.102710806 0.09919337 0.098369025
0.0985719 0.09819679 0.08770034 0.10512847 0.06850339 0.081573844 -0.10581267 -0.100373946
-0.09019929 -0.08926428 -0.073341504 -0.05714101 -0.07037996 -0.05251018 -0.02490005 0.06449864
0.07060928 0.07706991 0.082520224 0.08930724 0.10012818 0.11413806 0.13182725 0.14757271
0.033474118 0.037378486 0.05070556 0.02755032 0.0058757183 -0.010053538 -0.023190323 -0.030106833
-0.028048268 0.014350375 0.00060665724 -0.02904453 -0.02604132 -0.04322769 -0.052283846 -0.067585185
-0.0854575 -0.10579581 -0.0045611593 0.009576722 0.023069315 0.0352884 0.048380546 0.061200257
0.0758996 0.095590524 0.11638638 -0.09976658 -0.0877613 -0.09807786 -0.097252525 -0.09353421
-0.10688535 -0.11417438 -0.08907828 -0.12992279
00000000: 8d12 bdbd 3416 22bd 6576 26be b4ec 1cbe
00000010: 6882 fcbd 4c93 74bd 1171 a1bd 2efd 01ba
00000020: 3b3b 8abd 9884 ef3d c194 803d 0e0a 943d
00000030: 63e2 c5bb 3c1f ae3c 3f9d 273d eed4 913d
00000040: e4ee a73d bfb5 a53d 8835 cc3c 70bd 533d
00000050: fc43 053e 7fab 2b3e 9916 9c3d e2bb 1c3e
00000060: 3729 973d 6ab6 b83d a472 dd3d 073a cabd
00000070: cf9f 9cbd 8bba 4ebd aa25 44bd 06a3 0f3d
00000080: 6d36 34bd 7648 d1bc 81ca fdbc 5ea2 28bd
00000090: 5ae7 8dbc 0093 7a3d bdb3 d83c 15c6 a43c
000000a0: b958 83bc 5643 68bd c6af edbc e3ee c7bd
000000b0: d2aa c2bd bc46 0ebe 68c7 eabc 4671 00bd
000000c0: b909 eabd 3487 9ebd 4623 55bc 4a2c ce3c
000000d0: 8a5e 9fbc 5ff4 f8bc 37bb 8c3d 89c2 7cbb
000000e0: cddf 763d 1d5d dfbb 0072 403c 736d 203d
000000f0: 5ddf f93d 906d 043e b297 2e3d 0e0b c43d
00000100: 9dde fb3d 8d9f a33d 8e78 c93d 9051 f23d
00000110: a6b4 1b3e 86d7 2d3e a43a 793c ba27 5e3d
00000120: 4f62 45bd 20e5 12bc ab76 bfbb a868 a5bb
00000130: 5085 98bd a555 26be 83f5 a7bd da69 09be
00000140: db70 ffbd cddc eb3d 0308 d03d 577c c0bc
00000150: 12dc 623d 66bb cc3c e1ca 783c 0ce1 41bc
00000160: 3f1f e53c c93c 11bd 6107 093d 1c5b 313d
00000170: 246a 573d 348c 803d a3b1 933d d59e b43d
00000180: db18 d53d b12b fe3d 2926 013e 851b 3ebd
00000190: e5ed 64bd 8010 88bd 87b9 93bd de62 a8bd
000001a0: 8cdd c2bd 9e6c e3bd 2aef 05be 8b0f 1bbe
000001b0: dc96 a2bc ca14 ffbc 39f5 2fbd e4c7 5dbd
000001c0: 4b91 7dbd af74 94bd 60d9 b4bd 6c63 d6bd
000001d0: 674d 00be 0b5a d23d e525 cb3d b375 c93d
000001e0: 10e0 c93d 661b c93d 3c9c b33d 984d d73d
000001f0: 814b 8c3d 3010 a73d 50b4 d8bd db90 cdbd
00000200: 68ba b8bd 31d0 b6bd 1234 96bd b10c 6abd
00000210: 5e23 90bd ea14 57bd 31fb cbbc dd17 843d
00000220: 999b 903d d4d6 9d3d 5d00 a93d b7e6 b63d
00000230: 0110 cd3d 37c1 e93d b9fd 063e 4d1d 173e
00000240: 281c 093d 2f1a 193d a2b0 4f3d 35b1 e13c
00000250: 1989 c03b 98b7 24bc a2f9 bdbc 9ba2 f6bc
00000260: 7bc5 e5bc d61d 6b3c 1408 1f3a cbee edbc
00000270: 9b54 d5bc 850f 31bd 9627 56bd 1a6a 8abd
00000280: 5704 afbd 79ab d8bd c775 95bb afe7 1c3c
00000290: dcfb bc3c 928a 103d ae2a 463d 1fad 7a3d
000002a0: 4071 9b3d f7c4 c33d fb5b ee3d 6c52 ccbd
000002b0: 32bc b3bd 0cdd c8bd 552c c7bd dd8e bfbd
000002c0: b5e6 dabd 42d4 e9bd ac6e b6bd 7b0a 05be

model.qy_x.model.tcn_block_00.block.conv1d_layer_1.bias f4 [2]
0.2703435 0.03139262
00000000: 776a 8a3e 8c95 003d

model.qy_x.model.tcn_block_00.block.conv1d_layer_1.weight_g f4 [2, 1, 1]
0.643144 0.72962457
00000000: 16a5 243f adc8 3a3f

model.qy_x.model.tcn_block_00.block.conv1d_layer_1.weight_v f4 [2, 2, 9]
0.26183724 0.17425923 0.22701672 0.19386056 0.043008197 0.035392184 -0.113710806 0.12993696
0.15025435 0.045598257 -0.11153313 -0.07523952 -0.107117355 -0.084808834 -0.0884148 -0.05673199
-0.09129118 -0.06770395 0.0114600295 -0.0012824538 -0.047603954 -0.04223581 -0.033746924 -0.016929876
-0.024075765 0.019599898 -0.019180872 0.118978515 0.13483225 0.12942101 0.16011746 0.13358958
0.16679753 0.18861713 0.042786263 0.09937383
00000000: 880f 863e 0371 323e 1277 683e 6283 463e
00000010: 5d29 303d 65f7 103d 36e1 e8bd 320e 053e
00000020: 47dc 193e 3dc5 3a3d 7b6b e4bd 2d17 9abd
00000030: 5860 dbbd 41b0 adbd d212 b5bd ce5f 68bd
00000040: dff6 babd 5ea8 8abd d9c2 3b3c 0218 a8ba
00000050: 5dfc 42bd 75ff 2cbd 373a 0abd 86b0 8abc
00000060: 8a3a c5bc f78f a03c 3421 9dbc 02ab f33d
00000070: 7711 0a3e f186 043e d5f5 233e b5cb 083e
00000080: f9cc 2a3e d924 413e a640 2f3d 8284 cb3d

model.qy_x.model.tcn_block_00.downsample.weight f4 [2, 10, 1]
-0.1628863 0.18215896 0.19083554 -0.069654696 -0.06372442 -0.18139209 0.16260189 0.16915712
-0.1811808 0.124989465 0.21778096 -0.22206248 -0.21535848 0.17450489 -0.07544729 0.23270361
-0.09432989 -0.17010303 0.19958308 -0.18481629
00000000: abcb 26be e187 3a3e 646a 433e 1fa7 8ebd
00000010: f381 82bd d9be 39be 1c81 263e 8637 2d3e
00000020: 7687 39be 7afa ff3d f901 5f3e 5964 63be
00000030: ef86 5cbe 69b1 323e 1c84 9abd db49 6e3e
00000040: 0830 c1bd 7d2f 2ebe 825f 4c3e 7b40 3dbe

model.qy_x.model.tcn_block_00.downsample.bias f4 [2]
0.22185738 0.3718149
00000000: 952e 633e 865e be3e

model.qy_x.model.tcn_block_01.conv0.bias f4 [2]
-0.046802446 0.22065805
00000000: ecb3 3fbd 2ff4 613e

model.qy_x.model.tcn_block_01.conv0.weight_g f4 [2, 1, 1]
0.6891878 0.7318297
00000000: 9d6e 303f 3159 3b3f

model.qy_x.model.tcn_block_01.conv0.weight_v f4 [2, 2, 9]
0.27503917 0.013612682 0.06379858 -0.045619108 0.26754358 0.25501123 -0.12935522 -0.15206355
-0.15291686 -0.097603366 -0.13601896 -0.17128773 -0.111484386 0.023317205 -0.059026666 0.0701717
0.034424156 0.063648045 0.13063045 0.2887039 -0.05794805 0.10948983 0.011805542 0.31769443
-0.12970378 -0.13529913 0.29603404 -0.08992505 -0.02625692 -0.040893726 -0.044712875 -0.044790708
0.053314254 -0.042872775 -0.14197893 -0.071454205
00000000: efd1 8c3e ba07 5f3c d4a8 823d 1adb 3abd
00000010: 79fb 883e d590 823e b275 04be 8cb6 1bbe
00000020: 3d96 1cbe 46e4 c7bd 8e48 0bbe 0d66 2fbe
00000030: ed51 e4bd b903 bf3c f2c5 71bd 2eb6 8f3d
00000040: 5800 0d3d e859 823d fdc3 053e ffd0 933e
00000050: ef5a 6dbd 343c e03d 086c 413c d8a8 a23e
00000060: 11d1 04be db8b 0abe c691 973e a02a b8bd
00000070: c118 d7bc 2e80 27bd d924 37bd 7676 37bd
00000080: 0c60 5a3d 5d9b 2fbd ed62 11be 9556 92bd

model.qy_x.model.tcn_block_01.conv1.bias f4 [4]
-0.21409918 -0.19095537 -0.08488087 0.1846245
00000000: d13c 5bbe ce89 43be 06d6 adbd 340e 3d3e

model.qy_x.model.tcn_block_01.conv1.weight_g f4 [4, 1, 1]
0.6654111 0.5942695 0.7262638 0.6236226
00000000: 6258 2a3f 0c22 183f 6dec 393f bba5 1f3f

model.qy_x.model.tcn_block_01.conv1.weight_v f4 [4, 2, 9]
-0.17653114 0.17754036 -0.073778056 -0.057794742 0.18276274 0.12882723 0.21640371 0.16397361
-0.05996859 -0.2189095 -0.05405216 0.17825195 -0.09062719 -0.22176957 0.10608554 0.24844413
-0.04365657 -0.16437392 -0.34460473 0.1135198 -0.054908816 -0.27158728 0.05233442 0.107984036
0.22230461 0.21144481 -0.1410929 -0.25648406 -0.25820503 0.18983318 0.06881252 0.063505076
-0.2546295 0.16871296 0.16703263 0.15135548 -0.085397184 -0.048954777 -0.058390446 0.08259216
-0.03816607 -0.033245787 0.0036795656 -0.024147566 -0.020726986 0.0025545717 0.014872469 -0.0960723
0.16532162 -0.00014390884 0.1713888 0.28245276 0.25894567 0.1961563 0.16669866 0.06655578
-0.035787784 0.18421067 0.066366024 -0.17306687 0.05257127 -0.096630275 0.16951486 0.10906985
-0.10042168 0.10423412 0.2635052 0.12710266 0.102200836 0.026139991 0.057252064 -0.08010093
00000000: 94c4 34be 24cd 353e f318 97bd 2eba 6cbd
00000010: 2826 3b3e 49eb 033e ef98 5d3e b3e8 273e
00000020: a0a1 75bd d029 60be cc65 5dbd ae87 363e
00000030: c09a b9bd 9017 63be 6043 d93d 2368 7e3e
00000040: 3bd1 32bd a351 28be 0870 b0be 127d e83d
00000050: 11e8 60bd 7d0d 8bbe 9e5c 563d bc26 dd3d
00000060: d2a3 633e fd84 583e a87a 10be e151 83be
00000070: 7333 84be a163 423e 94ed 8c3d f30e 823d
00000080: cc5e 82be 17c3 2c3e 9a0a 2b3e eefc 1a3e
00000090: b8e4 aebd ce84 48bd d22a 6fbd 1426 a93d
000000a0: 0654 1cbd bc2c 08bd de24 713b 1ed1 c5bc
000000b0: a4cb a9bc 9a6a 273b a8ab 733c 8ec1 c4bd
000000c0: 124a 293e 3ce6 16b9 8c80 2f3e a69d 903e
000000d0: 8794 843e 32dd 483e 0eb3 2a3e 664e 883d
000000e0: 3696 12bd b9a1 3c3e e9ea 873d 7138 31be
000000f0: f954 573d 18e6 c5bd 4e95 2d3e 0360 df3d
00000100: e2a9 cdbd b378 d53d 27ea 863e 3327 023e
00000110: ac4e d13d 8923 d63c 2481 6a3d f50b a4bd

model.qy_x.model.tcn_block_01.block.conv1d_layer_0.bias f4 [2]
-0.046802446 0.22065805
00000000: ecb3 3fbd 2ff4 613e

model.qy_x.model.tcn_block_01.block.conv1d_layer_0.weight_g f4 [2, 1, 1]
0.6891878 0.7318297
00000000: 9d6e 303f 3159 3b3f

model.qy_x.model.tcn_block_01.block.conv1d_layer_0.weight_v f4 [2, 2, 9]
0.27503917 0.013612682 0.06379858 -0.045619108 0.26754358 0.25501123 -0.12935522 -0.15206355
-0.15291686 -0.097603366 -0.13601896 -0.17128773 -0.111484386 0.023317205 -0.059026666 0.0701717
0.034424156 0.063648045 0.13063045 0.2887039 -0.05794805 0.10948983 0.011805542 0.31769443
-0.12970378 -0.13529913 0.29603404 -0.08992505 -0.02625692 -0.040893726 -0.044712875 -0.044790708
0.053314254 -0.042872775 -0.14197893 -0.071454205
00000000: efd1 8c3e ba07 5f3c d4a8 823d 1adb 3abd
00000010: 79fb 883e d590 823e b275 04be 8cb6 1bbe
00000020: 3d96 1cbe 46e4 c7bd 8e48 0bbe 0d66 2fbe
00000030: ed51 e4bd b903 bf3c f2c5 71bd 2eb6 8f3d
00000040: 5800 0d3d e859 823d fdc3 053e ffd0 933e
00000050: ef5a 6dbd 343c e03d 086c 413c d8a8 a23e
00000060: 11d1 04be db8b 0abe c691 973e a02a b8bd
00000070: c118 d7bc 2e80 27bd d924 37bd 7676 37bd
00000080: 0c60 5a3d 5d9b 2fbd ed62 11be 9556 92bd

model.qy_x.model.tcn_block_01.block.conv1d_layer_1.bias f4 [4]
-0.21409918 -0.19095537 -0.08488087 0.1846245
00000000: d13c 5bbe ce89 43be 06d6 adbd 340e 3d3e

model.qy_x.model.tcn_block_01.block.conv1d_layer_1.weight_g f4 [4, 1, 1]
0.6654111 0.5942695 0.7262638 0.6236226
00000000: 6258 2a3f 0c22 183f 6dec 393f bba5 1f3f

model.qy_x.model.tcn_block_01.block.conv1d_layer_1.weight_v f4 [4, 2, 9]
-0.17653114 0.17754036 -0.073778056 -0.057794742 0.18276274 0.12882723 0.21640371 0.16397361
-0.05996859 -0.2189095 -0.05405216 0.17825195 -0.09062719 -0.22176957 0.10608554 0.24844413
-0.04365657 -0.16437392 -0.34460473 0.1135198 -0.054908816 -0.27158728 0.05233442 0.107984036
0.22230461 0.21144481 -0.1410929 -0.25648406 -0.25820503 0.18983318 0.06881252 0.063505076
-0.2546295 0.16871296 0.16703263 0.15135548 -0.085397184 -0.048954777 -0.058390446 0.08259216
-0.03816607 -0.033245787 0.0036795656 -0.024147566 -0.020726986 0.0025545717 0.014872469 -0.0960723
0.16532162 -0.00014390884 0.1713888 0.28245276 0.25894567 0.1961563 0.16669866 0.06655578
-0.035787784 0.18421067 0.066366024 -0.17306687 0.05257127 -0.096630275 0.16951486 0.10906985
-0.10042168 0.10423412 0.2635052 0.12710266 0.102200836 0.026139991 0.057252064 -0.08010093
00000000: 94c4 34be 24cd 353e f318 97bd 2eba 6cbd
00000010: 2826 3b3e 49eb 033e ef98 5d3e b3e8 273e
00000020: a0a1 75bd d029 60be cc65 5dbd ae87 363e
00000030: c09a b9bd 9017 63be 6043 d93d 2368 7e3e
00000040: 3bd1 32bd a351 28be 0870 b0be 127d e83d
00000050: 11e8 60bd 7d0d 8bbe 9e5c 563d bc26 dd3d
00000060: d2a3 633e fd84 583e a87a 10be e151 83be
00000070: 7333 84be a163 423e 94ed 8c3d f30e 823d
00000080: cc5e 82be 17c3 2c3e 9a0a 2b3e eefc 1a3e
00000090: b8e4 aebd ce84 48bd d22a 6fbd 1426 a93d
000000a0: 0654 1cbd bc2c 08bd de24 713b 1ed1 c5bc
000000b0: a4cb a9bc 9a6a 273b a8ab 733c 8ec1 c4bd
000000c0: 124a 293e 3ce6 16b9 8c80 2f3e a69d 903e
000000d0: 8794 843e 32dd 483e 0eb3 2a3e 664e 883d
000000e0: 3696 12bd b9a1 3c3e e9ea 873d 7138 31be
000000f0: f954 573d 18e6 c5bd 4e95 2d3e 0360 df3d
00000100: e2a9 cdbd b378 d53d 27ea 863e 3327 023e
00000110: ac4e d13d 8923 d63c 2481 6a3d f50b a4bd

model.qy_x.model.tcn_block_01.downsample.weight f4 [4, 2, 1]
0.05289308 -0.2624989 -0.1331462 0.25708902 0.15126215 -0.15108146 0.1813892 -0.11278783
00000000: 6aa6 583d 4166 86be 7a57 08be 2ca1 833e
00000010: 77e4 1a3e 19b5 1abe 17be 393e 4efd e6bd

model.qy_x.model.tcn_block_01.downsample.bias f4 [4]
-0.67877823 0.053914383 0.33994222 -0.18579258
00000000: 69c4 2dbf 54d5 5c3d e80c ae3e 6940 3ebe

model.qy_x.model.final_dense_02.weight f4 [4, 4, 1]
-0.055050265 0.31324992 -0.4086803 -0.32256773 0.2580607 -0.6143444 0.195992 0.292559
-0.38436124 0.42645296 -0.099677116 0.100183465 0.633863 -0.26510978 0.20934223 -0.06721129
00000000: 637c 61bd 4b62 a03e 8b3e d1be 9927 a5be
00000010: 8820 843e ad45 1dbf 20b2 483e 4bca 953e
00000020: ffca c4be 0b58 da3e 8423 ccbd fd2c cd3d
00000030: d844 223f 78bc 87be cf5d 563e 13a6 89bd

model.qy_x.model.final_dense_02.bias f4 [4]
-0.05768659 -0.11416051 0.13508411 -0.2651427
00000000: c648 6cbd fccc e9bd 7d53 0a3e c9c0 87be

model.encoder.model.tcn_block_00.conv0.bias f4 [2]
0.1204219 -0.14675327
00000000: c29f f63d 7d46 16be

model.encoder.model.tcn_block_00.conv0.weight_g f4 [2, 1, 1]
0.63498306 0.6620289
00000000: 408e 223f ba7a 293f

model.encoder.model.tcn_block_00.conv0.weight_v f4 [2, 14, 9]
-0.017450368 -0.01828605 0.024876446 -0.005950191 0.021260772 -0.0017776887 -0.032784898 0.066937946
0.054569796 -0.007786812 -0.012287257 0.010718764 -0.025789188 0.026375256 -0.027601559 -0.0054299477
-0.0022378918 -0.06440993 0.056161918 0.09359346 0.03359947 0.00013076923 0.005337123 -0.0041313227
-0.07371748 -0.05386227 -0.018999971 -0.043120716 0.031828355 -0.009282347 0.07902169 -0.052201793
0.076363586 0.105155684 0.05110414 0.023498658 0.053366605 -0.06619585 -0.037866734 -0.06958939
-0.043226782 -0.014281428 -0.021589968 -0.04689808 -0.11320927 0.0073190876 0.01345172 0.029760975
0.06830425 0.094953924 -0.019786317 0.026635457 0.0043828334 -0.040965356 -0.027413515 0.11184141
0.08296198 0.07834432 0.07702043 -0.036371794 0.03781196 0.09391011 -0.02068574 0.114592254
0.061541162 0.0854756 -0.00085158704 0.05306341 -0.045771934 0.00994621 0.017428977 0.007951055
0.0288341 0.04223195 0.038514677 0.021143842 0.029627534 -0.015209569 -0.042608 -0.006977171
0.021447472 -0.06683703 0.016735755 0.0013267453 -0.017405981 -0.010961107 0.041441225 -0.0038662588
-0.10872351 -0.09796856 0.005844181 0.019389298 0.032150812 -0.03631234 -0.024656536 0.05570347
0.059668165 -0.01910073 0.068729684 -0.000575798 0.14873198 0.12422516 0.14555626 -0.024184098
-0.019391444 0.12450033 0.12334207 0.11549474 0.17177443 -0.00089407724 0.1706553 -0.01524076
0.108033754 0.01326885 0.040673375 0.10208833 0.041194893 0.00026469943 -0.045222677 -0.04601854
5.043244e-06 -0.00511318 -0.01986758 -0.003176554 -0.03697737 -0.03542579 0.04694937 0.03543357
0.008363542 -0.03137954 0.0056544235 -0.015883721 -0.057922684 -0.017799152 0.023681497 -0.057873342
-0.05323401 0.016400076 0.052597106 -0.012971847 0.040038876 0.06856715 0.055057473 0.0547056
0.031394728 0.013719128 -0.03519665 -0.0003262123 0.02411024 0.0533544 -0.042506073 0.04671144
0.005660592 -0.116576575 -0.04451507 -0.096253745 -0.051134057 -0.104364 -0.109464206 -0.071167186
-0.084439956 -0.017581519 0.08104748 0.1290499 0.08671447 0.045137625 0.11607681 0.07022772
0.077512786 0.037560284 0.05871138 -0.022380637 -0.02463682 -0.06255285 -0.03180914 -0.07874521
-0.053347763 -0.005770741 -0.08619767 -0.08955658 -0.09399017 -0.09258963 -0.05778387 -0.05458899
-0.025941055 -0.10095604 -0.05841201 -0.012076202 0.01324632 -0.05472802 -0.07338007 -0.021160077
0.0030942906 -0.05468875 -0.046030857 0.014556356 -0.006709386 -0.047137357 0.008892709 0.055710692
0.008385648 0.05601704 0.05497069 0.014223429 -0.0022858388 -0.021190355 -0.01273994 0.06504115
-0.0017574534 0.04124212 -0.004510566 0.10195506 0.012719321 0.120842636 0.042494457 0.016990455
-0.015784573 -0.029008664 -0.016804792 -0.031183584 -0.05359262 -0.033580687 -0.053325497 -0.058214955
-0.04588856 -0.01661026 -0.11139936 -0.07192011 -0.008779718 -0.04074729 -0.006933455 -0.079967745
-0.08826077 -0.0054732263 -0.03668168 0.008406687 -0.07695131 -0.085469745 -0.07011087 -0.09595358
-0.035924893 -0.009326663 -0.045271635 0.007850882 0.017560815 0.010374233 0.046391174 0.00044877327
0.006034381 0.028303707 0.0482037 0.037505828
00000000: 13f4 8ebc a0cc 95bc b0c9 cb3c d2f9 c2bb
00000010: 122b ae3c 5601 e9ba 7549 06bd c316 893d
00000020: 9484 5f3d 8328 ffbb 7e50 49bc c19d 2f3c
00000030: d943 d3bc ec10 d83c aa1c e2bc b4ed b1bb
00000040: 98a9 12bb 5ae9 83bd 0a0a 663d eead bf3d
00000050: 999f 093d 191f 0939 08e3 ae3b 0c60 87bb
00000060: 31f9 96bd af9e 5cbd d4a5 9bbc 599f 30bd
00000070: 735e 023d fc14 18bc 20d6 a13d 8cd1 55bd
00000080: 8364 9c3d dd5b d73d 9352 513d 4280 c03c
00000090: f196 5a3d b191 87bd 261a 1bbd e284 8ebd
000000a0: 910e 31bd a7fc 69bc 72dd b0bc 3318 40bd
000000b0: 43da e7bd f5d4 ef3b 9a64 5c3c 4acd f33c
000000c0: 19e3 8b3d 3477 c23d ea16 a2bc 9a32 da3c
000000d0: df9d 8f3b 4acb 27bd 4f92 e0bc 1c0d e53d
000000e0: f8e7 a93d fd72 a03d e3bc 9d3d 97fa 14bd
000000f0: b7e0 1a3d f253 c03d 2475 a9bc 58af ea3d
00000100: 9612 7c3d d50d af3d 0a3d 5fba 0559 593d
00000110: 5a7b 3bbd 6ef5 223c 37c7 8e3c 2445 023c
00000120: 7e35 ec3c 69fb 2c3d 91c1 1d3d da35 ad3c
00000130: 71b5 f23c 8e31 79bc ba85 2ebd c1a0 e4bb
00000140: 9cb2 af3c dae1 88bd 6c19 893c 2fe6 ad3a
00000150: fd96 8ebc 3796 33bc 46be 293d 0f61 7dbb
00000160: 6eaa debd bea3 c8bd 8b80 bf3b 4ed6 9e3c
00000170: 92b0 033d 40bc 14bd 81fc c9bc 5229 643d
00000180: 9b66 743d 2279 9cbc 26c2 8c3d 26f1 16ba
00000190: 324d 183e c369 fe3d b30c 153e bb1d c6bc
000001a0: ceda 9ebc 07fa fe3d c49a fc3d 8288 ec3d
000001b0: a3e5 2f3e 8260 6aba 43c0 2e3e 61b4 79bc
000001c0: cd40 dd3d 9765 593c 2099 263d b013 d13d
000001d0: fabb 283d 5bc7 8a39 6a3b 39bd f07d 3cbd
000001e0: 2339 a936 768c a7bb 56c1 a2bc bc2d 50bb
000001f0: 9575 17bd a21a 11bd fc4d 403d cb22 113d
00000200: 3d07 093c d587 00bd be48 b93b 941e 82bc
00000210: 5640 6dbd 87cf 91bc b3ff c13c 990c 6dbd
00000220: e80b 5abd 7459 863c 1070 573d df87 54bc
00000230: ceff 233d ef6c 8c3d f283 613d fb12 603d
00000240: c297 003d 32c6 603c 5d2a 10bd 7907 abb9
00000250: d782 c53c 258a 5a3d d91a 2ebd 7f54 3f3d
00000260: 7d7c b93b b3bf eebd 6f55 36bd af20 c5bd
00000270: f271 51bd cbbc d5bd c52e e0bd 1ac0 91bd
00000280: dbee acbd 1e07 90bc 39fc a53d a825 043e
00000290: 5b97 b13d 3be2 383d aeb9 ed3d 8dd3 8f3d
000002a0: 06bf 9e3d d0d8 193d 587b 703d 9957 b7bc
000002b0: 28d3 c9bc b51b 80bd 4d4a 02bd 2b45 a1bd
000002c0: 2f83 5abd 7c18 bdbb 6788 b0bd 7169 b7bd
000002d0: eb7d c0bd a29f bdbd c7ae 6cbd b498 5fbd
000002e0: 5682 d4bc 0ac2 cebd 6f41 6fbd 43db 45bc
000002f0: 1807 593c 7d2a 60bd 4a48 96bd e657 adbc
00000300: 95c9 4a3b 5001 60bd da8a 3cbd c87d 6e3c
00000310: 69da dbbb 1a13 41bd bab2 113c e530 643d
00000320: f563 093c 2072 653d f228 613d 6309 693c
00000330: 03ce 15bb 6597 adbc 2ebb 50bc 4b34 853d
00000340: 5a5a e6ba 7fed 283d 5fcd 93bb d1cd d03d
00000350: b364 503c 587c f73d ab0e 2e3d 912f 8b3c
00000360: a64e 81bc 94a3 edbc 34aa 89bc b774 ffbc
00000370: ef83 5bbd e78b 09bd d66b 5abd ce72 6ebd
00000380: a5f5 3bbd 3d12 88bc 5925 e4bd da4a 93bd
00000390: ced8 0fbc a1e6 26bd 0932 e3bb 21c6 a3bd
000003a0: 10c2 b4bd c058 b3bb 873f 16bd 33bc 093c
000003b0: a698 9dbd c30a afbd 4a96 8fbd 5083 c4bd
000003c0: fb25 13bd dcce 18bc c06e 39bd fca0 003c
000003d0: b3db 8f3c b0f8 293c ac04 3e3d 5449 eb39
000003e0: 0fbc c53b 2ddd e73c 3e71 453d b69f 193d

model.encoder.model.tcn_block_00.conv1.bias f4 [2]
-0.16176623 0.013482913
00000000: 0ca6 25be 70e7 5c3c

model.encoder.model.tcn_block_00.conv1.weight_g f4 [2, 1, 1]
0.481234 0.6712658
00000000: 4e64 f63e 13d8 2b3f

model.encoder.model.tcn_block_00.conv1.weight_v f4 [2, 2, 9]
0.11216309 -0.0011703385 0.10998863 0.17022292 0.10729796 -0.013920511 -0.012306569 -0.14284328
-0.08739712 0.10539587 -0.10613132 0.09848673 -0.10678825 -0.08915344 -0.073683016 -0.20803897
-0.058599364 -0.040302712 0.027277414 0.0038193646 0.23580277 0.22513662 -0.10289474 0.16718033
-0.12342629 -0.13762239 0.13736546 -0.037293825 -0.10247424 -0.18436676 -0.11875483 0.016685203
-0.18546209 -0.19590405 -0.04053134 -0.15579736
00000000: c3b5 e53d 0b66 99ba b841 e13d eb4e 2e3e
00000010: 08bf db3d db12 64bc 7ea1 49bc 8245 12be
00000020: 43fd b2bd cad9 d73d 615b d9bd 69b3 c93d
00000030: ccb3 dabd 1496 b6bd 1fe7 96bd 2b08 55be
00000040: e305 70bd 7514 25bd e274 df3c 4e4e 7a3b
00000050: 4876 713e 378a 663e 7aba d2bd 5231 2b3e
00000060: ecc6 fcbd e2ec 0cbe 88a9 0c3e 69c1 18bd
00000070: 04de d1bd a4ca 3cbe bb35 f3bd 68af 883c
00000080: c6e9 3dbe 129b 48be 3104 26bd 5889 1fbe

model.encoder.model.tcn_block_00.block.conv1d_layer_0.bias f4 [2]
0.1204219 -0.14675327
00000000: c29f f63d 7d46 16be

model.encoder.model.tcn_block_00.block.conv1d_layer_0.weight_g f4 [2, 1, 1]
0.63498306 0.6620289
00000000: 408e 223f ba7a 293f

model.encoder.model.tcn_block_00.block.conv1d_layer_0.weight_v f4 [2, 14, 9]
-0.017450368 -0.01828605 0.024876446 -0.005950191 0.021260772 -0.0017776887 -0.032784898 0.066937946
0.054569796 -0.007786812 -0.012287257 0.010718764 -0.025789188 0.026375256 -0.027601559 -0.0054299477
-0.0022378918 -0.06440993 0.056161918 0.09359346 0.03359947 0.00013076923 0.005337123 -0.0041313227
-0.07371748 -0.05386227 -0.018999971 -0.043120716 0.031828355 -0.009282347 0.07902169 -0.052201793
0.076363586 0.105155684 0.05110414 0.023498658 0.053366605 -0.06619585 -0.037866734 -0.06958939
-0.043226782 -0.014281428 -0.021589968 -0.04689808 -0.11320927 0.0073190876 0.01345172 0.029760975
0.06830425 0.094953924 -0.019786317 0.026635457 0.0043828334 -0.040965356 -0.027413515 0.11184141
0.08296198 0.07834432 0.07702043 -0.036371794 0.03781196 0.09391011 -0.02068574 0.114592254
0.061541162 0.0854756 -0.00085158704 0.05306341 -0.045771934 0.00994621 0.017428977 0.007951055
0.0288341 0.04223195 0.038514677 0.021143842 0.029627534 -0.015209569 -0.042608 -0.006977171
0.021447472 -0.06683703 0.016735755 0.0013267453 -0.017405981 -0.010961107 0.041441225 -0.0038662588
-0.10872351 -0.09796856 0.005844181 0.019389298 0.032150812 -0.03631234 -0.024656536 0.05570347
0.059668165 -0.01910073 0.068729684 -0.000575798 0.14873198 0.12422516 0.14555626 -0.024184098
-0.019391444 0.12450033 0.12334207 0.11549474 0.17177443 -0.00089407724 0.1706553 -0.01524076
0.108033754 0.01326885 0.040673375 0.10208833 0.041194893 0.00026469943 -0.045222677 -0.04601854
5.043244e-06 -0.00511318 -0.01986758 -0.003176554 -0.03697737 -0.03542579 0.04694937 0.03543357
0.008363542 -0.03137954 0.0056544235 -0.015883721 -0.057922684 -0.017799152 0.023681497 -0.057873342
-0.05323401 0.016400076 0.052597106 -0.012971847 0.040038876 0.06856715 0.055057473 0.0547056
0.031394728 0.013719128 -0.03519665 -0.0003262123 0.02411024 0.0533544 -0.042506073 0.04671144
0.005660592 -0.116576575 -0.04451507 -0.096253745 -0.051134057 -0.104364 -0.109464206 -0.071167186
-0.084439956 -0.017581519 0.08104748 0.1290499 0.08671447 0.045137625 0.11607681 0.07022772
0.077512786 0.037560284 0.05871138 -0.022380637 -0.02463682 -0.06255285 -0.03180914 -0.07874521
-0.053347763 -0.005770741 -0.08619767 -0.08955658 -0.09399017 -0.09258963 -0.05778387 -0.05458899
-0.025941055 -0.10095604 -0.05841201 -0.012076202 0.01324632 -0.05472802 -0.07338007 -0.021160077
0.0030942906 -0.05468875 -0.046030857 0.014556356 -0.006709386 -0.047137357 0.008892709 0.055710692
0.008385648 0.05601704 0.05497069 0.014223429 -0.0022858388 -0.021190355 -0.01273994 0.06504115
-0.0017574534 0.04124212 -0.004510566 0.10195506 0.012719321 0.120842636 0.042494457 0.016990455
-0.015784573 -0.029008664 -0.016804792 -0.031183584 -0.05359262 -0.033580687 -0.053325497 -0.058214955
-0.04588856 -0.01661026 -0.11139936 -0.07192011 -0.008779718 -0.04074729 -0.006933455 -0.079967745
-0.08826077 -0.0054732263 -0.03668168 0.008406687 -0.07695131 -0.085469745 -0.07011087 -0.09595358
-0.035924893 -0.009326663 -0.045271635 0.007850882 0.017560815 0.010374233 0.046391174 0.00044877327
0.006034381 0.028303707 0.0482037 0.037505828
00000000: 13f4 8ebc a0cc 95bc b0c9 cb3c d2f9 c2bb
00000010: 122b ae3c 5601 e9ba 7549 06bd c316 893d
00000020: 9484 5f3d 8328 ffbb 7e50 49bc c19d 2f3c
00000030: d943 d3bc ec10 d83c aa1c e2bc b4ed b1bb
00000040: 98a9 12bb 5ae9 83bd 0a0a 663d eead bf3d
00000050: 999f 093d 191f 0939 08e3 ae3b 0c60 87bb
00000060: 31f9 96bd af9e 5cbd d4a5 9bbc 599f 30bd
00000070: 735e 023d fc14 18bc 20d6 a13d 8cd1 55bd
00000080: 8364 9c3d dd5b d73d 9352 513d 4280 c03c
00000090: f196 5a3d b191 87bd 261a 1bbd e284 8ebd
000000a0: 910e 31bd a7fc 69bc 72dd b0bc 3318 40bd
000000b0: 43da e7bd f5d4 ef3b 9a64 5c3c 4acd f33c
000000c0: 19e3 8b3d 3477 c23d ea16 a2bc 9a32 da3c
000000d0: df9d 8f3b 4acb 27bd 4f92 e0bc 1c0d e53d
000000e0: f8e7 a93d fd72 a03d e3bc 9d3d 97fa 14bd
000000f0: b7e0 1a3d f253 c03d 2475 a9bc 58af ea3d
00000100: 9612 7c3d d50d af3d 0a3d 5fba 0559 593d
00000110: 5a7b 3bbd 6ef5 223c 37c7 8e3c 2445 023c
00000120: 7e35 ec3c 69fb 2c3d 91c1 1d3d da35 ad3c
00000130: 71b5 f23c 8e31 79bc ba85 2ebd c1a0 e4bb
00000140: 9cb2 af3c dae1 88bd 6c19 893c 2fe6 ad3a
00000150: fd96 8ebc 3796 33bc 46be 293d 0f61 7dbb
00000160: 6eaa debd bea3 c8bd 8b80 bf3b 4ed6 9e3c
00000170: 92b0 033d 40bc 14bd 81fc c9bc 5229 643d
00000180: 9b66 743d 2279 9cbc 26c2 8c3d 26f1 16ba
00000190: 324d 183e c369 fe3d b30c 153e bb1d c6bc
000001a0: ceda 9ebc 07fa fe3d c49a fc3d 8288 ec3d
000001b0: a3e5 2f3e 8260 6aba 43c0 2e3e 61b4 79bc
000001c0: cd40 dd3d 9765 593c 2099 263d b013 d13d
000001d0: fabb 283d 5bc7 8a39 6a3b 39bd f07d 3cbd
000001e0: 2339 a936 768c a7bb 56c1 a2bc bc2d 50bb
000001f0: 9575 17bd a21a 11bd fc4d 403d cb22 113d
00000200: 3d07 093c d587 00bd be48 b93b 941e 82bc
00000210: 5640 6dbd 87cf 91bc b3ff c13c 990c 6dbd
00000220: e80b 5abd 7459 863c 1070 573d df87 54bc
00000230: ceff 233d ef6c 8c3d f283 613d fb12 603d
00000240: c297 003d 32c6 603c 5d2a 10bd 7907 abb9
00000250: d782 c53c 258a 5a3d d91a 2ebd 7f54 3f3d
00000260: 7d7c b93b b3bf eebd 6f55 36bd af20 c5bd
00000270: f271 51bd cbbc d5bd c52e e0bd 1ac0 91bd
00000280: dbee acbd 1e07 90bc 39fc a53d a825 043e
00000290: 5b97 b13d 3be2 383d aeb9 ed3d 8dd3 8f3d
000002a0: 06bf 9e3d d0d8 193d 587b 703d 9957 b7bc
000002b0: 28d3 c9bc b51b 80bd 4d4a 02bd 2b45 a1bd
000002c0: 2f83 5abd 7c18 bdbb 6788 b0bd 7169 b7bd
000002d0: eb7d c0bd a29f bdbd c7ae 6cbd b498 5fbd
000002e0: 5682 d4bc 0ac2 cebd 6f41 6fbd 43db 45bc
000002f0: 1807 593c 7d2a 60bd 4a48 96bd e657 adbc
00000300: 95c9 4a3b 5001 60bd da8a 3cbd c87d 6e3c
00000310: 69da dbbb 1a13 41bd bab2 113c e530 643d
00000320: f563 093c 2072 653d f228 613d 6309 693c
00000330: 03ce 15bb 6597 adbc 2ebb 50bc 4b34 853d
00000340: 5a5a e6ba 7fed 283d 5fcd 93bb d1cd d03d
00000350: b364 503c 587c f73d ab0e 2e3d 912f 8b3c
00000360: a64e 81bc 94a3 edbc 34aa 89bc b774 ffbc
00000370: ef83 5bbd e78b 09bd d66b 5abd ce72 6ebd
00000380: a5f5 3bbd 3d12 88bc 5925 e4bd da4a 93bd
00000390: ced8 0fbc a1e6 26bd 0932 e3bb 21c6 a3bd
000003a0: 10c2 b4bd c058 b3bb 873f 16bd 33bc 093c
000003b0: a698 9dbd c30a afbd 4a96 8fbd 5083 c4bd
000003c0: fb25 13bd dcce 18bc c06e 39bd fca0 003c
000003d0: b3db 8f3c b0f8 293c ac04 3e3d 5449 eb39
000003e0: 0fbc c53b 2ddd e73c 3e71 453d b69f 193d

model.encoder.model.tcn_block_00.block.conv1d_layer_1.bias f4 [2]
-0.16176623 0.013482913
00000000: 0ca6 25be 70e7 5c3c

model.encoder.model.tcn_block_00.block.conv1d_layer_1.weight_g f4 [2, 1, 1]
0.481234 0.6712658
00000000: 4e64 f63e 13d8 2b3f

model.encoder.model.tcn_block_00.block.conv1d_layer_1.weight_v f4 [2, 2, 9]
0.11216309 -0.0011703385 0.10998863 0.17022292 0.10729796 -0.013920511 -0.012306569 -0.14284328
-0.08739712 0.10539587 -0.10613132 0.09848673 -0.10678825 -0.08915344 -0.073683016 -0.20803897
-0.058599364 -0.040302712 0.027277414 0.0038193646 0.23580277 0.22513662 -0.10289474 0.16718033
-0.12342629 -0.13762239 0.13736546 -0.037293825 -0.10247424 -0.18436676 -0.11875483 0.016685203
-0.18546209 -0.19590405 -0.04053134 -0.15579736
00000000: c3b5 e53d 0b66 99ba b841 e13d eb4e 2e3e
00000010: 08bf db3d db12 64bc 7ea1 49bc 8245 12be
00000020: 43fd b2bd cad9 d73d 615b d9bd 69b3 c93d
00000030: ccb3 dabd 1496 b6bd 1fe7 96bd 2b08 55be
00000040: e305 70bd 7514 25bd e274 df3c 4e4e 7a3b
00000050: 4876 713e 378a 663e 7aba d2bd 5231 2b3e
00000060: ecc6 fcbd e2ec 0cbe 88a9 0c3e 69c1 18bd
00000070: 04de d1bd a4ca 3cbe bb35 f3bd 68af 883c
00000080: c6e9 3dbe 129b 48be 3104 26bd 5889 1fbe

model.encoder.model.tcn_block_00.downsample.weight f4 [2, 14, 1]
0.13981415 -0.12590118 -0.10607977 0.09872963 -0.08095505 0.111464806 0.04072378 -0.14499786
0.15031672 -0.10515336 0.035744403 -0.11120073 0.08358223 -0.059680652 -0.08226456 0.014243878
0.087717265 0.08567797 -0.10823373 0.03231554 0.15002535 0.1374454 -0.13425697 -0.08879818
-0.0573652 0.15092087 0.11722052 -0.11808595
00000000: 712b 0f3e 3dec 00be 5a40 d9bd c332 ca3d
00000010: c3cb a5bd a947 e43d facd 263d 527a 14be
00000020: a0ec 193e a55a d7bd b968 123d 35bd e3bd
00000030: 292d ab3d b373 74bd 527a a8bd 285f 693c
00000040: 1ca5 b33d ee77 af3d a5a9 ddbd 4d5d 043d
00000050: 3fa0 193e 7dbe 0c3e a97a 09be d2db b5bd
00000060: c6f7 6abd 008b 1a3e 5011 f03d 0cd7 f1bd

model.encoder.model.tcn_block_00.downsample.bias f4 [2]
0.18644796 -0.10681297
00000000: 37ec 3e3e c2c0 dabd

model.encoder.model.tcn_block_01.conv0.bias f4 [2]
-0.039619304 0.10480538
00000000: da47 22bd 34a4 d63d

model.encoder.model.tcn_block_01.conv0.weight_g f4 [2, 1, 1]
0.588556 0.5736337
00000000: 9bab 163f a8d9 123f

model.encoder.model.tcn_block_01.conv0.weight_v f4 [2, 2, 9]
-0.097916834 -0.24974705 -0.09406034 -0.05420412 -0.07961187 -0.18929435 0.09232687 0.057165742
-0.13887098 -0.09484994 0.08736531 0.14498033 -0.19772233 -0.05420747 -0.034744762 -0.066401765
0.17139369 0.0044318754 0.118709356 -0.054107975 -0.06810427 -0.16478075 -0.09718522 0.06465399
0.106029786 0.005811587 0.24812025 -0.1868899 0.089610904 0.22851534 -0.040880423 0.23208305
0.024334911 -0.14419031 -0.09608694 0.15075128
00000000: 9f88 c8bd b1bd 7fbe b5a2 c0bd 2405 5ebd
00000010: 8c0b a3bd 61d6 41be df15 bd3d a026 6a3d
00000020: 3234 0ebe af40 c2bd 95ec b23d b975 143e
00000030: b977 4abe a708 5ebd 8650 0ebd a6fd 87bd
00000040: d481 2f3e 4439 913b e41d f33d 53a0 5dbd
00000050: 407a 8bbd 49bc 28be 0b09 c7bd 5069 843d
00000060: 2526 d93d 206f be3b 3c13 7e3e 1160 3fbe
00000070: ec85 b73d edff 693e 3b72 27bd 2ea7 6d3e
00000080: 025a c73c a0a6 13be 3bc9 c4bd 8b5e 1a3e

model.encoder.model.tcn_block_01.conv1.bias f4 [2]
0.053470537 -0.02241127
00000000: ec03 5b3d d797 b7bc

model.encoder.model.tcn_block_01.conv1.weight_g f4 [2, 1, 1]
0.62852854 0.56523687
00000000: 3fe7 203f 5db3 103f

model.encoder.model.tcn_block_01.conv1.weight_v f4 [2, 2, 9]
0.21280387 0.0720759 -0.015713118 0.04021008 -0.123754404 -0.18379168 -0.16532296 -0.18509527
0.020477714 0.042331867 -0.102363825 -0.23467995 0.11131936 -0.15204264 -0.06260074 -0.22712584
-0.16875134 0.06074125 -0.16563763 -0.074285924 0.14252776 -0.08048362 -0.07665805 -0.09556959
0.047050778 -0.15780532 -0.0659446 0.12690876 0.025574118 0.09387876 -0.1276188 0.16443723
0.14865905 0.030427596 -0.13645494 0.16144066
00000000: 42e9 593e 889c 933d ccb8 80bc 53b3 243d
00000010: f372 fdbd e333 3cbe 6c4a 29be 9d89 3dbe
00000020: e1c0 a73c 2e64 2d3d 20a4 d1bd f14f 70be
00000030: 68fb e33d 11b1 1bbe d134 80bd ad93 68be
00000040: 27cd 2cbe d1cb 783d e99c 29be 3823 98bd
00000050: ccf2 113e 99d4 a4bd e5fe 9cbd fdb9 c3bd
00000060: 51b8 403d b897 21be f60d 87bd 5ff4 013e
00000070: d080 d13c 8243 c03d 81ae 02be 3c62 283e
00000080: 143a 183e 4b43 f93c d8ba 0bbe b350 253e

model.encoder.model.tcn_block_01.block.conv1d_layer_0.bias f4 [2]
-0.039619304 0.10480538
00000000: da47 22bd 34a4 d63d

model.encoder.model.tcn_block_01.block.conv1d_layer_0.weight_g f4 [2, 1, 1]
0.588556 0.5736337
00000000: 9bab 163f a8d9 123f

model.encoder.model.tcn_block_01.block.conv1d_layer_0.weight_v f4 [2, 2, 9]
-0.097916834 -0.24974705 -0.09406034 -0.05420412 -0.07961187 -0.18929435 0.09232687 0.057165742
-0.13887098 -0.09484994 0.08736531 0.14498033 -0.19772233 -0.05420747 -0.034744762 -0.066401765
0.17139369 0.0044318754 0.118709356 -0.054107975 -0.06810427 -0.16478075 -0.09718522 0.06465399
0.106029786 0.005811587 0.24812025 -0.1868899 0.089610904 0.22851534 -0.040880423 0.23208305
0.024334911 -0.14419031 -0.09608694 0.15075128
00000000: 9f88 c8bd b1bd 7fbe b5a2 c0bd 2405 5ebd
00000010: 8c0b a3bd 61d6 41be df15 bd3d a026 6a3d
00000020: 3234 0ebe af40 c2bd 95ec b23d b975 143e
00000030: b977 4abe a708 5ebd 8650 0ebd a6fd 87bd
00000040: d481 2f3e 4439 913b e41d f33d 53a0 5dbd
00000050: 407a 8bbd 49bc 28be 0b09 c7bd 5069 843d
00000060: 2526 d93d 206f be3b 3c13 7e3e 1160 3fbe
00000070: ec85 b73d edff 693e 3b72 27bd 2ea7 6d3e
00000080: 025a c73c a0a6 13be 3bc9 c4bd 8b5e 1a3e

model.encoder.model.tcn_block_01.block.conv1d_layer_1.bias f4 [2]
0.053470537 -0.02241127
00000000: ec03 5b3d d797 b7bc

model.encoder.model.tcn_block_01.block.conv1d_layer_1.weight_g f4 [2, 1, 1]
0.62852854 0.56523687
00000000: 3fe7 203f 5db3 103f

model.encoder.model.tcn_block_01.block.conv1d_layer_1.weight_v f4 [2, 2, 9]
0.21280387 0.0720759 -0.015713118 0.04021008 -0.123754404 -0.18379168 -0.16532296 -0.18509527
0.020477714 0.042331867 -0.102363825 -0.23467995 0.11131936 -0.15204264 -0.06260074 -0.22712584
-0.16875134 0.06074125 -0.16563763 -0.074285924 0.14252776 -0.08048362 -0.07665805 -0.09556959
0.047050778 -0.15780532 -0.0659446 0.12690876 0.025574118 0.09387876 -0.1276188 0.16443723
0.14865905 0.030427596 -0.13645494 0.16144066
00000000: 42e9 593e 889c 933d ccb8 80bc 53b3 243d
00000010: f372 fdbd e333 3cbe 6c4a 29be 9d89 3dbe
00000020: e1c0 a73c 2e64 2d3d 20a4 d1bd f14f 70be
00000030: 68fb e33d 11b1 1bbe d134 80bd ad93 68be
00000040: 27cd 2cbe d1cb 783d e99c 29be 3823 98bd
00000050: ccf2 113e 99d4 a4bd e5fe 9cbd fdb9 c3bd
00000060: 51b8 403d b897 21be f60d 87bd 5ff4 013e
00000070: d080 d13c 8243 c03d 81ae 02be 3c62 283e
00000080: 143a 183e 4b43 f93c d8ba 0bbe b350 253e

model.qz_xy_mean.dense(qz_xy_mean)_layer_03.weight f4 [2, 2]
0.6986764 0.58618075 -0.054247178 0.57699865
00000000: 75dc 323f f10f 163f 4a32 5ebd 2fb6 133f

model.qz_xy_mean.dense(qz_xy_mean)_layer_03.bias f4 [2]
-0.7730394 -0.24846771
00000000: e9e5 45bf 526e 7ebe

model.qz_xy_logvar.dense(qz_xy_logvar)_layer_03.weight f4 [2, 2]
-0.01668041 -0.79036623 0.18157123 -0.44727573
00000000: 5ba5 88bc 7155 4abf cfed 393e 5301 e5be

model.qz_xy_logvar.dense(qz_xy_logvar)_layer_03.bias f4 [2]
-0.39839557 -0.7053674
00000000: 81fa cbbe f592 34bf

model.py_t_probs.dense(py_t_probs)_layer_00.weight f4 [4, 2]
0.18704145 -0.49118757 -0.24596404 0.2997601 0.5845051 0.19283828 -0.26087707 -0.36127663
00000000: cb87 3f3e f07c fbbe ffdd 7bbe 287a 993e
00000010: 20a2 153f 6677 453e ae91 85be 40f9 b8be

model.py_t_probs.dense(py_t_probs)_layer_00.bias f4 [4]
0.25667033 0.31925598 0.59167296 0.13149327
00000000: 4b6a 833e 8575 a33e e177 173f 2ca6 063e

model.pz_t_mean.dense(pz_t_mean)_layer_00.weight f4 [8, 2]
0.81344926 -0.014929201 0.02012706 0.7987368 0.84880334 0.04924769 0.056645952 0.82908493
0.8760636 0.060800422 0.052325223 0.8338474 0.8341225 -0.019817194 0.010607193 0.80271685
00000000: 363e 503f 9c99 74bc 81e1 a43c 047a 4c3f
00000010: 2d4b 593f f2b7 493d 9605 683d e93e 543f
00000020: b445 603f dd09 793d f952 563d 0677 553f
00000030: 0d89 553f ab57 a2bc cbc9 2d3c da7e 4d3f

model.pz_t_mean.dense(pz_t_mean)_layer_00.bias f4 [8]
0.016988872 -0.15805651 0.014732211 0.07262274 0.071292885 0.04461073 -0.13906151 -0.017184502
00000000: 3f2c 8b3c 91d9 21be 5f5f 713c 3bbb 943d
00000010: 0102 923d beb9 363d 2466 0ebe 83c6 8cbc

model.pz_t_logvar.dense(pz_t_logvar)_layer_00.weight f4 [2, 4]
0.09160312 -0.020033881 -0.15035066 -0.003545902 -0.16291541 -0.44069037 -0.51149845 -0.38633454
00000000: 6b9a bb3d 181e a4bc 86f5 19be 5d62 68bb
00000010: 4cd3 26be 2ba2 e1be 90f1 02bf a4cd c5be

model.pz_t_logvar.dense(pz_t_logvar)_layer_00.bias f4 [2]
-0.06724926 0.23837343
00000000: fbb9 89bd 2a18 743e

model.decoder.dense(decoder)_layer_00.weight f4 [10, 2]
0.42730355 -0.2936993 -0.13564873 -0.107800014 -0.23903385 0.08666291 -0.06420644 0.34047386
-0.44110858 -0.079182245 -0.18648708 -0.027024781 0.46190527 -0.15059997 -0.083720855 0.49940902
0.17494988 -0.36580586 -0.42740875 -0.20491523
00000000: 88c7 da3e c15f 96be 80e7 0abe 41c6 dcbd
00000010: 4ac5 74be 537c b13d aa7e 83bd 9752 ae3e
00000020: fcd8 e1be 4d2a a2bd 78f6 3ebe 1363 ddbc
00000030: d97e ec3e e136 1abe d775 abbd 8ab2 ff3e
00000040: 1026 333e e84a bbbe 52d5 dabe 4cd5 51be

model.decoder.dense(decoder)_layer_00.bias f4 [10]
-0.09613529 0.16335747 -0.041307025 0.4216177 -0.18401316 -0.067394204 0.08541206 0.37642413
0.49544442 0.08371872
00000000: 94e2 c4bd 2e47 273e 8e31 29bd 46de d73e
00000010: f26d 3cbe f905 8abd 85ec ae3d aaba c03e
00000020: e4aa fd3e b874 ab3d

inference.model.qy_x.model.tcn_block_00.conv0.bias f4 [2]
0.025586076 0.11822259
00000000: e499 d13c af1e f23d

inference.model.qy_x.model.tcn_block_00.conv0.weight_g f4 [2, 1, 1]
0.68538874 0.8363942
00000000: a375 2f3f ee1d 563f

inference.model.qy_x.model.tcn_block_00.conv0.weight_v f4 [2, 10, 9]
-0.09232054 -0.039571956 -0.16256101 -0.1532467 -0.123295605 -0.059710786 -0.07882894 -0.0004958686
-0.067495786 0.11695212 0.062783726 0.0722848 -0.0060389503 0.021255128 0.040921446 0.07120691
0.08199862 0.08091306 0.02492787 0.051694334 0.13014215 0.1676464 0.07621498 0.15306047
0.07380908 0.09019168 0.108128816 -0.09874349 -0.076476686 -0.05047087 -0.04788748 0.03506758
-0.043997217 -0.025547247 -0.03098035 -0.04117047 -0.017322231 0.061175346 0.026452893 0.020113984
-0.016033517 -0.05670484 -0.02901448 -0.09762361 -0.09505238 -0.1389417 -0.028659537 -0.031358026
-0.11427636 -0.07740632 -0.013008898 0.025167603 -0.01945426 -0.030389963 0.06871646 -0.00385681
0.060272027 -0.00681652 0.01174593 0.03916688 0.12200806 0.1293242 0.042625137 0.09572421
0.122983195 0.07989416 0.09837447 0.11831963 0.1520563 0.16976747 0.015211735 0.054237105
-0.048189458 -0.0089657605 -0.0058430037 -0.0050478764 -0.07447302 -0.16243608 -0.082011245 -0.13419285
-0.12472697 0.11516724 0.10157778 -0.02349679 0.055385657 0.024991702 0.015185089 -0.0118334405
0.027969 -0.03545836 0.033454303 0.04329978 0.052591458 0.062767416 0.07211616 0.08819357
0.104051314 0.12410677 0.12612213 -0.046412963 -0.055890936 -0.06643772 -0.07213121 -0.082219824
-0.09514913 -0.111047015 -0.13079515 -0.15142648 -0.019847326 -0.031137843 -0.042958472 -0.05414571
-0.06190614 -0.07248818 -0.088305235 -0.10468182 -0.12529527 0.102710806 0.09919337 0.098369025
0.0985719 0.09819679 0.08770034 0.10512847 0.06850339 0.081573844 -0.10581267 -0.100373946
-0.09019929 -0.08926428 -0.073341504 -0.05714101 -0.07037996 -0.05251018 -0.02490005 0.06449864
0.07060928 0.07706991 0.082520224 0.08930724 0.10012818 0.11413806 0.13182725 0.14757271
0.033474118 0.037378486 0.05070556 0.02755032 0.0058757183 -0.010053538 -0.023190323 -0.030106833
-0.028048268 0.014350375 0.00060665724 -0.02904453 -0.02604132 -0.04322769 -0.052283846 -0.067585185
-0.0854575 -0.10579581 -0.0045611593 0.009576722 0.023069315 0.0352884 0.048380546 0.061200257
0.0758996 0.095590524 0.11638638 -0.09976658 -0.0877613 -0.09807786 -0.097252525 -0.09353421
-0.10688535 -0.11417438 -0.08907828 -0.12992279
00000000: 8d12 bdbd 3416 22bd 6576 26be b4ec 1cbe
00000010: 6882 fcbd 4c93 74bd 1171 a1bd 2efd 01ba
00000020: 3b3b 8abd 9884 ef3d c194 803d 0e0a 943d
00000030: 63e2 c5bb 3c1f ae3c 3f9d 273d eed4 913d
00000040: e4ee a73d bfb5 a53d 8835 cc3c 70bd 533d
00000050: fc43 053e 7fab 2b3e 9916 9c3d e2bb 1c3e
00000060: 3729 973d 6ab6 b83d a472 dd3d 073a cabd
00000070: cf9f 9cbd 8bba 4ebd aa25 44bd 06a3 0f3d
00000080: 6d36 34bd 7648 d1bc 81ca fdbc 5ea2 28bd
00000090: 5ae7 8dbc 0093 7a3d bdb3 d83c 15c6 a43c
000000a0: b958 83bc 5643 68bd c6af edbc e3ee c7bd
000000b0: d2aa c2bd bc46 0ebe 68c7 eabc 4671 00bd
000000c0: b909 eabd 3487 9ebd 4623 55bc 4a2c ce3c
000000d0: 8a5e 9fbc 5ff4 f8bc 37bb 8c3d 89c2 7cbb
000000e0: cddf 763d 1d5d dfbb 0072 403c 736d 203d
000000f0: 5ddf f93d 906d 043e b297 2e3d 0e0b c43d
00000100: 9dde fb3d 8d9f a33d 8e78 c93d 9051 f23d
00000110: a6b4 1b3e 86d7 2d3e a43a 793c ba27 5e3d
00000120: 4f62 45bd 20e5 12bc ab76 bfbb a868 a5bb
00000130: 5085 98bd a555 26be 83f5 a7bd da69 09be
00000140: db70 ffbd cddc eb3d 0308 d03d 577c c0bc
00000150: 12dc 623d 66bb cc3c e1ca 783c 0ce1 41bc
00000160: 3f1f e53c c93c 11bd 6107 093d 1c5b 313d
00000170: 246a 573d 348c 803d a3b1 933d d59e b43d
00000180: db18 d53d b12b fe3d 2926 013e 851b 3ebd
00000190: e5ed 64bd 8010 88bd 87b9 93bd de62 a8bd
000001a0: 8cdd c2bd 9e6c e3bd 2aef 05be 8b0f 1bbe
000001b0: dc96 a2bc ca14 ffbc 39f5 2fbd e4c7 5dbd
000001c0: 4b91 7dbd af74 94bd 60d9 b4bd 6c63 d6bd
000001d0: 674d 00be 0b5a d23d e525 cb3d b375 c93d
000001e0: 10e0 c93d 661b c93d 3c9c b33d 984d d73d
000001f0: 814b 8c3d 3010 a73d 50b4 d8bd db90 cdbd
00000200: 68ba b8bd 31d0 b6bd 1234 96bd b10c 6abd
00000210: 5e23 90bd ea14 57bd 31fb cbbc dd17 843d
00000220: 999b 903d d4d6 9d3d 5d00 a93d b7e6 b63d
00000230: 0110 cd3d 37c1 e93d b9fd 063e 4d1d 173e
00000240: 281c 093d 2f1a 193d a2b0 4f3d 35b1 e13c
00000250: 1989 c03b 98b7 24bc a2f9 bdbc 9ba2 f6bc
00000260: 7bc5 e5bc d61d 6b3c 1408 1f3a cbee edbc
00000270: 9b54 d5bc 850f 31bd 9627 56bd 1a6a 8abd
00000280: 5704 afbd 79ab d8bd c775 95bb afe7 1c3c
00000290: dcfb bc3c 928a 103d ae2a 463d 1fad 7a3d
000002a0: 4071 9b3d f7c4 c33d fb5b ee3d 6c52 ccbd
000002b0: 32bc b3bd 0cdd c8bd 552c c7bd dd8e bfbd
000002c0: b5e6 dabd 42d4 e9bd ac6e b6bd 7b0a 05be

inference.model.qy_x.model.tcn_block_00.conv1.bias f4 [2]
0.2703435 0.03139262
00000000: 776a 8a3e 8c95 003d

inference.model.qy_x.model.tcn_block_00.conv1.weight_g f4 [2, 1, 1]
0.643144 0.72962457
00000000: 16a5 243f adc8 3a3f

inference.model.qy_x.model.tcn_block_00.conv1.weight_v f4 [2, 2, 9]
0.26183724 0.17425923 0.22701672 0.19386056 0.043008197 0.035392184 -0.113710806 0.12993696
0.15025435 0.045598257 -0.11153313 -0.07523952 -0.107117355 -0.084808834 -0.0884148 -0.05673199
-0.09129118 -0.06770395 0.0114600295 -0.0012824538 -0.047603954 -0.04223581 -0.033746924 -0.016929876
-0.024075765 0.019599898 -0.019180872 0.118978515 0.13483225 0.12942101 0.16011746 0.13358958
0.16679753 0.18861713 0.042786263 0.09937383
00000000: 880f 863e 0371 323e 1277 683e 6283 463e
00000010: 5d29 303d 65f7 103d 36e1 e8bd 320e 053e
00000020: 47dc 193e 3dc5 3a3d 7b6b e4bd 2d17 9abd
00000030: 5860 dbbd 41b0 adbd d212 b5bd ce5f 68bd
00000040: dff6 babd 5ea8 8abd d9c2 3b3c 0218 a8ba
00000050: 5dfc 42bd 75ff 2cbd 373a 0abd 86b0 8abc
00000060: 8a3a c5bc f78f a03c 3421 9dbc 02ab f33d
00000070: 7711 0a3e f186 043e d5f5 233e b5cb 083e
00000080: f9cc 2a3e d924 413e a640 2f3d 8284 cb3d

inference.model.qy_x.model.tcn_block_00.block.conv1d_layer_0.bias f4 [2]
0.025586076 0.11822259
00000000: e499 d13c af1e f23d

inference.model.qy_x.model.tcn_block_00.block.conv1d_layer_0.weight_g f4 [2, 1, 1]
0.68538874 0.8363942
00000000: a375 2f3f ee1d 563f

inference.model.qy_x.model.tcn_block_00.block.conv1d_layer_0.weight_v f4 [2, 10, 9]
-0.09232054 -0.039571956 -0.16256101 -0.1532467 -0.123295605 -0.059710786 -0.07882894 -0.0004958686
-0.067495786 0.11695212 0.062783726 0.0722848 -0.0060389503 0.021255128 0.040921446 0.07120691
0.08199862 0.08091306 0.02492787 0.051694334 0.13014215 0.1676464 0.07621498 0.15306047
0.07380908 0.09019168 0.108128816 -0.09874349 -0.076476686 -0.05047087 -0.04788748 0.03506758
-0.043997217 -0.025547247 -0.03098035 -0.04117047 -0.017322231 0.061175346 0.026452893 0.020113984
-0.016033517 -0.05670484 -0.02901448 -0.09762361 -0.09505238 -0.1389417 -0.028659537 -0.031358026
-0.11427636 -0.07740632 -0.013008898 0.025167603 -0.01945426 -0.030389963 0.06871646 -0.00385681
0.060272027 -0.00681652 0.01174593 0.03916688 0.12200806 0.1293242 0.042625137 0.09572421
0.122983195 0.07989416 0.09837447 0.11831963 0.1520563 0.16976747 0.015211735 0.054237105
-0.048189458 -0.0089657605 -0.0058430037 -0.0050478764 -0.07447302 -0.16243608 -0.082011245 -0.13419285
-0.12472697 0.11516724 0.10157778 -0.02349679 0.055385657 0.024991702 0.015185089 -0.0118334405
0.027969 -0.03545836 0.033454303 0.04329978 0.052591458 0.062767416 0.07211616 0.08819357
0.104051314 0.12410677 0.12612213 -0.046412963 -0.055890936 -0.06643772 -0.07213121 -0.082219824
-0.09514913 -0.111047015 -0.13079515 -0.15142648 -0.019847326 -0.031137843 -0.042958472 -0.05414571
-0.06190614 -0.07248818 -0.088305235 -0.10468182 -0.12529527 0.102710806 0.09919337 0.098369025
0.0985719 0.09819679 0.08770034 0.10512847 0.06850339 0.081573844 -0.10581267 -0.100373946
-0.09019929 -0.08926428 -0.073341504 -0.05714101 -0.07037996 -0.05251018 -0.02490005 0.06449864
0.07060928 0.07706991 0.082520224 0.08930724 0.10012818 0.11413806 0.13182725 0.14757271
0.033474118 0.037378486 0.05070556 0.02755032 0.0058757183 -0.010053538 -0.023190323 -0.030106833
-0.028048268 0.014350375 0.00060665724 -0.02904453 -0.02604132 -0.04322769 -0.052283846 -0.067585185
-0.0854575 -0.10579581 -0.0045611593 0.009576722 0.023069315 0.0352884 0.048380546 0.061200257
0.0758996 0.095590524 0.11638638 -0.09976658 -0.0877613 -0.09807786 -0.097252525 -0.09353421
-0.10688535 -0.11417438 -0.08907828 -0.12992279
00000000: 8d12 bdbd 3416 22bd 6576 26be b4ec 1cbe
00000010: 6882 fcbd 4c93 74bd 1171 a1bd 2efd 01ba
00000020: 3b3b 8abd 9884 ef3d c194 803d 0e0a 943d
00000030: 63e2 c5bb 3c1f ae3c 3f9d 273d eed4 913d
00000040: e4ee a73d bfb5 a53d 8835 cc3c 70bd 533d
00000050: fc43 053e 7fab 2b3e 9916 9c3d e2bb 1c3e
00000060: 3729 973d 6ab6 b83d a472 dd3d 073a cabd
00000070: cf9f 9cbd 8bba 4ebd aa25 44bd 06a3 0f3d
00000080: 6d36 34bd 7648 d1bc 81ca fdbc 5ea2 28bd
00000090: 5ae7 8dbc 0093 7a3d bdb3 d83c 15c6 a43c
000000a0: b958 83bc 5643 68bd c6af edbc e3ee c7bd
000000b0: d2aa c2bd bc46 0ebe 68c7 eabc 4671 00bd
000000c0: b909 eabd 3487 9ebd 4623 55bc 4a2c ce3c
000000d0: 8a5e 9fbc 5ff4 f8bc 37bb 8c3d 89c2 7cbb
000000e0: cddf 763d 1d5d dfbb 0072 403c 736d 203d
000000f0: 5ddf f93d 906d 043e b297 2e3d 0e0b c43d
00000100: 9dde fb3d 8d9f a33d 8e78 c93d 9051 f23d
00000110: a6b4 1b3e 86d7 2d3e a43a 793c ba27 5e3d
00000120: 4f62 45bd 20e5 12bc ab76 bfbb a868 a5bb
00000130: 5085 98bd a555 26be 83f5 a7bd da69 09be
00000140: db70 ffbd cddc eb3d 0308 d03d 577c c0bc
00000150: 12dc 623d 66bb cc3c e1ca 783c 0ce1 41bc
00000160: 3f1f e53c c93c 11bd 6107 093d 1c5b 313d
00000170: 246a 573d 348c 803d a3b1 933d d59e b43d
00000180: db18 d53d b12b fe3d 2926 013e 851b 3ebd
00000190: e5ed 64bd 8010 88bd 87b9 93bd de62 a8bd
000001a0: 8cdd c2bd 9e6c e3bd 2aef 05be 8b0f 1bbe
000001b0: dc96 a2bc ca14 ffbc 39f5 2fbd e4c7 5dbd
000001c0: 4b91 7dbd af74 94bd 60d9 b4bd 6c63 d6bd
000001d0: 674d 00be 0b5a d23d e525 cb3d b375 c93d
000001e0: 10e0 c93d 661b c93d 3c9c b33d 984d d73d
000001f0: 814b 8c3d 3010 a73d 50b4 d8bd db90 cdbd
00000200: 68ba b8bd 31d0 b6bd 1234 96bd b10c 6abd
00000210: 5e23 90bd ea14 57bd 31fb cbbc dd17 843d
00000220: 999b 903d d4d6 9d3d 5d00 a93d b7e6 b63d
00000230: 0110 cd3d 37c1 e93d b9fd 063e 4d1d 173e
00000240: 281c 093d 2f1a 193d a2b0 4f3d 35b1 e13c
00000250: 1989 c03b 98b7 24bc a2f9 bdbc 9ba2 f6bc
00000260: 7bc5 e5bc d61d 6b3c 1408 1f3a cbee edbc
00000270: 9b54 d5bc 850f 31bd 9627 56bd 1a6a 8abd
00000280: 5704 afbd 79ab d8bd c775 95bb afe7 1c3c
00000290: dcfb bc3c 928a 103d ae2a 463d 1fad 7a3d
000002a0: 4071 9b3d f7c4 c33d fb5b ee3d 6c52 ccbd
000002b0: 32bc b3bd 0cdd c8bd 552c c7bd dd8e bfbd
000002c0: b5e6 dabd 42d4 e9bd ac6e b6bd 7b0a 05be

inference.model.qy_x.model.tcn_block_00.block.conv1d_layer_1.bias f4 [2]
0.2703435 0.03139262
00000000: 776a 8a3e 8c95 003d

inference.model.qy_x.model.tcn_block_00.block.conv1d_layer_1.weight_g f4 [2, 1, 1]
0.643144 0.72962457
00000000: 16a5 243f adc8 3a3f
