results_gmdgm/ssm_v1/dtcn/h_v3/version_0/best_val_model.pt (torch, 58663 bytes, 204 tensors)

model.qy_x.model.tcn_block_00.conv0.bias f4 [2]
00000000: f96c c7be 8c9c 9b3e
-0.38950327 0.30392873

model.qy_x.model.tcn_block_00.conv0.weight_g f4 [2, 1, 1]
00000000: d44c 0040 e632 dc3f
2.0046892 1.7203033

model.qy_x.model.tcn_block_00.conv0.weight_v f4 [2, 10, 9]
00000000: f645 2ebc f247 643d 624c 9c3d 562a b6bc
00000010: 711f a1be 8bae 85bd 4d29 1fbe e01d 1fbe
00000020: 41b2 d1be 773c 393e b210 f5bc fd39 3abd
00000030: 937c 403d ffa9 c33d d267 5d3c 0ce9 08be
00000040: 6a34 743d 0a64 883e 7582 8abd 15ac 883d
00000050: be4e 6c3c 9d21 453d 6262 d9bc cc9a eabb
00000060: b5f6 44bd f804 16bd de92 e53c e752 c13c
00000070: dc49 bebb 2b0e 29bd 1349 8f3c 0eaa e2bb
00000080: 91aa b6bd a357 5ab9 604a 943c 07ba c2bd
00000090: b37f 793d 792e 00be 0202 ffbc dfe9 10be
000000a0: 0bf4 d2bd be8f efbd 16c7 00bd bbcc b43c
000000b0: c9a9 383d f317 f0bc ef8f f1bd 4dde 44be
000000c0: dc8d 7e3d 2719 9e3d c948 22bd cc74 cabd
000000d0: 9daa ecbb 38a5 53be b51f c33d b4ce 153e
000000e0: cbd4 473e 0e35 103e 1754 123e 5e7a 21bd
000000f0: 68d6 5aba 7be5 1ebd 0bea cd3e 306b b73c
00000100: 265e 123d ca2b 4dbe 8a33 2b3e 34c9 d83d
00000110: c1e5 5fbd 6a59 b9bd 9180 563d d25f d73e
00000120: 8f8d 29be b8b3 ddbd 37b2 233d 1ac7 60be
00000130: d59b 0fbe 2a25 503d 07ed 763d 3954 fcbb
00000140: 81af 61be f501 d5bd da16 1e3e 3ed1 1dbe
00000150: e010 62bd 598a 1fbe 4999 e63d 6605 153d
00000160: ef60 423e 8120 a83e d3b4 713e a239 073d
00000170: 2359 b4bc b3f3 ca3c 258d c73d 827e c9bb
00000180: ebad 3a3c ead0 98bd abb1 bcbd 297c 23be
00000190: 1148 e53d ca88 213d 79d0 7d3d 96a2 153d
000001a0: 0ac9 17bd 51af e73d 71c3 493c 5a33 5b3d
000001b0: 9554 e1bc 4850 983d 7c96 d03d 2d8b 8ebd
000001c0: c88a ff3c 607c 403d bfcb 313b 2e07 943d
000001d0: bf43 c23a d996 0d3d d391 0e3d 429c 3c3d
000001e0: 99af ccbc a4ed 113d f4c1 31bd 849f e23c
000001f0: b4e9 1dbd b9e6 f83b 6d99 98be 10ee 97be
00000200: c13c 61bd 4086 33bd cf0f 683d d357 c33b
00000210: e779 ae3d 0be4 2b3e d8e2 8b3e 032d 853e
00000220: 8043 70bd 39bd 3bbe 5cea 493d e569 8b3d
00000230: 1c88 ff3c f638 6a38 b4d4 0abd 2f33 2bbe
00000240: bbde 583e 299d 663e bf14 b93d 1e7d c0bb
00000250: 91a6 adbd a62a 33be a8ec 31be ff0b 82be
00000260: 3cec 3fbe 6428 88ba 12cd 223e e443 be3c
00000270: dc4e 223e b13c c1bc 38c7 2f3c f573 07bd
00000280: 663f 2ebd 63de f9bd 1e72 593e ca36 b0bd
00000290: 5c49 bb3c 9644 ccbc 1e58 7d3d 5ea2 94bd
000002a0: ca95 a8bd 3d42 863b 1741 db3a 5d1c f2be
000002b0: 7228 b9bd fde5 f8bd 347a 02bd 4319 94bd
000002c0: 0e46 673d 87ec b03d 3494 473e 8f87 633e
-0.010636797 0.055732675 0.07631756 -0.022236984 -0.314693 -0.06527432 -0.15543099 -0.1553874
-0.4095631 0.18089472 -0.029915188 -0.04546546 0.046993803 0.095539086 0.013513522 -0.1337015
0.0596203 0.26638824 -0.06763164 0.06673447 0.0144230705 0.04812776 -0.02653617 -0.0071595665
-0.04808684 -0.036625832 0.028024133 0.023599101 -0.0058071446 -0.041273277 0.0174909 -0.0069172448
-0.08919252 -0.00020822747 0.018101871 -0.09508138 0.0609128 -0.12517728 -0.031128887 -0.14151715
-0.10300454 -0.116973385 -0.031439863 0.02207028 0.045083795 -0.029308295 -0.11795031 -0.19225426
0.062147006 0.07719641 -0.039620195 -0.098855585 -0.007222487 -0.20668495 0.09527532 0.14629632
0.19514768 0.14082739 0.1428989 -0.03942334 -0.0008347989 -0.03879307 0.40217623 0.022389978
0.03573432 -0.20036235 0.1671888 0.105852515 -0.05466247 -0.090502575 0.052368704 0.42065293
-0.16557907 -0.10825294 0.03996488 -0.21950951 -0.14024289 0.050816692 0.06028464 -0.00770047
-0.22039606 -0.10400764 0.15438405 -0.15411851 -0.055191875 -0.15580119 0.112597056 0.0363821
0.1898229 0.328373 0.23604135 0.033013947 -0.02201516 0.024774408 0.09743718 -0.006149114
0.011394004 -0.07461722 -0.09213575 -0.15965332 0.11195386 0.039437093 0.061966393 0.036532007
-0.03705696 0.11312736 0.012314663 0.05351577 -0.027506152 0.074371874 0.101849526 -0.069601394
0.031194106 0.046993613 0.0027129499 0.07227932 0.0014821215 0.034567688 0.034807038 0.046047457
-0.024986075 0.035627022 -0.04339786 0.027663954 -0.038552955 0.0075958637 -0.29804555 -0.29673815
-0.05498958 -0.043829203 0.0566557 0.005961397 0.08519345 0.1678621 0.27321506 0.26010904
-0.058658123 -0.18333901 0.04929577 0.06807307 0.031192832 5.5842997e-05 -0.033894256 -0.16718744
0.21178715 0.2252089 0.0903716 -0.00587429 -0.08479036 -0.17496738 -0.17375433 -0.25399777
-0.1874246 -0.0010388014 0.1589854 0.023225732 0.15850395 -0.02358851 0.01072865 -0.03306957
-0.04254093 -0.1220062 0.21234939 -0.086042 0.022862129 -0.024935048 0.061851613 -0.072575316
-0.08231695 0.0040972517 0.0016727772 -0.47287264 -0.090409175 -0.12153242 -0.031854823 -0.07231381
0.056463294 0.08638864 0.19490129 0.2221968

model.qy_x.model.tcn_block_00.conv1.bias f4 [2]
00000000: f336 983e 4a9e e33d
0.29729423 0.111141756

model.qy_x.model.tcn_block_00.conv1.weight_g f4 [2, 1, 1]
00000000: ab8d 753f 9e46 0540
0.95919293 2.0824351

model.qy_x.model.tcn_block_00.conv1.weight_v f4 [2, 2, 9]
00000000: b221 98be 00db a3bd 80c9 703e 063c d43e
00000010: 614d 97bc 9277 1c3c cdb3 e8bd 6042 e4bd
00000020: df07 1c3d 1f9c a03d 5453 b73d b003 103c
00000030: 99c9 e9bd 8d40 8bbe e84b 42be ecea ffbd
00000040: cb7c ebbd 40c3 d43e 17d5 163e 484f 633d
00000050: 354d 31bd d8bc fbbd 0905 7c3d 8016 0abd
00000060: a65d f2bd 9fb6 58bd 540f e6be fa8d 8abd
00000070: f44f c03c dd5e 863d 09dd 483d 30b4 4a3e
00000080: 5f13 853d 74c5 e83d cf4d 453e 3688 79be
-0.29713207 -0.08000755 0.23514366 0.41452044 -0.018469514 0.009549992 -0.11362419 -0.111454725
0.038093444 0.07842278 0.089514405 0.008789942 -0.11415405 -0.27197686 -0.18974268 -0.1249598
-0.11498412 0.41555214 0.14729725 0.05549553 -0.04328652 -0.122918785 0.06152824 -0.033712864
-0.11834268 -0.052908536 -0.4493357 -0.06765361 0.023475625 0.065610625 0.04903892 0.19795299
0.06497835 0.11365786 0.19267963 -0.24368367

model.qy_x.model.tcn_block_00.block.conv1d_layer_0.bias f4 [2]
00000000: f96c c7be 8c9c 9b3e
-0.38950327 0.30392873

model.qy_x.model.tcn_block_00.block.conv1d_layer_0.weight_g f4 [2, 1, 1]
00000000: d44c 0040 e632 dc3f
2.0046892 1.7203033

model.qy_x.model.tcn_block_00.block.conv1d_layer_0.weight_v f4 [2, 10, 9]
00000000: f645 2ebc f247 643d 624c 9c3d 562a b6bc
00000010: 711f a1be 8bae 85bd 4d29 1fbe e01d 1fbe
00000020: 41b2 d1be 773c 393e b210 f5bc fd39 3abd
00000030: 937c 403d ffa9 c33d d267 5d3c 0ce9 08be
00000040: 6a34 743d 0a64 883e 7582 8abd 15ac 883d
00000050: be4e 6c3c 9d21 453d 6262 d9bc cc9a eabb
00000060: b5f6 44bd f804 16bd de92 e53c e752 c13c
00000070: dc49 bebb 2b0e 29bd 1349 8f3c 0eaa e2bb
00000080: 91aa b6bd a357 5ab9 604a 943c 07ba c2bd
00000090: b37f 793d 792e 00be 0202 ffbc dfe9 10be
000000a0: 0bf4 d2bd be8f efbd 16c7 00bd bbcc b43c
000000b0: c9a9 383d f317 f0bc ef8f f1bd 4dde 44be
000000c0: dc8d 7e3d 2719 9e3d c948 22bd cc74 cabd
000000d0: 9daa ecbb 38a5 53be b51f c33d b4ce 153e
000000e0: cbd4 473e 0e35 103e 1754 123e 5e7a 21bd
000000f0: 68d6 5aba 7be5 1ebd 0bea cd3e 306b b73c
00000100: 265e 123d ca2b 4dbe 8a33 2b3e 34c9 d83d
00000110: c1e5 5fbd 6a59 b9bd 9180 563d d25f d73e
00000120: 8f8d 29be b8b3 ddbd 37b2 233d 1ac7 60be
00000130: d59b 0fbe 2a25 503d 07ed 763d 3954 fcbb
00000140: 81af 61be f501 d5bd da16 1e3e 3ed1 1dbe
00000150: e010 62bd 598a 1fbe 4999 e63d 6605 153d
00000160: ef60 423e 8120 a83e d3b4 713e a239 073d
00000170: 2359 b4bc b3f3 ca3c 258d c73d 827e c9bb
00000180: ebad 3a3c ead0 98bd abb1 bcbd 297c 23be
00000190: 1148 e53d ca88 213d 79d0 7d3d 96a2 153d
000001a0: 0ac9 17bd 51af e73d 71c3 493c 5a33 5b3d
000001b0: 9554 e1bc 4850 983d 7c96 d03d 2d8b 8ebd
000001c0: c88a ff3c 607c 403d bfcb 313b 2e07 943d
000001d0: bf43 c23a d996 0d3d d391 0e3d 429c 3c3d
000001e0: 99af ccbc a4ed 113d f4c1 31bd 849f e23c
000001f0: b4e9 1dbd b9e6 f83b 6d99 98be 10ee 97be
00000200: c13c 61bd 4086 33bd cf0f 683d d357 c33b
00000210: e779 ae3d 0be4 2b3e d8e2 8b3e 032d 853e
00000220: 8043 70bd 39bd 3bbe 5cea 493d e569 8b3d
00000230: 1c88 ff3c f638 6a38 b4d4 0abd 2f33 2bbe
00000240: bbde 583e 299d 663e bf14 b93d 1e7d c0bb
00000250: 91a6 adbd a62a 33be a8ec 31be ff0b 82be
00000260: 3cec 3fbe 6428 88ba 12cd 223e e443 be3c
00000270: dc4e 223e b13c c1bc 38c7 2f3c f573 07bd
00000280: 663f 2ebd 63de f9bd 1e72 593e ca36 b0bd
00000290: 5c49 bb3c 9644 ccbc 1e58 7d3d 5ea2 94bd
000002a0: ca95 a8bd 3d42 863b 1741 db3a 5d1c f2be
000002b0: 7228 b9bd fde5 f8bd 347a 02bd 4319 94bd
000002c0: 0e46 673d 87ec b03d 3494 473e 8f87 633e
-0.010636797 0.055732675 0.07631756 -0.022236984 -0.314693 -0.06527432 -0.15543099 -0.1553874
-0.4095631 0.18089472 -0.029915188 -0.04546546 0.046993803 0.095539086 0.013513522 -0.1337015
0.0596203 0.26638824 -0.06763164 0.06673447 0.0144230705 0.04812776 -0.02653617 -0.0071595665
-0.04808684 -0.036625832 0.028024133 0.023599101 -0.0058071446 -0.041273277 0.0174909 -0.0069172448
-0.08919252 -0.00020822747 0.018101871 -0.09508138 0.0609128 -0.12517728 -0.031128887 -0.14151715
-0.10300454 -0.116973385 -0.031439863 0.02207028 0.045083795 -0.029308295 -0.11795031 -0.19225426
0.062147006 0.07719641 -0.039620195 -0.098855585 -0.007222487 -0.20668495 0.09527532 0.14629632
0.19514768 0.14082739 0.1428989 -0.03942334 -0.0008347989 -0.03879307 0.40217623 0.022389978
0.03573432 -0.20036235 0.1671888 0.105852515 -0.05466247 -0.090502575 0.052368704 0.42065293
-0.16557907 -0.10825294 0.03996488 -0.21950951 -0.14024289 0.050816692 0.06028464 -0.00770047
-0.22039606 -0.10400764 0.15438405 -0.15411851 -0.055191875 -0.15580119 0.112597056 0.0363821
0.1898229 0.328373 0.23604135 0.033013947 -0.02201516 0.024774408 0.09743718 -0.006149114
0.011394004 -0.07461722 -0.09213575 -0.15965332 0.11195386 0.039437093 0.061966393 0.036532007
-0.03705696 0.11312736 0.012314663 0.05351577 -0.027506152 0.074371874 0.101849526 -0.069601394
0.031194106 0.046993613 0.0027129499 0.07227932 0.0014821215 0.034567688 0.034807038 0.046047457
-0.024986075 0.035627022 -0.04339786 0.027663954 -0.038552955 0.0075958637 -0.29804555 -0.29673815
-0.05498958 -0.043829203 0.0566557 0.005961397 0.08519345 0.1678621 0.27321506 0.26010904
-0.058658123 -0.18333901 0.04929577 0.06807307 0.031192832 5.5842997e-05 -0.033894256 -0.16718744
0.21178715 0.2252089 0.0903716 -0.00587429 -0.08479036 -0.17496738 -0.17375433 -0.25399777
-0.1874246 -0.0010388014 0.1589854 0.023225732 0.15850395 -0.02358851 0.01072865 -0.03306957
-0.04254093 -0.1220062 0.21234939 -0.086042 0.022862129 -0.024935048 0.061851613 -0.072575316
-0.08231695 0.0040972517 0.0016727772 -0.47287264 -0.090409175 -0.12153242 -0.031854823 -0.07231381
0.056463294 0.08638864 0.19490129 0.2221968

model.qy_x.model.tcn_block_00.block.conv1d_layer_1.bias f4 [2]
00000000: f336 983e 4a9e e33d
0.29729423 0.111141756

model.qy_x.model.tcn_block_00.block.conv1d_layer_1.weight_g f4 [2, 1, 1]
00000000: ab8d 753f 9e46 0540
0.95919293 2.0824351

model.qy_x.model.tcn_block_00.block.conv1d_layer_1.weight_v f4 [2, 2, 9]
00000000: b221 98be 00db a3bd 80c9 703e 063c d43e
00000010: 614d 97bc 9277 1c3c cdb3 e8bd 6042 e4bd
00000020: df07 1c3d 1f9c a03d 5453 b73d b003 103c
00000030: 99c9 e9bd 8d40 8bbe e84b 42be ecea ffbd
00000040: cb7c ebbd 40c3 d43e 17d5 163e 484f 633d
00000050: 354d 31bd d8bc fbbd 0905 7c3d 8016 0abd
00000060: a65d f2bd 9fb6 58bd 540f e6be fa8d 8abd
00000070: f44f c03c dd5e 863d 09dd 483d 30b4 4a3e
00000080: 5f13 853d 74c5 e83d cf4d 453e 3688 79be
-0.29713207 -0.08000755 0.23514366 0.41452044 -0.018469514 0.009549992 -0.11362419 -0.111454725
0.038093444 0.07842278 0.089514405 0.008789942 -0.11415405 -0.27197686 -0.18974268 -0.1249598
-0.11498412 0.41555214 0.14729725 0.05549553 -0.04328652 -0.122918785 0.06152824 -0.033712864
-0.11834268 -0.052908536 -0.4493357 -0.06765361 0.023475625 0.065610625 0.04903892 0.19795299
0.06497835 0.11365786 0.19267963 -0.24368367

model.qy_x.model.tcn_block_00.downsample.weight f4 [2, 10, 1]
00000000: c39f 01bf 46ff 913e a20b de3d 78f3 a43d
00000010: 9488 afbe 31ba bcbe 0241 353f 9e9f 163f
00000020: 1617 eabe 7c73 e43c 9621 9a3f 656d 5fbe
00000030: bd30 30be 0674 5e3d ae4a 34be 8b2e e63e
00000040: 0715 f5be 2a58 9ebf 764f 353f 8fba ccbe
-0.506344 0.2851507 0.108420625 0.080542505 -0.34283888 -0.36860803 0.7080232 0.58837306
-0.45720738 0.027887098 1.20415 -0.21819074 -0.17206092 0.054309867 -0.17606613 0.44957384
-0.47867605 -1.2370656 0.7082437 -0.39986083

model.qy_x.model.tcn_block_00.downsample.bias f4 [2]
00000000: 8363 5c40 1943 2340
3.4435737 2.5509703

model.qy_x.model.tcn_block_01.conv0.bias f4 [2]
00000000: bffd 173f 661a 9a3f
0.5937156 1.2039306

model.qy_x.model.tcn_block_01.conv0.weight_g f4 [2, 1, 1]
00000000: 1299 1340 96eb ba3f
2.3062177 1.4603145

model.qy_x.model.tcn_block_01.conv0.weight_v f4 [2, 2, 9]
00000000: a87e 1f3e 53af 843d cdbe 103d 597d 16bc
00000010: f1bf 47bc 3c5b c5bc 8163 98bd 5815 90bd
00000020: 50d8 9abd ad20 1dbe 8d98 3abe 70ac 3ebe
00000030: ad1c 0fbe 5c2c 97bc 55e5 fd3c 7987 0e3e
00000040: e4d0 333e f0af 923e 2a11 5fbd 685e 153e
00000050: df73 833e 98a0 ac3e 9444 653e adf0 883e
00000060: 0b6f 1d3e 08f6 ad3d 9f36 003e 0fca 31be
00000070: fd69 e1bd 8c21 a8bd 1d44 57bd f788 4abd
00000080: 5f9a 93bc cb1b a4bc ccb2 75bc c30c 023d
0.1557566 0.06478753 0.03533821 -0.009185159 -0.0121917585 -0.024091356 -0.07440854 -0.07035321
-0.075607896 -0.15344496 -0.18222256 -0.18620467 -0.13975783 -0.01845377 0.030993143 0.13918866
0.17560154 0.28649855 -0.05445973 0.14586794 0.2567434 0.33716273 0.22389442 0.2674612
0.15374391 0.08494192 0.12520836 -0.17362235 -0.11006544 -0.082095236 -0.052555192 -0.049447026
-0.018017946 -0.020032784 -0.014996242 0.03175045

model.qy_x.model.tcn_block_01.conv1.bias f4 [4]
00000000: 0aa2 b73f 8b6a 423f 4609 8f3f 7062 6c3e
1.4346325 0.7594382 1.1174705 0.23084426

model.qy_x.model.tcn_block_01.conv1.weight_g f4 [4, 1, 1]
00000000: 99bc e13f fc5b 903f e032 ce3f 7302 d53f
1.763568 1.1278071 1.6109276 1.6641372

model.qy_x.model.tcn_block_01.conv1.weight_v f4 [4, 2, 9]
00000000: c156 0abf 33c6 c2be 8569 46be f2f4 eebc
00000010: 2f9a be3d 2803 c93d 2dce 803d 4fb5 283d
00000020: 7861 c6bc 9093 a9be 4c8f 69be 2164 90bd
00000030: 26af 31be 2b94 41be 58d4 c43d 064f 8f3e
00000040: e4b6 413e cb74 3e3e 9e5d 963e 4ef6 193f
00000050: 4bcd 6d3e 003a 48be 7c8e a7be c88f 0abf
00000060: 2e3f 27bf 5004 23bf 3ea8 d0be dbaf b9be
00000070: 66eb a0be 6598 ed3d f059 793d 8820 ae3d
00000080: 2842 51be 8742 3a3e b8c9 123e e91c b83d
00000090: e726 85be 3763 55be e338 e4bd 5845 b5bc
000000a0: 122d 123d 0e1e 4a3d 95c8 063d d221 213c
000000b0: af66 51bd d3ef 3fbe 0851 1fbe a8d6 21be
000000c0: 0ee5 57bd d89c 27bd e87a 4c3d 8cae 003e
000000d0: 3e9f 5d3e 6ebc 943e 506f 053e 528d d4bb
000000e0: f586 00be 6673 2ebe 9ee0 1ebe 1267 b2bd
000000f0: eafe 0c3c 383e 033e c912 c13e f488 673e
00000100: 635c 0b3e 66cd 013e fcf1 bc3d 0a93 6d3c
00000110: 8454 10bd 4181 c3bd fb5c eebd b1d6 44be
-0.54038626 -0.3804184 -0.1937619 -0.029169533 0.09306752 0.09815055 0.06289325 0.041188534
-0.024216399 -0.33120394 -0.2280857 -0.07050348 -0.1735197 -0.18904178 0.09610814 0.27989978
0.18917423 0.1859924 0.293683 0.60141456 0.23222844 -0.19553375 -0.32725894 -0.5412564
-0.6533078 -0.63678455 -0.4075336 -0.3626698 -0.31429595 0.116013326 0.060876787 0.085022986
-0.20435393 0.1818944 0.14334762 0.08989889 -0.26006243 -0.20838629 -0.11143663 -0.022127792
0.035687514 0.04934507 0.032906134 0.009834724 -0.051123317 -0.1874383 -0.15558255 -0.15804541
-0.052708678 -0.040921062 0.0499219 0.12566584 0.21642777 0.2905001 0.13030744 -0.0064865733
-0.12551482 -0.17036209 -0.15515372 -0.08711065 0.008605698 0.12816703 0.37709644 0.22610837
0.13609461 0.1267601 0.09225842 0.014500389 -0.03523685 -0.095461376 -0.11638828 -0.19222523

model.qy_x.model.tcn_block_01.block.conv1d_layer_0.bias f4 [2]
00000000: bffd 173f 661a 9a3f
0.5937156 1.2039306

model.qy_x.model.tcn_block_01.block.conv1d_layer_0.weight_g f4 [2, 1, 1]
00000000: 1299 1340 96eb ba3f
2.3062177 1.4603145

model.qy_x.model.tcn_block_01.block.conv1d_layer_0.weight_v f4 [2, 2, 9]
00000000: a87e 1f3e 53af 843d cdbe 103d 597d 16bc
00000010: f1bf 47bc 3c5b c5bc 8163 98bd 5815 90bd
00000020: 50d8 9abd ad20 1dbe 8d98 3abe 70ac 3ebe
00000030: ad1c 0fbe 5c2c 97bc 55e5 fd3c 7987 0e3e
00000040: e4d0 333e f0af 923e 2a11 5fbd 685e 153e
00000050: df73 833e 98a0 ac3e 9444 653e adf0 883e
00000060: 0b6f 1d3e 08f6 ad3d 9f36 003e 0fca 31be
00000070: fd69 e1bd 8c21 a8bd 1d44 57bd f788 4abd
00000080: 5f9a 93bc cb1b a4bc ccb2 75bc c30c 023d
0.1557566 0.06478753 0.03533821 -0.009185159 -0.0121917585 -0.024091356 -0.07440854 -0.07035321
-0.075607896 -0.15344496 -0.18222256 -0.18620467 -0.13975783 -0.01845377 0.030993143 0.13918866
0.17560154 0.28649855 -0.05445973 0.14586794 0.2567434 0.33716273 0.22389442 0.2674612
0.15374391 0.08494192 0.12520836 -0.17362235 -0.11006544 -0.082095236 -0.052555192 -0.049447026
-0.018017946 -0.020032784 -0.014996242 0.03175045

model.qy_x.model.tcn_block_01.block.conv1d_layer_1.bias f4 [4]
00000000: 0aa2 b73f 8b6a 423f 4609 8f3f 7062 6c3e
1.4346325 0.7594382 1.1174705 0.23084426

model.qy_x.model.tcn_block_01.block.conv1d_layer_1.weight_g f4 [4, 1, 1]
00000000: 99bc e13f fc5b 903f e032 ce3f 7302 d53f
1.763568 1.1278071 1.6109276 1.6641372

model.qy_x.model.tcn_block_01.block.conv1d_layer_1.weight_v f4 [4, 2, 9]
00000000: c156 0abf 33c6 c2be 8569 46be f2f4 eebc
00000010: 2f9a be3d 2803 c93d 2dce 803d 4fb5 283d
00000020: 7861 c6bc 9093 a9be 4c8f 69be 2164 90bd
00000030: 26af 31be 2b94 41be 58d4 c43d 064f 8f3e
00000040: e4b6 413e cb74 3e3e 9e5d 963e 4ef6 193f
00000050: 4bcd 6d3e 003a 48be 7c8e a7be c88f 0abf
00000060: 2e3f 27bf 5004 23bf 3ea8 d0be dbaf b9be
00000070: 66eb a0be 6598 ed3d f059 793d 8820 ae3d
00000080: 2842 51be 8742 3a3e b8c9 123e e91c b83d
00000090: e726 85be 3763 55be e338 e4bd 5845 b5bc
000000a0: 122d 123d 0e1e 4a3d 95c8 063d d221 213c
000000b0: af66 51bd d3ef 3fbe 0851 1fbe a8d6 21be
000000c0: 0ee5 57bd d89c 27bd e87a 4c3d 8cae 003e
000000d0: 3e9f 5d3e 6ebc 943e 506f 053e 528d d4bb
000000e0: f586 00be 6673 2ebe 9ee0 1ebe 1267 b2bd
000000f0: eafe 0c3c 383e 033e c912 c13e f488 673e
00000100: 635c 0b3e 66cd 013e fcf1 bc3d 0a93 6d3c
00000110: 8454 10bd 4181 c3bd fb5c eebd b1d6 44be
-0.54038626 -0.3804184 -0.1937619 -0.029169533 0.09306752 0.09815055 0.06289325 0.041188534
-0.024216399 -0.33120394 -0.2280857 -0.07050348 -0.1735197 -0.18904178 0.09610814 0.27989978
0.18917423 0.1859924 0.293683 0.60141456 0.23222844 -0.19553375 -0.32725894 -0.5412564
-0.6533078 -0.63678455 -0.4075336 -0.3626698 -0.31429595 0.116013326 0.060876787 0.085022986
-0.20435393 0.1818944 0.14334762 0.08989889 -0.26006243 -0.20838629 -0.11143663 -0.022127792
0.035687514 0.04934507 0.032906134 0.009834724 -0.051123317 -0.1874383 -0.15558255 -0.15804541
-0.052708678 -0.040921062 0.0499219 0.12566584 0.21642777 0.2905001 0.13030744 -0.0064865733
-0.12551482 -0.17036209 -0.15515372 -0.08711065 0.008605698 0.12816703 0.37709644 0.22610837
0.13609461 0.1267601 0.09225842 0.014500389 -0.03523685 -0.095461376 -0.11638828 -0.19222523

model.qy_x.model.tcn_block_01.downsample.weight f4 [4, 2, 1]
00000000: 3a5d 993e b678 54bf 3e36 c8bd ecc7 9e3f
00000010: 521c 923e 3c3a 89be d2fa ba3f 5c04 5e3d
0.2995394 -0.8299669 -0.09775971 1.2404761 0.28537232 -0.26802242 1.4607794 0.054203376

model.qy_x.model.tcn_block_01.downsample.bias f4 [4]
00000000: 6a6d 973f 9b42 a93f 156a ba3f c68b b53e
1.1830266 1.3223451 1.4563624 0.354582

model.qy_x.model.final_dense_02.weight f4 [4, 4, 1]
00000000: d1eb d3be 5915 513f 8f87 57be b1bb 3ac0
00000010: f2e6 9a3d 9ba7 20c0 a092 5c3e 38a8 ef3e
00000020: efc5 9abf 8d3d a13d 53c5 8fbf 45dc e13e
00000030: 62f3 923f fdb7 2e3e 9f23 ac3e bfaa 44bf
-0.4139085 0.816732 -0.21047805 -2.9177058 0.075635806 -2.5102298 0.21540308 0.46808028
-1.2091655 0.07873068 -1.1232094 0.44113365 1.1480525 0.17062373 0.33620927 -0.7682304

model.qy_x.model.final_dense_02.bias f4 [4]
00000000: 0eff c1be bd4e 2cbf 44bb e03e 7745 e13e
-0.37889904 -0.67307645 0.43892872 0.4399831

model.encoder.model.tcn_block_00.conv0.bias f4 [2]
00000000: 9c4f b83d d58c 2cbe
0.08999559 -0.16850598

model.encoder.model.tcn_block_00.conv0.weight_g f4 [2, 1, 1]
00000000: 91f7 0b3f 5dcd d23e
0.5467463 0.41172305

model.encoder.model.tcn_block_00.conv0.weight_v f4 [2, 14, 9]
00000000: a34f a63d 0d64 2a3c 6573 bdbd 5d6d 143e
00000010: 3747 4dbe b9b6 5c3d 9de7 96bc b68b 5a3d
00000020: 3f2b 3fbd 0221 18bd 545a 60ba ea10 7b3d
00000030: 0d42 c8bd cd6d f13d c554 2bbd 32e3 e33a
00000040: fe04 d9bc 1eb4 373d 7e01 83bc 919c 373c
00000050: fe20 083d 1dd6 a1bd 9b88 8e3d e6fb f8bc
00000060: 4c8d 193a eb60 96bc a792 a03c 4c25 a9bc
00000070: 5a14 91bc 0f6a b5bc 12b4 ed3c f4cf 1b3c
00000080: e25f 333d db16 fe3c 141a 393d 5882 f83b
00000090: a3cf 673d da61 0bbd d4ae 7bbc cc74 82bc
000000a0: 8d3c d3bc d529 b93c f042 373c e678 34bd
000000b0: 8b37 06bd b216 403d c151 8b3c 5565 1ebd
000000c0: c3e5 f53d b819 eebd 597e 873c 8bdf 43bc
000000d0: f765 b93c a8b5 60bd 10f9 a0bd 831c 8a3d
000000e0: 5ecd b13d 7483 b5bc 6b80 cf3d b0ff abbd
000000f0: d398 54bb e5f0 7b3d 0914 13bc 1cca 2ebd
00000100: 932b d03c 3248 f63d b5cb 0cbe a029 563e
00000110: 5932 d5bd 6cb5 85bc 9d91 0ebc 28f6 ad3d
00000120: 67e8 933d 5660 f53c a505 49bd 0b47 083e
00000130: 1fc7 12be 0aa5 893d 2588 de3b 2435 b43c
00000140: 4610 51bd 759e 29bd 940b c43a 1424 423d
00000150: 0771 2cbd 47c4 6e3d ed79 6f3d 9f38 153d
00000160: d67b 9dbd 5eea cfbc 9807 093e e808 593d
00000170: d628 293e 83ea 1b3e b960 103c b955 123e
00000180: 1bb9 123d 763a 3b3d 94fb 9b3d 34db ca3d
00000190: 8563 183e dfdf 5f3e c940 ccbc 28fb 043e
000001a0: 5e4c c8bd c986 263e c2f7 133e 04d1 bb3d
000001b0: 8fba 133e e48f 813d 14d6 183e 1101 043d
000001c0: b954 613d 65fb 383d d05a e43d c924 033e
000001d0: 34c2 b73d 2f05 f33d f4db e63d 668c 4d3e
000001e0: 1196 fd3d 631b 083c 1563 543d a28a 013d
000001f0: b578 723c 837c 863d be50 783d 7c78 2e3d
00000200: d042 2d3d c065 e3bc 711d 7c3c 9e38 c4bc
00000210: f93b 9ebd ab92 1abd 87a8 2bbd 4a50 81bd
00000220: f1af 1cbd 452e 16bd 1b48 0a3d 59af 66bc
00000230: fbbc 073d 5e07 943d 12e3 003d e42f 823d
00000240: 5775 58bd 2b09 bdbc dd26 7dbd a1c4 1bbc
00000250: 41e2 2abd 9d44 04bd 5efa 99bb 4258 e2bc
00000260: e53a 18bb 8d62 843c f374 58bd 8167 f73d
00000270: 6fbe 95bc deb2 c43c 08dd a83d 950d 5bbd
00000280: 5845 893d 2ad7 77bd 6cf2 bebc 355e 1e3a
00000290: 7e33 d8bc e7b4 ceb9 e7ca c73c e7fd 94bb
000002a0: 20ac dd3c 9b5d 88bc aad9 403c 90c5 5e3d
000002b0: ea61 e53c bf4d 5e3d af42 55bc 8f8f 96bc
000002c0: 74d1 adbc 7cd6 1fbd 964d 07bd 7192 d4bd
000002d0: 4e5f 8fbc f4b1 08bd d606 d9bb eead 5e3a
000002e0: 3524 4dbb 4001 4cbc 447f d83b 902c 253d
000002f0: c006 133d daf2 e6bc c8b0 20bd 7439 8ebc
00000300: 20b7 bb3c e14f a6bc 9abd 213b 327a 5e3d
00000310: 1bdc 363d f51f df3c 6960 143c 2e52 013d
00000320: aade c43c d0da 58bb 8d5a 803c eeb2 acbc
00000330: 53e4 4fbd bf3a 14bd 4135 47bd 6810 87bd
00000340: 711d 5cbd a296 75bd 6c5d 30bc 0610 983c
00000350: 7df1 debb 3d73 3e3d 346a a6bb 758f e53c
00000360: 3b74 9f3c 0017 833c c90b 063d 8ad3 babc
00000370: c813 e0bc a252 d1bc 6d86 71bd 9afb 04bd
00000380: e29d 1bbd c1a5 d73d 01cb 1ebd 7c18 abbd
00000390: f97e de3c 071a 05bc cc7e 0a3e 89f5 b13d
000003a0: 01fc 773c 5666 2d3e eb18 abbd 65b9 513e
000003b0: 9c59 ecbc 6c89 f8bd 9556 62bd 5f20 ddbd
000003c0: f7bd ca3c 5a99 3d3e 6164 893d 0a26 03bf
000003d0: d958 c5be f3c3 90be 153f 8c3c e8a0 e6bd
000003e0: 241c 55be dd86 c2bd 2c50 1bbe 5a0b 85bb
0.08120658 0.0103998305 -0.092505254 0.14494844 -0.20046698 0.053885195 -0.018420989 0.053355895
-0.046672102 -0.037140854 -0.0008558382 0.061295427 -0.09778223 0.11788521 -0.04182889 0.0017386435
-0.026491638 0.044849508 -0.015991922 0.011206762 0.03323459 -0.07902167 0.06959649 -0.030393552
0.00058575417 -0.018356761 0.01960118 -0.020647667 -0.0177099 -0.0221453 0.029016528 0.009510029
0.043792613 0.031016758 0.045190886 0.0075838976 0.056594502 -0.034028865 -0.0153615065 -0.015924834
-0.025785709 0.022602955 0.011185393 -0.04406061 -0.032767814 0.046896644 0.017006757 -0.038670857
0.12006714 -0.11625999 0.01653974 -0.011955152 0.022631628 -0.05486074 -0.07860005 0.067437194
0.08681749 -0.022157408 0.10131916 -0.08398378 -0.0032439723 0.06150903 -0.008976945 -0.042673215
0.025411403 0.12025489 -0.13749583 0.20914316 -0.10409994 -0.01632186 -0.008701709 0.08494216
0.072220616 0.029953163 -0.04907765 0.1330835 -0.14333771 0.06720932 0.006791132 0.021997996
-0.05104091 -0.041410882 0.0014957064 0.047397688 -0.04209998 0.058292653 0.058465887 0.03643095
-0.076896355 -0.02538031 0.13381803 0.05298701 0.16519484 0.15226178 0.008812123 0.14290513
0.03582106 0.04571005 0.07616344 0.09905091 0.14881714 0.21862744 -0.024933236 0.12986434
-0.09780191 0.16262354 0.14449981 0.09170726 0.14426635 0.06326273 0.14925414 0.03222758
0.05501244 0.045161624 0.111501336 0.12807001 0.08972588 0.11866223 0.112724215 0.20073089
0.123821385 0.008307311 0.051852304 0.03162635 0.014799287 0.065667175 0.060623877 0.04259537
0.042300045 -0.02775848 0.015387879 -0.023952778 -0.077262826 -0.03773753 -0.041908767 -0.06314142
-0.03825373 -0.03666522 0.03376017 -0.014079892 0.03313921 0.07227968 0.03146655 0.06356791
-0.05284628 -0.02307566 -0.06180464 -0.009507329 -0.04171968 -0.032291997 -0.0046990355 -0.027629975
-0.0023228463 0.016160274 -0.052845906 0.12080289 -0.018279282 0.024011072 0.08245283 -0.05347975
0.067026794 -0.06050793 -0.023308955 0.00060412596 -0.02639174 -0.00039426165 0.024388744 -0.004546869
0.027059615 -0.016646197 0.011770645 0.05438763 0.02800079 0.054273363 -0.013016387 -0.018379001
-0.02121804 -0.039022908 -0.033032976 -0.10379494 -0.0175015 -0.033372834 -0.0066231294 0.00084945455
-0.0031302099 -0.01245147 0.006606968 0.0403257 0.03589511 -0.028191973 -0.03923109 -0.01736138
0.02291447 -0.020301761 0.0024679662 0.054315753 0.044643503 0.027236918 0.009056189 0.031572513
0.024031956 -0.0033089407 0.015668178 -0.021081414 -0.050754856 -0.036188837 -0.04863477 -0.06594926
-0.053739015 -0.059958108 -0.010764461 0.018562328 -0.00680369 0.04649662 -0.0050785784 0.028022507
0.019464603 0.016002178 0.032726083 -0.022805948 -0.027353182 -0.025552098 -0.05896609 -0.03246651
-0.037992366 0.10529662 -0.03876782 -0.083542794 0.027160155 -0.008123881 0.13524932 0.0868941
0.015135766 0.1693357 -0.08354362 0.20480879 -0.028851323 -0.12135586 -0.055258352 -0.1079719
0.024748785 0.1851553 0.06708599 -0.5122992 -0.38544348 -0.28274497 0.017119924 -0.11261159
-0.20811516 -0.094983794 -0.15167302 -0.004060191

model.encoder.model.tcn_block_00.conv1.bias f4 [2]
00000000: 508f b73c 9144 68bc
0.022407204 -0.014176504

model.encoder.model.tcn_block_00.conv1.weight_g f4 [2, 1, 1]
00000000: d5cc f33e 6930 0c3f
0.47617212 0.5476137

model.encoder.model.tcn_block_00.conv1.weight_v f4 [2, 2, 9]
00000000: 960c 523d 129e b7bc bac4 013d 78eb 883c
00000010: 02ed 2d3e b33f ccbd 47eb 093d 3f80 b2bd
00000020: c43e c4bd 6176 293e e612 3cbc 06b1 333e
00000030: af05 903b c004 903d 176e 083e 6875 13be
00000040: 8a29 373e a425 3c3e c772 4bbd cb0b 02bd
00000050: 74ed 1d3e ca47 393e eb7a 2fbe 9413 143e
00000060: 4fb5 1fbe dbe3 12be 8950 f83d fe39 5a3e
00000070: 8ecf 1dbe 1d51 7dbe a033 37be 35d2 8f3e
00000080: 9fd6 6bbe 43a7 7dbe 9159 283e a1b7 2abe
0.051281534 -0.022414241 0.031681754 0.016713843 0.16984943 -0.09973087 0.033671644 -0.08715867
-0.09582284 0.16549064 -0.011479115 0.17547998 0.004395209 0.07032156 0.13323246 -0.14400256
0.1788694 0.18373734 -0.049670007 -0.031749528 0.15422612 0.18093792 -0.17136733 0.14460593
-0.15596507 -0.14344732 0.12124736 0.21311185 -0.15411207 -0.24737974 -0.17890787 0.28090063
-0.2303109 -0.24770837 0.16440417 -0.16671611

model.encoder.model.tcn_block_00.block.conv1d_layer_0.bias f4 [2]
00000000: 9c4f b83d d58c 2cbe
0.08999559 -0.16850598

model.encoder.model.tcn_block_00.block.conv1d_layer_0.weight_g f4 [2, 1, 1]
00000000: 91f7 0b3f 5dcd d23e
0.5467463 0.41172305

model.encoder.model.tcn_block_00.block.conv1d_layer_0.weight_v f4 [2, 14, 9]
00000000: a34f a63d 0d64 2a3c 6573 bdbd 5d6d 143e
00000010: 3747 4dbe b9b6 5c3d 9de7 96bc b68b 5a3d
00000020: 3f2b 3fbd 0221 18bd 545a 60ba ea10 7b3d
00000030: 0d42 c8bd cd6d f13d c554 2bbd 32e3 e33a
00000040: fe04 d9bc 1eb4 373d 7e01 83bc 919c 373c
00000050: fe20 083d 1dd6 a1bd 9b88 8e3d e6fb f8bc
00000060: 4c8d 193a eb60 96bc a792 a03c 4c25 a9bc
00000070: 5a14 91bc 0f6a b5bc 12b4 ed3c f4cf 1b3c
00000080: e25f 333d db16 fe3c 141a 393d 5882 f83b
00000090: a3cf 673d da61 0bbd d4ae 7bbc cc74 82bc
000000a0: 8d3c d3bc d529 b93c f042 373c e678 34bd
000000b0: 8b37 06bd b216 403d c151 8b3c 5565 1ebd
000000c0: c3e5 f53d b819 eebd 597e 873c 8bdf 43bc
000000d0: f765 b93c a8b5 60bd 10f9 a0bd 831c 8a3d
000000e0: 5ecd b13d 7483 b5bc 6b80 cf3d b0ff abbd
000000f0: d398 54bb e5f0 7b3d 0914 13bc 1cca 2ebd
00000100: 932b d03c 3248 f63d b5cb 0cbe a029 563e
00000110: 5932 d5bd 6cb5 85bc 9d91 0ebc 28f6 ad3d
00000120: 67e8 933d 5660 f53c a505 49bd 0b47 083e
00000130: 1fc7 12be 0aa5 893d 2588 de3b 2435 b43c
00000140: 4610 51bd 759e 29bd 940b c43a 1424 423d
00000150: 0771 2cbd 47c4 6e3d ed79 6f3d 9f38 153d
00000160: d67b 9dbd 5eea cfbc 9807 093e e808 593d
00000170: d628 293e 83ea 1b3e b960 103c b955 123e
00000180: 1bb9 123d 763a 3b3d 94fb 9b3d 34db ca3d
00000190: 8563 183e dfdf 5f3e c940 ccbc 28fb 043e
000001a0: 5e4c c8bd c986 263e c2f7 133e 04d1 bb3d
000001b0: 8fba 133e e48f 813d 14d6 183e 1101 043d
000001c0: b954 613d 65fb 383d d05a e43d c924 033e
000001d0: 34c2 b73d 2f05 f33d f4db e63d 668c 4d3e
000001e0: 1196 fd3d 631b 083c 1563 543d a28a 013d
000001f0: b578 723c 837c 863d be50 783d 7c78 2e3d
00000200: d042 2d3d c065 e3bc 711d 7c3c 9e38 c4bc
00000210: f93b 9ebd ab92 1abd 87a8 2bbd 4a50 81bd
00000220: f1af 1cbd 452e 16bd 1b48 0a3d 59af 66bc
00000230: fbbc 073d 5e07 943d 12e3 003d e42f 823d
00000240: 5775 58bd 2b09 bdbc dd26 7dbd a1c4 1bbc
00000250: 41e2 2abd 9d44 04bd 5efa 99bb 4258 e2bc
00000260: e53a 18bb 8d62 843c f374 58bd 8167 f73d
00000270: 6fbe 95bc deb2 c43c 08dd a83d 950d 5bbd
00000280: 5845 893d 2ad7 77bd 6cf2 bebc 355e 1e3a
00000290: 7e33 d8bc e7b4 ceb9 e7ca c73c e7fd 94bb
000002a0: 20ac dd3c 9b5d 88bc aad9 403c 90c5 5e3d
000002b0: ea61 e53c bf4d 5e3d af42 55bc 8f8f 96bc
000002c0: 74d1 adbc 7cd6 1fbd 964d 07bd 7192 d4bd
000002d0: 4e5f 8fbc f4b1 08bd d606 d9bb eead 5e3a
000002e0: 3524 4dbb 4001 4cbc 447f d83b 902c 253d
000002f0: c006 133d daf2 e6bc c8b0 20bd 7439 8ebc
00000300: 20b7 bb3c e14f a6bc 9abd 213b 327a 5e3d
00000310: 1bdc 363d f51f df3c 6960 143c 2e52 013d
00000320: aade c43c d0da 58bb 8d5a 803c eeb2 acbc
00000330: 53e4 4fbd bf3a 14bd 4135 47bd 6810 87bd
00000340: 711d 5cbd a296 75bd 6c5d 30bc 0610 983c
00000350: 7df1 debb 3d73 3e3d 346a a6bb 758f e53c
00000360: 3b74 9f3c 0017 833c c90b 063d 8ad3 babc
00000370: c813 e0bc a252 d1bc 6d86 71bd 9afb 04bd
00000380: e29d 1bbd c1a5 d73d 01cb 1ebd 7c18 abbd
00000390: f97e de3c 071a 05bc cc7e 0a3e 89f5 b13d
000003a0: 01fc 773c 5666 2d3e eb18 abbd 65b9 513e
000003b0: 9c59 ecbc 6c89 f8bd 9556 62bd 5f20 ddbd
000003c0: f7bd ca3c 5a99 3d3e 6164 893d 0a26 03bf
000003d0: d958 c5be f3c3 90be 153f 8c3c e8a0 e6bd
000003e0: 241c 55be dd86 c2bd 2c50 1bbe 5a0b 85bb
0.08120658 0.0103998305 -0.092505254 0.14494844 -0.20046698 0.053885195 -0.018420989 0.053355895
-0.046672102 -0.037140854 -0.0008558382 0.061295427 -0.09778223 0.11788521 -0.04182889 0.0017386435
-0.026491638 0.044849508 -0.015991922 0.011206762 0.03323459 -0.07902167 0.06959649 -0.030393552
0.00058575417 -0.018356761 0.01960118 -0.020647667 -0.0177099 -0.0221453 0.029016528 0.009510029
0.043792613 0.031016758 0.045190886 0.0075838976 0.056594502 -0.034028865 -0.0153615065 -0.015924834
-0.025785709 0.022602955 0.011185393 -0.04406061 -0.032767814 0.046896644 0.017006757 -0.038670857
0.12006714 -0.11625999 0.01653974 -0.011955152 0.022631628 -0.05486074 -0.07860005 0.067437194
0.08681749 -0.022157408 0.10131916 -0.08398378 -0.0032439723 0.06150903 -0.008976945 -0.042673215
0.025411403 0.12025489 -0.13749583 0.20914316 -0.10409994 -0.01632186 -0.008701709 0.08494216
0.072220616 0.029953163 -0.04907765 0.1330835 -0.14333771 0.06720932 0.006791132 0.021997996
-0.05104091 -0.041410882 0.0014957064 0.047397688 -0.04209998 0.058292653 0.058465887 0.03643095
-0.076896355 -0.02538031 0.13381803 0.05298701 0.16519484 0.15226178 0.008812123 0.14290513
0.03582106 0.04571005 0.07616344 0.09905091 0.14881714 0.21862744 -0.024933236 0.12986434
-0.09780191 0.16262354 0.14449981 0.09170726 0.14426635 0.06326273 0.14925414 0.03222758
0.05501244 0.045161624 0.111501336 0.12807001 0.08972588 0.11866223 0.112724215 0.20073089
0.123821385 0.008307311 0.051852304 0.03162635 0.014799287 0.065667175 0.060623877 0.04259537
0.042300045 -0.02775848 0.015387879 -0.023952778 -0.077262826 -0.03773753 -0.041908767 -0.06314142
-0.03825373 -0.03666522 0.03376017 -0.014079892 0.03313921 0.07227968 0.03146655 0.06356791
-0.05284628 -0.02307566 -0.06180464 -0.009507329 -0.04171968 -0.032291997 -0.0046990355 -0.027629975
-0.0023228463 0.016160274 -0.052845906 0.12080289 -0.018279282 0.024011072 0.08245283 -0.05347975
0.067026794 -0.06050793 -0.023308955 0.00060412596 -0.02639174 -0.00039426165 0.024388744 -0.004546869
0.027059615 -0.016646197 0.011770645 0.05438763 0.02800079 0.054273363 -0.013016387 -0.018379001
-0.02121804 -0.039022908 -0.033032976 -0.10379494 -0.0175015 -0.033372834 -0.0066231294 0.00084945455
-0.0031302099 -0.01245147 0.006606968 0.0403257 0.03589511 -0.028191973 -0.03923109 -0.01736138
0.02291447 -0.020301761 0.0024679662 0.054315753 0.044643503 0.027236918 0.009056189 0.031572513
0.024031956 -0.0033089407 0.015668178 -0.021081414 -0.050754856 -0.036188837 -0.04863477 -0.06594926
-0.053739015 -0.059958108 -0.010764461 0.018562328 -0.00680369 0.04649662 -0.0050785784 0.028022507
0.019464603 0.016002178 0.032726083 -0.022805948 -0.027353182 -0.025552098 -0.05896609 -0.03246651
-0.037992366 0.10529662 -0.03876782 -0.083542794 0.027160155 -0.008123881 0.13524932 0.0868941
0.015135766 0.1693357 -0.08354362 0.20480879 -0.028851323 -0.12135586 -0.055258352 -0.1079719
0.024748785 0.1851553 0.06708599 -0.5122992 -0.38544348 -0.28274497 0.017119924 -0.11261159
-0.20811516 -0.094983794 -0.15167302 -0.004060191

model.encoder.model.tcn_block_00.block.conv1d_layer_1.bias f4 [2]
00000000: 508f b73c 9144 68bc
0.022407204 -0.014176504

model.encoder.model.tcn_block_00.block.conv1d_layer_1.weight_g f4 [2, 1, 1]
00000000: d5cc f33e 6930 0c3f
0.47617212 0.5476137

model.encoder.model.tcn_block_00.block.conv1d_layer_1.weight_v f4 [2, 2, 9]
00000000: 960c 523d 129e b7bc bac4 013d 78eb 883c
00000010: 02ed 2d3e b33f ccbd 47eb 093d 3f80 b2bd
00000020: c43e c4bd 6176 293e e612 3cbc 06b1 333e
00000030: af05 903b c004 903d 176e 083e 6875 13be
00000040: 8a29 373e a425 3c3e c772 4bbd cb0b 02bd
00000050: 74ed 1d3e ca47 393e eb7a 2fbe 9413 143e
00000060: 4fb5 1fbe dbe3 12be 8950 f83d fe39 5a3e
00000070: 8ecf 1dbe 1d51 7dbe a033 37be 35d2 8f3e
00000080: 9fd6 6bbe 43a7 7dbe 9159 283e a1b7 2abe
0.051281534 -0.022414241 0.031681754 0.016713843 0.16984943 -0.09973087 0.033671644 -0.08715867
-0.09582284 0.16549064 -0.011479115 0.17547998 0.004395209 0.07032156 0.13323246 -0.14400256
0.1788694 0.18373734 -0.049670007 -0.031749528 0.15422612 0.18093792 -0.17136733 0.14460593
-0.15596507 -0.14344732 0.12124736 0.21311185 -0.15411207 -0.24737974 -0.17890787 0.28090063
-0.2303109 -0.24770837 0.16440417 -0.16671611

model.encoder.model.tcn_block_00.downsample.weight f4 [2, 14, 1]
00000000: 0c83 6a3e 6eff 29be f28b d0bd 45a8 153e
00000010: b562 11be bc38 4f3e 2891 323c acd2 13be
00000020: 503c 003e 4b1b 84be ab69 8d3f d541 853f
00000030: 49fc 8a3f 339c 893f e9ae 0cbe 5340 933d
00000040: 0fc4 cc3d 5c78 d63d d6f4 4abe ee5d 2abd
00000050: 45ce 903e 15c4 603e 190a 23be f138 b2bd
00000060: 29ec 9a3f 4bef a33f 546c 9f3f 097d 9d3f
0.22901553 -0.16601345 -0.101829425 0.14614971 -0.1419781 0.20236486 0.010898866 -0.14435834
0.12523007 -0.25802073 1.1047872 1.0410715 1.0858241 1.0750793 -0.13738598 0.07190003
0.09998333 0.104721755 -0.1981996 -0.041593485 0.2828237 0.219498 -0.1592182 -0.08702267
1.210332 1.2807401 1.2454934 1.2303783

model.encoder.model.tcn_block_00.downsample.bias f4 [2]
00000000: 9667 bb3f dcc3 943f
1.4640987 1.1622272

model.encoder.model.tcn_block_01.conv0.bias f4 [2]
00000000: dc62 36be 49ff 953d
-0.1781115 0.073240824

model.encoder.model.tcn_block_01.conv0.weight_g f4 [2, 1, 1]
00000000: 5389 223f 14a8 d63e
0.6349079 0.41925108

model.encoder.model.tcn_block_01.conv0.weight_v f4 [2, 2, 9]
00000000: 2fc6 453e 3e9b df3d 79db 933c 5ef6 51bd
00000010: cf83 0bbe f23d 65be 8d5a 863d a0f3 993d
00000020: fddb 4dbe 0e30 393c afcf 0a3e b2a4 4e3e
00000030: e29b 5c3d c6d7 92bb 513f a3bd 32f1 41be
00000040: 293f 103d 50d5 13be 57ba 503e 90e2 80bc
00000050: 9bbf 44bd f9e5 3bbe 4b54 0bbe 81e8 5dbc
00000060: 48d3 313d 3e0d aabd 1d01 1d3e 5a07 65be
00000070: ff25 9d3d 2a3f 4b3e 4d4a babd 9e04 3d3e
00000080: 866f 5aba c5b0 48be 15d1 01be 65bf 103e
0.19313882 0.10918282 0.018048989 -0.051260345 -0.136245 -0.22386912 0.0656024 0.07517171
-0.2010345 0.011302961 0.13555788 0.20180014 0.0538596 -0.0044812886 -0.07971061 -0.18939665
0.035216484 -0.14436841 0.20383583 -0.015733033 -0.04803429 -0.18349446 -0.13606374 -0.013544203
0.043414384 -0.08303307 0.15332456 -0.22366086 0.07673263 0.19848314 -0.09096203 0.18458793
-0.00083326583 -0.19598682 -0.12677415 0.14135511

model.encoder.model.tcn_block_01.conv1.bias f4 [2]
00000000: 35b8 58bd 82c2 e2bc
-0.05291005 -0.02768064

model.encoder.model.tcn_block_01.conv1.weight_g f4 [2, 1, 1]
00000000: a248 173f ea15 0f3f
0.59095204 0.55892813

model.encoder.model.tcn_block_01.conv1.weight_v f4 [2, 2, 9]
00000000: ae2b 113e 50f8 d23c 7a14 5e3c 9852 c93d
00000010: 81be de3c b89b 83be 3e45 56be 668d ecbe
00000020: 8923 143b 4869 453e b44a 2d3d fb0e c3bd
00000030: 0649 3c3e cee9 3fbd 5dff 6f3c e8c6 2dbe
00000040: d6c8 2abe 9f35 f9bc debe 8e3c b57d 443d
00000050: c519 1d3e 0e2f d8bc 538b 04be f4b6 90be
00000060: f773 71be 1584 98be d642 95be 5410 833c
00000070: feeb f6bc aee6 123d d45a 12be 2f1f 493d
00000080: ed37 413d 8916 0dbd 1a15 1fbe 1385 203e
0.14176819 0.02575317 0.013554687 0.09830207 0.027190449 -0.2570474 -0.20924851 -0.46201628
0.0022604188 0.19278443 0.04230757 -0.09524342 0.18387231 -0.046853833 0.014648286 -0.16970408
-0.16678175 -0.030421076 0.017424997 0.047971446 0.15341862 -0.026389625 -0.12943773 -0.28264582
-0.23579393 -0.2978827 -0.29152554 0.015998997 -0.030141827 0.035864525 -0.1429246 0.049102005
0.047172476 -0.03444532 -0.15535393 0.15675764

model.encoder.model.tcn_block_01.block.conv1d_layer_0.bias f4 [2]
00000000: dc62 36be 49ff 953d
-0.1781115 0.073240824

model.encoder.model.tcn_block_01.block.conv1d_layer_0.weight_g f4 [2, 1, 1]
00000000: 5389 223f 14a8 d63e
0.6349079 0.41925108

model.encoder.model.tcn_block_01.block.conv1d_layer_0.weight_v f4 [2, 2, 9]
00000000: 2fc6 453e 3e9b df3d 79db 933c 5ef6 51bd
00000010: cf83 0bbe f23d 65be 8d5a 863d a0f3 993d
00000020: fddb 4dbe 0e30 393c afcf 0a3e b2a4 4e3e
00000030: e29b 5c3d c6d7 92bb 513f a3bd 32f1 41be
00000040: 293f 103d 50d5 13be 57ba 503e 90e2 80bc
00000050: 9bbf 44bd f9e5 3bbe 4b54 0bbe 81e8 5dbc
00000060: 48d3 313d 3e0d aabd 1d01 1d3e 5a07 65be
00000070: ff25 9d3d 2a3f 4b3e 4d4a babd 9e04 3d3e
00000080: 866f 5aba c5b0 48be 15d1 01be 65bf 103e
0.19313882 0.10918282 0.018048989 -0.051260345 -0.136245 -0.22386912 0.0656024 0.07517171
-0.2010345 0.011302961 0.13555788 0.20180014 0.0538596 -0.0044812886 -0.07971061 -0.18939665
0.035216484 -0.14436841 0.20383583 -0.015733033 -0.04803429 -0.18349446 -0.13606374 -0.013544203
0.043414384 -0.08303307 0.15332456 -0.22366086 0.07673263 0.19848314 -0.09096203 0.18458793
-0.00083326583 -0.19598682 -0.12677415 0.14135511

model.encoder.model.tcn_block_01.block.conv1d_layer_1.bias f4 [2]
00000000: 35b8 58bd 82c2 e2bc
-0.05291005 -0.02768064

model.encoder.model.tcn_block_01.block.conv1d_layer_1.weight_g f4 [2, 1, 1]
00000000: a248 173f ea15 0f3f
0.59095204 0.55892813

model.encoder.model.tcn_block_01.block.conv1d_layer_1.weight_v f4 [2, 2, 9]
00000000: ae2b 113e 50f8 d23c 7a14 5e3c 9852 c93d
00000010: 81be de3c b89b 83be 3e45 56be 668d ecbe
00000020: 8923 143b 4869 453e b44a 2d3d fb0e c3bd
00000030: 0649 3c3e cee9 3fbd 5dff 6f3c e8c6 2dbe
00000040: d6c8 2abe 9f35 f9bc debe 8e3c b57d 443d
00000050: c519 1d3e 0e2f d8bc 538b 04be f4b6 90be
00000060: f773 71be 1584 98be d642 95be 5410 833c
00000070: feeb f6bc aee6 123d d45a 12be 2f1f 493d
00000080: ed37 413d 8916 0dbd 1a15 1fbe 1385 203e
0.14176819 0.02575317 0.013554687 0.09830207 0.027190449 -0.2570474 -0.20924851 -0.46201628
0.0022604188 0.19278443 0.04230757 -0.09524342 0.18387231 -0.046853833 0.014648286 -0.16970408
-0.16678175 -0.030421076 0.017424997 0.047971446 0.15341862 -0.026389625 -0.12943773 -0.28264582
-0.23579393 -0.2978827 -0.29152554 0.015998997 -0.030141827 0.035864525 -0.1429246 0.049102005
0.047172476 -0.03444532 -0.15535393 0.15675764

model.qz_xy_mean.dense(qz_xy_mean)_layer_03.weight f4 [2, 2]
00000000: 0363 7b3f 5283 8b3e aefc 3ebf fb50 a83f
0.98197955 0.27248627 -0.7460431 1.3149713

model.qz_xy_mean.dense(qz_xy_mean)_layer_03.bias f4 [2]
00000000: 0f41 1dc0 d666 86bf
-2.4570959 -1.0500133

model.qz_xy_logvar.dense(qz_xy_logvar)_layer_03.weight f4 [2, 2]
00000000: 1e60 86bf d3fb a3bf 33e0 43bf 3fec 7cbf
-1.0498083 -1.2811226 -0.76513976 -0.9879798

model.qz_xy_logvar.dense(qz_xy_logvar)_layer_03.bias f4 [2]
00000000: 86d5 a5bf 3f68 d7bf
-1.2955787 -1.6828688

model.py_t_probs.dense(py_t_probs)_layer_00.weight f4 [4, 2]
00000000: 1780 173f c970 aec0 0c4e 60bf 1e30 8340
00000010: 1319 3b40 2668 4ebd 9d0e 3cc0 f209 fdbf
0.59179825 -5.4512677 -0.8761909 4.0996237 2.9234054 -0.050392292 -2.938392 -1.976866

model.py_t_probs.dense(py_t_probs)_layer_00.bias f4 [4]
00000000: 373d 5ec0 0e6f 9ebf 8209 b53f e070 8940
-3.4724863 -1.2377641 1.4143527 4.2950287

model.pz_t_mean.dense(pz_t_mean)_layer_00.weight f4 [8, 2]
00000000: 6254 863f 3240 c63d f3ef 62be 87fb 643f
00000010: 9fa8 823f f071 433d 5f04 e4bd 4272 713f
00000020: 2803 793f a7e3 15bc b79f 8bbb 4259 7d3f
00000030: 4a7e 6f3f e54b a1bc fe8e debc 93de 773f
1.0494502 0.09680213 -0.22161846 0.894463 1.0207709 0.04771608 -0.11133646 0.9431497
0.9727044 -0.009148515 -0.004260983 0.9896432 0.93552077 -0.01968951 -0.027167793 0.96823996

model.pz_t_mean.dense(pz_t_mean)_layer_00.bias f4 [8]
00000000: 8e29 da3d 10fd 753d 48de 85bd d30f d53d
00000010: 8519 8b3d 5b39 84bd cb55 bfbd 2df2 283e
0.10652457 0.060055792 -0.065365374 0.10403409 0.06791977 -0.06456252 -0.093425356 0.16498633

model.pz_t_logvar.dense(pz_t_logvar)_layer_00.weight f4 [2, 4]
00000000: 91ab f4bf 6143 05c0 2c8c 16c0 ddbc b4bf
00000010: 27f0 fdbf dbcd 10c0 f817 23c0 cd2f bdbf
-1.9114858 -2.0822375 -2.3523054 -1.4120136 -1.9838914 -2.2625644 -2.548338 -1.4780213

model.pz_t_logvar.dense(pz_t_logvar)_layer_00.bias f4 [2]
00000000: 617d 16c0 7b8c f3bf
-2.3514025 -1.9027246

model.decoder.dense(decoder)_layer_00.weight f4 [10, 2]
00000000: cc28 b03e 3f72 b2be 7d5e f3be e31a 8c3e
00000010: dafb 36be b820 d43e 0118 853f af33 8d3e
00000020: 6ce2 86bf 5a24 06bf 652b 243f 82e9 2cbe
00000030: 11cb 2e3f ca57 243f 1378 af3d 1d97 073f
00000040: b1ad c53c 3bb6 fabe 5a2c 80bf 51d4 25be
0.34406126 -0.34852788 -0.47533026 0.27364263 -0.17869511 0.41431212 1.039795 0.27578494
-1.0537848 -0.5239922 0.64128715 -0.16885951 0.68278605 0.64196455 0.08567824 0.52964956
0.024130674 -0.48967156 -1.0013535 -0.16194274

model.decoder.dense(decoder)_layer_00.bias f4 [10]
00000000: a7ca 24be 209f 8b3e 8526 e93c 8f1b 4ebf
00000010: 6b03 603f 6400 d5be d1e7 23bf f9ec 40be
00000020: 1cc0 cd3d 8083 403f
-0.1609293 0.2726984 0.02846075 -0.805108 0.87505215 -0.4160186 -0.640256 -0.18840398
0.100464076 0.75200653

inference.model.qy_x.model.tcn_block_00.conv0.bias f4 [2]
00000000: f96c c7be 8c9c 9b3e
-0.38950327 0.30392873

inference.model.qy_x.model.tcn_block_00.conv0.weight_g f4 [2, 1, 1]
00000000: d44c 0040 e632 dc3f
2.0046892 1.7203033

inference.model.qy_x.model.tcn_block_00.conv0.weight_v f4 [2, 10, 9]
00000000: f645 2ebc f247 643d 624c 9c3d 562a b6bc
00000010: 711f a1be 8bae 85bd 4d29 1fbe e01d 1fbe
00000020: 41b2 d1be 773c 393e b210 f5bc fd39 3abd
00000030: 937c 403d ffa9 c33d d267 5d3c 0ce9 08be
00000040: 6a34 743d 0a64 883e 7582 8abd 15ac 883d
00000050: be4e 6c3c 9d21 453d 6262 d9bc cc9a eabb
00000060: b5f6 44bd f804 16bd de92 e53c e752 c13c
00000070: dc49 bebb 2b0e 29bd 1349 8f3c 0eaa e2bb
00000080: 91aa b6bd a357 5ab9 604a 943c 07ba c2bd
00000090: b37f 793d 792e 00be 0202 ffbc dfe9 10be
000000a0: 0bf4 d2bd be8f efbd 16c7 00bd bbcc b43c
000000b0: c9a9 383d f317 f0bc ef8f f1bd 4dde 44be
000000c0: dc8d 7e3d 2719 9e3d c948 22bd cc74 cabd
000000d0: 9daa ecbb 38a5 53be b51f c33d b4ce 153e
000000e0: cbd4 473e 0e35 103e 1754 123e 5e7a 21bd
000000f0: 68d6 5aba 7be5 1ebd 0bea cd3e 306b b73c
00000100: 265e 123d ca2b 4dbe 8a33 2b3e 34c9 d83d
00000110: c1e5 5fbd 6a59 b9bd 9180 563d d25f d73e
00000120: 8f8d 29be b8b3 ddbd 37b2 233d 1ac7 60be
00000130: d59b 0fbe 2a25 503d 07ed 763d 3954 fcbb
00000140: 81af 61be f501 d5bd da16 1e3e 3ed1 1dbe
00000150: e010 62bd 598a 1fbe 4999 e63d 6605 153d
00000160: ef60 423e 8120 a83e d3b4 713e a239 073d
00000170: 2359 b4bc b3f3 ca3c 258d c73d 827e c9bb
00000180: ebad 3a3c ead0 98bd abb1 bcbd 297c 23be
00000190: 1148 e53d ca88 213d 79d0 7d3d 96a2 153d
000001a0: 0ac9 17bd 51af e73d 71c3 493c 5a33 5b3d
000001b0: 9554 e1bc 4850 983d 7c96 d03d 2d8b 8ebd
000001c0: c88a ff3c 607c 403d bfcb 313b 2e07 943d
000001d0: bf43 c23a d996 0d3d d391 0e3d 429c 3c3d
000001e0: 99af ccbc a4ed 113d f4c1 31bd 849f e23c
000001f0: b4e9 1dbd b9e6 f83b 6d99 98be 10ee 97be
00000200: c13c 61bd 4086 33bd cf0f 683d d357 c33b
00000210: e779 ae3d 0be4 2b3e d8e2 8b3e 032d 853e
00000220: 8043 70bd 39bd 3bbe 5cea 493d e569 8b3d
00000230: 1c88 ff3c f638 6a38 b4d4 0abd 2f33 2bbe
00000240: bbde 583e 299d 663e bf14 b93d 1e7d c0bb
00000250: 91a6 adbd a62a 33be a8ec 31be ff0b 82be
00000260: 3cec 3fbe 6428 88ba 12cd 223e e443 be3c
00000270: dc4e 223e b13c c1bc 38c7 2f3c f573 07bd
00000280: 663f 2ebd 63de f9bd 1e72 593e ca36 b0bd
00000290: 5c49 bb3c 9644 ccbc 1e58 7d3d 5ea2 94bd
000002a0: ca95 a8bd 3d42 863b 1741 db3a 5d1c f2be
000002b0: 7228 b9bd fde5 f8bd 347a 02bd 4319 94bd
000002c0: 0e46 673d 87ec b03d 3494 473e 8f87 633e
-0.010636797 0.055732675 0.07631756 -0.022236984 -0.314693 -0.06527432 -0.15543099 -0.1553874
-0.4095631 0.18089472 -0.029915188 -0.04546546 0.046993803 0.095539086 0.013513522 -0.1337015
0.0596203 0.26638824 -0.06763164 0.06673447 0.0144230705 0.04812776 -0.02653617 -0.0071595665
-0.04808684 -0.036625832 0.028024133 0.023599101 -0.0058071446 -0.041273277 0.0174909 -0.0069172448
-0.08919252 -0.00020822747 0.018101871 -0.09508138 0.0609128 -0.12517728 -0.031128887 -0.14151715
-0.10300454 -0.116973385 -0.031439863 0.02207028 0.045083795 -0.029308295 -0.11795031 -0.19225426
0.062147006 0.07719641 -0.039620195 -0.098855585 -0.007222487 -0.20668495 0.09527532 0.14629632
0.19514768 0.14082739 0.1428989 -0.03942334 -0.0008347989 -0.03879307 0.40217623 0.022389978
0.03573432 -0.20036235 0.1671888 0.105852515 -0.05466247 -0.090502575 0.052368704 0.42065293
-0.16557907 -0.10825294 0.03996488 -0.21950951 -0.14024289 0.050816692 0.06028464 -0.00770047
-0.22039606 -0.10400764 0.15438405 -0.15411851 -0.055191875 -0.15580119 0.112597056 0.0363821
0.1898229 0.328373 0.23604135 0.033013947 -0.02201516 0.024774408 0.09743718 -0.006149114
0.011394004 -0.07461722 -0.09213575 -0.15965332 0.11195386 0.039437093 0.061966393 0.036532007
-0.03705696 0.11312736 0.012314663 0.05351577 -0.027506152 0.074371874 0.101849526 -0.069601394
0.031194106 0.046993613 0.0027129499 0.07227932 0.0014821215 0.034567688 0.034807038 0.046047457
-0.024986075 0.035627022 -0.04339786 0.027663954 -0.038552955 0.0075958637 -0.29804555 -0.29673815
-0.05498958 -0.043829203 0.0566557 0.005961397 0.08519345 0.1678621 0.27321506 0.26010904
-0.058658123 -0.18333901 0.04929577 0.06807307 0.031192832 5.5842997e-05 -0.033894256 -0.16718744
0.21178715 0.2252089 0.0903716 -0.00587429 -0.08479036 -0.17496738 -0.17375433 -0.25399777
-0.1874246 -0.0010388014 0.1589854 0.023225732 0.15850395 -0.02358851 0.01072865 -0.03306957
-0.04254093 -0.1220062 0.21234939 -0.086042 0.022862129 -0.024935048 0.061851613 -0.072575316
-0.08231695 0.0040972517 0.0016727772 -0.47287264 -0.090409175 -0.12153242 -0.031854823 -0.07231381
0.056463294 0.08638864 0.19490129 0.2221968

inference.model.qy_x.model.tcn_block_00.conv1.bias f4 [2]
00000000: f336 983e 4a9e e33d
0.29729423 0.111141756

inference.model.qy_x.model.tcn_block_00.conv1.weight_g f4 [2, 1, 1]
00000000: ab8d 753f 9e46 0540
0.95919293 2.0824351

inference.model.qy_x.model.tcn_block_00.conv1.weight_v f4 [2, 2, 9]
00000000: b221 98be 00db a3bd 80c9 703e 063c d43e
00000010: 614d 97bc 9277 1c3c cdb3 e8bd 6042 e4bd
00000020: df07 1c3d 1f9c a03d 5453 b73d b003 103c
00000030: 99c9 e9bd 8d40 8bbe e84b 42be ecea ffbd
00000040: cb7c ebbd 40c3 d43e 17d5 163e 484f 633d
00000050: 354d 31bd d8bc fbbd 0905 7c3d 8016 0abd
00000060: a65d f2bd 9fb6 58bd 540f e6be fa8d 8abd
00000070: f44f c03c dd5e 863d 09dd 483d 30b4 4a3e
00000080: 5f13 853d 74c5 e83d cf4d 453e 3688 79be
-0.29713207 -0.08000755 0.23514366 0.41452044 -0.018469514 0.009549992 -0.11362419 -0.111454725
0.038093444 0.07842278 0.089514405 0.008789942 -0.11415405 -0.27197686 -0.18974268 -0.1249598
-0.11498412 0.41555214 0.14729725 0.05549553 -0.04328652 -0.122918785 0.06152824 -0.033712864
-0.11834268 -0.052908536 -0.4493357 -0.06765361 0.023475625 0.065610625 0.04903892 0.19795299
0.06497835 0.11365786 0.19267963 -0.24368367

inference.model.qy_x.model.tcn_block_00.block.conv1d_layer_0.bias f4 [2]
00000000: f96c c7be 8c9c 9b3e
-0.38950327 0.30392873

inference.model.qy_x.model.tcn_block_00.block.conv1d_layer_0.weight_g f4 [2, 1, 1]
00000000: d44c 0040 e632 dc3f
2.0046892 1.7203033

inference.model.qy_x.model.tcn_block_00.block.conv1d_layer_0.weight_v f4 [2, 10, 9]
00000000: f645 2ebc f247 643d 624c 9c3d 562a b6bc
00000010: 711f a1be 8bae 85bd 4d29 1fbe e01d 1fbe
00000020: 41b2 d1be 773c 393e b210 f5bc fd39 3abd
00000030: 937c 403d ffa9 c33d d267 5d3c 0ce9 08be
00000040: 6a34 743d 0a64 883e 7582 8abd 15ac 883d
00000050: be4e 6c3c 9d21 453d 6262 d9bc cc9a eabb
00000060: b5f6 44bd f804 16bd de92 e53c e752 c13c
00000070: dc49 bebb 2b0e 29bd 1349 8f3c 0eaa e2bb
00000080: 91aa b6bd a357 5ab9 604a 943c 07ba c2bd
00000090: b37f 793d 792e 00be 0202 ffbc dfe9 10be
000000a0: 0bf4 d2bd be8f efbd 16c7 00bd bbcc b43c
000000b0: c9a9 383d f317 f0bc ef8f f1bd 4dde 44be
000000c0: dc8d 7e3d 2719 9e3d c948 22bd cc74 cabd
000000d0: 9daa ecbb 38a5 53be b51f c33d b4ce 153e
000000e0: cbd4 473e 0e35 103e 1754 123e 5e7a 21bd
000000f0: 68d6 5aba 7be5 1ebd 0bea cd3e 306b b73c
00000100: 265e 123d ca2b 4dbe 8a33 2b3e 34c9 d83d
00000110: c1e5 5fbd 6a59 b9bd 9180 563d d25f d73e
00000120: 8f8d 29be b8b3 ddbd 37b2 233d 1ac7 60be
00000130: d59b 0fbe 2a25 503d 07ed 763d 3954 fcbb
00000140: 81af 61be f501 d5bd da16 1e3e 3ed1 1dbe
00000150: e010 62bd 598a 1fbe 4999 e63d 6605 153d
00000160: ef60 423e 8120 a83e d3b4 713e a239 073d
00000170: 2359 b4bc b3f3 ca3c 258d c73d 827e c9bb
00000180: ebad 3a3c ead0 98bd abb1 bcbd 297c 23be
00000190: 1148 e53d ca88 213d 79d0 7d3d 96a2 153d
000001a0: 0ac9 17bd 51af e73d 71c3 493c 5a33 5b3d
000001b0: 9554 e1bc 4850 983d 7c96 d03d 2d8b 8ebd
000001c0: c88a ff3c 607c 403d bfcb 313b 2e07 943d
000001d0: bf43 c23a d996 0d3d d391 0e3d 429c 3c3d
000001e0: 99af ccbc a4ed 113d f4c1 31bd 849f e23c
000001f0: b4e9 1dbd b9e6 f83b 6d99 98be 10ee 97be
00000200: c13c 61bd 4086 33bd cf0f 683d d357 c33b
00000210: e779 ae3d 0be4 2b3e d8e2 8b3e 032d 853e
00000220: 8043 70bd 39bd 3bbe 5cea 493d e569 8b3d
00000230: 1c88 ff3c f638 6a38 b4d4 0abd 2f33 2bbe
00000240: bbde 583e 299d 663e bf14 b93d 1e7d c0bb
00000250: 91a6 adbd a62a 33be a8ec 31be ff0b 82be
00000260: 3cec 3fbe 6428 88ba 12cd 223e e443 be3c
00000270: dc4e 223e b13c c1bc 38c7 2f3c f573 07bd
00000280: 663f 2ebd 63de f9bd 1e72 593e ca36 b0bd
00000290: 5c49 bb3c 9644 ccbc 1e58 7d3d 5ea2 94bd
000002a0: ca95 a8bd 3d42 863b 1741 db3a 5d1c f2be
000002b0: 7228 b9bd fde5 f8bd 347a 02bd 4319 94bd
000002c0: 0e46 673d 87ec b03d 3494 473e 8f87 633e
-0.010636797 0.055732675 0.07631756 -0.022236984 -0.314693 -0.06527432 -0.15543099 -0.1553874
-0.4095631 0.18089472 -0.029915188 -0.04546546 0.046993803 0.095539086 0.013513522 -0.1337015
0.0596203 0.26638824 -0.06763164 0.06673447 0.0144230705 0.04812776 -0.02653617 -0.0071595665
-0.04808684 -0.036625832 0.028024133 0.023599101 -0.0058071446 -0.041273277 0.0174909 -0.0069172448
-0.08919252 -0.00020822747 0.018101871 -0.09508138 0.0609128 -0.12517728 -0.031128887 -0.14151715
-0.10300454 -0.116973385 -0.031439863 0.02207028 0.045083795 -0.029308295 -0.11795031 -0.19225426
0.062147006 0.07719641 -0.039620195 -0.098855585 -0.007222487 -0.20668495 0.09527532 0.14629632
0.19514768 0.14082739 0.1428989 -0.03942334 -0.0008347989 -0.03879307 0.40217623 0.022389978
0.03573432 -0.20036235 0.1671888 0.105852515 -0.05466247 -0.090502575 0.052368704 0.42065293
-0.16557907 -0.10825294 0.03996488 -0.21950951 -0.14024289 0.050816692 0.06028464 -0.00770047
-0.22039606 -0.10400764 0.15438405 -0.15411851 -0.055191875 -0.15580119 0.112597056 0.0363821
0.1898229 0.328373 0.23604135 0.033013947 -0.02201516 0.024774408 0.09743718 -0.006149114
0.011394004 -0.07461722 -0.09213575 -0.15965332 0.11195386 0.039437093 0.061966393 0.036532007
-0.03705696 0.11312736 0.012314663 0.05351577 -0.027506152 0.074371874 0.101849526 -0.069601394
0.031194106 0.046993613 0.0027129499 0.07227932 0.0014821215 0.034567688 0.034807038 0.046047457
-0.024986075 0.035627022 -0.04339786 0.027663954 -0.038552955 0.0075958637 -0.29804555 -0.29673815
-0.05498958 -0.043829203 0.0566557 0.005961397 0.08519345 0.1678621 0.27321506 0.26010904
-0.058658123 -0.18333901 0.04929577 0.06807307 0.031192832 5.5842997e-05 -0.033894256 -0.16718744
0.21178715 0.2252089 0.0903716 -0.00587429 -0.08479036 -0.17496738 -0.17375433 -0.25399777
-0.1874246 -0.0010388014 0.1589854 0.023225732 0.15850395 -0.02358851 0.01072865 -0.03306957
-0.04254093 -0.1220062 0.21234939 -0.086042 0.022862129 -0.024935048 0.061851613 -0.072575316
-0.08231695 0.0040972517 0.0016727772 -0.47287264 -0.090409175 -0.12153242 -0.031854823 -0.07231381
0.056463294 0.08638864 0.19490129 0.2221968

inference.model.qy_x.model.tcn_block_00.block.conv1d_layer_1.bias f4 [2]
00000000: f336 983e 4a9e e33d
0.29729423 0.111141756

inference.model.qy_x.model.tcn_block_00.block.conv1d_layer_1.weight_g f4 [2, 1, 1]
00000000: ab8d 753f 9e46 0540
0.95919293 2.0824351
