results_gmdgm/ssm_v1/dtcn/m_v1/version_14/best_val_model.pt (torch, 34951 bytes, 120 tensors)

model.qy_x.dense(qy_x)_layer_00.weight f4 [4, 10]
0.011334152 0.17176399 -0.18748637 -0.046981465 -0.1044146 0.037160035 -0.016152624 0.1922216
-0.018008318 0.08771481 -0.3091488 0.31635106 0.018491007 -0.12946197 -0.14567256 -0.2567551
0.24189179 0.36444777 -0.35793215 0.19089858 0.10112837 0.25386074 -0.14949216 0.10562042
-0.023499204 0.015485858 0.2351516 -0.27104056 -0.17817973 -0.053712916 -0.0778857 0.22409554
-0.20665212 -0.051449474 -0.27069575 -0.23189624 -0.1752233 0.23320098 0.15092866 0.08537267
00000000: e1b2 393c e6e2 2f3e 6dfc 3fbe a36f 40bd
00000010: 52d7 d5bd 1f35 183d 8252 84bc bdd5 443e
00000020: 2e86 93bc d3a3 b33d c048 9ebe c4f8 a13e
00000030: 747a 973c ae91 04be 302b 15be 6875 83be
00000040: 7bb2 773e e698 ba3e e242 b7be eb7a 433e
00000050: 641c cf3d 09fa 813e 7914 19be 854f d83d
00000060: 6781 c0bc 65b8 7d3c 95cb 703e d4c5 8abe
00000070: bf74 36be 1302 5cbd 8a82 9fbd 4d79 653e
00000080: 9d9c 53be afbc 52bd a298 8abe 3576 6dbe
00000090: bd6d 33be 3dcc 6e3e 0b8d 1a3e ded7 ae3d

model.qy_x.dense(qy_x)_layer_00.bias f4 [4]
-0.17219196 -0.05047924 -0.051867522 -0.089285634
00000000: 1753 30be 52c3 4ebd 0a73 54bd 63db b6bd

model.encoder.model.tcn_block_00.conv0.bias f4 [2]
-0.21283583 0.26999325
00000000: a3f1 59be 8e3c 8a3e

model.encoder.model.tcn_block_00.conv0.weight_g f4 [2, 1, 1]
0.9357241 0.7821713
00000000: 9d8b 6f3f 613c 483f

model.encoder.model.tcn_block_00.conv0.weight_v f4 [2, 14, 9]
-0.06408079 -0.05219484 0.009068646 0.004996947 -0.05453273 -0.036557186 -0.0058917925 0.009927349
-0.027258039 0.024007326 0.04986169 -0.013281801 0.033334583 -0.01365939 -0.0028144305 0.011180135
0.06646676 0.07045345 -0.0022736096 0.033337735 0.040343337 0.01039882 0.02220097 0.02934006
0.060837552 0.079029046 -0.008612098 -0.0024809986 0.018396461 0.016931951 0.022148222 0.011068322
-0.039273802 -0.07917039 -0.047945626 -0.08551533 -0.08500225 0.008920182 0.017596984 -0.031420592
0.026602803 0.021788724 0.032098103 0.016815929 0.0507238 -0.043112 0.0034320564 0.007957173
0.013471432 -0.010401965 -0.08968972 -0.07937256 -0.025818847 -0.04382053 0.035897672 0.018585114
0.060029816 0.038932342 -0.014495978 -0.010310394 -0.042987257 0.0043128505 -0.027237713 0.002910345
0.028618257 0.037488278 0.004001257 0.053106442 -0.0041022664 0.07923879 0.074899584 -0.0033611846
-0.049081754 -0.027872296 -0.0152396485 -0.011121045 -0.0026245597 -0.022447493 -0.05878384 -0.008558376
-0.093520716 -0.0382718 -0.012116238 -0.01294249 0.0031420747 -0.010991361 0.028419774 0.058134414
0.023986498 0.055270836 0.015120516 -0.026984172 -0.02953731 -0.038293317 -0.03459416 -0.03755593
-0.021270182 -0.057888802 -0.029685874 -0.10543582 -0.13598645 -0.13784315 -0.12355446 -0.14217235
-0.15639828 -0.17479306 -0.17673041 -0.1886125 -0.060371533 -0.008041303 -0.003146119 -0.043920822
0.033827133 -0.0072582997 0.03491752 0.037604205 0.04917921 -0.18768612 -0.19803436 -0.20285092
-0.1878302 -0.18721642 -0.20372714 -0.19995913 -0.19110171 -0.19385396 0.06518233 0.036271717
0.08533553 0.07752432 0.025343627 0.09425027 0.072524875 0.060615644 0.10461393 -0.06334535
-0.045561522 -0.06370962 -0.032138426 -0.061677504 -0.05917324 -0.068359315 -0.09008116 -0.087306924
-0.043761957 -0.011268889 -0.012437156 -0.03159885 -0.08004042 -0.071916 -0.096837245 -0.078811355
-0.074557185 0.06623814 0.11033191 0.11914341 0.046478514 0.075117394 0.040089525 0.011921433
0.02786468 0.067060575 -0.04321639 -0.038099475 -0.029368082 -0.030646985 -0.021740722 -0.021314362
-0.012801098 -0.014831648 -0.0020958073 0.052944984 0.025946774 0.04768583 0.09523799 0.046218347
0.087109864 0.115099326 0.10186355 0.092891656 -0.019106047 0.0004066974 -0.030643059 -0.03161381
-0.03624764 -0.03589923 -0.030991195 0.0055723116 -0.028286548 0.0010680102 -0.021182396 -0.070663735
-0.028018966 -0.08036208 -0.071866296 -0.041986845 -0.046054635 -0.029963214 0.027471997 0.03899869
0.06012417 0.007870337 0.08177604 0.021903353 0.06777776 0.057795063 0.04033414 -0.06095087
-0.04461692 -0.092090055 -0.092613705 -0.09220215 -0.087039694 -0.07039287 -0.07270375 -0.070467666
0.050641213 0.0639494 0.054169092 0.054371953 0.052940615 0.034110896 0.032192826 0.051234763
0.054015473 0.09463103 0.08748884 0.07409494 0.053175323 0.047596414 0.036036067 0.021256119
0.024412151 0.025137823 0.03576575 0.0380721 0.039027072 0.035853814 0.05215746 0.09291213
0.098575756 0.09955753 0.08561267 0.08786577 0.10305994 0.11401366 0.105419755 0.10681032
0.1042801 0.09928104 0.08971217 0.083872624
00000000: ca3c 83bd 42ca 55bd a894 143c 6ebd a33b
00000010: b65d 5fbd fdbc 15bd f00f c1bb 52a6 223c
00000020: 404c dfbc 03ab c43c c53b 4c3d e99b 59bc
00000030: d889 083d a2cb 5fbc 4f72 38bb e32c 373c
00000040: ba1f 883d e649 903d d700 15bb 268d 083d
00000050: 0e3f 253d d05f 2a3c cfde b53c 915a f03c
00000060: cc30 793d fbd9 a13d c219 0dbc 4098 22bb
00000070: 2db4 963c e0b4 8a3c 3070 b53c e857 353c
00000080: 91dd 20bd 1624 a2bd a262 44bd a922 afbd
00000090: a915 aebd f425 123c 8d27 903c e1b2 00bd
000000a0: 1fee d93c 447e b23c 4d79 033d 8fc1 893c
000000b0: c2c3 4f3d 3596 30bd 5aec 603b cd5e 023c
000000c0: 48b7 5c3c 016d 2abc 3eaf b7bd 158e a2bd
000000d0: 0c82 d3bc 287d 33bd 7009 133d cf3f 983c
000000e0: d3e1 753d 8577 1f3d 8a80 6dbc edec 28bc
000000f0: 6813 30bd d052 8d3b a021 dfbc 7dbb 3e3b
00000100: d670 ea3c 4f8d 193d fa1c 833b 2486 593d
00000110: 4e6c 86bb f247 a23d f464 993d 5247 5cbb
00000120: f309 49bd 7154 e4bc b8af 79bc 0b35 36bc
00000130: ce00 2cbb cee3 b7bc 53c7 70bd 6e38 0cbc
00000140: ca87 bfbd e4c2 1cbd 2f83 46bc bd0c 54bc
00000150: 44eb 4d3b 1c15 34bc 96d0 e83c 5a1e 6e3d
00000160: 557f c43c ac63 623d 0abc 773c e90d ddbc
00000170: 3bf8 f1bc 74d9 1cbd 9bb2 0dbd 3fd4 19bd
00000180: ce3e aebc cf1c 6dbd ca2f f3bc bcee d7bd
00000190: 0840 0bbe c126 0dbe 1f0a fdbd a195 11be
000001a0: df26 20be f4fc 32be d1f8 34be a323 41be
000001b0: 2448 77bd abbf 03bc 1e2f 4ebb 52e6 33bd
000001c0: 528e 0a3d 08d7 edbb ac05 0f3d de06 1a3d
000001d0: 2470 493d ca30 40be 85c9 4abe 27b8 4fbe
000001e0: 8f56 40be a9b5 3fbe d99d 50be 16c2 4cbe
000001f0: 2bb0 43be a781 46be 507e 853d a791 143d
00000200: 65c4 ae3d 12c5 9e3d 709d cf3c 4906 c13d
00000210: ec87 943d 1c48 783d d43f d63d 35bb 81bd
00000220: b89e 3abd 307a 82bd 95a3 03bd 8da1 7cbd
00000230: a45f 72bd f8ff 8bbd 797c b8bd f9cd b2bd
00000240: bd3f 33bd 25a1 38bc 37c5 4bbc cc6d 01bd
00000250: 3bec a3bd b248 93bd 9b52 c6bd d967 a1bd
00000260: 70b1 98bd dda7 873d b2f5 e13d 7601 f43d
00000270: 4160 3e3d 26d7 993d ea34 243d 1d52 433c
00000280: 7844 e43c 0e57 893d ab03 31bd 320e 1cbd
00000290: 5595 f0bc 630f fbbc 9919 b2bc 759b aebc
000002a0: b2bb 51bc 7100 73bc d059 09bb d7dc 583d
000002b0: 548e d43c 3852 433d 230c c33d 734f 3d3d
000002c0: a866 b23d 32b9 eb3d d69d d03d fb3d be3d
000002d0: 4984 9cbc 003a d539 2707 fbbc 7c7d 01bd
000002e0: 6878 14bd 120b 13bd 3fe1 fdbc f097 b63b
000002f0: 31b9 e7bc 7afc 8b3a b486 adbc 26b8 90bd
00000300: 0888 e5bc e094 a4bd a32e 93bd 66fa 2bbd
00000310: c9a3 3cbd 6a75 f5bc f40c e13c 17bd 1f3d
00000320: c344 763d 96f2 003c 327a a73d a96e b33c
00000330: 11cf 8a3d 84ba 6c3d 6935 253d 9fa7 79bd
00000340: 3bc0 36bd b699 bcbd 41ac bdbd 7bd4 bcbd
00000350: de41 b2bd 232a 90bd b4e5 94bd 5a51 90bd
00000360: 296d 4f3d e7f7 823d 69e0 5d3d 20b5 5e3d
00000370: 42d8 583d deb7 0b3d a0dc 033d 8bdb 513d
00000380: 543f 5d3d eacd c13d 592d b33d 17bf 973d
00000390: 5ece 593d 75f4 423d 8e9a 133d 5021 ae3c
000003a0: fefb c73c d6ed cd3c 1b7f 123d 7ef1 1b3d
000003b0: dada 1f3d 73db 123d 10a3 553d b748 be3d
000003c0: 16e2 c93d d1e4 cb3d b255 af3d f8f2 b33d
000003d0: 1711 d33d fe7f e93d 50e6 d73d 5ebf da3d
000003e0: ce90 d53d dc53 cb3d 04bb b73d 69c5 ab3d

model.encoder.model.tcn_block_00.conv1.bias f4 [2]
0.15268727 0.415388
00000000: 0d5a 1c3e bcad d43e

model.encoder.model.tcn_block_00.conv1.weight_g f4 [2, 1, 1]
0.52857864 0.82134014
00000000: ee50 073f 5943 523f

model.encoder.model.tcn_block_00.conv1.weight_v f4 [2, 2, 9]
-0.007781163 -0.16499117 -0.17056377 -0.08281563 -0.18269065 -0.07818968 -0.091311805 -0.20528853
-0.11538626 0.08007303 0.07172176 -0.07226541 -0.229725 -0.06455051 0.07678745 -0.09620594
0.10313361 0.18359385 -0.041222412 -0.036817107 -0.0326359 -0.035324417 -0.032730777 -0.029524758
-0.05585984 -0.022732329 -0.0013625032 0.24092926 0.2314427 0.17180017 0.23245154 0.07679925
0.01495942 0.012842854 0.31992427 0.29070473
00000000: 20f9 febb 72f3 28be 45a8 2ebe 3e9b a9bd
00000010: 4213 3bbe e921 a0bd af01 bbbd 2837 52be
00000020: a24f ecbd 54fd a33d dce2 923d e3ff 93bd
00000030: 083d 6bbe 0f33 84bd bd42 9d3d 9f07 c5bd
00000040: b737 d33d 0700 3c3e d5d8 28bd 89cd 16bd
00000050: 39ad 05bd 56b0 10bd b510 06bd e8dd f1bc
00000060: 4acd 64bd 2639 babc 0596 b2ba 29b6 763e
00000070: 51ff 6c3e 62ec 2f3e c707 6e3e ed48 9d3d
00000080: 5b18 753c d56a 523c 1dcd a33e 40d7 943e

model.encoder.model.tcn_block_00.block.conv1d_layer_0.bias f4 [2]
-0.21283583 0.26999325
00000000: a3f1 59be 8e3c 8a3e

model.encoder.model.tcn_block_00.block.conv1d_layer_0.weight_g f4 [2, 1, 1]
0.9357241 0.7821713
00000000: 9d8b 6f3f 613c 483f

model.encoder.model.tcn_block_00.block.conv1d_layer_0.weight_v f4 [2, 14, 9]
-0.06408079 -0.05219484 0.009068646 0.004996947 -0.05453273 -0.036557186 -0.0058917925 0.009927349
-0.027258039 0.024007326 0.04986169 -0.013281801 0.033334583 -0.01365939 -0.0028144305 0.011180135
0.06646676 0.07045345 -0.0022736096 0.033337735 0.040343337 0.01039882 0.02220097 0.02934006
0.060837552 0.079029046 -0.008612098 -0.0024809986 0.018396461 0.016931951 0.022148222 0.011068322
-0.039273802 -0.07917039 -0.047945626 -0.08551533 -0.08500225 0.008920182 0.017596984 -0.031420592
0.026602803 0.021788724 0.032098103 0.016815929 0.0507238 -0.043112 0.0034320564 0.007957173
0.013471432 -0.010401965 -0.08968972 -0.07937256 -0.025818847 -0.04382053 0.035897672 0.018585114
0.060029816 0.038932342 -0.014495978 -0.010310394 -0.042987257 0.0043128505 -0.027237713 0.002910345
0.028618257 0.037488278 0.004001257 0.053106442 -0.0041022664 0.07923879 0.074899584 -0.0033611846
-0.049081754 -0.027872296 -0.0152396485 -0.011121045 -0.0026245597 -0.022447493 -0.05878384 -0.008558376
-0.093520716 -0.0382718 -0.012116238 -0.01294249 0.0031420747 -0.010991361 0.028419774 0.058134414
0.023986498 0.055270836 0.015120516 -0.026984172 -0.02953731 -0.038293317 -0.03459416 -0.03755593
-0.021270182 -0.057888802 -0.029685874 -0.10543582 -0.13598645 -0.13784315 -0.12355446 -0.14217235
-0.15639828 -0.17479306 -0.17673041 -0.1886125 -0.060371533 -0.008041303 -0.003146119 -0.043920822
0.033827133 -0.0072582997 0.03491752 0.037604205 0.04917921 -0.18768612 -0.19803436 -0.20285092
-0.1878302 -0.18721642 -0.20372714 -0.19995913 -0.19110171 -0.19385396 0.06518233 0.036271717
0.08533553 0.07752432 0.025343627 0.09425027 0.072524875 0.060615644 0.10461393 -0.06334535
-0.045561522 -0.06370962 -0.032138426 -0.061677504 -0.05917324 -0.068359315 -0.09008116 -0.087306924
-0.043761957 -0.011268889 -0.012437156 -0.03159885 -0.08004042 -0.071916 -0.096837245 -0.078811355
-0.074557185 0.06623814 0.11033191 0.11914341 0.046478514 0.075117394 0.040089525 0.011921433
0.02786468 0.067060575 -0.04321639 -0.038099475 -0.029368082 -0.030646985 -0.021740722 -0.021314362
-0.012801098 -0.014831648 -0.0020958073 0.052944984 0.025946774 0.04768583 0.09523799 0.046218347
0.087109864 0.115099326 0.10186355 0.092891656 -0.019106047 0.0004066974 -0.030643059 -0.03161381
-0.03624764 -0.03589923 -0.030991195 0.0055723116 -0.028286548 0.0010680102 -0.021182396 -0.070663735
-0.028018966 -0.08036208 -0.071866296 -0.041986845 -0.046054635 -0.029963214 0.027471997 0.03899869
0.06012417 0.007870337 0.08177604 0.021903353 0.06777776 0.057795063 0.04033414 -0.06095087
-0.04461692 -0.092090055 -0.092613705 -0.09220215 -0.087039694 -0.07039287 -0.07270375 -0.070467666
0.050641213 0.0639494 0.054169092 0.054371953 0.052940615 0.034110896 0.032192826 0.051234763
0.054015473 0.09463103 0.08748884 0.07409494 0.053175323 0.047596414 0.036036067 0.021256119
0.024412151 0.025137823 0.03576575 0.0380721 0.039027072 0.035853814 0.05215746 0.09291213
0.098575756 0.09955753 0.08561267 0.08786577 0.10305994 0.11401366 0.105419755 0.10681032
0.1042801 0.09928104 0.08971217 0.083872624
00000000: ca3c 83bd 42ca 55bd a894 143c 6ebd a33b
00000010: b65d 5fbd fdbc 15bd f00f c1bb 52a6 223c
00000020: 404c dfbc 03ab c43c c53b 4c3d e99b 59bc
00000030: d889 083d a2cb 5fbc 4f72 38bb e32c 373c
00000040: ba1f 883d e649 903d d700 15bb 268d 083d
00000050: 0e3f 253d d05f 2a3c cfde b53c 915a f03c
00000060: cc30 793d fbd9 a13d c219 0dbc 4098 22bb
00000070: 2db4 963c e0b4 8a3c 3070 b53c e857 353c
00000080: 91dd 20bd 1624 a2bd a262 44bd a922 afbd
00000090: a915 aebd f425 123c 8d27 903c e1b2 00bd
000000a0: 1fee d93c 447e b23c 4d79 033d 8fc1 893c
000000b0: c2c3 4f3d 3596 30bd 5aec 603b cd5e 023c
000000c0: 48b7 5c3c 016d 2abc 3eaf b7bd 158e a2bd
000000d0: 0c82 d3bc 287d 33bd 7009 133d cf3f 983c
000000e0: d3e1 753d 8577 1f3d 8a80 6dbc edec 28bc
000000f0: 6813 30bd d052 8d3b a021 dfbc 7dbb 3e3b
00000100: d670 ea3c 4f8d 193d fa1c 833b 2486 593d
00000110: 4e6c 86bb f247 a23d f464 993d 5247 5cbb
00000120: f309 49bd 7154 e4bc b8af 79bc 0b35 36bc
00000130: ce00 2cbb cee3 b7bc 53c7 70bd 6e38 0cbc
00000140: ca87 bfbd e4c2 1cbd 2f83 46bc bd0c 54bc
00000150: 44eb 4d3b 1c15 34bc 96d0 e83c 5a1e 6e3d
00000160: 557f c43c ac63 623d 0abc 773c e90d ddbc
00000170: 3bf8 f1bc 74d9 1cbd 9bb2 0dbd 3fd4 19bd
00000180: ce3e aebc cf1c 6dbd ca2f f3bc bcee d7bd
00000190: 0840 0bbe c126 0dbe 1f0a fdbd a195 11be
000001a0: df26 20be f4fc 32be d1f8 34be a323 41be
000001b0: 2448 77bd abbf 03bc 1e2f 4ebb 52e6 33bd
000001c0: 528e 0a3d 08d7 edbb ac05 0f3d de06 1a3d
000001d0: 2470 493d ca30 40be 85c9 4abe 27b8 4fbe
000001e0: 8f56 40be a9b5 3fbe d99d 50be 16c2 4cbe
000001f0: 2bb0 43be a781 46be 507e 853d a791 143d
00000200: 65c4 ae3d 12c5 9e3d 709d cf3c 4906 c13d
00000210: ec87 943d 1c48 783d d43f d63d 35bb 81bd
00000220: b89e 3abd 307a 82bd 95a3 03bd 8da1 7cbd
00000230: a45f 72bd f8ff 8bbd 797c b8bd f9cd b2bd
00000240: bd3f 33bd 25a1 38bc 37c5 4bbc cc6d 01bd
00000250: 3bec a3bd b248 93bd 9b52 c6bd d967 a1bd
00000260: 70b1 98bd dda7 873d b2f5 e13d 7601 f43d
00000270: 4160 3e3d 26d7 993d ea34 243d 1d52 433c
00000280: 7844 e43c 0e57 893d ab03 31bd 320e 1cbd
00000290: 5595 f0bc 630f fbbc 9919 b2bc 759b aebc
000002a0: b2bb 51bc 7100 73bc d059 09bb d7dc 583d
000002b0: 548e d43c 3852 433d 230c c33d 734f 3d3d
000002c0: a866 b23d 32b9 eb3d d69d d03d fb3d be3d
000002d0: 4984 9cbc 003a d539 2707 fbbc 7c7d 01bd
000002e0: 6878 14bd 120b 13bd 3fe1 fdbc f097 b63b
000002f0: 31b9 e7bc 7afc 8b3a b486 adbc 26b8 90bd
00000300: 0888 e5bc e094 a4bd a32e 93bd 66fa 2bbd
00000310: c9a3 3cbd 6a75 f5bc f40c e13c 17bd 1f3d
00000320: c344 763d 96f2 003c 327a a73d a96e b33c
00000330: 11cf 8a3d 84ba 6c3d 6935 253d 9fa7 79bd
00000340: 3bc0 36bd b699 bcbd 41ac bdbd 7bd4 bcbd
00000350: de41 b2bd 232a 90bd b4e5 94bd 5a51 90bd
00000360: 296d 4f3d e7f7 823d 69e0 5d3d 20b5 5e3d
00000370: 42d8 583d deb7 0b3d a0dc 033d 8bdb 513d
00000380: 543f 5d3d eacd c13d 592d b33d 17bf 973d
00000390: 5ece 593d 75f4 423d 8e9a 133d 5021 ae3c
000003a0: fefb c73c d6ed cd3c 1b7f 123d 7ef1 1b3d
000003b0: dada 1f3d 73db 123d 10a3 553d b748 be3d
000003c0: 16e2 c93d d1e4 cb3d b255 af3d f8f2 b33d
000003d0: 1711 d33d fe7f e93d 50e6 d73d 5ebf da3d
000003e0: ce90 d53d dc53 cb3d 04bb b73d 69c5 ab3d

model.encoder.model.tcn_block_00.block.conv1d_layer_1.bias f4 [2]
0.15268727 0.415388
00000000: 0d5a 1c3e bcad d43e

model.encoder.model.tcn_block_00.block.conv1d_layer_1.weight_g f4 [2, 1, 1]
0.52857864 0.82134014
00000000: ee50 073f 5943 523f

model.encoder.model.tcn_block_00.block.conv1d_layer_1.weight_v f4 [2, 2, 9]
-0.007781163 -0.16499117 -0.17056377 -0.08281563 -0.18269065 -0.07818968 -0.091311805 -0.20528853
-0.11538626 0.08007303 0.07172176 -0.07226541 -0.229725 -0.06455051 0.07678745 -0.09620594
0.10313361 0.18359385 -0.041222412 -0.036817107 -0.0326359 -0.035324417 -0.032730777 -0.029524758
-0.05585984 -0.022732329 -0.0013625032 0.24092926 0.2314427 0.17180017 0.23245154 0.07679925
0.01495942 0.012842854 0.31992427 0.29070473
00000000: 20f9 febb 72f3 28be 45a8 2ebe 3e9b a9bd
00000010: 4213 3bbe e921 a0bd af01 bbbd 2837 52be
00000020: a24f ecbd 54fd a33d dce2 923d e3ff 93bd
00000030: 083d 6bbe 0f33 84bd bd42 9d3d 9f07 c5bd
00000040: b737 d33d 0700 3c3e d5d8 28bd 89cd 16bd
00000050: 39ad 05bd 56b0 10bd b510 06bd e8dd f1bc
00000060: 4acd 64bd 2639 babc 0596 b2ba 29b6 763e
00000070: 51ff 6c3e 62ec 2f3e c707 6e3e ed48 9d3d
00000080: 5b18 753c d56a 523c 1dcd a33e 40d7 943e

model.encoder.model.tcn_block_00.downsample.weight f4 [2, 14, 1]
0.1725274 -0.1750417 -0.14451328 0.15031782 0.07872746 0.17984547 -0.15665902 -0.18462498
0.1725729 -0.19556482 0.28761008 0.36920115 0.3409347 0.39501467 0.2772824 -0.2867964
-0.25517645 0.089720845 0.16278756 0.2856258 -0.2220692 -0.25457007 0.27914163 -0.2054221
0.27148646 0.40572765 0.41488183 0.32339156
00000000: 06ab 303e 223e 33be 4afb 13be eaec 193e
00000010: dd3b a13d 6929 383e 396b 20be 550e 3dbe
00000020: f3b6 303e 2542 48be a141 933e ef07 bd3e
00000030: fe8e ae3e 5d3f ca3e f5f7 8d3e fad6 92be
00000040: 7da6 82be 90bf b73d c8b1 263e 8b3d 923e
00000050: 1c66 63be 0257 82be a7eb 8e3e 2c5a 52be
00000060: 4600 8b3e 89bb cf3e 646b d43e 9493 a53e

model.encoder.model.tcn_block_00.downsample.bias f4 [2]
0.53593886 0.64311033
00000000: 4a33 093f e1a2 243f

model.encoder.model.tcn_block_01.conv0.bias f4 [2]
0.13387424 0.24686566
00000000: 5416 093e 5aca 7c3e

model.encoder.model.tcn_block_01.conv0.weight_g f4 [2, 1, 1]
0.8810251 0.67497665
00000000: dc8a 613f 45cb 2c3f

model.encoder.model.tcn_block_01.conv0.weight_v f4 [2, 2, 9]
0.22714184 0.30383623 0.24611144 0.30228236 0.15778638 0.3400113 0.2875987 0.1538808
0.2847939 -0.10845111 -0.1435038 -0.040336408 0.020415753 -0.10012188 -0.009573682 0.02025943
0.017211068 -0.11052968 -0.10303435 -0.15318257 -0.2636623 -0.08857291 0.0798559 0.100131944
-0.066961505 -0.039685994 -0.18542683 0.1447421 -0.10321384 -0.17152628 0.00012882908 0.0892137
-0.24982351 0.14590675 0.0094200475 -0.23069936
00000000: df97 683e 6c90 9b3e a304 7c3e c1c4 9a3e
00000010: c192 213e f615 ae3e 2340 933e ee92 1d3e
00000020: 82d0 913e 9e1b debd a9f2 12be ca37 25bd
00000030: f03e a73c b30c cdbd efda 1cbc 1bf7 a53c
00000040: 3afe 8c3c 635d e2bd ac03 d3bd e4db 1cbe
00000050: bffe 86be b765 b5bd 7d8b a33d fa11 cd3d
00000060: 1d23 89bd c88d 22bd 88e0 3dbe 4637 143e
00000070: c761 d3bd 96a4 2fbe 4b16 0739 acb5 b63d
00000080: bcd1 7fbe 9468 153e 8b56 1a3c 743c 6cbe

model.encoder.model.tcn_block_01.conv1.bias f4 [2]
0.17900325 0.4753509
00000000: a14c 373e 3161 f33e

model.encoder.model.tcn_block_01.conv1.weight_g f4 [2, 1, 1]
0.58541644 0.8381535
00000000: dadd 153f 3a91 563f

model.encoder.model.tcn_block_01.conv1.weight_v f4 [2, 2, 9]
-0.1603446 -0.05599452 0.07747048 -0.23419018 0.12900393 0.11558138 0.14979792 -0.15814379
0.25712517 -0.19158222 0.2890491 -0.28909075 -0.26902914 0.18514684 0.030085532 0.012733416
-0.22123665 -0.1980811 0.08303221 0.021279791 0.12724365 0.1511862 0.16597718 0.19334044
0.20955612 0.20906267 0.18048011 -0.029411621 -0.031346925 -0.033161845 -0.035434 -0.036565185
-0.035687126 -0.03347779 -0.01633563 -0.024318188
00000000: 6031 24be 835a 65bd d8a8 9e3d 8dcf 6fbe
00000010: 9b19 043e eeb5 ec3d a064 193e 72f0 21be
00000020: e9a5 833e 212e 44be 3efe 933e b403 94be
00000030: 30be 89be 2297 3d3e ef75 f63c d19f 503c
00000040: dc8b 62be c6d5 4abe cb0c aa3d f552 ae3c
00000050: 294c 023e 8ed0 1a3e ecf5 293e 09fb 453e
00000060: e195 563e 8614 563e c7cf 383e a4f0 f0bc
00000070: a265 00bd b7d4 07bd 3e23 11bd 60c5 15bd
00000080: aa2c 12bd 0220 09bd 4dd2 85bc f036 c7bc

model.encoder.model.tcn_block_01.block.conv1d_layer_0.bias f4 [2]
0.13387424 0.24686566
00000000: 5416 093e 5aca 7c3e

model.encoder.model.tcn_block_01.block.conv1d_layer_0.weight_g f4 [2, 1, 1]
0.8810251 0.67497665
00000000: dc8a 613f 45cb 2c3f

model.encoder.model.tcn_block_01.block.conv1d_layer_0.weight_v f4 [2, 2, 9]
0.22714184 0.30383623 0.24611144 0.30228236 0.15778638 0.3400113 0.2875987 0.1538808
0.2847939 -0.10845111 -0.1435038 -0.040336408 0.020415753 -0.10012188 -0.009573682 0.02025943
0.017211068 -0.11052968 -0.10303435 -0.15318257 -0.2636623 -0.08857291 0.0798559 0.100131944
-0.066961505 -0.039685994 -0.18542683 0.1447421 -0.10321384 -0.17152628 0.00012882908 0.0892137
-0.24982351 0.14590675 0.0094200475 -0.23069936
00000000: df97 683e 6c90 9b3e a304 7c3e c1c4 9a3e
00000010: c192 213e f615 ae3e 2340 933e ee92 1d3e
00000020: 82d0 913e 9e1b debd a9f2 12be ca37 25bd
00000030: f03e a73c b30c cdbd efda 1cbc 1bf7 a53c
00000040: 3afe 8c3c 635d e2bd ac03 d3bd e4db 1cbe
00000050: bffe 86be b765 b5bd 7d8b a33d fa11 cd3d
00000060: 1d23 89bd c88d 22bd 88e0 3dbe 4637 143e
00000070: c761 d3bd 96a4 2fbe 4b16 0739 acb5 b63d
00000080: bcd1 7fbe 9468 153e 8b56 1a3c 743c 6cbe

model.encoder.model.tcn_block_01.block.conv1d_layer_1.bias f4 [2]
0.17900325 0.4753509
00000000: a14c 373e 3161 f33e

model.encoder.model.tcn_block_01.block.conv1d_layer_1.weight_g f4 [2, 1, 1]
0.58541644 0.8381535
00000000: dadd 153f 3a91 563f

model.encoder.model.tcn_block_01.block.conv1d_layer_1.weight_v f4 [2, 2, 9]
-0.1603446 -0.05599452 0.07747048 -0.23419018 0.12900393 0.11558138 0.14979792 -0.15814379
0.25712517 -0.19158222 0.2890491 -0.28909075 -0.26902914 0.18514684 0.030085532 0.012733416
-0.22123665 -0.1980811 0.08303221 0.021279791 0.12724365 0.1511862 0.16597718 0.19334044
0.20955612 0.20906267 0.18048011 -0.029411621 -0.031346925 -0.033161845 -0.035434 -0.036565185
-0.035687126 -0.03347779 -0.01633563 -0.024318188
00000000: 6031 24be 835a 65bd d8a8 9e3d 8dcf 6fbe
00000010: 9b19 043e eeb5 ec3d a064 193e 72f0 21be
00000020: e9a5 833e 212e 44be 3efe 933e b403 94be
00000030: 30be 89be 2297 3d3e ef75 f63c d19f 503c
00000040: dc8b 62be c6d5 4abe cb0c aa3d f552 ae3c
00000050: 294c 023e 8ed0 1a3e ecf5 293e 09fb 453e
00000060: e195 563e 8614 563e c7cf 383e a4f0 f0bc
00000070: a265 00bd b7d4 07bd 3e23 11bd 60c5 15bd
00000080: aa2c 12bd 0220 09bd 4dd2 85bc f036 c7bc

model.qz_xy_mean.dense(qz_xy_mean)_layer_00.weight f4 [2, 2]
-0.045313 -0.10109447 -0.3152369 -0.1631604
00000000: 209a 39bd 9e0a cfbd bb66 a1be 8513 27be

model.qz_xy_mean.dense(qz_xy_mean)_layer_00.bias f4 [2]
0.6607078 0.17359135
00000000: 2524 293f eec1 313e

model.qz_xy_logvar.dense(qz_xy_logvar)_layer_00.weight f4 [2, 2]
-0.80826735 -0.7411499 -0.06399872 -0.3971269
00000000: 9cea 4ebf 00bc 3dbf c311 83bd 3854 cbbe

model.qz_xy_logvar.dense(qz_xy_logvar)_layer_00.bias f4 [2]
0.19488044 -1.0127842
00000000: bd8e 473e eaa2 81bf

model.py_t_probs.dense(py_t_probs)_layer_00.weight f4 [4, 2]
-0.5183967 0.25050673 0.8571306 -0.02532054 0.48687363 -0.478452 0.3314158 -0.14105172
00000000: a5b5 04bf 6b42 803e e96c 5b3f 056d cfbc
00000010: 8047 f93e a9f7 f4be 55af a93e dd6f 10be

model.py_t_probs.dense(py_t_probs)_layer_00.bias f4 [4]
0.7076642 -0.5981749 -0.43644798 0.29590127
00000000: 7b29 353f fe21 19bf 1c76 dfbe 5f80 973e

model.pz_t_mean.dense(pz_t_mean)_layer_00.weight f4 [8, 2]
1.0618618 -0.019558093 0.6350396 0.5266589 0.0942491 0.2968519 0.15598609 0.6099202
0.2034409 0.4059166 0.20522709 0.88084006 0.10961825 0.4432588 0.43950078 0.73137444
00000000: 16eb 873f 4b38 a0bc f591 223f 1ed3 063f
00000010: ac05 c13d f9fc 973e d1ba 1f3e bb23 1c3f
00000020: d052 503e 4dd4 cf3e 0d27 523e bc7e 613f
00000030: 887f e03d d1f2 e23e 3f06 e13e 5b3b 3b3f

model.pz_t_mean.dense(pz_t_mean)_layer_00.bias f4 [8]
0.069116816 -0.8918138 0.4552899 -0.20166093 0.45832002 -0.21809922 0.59212905 -0.24532157
00000000: 1e8d 8d3d e94d 64bf c21b e93e 3480 4ebe
00000010: eca8 ea3e 6755 5fbe c595 173f 9435 7bbe

model.pz_t_logvar.dense(pz_t_logvar)_layer_00.weight f4 [2, 4]
-1.643881 0.16666962 -2.104146 -0.9327956 -0.32130617 -0.17211254 -1.7200128 -0.7944287
00000000: b16a d2bf 71ab 2a3e 54aa 06c0 b1cb 6ebf
00000010: 3e82 a4be 453e 30be 6129 dcbf ae5f 4bbf

model.pz_t_logvar.dense(pz_t_logvar)_layer_00.bias f4 [2]
-0.95078397 -1.0742075
00000000: 9466 73bf a27f 89bf

model.decoder.dense(decoder)_layer_00.weight f4 [10, 2]
-0.16976367 -0.46842113 0.20329171 0.436111 0.42953765 0.27593863 -0.23930997 -0.18570536
0.13377875 0.009530376 -0.44953787 -0.28667837 0.013955475 0.23949185 0.06967194 0.4524873
-0.058689967 -0.47673494 0.078207925 0.35833976
00000000: 87d6 2dbe e5d4 efbe b42b 503e f149 df3e
00000010: 5cec db3e d447 8d3e ac0d 75be 8c29 3ebe
00000020: 4cfd 083e 4b25 1c3c d429 e6be 82c7 92be
00000030: 81a5 643c 5a3d 753e 29b0 8e3d 6aac e73e
00000040: e464 70bd 9a16 f4be 7a2b a03d 4f78 b73e

model.decoder.dense(decoder)_layer_00.bias f4 [10]
-0.8220141 0.75523025 0.5255411 -0.35225806 0.042814884 -0.53049856 0.3948949 0.77813363
-0.82046 0.5929214
00000000: 846f 52bf c556 413f dd89 063f 2b5b b4be
00000010: a95e 2f3d c1ce 07bf aa2f ca3e c433 473f
00000020: ab09 52bf b2c9 173f

inference.model.qy_x.dense(qy_x)_layer_00.weight f4 [4, 10]
0.011334152 0.17176399 -0.18748637 -0.046981465 -0.1044146 0.037160035 -0.016152624 0.1922216
-0.018008318 0.08771481 -0.3091488 0.31635106 0.018491007 -0.12946197 -0.14567256 -0.2567551
0.24189179 0.36444777 -0.35793215 0.19089858 0.10112837 0.25386074 -0.14949216 0.10562042
-0.023499204 0.015485858 0.2351516 -0.27104056 -0.17817973 -0.053712916 -0.0778857 0.22409554
-0.20665212 -0.051449474 -0.27069575 -0.23189624 -0.1752233 0.23320098 0.15092866 0.08537267
00000000: e1b2 393c e6e2 2f3e 6dfc 3fbe a36f 40bd
00000010: 52d7 d5bd 1f35 183d 8252 84bc bdd5 443e
00000020: 2e86 93bc d3a3 b33d c048 9ebe c4f8 a13e
00000030: 747a 973c ae91 04be 302b 15be 6875 83be
00000040: 7bb2 773e e698 ba3e e242 b7be eb7a 433e
00000050: 641c cf3d 09fa 813e 7914 19be 854f d83d
00000060: 6781 c0bc 65b8 7d3c 95cb 703e d4c5 8abe
00000070: bf74 36be 1302 5cbd 8a82 9fbd 4d79 653e
00000080: 9d9c 53be afbc 52bd a298 8abe 3576 6dbe
00000090: bd6d 33be 3dcc 6e3e 0b8d 1a3e ded7 ae3d

inference.model.qy_x.dense(qy_x)_layer_00.bias f4 [4]
-0.17219196 -0.05047924 -0.051867522 -0.089285634
00000000: 1753 30be 52c3 4ebd 0a73 54bd 63db b6bd

inference.model.encoder.model.tcn_block_00.conv0.bias f4 [2]
-0.21283583 0.26999325
00000000: a3f1 59be 8e3c 8a3e

inference.model.encoder.model.tcn_block_00.conv0.weight_g f4 [2, 1, 1]
0.9357241 0.7821713
00000000: 9d8b 6f3f 613c 483f

inference.model.encoder.model.tcn_block_00.conv0.weight_v f4 [2, 14, 9]
-0.06408079 -0.05219484 0.009068646 0.004996947 -0.05453273 -0.036557186 -0.0058917925 0.009927349
-0.027258039 0.024007326 0.04986169 -0.013281801 0.033334583 -0.01365939 -0.0028144305 0.011180135
0.06646676 0.07045345 -0.0022736096 0.033337735 0.040343337 0.01039882 0.02220097 0.02934006
0.060837552 0.079029046 -0.008612098 -0.0024809986 0.018396461 0.016931951 0.022148222 0.011068322
-0.039273802 -0.07917039 -0.047945626 -0.08551533 -0.08500225 0.008920182 0.017596984 -0.031420592
0.026602803 0.021788724 0.032098103 0.016815929 0.0507238 -0.043112 0.0034320564 0.007957173
0.013471432 -0.010401965 -0.08968972 -0.07937256 -0.025818847 -0.04382053 0.035897672 0.018585114
0.060029816 0.038932342 -0.014495978 -0.010310394 -0.042987257 0.0043128505 -0.027237713 0.002910345
0.028618257 0.037488278 0.004001257 0.053106442 -0.0041022664 0.07923879 0.074899584 -0.0033611846
-0.049081754 -0.027872296 -0.0152396485 -0.011121045 -0.0026245597 -0.022447493 -0.05878384 -0.008558376
-0.093520716 -0.0382718 -0.012116238 -0.01294249 0.0031420747 -0.010991361 0.028419774 0.058134414
0.023986498 0.055270836 0.015120516 -0.026984172 -0.02953731 -0.038293317 -0.03459416 -0.03755593
-0.021270182 -0.057888802 -0.029685874 -0.10543582 -0.13598645 -0.13784315 -0.12355446 -0.14217235
-0.15639828 -0.17479306 -0.17673041 -0.1886125 -0.060371533 -0.008041303 -0.003146119 -0.043920822
0.033827133 -0.0072582997 0.03491752 0.037604205 0.04917921 -0.18768612 -0.19803436 -0.20285092
-0.1878302 -0.18721642 -0.20372714 -0.19995913 -0.19110171 -0.19385396 0.06518233 0.036271717
0.08533553 0.07752432 0.025343627 0.09425027 0.072524875 0.060615644 0.10461393 -0.06334535
-0.045561522 -0.06370962 -0.032138426 -0.061677504 -0.05917324 -0.068359315 -0.09008116 -0.087306924
-0.043761957 -0.011268889 -0.012437156 -0.03159885 -0.08004042 -0.071916 -0.096837245 -0.078811355
-0.074557185 0.06623814 0.11033191 0.11914341 0.046478514 0.075117394 0.040089525 0.011921433
0.02786468 0.067060575 -0.04321639 -0.038099475 -0.029368082 -0.030646985 -0.021740722 -0.021314362
-0.012801098 -0.014831648 -0.0020958073 0.052944984 0.025946774 0.04768583 0.09523799 0.046218347
0.087109864 0.115099326 0.10186355 0.092891656 -0.019106047 0.0004066974 -0.030643059 -0.03161381
-0.03624764 -0.03589923 -0.030991195 0.0055723116 -0.028286548 0.0010680102 -0.021182396 -0.070663735
-0.028018966 -0.08036208 -0.071866296 -0.041986845 -0.046054635 -0.029963214 0.027471997 0.03899869
0.06012417 0.007870337 0.08177604 0.021903353 0.06777776 0.057795063 0.04033414 -0.06095087
-0.04461692 -0.092090055 -0.092613705 -0.09220215 -0.087039694 -0.07039287 -0.07270375 -0.070467666
0.050641213 0.0639494 0.054169092 0.054371953 0.052940615 0.034110896 0.032192826 0.051234763
0.054015473 0.09463103 0.08748884 0.07409494 0.053175323 0.047596414 0.036036067 0.021256119
0.024412151 0.025137823 0.03576575 0.0380721 0.039027072 0.035853814 0.05215746 0.09291213
0.098575756 0.09955753 0.08561267 0.08786577 0.10305994 0.11401366 0.105419755 0.10681032
0.1042801 0.09928104 0.08971217 0.083872624
00000000: ca3c 83bd 42ca 55bd a894 143c 6ebd a33b
00000010: b65d 5fbd fdbc 15bd f00f c1bb 52a6 223c
00000020: 404c dfbc 03ab c43c c53b 4c3d e99b 59bc
00000030: d889 083d a2cb 5fbc 4f72 38bb e32c 373c
00000040: ba1f 883d e649 903d d700 15bb 268d 083d
00000050: 0e3f 253d d05f 2a3c cfde b53c 915a f03c
00000060: cc30 793d fbd9 a13d c219 0dbc 4098 22bb
00000070: 2db4 963c e0b4 8a3c 3070 b53c e857 353c
00000080: 91dd 20bd 1624 a2bd a262 44bd a922 afbd
00000090: a915 aebd f425 123c 8d27 903c e1b2 00bd
000000a0: 1fee d93c 447e b23c 4d79 033d 8fc1 893c
000000b0: c2c3 4f3d 3596 30bd 5aec 603b cd5e 023c
000000c0: 48b7 5c3c 016d 2abc 3eaf b7bd 158e a2bd
000000d0: 0c82 d3bc 287d 33bd 7009 133d cf3f 983c
000000e0: d3e1 753d 8577 1f3d 8a80 6dbc edec 28bc
000000f0: 6813 30bd d052 8d3b a021 dfbc 7dbb 3e3b
00000100: d670 ea3c 4f8d 193d fa1c 833b 2486 593d
00000110: 4e6c 86bb f247 a23d f464 993d 5247 5cbb
00000120: f309 49bd 7154 e4bc b8af 79bc 0b35 36bc
00000130: ce00 2cbb cee3 b7bc 53c7 70bd 6e38 0cbc
00000140: ca87 bfbd e4c2 1cbd 2f83 46bc bd0c 54bc
00000150: 44eb 4d3b 1c15 34bc 96d0 e83c 5a1e 6e3d
00000160: 557f c43c ac63 623d 0abc 773c e90d ddbc
00000170: 3bf8 f1bc 74d9 1cbd 9bb2 0dbd 3fd4 19bd
00000180: ce3e aebc cf1c 6dbd ca2f f3bc bcee d7bd
00000190: 0840 0bbe c126 0dbe 1f0a fdbd a195 11be
000001a0: df26 20be f4fc 32be d1f8 34be a323 41be
000001b0: 2448 77bd abbf 03bc 1e2f 4ebb 52e6 33bd
000001c0: 528e 0a3d 08d7 edbb ac05 0f3d de06 1a3d
000001d0: 2470 493d ca30 40be 85c9 4abe 27b8 4fbe
000001e0: 8f56 40be a9b5 3fbe d99d 50be 16c2 4cbe
000001f0: 2bb0 43be a781 46be 507e 853d a791 143d
00000200: 65c4 ae3d 12c5 9e3d 709d cf3c 4906 c13d
00000210: ec87 943d 1c48 783d d43f d63d 35bb 81bd
00000220: b89e 3abd 307a 82bd 95a3 03bd 8da1 7cbd
00000230: a45f 72bd f8ff 8bbd 797c b8bd f9cd b2bd
00000240: bd3f 33bd 25a1 38bc 37c5 4bbc cc6d 01bd
00000250: 3bec a3bd b248 93bd 9b52 c6bd d967 a1bd
00000260: 70b1 98bd dda7 873d b2f5 e13d 7601 f43d
00000270: 4160 3e3d 26d7 993d ea34 243d 1d52 433c
00000280: 7844 e43c 0e57 893d ab03 31bd 320e 1cbd
00000290: 5595 f0bc 630f fbbc 9919 b2bc 759b aebc
000002a0: b2bb 51bc 7100 73bc d059 09bb d7dc 583d
000002b0: 548e d43c 3852 433d 230c c33d 734f 3d3d
000002c0: a866 b23d 32b9 eb3d d69d d03d fb3d be3d
000002d0: 4984 9cbc 003a d539 2707 fbbc 7c7d 01bd
000002e0: 6878 14bd 120b 13bd 3fe1 fdbc f097 b63b
000002f0: 31b9 e7bc 7afc 8b3a b486 adbc 26b8 90bd
00000300: 0888 e5bc e094 a4bd a32e 93bd 66fa 2bbd
00000310: c9a3 3cbd 6a75 f5bc f40c e13c 17bd 1f3d
00000320: c344 763d 96f2 003c 327a a73d a96e b33c
00000330: 11cf 8a3d 84ba 6c3d 6935 253d 9fa7 79bd
00000340: 3bc0 36bd b699 bcbd 41ac bdbd 7bd4 bcbd
00000350: de41 b2bd 232a 90bd b4e5 94bd 5a51 90bd
00000360: 296d 4f3d e7f7 823d 69e0 5d3d 20b5 5e3d
00000370: 42d8 583d deb7 0b3d a0dc 033d 8bdb 513d
00000380: 543f 5d3d eacd c13d 592d b33d 17bf 973d
00000390: 5ece 593d 75f4 423d 8e9a 133d 5021 ae3c
000003a0: fefb c73c d6ed cd3c 1b7f 123d 7ef1 1b3d
000003b0: dada 1f3d 73db 123d 10a3 553d b748 be3d
000003c0: 16e2 c93d d1e4 cb3d b255 af3d f8f2 b33d
000003d0: 1711 d33d fe7f e93d 50e6 d73d 5ebf da3d
000003e0: ce90 d53d dc53 cb3d 04bb b73d 69c5 ab3d

inference.model.encoder.model.tcn_block_00.conv1.bias f4 [2]
0.15268727 0.415388
00000000: 0d5a 1c3e bcad d43e

inference.model.encoder.model.tcn_block_00.conv1.weight_g f4 [2, 1, 1]
0.52857864 0.82134014
00000000: ee50 073f 5943 523f

inference.model.encoder.model.tcn_block_00.conv1.weight_v f4 [2, 2, 9]
-0.007781163 -0.16499117 -0.17056377 -0.08281563 -0.18269065 -0.07818968 -0.091311805 -0.20528853
-0.11538626 0.08007303 0.07172176 -0.07226541 -0.229725 -0.06455051 0.07678745 -0.09620594
0.10313361 0.18359385 -0.041222412 -0.036817107 -0.0326359 -0.035324417 -0.032730777 -0.029524758
-0.05585984 -0.022732329 -0.0013625032 0.24092926 0.2314427 0.17180017 0.23245154 0.07679925
0.01495942 0.012842854 0.31992427 0.29070473
00000000: 20f9 febb 72f3 28be 45a8 2ebe 3e9b a9bd
00000010: 4213 3bbe e921 a0bd af01 bbbd 2837 52be
00000020: a24f ecbd 54fd a33d dce2 923d e3ff 93bd
00000030: 083d 6bbe 0f33 84bd bd42 9d3d 9f07 c5bd
00000040: b737 d33d 0700 3c3e d5d8 28bd 89cd 16bd
00000050: 39ad 05bd 56b0 10bd b510 06bd e8dd f1bc
00000060: 4acd 64bd 2639 babc 0596 b2ba 29b6 763e
00000070: 51ff 6c3e 62ec 2f3e c707 6e3e ed48 9d3d
00000080: 5b18 753c d56a 523c 1dcd a33e 40d7 943e

inference.model.encoder.model.tcn_block_00.block.conv1d_layer_0.bias f4 [2]
-0.21283583 0.26999325
00000000: a3f1 59be 8e3c 8a3e

inference.model.encoder.model.tcn_block_00.block.conv1d_layer_0.weight_g f4 [2, 1, 1]
0.9357241 0.7821713
00000000: 9d8b 6f3f 613c 483f

inference.model.encoder.model.tcn_block_00.block.conv1d_layer_0.weight_v f4 [2, 14, 9]
-0.06408079 -0.05219484 0.009068646 0.004996947 -0.05453273 -0.036557186 -0.0058917925 0.009927349
-0.027258039 0.024007326 0.04986169 -0.013281801 0.033334583 -0.01365939 -0.0028144305 0.011180135
0.06646676 0.07045345 -0.0022736096 0.033337735 0.040343337 0.01039882 0.02220097 0.02934006
0.060837552 0.079029046 -0.008612098 -0.0024809986 0.018396461 0.016931951 0.022148222 0.011068322
-0.039273802 -0.07917039 -0.047945626 -0.08551533 -0.08500225 0.008920182 0.017596984 -0.031420592
0.026602803 0.021788724 0.032098103 0.016815929 0.0507238 -0.043112 0.0034320564 0.007957173
0.013471432 -0.010401965 -0.08968972 -0.07937256 -0.025818847 -0.04382053 0.035897672 0.018585114
0.060029816 0.038932342 -0.014495978 -0.010310394 -0.042987257 0.0043128505 -0.027237713 0.002910345
0.028618257 0.037488278 0.004001257 0.053106442 -0.0041022664 0.07923879 0.074899584 -0.0033611846
-0.049081754 -0.027872296 -0.0152396485 -0.011121045 -0.0026245597 -0.022447493 -0.05878384 -0.008558376
-0.093520716 -0.0382718 -0.012116238 -0.01294249 0.0031420747 -0.010991361 0.028419774 0.058134414
0.023986498 0.055270836 0.015120516 -0.026984172 -0.02953731 -0.038293317 -0.03459416 -0.03755593
-0.021270182 -0.057888802 -0.029685874 -0.10543582 -0.13598645 -0.13784315 -0.12355446 -0.14217235
-0.15639828 -0.17479306 -0.17673041 -0.1886125 -0.060371533 -0.008041303 -0.003146119 -0.043920822
0.033827133 -0.0072582997 0.03491752 0.037604205 0.04917921 -0.18768612 -0.19803436 -0.20285092
-0.1878302 -0.18721642 -0.20372714 -0.19995913 -0.19110171 -0.19385396 0.06518233 0.036271717
0.08533553 0.07752432 0.025343627 0.09425027 0.072524875 0.060615644 0.10461393 -0.06334535
-0.045561522 -0.06370962 -0.032138426 -0.061677504 -0.05917324 -0.068359315 -0.09008116 -0.087306924
-0.043761957 -0.011268889 -0.012437156 -0.03159885 -0.08004042 -0.071916 -0.096837245 -0.078811355
-0.074557185 0.06623814 0.11033191 0.11914341 0.046478514 0.075117394 0.040089525 0.011921433
0.02786468 0.067060575 -0.04321639 -0.038099475 -0.029368082 -0.030646985 -0.021740722 -0.021314362
-0.012801098 -0.014831648 -0.0020958073 0.052944984 0.025946774 0.04768583 0.09523799 0.046218347
0.087109864 0.115099326 0.10186355 0.092891656 -0.019106047 0.0004066974 -0.030643059 -0.03161381
-0.03624764 -0.03589923 -0.030991195 0.0055723116 -0.028286548 0.0010680102 -0.021182396 -0.070663735
-0.028018966 -0.08036208 -0.071866296 -0.041986845 -0.046054635 -0.029963214 0.027471997 0.03899869
0.06012417 0.007870337 0.08177604 0.021903353 0.06777776 0.057795063 0.04033414 -0.06095087
-0.04461692 -0.092090055 -0.092613705 -0.09220215 -0.087039694 -0.07039287 -0.07270375 -0.070467666
0.050641213 0.0639494 0.054169092 0.054371953 0.052940615 0.034110896 0.032192826 0.051234763
0.054015473 0.09463103 0.08748884 0.07409494 0.053175323 0.047596414 0.036036067 0.021256119
0.024412151 0.025137823 0.03576575 0.0380721 0.039027072 0.035853814 0.05215746 0.09291213
0.098575756 0.09955753 0.08561267 0.08786577 0.10305994 0.11401366 0.105419755 0.10681032
0.1042801 0.09928104 0.08971217 0.083872624
00000000: ca3c 83bd 42ca 55bd a894 143c 6ebd a33b
00000010: b65d 5fbd fdbc 15bd f00f c1bb 52a6 223c
00000020: 404c dfbc 03ab c43c c53b 4c3d e99b 59bc
00000030: d889 083d a2cb 5fbc 4f72 38bb e32c 373c
00000040: ba1f 883d e649 903d d700 15bb 268d 083d
00000050: 0e3f 253d d05f 2a3c cfde b53c 915a f03c
00000060: cc30 793d fbd9 a13d c219 0dbc 4098 22bb
00000070: 2db4 963c e0b4 8a3c 3070 b53c e857 353c
00000080: 91dd 20bd 1624 a2bd a262 44bd a922 afbd
00000090: a915 aebd f425 123c 8d27 903c e1b2 00bd
000000a0: 1fee d93c 447e b23c 4d79 033d 8fc1 893c
000000b0: c2c3 4f3d 3596 30bd 5aec 603b cd5e 023c
000000c0: 48b7 5c3c 016d 2abc 3eaf b7bd 158e a2bd
000000d0: 0c82 d3bc 287d 33bd 7009 133d cf3f 983c
000000e0: d3e1 753d 8577 1f3d 8a80 6dbc edec 28bc
000000f0: 6813 30bd d052 8d3b a021 dfbc 7dbb 3e3b
00000100: d670 ea3c 4f8d 193d fa1c 833b 2486 593d
00000110: 4e6c 86bb f247 a23d f464 993d 5247 5cbb
00000120: f309 49bd 7154 e4bc b8af 79bc 0b35 36bc
00000130: ce00 2cbb cee3 b7bc 53c7 70bd 6e38 0cbc
00000140: ca87 bfbd e4c2 1cbd 2f83 46bc bd0c 54bc
00000150: 44eb 4d3b 1c15 34bc 96d0 e83c 5a1e 6e3d
00000160: 557f c43c ac63 623d 0abc 773c e90d ddbc
00000170: 3bf8 f1bc 74d9 1cbd 9bb2 0dbd 3fd4 19bd
00000180: ce3e aebc cf1c 6dbd ca2f f3bc bcee d7bd
00000190: 0840 0bbe c126 0dbe 1f0a fdbd a195 11be
000001a0: df26 20be f4fc 32be d1f8 34be a323 41be
000001b0: 2448 77bd abbf 03bc 1e2f 4ebb 52e6 33bd
000001c0: 528e 0a3d 08d7 edbb ac05 0f3d de06 1a3d
000001d0: 2470 493d ca30 40be 85c9 4abe 27b8 4fbe
000001e0: 8f56 40be a9b5 3fbe d99d 50be 16c2 4cbe
000001f0: 2bb0 43be a781 46be 507e 853d a791 143d
00000200: 65c4 ae3d 12c5 9e3d 709d cf3c 4906 c13d
00000210: ec87 943d 1c48 783d d43f d63d 35bb 81bd
00000220: b89e 3abd 307a 82bd 95a3 03bd 8da1 7cbd
00000230: a45f 72bd f8ff 8bbd 797c b8bd f9cd b2bd
00000240: bd3f 33bd 25a1 38bc 37c5 4bbc cc6d 01bd
00000250: 3bec a3bd b248 93bd 9b52 c6bd d967 a1bd
00000260: 70b1 98bd dda7 873d b2f5 e13d 7601 f43d
00000270: 4160 3e3d 26d7 993d ea34 243d 1d52 433c
00000280: 7844 e43c 0e57 893d ab03 31bd 320e 1cbd
00000290: 5595 f0bc 630f fbbc 9919 b2bc 759b aebc
000002a0: b2bb 51bc 7100 73bc d059 09bb d7dc 583d
000002b0: 548e d43c 3852 433d 230c c33d 734f 3d3d
000002c0: a866 b23d 32b9 eb3d d69d d03d fb3d be3d
000002d0: 4984 9cbc 003a d539 2707 fbbc 7c7d 01bd
000002e0: 6878 14bd 120b 13bd 3fe1 fdbc f097 b63b
000002f0: 31b9 e7bc 7afc 8b3a b486 adbc 26b8 90bd
00000300: 0888 e5bc e094 a4bd a32e 93bd 66fa 2bbd
00000310: c9a3 3cbd 6a75 f5bc f40c e13c 17bd 1f3d
00000320: c344 763d 96f2 003c 327a a73d a96e b33c
00000330: 11cf 8a3d 84ba 6c3d 6935 253d 9fa7 79bd
00000340: 3bc0 36bd b699 bcbd 41ac bdbd 7bd4 bcbd
00000350: de41 b2bd 232a 90bd b4e5 94bd 5a51 90bd
00000360: 296d 4f3d e7f7 823d 69e0 5d3d 20b5 5e3d
00000370: 42d8 583d deb7 0b3d a0dc 033d 8bdb 513d
00000380: 543f 5d3d eacd c13d 592d b33d 17bf 973d
00000390: 5ece 593d 75f4 423d 8e9a 133d 5021 ae3c
000003a0: fefb c73c d6ed cd3c 1b7f 123d 7ef1 1b3d
000003b0: dada 1f3d 73db 123d 10a3 553d b748 be3d
000003c0: 16e2 c93d d1e4 cb3d b255 af3d f8f2 b33d
000003d0: 1711 d33d fe7f e93d 50e6 d73d 5ebf da3d
000003e0: ce90 d53d dc53 cb3d 04bb b73d 69c5 ab3d

inference.model.encoder.model.tcn_block_00.block.conv1d_layer_1.bias f4 [2]
0.15268727 0.415388
00000000: 0d5a 1c3e bcad d43e

inference.model.encoder.model.tcn_block_00.block.conv1d_layer_1.weight_g f4 [2, 1, 1]
0.52857864 0.82134014
00000000: ee50 073f 5943 523f

inference.model.encoder.model.tcn_block_00.block.conv1d_layer_1.weight_v f4 [2, 2, 9]
-0.007781163 -0.16499117 -0.17056377 -0.08281563 -0.18269065 -0.07818968 -0.091311805 -0.20528853
-0.11538626 0.08007303 0.07172176 -0.07226541 -0.229725 -0.06455051 0.07678745 -0.09620594
0.10313361 0.18359385 -0.041222412 -0.036817107 -0.0326359 -0.035324417 -0.032730777 -0.029524758
-0.05585984 -0.022732329 -0.0013625032 0.24092926 0.2314427 0.17180017 0.23245154 0.07679925
0.01495942 0.012842854 0.31992427 0.29070473
00000000: 20f9 febb 72f3 28be 45a8 2ebe 3e9b a9bd
00000010: 4213 3bbe e921 a0bd af01 bbbd 2837 52be
00000020: a24f ecbd 54fd a33d dce2 923d e3ff 93bd
00000030: 083d 6bbe 0f33 84bd bd42 9d3d 9f07 c5bd
00000040: b737 d33d 0700 3c3e d5d8 28bd 89cd 16bd
00000050: 39ad 05bd 56b0 10bd b510 06bd e8dd f1bc
00000060: 4acd 64bd 2639 babc 0596 b2ba 29b6 763e
00000070: 51ff 6c3e 62ec 2f3e c707 6e3e ed48 9d3d
00000080: 5b18 753c d56a 523c 1dcd a33e 40d7 943e

inference.model.encoder.model.tcn_block_00.downsample.weight f4 [2, 14, 1]
0.1725274 -0.1750417 -0.14451328 0.15031782 0.07872746 0.17984547 -0.15665902 -0.18462498
0.1725729 -0.19556482 0.28761008 0.36920115 0.3409347 0.39501467 0.2772824 -0.2867964
-0.25517645 0.089720845 0.16278756 0.2856258 -0.2220692 -0.25457007 0.27914163 -0.2054221
0.27148646 0.40572765 0.41488183 0.32339156
00000000: 06ab 303e 223e 33be 4afb 13be eaec 193e
00000010: dd3b a13d 6929 383e 396b 20be 550e 3dbe
00000020: f3b6 303e 2542 48be a141 933e ef07 bd3e
00000030: fe8e ae3e 5d3f ca3e f5f7 8d3e fad6 92be
00000040: 7da6 82be 90bf b73d c8b1 263e 8b3d 923e
00000050: 1c66 63be 0257 82be a7eb 8e3e 2c5a 52be
00000060: 4600 8b3e 89bb cf3e 646b d43e 9493 a53e

inference.model.encoder.model.tcn_block_00.downsample.bias f4 [2]
0.53593886 0.64311033
00000000: 4a33 093f e1a2 243f

inference.model.encoder.model.tcn_block_01.conv0.bias f4 [2]
0.13387424 0.24686566
00000000: 5416 093e 5aca 7c3e

inference.model.encoder.model.tcn_block_01.conv0.weight_g f4 [2, 1, 1]
0.8810251 0.67497665
00000000: dc8a 613f 45cb 2c3f

inference.model.encoder.model.tcn_block_01.conv0.weight_v f4 [2, 2, 9]
0.22714184 0.30383623 0.24611144 0.30228236 0.15778638 0.3400113 0.2875987 0.1538808
0.2847939 -0.10845111 -0.1435038 -0.040336408 0.020415753 -0.10012188 -0.009573682 0.02025943
0.017211068 -0.11052968 -0.10303435 -0.15318257 -0.2636623 -0.08857291 0.0798559 0.100131944
-0.066961505 -0.039685994 -0.18542683 0.1447421 -0.10321384 -0.17152628 0.00012882908 0.0892137
-0.24982351 0.14590675 0.0094200475 -0.23069936
00000000: df97 683e 6c90 9b3e a304 7c3e c1c4 9a3e
00000010: c192 213e f615 ae3e 2340 933e ee92 1d3e
00000020: 82d0 913e 9e1b debd a9f2 12be ca37 25bd
00000030: f03e a73c b30c cdbd efda 1cbc 1bf7 a53c
00000040: 3afe 8c3c 635d e2bd ac03 d3bd e4db 1cbe
00000050: bffe 86be b765 b5bd 7d8b a33d fa11 cd3d
00000060: 1d23 89bd c88d 22bd 88e0 3dbe 4637 143e
00000070: c761 d3bd 96a4 2fbe 4b16 0739 acb5 b63d
00000080: bcd1 7fbe 9468 153e 8b56 1a3c 743c 6cbe

inference.model.encoder.model.tcn_block_01.conv1.bias f4 [2]
0.17900325 0.4753509
00000000: a14c 373e 3161 f33e

inference.model.encoder.model.tcn_block_01.conv1.weight_g f4 [2, 1, 1]
0.58541644 0.8381535
00000000: dadd 153f 3a91 563f

inference.model.encoder.model.tcn_block_01.conv1.weight_v f4 [2, 2, 9]
-0.1603446 -0.05599452 0.07747048 -0.23419018 0.12900393 0.11558138 0.14979792 -0.15814379
0.25712517 -0.19158222 0.2890491 -0.28909075 -0.26902914 0.18514684 0.030085532 0.012733416
-0.22123665 -0.1980811 0.08303221 0.021279791 0.12724365 0.1511862 0.16597718 0.19334044
0.20955612 0.20906267 0.18048011 -0.029411621 -0.031346925 -0.033161845 -0.035434 -0.036565185
-0.035687126 -0.03347779 -0.01633563 -0.024318188
00000000: 6031 24be 835a 65bd d8a8 9e3d 8dcf 6fbe
00000010: 9b19 043e eeb5 ec3d a064 193e 72f0 21be
00000020: e9a5 833e 212e 44be 3efe 933e b403 94be
00000030: 30be 89be 2297 3d3e ef75 f63c d19f 503c
00000040: dc8b 62be c6d5 4abe cb0c aa3d f552 ae3c
00000050: 294c 023e 8ed0 1a3e ecf5 293e 09fb 453e
00000060: e195 563e 8614 563e c7cf 383e a4f0 f0bc
00000070: a265 00bd b7d4 07bd 3e23 11bd 60c5 15bd
00000080: aa2c 12bd 0220 09bd 4dd2 85bc f036 c7bc

inference.model.encoder.model.tcn_block_01.block.conv1d_layer_0.bias f4 [2]
0.13387424 0.24686566
00000000: 5416 093e 5aca 7c3e

inference.model.encoder.model.tcn_block_01.block.conv1d_layer_0.weight_g f4 [2, 1, 1]
0.8810251 0.67497665
00000000: dc8a 613f 45cb 2c3f

inference.model.encoder.model.tcn_block_01.block.conv1d_layer_0.weight_v f4 [2, 2, 9]
0.22714184 0.30383623 0.24611144 0.30228236 0.15778638 0.3400113 0.2875987 0.1538808
0.2847939 -0.10845111 -0.1435038 -0.040336408 0.020415753 -0.10012188 -0.009573682 0.02025943
0.017211068 -0.11052968 -0.10303435 -0.15318257 -0.2636623 -0.08857291 0.0798559 0.100131944
-0.066961505 -0.039685994 -0.18542683 0.1447421 -0.10321384 -0.17152628 0.00012882908 0.0892137
-0.24982351 0.14590675 0.0094200475 -0.23069936
00000000: df97 683e 6c90 9b3e a304 7c3e c1c4 9a3e
00000010: c192 213e f615 ae3e 2340 933e ee92 1d3e
00000020: 82d0 913e 9e1b debd a9f2 12be ca37 25bd
00000030: f03e a73c b30c cdbd efda 1cbc 1bf7 a53c
00000040: 3afe 8c3c 635d e2bd ac03 d3bd e4db 1cbe
00000050: bffe 86be b765 b5bd 7d8b a33d fa11 cd3d
00000060: 1d23 89bd c88d 22bd 88e0 3dbe 4637 143e
00000070: c761 d3bd 96a4 2fbe 4b16 0739 acb5 b63d
00000080: bcd1 7fbe 9468 153e 8b56 1a3c 743c 6cbe

inference.model.encoder.model.tcn_block_01.block.conv1d_layer_1.bias f4 [2]
0.17900325 0.4753509
00000000: a14c 373e 3161 f33e

inference.model.encoder.model.tcn_block_01.block.conv1d_layer_1.weight_g f4 [2, 1, 1]
0.58541644 0.8381535
00000000: dadd 153f 3a91 563f

inference.model.encoder.model.tcn_block_01.block.conv1d_layer_1.weight_v f4 [2, 2, 9]
-0.1603446 -0.05599452 0.07747048 -0.23419018 0.12900393 0.11558138 0.14979792 -0.15814379
0.25712517 -0.19158222 0.2890491 -0.28909075 -0.26902914 0.18514684 0.030085532 0.012733416
-0.22123665 -0.1980811 0.08303221 0.021279791 0.12724365 0.1511862 0.16597718 0.19334044
0.20955612 0.20906267 0.18048011 -0.029411621 -0.031346925 -0.033161845 -0.035434 -0.036565185
-0.035687126 -0.03347779 -0.01633563 -0.024318188
00000000: 6031 24be 835a 65bd d8a8 9e3d 8dcf 6fbe
00000010: 9b19 043e eeb5 ec3d a064 193e 72f0 21be
00000020: e9a5 833e 212e 44be 3efe 933e b403 94be
00000030: 30be 89be 2297 3d3e ef75 f63c d19f 503c
00000040: dc8b 62be c6d5 4abe cb0c aa3d f552 ae3c
00000050: 294c 023e 8ed0 1a3e ecf5 293e 09fb 453e
00000060: e195 563e 8614 563e c7cf 383e a4f0 f0bc
00000070: a265 00bd b7d4 07bd 3e23 11bd 60c5 15bd
00000080: aa2c 12bd 0220 09bd 4dd2 85bc f036 c7bc

inference.model.qz_xy_mean.dense(qz_xy_mean)_layer_00.weight f4 [2, 2]
-0.045313 -0.10109447 -0.3152369 -0.1631604
00000000: 209a 39bd 9e0a cfbd bb66 a1be 8513 27be

inference.model.qz_xy_mean.dense(qz_xy_mean)_layer_00.bias f4 [2]
0.6607078 0.17359135
00000000: 2524 293f eec1 313e

inference.model.qz_xy_logvar.dense(qz_xy_logvar)_layer_00.weight f4 [2, 2]
-0.80826735 -0.7411499 -0.06399872 -0.3971269
00000000: 9cea 4ebf 00bc 3dbf c311 83bd 3854 cbbe

inference.model.qz_xy_logvar.dense(qz_xy_logvar)_layer_00.bias f4 [2]
0.19488044 -1.0127842
00000000: bd8e 473e eaa2 81bf

inference.model.py_t_probs.dense(py_t_probs)_layer_00.weight f4 [4, 2]
-0.5183967 0.25050673 0.8571306 -0.02532054 0.48687363 -0.478452 0.3314158 -0.14105172
00000000: a5b5 04bf 6b42 803e e96c 5b3f 056d cfbc
00000010: 8047 f93e a9f7 f4be 55af a93e dd6f 10be

inference.model.py_t_probs.dense(py_t_probs)_layer_00.bias f4 [4]
0.7076642 -0.5981749 -0.43644798 0.29590127
00000000: 7b29 353f fe21 19bf 1c76 dfbe 5f80 973e

inference.model.pz_t_mean.dense(pz_t_mean)_layer_00.weight f4 [8, 2]
1.0618618 -0.019558093 0.6350396 0.5266589 0.0942491 0.2968519 0.15598609 0.6099202
0.2034409 0.4059166 0.20522709 0.88084006 0.10961825 0.4432588 0.43950078 0.73137444
00000000: 16eb 873f 4b38 a0bc f591 223f 1ed3 063f
00000010: ac05 c13d f9fc 973e d1ba 1f3e bb23 1c3f
00000020: d052 503e 4dd4 cf3e 0d27 523e bc7e 613f
00000030: 887f e03d d1f2 e23e 3f06 e13e 5b3b 3b3f

inference.model.pz_t_mean.dense(pz_t_mean)_layer_00.bias f4 [8]
0.069116816 -0.8918138 0.4552899 -0.20166093 0.45832002 -0.21809922 0.59212905 -0.24532157
00000000: 1e8d 8d3d e94d 64bf c21b e93e 3480 4ebe
00000010: eca8 ea3e 6755 5fbe c595 173f 9435 7bbe

inference.model.pz_t_logvar.dense(pz_t_logvar)_layer_00.weight f4 [2, 4]
-1.643881 0.16666962 -2.104146 -0.9327956 -0.32130617 -0.17211254 -1.7200128 -0.7944287
00000000: b16a d2bf 71ab 2a3e 54aa 06c0 b1cb 6ebf
00000010: 3e82 a4be 453e 30be 6129 dcbf ae5f 4bbf

inference.model.pz_t_logvar.dense(pz_t_logvar)_layer_00.bias f4 [2]
-0.95078397 -1.0742075
00000000: 9466 73bf a27f 89bf

inference.model.decoder.dense(decoder)_layer_00.weight f4 [10, 2]
-0.16976367 -0.46842113 0.20329171 0.436111 0.42953765 0.27593863 -0.23930997 -0.18570536
0.13377875 0.009530376 -0.44953787 -0.28667837 0.013955475 0.23949185 0.06967194 0.4524873
-0.058689967 -0.47673494 0.078207925 0.35833976
00000000: 87d6 2dbe e5d4 efbe b42b 503e f149 df3e
00000010: 5cec db3e d447 8d3e ac0d 75be 8c29 3ebe
00000020: 4cfd 083e 4b25 1c3c d429 e6be 82c7 92be
00000030: 81a5 643c 5a3d 753e 29b0 8e3d 6aac e73e
00000040: e464 70bd 9a16 f4be 7a2b a03d 4f78 b73e

inference.model.decoder.dense(decoder)_layer_00.bias f4 [10]
-0.8220141 0.75523025 0.5255411 -0.35225806 0.042814884 -0.53049856 0.3948949 0.77813363
-0.82046 0.5929214
00000000: 846f 52bf c556 413f dd89 063f 2b5b b4be
00000010: a95e 2f3d c1ce 07bf aa2f ca3e c433 473f
00000020: ab09 52bf b2c9 173f

generative.model.qy_x.dense(qy_x)_layer_00.weight f4 [4, 10]
0.011334152 0.17176399 -0.18748637 -0.046981465 -0.1044146 0.037160035 -0.016152624 0.1922216
-0.018008318 0.08771481 -0.3091488 0.31635106 0.018491007 -0.12946197 -0.14567256 -0.2567551
0.24189179 0.36444777 -0.35793215 0.19089858 0.10112837 0.25386074 -0.14949216 0.10562042
-0.023499204 0.015485858 0.2351516 -0.27104056 -0.17817973 -0.053712916 -0.0778857 0.22409554
-0.20665212 -0.051449474 -0.27069575 -0.23189624 -0.1752233 0.23320098 0.15092866 0.08537267
00000000: e1b2 393c e6e2 2f3e 6dfc 3fbe a36f 40bd
00000010: 52d7 d5bd 1f35 183d 8252 84bc bdd5 443e
00000020: 2e86 93bc d3a3 b33d c048 9ebe c4f8 a13e
00000030: 747a 973c ae91 04be 302b 15be 6875 83be
00000040: 7bb2 773e e698 ba3e e242 b7be eb7a 433e
00000050: 641c cf3d 09fa 813e 7914 19be 854f d83d
00000060: 6781 c0bc 65b8 7d3c 95cb 703e d4c5 8abe
00000070: bf74 36be 1302 5cbd 8a82 9fbd 4d79 653e
00000080: 9d9c 53be afbc 52bd a298 8abe 3576 6dbe
00000090: bd6d 33be 3dcc 6e3e 0b8d 1a3e ded7 ae3d

generative.model.qy_x.dense(qy_x)_layer_00.bias f4 [4]
-0.17219196 -0.05047924 -0.051867522 -0.089285634
00000000: 1753 30be 52c3 4ebd 0a73 54bd 63db b6bd

generative.model.encoder.model.tcn_block_00.conv0.bias f4 [2]
-0.21283583 0.26999325
00000000: a3f1 59be 8e3c 8a3e

generative.model.encoder.model.tcn_block_00.conv0.weight_g f4 [2, 1, 1]
0.9357241 0.7821713
00000000: 9d8b 6f3f 613c 483f
