results_gmdgm/ssm_v1/dtcn/notb_v6/version_0/best_val_model.pt (torch, 58663 bytes, 204 tensors)

model.qy_x.model.tcn_block_00.conv0.bias f4 [2]
000000 33 76 9a 3d fc 23 62 be
       0.07542076 -0.2208404

model.qy_x.model.tcn_block_00.conv0.weight_g f4 [2, 1, 1]
000000 e5 59 21 3f 7c 3e b1 3f
       0.63027793 1.3847194

model.qy_x.model.tcn_block_00.conv0.weight_v f4 [2, 10, 9]
000000 39 cb 83 ba 3d d2 1e 3e f0 46 65 3d 97 c3 4b 3d
       -0.0010055072 0.15509887 0.055975854 0.049747076
000010 86 86 b8 bc 97 83 c7 bd 83 d3 59 be 41 e1 fd bd
       -0.022525083 -0.09741896 -0.21272092 -0.123964794
000020 9f 9c 76 be 2d 87 01 3d aa 47 01 ba 96 05 39 bc
       -0.24083184 0.031623054 -0.0004931638 -0.011292836
000030 2f 19 1f bc 0b 0d 9a bc 95 36 c0 bc 96 73 6f bc
       -0.009710594 -0.018805047 -0.023463527 -0.01461496
000040 e7 88 c4 3d 82 83 3e 3e 1d d3 d2 bc 0d 9b 36 bd
       0.095964245 0.18604854 -0.025735432 -0.04458146
000050 18 76 ae 3d 59 3d d7 3d 01 ea b7 3d ac 61 b1 3c
       0.08518618 0.10509748 0.089801796 0.021653019
000060 f6 7a 28 bc 27 8a 9c bc a6 06 02 3e 75 80 1e 3a
       -0.010283222 -0.019108845 0.12697849 0.0006046363
000070 75 1f af 3d 12 32 63 3d d3 e3 97 bc c4 90 a5 bc
       0.08550922 0.055467673 -0.018541252 -0.020210631
000080 be 96 a0 bd 03 20 9a bd ad b6 45 bc 05 80 ac bc
       -0.07841252 -0.07525637 -0.012067479 -0.021057138
000090 d8 dd e5 bd 15 fa d0 bc 8c 60 5d bd 3f 44 9c bb
       -0.11223954 -0.025509873 -0.054047152 -0.0047688778
0000a0 e4 0c 58 3d a8 fb 84 3c 89 ca e2 3d d7 d4 89 bd
       0.05274667 0.01623328 0.11073787 -0.06730049
0000b0 a4 42 bc bd d5 ca 65 3d e9 ff fb 3d d6 92 14 3e
       -0.09192398 0.05610164 0.1230467 0.14509138
0000c0 fd 5a d6 3c 08 62 32 bc a1 90 44 bc 11 9e 00 bd
       0.026166433 -0.01088763 -0.011997373 -0.031400744
0000d0 9e 15 f7 bd 81 8b 2d be a7 f6 b5 3d d5 ab 7c 3c
       -0.1206467 -0.16947748 0.08884936 0.015421827
0000e0 60 cf 1e 3d f7 40 51 bd fb 68 b9 bd e5 d4 dc bc
       0.038771987 -0.051087346 -0.090532266 -0.026956985
0000f0 0e 89 81 3d 25 ad 15 3e 2d cc 2c 3e 58 b1 37 3c
       0.06324969 0.1461683 0.16874762 0.011211716
000100 d8 fa 16 3c 73 25 92 bd 31 01 4a bc 4d ee 80 bc
       0.009215079 -0.07136049 -0.012329386 -0.01573863
000110 6f 9e a5 3d 92 a6 15 3e df 5e e0 3d e5 a3 50 3e
       0.080868594 0.14614323 0.10955595 0.20375021
000120 6d 01 00 3e 73 5c 2a 3e 60 24 f5 3d a1 dd 6d 3d
       0.12500544 0.16636829 0.119698286 0.05807269
000130 84 91 e8 3c 2d ad 91 bd be 76 97 bc 2a 15 db bd
       0.0283897 -0.07113109 -0.018489238 -0.10697396
000140 e1 50 56 be fb 08 55 3d 68 3c 81 bc 50 be 3a be
       -0.2092929 0.052010518 -0.015775874 -0.18236661
000150 ee 68 79 bd cb 89 59 bd 16 e6 8b 3c 19 39 ce 3c
       -0.060891084 -0.053109925 0.017077487 0.02517371
000160 f0 28 19 3e 50 86 c9 3b 62 32 9b 3c 22 47 83 3d
       0.14957023 0.0061500445 0.018944923 0.06410052
000170 4c f4 a6 b9 b4 c0 a4 3c 1b 9b 63 3d bd 66 9b bb
       -0.00031844003 0.02011142 0.055567842 -0.004742472
000180 8e f5 c0 3d 88 86 04 3e ea 9b 2d 3e b6 46 bb 3c
       0.09421836 0.12941945 0.16954008 0.022860866
000190 01 0f 4f 3d 9d e9 28 bd 17 82 04 bd d7 e4 b8 3d
       0.05055142 -0.041238416 -0.032350626 0.09028023
0001a0 72 01 c1 3c 15 d2 8d bd d8 6f 3d 3c a1 7d da bd
       0.02356026 -0.069248356 0.01156231 -0.10668493
0001b0 a3 b3 f0 bc e7 a1 ea bc 7e fd e3 3c 71 cc ad bd
       -0.029382532 -0.028641654 0.027830835 -0.0848626
0001c0 23 3f 2a 3d f2 5a 32 be 35 e6 70 3d 06 11 20 3e
       0.041564118 -0.17417505 0.058813293 0.15631494
0001d0 db ee c7 bd 2e 9d d7 bc f4 1e c6 3d b7 2c c8 3d
       -0.09762355 -0.026320066 0.096738726 0.09774154
0001e0 93 57 9a bc 7e 8c 14 3c c2 d4 c5 3c d0 3c a0 bd
       -0.018840587 0.009066699 0.024149302 -0.07824099
0001f0 e2 e7 88 3d 14 d9 4d 3c 8f 7d 8d bd 05 35 2f be
       0.06684853 0.0125639625 -0.06908714 -0.17110069
000200 8e 90 a0 be 98 00 4f be ed ea aa bd 89 25 d9 bd
       -0.31360286 -0.2021507 -0.0834559 -0.106028624
000210 6f f9 e4 bc 9e b0 02 3d 39 8f 6b 3e 1a 28 da 3c
       -0.02795097 0.031906717 0.23003854 0.02663045
000220 f7 a8 a1 3d 0d 0e ef 3d 4e c7 51 3e be f3 82 3e
       0.078935556 0.11672602 0.20486185 0.25576586
000230 0d 86 8c 3d 28 b1 00 3d 4b 3d 02 3e 0c ea 01 3e
       0.06861506 0.03141895 0.12718694 0.12686938
000240 4c b1 44 3e 8b d8 70 3e 11 c3 3e 3e 05 38 36 3e
       0.19208258 0.23520105 0.186291 0.17794807
000250 65 f0 10 3e 28 00 f8 3c 56 02 85 bd 7f d3 3b be
       0.14154203 0.030273512 -0.06494586 -0.18342398
000260 ca 45 ae be 1f 8f fd 3d a6 18 f5 3d fc 89 b2 3d
       -0.3403762 0.12380814 0.11967592 0.08717725
000270 b5 35 80 3c 59 f8 18 bc dd 64 42 bd 05 af a2 bd
       0.01565061 -0.009336554 -0.047459472 -0.079435386
000280 d5 b1 da bd 04 cc 23 be 18 1f 10 bd 2b 1a a3 bd
       -0.1067845 -0.15995795 -0.035185903 -0.079639755
000290 20 a7 7f bd f3 b4 33 3d 5b ea 5d 3d b3 3c e5 3d
       -0.062415242 0.04387374 0.054178577 0.11193218
0002a0 50 cb e6 3d 9d e4 5d 3d e6 6b 0f 3e aa f7 3e bd
       0.112692475 0.0541731 0.14006004 -0.04662291
0002b0 b4 de 91 bd c9 58 d4 bd 34 9b 24 be c8 77 26 be
       -0.071225554 -0.10368497 -0.1607483 -0.1625663
0002c0 a7 fa 0d be b0 93 dd bd a3 89 98 bd 5e 0f cc 3d
       -0.13865148 -0.10819185 -0.07448127 0.099638686

model.qy_x.model.tcn_block_00.conv1.bias f4 [2]
000000 dc ea b1 bc 59 46 31 bf
       -0.021718435 -0.69247967

model.qy_x.model.tcn_block_00.conv1.weight_g f4 [2, 1, 1]
000000 b2 83 2e 3f 81 c5 b0 3f
       0.681697 1.3810273

model.qy_x.model.tcn_block_00.conv1.weight_v f4 [2, 2, 9]
000000 71 df 3f 3e ed 6a 06 3e 4e f1 29 3e 1a 6d 12 3e
       0.1873758 0.13126726 0.16595957 0.14299431
000010 37 b0 1e bb e5 de 2b bd 65 46 4c be c0 40 86 bd
       -0.002421392 -0.041960616 -0.19948728 -0.06555319
000020 70 82 1d bd 50 76 a1 3e 85 93 77 3d fd 27 f5 3d
       -0.038454473 0.31535578 0.06044342 0.11970518
000030 9e d0 ff bc ab a6 47 3c 08 8d fd bc 8a ab 45 3c
       -0.031227406 0.012185733 -0.030951038 0.012064824
000040 7d db 0f be c0 ad 6c be 4f 3d 32 bc e2 f6 e1 3c
       -0.14048572 -0.23113155 -0.010878875 0.027583543
000050 08 63 14 3c 99 41 0f 3d 68 06 a7 3b a0 12 0c 3d
       0.009056814 0.03497467 0.005097199 0.03419745
000060 74 02 1e bd ca f3 34 3c 3e b0 04 3d 99 c0 41 3e
       -0.03857656 0.011044452 0.03239464 0.18921126
000070 f6 68 43 3e 29 84 39 3e cc 3d e1 3d 60 c1 a6 3d
       0.19083008 0.18116821 0.10998115 0.08142352
000080 e1 5b a2 bc 86 59 8c bd 62 d2 45 be ba 34 bd be
       -0.019819202 -0.06853013 -0.19318536 -0.3695429

model.qy_x.model.tcn_block_00.block.conv1d_layer_0.bias f4 [2]
000000 33 76 9a 3d fc 23 62 be
       0.07542076 -0.2208404

model.qy_x.model.tcn_block_00.block.conv1d_layer_0.weight_g f4 [2, 1, 1]
000000 e5 59 21 3f 7c 3e b1 3f
       0.63027793 1.3847194

model.qy_x.model.tcn_block_00.block.conv1d_layer_0.weight_v f4 [2, 10, 9]
000000 39 cb 83 ba 3d d2 1e 3e f0 46 65 3d 97 c3 4b 3d
       -0.0010055072 0.15509887 0.055975854 0.049747076
000010 86 86 b8 bc 97 83 c7 bd 83 d3 59 be 41 e1 fd bd
       -0.022525083 -0.09741896 -0.21272092 -0.123964794
000020 9f 9c 76 be 2d 87 01 3d aa 47 01 ba 96 05 39 bc
       -0.24083184 0.031623054 -0.0004931638 -0.011292836
000030 2f 19 1f bc 0b 0d 9a bc 95 36 c0 bc 96 73 6f bc
       -0.009710594 -0.018805047 -0.023463527 -0.01461496
000040 e7 88 c4 3d 82 83 3e 3e 1d d3 d2 bc 0d 9b 36 bd
       0.095964245 0.18604854 -0.025735432 -0.04458146
000050 18 76 ae 3d 59 3d d7 3d 01 ea b7 3d ac 61 b1 3c
       0.08518618 0.10509748 0.089801796 0.021653019
000060 f6 7a 28 bc 27 8a 9c bc a6 06 02 3e 75 80 1e 3a
       -0.010283222 -0.019108845 0.12697849 0.0006046363
000070 75 1f af 3d 12 32 63 3d d3 e3 97 bc c4 90 a5 bc
       0.08550922 0.055467673 -0.018541252 -0.020210631
000080 be 96 a0 bd 03 20 9a bd ad b6 45 bc 05 80 ac bc
       -0.07841252 -0.07525637 -0.012067479 -0.021057138
000090 d8 dd e5 bd 15 fa d0 bc 8c 60 5d bd 3f 44 9c bb
       -0.11223954 -0.025509873 -0.054047152 -0.0047688778
0000a0 e4 0c 58 3d a8 fb 84 3c 89 ca e2 3d d7 d4 89 bd
       0.05274667 0.01623328 0.11073787 -0.06730049
0000b0 a4 42 bc bd d5 ca 65 3d e9 ff fb 3d d6 92 14 3e
       -0.09192398 0.05610164 0.1230467 0.14509138
0000c0 fd 5a d6 3c 08 62 32 bc a1 90 44 bc 11 9e 00 bd
       0.026166433 -0.01088763 -0.011997373 -0.031400744
0000d0 9e 15 f7 bd 81 8b 2d be a7 f6 b5 3d d5 ab 7c 3c
       -0.1206467 -0.16947748 0.08884936 0.015421827
0000e0 60 cf 1e 3d f7 40 51 bd fb 68 b9 bd e5 d4 dc bc
       0.038771987 -0.051087346 -0.090532266 -0.026956985
0000f0 0e 89 81 3d 25 ad 15 3e 2d cc 2c 3e 58 b1 37 3c
       0.06324969 0.1461683 0.16874762 0.011211716
000100 d8 fa 16 3c 73 25 92 bd 31 01 4a bc 4d ee 80 bc
       0.009215079 -0.07136049 -0.012329386 -0.01573863
000110 6f 9e a5 3d 92 a6 15 3e df 5e e0 3d e5 a3 50 3e
       0.080868594 0.14614323 0.10955595 0.20375021
000120 6d 01 00 3e 73 5c 2a 3e 60 24 f5 3d a1 dd 6d 3d
       0.12500544 0.16636829 0.119698286 0.05807269
000130 84 91 e8 3c 2d ad 91 bd be 76 97 bc 2a 15 db bd
       0.0283897 -0.07113109 -0.018489238 -0.10697396
000140 e1 50 56 be fb 08 55 3d 68 3c 81 bc 50 be 3a be
       -0.2092929 0.052010518 -0.015775874 -0.18236661
000150 ee 68 79 bd cb 89 59 bd 16 e6 8b 3c 19 39 ce 3c
       -0.060891084 -0.053109925 0.017077487 0.02517371
000160 f0 28 19 3e 50 86 c9 3b 62 32 9b 3c 22 47 83 3d
       0.14957023 0.0061500445 0.018944923 0.06410052
000170 4c f4 a6 b9 b4 c0 a4 3c 1b 9b 63 3d bd 66 9b bb
       -0.00031844003 0.02011142 0.055567842 -0.004742472
000180 8e f5 c0 3d 88 86 04 3e ea 9b 2d 3e b6 46 bb 3c
       0.09421836 0.12941945 0.16954008 0.022860866
000190 01 0f 4f 3d 9d e9 28 bd 17 82 04 bd d7 e4 b8 3d
       0.05055142 -0.041238416 -0.032350626 0.09028023
0001a0 72 01 c1 3c 15 d2 8d bd d8 6f 3d 3c a1 7d da bd
       0.02356026 -0.069248356 0.01156231 -0.10668493
0001b0 a3 b3 f0 bc e7 a1 ea bc 7e fd e3 3c 71 cc ad bd
       -0.029382532 -0.028641654 0.027830835 -0.0848626
0001c0 23 3f 2a 3d f2 5a 32 be 35 e6 70 3d 06 11 20 3e
       0.041564118 -0.17417505 0.058813293 0.15631494
0001d0 db ee c7 bd 2e 9d d7 bc f4 1e c6 3d b7 2c c8 3d
       -0.09762355 -0.026320066 0.096738726 0.09774154
0001e0 93 57 9a bc 7e 8c 14 3c c2 d4 c5 3c d0 3c a0 bd
       -0.018840587 0.009066699 0.024149302 -0.07824099
0001f0 e2 e7 88 3d 14 d9 4d 3c 8f 7d 8d bd 05 35 2f be
       0.06684853 0.0125639625 -0.06908714 -0.17110069
000200 8e 90 a0 be 98 00 4f be ed ea aa bd 89 25 d9 bd
       -0.31360286 -0.2021507 -0.0834559 -0.106028624
000210 6f f9 e4 bc 9e b0 02 3d 39 8f 6b 3e 1a 28 da 3c
       -0.02795097 0.031906717 0.23003854 0.02663045
000220 f7 a8 a1 3d 0d 0e ef 3d 4e c7 51 3e be f3 82 3e
       0.078935556 0.11672602 0.20486185 0.25576586
000230 0d 86 8c 3d 28 b1 00 3d 4b 3d 02 3e 0c ea 01 3e
       0.06861506 0.03141895 0.12718694 0.12686938
000240 4c b1 44 3e 8b d8 70 3e 11 c3 3e 3e 05 38 36 3e
       0.19208258 0.23520105 0.186291 0.17794807
000250 65 f0 10 3e 28 00 f8 3c 56 02 85 bd 7f d3 3b be
       0.14154203 0.030273512 -0.06494586 -0.18342398
000260 ca 45 ae be 1f 8f fd 3d a6 18 f5 3d fc 89 b2 3d
       -0.3403762 0.12380814 0.11967592 0.08717725
000270 b5 35 80 3c 59 f8 18 bc dd 64 42 bd 05 af a2 bd
       0.01565061 -0.009336554 -0.047459472 -0.079435386
000280 d5 b1 da bd 04 cc 23 be 18 1f 10 bd 2b 1a a3 bd
       -0.1067845 -0.15995795 -0.035185903 -0.079639755
000290 20 a7 7f bd f3 b4 33 3d 5b ea 5d 3d b3 3c e5 3d
       -0.062415242 0.04387374 0.054178577 0.11193218
0002a0 50 cb e6 3d 9d e4 5d 3d e6 6b 0f 3e aa f7 3e bd
       0.112692475 0.0541731 0.14006004 -0.04662291
0002b0 b4 de 91 bd c9 58 d4 bd 34 9b 24 be c8 77 26 be
       -0.071225554 -0.10368497 -0.1607483 -0.1625663
0002c0 a7 fa 0d be b0 93 dd bd a3 89 98 bd 5e 0f cc 3d
       -0.13865148 -0.10819185 -0.07448127 0.099638686

model.qy_x.model.tcn_block_00.block.conv1d_layer_1.bias f4 [2]
000000 dc ea b1 bc 59 46 31 bf
       -0.021718435 -0.69247967

model.qy_x.model.tcn_block_00.block.conv1d_layer_1.weight_g f4 [2, 1, 1]
000000 b2 83 2e 3f 81 c5 b0 3f
       0.681697 1.3810273

model.qy_x.model.tcn_block_00.block.conv1d_layer_1.weight_v f4 [2, 2, 9]
000000 71 df 3f 3e ed 6a 06 3e 4e f1 29 3e 1a 6d 12 3e
       0.1873758 0.13126726 0.16595957 0.14299431
000010 37 b0 1e bb e5 de 2b bd 65 46 4c be c0 40 86 bd
       -0.002421392 -0.041960616 -0.19948728 -0.06555319
000020 70 82 1d bd 50 76 a1 3e 85 93 77 3d fd 27 f5 3d
       -0.038454473 0.31535578 0.06044342 0.11970518
000030 9e d0 ff bc ab a6 47 3c 08 8d fd bc 8a ab 45 3c
       -0.031227406 0.012185733 -0.030951038 0.012064824
000040 7d db 0f be c0 ad 6c be 4f 3d 32 bc e2 f6 e1 3c
       -0.14048572 -0.23113155 -0.010878875 0.027583543
000050 08 63 14 3c 99 41 0f 3d 68 06 a7 3b a0 12 0c 3d
       0.009056814 0.03497467 0.005097199 0.03419745
000060 74 02 1e bd ca f3 34 3c 3e b0 04 3d 99 c0 41 3e
       -0.03857656 0.011044452 0.03239464 0.18921126
000070 f6 68 43 3e 29 84 39 3e cc 3d e1 3d 60 c1 a6 3d
       0.19083008 0.18116821 0.10998115 0.08142352
000080 e1 5b a2 bc 86 59 8c bd 62 d2 45 be ba 34 bd be
       -0.019819202 -0.06853013 -0.19318536 -0.3695429

model.qy_x.model.tcn_block_00.downsample.weight f4 [2, 10, 1]
000000 d0 f6 46 be 54 65 cc 3d 1a 3e 9f 3d b7 fa 31 3c
       -0.19430089 0.09980264 0.07775517 0.010862998
000010 f7 60 1f bd c8 82 ed bd 88 0d 07 3e 55 40 ea 3d
       -0.038910832 -0.1159721 0.13188756 0.114380516
000020 96 d6 0a be 5d 52 51 3d 75 65 60 3e 36 17 cd bd
       -0.1355842 0.05110394 0.21913703 -0.10014193
000030 f5 fa 2a bd 44 1c 96 3c 36 ca 72 3d ff b8 11 3e
       -0.041743238 0.018324025 0.059274875 0.14230727
000040 61 bd 3a be cd 31 26 be 2b ef 12 3e 25 09 90 bd
       -0.18236305 -0.16229935 0.14349048 -0.07032994

model.qy_x.model.tcn_block_00.downsample.bias f4 [2]
000000 b3 72 f7 3e 02 bd 35 3f
       0.48329696 0.7099153

model.qy_x.model.tcn_block_01.conv0.bias f4 [2]
000000 10 a0 d4 bd 39 92 7c 3e
       -0.10382092 0.24665155

model.qy_x.model.tcn_block_01.conv0.weight_g f4 [2, 1, 1]
000000 91 54 e1 3f c9 6b 19 3f
       1.7603933 0.5993009

model.qy_x.model.tcn_block_01.conv0.weight_v f4 [2, 2, 9]
000000 17 85 50 3e 1f 85 03 3e b2 55 0b 3e 24 76 9b 3d
       0.2036327 0.1284375 0.13606909 0.07590893
000010 19 56 21 3e 9f 35 df 3d 89 58 80 bd f6 02 c4 bd
       0.157555 0.10898899 -0.06266887 -0.09570877
000020 23 0a db bd 66 96 81 be d9 22 83 be a9 9a 74 be
       -0.10695293 -0.25310057 -0.25612524 -0.23887123
000030 60 39 72 be 07 83 5e be 5a c6 85 be 6f ec 9f be
       -0.236547 -0.2172967 -0.26127893 -0.31235072
000040 e1 1f c8 be 70 31 f0 be b8 eb cd bd 48 8b 63 3d
       -0.39086822 -0.46912718 -0.100547254 0.05555275
000050 29 72 6c be 33 b1 6b bd a4 3b ed bd 00 df 4b 3e
       -0.23090424 -0.057542037 -0.11583641 0.19909286
000060 ad 75 60 be de 71 5d be ed 81 81 3e 99 b0 10 be
       -0.2191989 -0.21625468 0.25294438 -0.14129867
000070 86 8f 0a 3d 27 82 61 bd e3 1b 9a bd f8 80 93 bd
       0.03382828 -0.055055764 -0.0752485 -0.07202333
000080 ee 52 42 3e 04 ac 97 3d e6 73 0d be f2 f2 d8 3c
       0.18976948 0.07405856 -0.13813743 0.026483033

model.qy_x.model.tcn_block_01.conv1.bias f4 [4]
000000 58 55 8a bd c5 da 26 be 0f 29 02 be 75 5a 06 bf
       -0.06754559 -0.16294391 -0.12710975 -0.52481776

model.qy_x.model.tcn_block_01.conv1.weight_g f4 [4, 1, 1]
000000 a7 eb b5 3f 2d 10 33 3f a1 5f 2b 3f 5b d6 cc 3f
       1.421254 0.6994656 0.66942793 1.6002916

model.qy_x.model.tcn_block_01.conv1.weight_v f4 [4, 2, 9]
000000 eb 71 a5 be 50 43 47 bd 3a ff d4 3e 27 d5 07 3f
       -0.32313475 -0.04864818 0.41600972 0.5305962
000010 8e bc 00 3f f3 42 cc 3e a4 b8 3c 3d 47 fc 5e be
       0.5028771 0.39894828 0.046074525 -0.21775924
000020 64 5c 9a be 02 74 a1 bd 6e b1 b5 bc 9b d0 27 3d
       -0.30148613 -0.07883455 -0.022179332 0.040970426
000030 44 77 2e bd fd 05 bd bd 00 23 91 3c 25 24 02 3d
       -0.04259421 -0.09229658 0.017716885 0.03177275
000040 e1 07 4e bd 35 85 b6 bd 40 db 60 bd 5f aa 2d 3e
       -0.050300483 -0.08912126 -0.054896593 0.16959523
000050 14 69 f6 be b1 65 10 be 84 fa b6 3d 4d f0 20 bd
       -0.48127043 -0.14101292 0.08934501 -0.03929167
000060 8c ab 02 3e 87 0a 24 3e d6 aa 1e bd 7a 20 32 be
       0.12760752 0.16019641 -0.03873714 -0.17395201
000070 84 5d 33 be 4d bc 8b 3e cd f6 03 3e ad 6d 0a 3e
       -0.17516142 0.272921 0.12887116 0.135184
000080 14 40 3b be 7f 03 77 3e 1b 5c 6f 3e 1d 70 7b 3e
       -0.18286163 0.24122427 0.23374979 0.24554487
000090 7c c6 c6 bd fb be 23 3e 72 18 b8 3d dc 61 77 3e
       -0.09705827 0.15990822 0.089890376 0.24158424
0000a0 72 c3 82 3e 38 c8 39 3e 61 f5 f2 3d 48 58 2f bc
       0.25539738 0.18142784 0.118632086 -0.0107022
0000b0 b8 18 b8 bd 43 69 af 3d 87 42 ba 3d 68 dc 95 bd
       -0.0898909 0.08564999 0.0909472 -0.0731743
0000c0 0c 20 56 3e 0f 54 0a bc 67 c3 16 3e de 2d 7d 3e
       0.20910662 -0.008442893 0.14722978 0.24724528
0000d0 f7 b2 1d 3e 9a b8 c7 3d ad 32 6a bd 97 73 13 3e
       0.15400301 0.09752007 -0.057177234 0.14399563
0000e0 88 11 ca 3e c1 48 d6 3e d5 d7 da 3e 55 95 d2 3e
       0.394665 0.41852382 0.42742792 0.41129556
0000f0 fb 4b 65 3e c9 ba 2d 3a 2e 32 c8 bd 85 3f fc ba
       0.22392265 0.00066272594 -0.09775196 -0.0019245005
000100 5f 31 28 bb 31 64 da 38 27 94 fa ba 8f 71 b7 ba
       -0.0025664193 0.00010413712 -0.0019117639 -0.0013995635
000110 38 88 e6 b9 09 bd b0 3a 1d 20 44 3b 92 7e 4b 3b
       -0.0004397051 0.0013484071 0.0029926368 0.0031050784

model.qy_x.model.tcn_block_01.block.conv1d_layer_0.bias f4 [2]
000000 10 a0 d4 bd 39 92 7c 3e
       -0.10382092 0.24665155

model.qy_x.model.tcn_block_01.block.conv1d_layer_0.weight_g f4 [2, 1, 1]
000000 91 54 e1 3f c9 6b 19 3f
       1.7603933 0.5993009

model.qy_x.model.tcn_block_01.block.conv1d_layer_0.weight_v f4 [2, 2, 9]
000000 17 85 50 3e 1f 85 03 3e b2 55 0b 3e 24 76 9b 3d
       0.2036327 0.1284375 0.13606909 0.07590893
000010 19 56 21 3e 9f 35 df 3d 89 58 80 bd f6 02 c4 bd
       0.157555 0.10898899 -0.06266887 -0.09570877
000020 23 0a db bd 66 96 81 be d9 22 83 be a9 9a 74 be
       -0.10695293 -0.25310057 -0.25612524 -0.23887123
000030 60 39 72 be 07 83 5e be 5a c6 85 be 6f ec 9f be
       -0.236547 -0.2172967 -0.26127893 -0.31235072
000040 e1 1f c8 be 70 31 f0 be b8 eb cd bd 48 8b 63 3d
       -0.39086822 -0.46912718 -0.100547254 0.05555275
000050 29 72 6c be 33 b1 6b bd a4 3b ed bd 00 df 4b 3e
       -0.23090424 -0.057542037 -0.11583641 0.19909286
000060 ad 75 60 be de 71 5d be ed 81 81 3e 99 b0 10 be
       -0.2191989 -0.21625468 0.25294438 -0.14129867
000070 86 8f 0a 3d 27 82 61 bd e3 1b 9a bd f8 80 93 bd
       0.03382828 -0.055055764 -0.0752485 -0.07202333
000080 ee 52 42 3e 04 ac 97 3d e6 73 0d be f2 f2 d8 3c
       0.18976948 0.07405856 -0.13813743 0.026483033

model.qy_x.model.tcn_block_01.block.conv1d_layer_1.bias f4 [4]
000000 58 55 8a bd c5 da 26 be 0f 29 02 be 75 5a 06 bf
       -0.06754559 -0.16294391 -0.12710975 -0.52481776

model.qy_x.model.tcn_block_01.block.conv1d_layer_1.weight_g f4 [4, 1, 1]
000000 a7 eb b5 3f 2d 10 33 3f a1 5f 2b 3f 5b d6 cc 3f
       1.421254 0.6994656 0.66942793 1.6002916

model.qy_x.model.tcn_block_01.block.conv1d_layer_1.weight_v f4 [4, 2, 9]
000000 eb 71 a5 be 50 43 47 bd 3a ff d4 3e 27 d5 07 3f
       -0.32313475 -0.04864818 0.41600972 0.5305962
000010 8e bc 00 3f f3 42 cc 3e a4 b8 3c 3d 47 fc 5e be
       0.5028771 0.39894828 0.046074525 -0.21775924
000020 64 5c 9a be 02 74 a1 bd 6e b1 b5 bc 9b d0 27 3d
       -0.30148613 -0.07883455 -0.022179332 0.040970426
000030 44 77 2e bd fd 05 bd bd 00 23 91 3c 25 24 02 3d
       -0.04259421 -0.09229658 0.017716885 0.03177275
000040 e1 07 4e bd 35 85 b6 bd 40 db 60 bd 5f aa 2d 3e
       -0.050300483 -0.08912126 -0.054896593 0.16959523
000050 14 69 f6 be b1 65 10 be 84 fa b6 3d 4d f0 20 bd
       -0.48127043 -0.14101292 0.08934501 -0.03929167
000060 8c ab 02 3e 87 0a 24 3e d6 aa 1e bd 7a 20 32 be
       0.12760752 0.16019641 -0.03873714 -0.17395201
000070 84 5d 33 be 4d bc 8b 3e cd f6 03 3e ad 6d 0a 3e
       -0.17516142 0.272921 0.12887116 0.135184
000080 14 40 3b be 7f 03 77 3e 1b 5c 6f 3e 1d 70 7b 3e
       -0.18286163 0.24122427 0.23374979 0.24554487
000090 7c c6 c6 bd fb be 23 3e 72 18 b8 3d dc 61 77 3e
       -0.09705827 0.15990822 0.089890376 0.24158424
0000a0 72 c3 82 3e 38 c8 39 3e 61 f5 f2 3d 48 58 2f bc
       0.25539738 0.18142784 0.118632086 -0.0107022
0000b0 b8 18 b8 bd 43 69 af 3d 87 42 ba 3d 68 dc 95 bd
       -0.0898909 0.08564999 0.0909472 -0.0731743
0000c0 0c 20 56 3e 0f 54 0a bc 67 c3 16 3e de 2d 7d 3e
       0.20910662 -0.008442893 0.14722978 0.24724528
0000d0 f7 b2 1d 3e 9a b8 c7 3d ad 32 6a bd 97 73 13 3e
       0.15400301 0.09752007 -0.057177234 0.14399563
0000e0 88 11 ca 3e c1 48 d6 3e d5 d7 da 3e 55 95 d2 3e
       0.394665 0.41852382 0.42742792 0.41129556
0000f0 fb 4b 65 3e c9 ba 2d 3a 2e 32 c8 bd 85 3f fc ba
       0.22392265 0.00066272594 -0.09775196 -0.0019245005
000100 5f 31 28 bb 31 64 da 38 27 94 fa ba 8f 71 b7 ba
       -0.0025664193 0.00010413712 -0.0019117639 -0.0013995635
000110 38 88 e6 b9 09 bd b0 3a 1d 20 44 3b 92 7e 4b 3b
       -0.0004397051 0.0013484071 0.0029926368 0.0031050784

model.qy_x.model.tcn_block_01.downsample.weight f4 [4, 2, 1]
000000 13 fc 98 3f 70 fd 96 3f 1e ea 77 3e 2e 89 7b 3e
       1.1951927 1.1796093 0.24210402 0.24564049
000010 96 30 2c 3c 80 cd 6c 3d 2a 5d b7 be 42 25 cb be
       0.010509631 0.057813168 -0.35813266 -0.39676863

model.qy_x.model.tcn_block_01.downsample.bias f4 [4]
000000 2c d4 00 c0 c1 69 5e 3e 21 a5 4b 3f 4d 3b 4e bf
       -2.01295 0.2172003 0.7954884 -0.80559236

model.qy_x.model.final_dense_02.weight f4 [4, 4, 1]
000000 94 e5 ec 3f 34 c7 ed 3d ca 95 1c bf e9 67 48 bf
       1.8507562 0.116102606 -0.6116606 -0.78283554
000010 6c d4 d0 3f 40 53 2c bf 3b 97 9d bd 9f 68 e9 3f
       1.6314826 -0.6731453 -0.076948605 1.8235053
000020 7a 38 c4 bf e0 1e 1b 3e 5b 98 5e 3e 15 da 34 bf
       -1.5329735 0.15148497 0.21737806 -0.70645267
000030 39 47 cf bf 50 30 3c 3d e5 1b ea 3e 30 c7 6b bf
       -1.619361 0.045944512 0.45724407 -0.9210081

model.qy_x.model.final_dense_02.bias f4 [4]
000000 e4 33 c0 be f2 b6 7d be 28 51 52 3e 5e 96 2a 3d
       -0.3753959 -0.2477682 0.20538771 0.041647308

model.encoder.model.tcn_block_00.conv0.bias f4 [2]
000000 9c 0c 43 3d ee ff 52 be
       0.047619447 -0.20605442

model.encoder.model.tcn_block_00.conv0.weight_g f4 [2, 1, 1]
000000 e1 76 0d 3f ff b5 2d 3f
       0.5525952 0.6785583

model.encoder.model.tcn_block_00.conv0.weight_v f4 [2, 14, 9]
000000 78 fc a7 3d 3c cc 56 3c 55 6d 3e bd 2d e6 f9 3d
       0.082024515 0.013110217 -0.046490986 0.12202106
000010 06 92 0f be 10 55 a3 3b 9e 09 2e bd 72 62 0a 3d
       -0.14020547 0.0049845055 -0.04248964 0.03378529
000020 d8 37 8b bd 4f 3e 32 bd df ca c1 bc e5 aa e6 3d
       -0.06797761 -0.043516453 -0.023656307 0.11263064
000030 db fe 00 be c5 a8 13 3e f7 24 23 bd 83 af 21 3b
       -0.1259722 0.14419849 -0.039830174 0.0024671264
000040 42 76 1b bd e5 9a 56 3d 35 79 7c bc c5 c6 53 3a
       -0.037954576 0.052393813 -0.015409757 0.000807863
000050 c1 da 83 3d 1e c7 cf bd 9a 05 86 3d d3 f8 af bb
       0.06438208 -0.101454005 0.06544037 -0.0053702383
000060 3b 58 85 bc 73 a5 df bc 69 ab 74 3a e9 12 62 bd
       -0.016277423 -0.027300572 0.00093334034 -0.055193815
000070 ec 79 17 bd b7 ec 06 be 64 d4 c4 3d 6e 30 fb bc
       -0.036981508 -0.13176237 0.09610823 -0.030662742
000080 62 e6 cd 3c 74 b2 a2 3c 36 83 6e 3d b8 ea c2 bc
       0.02513427 0.019860484 0.0582306 -0.023793563
000090 bb f1 1a 3d f9 3d ce bd b7 40 a5 3c 1d 21 8d bd
       0.03782819 -0.10070414 0.02017246 -0.068910815
0000a0 93 6f 2a 3c 6d c4 22 3d b7 2d 33 3d 02 88 15 bd
       0.010402578 0.039738107 0.04374477 -0.03650666
0000b0 71 18 2a 3d d7 fb 7c 3d a1 e8 26 3d 83 d5 b1 bd
       0.041527215 0.06176361 0.040749196 -0.08683302
0000c0 50 39 1a 3e 45 bb a8 bd d8 d4 d1 bc 19 84 a9 bc
       0.15060925 -0.08238844 -0.025614187 -0.020692872
0000d0 f2 a0 2f 3c 07 14 dc bd 23 40 e1 bc 91 fe 05 3e
       0.010719525 -0.107460074 -0.027496403 0.1308539
0000e0 d6 05 77 3d 7f 26 3f 3d ca 3f 1e 3d 2b 53 bb bd
       0.0603083 0.046667572 0.038635053 -0.091467224
0000f0 ae 1d 06 bd f5 f4 89 3d 70 e0 a6 bd 05 da d2 3c
       -0.03274315 0.06736175 -0.08148277 0.025738725
000100 88 b0 b2 3c ee ca c1 3d aa 1b bd bd 5a ad ef 3d
       0.021812692 0.09462534 -0.09233792 0.11702986
000110 48 a6 b0 bd 48 0d ad bc 0a c9 5b 3b 61 d8 8d 3d
       -0.08625466 -0.021124497 0.0033536577 0.069260366
000120 08 cb 8d 3d 3e 9e 72 3d cb d0 37 bb c8 f2 ec 3d
       0.06923491 0.059232943 -0.0028048034 0.11569744
000130 8a ed 5c bd 80 40 17 3d e3 48 35 3b 0e 9f 94 3c
       -0.053937472 0.036926746 0.0027661852 0.01814225
000140 44 e1 95 bc 04 64 fb bd 68 70 85 bd 24 5d 5b 3d
       -0.018295892 -0.12274936 -0.065155804 0.053555623
000150 79 85 c0 bd 46 2b 7e 3d a1 5d b2 3d 45 5b 80 3d
       -0.09400458 0.062052988 0.087092645 0.06267408
000160 9c 84 9a bd 64 dc 3e 3d c7 f3 a6 3d f4 70 a4 3c
       -0.075448245 0.0465969 0.081519656 0.020073391
000170 c1 9d 3a 3d 47 35 1a bd 65 53 9b bd fa 71 ab 3d
       0.045560602 -0.037648465 -0.075842656 0.08371349
000180 7c 11 cb 3d 35 c8 2d be 59 51 68 3d 8f e5 06 bd
       0.09915444 -0.16970904 0.056718204 -0.032933768
000190 f4 49 59 3c d8 ef 26 3c 81 62 1d 3e e5 d0 86 bd
       0.013262261 0.010189019 0.15369608 -0.06582812
0001a0 1e 6c 0d bd 9e a4 cf 3d d4 ab cd 3a f8 68 bd 3a
       -0.034526937 0.1013882 0.0015691468 0.0014450839
0001b0 5d 7e 46 3e ed 8a 12 be ee 79 20 3e f0 b0 12 be
       0.19384141 -0.14310808 0.15671512 -0.14325309
0001c0 4a 62 33 bd ee 97 55 be 80 8e 5b 37 95 d8 58 be
       -0.043794908 -0.20858738 1.3086596e-05 -0.2117637
0001d0 22 ce ef 3e 90 45 07 bd b8 41 c4 3c a0 2f f8 3b
       0.46836954 -0.033025324 0.023957118 0.0075740367
0001e0 cb 4f f7 3d f5 c7 a5 bb 36 3d 90 bd 15 cf 18 3d
       0.12075766 -0.005059237 -0.07042925 0.037306864
0001f0 8f e5 93 3c 50 0b 07 3d c0 3b 02 bd 0f 36 e8 bc
       0.018053798 0.032969773 -0.031795263 -0.02834609
000200 cb 34 cc bc c6 6f d2 bc 8c 6d b9 3a 09 64 81 3b
       -0.024927517 -0.025688063 0.0014147027 0.0039486927
000210 bc 91 58 3b 69 a0 0a 3d 3c b4 52 3d 38 5f 1a 3d
       0.0033045849 0.033844385 0.051441416 0.037688464
000220 3b 7e 0e 3d 76 86 1d 3d fd c2 1a 3d 1b 0a d3 3b
       0.03478835 0.03845831 0.03778361 0.0064404137
000230 e6 92 03 3a 9e 10 3f 3b 52 03 f7 bc 8a 0e 42 bd
       0.0005019143 0.0029154192 -0.03015295 -0.047377147
000240 a4 64 e4 3c f5 12 60 3c 22 91 e1 ba 6d c5 a8 ba
       0.02788002 0.013676395 -0.0017209391 -0.001287622
000250 95 8d d2 bb 17 14 5e b9 d0 e9 8b bc ba ed c3 bc
       -0.0064255693 -0.00021179054 -0.017079264 -0.023917068
000260 03 81 12 bd 0b 6c 79 bd 37 c7 d3 bd ec 60 58 bd
       -0.035767566 -0.060894053 -0.103407316 -0.052826807
000270 ea c9 98 bd b2 9e 62 bd 9f 57 13 bd 5c ee 5c bd
       -0.07460387 -0.055327125 -0.035972234 -0.053938255
000280 4a dc 3b 3c 53 3b e0 3c e2 04 67 3c b9 ca 5b 3c
       0.011466095 0.027372038 0.014100285 0.013415032
000290 42 ce 46 bb 6a 14 fe bb ea e7 9b bc e3 a6 a9 bc
       -0.0030335342 -0.0077538984 -0.019031484 -0.02070946
0002a0 29 a5 9a bc 72 65 b1 bc c3 d0 87 bc f0 1f 26 bd
       -0.018877583 -0.021654818 -0.016579038 -0.0405578
0002b0 94 70 18 bd c1 92 23 bd 5d 8f f4 bc d7 e3 89 bc
       -0.037216738 -0.039934877 -0.029853517 -0.016832275
0002c0 c0 54 cb ba 54 f7 4d 3c 58 9f f5 3c 29 47 19 3d
       -0.0015512928 0.012571175 0.029983208 0.03742138
0002d0 2c f2 e6 3c 26 6d c5 3c df a9 bd 3c 4f f8 b5 3c
       0.028191648 0.024099898 0.02315229 0.02221313
0002e0 31 4c 98 3c 38 60 85 3c 0a 90 d2 3b 3a 5a 45 3b
       0.018591018 0.016281232 0.006425862 0.0030113594
0002f0 9e fb 69 ba eb 29 f1 3c ff 09 9e 3c a0 fe ae 3c
       -0.00089257385 0.029438933 0.019291876 0.021361649
000300 e5 be 9e 3c c6 d3 29 3a 56 bc cc bb 12 b9 c7 bb
       0.019378135 0.0006478395 -0.0062480373 -0.00609506
000310 75 3b bd bc 29 09 2b bd 48 a7 01 bd fd 98 ab bc
       -0.02309964 -0.041756783 -0.031653672 -0.020946974
000320 df 5d b8 bc d4 47 4f bc 30 db cb 3a fb c9 4a 3b
       -0.022505699 -0.0126514025 0.0015552994 0.0030943144
000330 1e 13 1a 3c 36 02 dd 3c d8 4b 16 3d 8a 62 78 3d
       0.009403972 0.026978593 0.036693424 0.06064085
000340 13 31 3f 3d a6 36 1a 3d f8 5a 92 3c cd 34 75 3c
       0.04667766 0.037649773 0.017865643 0.014966202
000350 87 d2 5c bc c6 1e 41 bc 64 96 31 bd 4c e2 61 bd
       -0.013477928 -0.011787122 -0.043356314 -0.055147454
000360 0d 06 33 be 96 a7 d6 3d 59 90 10 3e 78 0b 1e 3e
       -0.17482777 0.10481183 0.14117564 0.15434062
000370 3e c4 6a 3e 34 fa 32 3e 78 74 73 3e 94 a2 62 3e
       0.22926423 0.17478257 0.23774898 0.22132331
000380 31 0a 24 3e 31 76 5c bd 29 52 8a bd f1 49 8d bd
       0.16019513 -0.053823654 -0.06753952 -0.06898869
000390 d8 54 5b bd e9 8e 5f bd 08 94 6b bd 33 e8 a8 bd
       -0.05354771 -0.05457965 -0.05751422 -0.082474135
0003a0 c0 2d ac bd 24 97 6e bd a2 61 4c 3f 92 0f 81 2a
       -0.084071636 -0.058249608 0.79836476 2.2925807e-13
0003b0 5f cc 3f 40 22 dd fb 29 59 52 ac 35 d7 fa fc aa
       2.9968488 1.11849996e-13 1.2838965e-06 -4.4938247e-13
0003c0 5f 3d 4c bf 62 83 7c 3f b2 dd 6a 3f 73 9e f7 3d
       -0.79781145 0.98637974 0.9174453 0.12090769
0003d0 a6 12 d3 3d 15 f8 00 3e 3c 8d e0 3d 1f 31 a7 3d
       0.10306291 0.12594636 0.10964438 0.08163666
0003e0 3d f5 dc 3d aa 03 5d 3d 9e 54 a1 3c 26 ce c3 bd
       0.10788963 0.053958572 0.019693669 -0.09560804

model.encoder.model.tcn_block_00.conv1.bias f4 [2]
000000 2b f8 2d 3b df 40 c2 bc
       0.0026545625 -0.023712574

model.encoder.model.tcn_block_00.conv1.weight_g f4 [2, 1, 1]
000000 ad 89 00 3f d5 1d 28 3f
       0.50210077 0.6567052

model.encoder.model.tcn_block_00.conv1.weight_v f4 [2, 2, 9]
000000 d8 3a 5c 3d 6f bd 20 bd 84 8e 29 3d d6 2f a6 3d
       0.053767055 -0.039243158 0.04139568 0.08114593
000010 76 b9 e7 3d 07 da ca bd 2a 81 f7 3c d9 81 01 be
       0.11314671 -0.09904867 0.030212957 -0.12647189
000020 69 a0 a9 bd 42 f9 ca bd 21 44 58 be 82 c7 e8 bd
       -0.08282549 -0.099108234 -0.21119739 -0.11366178
000030 9f 77 54 be 05 da 4a be f1 f9 38 be a7 54 69 be
       -0.20748757 -0.1980973 -0.18064095 -0.22786199
000040 d2 54 1b be d9 67 3a be 3e 13 9a bc f3 c7 06 bd
       -0.15169075 -0.18203677 -0.018808004 -0.03290553
000050 18 69 1b 3e d4 cd 14 3e 21 f5 2f be f0 52 cc 3d
       0.15176809 0.14531642 -0.17183353 0.099767566
000060 8e fe 39 be c6 8b 3d be e5 79 9d 3d be 5c dc bd
       -0.18163511 -0.1851035 0.07689265 -0.10759877
000070 4a f8 2b be 75 f1 6f be 87 f2 45 be b9 fc ab bd
       -0.16793934 -0.23431952 -0.19330798 -0.083978124
000080 c3 3e 83 be 0e 81 8e be 0c 94 57 be 59 3e 89 be
       -0.2563382 -0.27832836 -0.21052569 -0.2680538

model.encoder.model.tcn_block_00.block.conv1d_layer_0.bias f4 [2]
000000 9c 0c 43 3d ee ff 52 be
       0.047619447 -0.20605442

model.encoder.model.tcn_block_00.block.conv1d_layer_0.weight_g f4 [2, 1, 1]
000000 e1 76 0d 3f ff b5 2d 3f
       0.5525952 0.6785583

model.encoder.model.tcn_block_00.block.conv1d_layer_0.weight_v f4 [2, 14, 9]
000000 78 fc a7 3d 3c cc 56 3c 55 6d 3e bd 2d e6 f9 3d
       0.082024515 0.013110217 -0.046490986 0.12202106
000010 06 92 0f be 10 55 a3 3b 9e 09 2e bd 72 62 0a 3d
       -0.14020547 0.0049845055 -0.04248964 0.03378529
000020 d8 37 8b bd 4f 3e 32 bd df ca c1 bc e5 aa e6 3d
       -0.06797761 -0.043516453 -0.023656307 0.11263064
000030 db fe 00 be c5 a8 13 3e f7 24 23 bd 83 af 21 3b
       -0.1259722 0.14419849 -0.039830174 0.0024671264
000040 42 76 1b bd e5 9a 56 3d 35 79 7c bc c5 c6 53 3a
       -0.037954576 0.052393813 -0.015409757 0.000807863
000050 c1 da 83 3d 1e c7 cf bd 9a 05 86 3d d3 f8 af bb
       0.06438208 -0.101454005 0.06544037 -0.0053702383
000060 3b 58 85 bc 73 a5 df bc 69 ab 74 3a e9 12 62 bd
       -0.016277423 -0.027300572 0.00093334034 -0.055193815
000070 ec 79 17 bd b7 ec 06 be 64 d4 c4 3d 6e 30 fb bc
       -0.036981508 -0.13176237 0.09610823 -0.030662742
000080 62 e6 cd 3c 74 b2 a2 3c 36 83 6e 3d b8 ea c2 bc
       0.02513427 0.019860484 0.0582306 -0.023793563
000090 bb f1 1a 3d f9 3d ce bd b7 40 a5 3c 1d 21 8d bd
       0.03782819 -0.10070414 0.02017246 -0.068910815
0000a0 93 6f 2a 3c 6d c4 22 3d b7 2d 33 3d 02 88 15 bd
       0.010402578 0.039738107 0.04374477 -0.03650666
0000b0 71 18 2a 3d d7 fb 7c 3d a1 e8 26 3d 83 d5 b1 bd
       0.041527215 0.06176361 0.040749196 -0.08683302
0000c0 50 39 1a 3e 45 bb a8 bd d8 d4 d1 bc 19 84 a9 bc
       0.15060925 -0.08238844 -0.025614187 -0.020692872
0000d0 f2 a0 2f 3c 07 14 dc bd 23 40 e1 bc 91 fe 05 3e
       0.010719525 -0.107460074 -0.027496403 0.1308539
0000e0 d6 05 77 3d 7f 26 3f 3d ca 3f 1e 3d 2b 53 bb bd
       0.0603083 0.046667572 0.038635053 -0.091467224
0000f0 ae 1d 06 bd f5 f4 89 3d 70 e0 a6 bd 05 da d2 3c
       -0.03274315 0.06736175 -0.08148277 0.025738725
000100 88 b0 b2 3c ee ca c1 3d aa 1b bd bd 5a ad ef 3d
       0.021812692 0.09462534 -0.09233792 0.11702986
000110 48 a6 b0 bd 48 0d ad bc 0a c9 5b 3b 61 d8 8d 3d
       -0.08625466 -0.021124497 0.0033536577 0.069260366
000120 08 cb 8d 3d 3e 9e 72 3d cb d0 37 bb c8 f2 ec 3d
       0.06923491 0.059232943 -0.0028048034 0.11569744
000130 8a ed 5c bd 80 40 17 3d e3 48 35 3b 0e 9f 94 3c
       -0.053937472 0.036926746 0.0027661852 0.01814225
000140 44 e1 95 bc 04 64 fb bd 68 70 85 bd 24 5d 5b 3d
       -0.018295892 -0.12274936 -0.065155804 0.053555623
000150 79 85 c0 bd 46 2b 7e 3d a1 5d b2 3d 45 5b 80 3d
       -0.09400458 0.062052988 0.087092645 0.06267408
000160 9c 84 9a bd 64 dc 3e 3d c7 f3 a6 3d f4 70 a4 3c
       -0.075448245 0.0465969 0.081519656 0.020073391
000170 c1 9d 3a 3d 47 35 1a bd 65 53 9b bd fa 71 ab 3d
       0.045560602 -0.037648465 -0.075842656 0.08371349
000180 7c 11 cb 3d 35 c8 2d be 59 51 68 3d 8f e5 06 bd
       0.09915444 -0.16970904 0.056718204 -0.032933768
000190 f4 49 59 3c d8 ef 26 3c 81 62 1d 3e e5 d0 86 bd
       0.013262261 0.010189019 0.15369608 -0.06582812
0001a0 1e 6c 0d bd 9e a4 cf 3d d4 ab cd 3a f8 68 bd 3a
       -0.034526937 0.1013882 0.0015691468 0.0014450839
0001b0 5d 7e 46 3e ed 8a 12 be ee 79 20 3e f0 b0 12 be
       0.19384141 -0.14310808 0.15671512 -0.14325309
0001c0 4a 62 33 bd ee 97 55 be 80 8e 5b 37 95 d8 58 be
       -0.043794908 -0.20858738 1.3086596e-05 -0.2117637
0001d0 22 ce ef 3e 90 45 07 bd b8 41 c4 3c a0 2f f8 3b
       0.46836954 -0.033025324 0.023957118 0.0075740367
0001e0 cb 4f f7 3d f5 c7 a5 bb 36 3d 90 bd 15 cf 18 3d
       0.12075766 -0.005059237 -0.07042925 0.037306864
0001f0 8f e5 93 3c 50 0b 07 3d c0 3b 02 bd 0f 36 e8 bc
       0.018053798 0.032969773 -0.031795263 -0.02834609
000200 cb 34 cc bc c6 6f d2 bc 8c 6d b9 3a 09 64 81 3b
       -0.024927517 -0.025688063 0.0014147027 0.0039486927
000210 bc 91 58 3b 69 a0 0a 3d 3c b4 52 3d 38 5f 1a 3d
       0.0033045849 0.033844385 0.051441416 0.037688464
000220 3b 7e 0e 3d 76 86 1d 3d fd c2 1a 3d 1b 0a d3 3b
       0.03478835 0.03845831 0.03778361 0.0064404137
000230 e6 92 03 3a 9e 10 3f 3b 52 03 f7 bc 8a 0e 42 bd
       0.0005019143 0.0029154192 -0.03015295 -0.047377147
000240 a4 64 e4 3c f5 12 60 3c 22 91 e1 ba 6d c5 a8 ba
       0.02788002 0.013676395 -0.0017209391 -0.001287622
000250 95 8d d2 bb 17 14 5e b9 d0 e9 8b bc ba ed c3 bc
       -0.0064255693 -0.00021179054 -0.017079264 -0.023917068
000260 03 81 12 bd 0b 6c 79 bd 37 c7 d3 bd ec 60 58 bd
       -0.035767566 -0.060894053 -0.103407316 -0.052826807
000270 ea c9 98 bd b2 9e 62 bd 9f 57 13 bd 5c ee 5c bd
       -0.07460387 -0.055327125 -0.035972234 -0.053938255
000280 4a dc 3b 3c 53 3b e0 3c e2 04 67 3c b9 ca 5b 3c
       0.011466095 0.027372038 0.014100285 0.013415032
000290 42 ce 46 bb 6a 14 fe bb ea e7 9b bc e3 a6 a9 bc
       -0.0030335342 -0.0077538984 -0.019031484 -0.02070946
0002a0 29 a5 9a bc 72 65 b1 bc c3 d0 87 bc f0 1f 26 bd
       -0.018877583 -0.021654818 -0.016579038 -0.0405578
0002b0 94 70 18 bd c1 92 23 bd 5d 8f f4 bc d7 e3 89 bc
       -0.037216738 -0.039934877 -0.029853517 -0.016832275
0002c0 c0 54 cb ba 54 f7 4d 3c 58 9f f5 3c 29 47 19 3d
       -0.0015512928 0.012571175 0.029983208 0.03742138
0002d0 2c f2 e6 3c 26 6d c5 3c df a9 bd 3c 4f f8 b5 3c
       0.028191648 0.024099898 0.02315229 0.02221313
0002e0 31 4c 98 3c 38 60 85 3c 0a 90 d2 3b 3a 5a 45 3b
       0.018591018 0.016281232 0.006425862 0.0030113594
0002f0 9e fb 69 ba eb 29 f1 3c ff 09 9e 3c a0 fe ae 3c
       -0.00089257385 0.029438933 0.019291876 0.021361649
000300 e5 be 9e 3c c6 d3 29 3a 56 bc cc bb 12 b9 c7 bb
       0.019378135 0.0006478395 -0.0062480373 -0.00609506
000310 75 3b bd bc 29 09 2b bd 48 a7 01 bd fd 98 ab bc
       -0.02309964 -0.041756783 -0.031653672 -0.020946974
000320 df 5d b8 bc d4 47 4f bc 30 db cb 3a fb c9 4a 3b
       -0.022505699 -0.0126514025 0.0015552994 0.0030943144
000330 1e 13 1a 3c 36 02 dd 3c d8 4b 16 3d 8a 62 78 3d
       0.009403972 0.026978593 0.036693424 0.06064085
000340 13 31 3f 3d a6 36 1a 3d f8 5a 92 3c cd 34 75 3c
       0.04667766 0.037649773 0.017865643 0.014966202
000350 87 d2 5c bc c6 1e 41 bc 64 96 31 bd 4c e2 61 bd
       -0.013477928 -0.011787122 -0.043356314 -0.055147454
000360 0d 06 33 be 96 a7 d6 3d 59 90 10 3e 78 0b 1e 3e
       -0.17482777 0.10481183 0.14117564 0.15434062
000370 3e c4 6a 3e 34 fa 32 3e 78 74 73 3e 94 a2 62 3e
       0.22926423 0.17478257 0.23774898 0.22132331
000380 31 0a 24 3e 31 76 5c bd 29 52 8a bd f1 49 8d bd
       0.16019513 -0.053823654 -0.06753952 -0.06898869
000390 d8 54 5b bd e9 8e 5f bd 08 94 6b bd 33 e8 a8 bd
       -0.05354771 -0.05457965 -0.05751422 -0.082474135
0003a0 c0 2d ac bd 24 97 6e bd a2 61 4c 3f 92 0f 81 2a
       -0.084071636 -0.058249608 0.79836476 2.2925807e-13
0003b0 5f cc 3f 40 22 dd fb 29 59 52 ac 35 d7 fa fc aa
       2.9968488 1.11849996e-13 1.2838965e-06 -4.4938247e-13
0003c0 5f 3d 4c bf 62 83 7c 3f b2 dd 6a 3f 73 9e f7 3d
       -0.79781145 0.98637974 0.9174453 0.12090769
0003d0 a6 12 d3 3d 15 f8 00 3e 3c 8d e0 3d 1f 31 a7 3d
       0.10306291 0.12594636 0.10964438 0.08163666
0003e0 3d f5 dc 3d aa 03 5d 3d 9e 54 a1 3c 26 ce c3 bd
       0.10788963 0.053958572 0.019693669 -0.09560804

model.encoder.model.tcn_block_00.block.conv1d_layer_1.bias f4 [2]
000000 2b f8 2d 3b df 40 c2 bc
       0.0026545625 -0.023712574

model.encoder.model.tcn_block_00.block.conv1d_layer_1.weight_g f4 [2, 1, 1]
000000 ad 89 00 3f d5 1d 28 3f
       0.50210077 0.6567052

model.encoder.model.tcn_block_00.block.conv1d_layer_1.weight_v f4 [2, 2, 9]
000000 d8 3a 5c 3d 6f bd 20 bd 84 8e 29 3d d6 2f a6 3d
       0.053767055 -0.039243158 0.04139568 0.08114593
000010 76 b9 e7 3d 07 da ca bd 2a 81 f7 3c d9 81 01 be
       0.11314671 -0.09904867 0.030212957 -0.12647189
000020 69 a0 a9 bd 42 f9 ca bd 21 44 58 be 82 c7 e8 bd
       -0.08282549 -0.099108234 -0.21119739 -0.11366178
000030 9f 77 54 be 05 da 4a be f1 f9 38 be a7 54 69 be
       -0.20748757 -0.1980973 -0.18064095 -0.22786199
000040 d2 54 1b be d9 67 3a be 3e 13 9a bc f3 c7 06 bd
       -0.15169075 -0.18203677 -0.018808004 -0.03290553
000050 18 69 1b 3e d4 cd 14 3e 21 f5 2f be f0 52 cc 3d
       0.15176809 0.14531642 -0.17183353 0.099767566
000060 8e fe 39 be c6 8b 3d be e5 79 9d 3d be 5c dc bd
       -0.18163511 -0.1851035 0.07689265 -0.10759877
000070 4a f8 2b be 75 f1 6f be 87 f2 45 be b9 fc ab bd
       -0.16793934 -0.23431952 -0.19330798 -0.083978124
000080 c3 3e 83 be 0e 81 8e be 0c 94 57 be 59 3e 89 be
       -0.2563382 -0.27832836 -0.21052569 -0.2680538

model.encoder.model.tcn_block_00.downsample.weight f4 [2, 14, 1]
000000 b7 94 26 3e fb 68 0d be a6 f5 8f bd d9 b5 2b 3e
       0.16267668 -0.13809578 -0.070292756 0.16768588
000010 13 11 4c be f1 86 37 3e 6c 51 ee 3d f5 05 6c bd
       -0.19928388 0.1792257 0.11636624 -0.05762287
000020 90 2b 85 3d 6e d6 8e be dc ec 92 3f f0 4e 90 3f
       0.065024495 -0.27897972 1.1478534 1.127409
000030 f3 b3 21 bc 9b d1 91 3f 52 d5 2a be c7 ee e2 3d
       -0.009869563 1.1392092 -0.16682938 0.110806994
000040 64 dc fd 3d 0e ae 16 3d e1 02 ed bd 89 e9 c2 bd
       0.12395552 0.036787085 -0.11572815 -0.095171995
000050 95 96 5d 3e bd cd 50 3e e7 d4 25 be 48 c9 7d 3c
       0.21639474 0.20390983 -0.16194497 0.015489884
000060 33 16 9e 3f 34 18 9f 3f df 7a 03 3c 47 cc 9e 3f
       1.2350525 1.2429261 0.0080249 1.240609

model.encoder.model.tcn_block_00.downsample.bias f4 [2]
000000 7c 0c bb 3f cc e3 8c 3f
       1.4613185 1.1007018

model.encoder.model.tcn_block_01.conv0.bias f4 [2]
000000 d6 91 62 be 3d ae d1 3e
       -0.22125944 0.40953246

model.encoder.model.tcn_block_01.conv0.weight_g f4 [2, 1, 1]
000000 d2 3e 24 3f ed a8 21 3f
       0.64158356 0.63148385

model.encoder.model.tcn_block_01.conv0.weight_v f4 [2, 2, 9]
000000 47 12 c0 bd ef ae 19 bd 07 c2 e0 3a 94 7a 62 3d
       -0.09378486 -0.037520345 0.0017147668 0.05529268
000010 57 df db 3d a2 3e c0 bc 16 01 2e 3e b7 d0 1a 3d
       0.10735958 -0.023467366 0.16992602 0.037796702
000020 b3 6b fc bd 41 0b 16 be 4b 47 90 3d ce 09 00 3e
       -0.123252295 -0.1465273 0.07044848 0.1250374
000030 aa a6 3a be df c3 b6 bd 91 bb da bb 18 fc 0f bd
       -0.1822764 -0.08924078 -0.0066751917 -0.035152525
000040 7b d5 6a 3e 37 af 6d 3d f8 53 ba 3d 34 19 81 bd
       0.22932999 0.058028426 0.09098047 -0.06303635
000050 09 dc be bd dc f2 40 be cd 2f 17 be 6f 66 e5 bb
       -0.09319312 -0.18842643 -0.14764328 -0.0070007364
000060 42 fe 91 3d 09 a6 00 3d 36 50 97 3e 80 c5 50 be
       0.07128574 0.031408343 0.29553384 -0.2038784
000070 2d 19 35 3d a0 a4 b8 3d a6 dd c8 bd 33 a7 65 3d
       0.044213463 0.09015775 -0.09807901 0.056067657
000080 11 35 33 bd 67 5a 92 be 7f 3d 26 be ac 92 05 3e
       -0.04375178 -0.28584597 -0.16234396 0.13044232

model.encoder.model.tcn_block_01.conv1.bias f4 [2]
000000 50 75 18 bd d2 07 c9 bb
       -0.037221253 -0.0061349655

model.encoder.model.tcn_block_01.conv1.weight_g f4 [2, 1, 1]
000000 11 22 1e 3f ad 15 44 3f
       0.6177073 0.76595575

model.encoder.model.tcn_block_01.conv1.weight_v f4 [2, 2, 9]
000000 02 6f a8 3e 5f a1 65 3e f5 65 0f be f4 1b a4 bd
       0.32897192 0.2242484 -0.14003737 -0.08013144
000010 a2 5a 8a be f5 fa 9b be b5 6a 7a be d4 51 55 be
       -0.27022272 -0.30464903 -0.24454768 -0.20831996
000020 ff 49 6b 3e 40 6d 10 3e ed 0e 80 3b 88 37 d6 bd
       0.22977446 0.14104176 0.0039080293 -0.104598105
000030 dd cf 2c 3e cb e7 cc bc 5c 04 2c 3d 7b cc fe bd
       0.16876169 -0.025012871 0.041996345 -0.12441345
000040 18 33 e5 bd 2c 0f 83 3d cc 07 9f bd d3 1f 4c be
       -0.11191386 0.06399378 -0.07765159 -0.19934015
000050 cd dd 64 bc c1 62 0f bd 28 b3 82 3d 3d 5f d3 3d
       -0.013968897 -0.03500629 0.063818276 0.103209
000060 f3 e2 98 bd f8 85 33 bd ad 76 17 3e 63 51 2e bd
       -0.07465162 -0.043828934 0.14791365 -0.042558085
000070 bc a5 10 3e 18 cc ab 3e b4 e4 9f 3d 49 33 9d 3d
       0.14125723 0.3355415 0.078072935 0.076757975
000080 36 60 6b 3d e4 8e e0 bb 11 b4 85 bd 53 eb fa 3d
       0.0574648 -0.0068529714 -0.065284856 0.12251916

model.encoder.model.tcn_block_01.block.conv1d_layer_0.bias f4 [2]
000000 d6 91 62 be 3d ae d1 3e
       -0.22125944 0.40953246

model.encoder.model.tcn_block_01.block.conv1d_layer_0.weight_g f4 [2, 1, 1]
000000 d2 3e 24 3f ed a8 21 3f
       0.64158356 0.63148385

model.encoder.model.tcn_block_01.block.conv1d_layer_0.weight_v f4 [2, 2, 9]
000000 47 12 c0 bd ef ae 19 bd 07 c2 e0 3a 94 7a 62 3d
       -0.09378486 -0.037520345 0.0017147668 0.05529268
000010 57 df db 3d a2 3e c0 bc 16 01 2e 3e b7 d0 1a 3d
       0.10735958 -0.023467366 0.16992602 0.037796702
000020 b3 6b fc bd 41 0b 16 be 4b 47 90 3d ce 09 00 3e
       -0.123252295 -0.1465273 0.07044848 0.1250374
000030 aa a6 3a be df c3 b6 bd 91 bb da bb 18 fc 0f bd
       -0.1822764 -0.08924078 -0.0066751917 -0.035152525
000040 7b d5 6a 3e 37 af 6d 3d f8 53 ba 3d 34 19 81 bd
       0.22932999 0.058028426 0.09098047 -0.06303635
000050 09 dc be bd dc f2 40 be cd 2f 17 be 6f 66 e5 bb
       -0.09319312 -0.18842643 -0.14764328 -0.0070007364
000060 42 fe 91 3d 09 a6 00 3d 36 50 97 3e 80 c5 50 be
       0.07128574 0.031408343 0.29553384 -0.2038784
000070 2d 19 35 3d a0 a4 b8 3d a6 dd c8 bd 33 a7 65 3d
       0.044213463 0.09015775 -0.09807901 0.056067657
000080 11 35 33 bd 67 5a 92 be 7f 3d 26 be ac 92 05 3e
       -0.04375178 -0.28584597 -0.16234396 0.13044232

model.encoder.model.tcn_block_01.block.conv1d_layer_1.bias f4 [2]
000000 50 75 18 bd d2 07 c9 bb
       -0.037221253 -0.0061349655

model.encoder.model.tcn_block_01.block.conv1d_layer_1.weight_g f4 [2, 1, 1]
000000 11 22 1e 3f ad 15 44 3f
       0.6177073 0.76595575

model.encoder.model.tcn_block_01.block.conv1d_layer_1.weight_v f4 [2, 2, 9]
000000 02 6f a8 3e 5f a1 65 3e f5 65 0f be f4 1b a4 bd
       0.32897192 0.2242484 -0.14003737 -0.08013144
000010 a2 5a 8a be f5 fa 9b be b5 6a 7a be d4 51 55 be
       -0.27022272 -0.30464903 -0.24454768 -0.20831996
000020 ff 49 6b 3e 40 6d 10 3e ed 0e 80 3b 88 37 d6 bd
       0.22977446 0.14104176 0.0039080293 -0.104598105
000030 dd cf 2c 3e cb e7 cc bc 5c 04 2c 3d 7b cc fe bd
       0.16876169 -0.025012871 0.041996345 -0.12441345
000040 18 33 e5 bd 2c 0f 83 3d cc 07 9f bd d3 1f 4c be
       -0.11191386 0.06399378 -0.07765159 -0.19934015
000050 cd dd 64 bc c1 62 0f bd 28 b3 82 3d 3d 5f d3 3d
       -0.013968897 -0.03500629 0.063818276 0.103209
000060 f3 e2 98 bd f8 85 33 bd ad 76 17 3e 63 51 2e bd
       -0.07465162 -0.043828934 0.14791365 -0.042558085
000070 bc a5 10 3e 18 cc ab 3e b4 e4 9f 3d 49 33 9d 3d
       0.14125723 0.3355415 0.078072935 0.076757975
000080 36 60 6b 3d e4 8e e0 bb 11 b4 85 bd 53 eb fa 3d
       0.0574648 -0.0068529714 -0.065284856 0.12251916

model.qz_xy_mean.dense(qz_xy_mean)_layer_03.weight f4 [2, 2]
000000 85 68 5d 3f 6a 82 bd 3e 87 79 2d bf ac 9a a9 3f
       0.8648761 0.3701356 -0.6776356 1.3250327

model.qz_xy_mean.dense(qz_xy_mean)_layer_03.bias f4 [2]
000000 ff 8f 23 c0 e6 5f 78 bf
       -2.5556638 -0.9702133

model.qz_xy_logvar.dense(qz_xy_logvar)_layer_03.weight f4 [2, 2]
000000 cf 21 96 bf c6 47 9a bf 45 1c 55 bf 5a 0f 65 bf
       -1.1729068 -1.2053154 -0.8324626 -0.8947655

model.qz_xy_logvar.dense(qz_xy_logvar)_layer_03.bias f4 [2]
000000 16 ee b6 bf 22 68 e2 bf
       -1.4291408 -1.7688029

model.py_t_probs.dense(py_t_probs)_layer_00.weight f4 [4, 2]
000000 c4 c5 2e be f7 42 44 c0 22 b3 6e 3f 5b ee 05 40
       -0.17067629 -3.0665872 0.93242085 2.092673
000010 26 e6 4d be 23 94 29 bf 34 d3 93 be 0f d3 37 bf
       -0.20107326 -0.66241664 -0.28872073 -0.71806425

model.py_t_probs.dense(py_t_probs)_layer_00.bias f4 [4]
000000 da 8a ff 3f 9c 1f 81 3f 56 3a 08 bf 8f cf 4d bf
       1.9964249 1.0087771 -0.53214014 -0.80394834

model.pz_t_mean.dense(pz_t_mean)_layer_00.weight f4 [8, 2]
000000 93 fe 83 3f 82 ee 99 3d 82 91 84 be 4c 87 66 3f
       1.0312065 0.07516195 -0.25892264 0.90050197
000010 7f f4 81 3f 01 91 21 3d 2b 85 06 be 9d 3e 72 3f
       1.0152739 0.039444927 -0.13136737 0.9462679
000020 45 4e 21 3f 10 50 d8 be 08 bb 5f 3e 6b 7c 11 bf
       0.63010055 -0.42248583 0.2184869 -0.5683047
000030 20 78 80 3f ab 5b 2d ba 5a 98 ed bd 05 0b 7a 3f
       1.0036659 -0.0006613086 -0.116013244 0.97673064

model.pz_t_mean.dense(pz_t_mean)_layer_00.bias f4 [8]
000000 5d a8 82 3d b0 2a 94 bc 9f 4e 58 bd 16 bc 06 3e
       0.06379769 -0.018086761 -0.052809354 0.13157687
000010 41 a7 19 3f 46 46 b5 3e 20 a3 3b bb b8 d2 b3 3d
       0.60020834 0.35405177 -0.0028631166 0.08780426

model.pz_t_logvar.dense(pz_t_logvar)_layer_00.weight f4 [2, 4]
000000 88 ad e7 bf 0f c6 14 c0 78 20 0c be 68 69 08 c0
       -1.8099833 -2.3245885 -0.13684261 -2.1314335
000010 c2 5b e8 bf 4f b3 13 c0 0a 22 ee be c0 cc fb bf
       -1.8153002 -2.3078191 -0.46510345 -1.967186

model.pz_t_logvar.dense(pz_t_logvar)_layer_00.bias f4 [2]
000000 5f 36 25 c0 67 12 ed bf
       -2.5814435 -1.8521241

model.decoder.dense(decoder)_layer_00.weight f4 [10, 2]
000000 b3 b7 9c 3d db 2b 07 bf 09 9b 7e be ea ff f6 3e
       0.07652225 -0.52801293 -0.24863829 0.48242122
000010 90 93 f9 3d 7d 83 0d 3f 21 46 92 3f b8 b7 80 bc
       0.121863484 0.5527876 1.1427652 -0.015712604
000020 b9 ef a9 bf 6e eb 8c be 8d 75 f2 3e d8 38 d3 be
       -1.3276283 -0.2752337 0.4735531 -0.41254306
000030 46 9f 88 3f 6e a5 09 3f c1 42 e2 3e 09 f1 19 3f
       1.0673606 0.5376805 0.44191554 0.60133415
000040 32 d1 a0 be 67 1c 17 bf 25 f4 83 bf 03 3c 0d 3e
       -0.31409603 -0.59027714 -1.0308882 0.13792424

model.decoder.dense(decoder)_layer_00.bias f4 [10]
000000 73 a5 18 3e 33 37 12 bd 77 60 89 be dd 4c 22 bf
       0.14906864 -0.035697173 -0.2683141 -0.63398534
000010 ec e3 57 3f 92 f2 ec bd 16 22 4b bf 24 90 ee be
       0.84332156 -0.11569704 -0.79348886 -0.46594346
000020 df d0 c7 3e 3e 39 07 3f
       0.39026543 0.5282172

inference.model.qy_x.model.tcn_block_00.conv0.bias f4 [2]
000000 33 76 9a 3d fc 23 62 be
       0.07542076 -0.2208404

inference.model.qy_x.model.tcn_block_00.conv0.weight_g f4 [2, 1, 1]
000000 e5 59 21 3f 7c 3e b1 3f
       0.63027793 1.3847194

inference.model.qy_x.model.tcn_block_00.conv0.weight_v f4 [2, 10, 9]
000000 39 cb 83 ba 3d d2 1e 3e f0 46 65 3d 97 c3 4b 3d
       -0.0010055072 0.15509887 0.055975854 0.049747076
000010 86 86 b8 bc 97 83 c7 bd 83 d3 59 be 41 e1 fd bd
       -0.022525083 -0.09741896 -0.21272092 -0.123964794
000020 9f 9c 76 be 2d 87 01 3d aa 47 01 ba 96 05 39 bc
       -0.24083184 0.031623054 -0.0004931638 -0.011292836
000030 2f 19 1f bc 0b 0d 9a bc 95 36 c0 bc 96 73 6f bc
       -0.009710594 -0.018805047 -0.023463527 -0.01461496
000040 e7 88 c4 3d 82 83 3e 3e 1d d3 d2 bc 0d 9b 36 bd
       0.095964245 0.18604854 -0.025735432 -0.04458146
000050 18 76 ae 3d 59 3d d7 3d 01 ea b7 3d ac 61 b1 3c
       0.08518618 0.10509748 0.089801796 0.021653019
000060 f6 7a 28 bc 27 8a 9c bc a6 06 02 3e 75 80 1e 3a
       -0.010283222 -0.019108845 0.12697849 0.0006046363
000070 75 1f af 3d 12 32 63 3d d3 e3 97 bc c4 90 a5 bc
       0.08550922 0.055467673 -0.018541252 -0.020210631
000080 be 96 a0 bd 03 20 9a bd ad b6 45 bc 05 80 ac bc
       -0.07841252 -0.07525637 -0.012067479 -0.021057138
000090 d8 dd e5 bd 15 fa d0 bc 8c 60 5d bd 3f 44 9c bb
       -0.11223954 -0.025509873 -0.054047152 -0.0047688778
0000a0 e4 0c 58 3d a8 fb 84 3c 89 ca e2 3d d7 d4 89 bd
       0.05274667 0.01623328 0.11073787 -0.06730049
0000b0 a4 42 bc bd d5 ca 65 3d e9 ff fb 3d d6 92 14 3e
       -0.09192398 0.05610164 0.1230467 0.14509138
0000c0 fd 5a d6 3c 08 62 32 bc a1 90 44 bc 11 9e 00 bd
       0.026166433 -0.01088763 -0.011997373 -0.031400744
0000d0 9e 15 f7 bd 81 8b 2d be a7 f6 b5 3d d5 ab 7c 3c
       -0.1206467 -0.16947748 0.08884936 0.015421827
0000e0 60 cf 1e 3d f7 40 51 bd fb 68 b9 bd e5 d4 dc bc
       0.038771987 -0.051087346 -0.090532266 -0.026956985
0000f0 0e 89 81 3d 25 ad 15 3e 2d cc 2c 3e 58 b1 37 3c
       0.06324969 0.1461683 0.16874762 0.011211716
000100 d8 fa 16 3c 73 25 92 bd 31 01 4a bc 4d ee 80 bc
       0.009215079 -0.07136049 -0.012329386 -0.01573863
000110 6f 9e a5 3d 92 a6 15 3e df 5e e0 3d e5 a3 50 3e
       0.080868594 0.14614323 0.10955595 0.20375021
000120 6d 01 00 3e 73 5c 2a 3e 60 24 f5 3d a1 dd 6d 3d
       0.12500544 0.16636829 0.119698286 0.05807269
000130 84 91 e8 3c 2d ad 91 bd be 76 97 bc 2a 15 db bd
       0.0283897 -0.07113109 -0.018489238 -0.10697396
000140 e1 50 56 be fb 08 55 3d 68 3c 81 bc 50 be 3a be
       -0.2092929 0.052010518 -0.015775874 -0.18236661
000150 ee 68 79 bd cb 89 59 bd 16 e6 8b 3c 19 39 ce 3c
       -0.060891084 -0.053109925 0.017077487 0.02517371
000160 f0 28 19 3e 50 86 c9 3b 62 32 9b 3c 22 47 83 3d
       0.14957023 0.0061500445 0.018944923 0.06410052
000170 4c f4 a6 b9 b4 c0 a4 3c 1b 9b 63 3d bd 66 9b bb
       -0.00031844003 0.02011142 0.055567842 -0.004742472
000180 8e f5 c0 3d 88 86 04 3e ea 9b 2d 3e b6 46 bb 3c
       0.09421836 0.12941945 0.16954008 0.022860866
000190 01 0f 4f 3d 9d e9 28 bd 17 82 04 bd d7 e4 b8 3d
       0.05055142 -0.041238416 -0.032350626 0.09028023
0001a0 72 01 c1 3c 15 d2 8d bd d8 6f 3d 3c a1 7d da bd
       0.02356026 -0.069248356 0.01156231 -0.10668493
0001b0 a3 b3 f0 bc e7 a1 ea bc 7e fd e3 3c 71 cc ad bd
       -0.029382532 -0.028641654 0.027830835 -0.0848626
0001c0 23 3f 2a 3d f2 5a 32 be 35 e6 70 3d 06 11 20 3e
       0.041564118 -0.17417505 0.058813293 0.15631494
0001d0 db ee c7 bd 2e 9d d7 bc f4 1e c6 3d b7 2c c8 3d
       -0.09762355 -0.026320066 0.096738726 0.09774154
0001e0 93 57 9a bc 7e 8c 14 3c c2 d4 c5 3c d0 3c a0 bd
       -0.018840587 0.009066699 0.024149302 -0.07824099
0001f0 e2 e7 88 3d 14 d9 4d 3c 8f 7d 8d bd 05 35 2f be
       0.06684853 0.0125639625 -0.06908714 -0.17110069
000200 8e 90 a0 be 98 00 4f be ed ea aa bd 89 25 d9 bd
       -0.31360286 -0.2021507 -0.0834559 -0.106028624
000210 6f f9 e4 bc 9e b0 02 3d 39 8f 6b 3e 1a 28 da 3c
       -0.02795097 0.031906717 0.23003854 0.02663045
000220 f7 a8 a1 3d 0d 0e ef 3d 4e c7 51 3e be f3 82 3e
       0.078935556 0.11672602 0.20486185 0.25576586
000230 0d 86 8c 3d 28 b1 00 3d 4b 3d 02 3e 0c ea 01 3e
       0.06861506 0.03141895 0.12718694 0.12686938
000240 4c b1 44 3e 8b d8 70 3e 11 c3 3e 3e 05 38 36 3e
       0.19208258 0.23520105 0.186291 0.17794807
000250 65 f0 10 3e 28 00 f8 3c 56 02 85 bd 7f d3 3b be
       0.14154203 0.030273512 -0.06494586 -0.18342398
000260 ca 45 ae be 1f 8f fd 3d a6 18 f5 3d fc 89 b2 3d
       -0.3403762 0.12380814 0.11967592 0.08717725
000270 b5 35 80 3c 59 f8 18 bc dd 64 42 bd 05 af a2 bd
       0.01565061 -0.009336554 -0.047459472 -0.079435386
000280 d5 b1 da bd 04 cc 23 be 18 1f 10 bd 2b 1a a3 bd
       -0.1067845 -0.15995795 -0.035185903 -0.079639755
000290 20 a7 7f bd f3 b4 33 3d 5b ea 5d 3d b3 3c e5 3d
       -0.062415242 0.04387374 0.054178577 0.11193218
0002a0 50 cb e6 3d 9d e4 5d 3d e6 6b 0f 3e aa f7 3e bd
       0.112692475 0.0541731 0.14006004 -0.04662291
0002b0 b4 de 91 bd c9 58 d4 bd 34 9b 24 be c8 77 26 be
       -0.071225554 -0.10368497 -0.1607483 -0.1625663
0002c0 a7 fa 0d be b0 93 dd bd a3 89 98 bd 5e 0f cc 3d
       -0.13865148 -0.10819185 -0.07448127 0.099638686

inference.model.qy_x.model.tcn_block_00.conv1.bias f4 [2]
000000 dc ea b1 bc 59 46 31 bf
       -0.021718435 -0.69247967

inference.model.qy_x.model.tcn_block_00.conv1.weight_g f4 [2, 1, 1]
000000 b2 83 2e 3f 81 c5 b0 3f
       0.681697 1.3810273
