results_gmdgm/ssm_v1/dtcn/kl_v17/version_5/best_val_model.pt (torch, 34951 bytes, 120 tensors)

model.qy_x.dense(qy_x)_layer_00.weight f4 [4, 10]
000000 8d a6 ac 3d 10 d2 b7 3d 7a e5 9c be 29 53 19 be
       0.084302045 0.08975613 -0.30643827 -0.1497313
000010 6f 2e 37 be c6 cb 22 3e 5c 30 26 3d 97 d7 5b 3e
       -0.17888807 0.15898046 0.040573463 0.2146896
000020 12 aa e5 3c e3 1a 80 3c 81 1c 07 be ab 93 d2 3c
       0.028035197 0.01563782 -0.13194467 0.02570518
000030 ad 17 5a be 50 bd 0f be ef 90 97 bd 24 0e 3e bd
       -0.21298094 -0.1403706 -0.07400691 -0.046400204
000040 c0 46 c9 3d 21 4e 47 3e 9a f5 65 be 97 0a 81 bd
       0.098279476 0.19463398 -0.22456971 -0.06300848
000050 16 1c 03 3d 79 81 ac 3e 95 ec 3d bd d5 1b 0b 3e
       0.032009207 0.3369253 -0.0463682 0.13584836
000060 6b 40 ca 3c 84 ff 42 bd fc 4b 5b 3e c0 ec 82 be
       0.02468892 -0.04760696 0.21415704 -0.2557125
000070 2f ae 7a be 95 35 79 b9 d5 ea 12 bd 5d 54 36 3e
       -0.24480508 -0.00023766451 -0.035868485 0.1780562
000080 5e c5 7f be 1f 6b 2e bd 46 c3 a1 be 1b 0c 45 be
       -0.24977633 -0.042582627 -0.31594294 -0.19242899
000090 c8 1e db bd d1 00 84 3e 35 c7 26 3e 31 75 50 3d
       -0.106992304 0.25781873 0.16286929 0.050893012

model.qy_x.dense(qy_x)_layer_00.bias f4 [4]
000000 52 6d 76 3c dc eb 95 be 21 0a 14 be c6 17 a5 bd
       0.015040712 -0.2928151 -0.14456989 -0.08061175

model.encoder.model.tcn_block_00.conv0.bias f4 [2]
000000 b4 ba 76 ba b7 7c de 3d
       -0.0009411976 0.10863631

model.encoder.model.tcn_block_00.conv0.weight_g f4 [2, 1, 1]
000000 ab 10 14 3f 97 6d 2c 3f
       0.57837933 0.6735472

model.encoder.model.tcn_block_00.conv0.weight_v f4 [2, 14, 9]
000000 b7 f5 77 bd db 89 39 bd ef 3a 5c 3d a7 a9 4d 3d
       -0.060537066 -0.045297485 0.05376714 0.05021062
000010 cd a3 3a bd 14 ca dc bb 01 f3 4f 3d 11 e9 a3 3d
       -0.04556637 -0.006737957 0.050768856 0.08003438
000020 d7 26 d5 3c 03 ea 34 3c c6 db 7b 3d 82 3f 4e bd
       0.026019497 0.011042121 0.06148889 -0.050353535
000030 af 76 90 3c 75 61 87 bd 70 0a 58 bd 24 c6 11 bd
       0.017634718 -0.06610385 -0.05274433 -0.035589352
000040 66 b4 3e 3d 33 a4 39 3d b9 31 3a bd 8c be b6 3c
       0.04655876 0.04532261 -0.045457575 0.022307657
000050 55 4d 03 3d f7 34 01 bc 22 5d b4 3b 07 dd f0 3c
       0.03205617 -0.007886163 0.0055042664 0.029402269
000060 74 ad 83 3d 4b f7 a8 3d 52 db 8b bd 53 68 40 bd
       0.06429568 0.082502924 -0.068289414 -0.04697449
000070 60 b1 fe 3c 71 35 a3 3d 30 8e 83 3d 73 c9 7c 3d
       0.031090438 0.079691775 0.064236045 0.061715554
000080 dd bd 0a 3c b4 57 ad bd a6 70 a7 ba 46 fe 5a bd
       0.0084681185 -0.08463994 -0.0012774661 -0.05346515
000090 d2 ee 8f bd c4 cf b4 3d f8 da 9d 3d d6 63 a4 bd
       -0.07027973 0.08828691 0.077077806 -0.08026855
0000a0 0a d2 cb 3c 20 3a 15 bb cc 92 6b bb 3d dc 1b bd
       0.024880428 -0.002277024 -0.0035945652 -0.038051832
0000b0 bd b5 1b 3d 1b 95 4e bd d2 ce 03 3d 00 b5 24 3d
       0.038015116 -0.050435167 0.03217966 0.040211678
0000c0 8e b9 72 3d b5 da e3 3c a7 14 c3 bd 11 4b 83 bd
       0.05925899 0.027814249 -0.095254235 -0.06410802
0000d0 27 f2 11 3d 72 7b 22 3c 72 45 a4 bd e9 45 77 bd
       0.035631325 0.009917127 -0.08021058 -0.060369406
0000e0 80 bb 9f 3d 19 6e 60 3d d3 b1 35 bd e2 94 ab bc
       0.07799435 0.054792497 -0.04435904 -0.020945016
0000f0 3f ab ab bd a5 37 41 bb 0a 00 81 bd b6 4c 99 bd
       -0.08382272 -0.002948263 -0.062988356 -0.074853346
000100 91 8a fa bb 9e be 65 3c b0 6d 07 bd 3a 8c 5a 3d
       -0.007645913 0.014022497 -0.03306359 0.053356387
000110 0d ee 4b bd 32 32 ae 3d a2 77 87 3d 20 81 8a bd
       -0.04978757 0.08505668 0.06614615 -0.0676291
000120 44 a0 b1 bc 27 04 95 3b cb 3a 82 3c 33 e6 9f 3c
       -0.021682866 0.004547614 0.015897175 0.019518947
000130 26 e2 01 3d 02 85 47 3a bf 84 51 bd 4f 67 0d 3d
       0.031709813 0.0007611067 -0.051151987 0.03452235
000140 ec d7 bd bd 9b d0 4d bd 69 f7 91 bc 5e 9a 20 bd
       -0.092696995 -0.05024777 -0.01781817 -0.039209716
000150 88 b5 c3 bc 8f c7 83 bd 52 7b 47 bc 7f b5 dc 3c
       -0.023890272 -0.06434547 -0.012175398 0.026942013
000160 84 df 40 bd 7d 22 85 3b 80 8e ce 3b 60 ea 8a bd
       -0.04708816 0.004062949 0.0063036084 -0.06782985
000170 f1 81 48 bd 24 5b 57 bd 3e c3 8e bc fe 27 0a 3c
       -0.048952047 -0.052577153 -0.017427083 0.008432386
000180 52 84 f1 3c 02 63 cf bb 84 39 14 3d d8 1b 5c bd
       0.02948204 -0.0063289413 0.036187664 -0.05373749
000190 e0 78 e6 bd ee fa 84 bd 68 d7 3b 3c 01 27 3c bd
       -0.11253524 -0.064931735 0.011464931 -0.045935635
0001a0 2f e2 b2 bd 12 f5 d5 bd 58 4b e8 bd cf 1c ce bd
       -0.08734547 -0.10447134 -0.11342496 -0.100640886
0001b0 a5 da 49 bd d0 24 09 38 c7 97 1d bc ef 5f eb bd
       -0.04928078 3.269763e-05 -0.009618706 -0.11492907
0001c0 2d c8 73 3c 17 85 d3 bd 46 80 62 bd 30 6d 9b bd
       0.014879269 -0.10328119 -0.055298112 -0.07589185
0001d0 99 76 88 bd 00 ce 77 bd 27 da dd bd f0 04 e8 bd
       -0.06663246 -0.06049919 -0.10832625 -0.11329067
0001e0 bd 35 84 bd b6 d7 3e bd 02 e1 b2 bd 45 9b 66 bc
       -0.06455562 -0.046592437 -0.08734323 -0.014075105
0001f0 7b 1d e9 bd 8f e9 45 bd 93 91 8a 3c bc 1b 5b bd
       -0.11382576 -0.048318442 0.016915118 -0.053493246
000200 d2 1f e5 3c 28 ec 46 38 fd a3 82 bd c8 3b e1 3c
       0.027969275 4.7426816e-05 -0.063789345 0.027494326
000210 a0 d6 36 bc 50 9c c7 bc 4a 74 5a 3d 71 84 b2 bc
       -0.011159569 -0.024366528 0.05333356 -0.021791669
000220 5b 3e e3 3c c7 ce 88 3b 35 93 48 3d 44 68 a6 3c
       0.027739694 0.0041750404 0.048968513 0.02031339
000230 41 21 d7 3c 30 d3 80 3c b9 af b6 bc 1c f6 c6 bc
       0.026260974 0.015725702 -0.022300588 -0.024287276
000240 1a 4a 46 3b c9 88 a0 3d 1c 1d 97 3d 97 bf 85 3d
       0.003025657 0.0783859 0.07378599 0.065306835
000250 77 e5 8b bc 41 3d b3 3c 14 f1 d3 bc 34 41 83 bc
       -0.01707719 0.021879794 -0.025871791 -0.016022302
000260 0c 47 bf bc 63 e4 26 3d eb 9d 61 bc d1 31 ea 3c
       -0.023349307 0.04074515 -0.013770561 0.028588207
000270 4c 11 e3 3c 5b 67 94 3d 4f 7e 36 bc 31 ed da bb
       0.027718209 0.07246276 -0.011138513 -0.0066811075
000280 2a f1 88 3a 69 ee a3 3d 12 f3 66 bd 82 6b 8d 3c
       0.0010447849 0.080044575 -0.056384154 0.017263178
000290 d9 a3 68 bc 28 aa f8 bc 78 d1 23 bd 68 10 58 bd
       -0.014199221 -0.030354574 -0.039994687 -0.05275002
0002a0 26 7d 0a bd 2c 06 6a bd 28 fd 37 bd 72 bc ef bb
       -0.033810757 -0.057134792 -0.044919163 -0.0073161656
0002b0 ea a6 58 bd 5a 76 09 bd 08 39 4d 3d ea bc 23 bd
       -0.052893557 -0.033560134 0.050103217 -0.039975084
0002c0 ba 04 b8 3b 6a bb 98 3d 00 43 1c 3d 8a cf b2 3c
       0.005615798 0.074576214 0.038149834 0.021827478
0002d0 c8 69 0d bc da 99 97 3d 75 f8 f8 3a ec 74 f0 3c
       -0.008631177 0.07402392 0.0018994944 0.029352628
0002e0 31 a7 e1 3c 88 a4 1d 3d b8 40 43 3d 2b a6 bf 3d
       0.027545543 0.038486987 0.047669142 0.09357866
0002f0 b6 19 59 3d 94 35 ca 3d 75 19 a5 3d f3 16 1f 3c
       0.053003035 0.098735005 0.08061496 0.009710061
000300 b7 84 8c 3d 36 82 1c 3a 76 d7 5b 3c 70 46 4a 3d
       0.06861251 0.00059703307 0.013418069 0.04938358
000310 3e 59 3d 3d db 56 81 3d 4b 64 88 bd 4e 25 42 bd
       0.046227686 0.063153945 -0.06659754 -0.047398858
000320 e6 2c 7f bc d2 fc bb bd e6 d2 a6 3b 70 14 9c bd
       -0.015574669 -0.09179081 0.005091059 -0.07621086
000330 3c 7b cc bc 5c cc fd bc f7 8a 38 bd a1 5c e2 bb
       -0.024961106 -0.030981235 -0.045054402 -0.006908015
000340 b2 0c 00 3d dd 91 1c bd b6 4e 78 bd e0 51 47 bd
       0.031262107 -0.038225044 -0.06062194 -0.048662066
000350 75 0f bb bd e9 c6 47 bb 08 3a 81 bd f4 d8 9e bd
       -0.091338076 -0.003048355 -0.06309897 -0.07756224
000360 8a 2f bb 3d aa 3b 27 3e 46 10 25 3e ac e4 2d 3e
       0.09139927 0.16331354 0.16119489 0.16981763
000370 03 d4 21 3e 36 25 f4 3d 48 f9 f7 3d a7 ba 21 3e
       0.15803532 0.1192116 0.121080935 0.15793858
000380 60 f0 33 3e 94 98 08 3e ae b2 ae 3d a7 e6 b9 3d
       0.17572165 0.13339454 0.08530174 0.090771966
000390 7a c1 4c 3d a9 56 0a 3e eb 7e a5 3d 3a 19 43 3d
       0.0499892 0.1350962 0.08080848 0.04763148
0003a0 11 4f 0f 3e aa e7 95 3d 02 a1 f6 3d d1 99 18 3e
       0.13995005 0.07319577 0.120424286 0.14902426
0003b0 32 bf 06 3e 95 5b a7 3d 40 b3 82 3d d5 73 1d 3e
       0.13158873 0.08171765 0.063818455 0.15376218
0003c0 f3 bf 06 3e 42 82 21 3e f2 e1 d4 3d b4 bd 0c 3e
       0.1315916 0.15772346 0.10394658 0.13744241
0003d0 13 61 db 3d 20 43 fc 3d 89 28 8e 3d 5a 17 0b 3e
       0.10711875 0.123174906 0.06941325 0.13583127
0003e0 a8 fe 08 3e 7c 62 ed 3d 78 e3 dd 3d d7 1b 9e 3d
       0.13378394 0.1159105 0.10834402 0.07720154

model.encoder.model.tcn_block_00.conv1.bias f4 [2]
000000 ad 5d e3 bd 34 33 9a 3e
       -0.111018516 0.3011719

model.encoder.model.tcn_block_00.conv1.weight_g f4 [2, 1, 1]
000000 50 d1 f4 3e e6 9e 36 3f
       0.47815943 0.7133621

model.encoder.model.tcn_block_00.conv1.weight_v f4 [2, 2, 9]
000000 19 c0 6a 3d cc c6 40 bd de cc ab bd 9f 87 9d 3b
       0.057312105 -0.047064587 -0.08388685 0.004807427
000010 ee e5 c2 bd df 39 7e 3c f6 ae 24 3c 45 0e 16 be
       -0.09516512 0.015516727 0.01005148 -0.14653881
000020 5d 96 e3 3a 9e fd d5 3d 82 5f d8 3d f3 7b cd ba
       0.0017363537 0.10448764 0.10565092 -0.0015677199
000030 ed 9d 1c be 25 5d 9e 3a af 42 fb 3d 90 ad 0d bd
       -0.15294619 0.0012082203 0.12268578 -0.03458935
000040 31 f1 10 3e ac a2 59 3e 15 c7 b4 bd d6 02 87 bc
       0.14154507 0.2125346 -0.088270344 -0.016480844
000050 58 c2 1f 3d a8 a5 f7 bb f5 3a d1 bb d4 9c 00 ba
       0.0390037 -0.0075575896 -0.006385202 -0.0004906182
000060 21 02 0a be 0f 11 b0 bb 62 84 b7 3d df 1a b2 3e
       -0.13477375 -0.0053731273 0.08960797 0.34786126
000070 6c 23 89 3e 2a 13 1c 3e 38 c5 5e 3e 16 13 10 39
       0.26784837 0.15241686 0.2175492 0.0001374002
000080 13 37 a6 bd 89 f4 c2 bd b4 2c 87 3e 62 c7 47 3e
       -0.08115973 -0.09519298 0.26401293 0.19509652

model.encoder.model.tcn_block_00.block.conv1d_layer_0.bias f4 [2]
000000 b4 ba 76 ba b7 7c de 3d
       -0.0009411976 0.10863631

model.encoder.model.tcn_block_00.block.conv1d_layer_0.weight_g f4 [2, 1, 1]
000000 ab 10 14 3f 97 6d 2c 3f
       0.57837933 0.6735472

model.encoder.model.tcn_block_00.block.conv1d_layer_0.weight_v f4 [2, 14, 9]
000000 b7 f5 77 bd db 89 39 bd ef 3a 5c 3d a7 a9 4d 3d
       -0.060537066 -0.045297485 0.05376714 0.05021062
000010 cd a3 3a bd 14 ca dc bb 01 f3 4f 3d 11 e9 a3 3d
       -0.04556637 -0.006737957 0.050768856 0.08003438
000020 d7 26 d5 3c 03 ea 34 3c c6 db 7b 3d 82 3f 4e bd
       0.026019497 0.011042121 0.06148889 -0.050353535
000030 af 76 90 3c 75 61 87 bd 70 0a 58 bd 24 c6 11 bd
       0.017634718 -0.06610385 -0.05274433 -0.035589352
000040 66 b4 3e 3d 33 a4 39 3d b9 31 3a bd 8c be b6 3c
       0.04655876 0.04532261 -0.045457575 0.022307657
000050 55 4d 03 3d f7 34 01 bc 22 5d b4 3b 07 dd f0 3c
       0.03205617 -0.007886163 0.0055042664 0.029402269
000060 74 ad 83 3d 4b f7 a8 3d 52 db 8b bd 53 68 40 bd
       0.06429568 0.082502924 -0.068289414 -0.04697449
000070 60 b1 fe 3c 71 35 a3 3d 30 8e 83 3d 73 c9 7c 3d
       0.031090438 0.079691775 0.064236045 0.061715554
000080 dd bd 0a 3c b4 57 ad bd a6 70 a7 ba 46 fe 5a bd
       0.0084681185 -0.08463994 -0.0012774661 -0.05346515
000090 d2 ee 8f bd c4 cf b4 3d f8 da 9d 3d d6 63 a4 bd
       -0.07027973 0.08828691 0.077077806 -0.08026855
0000a0 0a d2 cb 3c 20 3a 15 bb cc 92 6b bb 3d dc 1b bd
       0.024880428 -0.002277024 -0.0035945652 -0.038051832
0000b0 bd b5 1b 3d 1b 95 4e bd d2 ce 03 3d 00 b5 24 3d
       0.038015116 -0.050435167 0.03217966 0.040211678
0000c0 8e b9 72 3d b5 da e3 3c a7 14 c3 bd 11 4b 83 bd
       0.05925899 0.027814249 -0.095254235 -0.06410802
0000d0 27 f2 11 3d 72 7b 22 3c 72 45 a4 bd e9 45 77 bd
       0.035631325 0.009917127 -0.08021058 -0.060369406
0000e0 80 bb 9f 3d 19 6e 60 3d d3 b1 35 bd e2 94 ab bc
       0.07799435 0.054792497 -0.04435904 -0.020945016
0000f0 3f ab ab bd a5 37 41 bb 0a 00 81 bd b6 4c 99 bd
       -0.08382272 -0.002948263 -0.062988356 -0.074853346
000100 91 8a fa bb 9e be 65 3c b0 6d 07 bd 3a 8c 5a 3d
       -0.007645913 0.014022497 -0.03306359 0.053356387
000110 0d ee 4b bd 32 32 ae 3d a2 77 87 3d 20 81 8a bd
       -0.04978757 0.08505668 0.06614615 -0.0676291
000120 44 a0 b1 bc 27 04 95 3b cb 3a 82 3c 33 e6 9f 3c
       -0.021682866 0.004547614 0.015897175 0.019518947
000130 26 e2 01 3d 02 85 47 3a bf 84 51 bd 4f 67 0d 3d
       0.031709813 0.0007611067 -0.051151987 0.03452235
000140 ec d7 bd bd 9b d0 4d bd 69 f7 91 bc 5e 9a 20 bd
       -0.092696995 -0.05024777 -0.01781817 -0.039209716
000150 88 b5 c3 bc 8f c7 83 bd 52 7b 47 bc 7f b5 dc 3c
       -0.023890272 -0.06434547 -0.012175398 0.026942013
000160 84 df 40 bd 7d 22 85 3b 80 8e ce 3b 60 ea 8a bd
       -0.04708816 0.004062949 0.0063036084 -0.06782985
000170 f1 81 48 bd 24 5b 57 bd 3e c3 8e bc fe 27 0a 3c
       -0.048952047 -0.052577153 -0.017427083 0.008432386
000180 52 84 f1 3c 02 63 cf bb 84 39 14 3d d8 1b 5c bd
       0.02948204 -0.0063289413 0.036187664 -0.05373749
000190 e0 78 e6 bd ee fa 84 bd 68 d7 3b 3c 01 27 3c bd
       -0.11253524 -0.064931735 0.011464931 -0.045935635
0001a0 2f e2 b2 bd 12 f5 d5 bd 58 4b e8 bd cf 1c ce bd
       -0.08734547 -0.10447134 -0.11342496 -0.100640886
0001b0 a5 da 49 bd d0 24 09 38 c7 97 1d bc ef 5f eb bd
       -0.04928078 3.269763e-05 -0.009618706 -0.11492907
0001c0 2d c8 73 3c 17 85 d3 bd 46 80 62 bd 30 6d 9b bd
       0.014879269 -0.10328119 -0.055298112 -0.07589185
0001d0 99 76 88 bd 00 ce 77 bd 27 da dd bd f0 04 e8 bd
       -0.06663246 -0.06049919 -0.10832625 -0.11329067
0001e0 bd 35 84 bd b6 d7 3e bd 02 e1 b2 bd 45 9b 66 bc
       -0.06455562 -0.046592437 -0.08734323 -0.014075105
0001f0 7b 1d e9 bd 8f e9 45 bd 93 91 8a 3c bc 1b 5b bd
       -0.11382576 -0.048318442 0.016915118 -0.053493246
000200 d2 1f e5 3c 28 ec 46 38 fd a3 82 bd c8 3b e1 3c
       0.027969275 4.7426816e-05 -0.063789345 0.027494326
000210 a0 d6 36 bc 50 9c c7 bc 4a 74 5a 3d 71 84 b2 bc
       -0.011159569 -0.024366528 0.05333356 -0.021791669
000220 5b 3e e3 3c c7 ce 88 3b 35 93 48 3d 44 68 a6 3c
       0.027739694 0.0041750404 0.048968513 0.02031339
000230 41 21 d7 3c 30 d3 80 3c b9 af b6 bc 1c f6 c6 bc
       0.026260974 0.015725702 -0.022300588 -0.024287276
000240 1a 4a 46 3b c9 88 a0 3d 1c 1d 97 3d 97 bf 85 3d
       0.003025657 0.0783859 0.07378599 0.065306835
000250 77 e5 8b bc 41 3d b3 3c 14 f1 d3 bc 34 41 83 bc
       -0.01707719 0.021879794 -0.025871791 -0.016022302
000260 0c 47 bf bc 63 e4 26 3d eb 9d 61 bc d1 31 ea 3c
       -0.023349307 0.04074515 -0.013770561 0.028588207
000270 4c 11 e3 3c 5b 67 94 3d 4f 7e 36 bc 31 ed da bb
       0.027718209 0.07246276 -0.011138513 -0.0066811075
000280 2a f1 88 3a 69 ee a3 3d 12 f3 66 bd 82 6b 8d 3c
       0.0010447849 0.080044575 -0.056384154 0.017263178
000290 d9 a3 68 bc 28 aa f8 bc 78 d1 23 bd 68 10 58 bd
       -0.014199221 -0.030354574 -0.039994687 -0.05275002
0002a0 26 7d 0a bd 2c 06 6a bd 28 fd 37 bd 72 bc ef bb
       -0.033810757 -0.057134792 -0.044919163 -0.0073161656
0002b0 ea a6 58 bd 5a 76 09 bd 08 39 4d 3d ea bc 23 bd
       -0.052893557 -0.033560134 0.050103217 -0.039975084
0002c0 ba 04 b8 3b 6a bb 98 3d 00 43 1c 3d 8a cf b2 3c
       0.005615798 0.074576214 0.038149834 0.021827478
0002d0 c8 69 0d bc da 99 97 3d 75 f8 f8 3a ec 74 f0 3c
       -0.008631177 0.07402392 0.0018994944 0.029352628
0002e0 31 a7 e1 3c 88 a4 1d 3d b8 40 43 3d 2b a6 bf 3d
       0.027545543 0.038486987 0.047669142 0.09357866
0002f0 b6 19 59 3d 94 35 ca 3d 75 19 a5 3d f3 16 1f 3c
       0.053003035 0.098735005 0.08061496 0.009710061
000300 b7 84 8c 3d 36 82 1c 3a 76 d7 5b 3c 70 46 4a 3d
       0.06861251 0.00059703307 0.013418069 0.04938358
000310 3e 59 3d 3d db 56 81 3d 4b 64 88 bd 4e 25 42 bd
       0.046227686 0.063153945 -0.06659754 -0.047398858
000320 e6 2c 7f bc d2 fc bb bd e6 d2 a6 3b 70 14 9c bd
       -0.015574669 -0.09179081 0.005091059 -0.07621086
000330 3c 7b cc bc 5c cc fd bc f7 8a 38 bd a1 5c e2 bb
       -0.024961106 -0.030981235 -0.045054402 -0.006908015
000340 b2 0c 00 3d dd 91 1c bd b6 4e 78 bd e0 51 47 bd
       0.031262107 -0.038225044 -0.06062194 -0.048662066
000350 75 0f bb bd e9 c6 47 bb 08 3a 81 bd f4 d8 9e bd
       -0.091338076 -0.003048355 -0.06309897 -0.07756224
000360 8a 2f bb 3d aa 3b 27 3e 46 10 25 3e ac e4 2d 3e
       0.09139927 0.16331354 0.16119489 0.16981763
000370 03 d4 21 3e 36 25 f4 3d 48 f9 f7 3d a7 ba 21 3e
       0.15803532 0.1192116 0.121080935 0.15793858
000380 60 f0 33 3e 94 98 08 3e ae b2 ae 3d a7 e6 b9 3d
       0.17572165 0.13339454 0.08530174 0.090771966
000390 7a c1 4c 3d a9 56 0a 3e eb 7e a5 3d 3a 19 43 3d
       0.0499892 0.1350962 0.08080848 0.04763148
0003a0 11 4f 0f 3e aa e7 95 3d 02 a1 f6 3d d1 99 18 3e
       0.13995005 0.07319577 0.120424286 0.14902426
0003b0 32 bf 06 3e 95 5b a7 3d 40 b3 82 3d d5 73 1d 3e
       0.13158873 0.08171765 0.063818455 0.15376218
0003c0 f3 bf 06 3e 42 82 21 3e f2 e1 d4 3d b4 bd 0c 3e
       0.1315916 0.15772346 0.10394658 0.13744241
0003d0 13 61 db 3d 20 43 fc 3d 89 28 8e 3d 5a 17 0b 3e
       0.10711875 0.123174906 0.06941325 0.13583127
0003e0 a8 fe 08 3e 7c 62 ed 3d 78 e3 dd 3d d7 1b 9e 3d
       0.13378394 0.1159105 0.10834402 0.07720154

model.encoder.model.tcn_block_00.block.conv1d_layer_1.bias f4 [2]
000000 ad 5d e3 bd 34 33 9a 3e
       -0.111018516 0.3011719

model.encoder.model.tcn_block_00.block.conv1d_layer_1.weight_g f4 [2, 1, 1]
000000 50 d1 f4 3e e6 9e 36 3f
       0.47815943 0.7133621

model.encoder.model.tcn_block_00.block.conv1d_layer_1.weight_v f4 [2, 2, 9]
000000 19 c0 6a 3d cc c6 40 bd de cc ab bd 9f 87 9d 3b
       0.057312105 -0.047064587 -0.08388685 0.004807427
000010 ee e5 c2 bd df 39 7e 3c f6 ae 24 3c 45 0e 16 be
       -0.09516512 0.015516727 0.01005148 -0.14653881
000020 5d 96 e3 3a 9e fd d5 3d 82 5f d8 3d f3 7b cd ba
       0.0017363537 0.10448764 0.10565092 -0.0015677199
000030 ed 9d 1c be 25 5d 9e 3a af 42 fb 3d 90 ad 0d bd
       -0.15294619 0.0012082203 0.12268578 -0.03458935
000040 31 f1 10 3e ac a2 59 3e 15 c7 b4 bd d6 02 87 bc
       0.14154507 0.2125346 -0.088270344 -0.016480844
000050 58 c2 1f 3d a8 a5 f7 bb f5 3a d1 bb d4 9c 00 ba
       0.0390037 -0.0075575896 -0.006385202 -0.0004906182
000060 21 02 0a be 0f 11 b0 bb 62 84 b7 3d df 1a b2 3e
       -0.13477375 -0.0053731273 0.08960797 0.34786126
000070 6c 23 89 3e 2a 13 1c 3e 38 c5 5e 3e 16 13 10 39
       0.26784837 0.15241686 0.2175492 0.0001374002
000080 13 37 a6 bd 89 f4 c2 bd b4 2c 87 3e 62 c7 47 3e
       -0.08115973 -0.09519298 0.26401293 0.19509652

model.encoder.model.tcn_block_00.downsample.weight f4 [2, 14, 1]
000000 e4 7a 28 be 5d 95 1d 3e d3 59 30 3e b4 53 ea bd
       -0.16453129 0.15389009 0.17221765 -0.11441746
000010 d3 04 8f 3d bb 59 1b be 70 2e 14 3d 7e 51 14 3e
       0.06983342 -0.15170948 0.0361771 0.14484212
000020 9e f7 23 be 7d ef 00 3e 92 cd f7 3d 9e 6d 19 3e
       -0.16012427 0.12591358 0.12099756 0.14983222
000030 40 41 e6 3d 6f a3 14 3e 5c d3 a0 3d 14 58 ae bd
       0.11242914 0.1451547 0.078528136 -0.08512893
000040 48 95 21 bd 00 11 9f 3d 95 fd 2e bd 09 2f 98 3d
       -0.039449006 0.07766914 -0.042722303 0.07430846
000050 59 c0 f5 3c fd ad 3a bd ec 96 97 3d 58 65 9c bd
       0.029998945 -0.045576084 0.07401833 -0.07636517
000060 66 68 62 3e ee af 56 3e e0 93 2d 3e 2d ca 5e 3e
       0.22110137 0.2096555 0.16950941 0.21756811

model.encoder.model.tcn_block_00.downsample.bias f4 [2]
000000 6b 16 9a 3e e5 97 f2 3e
       0.3009523 0.4738151

model.encoder.model.tcn_block_01.conv0.bias f4 [2]
000000 ee 08 17 3e 7f dc 90 3e
       0.147495 0.28293225

model.encoder.model.tcn_block_01.conv0.weight_g f4 [2, 1, 1]
000000 c1 54 50 3f c1 4a 2f 3f
       0.81379324 0.6847344

model.encoder.model.tcn_block_01.conv0.weight_v f4 [2, 2, 9]
000000 a3 f5 2a 3e 1c 5a 47 3e a2 ce 03 3e e9 2d 10 3e
       0.16695265 0.19467968 0.12871793 0.14080013
000010 ea 5b b5 3c b9 64 fa 3d 6a 6e 97 3d 2e bf 89 bc
       0.022138555 0.122262426 0.07394107 -0.016814794
000020 49 0e 77 3d 0b d9 3f 3d c9 35 c3 3c a0 c9 3d 3e
       0.060316358 0.046837848 0.023829358 0.18533945
000030 9f 6a 8a 3e 61 fc e6 3d 7e 9a 62 3e e2 4f 72 3e
       0.2703447 0.11278606 0.22129247 0.23663285
000040 5a 85 65 3e a6 14 65 3d da 43 bf 3d a2 41 18 3d
       0.22414151 0.055927895 0.093391135 0.037171967
000050 37 ad a3 bd b7 0a 8c 3d 82 3a 25 3e c3 c8 21 3e
       -0.079920225 0.06837981 0.161356 0.15799241
000060 13 a3 2b 3d 61 fa 57 3d d7 f5 7e bd 6e 0a 97 3e
       0.041903567 0.052729014 -0.06224617 0.29500145
000070 61 7d dc 3c 29 45 1b bd 8c 8e 10 3e 0a ba 6b 3e
       0.026915254 -0.037907753 0.14116877 0.23020187
000080 61 b8 d4 bd d3 20 8e 3e c4 4a 1f 3e ed 94 98 bd
       -0.1038673 0.27759418 0.15555865 -0.0745028

model.encoder.model.tcn_block_01.conv1.bias f4 [2]
000000 bc ab 08 bc 9c ec ba 3e
       -0.008341726 0.36508644

model.encoder.model.tcn_block_01.conv1.weight_g f4 [2, 1, 1]
000000 a4 1b 1f 3f 73 91 3b 3f
       0.6215155 0.7326881

model.encoder.model.tcn_block_01.conv1.weight_v f4 [2, 2, 9]
000000 5c 17 49 be 7a f1 9e bd 8d 43 86 3d 85 8a 59 be
       -0.19637817 -0.07760902 0.06555853 -0.21244247
000010 6a 3e 0a 3e f9 70 01 3e ab e8 1f 3e 71 2c 10 be
       0.13500372 0.12640752 0.156161 -0.14079453
000020 9d 69 82 3e b2 86 07 be f3 66 83 3e 76 77 54 be
       0.25471202 -0.13234976 0.25664482 -0.20748696
000030 43 7c 30 be 55 6d 48 3e ba 85 aa 3d 20 7a b6 3d
       -0.17234902 0.19572957 0.083262876 0.08910012
000040 b0 4d 77 bd 39 ed c3 bc fc 42 16 3e 91 45 87 bb
       -0.060376823 -0.023916828 0.1467399 -0.004128166
000050 e9 5a 3d 3e dd 94 3d 3e da 54 19 3e 15 b5 23 3e
       0.1849171 0.18513818 0.14973775 0.15987046
000060 05 78 30 3e 7e 21 fd 3d fb 5a 56 3d ff 8d fd 3d
       0.17233284 0.12359904 0.05233286 0.12380599
000070 1f 7e ac 3d 9e a0 8d 3d f9 8a 07 3e 04 66 fb 3d
       0.08422493 0.06915401 0.13236608 0.12275317
000080 98 fe 18 3e 97 45 af 3d 0b 27 24 3e 14 a1 13 3d
       0.1494087 0.08558195 0.16030519 0.036042288

model.encoder.model.tcn_block_01.block.conv1d_layer_0.bias f4 [2]
000000 ee 08 17 3e 7f dc 90 3e
       0.147495 0.28293225

model.encoder.model.tcn_block_01.block.conv1d_layer_0.weight_g f4 [2, 1, 1]
000000 c1 54 50 3f c1 4a 2f 3f
       0.81379324 0.6847344

model.encoder.model.tcn_block_01.block.conv1d_layer_0.weight_v f4 [2, 2, 9]
000000 a3 f5 2a 3e 1c 5a 47 3e a2 ce 03 3e e9 2d 10 3e
       0.16695265 0.19467968 0.12871793 0.14080013
000010 ea 5b b5 3c b9 64 fa 3d 6a 6e 97 3d 2e bf 89 bc
       0.022138555 0.122262426 0.07394107 -0.016814794
000020 49 0e 77 3d 0b d9 3f 3d c9 35 c3 3c a0 c9 3d 3e
       0.060316358 0.046837848 0.023829358 0.18533945
000030 9f 6a 8a 3e 61 fc e6 3d 7e 9a 62 3e e2 4f 72 3e
       0.2703447 0.11278606 0.22129247 0.23663285
000040 5a 85 65 3e a6 14 65 3d da 43 bf 3d a2 41 18 3d
       0.22414151 0.055927895 0.093391135 0.037171967
000050 37 ad a3 bd b7 0a 8c 3d 82 3a 25 3e c3 c8 21 3e
       -0.079920225 0.06837981 0.161356 0.15799241
000060 13 a3 2b 3d 61 fa 57 3d d7 f5 7e bd 6e 0a 97 3e
       0.041903567 0.052729014 -0.06224617 0.29500145
000070 61 7d dc 3c 29 45 1b bd 8c 8e 10 3e 0a ba 6b 3e
       0.026915254 -0.037907753 0.14116877 0.23020187
000080 61 b8 d4 bd d3 20 8e 3e c4 4a 1f 3e ed 94 98 bd
       -0.1038673 0.27759418 0.15555865 -0.0745028

model.encoder.model.tcn_block_01.block.conv1d_layer_1.bias f4 [2]
000000 bc ab 08 bc 9c ec ba 3e
       -0.008341726 0.36508644

model.encoder.model.tcn_block_01.block.conv1d_layer_1.weight_g f4 [2, 1, 1]
000000 a4 1b 1f 3f 73 91 3b 3f
       0.6215155 0.7326881

model.encoder.model.tcn_block_01.block.conv1d_layer_1.weight_v f4 [2, 2, 9]
000000 5c 17 49 be 7a f1 9e bd 8d 43 86 3d 85 8a 59 be
       -0.19637817 -0.07760902 0.06555853 -0.21244247
000010 6a 3e 0a 3e f9 70 01 3e ab e8 1f 3e 71 2c 10 be
       0.13500372 0.12640752 0.156161 -0.14079453
000020 9d 69 82 3e b2 86 07 be f3 66 83 3e 76 77 54 be
       0.25471202 -0.13234976 0.25664482 -0.20748696
000030 43 7c 30 be 55 6d 48 3e ba 85 aa 3d 20 7a b6 3d
       -0.17234902 0.19572957 0.083262876 0.08910012
000040 b0 4d 77 bd 39 ed c3 bc fc 42 16 3e 91 45 87 bb
       -0.060376823 -0.023916828 0.1467399 -0.004128166
000050 e9 5a 3d 3e dd 94 3d 3e da 54 19 3e 15 b5 23 3e
       0.1849171 0.18513818 0.14973775 0.15987046
000060 05 78 30 3e 7e 21 fd 3d fb 5a 56 3d ff 8d fd 3d
       0.17233284 0.12359904 0.05233286 0.12380599
000070 1f 7e ac 3d 9e a0 8d 3d f9 8a 07 3e 04 66 fb 3d
       0.08422493 0.06915401 0.13236608 0.12275317
000080 98 fe 18 3e 97 45 af 3d 0b 27 24 3e 14 a1 13 3d
       0.1494087 0.08558195 0.16030519 0.036042288

model.qz_xy_mean.dense(qz_xy_mean)_layer_00.weight f4 [2, 2]
000000 36 91 b6 3e 6c 95 0e bd 10 7d f7 bd e2 81 cf bc
       0.35657662 -0.03481047 -0.12084401 -0.025330488

model.qz_xy_mean.dense(qz_xy_mean)_layer_00.bias f4 [2]
000000 04 10 df 3e fa fe 08 3e
       0.43566906 0.13378516

model.qz_xy_logvar.dense(qz_xy_logvar)_layer_00.weight f4 [2, 2]
000000 be 63 40 bf 45 14 2f bf 86 99 98 3d 86 86 42 be
       -0.75152194 -0.68390304 0.07451157 -0.18996629

model.qz_xy_logvar.dense(qz_xy_logvar)_layer_00.bias f4 [2]
000000 8c a8 69 3e 44 a5 5f bf
       0.22818202 -0.8736155

model.py_t_probs.dense(py_t_probs)_layer_00.weight f4 [4, 2]
000000 20 a0 fc be 32 22 6e 3e 9b de 15 3f 6b 0f ef be
       -0.49340916 0.23255232 0.58542794 -0.4669145
000010 68 a4 ee 3e bb c0 d4 be b4 bf b9 3e b6 41 ba 3d
       0.46609807 -0.41553292 0.3627907 0.090945646

model.py_t_probs.dense(py_t_probs)_layer_00.bias f4 [4]
000000 fa a7 3b 3f f6 8f 0a bf 5b 6e f3 be a7 f7 8c 3e
       0.73303187 -0.54125917 -0.47545132 0.27532694

model.pz_t_mean.dense(pz_t_mean)_layer_00.weight f4 [8, 2]
000000 a3 54 5b 3f db bc 0b 3e 30 dd 78 3e 11 c5 b2 be
       0.8567602 0.13646261 0.24303126 -0.34915975
000010 47 7f 44 3f bd 3b 06 bf b2 c0 70 3e 30 09 7a be
       0.7675671 -0.52434903 0.23511007 -0.24417567
000020 08 a8 63 bd 87 4d 85 3d 6f 0c 9d be a3 f2 0f 3e
       -0.05558017 0.06508928 -0.3067355 0.14057402
000030 b3 ce e9 be 55 03 0a bf 7d 24 83 3e 6d db 77 bd
       -0.4566551 -0.53911334 0.25613776 -0.060511995

model.pz_t_mean.dense(pz_t_mean)_layer_00.bias f4 [8]
000000 9b 2f 26 be ba 9a 8e be 0a 29 bb be 47 1b eb be
       -0.16229098 -0.27852422 -0.36554748 -0.45919248
000010 d8 28 22 3f a8 a0 68 3e da 3c a2 3e c9 f9 ae be
       0.6334357 0.22717535 0.3168705 -0.34174946

model.pz_t_logvar.dense(pz_t_logvar)_layer_00.weight f4 [2, 4]
000000 8e 0e a4 bd e9 97 c7 bd ea 2c 12 bf 59 da 8b 3d
       -0.080105886 -0.097457714 -0.57099783 0.06828756
000010 f4 9c 9d 3e 52 45 de be 42 fe 0f bf fd 02 28 bd
       0.30783808 -0.43412262 -0.5624734 -0.041018475

model.pz_t_logvar.dense(pz_t_logvar)_layer_00.bias f4 [2]
000000 1f 10 65 3e 33 13 b5 be
       0.22369431 -0.3536621

model.decoder.dense(decoder)_layer_00.weight f4 [10, 2]
000000 fa 46 93 bd 44 97 c7 3e f8 a6 ed 3d 62 72 3d bd
       -0.07191272 0.38982594 0.116041124 -0.046251662
000010 4a 28 14 3f 4b 56 80 3e 95 4c 18 bf da a1 79 bc
       0.57873976 0.25065836 -0.59491855 -0.015236342
000020 ae 05 7c 3e cd 00 ef 3e 73 22 0c bf 7a e4 55 3e
       0.24611542 0.46680298 -0.54740065 0.20887938
000030 39 df 79 be 71 44 09 bf 75 c0 8a 3e a7 e1 a4 be
       -0.24401559 -0.5362006 0.27099958 -0.3220341
000040 41 ce 49 be ab 3a 29 be c5 4e a0 be 92 0e 58 bc
       -0.19707586 -0.16526286 -0.31310096 -0.013187068

model.decoder.dense(decoder)_layer_00.bias f4 [10]
000000 9f 87 f4 3c f3 0e 44 3e 82 a4 05 be 87 75 c2 3e
       0.029849825 0.19146328 -0.13051036 0.3798029
000010 43 58 43 bc 14 f9 d5 3c 70 8f 2f 3e 9a 50 3d be
       -0.011922899 0.026119746 0.17144561 -0.18487778
000020 a0 2d 95 3c d4 c6 0b bc
       0.018210232 -0.008531291

inference.model.qy_x.dense(qy_x)_layer_00.weight f4 [4, 10]
000000 8d a6 ac 3d 10 d2 b7 3d 7a e5 9c be 29 53 19 be
       0.084302045 0.08975613 -0.30643827 -0.1497313
000010 6f 2e 37 be c6 cb 22 3e 5c 30 26 3d 97 d7 5b 3e
       -0.17888807 0.15898046 0.040573463 0.2146896
000020 12 aa e5 3c e3 1a 80 3c 81 1c 07 be ab 93 d2 3c
       0.028035197 0.01563782 -0.13194467 0.02570518
000030 ad 17 5a be 50 bd 0f be ef 90 97 bd 24 0e 3e bd
       -0.21298094 -0.1403706 -0.07400691 -0.046400204
000040 c0 46 c9 3d 21 4e 47 3e 9a f5 65 be 97 0a 81 bd
       0.098279476 0.19463398 -0.22456971 -0.06300848
000050 16 1c 03 3d 79 81 ac 3e 95 ec 3d bd d5 1b 0b 3e
       0.032009207 0.3369253 -0.0463682 0.13584836
000060 6b 40 ca 3c 84 ff 42 bd fc 4b 5b 3e c0 ec 82 be
       0.02468892 -0.04760696 0.21415704 -0.2557125
000070 2f ae 7a be 95 35 79 b9 d5 ea 12 bd 5d 54 36 3e
       -0.24480508 -0.00023766451 -0.035868485 0.1780562
000080 5e c5 7f be 1f 6b 2e bd 46 c3 a1 be 1b 0c 45 be
       -0.24977633 -0.042582627 -0.31594294 -0.19242899
000090 c8 1e db bd d1 00 84 3e 35 c7 26 3e 31 75 50 3d
       -0.106992304 0.25781873 0.16286929 0.050893012

inference.model.qy_x.dense(qy_x)_layer_00.bias f4 [4]
000000 52 6d 76 3c dc eb 95 be 21 0a 14 be c6 17 a5 bd
       0.015040712 -0.2928151 -0.14456989 -0.08061175

inference.model.encoder.model.tcn_block_00.conv0.bias f4 [2]
000000 b4 ba 76 ba b7 7c de 3d
       -0.0009411976 0.10863631

inference.model.encoder.model.tcn_block_00.conv0.weight_g f4 [2, 1, 1]
000000 ab 10 14 3f 97 6d 2c 3f
       0.57837933 0.6735472

inference.model.encoder.model.tcn_block_00.conv0.weight_v f4 [2, 14, 9]
000000 b7 f5 77 bd db 89 39 bd ef 3a 5c 3d a7 a9 4d 3d
       -0.060537066 -0.045297485 0.05376714 0.05021062
000010 cd a3 3a bd 14 ca dc bb 01 f3 4f 3d 11 e9 a3 3d
       -0.04556637 -0.006737957 0.050768856 0.08003438
000020 d7 26 d5 3c 03 ea 34 3c c6 db 7b 3d 82 3f 4e bd
       0.026019497 0.011042121 0.06148889 -0.050353535
000030 af 76 90 3c 75 61 87 bd 70 0a 58 bd 24 c6 11 bd
       0.017634718 -0.06610385 -0.05274433 -0.035589352
000040 66 b4 3e 3d 33 a4 39 3d b9 31 3a bd 8c be b6 3c
       0.04655876 0.04532261 -0.045457575 0.022307657
000050 55 4d 03 3d f7 34 01 bc 22 5d b4 3b 07 dd f0 3c
       0.03205617 -0.007886163 0.0055042664 0.029402269
000060 74 ad 83 3d 4b f7 a8 3d 52 db 8b bd 53 68 40 bd
       0.06429568 0.082502924 -0.068289414 -0.04697449
000070 60 b1 fe 3c 71 35 a3 3d 30 8e 83 3d 73 c9 7c 3d
       0.031090438 0.079691775 0.064236045 0.061715554
000080 dd bd 0a 3c b4 57 ad bd a6 70 a7 ba 46 fe 5a bd
       0.0084681185 -0.08463994 -0.0012774661 -0.05346515
000090 d2 ee 8f bd c4 cf b4 3d f8 da 9d 3d d6 63 a4 bd
       -0.07027973 0.08828691 0.077077806 -0.08026855
0000a0 0a d2 cb 3c 20 3a 15 bb cc 92 6b bb 3d dc 1b bd
       0.024880428 -0.002277024 -0.0035945652 -0.038051832
0000b0 bd b5 1b 3d 1b 95 4e bd d2 ce 03 3d 00 b5 24 3d
       0.038015116 -0.050435167 0.03217966 0.040211678
0000c0 8e b9 72 3d b5 da e3 3c a7 14 c3 bd 11 4b 83 bd
       0.05925899 0.027814249 -0.095254235 -0.06410802
0000d0 27 f2 11 3d 72 7b 22 3c 72 45 a4 bd e9 45 77 bd
       0.035631325 0.009917127 -0.08021058 -0.060369406
0000e0 80 bb 9f 3d 19 6e 60 3d d3 b1 35 bd e2 94 ab bc
       0.07799435 0.054792497 -0.04435904 -0.020945016
0000f0 3f ab ab bd a5 37 41 bb 0a 00 81 bd b6 4c 99 bd
       -0.08382272 -0.002948263 -0.062988356 -0.074853346
000100 91 8a fa bb 9e be 65 3c b0 6d 07 bd 3a 8c 5a 3d
       -0.007645913 0.014022497 -0.03306359 0.053356387
000110 0d ee 4b bd 32 32 ae 3d a2 77 87 3d 20 81 8a bd
       -0.04978757 0.08505668 0.06614615 -0.0676291
000120 44 a0 b1 bc 27 04 95 3b cb 3a 82 3c 33 e6 9f 3c
       -0.021682866 0.004547614 0.015897175 0.019518947
000130 26 e2 01 3d 02 85 47 3a bf 84 51 bd 4f 67 0d 3d
       0.031709813 0.0007611067 -0.051151987 0.03452235
000140 ec d7 bd bd 9b d0 4d bd 69 f7 91 bc 5e 9a 20 bd
       -0.092696995 -0.05024777 -0.01781817 -0.039209716
000150 88 b5 c3 bc 8f c7 83 bd 52 7b 47 bc 7f b5 dc 3c
       -0.023890272 -0.06434547 -0.012175398 0.026942013
000160 84 df 40 bd 7d 22 85 3b 80 8e ce 3b 60 ea 8a bd
       -0.04708816 0.004062949 0.0063036084 -0.06782985
000170 f1 81 48 bd 24 5b 57 bd 3e c3 8e bc fe 27 0a 3c
       -0.048952047 -0.052577153 -0.017427083 0.008432386
000180 52 84 f1 3c 02 63 cf bb 84 39 14 3d d8 1b 5c bd
       0.02948204 -0.0063289413 0.036187664 -0.05373749
000190 e0 78 e6 bd ee fa 84 bd 68 d7 3b 3c 01 27 3c bd
       -0.11253524 -0.064931735 0.011464931 -0.045935635
0001a0 2f e2 b2 bd 12 f5 d5 bd 58 4b e8 bd cf 1c ce bd
       -0.08734547 -0.10447134 -0.11342496 -0.100640886
0001b0 a5 da 49 bd d0 24 09 38 c7 97 1d bc ef 5f eb bd
       -0.04928078 3.269763e-05 -0.009618706 -0.11492907
0001c0 2d c8 73 3c 17 85 d3 bd 46 80 62 bd 30 6d 9b bd
       0.014879269 -0.10328119 -0.055298112 -0.07589185
0001d0 99 76 88 bd 00 ce 77 bd 27 da dd bd f0 04 e8 bd
       -0.06663246 -0.06049919 -0.10832625 -0.11329067
0001e0 bd 35 84 bd b6 d7 3e bd 02 e1 b2 bd 45 9b 66 bc
       -0.06455562 -0.046592437 -0.08734323 -0.014075105
0001f0 7b 1d e9 bd 8f e9 45 bd 93 91 8a 3c bc 1b 5b bd
       -0.11382576 -0.048318442 0.016915118 -0.053493246
000200 d2 1f e5 3c 28 ec 46 38 fd a3 82 bd c8 3b e1 3c
       0.027969275 4.7426816e-05 -0.063789345 0.027494326
000210 a0 d6 36 bc 50 9c c7 bc 4a 74 5a 3d 71 84 b2 bc
       -0.011159569 -0.024366528 0.05333356 -0.021791669
000220 5b 3e e3 3c c7 ce 88 3b 35 93 48 3d 44 68 a6 3c
       0.027739694 0.0041750404 0.048968513 0.02031339
000230 41 21 d7 3c 30 d3 80 3c b9 af b6 bc 1c f6 c6 bc
       0.026260974 0.015725702 -0.022300588 -0.024287276
000240 1a 4a 46 3b c9 88 a0 3d 1c 1d 97 3d 97 bf 85 3d
       0.003025657 0.0783859 0.07378599 0.065306835
000250 77 e5 8b bc 41 3d b3 3c 14 f1 d3 bc 34 41 83 bc
       -0.01707719 0.021879794 -0.025871791 -0.016022302
000260 0c 47 bf bc 63 e4 26 3d eb 9d 61 bc d1 31 ea 3c
       -0.023349307 0.04074515 -0.013770561 0.028588207
000270 4c 11 e3 3c 5b 67 94 3d 4f 7e 36 bc 31 ed da bb
       0.027718209 0.07246276 -0.011138513 -0.0066811075
000280 2a f1 88 3a 69 ee a3 3d 12 f3 66 bd 82 6b 8d 3c
       0.0010447849 0.080044575 -0.056384154 0.017263178
000290 d9 a3 68 bc 28 aa f8 bc 78 d1 23 bd 68 10 58 bd
       -0.014199221 -0.030354574 -0.039994687 -0.05275002
0002a0 26 7d 0a bd 2c 06 6a bd 28 fd 37 bd 72 bc ef bb
       -0.033810757 -0.057134792 -0.044919163 -0.0073161656
0002b0 ea a6 58 bd 5a 76 09 bd 08 39 4d 3d ea bc 23 bd
       -0.052893557 -0.033560134 0.050103217 -0.039975084
0002c0 ba 04 b8 3b 6a bb 98 3d 00 43 1c 3d 8a cf b2 3c
       0.005615798 0.074576214 0.038149834 0.021827478
0002d0 c8 69 0d bc da 99 97 3d 75 f8 f8 3a ec 74 f0 3c
       -0.008631177 0.07402392 0.0018994944 0.029352628
0002e0 31 a7 e1 3c 88 a4 1d 3d b8 40 43 3d 2b a6 bf 3d
       0.027545543 0.038486987 0.047669142 0.09357866
0002f0 b6 19 59 3d 94 35 ca 3d 75 19 a5 3d f3 16 1f 3c
       0.053003035 0.098735005 0.08061496 0.009710061
000300 b7 84 8c 3d 36 82 1c 3a 76 d7 5b 3c 70 46 4a 3d
       0.06861251 0.00059703307 0.013418069 0.04938358
000310 3e 59 3d 3d db 56 81 3d 4b 64 88 bd 4e 25 42 bd
       0.046227686 0.063153945 -0.06659754 -0.047398858
000320 e6 2c 7f bc d2 fc bb bd e6 d2 a6 3b 70 14 9c bd
       -0.015574669 -0.09179081 0.005091059 -0.07621086
000330 3c 7b cc bc 5c cc fd bc f7 8a 38 bd a1 5c e2 bb
       -0.024961106 -0.030981235 -0.045054402 -0.006908015
000340 b2 0c 00 3d dd 91 1c bd b6 4e 78 bd e0 51 47 bd
       0.031262107 -0.038225044 -0.06062194 -0.048662066
000350 75 0f bb bd e9 c6 47 bb 08 3a 81 bd f4 d8 9e bd
       -0.091338076 -0.003048355 -0.06309897 -0.07756224
000360 8a 2f bb 3d aa 3b 27 3e 46 10 25 3e ac e4 2d 3e
       0.09139927 0.16331354 0.16119489 0.16981763
000370 03 d4 21 3e 36 25 f4 3d 48 f9 f7 3d a7 ba 21 3e
       0.15803532 0.1192116 0.121080935 0.15793858
000380 60 f0 33 3e 94 98 08 3e ae b2 ae 3d a7 e6 b9 3d
       0.17572165 0.13339454 0.08530174 0.090771966
000390 7a c1 4c 3d a9 56 0a 3e eb 7e a5 3d 3a 19 43 3d
       0.0499892 0.1350962 0.08080848 0.04763148
0003a0 11 4f 0f 3e aa e7 95 3d 02 a1 f6 3d d1 99 18 3e
       0.13995005 0.07319577 0.120424286 0.14902426
0003b0 32 bf 06 3e 95 5b a7 3d 40 b3 82 3d d5 73 1d 3e
       0.13158873 0.08171765 0.063818455 0.15376218
0003c0 f3 bf 06 3e 42 82 21 3e f2 e1 d4 3d b4 bd 0c 3e
       0.1315916 0.15772346 0.10394658 0.13744241
0003d0 13 61 db 3d 20 43 fc 3d 89 28 8e 3d 5a 17 0b 3e
       0.10711875 0.123174906 0.06941325 0.13583127
0003e0 a8 fe 08 3e 7c 62 ed 3d 78 e3 dd 3d d7 1b 9e 3d
       0.13378394 0.1159105 0.10834402 0.07720154

inference.model.encoder.model.tcn_block_00.conv1.bias f4 [2]
000000 ad 5d e3 bd 34 33 9a 3e
       -0.111018516 0.3011719

inference.model.encoder.model.tcn_block_00.conv1.weight_g f4 [2, 1, 1]
000000 50 d1 f4 3e e6 9e 36 3f
       0.47815943 0.7133621

inference.model.encoder.model.tcn_block_00.conv1.weight_v f4 [2, 2, 9]
000000 19 c0 6a 3d cc c6 40 bd de cc ab bd 9f 87 9d 3b
       0.057312105 -0.047064587 -0.08388685 0.004807427
000010 ee e5 c2 bd df 39 7e 3c f6 ae 24 3c 45 0e 16 be
       -0.09516512 0.015516727 0.01005148 -0.14653881
000020 5d 96 e3 3a 9e fd d5 3d 82 5f d8 3d f3 7b cd ba
       0.0017363537 0.10448764 0.10565092 -0.0015677199
000030 ed 9d 1c be 25 5d 9e 3a af 42 fb 3d 90 ad 0d bd
       -0.15294619 0.0012082203 0.12268578 -0.03458935
000040 31 f1 10 3e ac a2 59 3e 15 c7 b4 bd d6 02 87 bc
       0.14154507 0.2125346 -0.088270344 -0.016480844
000050 58 c2 1f 3d a8 a5 f7 bb f5 3a d1 bb d4 9c 00 ba
       0.0390037 -0.0075575896 -0.006385202 -0.0004906182
000060 21 02 0a be 0f 11 b0 bb 62 84 b7 3d df 1a b2 3e
       -0.13477375 -0.0053731273 0.08960797 0.34786126
000070 6c 23 89 3e 2a 13 1c 3e 38 c5 5e 3e 16 13 10 39
       0.26784837 0.15241686 0.2175492 0.0001374002
000080 13 37 a6 bd 89 f4 c2 bd b4 2c 87 3e 62 c7 47 3e
       -0.08115973 -0.09519298 0.26401293 0.19509652

inference.model.encoder.model.tcn_block_00.block.conv1d_layer_0.bias f4 [2]
000000 b4 ba 76 ba b7 7c de 3d
       -0.0009411976 0.10863631

inference.model.encoder.model.tcn_block_00.block.conv1d_layer_0.weight_g f4 [2, 1, 1]
000000 ab 10 14 3f 97 6d 2c 3f
       0.57837933 0.6735472

inference.model.encoder.model.tcn_block_00.block.conv1d_layer_0.weight_v f4 [2, 14, 9]
000000 b7 f5 77 bd db 89 39 bd ef 3a 5c 3d a7 a9 4d 3d
       -0.060537066 -0.045297485 0.05376714 0.05021062
000010 cd a3 3a bd 14 ca dc bb 01 f3 4f 3d 11 e9 a3 3d
       -0.04556637 -0.006737957 0.050768856 0.08003438
000020 d7 26 d5 3c 03 ea 34 3c c6 db 7b 3d 82 3f 4e bd
       0.026019497 0.011042121 0.06148889 -0.050353535
000030 af 76 90 3c 75 61 87 bd 70 0a 58 bd 24 c6 11 bd
       0.017634718 -0.06610385 -0.05274433 -0.035589352
000040 66 b4 3e 3d 33 a4 39 3d b9 31 3a bd 8c be b6 3c
       0.04655876 0.04532261 -0.045457575 0.022307657
000050 55 4d 03 3d f7 34 01 bc 22 5d b4 3b 07 dd f0 3c
       0.03205617 -0.007886163 0.0055042664 0.029402269
000060 74 ad 83 3d 4b f7 a8 3d 52 db 8b bd 53 68 40 bd
       0.06429568 0.082502924 -0.068289414 -0.04697449
000070 60 b1 fe 3c 71 35 a3 3d 30 8e 83 3d 73 c9 7c 3d
       0.031090438 0.079691775 0.064236045 0.061715554
000080 dd bd 0a 3c b4 57 ad bd a6 70 a7 ba 46 fe 5a bd
       0.0084681185 -0.08463994 -0.0012774661 -0.05346515
000090 d2 ee 8f bd c4 cf b4 3d f8 da 9d 3d d6 63 a4 bd
       -0.07027973 0.08828691 0.077077806 -0.08026855
0000a0 0a d2 cb 3c 20 3a 15 bb cc 92 6b bb 3d dc 1b bd
       0.024880428 -0.002277024 -0.0035945652 -0.038051832
0000b0 bd b5 1b 3d 1b 95 4e bd d2 ce 03 3d 00 b5 24 3d
       0.038015116 -0.050435167 0.03217966 0.040211678
0000c0 8e b9 72 3d b5 da e3 3c a7 14 c3 bd 11 4b 83 bd
       0.05925899 0.027814249 -0.095254235 -0.06410802
0000d0 27 f2 11 3d 72 7b 22 3c 72 45 a4 bd e9 45 77 bd
       0.035631325 0.009917127 -0.08021058 -0.060369406
0000e0 80 bb 9f 3d 19 6e 60 3d d3 b1 35 bd e2 94 ab bc
       0.07799435 0.054792497 -0.04435904 -0.020945016
0000f0 3f ab ab bd a5 37 41 bb 0a 00 81 bd b6 4c 99 bd
       -0.08382272 -0.002948263 -0.062988356 -0.074853346
000100 91 8a fa bb 9e be 65 3c b0 6d 07 bd 3a 8c 5a 3d
       -0.007645913 0.014022497 -0.03306359 0.053356387
000110 0d ee 4b bd 32 32 ae 3d a2 77 87 3d 20 81 8a bd
       -0.04978757 0.08505668 0.06614615 -0.0676291
000120 44 a0 b1 bc 27 04 95 3b cb 3a 82 3c 33 e6 9f 3c
       -0.021682866 0.004547614 0.015897175 0.019518947
000130 26 e2 01 3d 02 85 47 3a bf 84 51 bd 4f 67 0d 3d
       0.031709813 0.0007611067 -0.051151987 0.03452235
000140 ec d7 bd bd 9b d0 4d bd 69 f7 91 bc 5e 9a 20 bd
       -0.092696995 -0.05024777 -0.01781817 -0.039209716
000150 88 b5 c3 bc 8f c7 83 bd 52 7b 47 bc 7f b5 dc 3c
       -0.023890272 -0.06434547 -0.012175398 0.026942013
000160 84 df 40 bd 7d 22 85 3b 80 8e ce 3b 60 ea 8a bd
       -0.04708816 0.004062949 0.0063036084 -0.06782985
000170 f1 81 48 bd 24 5b 57 bd 3e c3 8e bc fe 27 0a 3c
       -0.048952047 -0.052577153 -0.017427083 0.008432386
000180 52 84 f1 3c 02 63 cf bb 84 39 14 3d d8 1b 5c bd
       0.02948204 -0.0063289413 0.036187664 -0.05373749
000190 e0 78 e6 bd ee fa 84 bd 68 d7 3b 3c 01 27 3c bd
       -0.11253524 -0.064931735 0.011464931 -0.045935635
0001a0 2f e2 b2 bd 12 f5 d5 bd 58 4b e8 bd cf 1c ce bd
       -0.08734547 -0.10447134 -0.11342496 -0.100640886
0001b0 a5 da 49 bd d0 24 09 38 c7 97 1d bc ef 5f eb bd
       -0.04928078 3.269763e-05 -0.009618706 -0.11492907
0001c0 2d c8 73 3c 17 85 d3 bd 46 80 62 bd 30 6d 9b bd
       0.014879269 -0.10328119 -0.055298112 -0.07589185
0001d0 99 76 88 bd 00 ce 77 bd 27 da dd bd f0 04 e8 bd
       -0.06663246 -0.06049919 -0.10832625 -0.11329067
0001e0 bd 35 84 bd b6 d7 3e bd 02 e1 b2 bd 45 9b 66 bc
       -0.06455562 -0.046592437 -0.08734323 -0.014075105
0001f0 7b 1d e9 bd 8f e9 45 bd 93 91 8a 3c bc 1b 5b bd
       -0.11382576 -0.048318442 0.016915118 -0.053493246
000200 d2 1f e5 3c 28 ec 46 38 fd a3 82 bd c8 3b e1 3c
       0.027969275 4.7426816e-05 -0.063789345 0.027494326
000210 a0 d6 36 bc 50 9c c7 bc 4a 74 5a 3d 71 84 b2 bc
       -0.011159569 -0.024366528 0.05333356 -0.021791669
000220 5b 3e e3 3c c7 ce 88 3b 35 93 48 3d 44 68 a6 3c
       0.027739694 0.0041750404 0.048968513 0.02031339
000230 41 21 d7 3c 30 d3 80 3c b9 af b6 bc 1c f6 c6 bc
       0.026260974 0.015725702 -0.022300588 -0.024287276
000240 1a 4a 46 3b c9 88 a0 3d 1c 1d 97 3d 97 bf 85 3d
       0.003025657 0.0783859 0.07378599 0.065306835
000250 77 e5 8b bc 41 3d b3 3c 14 f1 d3 bc 34 41 83 bc
       -0.01707719 0.021879794 -0.025871791 -0.016022302
000260 0c 47 bf bc 63 e4 26 3d eb 9d 61 bc d1 31 ea 3c
       -0.023349307 0.04074515 -0.013770561 0.028588207
000270 4c 11 e3 3c 5b 67 94 3d 4f 7e 36 bc 31 ed da bb
       0.027718209 0.07246276 -0.011138513 -0.0066811075
000280 2a f1 88 3a 69 ee a3 3d 12 f3 66 bd 82 6b 8d 3c
       0.0010447849 0.080044575 -0.056384154 0.017263178
000290 d9 a3 68 bc 28 aa f8 bc 78 d1 23 bd 68 10 58 bd
       -0.014199221 -0.030354574 -0.039994687 -0.05275002
0002a0 26 7d 0a bd 2c 06 6a bd 28 fd 37 bd 72 bc ef bb
       -0.033810757 -0.057134792 -0.044919163 -0.0073161656
0002b0 ea a6 58 bd 5a 76 09 bd 08 39 4d 3d ea bc 23 bd
       -0.052893557 -0.033560134 0.050103217 -0.039975084
0002c0 ba 04 b8 3b 6a bb 98 3d 00 43 1c 3d 8a cf b2 3c
       0.005615798 0.074576214 0.038149834 0.021827478
0002d0 c8 69 0d bc da 99 97 3d 75 f8 f8 3a ec 74 f0 3c
       -0.008631177 0.07402392 0.0018994944 0.029352628
0002e0 31 a7 e1 3c 88 a4 1d 3d b8 40 43 3d 2b a6 bf 3d
       0.027545543 0.038486987 0.047669142 0.09357866
0002f0 b6 19 59 3d 94 35 ca 3d 75 19 a5 3d f3 16 1f 3c
       0.053003035 0.098735005 0.08061496 0.009710061
000300 b7 84 8c 3d 36 82 1c 3a 76 d7 5b 3c 70 46 4a 3d
       0.06861251 0.00059703307 0.013418069 0.04938358
000310 3e 59 3d 3d db 56 81 3d 4b 64 88 bd 4e 25 42 bd
       0.046227686 0.063153945 -0.06659754 -0.047398858
000320 e6 2c 7f bc d2 fc bb bd e6 d2 a6 3b 70 14 9c bd
       -0.015574669 -0.09179081 0.005091059 -0.07621086
000330 3c 7b cc bc 5c cc fd bc f7 8a 38 bd a1 5c e2 bb
       -0.024961106 -0.030981235 -0.045054402 -0.006908015
000340 b2 0c 00 3d dd 91 1c bd b6 4e 78 bd e0 51 47 bd
       0.031262107 -0.038225044 -0.06062194 -0.048662066
000350 75 0f bb bd e9 c6 47 bb 08 3a 81 bd f4 d8 9e bd
       -0.091338076 -0.003048355 -0.06309897 -0.07756224
000360 8a 2f bb 3d aa 3b 27 3e 46 10 25 3e ac e4 2d 3e
       0.09139927 0.16331354 0.16119489 0.16981763
000370 03 d4 21 3e 36 25 f4 3d 48 f9 f7 3d a7 ba 21 3e
       0.15803532 0.1192116 0.121080935 0.15793858
000380 60 f0 33 3e 94 98 08 3e ae b2 ae 3d a7 e6 b9 3d
       0.17572165 0.13339454 0.08530174 0.090771966
000390 7a c1 4c 3d a9 56 0a 3e eb 7e a5 3d 3a 19 43 3d
       0.0499892 0.1350962 0.08080848 0.04763148
0003a0 11 4f 0f 3e aa e7 95 3d 02 a1 f6 3d d1 99 18 3e
       0.13995005 0.07319577 0.120424286 0.14902426
0003b0 32 bf 06 3e 95 5b a7 3d 40 b3 82 3d d5 73 1d 3e
       0.13158873 0.08171765 0.063818455 0.15376218
0003c0 f3 bf 06 3e 42 82 21 3e f2 e1 d4 3d b4 bd 0c 3e
       0.1315916 0.15772346 0.10394658 0.13744241
0003d0 13 61 db 3d 20 43 fc 3d 89 28 8e 3d 5a 17 0b 3e
       0.10711875 0.123174906 0.06941325 0.13583127
0003e0 a8 fe 08 3e 7c 62 ed 3d 78 e3 dd 3d d7 1b 9e 3d
       0.13378394 0.1159105 0.10834402 0.07720154

inference.model.encoder.model.tcn_block_00.block.conv1d_layer_1.bias f4 [2]
000000 ad 5d e3 bd 34 33 9a 3e
       -0.111018516 0.3011719

inference.model.encoder.model.tcn_block_00.block.conv1d_layer_1.weight_g f4 [2, 1, 1]
000000 50 d1 f4 3e e6 9e 36 3f
       0.47815943 0.7133621

inference.model.encoder.model.tcn_block_00.block.conv1d_layer_1.weight_v f4 [2, 2, 9]
000000 19 c0 6a 3d cc c6 40 bd de cc ab bd 9f 87 9d 3b
       0.057312105 -0.047064587 -0.08388685 0.004807427
000010 ee e5 c2 bd df 39 7e 3c f6 ae 24 3c 45 0e 16 be
       -0.09516512 0.015516727 0.01005148 -0.14653881
000020 5d 96 e3 3a 9e fd d5 3d 82 5f d8 3d f3 7b cd ba
       0.0017363537 0.10448764 0.10565092 -0.0015677199
000030 ed 9d 1c be 25 5d 9e 3a af 42 fb 3d 90 ad 0d bd
       -0.15294619 0.0012082203 0.12268578 -0.03458935
000040 31 f1 10 3e ac a2 59 3e 15 c7 b4 bd d6 02 87 bc
       0.14154507 0.2125346 -0.088270344 -0.016480844
000050 58 c2 1f 3d a8 a5 f7 bb f5 3a d1 bb d4 9c 00 ba
       0.0390037 -0.0075575896 -0.006385202 -0.0004906182
000060 21 02 0a be 0f 11 b0 bb 62 84 b7 3d df 1a b2 3e
       -0.13477375 -0.0053731273 0.08960797 0.34786126
000070 6c 23 89 3e 2a 13 1c 3e 38 c5 5e 3e 16 13 10 39
       0.26784837 0.15241686 0.2175492 0.0001374002
000080 13 37 a6 bd 89 f4 c2 bd b4 2c 87 3e 62 c7 47 3e
       -0.08115973 -0.09519298 0.26401293 0.19509652

inference.model.encoder.model.tcn_block_00.downsample.weight f4 [2, 14, 1]
000000 e4 7a 28 be 5d 95 1d 3e d3 59 30 3e b4 53 ea bd
       -0.16453129 0.15389009 0.17221765 -0.11441746
000010 d3 04 8f 3d bb 59 1b be 70 2e 14 3d 7e 51 14 3e
       0.06983342 -0.15170948 0.0361771 0.14484212
000020 9e f7 23 be 7d ef 00 3e 92 cd f7 3d 9e 6d 19 3e
       -0.16012427 0.12591358 0.12099756 0.14983222
000030 40 41 e6 3d 6f a3 14 3e 5c d3 a0 3d 14 58 ae bd
       0.11242914 0.1451547 0.078528136 -0.08512893
000040 48 95 21 bd 00 11 9f 3d 95 fd 2e bd 09 2f 98 3d
       -0.039449006 0.07766914 -0.042722303 0.07430846
000050 59 c0 f5 3c fd ad 3a bd ec 96 97 3d 58 65 9c bd
       0.029998945 -0.045576084 0.07401833 -0.07636517
000060 66 68 62 3e ee af 56 3e e0 93 2d 3e 2d ca 5e 3e
       0.22110137 0.2096555 0.16950941 0.21756811

inference.model.encoder.model.tcn_block_00.downsample.bias f4 [2]
000000 6b 16 9a 3e e5 97 f2 3e
       0.3009523 0.4738151

inference.model.encoder.model.tcn_block_01.conv0.bias f4 [2]
000000 ee 08 17 3e 7f dc 90 3e
       0.147495 0.28293225

inference.model.encoder.model.tcn_block_01.conv0.weight_g f4 [2, 1, 1]
000000 c1 54 50 3f c1 4a 2f 3f
       0.81379324 0.6847344

inference.model.encoder.model.tcn_block_01.conv0.weight_v f4 [2, 2, 9]
000000 a3 f5 2a 3e 1c 5a 47 3e a2 ce 03 3e e9 2d 10 3e
       0.16695265 0.19467968 0.12871793 0.14080013
000010 ea 5b b5 3c b9 64 fa 3d 6a 6e 97 3d 2e bf 89 bc
       0.022138555 0.122262426 0.07394107 -0.016814794
000020 49 0e 77 3d 0b d9 3f 3d c9 35 c3 3c a0 c9 3d 3e
       0.060316358 0.046837848 0.023829358 0.18533945
000030 9f 6a 8a 3e 61 fc e6 3d 7e 9a 62 3e e2 4f 72 3e
       0.2703447 0.11278606 0.22129247 0.23663285
000040 5a 85 65 3e a6 14 65 3d da 43 bf 3d a2 41 18 3d
       0.22414151 0.055927895 0.093391135 0.037171967
000050 37 ad a3 bd b7 0a 8c 3d 82 3a 25 3e c3 c8 21 3e
       -0.079920225 0.06837981 0.161356 0.15799241
000060 13 a3 2b 3d 61 fa 57 3d d7 f5 7e bd 6e 0a 97 3e
       0.041903567 0.052729014 -0.06224617 0.29500145
000070 61 7d dc 3c 29 45 1b bd 8c 8e 10 3e 0a ba 6b 3e
       0.026915254 -0.037907753 0.14116877 0.23020187
000080 61 b8 d4 bd d3 20 8e 3e c4 4a 1f 3e ed 94 98 bd
       -0.1038673 0.27759418 0.15555865 -0.0745028

inference.model.encoder.model.tcn_block_01.conv1.bias f4 [2]
000000 bc ab 08 bc 9c ec ba 3e
       -0.008341726 0.36508644

inference.model.encoder.model.tcn_block_01.conv1.weight_g f4 [2, 1, 1]
000000 a4 1b 1f 3f 73 91 3b 3f
       0.6215155 0.7326881

inference.model.encoder.model.tcn_block_01.conv1.weight_v f4 [2, 2, 9]
000000 5c 17 49 be 7a f1 9e bd 8d 43 86 3d 85 8a 59 be
       -0.19637817 -0.07760902 0.06555853 -0.21244247
000010 6a 3e 0a 3e f9 70 01 3e ab e8 1f 3e 71 2c 10 be
       0.13500372 0.12640752 0.156161 -0.14079453
000020 9d 69 82 3e b2 86 07 be f3 66 83 3e 76 77 54 be
       0.25471202 -0.13234976 0.25664482 -0.20748696
000030 43 7c 30 be 55 6d 48 3e ba 85 aa 3d 20 7a b6 3d
       -0.17234902 0.19572957 0.083262876 0.08910012
000040 b0 4d 77 bd 39 ed c3 bc fc 42 16 3e 91 45 87 bb
       -0.060376823 -0.023916828 0.1467399 -0.004128166
000050 e9 5a 3d 3e dd 94 3d 3e da 54 19 3e 15 b5 23 3e
       0.1849171 0.18513818 0.14973775 0.15987046
000060 05 78 30 3e 7e 21 fd 3d fb 5a 56 3d ff 8d fd 3d
       0.17233284 0.12359904 0.05233286 0.12380599
000070 1f 7e ac 3d 9e a0 8d 3d f9 8a 07 3e 04 66 fb 3d
       0.08422493 0.06915401 0.13236608 0.12275317
000080 98 fe 18 3e 97 45 af 3d 0b 27 24 3e 14 a1 13 3d
       0.1494087 0.08558195 0.16030519 0.036042288

inference.model.encoder.model.tcn_block_01.block.conv1d_layer_0.bias f4 [2]
000000 ee 08 17 3e 7f dc 90 3e
       0.147495 0.28293225

inference.model.encoder.model.tcn_block_01.block.conv1d_layer_0.weight_g f4 [2, 1, 1]
000000 c1 54 50 3f c1 4a 2f 3f
       0.81379324 0.6847344

inference.model.encoder.model.tcn_block_01.block.conv1d_layer_0.weight_v f4 [2, 2, 9]
000000 a3 f5 2a 3e 1c 5a 47 3e a2 ce 03 3e e9 2d 10 3e
       0.16695265 0.19467968 0.12871793 0.14080013
000010 ea 5b b5 3c b9 64 fa 3d 6a 6e 97 3d 2e bf 89 bc
       0.022138555 0.122262426 0.07394107 -0.016814794
000020 49 0e 77 3d 0b d9 3f 3d c9 35 c3 3c a0 c9 3d 3e
       0.060316358 0.046837848 0.023829358 0.18533945
000030 9f 6a 8a 3e 61 fc e6 3d 7e 9a 62 3e e2 4f 72 3e
       0.2703447 0.11278606 0.22129247 0.23663285
000040 5a 85 65 3e a6 14 65 3d da 43 bf 3d a2 41 18 3d
       0.22414151 0.055927895 0.093391135 0.037171967
000050 37 ad a3 bd b7 0a 8c 3d 82 3a 25 3e c3 c8 21 3e
       -0.079920225 0.06837981 0.161356 0.15799241
000060 13 a3 2b 3d 61 fa 57 3d d7 f5 7e bd 6e 0a 97 3e
       0.041903567 0.052729014 -0.06224617 0.29500145
000070 61 7d dc 3c 29 45 1b bd 8c 8e 10 3e 0a ba 6b 3e
       0.026915254 -0.037907753 0.14116877 0.23020187
000080 61 b8 d4 bd d3 20 8e 3e c4 4a 1f 3e ed 94 98 bd
       -0.1038673 0.27759418 0.15555865 -0.0745028

inference.model.encoder.model.tcn_block_01.block.conv1d_layer_1.bias f4 [2]
000000 bc ab 08 bc 9c ec ba 3e
       -0.008341726 0.36508644

inference.model.encoder.model.tcn_block_01.block.conv1d_layer_1.weight_g f4 [2, 1, 1]
000000 a4 1b 1f 3f 73 91 3b 3f
       0.6215155 0.7326881

inference.model.encoder.model.tcn_block_01.block.conv1d_layer_1.weight_v f4 [2, 2, 9]
000000 5c 17 49 be 7a f1 9e bd 8d 43 86 3d 85 8a 59 be
       -0.19637817 -0.07760902 0.06555853 -0.21244247
000010 6a 3e 0a 3e f9 70 01 3e ab e8 1f 3e 71 2c 10 be
       0.13500372 0.12640752 0.156161 -0.14079453
000020 9d 69 82 3e b2 86 07 be f3 66 83 3e 76 77 54 be
       0.25471202 -0.13234976 0.25664482 -0.20748696
000030 43 7c 30 be 55 6d 48 3e ba 85 aa 3d 20 7a b6 3d
       -0.17234902 0.19572957 0.083262876 0.08910012
000040 b0 4d 77 bd 39 ed c3 bc fc 42 16 3e 91 45 87 bb
       -0.060376823 -0.023916828 0.1467399 -0.004128166
000050 e9 5a 3d 3e dd 94 3d 3e da 54 19 3e 15 b5 23 3e
       0.1849171 0.18513818 0.14973775 0.15987046
000060 05 78 30 3e 7e 21 fd 3d fb 5a 56 3d ff 8d fd 3d
       0.17233284 0.12359904 0.05233286 0.12380599
000070 1f 7e ac 3d 9e a0 8d 3d f9 8a 07 3e 04 66 fb 3d
       0.08422493 0.06915401 0.13236608 0.12275317
000080 98 fe 18 3e 97 45 af 3d 0b 27 24 3e 14 a1 13 3d
       0.1494087 0.08558195 0.16030519 0.036042288

inference.model.qz_xy_mean.dense(qz_xy_mean)_layer_00.weight f4 [2, 2]
000000 36 91 b6 3e 6c 95 0e bd 10 7d f7 bd e2 81 cf bc
       0.35657662 -0.03481047 -0.12084401 -0.025330488

inference.model.qz_xy_mean.dense(qz_xy_mean)_layer_00.bias f4 [2]
000000 04 10 df 3e fa fe 08 3e
       0.43566906 0.13378516

inference.model.qz_xy_logvar.dense(qz_xy_logvar)_layer_00.weight f4 [2, 2]
000000 be 63 40 bf 45 14 2f bf 86 99 98 3d 86 86 42 be
       -0.75152194 -0.68390304 0.07451157 -0.18996629

inference.model.qz_xy_logvar.dense(qz_xy_logvar)_layer_00.bias f4 [2]
000000 8c a8 69 3e 44 a5 5f bf
       0.22818202 -0.8736155

inference.model.py_t_probs.dense(py_t_probs)_layer_00.weight f4 [4, 2]
000000 20 a0 fc be 32 22 6e 3e 9b de 15 3f 6b 0f ef be
       -0.49340916 0.23255232 0.58542794 -0.4669145
000010 68 a4 ee 3e bb c0 d4 be b4 bf b9 3e b6 41 ba 3d
       0.46609807 -0.41553292 0.3627907 0.090945646

inference.model.py_t_probs.dense(py_t_probs)_layer_00.bias f4 [4]
000000 fa a7 3b 3f f6 8f 0a bf 5b 6e f3 be a7 f7 8c 3e
       0.73303187 -0.54125917 -0.47545132 0.27532694

inference.model.pz_t_mean.dense(pz_t_mean)_layer_00.weight f4 [8, 2]
000000 a3 54 5b 3f db bc 0b 3e 30 dd 78 3e 11 c5 b2 be
       0.8567602 0.13646261 0.24303126 -0.34915975
000010 47 7f 44 3f bd 3b 06 bf b2 c0 70 3e 30 09 7a be
       0.7675671 -0.52434903 0.23511007 -0.24417567
000020 08 a8 63 bd 87 4d 85 3d 6f 0c 9d be a3 f2 0f 3e
       -0.05558017 0.06508928 -0.3067355 0.14057402
000030 b3 ce e9 be 55 03 0a bf 7d 24 83 3e 6d db 77 bd
       -0.4566551 -0.53911334 0.25613776 -0.060511995

inference.model.pz_t_mean.dense(pz_t_mean)_layer_00.bias f4 [8]
000000 9b 2f 26 be ba 9a 8e be 0a 29 bb be 47 1b eb be
       -0.16229098 -0.27852422 -0.36554748 -0.45919248
000010 d8 28 22 3f a8 a0 68 3e da 3c a2 3e c9 f9 ae be
       0.6334357 0.22717535 0.3168705 -0.34174946

inference.model.pz_t_logvar.dense(pz_t_logvar)_layer_00.weight f4 [2, 4]
000000 8e 0e a4 bd e9 97 c7 bd ea 2c 12 bf 59 da 8b 3d
       -0.080105886 -0.097457714 -0.57099783 0.06828756
000010 f4 9c 9d 3e 52 45 de be 42 fe 0f bf fd 02 28 bd
       0.30783808 -0.43412262 -0.5624734 -0.041018475

inference.model.pz_t_logvar.dense(pz_t_logvar)_layer_00.bias f4 [2]
000000 1f 10 65 3e 33 13 b5 be
       0.22369431 -0.3536621

inference.model.decoder.dense(decoder)_layer_00.weight f4 [10, 2]
000000 fa 46 93 bd 44 97 c7 3e f8 a6 ed 3d 62 72 3d bd
       -0.07191272 0.38982594 0.116041124 -0.046251662
000010 4a 28 14 3f 4b 56 80 3e 95 4c 18 bf da a1 79 bc
       0.57873976 0.25065836 -0.59491855 -0.015236342
000020 ae 05 7c 3e cd 00 ef 3e 73 22 0c bf 7a e4 55 3e
       0.24611542 0.46680298 -0.54740065 0.20887938
000030 39 df 79 be 71 44 09 bf 75 c0 8a 3e a7 e1 a4 be
       -0.24401559 -0.5362006 0.27099958 -0.3220341
000040 41 ce 49 be ab 3a 29 be c5 4e a0 be 92 0e 58 bc
       -0.19707586 -0.16526286 -0.31310096 -0.013187068
