results_gmdgm/ssm_v1/dtcn/h_v4/version_1/best_val_model.pt (torch, 58663 bytes, 204 tensors)

model.qy_x.model.tcn_block_00.conv0.bias f4 [2]
0	0xbccb3f21	-0.024810376
1	0x3e4a4855	0.19754155

model.qy_x.model.tcn_block_00.conv0.weight_g f4 [2, 1, 1]
0	0x3f3c2d73	0.7350685
1	0x3f71a5d7	0.94393677

model.qy_x.model.tcn_block_00.conv0.weight_v f4 [2, 10, 9]
0	0xbd79911e	-0.06092941
1	0xbd0ea4f4	-0.03482528
2	0xbdc9653b	-0.09833761
3	0xbdd9a326	-0.10626821
4	0xbdee6155	-0.11639658
5	0xbdbe085a	-0.09278937
6	0xbdec7029	-0.1154483
7	0xbd5a2fd0	-0.053268254
8	0xbde54a98	-0.11195868
9	0x3d9a4f72	0.07534684
10	0x3d63eb11	0.0556441
11	0x3d9223db	0.07135745
12	0x3cb64a51	0.022252234
13	0x3d6081ed	0.054811407
14	0x3da18002	0.07885744
15	0x3dda2c80	0.10653019
16	0x3dede738	0.11616367
17	0x3debbb63	0.115103506
18	0x3c407576	0.011746755
19	0x3d1f579c	0.03890191
20	0x3db9d871	0.09074486
21	0x3de5edb9	0.112269826
22	0x3db45c4e	0.08806668
23	0x3e09b592	0.1344817
24	0x3de207ac	0.110366195
25	0x3e03f7f1	0.12887551
26	0x3e10c9d5	0.14139493
27	0xbde95efe	-0.113950714
28	0xbdc306d0	-0.09522784
29	0xbd993895	-0.07481495
30	0xbd9030f2	-0.070405856
31	0xbba3db30	-0.0050004944
32	0xbd7cab3c	-0.06168674
33	0xbd34f0cf	-0.044174965
34	0xbd36b339	-0.044604514
35	0xbd4abb0c	-0.049494788
36	0x3ccc5aa9	0.024945574
37	0x3da7c11f	0.08191132
38	0x3d4d2936	0.05008813
39	0x3d24ebd9	0.040263984
40	0x3bdb8f2e	0.006700418
41	0xbcf17aeb	-0.029477557
42	0xbc5a5785	-0.01332653
43	0xbd917426	-0.07102232
44	0xbd97a436	-0.074043676
45	0xbdb9d132	-0.09073104
46	0xbd36742e	-0.04454439
47	0xbd611261	-0.054949168
48	0xbdee6da0	-0.11642003
49	0xbdd0b62e	-0.10190998
50	0xbd6a228d	-0.057161856
51	0xbcd19b1e	-0.025586661
52	0xbd83dfca	-0.06439169
53	0xbd912e6c	-0.070889324
54	0x3ccfc4f6	0.025362473
55	0xbcd79bd8	-0.02631943
56	0x3cee68dd	0.029102737
57	0xbc87e823	-0.016590184
58	0x3bae01f0	0.0053102896
59	0x3d0bc376	0.034121953
60	0x3dd08a8d	0.101826765
61	0x3dea6950	0.11445868
62	0x3d766a52	0.06015999
63	0x3d617754	0.05504544
64	0x3d9e8fbb	0.07742258
65	0x3d688ff9	0.056777928
66	0x3d9e0795	0.0771629
67	0x3dcba413	0.09943404
68	0x3e002b10	0.12516427
69	0x3e143053	0.14471559
70	0x3d6b0d41	0.057385687
71	0x3dd05343	0.10172131
72	0xbcc63cba	-0.024198879
73	0xba8c3b3a	-0.0010698803
74	0xbbcc8cef	-0.0062423865
75	0xbc668779	-0.014070385
76	0xbd9b9161	-0.07596088
77	0xbe01356d	-0.12618037
78	0xbddc29cc	-0.107501596
79	0xbe18c3fe	-0.14918515
80	0xbe1fbd8c	-0.1559965
81	0x3dffba37	0.124866895
82	0x3deac3f0	0.11463153
83	0x3c9f71d2	0.019463453
84	0x3da2843e	0.079353794
85	0x3d6100f7	0.05493256
86	0x3d390017	0.0451661
87	0x3cb328f4	0.021870114
88	0x3d49ead0	0.0492962
89	0xbb2293d8	-0.002480736
90	0x3d317bc2	0.043330915
91	0x3d573104	0.05253698
92	0x3d7e62a6	0.062105797
93	0x3d96a93e	0.07356499
94	0x3db18f23	0.08669879
95	0x3dd620e2	0.10455491
96	0x3e01501f	0.1262822
97	0x3e173aec	0.1476857
98	0x3e27805b	0.16357557
99	0xbd5add21	-0.05343354
100	0xbd788c27	-0.060680535
101	0xbd8d779d	-0.0690758
102	0xbda23990	-0.079211354
103	0xbdbf9ecc	-0.0935646
104	0xbde25238	-0.11050838
105	0xbe033021	-0.12811328
106	0xbe13ab4f	-0.14420818
107	0xbe2313f7	-0.15925585
108	0xbd09eb1c	-0.033671483
109	0xbd359f16	-0.04434117
110	0xbd63633b	-0.055514555
111	0xbd87d309	-0.06632049
112	0xbd9e941e	-0.07743095
113	0xbdbebe4a	-0.093136385
114	0xbde86434	-0.11347237
115	0xbe0bd834	-0.13656694
116	0xbe24c2cb	-0.16089933
117	0x3d894625	0.06702832
118	0x3d83d47e	0.06437014
119	0x3d83ec89	0.064416
120	0x3d89340a	0.06699379
121	0x3d92bc4d	0.07164822
122	0x3d9a4fd1	0.07534755
123	0x3daa6fc6	0.083221
124	0x3d9b5351	0.07584251
125	0x3da53809	0.080673285
126	0xbd9a4823	-0.0753329
127	0xbd8bc3d0	-0.06824458
128	0xbd7b3399	-0.061328504
129	0xbd6db10e	-0.05803018
130	0xbd4fa92d	-0.050698448
131	0xbd2bce6c	-0.041944906
132	0xbd2da3d5	-0.04239257
133	0xbcfbf7a2	-0.030757729
134	0xbc4e33be	-0.0125855785
135	0x3d88c150	0.066774964
136	0x3d9384ae	0.07203041
137	0x3da02210	0.07818997
138	0x3db0907e	0.0862131
139	0x3dc44405	0.09583286
140	0x3dd7cf7b	0.10537621
141	0x3decc234	0.11560479
142	0x3e0335d8	0.12813509
143	0x3e150c67	0.14555512
144	0x3cf562db	0.029954365
145	0x3cd0fc85	0.025511036
146	0x3cca760a	0.024714489
147	0x3c0bf747	0.008542842
148	0xbbf3a606	-0.007435563
149	0xbcb399bb	-0.02192389
150	0xbd185061	-0.03718603
151	0xbd5651b9	-0.05232403
152	0xbd8d4454	-0.06897798
153	0xbb9fae24	-0.004873054
154	0xbc931fc6	-0.017959487
155	0xbd17f419	-0.037098024
156	0xbd350c3f	-0.044201132
157	0xbd7475a0	-0.05968249
158	0xbd9b5f5c	-0.07586548
159	0xbdc65d30	-0.09685743
160	0xbdf97801	-0.12181092
161	0xbe190aa5	-0.14945467
162	0x3c5572a0	0.013027817
163	0x3cd303b3	0.0257586
164	0x3d1ecd53	0.03877003
165	0x3d54326b	0.051805895
166	0x3d88700a	0.06661995
167	0x3dacc596	0.08436124
168	0x3dd6f361	0.104956396
169	0x3e058839	0.13040246
170	0x3e20ef18	0.15716207
171	0xbd91e1d5	-0.07123152
172	0xbd941caf	-0.072320335
173	0xbd901579	-0.070353456
174	0xbd937b84	-0.07201293
175	0xbda1edd7	-0.079066925
176	0xbdaee16a	-0.08539088
177	0xbdbe9271	-0.09305275
178	0xbdc1c145	-0.09460691
179	0xbddc0370	-0.10742843

model.qy_x.model.tcn_block_00.conv1.bias f4 [2]
0	0x3e931af5	0.28731504
1	0x3df9d8a9	0.12199528

model.qy_x.model.tcn_block_00.conv1.weight_g f4 [2, 1, 1]
0	0x3f31f52f	0.69514745
1	0x3f57bdb7	0.84273857

model.qy_x.model.tcn_block_00.conv1.weight_v f4 [2, 2, 9]
0	0x3e684683	0.22683148
1	0x3e385e77	0.18004785
2	0x3e757848	0.23971665
3	0x3e6acca5	0.22929628
4	0x3dc4f33a	0.09616704
5	0x3db4ba66	0.08824615
6	0xbd7f6dda	-0.062360622
7	0x3e2181f4	0.1577223
8	0x3e279d53	0.16368608
9	0x3cfaf04f	0.030632166
10	0xbda74ff0	-0.08169544
11	0xbd79cef8	-0.060988396
12	0xbdaef3a3	-0.08542564
13	0xbd8da0e3	-0.06915452
14	0xbd987943	-0.07445004
15	0xbd656bfa	-0.056011178
16	0xbdac3934	-0.08409348
17	0xbd8d8eee	-0.06912027
18	0x3c07b483	0.008282783
19	0x3a183218	0.00058058044
20	0xbc890520	-0.016726077
21	0xbc84d20c	-0.01621344
22	0xbc7cd719	-0.015432143
23	0xbc800c48	-0.015630856
24	0xbcc2e908	-0.023792759
25	0xbce096e4	-0.0274157
26	0xbd1fe07b	-0.03903244
27	0x3dc62b0d	0.0967618
28	0x3dd62389	0.104559965
29	0x3de0fefe	0.10986136
30	0x3de8bba8	0.113639176
31	0x3dfa0cea	0.122094944
32	0x3e0b3a45	0.13596447
33	0x3e1ce4f7	0.15321718
34	0x3ddb2e5a	0.107022
35	0x3e1a6b5f	0.15080021

model.qy_x.model.tcn_block_00.block.conv1d_layer_0.bias f4 [2]
0	0xbccb3f21	-0.024810376
1	0x3e4a4855	0.19754155

model.qy_x.model.tcn_block_00.block.conv1d_layer_0.weight_g f4 [2, 1, 1]
0	0x3f3c2d73	0.7350685
1	0x3f71a5d7	0.94393677

model.qy_x.model.tcn_block_00.block.conv1d_layer_0.weight_v f4 [2, 10, 9]
0	0xbd79911e	-0.06092941
1	0xbd0ea4f4	-0.03482528
2	0xbdc9653b	-0.09833761
3	0xbdd9a326	-0.10626821
4	0xbdee6155	-0.11639658
5	0xbdbe085a	-0.09278937
6	0xbdec7029	-0.1154483
7	0xbd5a2fd0	-0.053268254
8	0xbde54a98	-0.11195868
9	0x3d9a4f72	0.07534684
10	0x3d63eb11	0.0556441
11	0x3d9223db	0.07135745
12	0x3cb64a51	0.022252234
13	0x3d6081ed	0.054811407
14	0x3da18002	0.07885744
15	0x3dda2c80	0.10653019
16	0x3dede738	0.11616367
17	0x3debbb63	0.115103506
18	0x3c407576	0.011746755
19	0x3d1f579c	0.03890191
20	0x3db9d871	0.09074486
21	0x3de5edb9	0.112269826
22	0x3db45c4e	0.08806668
23	0x3e09b592	0.1344817
24	0x3de207ac	0.110366195
25	0x3e03f7f1	0.12887551
26	0x3e10c9d5	0.14139493
27	0xbde95efe	-0.113950714
28	0xbdc306d0	-0.09522784
29	0xbd993895	-0.07481495
30	0xbd9030f2	-0.070405856
31	0xbba3db30	-0.0050004944
32	0xbd7cab3c	-0.06168674
33	0xbd34f0cf	-0.044174965
34	0xbd36b339	-0.044604514
35	0xbd4abb0c	-0.049494788
36	0x3ccc5aa9	0.024945574
37	0x3da7c11f	0.08191132
38	0x3d4d2936	0.05008813
39	0x3d24ebd9	0.040263984
40	0x3bdb8f2e	0.006700418
41	0xbcf17aeb	-0.029477557
42	0xbc5a5785	-0.01332653
43	0xbd917426	-0.07102232
44	0xbd97a436	-0.074043676
45	0xbdb9d132	-0.09073104
46	0xbd36742e	-0.04454439
47	0xbd611261	-0.054949168
48	0xbdee6da0	-0.11642003
49	0xbdd0b62e	-0.10190998
50	0xbd6a228d	-0.057161856
51	0xbcd19b1e	-0.025586661
52	0xbd83dfca	-0.06439169
53	0xbd912e6c	-0.070889324
54	0x3ccfc4f6	0.025362473
55	0xbcd79bd8	-0.02631943
56	0x3cee68dd	0.029102737
57	0xbc87e823	-0.016590184
58	0x3bae01f0	0.0053102896
59	0x3d0bc376	0.034121953
60	0x3dd08a8d	0.101826765
61	0x3dea6950	0.11445868
62	0x3d766a52	0.06015999
63	0x3d617754	0.05504544
64	0x3d9e8fbb	0.07742258
65	0x3d688ff9	0.056777928
66	0x3d9e0795	0.0771629
67	0x3dcba413	0.09943404
68	0x3e002b10	0.12516427
69	0x3e143053	0.14471559
70	0x3d6b0d41	0.057385687
71	0x3dd05343	0.10172131
72	0xbcc63cba	-0.024198879
73	0xba8c3b3a	-0.0010698803
74	0xbbcc8cef	-0.0062423865
75	0xbc668779	-0.014070385
76	0xbd9b9161	-0.07596088
77	0xbe01356d	-0.12618037
78	0xbddc29cc	-0.107501596
79	0xbe18c3fe	-0.14918515
80	0xbe1fbd8c	-0.1559965
81	0x3dffba37	0.124866895
82	0x3deac3f0	0.11463153
83	0x3c9f71d2	0.019463453
84	0x3da2843e	0.079353794
85	0x3d6100f7	0.05493256
86	0x3d390017	0.0451661
87	0x3cb328f4	0.021870114
88	0x3d49ead0	0.0492962
89	0xbb2293d8	-0.002480736
90	0x3d317bc2	0.043330915
91	0x3d573104	0.05253698
92	0x3d7e62a6	0.062105797
93	0x3d96a93e	0.07356499
94	0x3db18f23	0.08669879
95	0x3dd620e2	0.10455491
96	0x3e01501f	0.1262822
97	0x3e173aec	0.1476857
98	0x3e27805b	0.16357557
99	0xbd5add21	-0.05343354
100	0xbd788c27	-0.060680535
101	0xbd8d779d	-0.0690758
102	0xbda23990	-0.079211354
103	0xbdbf9ecc	-0.0935646
104	0xbde25238	-0.11050838
105	0xbe033021	-0.12811328
106	0xbe13ab4f	-0.14420818
107	0xbe2313f7	-0.15925585
108	0xbd09eb1c	-0.033671483
109	0xbd359f16	-0.04434117
110	0xbd63633b	-0.055514555
111	0xbd87d309	-0.06632049
112	0xbd9e941e	-0.07743095
113	0xbdbebe4a	-0.093136385
114	0xbde86434	-0.11347237
115	0xbe0bd834	-0.13656694
116	0xbe24c2cb	-0.16089933
117	0x3d894625	0.06702832
118	0x3d83d47e	0.06437014
119	0x3d83ec89	0.064416
120	0x3d89340a	0.06699379
121	0x3d92bc4d	0.07164822
122	0x3d9a4fd1	0.07534755
123	0x3daa6fc6	0.083221
124	0x3d9b5351	0.07584251
125	0x3da53809	0.080673285
126	0xbd9a4823	-0.0753329
127	0xbd8bc3d0	-0.06824458
128	0xbd7b3399	-0.061328504
129	0xbd6db10e	-0.05803018
130	0xbd4fa92d	-0.050698448
131	0xbd2bce6c	-0.041944906
132	0xbd2da3d5	-0.04239257
133	0xbcfbf7a2	-0.030757729
134	0xbc4e33be	-0.0125855785
135	0x3d88c150	0.066774964
136	0x3d9384ae	0.07203041
137	0x3da02210	0.07818997
138	0x3db0907e	0.0862131
139	0x3dc44405	0.09583286
140	0x3dd7cf7b	0.10537621
141	0x3decc234	0.11560479
142	0x3e0335d8	0.12813509
143	0x3e150c67	0.14555512
144	0x3cf562db	0.029954365
145	0x3cd0fc85	0.025511036
146	0x3cca760a	0.024714489
147	0x3c0bf747	0.008542842
148	0xbbf3a606	-0.007435563
149	0xbcb399bb	-0.02192389
150	0xbd185061	-0.03718603
151	0xbd5651b9	-0.05232403
152	0xbd8d4454	-0.06897798
153	0xbb9fae24	-0.004873054
154	0xbc931fc6	-0.017959487
155	0xbd17f419	-0.037098024
156	0xbd350c3f	-0.044201132
157	0xbd7475a0	-0.05968249
158	0xbd9b5f5c	-0.07586548
159	0xbdc65d30	-0.09685743
160	0xbdf97801	-0.12181092
161	0xbe190aa5	-0.14945467
162	0x3c5572a0	0.013027817
163	0x3cd303b3	0.0257586
164	0x3d1ecd53	0.03877003
165	0x3d54326b	0.051805895
166	0x3d88700a	0.06661995
167	0x3dacc596	0.08436124
168	0x3dd6f361	0.104956396
169	0x3e058839	0.13040246
170	0x3e20ef18	0.15716207
171	0xbd91e1d5	-0.07123152
172	0xbd941caf	-0.072320335
173	0xbd901579	-0.070353456
174	0xbd937b84	-0.07201293
175	0xbda1edd7	-0.079066925
176	0xbdaee16a	-0.08539088
177	0xbdbe9271	-0.09305275
178	0xbdc1c145	-0.09460691
179	0xbddc0370	-0.10742843

model.qy_x.model.tcn_block_00.block.conv1d_layer_1.bias f4 [2]
0	0x3e931af5	0.28731504
1	0x3df9d8a9	0.12199528

model.qy_x.model.tcn_block_00.block.conv1d_layer_1.weight_g f4 [2, 1, 1]
0	0x3f31f52f	0.69514745
1	0x3f57bdb7	0.84273857

model.qy_x.model.tcn_block_00.block.conv1d_layer_1.weight_v f4 [2, 2, 9]
0	0x3e684683	0.22683148
1	0x3e385e77	0.18004785
2	0x3e757848	0.23971665
3	0x3e6acca5	0.22929628
4	0x3dc4f33a	0.09616704
5	0x3db4ba66	0.08824615
6	0xbd7f6dda	-0.062360622
7	0x3e2181f4	0.1577223
8	0x3e279d53	0.16368608
9	0x3cfaf04f	0.030632166
10	0xbda74ff0	-0.08169544
11	0xbd79cef8	-0.060988396
12	0xbdaef3a3	-0.08542564
13	0xbd8da0e3	-0.06915452
14	0xbd987943	-0.07445004
15	0xbd656bfa	-0.056011178
16	0xbdac3934	-0.08409348
17	0xbd8d8eee	-0.06912027
18	0x3c07b483	0.008282783
19	0x3a183218	0.00058058044
20	0xbc890520	-0.016726077
21	0xbc84d20c	-0.01621344
22	0xbc7cd719	-0.015432143
23	0xbc800c48	-0.015630856
24	0xbcc2e908	-0.023792759
25	0xbce096e4	-0.0274157
26	0xbd1fe07b	-0.03903244
27	0x3dc62b0d	0.0967618
28	0x3dd62389	0.104559965
29	0x3de0fefe	0.10986136
30	0x3de8bba8	0.113639176
31	0x3dfa0cea	0.122094944
32	0x3e0b3a45	0.13596447
33	0x3e1ce4f7	0.15321718
34	0x3ddb2e5a	0.107022
35	0x3e1a6b5f	0.15080021

model.qy_x.model.tcn_block_00.downsample.weight f4 [2, 10, 1]
0	0xbe76ea59	-0.24112834
1	0x3e851623	0.2599345
2	0x3e8986f6	0.2686078
3	0xbdf253aa	-0.11832364
4	0xbd99223a	-0.07477231
5	0xbe84ffef	-0.25976512
6	0x3e63e565	0.22255476
7	0x3e7a10a2	0.24420407
8	0xbe83979b	-0.25701603
9	0x3e41e5bb	0.18935291
10	0x3ea45ea3	0.32103452
11	0xbea7cb72	-0.32772404
12	0xbe9f3722	-0.3109675
13	0x3e8c56c7	0.27409956
14	0xbe21823e	-0.1577234
15	0x3eae8236	0.34083718
16	0xbda27bd0	-0.079337716
17	0xbe7f4060	-0.24926901
18	0x3e92f401	0.28701785
19	0xbe943cb4	-0.28952563

model.qy_x.model.tcn_block_00.downsample.bias f4 [2]
0	0x3e8b6ae9	0.27230003
1	0x3ef26eeb	0.4735025

model.qy_x.model.tcn_block_01.conv0.bias f4 [2]
0	0x3d2410f1	0.04005522
1	0x3e82a89c	0.25519264

model.qy_x.model.tcn_block_01.conv0.weight_g f4 [2, 1, 1]
0	0x3f5d71df	0.8650188
1	0x3f4a2e65	0.7897704

model.qy_x.model.tcn_block_01.conv0.weight_v f4 [2, 2, 9]
0	0x3e7786ae	0.2417247
1	0x3d65159c	0.05592881
2	0x3d95fe90	0.073239446
3	0xbca74822	-0.020420138
4	0x3e315aea	0.17319837
5	0x3e19ad73	0.15007572
6	0xbe08bc33	-0.13353042
7	0xbe2aa704	-0.16665274
8	0xbe3b494d	-0.18289681
9	0xbdc43838	-0.095810354
10	0xbdf46178	-0.11932653
11	0xbe0f96b1	-0.14022328
12	0xbd8ffdf6	-0.07030861
13	0x3d7e1586	0.062032245
14	0x3bb17acf	0.0054162513
15	0x3e0530c6	0.13006887
16	0x3df41531	0.119181044
17	0x3e270794	0.16311485
18	0x3e0456e5	0.12923773
19	0x3e8d425c	0.2758969
20	0xbcf492dc	-0.029855184
21	0x3e0c41a0	0.13696909
22	0x3d587127	0.052842285
23	0x3eb3dcd4	0.35129416
24	0xbd947139	-0.07248158
25	0xbd94ac8d	-0.07259474
26	0x3eb901a1	0.36134055
27	0xbd5912ee	-0.05299657
28	0xbc8b9116	-0.017036956
29	0xbcfdce4e	-0.030982163
30	0xbd1a98a2	-0.03774322
31	0xbd2e808f	-0.04260307
32	0x3c4af8a2	0.01238838
33	0xbd401bd9	-0.046901558
34	0xbdfc9172	-0.12332429
35	0xbd8c36c8	-0.06846386

model.qy_x.model.tcn_block_01.conv1.bias f4 [4]
0	0xbe6854eb	-0.22688644
1	0xbe41c8ec	-0.18924302
2	0xbcc50a6a	-0.024052817
3	0x3e3d68e8	0.1849705

model.qy_x.model.tcn_block_01.conv1.weight_g f4 [4, 1, 1]
0	0x3f2543b9	0.6455646
1	0x3f1fe8e6	0.6246475
2	0x3f504408	0.8135381
3	0x3f354c2e	0.70819366

model.qy_x.model.tcn_block_01.conv1.weight_v f4 [4, 2, 9]
0	0xbe5467cf	-0.20742725
1	0x3e13043f	0.14357089
2	0xbdd3e6eb	-0.103467785
3	0xbdb0a1fc	-0.08624646
4	0x3e1dbaa0	0.15403223
5	0x3dd1d703	0.10246088
6	0x3e4421e8	0.19153559
7	0x3e10ebce	0.14152452
8	0xbda3ad96	-0.07992093
9	0xbe735af6	-0.23765168
10	0xbd84c4cf	-0.06482851
11	0x3e3c286b	0.18374793
12	0xbdcef58b	-0.10105427
13	0xbe72603d	-0.23669524
14	0x3de5db52	0.11223473
15	0x3e862679	0.26201227
16	0xbd36ad97	-0.044599142
17	0xbe307596	-0.17232355
18	0xbeaeed7e	-0.34165567
19	0x3d5080b9	0.05090401
20	0xbdc06995	-0.09395138
21	0xbe92f37b	-0.28701386
22	0x3c03973c	0.008031663
23	0x3d8a6604	0.06757739
24	0x3e3c6774	0.18398839
25	0x3e42cf53	0.190244
26	0xbe04d08f	-0.12970184
27	0xbe87130c	-0.2638172
28	0xbe85a208	-0.26100183
29	0x3e3b2351	0.18275191
30	0x3d8edbd8	0.069755256
31	0x3d8bf0c4	0.06833032
32	0xbe798615	-0.24367554
33	0x3e3665ec	0.17812318
34	0x3e37c80a	0.17947403
35	0x3e2a7eff	0.16650008
36	0xbdedb712	-0.116071835
37	0xbdc92367	-0.098212056
38	0xbdc63112	-0.09677328
39	0xbc08ffdd	-0.008361784
40	0xbda48a8d	-0.08034239
41	0xbd9315bd	-0.071818806
42	0xbd426225	-0.04745688
43	0xbd534a86	-0.051584743
44	0xbd1f38e0	-0.0388726
45	0xbd2ff3c5	-0.042957086
46	0xbccecda7	-0.025244547
47	0xbdc3b742	-0.09556438
48	0x3db7e5d8	0.08979386
49	0x3c15ac51	0.009135322
50	0x3e142527	0.14467297
51	0x3e607a94	0.2192176
52	0x3e85eeaf	0.26158664
53	0x3e7fc7e8	0.24978602
54	0x3e4fc1c8	0.20288765
55	0x3e1f1b04	0.1553765
56	0x3d986ef9	0.07443041
57	0x3e77479a	0.24148408
58	0x3e377b42	0.17918113
59	0xbd6dd15a	-0.05806098
60	0x3e31347b	0.17305176
61	0x3cb27458	0.021783993
62	0x3e818af3	0.25301322
63	0x3dfad891	0.12248338
64	0xbd9330e3	-0.07187059
65	0x3da6506d	0.08120809
66	0x3e2b7a48	0.16745865
67	0x3d5cb00b	0.053878825
68	0x3ca39c1c	0.0199719
69	0xbd3bd1d7	-0.045854416
70	0xbd05235f	-0.032504436
71	0xbe164882	-0.14676097

model.qy_x.model.tcn_block_01.block.conv1d_layer_0.bias f4 [2]
0	0x3d2410f1	0.04005522
1	0x3e82a89c	0.25519264

model.qy_x.model.tcn_block_01.block.conv1d_layer_0.weight_g f4 [2, 1, 1]
0	0x3f5d71df	0.8650188
1	0x3f4a2e65	0.7897704

model.qy_x.model.tcn_block_01.block.conv1d_layer_0.weight_v f4 [2, 2, 9]
0	0x3e7786ae	0.2417247
1	0x3d65159c	0.05592881
2	0x3d95fe90	0.073239446
3	0xbca74822	-0.020420138
4	0x3e315aea	0.17319837
5	0x3e19ad73	0.15007572
6	0xbe08bc33	-0.13353042
7	0xbe2aa704	-0.16665274
8	0xbe3b494d	-0.18289681
9	0xbdc43838	-0.095810354
10	0xbdf46178	-0.11932653
11	0xbe0f96b1	-0.14022328
12	0xbd8ffdf6	-0.07030861
13	0x3d7e1586	0.062032245
14	0x3bb17acf	0.0054162513
15	0x3e0530c6	0.13006887
16	0x3df41531	0.119181044
17	0x3e270794	0.16311485
18	0x3e0456e5	0.12923773
19	0x3e8d425c	0.2758969
20	0xbcf492dc	-0.029855184
21	0x3e0c41a0	0.13696909
22	0x3d587127	0.052842285
23	0x3eb3dcd4	0.35129416
24	0xbd947139	-0.07248158
25	0xbd94ac8d	-0.07259474
26	0x3eb901a1	0.36134055
27	0xbd5912ee	-0.05299657
28	0xbc8b9116	-0.017036956
29	0xbcfdce4e	-0.030982163
30	0xbd1a98a2	-0.03774322
31	0xbd2e808f	-0.04260307
32	0x3c4af8a2	0.01238838
33	0xbd401bd9	-0.046901558
34	0xbdfc9172	-0.12332429
35	0xbd8c36c8	-0.06846386

model.qy_x.model.tcn_block_01.block.conv1d_layer_1.bias f4 [4]
0	0xbe6854eb	-0.22688644
1	0xbe41c8ec	-0.18924302
2	0xbcc50a6a	-0.024052817
3	0x3e3d68e8	0.1849705

model.qy_x.model.tcn_block_01.block.conv1d_layer_1.weight_g f4 [4, 1, 1]
0	0x3f2543b9	0.6455646
1	0x3f1fe8e6	0.6246475
2	0x3f504408	0.8135381
3	0x3f354c2e	0.70819366

model.qy_x.model.tcn_block_01.block.conv1d_layer_1.weight_v f4 [4, 2, 9]
0	0xbe5467cf	-0.20742725
1	0x3e13043f	0.14357089
2	0xbdd3e6eb	-0.103467785
3	0xbdb0a1fc	-0.08624646
4	0x3e1dbaa0	0.15403223
5	0x3dd1d703	0.10246088
6	0x3e4421e8	0.19153559
7	0x3e10ebce	0.14152452
8	0xbda3ad96	-0.07992093
9	0xbe735af6	-0.23765168
10	0xbd84c4cf	-0.06482851
11	0x3e3c286b	0.18374793
12	0xbdcef58b	-0.10105427
13	0xbe72603d	-0.23669524
14	0x3de5db52	0.11223473
15	0x3e862679	0.26201227
16	0xbd36ad97	-0.044599142
17	0xbe307596	-0.17232355
18	0xbeaeed7e	-0.34165567
19	0x3d5080b9	0.05090401
20	0xbdc06995	-0.09395138
21	0xbe92f37b	-0.28701386
22	0x3c03973c	0.008031663
23	0x3d8a6604	0.06757739
24	0x3e3c6774	0.18398839
25	0x3e42cf53	0.190244
26	0xbe04d08f	-0.12970184
27	0xbe87130c	-0.2638172
28	0xbe85a208	-0.26100183
29	0x3e3b2351	0.18275191
30	0x3d8edbd8	0.069755256
31	0x3d8bf0c4	0.06833032
32	0xbe798615	-0.24367554
33	0x3e3665ec	0.17812318
34	0x3e37c80a	0.17947403
35	0x3e2a7eff	0.16650008
36	0xbdedb712	-0.116071835
37	0xbdc92367	-0.098212056
38	0xbdc63112	-0.09677328
39	0xbc08ffdd	-0.008361784
40	0xbda48a8d	-0.08034239
41	0xbd9315bd	-0.071818806
42	0xbd426225	-0.04745688
43	0xbd534a86	-0.051584743
44	0xbd1f38e0	-0.0388726
45	0xbd2ff3c5	-0.042957086
46	0xbccecda7	-0.025244547
47	0xbdc3b742	-0.09556438
48	0x3db7e5d8	0.08979386
49	0x3c15ac51	0.009135322
50	0x3e142527	0.14467297
51	0x3e607a94	0.2192176
52	0x3e85eeaf	0.26158664
53	0x3e7fc7e8	0.24978602
54	0x3e4fc1c8	0.20288765
55	0x3e1f1b04	0.1553765
56	0x3d986ef9	0.07443041
57	0x3e77479a	0.24148408
58	0x3e377b42	0.17918113
59	0xbd6dd15a	-0.05806098
60	0x3e31347b	0.17305176
61	0x3cb27458	0.021783993
62	0x3e818af3	0.25301322
63	0x3dfad891	0.12248338
64	0xbd9330e3	-0.07187059
65	0x3da6506d	0.08120809
66	0x3e2b7a48	0.16745865
67	0x3d5cb00b	0.053878825
68	0x3ca39c1c	0.0199719
69	0xbd3bd1d7	-0.045854416
70	0xbd05235f	-0.032504436
71	0xbe164882	-0.14676097

model.qy_x.model.tcn_block_01.downsample.weight f4 [4, 2, 1]
0	0x3d5c4187	0.05377343
1	0xbea393dc	-0.31948745
2	0xbe0d84f1	-0.13820244
3	0x3eacd59f	0.3375673
4	0x3e48ccc6	0.19609365
5	0xbe4c75f3	-0.19966869
6	0x3e655374	0.22395116
7	0xbdd1d608	-0.10245901

model.qy_x.model.tcn_block_01.downsample.bias f4 [4]
0	0xbf2c8225	-0.67386085
1	0x3e14e462	0.14540246
2	0x3ec5a826	0.3860485
3	0xbe2e7e62	-0.17040399

model.qy_x.model.final_dense_02.weight f4 [4, 4, 1]
0	0xbe4d0ca4	-0.20024353
1	0x3ee11d78	0.43967795
2	0xbeee6d5f	-0.4656782
3	0xbeff80c8	-0.4990294
4	0x3e9c10bc	0.30481517
5	0xbf4456da	-0.76695025
6	0x3e4816e7	0.19539987
7	0x3e929a26	0.2863323
8	0xbeafc3c0	-0.34329033
9	0x3ea9f860	0.33197308
10	0xbe3a3ad3	-0.18186502
11	0x3e3ec32b	0.18629138
12	0x3f1b7221	0.6072102
13	0xbe596791	-0.21230914
14	0x3e76d763	0.24105601
15	0xbde7905c	-0.11306831

model.qy_x.model.final_dense_02.bias f4 [4]
0	0x3c8115e5	0.01575751
1	0xbe2bde73	-0.16784076
2	0x3dfa4b82	0.12221433
3	0xbe5f3418	-0.21797216

model.encoder.model.tcn_block_00.conv0.bias f4 [2]
0	0x3e16b9a9	0.14719261
1	0xbe654898	-0.22390974

model.encoder.model.tcn_block_00.conv0.weight_g f4 [2, 1, 1]
0	0x3f23c8c8	0.6397824
1	0x3f35ed08	0.71064806

model.encoder.model.tcn_block_00.conv0.weight_v f4 [2, 14, 9]
0	0xbcfbcfb7	-0.030738695
1	0xbce83709	-0.028346555
2	0x3c6171da	0.0137600545
3	0xbc29f157	-0.010372481
4	0x3c87c8bd	0.016575212
5	0xbb21e206	-0.002470137
6	0xbd030eb9	-0.031996462
7	0x3d7bf92b	0.061516922
8	0x3d55d5c0	0.0522058
9	0x3bfeb5fd	0.0077731595
10	0x3ae7efff	0.0017695426
11	0x3c93ffe5	0.018066356
12	0xbc8c9830	-0.017162412
13	0x3ce8a170	0.028397292
14	0xbccbeada	-0.02489226
15	0xbb943e45	-0.0045240247
16	0xba976478	-0.0011550328
17	0xbd6f2fa2	-0.058395036
18	0x3d685488	0.05672124
19	0x3dbfb87b	0.09361359
20	0x3cf5b555	0.029993692
21	0xbbfaab66	-0.007649827
22	0x3a9dc293	0.0012036137
23	0xbc516b9f	-0.0127820065
24	0xbd917ac3	-0.07103493
25	0xbd33f132	-0.043931194
26	0xbcb63a4d	-0.022244597
27	0xbd2a7c16	-0.041622244
28	0x3cdb4933	0.026768303
29	0xbc7ee2ec	-0.015557032
30	0x3d949dc1	0.07256652
31	0xbd72c4c8	-0.059269696
32	0x3d80a52a	0.062815025
33	0x3db4e283	0.08832266
34	0x3d2ac7d3	0.041694473
35	0x3c4c8c1c	0.012484577
36	0x3d5fe030	0.05465716
37	0xbd71016a	-0.05883924
38	0xbd0378b2	-0.032097526
39	0xbd820937	-0.06349414
40	0xbd1b3b5e	-0.037898414
41	0xbc37e590	-0.011224166
42	0xbc932da5	-0.017966101
43	0xbd239ce4	-0.039944544
44	0xbdcc6e91	-0.09982026
45	0xbbadc8b2	-0.0053034658
46	0x3b8ba588	0.004261676
47	0x3c9bd3ba	0.019021858
48	0x3d54d2e3	0.05195893
49	0x3d9d31be	0.07675503
50	0xbcc46ba7	-0.023977114
51	0x3ca2ec86	0.019888174
52	0x3ab9a38a	0.0014163118
53	0xbd2df0f1	-0.042466108
54	0xbcda7e0c	-0.026671432
55	0x3dd302ae	0.103032455
56	0x3d9d6414	0.07685104
57	0x3d91c2e3	0.0711725
58	0x3d8cbbdd	0.068717696
59	0xbd1a2e6e	-0.037641935
60	0x3d038671	0.032110635
61	0x3d9d7d80	0.07689953
62	0xbcc32ff0	-0.02382657
63	0x3dec97c3	0.11552384
64	0x3d8119b9	0.06303734
65	0x3da6d658	0.081463516
66	0x3ae7e985	0.0017693496
67	0x3d3c668f	0.045996245
68	0xbd3384e5	-0.04382791
69	0x3b9c45b6	0.0047690524
70	0x3c02eb5a	0.0079906825
71	0xba4de245	-0.0007853846
72	0x3c9f36bc	0.01943528
73	0x3d0fe5a1	0.0351311
74	0x3d0510f8	0.032486886
75	0x3c759124	0.0149882175
76	0x3ce03dc0	0.027373195
77	0xbc47c8e6	-0.012193894
78	0xbd1a7b3f	-0.037715193
79	0xbaaa294c	-0.0012982278
80	0x3cdb47ca	0.02676763
81	0xbd5ebaa8	-0.054377228
82	0x3cb58de5	0.022162387
83	0x3bd86406	0.0066037206
84	0xbc4d6921	-0.012537272
85	0xbbd84219	-0.0065996763
86	0x3d30dc86	0.043179058
87	0xba722562	-0.0009237138
88	0xbdc7bcbc	-0.09752795
89	0xbdb59c07	-0.088676505
90	0x3dbdf73e	0.09275673
91	0x3dbd00c2	0.0922866
92	0x3db50239	0.088383146
93	0x3baaad2e	0.005208633
94	0x3c97615a	0.018479038
95	0x3db67144	0.089083225
96	0x3db61867	0.08891373
97	0x3c3198b9	0.010839635
98	0x3dbd39b8	0.092395246
99	0x3cab42fd	0.020905966
100	0x3e281c51	0.16417052
101	0x3e165f3c	0.14684767
102	0x3e25ea0f	0.16202568
103	0xbb094921	-0.002094813
104	0x3b980a8c	0.004639929
105	0x3e140fce	0.14459154
106	0x3e12086b	0.14261024
107	0x3e0ca5d7	0.13735138
108	0x3e46e9ad	0.19425078
109	0x3c469d58	0.012122475
110	0x3e40b1d8	0.18817842
111	0xbba21c26	-0.004947203
112	0x3dfca841	0.123367794
113	0x3cc8a408	0.024492279
114	0x3d612a97	0.054972257
115	0x3dfa0a21	0.12208963
116	0x3d6a0f78	0.05714366
117	0xb8bb3974	-8.927556e-05
118	0xbd272e40	-0.04081559
119	0xbd2a2a79	-0.04154441
120	0x3995628e	0.00028492924
121	0xbb085294	-0.0020801174
122	0xbc7c8f22	-0.015414985
123	0xba5d1edc	-0.00084350794
124	0xbd04fc82	-0.032467373
125	0xbcfd849f	-0.030947028
126	0x3d369b6b	0.044581812
127	0x3d0ed464	0.03487052
128	0x3c92f77e	0.01794028
129	0xbb145120	-0.0022631362
130	0x3c31d7de	0.010854689
131	0xbac888a2	-0.0015299509
132	0xbcad7edb	-0.021178653
133	0xbbceaea6	-0.006307441
134	0x3c6b5d3e	0.014365492
135	0xbd3a9a31	-0.045557205
136	0xbd23817a	-0.0399184
137	0x3a560a73	0.0008165009
138	0x3c960966	0.018315028
139	0xbc0b026c	-0.008484464
140	0x3c92dbb3	0.017927026
141	0x3cfc540f	0.030801801
142	0x3cdaa1f1	0.026688548
143	0x3cde7c16	0.027158778
144	0xbbef9270	-0.007311158
145	0xbc85c74c	-0.016330384
146	0xbd0d79b4	-0.034539893
147	0xbc9897d4	-0.018627085
148	0xbb9d6ecc	-0.004804468
149	0x3c81abd9	0.015829014
150	0xbd0262ed	-0.031832624
151	0x3c50aaae	0.012736006
152	0xbbca5d23	-0.0061756535
153	0xbdab6e96	-0.08370702
154	0xbd63a07d	-0.055572975
155	0xbd94eaa0	-0.07271314
156	0xbd6ff000	-0.05857849
157	0xbd9c1c93	-0.076226376
158	0xbd9f7015	-0.0778505
159	0xbd914a2b	-0.070942245
160	0xbd906d24	-0.07052067
161	0xbd0d1ce3	-0.034451377
162	0x3dbf8c37	0.09352916
163	0x3de76b45	0.11299757
164	0x3dc23ecf	0.09484636
165	0x3d85dc0f	0.065361135
166	0x3dd18422	0.102302805
167	0x3da347ae	0.07972656
168	0x3da91b16	0.08257119
169	0x3d628771	0.05530495
170	0x3d8bd752	0.068281785
171	0xbbe59aaa	-0.007006963
172	0xbc3d8a6d	-0.011568648
173	0xbcec3c2d	-0.028837288
174	0xbca3b56a	-0.019983966
175	0xbd224ddb	-0.03962503
176	0xbd03d0d8	-0.03218159
177	0xbc43f978	-0.011961333
178	0xbd353e17	-0.044248667
179	0xbd3dc8af	-0.046333965
180	0xbdd71039	-0.10501141
181	0xbdcf2dba	-0.101161435
182	0xbda166d2	-0.078809395
183	0xbd971743	-0.07377484
184	0xbd525c7d	-0.051357735
185	0xbdbb0841	-0.09132434
186	0xbd8bd52d	-0.068277694
187	0xbd162456	-0.036655746
188	0xbc7e927d	-0.015537855
189	0xbd8d65ed	-0.069042064
190	0xbd967f6d	-0.07348523
191	0xbd35120e	-0.04420667
192	0xbcdbba4a	-0.026822228
193	0xbd5ad97d	-0.05343007
194	0xbd3bb755	-0.045829136
195	0xbc591532	-0.013249682
196	0xbcb92d62	-0.022604648
197	0xbd24bae2	-0.040217288
198	0x3d247720	0.04015267
199	0x3d77f740	0.06053853
200	0x3d097499	0.03355846
201	0x3d5751aa	0.052568115
202	0x3d47c61e	0.048772924
203	0x3cd93571	0.02651474
204	0x3c8b48ab	0.017002424
205	0x3bbe2344	0.005802544
206	0x3c03677e	0.00802028
207	0x3d6f0e3b	0.05836318
208	0x3c8dfefc	0.0173335
209	0x3d4705a2	0.048589356
210	0x3c823c4d	0.015897894
211	0x3d983d36	0.0743355
212	0x3cee732d	0.029107654
213	0x3d9cab05	0.07649807
214	0x3d4a614c	0.049409196
215	0x3cfeadd5	0.031088749
216	0xbd6d54e6	-0.057942294
217	0xbd680025	-0.056640763
218	0xbd5f1646	-0.0544646
219	0xbd6182f9	-0.055056546
220	0xbd6b9af3	-0.057520818
221	0xbd635c4b	-0.05550794
222	0xbd738138	-0.059449404
223	0xbd7af50c	-0.06126885
224	0xbd7113b6	-0.05885669
225	0xbda28fec	-0.07937607
226	0xbdfbbf2d	-0.12292323
227	0xbddbc209	-0.10730369
228	0xbd97290f	-0.07380878
229	0xbdc0325b	-0.093846045
230	0xbd94aa6b	-0.07259067
231	0xbdd74cab	-0.1051267
232	0xbddab140	-0.10678339
233	0xbd911acf	-0.070851915
234	0xbd457ea2	-0.04821647
235	0xbc95efa0	-0.018302739
236	0xbd891de8	-0.06695157
237	0xbd928e4e	-0.07156049
238	0xbd9201c6	-0.071292445
239	0xbda0db73	-0.078543566
240	0xbd6da33b	-0.058016997
241	0xbd21708d	-0.039413977
242	0xbd894854	-0.067032486
243	0xbc3f19b3	-0.011663842
244	0xbbbc5ab6	-0.0057481183
245	0xbbf2091f	-0.007386341
246	0x3c656ce7	0.014003015
247	0xbac560aa	-0.0015058715
248	0x3a251a22	0.00062981446
249	0x3ba920be	0.005161374
250	0x3c9e1fc6	0.01930226
251	0x3c389d27	0.011267937

model.encoder.model.tcn_block_00.conv1.bias f4 [2]
0	0xbdee4cf6	-0.11635773
1	0x3d8214de	0.06351636

model.encoder.model.tcn_block_00.conv1.weight_g f4 [2, 1, 1]
0	0x3f015898	0.5052581
1	0x3f2ea4f3	0.6822044

model.encoder.model.tcn_block_00.conv1.weight_v f4 [2, 2, 9]
0	0x3e090f8f	0.13384841
1	0x3c9a503f	0.018837092
2	0x3dff7541	0.12473536
3	0x3e382f08	0.17986691
4	0x3def00da	0.11670084
5	0xbb9a06cf	-0.0047005187
6	0xbba1244a	-0.004917656
7	0xbe09d7fe	-0.134613
8	0xbda837a6	-0.08213739
9	0x3da5c3f7	0.08094018
10	0xbda9a6d1	-0.08283771
11	0x3d9f3606	0.07773976
12	0xbd92121b	-0.071323596
13	0xbd07fe25	-0.033201355
14	0x3c7fa089	0.015602239
15	0xbe27af82	-0.16375545
16	0x3db9a1bc	0.090640515
17	0x3de3c6e0	0.11121917
18	0x3c755fd9	0.014976465
19	0xbbd219cd	-0.006411767
20	0x3e61fd13	0.22069196
21	0x3e58e5b3	0.21181373
22	0xbddb4308	-0.107061446
23	0x3e2494c2	0.16072372
24	0xbdfc4826	-0.12318449
25	0xbe0a5b3e	-0.13511369
26	0x3e0dd8e3	0.13852267
27	0xbda26271	-0.079289325
28	0xbe148640	-0.14504337
29	0xbe5633d9	-0.20918216
30	0xbe28dbe5	-0.16490133
31	0xbce693d3	-0.02814666
32	0xbe5cd58d	-0.21565838
33	0xbe665d31	-0.22496487
34	0xbdc9abb1	-0.09847201
35	0xbe4ba647	-0.19887649

model.encoder.model.tcn_block_00.block.conv1d_layer_0.bias f4 [2]
0	0x3e16b9a9	0.14719261
1	0xbe654898	-0.22390974

model.encoder.model.tcn_block_00.block.conv1d_layer_0.weight_g f4 [2, 1, 1]
0	0x3f23c8c8	0.6397824
1	0x3f35ed08	0.71064806

model.encoder.model.tcn_block_00.block.conv1d_layer_0.weight_v f4 [2, 14, 9]
0	0xbcfbcfb7	-0.030738695
1	0xbce83709	-0.028346555
2	0x3c6171da	0.0137600545
3	0xbc29f157	-0.010372481
4	0x3c87c8bd	0.016575212
5	0xbb21e206	-0.002470137
6	0xbd030eb9	-0.031996462
7	0x3d7bf92b	0.061516922
8	0x3d55d5c0	0.0522058
9	0x3bfeb5fd	0.0077731595
10	0x3ae7efff	0.0017695426
11	0x3c93ffe5	0.018066356
12	0xbc8c9830	-0.017162412
13	0x3ce8a170	0.028397292
14	0xbccbeada	-0.02489226
15	0xbb943e45	-0.0045240247
16	0xba976478	-0.0011550328
17	0xbd6f2fa2	-0.058395036
18	0x3d685488	0.05672124
19	0x3dbfb87b	0.09361359
20	0x3cf5b555	0.029993692
21	0xbbfaab66	-0.007649827
22	0x3a9dc293	0.0012036137
23	0xbc516b9f	-0.0127820065
24	0xbd917ac3	-0.07103493
25	0xbd33f132	-0.043931194
26	0xbcb63a4d	-0.022244597
27	0xbd2a7c16	-0.041622244
28	0x3cdb4933	0.026768303
29	0xbc7ee2ec	-0.015557032
30	0x3d949dc1	0.07256652
31	0xbd72c4c8	-0.059269696
32	0x3d80a52a	0.062815025
33	0x3db4e283	0.08832266
34	0x3d2ac7d3	0.041694473
35	0x3c4c8c1c	0.012484577
36	0x3d5fe030	0.05465716
37	0xbd71016a	-0.05883924
38	0xbd0378b2	-0.032097526
39	0xbd820937	-0.06349414
40	0xbd1b3b5e	-0.037898414
41	0xbc37e590	-0.011224166
42	0xbc932da5	-0.017966101
43	0xbd239ce4	-0.039944544
44	0xbdcc6e91	-0.09982026
45	0xbbadc8b2	-0.0053034658
46	0x3b8ba588	0.004261676
47	0x3c9bd3ba	0.019021858
48	0x3d54d2e3	0.05195893
49	0x3d9d31be	0.07675503
50	0xbcc46ba7	-0.023977114
51	0x3ca2ec86	0.019888174
52	0x3ab9a38a	0.0014163118
53	0xbd2df0f1	-0.042466108
54	0xbcda7e0c	-0.026671432
55	0x3dd302ae	0.103032455
56	0x3d9d6414	0.07685104
57	0x3d91c2e3	0.0711725
58	0x3d8cbbdd	0.068717696
59	0xbd1a2e6e	-0.037641935
60	0x3d038671	0.032110635
61	0x3d9d7d80	0.07689953
62	0xbcc32ff0	-0.02382657
63	0x3dec97c3	0.11552384
64	0x3d8119b9	0.06303734
65	0x3da6d658	0.081463516
66	0x3ae7e985	0.0017693496
67	0x3d3c668f	0.045996245
68	0xbd3384e5	-0.04382791
69	0x3b9c45b6	0.0047690524
70	0x3c02eb5a	0.0079906825
71	0xba4de245	-0.0007853846
72	0x3c9f36bc	0.01943528
73	0x3d0fe5a1	0.0351311
74	0x3d0510f8	0.032486886
75	0x3c759124	0.0149882175
76	0x3ce03dc0	0.027373195
77	0xbc47c8e6	-0.012193894
78	0xbd1a7b3f	-0.037715193
79	0xbaaa294c	-0.0012982278
80	0x3cdb47ca	0.02676763
81	0xbd5ebaa8	-0.054377228
82	0x3cb58de5	0.022162387
83	0x3bd86406	0.0066037206
84	0xbc4d6921	-0.012537272
85	0xbbd84219	-0.0065996763
86	0x3d30dc86	0.043179058
87	0xba722562	-0.0009237138
88	0xbdc7bcbc	-0.09752795
89	0xbdb59c07	-0.088676505
90	0x3dbdf73e	0.09275673
91	0x3dbd00c2	0.0922866
92	0x3db50239	0.088383146
93	0x3baaad2e	0.005208633
94	0x3c97615a	0.018479038
95	0x3db67144	0.089083225
96	0x3db61867	0.08891373
97	0x3c3198b9	0.010839635
98	0x3dbd39b8	0.092395246
99	0x3cab42fd	0.020905966
100	0x3e281c51	0.16417052
101	0x3e165f3c	0.14684767
102	0x3e25ea0f	0.16202568
103	0xbb094921	-0.002094813
104	0x3b980a8c	0.004639929
105	0x3e140fce	0.14459154
106	0x3e12086b	0.14261024
107	0x3e0ca5d7	0.13735138
108	0x3e46e9ad	0.19425078
109	0x3c469d58	0.012122475
110	0x3e40b1d8	0.18817842
111	0xbba21c26	-0.004947203
112	0x3dfca841	0.123367794
113	0x3cc8a408	0.024492279
114	0x3d612a97	0.054972257
115	0x3dfa0a21	0.12208963
116	0x3d6a0f78	0.05714366
117	0xb8bb3974	-8.927556e-05
118	0xbd272e40	-0.04081559
119	0xbd2a2a79	-0.04154441
120	0x3995628e	0.00028492924
121	0xbb085294	-0.0020801174
122	0xbc7c8f22	-0.015414985
123	0xba5d1edc	-0.00084350794
124	0xbd04fc82	-0.032467373
125	0xbcfd849f	-0.030947028
126	0x3d369b6b	0.044581812
127	0x3d0ed464	0.03487052
128	0x3c92f77e	0.01794028
129	0xbb145120	-0.0022631362
130	0x3c31d7de	0.010854689
131	0xbac888a2	-0.0015299509
132	0xbcad7edb	-0.021178653
133	0xbbceaea6	-0.006307441
134	0x3c6b5d3e	0.014365492
135	0xbd3a9a31	-0.045557205
136	0xbd23817a	-0.0399184
137	0x3a560a73	0.0008165009
138	0x3c960966	0.018315028
139	0xbc0b026c	-0.008484464
140	0x3c92dbb3	0.017927026
141	0x3cfc540f	0.030801801
142	0x3cdaa1f1	0.026688548
143	0x3cde7c16	0.027158778
144	0xbbef9270	-0.007311158
145	0xbc85c74c	-0.016330384
146	0xbd0d79b4	-0.034539893
147	0xbc9897d4	-0.018627085
148	0xbb9d6ecc	-0.004804468
149	0x3c81abd9	0.015829014
150	0xbd0262ed	-0.031832624
151	0x3c50aaae	0.012736006
152	0xbbca5d23	-0.0061756535
153	0xbdab6e96	-0.08370702
154	0xbd63a07d	-0.055572975
155	0xbd94eaa0	-0.07271314
156	0xbd6ff000	-0.05857849
157	0xbd9c1c93	-0.076226376
158	0xbd9f7015	-0.0778505
159	0xbd914a2b	-0.070942245
160	0xbd906d24	-0.07052067
161	0xbd0d1ce3	-0.034451377
162	0x3dbf8c37	0.09352916
163	0x3de76b45	0.11299757
164	0x3dc23ecf	0.09484636
165	0x3d85dc0f	0.065361135
166	0x3dd18422	0.102302805
167	0x3da347ae	0.07972656
168	0x3da91b16	0.08257119
169	0x3d628771	0.05530495
170	0x3d8bd752	0.068281785
171	0xbbe59aaa	-0.007006963
172	0xbc3d8a6d	-0.011568648
173	0xbcec3c2d	-0.028837288
174	0xbca3b56a	-0.019983966
175	0xbd224ddb	-0.03962503
176	0xbd03d0d8	-0.03218159
177	0xbc43f978	-0.011961333
178	0xbd353e17	-0.044248667
179	0xbd3dc8af	-0.046333965
180	0xbdd71039	-0.10501141
181	0xbdcf2dba	-0.101161435
182	0xbda166d2	-0.078809395
183	0xbd971743	-0.07377484
184	0xbd525c7d	-0.051357735
185	0xbdbb0841	-0.09132434
186	0xbd8bd52d	-0.068277694
187	0xbd162456	-0.036655746
188	0xbc7e927d	-0.015537855
189	0xbd8d65ed	-0.069042064
190	0xbd967f6d	-0.07348523
191	0xbd35120e	-0.04420667
192	0xbcdbba4a	-0.026822228
193	0xbd5ad97d	-0.05343007
194	0xbd3bb755	-0.045829136
195	0xbc591532	-0.013249682
196	0xbcb92d62	-0.022604648
197	0xbd24bae2	-0.040217288
198	0x3d247720	0.04015267
199	0x3d77f740	0.06053853
200	0x3d097499	0.03355846
201	0x3d5751aa	0.052568115
202	0x3d47c61e	0.048772924
203	0x3cd93571	0.02651474
204	0x3c8b48ab	0.017002424
205	0x3bbe2344	0.005802544
206	0x3c03677e	0.00802028
207	0x3d6f0e3b	0.05836318
208	0x3c8dfefc	0.0173335
209	0x3d4705a2	0.048589356
210	0x3c823c4d	0.015897894
211	0x3d983d36	0.0743355
212	0x3cee732d	0.029107654
213	0x3d9cab05	0.07649807
214	0x3d4a614c	0.049409196
215	0x3cfeadd5	0.031088749
216	0xbd6d54e6	-0.057942294
217	0xbd680025	-0.056640763
218	0xbd5f1646	-0.0544646
219	0xbd6182f9	-0.055056546
220	0xbd6b9af3	-0.057520818
221	0xbd635c4b	-0.05550794
222	0xbd738138	-0.059449404
223	0xbd7af50c	-0.06126885
224	0xbd7113b6	-0.05885669
225	0xbda28fec	-0.07937607
226	0xbdfbbf2d	-0.12292323
227	0xbddbc209	-0.10730369
228	0xbd97290f	-0.07380878
229	0xbdc0325b	-0.093846045
230	0xbd94aa6b	-0.07259067
231	0xbdd74cab	-0.1051267
232	0xbddab140	-0.10678339
233	0xbd911acf	-0.070851915
234	0xbd457ea2	-0.04821647
235	0xbc95efa0	-0.018302739
236	0xbd891de8	-0.06695157
237	0xbd928e4e	-0.07156049
238	0xbd9201c6	-0.071292445
239	0xbda0db73	-0.078543566
240	0xbd6da33b	-0.058016997
241	0xbd21708d	-0.039413977
242	0xbd894854	-0.067032486
243	0xbc3f19b3	-0.011663842
244	0xbbbc5ab6	-0.0057481183
245	0xbbf2091f	-0.007386341
246	0x3c656ce7	0.014003015
247	0xbac560aa	-0.0015058715
248	0x3a251a22	0.00062981446
249	0x3ba920be	0.005161374
250	0x3c9e1fc6	0.01930226
251	0x3c389d27	0.011267937

model.encoder.model.tcn_block_00.block.conv1d_layer_1.bias f4 [2]
0	0xbdee4cf6	-0.11635773
1	0x3d8214de	0.06351636

model.encoder.model.tcn_block_00.block.conv1d_layer_1.weight_g f4 [2, 1, 1]
0	0x3f015898	0.5052581
1	0x3f2ea4f3	0.6822044

model.encoder.model.tcn_block_00.block.conv1d_layer_1.weight_v f4 [2, 2, 9]
0	0x3e090f8f	0.13384841
1	0x3c9a503f	0.018837092
2	0x3dff7541	0.12473536
3	0x3e382f08	0.17986691
4	0x3def00da	0.11670084
5	0xbb9a06cf	-0.0047005187
6	0xbba1244a	-0.004917656
7	0xbe09d7fe	-0.134613
8	0xbda837a6	-0.08213739
9	0x3da5c3f7	0.08094018
10	0xbda9a6d1	-0.08283771
11	0x3d9f3606	0.07773976
12	0xbd92121b	-0.071323596
13	0xbd07fe25	-0.033201355
14	0x3c7fa089	0.015602239
15	0xbe27af82	-0.16375545
16	0x3db9a1bc	0.090640515
17	0x3de3c6e0	0.11121917
18	0x3c755fd9	0.014976465
19	0xbbd219cd	-0.006411767
20	0x3e61fd13	0.22069196
21	0x3e58e5b3	0.21181373
22	0xbddb4308	-0.107061446
23	0x3e2494c2	0.16072372
24	0xbdfc4826	-0.12318449
25	0xbe0a5b3e	-0.13511369
26	0x3e0dd8e3	0.13852267
27	0xbda26271	-0.079289325
28	0xbe148640	-0.14504337
29	0xbe5633d9	-0.20918216
30	0xbe28dbe5	-0.16490133
31	0xbce693d3	-0.02814666
32	0xbe5cd58d	-0.21565838
33	0xbe665d31	-0.22496487
34	0xbdc9abb1	-0.09847201
35	0xbe4ba647	-0.19887649

model.encoder.model.tcn_block_00.downsample.weight f4 [2, 14, 1]
0	0x3e8bafbc	0.27282512
1	0xbe7cee5d	-0.24700303
2	0xbe7fdefa	-0.24987403
3	0x3e1f46ac	0.15554303
4	0xbde9fce8	-0.11425191
5	0x3e5f1ebc	0.21789068
6	0xbc0bb801	-0.008527757
7	0xbea40449	-0.3203452
8	0x3ea1ae1f	0.31578156
9	0xbe3923d7	-0.18080078
10	0x3e5d133b	0.21589367
11	0xbe1be686	-0.15224656
12	0x3e303880	0.17209053
13	0xbd3f930c	-0.046771094
14	0xbe28322b	-0.16425388
15	0x3d48a10d	0.048981715
16	0x3e5db7e6	0.21652183
17	0x3e1c5dbc	0.15270132
18	0xbe3fd50d	-0.18733616
19	0x3d0eea92	0.034891672
20	0x3e7de578	0.24794567
21	0x3e8807a3	0.26568326
22	0xbe893d87	-0.26804754
23	0xbe1218e6	-0.1426731
24	0xbe115964	-0.14194256
25	0x3e8432ee	0.25820106
26	0x3e3d731e	0.18500945
27	0xbe11a3ae	-0.14222595

model.encoder.model.tcn_block_00.downsample.bias f4 [2]
0	0x3e950ac4	0.29109776
1	0xbcd3d5b6	-0.025858741

model.encoder.model.tcn_block_01.conv0.bias f4 [2]
0	0xbc37ceb8	-0.011218719
1	0x3dfb8f55	0.12283198

model.encoder.model.tcn_block_01.conv0.weight_g f4 [2, 1, 1]
0	0x3f358519	0.70906216
1	0x3f1c29a5	0.61001045

model.encoder.model.tcn_block_01.conv0.weight_v f4 [2, 2, 9]
0	0xbe23f8f4	-0.16012937
1	0xbe6a23d5	-0.22865231
2	0xbe2d7f22	-0.16943029
3	0xbe0f5ee6	-0.14001045
4	0xbe26d07b	-0.16290466
5	0xbe79580f	-0.24349998
6	0xbbf6e548	-0.0075346567
7	0xbd2765a9	-0.040868435
8	0xbe59e8c9	-0.21280207
9	0xbdf18af2	-0.1179408
10	0x3c4ccb38	0.012499623
11	0x3d884d12	0.06655325
12	0xbe28d285	-0.16486557
13	0xbd8d2e2a	-0.06893571
14	0xbd3ce924	-0.046120778
15	0xbd64728a	-0.055773295
16	0x3e073981	0.1320553
17	0x3c97fc81	0.01855302
18	0x3d1f95fa	0.03896139
19	0xbddf828a	-0.1091357
20	0xbdef5c6b	-0.11687549
21	0xbe4eb9ff	-0.2018814
22	0xbe099528	-0.13435805
23	0x3cb18b54	0.021672882
24	0x3d8be180	0.0683012
25	0xbc90be6c	-0.017668925
26	0x3e609356	0.21931204
27	0xbe2b70d8	-0.16742265
28	0x3dd5f22a	0.1044658
29	0x3e781f9c	0.24230808
30	0xbc822c3c	-0.015890233
31	0x3e824e98	0.25450587
32	0x3d5cc0e8	0.053894907
33	0xbddfa10e	-0.109193906
34	0xbd78a097	-0.060700025
35	0x3e3a0b96	0.18168482

model.encoder.model.tcn_block_01.conv1.bias f4 [2]
0	0x3dd780ad	0.1052259
1	0x3ba367af	0.0049867253

model.encoder.model.tcn_block_01.conv1.weight_g f4 [2, 1, 1]
0	0x3f3bba58	0.73331213
1	0x3f199412	0.5999156

model.encoder.model.tcn_block_01.conv1.weight_v f4 [2, 2, 9]
0	0x3d41d6b9	0.047323916
1	0xbdd928c4	-0.106034786
2	0xbe3a25c5	-0.1817847
3	0xbe0a0866	-0.13479766
4	0xbe7f4b8b	-0.24931161
5	0xbe906afc	-0.28206623
6	0xbe89b604	-0.2689668
7	0xbe8dbec1	-0.27684596
8	0xbe068a8c	-0.13138789
9	0x3e2a0b68	0.16605914
10	0x3ceeba0a	0.029141445
11	0xbdc81a0b	-0.09770592
12	0x3e26b4b2	0.16279867
13	0xbd8f1d31	-0.0698799
14	0xbc21a3a3	-0.009865674
15	0xbe240859	-0.1601881
16	0xbdff6809	-0.12471015
17	0x3d7679dd	0.06017481
18	0xbddbb950	-0.10728705
19	0xbc9bb5ed	-0.019007647
20	0x3df4856c	0.11939511
21	0xbd477265	-0.04869308
22	0xbd7089f1	-0.0587253
23	0xbdb00cbf	-0.08596181
24	0x3ba1b81c	0.0049352776
25	0xbe194728	-0.1496855
26	0xbdf58809	-0.11988837
27	0x3e13d984	0.14438444
28	0x3d4ee7e6	0.050514124
29	0x3df75fcc	0.12078819
30	0xbdc26460	-0.09491801
31	0x3e44b19b	0.19208376
32	0x3e33c2f4	0.17554837
33	0x3d7e4a7f	0.062082764
34	0xbdd46946	-0.10371642
35	0x3e38709e	0.1801171

model.encoder.model.tcn_block_01.block.conv1d_layer_0.bias f4 [2]
0	0xbc37ceb8	-0.011218719
1	0x3dfb8f55	0.12283198

model.encoder.model.tcn_block_01.block.conv1d_layer_0.weight_g f4 [2, 1, 1]
0	0x3f358519	0.70906216
1	0x3f1c29a5	0.61001045

model.encoder.model.tcn_block_01.block.conv1d_layer_0.weight_v f4 [2, 2, 9]
0	0xbe23f8f4	-0.16012937
1	0xbe6a23d5	-0.22865231
2	0xbe2d7f22	-0.16943029
3	0xbe0f5ee6	-0.14001045
4	0xbe26d07b	-0.16290466
5	0xbe79580f	-0.24349998
6	0xbbf6e548	-0.0075346567
7	0xbd2765a9	-0.040868435
8	0xbe59e8c9	-0.21280207
9	0xbdf18af2	-0.1179408
10	0x3c4ccb38	0.012499623
11	0x3d884d12	0.06655325
12	0xbe28d285	-0.16486557
13	0xbd8d2e2a	-0.06893571
14	0xbd3ce924	-0.046120778
15	0xbd64728a	-0.055773295
16	0x3e073981	0.1320553
17	0x3c97fc81	0.01855302
18	0x3d1f95fa	0.03896139
19	0xbddf828a	-0.1091357
20	0xbdef5c6b	-0.11687549
21	0xbe4eb9ff	-0.2018814
22	0xbe099528	-0.13435805
23	0x3cb18b54	0.021672882
24	0x3d8be180	0.0683012
25	0xbc90be6c	-0.017668925
26	0x3e609356	0.21931204
27	0xbe2b70d8	-0.16742265
28	0x3dd5f22a	0.1044658
29	0x3e781f9c	0.24230808
30	0xbc822c3c	-0.015890233
31	0x3e824e98	0.25450587
32	0x3d5cc0e8	0.053894907
33	0xbddfa10e	-0.109193906
34	0xbd78a097	-0.060700025
35	0x3e3a0b96	0.18168482

model.encoder.model.tcn_block_01.block.conv1d_layer_1.bias f4 [2]
0	0x3dd780ad	0.1052259
1	0x3ba367af	0.0049867253

model.encoder.model.tcn_block_01.block.conv1d_layer_1.weight_g f4 [2, 1, 1]
0	0x3f3bba58	0.73331213
1	0x3f199412	0.5999156

model.encoder.model.tcn_block_01.block.conv1d_layer_1.weight_v f4 [2, 2, 9]
0	0x3d41d6b9	0.047323916
1	0xbdd928c4	-0.106034786
2	0xbe3a25c5	-0.1817847
3	0xbe0a0866	-0.13479766
4	0xbe7f4b8b	-0.24931161
5	0xbe906afc	-0.28206623
6	0xbe89b604	-0.2689668
7	0xbe8dbec1	-0.27684596
8	0xbe068a8c	-0.13138789
9	0x3e2a0b68	0.16605914
10	0x3ceeba0a	0.029141445
11	0xbdc81a0b	-0.09770592
12	0x3e26b4b2	0.16279867
13	0xbd8f1d31	-0.0698799
14	0xbc21a3a3	-0.009865674
15	0xbe240859	-0.1601881
16	0xbdff6809	-0.12471015
17	0x3d7679dd	0.06017481
18	0xbddbb950	-0.10728705
19	0xbc9bb5ed	-0.019007647
20	0x3df4856c	0.11939511
21	0xbd477265	-0.04869308
22	0xbd7089f1	-0.0587253
23	0xbdb00cbf	-0.08596181
24	0x3ba1b81c	0.0049352776
25	0xbe194728	-0.1496855
26	0xbdf58809	-0.11988837
27	0x3e13d984	0.14438444
28	0x3d4ee7e6	0.050514124
29	0x3df75fcc	0.12078819
30	0xbdc26460	-0.09491801
31	0x3e44b19b	0.19208376
32	0x3e33c2f4	0.17554837
33	0x3d7e4a7f	0.062082764
34	0xbdd46946	-0.10371642
35	0x3e38709e	0.1801171

model.qz_xy_mean.dense(qz_xy_mean)_layer_03.weight f4 [2, 2]
0	0x3f43d02f	0.7648954
1	0x3ec74a1b	0.38923725
2	0xbe871a61	-0.26387313
3	0x3f483dbd	0.78219205

model.qz_xy_mean.dense(qz_xy_mean)_layer_03.bias f4 [2]
0	0xbf6e6e18	-0.9313674
1	0xbea68e53	-0.3253046

model.qz_xy_logvar.dense(qz_xy_logvar)_layer_03.weight f4 [2, 2]
0	0xbe30b75f	-0.1725745
1	0xbf638a95	-0.88883334
2	0x3b29c4f2	0.0025904742
3	0xbf0ff7e6	-0.5623764

model.qz_xy_logvar.dense(qz_xy_logvar)_layer_03.bias f4 [2]
0	0xbef0bf80	-0.47021103
1	0xbf492d67	-0.78584903

model.py_t_probs.dense(py_t_probs)_layer_00.weight f4 [4, 2]
0	0x3ec5ef04	0.38658917
1	0xbf3022d4	-0.68803144
2	0xbeb11166	-0.34583586
3	0x3f078a11	0.5294505
4	0x3f23b765	0.6395171
5	0x3d8a7d0e	0.067621335
6	0xbece0296	-0.40236348
7	0xbef761e8	-0.48316884

model.py_t_probs.dense(py_t_probs)_layer_00.bias f4 [4]
0	0x3e3dd5ca	0.18538585
1	0x3ee03d7c	0.4379691
2	0x3eed516e	0.46351188
3	0x3dd51610	0.10404599

model.pz_t_mean.dense(pz_t_mean)_layer_00.weight f4 [8, 2]
0	0x3f475a92	0.77872574
1	0xbdd56d8b	-0.10421284
2	0xbda70267	-0.08154755
3	0x3f2af9a1	0.66787153
4	0x3f4a23af	0.789607
5	0x3dacc74a	0.08436449
6	0x3e3a199f	0.18173836
7	0x3f4dcbef	0.803893
8	0x3f5eb9d0	0.8700228
9	0x3d6251bb	0.055253725
10	0x3cfd6035	0.030929664
11	0x3f476da3	0.7790167
12	0x3f3d8cdd	0.74043065
13	0x3cdbee9a	0.026847173
14	0x3c9938d7	0.018703861
15	0x3f2b173b	0.6683232

model.pz_t_mean.dense(pz_t_mean)_layer_00.bias f4 [8]
0	0x3db69f89	0.08917148
1	0xbe30f4fb	-0.17280953
2	0xbd5c12c9	-0.053728852
3	0x3e89950a	0.2687152
4	0x3e2ef455	0.17085393
5	0x3b733588	0.0037110765
6	0xbe31231a	-0.17298546
7	0xbd8950c9	-0.06704862

model.pz_t_logvar.dense(pz_t_logvar)_layer_00.weight f4 [2, 4]
0	0x3d2f6bd4	0.042827442
1	0xbe41c205	-0.18921669
2	0xbe93ba19	-0.2885292
3	0x3d25c394	0.04046972
4	0xbe7cd905	-0.24692161
5	0xbf2127b0	-0.62951183
6	0xbf288e99	-0.65842587
7	0xbee358a3	-0.44403562

model.pz_t_logvar.dense(pz_t_logvar)_layer_00.bias f4 [2]
0	0xbe46a336	-0.19398198
1	0x3d8c063e	0.06837128

model.decoder.dense(decoder)_layer_00.weight f4 [10, 2]
0	0x3ee149e4	0.44001687
1	0xbec4833a	-0.38381368
2	0xbe9f2af3	-0.31087455
3	0x3e181b1f	0.14854096
4	0xbe9b6dd6	-0.30357236
5	0x3e91ff29	0.28514984
6	0x3d68bcd2	0.056820698
7	0x3e3c3fb7	0.1838368
8	0xbeb21223	-0.34779462
9	0xbe4a545c	-0.19758743
10	0xbcab46a5	-0.02090771
11	0xbd651ac8	-0.055933744
12	0x3e88bde7	0.26707384
13	0x3d763ccf	0.060116585
14	0xbe794d42	-0.24345878
15	0x3eed3a3e	0.46333498
16	0x3e41bd2c	0.1891982
17	0xbf026452	-0.50934327
18	0xbef88885	-0.48541656
19	0xbcf290db	-0.029610088

model.decoder.dense(decoder)_layer_00.bias f4 [10]
0	0xbde31209	-0.11087424
1	0x3e17a3ed	0.14808626
2	0x3d4b0690	0.049566805
3	0x3e9d25a1	0.3069277
4	0xbcb1de5e	-0.021712478
5	0x3ba238e4	0.0049506295
6	0xbd98a5f0	-0.07453525
7	0x3e8c65c3	0.27421388
8	0x3ec5b572	0.38614994
9	0x3e5bb9aa	0.21457544

inference.model.qy_x.model.tcn_block_00.conv0.bias f4 [2]
0	0xbccb3f21	-0.024810376
1	0x3e4a4855	0.19754155

inference.model.qy_x.model.tcn_block_00.conv0.weight_g f4 [2, 1, 1]
0	0x3f3c2d73	0.7350685
1	0x3f71a5d7	0.94393677

inference.model.qy_x.model.tcn_block_00.conv0.weight_v f4 [2, 10, 9]
0	0xbd79911e	-0.06092941
1	0xbd0ea4f4	-0.03482528
2	0xbdc9653b	-0.09833761
3	0xbdd9a326	-0.10626821
4	0xbdee6155	-0.11639658
5	0xbdbe085a	-0.09278937
6	0xbdec7029	-0.1154483
7	0xbd5a2fd0	-0.053268254
8	0xbde54a98	-0.11195868
9	0x3d9a4f72	0.07534684
10	0x3d63eb11	0.0556441
11	0x3d9223db	0.07135745
12	0x3cb64a51	0.022252234
13	0x3d6081ed	0.054811407
14	0x3da18002	0.07885744
15	0x3dda2c80	0.10653019
16	0x3dede738	0.11616367
17	0x3debbb63	0.115103506
18	0x3c407576	0.011746755
19	0x3d1f579c	0.03890191
20	0x3db9d871	0.09074486
21	0x3de5edb9	0.112269826
22	0x3db45c4e	0.08806668
23	0x3e09b592	0.1344817
24	0x3de207ac	0.110366195
25	0x3e03f7f1	0.12887551
26	0x3e10c9d5	0.14139493
27	0xbde95efe	-0.113950714
28	0xbdc306d0	-0.09522784
29	0xbd993895	-0.07481495
30	0xbd9030f2	-0.070405856
31	0xbba3db30	-0.0050004944
32	0xbd7cab3c	-0.06168674
33	0xbd34f0cf	-0.044174965
34	0xbd36b339	-0.044604514
35	0xbd4abb0c	-0.049494788
36	0x3ccc5aa9	0.024945574
37	0x3da7c11f	0.08191132
38	0x3d4d2936	0.05008813
39	0x3d24ebd9	0.040263984
40	0x3bdb8f2e	0.006700418
41	0xbcf17aeb	-0.029477557
42	0xbc5a5785	-0.01332653
43	0xbd917426	-0.07102232
44	0xbd97a436	-0.074043676
45	0xbdb9d132	-0.09073104
46	0xbd36742e	-0.04454439
47	0xbd611261	-0.054949168
48	0xbdee6da0	-0.11642003
49	0xbdd0b62e	-0.10190998
50	0xbd6a228d	-0.057161856
51	0xbcd19b1e	-0.025586661
52	0xbd83dfca	-0.06439169
53	0xbd912e6c	-0.070889324
54	0x3ccfc4f6	0.025362473
55	0xbcd79bd8	-0.02631943
56	0x3cee68dd	0.029102737
57	0xbc87e823	-0.016590184
58	0x3bae01f0	0.0053102896
59	0x3d0bc376	0.034121953
60	0x3dd08a8d	0.101826765
61	0x3dea6950	0.11445868
62	0x3d766a52	0.06015999
63	0x3d617754	0.05504544
64	0x3d9e8fbb	0.07742258
65	0x3d688ff9	0.056777928
66	0x3d9e0795	0.0771629
67	0x3dcba413	0.09943404
68	0x3e002b10	0.12516427
69	0x3e143053	0.14471559
70	0x3d6b0d41	0.057385687
71	0x3dd05343	0.10172131
72	0xbcc63cba	-0.024198879
73	0xba8c3b3a	-0.0010698803
74	0xbbcc8cef	-0.0062423865
75	0xbc668779	-0.014070385
76	0xbd9b9161	-0.07596088
77	0xbe01356d	-0.12618037
78	0xbddc29cc	-0.107501596
79	0xbe18c3fe	-0.14918515
80	0xbe1fbd8c	-0.1559965
81	0x3dffba37	0.124866895
82	0x3deac3f0	0.11463153
83	0x3c9f71d2	0.019463453
84	0x3da2843e	0.079353794
85	0x3d6100f7	0.05493256
86	0x3d390017	0.0451661
87	0x3cb328f4	0.021870114
88	0x3d49ead0	0.0492962
89	0xbb2293d8	-0.002480736
90	0x3d317bc2	0.043330915
91	0x3d573104	0.05253698
92	0x3d7e62a6	0.062105797
93	0x3d96a93e	0.07356499
94	0x3db18f23	0.08669879
95	0x3dd620e2	0.10455491
96	0x3e01501f	0.1262822
97	0x3e173aec	0.1476857
98	0x3e27805b	0.16357557
99	0xbd5add21	-0.05343354
100	0xbd788c27	-0.060680535
101	0xbd8d779d	-0.0690758
102	0xbda23990	-0.079211354
103	0xbdbf9ecc	-0.0935646
104	0xbde25238	-0.11050838
105	0xbe033021	-0.12811328
106	0xbe13ab4f	-0.14420818
107	0xbe2313f7	-0.15925585
108	0xbd09eb1c	-0.033671483
109	0xbd359f16	-0.04434117
110	0xbd63633b	-0.055514555
111	0xbd87d309	-0.06632049
112	0xbd9e941e	-0.07743095
113	0xbdbebe4a	-0.093136385
114	0xbde86434	-0.11347237
115	0xbe0bd834	-0.13656694
116	0xbe24c2cb	-0.16089933
117	0x3d894625	0.06702832
118	0x3d83d47e	0.06437014
119	0x3d83ec89	0.064416
120	0x3d89340a	0.06699379
121	0x3d92bc4d	0.07164822
122	0x3d9a4fd1	0.07534755
123	0x3daa6fc6	0.083221
124	0x3d9b5351	0.07584251
125	0x3da53809	0.080673285
126	0xbd9a4823	-0.0753329
127	0xbd8bc3d0	-0.06824458
128	0xbd7b3399	-0.061328504
129	0xbd6db10e	-0.05803018
130	0xbd4fa92d	-0.050698448
131	0xbd2bce6c	-0.041944906
132	0xbd2da3d5	-0.04239257
133	0xbcfbf7a2	-0.030757729
134	0xbc4e33be	-0.0125855785
135	0x3d88c150	0.066774964
136	0x3d9384ae	0.07203041
137	0x3da02210	0.07818997
138	0x3db0907e	0.0862131
139	0x3dc44405	0.09583286
140	0x3dd7cf7b	0.10537621
141	0x3decc234	0.11560479
142	0x3e0335d8	0.12813509
143	0x3e150c67	0.14555512
144	0x3cf562db	0.029954365
145	0x3cd0fc85	0.025511036
146	0x3cca760a	0.024714489
147	0x3c0bf747	0.008542842
148	0xbbf3a606	-0.007435563
149	0xbcb399bb	-0.02192389
150	0xbd185061	-0.03718603
151	0xbd5651b9	-0.05232403
152	0xbd8d4454	-0.06897798
153	0xbb9fae24	-0.004873054
154	0xbc931fc6	-0.017959487
155	0xbd17f419	-0.037098024
156	0xbd350c3f	-0.044201132
157	0xbd7475a0	-0.05968249
158	0xbd9b5f5c	-0.07586548
159	0xbdc65d30	-0.09685743
160	0xbdf97801	-0.12181092
161	0xbe190aa5	-0.14945467
162	0x3c5572a0	0.013027817
163	0x3cd303b3	0.0257586
164	0x3d1ecd53	0.03877003
165	0x3d54326b	0.051805895
166	0x3d88700a	0.06661995
167	0x3dacc596	0.08436124
168	0x3dd6f361	0.104956396
169	0x3e058839	0.13040246
170	0x3e20ef18	0.15716207
171	0xbd91e1d5	-0.07123152
172	0xbd941caf	-0.072320335
173	0xbd901579	-0.070353456
174	0xbd937b84	-0.07201293
175	0xbda1edd7	-0.079066925
176	0xbdaee16a	-0.08539088
177	0xbdbe9271	-0.09305275
178	0xbdc1c145	-0.09460691
179	0xbddc0370	-0.10742843

inference.model.qy_x.model.tcn_block_00.conv1.bias f4 [2]
0	0x3e931af5	0.28731504
1	0x3df9d8a9	0.12199528

inference.model.qy_x.model.tcn_block_00.conv1.weight_g f4 [2, 1, 1]
0	0x3f31f52f	0.69514745
1	0x3f57bdb7	0.84273857

inference.model.qy_x.model.tcn_block_00.conv1.weight_v f4 [2, 2, 9]
0	0x3e684683	0.22683148
1	0x3e385e77	0.18004785
2	0x3e757848	0.23971665
3	0x3e6acca5	0.22929628
4	0x3dc4f33a	0.09616704
5	0x3db4ba66	0.08824615
6	0xbd7f6dda	-0.062360622
7	0x3e2181f4	0.1577223
8	0x3e279d53	0.16368608
9	0x3cfaf04f	0.030632166
10	0xbda74ff0	-0.08169544
11	0xbd79cef8	-0.060988396
12	0xbdaef3a3	-0.08542564
13	0xbd8da0e3	-0.06915452
14	0xbd987943	-0.07445004
15	0xbd656bfa	-0.056011178
16	0xbdac3934	-0.08409348
17	0xbd8d8eee	-0.06912027
18	0x3c07b483	0.008282783
19	0x3a183218	0.00058058044
20	0xbc890520	-0.016726077
21	0xbc84d20c	-0.01621344
22	0xbc7cd719	-0.015432143
23	0xbc800c48	-0.015630856
24	0xbcc2e908	-0.023792759
25	0xbce096e4	-0.0274157
26	0xbd1fe07b	-0.03903244
27	0x3dc62b0d	0.0967618
28	0x3dd62389	0.104559965
29	0x3de0fefe	0.10986136
30	0x3de8bba8	0.113639176
31	0x3dfa0cea	0.122094944
32	0x3e0b3a45	0.13596447
33	0x3e1ce4f7	0.15321718
34	0x3ddb2e5a	0.107022
35	0x3e1a6b5f	0.15080021

inference.model.qy_x.model.tcn_block_00.block.conv1d_layer_0.bias f4 [2]
0	0xbccb3f21	-0.024810376
1	0x3e4a4855	0.19754155

inference.model.qy_x.model.tcn_block_00.block.conv1d_layer_0.weight_g f4 [2, 1, 1]
0	0x3f3c2d73	0.7350685
1	0x3f71a5d7	0.94393677
