results_gmdgm/multi-1/dtcn/test_reparam/version_0/best_val_model.pt (torch, 468263 bytes, 276 tensors)

model.qy_x.model.tcn_block_00.conv0.bias f4 [32]
0	0x3d822343	0.06354382
1	0x3da76cff	0.08175086
2	0xbc4a9450	-0.012364462
3	0x3d118b46	0.035533212
4	0x3c7c40b2	0.015396284
5	0xbd901864	-0.07035902
6	0xbd87c7d3	-0.0662991
7	0x3d15061c	0.03638278
8	0xbd8e7180	-0.06955242
9	0xbbdc6bfd	-0.0067267404
10	0x3c2bd01d	0.01048663
11	0x3d00002b	0.03125016
12	0x3d8c7d80	0.06859875
13	0x3ce0c9fa	0.02744006
14	0xbdafaa5a	-0.08577414
15	0x3d14b03d	0.036300886
16	0x3c5e747a	0.013577575
17	0x3aae7ab0	0.001331171
18	0xbd053115	-0.03251751
19	0x3d62b0d4	0.055344418
20	0xbd80b9dc	-0.0628545
21	0x3d488320	0.048953176
22	0x3d3fa873	0.046791505
23	0x3cd9ae7e	0.026572462
24	0x3d01d3c2	0.03169609
25	0x3d9a24c7	0.07526546
26	0xbc85212d	-0.016251171
27	0xbd9cf4d0	-0.07663882
28	0xbd26ee9c	-0.0407549
29	0x3d60eb30	0.054911792
30	0xbcb4dc67	-0.022077752
31	0xbc1fbf8e	-0.00975026

model.qy_x.model.tcn_block_00.conv0.weight_g f4 [32, 1, 1]
0	0x3f165a12	0.58731186
1	0x3f174177	0.59084266
2	0x3f175c27	0.5912499
3	0x3f1cb267	0.6120972
4	0x3f1d4c35	0.6144441
5	0x3f17b24a	0.5925642
6	0x3f2351a7	0.63796467
7	0x3f183473	0.5945503
8	0x3f23a5ac	0.6392467
9	0x3f28160c	0.6565864
10	0x3f18934e	0.5959977
11	0x3f168146	0.58791006
12	0x3f17979c	0.5921571
13	0x3f18014b	0.5937697
14	0x3f17c8c5	0.59290725
15	0x3f11d814	0.56970334
16	0x3f1d2ffd	0.6140135
17	0x3f1b4c6f	0.60663503
18	0x3f19f5ea	0.6014086
19	0x3f0ab588	0.54183245
20	0x3f161a1d	0.58633596
21	0x3f1a0110	0.6015787
22	0x3f1aef25	0.60521156
23	0x3f19d925	0.6009696
24	0x3f18a2ad	0.59623224
25	0x3f161c74	0.58637166
26	0x3f19273e	0.59825504
27	0x3f1b6d28	0.60713434
28	0x3f1ff848	0.6248822
29	0x3f16a918	0.58851767
30	0x3f19d4d0	0.6009035
31	0x3f1c7ff7	0.6113276

model.qy_x.model.tcn_block_00.conv0.weight_v f4 [32, 16, 9]
0	0x3c7780ef	0.015106424
1	0x3d457c6f	0.048214372
2	0xbd94a856	-0.0725867
3	0xbd97c144	-0.07409909
4	0xbd5451e1	-0.0518359
5	0xba0b0baf	-0.000530417
6	0xbccdc991	-0.025120528
7	0x3d32fe08	0.043699294
8	0xbcf082d0	-0.029359251
9	0x3d6c08a4	0.057625428
10	0x3aa1ab7f	0.0012334435
11	0xbb46aa2e	-0.0030313837
12	0xbd9b87c4	-0.075942546
13	0xbd799b52	-0.06093914
14	0xbd3bded5	-0.045866806
15	0xbc449fee	-0.012001021
16	0x3c850540	0.016237855
17	0x3d06bec7	0.032896783
18	0xbd8a0031	-0.06738318
19	0xbd370a7c	-0.044687733
20	0x3cad6130	0.021164507
21	0x3d6e27e1	0.0581435
22	0xbcee95f0	-0.02912423
23	0x3d4bc3b2	0.049747176
24	0xbcc25de0	-0.023726404
25	0xbad6f9f4	-0.0016401396
26	0x3d7bc32b	0.061465424
27	0xbda1fafe	-0.07909201
28	0xbd565778	-0.05232951
29	0xbcb68752	-0.022281323
30	0xbd10b6e2	-0.03533066
31	0x3d85bbdf	0.06529974
32	0xbd73a862	-0.059486754
33	0xbd38f59e	-0.045156114
34	0xbd8b2773	-0.06794634
35	0xbdbd84f0	-0.092538714
36	0xbd8b9d69	-0.06817133
37	0x3d5a747c	0.053333744
38	0x3cc5ad28	0.024130419
39	0x3d015945	0.031579275
40	0x39c7453e	0.00038007827
41	0xbd318688	-0.04334119
42	0x3c353672	0.011060344
43	0xbda17b37	-0.078848295
44	0xbd83568a	-0.064129904
45	0xbd470e11	-0.0485974
46	0x3d45176a	0.048118033
47	0x3d431d5f	0.047635432
48	0xbd0747c8	-0.03302744
49	0x3b0691ef	0.002053376
50	0x3d686119	0.056733225
51	0x3da7ed9b	0.081996165
52	0x3ceb8eee	0.028754678
53	0x3b97fd0f	0.004638321
54	0x3d6f2f76	0.05839487
55	0xbd357037	-0.04429647
56	0x3cafbb03	0.021451479
57	0xbd6d1179	-0.05787799
58	0xbd5a4ae3	-0.053294074
59	0xbd2a8c01	-0.041637424
60	0x3d19f9ae	0.03759163
61	0x3d1c547f	0.03816652
62	0xbd1045a3	-0.03522266
63	0x3c3640f8	0.011123888
64	0x3ceaf2a4	0.028680153
65	0xbcf30d05	-0.029669294
66	0xbca93557	-0.020655317
67	0xbc042c4e	-0.008067204
68	0x3cb74650	0.022372395
69	0x3d577aec	0.05260746
70	0xbda877bc	-0.082259625
71	0xbd38050f	-0.0449267
72	0x3d3e1410	0.04640585
73	0x3d91fe2b	0.07128557
74	0x3d84073c	0.06446692
75	0x3d684067	0.056702044
76	0xbbd5a9b9	-0.0065204767
77	0xbdcd5969	-0.10026819
78	0xbcbae140	-0.022812486
79	0xbdae26d9	-0.08503503
80	0xbde57291	-0.112034924
81	0x3db6de15	0.089290775
82	0x3d8fb0e3	0.0701616
83	0xbda96708	-0.08271605
84	0x3bbbfee1	0.005737171
85	0xbcf59729	-0.029979305
86	0xbd0b2518	-0.033970922
87	0xbd7c0d8a	-0.06153635
88	0x3be30cd4	0.0069290195
89	0xbd9b2f9f	-0.075774424
90	0x3d0ab50c	0.033864066
91	0x3d34babd	0.0441234
92	0x3d826d07	0.063684516
93	0x3d1def16	0.03855809
94	0xbd91fbe5	-0.07128123
95	0xbd27d83c	-0.0409777
96	0x3d62b14c	0.055344865
97	0x3d0ac530	0.03387946
98	0xbd39f83a	-0.045402743
99	0xbd197c53	-0.03747208
100	0x3db42b6d	0.08797345
101	0x3d8fcfa6	0.07022028
102	0xbc869c74	-0.016432025
103	0x3b66e66a	0.0035232552
104	0xbd53886d	-0.051643778
105	0x3ce77bd2	0.028257284
106	0xbcfe75e6	-0.031062078
107	0xbcfb0f94	-0.030647077
108	0xbcbcdecb	-0.023055455
109	0xbbd26509	-0.0064207357
110	0xbd5799df	-0.052636977
111	0x3cee2a74	0.029072978
112	0xbd8a37df	-0.06748938
113	0x3d7e811e	0.062134854
114	0x3d4bb577	0.049733605
115	0xbd8e3a0c	-0.06944665
116	0xbca40447	-0.02002157
117	0xbb50bd1c	-0.0031851
118	0x3b5d181b	0.0033736292
119	0x3c1b1432	0.009465264
120	0x3caf82e0	0.02142471
121	0xbb3028f7	-0.0026879886
122	0xbd326da2	-0.043561585
123	0x3d2873a6	0.041125916
124	0xbd8c798a	-0.06859119
125	0xbd1b7b9d	-0.037959684
126	0xbc77262d	-0.015084785
127	0xbd0c16e8	-0.034201533
128	0xbcc13645	-0.023585448
129	0xbd83ed4e	-0.06441747
130	0xbca1b212	-0.01973823
131	0x3c1f0fa3	0.009708318
132	0xbd852753	-0.06501641
133	0xbc80029a	-0.01562624
134	0x3d543691	0.05180985
135	0x3c99c6c1	0.018771531
136	0x3d0593ba	0.032611586
137	0x3cc594a0	0.024118721
138	0x3d3d8962	0.046273597
139	0x3d9967b2	0.074904814
140	0x3dbbf4a2	0.091775194
141	0x3d7622ef	0.06009191
142	0x3da7e381	0.0819769
143	0x3c18530c	0.009297144
144	0xbda7c55f	-0.081919424
145	0xbd51f150	-0.051255524
146	0x3d241ea5	0.040068287
147	0xbc5fbb4b	-0.013655494
148	0xbd4e88d1	-0.050423447
149	0xbd8dc9f4	-0.06923285
150	0xbd9f6752	-0.07783379
151	0xbd8a8133	-0.06762924
152	0xbc8153ac	-0.015786968
153	0x3cf32ecd	0.029685402
154	0x3cdcec32	0.026968095
155	0xbdb9e6d5	-0.09077231
156	0x3d01a161	0.031648044
157	0xbd9c914d	-0.076449014
158	0xbd000f42	-0.03126455
159	0xbd30871b	-0.043097597
160	0xbcc596ad	-0.0241197
161	0xbcb4a5d5	-0.022051731
162	0xbda3ee55	-0.080044426
163	0xbd9f823c	-0.07788512
164	0xbcb996c4	-0.022654898
165	0xbc2c3e8c	-0.010512959
166	0xbd4c3149	-0.04985169
167	0x3c840725	0.016116688
168	0xbdb3f9ef	-0.087879054
169	0xbcc5d63b	-0.024150005
170	0x3d50e6ab	0.051001232
171	0xbc7323d2	-0.014840083
172	0x3db0567c	0.086102456
173	0x3d3254b1	0.0435378
174	0xbd5de064	-0.054169074
175	0x3d7ead40	0.062176943
176	0x3b206b2d	0.0024477944
177	0xbcc945fb	-0.024569502
178	0x3d8f41a4	0.06994942
179	0xbd67ebfc	-0.056621537
180	0xbcce8bc1	-0.025213124
181	0xbd4b21ce	-0.049592786
182	0x3cf31a6d	0.029675687
183	0xbb8c2f23	-0.00427808
184	0x3c562028	0.01306919
185	0x3b607b50	0.0034253187
186	0xbd367de9	-0.04455367
187	0xbd2e6ab9	-0.042582247
188	0xbdc21d8b	-0.09478291
189	0x3c5e40a0	0.0135652125
190	0x3d1562f3	0.03647132
191	0x3cec479b	0.028842738
192	0xbdaa9ece	-0.08331071
193	0xbcadccbe	-0.021215793
194	0xbda7342c	-0.08164248
195	0xbd8dd7a8	-0.06925899
196	0xbd96d367	-0.073645405
197	0xba825bfa	-0.0009945624
198	0xbd077778	-0.03307292
199	0x3c45f7bd	0.012082991
200	0x3c85263e	0.016253587
201	0x3d7cf7ce	0.061759762
202	0xbd482eed	-0.048872877
203	0xbd2dfa13	-0.042474817
204	0xbd0f0070	-0.034912527
205	0x3d877f0d	0.0661603
206	0xbc9598a9	-0.01826127
207	0x3d74d604	0.059774414
208	0x3c96c44d	0.01840415
209	0xbb1d4045	-0.0023994606
210	0xbc679129	-0.01413373
211	0xbcebb805	-0.02877427
212	0xbb485bc9	-0.0030572286
213	0xbd02fc70	-0.031979024
214	0xbc7a6fb8	-0.015285425
215	0xbba5de0d	-0.005061871
216	0xbd8bea0c	-0.0683175
217	0xbd4c9c33	-0.04995365
218	0x3d583f67	0.05279484
219	0xbd964f05	-0.073392905
220	0xbc6a3bb0	-0.014296457
221	0x3d909b9b	0.070609294
222	0x3ccbe5ea	0.024889905
223	0x3af75667	0.0018870354
224	0xbd86c3d4	-0.0658032
225	0x3d3aee82	0.045637615
226	0xbd4da1b1	-0.05020303
227	0xbc865a1f	-0.016400395
228	0xbca01523	-0.019541329
229	0xbb204f3b	-0.0024461288
230	0x3c56283f	0.013071119
231	0x3da6ac65	0.081383504
232	0x3cf655e0	0.030070245
233	0x3dc0f4e0	0.09421706
234	0x3cf58b7a	0.029973734
235	0xbd860ca1	-0.065453775
236	0x3c9ba81e	0.019001063
237	0xbd8dca41	-0.069233425
238	0xbd3e42e7	-0.04645052
239	0x3c089c2f	0.008338018
240	0x3c30e970	0.010797843
241	0x3d3025f0	0.04300493
242	0xbd218dc8	-0.039441854
243	0x3ce7608b	0.028244277
244	0x3d92a3ce	0.071601495
245	0xbd452586	-0.04813149
246	0x3dbee087	0.09320169
247	0xbd0918ff	-0.033471104
248	0x3d111dc6	0.035428785
249	0x3ca76e5e	0.02043837
250	0xbc0e93dd	-0.008702246
251	0x3d3e2483	0.04642154
252	0x3d8c1e4d	0.06841717
253	0xbcab855a	-0.02093761
254	0xbd3887f9	-0.04505155
255	0xbcdbd653	-0.026835596

model.qy_x.model.tcn_block_00.conv1.bias f4 [32]
0	0xbc191eb1	-0.009345696
1	0xbda0346d	-0.078224994
2	0xbd102551	-0.035191838
3	0x3cfcbf3c	0.030852906
4	0x3cfcbd95	0.030852119
5	0x3d8fe8e7	0.070268445
6	0x3c602d77	0.013682715
7	0x3d822ba6	0.063559815
8	0x3c9e2f28	0.019309595
9	0x3d20b037	0.03923055
10	0x3c50c019	0.012741112
11	0xbc9e205f	-0.019302545
12	0xbd88ebc6	-0.06685595
13	0x3d37a7be	0.044837706
14	0x3c0943d8	0.008377992
15	0xbd155b27	-0.036463883
16	0xbbaa213e	-0.005191951
17	0xbd5565cd	-0.052099038
18	0xbbada1a8	-0.005298812
19	0xbca435b8	-0.020045146
20	0x3baa6522	0.0052000443
21	0xbcffdf82	-0.031234507
22	0x3d143d1f	0.036191102
23	0x3c8472d6	0.01616804
24	0x3d0d10e6	0.034439944
25	0x3c6e0f23	0.014529976
26	0xbd042990	-0.0322662
27	0xbccc0b98	-0.024907872
28	0x3d592972	0.05301804
29	0x3c5fbb8f	0.013655557
30	0x3d497a6d	0.04918902
31	0xbd530262	-0.051515944

model.qy_x.model.tcn_block_00.conv1.weight_g f4 [32, 1, 1]
0	0x3f19ec91	0.60126597
1	0x3f1ed4f3	0.62043685
2	0x3f21dff4	0.6323235
3	0x3f18181c	0.5941179
4	0x3f153302	0.58280957
5	0x3f2370d8	0.6384406
6	0x3f2240b3	0.63379973
7	0x3f1776e6	0.591658
8	0x3f142333	0.5786621
9	0x3f1f4ea5	0.6222938
10	0x3f1aebfe	0.60516346
11	0x3f1aec90	0.60517216
12	0x3f1cc8c4	0.61243844
13	0x3f195519	0.59895474
14	0x3f1f9ab8	0.6234546
15	0x3f19ccb6	0.6007799
16	0x3f14456d	0.57918435
17	0x3f2257ae	0.6341504
18	0x3f23a8bc	0.63929343
19	0x3f1a49a7	0.60268635
20	0x3f1c86bf	0.61143106
21	0x3f226708	0.63438463
22	0x3f0f33b5	0.55938274
23	0x3f18b385	0.59648925
24	0x3f177677	0.5916514
25	0x3f279e0e	0.6547555
26	0x3f20306a	0.62573874
27	0x3f2241b9	0.63381535
28	0x3f1bb5f6	0.60824525
29	0x3f1b1192	0.60573685
30	0x3f181334	0.594043
31	0x3f225655	0.6341298

model.qy_x.model.tcn_block_00.conv1.weight_v f4 [32, 32, 9]
0	0x3d4d0558	0.050053924
1	0x3d1ef3da	0.038806774
2	0x3d79fbfd	0.06103133
3	0x3d112566	0.035436057
4	0x3d1471be	0.036241286
5	0x3c895107	0.01676227
6	0x3c8f93df	0.017526565
7	0xbbee882e	-0.0072794175
8	0x3d4de61d	0.05026828
9	0x3d7ae150	0.06125003
10	0x3d136615	0.035986025
11	0x3cb0e739	0.02159463
12	0x3bc37755	0.005965153
13	0xbcdc710e	-0.026909377
14	0x3ca7df84	0.020492323
15	0xbbf75aae	-0.0075486517
16	0xbc10acb6	-0.00883024
17	0x3ca6b18e	0.020348337
18	0x3c4702af	0.012146636
19	0x3d0b3462	0.033985503
20	0xbc89b257	-0.016808672
21	0x3d7cf1d5	0.061754066
22	0xbcd76dcf	-0.026297478
23	0xbb0b3cb7	-0.0021245906
24	0x3aefc0d4	0.001829172
25	0x3cc12891	0.023578914
26	0x3d22cc68	0.03974572
27	0x3cddc0fb	0.02706956
28	0x3d589ba4	0.052882805
29	0x3ce6cec5	0.028174767
30	0x3c8c9e4e	0.01716533
31	0x3cfb0048	0.030639783
32	0x3d47a033	0.048736762
33	0xbcbfc92f	-0.023411362
34	0xbc302aa3	-0.010752353
35	0x3d8862d9	0.06659479
36	0x3d533311	0.051562373
37	0x3cdfd527	0.027323319
38	0x3cfa2909	0.030537145
39	0x3d0f5f33	0.0350029
40	0x3d1b41c9	0.037904534
41	0xbc536bac	-0.012904089
42	0x3b9876f6	0.004652853
43	0xbd08e6dd	-0.033423293
44	0xbcfdca11	-0.030980142
45	0xbc7591f5	-0.014988412
46	0xbc18f8d6	-0.009336671
47	0x3d1fe0bd	0.039032687
48	0x3c6647b8	0.014055185
49	0x39235269	0.00015575592
50	0x3be55b4a	0.006999408
51	0x3d0aa620	0.033849835
52	0xbc4948d2	-0.012285428
53	0xbc40d5d2	-0.011769729
54	0xbba8a3ce	-0.00514648
55	0xbd11208d	-0.035431433
56	0x3a161840	0.00057256594
57	0xbd2da3a5	-0.04239239
58	0xbcc78252	-0.024354134
59	0xbd089751	-0.03334743
60	0x3d08b9ae	0.033380203
61	0xbd69a348	-0.057040483
62	0x3d0ff78b	0.035148185
63	0x3d0a7168	0.03379956
64	0xbc930f96	-0.017951768
65	0x3d8670d4	0.06564489
66	0x3c5ba520	0.013406068
67	0xbc8cfc26	-0.017210077
68	0x3cc92a9a	0.024556447
69	0x3d7c01bb	0.061525088
70	0xbc868989	-0.016423004
71	0x3d1008cd	0.035164643
72	0x3d6ab9c1	0.057306055
73	0x3c5da273	0.0135275
74	0x3d21589a	0.039391138
75	0x3c3542c8	0.011063285
76	0xbbaf2899	-0.005345416
77	0x3d957b15	0.07298867
78	0xbc3308b5	-0.010927369
79	0x3cc6d2b1	0.024270387
80	0x3d1f7ccc	0.038937375
81	0xbc794302	-0.01521373
82	0x3d2923a4	0.041293755
83	0xbcd6c641	-0.026217582
84	0x3d8aff69	0.06786997
85	0x3d295591	0.041341368
86	0x3c1b3ac4	0.00947446
87	0xbce655a4	-0.028117009
88	0x3c67f52d	0.014157576
89	0x3cd5f284	0.026116617
90	0xbcc3e65b	-0.023913553
91	0x3b042003	0.0020160682
92	0xbd26a671	-0.040686075
93	0xbd19e751	-0.037574116
94	0x3c464a87	0.01210273
95	0x3d7b95d5	0.061422188
96	0x3c7634d4	0.015027244
97	0x3d01c421	0.031681184
98	0xbc0d9724	-0.008641992
99	0x3b42d5b8	0.0029729437
100	0x3c4c32c2	0.0124632735
101	0xbc4e5929	-0.0125945
102	0x3d3ad704	0.04561521
103	0x3d2ff1cb	0.0429552
104	0xbd0c6f43	-0.034285795
105	0x3ca0ad59	0.019613909
106	0xbca8c2a4	-0.020600624
107	0xbcffb4f5	-0.031214217
108	0x3c25576f	0.010091647
109	0xbabca3cc	-0.0014392077
110	0xbc879002	-0.01654816
111	0x3cbd0d04	0.023077495
112	0x3d401715	0.046897013
113	0x3bcdeb46	0.0062841503
114	0x3c39c37f	0.011338114
115	0x3ca519ce	0.020153906
116	0xbbef3f65	-0.0073012584
117	0x3d20336e	0.039111547
118	0x3d7ab639	0.061208937
119	0x3c0d64fb	0.008630033
120	0x3c98b285	0.018639812
121	0x3d75d8cb	0.060021203
122	0x3d80a0a1	0.062806375
123	0xbc9a9047	-0.018867625
124	0xba77eb7b	-0.00094573916
125	0xbce6928e	-0.028146055
126	0x3c7184e7	0.014741159
127	0x3cd5bd38	0.026091203
128	0xbccb2681	-0.024798634
129	0x3c40af72	0.011760579
130	0x3c3d5392	0.011555569
131	0xbd204ef0	-0.03913778
132	0x3cd3b1c3	0.0258416
133	0x3d0188c1	0.03162456
134	0x3c05a3b0	0.008156702
135	0x3ce5405f	0.027984796
136	0x3d14d857	0.03633913
137	0x3d83c669	0.06434328
138	0x3d983eb5	0.074338354
139	0x3d1133e6	0.035449885
140	0x3d513f01	0.051085476
141	0x3c518db0	0.012790129
142	0x3d68f379	0.05687282
143	0x3a7335d0	0.0009277733
144	0xbcec8c0a	-0.02887537
145	0x3d2986d9	0.041388366
146	0x3d168e37	0.03675672
147	0x3cee4e47	0.02909006
148	0x3d26615a	0.040620185
149	0x3cc62f94	0.024192609
150	0x3d1796ef	0.037009176
151	0x3d291f9f	0.04128992
152	0xbc20e0c5	-0.009819214
153	0x3cd7e4e5	0.026354263
154	0x3d2444a2	0.040104516
155	0x3ccaaf8b	0.024741909
156	0xbc5ef309	-0.013607749
157	0x3d22cb36	0.03974458
158	0x3d871d52	0.06597389
159	0x3b14aa45	0.0022684496
160	0x3dac015d	0.083986975
161	0x3d3362c9	0.04379538
162	0x3d41ebfb	0.04734419
163	0x3b9d81fd	0.0048067556
164	0xbc8e0aa1	-0.017339053
165	0x3c1258b6	0.008932283
166	0x3d08c98f	0.033395346
167	0x3bf00af2	0.0073255235
168	0x3da6de05	0.081478156
169	0xbb0170a1	-0.001975097
170	0xbb5cee83	-0.00337115
171	0x3bb90563	0.005646394
172	0x3d984886	0.07435708
173	0x3b3ba3c0	0.0028631538
174	0x3da318de	0.079637274
175	0x3d718a84	0.05896999
176	0x3cda0cc4	0.026617415
177	0x3d853c90	0.06505692
178	0x3d83f108	0.064424574
179	0x3c30b26f	0.010784729
180	0xbc3b9f89	-0.01145161
181	0x3d4e9e4d	0.050443936
182	0x3cdc842b	0.026918491
183	0xbd069bc6	-0.0328634
184	0xbcb3df25	-0.02195699
185	0x3cbad350	0.02280584
186	0x3c9c68f5	0.019093016
187	0xbb5dd50d	-0.0033848912
188	0xbd2f57a4	-0.04280819
189	0xbd30732a	-0.04307858
190	0xbc65acca	-0.014018247
191	0x3c9447f1	0.01810071
192	0xbac789bf	-0.0015223547
193	0xbd100579	-0.03516147
194	0xbaf3c99d	-0.0018599514
195	0x3d74427b	0.059633713
196	0xbd00c5fb	-0.03143881
197	0xbcf139ce	-0.029446509
198	0x3d650157	0.05590948
199	0x3d9d6d3b	0.0768685
200	0xbcdcf7ae	-0.026973572
201	0xbcb74e82	-0.022376303
202	0x3c366783	0.011133078
203	0x3da4f163	0.08053853
204	0xbbcec761	-0.006310389
205	0x3cdcfcfc	0.026976101
206	0x3d7e27b7	0.062049594
207	0x3c8ff4c2	0.017572764
208	0x3c9ec32f	0.01938018
209	0xbb6ef76c	-0.0036463393
210	0x3d0b2cc1	0.033978228
211	0x3da50338	0.080572546
212	0x3d41af0b	0.047286075
213	0x3d75bb72	0.059993215
214	0x3c7a9a1a	0.01529553
215	0x3c05ecc8	0.008174129
216	0xbc69a46c	-0.014260393
217	0x3cf7c321	0.030244412
218	0xbb848534	-0.0040441994
219	0xbd221506	-0.03957083
220	0xbc11e824	-0.008905444
221	0x3d0aae53	0.033857655
222	0x3d887117	0.06662195
223	0x3b455d86	0.0030115559
224	0xbd14db9d	-0.036342252
225	0xbc752f1a	-0.014964843
226	0xbc96c521	-0.018404545
227	0x3d43109f	0.047623273
228	0x3d846b3f	0.06465768
229	0x3d2465c4	0.040136114
230	0x3d30ccef	0.04316419
231	0x3d7772e9	0.06041232
232	0x3d81496f	0.063128345
233	0x3d714768	0.05890599
234	0x3d5e8771	0.054328386
235	0x3d1d5270	0.038408697
236	0x3d4febe9	0.05076209
237	0xbc71745e	-0.014737217
238	0xbc54df7f	-0.012992739
239	0x3d115968	0.035485655
240	0x3ce860a3	0.028366392
241	0xbce652b8	-0.028115615
242	0xbca88157	-0.020569487
243	0xbc03a703	-0.008035424
244	0x3d9cb098	0.0765087
245	0x3d88081b	0.06642171
246	0x3a7ccb94	0.00096433726
247	0x3d130b48	0.03589943
248	0x3c67fb1b	0.014158989
249	0x3d915093	0.070954464
250	0xbcc5b5d7	-0.02413456
251	0xbc50c91c	-0.012743261
252	0xbcadf7fd	-0.021236414
253	0x3d478507	0.04871085
254	0xbbc84950	-0.006112255
255	0x3d360571	0.044438783

model.qy_x.model.tcn_block_00.block.conv1d_layer_0.bias f4 [32]
0	0x3d822343	0.06354382
1	0x3da76cff	0.08175086
2	0xbc4a9450	-0.012364462
3	0x3d118b46	0.035533212
4	0x3c7c40b2	0.015396284
5	0xbd901864	-0.07035902
6	0xbd87c7d3	-0.0662991
7	0x3d15061c	0.03638278
8	0xbd8e7180	-0.06955242
9	0xbbdc6bfd	-0.0067267404
10	0x3c2bd01d	0.01048663
11	0x3d00002b	0.03125016
12	0x3d8c7d80	0.06859875
13	0x3ce0c9fa	0.02744006
14	0xbdafaa5a	-0.08577414
15	0x3d14b03d	0.036300886
16	0x3c5e747a	0.013577575
17	0x3aae7ab0	0.001331171
18	0xbd053115	-0.03251751
19	0x3d62b0d4	0.055344418
20	0xbd80b9dc	-0.0628545
21	0x3d488320	0.048953176
22	0x3d3fa873	0.046791505
23	0x3cd9ae7e	0.026572462
24	0x3d01d3c2	0.03169609
25	0x3d9a24c7	0.07526546
26	0xbc85212d	-0.016251171
27	0xbd9cf4d0	-0.07663882
28	0xbd26ee9c	-0.0407549
29	0x3d60eb30	0.054911792
30	0xbcb4dc67	-0.022077752
31	0xbc1fbf8e	-0.00975026

model.qy_x.model.tcn_block_00.block.conv1d_layer_0.weight_g f4 [32, 1, 1]
0	0x3f165a12	0.58731186
1	0x3f174177	0.59084266
2	0x3f175c27	0.5912499
3	0x3f1cb267	0.6120972
4	0x3f1d4c35	0.6144441
5	0x3f17b24a	0.5925642
6	0x3f2351a7	0.63796467
7	0x3f183473	0.5945503
8	0x3f23a5ac	0.6392467
9	0x3f28160c	0.6565864
10	0x3f18934e	0.5959977
11	0x3f168146	0.58791006
12	0x3f17979c	0.5921571
13	0x3f18014b	0.5937697
14	0x3f17c8c5	0.59290725
15	0x3f11d814	0.56970334
16	0x3f1d2ffd	0.6140135
17	0x3f1b4c6f	0.60663503
18	0x3f19f5ea	0.6014086
19	0x3f0ab588	0.54183245
20	0x3f161a1d	0.58633596
21	0x3f1a0110	0.6015787
22	0x3f1aef25	0.60521156
23	0x3f19d925	0.6009696
24	0x3f18a2ad	0.59623224
25	0x3f161c74	0.58637166
26	0x3f19273e	0.59825504
27	0x3f1b6d28	0.60713434
28	0x3f1ff848	0.6248822
29	0x3f16a918	0.58851767
30	0x3f19d4d0	0.6009035
31	0x3f1c7ff7	0.6113276

model.qy_x.model.tcn_block_00.block.conv1d_layer_0.weight_v f4 [32, 16, 9]
0	0x3c7780ef	0.015106424
1	0x3d457c6f	0.048214372
2	0xbd94a856	-0.0725867
3	0xbd97c144	-0.07409909
4	0xbd5451e1	-0.0518359
5	0xba0b0baf	-0.000530417
6	0xbccdc991	-0.025120528
7	0x3d32fe08	0.043699294
8	0xbcf082d0	-0.029359251
9	0x3d6c08a4	0.057625428
10	0x3aa1ab7f	0.0012334435
11	0xbb46aa2e	-0.0030313837
12	0xbd9b87c4	-0.075942546
13	0xbd799b52	-0.06093914
14	0xbd3bded5	-0.045866806
15	0xbc449fee	-0.012001021
16	0x3c850540	0.016237855
17	0x3d06bec7	0.032896783
18	0xbd8a0031	-0.06738318
19	0xbd370a7c	-0.044687733
20	0x3cad6130	0.021164507
21	0x3d6e27e1	0.0581435
22	0xbcee95f0	-0.02912423
23	0x3d4bc3b2	0.049747176
24	0xbcc25de0	-0.023726404
25	0xbad6f9f4	-0.0016401396
26	0x3d7bc32b	0.061465424
27	0xbda1fafe	-0.07909201
28	0xbd565778	-0.05232951
29	0xbcb68752	-0.022281323
30	0xbd10b6e2	-0.03533066
31	0x3d85bbdf	0.06529974
32	0xbd73a862	-0.059486754
33	0xbd38f59e	-0.045156114
34	0xbd8b2773	-0.06794634
35	0xbdbd84f0	-0.092538714
36	0xbd8b9d69	-0.06817133
37	0x3d5a747c	0.053333744
38	0x3cc5ad28	0.024130419
39	0x3d015945	0.031579275
40	0x39c7453e	0.00038007827
41	0xbd318688	-0.04334119
42	0x3c353672	0.011060344
43	0xbda17b37	-0.078848295
44	0xbd83568a	-0.064129904
45	0xbd470e11	-0.0485974
46	0x3d45176a	0.048118033
47	0x3d431d5f	0.047635432
48	0xbd0747c8	-0.03302744
49	0x3b0691ef	0.002053376
50	0x3d686119	0.056733225
51	0x3da7ed9b	0.081996165
52	0x3ceb8eee	0.028754678
53	0x3b97fd0f	0.004638321
54	0x3d6f2f76	0.05839487
55	0xbd357037	-0.04429647
56	0x3cafbb03	0.021451479
57	0xbd6d1179	-0.05787799
58	0xbd5a4ae3	-0.053294074
59	0xbd2a8c01	-0.041637424
60	0x3d19f9ae	0.03759163
61	0x3d1c547f	0.03816652
62	0xbd1045a3	-0.03522266
63	0x3c3640f8	0.011123888
64	0x3ceaf2a4	0.028680153
65	0xbcf30d05	-0.029669294
66	0xbca93557	-0.020655317
67	0xbc042c4e	-0.008067204
68	0x3cb74650	0.022372395
69	0x3d577aec	0.05260746
70	0xbda877bc	-0.082259625
71	0xbd38050f	-0.0449267
72	0x3d3e1410	0.04640585
73	0x3d91fe2b	0.07128557
74	0x3d84073c	0.06446692
75	0x3d684067	0.056702044
76	0xbbd5a9b9	-0.0065204767
77	0xbdcd5969	-0.10026819
78	0xbcbae140	-0.022812486
79	0xbdae26d9	-0.08503503
80	0xbde57291	-0.112034924
81	0x3db6de15	0.089290775
82	0x3d8fb0e3	0.0701616
83	0xbda96708	-0.08271605
84	0x3bbbfee1	0.005737171
85	0xbcf59729	-0.029979305
86	0xbd0b2518	-0.033970922
87	0xbd7c0d8a	-0.06153635
88	0x3be30cd4	0.0069290195
89	0xbd9b2f9f	-0.075774424
90	0x3d0ab50c	0.033864066
91	0x3d34babd	0.0441234
92	0x3d826d07	0.063684516
93	0x3d1def16	0.03855809
94	0xbd91fbe5	-0.07128123
95	0xbd27d83c	-0.0409777
96	0x3d62b14c	0.055344865
97	0x3d0ac530	0.03387946
98	0xbd39f83a	-0.045402743
99	0xbd197c53	-0.03747208
100	0x3db42b6d	0.08797345
101	0x3d8fcfa6	0.07022028
102	0xbc869c74	-0.016432025
103	0x3b66e66a	0.0035232552
104	0xbd53886d	-0.051643778
105	0x3ce77bd2	0.028257284
106	0xbcfe75e6	-0.031062078
107	0xbcfb0f94	-0.030647077
108	0xbcbcdecb	-0.023055455
109	0xbbd26509	-0.0064207357
110	0xbd5799df	-0.052636977
111	0x3cee2a74	0.029072978
112	0xbd8a37df	-0.06748938
113	0x3d7e811e	0.062134854
114	0x3d4bb577	0.049733605
115	0xbd8e3a0c	-0.06944665
116	0xbca40447	-0.02002157
117	0xbb50bd1c	-0.0031851
118	0x3b5d181b	0.0033736292
119	0x3c1b1432	0.009465264
120	0x3caf82e0	0.02142471
121	0xbb3028f7	-0.0026879886
122	0xbd326da2	-0.043561585
123	0x3d2873a6	0.041125916
124	0xbd8c798a	-0.06859119
125	0xbd1b7b9d	-0.037959684
126	0xbc77262d	-0.015084785
127	0xbd0c16e8	-0.034201533
128	0xbcc13645	-0.023585448
129	0xbd83ed4e	-0.06441747
130	0xbca1b212	-0.01973823
131	0x3c1f0fa3	0.009708318
132	0xbd852753	-0.06501641
133	0xbc80029a	-0.01562624
134	0x3d543691	0.05180985
135	0x3c99c6c1	0.018771531
136	0x3d0593ba	0.032611586
137	0x3cc594a0	0.024118721
138	0x3d3d8962	0.046273597
139	0x3d9967b2	0.074904814
140	0x3dbbf4a2	0.091775194
141	0x3d7622ef	0.06009191
142	0x3da7e381	0.0819769
143	0x3c18530c	0.009297144
144	0xbda7c55f	-0.081919424
145	0xbd51f150	-0.051255524
146	0x3d241ea5	0.040068287
147	0xbc5fbb4b	-0.013655494
148	0xbd4e88d1	-0.050423447
149	0xbd8dc9f4	-0.06923285
150	0xbd9f6752	-0.07783379
151	0xbd8a8133	-0.06762924
152	0xbc8153ac	-0.015786968
153	0x3cf32ecd	0.029685402
154	0x3cdcec32	0.026968095
155	0xbdb9e6d5	-0.09077231
156	0x3d01a161	0.031648044
157	0xbd9c914d	-0.076449014
158	0xbd000f42	-0.03126455
159	0xbd30871b	-0.043097597
160	0xbcc596ad	-0.0241197
161	0xbcb4a5d5	-0.022051731
162	0xbda3ee55	-0.080044426
163	0xbd9f823c	-0.07788512
164	0xbcb996c4	-0.022654898
165	0xbc2c3e8c	-0.010512959
166	0xbd4c3149	-0.04985169
167	0x3c840725	0.016116688
168	0xbdb3f9ef	-0.087879054
169	0xbcc5d63b	-0.024150005
170	0x3d50e6ab	0.051001232
171	0xbc7323d2	-0.014840083
172	0x3db0567c	0.086102456
173	0x3d3254b1	0.0435378
174	0xbd5de064	-0.054169074
175	0x3d7ead40	0.062176943
176	0x3b206b2d	0.0024477944
177	0xbcc945fb	-0.024569502
178	0x3d8f41a4	0.06994942
179	0xbd67ebfc	-0.056621537
180	0xbcce8bc1	-0.025213124
181	0xbd4b21ce	-0.049592786
182	0x3cf31a6d	0.029675687
183	0xbb8c2f23	-0.00427808
184	0x3c562028	0.01306919
185	0x3b607b50	0.0034253187
186	0xbd367de9	-0.04455367
187	0xbd2e6ab9	-0.042582247
188	0xbdc21d8b	-0.09478291
189	0x3c5e40a0	0.0135652125
190	0x3d1562f3	0.03647132
191	0x3cec479b	0.028842738
192	0xbdaa9ece	-0.08331071
193	0xbcadccbe	-0.021215793
194	0xbda7342c	-0.08164248
195	0xbd8dd7a8	-0.06925899
196	0xbd96d367	-0.073645405
197	0xba825bfa	-0.0009945624
198	0xbd077778	-0.03307292
199	0x3c45f7bd	0.012082991
200	0x3c85263e	0.016253587
201	0x3d7cf7ce	0.061759762
202	0xbd482eed	-0.048872877
203	0xbd2dfa13	-0.042474817
204	0xbd0f0070	-0.034912527
205	0x3d877f0d	0.0661603
206	0xbc9598a9	-0.01826127
207	0x3d74d604	0.059774414
208	0x3c96c44d	0.01840415
209	0xbb1d4045	-0.0023994606
210	0xbc679129	-0.01413373
211	0xbcebb805	-0.02877427
212	0xbb485bc9	-0.0030572286
213	0xbd02fc70	-0.031979024
214	0xbc7a6fb8	-0.015285425
215	0xbba5de0d	-0.005061871
216	0xbd8bea0c	-0.0683175
217	0xbd4c9c33	-0.04995365
218	0x3d583f67	0.05279484
219	0xbd964f05	-0.073392905
220	0xbc6a3bb0	-0.014296457
221	0x3d909b9b	0.070609294
222	0x3ccbe5ea	0.024889905
223	0x3af75667	0.0018870354
224	0xbd86c3d4	-0.0658032
225	0x3d3aee82	0.045637615
226	0xbd4da1b1	-0.05020303
227	0xbc865a1f	-0.016400395
228	0xbca01523	-0.019541329
229	0xbb204f3b	-0.0024461288
230	0x3c56283f	0.013071119
231	0x3da6ac65	0.081383504
232	0x3cf655e0	0.030070245
233	0x3dc0f4e0	0.09421706
234	0x3cf58b7a	0.029973734
235	0xbd860ca1	-0.065453775
236	0x3c9ba81e	0.019001063
237	0xbd8dca41	-0.069233425
238	0xbd3e42e7	-0.04645052
239	0x3c089c2f	0.008338018
240	0x3c30e970	0.010797843
241	0x3d3025f0	0.04300493
242	0xbd218dc8	-0.039441854
243	0x3ce7608b	0.028244277
244	0x3d92a3ce	0.071601495
245	0xbd452586	-0.04813149
246	0x3dbee087	0.09320169
247	0xbd0918ff	-0.033471104
248	0x3d111dc6	0.035428785
249	0x3ca76e5e	0.02043837
250	0xbc0e93dd	-0.008702246
251	0x3d3e2483	0.04642154
252	0x3d8c1e4d	0.06841717
253	0xbcab855a	-0.02093761
254	0xbd3887f9	-0.04505155
255	0xbcdbd653	-0.026835596

model.qy_x.model.tcn_block_00.block.conv1d_layer_1.bias f4 [32]
0	0xbc191eb1	-0.009345696
1	0xbda0346d	-0.078224994
2	0xbd102551	-0.035191838
3	0x3cfcbf3c	0.030852906
4	0x3cfcbd95	0.030852119
5	0x3d8fe8e7	0.070268445
6	0x3c602d77	0.013682715
7	0x3d822ba6	0.063559815
8	0x3c9e2f28	0.019309595
9	0x3d20b037	0.03923055
10	0x3c50c019	0.012741112
11	0xbc9e205f	-0.019302545
12	0xbd88ebc6	-0.06685595
13	0x3d37a7be	0.044837706
14	0x3c0943d8	0.008377992
15	0xbd155b27	-0.036463883
16	0xbbaa213e	-0.005191951
17	0xbd5565cd	-0.052099038
18	0xbbada1a8	-0.005298812
19	0xbca435b8	-0.020045146
20	0x3baa6522	0.0052000443
21	0xbcffdf82	-0.031234507
22	0x3d143d1f	0.036191102
23	0x3c8472d6	0.01616804
24	0x3d0d10e6	0.034439944
25	0x3c6e0f23	0.014529976
26	0xbd042990	-0.0322662
27	0xbccc0b98	-0.024907872
28	0x3d592972	0.05301804
29	0x3c5fbb8f	0.013655557
30	0x3d497a6d	0.04918902
31	0xbd530262	-0.051515944

model.qy_x.model.tcn_block_00.block.conv1d_layer_1.weight_g f4 [32, 1, 1]
0	0x3f19ec91	0.60126597
1	0x3f1ed4f3	0.62043685
2	0x3f21dff4	0.6323235
3	0x3f18181c	0.5941179
4	0x3f153302	0.58280957
5	0x3f2370d8	0.6384406
6	0x3f2240b3	0.63379973
7	0x3f1776e6	0.591658
8	0x3f142333	0.5786621
9	0x3f1f4ea5	0.6222938
10	0x3f1aebfe	0.60516346
11	0x3f1aec90	0.60517216
12	0x3f1cc8c4	0.61243844
13	0x3f195519	0.59895474
14	0x3f1f9ab8	0.6234546
15	0x3f19ccb6	0.6007799
16	0x3f14456d	0.57918435
17	0x3f2257ae	0.6341504
18	0x3f23a8bc	0.63929343
19	0x3f1a49a7	0.60268635
20	0x3f1c86bf	0.61143106
21	0x3f226708	0.63438463
22	0x3f0f33b5	0.55938274
23	0x3f18b385	0.59648925
24	0x3f177677	0.5916514
25	0x3f279e0e	0.6547555
26	0x3f20306a	0.62573874
27	0x3f2241b9	0.63381535
28	0x3f1bb5f6	0.60824525
29	0x3f1b1192	0.60573685
30	0x3f181334	0.594043
31	0x3f225655	0.6341298

model.qy_x.model.tcn_block_00.block.conv1d_layer_1.weight_v f4 [32, 32, 9]
0	0x3d4d0558	0.050053924
1	0x3d1ef3da	0.038806774
2	0x3d79fbfd	0.06103133
3	0x3d112566	0.035436057
4	0x3d1471be	0.036241286
5	0x3c895107	0.01676227
6	0x3c8f93df	0.017526565
7	0xbbee882e	-0.0072794175
8	0x3d4de61d	0.05026828
9	0x3d7ae150	0.06125003
10	0x3d136615	0.035986025
11	0x3cb0e739	0.02159463
12	0x3bc37755	0.005965153
13	0xbcdc710e	-0.026909377
14	0x3ca7df84	0.020492323
15	0xbbf75aae	-0.0075486517
16	0xbc10acb6	-0.00883024
17	0x3ca6b18e	0.020348337
18	0x3c4702af	0.012146636
19	0x3d0b3462	0.033985503
20	0xbc89b257	-0.016808672
21	0x3d7cf1d5	0.061754066
22	0xbcd76dcf	-0.026297478
23	0xbb0b3cb7	-0.0021245906
24	0x3aefc0d4	0.001829172
25	0x3cc12891	0.023578914
26	0x3d22cc68	0.03974572
27	0x3cddc0fb	0.02706956
28	0x3d589ba4	0.052882805
29	0x3ce6cec5	0.028174767
30	0x3c8c9e4e	0.01716533
31	0x3cfb0048	0.030639783
32	0x3d47a033	0.048736762
33	0xbcbfc92f	-0.023411362
34	0xbc302aa3	-0.010752353
35	0x3d8862d9	0.06659479
36	0x3d533311	0.051562373
37	0x3cdfd527	0.027323319
38	0x3cfa2909	0.030537145
39	0x3d0f5f33	0.0350029
40	0x3d1b41c9	0.037904534
41	0xbc536bac	-0.012904089
42	0x3b9876f6	0.004652853
43	0xbd08e6dd	-0.033423293
44	0xbcfdca11	-0.030980142
45	0xbc7591f5	-0.014988412
46	0xbc18f8d6	-0.009336671
47	0x3d1fe0bd	0.039032687
48	0x3c6647b8	0.014055185
49	0x39235269	0.00015575592
50	0x3be55b4a	0.006999408
51	0x3d0aa620	0.033849835
52	0xbc4948d2	-0.012285428
53	0xbc40d5d2	-0.011769729
54	0xbba8a3ce	-0.00514648
55	0xbd11208d	-0.035431433
56	0x3a161840	0.00057256594
57	0xbd2da3a5	-0.04239239
58	0xbcc78252	-0.024354134
59	0xbd089751	-0.03334743
60	0x3d08b9ae	0.033380203
61	0xbd69a348	-0.057040483
62	0x3d0ff78b	0.035148185
63	0x3d0a7168	0.03379956
64	0xbc930f96	-0.017951768
65	0x3d8670d4	0.06564489
66	0x3c5ba520	0.013406068
67	0xbc8cfc26	-0.017210077
68	0x3cc92a9a	0.024556447
69	0x3d7c01bb	0.061525088
70	0xbc868989	-0.016423004
71	0x3d1008cd	0.035164643
72	0x3d6ab9c1	0.057306055
73	0x3c5da273	0.0135275
74	0x3d21589a	0.039391138
75	0x3c3542c8	0.011063285
76	0xbbaf2899	-0.005345416
77	0x3d957b15	0.07298867
78	0xbc3308b5	-0.010927369
79	0x3cc6d2b1	0.024270387
80	0x3d1f7ccc	0.038937375
81	0xbc794302	-0.01521373
82	0x3d2923a4	0.041293755
83	0xbcd6c641	-0.026217582
84	0x3d8aff69	0.06786997
85	0x3d295591	0.041341368
86	0x3c1b3ac4	0.00947446
87	0xbce655a4	-0.028117009
88	0x3c67f52d	0.014157576
89	0x3cd5f284	0.026116617
90	0xbcc3e65b	-0.023913553
91	0x3b042003	0.0020160682
92	0xbd26a671	-0.040686075
93	0xbd19e751	-0.037574116
94	0x3c464a87	0.01210273
95	0x3d7b95d5	0.061422188
96	0x3c7634d4	0.015027244
97	0x3d01c421	0.031681184
98	0xbc0d9724	-0.008641992
99	0x3b42d5b8	0.0029729437
100	0x3c4c32c2	0.0124632735
101	0xbc4e5929	-0.0125945
102	0x3d3ad704	0.04561521
103	0x3d2ff1cb	0.0429552
104	0xbd0c6f43	-0.034285795
105	0x3ca0ad59	0.019613909
106	0xbca8c2a4	-0.020600624
107	0xbcffb4f5	-0.031214217
108	0x3c25576f	0.010091647
109	0xbabca3cc	-0.0014392077
110	0xbc879002	-0.01654816
111	0x3cbd0d04	0.023077495
112	0x3d401715	0.046897013
113	0x3bcdeb46	0.0062841503
114	0x3c39c37f	0.011338114
115	0x3ca519ce	0.020153906
116	0xbbef3f65	-0.0073012584
117	0x3d20336e	0.039111547
118	0x3d7ab639	0.061208937
119	0x3c0d64fb	0.008630033
120	0x3c98b285	0.018639812
121	0x3d75d8cb	0.060021203
122	0x3d80a0a1	0.062806375
123	0xbc9a9047	-0.018867625
124	0xba77eb7b	-0.00094573916
125	0xbce6928e	-0.028146055
126	0x3c7184e7	0.014741159
127	0x3cd5bd38	0.026091203
128	0xbccb2681	-0.024798634
129	0x3c40af72	0.011760579
130	0x3c3d5392	0.011555569
131	0xbd204ef0	-0.03913778
132	0x3cd3b1c3	0.0258416
133	0x3d0188c1	0.03162456
134	0x3c05a3b0	0.008156702
135	0x3ce5405f	0.027984796
136	0x3d14d857	0.03633913
137	0x3d83c669	0.06434328
138	0x3d983eb5	0.074338354
139	0x3d1133e6	0.035449885
140	0x3d513f01	0.051085476
141	0x3c518db0	0.012790129
142	0x3d68f379	0.05687282
143	0x3a7335d0	0.0009277733
144	0xbcec8c0a	-0.02887537
145	0x3d2986d9	0.041388366
146	0x3d168e37	0.03675672
147	0x3cee4e47	0.02909006
148	0x3d26615a	0.040620185
149	0x3cc62f94	0.024192609
150	0x3d1796ef	0.037009176
151	0x3d291f9f	0.04128992
152	0xbc20e0c5	-0.009819214
153	0x3cd7e4e5	0.026354263
154	0x3d2444a2	0.040104516
155	0x3ccaaf8b	0.024741909
156	0xbc5ef309	-0.013607749
157	0x3d22cb36	0.03974458
158	0x3d871d52	0.06597389
159	0x3b14aa45	0.0022684496
160	0x3dac015d	0.083986975
161	0x3d3362c9	0.04379538
162	0x3d41ebfb	0.04734419
163	0x3b9d81fd	0.0048067556
164	0xbc8e0aa1	-0.017339053
165	0x3c1258b6	0.008932283
166	0x3d08c98f	0.033395346
167	0x3bf00af2	0.0073255235
168	0x3da6de05	0.081478156
169	0xbb0170a1	-0.001975097
170	0xbb5cee83	-0.00337115
171	0x3bb90563	0.005646394
172	0x3d984886	0.07435708
173	0x3b3ba3c0	0.0028631538
174	0x3da318de	0.079637274
175	0x3d718a84	0.05896999
176	0x3cda0cc4	0.026617415
177	0x3d853c90	0.06505692
178	0x3d83f108	0.064424574
179	0x3c30b26f	0.010784729
180	0xbc3b9f89	-0.01145161
181	0x3d4e9e4d	0.050443936
182	0x3cdc842b	0.026918491
183	0xbd069bc6	-0.0328634
184	0xbcb3df25	-0.02195699
185	0x3cbad350	0.02280584
186	0x3c9c68f5	0.019093016
187	0xbb5dd50d	-0.0033848912
188	0xbd2f57a4	-0.04280819
189	0xbd30732a	-0.04307858
190	0xbc65acca	-0.014018247
191	0x3c9447f1	0.01810071
192	0xbac789bf	-0.0015223547
193	0xbd100579	-0.03516147
194	0xbaf3c99d	-0.0018599514
195	0x3d74427b	0.059633713
196	0xbd00c5fb	-0.03143881
197	0xbcf139ce	-0.029446509
198	0x3d650157	0.05590948
199	0x3d9d6d3b	0.0768685
200	0xbcdcf7ae	-0.026973572
201	0xbcb74e82	-0.022376303
202	0x3c366783	0.011133078
203	0x3da4f163	0.08053853
204	0xbbcec761	-0.006310389
205	0x3cdcfcfc	0.026976101
206	0x3d7e27b7	0.062049594
207	0x3c8ff4c2	0.017572764
208	0x3c9ec32f	0.01938018
209	0xbb6ef76c	-0.0036463393
210	0x3d0b2cc1	0.033978228
211	0x3da50338	0.080572546
212	0x3d41af0b	0.047286075
213	0x3d75bb72	0.059993215
214	0x3c7a9a1a	0.01529553
215	0x3c05ecc8	0.008174129
216	0xbc69a46c	-0.014260393
217	0x3cf7c321	0.030244412
218	0xbb848534	-0.0040441994
219	0xbd221506	-0.03957083
220	0xbc11e824	-0.008905444
221	0x3d0aae53	0.033857655
222	0x3d887117	0.06662195
223	0x3b455d86	0.0030115559
224	0xbd14db9d	-0.036342252
225	0xbc752f1a	-0.014964843
226	0xbc96c521	-0.018404545
227	0x3d43109f	0.047623273
228	0x3d846b3f	0.06465768
229	0x3d2465c4	0.040136114
230	0x3d30ccef	0.04316419
231	0x3d7772e9	0.06041232
232	0x3d81496f	0.063128345
233	0x3d714768	0.05890599
234	0x3d5e8771	0.054328386
235	0x3d1d5270	0.038408697
236	0x3d4febe9	0.05076209
237	0xbc71745e	-0.014737217
238	0xbc54df7f	-0.012992739
239	0x3d115968	0.035485655
240	0x3ce860a3	0.028366392
241	0xbce652b8	-0.028115615
242	0xbca88157	-0.020569487
243	0xbc03a703	-0.008035424
244	0x3d9cb098	0.0765087
245	0x3d88081b	0.06642171
246	0x3a7ccb94	0.00096433726
247	0x3d130b48	0.03589943
248	0x3c67fb1b	0.014158989
249	0x3d915093	0.070954464
250	0xbcc5b5d7	-0.02413456
251	0xbc50c91c	-0.012743261
252	0xbcadf7fd	-0.021236414
253	0x3d478507	0.04871085
254	0xbbc84950	-0.006112255
255	0x3d360571	0.044438783

model.qy_x.model.tcn_block_00.downsample.weight f4 [32, 16, 1]
0	0xbc87ec1c	-0.016592078
1	0x3b035bb9	0.0020043685
2	0xbd444b75	-0.047923524
3	0xbd2eb070	-0.042648733
4	0xbd43a784	-0.047767177
5	0xbcb3ebec	-0.021963082
6	0xbc7b61df	-0.0153431585
7	0x3a7e33bc	0.000969704
8	0xbbfb9124	-0.007677214
9	0xbd1f39fc	-0.038873658
10	0x3c137227	0.008999384
11	0x3d413c2e	0.047176532
12	0xbc32b6ea	-0.010907868
13	0xbad9840f	-0.0016595143
14	0xba651b64	-0.0008739738
15	0xbc2171ce	-0.009853793
16	0x3c9b9181	0.01899028
17	0xbbf59fdc	-0.0074958634
18	0x3ca4c4d9	0.020113396
19	0xbb41316b	-0.0029478918
20	0xbd022e77	-0.031782594
21	0xbbec9862	-0.007220314
22	0xba98e035	-0.0011663499
23	0xbc8acb4e	-0.016942646
24	0xbd9070f3	-0.07052793
25	0xbd34e339	-0.04416201
26	0x3d331700	0.043723106
27	0xbca30922	-0.019901816
28	0x39c55f4c	0.0003764577
29	0xbbe2c1c8	-0.006920073
30	0x3c951ce5	0.018202255
31	0x3cbe45a5	0.023226568
32	0xbc205f6b	-0.009788374
33	0x3c85efcb	0.016349694
34	0x3c8f4a17	0.017491383
35	0x3d0384a7	0.03210893
36	0xbc5221a2	-0.0128254015
37	0x3c0ff9d7	0.008787594
38	0xbc3eb248	-0.011639185
39	0x3d063fd1	0.032775704
40	0x3d0806c8	0.033209592
41	0x3bdce802	0.0067415247
42	0x3d19ab20	0.037516713
43	0xba8be4e2	-0.0010673071
44	0x398c624b	0.00026776115
45	0xbd1ee989	-0.038796935
46	0x3d110ff8	0.03541562
47	0xbd3a32ee	-0.045458727
48	0x3c2674b5	0.010159661
49	0x3c90e074	0.017685153
50	0x3d221df7	0.039579358
51	0x39a59827	0.00031584615
52	0xbca9a7ac	-0.020709835
53	0x3aaf56a6	0.0013377264
54	0xbc43b1e0	-0.011944264
55	0xbc163a6a	-0.0091692
56	0x3cc0ee8d	0.02355125
57	0x3ca14ec3	0.019690877
58	0x3d8631da	0.06552477
59	0x3cab7f82	0.020934824
60	0xbc2dbc8a	-0.010604033
61	0xbbcd9466	-0.006273794
62	0x3d0ea481	0.034824852
63	0xbd0d57fb	-0.034507733
64	0x3c2ddc4f	0.010611608
65	0x3d0003b6	0.03125354
66	0xbd110512	-0.035405226
67	0xbc668d8d	-0.014071834
68	0xbb70471e	-0.0036663483
69	0xbb28d03b	-0.002575888
70	0xbc8d27a8	-0.017230824
71	0xbba66799	-0.005078268
72	0x3c9cb162	0.019127551
73	0x3b0901e4	0.0020905668
74	0xba7f98fe	-0.00097502756
75	0x3d7a992c	0.061181232
76	0xbc5c57a0	-0.013448626
77	0xbbb215d2	-0.00543473
78	0xbbcd96a8	-0.006274063
79	0x3cf3321c	0.02968698
80	0x3c79088d	0.015199793
81	0x3c874c79	0.016515957
82	0x3c160c20	0.009158164
83	0xbbf42de6	-0.0074517606
84	0x3bf208b1	0.00738629
85	0x3c4bb7ad	0.012433928
86	0x3a9e0bbf	0.0012057944
87	0xb999a85c	-0.00029307872
88	0xbc50b6b1	-0.0127388695
89	0xbc0848f7	-0.008318177
90	0xbd2cd444	-0.04219462
91	0x3cf4b574	0.02987168
92	0xbcc08230	-0.023499578
93	0x3aec3745	0.0018021843
94	0xbcd7b73c	-0.02633249
95	0x3cd69d28	0.026197985
96	0xbc124757	-0.008928142
97	0xbba2e2f8	-0.0049709044
98	0xbc0ff9b1	-0.008787558
99	0x3c00284a	0.007822106
100	0xbd161db4	-0.03664942
101	0xbd046abc	-0.032328352
102	0x3ca623ea	0.020280797
103	0xbc8f269e	-0.017474469
104	0xbd074f01	-0.03303433
105	0xbcd44e73	-0.025916314
106	0x3d41da6f	0.047327455
107	0x3cff91c4	0.031197436
108	0xbc8487aa	-0.01617797
109	0xbbcf5e9d	-0.0063284175
110	0x3c0cb639	0.008588367
111	0x3cfb89b4	0.03070531
112	0xbc592400	-0.013253212
113	0x3d2b7c4c	0.041866586
114	0xbc065b88	-0.008200534
115	0x3c53c315	0.012924929
116	0xbd4a3404	-0.049366012
117	0xbc776003	-0.015098575
118	0x3adfddef	0.0017079691
119	0x3cca49c3	0.024693375
120	0x3d12b336	0.03581544
121	0x3b2227e9	0.0024743027
122	0x3c7802fb	0.015137429
123	0x3d01f7a7	0.03173032
124	0xbd1bb9be	-0.038018934
125	0xbbed1f62	-0.007236407
126	0x3c703da0	0.01466313
127	0xbd06d92b	-0.03292195
128	0x3c660f5b	0.014041747
129	0xbc269664	-0.010167692
130	0xbc90fbb3	-0.017698145
131	0xbc999ff9	-0.018753039
132	0x3bb0eb27	0.005399126
133	0xbba2a9b3	-0.0049640774
134	0x3c12b457	0.008954129
135	0xbd285a23	-0.041101586
136	0xbcf77ea1	-0.030211749
137	0xbcde9d5c	-0.027174644
138	0xbc937900	-0.018002033
139	0x3cdc9155	0.026924768
140	0xbcd68c98	-0.026190087
141	0x3c85dd0c	0.016340755
142	0xbcd4aa8d	-0.025960231
143	0x3d309021	0.043106202
144	0x3b631446	0.0034649535
145	0xbbe3d344	-0.006952675
146	0xbccf5bf7	-0.025312407
147	0xbb670feb	-0.003525729
148	0xbbce0ddc	-0.0062882733
149	0x3c2428d9	0.010019504
150	0x3c28a2f9	0.010292762
151	0xbcbd6367	-0.023118688
152	0xbc4cf0d0	-0.012508586
153	0x3c289f8a	0.010291943
154	0xbcb98647	-0.022647036
155	0x3cb17077	0.021660073
156	0xb935984a	-0.00017318237
157	0x3c11d527	0.008900917
158	0xbc8237e4	-0.015895791
159	0x3d1d70f9	0.038437817
160	0x3d49688a	0.04917196
161	0x3d106028	0.03524795
162	0x3831a24f	4.235125e-05
163	0x3d1082e5	0.03528108
164	0xbc0a1920	-0.008428842
165	0x3b466db5	0.0030277793
166	0xbcb7bc5a	-0.02242868
167	0xbcb478d4	-0.022030272
168	0xbc663a8c	-0.014052045
169	0xbc3407b0	-0.010988161
170	0xbbb291eb	-0.0054495237
171	0x3c82f0ce	0.015983965
172	0x3a0ac84b	0.0005294128
173	0xbbf05787	-0.007334653
174	0xbccc928a	-0.024972219
175	0x3cf6fd9c	0.030150227
176	0xbc2f80cc	-0.01071186
177	0x3cfb5f54	0.030685104
178	0xbc3113b5	-0.010807921
179	0xbbeadb5f	-0.0071672644
180	0xbc4cdcfc	-0.012503859
181	0x3cc60959	0.02417438
182	0x3b97a3e9	0.004627694
183	0x3ccc1300	0.024911404
184	0x3b9cbb56	0.0047830744
185	0xbd151483	-0.036396515
186	0xbc6faf3c	-0.0146291815
187	0x3c7f5c76	0.015586009
188	0xbd900f74	-0.070341974
189	0xbd1d0018	-0.038330168
190	0xbc1992c0	-0.009373367
191	0xbc52f0c0	-0.012874782
192	0x3cd94bb0	0.026525348
193	0x3c60b7d2	0.013715701
194	0x3c276173	0.010216105
195	0x3a675a78	0.00088254316
196	0xbb50ce89	-0.0031861386
197	0xbc239262	-0.009983631
198	0xbcad73c9	-0.021173375
199	0xbd243d5b	-0.040097576
200	0x3c2468a8	0.010034718
201	0x3c536c8f	0.0129043
202	0x3cf8bedd	0.030364448
203	0x3d31f8b6	0.04345008
204	0x3c10dfe3	0.008842441
205	0xbb3eb196	-0.0029097549
206	0x3d3b8254	0.045778587
207	0x3d774f04	0.06037809
208	0x3c9427aa	0.01808532
209	0x3cae162c	0.021250807
210	0x3c3c623b	0.011498029
211	0x3c919e81	0.017775776
212	0xbcb82ae0	-0.022481382
213	0x3c04a790	0.008096591
214	0xbbff36d0	-0.0077885166
215	0x3aaf0a86	0.0013354577
216	0x3d1a6d19	0.0377017
217	0x3c3601cc	0.011108827
218	0x3c9159bc	0.017742984
219	0x3cca50fe	0.024696823
220	0xb981726d	-0.0002469005
221	0xbce5b48b	-0.028040191
222	0x3d50dc6b	0.050991457
223	0x3a4a150a	0.00077088235
224	0x3d07baae	0.033137016
225	0xbcaa7395	-0.020807067
226	0x3be46dc4	0.006971093
227	0x3c82abae	0.015951004
228	0xbcc9d3f7	-0.024637206
229	0xbbaa2489	-0.0051923436
230	0x3c8d1e7f	0.017226456
231	0xbc981fba	-0.018569816
232	0xbcbc361c	-0.02297502
233	0xbbd4dc6b	-0.0064960024
234	0x3cea4def	0.028601615
235	0xbc80b35f	-0.01571053
236	0xbc51aa3b	-0.012796934
237	0xbcaf339e	-0.021386918
238	0x3c01576c	0.007894378
239	0x3d38698e	0.04502254
240	0x3d2cd46e	0.042194776
241	0xbcab2f6a	-0.020896632
242	0x3c35f2ed	0.011105281
243	0x3c49e5d5	0.012322863
244	0xbc914ff2	-0.017738316
245	0xbbfd2d3c	-0.0077263396
246	0xbc155f76	-0.009116998
247	0xbd0c182c	-0.03420274
248	0x3b4e6b75	0.0031497155
249	0x3c97870d	0.018497014
250	0x3ca84e09	0.020545023
251	0x3cbf30d5	0.023338715
252	0x3bc6a30a	0.0060619162
253	0xbc9c273d	-0.019061679
254	0x3bb932e0	0.0056518167
255	0x3d61ebc3	0.05515648

model.qy_x.model.tcn_block_00.downsample.bias f4 [32]
0	0x3d00d000	0.031448364
1	0xbe0906fa	-0.13381568
2	0xbe0b8bdd	-0.13627572
3	0xbe77b0ad	-0.2418849
4	0x3d87b289	0.0662585
5	0xbcc6a6dd	-0.024249488
6	0xbe2fa172	-0.1715143
7	0x3e7f3040	0.2492075
8	0x3e38d6ec	0.18050736
9	0x3d8b744c	0.06809291
10	0x3d75fede	0.060057513
11	0x3b2570e8	0.00252443
12	0x3e3024a3	0.17201476
13	0xbe771520	-0.24129152
14	0xbe3681cd	-0.17822953
15	0x3e2fd8f3	0.17172603
16	0x3e57fc27	0.21092282
17	0xbcc2b714	-0.02376894
18	0xbcccb097	-0.024986548
19	0x3dfe1dbb	0.124080144
20	0x3e421de6	0.18956718
21	0xbdee82aa	-0.11646016
22	0x3e186a36	0.14884266
23	0x3e0b8ef2	0.13628748
24	0x3d5d5ed9	0.054045532
25	0xbe347cf5	-0.17625792
26	0x3bc8ac25	0.006124037
27	0xbd72a6c5	-0.059241075
28	0x3dd72f1d	0.10507033
29	0xbe437a69	-0.19089665
30	0x3e0cb431	0.13740613
31	0x3e4f4eec	0.2024495

model.qy_x.model.tcn_block_01.conv0.bias f4 [32]
0	0x3cfb6115	0.03068594
1	0xbcb6386e	-0.022243705
2	0x3d964324	0.07337025
3	0x3d5533b2	0.052051254
4	0x3d221ee2	0.039580233
5	0x3d917b5d	0.07103608
6	0x3ce04f9c	0.02738171
7	0x3d52bd26	0.051449917
8	0xbd690fcf	-0.056899842
9	0x3c614c84	0.013751153
10	0xbcbd9561	-0.023142518
11	0xbbcfdf8f	-0.006343789
12	0xbd24b383	-0.04021026
13	0xbd29d38e	-0.04146152
14	0x3cfa1b34	0.03053055
15	0x3d7c2f37	0.061568465
16	0xbcc490d6	-0.023994844
17	0x3ce8894e	0.028385784
18	0x3d5d75e5	0.05406751
19	0x3d4481eb	0.047975462
20	0xbd7f2e3e	-0.06229996
21	0xbca2f95f	-0.0198943
22	0x3d188f2e	0.03724592
23	0x3d5ece3e	0.054395907
24	0x3ce3d060	0.027809322
25	0xbd0c25f4	-0.034215882
26	0xbd5ffba2	-0.054683335
27	0xbca62f8d	-0.020286346
28	0xbcdc5ce9	-0.026899772
29	0xbcd0844b	-0.025453707
30	0xbd428f63	-0.047500025
31	0x3cda4bd9	0.026647495

model.qy_x.model.tcn_block_01.conv0.weight_g f4 [32, 1, 1]
0	0x3f0f1dc2	0.5590478
1	0x3f15e878	0.58557844
2	0x3f1a8281	0.60355383
3	0x3f1ddcca	0.6166502
4	0x3f1074cf	0.56428236
5	0x3f243d82	0.64156353
6	0x3f158e57	0.5842032
7	0x3f177975	0.59169704
8	0x3f1deefe	0.616928
9	0x3f1a196f	0.6019506
10	0x3f137efa	0.57615626
11	0x3f183c31	0.59466845
12	0x3f1cd346	0.6125988
13	0x3f1a12fa	0.60185206
14	0x3f161e92	0.58640397
15	0x3f12bd7b	0.57320374
16	0x3f132547	0.57478756
17	0x3f1a7628	0.6033654
18	0x3f1ef796	0.62096536
19	0x3f1a148a	0.6018759
20	0x3f129c0c	0.5726936
21	0x3f1f13e0	0.621397
22	0x3f17cce2	0.59297
23	0x3f17ba32	0.59268486
24	0x3f130e7b	0.5744397
25	0x3f13f215	0.5779126
26	0x3f19dec1	0.6010552
27	0x3f22ed99	0.63643795
28	0x3f15f45d	0.58575994
29	0x3f136863	0.57581156
30	0x3f12d827	0.5736107
31	0x3f1842c9	0.59476906
