results_gmdgm/ssm_v1/dtcn/kl_v13/version_1/best_val_model.pt (torch, 34951 bytes, 120 tensors)

model.qy_x.dense(qy_x)_layer_00.weight f4 [4, 10]
000000 ba 80 bc bb 2b 5f 7a 3e 81 bd 1a be 1c 8c 8b 3c
       -0.00575265 0.24450366 -0.15111353 0.017034583
000010 0e 25 11 be 97 42 8e bd bc 32 12 3d 10 b2 ca 3d
       -0.14174291 -0.06946295 0.035692915 0.09897244
000020 e7 57 1e bd e3 73 14 3d 59 84 12 bc da 3b 7c 3e
       -0.03865805 0.03624333 -0.008942687 0.24632207
000030 94 a9 1a be ab 17 86 3c b4 96 06 be 67 27 b5 bd
       -0.15103751 0.016368708 -0.13143426 -0.08845406
000040 b6 af 52 3d 0b 48 a2 3d 98 ff 13 bd 90 10 9b 3c
       0.051437102 0.07923897 -0.036132425 0.018928796
000050 8e 80 72 3c 0c 71 89 3e c3 fa 19 be f7 95 8e 3c
       0.014801158 0.2684406 -0.15037064 0.017405493
000060 d0 c6 01 bd 21 82 7d bd e1 34 2f 3e 91 c4 11 3c
       -0.031683743 -0.06189168 0.17110015 0.008896963
000070 6d 85 93 bd 42 17 1c 3b af 84 ab bc 63 b6 66 3e
       -0.07203183 0.0023817574 -0.020937292 0.22530513
000080 2c a7 1b be 87 9e 74 3c 8e dc 75 be 10 56 0e be
       -0.1520049 0.014930374 -0.24009916 -0.13900018
000090 d0 0f 30 bd 4d 8d f2 3d 10 03 ed 3b 49 d7 49 3d
       -0.04298383 0.11843357 0.007233031 0.049277578

model.qy_x.dense(qy_x)_layer_00.bias f4 [4]
000000 a0 8e dc bd f0 2f dd bd 37 e8 df bd e0 5d d9 bd
       -0.10769391 -0.10800159 -0.10932963 -0.10613608

model.encoder.model.tcn_block_00.conv0.bias f4 [2]
000000 e0 b6 00 bf 59 fb 65 bc
       -0.50279045 -0.014036977

model.encoder.model.tcn_block_00.conv0.weight_g f4 [2, 1, 1]
000000 2e 32 87 3f 0b 49 1b 3f
       1.0562189 0.6065833

model.encoder.model.tcn_block_00.conv0.weight_v f4 [2, 14, 9]
000000 f9 b4 34 be 76 91 ec bd 7e 71 11 bd 57 84 8f 3c
       -0.1764716 -0.11551182 -0.035508625 0.01751916
000010 ce 37 12 3d ac 5d a8 3d 1c 60 ec 3d e5 82 0f 3e
       0.03569775 0.082209915 0.11541769 0.14014776
000020 fb 94 1d 3e 23 7b 2d 3e f9 72 e0 3d 0b df f2 3c
       0.15388863 0.16941504 0.10959429 0.02964737
000030 b4 44 3a ba 7f 51 62 bd 6f ed b8 bd 83 6d cc bd
       -0.00071055745 -0.055253502 -0.09029662 -0.09981825
000040 ad 98 ea bd e2 b5 05 be 47 3e 31 3e c5 0f c3 3d
       -0.11454902 -0.13057664 0.17308913 0.09524492
000050 8a 09 48 3d bc e6 94 ba b4 9b 36 bc ef cd 84 bd
       0.048837222 -0.0011360268 -0.011145521 -0.06484591
000060 da 8d 78 bd 58 b5 d3 bd 63 1a 27 be 64 a6 f6 bd
       -0.060682155 -0.10337323 -0.1631866 -0.12043455
000070 b2 4e 0e bc 19 ef 28 bc 04 3d fe bb 0c 5c a0 3c
       -0.008685755 -0.010310912 -0.0077587385 0.019575141
000080 b5 00 ae 3b f6 5b 12 bd 30 16 39 3d c3 77 73 3c
       0.005310143 -0.035732232 0.045187175 0.014860096
000090 40 2a ca bc 0c 05 f9 3c d3 0b b3 3c 7e 62 27 bd
       -0.02467835 0.030397914 0.021856224 -0.040865414
0000a0 0b d9 3b 3c 58 4f 94 3b 3e 9b 36 3c 69 8c e4 bb
       0.011465321 0.00452606 0.011145411 -0.006974746
0000b0 92 2f 8e 3c 1e 5d 1c be d4 b9 87 bd b9 64 a6 bc
       0.017356668 -0.15269896 -0.06627241 -0.0203117
0000c0 82 12 e6 3c a5 58 5d 3d e0 42 62 3d cf 2f a3 3d
       0.028084997 0.054039616 0.05523956 0.07968103
0000d0 7d 57 e5 3d 06 7e e2 3d ff 14 2e 3d 25 b3 0e 3d
       0.11198328 0.11059193 0.042500492 0.034838814
0000e0 58 8c 86 3d d8 a0 ff 3c 82 46 cf bc 0f 0b 1e bd
       0.06569737 0.031204626 -0.025302175 -0.038584765
0000f0 c6 54 9c bd 71 b4 60 bd 1c cc b3 bd d1 eb ee 3d
       -0.07633357 -0.054859582 -0.08779165 0.11666072
000100 c8 bf bf 3d e2 76 43 3d c0 84 e9 bb 6f 01 28 bc
       0.09362751 0.047720797 -0.0071264207 -0.010254248
000110 f9 5d a8 bd 14 d9 8a bd 21 54 cc bd 32 e8 2b be
       -0.08221049 -0.067796856 -0.09976984 -0.16787794
000120 b7 f9 22 be 89 ac d7 bd 44 37 1a bd f0 b3 8b 3a
       -0.15915571 -0.10530955 -0.03765036 0.0010658484
000130 96 18 ed 3c f1 58 9d 3d 17 eb a8 3d 7d bd 0b 3e
       0.028942388 0.0768298 0.08247965 0.13646503
000140 ad bf 20 3e 67 ad 81 3d b7 17 17 3d 54 a5 12 3b
       0.15698119 0.06331902 0.03688785 0.0022376375
000150 94 3d 2b bc 26 a9 2c bd 5e 70 16 bd cf 72 f7 bc
       -0.010451693 -0.0421535 -0.036728255 -0.030206112
000160 d0 c1 7e bd c1 86 4a bd 6d 12 b3 bd e4 68 ce bd
       -0.062196553 -0.049444918 -0.08743749 -0.100786
000170 b8 1d ce bd 32 3d d9 bd 4f 21 ce bd fb 89 bf bd
       -0.10064262 -0.10607375 -0.10064947 -0.093524896
000180 53 7b b9 bd 52 53 ba bd a3 c9 b7 bd c0 83 d2 bd
       -0.09056725 -0.09097923 -0.08974006 -0.102790356
000190 a9 90 f3 bd b7 58 e3 bd 86 1b b6 bd 16 4b cf bd
       -0.11892826 -0.111009054 -0.088919684 -0.101217434
0001a0 1d 1d e5 bd 23 0a ef bd a2 1b f6 bd d3 e9 f6 bd
       -0.111871935 -0.11671855 -0.12016989 -0.12056317
0001b0 68 c9 db bd 58 74 c4 bd 2f f1 be bd e0 4e f4 bd
       -0.107317746 -0.09592503 -0.09323346 -0.11929107
0001c0 ff 71 b6 bd f1 2b eb bd 6f 1c d9 bd e1 e8 e3 bd
       -0.08908462 -0.114829905 -0.106011264 -0.111284025
0001d0 3d 32 d2 bd 73 3e d8 bd b1 c1 f1 bd b4 2e f1 bd
       -0.102634884 -0.10558786 -0.11804522 -0.11776486
0001e0 1e 59 d3 bd 6d c3 ce bd 57 a0 de bd 00 5a bc bd
       -0.10319732 -0.10095868 -0.10870426 -0.09196854
0001f0 3b 50 ed bd 1b 1d d0 bd 50 d7 aa 3d 65 25 2e bd
       -0.11587568 -0.101618014 0.08341849 -0.04251613
000200 99 5c 92 3d 29 92 c3 3c 1a a1 af bd 57 f5 bc 3b
       0.07146568 0.023873406 -0.085756496 0.0057665515
000210 8c 29 75 bd 56 98 cb bd b0 c5 49 bd 8c 00 92 bd
       -0.059854075 -0.09941165 -0.049260795 -0.071290106
000220 dc 3c cb 3c 64 6f ca bc 36 f3 27 3d dc cb d9 3c
       0.024809293 -0.024711318 0.04100343 0.026586466
000230 9e 8f 8e 3d 50 54 9e 3d 0d 92 9f 3d 42 99 b8 3d
       0.069609866 0.07730925 0.07791529 0.090136066
000240 4e d2 53 bc b6 ff 92 3d 43 de 5d 3b c4 00 73 3c
       -0.0129285585 0.07177679 0.0033854402 0.0148317255
000250 cd 06 fa bc b8 01 a3 3d 20 1f 03 3c f5 59 a1 3d
       -0.030520821 0.07959312 0.008003026 0.07878486
000260 aa 00 63 3d 90 d6 02 3d 75 67 79 bd dc 77 eb 3c
       0.055420555 0.031942904 -0.06088968 0.028743677
000270 08 31 0e 3c d4 ef 1f 3d cd 39 35 bd 3a fe 42 bd
       0.008678682 0.039047077 -0.044244576 -0.04760573
000280 7f 62 a5 bd 05 45 ef bb 47 ef 94 bd 76 22 11 3d
       -0.08075427 -0.007301929 -0.07272201 0.035433255
000290 16 a8 f4 3a 2b 88 86 bc 05 84 f4 bb 21 f1 a6 bb
       0.0018665816 -0.016422352 -0.007462027 -0.005094663
0002a0 fb 9a 0a 3d 4d ed d8 3c e6 a4 5c 3d 46 9f 19 3d
       0.033839207 0.026480341 0.053868197 0.03750541
0002b0 0d 95 40 bd c0 28 c1 bc 7e 87 a1 3d 4e 3b 7a bd
       -0.047017146 -0.023579001 0.07887171 -0.061091714
0002c0 63 2e c4 bc 76 3c 2b 3c df d7 85 bd 99 10 c4 bd
       -0.0239479 0.010451427 -0.06535315 -0.09573478
0002d0 27 8b 22 bd 9b 42 97 3d cf 36 c6 bc 4e aa 83 3b
       -0.039683487 0.07385751 -0.024196057 0.0040181046
0002e0 86 ae df bb d1 84 28 bb 8b 1a 59 bb e5 62 57 3d
       -0.0068262247 -0.002571393 -0.0033127393 0.052584548
0002f0 d8 e0 28 bc c9 55 b7 3d 0b 34 93 3d fd 4a dc bc
       -0.010307513 0.08951909 0.07187661 -0.026891226
000300 c1 88 86 3d e0 35 a2 bc 2a 32 be 3c ea 86 8e 3d
       0.065690525 -0.01980108 0.02321728 0.069593266
000310 31 35 96 3d fb f0 df 3d 6b ad 28 bd 4f 34 1a bd
       0.07334364 0.10934635 -0.04118101 -0.03764754
000320 76 81 5a 3c de f6 ba bd 97 94 aa 3c 08 ea fd bd
       0.01333653 -0.091291174 0.020822806 -0.123981535
000330 2a de 41 bd 20 a0 97 bd 92 cb d8 bd 17 cd 0e bd
       -0.047331013 -0.07403588 -0.10585703 -0.034863558
000340 d7 b7 11 3d 66 05 31 bd ec 11 63 bd af ae 80 bc
       0.035575714 -0.04321804 -0.055437014 -0.015708296
000350 f5 8f 28 bd f1 7d 9b 3d 9c 6f 29 3d 89 67 5f 3d
       -0.041152913 0.07592381 0.041366205 0.0545421
000360 ce 69 96 3c b5 51 41 3e 73 e6 3d 3e 42 7c 41 3e
       0.018360998 0.18878825 0.1854494 0.18895057
000370 57 4e 3a 3e 33 21 bd 3d cd 4e e4 3d f1 14 38 3e
       0.18193947 0.09234848 0.111478426 0.17976739
000380 31 ba 42 3e 78 a1 36 3e 27 1f 50 3d 12 55 6d 3d
       0.19016339 0.17835033 0.05081096 0.057942457
000390 66 29 a8 bd 01 98 34 3e 27 0f c3 3c 79 80 8f bd
       -0.08211021 0.1763611 0.023810936 -0.07006926
0003a0 c1 a5 45 3e 98 eb 09 bc 57 00 12 3e 5c 91 38 3e
       0.19301511 -0.008417986 0.14257942 0.180242
0003b0 25 6b 24 3e 32 32 76 bc 48 59 5a bd a7 71 43 3e
       0.16056497 -0.015026616 -0.0533078 0.19086324
0003c0 58 0e 2d 3e 3a 05 45 3e cc f2 be 3d 5f 16 36 3e
       0.16900003 0.19240275 0.093236536 0.17781971
0003d0 01 4e f1 3d 80 a1 1a 3e 93 03 c0 bb f1 25 38 3e
       0.11782456 0.1510067 -0.005859801 0.17983223
0003e0 11 ba 36 3e 6a b5 19 3e d1 d1 f4 3d 6b 29 9c bb
       0.17844416 0.1501061 0.11954082 -0.0047656796

model.encoder.model.tcn_block_00.conv1.bias f4 [2]
000000 9d 59 92 3d 76 53 2d 3f
       0.071459986 0.67705476

model.encoder.model.tcn_block_00.conv1.weight_g f4 [2, 1, 1]
000000 90 5c d1 3e 78 d2 36 3f
       0.40890932 0.714149

model.encoder.model.tcn_block_00.conv1.weight_v f4 [2, 2, 9]
000000 9d c6 04 3e 60 3d 01 be 60 b7 15 be ee 76 3a 3d
       0.1296639 -0.12621069 -0.14620733 0.045523576
000010 65 b9 23 be 98 09 88 3d 34 c9 1f 3d 22 c3 55 be
       -0.15988691 0.06642455 0.03901024 -0.20875219
000020 f7 bf 67 bc b9 10 1f 3e c3 17 f7 3d 3a 85 bc bc
       -0.014144889 0.15533723 0.12065079 -0.023012746
000030 39 fc 4d be 47 19 60 bd 83 7a 0f 3d 42 88 f2 bd
       -0.20115747 -0.054711606 0.035028946 -0.11842395
000040 72 6d a0 3c 9a f9 87 3d 3d 03 69 be 20 5a 5d be
       0.019583438 0.066394046 -0.22755142 -0.21616411
000050 e3 b9 64 be d4 1e 5a be 68 66 59 be 05 c3 54 be
       -0.22336535 -0.21300822 -0.21230471 -0.20777519
000060 4f 0b 66 be c6 d2 50 be 92 e6 6e bd 09 b8 f9 3c
       -0.22465251 -0.20392904 -0.058325358 0.030483263
000070 86 c7 87 3d 58 cc 43 3d e6 ef b0 3d 18 8e 3d bd
       0.06629853 0.0478023 0.08639507 -0.04627809
000080 78 ff dd bd 19 f6 eb bd c3 09 44 3e 0a 28 1e 3e
       -0.108397424 -0.11521549 0.19144349 0.15444961

model.encoder.model.tcn_block_00.block.conv1d_layer_0.bias f4 [2]
000000 e0 b6 00 bf 59 fb 65 bc
       -0.50279045 -0.014036977

model.encoder.model.tcn_block_00.block.conv1d_layer_0.weight_g f4 [2, 1, 1]
000000 2e 32 87 3f 0b 49 1b 3f
       1.0562189 0.6065833

model.encoder.model.tcn_block_00.block.conv1d_layer_0.weight_v f4 [2, 14, 9]
000000 f9 b4 34 be 76 91 ec bd 7e 71 11 bd 57 84 8f 3c
       -0.1764716 -0.11551182 -0.035508625 0.01751916
000010 ce 37 12 3d ac 5d a8 3d 1c 60 ec 3d e5 82 0f 3e
       0.03569775 0.082209915 0.11541769 0.14014776
000020 fb 94 1d 3e 23 7b 2d 3e f9 72 e0 3d 0b df f2 3c
       0.15388863 0.16941504 0.10959429 0.02964737
000030 b4 44 3a ba 7f 51 62 bd 6f ed b8 bd 83 6d cc bd
       -0.00071055745 -0.055253502 -0.09029662 -0.09981825
000040 ad 98 ea bd e2 b5 05 be 47 3e 31 3e c5 0f c3 3d
       -0.11454902 -0.13057664 0.17308913 0.09524492
000050 8a 09 48 3d bc e6 94 ba b4 9b 36 bc ef cd 84 bd
       0.048837222 -0.0011360268 -0.011145521 -0.06484591
000060 da 8d 78 bd 58 b5 d3 bd 63 1a 27 be 64 a6 f6 bd
       -0.060682155 -0.10337323 -0.1631866 -0.12043455
000070 b2 4e 0e bc 19 ef 28 bc 04 3d fe bb 0c 5c a0 3c
       -0.008685755 -0.010310912 -0.0077587385 0.019575141
000080 b5 00 ae 3b f6 5b 12 bd 30 16 39 3d c3 77 73 3c
       0.005310143 -0.035732232 0.045187175 0.014860096
000090 40 2a ca bc 0c 05 f9 3c d3 0b b3 3c 7e 62 27 bd
       -0.02467835 0.030397914 0.021856224 -0.040865414
0000a0 0b d9 3b 3c 58 4f 94 3b 3e 9b 36 3c 69 8c e4 bb
       0.011465321 0.00452606 0.011145411 -0.006974746
0000b0 92 2f 8e 3c 1e 5d 1c be d4 b9 87 bd b9 64 a6 bc
       0.017356668 -0.15269896 -0.06627241 -0.0203117
0000c0 82 12 e6 3c a5 58 5d 3d e0 42 62 3d cf 2f a3 3d
       0.028084997 0.054039616 0.05523956 0.07968103
0000d0 7d 57 e5 3d 06 7e e2 3d ff 14 2e 3d 25 b3 0e 3d
       0.11198328 0.11059193 0.042500492 0.034838814
0000e0 58 8c 86 3d d8 a0 ff 3c 82 46 cf bc 0f 0b 1e bd
       0.06569737 0.031204626 -0.025302175 -0.038584765
0000f0 c6 54 9c bd 71 b4 60 bd 1c cc b3 bd d1 eb ee 3d
       -0.07633357 -0.054859582 -0.08779165 0.11666072
000100 c8 bf bf 3d e2 76 43 3d c0 84 e9 bb 6f 01 28 bc
       0.09362751 0.047720797 -0.0071264207 -0.010254248
000110 f9 5d a8 bd 14 d9 8a bd 21 54 cc bd 32 e8 2b be
       -0.08221049 -0.067796856 -0.09976984 -0.16787794
000120 b7 f9 22 be 89 ac d7 bd 44 37 1a bd f0 b3 8b 3a
       -0.15915571 -0.10530955 -0.03765036 0.0010658484
000130 96 18 ed 3c f1 58 9d 3d 17 eb a8 3d 7d bd 0b 3e
       0.028942388 0.0768298 0.08247965 0.13646503
000140 ad bf 20 3e 67 ad 81 3d b7 17 17 3d 54 a5 12 3b
       0.15698119 0.06331902 0.03688785 0.0022376375
000150 94 3d 2b bc 26 a9 2c bd 5e 70 16 bd cf 72 f7 bc
       -0.010451693 -0.0421535 -0.036728255 -0.030206112
000160 d0 c1 7e bd c1 86 4a bd 6d 12 b3 bd e4 68 ce bd
       -0.062196553 -0.049444918 -0.08743749 -0.100786
000170 b8 1d ce bd 32 3d d9 bd 4f 21 ce bd fb 89 bf bd
       -0.10064262 -0.10607375 -0.10064947 -0.093524896
000180 53 7b b9 bd 52 53 ba bd a3 c9 b7 bd c0 83 d2 bd
       -0.09056725 -0.09097923 -0.08974006 -0.102790356
000190 a9 90 f3 bd b7 58 e3 bd 86 1b b6 bd 16 4b cf bd
       -0.11892826 -0.111009054 -0.088919684 -0.101217434
0001a0 1d 1d e5 bd 23 0a ef bd a2 1b f6 bd d3 e9 f6 bd
       -0.111871935 -0.11671855 -0.12016989 -0.12056317
0001b0 68 c9 db bd 58 74 c4 bd 2f f1 be bd e0 4e f4 bd
       -0.107317746 -0.09592503 -0.09323346 -0.11929107
0001c0 ff 71 b6 bd f1 2b eb bd 6f 1c d9 bd e1 e8 e3 bd
       -0.08908462 -0.114829905 -0.106011264 -0.111284025
0001d0 3d 32 d2 bd 73 3e d8 bd b1 c1 f1 bd b4 2e f1 bd
       -0.102634884 -0.10558786 -0.11804522 -0.11776486
0001e0 1e 59 d3 bd 6d c3 ce bd 57 a0 de bd 00 5a bc bd
       -0.10319732 -0.10095868 -0.10870426 -0.09196854
0001f0 3b 50 ed bd 1b 1d d0 bd 50 d7 aa 3d 65 25 2e bd
       -0.11587568 -0.101618014 0.08341849 -0.04251613
000200 99 5c 92 3d 29 92 c3 3c 1a a1 af bd 57 f5 bc 3b
       0.07146568 0.023873406 -0.085756496 0.0057665515
000210 8c 29 75 bd 56 98 cb bd b0 c5 49 bd 8c 00 92 bd
       -0.059854075 -0.09941165 -0.049260795 -0.071290106
000220 dc 3c cb 3c 64 6f ca bc 36 f3 27 3d dc cb d9 3c
       0.024809293 -0.024711318 0.04100343 0.026586466
000230 9e 8f 8e 3d 50 54 9e 3d 0d 92 9f 3d 42 99 b8 3d
       0.069609866 0.07730925 0.07791529 0.090136066
000240 4e d2 53 bc b6 ff 92 3d 43 de 5d 3b c4 00 73 3c
       -0.0129285585 0.07177679 0.0033854402 0.0148317255
000250 cd 06 fa bc b8 01 a3 3d 20 1f 03 3c f5 59 a1 3d
       -0.030520821 0.07959312 0.008003026 0.07878486
000260 aa 00 63 3d 90 d6 02 3d 75 67 79 bd dc 77 eb 3c
       0.055420555 0.031942904 -0.06088968 0.028743677
000270 08 31 0e 3c d4 ef 1f 3d cd 39 35 bd 3a fe 42 bd
       0.008678682 0.039047077 -0.044244576 -0.04760573
000280 7f 62 a5 bd 05 45 ef bb 47 ef 94 bd 76 22 11 3d
       -0.08075427 -0.007301929 -0.07272201 0.035433255
000290 16 a8 f4 3a 2b 88 86 bc 05 84 f4 bb 21 f1 a6 bb
       0.0018665816 -0.016422352 -0.007462027 -0.005094663
0002a0 fb 9a 0a 3d 4d ed d8 3c e6 a4 5c 3d 46 9f 19 3d
       0.033839207 0.026480341 0.053868197 0.03750541
0002b0 0d 95 40 bd c0 28 c1 bc 7e 87 a1 3d 4e 3b 7a bd
       -0.047017146 -0.023579001 0.07887171 -0.061091714
0002c0 63 2e c4 bc 76 3c 2b 3c df d7 85 bd 99 10 c4 bd
       -0.0239479 0.010451427 -0.06535315 -0.09573478
0002d0 27 8b 22 bd 9b 42 97 3d cf 36 c6 bc 4e aa 83 3b
       -0.039683487 0.07385751 -0.024196057 0.0040181046
0002e0 86 ae df bb d1 84 28 bb 8b 1a 59 bb e5 62 57 3d
       -0.0068262247 -0.002571393 -0.0033127393 0.052584548
0002f0 d8 e0 28 bc c9 55 b7 3d 0b 34 93 3d fd 4a dc bc
       -0.010307513 0.08951909 0.07187661 -0.026891226
000300 c1 88 86 3d e0 35 a2 bc 2a 32 be 3c ea 86 8e 3d
       0.065690525 -0.01980108 0.02321728 0.069593266
000310 31 35 96 3d fb f0 df 3d 6b ad 28 bd 4f 34 1a bd
       0.07334364 0.10934635 -0.04118101 -0.03764754
000320 76 81 5a 3c de f6 ba bd 97 94 aa 3c 08 ea fd bd
       0.01333653 -0.091291174 0.020822806 -0.123981535
000330 2a de 41 bd 20 a0 97 bd 92 cb d8 bd 17 cd 0e bd
       -0.047331013 -0.07403588 -0.10585703 -0.034863558
000340 d7 b7 11 3d 66 05 31 bd ec 11 63 bd af ae 80 bc
       0.035575714 -0.04321804 -0.055437014 -0.015708296
000350 f5 8f 28 bd f1 7d 9b 3d 9c 6f 29 3d 89 67 5f 3d
       -0.041152913 0.07592381 0.041366205 0.0545421
000360 ce 69 96 3c b5 51 41 3e 73 e6 3d 3e 42 7c 41 3e
       0.018360998 0.18878825 0.1854494 0.18895057
000370 57 4e 3a 3e 33 21 bd 3d cd 4e e4 3d f1 14 38 3e
       0.18193947 0.09234848 0.111478426 0.17976739
000380 31 ba 42 3e 78 a1 36 3e 27 1f 50 3d 12 55 6d 3d
       0.19016339 0.17835033 0.05081096 0.057942457
000390 66 29 a8 bd 01 98 34 3e 27 0f c3 3c 79 80 8f bd
       -0.08211021 0.1763611 0.023810936 -0.07006926
0003a0 c1 a5 45 3e 98 eb 09 bc 57 00 12 3e 5c 91 38 3e
       0.19301511 -0.008417986 0.14257942 0.180242
0003b0 25 6b 24 3e 32 32 76 bc 48 59 5a bd a7 71 43 3e
       0.16056497 -0.015026616 -0.0533078 0.19086324
0003c0 58 0e 2d 3e 3a 05 45 3e cc f2 be 3d 5f 16 36 3e
       0.16900003 0.19240275 0.093236536 0.17781971
0003d0 01 4e f1 3d 80 a1 1a 3e 93 03 c0 bb f1 25 38 3e
       0.11782456 0.1510067 -0.005859801 0.17983223
0003e0 11 ba 36 3e 6a b5 19 3e d1 d1 f4 3d 6b 29 9c bb
       0.17844416 0.1501061 0.11954082 -0.0047656796

model.encoder.model.tcn_block_00.block.conv1d_layer_1.bias f4 [2]
000000 9d 59 92 3d 76 53 2d 3f
       0.071459986 0.67705476

model.encoder.model.tcn_block_00.block.conv1d_layer_1.weight_g f4 [2, 1, 1]
000000 90 5c d1 3e 78 d2 36 3f
       0.40890932 0.714149

model.encoder.model.tcn_block_00.block.conv1d_layer_1.weight_v f4 [2, 2, 9]
000000 9d c6 04 3e 60 3d 01 be 60 b7 15 be ee 76 3a 3d
       0.1296639 -0.12621069 -0.14620733 0.045523576
000010 65 b9 23 be 98 09 88 3d 34 c9 1f 3d 22 c3 55 be
       -0.15988691 0.06642455 0.03901024 -0.20875219
000020 f7 bf 67 bc b9 10 1f 3e c3 17 f7 3d 3a 85 bc bc
       -0.014144889 0.15533723 0.12065079 -0.023012746
000030 39 fc 4d be 47 19 60 bd 83 7a 0f 3d 42 88 f2 bd
       -0.20115747 -0.054711606 0.035028946 -0.11842395
000040 72 6d a0 3c 9a f9 87 3d 3d 03 69 be 20 5a 5d be
       0.019583438 0.066394046 -0.22755142 -0.21616411
000050 e3 b9 64 be d4 1e 5a be 68 66 59 be 05 c3 54 be
       -0.22336535 -0.21300822 -0.21230471 -0.20777519
000060 4f 0b 66 be c6 d2 50 be 92 e6 6e bd 09 b8 f9 3c
       -0.22465251 -0.20392904 -0.058325358 0.030483263
000070 86 c7 87 3d 58 cc 43 3d e6 ef b0 3d 18 8e 3d bd
       0.06629853 0.0478023 0.08639507 -0.04627809
000080 78 ff dd bd 19 f6 eb bd c3 09 44 3e 0a 28 1e 3e
       -0.108397424 -0.11521549 0.19144349 0.15444961

model.encoder.model.tcn_block_00.downsample.weight f4 [2, 14, 1]
000000 1f 7a 61 be ac 1b 15 3e f3 af 49 3e 15 6b 67 3d
       -0.22019242 0.14561337 0.19696026 0.056498606
000010 d6 0c 17 be d8 c6 dc bd 5e 1c 96 3e d0 d6 b5 3e
       -0.1475099 -0.10780114 0.29318517 0.3551545
000020 ca 27 9c be 7e 98 b6 bc 71 f4 ad 3f 38 a8 b0 3f
       -0.30499107 -0.02228951 1.3590223 1.3801336
000030 56 60 ac 3f 5b 8e b0 3f 5c 45 c4 3e 12 66 d9 be
       1.3466899 1.3793443 0.38334167 -0.42460686
000040 36 0e 15 be 18 32 1d 3f ef f2 20 bf 78 58 fb 3e
       -0.14556202 0.6140456 -0.6287069 0.49090934
000050 de bd 11 3f 2b 52 47 bb 57 08 f0 3d 88 ee 19 bf
       0.5693034 -0.0030413966 0.11720341 -0.60129595
000060 26 23 a5 3f 2a a0 a7 3f 87 76 a2 3f ff 2a a7 3f
       1.2901351 1.3095753 1.2692422 1.3059996

model.encoder.model.tcn_block_00.downsample.bias f4 [2]
000000 2b 57 c2 3f 47 fa c5 3f
       1.5182852 1.5467004

model.encoder.model.tcn_block_01.conv0.bias f4 [2]
000000 95 b1 45 3e d3 42 0a 3f
       0.19306023 0.54008216

model.encoder.model.tcn_block_01.conv0.weight_g f4 [2, 1, 1]
000000 e2 ca 1d 3f e8 7a 51 3f
       0.616377 0.81828165

model.encoder.model.tcn_block_01.conv0.weight_v f4 [2, 2, 9]
000000 e6 a8 a4 3e b1 8b a3 3e ec 1b d1 3d c5 27 f4 3d
       0.3216011 0.31942514 0.10210404 0.11921648
000010 71 a6 50 be 5c 84 6c bd e9 27 37 be 4c 7e 8f be
       -0.20375992 -0.057743415 -0.17886318 -0.28026044
000020 ee 58 85 be 7e 24 fc bd 1a b0 1c be 4c 3d 8c bc
       -0.2604441 -0.12311648 -0.15301552 -0.017119072
000030 cc 92 52 3d 2f 6d ab bd 67 89 34 3d cb d8 cc 3d
       0.051409528 -0.083704345 0.04407635 0.100022875
000040 b0 b1 13 3e f1 bc 80 bd 58 67 ac 3e 83 a7 18 3e
       0.14423251 -0.06286038 0.33672595 0.1490765
000050 d8 48 e1 bc ce 6a 87 3d ca 33 1c 3e 7f 0c 1b 3d
       -0.027500555 0.06612168 0.15254131 0.037853714
000060 95 d1 0e be 43 d3 34 be 65 a2 99 be 86 5d 9b 3d
       -0.13947137 -0.17658715 -0.3000671 0.075861976
000070 1f 80 be bd c9 1a 12 be be 8a a0 3b e1 6b be 3d
       -0.09301781 -0.1426803 0.004899352 0.0929792
000080 12 6e 3f be 4b c7 11 3e 0a 8f b1 3c 67 72 33 be
       -0.18694332 0.1423618 0.021674652 -0.1752411

model.encoder.model.tcn_block_01.conv1.bias f4 [2]
000000 f0 5e 2f 3d 69 61 09 3e
       0.04281515 0.13416065

model.encoder.model.tcn_block_01.conv1.weight_g f4 [2, 1, 1]
000000 41 a1 b8 3e 4c 2d 4f 3f
       0.36060527 0.8092849

model.encoder.model.tcn_block_01.conv1.weight_v f4 [2, 2, 9]
000000 fa 52 00 be 37 4f 1d bc f0 5f 0d 3e fa 89 3f be
       -0.12531653 -0.009601406 0.13806129 -0.18704978
000010 8b 9a 28 3e 18 16 09 3e 65 20 1a 3e cc 74 32 be
       0.16465203 0.13387334 0.1505142 -0.17427367
000020 42 6f 78 3e 34 da 07 be 0e 1c 9c 3e cb 42 6c be
       0.24261191 -0.13266832 0.30490154 -0.23072354
000030 c1 bf 4f be 17 9f 52 3e 17 73 9a 3d 6a b5 ab 3d
       -0.20287992 0.205685 0.07541483 0.08384211
000040 67 5e a0 bd c6 fc be bc a7 0b 22 3d 92 ce 53 bd
       -0.07830506 -0.023313891 0.039561894 -0.051710673
000050 d1 df 24 3d c4 32 47 3d 80 a5 6e 3d 20 0d aa 3d
       0.04025251 0.0486324 0.0582633 0.08303285
000060 ad 0f c6 3d 58 db 76 3d 67 73 ca 3c 23 2c 7a 3e
       0.09670959 0.060267776 0.024713231 0.244309
000070 99 6c 61 3e 72 0b 46 3e be 74 5b 3e f6 fa 59 3e
       0.22014083 0.19340304 0.21431252 0.2128714
000080 28 9a 5a 3e 4d c9 3d 3e 83 79 40 3e 66 04 f2 3d
       0.21347868 0.18533821 0.18796353 0.11817245

model.encoder.model.tcn_block_01.block.conv1d_layer_0.bias f4 [2]
000000 95 b1 45 3e d3 42 0a 3f
       0.19306023 0.54008216

model.encoder.model.tcn_block_01.block.conv1d_layer_0.weight_g f4 [2, 1, 1]
000000 e2 ca 1d 3f e8 7a 51 3f
       0.616377 0.81828165

model.encoder.model.tcn_block_01.block.conv1d_layer_0.weight_v f4 [2, 2, 9]
000000 e6 a8 a4 3e b1 8b a3 3e ec 1b d1 3d c5 27 f4 3d
       0.3216011 0.31942514 0.10210404 0.11921648
000010 71 a6 50 be 5c 84 6c bd e9 27 37 be 4c 7e 8f be
       -0.20375992 -0.057743415 -0.17886318 -0.28026044
000020 ee 58 85 be 7e 24 fc bd 1a b0 1c be 4c 3d 8c bc
       -0.2604441 -0.12311648 -0.15301552 -0.017119072
000030 cc 92 52 3d 2f 6d ab bd 67 89 34 3d cb d8 cc 3d
       0.051409528 -0.083704345 0.04407635 0.100022875
000040 b0 b1 13 3e f1 bc 80 bd 58 67 ac 3e 83 a7 18 3e
       0.14423251 -0.06286038 0.33672595 0.1490765
000050 d8 48 e1 bc ce 6a 87 3d ca 33 1c 3e 7f 0c 1b 3d
       -0.027500555 0.06612168 0.15254131 0.037853714
000060 95 d1 0e be 43 d3 34 be 65 a2 99 be 86 5d 9b 3d
       -0.13947137 -0.17658715 -0.3000671 0.075861976
000070 1f 80 be bd c9 1a 12 be be 8a a0 3b e1 6b be 3d
       -0.09301781 -0.1426803 0.004899352 0.0929792
000080 12 6e 3f be 4b c7 11 3e 0a 8f b1 3c 67 72 33 be
       -0.18694332 0.1423618 0.021674652 -0.1752411

model.encoder.model.tcn_block_01.block.conv1d_layer_1.bias f4 [2]
000000 f0 5e 2f 3d 69 61 09 3e
       0.04281515 0.13416065

model.encoder.model.tcn_block_01.block.conv1d_layer_1.weight_g f4 [2, 1, 1]
000000 41 a1 b8 3e 4c 2d 4f 3f
       0.36060527 0.8092849

model.encoder.model.tcn_block_01.block.conv1d_layer_1.weight_v f4 [2, 2, 9]
000000 fa 52 00 be 37 4f 1d bc f0 5f 0d 3e fa 89 3f be
       -0.12531653 -0.009601406 0.13806129 -0.18704978
000010 8b 9a 28 3e 18 16 09 3e 65 20 1a 3e cc 74 32 be
       0.16465203 0.13387334 0.1505142 -0.17427367
000020 42 6f 78 3e 34 da 07 be 0e 1c 9c 3e cb 42 6c be
       0.24261191 -0.13266832 0.30490154 -0.23072354
000030 c1 bf 4f be 17 9f 52 3e 17 73 9a 3d 6a b5 ab 3d
       -0.20287992 0.205685 0.07541483 0.08384211
000040 67 5e a0 bd c6 fc be bc a7 0b 22 3d 92 ce 53 bd
       -0.07830506 -0.023313891 0.039561894 -0.051710673
000050 d1 df 24 3d c4 32 47 3d 80 a5 6e 3d 20 0d aa 3d
       0.04025251 0.0486324 0.0582633 0.08303285
000060 ad 0f c6 3d 58 db 76 3d 67 73 ca 3c 23 2c 7a 3e
       0.09670959 0.060267776 0.024713231 0.244309
000070 99 6c 61 3e 72 0b 46 3e be 74 5b 3e f6 fa 59 3e
       0.22014083 0.19340304 0.21431252 0.2128714
000080 28 9a 5a 3e 4d c9 3d 3e 83 79 40 3e 66 04 f2 3d
       0.21347868 0.18533821 0.18796353 0.11817245

model.qz_xy_mean.dense(qz_xy_mean)_layer_00.weight f4 [2, 2]
000000 bf 68 4f 3f 6a 8e 48 be 6f f6 8c bd d3 5b d2 be
       0.81019205 -0.19585577 -0.06882941 -0.4108568

model.qz_xy_mean.dense(qz_xy_mean)_layer_00.bias f4 [2]
000000 22 83 ce be c4 36 33 3f
       -0.4033442 0.7000544

model.qz_xy_logvar.dense(qz_xy_logvar)_layer_00.weight f4 [2, 2]
000000 6f 4e c9 bf 24 65 61 bf 63 86 84 bf 87 05 06 bf
       -1.5727061 -0.88044953 -1.0353512 -0.52352184

model.qz_xy_logvar.dense(qz_xy_logvar)_layer_00.bias f4 [2]
000000 dc e5 9f bc c8 47 9e bf
       -0.019518785 -1.2365656

model.py_t_probs.dense(py_t_probs)_layer_00.weight f4 [4, 2]
000000 08 79 60 3e 9f 18 15 be fb e1 62 3e 53 52 19 be
       0.2192117 -0.14560173 0.22156517 -0.1497281
000010 8b e5 6a 3e 44 c0 25 be 45 15 52 3e b0 2d fe bd
       0.22939126 -0.16186625 0.20515926 -0.12411058

model.py_t_probs.dense(py_t_probs)_layer_00.bias f4 [4]
000000 26 4d a2 bd 81 41 b6 bd ff 68 f4 bd 55 7a d6 bc
       -0.07924871 -0.08899213 -0.11934089 -0.02618138

model.pz_t_mean.dense(pz_t_mean)_layer_00.weight f4 [8, 2]
000000 a6 e3 78 3f 58 00 97 3d ff 6a 15 bd 9c a2 7f 3f
       0.97222364 0.073731124 -0.036478993 0.998575
000010 89 8c 78 3f 97 df 9f 3d 68 f8 12 bd 76 c5 7f 3f
       0.9708944 0.07806318 -0.03588143 0.99910676
000020 a3 01 79 3f ab 62 9b 3d 8d 7a 09 bd fe 29 80 3f
       0.9726812 0.07587179 -0.03356414 1.0012815
000030 b2 b4 78 3f 2a b4 9c 3d 0e d5 0c bd 46 92 7f 3f
       0.9715072 0.07651551 -0.034382872 0.9983257

model.pz_t_mean.dense(pz_t_mean)_layer_00.bias f4 [8]
000000 13 77 f5 3d 70 71 3b 3d 0e 67 03 3e 5d b8 2a 3d
       0.11985602 0.04576248 0.12832281 0.04167973
000010 a9 07 f7 3d 70 e2 33 3d 01 a8 fd 3d d4 7f 31 3d
       0.12062008 0.04391712 0.1238556 0.043334797

model.pz_t_logvar.dense(pz_t_logvar)_layer_00.weight f4 [2, 4]
000000 24 fd da bf c1 66 ec bf fb 78 0e c0 47 fe d9 bf
       -1.7108502 -1.8468858 -2.226134 -1.7030724
000010 3d c8 7d bf 42 a0 f7 bf 43 a2 ff bf 18 0d b8 bf
       -0.99133664 -1.9345782 -1.9971393 -1.4378996

model.pz_t_logvar.dense(pz_t_logvar)_layer_00.bias f4 [2]
000000 19 bf bd bf 30 81 e3 bf
       -1.4823943 -1.77738

model.decoder.dense(decoder)_layer_00.weight f4 [10, 2]
000000 ec 14 2d bf 99 d1 d2 bd 9c c1 1d 3f b1 fc 7e 3e
       -0.6761005 -0.10293884 0.6162355 0.24901082
000010 c5 44 2e 3f 35 53 a9 bc 45 b1 95 bd e3 a8 64 bf
       0.68073684 -0.020669559 -0.07309202 -0.893202
000020 14 ff 8d be 0c 73 7d 3f 0c 71 0b bf d3 b6 d0 be
       -0.27733672 0.9900367 -0.5446937 -0.40764484
000030 14 60 20 3f cf 32 45 bf 60 30 40 3f d5 84 9a be
       0.62646604 -0.7703065 0.75073814 -0.30179468
000040 ce b5 3d bf 27 3d 4d 3e 4d 28 6a 3e 74 1c 4e 3f
       -0.74105537 0.20042859 0.22866936 0.80512166

model.decoder.dense(decoder)_layer_00.bias f4 [10]
000000 88 05 3a 3f 63 c4 f2 be 89 56 5c bf fa ce 71 bf
       0.7266469 -0.47415456 -0.8606954 -0.94456446
000010 de 61 be 3f d1 d2 52 3e 88 c7 d5 bf 9a 88 a5 bf
       1.4873617 0.20588233 -1.6701517 -1.2932312
000020 8a bf 94 3f dd a8 25 3f
       1.1620953 0.6471079

inference.model.qy_x.dense(qy_x)_layer_00.weight f4 [4, 10]
000000 ba 80 bc bb 2b 5f 7a 3e 81 bd 1a be 1c 8c 8b 3c
       -0.00575265 0.24450366 -0.15111353 0.017034583
000010 0e 25 11 be 97 42 8e bd bc 32 12 3d 10 b2 ca 3d
       -0.14174291 -0.06946295 0.035692915 0.09897244
000020 e7 57 1e bd e3 73 14 3d 59 84 12 bc da 3b 7c 3e
       -0.03865805 0.03624333 -0.008942687 0.24632207
000030 94 a9 1a be ab 17 86 3c b4 96 06 be 67 27 b5 bd
       -0.15103751 0.016368708 -0.13143426 -0.08845406
000040 b6 af 52 3d 0b 48 a2 3d 98 ff 13 bd 90 10 9b 3c
       0.051437102 0.07923897 -0.036132425 0.018928796
000050 8e 80 72 3c 0c 71 89 3e c3 fa 19 be f7 95 8e 3c
       0.014801158 0.2684406 -0.15037064 0.017405493
000060 d0 c6 01 bd 21 82 7d bd e1 34 2f 3e 91 c4 11 3c
       -0.031683743 -0.06189168 0.17110015 0.008896963
000070 6d 85 93 bd 42 17 1c 3b af 84 ab bc 63 b6 66 3e
       -0.07203183 0.0023817574 -0.020937292 0.22530513
000080 2c a7 1b be 87 9e 74 3c 8e dc 75 be 10 56 0e be
       -0.1520049 0.014930374 -0.24009916 -0.13900018
000090 d0 0f 30 bd 4d 8d f2 3d 10 03 ed 3b 49 d7 49 3d
       -0.04298383 0.11843357 0.007233031 0.049277578

inference.model.qy_x.dense(qy_x)_layer_00.bias f4 [4]
000000 a0 8e dc bd f0 2f dd bd 37 e8 df bd e0 5d d9 bd
       -0.10769391 -0.10800159 -0.10932963 -0.10613608

inference.model.encoder.model.tcn_block_00.conv0.bias f4 [2]
000000 e0 b6 00 bf 59 fb 65 bc
       -0.50279045 -0.014036977

inference.model.encoder.model.tcn_block_00.conv0.weight_g f4 [2, 1, 1]
000000 2e 32 87 3f 0b 49 1b 3f
       1.0562189 0.6065833

inference.model.encoder.model.tcn_block_00.conv0.weight_v f4 [2, 14, 9]
000000 f9 b4 34 be 76 91 ec bd 7e 71 11 bd 57 84 8f 3c
       -0.1764716 -0.11551182 -0.035508625 0.01751916
000010 ce 37 12 3d ac 5d a8 3d 1c 60 ec 3d e5 82 0f 3e
       0.03569775 0.082209915 0.11541769 0.14014776
000020 fb 94 1d 3e 23 7b 2d 3e f9 72 e0 3d 0b df f2 3c
       0.15388863 0.16941504 0.10959429 0.02964737
000030 b4 44 3a ba 7f 51 62 bd 6f ed b8 bd 83 6d cc bd
       -0.00071055745 -0.055253502 -0.09029662 -0.09981825
000040 ad 98 ea bd e2 b5 05 be 47 3e 31 3e c5 0f c3 3d
       -0.11454902 -0.13057664 0.17308913 0.09524492
000050 8a 09 48 3d bc e6 94 ba b4 9b 36 bc ef cd 84 bd
       0.048837222 -0.0011360268 -0.011145521 -0.06484591
000060 da 8d 78 bd 58 b5 d3 bd 63 1a 27 be 64 a6 f6 bd
       -0.060682155 -0.10337323 -0.1631866 -0.12043455
000070 b2 4e 0e bc 19 ef 28 bc 04 3d fe bb 0c 5c a0 3c
       -0.008685755 -0.010310912 -0.0077587385 0.019575141
000080 b5 00 ae 3b f6 5b 12 bd 30 16 39 3d c3 77 73 3c
       0.005310143 -0.035732232 0.045187175 0.014860096
000090 40 2a ca bc 0c 05 f9 3c d3 0b b3 3c 7e 62 27 bd
       -0.02467835 0.030397914 0.021856224 -0.040865414
0000a0 0b d9 3b 3c 58 4f 94 3b 3e 9b 36 3c 69 8c e4 bb
       0.011465321 0.00452606 0.011145411 -0.006974746
0000b0 92 2f 8e 3c 1e 5d 1c be d4 b9 87 bd b9 64 a6 bc
       0.017356668 -0.15269896 -0.06627241 -0.0203117
0000c0 82 12 e6 3c a5 58 5d 3d e0 42 62 3d cf 2f a3 3d
       0.028084997 0.054039616 0.05523956 0.07968103
0000d0 7d 57 e5 3d 06 7e e2 3d ff 14 2e 3d 25 b3 0e 3d
       0.11198328 0.11059193 0.042500492 0.034838814
0000e0 58 8c 86 3d d8 a0 ff 3c 82 46 cf bc 0f 0b 1e bd
       0.06569737 0.031204626 -0.025302175 -0.038584765
0000f0 c6 54 9c bd 71 b4 60 bd 1c cc b3 bd d1 eb ee 3d
       -0.07633357 -0.054859582 -0.08779165 0.11666072
000100 c8 bf bf 3d e2 76 43 3d c0 84 e9 bb 6f 01 28 bc
       0.09362751 0.047720797 -0.0071264207 -0.010254248
000110 f9 5d a8 bd 14 d9 8a bd 21 54 cc bd 32 e8 2b be
       -0.08221049 -0.067796856 -0.09976984 -0.16787794
000120 b7 f9 22 be 89 ac d7 bd 44 37 1a bd f0 b3 8b 3a
       -0.15915571 -0.10530955 -0.03765036 0.0010658484
000130 96 18 ed 3c f1 58 9d 3d 17 eb a8 3d 7d bd 0b 3e
       0.028942388 0.0768298 0.08247965 0.13646503
000140 ad bf 20 3e 67 ad 81 3d b7 17 17 3d 54 a5 12 3b
       0.15698119 0.06331902 0.03688785 0.0022376375
000150 94 3d 2b bc 26 a9 2c bd 5e 70 16 bd cf 72 f7 bc
       -0.010451693 -0.0421535 -0.036728255 -0.030206112
000160 d0 c1 7e bd c1 86 4a bd 6d 12 b3 bd e4 68 ce bd
       -0.062196553 -0.049444918 -0.08743749 -0.100786
000170 b8 1d ce bd 32 3d d9 bd 4f 21 ce bd fb 89 bf bd
       -0.10064262 -0.10607375 -0.10064947 -0.093524896
000180 53 7b b9 bd 52 53 ba bd a3 c9 b7 bd c0 83 d2 bd
       -0.09056725 -0.09097923 -0.08974006 -0.102790356
000190 a9 90 f3 bd b7 58 e3 bd 86 1b b6 bd 16 4b cf bd
       -0.11892826 -0.111009054 -0.088919684 -0.101217434
0001a0 1d 1d e5 bd 23 0a ef bd a2 1b f6 bd d3 e9 f6 bd
       -0.111871935 -0.11671855 -0.12016989 -0.12056317
0001b0 68 c9 db bd 58 74 c4 bd 2f f1 be bd e0 4e f4 bd
       -0.107317746 -0.09592503 -0.09323346 -0.11929107
0001c0 ff 71 b6 bd f1 2b eb bd 6f 1c d9 bd e1 e8 e3 bd
       -0.08908462 -0.114829905 -0.106011264 -0.111284025
0001d0 3d 32 d2 bd 73 3e d8 bd b1 c1 f1 bd b4 2e f1 bd
       -0.102634884 -0.10558786 -0.11804522 -0.11776486
0001e0 1e 59 d3 bd 6d c3 ce bd 57 a0 de bd 00 5a bc bd
       -0.10319732 -0.10095868 -0.10870426 -0.09196854
0001f0 3b 50 ed bd 1b 1d d0 bd 50 d7 aa 3d 65 25 2e bd
       -0.11587568 -0.101618014 0.08341849 -0.04251613
000200 99 5c 92 3d 29 92 c3 3c 1a a1 af bd 57 f5 bc 3b
       0.07146568 0.023873406 -0.085756496 0.0057665515
000210 8c 29 75 bd 56 98 cb bd b0 c5 49 bd 8c 00 92 bd
       -0.059854075 -0.09941165 -0.049260795 -0.071290106
000220 dc 3c cb 3c 64 6f ca bc 36 f3 27 3d dc cb d9 3c
       0.024809293 -0.024711318 0.04100343 0.026586466
000230 9e 8f 8e 3d 50 54 9e 3d 0d 92 9f 3d 42 99 b8 3d
       0.069609866 0.07730925 0.07791529 0.090136066
000240 4e d2 53 bc b6 ff 92 3d 43 de 5d 3b c4 00 73 3c
       -0.0129285585 0.07177679 0.0033854402 0.0148317255
000250 cd 06 fa bc b8 01 a3 3d 20 1f 03 3c f5 59 a1 3d
       -0.030520821 0.07959312 0.008003026 0.07878486
000260 aa 00 63 3d 90 d6 02 3d 75 67 79 bd dc 77 eb 3c
       0.055420555 0.031942904 -0.06088968 0.028743677
000270 08 31 0e 3c d4 ef 1f 3d cd 39 35 bd 3a fe 42 bd
       0.008678682 0.039047077 -0.044244576 -0.04760573
000280 7f 62 a5 bd 05 45 ef bb 47 ef 94 bd 76 22 11 3d
       -0.08075427 -0.007301929 -0.07272201 0.035433255
000290 16 a8 f4 3a 2b 88 86 bc 05 84 f4 bb 21 f1 a6 bb
       0.0018665816 -0.016422352 -0.007462027 -0.005094663
0002a0 fb 9a 0a 3d 4d ed d8 3c e6 a4 5c 3d 46 9f 19 3d
       0.033839207 0.026480341 0.053868197 0.03750541
0002b0 0d 95 40 bd c0 28 c1 bc 7e 87 a1 3d 4e 3b 7a bd
       -0.047017146 -0.023579001 0.07887171 -0.061091714
0002c0 63 2e c4 bc 76 3c 2b 3c df d7 85 bd 99 10 c4 bd
       -0.0239479 0.010451427 -0.06535315 -0.09573478
0002d0 27 8b 22 bd 9b 42 97 3d cf 36 c6 bc 4e aa 83 3b
       -0.039683487 0.07385751 -0.024196057 0.0040181046
0002e0 86 ae df bb d1 84 28 bb 8b 1a 59 bb e5 62 57 3d
       -0.0068262247 -0.002571393 -0.0033127393 0.052584548
0002f0 d8 e0 28 bc c9 55 b7 3d 0b 34 93 3d fd 4a dc bc
       -0.010307513 0.08951909 0.07187661 -0.026891226
000300 c1 88 86 3d e0 35 a2 bc 2a 32 be 3c ea 86 8e 3d
       0.065690525 -0.01980108 0.02321728 0.069593266
000310 31 35 96 3d fb f0 df 3d 6b ad 28 bd 4f 34 1a bd
       0.07334364 0.10934635 -0.04118101 -0.03764754
000320 76 81 5a 3c de f6 ba bd 97 94 aa 3c 08 ea fd bd
       0.01333653 -0.091291174 0.020822806 -0.123981535
000330 2a de 41 bd 20 a0 97 bd 92 cb d8 bd 17 cd 0e bd
       -0.047331013 -0.07403588 -0.10585703 -0.034863558
000340 d7 b7 11 3d 66 05 31 bd ec 11 63 bd af ae 80 bc
       0.035575714 -0.04321804 -0.055437014 -0.015708296
000350 f5 8f 28 bd f1 7d 9b 3d 9c 6f 29 3d 89 67 5f 3d
       -0.041152913 0.07592381 0.041366205 0.0545421
000360 ce 69 96 3c b5 51 41 3e 73 e6 3d 3e 42 7c 41 3e
       0.018360998 0.18878825 0.1854494 0.18895057
000370 57 4e 3a 3e 33 21 bd 3d cd 4e e4 3d f1 14 38 3e
       0.18193947 0.09234848 0.111478426 0.17976739
000380 31 ba 42 3e 78 a1 36 3e 27 1f 50 3d 12 55 6d 3d
       0.19016339 0.17835033 0.05081096 0.057942457
000390 66 29 a8 bd 01 98 34 3e 27 0f c3 3c 79 80 8f bd
       -0.08211021 0.1763611 0.023810936 -0.07006926
0003a0 c1 a5 45 3e 98 eb 09 bc 57 00 12 3e 5c 91 38 3e
       0.19301511 -0.008417986 0.14257942 0.180242
0003b0 25 6b 24 3e 32 32 76 bc 48 59 5a bd a7 71 43 3e
       0.16056497 -0.015026616 -0.0533078 0.19086324
0003c0 58 0e 2d 3e 3a 05 45 3e cc f2 be 3d 5f 16 36 3e
       0.16900003 0.19240275 0.093236536 0.17781971
0003d0 01 4e f1 3d 80 a1 1a 3e 93 03 c0 bb f1 25 38 3e
       0.11782456 0.1510067 -0.005859801 0.17983223
0003e0 11 ba 36 3e 6a b5 19 3e d1 d1 f4 3d 6b 29 9c bb
       0.17844416 0.1501061 0.11954082 -0.0047656796

inference.model.encoder.model.tcn_block_00.conv1.bias f4 [2]
000000 9d 59 92 3d 76 53 2d 3f
       0.071459986 0.67705476

inference.model.encoder.model.tcn_block_00.conv1.weight_g f4 [2, 1, 1]
000000 90 5c d1 3e 78 d2 36 3f
       0.40890932 0.714149

inference.model.encoder.model.tcn_block_00.conv1.weight_v f4 [2, 2, 9]
000000 9d c6 04 3e 60 3d 01 be 60 b7 15 be ee 76 3a 3d
       0.1296639 -0.12621069 -0.14620733 0.045523576
000010 65 b9 23 be 98 09 88 3d 34 c9 1f 3d 22 c3 55 be
       -0.15988691 0.06642455 0.03901024 -0.20875219
000020 f7 bf 67 bc b9 10 1f 3e c3 17 f7 3d 3a 85 bc bc
       -0.014144889 0.15533723 0.12065079 -0.023012746
000030 39 fc 4d be 47 19 60 bd 83 7a 0f 3d 42 88 f2 bd
       -0.20115747 -0.054711606 0.035028946 -0.11842395
000040 72 6d a0 3c 9a f9 87 3d 3d 03 69 be 20 5a 5d be
       0.019583438 0.066394046 -0.22755142 -0.21616411
000050 e3 b9 64 be d4 1e 5a be 68 66 59 be 05 c3 54 be
       -0.22336535 -0.21300822 -0.21230471 -0.20777519
000060 4f 0b 66 be c6 d2 50 be 92 e6 6e bd 09 b8 f9 3c
       -0.22465251 -0.20392904 -0.058325358 0.030483263
000070 86 c7 87 3d 58 cc 43 3d e6 ef b0 3d 18 8e 3d bd
       0.06629853 0.0478023 0.08639507 -0.04627809
000080 78 ff dd bd 19 f6 eb bd c3 09 44 3e 0a 28 1e 3e
       -0.108397424 -0.11521549 0.19144349 0.15444961

inference.model.encoder.model.tcn_block_00.block.conv1d_layer_0.bias f4 [2]
000000 e0 b6 00 bf 59 fb 65 bc
       -0.50279045 -0.014036977

inference.model.encoder.model.tcn_block_00.block.conv1d_layer_0.weight_g f4 [2, 1, 1]
000000 2e 32 87 3f 0b 49 1b 3f
       1.0562189 0.6065833

inference.model.encoder.model.tcn_block_00.block.conv1d_layer_0.weight_v f4 [2, 14, 9]
000000 f9 b4 34 be 76 91 ec bd 7e 71 11 bd 57 84 8f 3c
       -0.1764716 -0.11551182 -0.035508625 0.01751916
000010 ce 37 12 3d ac 5d a8 3d 1c 60 ec 3d e5 82 0f 3e
       0.03569775 0.082209915 0.11541769 0.14014776
000020 fb 94 1d 3e 23 7b 2d 3e f9 72 e0 3d 0b df f2 3c
       0.15388863 0.16941504 0.10959429 0.02964737
000030 b4 44 3a ba 7f 51 62 bd 6f ed b8 bd 83 6d cc bd
       -0.00071055745 -0.055253502 -0.09029662 -0.09981825
000040 ad 98 ea bd e2 b5 05 be 47 3e 31 3e c5 0f c3 3d
       -0.11454902 -0.13057664 0.17308913 0.09524492
000050 8a 09 48 3d bc e6 94 ba b4 9b 36 bc ef cd 84 bd
       0.048837222 -0.0011360268 -0.011145521 -0.06484591
000060 da 8d 78 bd 58 b5 d3 bd 63 1a 27 be 64 a6 f6 bd
       -0.060682155 -0.10337323 -0.1631866 -0.12043455
000070 b2 4e 0e bc 19 ef 28 bc 04 3d fe bb 0c 5c a0 3c
       -0.008685755 -0.010310912 -0.0077587385 0.019575141
000080 b5 00 ae 3b f6 5b 12 bd 30 16 39 3d c3 77 73 3c
       0.005310143 -0.035732232 0.045187175 0.014860096
000090 40 2a ca bc 0c 05 f9 3c d3 0b b3 3c 7e 62 27 bd
       -0.02467835 0.030397914 0.021856224 -0.040865414
0000a0 0b d9 3b 3c 58 4f 94 3b 3e 9b 36 3c 69 8c e4 bb
       0.011465321 0.00452606 0.011145411 -0.006974746
0000b0 92 2f 8e 3c 1e 5d 1c be d4 b9 87 bd b9 64 a6 bc
       0.017356668 -0.15269896 -0.06627241 -0.0203117
0000c0 82 12 e6 3c a5 58 5d 3d e0 42 62 3d cf 2f a3 3d
       0.028084997 0.054039616 0.05523956 0.07968103
0000d0 7d 57 e5 3d 06 7e e2 3d ff 14 2e 3d 25 b3 0e 3d
       0.11198328 0.11059193 0.042500492 0.034838814
0000e0 58 8c 86 3d d8 a0 ff 3c 82 46 cf bc 0f 0b 1e bd
       0.06569737 0.031204626 -0.025302175 -0.038584765
0000f0 c6 54 9c bd 71 b4 60 bd 1c cc b3 bd d1 eb ee 3d
       -0.07633357 -0.054859582 -0.08779165 0.11666072
000100 c8 bf bf 3d e2 76 43 3d c0 84 e9 bb 6f 01 28 bc
       0.09362751 0.047720797 -0.0071264207 -0.010254248
000110 f9 5d a8 bd 14 d9 8a bd 21 54 cc bd 32 e8 2b be
       -0.08221049 -0.067796856 -0.09976984 -0.16787794
000120 b7 f9 22 be 89 ac d7 bd 44 37 1a bd f0 b3 8b 3a
       -0.15915571 -0.10530955 -0.03765036 0.0010658484
000130 96 18 ed 3c f1 58 9d 3d 17 eb a8 3d 7d bd 0b 3e
       0.028942388 0.0768298 0.08247965 0.13646503
000140 ad bf 20 3e 67 ad 81 3d b7 17 17 3d 54 a5 12 3b
       0.15698119 0.06331902 0.03688785 0.0022376375
000150 94 3d 2b bc 26 a9 2c bd 5e 70 16 bd cf 72 f7 bc
       -0.010451693 -0.0421535 -0.036728255 -0.030206112
000160 d0 c1 7e bd c1 86 4a bd 6d 12 b3 bd e4 68 ce bd
       -0.062196553 -0.049444918 -0.08743749 -0.100786
000170 b8 1d ce bd 32 3d d9 bd 4f 21 ce bd fb 89 bf bd
       -0.10064262 -0.10607375 -0.10064947 -0.093524896
000180 53 7b b9 bd 52 53 ba bd a3 c9 b7 bd c0 83 d2 bd
       -0.09056725 -0.09097923 -0.08974006 -0.102790356
000190 a9 90 f3 bd b7 58 e3 bd 86 1b b6 bd 16 4b cf bd
       -0.11892826 -0.111009054 -0.088919684 -0.101217434
0001a0 1d 1d e5 bd 23 0a ef bd a2 1b f6 bd d3 e9 f6 bd
       -0.111871935 -0.11671855 -0.12016989 -0.12056317
0001b0 68 c9 db bd 58 74 c4 bd 2f f1 be bd e0 4e f4 bd
       -0.107317746 -0.09592503 -0.09323346 -0.11929107
0001c0 ff 71 b6 bd f1 2b eb bd 6f 1c d9 bd e1 e8 e3 bd
       -0.08908462 -0.114829905 -0.106011264 -0.111284025
0001d0 3d 32 d2 bd 73 3e d8 bd b1 c1 f1 bd b4 2e f1 bd
       -0.102634884 -0.10558786 -0.11804522 -0.11776486
0001e0 1e 59 d3 bd 6d c3 ce bd 57 a0 de bd 00 5a bc bd
       -0.10319732 -0.10095868 -0.10870426 -0.09196854
0001f0 3b 50 ed bd 1b 1d d0 bd 50 d7 aa 3d 65 25 2e bd
       -0.11587568 -0.101618014 0.08341849 -0.04251613
000200 99 5c 92 3d 29 92 c3 3c 1a a1 af bd 57 f5 bc 3b
       0.07146568 0.023873406 -0.085756496 0.0057665515
000210 8c 29 75 bd 56 98 cb bd b0 c5 49 bd 8c 00 92 bd
       -0.059854075 -0.09941165 -0.049260795 -0.071290106
000220 dc 3c cb 3c 64 6f ca bc 36 f3 27 3d dc cb d9 3c
       0.024809293 -0.024711318 0.04100343 0.026586466
000230 9e 8f 8e 3d 50 54 9e 3d 0d 92 9f 3d 42 99 b8 3d
       0.069609866 0.07730925 0.07791529 0.090136066
000240 4e d2 53 bc b6 ff 92 3d 43 de 5d 3b c4 00 73 3c
       -0.0129285585 0.07177679 0.0033854402 0.0148317255
000250 cd 06 fa bc b8 01 a3 3d 20 1f 03 3c f5 59 a1 3d
       -0.030520821 0.07959312 0.008003026 0.07878486
000260 aa 00 63 3d 90 d6 02 3d 75 67 79 bd dc 77 eb 3c
       0.055420555 0.031942904 -0.06088968 0.028743677
000270 08 31 0e 3c d4 ef 1f 3d cd 39 35 bd 3a fe 42 bd
       0.008678682 0.039047077 -0.044244576 -0.04760573
000280 7f 62 a5 bd 05 45 ef bb 47 ef 94 bd 76 22 11 3d
       -0.08075427 -0.007301929 -0.07272201 0.035433255
000290 16 a8 f4 3a 2b 88 86 bc 05 84 f4 bb 21 f1 a6 bb
       0.0018665816 -0.016422352 -0.007462027 -0.005094663
0002a0 fb 9a 0a 3d 4d ed d8 3c e6 a4 5c 3d 46 9f 19 3d
       0.033839207 0.026480341 0.053868197 0.03750541
0002b0 0d 95 40 bd c0 28 c1 bc 7e 87 a1 3d 4e 3b 7a bd
       -0.047017146 -0.023579001 0.07887171 -0.061091714
0002c0 63 2e c4 bc 76 3c 2b 3c df d7 85 bd 99 10 c4 bd
       -0.0239479 0.010451427 -0.06535315 -0.09573478
0002d0 27 8b 22 bd 9b 42 97 3d cf 36 c6 bc 4e aa 83 3b
       -0.039683487 0.07385751 -0.024196057 0.0040181046
0002e0 86 ae df bb d1 84 28 bb 8b 1a 59 bb e5 62 57 3d
       -0.0068262247 -0.002571393 -0.0033127393 0.052584548
0002f0 d8 e0 28 bc c9 55 b7 3d 0b 34 93 3d fd 4a dc bc
       -0.010307513 0.08951909 0.07187661 -0.026891226
000300 c1 88 86 3d e0 35 a2 bc 2a 32 be 3c ea 86 8e 3d
       0.065690525 -0.01980108 0.02321728 0.069593266
000310 31 35 96 3d fb f0 df 3d 6b ad 28 bd 4f 34 1a bd
       0.07334364 0.10934635 -0.04118101 -0.03764754
000320 76 81 5a 3c de f6 ba bd 97 94 aa 3c 08 ea fd bd
       0.01333653 -0.091291174 0.020822806 -0.123981535
000330 2a de 41 bd 20 a0 97 bd 92 cb d8 bd 17 cd 0e bd
       -0.047331013 -0.07403588 -0.10585703 -0.034863558
000340 d7 b7 11 3d 66 05 31 bd ec 11 63 bd af ae 80 bc
       0.035575714 -0.04321804 -0.055437014 -0.015708296
000350 f5 8f 28 bd f1 7d 9b 3d 9c 6f 29 3d 89 67 5f 3d
       -0.041152913 0.07592381 0.041366205 0.0545421
000360 ce 69 96 3c b5 51 41 3e 73 e6 3d 3e 42 7c 41 3e
       0.018360998 0.18878825 0.1854494 0.18895057
000370 57 4e 3a 3e 33 21 bd 3d cd 4e e4 3d f1 14 38 3e
       0.18193947 0.09234848 0.111478426 0.17976739
000380 31 ba 42 3e 78 a1 36 3e 27 1f 50 3d 12 55 6d 3d
       0.19016339 0.17835033 0.05081096 0.057942457
000390 66 29 a8 bd 01 98 34 3e 27 0f c3 3c 79 80 8f bd
       -0.08211021 0.1763611 0.023810936 -0.07006926
0003a0 c1 a5 45 3e 98 eb 09 bc 57 00 12 3e 5c 91 38 3e
       0.19301511 -0.008417986 0.14257942 0.180242
0003b0 25 6b 24 3e 32 32 76 bc 48 59 5a bd a7 71 43 3e
       0.16056497 -0.015026616 -0.0533078 0.19086324
0003c0 58 0e 2d 3e 3a 05 45 3e cc f2 be 3d 5f 16 36 3e
       0.16900003 0.19240275 0.093236536 0.17781971
0003d0 01 4e f1 3d 80 a1 1a 3e 93 03 c0 bb f1 25 38 3e
       0.11782456 0.1510067 -0.005859801 0.17983223
0003e0 11 ba 36 3e 6a b5 19 3e d1 d1 f4 3d 6b 29 9c bb
       0.17844416 0.1501061 0.11954082 -0.0047656796

inference.model.encoder.model.tcn_block_00.block.conv1d_layer_1.bias f4 [2]
000000 9d 59 92 3d 76 53 2d 3f
       0.071459986 0.67705476

inference.model.encoder.model.tcn_block_00.block.conv1d_layer_1.weight_g f4 [2, 1, 1]
000000 90 5c d1 3e 78 d2 36 3f
       0.40890932 0.714149

inference.model.encoder.model.tcn_block_00.block.conv1d_layer_1.weight_v f4 [2, 2, 9]
000000 9d c6 04 3e 60 3d 01 be 60 b7 15 be ee 76 3a 3d
       0.1296639 -0.12621069 -0.14620733 0.045523576
000010 65 b9 23 be 98 09 88 3d 34 c9 1f 3d 22 c3 55 be
       -0.15988691 0.06642455 0.03901024 -0.20875219
000020 f7 bf 67 bc b9 10 1f 3e c3 17 f7 3d 3a 85 bc bc
       -0.014144889 0.15533723 0.12065079 -0.023012746
000030 39 fc 4d be 47 19 60 bd 83 7a 0f 3d 42 88 f2 bd
       -0.20115747 -0.054711606 0.035028946 -0.11842395
000040 72 6d a0 3c 9a f9 87 3d 3d 03 69 be 20 5a 5d be
       0.019583438 0.066394046 -0.22755142 -0.21616411
000050 e3 b9 64 be d4 1e 5a be 68 66 59 be 05 c3 54 be
       -0.22336535 -0.21300822 -0.21230471 -0.20777519
000060 4f 0b 66 be c6 d2 50 be 92 e6 6e bd 09 b8 f9 3c
       -0.22465251 -0.20392904 -0.058325358 0.030483263
000070 86 c7 87 3d 58 cc 43 3d e6 ef b0 3d 18 8e 3d bd
       0.06629853 0.0478023 0.08639507 -0.04627809
000080 78 ff dd bd 19 f6 eb bd c3 09 44 3e 0a 28 1e 3e
       -0.108397424 -0.11521549 0.19144349 0.15444961

inference.model.encoder.model.tcn_block_00.downsample.weight f4 [2, 14, 1]
000000 1f 7a 61 be ac 1b 15 3e f3 af 49 3e 15 6b 67 3d
       -0.22019242 0.14561337 0.19696026 0.056498606
000010 d6 0c 17 be d8 c6 dc bd 5e 1c 96 3e d0 d6 b5 3e
       -0.1475099 -0.10780114 0.29318517 0.3551545
000020 ca 27 9c be 7e 98 b6 bc 71 f4 ad 3f 38 a8 b0 3f
       -0.30499107 -0.02228951 1.3590223 1.3801336
000030 56 60 ac 3f 5b 8e b0 3f 5c 45 c4 3e 12 66 d9 be
       1.3466899 1.3793443 0.38334167 -0.42460686
000040 36 0e 15 be 18 32 1d 3f ef f2 20 bf 78 58 fb 3e
       -0.14556202 0.6140456 -0.6287069 0.49090934
000050 de bd 11 3f 2b 52 47 bb 57 08 f0 3d 88 ee 19 bf
       0.5693034 -0.0030413966 0.11720341 -0.60129595
000060 26 23 a5 3f 2a a0 a7 3f 87 76 a2 3f ff 2a a7 3f
       1.2901351 1.3095753 1.2692422 1.3059996

inference.model.encoder.model.tcn_block_00.downsample.bias f4 [2]
000000 2b 57 c2 3f 47 fa c5 3f
       1.5182852 1.5467004

inference.model.encoder.model.tcn_block_01.conv0.bias f4 [2]
000000 95 b1 45 3e d3 42 0a 3f
       0.19306023 0.54008216

inference.model.encoder.model.tcn_block_01.conv0.weight_g f4 [2, 1, 1]
000000 e2 ca 1d 3f e8 7a 51 3f
       0.616377 0.81828165

inference.model.encoder.model.tcn_block_01.conv0.weight_v f4 [2, 2, 9]
000000 e6 a8 a4 3e b1 8b a3 3e ec 1b d1 3d c5 27 f4 3d
       0.3216011 0.31942514 0.10210404 0.11921648
000010 71 a6 50 be 5c 84 6c bd e9 27 37 be 4c 7e 8f be
       -0.20375992 -0.057743415 -0.17886318 -0.28026044
000020 ee 58 85 be 7e 24 fc bd 1a b0 1c be 4c 3d 8c bc
       -0.2604441 -0.12311648 -0.15301552 -0.017119072
000030 cc 92 52 3d 2f 6d ab bd 67 89 34 3d cb d8 cc 3d
       0.051409528 -0.083704345 0.04407635 0.100022875
000040 b0 b1 13 3e f1 bc 80 bd 58 67 ac 3e 83 a7 18 3e
       0.14423251 -0.06286038 0.33672595 0.1490765
000050 d8 48 e1 bc ce 6a 87 3d ca 33 1c 3e 7f 0c 1b 3d
       -0.027500555 0.06612168 0.15254131 0.037853714
000060 95 d1 0e be 43 d3 34 be 65 a2 99 be 86 5d 9b 3d
       -0.13947137 -0.17658715 -0.3000671 0.075861976
000070 1f 80 be bd c9 1a 12 be be 8a a0 3b e1 6b be 3d
       -0.09301781 -0.1426803 0.004899352 0.0929792
000080 12 6e 3f be 4b c7 11 3e 0a 8f b1 3c 67 72 33 be
       -0.18694332 0.1423618 0.021674652 -0.1752411

inference.model.encoder.model.tcn_block_01.conv1.bias f4 [2]
000000 f0 5e 2f 3d 69 61 09 3e
       0.04281515 0.13416065

inference.model.encoder.model.tcn_block_01.conv1.weight_g f4 [2, 1, 1]
000000 41 a1 b8 3e 4c 2d 4f 3f
       0.36060527 0.8092849

inference.model.encoder.model.tcn_block_01.conv1.weight_v f4 [2, 2, 9]
000000 fa 52 00 be 37 4f 1d bc f0 5f 0d 3e fa 89 3f be
       -0.12531653 -0.009601406 0.13806129 -0.18704978
000010 8b 9a 28 3e 18 16 09 3e 65 20 1a 3e cc 74 32 be
       0.16465203 0.13387334 0.1505142 -0.17427367
000020 42 6f 78 3e 34 da 07 be 0e 1c 9c 3e cb 42 6c be
       0.24261191 -0.13266832 0.30490154 -0.23072354
000030 c1 bf 4f be 17 9f 52 3e 17 73 9a 3d 6a b5 ab 3d
       -0.20287992 0.205685 0.07541483 0.08384211
000040 67 5e a0 bd c6 fc be bc a7 0b 22 3d 92 ce 53 bd
       -0.07830506 -0.023313891 0.039561894 -0.051710673
000050 d1 df 24 3d c4 32 47 3d 80 a5 6e 3d 20 0d aa 3d
       0.04025251 0.0486324 0.0582633 0.08303285
000060 ad 0f c6 3d 58 db 76 3d 67 73 ca 3c 23 2c 7a 3e
       0.09670959 0.060267776 0.024713231 0.244309
000070 99 6c 61 3e 72 0b 46 3e be 74 5b 3e f6 fa 59 3e
       0.22014083 0.19340304 0.21431252 0.2128714
000080 28 9a 5a 3e 4d c9 3d 3e 83 79 40 3e 66 04 f2 3d
       0.21347868 0.18533821 0.18796353 0.11817245

inference.model.encoder.model.tcn_block_01.block.conv1d_layer_0.bias f4 [2]
000000 95 b1 45 3e d3 42 0a 3f
       0.19306023 0.54008216

inference.model.encoder.model.tcn_block_01.block.conv1d_layer_0.weight_g f4 [2, 1, 1]
000000 e2 ca 1d 3f e8 7a 51 3f
       0.616377 0.81828165

inference.model.encoder.model.tcn_block_01.block.conv1d_layer_0.weight_v f4 [2, 2, 9]
000000 e6 a8 a4 3e b1 8b a3 3e ec 1b d1 3d c5 27 f4 3d
       0.3216011 0.31942514 0.10210404 0.11921648
000010 71 a6 50 be 5c 84 6c bd e9 27 37 be 4c 7e 8f be
       -0.20375992 -0.057743415 -0.17886318 -0.28026044
000020 ee 58 85 be 7e 24 fc bd 1a b0 1c be 4c 3d 8c bc
       -0.2604441 -0.12311648 -0.15301552 -0.017119072
000030 cc 92 52 3d 2f 6d ab bd 67 89 34 3d cb d8 cc 3d
       0.051409528 -0.083704345 0.04407635 0.100022875
000040 b0 b1 13 3e f1 bc 80 bd 58 67 ac 3e 83 a7 18 3e
       0.14423251 -0.06286038 0.33672595 0.1490765
000050 d8 48 e1 bc ce 6a 87 3d ca 33 1c 3e 7f 0c 1b 3d
       -0.027500555 0.06612168 0.15254131 0.037853714
000060 95 d1 0e be 43 d3 34 be 65 a2 99 be 86 5d 9b 3d
       -0.13947137 -0.17658715 -0.3000671 0.075861976
000070 1f 80 be bd c9 1a 12 be be 8a a0 3b e1 6b be 3d
       -0.09301781 -0.1426803 0.004899352 0.0929792
000080 12 6e 3f be 4b c7 11 3e 0a 8f b1 3c 67 72 33 be
       -0.18694332 0.1423618 0.021674652 -0.1752411

inference.model.encoder.model.tcn_block_01.block.conv1d_layer_1.bias f4 [2]
000000 f0 5e 2f 3d 69 61 09 3e
       0.04281515 0.13416065

inference.model.encoder.model.tcn_block_01.block.conv1d_layer_1.weight_g f4 [2, 1, 1]
000000 41 a1 b8 3e 4c 2d 4f 3f
       0.36060527 0.8092849

inference.model.encoder.model.tcn_block_01.block.conv1d_layer_1.weight_v f4 [2, 2, 9]
000000 fa 52 00 be 37 4f 1d bc f0 5f 0d 3e fa 89 3f be
       -0.12531653 -0.009601406 0.13806129 -0.18704978
000010 8b 9a 28 3e 18 16 09 3e 65 20 1a 3e cc 74 32 be
       0.16465203 0.13387334 0.1505142 -0.17427367
000020 42 6f 78 3e 34 da 07 be 0e 1c 9c 3e cb 42 6c be
       0.24261191 -0.13266832 0.30490154 -0.23072354
000030 c1 bf 4f be 17 9f 52 3e 17 73 9a 3d 6a b5 ab 3d
       -0.20287992 0.205685 0.07541483 0.08384211
000040 67 5e a0 bd c6 fc be bc a7 0b 22 3d 92 ce 53 bd
       -0.07830506 -0.023313891 0.039561894 -0.051710673
000050 d1 df 24 3d c4 32 47 3d 80 a5 6e 3d 20 0d aa 3d
       0.04025251 0.0486324 0.0582633 0.08303285
000060 ad 0f c6 3d 58 db 76 3d 67 73 ca 3c 23 2c 7a 3e
       0.09670959 0.060267776 0.024713231 0.244309
000070 99 6c 61 3e 72 0b 46 3e be 74 5b 3e f6 fa 59 3e
       0.22014083 0.19340304 0.21431252 0.2128714
000080 28 9a 5a 3e 4d c9 3d 3e 83 79 40 3e 66 04 f2 3d
       0.21347868 0.18533821 0.18796353 0.11817245

inference.model.qz_xy_mean.dense(qz_xy_mean)_layer_00.weight f4 [2, 2]
000000 bf 68 4f 3f 6a 8e 48 be 6f f6 8c bd d3 5b d2 be
       0.81019205 -0.19585577 -0.06882941 -0.4108568

inference.model.qz_xy_mean.dense(qz_xy_mean)_layer_00.bias f4 [2]
000000 22 83 ce be c4 36 33 3f
       -0.4033442 0.7000544

inference.model.qz_xy_logvar.dense(qz_xy_logvar)_layer_00.weight f4 [2, 2]
000000 6f 4e c9 bf 24 65 61 bf 63 86 84 bf 87 05 06 bf
       -1.5727061 -0.88044953 -1.0353512 -0.52352184

inference.model.qz_xy_logvar.dense(qz_xy_logvar)_layer_00.bias f4 [2]
000000 dc e5 9f bc c8 47 9e bf
       -0.019518785 -1.2365656

inference.model.py_t_probs.dense(py_t_probs)_layer_00.weight f4 [4, 2]
000000 08 79 60 3e 9f 18 15 be fb e1 62 3e 53 52 19 be
       0.2192117 -0.14560173 0.22156517 -0.1497281
000010 8b e5 6a 3e 44 c0 25 be 45 15 52 3e b0 2d fe bd
       0.22939126 -0.16186625 0.20515926 -0.12411058

inference.model.py_t_probs.dense(py_t_probs)_layer_00.bias f4 [4]
000000 26 4d a2 bd 81 41 b6 bd ff 68 f4 bd 55 7a d6 bc
       -0.07924871 -0.08899213 -0.11934089 -0.02618138

inference.model.pz_t_mean.dense(pz_t_mean)_layer_00.weight f4 [8, 2]
000000 a6 e3 78 3f 58 00 97 3d ff 6a 15 bd 9c a2 7f 3f
       0.97222364 0.073731124 -0.036478993 0.998575
000010 89 8c 78 3f 97 df 9f 3d 68 f8 12 bd 76 c5 7f 3f
       0.9708944 0.07806318 -0.03588143 0.99910676
000020 a3 01 79 3f ab 62 9b 3d 8d 7a 09 bd fe 29 80 3f
       0.9726812 0.07587179 -0.03356414 1.0012815
000030 b2 b4 78 3f 2a b4 9c 3d 0e d5 0c bd 46 92 7f 3f
       0.9715072 0.07651551 -0.034382872 0.9983257

inference.model.pz_t_mean.dense(pz_t_mean)_layer_00.bias f4 [8]
000000 13 77 f5 3d 70 71 3b 3d 0e 67 03 3e 5d b8 2a 3d
       0.11985602 0.04576248 0.12832281 0.04167973
000010 a9 07 f7 3d 70 e2 33 3d 01 a8 fd 3d d4 7f 31 3d
       0.12062008 0.04391712 0.1238556 0.043334797

inference.model.pz_t_logvar.dense(pz_t_logvar)_layer_00.weight f4 [2, 4]
000000 24 fd da bf c1 66 ec bf fb 78 0e c0 47 fe d9 bf
       -1.7108502 -1.8468858 -2.226134 -1.7030724
000010 3d c8 7d bf 42 a0 f7 bf 43 a2 ff bf 18 0d b8 bf
       -0.99133664 -1.9345782 -1.9971393 -1.4378996

inference.model.pz_t_logvar.dense(pz_t_logvar)_layer_00.bias f4 [2]
000000 19 bf bd bf 30 81 e3 bf
       -1.4823943 -1.77738

inference.model.decoder.dense(decoder)_layer_00.weight f4 [10, 2]
000000 ec 14 2d bf 99 d1 d2 bd 9c c1 1d 3f b1 fc 7e 3e
       -0.6761005 -0.10293884 0.6162355 0.24901082
000010 c5 44 2e 3f 35 53 a9 bc 45 b1 95 bd e3 a8 64 bf
       0.68073684 -0.020669559 -0.07309202 -0.893202
000020 14 ff 8d be 0c 73 7d 3f 0c 71 0b bf d3 b6 d0 be
       -0.27733672 0.9900367 -0.5446937 -0.40764484
000030 14 60 20 3f cf 32 45 bf 60 30 40 3f d5 84 9a be
       0.62646604 -0.7703065 0.75073814 -0.30179468
000040 ce b5 3d bf 27 3d 4d 3e 4d 28 6a 3e 74 1c 4e 3f
       -0.74105537 0.20042859 0.22866936 0.80512166
